weights/model_critic_target_50.pt (torch, 431175 bytes, 9 tensors)

l1.weight f4 [300, 42]
0	0x3ea672de	0.32509512
1	0x3cc5e64b	0.024157664
2	0x3de4c081	0.1116953
3	0x3e67c968	0.22635424
4	0x3e3194c5	0.17341907
5	0xbcd9f539	-0.02660619
6	0x3ef8540c	0.48501623
7	0x401cea6c	2.451808
8	0xbe0d977f	-0.13827322
9	0xc016fb28	-2.3590794
10	0x3ea30923	0.31842908
11	0x3e3be601	0.18349458
12	0x3e1e4d73	0.15459232
13	0xbe95ce74	-0.29259074
14	0x40038915	2.0552418
15	0xbf1edfa5	-0.62060004
16	0xbf7702b2	-0.9648849
17	0x3c3ad97d	0.011404392
18	0xbf74bde4	-0.9560225
19	0x3f75ec0c	0.96063304
20	0x3d9fdbd7	0.07805603
21	0xbed85ec3	-0.42259797
22	0xbee7077d	-0.451229
23	0x3e471b73	0.19444065
24	0x3e1bf892	0.15231541
25	0xbfa594fa	-1.2936089
26	0x3d96994b	0.07353457
27	0x3f598ffc	0.8498533
28	0xbf0770c0	-0.5290642
29	0x3f1a17c5	0.6019252
30	0xbe1477a5	-0.14498766
31	0xbe6490b0	-0.22320819
32	0xc0760b93	-3.8444564
33	0xbfd7468e	-1.6818407
34	0x3e22afa9	0.15887322
35	0x40124038	2.2851696
36	0xbf11007e	-0.56641376
37	0xbeb0007f	-0.34375378
38	0xbf51463d	-0.817478
39	0x3e69febf	0.22851084
40	0x3d4fbf1d	0.05071937
41	0x3f309492	0.689767
42	0x3e5ccf2f	0.2156341
43	0x3c874a84	0.016515024
44	0x3e8a43d1	0.27004865
45	0xbeff6a26	-0.49885672
46	0x3da03cea	0.078241184
47	0x3e4954a3	0.19661193
48	0xbe016928	-0.1263777
49	0xbf5b8ac2	-0.857586
50	0xbef1c528	-0.4722073
51	0x3e140c4b	0.14457814
52	0x3d715956	0.058923088
53	0xbe0e7c27	-0.13914548
54	0x3c86e12f	0.016464798
55	0xbe0e81ab	-0.13916652
56	0x3edf0040	0.43554878
57	0xbef896df	-0.48552606
58	0x3f556f56	0.8337301
59	0x3fc69425	1.551396
60	0xbf4e34cd	-0.8054932
61	0xbf670a3d	-0.9025
62	0xbe4e75b6	-0.2016209
63	0x3eb13b23	0.3461543
64	0xbe3ee728	-0.18642867
65	0x3c384204	0.011246208
66	0x3e1a026c	0.15039986
67	0x3eaf234e	0.34206623
68	0x3eee59cd	0.46552888
69	0x3fb7c738	1.4357672
70	0xbdfd0b5a	-0.12355681
71	0x3f0520b6	0.5200304
72	0xbf6f6997	-0.9352049
73	0xbf523ca0	-0.82123756
74	0x40e6193a	7.1905794
75	0xbff1b24c	-1.8882537
76	0x3d2e0e85	0.042494316
77	0xc042fbe2	-3.0466237
78	0x403da798	2.963354
79	0x3f9888f9	1.1916801
80	0x3f2f59a0	0.6849613
81	0xbf533d40	-0.82515335
82	0x3d6277f2	0.05529017
83	0x3e2fc815	0.17166169
84	0x3ebffe70	0.37498808
85	0xbe00883f	-0.12551974
86	0x3e410eee	0.18853351
87	0x3e62533a	0.22102061
88	0x3eb0615d	0.34449282
89	0xbcd0c385	-0.025483856
90	0x3f0b35b1	0.543788
91	0xbee91513	-0.4552389
92	0xbe821285	-0.25404754
93	0xbf656be2	-0.8961774
94	0x3eb4251d	0.35184565
95	0xbd354773	-0.044257592
96	0x3f0be04b	0.5463912
97	0xbefb1a1e	-0.49043363
98	0xbf35bc98	-0.70990896
99	0xbef7dbb0	-0.48409796
100	0xbf48cbe3	-0.78436106
101	0x3ed25f3d	0.41088286
102	0xbf2144c2	-0.6299554
103	0x3f908af6	1.1292408
104	0xbe5e465b	-0.21706526
105	0xbe02c775	-0.127714
106	0xbf25908f	-0.64673704
107	0x3ea232b1	0.316793
108	0x3e99e7b0	0.30059576
109	0xbfde5c53	-1.7371925
110	0xbf1681fe	-0.587921
111	0xbfabf4cf	-1.3434085
112	0xbf3936c9	-0.7234922
113	0xbee89ea7	-0.45433542
114	0x3ead122a	0.3380292
115	0x3eb37ba7	0.35055277
116	0xc09c2a3b	-4.880155
117	0x407a1939	3.9077895
118	0x3e995387	0.2994654
119	0x3fbdf7f8	1.4841299
120	0xbe9e47cb	-0.3091415
121	0xbcb84836	-0.02249537
122	0xbeb7051d	-0.3574609
123	0x3f240acc	0.64078975
124	0xbfb3d63c	-1.4049754
125	0x3eff90b2	0.4991508
126	0x3ecd1f9b	0.40063176
127	0xbdf8be40	-0.12145662
128	0x3e05a4fe	0.13051221
129	0x3e3122a0	0.17298365
130	0x3ec31bf0	0.38107252
131	0xbd2ae47f	-0.041721817
132	0x3f138327	0.57622
133	0xbf078b03	-0.5294649
134	0xbe835a86	-0.25655
135	0xbf6b6811	-0.9195567
136	0x3ebb3abb	0.36568245
137	0x3d98c251	0.07458938
138	0x3f0e5e10	0.5561228
139	0xbf02423a	-0.50882304
140	0xbf252d30	-0.64522076
141	0xbf068130	-0.52540874
142	0xbf3f8ed3	-0.7482731
143	0x3ec15502	0.37760168
144	0xbf29759c	-0.6619508
145	0x3f95d7d8	1.1706495
146	0xbe0655f7	-0.1311873
147	0xbdd7c793	-0.10536113
148	0xbf1ed530	-0.6204405
149	0x3e9bd320	0.30434513
150	0x3e9b672f	0.3035216
151	0xbfdcc5c5	-1.7247854
152	0xbf062c73	-0.52411574
153	0xbfa5bd71	-1.2948438
154	0xbf46d549	-0.776692
155	0xbef34945	-0.47516838
156	0x3ea339f0	0.3188014
157	0x3edd1460	0.43179607
158	0xc09fb929	-4.9913526
159	0x408141d3	4.039285
160	0x3e81f487	0.25381872
161	0x3fbb75c1	1.4645311
162	0xbe8613e7	-0.2618706
163	0xbc413922	-0.011793407
164	0xbeb310fe	-0.34973902
165	0x3f1a55a3	0.6028692
166	0xbfb96b0a	-1.4485791
167	0x3eef578c	0.4674648
168	0x3e687a7f	0.22702979
169	0x3ea45ba2	0.3210116
170	0x3ebd1284	0.3692819
171	0x3f55182a	0.83239996
172	0x3e0ce349	0.13758577
173	0xbd011311	-0.031512324
174	0x3f103f61	0.5634671
175	0x3dc88db2	0.09792651
176	0xbd6fc4fd	-0.058537472
177	0x3e8620c5	0.26196876
178	0x3e3464a1	0.17616512
179	0xbf1db242	-0.61600125
180	0x3da1eff7	0.07907098
181	0xbcc53334	-0.024072267
182	0xbdae51b9	-0.08511681
183	0xbfde5bb6	-1.7371738
184	0x402682e5	2.6017392
185	0x3f30a531	0.6900206
186	0xbf3e3eb4	-0.7431443
187	0xbfecfda1	-1.8514901
188	0xc0279e9a	-2.6190553
189	0x3fbb8d6a	1.4652531
190	0x3ea285d3	0.31742725
191	0x3ca16648	0.019702092
192	0x3df93054	0.12167421
193	0x3f503f42	0.81346524
194	0x3fa87c77	1.3162984
195	0xbed9006a	-0.42383128
196	0xbf0184bf	-0.5059318
197	0x3f55c215	0.8349927
198	0xbe587380	-0.2113781
199	0xbecd13b1	-0.40054086
200	0xbfef7969	-1.8708926
201	0xc054d863	-3.3257072
202	0x3d6d2f68	0.05790654
203	0xbeb5c325	-0.35500446
204	0xbfe9af52	-1.8256629
205	0x3e8e1e5a	0.2775753
206	0xbf3cb264	-0.737097
207	0x400d2f0a	2.205996
208	0x3fe1d241	1.7642289
209	0xbe05bf9d	-0.13061376
210	0x3eaa3154	0.3324076
211	0xbe2260df	-0.15857266
212	0x3e0ecc18	0.13945043
213	0x3e32b0e9	0.17450298
214	0x3eb85e18	0.36009288
215	0xbd1b3544	-0.037892595
216	0x3f09ed0e	0.5387734
217	0xbedf4a79	-0.43611506
218	0xbe722cb9	-0.23649873
219	0xbf6a59ec	-0.9154346
220	0x3eda2f35	0.4261414
221	0x3dae3053	0.08505311
222	0x3f1ef4a7	0.6209206
223	0xbefcdf41	-0.4938908
224	0xbf3aae69	-0.7292238
225	0xbf126d03	-0.5719759
226	0xbf52c1d0	-0.82326984
227	0x3ee2ded4	0.4431063
228	0xbf2de2a6	-0.67923963
229	0x3f9bb4df	1.2164572
230	0xbe21372d	-0.15743704
231	0xbe14abd6	-0.14518675
232	0xbf20de07	-0.62838787
233	0x3e9c6f87	0.3055384
234	0x3eb58a72	0.35457188
235	0xbfde7850	-1.7380466
236	0xbf08d88b	-0.5345542
237	0xbfa59aa3	-1.2937816
238	0xbf4bcfee	-0.7961415
239	0xbed46a03	-0.4148713
240	0x3ead330e	0.33828014
241	0x3eb1a227	0.34694025
242	0xc09f606b	-4.98052
243	0x40775214	3.8643847
244	0x3e60ec94	0.21965247
245	0x3fb6bbfe	1.4276121
246	0xbe82bf9b	-0.25536808
247	0xbca8005f	-0.02050799
248	0xbeb9ac40	-0.3626423
249	0x3f10a885	0.5650714
250	0xbfbac0ae	-1.4590051
251	0x3ef60050	0.48047113
252	0x3dcafe53	0.0991179
253	0x3f54afce	0.83080757
254	0x3eb48a30	0.3526168
255	0xbca1ad05	-0.019735822

l1.bias f4 [300]
0	0x3e5541a7	0.20825826
1	0xbdd2987d	-0.10282991
2	0x3ddc58e5	0.10759143
3	0x3de90d8d	0.11379538
4	0x3d22dc8a	0.039761104
5	0x3e39ab99	0.18131866
6	0xbd975f16	-0.07391183
7	0x3e494d15	0.1965831
8	0x3e55f6af	0.20894884
9	0x3e137d58	0.14403284
10	0x3d9950d9	0.074861236
11	0x3dd81e91	0.10552705
12	0x3db96153	0.09051766
13	0x3ef54c8d	0.47909966
14	0x3d93b8e5	0.07213
15	0x3d90d067	0.070709996
16	0x3ed04c75	0.40683332
17	0xba3cb193	-0.00071980915
18	0x3d984141	0.07434321
19	0x3c239144	0.0099833645
20	0x3ca7c24f	0.020478396
21	0x3e86e19f	0.2634401
22	0x3d8098dc	0.062791556
23	0x3e42632d	0.18983145
24	0x3e006822	0.12539724
25	0x3e7e4018	0.24829137
26	0x3e91248c	0.28348196
27	0xbd787966	-0.06066265
28	0x3d890fe6	0.066924855
29	0x3d8305bd	0.06397579
30	0x3e89aad4	0.26888144
31	0x3dd89c60	0.10576701
32	0x3d9e32d4	0.077245384
33	0x3e948dda	0.29014474
34	0xbe0a1766	-0.13485488
35	0x3da1c9d1	0.078998215
36	0x3dd4f8a4	0.10398987
37	0x3dfdf8b2	0.124009505
38	0x3e9bd138	0.3043306
39	0x3dbc7a5b	0.09203025
40	0x3e25ac34	0.16178972
41	0x3e321a95	0.17392953
42	0x3e543514	0.20723373
43	0xbcd69fb2	-0.026199196
44	0x3e5b170e	0.21395513
45	0x3ec57c29	0.3857129
46	0x3e8338fb	0.2562941
47	0x3e087712	0.13326672
48	0x3e47be4b	0.19506185
49	0x3e0e853f	0.13918017
50	0x3d1d3ad9	0.0383862
51	0x3e88f3de	0.26748556
52	0x3d4856ad	0.048910785
53	0x3dc0dd16	0.09417169
54	0x3e94667b	0.28984436
55	0x3ecacfbc	0.39611614
56	0x3e242017	0.16027866
57	0xbdb46311	-0.08807958
58	0xbc1afe5d	-0.009460059
59	0x3e650b4e	0.22367594
60	0x3e424b5f	0.18974064
61	0x3c1bcf68	0.009509899
62	0x3e0a50e2	0.13507417
63	0x3c74f0a2	0.014949949
64	0x3dc62801	0.09675599
65	0x3e82aa02	0.2552033
66	0x3e60e664	0.21962887
67	0x3dfd7f82	0.12377836
68	0x3e94c817	0.29058906
69	0x3e6aac5a	0.2291731
70	0x3e569e5e	0.2095885
71	0x3e9a2560	0.3010664
72	0x3ba64bae	0.0050749397
73	0x3e314f7b	0.17315476
74	0x3e44a7df	0.19204663
75	0x3ddc0fa4	0.10745171
76	0x3e4b734b	0.198682
77	0x3e733c51	0.23753478
78	0x3e05f2cc	0.13080901
79	0xbd34cdc2	-0.04414154
80	0x3eae155d	0.34000674
81	0x3e8e47f6	0.27789277
82	0x3e0533ea	0.13008085
83	0x3e05ff8a	0.13085762
84	0x3e842dab	0.25816092
85	0x3cf03e95	0.029326716
86	0x3e249ffa	0.16076651
87	0x3ddc85e8	0.10767728
88	0x3db1a784	0.08674529
89	0x3dbd36e8	0.09238988
90	0x3ef507ae	0.47857422
91	0x3e1061f9	0.14099874
92	0x3dd21c91	0.10259355
93	0x3e64daa0	0.22349024
94	0x3e6686c4	0.22512347
95	0x3dd4e15c	0.103945464
96	0x3e2c0b38	0.16801155
97	0x3e3d916a	0.18512502
98	0x3e50a3dd	0.20375009
99	0x3e5db6ee	0.21651813
100	0x3e7f2453	0.249162
101	0x3ebfaeff	0.374382
102	0x3a047945	0.0005053471
103	0x3e5fdae8	0.2186085
104	0x3c63f89c	0.013914254
105	0x3e90801b	0.28222737
106	0x3e26c96b	0.16287772
107	0x3dfae0c7	0.12249904
108	0x3e40bc42	0.18821815
109	0x3dd12e3d	0.102138974
110	0x3e59a127	0.21252881
111	0x3e2d3da0	0.1691804
112	0x3da17c7a	0.0788507
113	0x3e9b3449	0.30313328
114	0x3e92a76a	0.28643352
115	0x3e56aab5	0.20963557
116	0x3d9770c2	0.07394554
117	0x3e3de479	0.18544187
118	0x3ea859e1	0.32881072
119	0x3eef5db5	0.4675118
120	0x3e7ad226	0.24494228
121	0x3e0860ab	0.13318126
122	0x3e87042d	0.26370373
123	0x3e3af5aa	0.18257776
124	0x3e14830b	0.14503114
125	0x3da5f59b	0.08103486
126	0x3d78e874	0.06076856
127	0x3dffed86	0.12496476
128	0x3deb1294	0.11478153
129	0x3e5ab062	0.21356347
130	0x3e9d35f5	0.30705228
131	0x3ca9c874	0.020725466
132	0x3e391c6f	0.18077253
133	0x3e088953	0.13333635
134	0x3eabfcd1	0.3359132
135	0x3ef690c7	0.4815733
136	0x3dfe14cd	0.12406311
137	0x3ebdb8ce	0.37055057
138	0x3df8b21d	0.121433474
139	0x3dd3cb10	0.103414655
140	0x3e449eea	0.19201246
141	0x3e27dc62	0.16392663
142	0x3e8d3de1	0.27586272
143	0xbb311e79	-0.002702622
144	0x3e90ae4e	0.28257984
145	0x3ea09ca8	0.3136952
146	0xbdb2e01b	-0.08734151
147	0x3f273c80	0.6532669
148	0x3e1e3b7f	0.15452383
149	0x3e48dfd7	0.19616638
150	0x3e3fc60a	0.1872789
151	0x3ce3e504	0.027819164
152	0x3e4c258f	0.19936202
153	0x3d92033c	0.07129523
154	0x3e45ed99	0.19328918
155	0x3e51feec	0.20507401
156	0x3ec696e1	0.38786986
157	0x3e24ff83	0.16113095
158	0x3d0f57e9	0.034995947
159	0x3e981cd2	0.29709488
160	0x3e79396a	0.24338308
161	0x3ea881d0	0.3291154
162	0x3e1dbe71	0.15404679
163	0x3e03a708	0.12856686
164	0x3e424f20	0.18975496
165	0x3e4db86a	0.2008988
166	0x3d830e82	0.063992515
167	0x3df130df	0.117768995
168	0x3c360011	0.011108414
169	0xbd961e6f	-0.073300235
170	0xbdd7d509	-0.1053868
171	0x3e26b879	0.16281308
172	0x3e9d6ae8	0.30745625
173	0x3eb59268	0.35463262
174	0x3e321cd7	0.17393814
175	0x3e1a0704	0.15041739
176	0x3ea5b10b	0.32361636
177	0x3e8eaca3	0.27866086
178	0x3e3e3d7c	0.18578142
179	0x3eb575b0	0.3544135
180	0x3de7658c	0.112986654
181	0x3e544d9c	0.2073273
182	0x3e30ff55	0.17284901
183	0x3e818a50	0.25300837
184	0x3e2728db	0.16324179
185	0x3e5a4f26	0.21319255
186	0x3e89e12c	0.26929605
187	0x3e2e4ccc	0.17021483
188	0x3e9e51c5	0.3092176
189	0x3e109fd0	0.14123464
190	0x3e156181	0.14587976
191	0x3de4a68e	0.1116458
192	0x3e356022	0.17712453
193	0x3e71458d	0.23561688
194	0x3df8f87a	0.12156768
195	0x3e250669	0.16115727
196	0x3e7df5dd	0.2480082
197	0xbcb62c6f	-0.022237984
198	0x3dd2032e	0.10254513
199	0xb9a436e2	-0.00031321408
200	0x3e12b37f	0.14326285
201	0xbdb0aedf	-0.08627104
202	0x3d1c89e4	0.03821744
203	0x3e611a85	0.21982773
204	0x3dfe9067	0.12429886
205	0x3df6e78d	0.120558836
206	0x3e72448d	0.23658963
207	0x3d0828b2	0.033241935
208	0x3e851cfe	0.25998682
209	0x3de2a3f1	0.110664256
210	0x3e332cc7	0.1749755
211	0x3d500185	0.0507827
212	0x3e1981bf	0.149909
213	0x3e75ff94	0.24023277
214	0x3e1d5b9d	0.15366979
215	0x3ebdafba	0.3704813
216	0x3ebe97b9	0.3722513
217	0x3e988654	0.29789984
218	0x3e0660d1	0.1312287
219	0x3e1e9cc1	0.15489484
220	0x3e6e7ba1	0.23289348
221	0x3ccc59da	0.024945188
222	0x3baf8599	0.0053565023
223	0xbe500699	-0.20315017
224	0x3e1fa63e	0.1559076
225	0xbd59944e	-0.05311995
226	0x3d1d1235	0.03834744
227	0x3de5093f	0.11183404
228	0x3e3b7ce1	0.18309356
229	0x3db3902a	0.087677315
230	0x3e806adb	0.25081524
231	0x3de54316	0.11194436
232	0xbd069168	-0.032853514
233	0x3e789435	0.24275286
234	0xbc81b587	-0.01583363
235	0x3e4a1d1c	0.19737667
236	0x3d1676f3	0.036734533
237	0x3e187887	0.14889728
238	0x3eca3984	0.39497006
239	0x3e66a8c6	0.2252532
240	0x3e9018cd	0.28143921
241	0x3df7e791	0.12104715
242	0x3e1219dc	0.14267677
243	0x3e9a901b	0.3018807
244	0xba21ea08	-0.0006176536
245	0x3ddba266	0.107243344
246	0x3ed01f73	0.40648994
247	0x3e260b41	0.1621523
248	0x3d2bae3c	0.04191421
249	0x3dcd782e	0.10032688
250	0x3e17544e	0.14778253
251	0xbc0b692f	-0.008508964
252	0x3e0c6137	0.1370896
253	0x3c4ebb49	0.012617894
254	0x3da9e145	0.0829492
255	0x3eab919a	0.33509523

bn1.weight f4 [300]
0	0x3f8e850a	1.113435
1	0x3f953ba5	1.1658827
2	0x3ec0bf68	0.3764603
3	0x3ec47950	0.38373804
4	0x3fe4dee1	1.7880517
5	0x3e957c65	0.29196468
6	0x3fc2ba5b	1.5213121
7	0x3eb0f6c7	0.34563276
8	0x3e497f40	0.19677448
9	0x3eaca6de	0.3372106
10	0x3fd5b286	1.6695106
11	0x3fa8c4c4	1.3185048
12	0x3f35ba8d	0.7098778
13	0x3ff21172	1.8911574
14	0x3fbb3843	1.4626545
15	0x3fc57c9b	1.5428652
16	0x4021fdcb	2.5311153
17	0x3f1080ae	0.5644635
18	0x3fa6a016	1.3017604
19	0x3f9afdf0	1.2108746
20	0x3fb48faa	1.4106343
21	0x3efda304	0.49538434
22	0x3f8b69e0	1.0891685
23	0x3f5865f4	0.8453057
24	0x3f1cc2d1	0.61234766
25	0x4035a59c	2.838233
26	0x3f8c47a7	1.0959367
27	0x40150e13	2.328984
28	0x3fcb9798	1.5905638
29	0x3f8e158f	1.1100329
30	0x3fc074cd	1.5035645
31	0x3ebd4657	0.36967728
32	0x3fbbe4c3	1.4679188
33	0x3f948c13	1.1605247
34	0x3f69817c	0.912132
35	0x3fef8503	1.8712467
36	0x3ff5619f	1.9170417
37	0x3e9e61bd	0.30933943
38	0x3fd969ff	1.6985472
39	0x4003266a	2.0492196
40	0x40217575	2.522794
41	0x3facf3e6	1.3511932
42	0x3f9cd76b	1.225324
43	0x3fefb643	1.8727497
44	0x3f67496a	0.90346396
45	0x3fded9ae	1.741018
46	0x3eb0f78f	0.34563872
47	0x3eb181d7	0.34669372
48	0x400ac3e5	2.1682065
49	0x3ea63286	0.3246042
50	0x3ffeb18d	1.9897934
51	0x4003177a	2.048308
52	0x402404fe	2.5628047
53	0x3fd33f32	1.6503661
54	0x3faf09f5	1.3674914
55	0x3fe5deaa	1.7958577
56	0x3ec1d1a0	0.37855244
57	0x3f83ade1	1.0287439
58	0x3f985aee	1.190275
59	0x40234943	2.5513465
60	0x3fce1a0e	1.6101701
61	0x3f6a05c1	0.9141503
62	0x3eadd856	0.33954114
63	0x3f8d9e9b	1.1064028
64	0x3f302c6c	0.6881778
65	0x3f8dea40	1.1087112
66	0x3e71fce3	0.23631625
67	0x3f38b8ed	0.72157174
68	0x3f8ff20c	1.1245742
69	0x3f4e46de	0.80576885
70	0x3f8d7e94	1.1054254
71	0x3ea629ee	0.32453865
72	0x3f56a2d5	0.8384221
73	0x4012bba8	2.2927036
74	0x3ebea137	0.37232372
75	0x401c8410	2.4455605
76	0x3f64d9c5	0.8939479
77	0x3f526b72	0.821952
78	0x3ea99106	0.33118457
79	0x3f93117f	1.1489714
80	0x3f85d134	1.0454469
81	0x3fd95be6	1.698117
82	0x401c6fa4	2.444314
83	0x3eb753af	0.35806033
84	0x3ec85fc0	0.3913555
85	0x3ffe38dd	1.9861103
86	0x3eb8250f	0.35965773
87	0x3eaaefce	0.3338608
88	0x3fbfa0b2	1.4970915
89	0x3eb2a607	0.34892294
90	0x406524d4	3.5803728
91	0x3f78892e	0.9708432
92	0x3f460a8e	0.77359855
93	0x3fbcf0a7	1.4760941
94	0x3ff6eed9	1.929164
95	0x4039b18e	2.901462
96	0x3f92640d	1.1436783
97	0x3f91a1f7	1.1377553
98	0x3e8653ec	0.26235902
99	0x3eb1059f	0.345746
100	0x3ff3f7b4	1.9059968
101	0x4014b8dc	2.323783
102	0x4016348f	2.346958
103	0x3fa64d1d	1.2992283
104	0x3fec8f5d	1.8481251
105	0x40048751	2.070759
106	0x4000dcb3	2.0134704
107	0x3eb2b1bf	0.34901235
108	0x3f9134b3	1.1344208
109	0x3ebb7bbf	0.36617848
110	0x3f917475	1.1363665
111	0x3eb044a7	0.34427378
112	0x400517e1	2.0795825
113	0x3e6fff82	0.23437312
114	0x3f8ed25c	1.1157947
115	0x3ebafdf7	0.36521885
116	0x3fd37570	1.6520214
117	0x3fbb5b16	1.4637172
118	0x3f821184	1.0161595
119	0x406e5a85	3.7242749
120	0x3fba81a9	1.4570819
121	0x3e9f5005	0.31115738
122	0x402d88df	2.711479
123	0x3e8bc73c	0.2730044
124	0x3eb00c67	0.34384462
125	0x3f9319ec	1.1492286
126	0x3f70f1d1	0.9411898
127	0x3f9262ed	1.143644
128	0x3e9fa6bd	0.311819
129	0x3eb9e89f	0.36310288
130	0x402417cc	2.5639524
131	0x3f9a6993	1.2063469
132	0x3e9eca6d	0.31013814
133	0x3eb52ce7	0.3538582
134	0x3ec05208	0.37562585
135	0x4012af98	2.2919674
136	0x4031de58	2.7791958
137	0x3fe61f32	1.797827
138	0x3eb9015f	0.3613386
139	0x3fff8b42	1.9964373
140	0x400e88a4	2.22709
141	0x3ea26f3e	0.31725496
142	0x3fc68fe2	1.551266
143	0x3f7eb315	0.9949201
144	0x401fdb79	2.4977705
145	0x3fa69829	1.3015186
146	0x3f6c2a3d	0.9225195
147	0x40584679	3.3793013
148	0x402cbfce	2.6992068
149	0x3fa704a1	1.3048288
150	0x3ec537f0	0.3851924
151	0x3f46e559	0.77693707
152	0x3fc9f2e1	1.5777246
153	0x402c1bf9	2.6892073
154	0x40070dec	2.1102247
155	0x3eae386e	0.34027427
156	0x4008d652	2.138081
157	0x3eb4e2af	0.35329196
158	0x3f933103	1.1499332
159	0x3f45f8e1	0.77332884
160	0x3ff09a88	1.8797159
161	0x3f68ac8c	0.90888286
162	0x3fb36b83	1.4017185
163	0x3eb71917	0.3576133
164	0x4021903a	2.524428
165	0x3ea4d2f6	0.321922
166	0x3fa53462	1.2906611
167	0x3eb3e0df	0.351325
168	0x3f6cb134	0.9245789
169	0x3fc5a728	1.5441637
170	0x3fa3fb4c	1.2811065
171	0x3fd5bda9	1.6698505
172	0x3fc6c8a2	1.5529978
173	0x402b6cc4	2.6785135
174	0x40245713	2.5678146
175	0x3e96eb95	0.2947661
176	0x3f5fa2e4	0.87357926
177	0x3fc80183	1.5625461
178	0x3fedde7c	1.8583522
179	0x3fd12a29	1.6340991
180	0x3f2571ac	0.64626575
181	0x3fd00043	1.625008
182	0x3ffc2eb3	1.9701751
183	0x3fdad3c7	1.7095879
184	0x3e880afc	0.2657088
185	0x3eb94877	0.361881
186	0x3f9a18af	1.2038783
187	0x3e57f279	0.2108859
188	0x3eadf606	0.33976763
189	0x3fc42ce9	1.5326205
190	0x3f591e36	0.84811723
191	0x3f7e11c0	0.99245834
192	0x3fdd6424	1.7296185
193	0x3eb5389f	0.3539476
194	0x3fa5da1b	1.2957186
195	0x4019e48d	2.4045746
196	0x4006dbcc	2.1071653
197	0x3fef8d44	1.8714986
198	0x3ebbe78f	0.36700103
199	0x3fb603b1	1.4219877
200	0x3ea7ca56	0.32771558
201	0x3fbffeb8	1.4999609
202	0x3f7e13d7	0.99249023
203	0x3f99d9bb	1.2019571
204	0x3ea6573e	0.32488436
205	0x3e8aeed4	0.27135336
206	0x3fbf689e	1.4953802
207	0x401184cb	2.27373
208	0x3fdda9f1	1.7317487
209	0x3e906865	0.28204647
210	0x40009682	2.0091863
211	0x3f8ca481	1.0987703
212	0x3eb222c7	0.34792158
213	0x3f971199	1.1802245
214	0x3f8cd658	1.1002913
215	0x3eb9e7d7	0.36309692
216	0x3f637901	0.8885651
217	0x3fb58df1	1.4183942
218	0x3e9b3dd5	0.30320612
219	0x3f8e3e72	1.1112807
220	0x3ff1fda7	1.8905534
221	0x3fddab12	1.7317832
222	0x40195ff8	2.3964825
223	0x3fd569ac	1.6672873
224	0x3fa70e65	1.3051268
225	0x3faf3b5d	1.3689991
226	0x3fe4a15d	1.7861744
227	0x3ead9206	0.3390047
228	0x401f1907	2.4859025
229	0x4007a14a	2.1192193
230	0x402785e5	2.6175473
231	0x3eaf245e	0.34207433
232	0x3f7b89bc	0.9825704
233	0x3fc5a782	1.5441744
234	0x3ff1667d	1.8859402
235	0x3f9c078a	1.2189801
236	0x3fd05d4d	1.6278473
237	0x3fe10ac0	1.7581406
238	0x3ff82020	1.9384804
239	0x3eb9781f	0.36224458
240	0x3eabf7de	0.33587545
241	0x3ea45cfe	0.32102197
242	0x3ec30250	0.38087702
243	0x3ff36c93	1.9017509
244	0x3f90d86c	1.1316047
245	0x400dbc91	2.2146342
246	0x3f7254c2	0.9466058
247	0x3f8f7b5f	1.1209525
248	0x400acc3e	2.168716
249	0x3ff5906b	1.9184698
250	0x3fbaaf57	1.458476
251	0x3fb550ed	1.4165322
252	0x3f8515ab	1.0397238
253	0x40054669	2.0824225
254	0x3ff8c4ef	1.9435099
255	0x3ec142a8	0.37746167

bn1.bias f4 [300]
0	0xbefb83bc	-0.49123943
1	0xbdc28c1a	-0.094993785
2	0xbf2700c7	-0.6523556
3	0xbf1f17c6	-0.6214565
4	0xbe986c30	-0.2977004
5	0xbf1cdb1e	-0.61271846
6	0xbe2f7b07	-0.17136775
7	0xbf1b8fde	-0.607664
8	0xbf343798	-0.7039733
9	0xbf309070	-0.68970394
10	0xbe42a4b2	-0.19008139
11	0xbea0a51c	-0.31375968
12	0xbf1e6760	-0.6187649
13	0x3ca1ae4b	0.01973643
14	0xbe3e7c5c	-0.18602127
15	0xbf3934c9	-0.7234617
16	0x3f039924	0.5140555
17	0xbe9ea8c5	-0.30988136
18	0xbebbdb93	-0.3669096
19	0xbe3ea552	-0.18617752
20	0xbf524729	-0.8213983
21	0xbe3e28fe	-0.18570325
22	0xbf4f8c7b	-0.8107373
23	0xbe60828f	-0.21924804
24	0xbeda5050	-0.426394
25	0xbc92f8fc	-0.01794099
26	0xbeb0e821	-0.345521
27	0xbe68b96d	-0.22726984
28	0xbe121350	-0.1426518
29	0xbf08f1f1	-0.53494173
30	0xbe58d2c8	-0.21174157
31	0xbf1c005e	-0.6093806
32	0xbea07e86	-0.3134653
33	0xbe8a9dcf	-0.27073523
34	0xbf5e7051	-0.8689013
35	0xbe521063	-0.20514064
36	0xbf33fc36	-0.7030672
37	0xbf254b47	-0.6456799
38	0xbeebf459	-0.4608486
39	0x3d923a5a	0.07140036
40	0xbed6c863	-0.41949758
41	0xbf67bd60	-0.9052334
42	0xbc853959	-0.016262697
43	0xbf450279	-0.769569
44	0xbe9b9a41	-0.30391124
45	0xbf39ea78	-0.72623396
46	0xbf147776	-0.5799478
47	0xbf171cce	-0.5902833
48	0x3e350758	0.17678583
49	0xbf15c50e	-0.58503807
50	0xbebc2894	-0.3674971
51	0x3f35c61d	0.7100542
52	0xbf041145	-0.5158885
53	0x3e50abbd	0.20378013
54	0x3c297d23	0.010344776
55	0xbeee443d	-0.46536437
56	0xbf144e0e	-0.579316
57	0xbe42bedf	-0.19018124
58	0x3d09389c	0.033501253
59	0x3e942ea1	0.28941825
60	0xbefe5498	-0.49673915
61	0xbf0770b6	-0.5290636
62	0xbf1c4456	-0.6104177
63	0xbee35395	-0.44399706
64	0xbe37185e	-0.17880389
65	0xbe9cd68d	-0.3063244
66	0xbf287ecf	-0.65818495
67	0xbf1b0790	-0.60558414
68	0xbf13119c	-0.57448745
69	0xbeb52186	-0.3537714
70	0xbe420192	-0.18945912
71	0xbf096a8d	-0.5367821
72	0xbdf2e19b	-0.11859437
73	0x3d8abfa3	0.06774833
74	0xbf1cc606	-0.6123966
75	0xbe691d6c	-0.2276513
76	0xbe89c364	-0.26906884
77	0x3c8617dd	0.0163688
78	0xbf249927	-0.6429619
79	0xbe8c419b	-0.27393803
80	0xbf13e269	-0.5776735
81	0x3db1cbfc	0.08681485
82	0xbf2100ef	-0.6289205
83	0xbf16038e	-0.58599174
84	0xbf21b6df	-0.63169664
85	0xbf192c86	-0.5983356
86	0xbf247dcf	-0.6425447
87	0xbf176ed6	-0.591535
88	0xbf0c679d	-0.548456
89	0xbf17f91e	-0.593645
90	0x3f294fb0	0.6613722
91	0xbeb46c1d	-0.35238734
92	0xbf0233f1	-0.50860506
93	0xbdc092eb	-0.094030224
94	0xbd882f87	-0.0664969
95	0x3e816005	0.2526857
96	0xbf183a0f	-0.5946359
97	0xbeda14bf	-0.42593953
98	0xbf1ca9e6	-0.61196744
99	0xbf0fcf45	-0.56175643
100	0xbf301d13	-0.68794364
101	0xbe37dc5b	-0.17955153
102	0xbe91182f	-0.28338763
103	0xbf8c521d	-1.0962559
104	0xbeb9035d	-0.36135378
105	0xbf0bc198	-0.54592276
106	0xbf6d84bb	-0.92780656
107	0xbf195656	-0.59897363
108	0xbf37616c	-0.7163303
109	0xbf1bf0be	-0.6091422
110	0xbf0e3ff1	-0.55566317
111	0xbf0f7315	-0.56034976
112	0xbe80ebc4	-0.25179875
113	0xbef8a274	-0.48561442
114	0x3dfbce71	0.12295235
115	0xbf1c3d4e	-0.61031044
116	0xbf3bffbc	-0.73437095
117	0xbecf21fa	-0.4045561
118	0xbed7c52b	-0.42142615
119	0x3e0d2f02	0.13787463
120	0xbf457ae8	-0.77140665
121	0xbf24840f	-0.64264005
122	0xbde8bd3e	-0.1136422
123	0xbf3c7048	-0.7360883
124	0xbf1a7f36	-0.6035036
125	0xbf0818c2	-0.5316278
126	0xbf836391	-1.026476
127	0xbe0d5b8e	-0.13804457
128	0xbf1cc9ee	-0.6124562
129	0xbf20bf37	-0.6279177
130	0x3f50bf08	0.8154149
131	0xbf70c6ec	-0.9405353
132	0xbf23661f	-0.638277
133	0xbf14a016	-0.5805677
134	0xbf15787e	-0.5838698
135	0x3e5ba4c1	0.21449567
136	0x3e9fdff7	0.3122556
137	0x3d5b5db2	0.05355615
138	0xbf20911f	-0.6272144
139	0xbef86096	-0.4851119
140	0xbf036ac5	-0.5133479
141	0xbf13b8d6	-0.5770391
142	0xbe3159da	-0.17319432
143	0xbf8a4c70	-1.0804577
144	0xbe5bb9c7	-0.21457587
145	0xbe24ab5f	-0.16080998
146	0xbf1fc3c2	-0.6240808
147	0x3f7de8e3	0.9918348
148	0xbf3c1725	-0.73472816
149	0xbf35542e	-0.70831573
150	0xbf1ed496	-0.6204313
151	0xbf29e428	-0.66363764
152	0xbe8bf8d3	-0.27338275
153	0xbe5aeb54	-0.21378833
154	0xbf2ca2cf	-0.67435926
155	0xbf15af2e	-0.5847043
156	0xbd782069	-0.060577784
157	0xbf1e4a4e	-0.6183213
158	0x3d2c9ff4	0.04214473
159	0xbeb38433	-0.35061797
160	0xbed69888	-0.41913247
161	0xbf4530a2	-0.7702733
162	0xbf55458c	-0.83309245
163	0xbf12d0ce	-0.5734986
164	0xbe0192a6	-0.12653598
165	0xbf09fd6d	-0.5390232
166	0xbf66d0e1	-0.90162474
167	0xbf129c76	-0.5726999
168	0xbf502c0c	-0.8131721
169	0xbea9ed5c	-0.33188903
170	0xbf24e00f	-0.64404386
171	0xbe95e9ba	-0.29279882
172	0x3ecd40dd	0.4008855
173	0xbe41756e	-0.18892452
174	0x3e381f29	0.17980637
175	0xbf0a008d	-0.5390709
176	0xbede327d	-0.43397895
177	0xbed0714e	-0.40711445
178	0xbe88c94f	-0.26716086
179	0xbeb98fcc	-0.3624252
180	0xbe7674d8	-0.2406801
181	0xbeb842bf	-0.35988423
182	0xbed6fd9d	-0.41990367
183	0x3da6c6de	0.081434
184	0xbf2daa3f	-0.678379
185	0xbf1d568e	-0.61460197
186	0x3e519ae2	0.2046924
187	0xbf2dbe8f	-0.67868894
188	0xbf1b7de6	-0.6073898
189	0xbe168778	-0.14700115
190	0xbe99d7aa	-0.3004735
191	0xbe7a50fd	-0.24444957
192	0xbefa9c41	-0.48947337
193	0xbf153d1e	-0.5829638
194	0xbd27a335	-0.04092713
195	0x3df600d4	0.12011877
196	0xbd933856	-0.071884796
197	0xbf288a70	-0.6583624
198	0xbf13365e	-0.5750483
199	0xbf4b2d44	-0.79365945
200	0xbf154cbe	-0.58320224
201	0x3e365565	0.17806013
202	0xbed727d3	-0.4202257
203	0x3db58b6c	0.08864483
204	0xbf11c59e	-0.56942165
205	0xbf204f7f	-0.626213
206	0xbf4d11e3	-0.8010542
207	0xbdcedbbe	-0.10100506
208	0x3d7a90fc	0.061173424
209	0xbf1e9616	-0.6194776
210	0xbd9b3280	-0.075779915
211	0xbea4dd4a	-0.3220008
212	0xbf2398e7	-0.63905185
213	0xbf05c987	-0.5226063
214	0xbf07dcde	-0.5307139
215	0xbf18a04e	-0.59619606
216	0xbe07e2ba	-0.13270083
217	0x3f076460	0.52887535
218	0xbf0743c5	-0.52837783
219	0xbdf5260f	-0.1197015
220	0xbda8e5e9	-0.08246977
221	0x3e44cedb	0.19219534
222	0xbeeb2a5b	-0.45930752
223	0xbf521136	-0.8205751
224	0xbec4e740	-0.3845768
225	0xbe263a98	-0.16233289
226	0x3dc99244	0.09842351
227	0xbf1f5a2e	-0.6224698
228	0x3ccf1427	0.025278164
229	0xbf238cfb	-0.63886994
230	0xbe8773ff	-0.26455685
231	0xbf17ae1e	-0.59250057
232	0xbf28f054	-0.6599171
233	0x3ead11f0	0.33802748
234	0x3d69c61a	0.05707369
235	0xbf5941d0	-0.84866047
236	0xbeec1f4d	-0.4611763
237	0xbedd0d14	-0.4317404
238	0x3e0d6acd	0.13810273
239	0xbf194846	-0.59875906
240	0xbf0b81b5	-0.5449479
241	0xbf1b40f6	-0.60646
242	0xbf27338f	-0.6531305
243	0x3be7a739	0.007069495
244	0xbed6260d	-0.41825905
245	0xbe7122e1	-0.23548461
246	0xbeb937b7	-0.3617532
247	0xbf907cbe	-1.1288068
248	0xbeaccf77	-0.33752033
249	0xbf077c89	-0.529244
250	0x3e09f614	0.13472778
251	0xbedc77ee	-0.4306025
252	0xbf110edc	-0.566633
253	0xbf18d891	-0.59705454
254	0xbe90bc15	-0.28268495
255	0xbf22d0e7	-0.6360001

l2.weight f4 [300, 308]
0	0xbe254d9e	-0.1614289
1	0xbeaff484	-0.34366238
2	0xbd7a798a	-0.061151065
3	0xbd1c884e	-0.038215928
4	0x3f04510e	0.5168618
5	0xbcb09f47	-0.021560324
6	0x3e91a1e0	0.28443813
7	0xbd10f056	-0.035385452
8	0x3de765f3	0.11298742
9	0x3defab22	0.11702563
10	0xbeb74d8d	-0.35801354
11	0xbdc0a99b	-0.0940735
12	0xbebbd6b0	-0.3668723
13	0x3f53b071	0.82691103
14	0x3ea409f9	0.3203886
15	0x3d653887	0.05596211
16	0xbe9b6361	-0.30349258
17	0x3ea4689f	0.3211107
18	0x3ef823f7	0.4846494
19	0x3f56ba7e	0.83878314
20	0xbf4325a8	-0.76229334
21	0xbdc55da7	-0.096370034
22	0xbf167897	-0.58777755
23	0x3e068da7	0.13139974
24	0x3f0b7ffa	0.5449215
25	0x3ebbebb7	0.36703274
26	0xbfa66979	-1.3000938
27	0x3f54f3b2	0.8318435
28	0x3f0a0c18	0.53924704
29	0xbfa6334d	-1.2984406
30	0xbf81da46	-1.0144737
31	0x3c158c05	0.009127622
32	0xbfcb2c16	-1.5872829
33	0xbeda7f68	-0.42675328
34	0x3ecc6d1f	0.39927003
35	0xbf2c1d75	-0.6723245
36	0x3f4643da	0.77447283
37	0x3cb0fab0	0.021603912
38	0xbf5ee5f2	-0.8706962
39	0x3f4bf4a0	0.79670143
40	0xbf49f1a0	-0.78884315
41	0x3f738167	0.9511933
42	0x3f54e264	0.83157945
43	0x3e857650	0.26066828
44	0xbe5f0697	-0.21779858
45	0x3fa52305	1.2901312
46	0x3d89ee95	0.06734959
47	0x3d775a53	0.060388874
48	0x3f3a0749	0.72667366
49	0xbcfcf3ec	-0.03087803
50	0xbe962555	-0.29325357
51	0x3f941464	1.1568723
52	0x3fa40bde	1.2816122
53	0x3ee7ed97	0.45298454
54	0x3f86427d	1.0489041
55	0xbf34f382	-0.70684063
56	0x3deb7cd2	0.11498417
57	0xbf287fb7	-0.6581988
58	0x3e93437f	0.28762433
59	0xbdc4e078	-0.096131265
60	0x3f625845	0.8841594
61	0x3e3d3fe0	0.18481398
62	0x3ca7cf06	0.020484459
63	0x3be34736	0.0069359792
64	0xbdad9301	-0.084753044
65	0xbee77518	-0.45206523
66	0x3e1a5f2e	0.1507537
67	0x3f05db01	0.522873
68	0x3f3fa959	0.7486778
69	0xbf70533e	-0.9387702
70	0xbf2c8985	-0.6739734
71	0xbd6f465b	-0.058416706
72	0xbce6f196	-0.028191369
73	0xbfd85313	-1.6900352
74	0x3c2f808f	0.010711803
75	0x3ea774d6	0.32706326
76	0xbe9755d8	-0.2955768
77	0xbec7ddbe	-0.39036363
78	0x3c14bcfd	0.009078261
79	0x3c2fecb9	0.010737591
80	0xbf35d6cf	-0.71030897
81	0x3e6e0131	0.23242642
82	0xbf1da8ab	-0.6158549
83	0x3e559cd1	0.20860602
84	0x3c67e933	0.01415472
85	0xbde01316	-0.1094114
86	0xbc7c1094	-0.015384812
87	0x3d87d835	0.06633035
88	0x3de6a804	0.11262515
89	0xbdf9a763	-0.121901296
90	0x3e68d65c	0.22738022
91	0x3d358636	0.044317447
92	0xbe5fc5f3	-0.21852855
93	0x3c5393a7	0.012913621
94	0xbe18708b	-0.14886682
95	0x3f696f3c	0.91185355
96	0x3f9686c2	1.1759875
97	0xbc693874	-0.014234651
98	0x3cc52b70	0.024068564
99	0x3d7f4803	0.062324535
100	0xbe6a5be0	-0.2288661
101	0xbefeab8b	-0.49740252
102	0x3e15bed5	0.14623578
103	0xbf19a66a	-0.6001955
104	0x3eb703ea	0.35745174
105	0x3f3a7be0	0.7284527
106	0xbecf9aa8	-0.4054768
107	0xbe06a5f4	-0.13149244
108	0xbef27bd4	-0.47360098
109	0xbdd66ca2	-0.10469939
110	0x3f476129	0.7788263
111	0x3d1c7e26	0.038206242
112	0xbf53053f	-0.8242988
113	0xbe507d19	-0.20360221
114	0xbf8da25d	-1.1065174
115	0xbdbccf97	-0.09219282
116	0xbef75171	-0.48304322
117	0x3e65a257	0.22425209
118	0x3f55e2af	0.83549017
119	0xbe59a9ce	-0.21256182
120	0xbef84cd7	-0.48496124
121	0x3db89978	0.09013647
122	0x3caeb186	0.021324884
123	0x3cb92b8f	0.022603778
124	0xbd8ea27d	-0.06964586
125	0xbba702c6	-0.005096766
126	0x3f080393	0.53130454
127	0xbfc61b98	-1.5477171
128	0x3df0def3	0.11761274
129	0xbe24bddf	-0.16088055
130	0xbefb157f	-0.49039838
131	0x3e93500b	0.28772005
132	0x3de89e73	0.11358347
133	0x3d683c02	0.056697853
134	0x3debc25a	0.11511679
135	0xbf07449d	-0.5283907
136	0x3e4db802	0.20089725
137	0x3d780acb	0.060557168
138	0xbd09ef5d	-0.03367554
139	0xbf23dbf4	-0.64007497
140	0x3e72afef	0.23699926
141	0xbd893c75	-0.067009844
142	0xbdf65bcb	-0.12029227
143	0xbe956e4c	-0.29185712
144	0x3f5db6e6	0.86607206
145	0xbeb5cd7b	-0.35508332
146	0x3f38cd7a	0.7218853
147	0x3e592aff	0.21207808
148	0x3bcbd869	0.0062208665
149	0xbd1d51fc	-0.038408265
150	0xbe2ac7f7	-0.16677843
151	0xbfa6b3ca	-1.3023617
152	0xbf12394a	-0.57118666
153	0x3f80cb53	1.006205
154	0xbf967cbd	-1.1756817
155	0xbe61766b	-0.22017829
156	0xbf92a589	-1.1456767
157	0xbee54313	-0.44777736
158	0x3f287cd3	0.65815467
159	0xbf1edbf5	-0.6205438
160	0xbf11c3df	-0.569395
161	0x3f5246cc	0.8213928
162	0xbe744b85	-0.23856933
163	0xbd8dc94c	-0.0692316
164	0xbfcb21c9	-1.5869685
165	0xbcaf9e3e	-0.02143776
166	0x3f2e964a	0.6819807
167	0xbd9e4b15	-0.077291645
168	0x3f27db09	0.65568596
169	0x3ef10a2a	0.47078067
170	0xbd91c85a	-0.07118292
171	0xbf0fc92d	-0.56166345
172	0xbe2a7033	-0.16644363
173	0x3f1c39d6	0.6102575
174	0x3edf21cf	0.4358048
175	0x3d00d674	0.03145452
176	0x3f0d6fb1	0.5524855
177	0x3e47c095	0.19507058
178	0xbfa3db19	-1.2801238
179	0x3f107be6	0.56439054
180	0x3e823788	0.25432992
181	0xbf2665de	-0.64999187
182	0xbe9cc7e0	-0.30621243
183	0x3f7e9453	0.99445075
184	0x3ce6ae5a	0.02815931
185	0x3e521999	0.20517577
186	0x3ee72c0e	0.451508
187	0x395e3d69	0.00021194447
188	0x3cc28550	0.023745209
189	0xbf4a60e3	-0.7905409
190	0xbe6cb938	-0.2311753
191	0x3ea2af79	0.317745
192	0xbd930e18	-0.071804225
193	0xbc678f5a	-0.014133299
194	0x3e49380f	0.19650291
195	0xbe9f6ce8	-0.31137776
196	0xbf13957d	-0.57649976
197	0xbe71c19d	-0.23609014
198	0x3c82b87c	0.01595711
199	0x3e4c9b84	0.199812
200	0x3dc988a0	0.09840512
201	0xbed2d816	-0.41180485
202	0xbeb7da81	-0.35908893
203	0x3e166144	0.14685541
204	0x3c9aaedd	0.01888221
205	0xbe02c9ad	-0.12772246
206	0x3f31a9b4	0.6939957
207	0x3ed862f3	0.42262992
208	0xbec0911b	-0.37610707
209	0xbd5dd262	-0.054155715
210	0xbf413bde	-0.75481975
211	0x3eed1472	0.4630466
212	0x3dfbe72c	0.12299952
213	0x3f8e573b	1.1120371
214	0xbee130ef	-0.43982646
215	0x3db2d807	0.0873261
216	0xbd051014	-0.032486036
217	0x3e23a0a4	0.15979248
218	0x3df937ac	0.12168822
219	0x3f1d7aba	0.6151539
220	0x3fbdefc7	1.4838799
221	0xbe9284dc	-0.2861699
222	0xbeeca16c	-0.46216905
223	0x3ea2ff56	0.3183543
224	0x3dcbbf67	0.099486165
225	0x3f35b564	0.70979905
226	0xbee662b2	-0.44997174
227	0x3da4ab1f	0.08040451
228	0x3fcc0729	1.5939685
229	0xbf38a535	-0.72127086
230	0x3e02409c	0.12719959
231	0x3dbbcd00	0.0916996
232	0x3ccf17bc	0.025279872
233	0x3e0facf7	0.14030825
234	0xbcf1e8ca	-0.029529948
235	0xbf337d24	-0.70112824
236	0x3eaf23b0	0.34206915
237	0x3c00ad6e	0.007853849
238	0x3ea7a78a	0.3274501
239	0x3db18a70	0.08668983
240	0x3cb614ef	0.022226779
241	0xbd4f1041	-0.05055261
242	0xbcf4ea1b	-0.029896786
243	0x3f107d7a	0.5644146
244	0x3d92b642	0.07163669
245	0x3f456c77	0.7711863
246	0xbc2f22da	-0.010689462
247	0xbe66b454	-0.22529727
248	0x3f3b3599	0.7312866
249	0xbeda56c7	-0.4264433
250	0x3e6d14a9	0.23152412
251	0xbf1d4d86	-0.61446416
252	0x3d48fa71	0.049066965
253	0xbe18bbbc	-0.14915365
254	0x3fcc0f8b	1.5942243
255	0xbd0f1555	-0.034932453

l2.bias f4 [300]
0	0x3f01052e	0.5039853
1	0x3d08512e	0.033280544
2	0x3e74fc3b	0.23924343
3	0xbdb71e44	-0.089413196
4	0x3f01ab69	0.50652176
5	0xbe5b6a85	-0.21427353
6	0x3f091259	0.5354362
7	0xbe33f829	-0.17575134
8	0xbf08ff17	-0.53514236
9	0xbf0f0a05	-0.55874664
10	0xbf25b746	-0.6473278
11	0xbf3c13ab	-0.7346751
12	0x3ebc0cff	0.36728665
13	0xbf151cd4	-0.58247113
14	0xbf4b73ca	-0.79473555
15	0x3df8f0b5	0.12155286
16	0xbec7dd37	-0.3903596
17	0xbf101ec9	-0.56296974
18	0xbf122d11	-0.57100016
19	0xbd8b47d7	-0.06800812
20	0xbed39d8c	-0.41331136
21	0xbe188553	-0.14894609
22	0x3ef5935e	0.47963995
23	0xbe06a1b8	-0.13147628
24	0xbefcbaa8	-0.49361157
25	0x3f53dc93	0.82758445
26	0xbe13db74	-0.14439183
27	0xbdd012e1	-0.10159851
28	0xbd46a516	-0.048497282
29	0x3e63807b	0.2221698
30	0x3e640ffc	0.22271723
31	0x3f0d7eff	0.55271906
32	0x3bc12768	0.00589459
33	0xbf15d495	-0.585275
34	0xbf0a0263	-0.5390989
35	0x3db5b338	0.08872074
36	0xbef876e5	-0.4852821
37	0x3e8ead99	0.2786682
38	0x3c58ebc8	0.013239808
39	0x3d89558b	0.06705769
40	0x3f01c152	0.5068561
41	0x3edec3ce	0.43508762
42	0xbe27e9bb	-0.16397755
43	0xbf5cec8e	-0.86298454
44	0x3f44c534	0.7686341
45	0xbe6cf9fd	-0.23142238
46	0xbe9a6ecb	-0.30162653
47	0xbf371c9e	-0.7152804
48	0xbf50cc49	-0.81561714
49	0xbe7f6fb9	-0.24944963
50	0xbe040629	-0.12892975
51	0xbefd579f	-0.49480912
52	0xbe02f4ab	-0.12788646
53	0xbe9660a5	-0.2937061
54	0x3ee507ca	0.44732505
55	0xbed95bd4	-0.42452872
56	0x3e7a759d	0.24458928
57	0x3f514be1	0.8175641
58	0xbeb45d3a	-0.35227376
59	0x3ee91ce2	0.45529848
60	0xbee8566c	-0.45378435
61	0xbf0bdddd	-0.5463541
62	0xbe381f75	-0.1798075
63	0xbf4e0458	-0.8047538
64	0xbf1e9571	-0.6194678
65	0xbf32cb01	-0.6984101
66	0xbe1e7498	-0.15474164
67	0x3ef0e457	0.4704921
68	0xbd8e61af	-0.069522254
69	0xbf4f681e	-0.81018245
70	0x3eb74de2	0.35801607
71	0xbe2b4a56	-0.16727576
72	0xbf102538	-0.5630679
73	0xbeb277d0	-0.34857035
74	0xbe1e6cbd	-0.15471168
75	0xbec9ab5f	-0.39388558
76	0x3cd32228	0.025773123
77	0xbf1b2c3d	-0.6061438
78	0x3e2a5613	0.16634397
79	0xbd026012	-0.0318299
80	0xbe37df66	-0.17956313
81	0x3ee7b58b	0.45255694
82	0x3e780a25	0.2422262
83	0xbe65fc7a	-0.22459593
84	0xbf259a10	-0.64688206
85	0xbde97bb3	-0.11400547
86	0xbf5825dd	-0.84432775
87	0x3f3b2418	0.7310195
88	0xbcef91b3	-0.02924428
89	0x3e8edee6	0.27904433
90	0xbeb4b60f	-0.3529515
91	0xbe856e07	-0.26060507
92	0x3e6172a6	0.22016391
93	0xbf322e32	-0.6960174
94	0xbd0f4f39	-0.034987662
95	0xbed35eb9	-0.41283205
96	0x3ec47652	0.3837152
97	0x3de0d02e	0.10977207
98	0x3cb96596	0.022631448
99	0xbed12160	-0.40845776
100	0xbecc4dc8	-0.39903092
101	0xbd45f853	-0.048332524
102	0x3e88ba44	0.2670461
103	0x3ef17288	0.47157693
104	0xbf800d36	-1.0004032
105	0xbdc5e124	-0.09662083
106	0xbf828ee1	-1.0199853
107	0xbf1ce4cf	-0.61286634
108	0xbf1fa808	-0.6236577
109	0xbe1ae87e	-0.15127751
110	0x3f2b220f	0.66848844
111	0x3e90fc9b	0.28317723
112	0xbf04d735	-0.5189088
113	0x3f03ab50	0.5143328
114	0x3c6ae64d	0.014337135
115	0xbe626654	-0.22109348
116	0x3c9f2a0f	0.019429235
117	0xbf288819	-0.6583267
118	0x3f0aec03	0.54266375
119	0x3f5da5de	0.8658122
120	0x3f5e0c55	0.8673757
121	0x3eda2c7f	0.42612073
122	0xbd9228ef	-0.07136714
123	0xbf49643d	-0.78668576
124	0x3ea2f26a	0.31825572
125	0xbece1f3c	-0.40258205
126	0xbf430198	-0.76174307
127	0xbeebf154	-0.46082556
128	0x3e3bb220	0.18329668
129	0xbe454e5d	-0.19268174
130	0xbc12a3c9	-0.008950182
131	0xbd80c0c9	-0.06286771
132	0xbe8dcd45	-0.2769567
133	0x3ee74e2e	0.45176834
134	0xbf06c835	-0.5264924
135	0x3ec32a38	0.38118148
136	0x3cbb0cb9	0.022833215
137	0xbf5c92bb	-0.8616139
138	0xbee0cded	-0.4390711
139	0xbf816d6b	-1.0111517
140	0x3e9fdb91	0.31222203
141	0xbf3516c7	-0.7073788
142	0xbeed9cc3	-0.46408662
143	0xbf082677	-0.5318369
144	0xbc830647	-0.015994204
145	0x3de0a604	0.10969165
146	0x3f1cd064	0.6125548
147	0xbf154377	-0.5830607
148	0xbf53c101	-0.82716376
149	0xbeee8c4d	-0.46591416
150	0xbea07960	-0.31342602
151	0xbe7e1fa1	-0.24816753
152	0xbf0b689a	-0.54456484
153	0x3c189cf9	0.009314769
154	0xbf3517e1	-0.7073956
155	0x3f239eb3	0.6391403
156	0x3d6ec455	0.058292706
157	0x3f080aa9	0.53141266
158	0xbf085907	-0.53260845
159	0xbf879d06	-1.0594795
160	0xbd6e76e6	-0.05821886
161	0xbee35716	-0.4440238
162	0xbf1fade8	-0.62374735
163	0x3e657634	0.22408372
164	0x3f420800	0.7579346
165	0x3ec1daae	0.37862152
166	0x3da98ca4	0.08278778
167	0xbee0c873	-0.4390293
168	0xbe33da4f	-0.17563747
169	0xbe5bb448	-0.2145549
170	0xbdf30a39	-0.11867184
171	0x3db020f8	0.08600038
172	0xbea10b43	-0.31453905
173	0xbf3884b1	-0.7207747
174	0xbf006ff8	-0.5017085
175	0xbef49327	-0.47768518
176	0xbf3036dc	-0.6883371
177	0xbdff47c5	-0.12464861
178	0xbcfaa12c	-0.03059443
179	0xbc9a1348	-0.018808022
180	0x3e67cf84	0.22637755
181	0xbb8cad37	-0.0042931098
182	0xbadf05e0	-0.0017015301
183	0x3ec1eb4c	0.3787483
184	0x3e5772c3	0.21039872
185	0xbf44001e	-0.7656268
186	0xbfb2c317	-1.3965787
187	0xbf0cfdd3	-0.55074805
188	0xbec140a3	-0.37744626
189	0x3ecb05ba	0.39652807
190	0x3d5d0e03	0.05396844
191	0x3eb7086a	0.35748607
192	0x3e65c477	0.22438227
193	0xbf13c45f	-0.57721514
194	0xbe172d22	-0.1476331
195	0xbc9c6d86	-0.019095194
196	0xbea96421	-0.33084205
197	0xbf0c411b	-0.54786843
198	0x3d650d6b	0.055921
199	0xbf04d1d4	-0.5188267
200	0x3e0d6f06	0.13811883
201	0xbe7ee88e	-0.248934
202	0xbc783d25	-0.015151297
203	0x3db830da	0.08993693
204	0xbeb20b6e	-0.34774345
205	0x3e60d2d3	0.21955423
206	0x3e95f702	0.29290015
207	0x3daca9cc	0.08430824
208	0xbf561d14	-0.8363812
209	0x3c422890	0.011850491
210	0x3e914343	0.2837163
211	0x3f48d3a0	0.78447914
212	0x3f4abdc4	0.7919581
213	0x3ebb7b0b	0.36617312
214	0x3eaa8c4e	0.3331017
215	0xbe594229	-0.21216644
216	0xbf3282a8	-0.69730616
217	0xbe951353	-0.29116306
218	0xbdd92d11	-0.10604299
219	0xbf4c4d6c	-0.79805636
220	0x3f301e4c	0.6879623
221	0x3e161d03	0.14659505
222	0x3f550567	0.8321137
223	0xbf1458a9	-0.57947785
224	0xbf34b8a1	-0.7059422
225	0xbe944ae7	-0.28963396
226	0x3dcaf20d	0.09909449
227	0xbe8e5924	-0.27802384
228	0xbe4a2e7d	-0.19744296
229	0x3f1169c1	0.5680199
230	0xbf3e2c3d	-0.7428625
231	0xbe35b68c	-0.17745417
232	0x3f3467b0	0.70470715
233	0xbf44a5e7	-0.76815647
234	0xbeff64dc	-0.49881637
235	0xbe69d2e4	-0.22834355
236	0x3c235c47	0.009970731
237	0xbf5081c8	-0.8144803
238	0x3e591504	0.21199423
239	0xbf0db7a0	-0.55358315
240	0xbe6db4d1	-0.23213507
241	0xbe8a0ba4	-0.26962006
242	0xbd1aca1b	-0.0377904
243	0x3f1a542b	0.6028468
244	0xbf48e2bc	-0.7847097
245	0xbf207ff2	-0.6269523
246	0x3f509fbd	0.8149374
247	0x3e1d33f6	0.15351853
248	0xbd6166dd	-0.05502974
249	0xbf57a529	-0.8423639
250	0x3f067116	0.52516305
251	0x3f25444c	0.6455734
252	0xbe9586ce	-0.2920441
253	0xbc55db03	-0.013052705
254	0xbf68d5eb	-0.9095141
255	0x3df8959a	0.12137909

bn2.weight f4 [300]
0	0x3fbef099	1.4917175
1	0x3fa6feab	1.3046468
2	0x3fa33394	1.2750115
3	0x3fa27c2c	1.2694144
4	0x3ff67e61	1.9257318
5	0x3f9bc019	1.2167999
6	0x3fa96294	1.3233209
7	0x3f8e1828	1.1101122
8	0x3f891e50	1.0712376
9	0x3e94b145	0.29041496
10	0x3fb4d985	1.4128882
11	0x3e95aa7d	0.29231635
12	0x3f9bd674	1.2174821
13	0x3eadf21e	0.33973783
14	0x3fa0701c	1.2534213
15	0x3f9d3d3f	1.2284316
16	0x3fa17b91	1.2615834
17	0x3e2ea696	0.17055735
18	0x3ecd25bd	0.40067855
19	0x3fa30b3b	1.2737802
20	0x3e8bb544	0.27286732
21	0x3ff2716c	1.8940864
22	0x3f9ffd11	1.2499105
23	0x3fafdc37	1.3739079
24	0x3f6f9156	0.9358114
25	0x3fce3c4f	1.6112155
26	0x3f8bd74b	1.0925077
27	0x3f89bbf8	1.0760489
28	0x3f65f250	0.89822865
29	0x3f9f109c	1.2426944
30	0x3fc8f8d1	1.5700933
31	0x3fdeaf02	1.7397158
32	0x3f8960f6	1.0732715
33	0x3e7c8113	0.24658613
34	0x3e783513	0.24238996
35	0x3f9b7987	1.2146462
36	0x3e81e8ac	0.25372827
37	0x3fb4b653	1.4118141
38	0x3f958af9	1.1683036
39	0x3f8a3ef8	1.0800467
40	0x3fb31678	1.3991232
41	0x3fc75039	1.5571357
42	0x3f988be8	1.1917696
43	0x3fb2b952	1.3962805
44	0x3f992251	1.1963598
45	0x3e6e7c02	0.23289493
46	0x3f87cdc9	1.0609676
47	0x3e855924	0.2604457
48	0x3f90594e	1.1277254
49	0x3f7dab21	0.99089247
50	0x3f928a5c	1.1448474
51	0x3eca64f0	0.39530134
52	0x3fb0a9c4	1.3801808
53	0x3fad4be5	1.3538786
54	0x3fd3fb25	1.6561018
55	0x3e9160d5	0.2839419
56	0x3fcb489d	1.5881535
57	0x3ff35eff	1.9013366
58	0x3f8d5300	1.1040955
59	0x3faf8bf0	1.371458
60	0x3e82d17c	0.2555045
61	0x3f9adc60	1.2098503
62	0x3fa506f2	1.2892745
63	0x3f8a93d7	1.0826367
64	0x3f5da392	0.86577713
65	0x3e8e5a9c	0.27803504
66	0x3e90c0ad	0.28272
67	0x3fc26df9	1.5189811
68	0x3f9386de	1.1525533
69	0x3f92138f	1.1412219
70	0x3fbe11e7	1.4849213
71	0x3f936b13	1.1517051
72	0x3e800c4e	0.25009388
73	0x3e62f08a	0.22162071
74	0x3fa7de3d	1.3114697
75	0x3e96006d	0.292972
76	0x3f94d4d9	1.1627456
77	0x3fe30395	1.7735468
78	0x3f8f1f5e	1.1181448
79	0x3f843fa2	1.0331919
80	0x3f7f5990	0.99746037
81	0x3f86616c	1.0498481
82	0x3f9f7880	1.2458649
83	0x3f983b0f	1.1893023
84	0x3e2bc516	0.16774401
85	0x3f7100e2	0.9414197
86	0x3e9230a5	0.28552738
87	0x3fd46de5	1.6596037
88	0x3f9d286a	1.2277958
89	0x3fa1be05	1.2636114
90	0x3f94427a	1.1582787
91	0x3f9ad118	1.209506
92	0x3f9fc6c3	1.2482532
93	0x3e6dfb1a	0.23240319
94	0x3f927f9c	1.1445193
95	0x3f9ecd39	1.2406379
96	0x3fb6c969	1.4280216
97	0x3fa639d2	1.2986395
98	0x3f93f979	1.1560508
99	0x3fa590da	1.293483
100	0x40191d5b	2.3924167
101	0x3f863094	1.0483575
102	0x3f8ffbe1	1.1248742
103	0x3faecf0b	1.3656934
104	0x3fc5841d	1.5430943
105	0x3f8c6e08	1.0971079
106	0x3f877b02	1.0584414
107	0x3e954cbd	0.2916011
108	0x3f77fa2c	0.96866107
109	0x3f888e5a	1.0668442
110	0x3fa5e995	1.2961909
111	0x3fafca83	1.3733677
112	0x3fa9b1d4	1.3257394
113	0x3fbf8ab5	1.4964205
114	0x3e707edb	0.23485892
115	0x3e6ef5e2	0.23335984
116	0x3f8037f2	1.0017073
117	0x3e8eb604	0.27873242
118	0x3fba37a6	1.4548233
119	0x3fe1632b	1.7608389
120	0x3fe767aa	1.8078511
121	0x3fd40dab	1.6566671
122	0x3f8eb6fa	1.114959
123	0x3e818f9c	0.25304878
124	0x3f9d687f	1.2297515
125	0x3e9a2625	0.30107227
126	0x3e7e663b	0.24843685
127	0x3fc3659e	1.5265386
128	0x3f8cc682	1.099808
129	0x3f909ba5	1.1297499
130	0x3f9b3d7e	1.2128141
131	0x3f9b7eed	1.214811
132	0x3f6d0d5b	0.92598504
133	0x3f9e832a	1.2383778
134	0x3faf6507	1.3702706
135	0x3f991d03	1.1961979
136	0x3f9a3e38	1.2050238
137	0x3fc7a19f	1.5596198
138	0x3f89544f	1.0728854
139	0x3fb61837	1.422614
140	0x3fb838eb	1.439237
141	0x3f87c24b	1.0606169
142	0x3e64d03a	0.22345057
143	0x3e76e6b3	0.24111442
144	0x3fb24b20	1.3929176
145	0x3fa82f1f	1.313938
146	0x3fae58e0	1.3620872
147	0x3ec00416	0.37503117
148	0x3fbe528c	1.4868941
149	0x3ea0380e	0.31292766
150	0x40101ca5	2.2517483
151	0x3fb0a5e6	1.3800628
152	0x3f888b76	1.066756
153	0x3f8ca87d	1.0988919
154	0x3f63cf1a	0.88987887
155	0x3fa484a0	1.2852974
156	0x3fa3794b	1.2771391
157	0x3fddb036	1.73194
158	0x3e57c461	0.21071006
159	0x3f9257b6	1.1433017
160	0x3fb5364b	1.4157194
161	0x3e7cb24b	0.24677388
162	0x3f8a7536	1.081702
163	0x3f861485	1.0475012
164	0x3fba33f5	1.4547106
165	0x3f8c3172	1.095259
166	0x3fcbd391	1.592394
167	0x3e8e3c24	0.2778026
168	0x3fb01dfe	1.3759153
169	0x3f69af2d	0.9128292
170	0x3fc54158	1.5410566
171	0x3fae6f98	1.3627806
172	0x3fb29865	1.3952757
173	0x3e5fb2d9	0.21845569
174	0x3e841104	0.25794232
175	0x3ea6848e	0.32523006
176	0x3e39ca27	0.18143521
177	0x3f9a6126	1.2060897
178	0x3f894f41	1.0727311
179	0x3f9640bc	1.1738505
180	0x3f9390ac	1.1528525
181	0x3f421a98	0.7582183
182	0x3f89d9c1	1.0769578
183	0x3f8aa532	1.0831664
184	0x3fa7654f	1.3077792
185	0x3e866b5c	0.26253784
186	0x3f96227a	1.1729271
187	0x3e813c04	0.252411
188	0x3ea55a1e	0.32295316
189	0x3f8fc4bb	1.1231912
190	0x3f9559c5	1.166802
191	0x3fb95856	1.4480083
192	0x3fc9ee6c	1.5775886
193	0x3e80173e	0.25017732
194	0x3e9b76dd	0.30364123
195	0x3fa4f446	1.2887046
196	0x3e6e5812	0.23275784
197	0x3e8a102c	0.26965463
198	0x3fa71678	1.3053732
199	0x3e9391c5	0.2882215
200	0x3f839c48	1.0282068
201	0x3f9f481e	1.2443883
202	0x3f93e8e0	1.1555443
203	0x3f8b4975	1.0881792
204	0x3ef5d241	0.48011974
205	0x3fa96a61	1.3235589
206	0x3faf7496	1.3707454
207	0x3f985f76	1.1904132
208	0x3e916fad	0.28405514
209	0x3e4ca008	0.19982922
210	0x3fb666da	1.4250138
211	0x3fc701f8	1.5547476
212	0x3fb87aed	1.4412514
213	0x3fb148bf	1.3850325
214	0x3fc3191d	1.5242039
215	0x3f8b9405	1.0904547
216	0x3fa2e652	1.2726538
217	0x3fb88353	1.4415077
218	0x3e82803c	0.2548846
219	0x3f8c6793	1.0969108
220	0x3fc9fff4	1.5781236
221	0x3f951b82	1.164902
222	0x3fc144f0	1.5099163
223	0x3f82c6de	1.021694
224	0x3fc65ade	1.549648
225	0x3fa323a2	1.2745249
226	0x3f6d2e2a	0.92648566
227	0x3f932784	1.1496434
228	0x3f8b1dae	1.0868433
229	0x3f99f375	1.2027422
230	0x3fb93e00	1.4472046
231	0x3f8f81ef	1.1211528
232	0x3f9ae53d	1.2101208
233	0x3e86b7ec	0.26312196
234	0x3e902535	0.28153387
235	0x3e781763	0.24227671
236	0x3f8201d0	1.0156803
237	0x3e32fd87	0.17479526
238	0x3f969aa2	1.176594
239	0x3f97ebff	1.1868895
240	0x3f8f408d	1.1191574
241	0x3f8eca27	1.1155442
242	0x3f7ca7a3	0.98693293
243	0x3fbdc885	1.4826819
244	0x3ea38ebe	0.3194484
245	0x3e8023be	0.2502727
246	0x3fa8824f	1.3164767
247	0x3fc2d195	1.5220209
248	0x3f8f2583	1.1183323
249	0x3e86ce4f	0.26329276
250	0x3fc7ca96	1.5608699
251	0x3fbfe274	1.4990983
252	0x3fb39711	1.4030477
253	0x3fa74732	1.3068602
254	0x3e6c2e2a	0.23064485
255	0x3fa0efbd	1.2573162
