weights/model_actor_target_168.pt (torch, 429959 bytes, 10 tensors)

l1.weight f4 [300, 42]
0	0x3ef632d8	0.48085666
1	0xbef1cd81	-0.472271
2	0x3ecb8f75	0.39757887
3	0xbe4a1e80	-0.19738197
4	0x3f69dfa4	0.91356874
5	0x3e93ba7b	0.2885321
6	0xbead0239	-0.33790758
7	0xbfabbde3	-1.3417324
8	0xbf9022f9	-1.1260673
9	0x400c4de3	2.1922538
10	0x3f148271	0.5801154
11	0xbf54cc63	-0.8312437
12	0x3f34e650	0.7066393
13	0xbf4595b4	-0.77181554
14	0xc0a1d654	-5.057413
15	0x3ebad312	0.3648916
16	0x400fdbf8	2.2478008
17	0xbf3b36f4	-0.73130727
18	0x40559f76	3.3378577
19	0x3f663f68	0.899405
20	0xbfb053d7	-1.3775586
21	0x4059c5f6	3.4027076
22	0x3f272b42	0.6530038
23	0x3f4b2d51	0.7936602
24	0x3f40087a	0.75012934
25	0x3ec708cd	0.38873902
26	0x3f6c5250	0.923131
27	0xbfb7003a	-1.4296944
28	0x408316a8	4.0965157
29	0xbf8c33c6	-1.09533
30	0xbf7f5843	-0.9974405
31	0xc081e25e	-4.0588827
32	0x410e7bfb	8.905269
33	0xc04e2a6c	-3.2213392
34	0x3f2c3035	0.6726106
35	0xc0d85aca	-6.7610826
36	0xc0922c18	-4.5678825
37	0x3fbb73cc	1.4644713
38	0xbf64139d	-0.8909243
39	0xc023b776	-2.5580726
40	0x4030dc5e	2.7634501
41	0xbd7226a1	-0.05911887
42	0x3f1bb5da	0.6082436
43	0x3f918780	1.1369476
44	0x3f1c6fee	0.6110829
45	0x3eb05557	0.3444011
46	0x3e8db423	0.27676496
47	0x3ff5c7fb	1.9201654
48	0xbe9e0433	-0.3086258
49	0xbf21ad1c	-0.6315477
50	0x3d59267c	0.053015217
51	0x3f403823	0.7508566
52	0x3e818929	0.25299957
53	0xc01578ba	-2.3354936
54	0x3de8d49f	0.11368679
55	0xbf628029	-0.88476807
56	0x3f643e08	0.8915715
57	0x3fe367e3	1.7766079
58	0xbf1582c8	-0.5840268
59	0xc030972f	-2.7592275
60	0xc0676d5a	-3.6160493
61	0x3e1b7e45	0.15184887
62	0xbf2206f2	-0.6329185
63	0x3dad7614	0.08469787
64	0xc0a78f86	-5.23627
65	0x3f220ad1	0.63297755
66	0x3f84d097	1.0376157
67	0x3f7286a4	0.94736695
68	0x401da5ae	2.4632373
69	0x3fd326b8	1.6496191
70	0xc058290a	-3.3775048
71	0xbf0a3ad1	-0.53995997
72	0x3f689735	0.90855724
73	0x3fd5adde	1.6693685
74	0xc00d017b	-2.2032154
75	0xc06d3e93	-3.7069442
76	0x3f6323ca	0.88726485
77	0xbfcda8f5	-1.6067187
78	0xbfc173f2	-1.5113509
79	0x3e0194de	0.12654445
80	0xc03efed8	-2.9843044
81	0x3f92ecf6	1.1478565
82	0xc03e44db	-2.9729526
83	0xbf8426c6	-1.0324333
84	0x3f5690a4	0.83814454
85	0x3eb6ab48	0.35677552
86	0x3ea41b33	0.32052
87	0x3f7b71ad	0.9822033
88	0x3f45f236	0.7732271
89	0xbf80df6b	-1.0068182
90	0x402487af	2.5707815
91	0xbf3b7b91	-0.7323542
92	0xbdff37d7	-0.124618225
93	0x3f93fa2e	1.1560724
94	0x3f80208f	1.0009936
95	0xbe888ea7	-0.26671335
96	0x3fbb488b	1.4631513
97	0xbe9741d1	-0.295424
98	0x3f0d2340	0.5513191
99	0xbe4488c9	-0.19192804
100	0x402bb6d4	2.683034
101	0xbfd220a4	-1.6416211
102	0xc0a064fa	-5.0123262
103	0x3fcf9b3f	1.6219252
104	0xbe6cb89e	-0.23117301
105	0x403c9b00	2.9469604
106	0x3ffd80d5	1.9804941
107	0x3f87e771	1.0617505
108	0x3f6c74c3	0.92365664
109	0xc01d4915	-2.4575856
110	0xbfb8f325	-1.4449202
111	0x3ee7ac27	0.4524853
112	0xbf374b82	-0.7159959
113	0x3fb3058d	1.3986069
114	0x3e35c743	0.17751794
115	0x3f89708e	1.0737474
116	0x4138bacc	11.545605
117	0xc01a061b	-2.4066226
118	0x3f005d57	0.50142425
119	0x3fa1183b	1.258552
120	0xbe477dbc	-0.19481558
121	0xbf29e4f0	-0.66364956
122	0xbfc4eb62	-1.5384333
123	0xbff2f642	-1.8981402
124	0x4041ace1	3.0261767
125	0x4118df90	9.554581
126	0x3f432c2c	0.76239276
127	0x3f4c7304	0.79863
128	0x3f6ef805	0.933472
129	0x3f8a0af8	1.0784597
130	0x3f146d26	0.5797905
131	0xbfaa1838	-1.3288641
132	0xbfee0bfa	-1.8597405
133	0xc00b9417	-2.1809137
134	0x3fe0fd39	1.7577277
135	0x3f9775e0	1.1832848
136	0x3f40d9e1	0.75332457
137	0x3ee47eea	0.44628078
138	0x3f8c4518	1.0958586
139	0xbfd66bbd	-1.6751629
140	0x4065d5de	3.5911784
141	0xbfe89e30	-1.8173275
142	0xbf7cfaad	-0.9882
143	0xbd38af27	-0.045088913
144	0x40141e0f	2.3143346
145	0xbe988859	-0.29791525
146	0x3e621ad6	0.2208055
147	0xbf777ac4	-0.966717
148	0xc04eb77c	-3.229949
149	0x3f0f4feb	0.5598132
150	0x3f444bb7	0.7667803
151	0xbf5acd1d	-0.8546923
152	0xc02d10f0	-2.7041588
153	0xbf30b925	-0.6903251
154	0x410bd636	8.739798
155	0xbf44580e	-0.7669686
156	0x3d6cbf97	0.0577999
157	0xc0220734	-2.5316896
158	0xc0574661	-3.3636706
159	0x40e909d4	7.2824497
160	0x3f059254	0.52176404
161	0x403049ac	2.7544966
162	0xbdacbbef	-0.08434283
163	0xbed51318	-0.4161613
164	0x3ee91378	0.45522666
165	0x3ff4b979	1.9119102
166	0xc11e40d7	-9.89083
167	0x404ac0fc	3.1680288
168	0x3f55f2cf	0.8357362
169	0x3e450ebb	0.192439
170	0x3f326267	0.696814
171	0xbf92af65	-1.1459776
172	0x3ec8e026	0.39233512
173	0x3fbfe764	1.499249
174	0xbfecf6fe	-1.8512876
175	0xbe99ac90	-0.30014467
176	0xbf937a00	-1.1521606
177	0x3ebcb6d4	0.36858237
178	0x3f2620ac	0.64893603
179	0xc04e5635	-3.2240117
180	0x3e7e1525	0.24812753
181	0xbf635709	-0.8880468
182	0xbec448de	-0.38336843
183	0x4015adf1	2.3387415
184	0xc02fd6cf	-2.7474859
185	0x405ffee9	3.4999335
186	0x403bc269	2.9337409
187	0xbf3a3ba4	-0.72747254
188	0x40bd5f4a	5.917882
189	0x3e27a6c3	0.16372208
190	0xbf0564bc	-0.52106833
191	0x3f5d15b4	0.8636124
192	0x3f82c6d5	1.0216929
193	0x40ac03a2	5.3754435
194	0x400e642a	2.2248635
195	0x3ff04333	1.8770508
196	0x406d54e3	3.708306
197	0xbffdc047	-1.9824303
198	0xbfb06a57	-1.3782452
199	0xbf38edcd	-0.72237855
200	0xc13f2d80	-11.948608
201	0x40d3c321	6.6175694
202	0x3f35750b	0.7088172
203	0x408da2d3	4.426126
204	0x3fbf3481	1.4937898
205	0x3f52fdbb	0.8241841
206	0x3ef39cdd	0.47580615
207	0x40aa18ac	5.3155117
208	0xc032fac7	-2.7965562
209	0x3fb8be48	1.4433069
210	0x3f7835b1	0.96956927
211	0x3f91cb95	1.1390253
212	0x3f94c224	1.1621747
213	0xbe3298c9	-0.17441095
214	0x3f2d76bf	0.6775932
215	0x3fbd7c94	1.4803643
216	0xbe70bc4f	-0.23509334
217	0xbc5883ff	-0.013215064
218	0xbd00233a	-0.031283595
219	0x3f4b90dc	0.7951791
220	0x3f25683b	0.6461217
221	0xbf4d4f02	-0.8019868
222	0xbf1bb0a4	-0.6081641
223	0xbe8f0072	-0.27930027
224	0xc02f4854	-2.7387896
225	0x402ad537	2.6692636
226	0xc06a4201	-3.6602786
227	0x3f362d16	0.71162546
228	0x3ffa9960	1.9578056
229	0xbe40798f	-0.18796371
230	0x4040bcc9	3.0115225
231	0x3f9f18c1	1.2429429
232	0x4081e62f	4.0593486
233	0x3f372304	0.71537805
234	0x3f335d44	0.7006419
235	0x4003ff85	2.0624707
236	0xbeae1bee	-0.34005684
237	0x3f20c008	0.62793016
238	0x406318b3	3.5483825
239	0xbf1a9cf5	-0.6039575
240	0xbe8637b5	-0.26214376
241	0x3ee3305b	0.4437283
242	0x3fe84d06	1.8148506
243	0x3f474557	0.7784018
244	0x3f6572e2	0.8962842
245	0xbf106a45	-0.56412154
246	0xc049dfa5	-3.1542752
247	0x3f8d5fe2	1.1044886
248	0xc02f7aa7	-2.741861
249	0x3fe657c7	1.7995538
250	0x4092a679	4.5828214
251	0x3f5b9810	0.85778904
252	0x3ecf437d	0.40481177
253	0x3f9704ac	1.1798301
254	0x3f2c8e83	0.67404956
255	0x3fd0a880	1.6301422

l1.bias f4 [300]
0	0x3f229487	0.63507885
1	0x3f5d4740	0.86436844
2	0x3f69407e	0.9111403
3	0x3f5e7f92	0.86913407
4	0x3f4c6a62	0.7984983
5	0x3f5f0930	0.87123394
6	0x3f76755b	0.9627282
7	0x3f2e825c	0.6816766
8	0x3f94720d	1.1597306
9	0x3f35f792	0.7108089
10	0x3f5f4f94	0.872308
11	0x3f818a44	1.012032
12	0x3f54ea33	0.8316986
13	0x3f2cd396	0.67510355
14	0x3ed1254d	0.4084877
15	0x3f63965b	0.889013
16	0x3f3e8295	0.74418
17	0x3f39803d	0.724613
18	0x3f6f51de	0.93484294
19	0x3f6d2af5	0.9264367
20	0x3f520b02	0.82048047
21	0x3f937fbf	1.152336
22	0x3f61b766	0.8817047
23	0x3f215393	0.6301815
24	0x3f73a56f	0.95174307
25	0x3f701f50	0.9379778
26	0x3f5d1da4	0.86373353
27	0x3f470033	0.7773468
28	0x3f51e58e	0.819909
29	0x3f293a0d	0.66104203
30	0x3f69dd19	0.91352993
31	0x3f593199	0.84841305
32	0x3f884013	1.0644554
33	0x3f56b6f3	0.8387291
34	0x3f519c4c	0.81879115
35	0x3f1797b4	0.59215856
36	0x3f6aaeaf	0.91672796
37	0x3f5b2cbb	0.8561513
38	0x3f372dfc	0.7155454
39	0x3f57a29c	0.842325
40	0x3f86c42d	1.0528618
41	0x3f343cfc	0.70405555
42	0x3f8f6ccd	1.1205078
43	0x3effd070	0.49963713
44	0x3f35ef23	0.7106802
45	0x3f464fa0	0.7746525
46	0x3f4d4f5b	0.8019921
47	0x3f4cafe6	0.799559
48	0x3f40f21d	0.75369436
49	0x3f861a1d	1.0476719
50	0x3f1cffb3	0.61327666
51	0x3f3b25cc	0.7310455
52	0x3f50bd34	0.815387
53	0x3f704ba2	0.93865407
54	0x3f9ac639	1.2091743
55	0x3f62b896	0.88562906
56	0x3eb6f3f6	0.35733002
57	0x3f40a686	0.75254095
58	0x3f68e401	0.90972906
59	0x3f25bbf3	0.6473991
60	0x3fa4c56a	1.2872746
61	0x3f457b7f	0.77141565
62	0x3f645d9d	0.8920534
63	0x3f5762ff	0.8413543
64	0x3f173fb7	0.59081596
65	0x3f343f0f	0.7040872
66	0x3f8cb287	1.0991982
67	0x3f69a1c3	0.91262454
68	0x3f25a660	0.64706993
69	0x3f70a0a4	0.9399512
70	0x3f65218f	0.8950433
71	0x3f72a14e	0.9477738
72	0x3f504eb4	0.8137009
73	0x3f386cff	0.72041315
74	0x3f86a8f3	1.0520309
75	0x3f40197a	0.75038874
76	0x3f6b2f35	0.9186891
77	0x3f773b9e	0.96575344
78	0x3f2cf9c9	0.6756864
79	0x3f692676	0.9107431
80	0x3f464592	0.77449906
81	0x3f27f388	0.65605974
82	0x3f2d7533	0.67756957
83	0x3f1de8bf	0.6168327
84	0x3f561269	0.8362184
85	0x3f44200a	0.7661139
86	0x3f30f797	0.6912779
87	0x3f20353f	0.6258125
88	0x3fa9211e	1.3213232
89	0x3f7d2458	0.9888358
90	0x3f600528	0.8750787
91	0x3ef6478e	0.48101467
92	0x3f67d92d	0.9056576
93	0x401f84a4	2.4924707
94	0x3f08a08b	0.5336997
95	0x3f5175ea	0.8182055
96	0x3f863cde	1.0487325
97	0x3f4f9ec6	0.81101644
98	0x3f346f58	0.704824
99	0x3f55e67c	0.83554816
100	0x3f5f319a	0.8718506
101	0x3f394bf4	0.7238152
102	0x3f38fdd3	0.72262305
103	0x3f3c4999	0.735498
104	0x3efc2d24	0.4925319
105	0x3f31ddcc	0.6947906
106	0x3f4739cb	0.7782256
107	0x3f94fd20	1.1639748
108	0x3f8f36e3	1.1188625
109	0x3f6197ce	0.8812226
110	0x3f71a9ed	0.9439991
111	0x3f874325	1.0567366
112	0x3f5b5faf	0.85692877
113	0x3f12213f	0.5708198
114	0x3f71a1e0	0.94387627
115	0x3f87ccca	1.0609372
116	0x3f6b338f	0.9187555
117	0x3f4f31eb	0.80935544
118	0x3f4c6d60	0.79854393
119	0x3f6dbde1	0.9286786
120	0x3f214a3c	0.630039
121	0x3f73e3b7	0.9526934
122	0x3f58b5cb	0.84652394
123	0x3f61ff21	0.8827992
124	0x3f2ad935	0.6673768
125	0x3f3c407f	0.73535913
126	0x3f80a90f	1.0051593
127	0x3f409ad3	0.75236243
128	0x3f84ce96	1.0375545
129	0x3f6a8c71	0.91620547
130	0x3f7fc06f	0.99903005
131	0x3f2816bc	0.6565969
132	0x3f863404	1.0484624
133	0x3f50e923	0.8160574
134	0x3f20c1f6	0.6279596
135	0x3f0d18dd	0.55116063
136	0x3f800379	1.000106
137	0x3f3910a3	0.7229101
138	0x3f59b769	0.85045487
139	0x3f937d5a	1.1522629
140	0x3f3c6b89	0.73601586
141	0x3f2e2f03	0.68040484
142	0x3f8d41ad	1.1035668
143	0x3f379fee	0.7172841
144	0x3f84d38e	1.0377061
145	0x3f48b8eb	0.7840716
146	0x3f609a79	0.87735707
147	0x3f2bf7a2	0.6717473
148	0x3f13f65a	0.5779778
149	0x3f27285f	0.65295976
150	0x3f0f7c60	0.56049156
151	0x3f09235c	0.5356958
152	0x3f8d05d1	1.10174
153	0x3f31fa1a	0.6952225
154	0x3f591d62	0.8481046
155	0x3f052437	0.52008384
156	0x3f1e0821	0.61731154
157	0x3f3e49b9	0.7433124
158	0x3f553bf3	0.832946
159	0x3f187268	0.5954957
160	0x3f2d0def	0.67599386
161	0x3f7de48c	0.9917686
162	0x3ef65880	0.48114395
163	0x3f7baba4	0.9830878
164	0x3f1511c9	0.58230263
165	0x3f5465fc	0.82968116
166	0x3f48de27	0.7846398
167	0x3f3da62f	0.740817
168	0x3f3e4362	0.7432157
169	0x3f776903	0.9664461
170	0x3f529298	0.82254934
171	0x3f808d69	1.0043155
172	0x3ed9c9a8	0.42536664
173	0x3f27cfdb	0.6555154
174	0x3f728241	0.9473
175	0x402b2b7f	2.6745298
176	0x3f6d25a0	0.92635536
177	0x3f7cd94d	0.98769075
178	0x3f3de49a	0.74176943
179	0x3f50ccf3	0.8156273
180	0x3f5c69b3	0.86098784
181	0x3e90ddd6	0.28294247
182	0x3f421771	0.7581702
183	0x3f5c4b7f	0.860527
184	0x3f23ca74	0.63980794
185	0x3f68b403	0.90899676
186	0x3f6b68ff	0.91957086
187	0x3f0ebc0a	0.55755675
188	0x3f248c08	0.6427617
189	0x3f858d34	1.0433717
190	0x3ef4a72c	0.47783792
191	0x3f13bff8	0.57714796
192	0x3f3a8fc9	0.7287565
193	0x3f3dacd5	0.74091846
194	0x3f632a7b	0.88736695
195	0x3f6212bf	0.88309854
196	0x3f2a114a	0.6643263
197	0x3f5f72fe	0.8728484
198	0x3f546be4	0.8297713
199	0x3f2be4c9	0.67145973
200	0x3f3a7802	0.7283937
201	0x3f55a0c5	0.8344844
202	0x4028d063	2.637719
203	0x3f66f615	0.9021924
204	0x3f86de43	1.0536579
205	0x3f25c107	0.6474766
206	0x3f320b11	0.69548136
207	0x3f40f97e	0.75380695
208	0x3f74ad29	0.9557672
209	0x3f42dcac	0.7611797
210	0x3f4f3d11	0.80952555
211	0x3f550430	0.83209515
212	0x3f667e9c	0.9003694
213	0x3f51a3a9	0.8189035
214	0x3edda7b9	0.43292025
215	0x3f266b7c	0.6500776
216	0x3f618af6	0.8810266
217	0x3f1779c1	0.59170157
218	0x3f2c715d	0.6736048
219	0x3f67a1db	0.90481347
220	0x3f849679	1.0358421
221	0x401f004d	2.4843934
222	0x3edc8bad	0.43075314
223	0x3f80510b	1.0024732
224	0x3f290e9e	0.6603793
225	0x3f5008d2	0.8126346
226	0x3f18205d	0.5942438
227	0x3f2b4dee	0.66915786
228	0x3f8c1f14	1.0946984
229	0x3f8c9637	1.0983342
230	0x3f28ccaf	0.6593732
231	0x3ee2a322	0.44265085
232	0x3f5faa2e	0.8736905
233	0x3f2f10d3	0.68385047
234	0x3f6e4b4d	0.9308365
235	0x3f32bdfe	0.69821155
236	0x3f5335ac	0.8250377
237	0x3fa96360	1.3233452
238	0x3f424f9d	0.7590273
239	0x3f23f9bc	0.6405294
240	0x3f3ef97d	0.7459944
241	0x3f29c676	0.6631845
242	0x3fa2fe31	1.2733823
243	0x3f8ae361	1.085064
244	0x3f8a1e8c	1.0790572
245	0x3f5b2f57	0.8561911
246	0x3f6352a3	0.8879797
247	0x3f4cd107	0.8000645
248	0x3f32eb01	0.6988984
249	0x3f2797ad	0.65465814
250	0x3f15e1c9	0.58547646
251	0x3f64dc6a	0.89398825
252	0x3f2355b1	0.6380263
253	0x3f6bdf89	0.9213796
254	0x3f159969	0.5843721
255	0x3f0b9c26	0.5453514

bn1.weight f4 [300]
0	0x40162fcb	2.346667
1	0x4047140c	3.1105986
2	0x40021ccc	2.0330076
3	0x3fc6f8d0	1.5544682
4	0x403edaf9	2.982115
5	0x400ebe86	2.2303786
6	0x3fef9e1a	1.8720124
7	0x3fda8a70	1.7073498
8	0x40613927	3.5191133
9	0x40eca00c	7.394537
10	0x40437b42	3.054398
11	0x400fa98f	2.244724
12	0x40036351	2.0529368
13	0x4021e871	2.529812
14	0x3fec9476	1.8482807
15	0x4001645e	2.021751
16	0x403a78dc	2.9136267
17	0x40017e60	2.0233383
18	0x40836e6a	4.1072283
19	0x4028b760	2.6361923
20	0x3f96480c	1.1740737
21	0x4098e4b6	4.777919
22	0x4009eb33	2.1549804
23	0x401c8411	2.4455607
24	0x406cfa6a	3.702784
25	0x3fcf96e9	1.6217929
26	0x3fefc357	1.8731488
27	0x40014567	2.019861
28	0x3fd17f90	1.6367054
29	0x40113a17	2.2691705
30	0x3fd2a010	1.6455097
31	0x40043542	2.0657506
32	0x4009d1e7	2.1534364
33	0x40778426	3.8674407
34	0x3ff8363b	1.939155
35	0x403ca680	2.9476624
36	0x4016add2	2.3543591
37	0x402777e8	2.6166935
38	0x4021f9b0	2.5308647
39	0x403a7b98	2.9137936
40	0x3fbffd49	1.4999171
41	0x40450797	3.0785882
42	0x401ab9d7	2.4175928
43	0x3fcbdfed	1.5927712
44	0x403a20a8	2.9082432
45	0x3febdb28	1.8426256
46	0x3ff3e5e5	1.9054533
47	0x40187dac	2.3826704
48	0x40499502	3.1497197
49	0x4002186d	2.0327408
50	0x3febbad4	1.841639
51	0x401ea13d	2.4785912
52	0x4000cd74	2.0125399
53	0x4056f759	3.358847
54	0x40275436	2.6145148
55	0x3f645893	0.89197654
56	0x402e3a45	2.7223065
57	0x4021c030	2.5273552
58	0x3fa72e42	1.3060992
59	0x3fcfd9ba	1.623832
60	0x3f9bd4c4	1.2174306
61	0x3fe5ca75	1.795241
62	0x400be634	2.1859255
63	0x403236e0	2.7845993
64	0x404db4ac	3.2141523
65	0x405737e3	3.362786
66	0x4036c7c5	2.855943
67	0x3f9340b2	1.1504118
68	0x402dc4a0	2.715126
69	0x40166f6f	2.3505514
70	0x4009187a	2.142119
71	0x3fe9aaa2	1.8255198
72	0x4091fe96	4.5623274
73	0x400fcbf4	2.2468233
74	0x3fd12b3b	1.6341318
75	0x3fea3b33	1.8299316
76	0x4004c527	2.0745332
77	0x400d2002	2.2050786
78	0x40862bc4	4.1928425
79	0x4002ee84	2.0458078
80	0x40317f8a	2.7734094
81	0x4044d0d6	3.0752463
82	0x401afea2	2.4217916
83	0x40a2c899	5.086987
84	0x3fbe9582	1.4889376
85	0x3fe8618d	1.815477
86	0x400cdbbb	2.2009113
87	0x40647a56	3.5699668
88	0x3fa1ea4c	1.2649627
89	0x4038773b	2.8822773
90	0x40575193	3.364354
91	0x40801d60	4.003586
92	0x3fa8f5ff	1.3200072
93	0x3e11afbd	0.14227195
94	0x403c248e	2.9397311
95	0x4011b31f	2.2765577
96	0x3fbe4f6e	1.486799
97	0x403023c6	2.7521834
98	0x406b3483	3.67508
99	0x400e0cfb	2.2195423
100	0x408d2a52	4.411416
101	0x4087c7f7	4.24316
102	0x40085952	2.1304517
103	0x40993be4	4.788561
104	0x3fd9cb2a	1.7015126
105	0x40489a6c	3.1344252
106	0x40684c44	3.629655
107	0x407b924e	3.9308047
108	0x407eaff1	3.9794886
109	0x4006d0a6	2.106485
110	0x404c380b	3.1909206
111	0x400663a4	2.0998316
112	0x4006bd10	2.1052895
113	0x402b09d6	2.6724753
114	0x401b2c3f	2.4245756
115	0x40303169	2.7530158
116	0x3fcf5e23	1.6200603
117	0x4011fee8	2.2811832
118	0x4080ac95	4.021067
119	0x406c7098	3.6943722
120	0x4039bb42	2.9020543
121	0x4003fac6	2.062181
122	0x3fe98bb7	1.8245763
123	0x405f6ff8	3.491209
124	0x40077ee4	2.1171198
125	0x40146952	2.3189282
126	0x4044766f	3.0697286
127	0x3fac75ee	1.3473489
128	0x406262d6	3.5372825
129	0x3f9f5a4c	1.2449431
130	0x4044ccb5	3.0749943
131	0x40101c6a	2.2517343
132	0x3fde5952	1.7371008
133	0x4039f5d0	2.9056282
134	0x3fac2695	1.3449274
135	0x40305623	2.7552574
136	0x408b90fd	4.361449
137	0x406a700e	3.6630893
138	0x401ab968	2.4175663
139	0x40039a15	2.0562794
140	0x406ade3e	3.6698146
141	0x4028f50e	2.639957
142	0x3fdd9ba0	1.7313118
143	0x3fe303a7	1.773549
144	0x405120a2	3.2676167
145	0x3fb7a4a1	1.4347116
146	0x40247f3a	2.5702653
147	0x40294f8c	2.6454802
148	0x3fc839eb	1.5642675
149	0x4028f5a3	2.6399925
150	0x40222214	2.53333
151	0x405e20b8	3.470747
152	0x406c51f2	3.6925015
153	0x4011d9ba	2.278914
154	0x40502615	3.2523243
155	0x401a9dcc	2.4158812
156	0x400846fe	2.129333
157	0x4015aa40	2.3385162
158	0x4012c52f	2.2932851
159	0x403ce0b3	2.9512146
160	0x4001812b	2.0235088
161	0x4019cb51	2.4030344
162	0x404597b5	3.0873845
163	0x40571035	3.3603642
164	0x40542f97	3.3154047
165	0x404e6507	3.2249162
166	0x40214428	2.519785
167	0x403c47c4	2.9418802
168	0x3fed0595	1.8517329
169	0x40633903	3.5503547
170	0x40252d88	2.580904
171	0x3fb9b2aa	1.4507649
172	0x4032f4a2	2.7961812
173	0x401c6866	2.443872
174	0x3fca1dd4	1.5790353
175	0x3e150735	0.1455353
176	0x3ff7b938	1.9353399
177	0x408195a7	4.049518
178	0x3fe6e330	1.8038082
179	0x4058221c	3.3770819
180	0x3fa2754d	1.2692047
181	0x409fa7b5	4.989222
182	0x4015cdf5	2.3406956
183	0x3fe9a0d4	1.8252206
184	0x407afcfc	3.921691
185	0x40422017	3.0332086
186	0x3fdad37e	1.7095792
187	0x3fb3d3a3	1.4048961
188	0x3ffd1a88	1.9773722
189	0x40129235	2.2901738
190	0x40686f73	3.6318023
191	0x404649aa	3.098246
192	0x4077ffc6	3.8749862
193	0x402bdf25	2.6854947
194	0x402091da	2.508902
195	0x402f4866	2.7387938
196	0x400bb99f	2.1832044
197	0x3ffa6e59	1.9564925
198	0x40250ac0	2.5787811
199	0x3fe36e32	1.7768004
200	0x4010a90c	2.2603178
201	0x40719e8d	3.7753022
202	0x3dd0b621	0.10190988
203	0x403707b5	2.8598454
204	0x4075e6af	3.8422048
205	0x3fcf8fe6	1.6215789
206	0x40258c72	2.586697
207	0x4068a4c3	3.6350563
208	0x40009559	2.0091155
209	0x4053fe74	3.3124056
210	0x3f379c15	0.7172254
211	0x400ad211	2.1690714
212	0x40528912	3.289616
213	0x402ac828	2.6684666
214	0x40149f43	2.3222206
215	0x3ff950bf	1.9477767
216	0x400f61ec	2.2403517
217	0x4026efeb	2.6083934
218	0x401b7997	2.4292963
219	0x4035ff72	2.8437161
220	0x3fd043ea	1.6270726
221	0x3df67d3b	0.120356046
222	0x40339789	2.806124
223	0x3fd2d7c7	1.64721
224	0x40063f9f	2.0976331
225	0x3fba01f8	1.4531851
226	0x3ff7a5ab	1.9347433
227	0x40258df3	2.586789
228	0x402bfd52	2.6873364
229	0x4016f747	2.3588426
230	0x4056828c	3.351718
231	0x40750d4b	3.8289363
232	0x4005e20f	2.0919225
233	0x401a5f0b	2.412051
234	0x40028be5	2.0397885
235	0x4027330c	2.6124907
236	0x403466d1	2.8187754
237	0x40328c20	2.7898026
238	0x404496d5	3.071706
239	0x400e9c51	2.2282908
240	0x3fce4aa4	1.6116529
241	0x40483fd7	3.1288965
242	0x401d8523	2.461251
243	0x4075e516	3.8421073
244	0x4081998d	4.049994
245	0x403ae314	2.9201097
246	0x3faec515	1.3653895
247	0x401d3f9b	2.4570072
248	0x40335791	2.8022196
249	0x4030a666	2.7601562
250	0x400d02c9	2.203295
251	0x400dadfe	2.2137446
252	0x40161cf8	2.345518
253	0x3fc01d01	1.5008851
254	0x3ff94210	1.9473286
255	0x40006682	2.0062566

bn1.bias f4 [300]
0	0xbf96b545	-1.1774069
1	0xbf4fb921	-0.8114186
2	0xbf83190f	-1.0242022
3	0xbf1d95fe	-0.61556995
4	0xbf86c7c9	-1.052972
5	0xbf2445e8	-0.6416917
6	0xbf4859ea	-0.782622
7	0xbfcc3bf1	-1.5955793
8	0x3f10863b	0.5645482
9	0xbc99bbb6	-0.018766265
10	0x3f061c48	0.52386904
11	0xbf8709b4	-1.0549836
12	0xbff2686f	-1.8938121
13	0xbfb09325	-1.3794905
14	0xbf832a79	-1.0247337
15	0xbec57ed2	-0.3857332
16	0xbe6aa619	-0.22914924
17	0xbf3dd2d7	-0.7414984
18	0xbec57e05	-0.38572708
19	0x3dbe4cc7	0.09291988
20	0xbf5c964a	-0.8616682
21	0x3f55571b	0.8333604
22	0xbfaa976d	-1.3327461
23	0xbfb69021	-1.4262735
24	0xbd411a9e	-0.047144525
25	0xbfc202c2	-1.5157092
26	0xbed9d5b1	-0.42545846
27	0xbf929068	-1.1450319
28	0xbf5ee4f9	-0.87068135
29	0xbe01cc6a	-0.12675634
30	0xbf884eaa	-1.0649006
31	0xbf420b40	-0.75798416
32	0xbf6cbba3	-0.9247381
33	0xbdac95cb	-0.08427008
34	0xbf1fdd71	-0.6244727
35	0xbfa93c31	-1.3221494
36	0xbe9193ae	-0.28432983
37	0xbf945801	-1.1589357
38	0xbee5343f	-0.44766423
39	0xbdf20415	-0.11817185
40	0xbf844a37	-1.0335149
41	0xbee120f2	-0.43970448
42	0xbe5f7bf3	-0.21824627
43	0xc00437f0	-2.0659142
44	0xbeaebae5	-0.34126964
45	0xbf9a4a72	-1.2053969
46	0xbf4aeb10	-0.79264927
47	0x3c90d9ce	0.017681982
48	0x3f2072e9	0.6267534
49	0xbed939a8	-0.424268
50	0xbf80c724	-1.0060773
51	0xbf579357	-0.842092
52	0xbf896573	-1.0734085
53	0xbe5f4bb2	-0.21806219
54	0xbf178722	-0.5919057
55	0xbf88df54	-1.0693154
56	0xbe49d088	-0.19708455
57	0xbf1cd7f2	-0.61267006
58	0xbf0aa2a3	-0.54154414
59	0xbfa0b8ba	-1.2556374
60	0xbfbc60f5	-1.4717089
61	0x3e03477c	0.12820238
62	0xbe422f40	-0.18963337
63	0x3ee0bf81	0.43896106
64	0x3f02432d	0.5088375
65	0xbe37b2d2	-0.17939308
66	0xbecbb0b8	-0.39783263
67	0xbf9c5e5e	-1.2216299
68	0xbf7d79bb	-0.9901387
69	0xbe1e12f7	-0.15436922
70	0xbfa529f4	-1.2903428
71	0xbdb9b0e9	-0.09066946
72	0x3eb939a5	0.36176792
73	0xbfc7b255	-1.5601298
74	0xbf4a3cc1	-0.78998953
75	0xbf7673a5	-0.9627021
76	0xbfa09946	-1.2546775
77	0xbf70bda4	-0.9403937
78	0xbf77be29	-0.96774536
79	0xbebb8a66	-0.36629027
80	0xbeb54b6f	-0.35409114
81	0xbf8ed136	-1.1157596
82	0xbf4fd530	-0.81184673
83	0x3d9b4f62	0.075835004
84	0xbfd495e0	-1.6608238
85	0xbf0e49c1	-0.5558129
86	0x3e72de1d	0.23717542
87	0xbed81255	-0.42201486
88	0xbf93f2de	-1.1558492
89	0x3f026a3e	0.5094336
90	0x3f04af1e	0.5182971
91	0xbe5146a8	-0.2043711
92	0xbfd30fed	-1.6489235
93	0xbf7d4464	-0.9893248
94	0xbf13522d	-0.57547265
95	0xbf04997e	-0.5179671
96	0xbe12ba0a	-0.14328781
97	0xbf34bd64	-0.7060149
98	0xbf60b318	-0.87773275
99	0xbe3058f2	-0.1722143
100	0x3ee67fe0	0.45019436
101	0xbe25af19	-0.16180076
102	0xbef1b727	-0.47210047
103	0x3e1718c0	0.14755535
104	0xbf90dc71	-1.1317273
105	0xbed50877	-0.4160802
106	0xbf05fc03	-0.52337664
107	0x3e36ada4	0.17839676
108	0x3f3c9b3e	0.7367438
109	0xbf7ceaa6	-0.98795545
110	0xbf406791	-0.7515803
111	0xbfd0c073	-1.6308731
112	0xbfccf888	-1.6013346
113	0xbf49c286	-0.78812444
114	0xbf6d6e68	-0.9274659
115	0xbe9c69ec	-0.30549562
116	0xbed86d0c	-0.42270696
117	0xbfc3dd16	-1.5301845
118	0x3e8b4341	0.27199748
119	0x3db66b99	0.089072414
120	0xbed6fb21	-0.4198847
121	0x3f10e88e	0.5660485
122	0xbf84a82e	-1.0363824
123	0x3e100bbf	0.14066981
124	0xbe8217db	-0.25408825
125	0xbf1b6ea4	-0.607157
126	0x3df2517d	0.11831949
127	0xbf02e0e9	-0.51124436
128	0xbe7ef68f	-0.24898742
129	0xbfadfd40	-1.3592911
130	0xbf5a974e	-0.8538712
131	0xbf10ae01	-0.5651551
132	0xbf8b7a2c	-1.0896659
133	0xbf027abd	-0.50968534
134	0xbf3538f4	-0.7079003
135	0xbef927c0	-0.4866314
136	0x3f29e75e	0.66368663
137	0xbf0d1372	-0.55107796
138	0xbf32a90e	-0.69789207
139	0xbfd4abee	-1.6614969
140	0xbe6623c1	-0.22474577
141	0xbfb5319f	-1.4155768
142	0xbf05a19c	-0.5219972
143	0xbfc8269b	-1.5636781
144	0xbd021e1b	-0.031766992
145	0xbf8854d9	-1.0650893
146	0xbe3042a2	-0.17212918
147	0xbf419554	-0.7561848
148	0xbf0ee15b	-0.55812615
149	0xbeeeee62	-0.46666247
150	0xbf5a6a26	-0.8531822
151	0xbf7971f3	-0.974395
152	0xbe302d7a	-0.17204848
153	0xbf56a402	-0.83844006
154	0xbf9bd299	-1.2173644
155	0xbeaeb382	-0.3412133
156	0xbfb1a241	-1.3877641
157	0xbf816781	-1.0109712
158	0xbecb9d59	-0.39768484
159	0xbeaa7a4e	-0.33296436
160	0xbff3c6de	-1.9045064
161	0xbed9fa5b	-0.4257382
162	0xbf7180f9	-0.9433742
163	0xbfa48575	-1.2853228
164	0xbe890df4	-0.26768458
165	0x3e19c350	0.15015912
166	0xbf501bee	-0.8129262
167	0x3f0342a6	0.5127357
168	0xc016da7b	-2.357085
169	0x3dfa1a28	0.1221202
170	0xbf1efe05	-0.62106353
171	0xbe92c9e0	-0.28669643
172	0xbfb31ec3	-1.3993763
173	0xbf55e930	-0.8355894
174	0xc003ebaf	-2.06126
175	0xbf7d8ab4	-0.9903977
176	0xbef83d24	-0.48484147
177	0x3df7370b	0.120710455
178	0xbf84b071	-1.0366346
179	0xbe38c01c	-0.18042034
180	0xbf6225dd	-0.88339025
181	0xbf5937fa	-0.8485104
182	0xbf286162	-0.65773594
183	0xbfe7010f	-1.8047198
184	0xbfa43460	-1.2828484
185	0xbe9b1f64	-0.30297387
186	0xbf3dd06b	-0.74146146
187	0xbf7bcb30	-0.98356915
188	0xbf541b25	-0.8285392
189	0x3e074a42	0.13211921
190	0xbf9df0bc	-1.2339091
191	0xbf549a6d	-0.83048135
192	0xbda7ae0d	-0.081874944
193	0xbf4f7cfa	-0.81050074
194	0xbf4ce042	-0.8002969
195	0xbf18fb42	-0.5975839
196	0xbf45f561	-0.77327543
197	0xbecba5fc	-0.39775074
198	0xbf49d3f1	-0.7883902
199	0xbf560f9a	-0.83617556
200	0xbf5bf5d0	-0.85921955
201	0xbcf66af4	-0.030080296
202	0xbf92ada6	-1.1459243
203	0xbf149a0d	-0.5804756
204	0xbde49354	-0.11160913
205	0xbf88952b	-1.0670522
206	0xbf9b3336	-1.2125003
207	0x3e171018	0.14752233
208	0x3f49437d	0.78618604
209	0xbe6c8aba	-0.23099795
210	0xbc24a4ea	-0.010049084
211	0xbf72bd42	-0.94820035
212	0x3e3ef434	0.18647844
213	0xbf58dac4	-0.8470881
214	0xbfad4470	-1.353651
215	0xbf23650b	-0.63826054
216	0xbf86f858	-1.0544538
217	0xbf86897b	-1.0510706
218	0xbf12ceef	-0.57347006
219	0x3e9b9899	0.3038986
220	0xbf673e94	-0.9032986
221	0xbf7ad10c	-0.9797523
222	0xbf2761b2	-0.65383446
223	0xbf8bae82	-1.091263
224	0xbfb660ad	-1.4248253
225	0xbf22c023	-0.6357443
226	0xbf656d3e	-0.89619815
227	0xbf6b11ca	-0.9182402
228	0xbf09ad6c	-0.53780246
229	0xbef5b984	-0.479931
230	0xbea10188	-0.3144648
231	0xbe84fcb2	-0.2597404
232	0xbf8fb3e3	-1.1226772
233	0xbf5ddd8e	-0.8666619
234	0xbfbb63a7	-1.4639786
235	0x3eb3ebe5	0.3514091
236	0xbd32e69b	-0.043676954
237	0xbf390ba1	-0.7228337
238	0xbe30a6d3	-0.17251138
239	0xbf6ef869	-0.93347794
240	0xbfb49237	-1.4107121
241	0xbe2495c3	-0.16072755
242	0xbf32e901	-0.69886786
243	0x3f070a1d	0.52749807
244	0x3cdd477a	0.027011622
245	0x3dc5a569	0.0965069
246	0xbffe80f4	-1.9883103
247	0xbf87fd76	-1.0624225
248	0xbf592a3a	-0.8483006
249	0xbe0276a8	-0.12740576
250	0xbe9eda69	-0.3102601
251	0xbed8d5b4	-0.42350543
252	0xbf18e43c	-0.5972326
253	0xbf95f735	-1.1716067
254	0xbf70d448	-0.94073915
255	0xbf9630a3	-1.1733593

l2.weight f4 [300, 300]
0	0xbf5f7999	-0.8729492
1	0x403c8da3	2.9461448
2	0xbe088da3	-0.1333528
3	0x3fae9b8f	1.3641223
4	0xbf5aae11	-0.85421854
5	0x40157be3	2.3356864
6	0xbf5171df	-0.8181438
7	0x3fd34f15	1.6508509
8	0xc015042c	-2.3283796
9	0x404bb6a9	3.1830237
10	0x3eb8ad65	0.3606979
11	0xbfc36fc3	-1.5268482
12	0x3f9194af	1.13735
13	0x3fdd4ceb	1.7289099
14	0x3fe18c81	1.7621003
15	0x400a8962	2.1646352
16	0x3d429b58	0.04751143
17	0x3f69b661	0.91293913
18	0x4033f162	2.8116078
19	0xbecd28cf	-0.40070197
20	0x3f5393f8	0.8264766
21	0x3fcaba9b	1.5838197
22	0x3f172703	0.590439
23	0xbe9af3c6	-0.3026411
24	0x3f2768b1	0.6539412
25	0x3f0cafde	0.5495585
26	0x40299351	2.6496165
27	0xbfb5d649	-1.420602
28	0x3fc66df8	1.550231
29	0xbeeaec3a	-0.45883352
30	0x3fd0cbc2	1.6312182
31	0x3f28c565	0.659262
32	0xbfa34f05	-1.275849
33	0x3f24688d	0.6422203
34	0x3ea0d8de	0.31415457
35	0x401e430b	2.472842
36	0xbf78fac6	-0.9725765
37	0x3f4969e4	0.786772
38	0x401418f1	2.3140223
39	0x3fe617cb	1.7976011
40	0x3f5360d8	0.82569647
41	0x3efe2528	0.49637723
42	0xbdd9bee3	-0.10632112
43	0x3f7e3568	0.9930024
44	0x3f0917f3	0.5355217
45	0x3ecf7d2e	0.40525192
46	0x3f069631	0.52572924
47	0x3f21e0a8	0.63233423
48	0x407b18be	3.9233851
49	0xbdbc5cc7	-0.091973834
50	0x3efa3cb0	0.48874426
51	0x4000c317	2.0119073
52	0x40185f18	2.380804
53	0x3fa11745	1.2585226
54	0x3fc3f6a3	1.5309643
55	0x3fac9b9e	1.3484991
56	0x3f7af83b	0.9803502
57	0x3fdb58e3	1.7136501
58	0xbf23c411	-0.6397105
59	0x402d2e59	2.7059538
60	0x404adf92	3.1698956
61	0xbd6ff144	-0.0585797
62	0x3f2f8fd5	0.68578845
63	0x3fad821b	1.355533
64	0xc00f3e7f	-2.2381895
65	0x3fd8e853	1.69459
66	0x3f6f2d48	0.9342847
67	0x3ffee5b2	1.9913847
68	0x3fbb2d42	1.4623187
69	0x3fbed5d1	1.4909002
70	0x3f8400a6	1.0312698
71	0x40143c8a	2.316195
72	0x3e83baf6	0.25728577
73	0x3f47a8be	0.77991855
74	0xbf8e253a	-1.1105111
75	0x3f962f2d	1.1733147
76	0x400f2782	2.2367864
77	0xbf86d47f	-1.0533599
78	0x3f427f02	0.7597505
79	0xc001b81e	-2.0268626
80	0x403a3bf0	2.9099083
81	0xbddf0d61	-0.10891224
82	0x3f982f6f	1.1889476
83	0x3fbdd1fd	1.4829708
84	0xbf98ce39	-1.1937934
85	0x3f3153c7	0.6926846
86	0x3fccf2ed	1.6011635
87	0x3fa8be2d	1.3183037
88	0x3fad9d59	1.3563644
89	0x3f3739dc	0.7157266
90	0x3fd914c7	1.6959466
91	0x3f99cdc5	1.2015921
92	0x3f620bbf	0.88299173
93	0x3e5203b9	0.20509233
94	0x3f25e6ce	0.64805305
95	0x3f9ced5b	1.2259935
96	0x400fc737	2.246534
97	0x40232285	2.548982
98	0x3fab9683	1.3405308
99	0xbe649709	-0.2232324
100	0x3cc2b136	0.023766141
101	0x3ffcab6a	1.9739811
102	0xbf516926	-0.8180107
103	0x40095ca3	2.146279
104	0x3f64e3c6	0.89410055
105	0xbf89193b	-1.0710825
106	0xbd3d22c4	-0.046175733
107	0x3e2af146	0.16693601
108	0x3f9879c3	1.1912159
109	0x4049590b	3.1460598
110	0x3f7a698b	0.97817296
111	0xbf2b580c	-0.66931224
112	0x3fa0e93f	1.2571181
113	0xbd8afffb	-0.06787106
114	0xbef4ef33	-0.47838745
115	0x3ff34dea	1.9008152
116	0xbf3995b8	-0.7249408
117	0x3f9e1f1f	1.2353247
118	0x3f7da536	0.99080217
119	0x3ec7981d	0.3898324
120	0x3fa48b6b	1.2855047
121	0xbef5840c	-0.47952306
122	0x3fa60a7d	1.2971951
123	0x401ecc5a	2.4812226
124	0x3ff25cf2	1.8934615
125	0x3f915c88	1.1356363
126	0x3f7ee95a	0.99574816
127	0x402c460d	2.6917756
128	0x3e74ae65	0.23894651
129	0x3f9c87d2	1.2228949
130	0xbdb96f1e	-0.09054397
131	0xbefbabb6	-0.49154443
132	0xbff130c2	-1.8843005
133	0x3f7ae5f9	0.9800716
134	0x3f37381f	0.7157001
135	0xc00b7275	-2.178861
136	0x402881f9	2.632933
137	0x401f1bb8	2.4860668
138	0xbebcba82	-0.36861044
139	0x402fb491	2.745396
140	0x3fa7a63a	1.3097603
141	0x40118682	2.2738347
142	0x3f632f66	0.887442
143	0xbcff755f	-0.031183897
144	0xbeec2da6	-0.46128577
145	0x400ad43c	2.1692038
146	0x3faf68bd	1.3703839
147	0x406ebb95	3.730199
148	0x3f8edf40	1.116188
149	0xbe6dd562	-0.2322593
150	0x3f71e4d8	0.9448981
151	0xc01bb455	-2.4328816
152	0x3f7000d3	0.9375126
153	0x3f986560	1.1905937
154	0x401579d2	2.3355603
155	0x401967b0	2.3969536
156	0xbff95cc6	-1.9481437
157	0xbef9f0a4	-0.48816407
158	0xbe307aca	-0.1723434
159	0x3ff7da6c	1.9363532
160	0x40496680	3.146881
161	0x3f8758f8	1.0574026
162	0xbea239c1	-0.31684688
163	0x40074deb	2.1141307
164	0xbfb8b305	-1.4429632
165	0x3f1566c0	0.5835991
166	0x3f4685f0	0.7754812
167	0xbf0e07ce	-0.5548066
168	0xbf51824a	-0.8183943
169	0x4059f6d8	3.4056911
170	0xbf11adb1	-0.5690566
171	0xbed0def1	-0.4079509
172	0x3ef6c44c	0.48196638
173	0xbe23e5fc	-0.16005701
174	0x3f880eea	1.0629551
175	0x3cf67184	0.030083425
176	0x3fedd941	1.8581926
177	0xbfa0c3c4	-1.2559743
178	0x3e3925da	0.18080845
179	0x4002a9c1	2.041611
180	0xbe99931d	-0.2999505
181	0xbfa0a352	-1.2549841
182	0x3f8226a6	1.0168045
183	0x3f7572a0	0.9587803
184	0x3fbfc9bf	1.4983443
185	0x3fcc7960	1.5974541
186	0x3eefbc2e	0.46823257
187	0x3f7dd906	0.99159276
188	0x3f83850a	1.0274975
189	0x3f99a437	1.2003239
190	0x3f309521	0.6897755
191	0xbf9208c5	-1.1408926
192	0x3f160a5d	0.58609563
193	0x3d9172df	0.07101988
194	0xbac6996f	-0.0015151928
195	0x40360fd2	2.8447156
196	0xbf87eda6	-1.06194
197	0xbdef1068	-0.11673051
198	0x3fe9c5f8	1.826354
199	0x3df1ebc1	0.118125446
200	0xbfd63aec	-1.6736732
201	0x405d1e4a	3.4549737
202	0x3e110955	0.14163716
203	0x3fb57a8b	1.4178022
204	0x3ef221a6	0.47291297
205	0xbf036330	-0.51323223
206	0x3f4d9304	0.80302453
207	0x404a90e8	3.1650944
208	0x3fdcef67	1.726056
209	0xbf1a4b14	-0.6027081
210	0xbf45339e	-0.77031887
211	0x3f8f30ef	1.1186808
212	0xbf1fbd97	-0.62398666
213	0xbd9f9b5c	-0.07793304
214	0x4037f793	2.8744857
215	0x401ff418	2.4992733
216	0x3e26928d	0.16266842
217	0x3d63205f	0.055450793
218	0x3fb3ae62	1.4037592
219	0x4001838b	2.0236537
220	0xbeed79bb	-0.46381935
221	0x3e7d821b	0.24756663
222	0x3f645851	0.8919726
223	0x401f96b7	2.493574
224	0xc004e9df	-2.0767744
225	0xbfbdef7f	-1.4838713
226	0x3efcf2bd	0.49403945
227	0x3f8b4c5c	1.0882678
228	0xbf6e9da2	-0.9320928
229	0x3fd6d7e1	1.6784631
230	0x3f03b9d7	0.51455444
231	0x4003775f	2.0541608
232	0x4075a2d9	3.8380644
233	0xbe8cfc64	-0.2753631
234	0x3f729fa9	0.9477487
235	0x3f4a4de3	0.79025096
236	0x3fafc3d4	1.3731637
237	0x3e276f0d	0.16350956
238	0x3fc6d0cb	1.5532469
239	0x3fa5b19d	1.2944828
240	0x3f812d39	1.0091926
241	0x403bb37b	2.9328296
242	0x3f8c2646	1.094918
243	0x3f12deb2	0.57371056
244	0xbf21f5ca	-0.6326567
245	0x4001cb2e	2.028026
246	0x3fac9f8f	1.3486193
247	0x3fef7221	1.8706704
248	0x3e20bfa1	0.156981
249	0x3f2a9a6c	0.6664188
250	0x3c0394ff	0.008031129
251	0x3fd59bae	1.6688135
252	0xbe5ea6d0	-0.21743321
253	0x3fda9457	1.707652
254	0x3fd67886	1.6755531
255	0x3fbcaa22	1.473942

l2.bias f4 [300]
0	0x3fbb0992	1.4612296
1	0x3f9600a9	1.1718951
2	0x3ffb3571	1.9625684
3	0x3f1a5978	0.6029277
4	0x3f80d865	1.0066038
5	0x3f95999c	1.1687503
6	0x3fa92732	1.3215086
7	0x3fdacafb	1.7093195
8	0x3f8a11c2	1.0786669
9	0x3f25d70f	0.6478128
10	0x3fbc2499	1.4698669
11	0x3f87644a	1.0577481
12	0x3fa0ebb0	1.2571926
13	0x3f48cd39	0.78438145
14	0x3fe64a3a	1.7991402
15	0x3fac88b6	1.3479221
16	0x3f9ae877	1.2102193
17	0x3f8aabee	1.0833719
18	0x3e19049c	0.14943165
19	0x3f38f558	0.72249365
20	0x3f6c645f	0.92340654
21	0x3f86df52	1.0536902
22	0x3fb24dd4	1.3930001
23	0x3f31c403	0.69439715
24	0x3f1e9db5	0.6195939
25	0x3f3bc456	0.7334646
26	0x400fb482	2.2453923
27	0xbd96cce0	-0.073632956
28	0x3e81a21b	0.2531899
29	0x4003aea1	2.0575335
30	0x3fce06d9	1.609584
31	0x3f1ce1dd	0.6128214
32	0x3f3d8719	0.7403427
33	0x3f3d364a	0.73910964
34	0x3f9f5a1b	1.2449373
35	0x3faff439	1.3746406
36	0x3f090ca3	0.5353491
37	0x3f3ec037	0.74512047
38	0x400bb713	2.183049
39	0x3f793d85	0.97359496
40	0x3fa1afea	1.263181
41	0x3f63bab6	0.88956773
42	0x3fd137e0	1.6345177
43	0x3fd2666d	1.6437508
44	0x3f0ef707	0.55845684
45	0x3fa691db	1.3013262
46	0x3f83b77b	1.0290369
47	0x3f18f7f4	0.59753346
48	0x3f65bb1e	0.89738643
49	0x3fcc29fa	1.595031
50	0x3f9a959f	1.2076911
51	0x3f90457e	1.1271207
52	0x3fa248fb	1.2678522
53	0x3f9f580c	1.2448745
54	0x3fd89476	1.6920307
55	0x3f9b342f	1.21253
56	0x3f9198b2	1.1374724
57	0x3f27c34f	0.6553239
58	0x3fbb6410	1.4639912
59	0x3f9630e3	1.1733669
60	0x3f0ef502	0.558426
61	0x3ff36d32	1.9017699
62	0x3fa6d5ef	1.3034037
63	0x3e4a77f7	0.19772325
64	0x3f4c001a	0.79687655
65	0x3f99af66	1.2006652
66	0x3ee87807	0.45404074
67	0x3f8d0606	1.1017463
68	0x3f1af607	0.6053166
69	0x3f31f198	0.6950927
70	0x3f172c33	0.5905182
71	0x3fb585ab	1.4181417
72	0x3fa377ab	1.2770895
73	0x3f3fa521	0.7486134
74	0x3f722341	0.94585043
75	0x3f571925	0.8402274
76	0x3f5650a0	0.83716774
77	0x3f599fa4	0.8500922
78	0x3f8d3d28	1.1034288
79	0x3f366350	0.7124529
80	0x3f8e15d1	1.1100408
81	0x3fe78b60	1.8089409
82	0x3f5f2f93	0.8718197
83	0x3f1c8f1b	0.6115586
84	0x3f8ee49f	1.116352
85	0x3fb3fae5	1.4060942
86	0x3f770239	0.96487767
87	0x3f9c8457	1.2227887
88	0x3f4c5e0d	0.7983101
89	0x3fa98b58	1.3245649
90	0x3fdc24a9	1.7198688
91	0x3fcd5f4c	1.6044707
92	0x40171c54	2.361104
93	0x3e811456	0.25210828
94	0x3fab66f8	1.3390799
95	0x3e8275fd	0.25480643
96	0x3f89c7a6	1.0764053
97	0x3fa0d770	1.2565746
98	0x3f9b276b	1.2121404
99	0x3fa383b9	1.2774574
100	0x3f8503ce	1.0391786
101	0x3f387581	0.72054297
102	0x3f21d48b	0.6321494
103	0x3f3d803a	0.74023783
104	0x3fcbb45d	1.5914418
105	0x3f9fc867	1.2483033
106	0x3f83c411	1.029421
107	0x3f8b3bed	1.0877663
108	0x3f7a6471	0.9780951
109	0x3f33c9a9	0.70229584
110	0x3fac5ac2	1.3465197
111	0x3fa65202	1.2993777
112	0x3f9510f8	1.1645803
113	0x3fd8adcf	1.6928042
114	0x3f259991	0.6468745
115	0x3f8f515e	1.1196706
116	0x3f63fc5d	0.8905695
117	0x3f4f02d0	0.80863667
118	0x3faece4f	1.365671
119	0x3f780db0	0.96895885
120	0x3eed4581	0.4634209
121	0x3f034b76	0.5128702
122	0x3f8e12eb	1.1099523
123	0x3f9c255d	1.2198902
124	0x3f291be6	0.66058195
125	0x3f94d0c9	1.1626216
126	0x3edfb0f4	0.43689692
127	0x3fcee887	1.6164712
128	0x41a45a89	20.544207
129	0x3fac8217	1.34772
130	0x3f232541	0.6372872
131	0x3fd609e1	1.6721765
132	0x3fa81a13	1.3132957
133	0x3e901b36	0.2814576
134	0x3f78cfff	0.97192377
135	0x3f8bb3b1	1.0914212
136	0x3fb60c24	1.4222455
137	0x3fc8d081	1.568863
138	0x41a444f7	20.533674
139	0x3f89a41e	1.075321
140	0x3fa453b0	1.2838039
141	0x3f92c9b6	1.1467807
142	0x3f2c70e8	0.6735978
143	0x3f6a42f7	0.9150843
144	0x3f02e163	0.5112516
145	0x3f6ca04f	0.9243211
146	0x3fab93f9	1.3404533
147	0x40037e54	2.0545855
148	0x3ec4789a	0.38373262
149	0x3f55d70d	0.83531266
150	0x3fb14db6	1.385184
151	0x3fc21113	1.5161461
152	0x3f9d0297	1.2266415
153	0x3eb15217	0.34632942
154	0x3f42d55c	0.7610681
155	0x3f8b5bad	1.0887352
156	0x3f54de10	0.8315134
157	0x3fc4aae0	1.5364647
158	0x3fbade14	1.4599023
159	0x3f859e92	1.0439017
160	0x3f9b86ae	1.2150476
161	0x3f8fdc4d	1.1239105
162	0x3feb30e3	1.8374294
163	0x3f86d20f	1.0532855
164	0x3fb55f72	1.4169753
165	0x3fbb9a8b	1.4656538
166	0x3fbd7870	1.480238
167	0x3faad12c	1.3345084
168	0x3f86d93d	1.0535046
169	0x3fbe61f4	1.4873643
170	0x3fe96a09	1.8235484
171	0x3f7e28f7	0.9928126
172	0x3f421d47	0.75825924
173	0x3fadb4ff	1.3570861
174	0x3f58bda1	0.8466435
175	0x3f783cf2	0.96967995
176	0x3fabb304	1.3414006
177	0x3fa96345	1.323342
178	0x3f70fa1f	0.94131655
179	0x3f59d8b2	0.85096276
180	0x3f7a1f1f	0.9770374
181	0x3fbc5e23	1.4716228
182	0x3f280cb6	0.65644395
183	0x3f518e37	0.8185763
184	0xbd5fc7f5	-0.054634053
185	0x400652d5	2.0988057
186	0xbd0012c3	-0.031267893
187	0x3f0e41a8	0.55568933
188	0x3f354b20	0.70817757
189	0x3ee50d6c	0.44736803
190	0x3f6267f5	0.88439876
191	0x3f6fd833	0.9368927
192	0x3f8ffda6	1.1249282
193	0x3fb23142	1.3921282
194	0x3e68c283	0.2273045
195	0x3e960d29	0.29306915
196	0x3fe02fe8	1.751462
197	0x3fcb593b	1.5886606
198	0x3eb849c3	0.35993776
199	0x403d4563	2.95736
200	0x3ef304b0	0.47464514
201	0x3f3aac07	0.7291874
202	0x3f22ca75	0.63590175
203	0x3f5e3191	0.8679438
204	0x3f1f048a	0.621163
205	0x3f55e1a5	0.8354743
206	0x3f830a3f	1.0237502
207	0x3f77ce0d	0.96798784
208	0x3f4126c4	0.75449777
209	0x3f90dab2	1.131674
210	0x3edd2424	0.43191636
211	0x41a4e51c	20.61187
212	0x3ef874a1	0.4852648
213	0x3f7c6d69	0.98604447
214	0x3f1c4909	0.6104894
215	0x3fc88591	1.5665761
216	0x3f92c446	1.1466148
217	0x3da27566	0.07932548
218	0x3f4586cc	0.7715881
219	0x3faca3ea	1.3487523
220	0x3f8417c0	1.0319748
221	0x3f0c22b7	0.5474047
222	0x3fd9bb72	1.7010329
223	0x3f4fa343	0.8110849
224	0x3ff5d7b0	1.9206448
225	0x3f7d3115	0.9890302
226	0x3fe08ca2	1.7542918
227	0x41a2b227	20.336988
228	0x3f59ae8b	0.85031956
229	0x3f7cb284	0.98709893
230	0x3f7a0614	0.97665524
231	0x3fb2a1fa	1.3955681
232	0x3f1e1aa2	0.6175939
233	0x3f8c5805	1.0964361
234	0x41a4a0ab	20.578451
235	0x3f857f17	1.042941
236	0x3eaf62a8	0.34254956
237	0x3fac97f5	1.3483874
238	0x3f877c63	1.0584835
239	0x3f927588	1.1442118
240	0x3fb605de	1.422054
241	0x3ff7241a	1.9307892
242	0x3ef709e8	0.48249745
243	0x3f821861	1.016369
244	0x3fbc4a32	1.4710143
245	0x3f46768c	0.7752464
246	0x3f4a383c	0.78992057
247	0x400ca09a	2.1973023
248	0x3f119bee	0.56878555
249	0x3f5d6fa1	0.8649846
250	0x3f47aada	0.77995074
251	0x3fda3c88	1.7049723
252	0x3fb081d8	1.3789625
253	0x3fc45f6d	1.5341622
254	0x3f87539d	1.0572392
255	0x3fccca00	1.5999146

bn2.weight f4 [300]
0	0x3fdf5f98	1.7451048
1	0x3ffeb064	1.989758
2	0x3ff9aa2d	1.9505059
3	0x3fff4b94	1.994494
4	0x4058868a	3.3832116
5	0x4037b2e1	2.870293
6	0x4007e9d8	2.1236477
7	0x3fd76d27	1.6830186
8	0x40358c26	2.836679
9	0x402cce0a	2.7000756
10	0x3fddf023	1.7338909
11	0x3ff4f639	1.9137641
12	0x4041f7d9	3.0307524
13	0x401d7cbc	2.4607382
14	0x3fc3e3bc	1.5303874
15	0x40225d71	2.5369532
16	0x4030503b	2.7548969
17	0x402fee5b	2.748923
18	0x40355029	2.8330176
19	0x401288bb	2.2895954
20	0x400fe466	2.2483153
21	0x401e007d	2.4687798
22	0x3fc02613	1.5011619
23	0x4002345e	2.0344462
24	0x4033a592	2.8069806
25	0x401fa023	2.494149
26	0x400afc06	2.1716323
27	0x4056bced	3.355281
28	0x405f7a97	3.4918573
29	0x3ff3c10e	1.9043291
30	0x403bae04	2.932496
31	0x40112857	2.2680871
32	0x4014eb07	2.326845
33	0x4064961d	3.5716622
34	0x406bb4ad	3.6829026
35	0x4035af07	2.8388078
36	0x403bb474	2.932889
37	0x401255fa	2.2864976
38	0x4024bc55	2.5739949
39	0x401e42a1	2.4728167
40	0x40080f59	2.1259367
41	0x4009bcc6	2.1521468
42	0x4049b443	3.1516273
43	0x401844f9	2.3792098
44	0x40468b1c	3.1022406
45	0x401ebd5a	2.480307
46	0x40054dd1	2.0828745
47	0x4060e639	3.5140517
48	0x402f7ce9	2.741999
49	0x405ef158	3.4834805
50	0x40288e7e	2.633697
51	0x40272082	2.6113591
52	0x401c1412	2.438725
53	0x40138a72	2.305325
54	0x401b3dce	2.4256473
55	0x40096c5c	2.1472387
56	0x40608b66	3.5085082
57	0x4010ad52	2.2605786
58	0x400cc424	2.1994715
59	0x401b7be6	2.4294372
60	0x403d5d21	2.9588091
61	0x401e7e68	2.4764652
62	0x3ff1ff7c	1.8906093
63	0x40678b54	3.617879
64	0x401540bf	2.3320768
65	0x40526af4	3.287778
66	0x4049707b	3.1474903
67	0x4021a277	2.525541
68	0x4043059c	3.0472174
69	0x4009d179	2.1534102
70	0x40108247	2.2579515
71	0x400250f4	2.036191
72	0x4013fb39	2.3122084
73	0x3fd81ac6	1.6883171
74	0x402e2617	2.7210748
75	0x4006ebdc	2.1081457
76	0x400fbf23	2.246041
77	0x3ff8236d	1.9385811
78	0x3feafcc1	1.8358384
79	0x40172f8f	2.3622777
80	0x400ddc64	2.2165766
81	0x3fec5007	1.8461922
82	0x4017c7f2	2.3715787
83	0x4025ce22	2.5907063
84	0x3fb9e8bd	1.4524151
85	0x4031bf22	2.7772908
86	0x4047d563	3.122399
87	0x3ffdcf31	1.9828855
88	0x4044a7a7	3.0727327
89	0x3fdfa434	1.7471986
90	0x406a8359	3.6642668
91	0x400d29fd	2.2056878
92	0x4002ac01	2.0417483
93	0x4028eaf6	2.6393409
94	0x3fd61fda	1.672847
95	0x405ce302	3.4513555
96	0x40216b89	2.5221884
97	0x40289b06	2.6344619
98	0x3fef9b86	1.8719337
99	0x4022645f	2.5373762
100	0x400a98a1	2.1655657
101	0x4017fee3	2.374932
102	0x403962f5	2.8966649
103	0x3fe37106	1.7768867
104	0x401b4cd8	2.4265652
105	0x402926c9	2.6429923
106	0x3fc02b0f	1.501314
107	0x4014777a	2.3197923
108	0x3fff6ae2	1.9954493
109	0x4013dfaa	2.3105264
110	0x4075f0ec	3.8428297
111	0x40355647	2.833391
112	0x4004b41c	2.073493
113	0x4017025d	2.3595192
114	0x40443755	3.0658772
115	0x40354f66	2.832971
116	0x4015b894	2.3393908
117	0x401c44c3	2.441697
118	0x3fe7ec5e	1.8119009
119	0x40291615	2.6419728
120	0x402630aa	2.5967202
121	0x401375b2	2.3040586
122	0x4049ed47	3.1551073
123	0x400a06ce	2.1566653
124	0x40207681	2.507233
125	0x3fd81979	1.6882774
126	0x4036db40	2.857132
127	0x3fd51685	1.6647497
128	0x3dcb9d70	0.09942138
129	0x4018f763	2.3900993
130	0x4031dd53	2.7791336
131	0x40118d06	2.2742324
132	0x400e4b95	2.2233632
133	0x40420ec9	3.0321524
134	0x402056df	2.5053022
135	0x404ae285	3.1700757
136	0x402a58bc	2.661666
137	0x40121f30	2.2831535
138	0x3de0a8f2	0.10969724
139	0x4003110a	2.047915
140	0x3ffc0103	1.9687809
141	0x400caf57	2.198202
142	0x401b7af6	2.42938
143	0x402939a7	2.6441438
144	0x40044c83	2.06717
145	0x401f4ccb	2.489062
146	0x400e35ca	2.222033
147	0x4022194d	2.5327942
148	0x40167316	2.3507743
149	0x4034a46f	2.8225362
150	0x40610354	3.5158281
151	0x3fd3980f	1.653078
152	0x40093741	2.1439974
153	0x4054e95e	3.3267436
154	0x4000917d	2.00888
155	0x3ff96074	1.948256
156	0x3ff80f42	1.9379656
157	0x4021d872	2.5288358
158	0x40008974	2.0083895
159	0x403287b2	2.7895322
160	0x3fd9aad1	1.7005254
161	0x4006c6b3	2.1058776
162	0x3fec9be5	1.8485075
163	0x400b269c	2.1742315
164	0x40121e63	2.2831047
165	0x400d807f	2.2109678
166	0x4019b059	2.4013884
167	0x402540ba	2.5820756
168	0x3fc01e27	1.5009202
169	0x4030ceae	2.7626147
170	0x40061327	2.094919
171	0x402be0e3	2.685601
172	0x401c6d81	2.4441836
173	0x40130798	2.2973385
174	0x401f68ef	2.4907796
175	0x401a1417	2.4074762
176	0x404302ee	3.0470538
177	0x40182582	2.3772893
178	0x4001f9b2	2.0308652
179	0x4041203e	3.017593
180	0x403444b1	2.8166926
181	0x3f879473	1.0592178
182	0x400a40d0	2.1602058
183	0x401fcf9b	2.4970462
184	0x407f8f6f	3.9931295
185	0x401434d9	2.3157256
186	0x4041f69a	3.0306764
187	0x40019e9f	2.0253065
188	0x401c216b	2.4395397
189	0x401ee0e7	2.482477
190	0x40132384	2.2990427
191	0x400ad85e	2.169456
192	0x3ff83395	1.9390742
193	0x3fed2690	1.8527393
194	0x4019a065	2.4004147
195	0x4045088a	3.0786462
196	0x3fcebd4f	1.6151522
197	0x3fecd62e	1.8502862
198	0x40453c30	3.0817986
199	0x3ff46c7d	1.9095608
200	0x403b15ec	2.923213
201	0x4031f9ad	2.780864
202	0x3f5b1934	0.8558533
203	0x4032d764	2.7943964
204	0x4041d18c	3.0284147
205	0x403fc510	2.9964027
206	0x4005ffb0	2.093731
207	0x4054a4c6	3.322557
208	0x3fd7e18a	1.6865704
209	0x4005a9e9	2.0884955
210	0x406a98cf	3.6655767
211	0x3de88f9a	0.11355515
212	0x4062717b	3.5381763
213	0x3fe6c859	1.8029891
214	0x400a3761	2.15963
215	0x402857f7	2.630369
216	0x403ab48b	2.9172695
217	0x40323072	2.7842069
218	0x404a55b7	3.1614816
219	0x400a3bdf	2.1599042
220	0x40050420	2.0783768
221	0x40291f68	2.642542
222	0x3ff29c6f	1.895399
223	0x40206e4c	2.506732
224	0x401e6aeb	2.4752758
225	0x4043d444	3.0598307
226	0x403c37fc	2.940917
227	0x3de3c9ba	0.11122461
228	0x3fff0e6d	1.9926277
229	0x4037f05d	2.8740456
230	0x400e1461	2.2199938
231	0x4010bc07	2.2614763
232	0x4022ea0b	2.5455348
233	0x404da76e	3.213344
234	0x3db704c7	0.08936458
235	0x4069833b	3.6486347
236	0x4022b3e0	2.5422287
237	0x403c2291	2.9396098
238	0x40519916	3.2749686
239	0x403a1a0f	2.9078405
240	0x4003fc1b	2.0622623
241	0x4000c93d	2.0122826
242	0x4061fef0	3.5311852
243	0x40104353	2.2541091
244	0x40100ab6	2.2506537
245	0x4008e8a4	2.1391993
246	0x40259174	2.5870028
247	0x400615da	2.0950837
248	0x401ea34d	2.478717
249	0x404f98f6	3.243711
250	0x402f875d	2.742637
251	0x3ff77241	1.9331743
252	0x40059074	2.0869417
253	0x403b8070	2.9297142
254	0x402b161b	2.6732242
255	0x3fe75957	1.8074139
