weights/model_critic_target_10.pt (torch, 431175 bytes, 9 tensors)

l1.weight f4 [300, 42]
0	0x3dcd2a94	0.10017887
1	0xbe120b6d	-0.14262171
2	0x3db27882	0.08714391
3	0x3c56763b	0.013089712
4	0x3c0393ce	0.008030845
5	0x3d3be7f5	0.04587551
6	0x3e64bae3	0.22336917
7	0xbd118cda	-0.035534717
8	0xbd3c5062	-0.045975097
9	0xbc549cc8	-0.012976833
10	0x3df1e692	0.11811556
11	0xbebe65d5	-0.37187067
12	0x3dcef133	0.10104599
13	0xbd8d0897	-0.06886404
14	0xbe64e483	-0.22352795
15	0xbe933df6	-0.2875821
16	0x3ec9f5bd	0.39445296
17	0x3f48021d	0.78128225
18	0xbe88bc9d	-0.267064
19	0x3e4e7436	0.20161518
20	0xbf256a96	-0.6461576
21	0xbdcddafa	-0.10051532
22	0xbebf2b99	-0.3733795
23	0x3c541d46	0.012946432
24	0x3c33c0ce	0.010971261
25	0xbeab3ac7	-0.3344328
26	0x3e589182	0.21149257
27	0x3effc785	0.4995691
28	0x3ef100bc	0.47070873
29	0xbead3a1d	-0.338334
30	0x3e35d523	0.17757086
31	0xbddd2be3	-0.10799386
32	0xbe517c7e	-0.20457646
33	0x3d525b09	0.05135635
34	0x3d40dbf4	0.047084764
35	0x3da2a7d5	0.07942168
36	0xbeb49bdd	-0.35275164
37	0x3d62ca37	0.05536863
38	0xbdbe79d9	-0.09300584
39	0xbdabb16f	-0.08383452
40	0xbed0b20b	-0.40760836
41	0x3e502159	0.20325221
42	0x3de4f3b3	0.111792944
43	0x3c6be068	0.014396764
44	0x3da582d3	0.08081593
45	0xbe8a522a	-0.2701581
46	0x3cbdb484	0.023157366
47	0x3e0e12fc	0.1387443
48	0x3e3e4f76	0.18585
49	0xbe8eb361	-0.2787123
50	0xbe1a12bb	-0.15046208
51	0x3dc0f1da	0.094211295
52	0x3c9d076c	0.019168578
53	0x3d63696a	0.055520453
54	0x3c990b81	0.018682243
55	0xbd6eb2cd	-0.058275986
56	0x3eb6882d	0.3565077
57	0x3e5fb895	0.21847756
58	0xbe4d5c6d	-0.20054789
59	0x3eac565a	0.3365963
60	0x3f363260	0.71170616
61	0xbedf91ae	-0.43665832
62	0x3eb1191c	0.3458947
63	0xbd05cd3b	-0.032666426
64	0x3ecc74a9	0.39932755
65	0xbd849626	-0.06473951
66	0x3dcec8c2	0.10096885
67	0xbdc69bec	-0.096977085
68	0xbe8f781a	-0.28021318
69	0xbd073aea	-0.03301517
70	0x3eb0ab8f	0.3450589
71	0xbea555aa	-0.3229192
72	0xbea1552c	-0.31510293
73	0xbde48c69	-0.111595936
74	0x40051dd9	2.0799468
75	0xbef2ded6	-0.47435635
76	0x3cb2ac19	0.021810578
77	0x3e62e0eb	0.22156112
78	0xbd84f954	-0.06492868
79	0x3e97f75f	0.29680917
80	0x3e2c22ce	0.16810152
81	0xbeb0a1c7	-0.34498426
82	0x3f0474ee	0.5174092
83	0xbe39e1e3	-0.18152575
84	0x3e0b4e90	0.13604188
85	0x3c0884fa	0.008332485
86	0x3da8baf6	0.08238785
87	0x3e094d2a	0.13408342
88	0x3de7150b	0.112833105
89	0x3d8f42aa	0.06995137
90	0x3e319d9b	0.17345278
91	0xbe190ebb	-0.14947025
92	0xbe021d6b	-0.12706535
93	0xbe11d39c	-0.14240879
94	0x3e01e54c	0.12685126
95	0xbe4dfe2b	-0.20116489
96	0x3e482d66	0.19548568
97	0xbe34ff66	-0.17675552
98	0x3c67cf5e	0.014148561
99	0xbe0bccfd	-0.13652416
100	0xbe261619	-0.16219367
101	0x3e9c9ee9	0.3058999
102	0xbe8f719a	-0.2801636
103	0x3e511293	0.20417242
104	0xbedda72b	-0.43291602
105	0xbcafcfbb	-0.021461358
106	0xbf12e51d	-0.5738085
107	0x3dabe10c	0.08392534
108	0x3dc36e5c	0.09542534
109	0xbef41ab6	-0.4767663
110	0xbeb860c5	-0.3601133
111	0xbda5d35f	-0.080969565
112	0x3dbf540d	0.09342203
113	0x3d083081	0.033249382
114	0x3e841202	0.2579499
115	0xbd8f4a74	-0.06996623
116	0x3e4392ab	0.19098918
117	0x3e59bc3c	0.21263212
118	0x3dc60d53	0.0967051
119	0x3e522579	0.20522107
120	0xbe407191	-0.18793322
121	0x3e2f7036	0.17132649
122	0xbe24cd67	-0.1609398
123	0xbd37ef0e	-0.044905715
124	0xbf27bb09	-0.6551977
125	0x3e3af8c9	0.18258967
126	0x3e269ba8	0.16270316
127	0x3b4bd450	0.003110189
128	0x3cd9e3b4	0.026597835
129	0x3da6431c	0.08118269
130	0x3e1b42b6	0.15162167
131	0x3d7559eb	0.059900206
132	0x3e4e96f2	0.20174769
133	0xbe62d14c	-0.22150153
134	0xbe0ad25b	-0.13556807
135	0xbe36f354	-0.1786626
136	0x3e0d4272	0.13794878
137	0xbd90c8ce	-0.070695505
138	0x3e4f3be5	0.20237692
139	0xbe47c440	-0.19508457
140	0x3d88422c	0.06653246
141	0xbe26faa7	-0.16306554
142	0xbddb4bd3	-0.10707822
143	0x3e8c6563	0.27421102
144	0xbe964ff4	-0.29357874
145	0x3e747c21	0.23875476
146	0xbea58e82	-0.32335287
147	0xba9d2d20	-0.0011991598
148	0xbf0f2515	-0.5591596
149	0x3d95614a	0.07293947
150	0x3dc9779f	0.09837269
151	0xbef3f655	-0.47648874
152	0xbe8cdb24	-0.2751094
153	0xbcc2cd28	-0.023779467
154	0x3d26db96	0.040736757
155	0x39bed371	0.0003639716
156	0x3e86d95a	0.263377
157	0xbc02082a	-0.007936517
158	0x3dc55a3c	0.096363515
159	0x3eae20f1	0.34009507
160	0x3d50ddc7	0.050992753
161	0x3e2f90eb	0.17145126
162	0xbe188c28	-0.14897215
163	0x3e3a6208	0.18201458
164	0xbe230974	-0.15921575
165	0xbdb259ab	-0.08708509
166	0xbf35a014	-0.70947385
167	0x3e22f555	0.15913899
168	0xbd46fd2c	-0.048581287
169	0xbc1d1b7a	-0.00958907
170	0xbc88747f	-0.016657112
171	0xbdb01bfb	-0.08599087
172	0x3cebb645	0.028773436
173	0x3de13f70	0.10998428
174	0xbee9bdce	-0.45652622
175	0x3d6802a9	0.056643162
176	0x3c8bed0c	0.017080806
177	0x3f195e00	0.5990906
178	0xbd1cc082	-0.038269527
179	0xbe333eed	-0.17504473
180	0xbc52a809	-0.0128574455
181	0xbcc0f998	-0.023556516
182	0xbe2e6464	-0.17030483
183	0x3cf38930	0.029728502
184	0x3f8dbba0	1.1072884
185	0xbe041e75	-0.12902243
186	0x3e8550d6	0.26038235
187	0xbf0830f7	-0.53199714
188	0xbf9cfed5	-1.2265269
189	0x3dea204f	0.114319436
190	0x3f24364b	0.64145344
191	0xbcec3f1f	-0.028838692
192	0xbcf9c962	-0.030491535
193	0x3fa2fb4a	1.2732937
194	0x3ff8a30b	1.9424757
195	0xbf31a76b	-0.69396085
196	0x3e91ba35	0.28462377
197	0x3d508986	0.050912403
198	0xbe8d4630	-0.2759261
199	0xbed144ff	-0.40872952
200	0xbdc53a34	-0.09630242
201	0xbf817567	-1.0113953
202	0xbc9cd9a4	-0.019146748
203	0xbf1eb3a7	-0.6199288
204	0xbe219b7d	-0.1578197
205	0x3d50e660	0.051000953
206	0x3c3cb642	0.011518063
207	0x3cc7a815	0.02437214
208	0x3f6c53fe	0.9231566
209	0x3c3aad24	0.011393819
210	0x3dc17638	0.094463766
211	0xbd0143e6	-0.031558894
212	0x3d09305b	0.03349338
213	0x3db5353a	0.08848043
214	0x3e051e7f	0.12999915
215	0x3d715699	0.058920477
216	0x3e26f847	0.16305648
217	0xbe06092d	-0.13089438
218	0xbde45418	-0.11148852
219	0xbe30e6ff	-0.17275618
220	0x3e49f2fd	0.19721599
221	0xbd818bea	-0.063255146
222	0x3e8775e3	0.26457128
223	0xbe394181	-0.18091394
224	0xbc93095e	-0.017948803
225	0xbe3e0990	-0.18558335
226	0xbe1bc127	-0.152104
227	0x3ea3c75f	0.31988046
228	0xbea2eee1	-0.31822875
229	0x3e85cafc	0.26131427
230	0xbea82b07	-0.32845327
231	0xbd182195	-0.0371414
232	0xbf0fc2b6	-0.5615648
233	0x3d96a4e9	0.07355673
234	0x3e18a5e6	0.14907035
235	0xbeffbd09	-0.4994891
236	0xbe90ba60	-0.28267193
237	0xbcd220bc	-0.025650375
238	0x3c21748e	0.009854449
239	0x3d8247c3	0.06361344
240	0x3e92ae2d	0.2864851
241	0xbdbec7b0	-0.09315431
242	0x3e048529	0.12941422
243	0x3e0ee31d	0.13953824
244	0x3c85e195	0.016342917
245	0x3e09ae8a	0.13445488
246	0xbdffd793	-0.124922894
247	0x3e2b221c	0.1671223
248	0xbe308663	-0.17238764
249	0xbdfc8a4e	-0.12331067
250	0xbf360021	-0.71093947
251	0x3e3049fc	0.17215723
252	0xbe1dbdd0	-0.15404439
253	0x3e604da4	0.21904618
254	0x3e24b527	0.16084729
255	0xbe01ddef	-0.12682317

l1.bias f4 [300]
0	0x3dc0fb1b	0.094228946
1	0xbe02d8c2	-0.12777999
2	0xbd9777c2	-0.07395889
3	0xbd8af949	-0.067858286
4	0xbd5d9113	-0.05409343
5	0xba651f5e	-0.0008740331
6	0xbde8041b	-0.11328908
7	0x3c81a47c	0.015825503
8	0x3cd8b29d	0.026452357
9	0xbd208062	-0.039184935
10	0xbd1443e4	-0.036197558
11	0xbcd841b6	-0.02639852
12	0x3d809d56	0.062800094
13	0x3e09b746	0.1344882
14	0xbc802ed0	-0.015647322
15	0x3dc6664a	0.09687479
16	0x3e6396aa	0.22225443
17	0x3d4e9fa7	0.050445225
18	0x3d5b7a02	0.053583153
19	0xbd9f833e	-0.07788704
20	0xbdd7e9be	-0.1054263
21	0x3e4dc9ca	0.20096508
22	0xbd22e3d5	-0.03976806
23	0x3d8dcdb1	0.06923998
24	0x3dfd6c93	0.123742245
25	0x3d7b14b9	0.06129906
26	0x3e3d97b8	0.18514907
27	0xbe214730	-0.15749812
28	0x3bef8cc6	0.0073104827
29	0x3deb66ee	0.11494242
30	0x3d5f1dc4	0.054471746
31	0xbd9a3bc9	-0.07530934
32	0xbcbd9888	-0.023144022
33	0x3d9dbcd8	0.07702035
34	0xbe16daae	-0.14731857
35	0xbd4a8389	-0.049441848
36	0x3d424f98	0.047439188
37	0xbd734ce7	-0.05939951
38	0x3d7e121f	0.062029
39	0xbd2ac0db	-0.041687828
40	0xbce2c2cf	-0.027680783
41	0x3dade072	0.08490075
42	0x3e22bc3d	0.1589212
43	0x3c4eacd1	0.012614445
44	0x3e32afba	0.17449847
45	0x3e56201d	0.20910688
46	0x3d95e641	0.07319308
47	0xbd47cda0	-0.048780084
48	0xbd362eac	-0.044478104
49	0xbd2eb759	-0.042655323
50	0xbd5471db	-0.051866394
51	0x3db2c79f	0.08729481
52	0xbd8ac982	-0.06776716
53	0x3d92417c	0.071413964
54	0x3e51af3a	0.20477
55	0x3dd99dec	0.10625824
56	0xbcb9ad01	-0.022665503
57	0xbd84c780	-0.06483364
58	0xbcdb7cd5	-0.026792923
59	0xbd9ce649	-0.07661111
60	0x3e2eb212	0.17060116
61	0xbd77730b	-0.060412448
62	0xbd3c79fb	-0.046014767
63	0xbd7775d3	-0.0604151
64	0x3c8ae5bd	0.01695525
65	0x3e109831	0.14120556
66	0x3d1827ab	0.037147205
67	0x3da359e6	0.07976131
68	0x3de2a864	0.11067274
69	0x3e48e366	0.19617996
70	0x3e1bcb76	0.15214333
71	0x3dd5656e	0.10419737
72	0x3c26e5bf	0.010186612
73	0x3caeaad8	0.021321699
74	0x3c1de238	0.009636454
75	0x3e039e14	0.12853271
76	0x3d9fd4a3	0.07804229
77	0x3e1fede8	0.15618098
78	0xbd4e5c9b	-0.050381284
79	0xbe0c0c17	-0.13676487
80	0x3e39a38f	0.18128799
81	0x3df08a98	0.11745185
82	0xbcb1ac40	-0.02168858
83	0xbd54b5dd	-0.05193125
84	0x3da3d138	0.0799889
85	0x3cb6c8f3	0.022312617
86	0xbcaa8d92	-0.02081946
87	0xbd921af3	-0.071340464
88	0x3c510288	0.012756951
89	0xbdb82073	-0.08990564
90	0x3e520cdf	0.20512722
91	0x3dae8225	0.08520917
92	0xbcafca96	-0.021458905
93	0x3d27b1f3	0.04094119
94	0x3bfa8aa4	0.007645922
95	0xbc66a847	-0.014078206
96	0x3dbaa307	0.09113126
97	0xbaf144bd	-0.0018407326
98	0x3cb7ae6f	0.022422044
99	0x3d0f6688	0.03500989
100	0x3deb2f5d	0.11483643
101	0x3e6f7795	0.2338546
102	0x3bbfafdc	0.0058498215
103	0x3e2ba51e	0.16762206
104	0xbd1520c0	-0.036408186
105	0x3b81c05c	0.0039596986
106	0x3d55c995	0.052194197
107	0xbd728496	-0.059208475
108	0x3d2881ee	0.041139536
109	0xbd98b8f5	-0.07457153
110	0x3d7c30cf	0.061569985
111	0xbc36a8ba	-0.011148626
112	0x3dd13609	0.102153845
113	0x3dfe2326	0.12409048
114	0x3e0d3a89	0.1379186
115	0x3cf0d307	0.0293975
116	0xbd25a845	-0.040443677
117	0x3cf372a3	0.029717749
118	0x3e31339a	0.1730484
119	0x3e06e3fc	0.13172907
120	0x3df4cac3	0.11952736
121	0xbd48e325	-0.049044747
122	0x3e128030	0.14306712
123	0x39c360be	0.00037265377
124	0xbd11f5de	-0.035634868
125	0x3a29c296	0.0006475834
126	0x3cf4a954	0.029865898
127	0x3ce5d7e5	0.028057048
128	0xbd88cc6f	-0.066796176
129	0x3d0da187	0.034577873
130	0x3cc6dfb9	0.024276601
131	0xbd6ad714	-0.05733402
132	0xba54a271	-0.0008111364
133	0xbd444fe5	-0.047927756
134	0x3e1ed043	0.15509133
135	0x3e20cb33	0.15702514
136	0x3c3a4465	0.011368846
137	0x3e136f47	0.14397918
138	0xbd7d6775	-0.061866242
139	0xbcc64e21	-0.024207177
140	0xb7a1ec2b	-1.930267e-05
141	0xbc98f756	-0.018672626
142	0x3e07034e	0.13184854
143	0xbc852290	-0.016251832
144	0x3dfbcfe4	0.12295511
145	0x3e3c1434	0.18367082
146	0xbd4f54bd	-0.050617922
147	0x3e7471c5	0.23871525
148	0x3d0aadb6	0.03385707
149	0x3d299e94	0.041410998
150	0x3c04309e	0.008068232
151	0xbd5bf8aa	-0.05370394
152	0x3d99eb11	0.075155385
153	0xbdd25fc0	-0.10272169
154	0x3be3e6f1	0.0069550206
155	0x3cc3fe25	0.023924896
156	0x3d7dbdcd	0.061948586
157	0xbcca6b1e	-0.02470928
158	0xbdbc4c99	-0.09194297
159	0x3dd9963c	0.10624358
160	0x3d640c4a	0.055675782
161	0x3e3b1841	0.18270971
162	0x3c9120e3	0.017715877
163	0xbd558794	-0.05213125
164	0x3dd922aa	0.10602315
165	0x3c9cebcf	0.019155411
166	0x3d47e19e	0.04879915
167	0xbd80d2aa	-0.06290181
168	0xbc94116e	-0.018074717
169	0x3d09b0b4	0.033615783
170	0xbddb8485	-0.107186355
171	0x3d9c3562	0.076273695
172	0xbc038b44	-0.008028809
173	0x3e188c47	0.14897262
174	0x3d3f492c	0.04670064
175	0xbd03a549	-0.03214005
176	0x3e044136	0.12915501
177	0x3e4658e2	0.19369844
178	0x3afba86b	0.0019199973
179	0x3e1074ab	0.14107005
180	0x3df70ae6	0.120626256
181	0x3dc66745	0.09687666
182	0x3d894c2f	0.06703984
183	0x3dbbc001	0.09167481
184	0xbca03609	-0.019557016
185	0x3ce70c11	0.028203996
186	0x3e09d41f	0.13459824
187	0xbc4281e7	-0.011871791
188	0x3e0225b3	0.12709694
189	0xbd0a40d5	-0.033753235
190	0xbc6b7443	-0.014370981
191	0x3e064358	0.13111627
192	0xbb9f86ee	-0.00486838
193	0x3d5f5d0c	0.054532096
194	0x3e006ebb	0.1254224
195	0x3cee3b7a	0.029081095
196	0x3d8618dc	0.0654771
197	0xbe0a12bb	-0.13483708
198	0xbd9eec63	-0.07759931
199	0x3c0c092a	0.008547107
200	0xbd1b4283	-0.037905227
201	0xbe21436f	-0.1574838
202	0xbd480f9d	-0.048843015
203	0x3ddefe9c	0.10888407
204	0xbd5f8638	-0.05457136
205	0xbd7d6e82	-0.061872967
206	0x3d6a29fb	0.057168942
207	0xbd8c264b	-0.06843241
208	0x3de96cbe	0.11397694
209	0xbd94cd32	-0.072657004
210	0x3da7bfd2	0.08190884
211	0x3db9925c	0.09061119
212	0xbd0781aa	-0.03308264
213	0x3dfa309f	0.12216305
214	0x3d11b8a9	0.035576496
215	0x3e3d0e4c	0.18462485
216	0x3e126c1d	0.14299054
217	0x3be968b8	0.007123079
218	0xbd50c362	-0.05096758
219	0x3d4c78d4	0.04991992
220	0x3da0ca99	0.078511424
221	0x3cbf1ee4	0.02333016
222	0xbdb01bad	-0.08599029
223	0xbdd47b39	-0.10375065
224	0x3dc796d0	0.09745562
225	0xbe0fd239	-0.14045037
226	0xbda316e0	-0.079633474
227	0xbd8ecb07	-0.06972318
228	0xbc7085be	-0.014680324
229	0x3ce3831f	0.027772484
230	0x3e371208	0.17877972
231	0xbd8e7671	-0.06956185
232	0x3c644e22	0.013934644
233	0x3e0043a6	0.12525806
234	0xbcbbc44c	-0.02292075
235	0x3e2b7c1a	0.1674656
236	0x3c9765a9	0.018481093
237	0x3d710533	0.05884285
238	0x3d896ca3	0.06710174
239	0x3d350288	0.044191867
240	0x3dd4860b	0.10377129
241	0xbd6cf11d	-0.05784713
242	0xbd1b8b57	-0.03797468
243	0x3e1b3100	0.15155411
244	0xbba6c199	-0.0050889966
245	0xbd23e6e6	-0.040015124
246	0x3e3a165e	0.18172595
247	0x3da3dde9	0.080013104
248	0xbc2e01c6	-0.01062054
249	0xbcad383e	-0.021144982
250	0x3daf91ff	0.085727684
251	0xbdb021f0	-0.08600223
252	0x3e30d387	0.17268191
253	0xbdd04bdd	-0.1017072
254	0x3dba2858	0.09089726
255	0x3e1ed7cf	0.15512012

bn1.weight f4 [300]
0	0x3efff4aa	0.4999135
1	0x3f50bd05	0.8153842
2	0x3ec0bf68	0.3764603
3	0x3ec47950	0.38373804
4	0x3fcd9012	1.6059592
5	0x3e957c65	0.29196468
6	0x3fb5e4ea	1.4210484
7	0x3ec13a10	0.3773961
8	0x3e497f40	0.19677448
9	0x3eaca6de	0.3372106
10	0x3f83d616	1.0299709
11	0x3fa15c51	1.2606298
12	0x3f356c7e	0.7086867
13	0x3f877675	1.0583025
14	0x3f60e15f	0.8784389
15	0x3f6c765e	0.92368114
16	0x3fbc9649	1.4733363
17	0x3f8552a1	1.0415841
18	0x3f3733a6	0.71563184
19	0x3f714b02	0.9425508
20	0x3f5150bd	0.8176382
21	0x3f5109b0	0.81655407
22	0x3f1faadc	0.62370086
23	0x3f7386fe	0.95127857
24	0x3f3fc0b0	0.7490339
25	0x3fe23fc0	1.7675705
26	0x3f9de0d6	1.233424
27	0x3f96856d	1.1759468
28	0x3fc10117	1.5078458
29	0x3f66f3c3	0.902157
30	0x3f65a4f5	0.8970483
31	0x3ebd4657	0.36967728
32	0x3f94dbcb	1.1629575
33	0x3f8f1566	1.1178405
34	0x3f783c15	0.9696668
35	0x3f4d0ccb	0.80097646
36	0x3f841f0a	1.0321972
37	0x3e9e61bd	0.30933943
38	0x3f8cf75a	1.1012986
39	0x3f970042	1.1796954
40	0x3fd51beb	1.6649145
41	0x3f6fe1db	0.93704003
42	0x3f630c29	0.8869043
43	0x3f7462c2	0.9546319
44	0x3f20f74a	0.62877333
45	0x3f83d9a9	1.03008
46	0x3eb0f78f	0.34563872
47	0x3eb181d7	0.34669372
48	0x3fb9791f	1.4490088
49	0x3ea63286	0.3246042
50	0x3fc930d6	1.5718029
51	0x3fa88aea	1.3167393
52	0x3faac180	1.3340302
53	0x3f689b4d	0.9086197
54	0x3f9ed753	1.2409462
55	0x3fe5df74	1.7958817
56	0x3ec1d1a0	0.37855244
57	0x3f45fd40	0.77339554
58	0x3f4a00cb	0.7890746
59	0x3fc4436c	1.5333076
60	0x3f8b4ea7	1.0883378
61	0x3f2b5cf5	0.66938716
62	0x3eadd856	0.33954114
63	0x3f119ae1	0.5687695
64	0x3f484c1e	0.78241146
65	0x3f380702	0.71885693
66	0x3e71fce3	0.23631625
67	0x3f7493a3	0.95537776
68	0x3f3887e7	0.7208237
69	0x3f82bbaf	1.0213526
70	0x3f9c558f	1.221361
71	0x3eb6536f	0.3561053
72	0x3f691910	0.9105387
73	0x3f59b30d	0.85038835
74	0x3ebea137	0.37232372
75	0x3f80414e	1.001993
76	0x3f9f0b97	1.2425412
77	0x3f6c0480	0.92194366
78	0x3ea99106	0.33118457
79	0x3f33aee8	0.7018876
80	0x3f819a3a	1.0125191
81	0x3faae547	1.335122
82	0x3f91e310	1.1397419
83	0x3eb753af	0.35806033
84	0x3ed8a309	0.42311886
85	0x3f70dbac	0.9408519
86	0x3eb8250f	0.35965773
87	0x3ebb3317	0.36562416
88	0x3fa0a5e4	1.2550626
89	0x3eb2a607	0.34892294
90	0x3fb4ddb3	1.4130157
91	0x3f9c3b79	1.220565
92	0x3f1f8c0e	0.6232308
93	0x3fac000e	1.3437517
94	0x3fa9da13	1.3269676
95	0x3fb8f82b	1.4450735
96	0x3f530096	0.8242277
97	0x3f326353	0.69682807
98	0x3e8653ec	0.26235902
99	0x3eb1059f	0.345746
100	0x3f9fa0cb	1.2470945
101	0x3fb5ddd5	1.4208323
102	0x3fc0197b	1.5007776
103	0x3f2db4a8	0.67853785
104	0x3f8a9b22	1.0828593
105	0x3f99c3fe	1.2012937
106	0x3f721ddd	0.9457682
107	0x3eb2b1bf	0.34901235
108	0x3f687cc5	0.90815383
109	0x3eb82cdf	0.35971734
110	0x3f6606ef	0.8985433
111	0x3eb044a7	0.34427378
112	0x3fa31211	1.2739888
113	0x3e6fff82	0.23437312
114	0x3f901eda	1.1259415
115	0x3eca65b8	0.3953073
116	0x3f73f19f	0.9529056
117	0x3f8bbcd9	1.0917007
118	0x3f92b184	1.1460423
119	0x3fcf1dac	1.618093
120	0x3f8189f2	1.0120223
121	0x3e9f5005	0.31115738
122	0x3fd12ce9	1.634183
123	0x3e8bc73c	0.2730044
124	0x3ec04fb0	0.37560797
125	0x3f590aed	0.84782296
126	0x3f1e659e	0.61873806
127	0x3f5c5a8d	0.8607567
128	0x3e9fa6bd	0.311819
129	0x3eb9e89f	0.36310288
130	0x3fdf9478	1.7467184
131	0x3f477e65	0.7792724
132	0x3e9eca6d	0.31013814
133	0x3eb52ce7	0.3538582
134	0x3ec05208	0.37562585
135	0x3f9036fb	1.1266779
136	0x3fb058ac	1.377706
137	0x3f6231e5	0.88357383
138	0x3eb9015f	0.3613386
139	0x3f75e057	0.9604544
140	0x3fa90dcc	1.3207335
141	0x3ea26f3e	0.31725496
142	0x3f966298	1.1748838
143	0x3f07f11b	0.5310227
144	0x3fa8bc72	1.3182509
145	0x3f858a7e	1.043289
146	0x3f4531f2	0.77029335
147	0x3fbf8520	1.4962502
148	0x3fe5f886	1.7966468
149	0x3f1d6ed9	0.61497265
150	0x3ec537f0	0.3851924
151	0x3f33a247	0.7016949
152	0x3f8206c8	1.015832
153	0x3fd4aebd	1.6615826
154	0x3f963f7d	1.1738125
155	0x3ebe7bb7	0.37203762
156	0x3f821743	1.0163349
157	0x3ec525f8	0.3850553
158	0x3f823046	1.0170982
159	0x3f897c6d	1.0741097
160	0x3f90342c	1.1265922
161	0x3f763b1c	0.96183944
162	0x3f3db33a	0.74101603
163	0x3eb71917	0.3576133
164	0x3fd09bbc	1.6297526
165	0x3ea4d2f6	0.321922
166	0x3f32ea72	0.69888985
167	0x3ebb7327	0.36611292
168	0x3f43961f	0.7640094
169	0x3f742c19	0.9537979
170	0x3f2c9357	0.6741232
171	0x3fcce183	1.6006321
172	0x3fa7fd3f	1.312416
173	0x3fa2115f	1.2661551
174	0x3ff0f752	1.8825476
175	0x3ea70a26	0.3262493
176	0x3f54d138	0.8313174
177	0x3f36eb25	0.7145255
178	0x3f96c824	1.1779828
179	0x3f3e8018	0.74414206
180	0x3ef7cd49	0.48398808
181	0x3f8b0961	1.0862237
182	0x3f6043df	0.87603563
183	0x3fb88690	1.4416065
184	0x3e880afc	0.2657088
185	0x3ebc22ef	0.36745402
186	0x3f7013b8	0.9378009
187	0x3e57f279	0.2108859
188	0x3ebdc037	0.3706071
189	0x3fd64c9c	1.6742129
190	0x3f26a5d1	0.65096766
191	0x3f55756c	0.83382297
192	0x3f918a4f	1.1370333
193	0x3ebe1627	0.37126276
194	0x3f659129	0.8967462
195	0x3fa845eb	1.3146337
196	0x3f59643d	0.84918576
197	0x3fb312d9	1.3990127
198	0x3ebbe78f	0.36700103
199	0x3f6e338a	0.9304739
200	0x3ea7ca56	0.32771558
201	0x3faa5dc4	1.3309865
202	0x3f400cda	0.7501961
203	0x3fab331b	1.3374971
204	0x3ea6573e	0.32488436
205	0x3e8aeed4	0.27135336
206	0x3f7c5faf	0.985835
207	0x3fbcecb5	1.4759737
208	0x3f925d50	1.1434727
209	0x3e906865	0.28204647
210	0x3f9da81d	1.2316929
211	0x3f2a6489	0.66559654
212	0x3ebf05ff	0.37309262
213	0x3f7f6cb4	0.9977524
214	0x3ef18610	0.47172594
215	0x3ec17700	0.37786102
216	0x3f82a13c	1.0205455
217	0x40120c2b	2.2819927
218	0x3e9b3dd5	0.30320612
219	0x3f89350f	1.0719317
220	0x3fc0fe8b	1.507768
221	0x3f7c8e32	0.9865447
222	0x3fa4c040	1.287117
223	0x3f5720ab	0.8403422
224	0x3f7a1a38	0.97696257
225	0x3f97d403	1.1861576
226	0x3f5448f7	0.82923836
227	0x3ebbe217	0.3669593
228	0x3fd895ab	1.6920675
229	0x3f6bed9d	0.92159444
230	0x3f9dd86f	1.2331675
231	0x3eb9416f	0.36182734
232	0x3f50b0e0	0.8151989
233	0x3f845f67	1.0341614
234	0x3fceeb36	1.6165531
235	0x3f3f887a	0.7481762
236	0x3f743277	0.95389503
237	0x3f893681	1.0719758
238	0x3f8ec872	1.1154921
239	0x3eb9781f	0.36224458
240	0x3eb70017	0.35742256
241	0x3eb4a10f	0.35279128
242	0x3ec30250	0.38087702
243	0x3ff61976	1.922652
244	0x3f81b0d9	1.0132095
245	0x3f82a716	1.020724
246	0x3f5d2c80	0.86396027
247	0x3f717617	0.94320816
248	0x3f8c633a	1.0967782
249	0x3f65e502	0.89802563
250	0x3fa3d9e3	1.2800869
251	0x3f7a2f16	0.977281
252	0x3f52fe71	0.82419497
253	0x3f8d07ae	1.1017969
254	0x3fa1cdd9	1.2640945
255	0x3ec142a8	0.37746167

bn1.bias f4 [300]
0	0xbee4e086	-0.44702548
1	0xbe06283c	-0.13101286
2	0xbf2700c7	-0.6523556
3	0xbf1f17c6	-0.6214565
4	0xbc9db653	-0.019251978
5	0xbf1cdb1e	-0.61271846
6	0xbdd859a4	-0.105639726
7	0xbf136dd6	-0.5758947
8	0xbf343798	-0.7039733
9	0xbf309070	-0.68970394
10	0xbe422d4c	-0.18962592
11	0x3c0446e4	0.008073542
12	0xbefc6de5	-0.49302593
13	0xbd885dba	-0.06658502
14	0xbe13ee47	-0.14446364
15	0xbe9da4de	-0.30789846
16	0xbd496ded	-0.0491771
17	0xbe1e686d	-0.15469523
18	0xbe2170d8	-0.15765703
19	0xbeaf163f	-0.3419666
20	0xbee97a0c	-0.45600927
21	0xbdd399e2	-0.10332085
22	0xbf06fe25	-0.52731544
23	0xbe52f298	-0.20600355
24	0xbe811ea3	-0.25218686
25	0xbd30ed81	-0.04319525
26	0xbe9a0db5	-0.30088583
27	0xbe2e1ed4	-0.17003947
28	0x3d8b98bc	0.06816241
29	0xbeb1b13c	-0.34705532
30	0xbeaa2dad	-0.33237973
31	0xbf1c005e	-0.6093806
32	0xbed34c03	-0.4126893
33	0xbe25ca9b	-0.16190569
34	0xbee6e99a	-0.451001
35	0xbeb6ad74	-0.3567921
36	0xbf0e4ada	-0.55582964
37	0xbf254b47	-0.6456799
38	0xbe7a97d5	-0.24471982
39	0x3cc477a7	0.023982836
40	0xbe9971bb	-0.29969582
41	0xbe99e127	-0.3005459
42	0x3d97597c	0.07390115
43	0xbe8c2781	-0.2737389
44	0xbebf1011	-0.37316945
45	0xbe20881d	-0.15676923
46	0xbf147776	-0.5799478
47	0xbf171cce	-0.5902833
48	0xbe22afb9	-0.15887345
49	0xbf15c50e	-0.58503807
50	0x3e068a59	0.13138713
51	0xbb6b219c	-0.0035878187
52	0xbe7d241e	-0.24720809
53	0xbe1fa953	-0.15591936
54	0x3bbd0f1e	0.0057696244
55	0xbebb176e	-0.36541313
56	0xbf144e0e	-0.579316
57	0xbe561175	-0.20905097
58	0xbe1a43ab	-0.15064876
59	0x3d8462c4	0.064641505
60	0xbe512721	-0.20425083
61	0xbf00eedc	-0.5036447
62	0xbf1c4456	-0.6104177
63	0xbedd0523	-0.43167982
64	0xbb940e14	-0.00451828
65	0xbee9c533	-0.45658264
66	0xbf287ecf	-0.65818495
67	0xbe6d0557	-0.23146568
68	0xbec3b517	-0.38224098
69	0xbe11def1	-0.14245202
70	0xbda91d68	-0.08257562
71	0xbf015b45	-0.5052989
72	0xbdbcb77e	-0.09214686
73	0xbeab59a0	-0.33466816
74	0xbf1cc606	-0.6123966
75	0xbe9d5ab2	-0.30733258
76	0xbab6ccdc	-0.0013946551
77	0xbe0000c9	-0.125003
78	0xbf249927	-0.6429619
79	0xbe39cfec	-0.18145722
80	0xbddac2b6	-0.106816694
81	0xbdd13c2e	-0.102165565
82	0xbefa7187	-0.4891474
83	0xbf16038e	-0.58599174
84	0xbf19959e	-0.5999392
85	0xbe321988	-0.17392552
86	0xbf247dcf	-0.6425447
87	0xbf0f4d95	-0.55977756
88	0xbd18b7f4	-0.037284806
89	0xbf17f91e	-0.593645
90	0x3d85189f	0.06498837
91	0xbe063e4d	-0.13109703
92	0xbee13c32	-0.43991238
93	0xbe187959	-0.1489004
94	0xbd9a8224	-0.075443536
95	0x3e0b345f	0.13594197
96	0xbeaeda5f	-0.3415098
97	0xbf0c7e26	-0.5487999
98	0xbf1ca9e6	-0.61196744
99	0xbf0fcf45	-0.56175643
100	0xbf20fe2d	-0.6288784
101	0xbdfb90f4	-0.12283507
102	0xbe2f6b0d	-0.1713068
103	0xbed80f06	-0.42198962
104	0xbe9b5140	-0.30335426
105	0xbea6953e	-0.32535738
106	0xbebb9076	-0.36633652
107	0xbf195656	-0.59897363
108	0xbe6c10ce	-0.23053285
109	0xbf1c1e0e	-0.6098336
110	0xbe930269	-0.28712776
111	0xbf0f7315	-0.56034976
112	0x3a862d47	0.0010236882
113	0xbef8a274	-0.48561442
114	0x3d904f82	0.07046415
115	0xbf148266	-0.5801147
116	0xbea16e08	-0.3152926
117	0xbed928db	-0.42413983
118	0xbe982b45	-0.29720512
119	0xbe721b14	-0.23643142
120	0xbeba7a0e	-0.36421245
121	0xbf24840f	-0.64264005
122	0x3d3906bd	0.04517244
123	0xbf3c7048	-0.7360883
124	0xbf125df6	-0.57174623
125	0xbed9693c	-0.424631
126	0xbf13b2c8	-0.57694674
127	0xbdd7b4e1	-0.10532547
128	0xbf1cc9ee	-0.6124562
129	0xbf20bf37	-0.6279177
130	0x3be37d35	0.006942416
131	0xbec2769a	-0.3798111
132	0xbf23661f	-0.638277
133	0xbf14a016	-0.5805677
134	0xbf15787e	-0.5838698
135	0xbebd531d	-0.36977473
136	0xbe9afabe	-0.30269426
137	0xbe342665	-0.17592771
138	0xbf20911f	-0.6272144
139	0xbe8082c5	-0.2509977
140	0xbebb6e9c	-0.36607826
141	0xbf13b8d6	-0.5770391
142	0xbd79f3f6	-0.061023675
143	0xbef1d43b	-0.47232231
144	0xbe7430b1	-0.238467
145	0xbe50a5b4	-0.2037571
146	0xbe732660	-0.23745108
147	0x3e1606de	0.14651057
148	0xbca11a93	-0.019665992
149	0xbf1c3bf0	-0.6102896
150	0xbf1ed496	-0.6204313
151	0xbeaec0e3	-0.34131536
152	0xbdb6db8f	-0.08928596
153	0xbe2a8d23	-0.16655402
154	0xbc338d56	-0.01095899
155	0xbf0d8ded	-0.55294687
156	0xbf1657a3	-0.58727473
157	0xbf162846	-0.586552
158	0x3d008642	0.03137804
159	0xbed05b51	-0.4069467
160	0xbe5251ac	-0.20538968
161	0xbe4e1a5b	-0.20127241
162	0xbe93228f	-0.28737304
163	0xbf12d0ce	-0.5734986
164	0xbe7ef197	-0.24896847
165	0xbf09fd6d	-0.5390232
166	0xbe6e9d41	-0.23302175
167	0xbf0ec285	-0.55765563
168	0xbe9b9cb4	-0.30392992
169	0xbd27f087	-0.04100087
170	0xbf05ab89	-0.52214867
171	0xbdb38328	-0.087652504
172	0xbd599c85	-0.053127784
173	0x3d4c6176	0.049897633
174	0xbdd8ec39	-0.10591931
175	0xbf01fb6d	-0.5077427
176	0xbeaba42f	-0.335237
177	0xbedf5c5b	-0.4362515
178	0xbe70243e	-0.23451325
179	0xbe8e9f78	-0.2785604
180	0xbe073b0d	-0.1320612
181	0xbe853503	-0.26017007
182	0xbe8f87f4	-0.28033412
183	0x3dc93fa8	0.098265946
184	0xbf2daa3f	-0.678379
185	0xbf1c005e	-0.6093806
186	0xbd3668e2	-0.044533618
187	0xbf2dbe8f	-0.67868894
188	0xbf13685e	-0.57581127
189	0xbdd11e9f	-0.10210919
190	0xbe93d4c7	-0.28873274
191	0xbe4e73c2	-0.20161346
192	0xbebc0da7	-0.36729166
193	0xbf10bf1e	-0.5654162
194	0xbe3cf671	-0.18453385
195	0xbe25c316	-0.161877
196	0xbebbf45b	-0.36709866
197	0xbdd27045	-0.1027532
198	0xbf13365e	-0.5750483
199	0xbea7ef25	-0.3279964
200	0xbf154cbe	-0.58320224
201	0xbd39e453	-0.045383763
202	0xbe901157	-0.2813823
203	0x3d9b2faa	0.075774506
204	0xbf11c59e	-0.56942165
205	0xbf204f7f	-0.626213
206	0xbe6a2d34	-0.22868806
207	0x3d883f74	0.06652728
208	0xbe057fa3	-0.13036971
209	0xbf1e9616	-0.6194776
210	0xbde76a55	-0.11299578
211	0xbeb8f755	-0.361262
212	0xbf1d2556	-0.61385095
213	0xbea857cf	-0.32879493
214	0xbec12550	-0.3772378
215	0xbf14c33e	-0.58110416
216	0xbe0b5862	-0.13607934
217	0x3d5be5f8	0.053686112
218	0xbf0743c5	-0.52837783
219	0xbd41afcb	-0.04728679
220	0xbe1b5196	-0.15167841
221	0xbdaa3296	-0.0831043
222	0xbdea230f	-0.11432468
223	0xbeb2d606	-0.34928912
224	0xbea394a2	-0.31949335
225	0xbe50c52b	-0.20387714
226	0xbe96833f	-0.29397008
227	0xbf17f91e	-0.593645
228	0xbebf8f1e	-0.37413877
229	0xbeeb8cc3	-0.4600583
230	0xbd1f3edf	-0.038878318
231	0xbf127d36	-0.57222307
232	0xbe8a9d88	-0.27073312
233	0xbdd0e83a	-0.10200544
234	0xbdcfa8ae	-0.10139595
235	0xbe54d429	-0.20784058
236	0xbe7b70ae	-0.24554703
237	0xbe8d35d9	-0.27580145
238	0xbe8ea002	-0.2785645
239	0xbf194846	-0.59875906
240	0xbf05e755	-0.5230611
241	0xbf131eee	-0.5746907
242	0xbf27338f	-0.6531305
243	0x3d9a83e6	0.07544689
244	0xbec0d7c4	-0.37664616
245	0xbe17b73d	-0.14815994
246	0xbecb0ac4	-0.3965665
247	0xbeb22409	-0.34793118
248	0xbe8b8bf2	-0.27255207
249	0xbebe5e1e	-0.3718118
250	0x3d1831e2	0.037156947
251	0xbe8c010e	-0.27344555
252	0xbebbe0e4	-0.36695015
253	0xbe6b8c8e	-0.23002836
254	0xbdb2fdc9	-0.08739812
255	0xbf22d0e7	-0.6360001

l2.weight f4 [300, 308]
0	0x3efe78eb	0.49701628
1	0x3e08c767	0.13357316
2	0xbd7a798a	-0.061151065
3	0xbd1c884e	-0.038215928
4	0x3efc2c81	0.49252704
5	0xbcb09f47	-0.021560324
6	0xbe578ea4	-0.21050507
7	0xbba5e916	-0.0050631864
8	0x3de765f3	0.11298742
9	0x3defab22	0.11702563
10	0xbe128097	-0.14306866
11	0x3cec386f	0.028835503
12	0xbf0b2710	-0.5435648
13	0x3efb8bf0	0.491302
14	0xbe98cbb6	-0.2984292
15	0xbe97872e	-0.2959532
16	0x3e7543f2	0.239517
17	0x3c50f3be	0.012753425
18	0xbea660a8	-0.32495618
19	0x3d523b69	0.05132619
20	0xbe8ce3c1	-0.27517512
21	0x3deb7b19	0.114980884
22	0xbe7823b7	-0.24232374
23	0xbe89df63	-0.26928243
24	0x3ec31a20	0.3810587
25	0xbcb4c4f2	-0.022066567
26	0xbea03c07	-0.31295797
27	0x3eb77173	0.35828742
28	0x3e557e40	0.20848942
29	0xbeb1c62e	-0.34721512
30	0x3f009909	0.50233513
31	0x3c158c05	0.009127622
32	0xbd4a3cd0	-0.0493744
33	0xbe568081	-0.20947458
34	0x3d3be660	0.045874
35	0xbf824ac5	-1.0179068
36	0x3ddaf42b	0.106911026
37	0x3cb0fab0	0.021603912
38	0x3e1b0708	0.15139401
39	0x3ec54981	0.38532642
40	0xbf1b7614	-0.6072705
41	0x3edc7694	0.43059218
42	0x3c202c61	0.009776206
43	0x3f56dbab	0.83928937
44	0x3e011b2e	0.12608024
45	0x3f0554d7	0.5208258
46	0x3d89ee95	0.06734959
47	0x3d775a53	0.060388874
48	0x3d32092e	0.043465786
49	0xbcfcf3ec	-0.03087803
50	0xbda5b8cd	-0.080918886
51	0x3ebb40f7	0.36573002
52	0x3f15c0f6	0.5849756
53	0xbf15e272	-0.58548653
54	0x3ec09be8	0.37618947
55	0xbe5d513a	-0.21613017
56	0x3deb7cd2	0.11498417
57	0xbf3372ab	-0.70096844
58	0xbe98a095	-0.29810014
59	0x3f1ba758	0.6080222
60	0xbe8f51cd	-0.27992097
61	0xbe3985f9	-0.18117513
62	0x3ca7cf06	0.020484459
63	0x3d0fdac9	0.03512076
64	0xbf4e524c	-0.80594325
65	0x3f0c8798	0.548944
66	0x3e1a5f2e	0.1507537
67	0xbe53c8bc	-0.20682043
68	0xbee1614d	-0.44019547
69	0xbf19b302	-0.6003877
70	0xbd9c0e61	-0.0761993
71	0xbceadf02	-0.028670792
72	0x3e2b622d	0.1673667
73	0xbf18a2ed	-0.59623605
74	0x3c2f808f	0.010711803
75	0x3ccc382b	0.024929127
76	0xbe8c5c11	-0.2741399
77	0x3e1c74b9	0.15278901
78	0x3c14bcfd	0.009078261
79	0xbcca856b	-0.024721822
80	0x3ed61ccf	0.41818854
81	0x3f3dfe25	0.7421592
82	0xbe979b6f	-0.29610774
83	0x3e559cd1	0.20860602
84	0xbb885535	-0.004160548
85	0x3c84976e	0.016185489
86	0xbc7c1094	-0.015384812
87	0x3d17a19d	0.03701936
88	0xbf2ece08	-0.6828313
89	0xbdf9a763	-0.121901296
90	0xbc0c7276	-0.0085722115
91	0xbe1b761a	-0.15181771
92	0x3d9556b4	0.07291928
93	0xbf029482	-0.51007855
94	0x3e851ad2	0.25997025
95	0xbe234965	-0.15945967
96	0x3e828e9e	0.25499433
97	0xbeaf5ebb	-0.3425196
98	0x3cc52b70	0.024068564
99	0x3d7f4803	0.062324535
100	0xbeb87aa3	-0.36031064
101	0x3ed535fa	0.41642743
102	0x3e3ccac2	0.18436721
103	0xbf21fcb7	-0.6327624
104	0xbe2717e5	-0.16317709
105	0xbf003e66	-0.5009521
106	0x3de58bd6	0.11208312
107	0xbe06a5f4	-0.13149244
108	0xbe1b3697	-0.15157543
109	0x3d8fe2cd	0.07025681
110	0x3eb7c08a	0.35889083
111	0x3d1c7e26	0.038206242
112	0xbd81713f	-0.06320428
113	0xbe507d19	-0.20360221
114	0xbf81f76d	-1.0153633
115	0xbe0718cd	-0.13193054
116	0x3e307e8c	0.17235774
117	0xbeeb303d	-0.4593524
118	0x3eef4fae	0.46740478
119	0x3ef23370	0.4730487
120	0xbe03fc03	-0.12889104
121	0x3db89978	0.09013647
122	0xbea2bb7d	-0.31783667
123	0x3cb92b8f	0.022603778
124	0xbd1c5715	-0.038168985
125	0x3e4735f1	0.19454171
126	0x3e6f3b65	0.23362501
127	0xbda46a38	-0.08028072
128	0x3df0def3	0.11761274
129	0xbe24bddf	-0.16088055
130	0x3e4bcaea	0.19901624
131	0x3dd2be04	0.10290149
132	0x3de89e73	0.11358347
133	0x3d683c02	0.056697853
134	0x3debc25a	0.11511679
135	0xbf4ea5df	-0.8072185
136	0x3edccb34	0.43123782
137	0x3e84275a	0.25811273
138	0xbd09ef5d	-0.03367554
139	0xbd8c9684	-0.06864646
140	0x3e053f31	0.13012387
141	0xbd893c75	-0.067009844
142	0xbe9e4d3d	-0.30918303
143	0xbd0bc8b1	-0.03412694
144	0x3f13e94b	0.5777785
145	0xbebf7ca2	-0.37399775
146	0xbd43f07b	-0.047836762
147	0xbf351f43	-0.70750827
148	0x3f2edff9	0.68310505
149	0x3f297b66	0.66203916
150	0xbe2ac7f7	-0.16677843
151	0xbec73617	-0.38908455
152	0x3d989b06	0.074514434
153	0x3ea3ddac	0.3200506
154	0xbf08c377	-0.53423256
155	0xbe42f1e8	-0.19037592
156	0xbf4859d4	-0.78262067
157	0xbed52de2	-0.41636568
158	0xbcdc911e	-0.026924666
159	0xbc9d829f	-0.019227324
160	0x3e51ad22	0.20476201
161	0x3f355229	0.7082849
162	0xbd057cbb	-0.032589655
163	0xbd8dc94c	-0.0692316
164	0xbf59ddd7	-0.85104126
165	0xbcaf9e3e	-0.02143776
166	0x3ec525af	0.38505313
167	0xbdf79d84	-0.120905906
168	0x3f3e86be	0.7442435
169	0x3f002d6f	0.50069326
170	0x3ce274eb	0.027643641
171	0xbfb85c43	-1.4403156
172	0x3e9c412b	0.3051847
173	0x3ead4a04	0.33845532
174	0x3e7eadb0	0.24870944
175	0x3d34df8f	0.044158515
176	0x3e57e2f5	0.21082671
177	0x3e2908c8	0.16507256
178	0xbf2f6bd2	-0.68523896
179	0x3e303ab1	0.17209889
180	0x3ebb6d75	0.36606947
181	0x3da198b0	0.07890451
182	0x3dd9a492	0.106270924
183	0x3ef1bb39	0.47213152
184	0x3ce6ae5a	0.02815931
185	0x3e8119a5	0.25214878
186	0xbdc411d1	-0.09573711
187	0x395e3d69	0.00021194447
188	0x3d19d5ad	0.037557293
189	0x3f05cf44	0.5226939
190	0x3e30dcaf	0.17271684
191	0x3ec43ab7	0.38326046
192	0x3e96cb2c	0.29451883
193	0xbca78e2e	-0.020453539
194	0xbe28e633	-0.16494064
195	0xbe878ceb	-0.264747
196	0xbdf0c011	-0.11755384
197	0x3d2987b2	0.041389175
198	0x3c82b87c	0.01595711
199	0x3f0266ae	0.50937927
200	0x3dc988a0	0.09840512
201	0xbf41479c	-0.7549989
202	0xbec3f54e	-0.3827309
203	0x3b4b1401	0.0030987265
204	0x3c9aaedd	0.01888221
205	0xbe02c9ad	-0.12772246
206	0x3f092b43	0.5358164
207	0xbe4ac4f0	-0.19801688
208	0xbf453544	-0.770344
209	0xbd5dd262	-0.054155715
210	0x3dca4530	0.09876478
211	0x3e836d1a	0.25669175
212	0x3dac1d5f	0.084040396
213	0x3eb749ed	0.35798588
214	0xbe8dc1d1	-0.27686933
215	0x3c1ceb85	0.009577637
216	0x3da496eb	0.08036598
217	0x3f3d6f87	0.739983
218	0x3df937ac	0.12168822
219	0x3c1ee344	0.009697739
220	0x3d08e461	0.033420924
221	0x3d551a31	0.05202693
222	0x3f7f972f	0.9984006
223	0xbda0a18c	-0.078433126
224	0xbc3e2ae9	-0.01160691
225	0x3ed14388	0.40871835
226	0xbe2db7c8	-0.16964638
227	0x3da1915f	0.078890555
228	0xbe9a24c1	-0.30106166
229	0xbdaaf9a3	-0.08348396
230	0xbe4be480	-0.19911385
231	0x3d89f345	0.06735853
232	0x3c13aa7f	0.009012817
233	0x3eb300d2	0.34961563
234	0xbed46fe1	-0.41491607
235	0x3de06f64	0.10958746
236	0xbe5b8f46	-0.21441373
237	0xbeb20d50	-0.34775782
238	0xbf0c17c6	-0.54723775
239	0x3db18a70	0.08668983
240	0x3d4a8369	0.04944173
241	0xbc9a110e	-0.01880696
242	0xbcf4ea1b	-0.029896786
243	0x3e063a61	0.13108207
244	0x3e6667f6	0.22500595
245	0xbeb384dc	-0.350623
246	0x3e4fc9bb	0.20291798
247	0x3e8b2bb3	0.27181777
248	0xbd78200f	-0.06057745
249	0xbf492fbd	-0.7858847
250	0xbd836b26	-0.06416921
251	0x3e3040b2	0.1721218
252	0x3eb85d65	0.36008754
253	0xbe517b1f	-0.20457123
254	0x3d1c3c46	0.03814342
255	0xbd0f1555	-0.034932453

l2.bias f4 [300]
0	0x3e3bc539	0.18336953
1	0xbd2292d1	-0.039690796
2	0xbe6f8b4d	-0.23392983
3	0xbe2ce3d3	-0.16883783
4	0x3e7dd3ec	0.24787873
5	0xbdb7a2df	-0.08966612
6	0x3da136f2	0.07871808
7	0xbdd52288	-0.10406977
8	0xbde75661	-0.11295772
9	0xbe0fe4f8	-0.14052188
10	0xbe4e7dba	-0.20165148
11	0xbde24fc9	-0.11050374
12	0xbb9c121d	-0.0047629015
13	0xbe123b19	-0.14280356
14	0xbdc870a3	-0.09787109
15	0xbd052c7c	-0.032513127
16	0xbddee3f0	-0.108833194
17	0xbe5f0de0	-0.21782637
18	0xbddd5d4a	-0.10808809
19	0xbd01a167	-0.031648066
20	0xbd0b9dd7	-0.034086075
21	0xbdc3d3ea	-0.09561904
22	0xbca4887b	-0.02008461
23	0xbcf54365	-0.029939363
24	0xbe500c77	-0.20317255
25	0x3e5f20ec	0.21789902
26	0xbcd1185d	-0.025524313
27	0xbe0a90a9	-0.13531746
28	0xbe20ab55	-0.15690358
29	0x3e81a705	0.25322738
30	0x3e8a8641	0.27055553
31	0x3e5a3ad7	0.21311508
32	0x3e38dbf8	0.18052661
33	0xbe2608a3	-0.16214232
34	0xbe1acdec	-0.15117615
35	0xbdbedce7	-0.093194775
36	0xbde24559	-0.11048383
37	0x3e47b055	0.19500859
38	0xbdc3ce98	-0.09560889
39	0x3c39a4e3	0.011330816
40	0x3cf0c154	0.029389061
41	0x3e652238	0.22376335
42	0xbde52cdc	-0.11190197
43	0xbdb10edd	-0.08645413
44	0x3e3d2bd2	0.18473747
45	0xbdc876b4	-0.09788266
46	0xbe026154	-0.1273244
47	0xbde07c85	-0.1096125
48	0x3c11413d	0.008865652
49	0xbe030d75	-0.12798102
50	0xbd75041b	-0.05981837
51	0xbdaaac63	-0.083336614
52	0xbe224502	-0.15846637
53	0x3e86339c	0.2621125
54	0x3df3876b	0.11891063
55	0xbe31325e	-0.1730437
56	0x3e4d332d	0.20039053
57	0x3e8891e6	0.26673812
58	0xbe7ee028	-0.24890196
59	0xbd91470c	-0.07093629
60	0xbde2d07d	-0.11074922
61	0xbbd9dc0f	-0.0066485475
62	0xbdc6f0d9	-0.09713907
63	0xbd9a5e88	-0.07537562
64	0xbc680618	-0.014161609
65	0xbe456e9a	-0.19280472
66	0xbd51c40d	-0.05121236
67	0xbb9c2d16	-0.004766117
68	0x3d369c90	0.044582903
69	0xbde02d58	-0.10946149
70	0x3eae012e	0.33985275
71	0xbcad503b	-0.02115642
72	0xbe1d1d0c	-0.15343112
73	0xbde54944	-0.11195615
74	0xbd7a60a9	-0.06112734
75	0xbe8550c7	-0.2603819
76	0xbe251692	-0.16121891
77	0xbdd7daa2	-0.10539748
78	0xbba9cca1	-0.0051818644
79	0xbd8e76c8	-0.069562495
80	0xbdfe5c59	-0.12419958
81	0xbd29315b	-0.041306835
82	0x3e11001b	0.14160196
83	0xbdf43aea	-0.119252995
84	0xbe2db3a9	-0.16963066
85	0x3d64dd5f	0.05587518
86	0xbdc1141a	-0.09427662
87	0x3e844056	0.25830334
88	0xbd1b1db6	-0.03787013
89	0xbd8a2caa	-0.067468
90	0xbe255eed	-0.16149493
91	0xbd41ff28	-0.047362477
92	0xbdb5b3b9	-0.0887217
93	0xbe0d9c9f	-0.13829277
94	0x3e0998f9	0.1343726
95	0xbd4f3da3	-0.05059589
96	0x3e0ee249	0.13953508
97	0xbdd0d9d1	-0.10197795
98	0xbd8410d4	-0.06448522
99	0xbda0f846	-0.078598544
100	0xbede4ebc	-0.43419445
101	0x3d78ddfa	0.06075857
102	0xbcb2112a	-0.0217367
103	0x3dd133c1	0.102149494
104	0xbd4fb2df	-0.050707694
105	0x3d55ffca	0.052245893
106	0xbe14ae38	-0.14519584
107	0xbe322d93	-0.17400198
108	0xbcba92d1	-0.022775086
109	0xbe0c8031	-0.13720776
110	0xbd485e3c	-0.048917994
111	0xbd7b4ed5	-0.061354477
112	0x3cfb8d8b	0.030707141
113	0x3dc095d1	0.09403575
114	0xbde5c368	-0.112189114
115	0xbe61a30d	-0.22034855
116	0xbdaf3ea2	-0.08556868
117	0xbe262fb3	-0.16229133
118	0x3dd2e6e6	0.10297947
119	0x3e99c0e5	0.3002998
120	0xbd11ac38	-0.03556463
121	0x3df44cac	0.119286865
122	0xbd32c573	-0.043645333
123	0xbe3a7608	-0.18209088
124	0xbd67df37	-0.05660936
125	0xbe2f61b5	-0.17127116
126	0xbe124ef9	-0.14287938
127	0xbd57e855	-0.052711803
128	0xbe0bb06d	-0.1364152
129	0x3e20c862	0.1570144
130	0xbddb75a2	-0.10715796
131	0x3c136825	0.008996998
132	0xbe23def5	-0.1600302
133	0x3c5700df	0.013122766
134	0xbda497ad	-0.08036742
135	0xbd93ccd7	-0.072168045
136	0xbc2d0977	-0.010561339
137	0xbe56f17c	-0.20990556
138	0xbe35b1ac	-0.17743558
139	0xbdfd82d1	-0.12378467
140	0x3e142ee4	0.14471012
141	0xbe07dabb	-0.13267033
142	0xbddaa290	-0.106755376
143	0xbe04b5df	-0.12960003
144	0x3c5f22ac	0.013619106
145	0xbe61db6f	-0.22056364
146	0xbd30d393	-0.043170523
147	0xbdfc662c	-0.12324175
148	0xbe152c9f	-0.14567803
149	0xbe245ff8	-0.16052234
150	0xbe97f0f2	-0.29676014
151	0xbd2f0147	-0.042725828
152	0xbe4856d1	-0.19564368
153	0xbdd908b9	-0.10597367
154	0xbe13eb54	-0.1444524
155	0xbddc5d91	-0.10760034
156	0xbcde55c3	-0.027140504
157	0x3dc20fe0	0.09475684
158	0xbe5ea510	-0.21742654
159	0xbdf75852	-0.12077393
160	0xbdd94023	-0.10607936
161	0xbe729426	-0.23689327
162	0xbddb5136	-0.10708849
163	0xbd901416	-0.07035081
164	0x3e5a856e	0.21339962
165	0x3cb6633c	0.022264116
166	0x3ce5c0f3	0.028046107
167	0xbe73a21a	-0.23792306
168	0xbdda00c0	-0.10644674
169	0xbe4747f9	-0.19461049
170	0x38f75615	0.00011793912
171	0xbe172c10	-0.14762902
172	0xbc9541a7	-0.018219782
173	0xbdb383b7	-0.08765357
174	0xbe1b64c8	-0.15175164
175	0xbe236346	-0.15955839
176	0xbe38bb65	-0.18040235
177	0xbd2f63c4	-0.042819753
178	0xbda721b8	-0.08160728
179	0xbdf25200	-0.118320465
180	0xbd7bab39	-0.061442588
181	0x3e01fed0	0.1269486
182	0xbc779352	-0.0151108075
183	0x3ace7a1c	0.0015752944
184	0x3d97a7c1	0.074050434
185	0xbdd5fa1a	-0.10448094
186	0xbe617b58	-0.22019708
187	0xbe10acb0	-0.14128375
188	0xbd7bd4c7	-0.061482217
189	0xbc18ffe5	-0.009338354
190	0x3bc6a055	0.0060615935
191	0x3e3f2075	0.18664725
192	0x3e94bb98	0.29049373
193	0xbde96661	-0.1139648
194	0xbd939bea	-0.072074726
195	0xbdf37f48	-0.11889511
196	0xbdc32ff5	-0.095306315
197	0xbd648882	-0.055794246
198	0xbdebd2f8	-0.115148485
199	0xbdb6dbea	-0.08928664
200	0x3e559462	0.20857385
201	0xbc0cee8b	-0.008601795
202	0xbd005f3a	-0.031340815
203	0xbe6611bc	-0.22467703
204	0xbde910b4	-0.11380139
205	0xbcdcd811	-0.026958497
206	0xbd835247	-0.064121775
207	0x3e1b9e28	0.1519705
208	0xbe7c2f87	-0.24627505
209	0xbdbd040c	-0.092292875
210	0xbd4262a4	-0.047457352
211	0x3e8c075f	0.27349374
212	0x3af1f959	0.0018461152
213	0x3d8dd8a8	0.069260895
214	0x3dfb4346	0.12268691
215	0xbc2b5e73	-0.01045953
216	0xbe0de471	-0.13856675
217	0xbcf8c1e6	-0.030365895
218	0xbe154c02	-0.14579776
219	0xbaa2668d	-0.0012390182
220	0xbd27a0d2	-0.040924855
221	0x3e32ef04	0.1747399
222	0x3d5989f7	0.05311009
223	0xbe08700f	-0.13323997
224	0xbe07a0c7	-0.13244925
225	0xbe0595f7	-0.13045488
226	0x3bec8801	0.0072183614
227	0xbd82f1d9	-0.06393785
228	0xbe6ffabd	-0.23435493
229	0xbd16b051	-0.036789242
230	0xbe17e1cf	-0.14832233
231	0x3d1ffd83	0.039060127
232	0x3e2aef64	0.16692883
233	0xbde4cfb7	-0.11172431
234	0xbdef2907	-0.11677747
235	0xbdd93f34	-0.10607758
236	0x3d4524ee	0.048130922
237	0xbe9170b7	-0.28406307
238	0x3e051087	0.12994586
239	0xbd1126c6	-0.035437368
240	0xbe031477	-0.12800775
241	0xbe215eda	-0.15758839
242	0x3c90a0d6	0.017654818
243	0x3e7a381f	0.24435471
244	0xbe78bdd4	-0.24291164
245	0xbe20296d	-0.15640803
246	0x3e507ac6	0.20359334
247	0x3d429b7d	0.047511566
248	0xbddcb742	-0.10777141
249	0xbdf95d7d	-0.121760346
250	0xbc9f78fd	-0.019466871
251	0x3e0808ef	0.13284658
252	0x3e7d533c	0.24738783
253	0x3e446b5e	0.19181582
254	0xbe10736f	-0.14106534
255	0xbd934da8	-0.07192546

bn2.weight f4 [300]
0	0x3f8dcf38	1.1078863
1	0x3f88dfcd	1.0693299
2	0x3f453949	0.77040535
3	0x3f2daf12	0.6784526
4	0x3fae7810	1.363039
5	0x3f4e0559	0.8047691
6	0x3f6dd8b5	0.92908794
7	0x3ecaec18	0.3963325
8	0x3f6c628e	0.9233788
9	0x3eb5325f	0.35389993
10	0x3f402dd0	0.75069904
11	0x3eb6310f	0.35584304
12	0x3f67131d	0.9026354
13	0x3ef45beb	0.47726378
14	0x3ece9fc0	0.40356255
15	0x3f3e132f	0.7424802
16	0x3f3eba00	0.74502563
17	0x3e2ea696	0.17055735
18	0x3edf67a8	0.4363377
19	0x3f5f9577	0.8733744
20	0x3e9beb45	0.30452934
21	0x3f800e84	1.000443
22	0x3f7508a9	0.9571634
23	0x3f7c664a	0.9859358
24	0x3efca514	0.49344695
25	0x3fb8134b	1.4380888
26	0x3f5b7241	0.8572121
27	0x3f01ed07	0.507523
28	0x3ecaa500	0.3957901
29	0x3fab7225	1.3394209
30	0x3fc2c658	1.521678
31	0x3f7e2573	0.9927589
32	0x3f69cc7c	0.91327643
33	0x3ea392a6	0.3194782
34	0x3ebd0007	0.36914083
35	0x3f928bb2	1.1448882
36	0x3e81e8ac	0.25372827
37	0x3fb040d5	1.3769785
38	0x3f383393	0.71953696
39	0x3f83c031	1.0293027
40	0x3f814b64	1.0101132
41	0x3fac1449	1.344369
42	0x3f6b4cfd	0.9191435
43	0x3f5e5154	0.86842847
44	0x3f70b3ae	0.9402417
45	0x3ec30d40	0.38096046
46	0x3f4ef57a	0.8084332
47	0x3e855924	0.2604457
48	0x3f704b05	0.9386447
49	0x3f7302d0	0.94926167
50	0x3f5f8a63	0.87320536
51	0x3f20ec67	0.6286072
52	0x3fabcdfa	1.3422234
53	0x3f9e7970	1.238081
54	0x3f88d3b5	1.0689608
55	0x3ec145c8	0.3774855
56	0x3f965ef9	1.1747733
57	0x3faebff5	1.3652331
58	0x3eb2bcaf	0.3490958
59	0x3f6fa6fa	0.9361416
60	0x3e93ef85	0.28893676
61	0x3f4c2d77	0.79756874
62	0x3fa1df1c	1.2646213
63	0x3f457e49	0.7714582
64	0x3f5dda66	0.86661375
65	0x3f050014	0.51953244
66	0x3e90c0ad	0.28272
67	0x3f888892	1.0666678
68	0x3f783b08	0.96965075
69	0x3f08e48a	0.5347372
70	0x3fb77c14	1.4334741
71	0x3f29b891	0.6629725
72	0x3edabc89	0.42721966
73	0x3e9eca6d	0.31013814
74	0x3f57673d	0.84141904
75	0x3ede9e49	0.43480137
76	0x3ea0efa6	0.31432837
77	0x3f44594f	0.76698774
78	0x3f4c03d6	0.79693353
79	0x3f4bb85f	0.795782
80	0x3f548a10	0.83023167
81	0x3f423604	0.7586367
82	0x3fa7905c	1.309093
83	0x3f54e1da	0.8315712
84	0x3e2bc516	0.16774401
85	0x3f55ed02	0.8356477
86	0x3eb2b417	0.34903023
87	0x3fa4a5d2	1.2863104
88	0x3f5c9a70	0.8617315
89	0x3ee10392	0.43948036
90	0x3f76d27a	0.9641491
91	0x3f4ffb58	0.81242895
92	0x3f60a82d	0.87756616
93	0x3ecb2cf0	0.39682722
94	0x3f7cfd93	0.98824424
95	0x3f38df41	0.7221566
96	0x3f9600bf	1.1718978
97	0x3eb5ae97	0.35484764
98	0x3f3487a7	0.7051949
99	0x3f8cd986	1.1003883
100	0x3fd12592	1.633959
101	0x3f64cbd9	0.89373547
102	0x3f3be2a5	0.7339271
103	0x3f9e806a	1.2382939
104	0x3f44c8fb	0.7686917
105	0x3f358c00	0.7091675
106	0x3ecca03a	0.39965993
107	0x3ea589c6	0.32331675
108	0x3f5361f4	0.8257134
109	0x3ed6202e	0.41821426
110	0x3fae0c38	1.3597479
111	0x3f5bb3d3	0.85821265
112	0x3f80ca02	1.0061648
113	0x3f84f49d	1.038715
114	0x3e887154	0.26648962
115	0x3e87b764	0.26507103
116	0x3f304d5e	0.6886805
117	0x3eb7873f	0.35845372
118	0x3f5dfb1a	0.86711276
119	0x3f8aaa3a	1.0833199
120	0x3f8c4834	1.0959535
121	0x3f8afa25	1.0857588
122	0x3f5890e4	0.84596086
123	0x3ea59c86	0.3234598
124	0x3f5e6991	0.8687983
125	0x3ec7d637	0.3903062
126	0x3ecb55be	0.39713854
127	0x3f85a30a	1.044038
128	0x3eb7873f	0.35845372
129	0x3f3b1f14	0.73094296
130	0x3ebc02e7	0.36720964
131	0x3f4b467f	0.79404444
132	0x3f4f80e8	0.8105607
133	0x3f42a037	0.7602572
134	0x3f66a0a2	0.90088856
135	0x3f7fb0d0	0.9987917
136	0x3f993ff4	1.1972642
137	0x3f0e4ac4	0.55582833
138	0x3f3b1340	0.7307625
139	0x3f42fabc	0.7616384
140	0x3f7e3a81	0.9930802
141	0x3f2ac4d2	0.66706574
142	0x3ec10e50	0.37706232
143	0x3e76e6b3	0.24111442
144	0x3f7f3ead	0.9970501
145	0x3f5ff3a0	0.8748112
146	0x3f6513f3	0.89483565
147	0x3e9be505	0.30448166
148	0x3f621178	0.88307905
149	0x3ec00578	0.37504172
150	0x3fbfef78	1.4994955
151	0x3f4a5cd7	0.7904791
152	0x3f410c41	0.7540932
153	0x3f671158	0.9026084
154	0x3eb51707	0.3536913
155	0x3f6bfc99	0.9218231
156	0x3f8825c8	1.063653
157	0x3f9a20a5	1.2041212
158	0x3eb22cef	0.34799907
159	0x3f5f9580	0.87337494
160	0x3f804ddd	1.0023762
161	0x3e9ed7b5	0.31023946
162	0x3f3d7c14	0.74017453
163	0x3f57e652	0.84335816
164	0x3f9a0053	1.2031349
165	0x3f6fa1d6	0.9360632
166	0x3f89b149	1.0757228
167	0x3ed736f9	0.42034128
168	0x3fb2a0f4	1.3955369
169	0x3f4eaec6	0.80735433
170	0x3f5a7eaf	0.85349554
171	0x3f978ffc	1.1840816
172	0x3f484fb9	0.7824665
173	0x3eb5438f	0.35403106
174	0x3ea8d32e	0.32973617
175	0x3ecad4a8	0.3961537
176	0x3e39ca27	0.18143521
177	0x3f7604a1	0.96100813
178	0x3f5680dd	0.8379038
179	0x3f2a6d6b	0.6657321
180	0x3f577173	0.84157485
181	0x3f6149b7	0.88003105
182	0x3f438b73	0.7638466
183	0x3f54a75a	0.8306786
184	0x3f4d1b7f	0.8012008
185	0x3ec809d0	0.39069986
186	0x3f54812b	0.83009595
187	0x3ea1bde6	0.31590194
188	0x3ed4c789	0.41558483
189	0x3f48ad7a	0.78389704
190	0x3f5a059f	0.8516483
191	0x3f736bed	0.95086557
192	0x3fb6468c	1.4240279
193	0x3eb1441f	0.34622285
194	0x3edf9aa1	0.4367266
195	0x3fa2ec78	1.2728415
196	0x3ea3e7ce	0.3201279
197	0x3ea5cb66	0.32381743
198	0x3f48a968	0.78383493
199	0x3eee9b42	0.46602827
200	0x3f81124d	1.008371
201	0x3f630069	0.886725
202	0x3f6396a4	0.88901734
203	0x3f22e88b	0.6363608
204	0x3ec16058	0.37768817
205	0x3f66e457	0.9019217
206	0x3f5ab4ce	0.85432136
207	0x3f7a05ca	0.97665083
208	0x3eb80b47	0.35946104
209	0x3e4ca008	0.19982922
210	0x3f5a4bc8	0.85271883
211	0x3f954d94	1.16643
212	0x3f3f8797	0.7481627
213	0x3f8daaa7	1.1067704
214	0x3fab6531	1.3390256
215	0x3f63d04f	0.8898973
216	0x3f38e891	0.7222987
217	0x3f938683	1.1525425
218	0x3e92c2bd	0.286642
219	0x3f37c4e9	0.71784836
220	0x3f48f96a	0.78505576
221	0x3f830fb9	1.0239173
222	0x3f98827f	1.1914824
223	0x3f329ac4	0.69767404
224	0x3f63a974	0.8893044
225	0x3ed03219	0.4066322
226	0x3f4d362d	0.8016079
227	0x3f6227a8	0.8834176
228	0x3eb30c5f	0.34970376
229	0x3f5cf21f	0.8630695
230	0x3f0f13f2	0.5588981
231	0x3f512017	0.8168959
232	0x3f87288a	1.0559247
233	0x3e9a4a15	0.30134645
234	0x3eaef646	0.34172267
235	0x3e781763	0.24227671
236	0x3f746c3f	0.9547767
237	0x3e32fd87	0.17479526
238	0x3f64f88e	0.89441764
239	0x3f4b13d2	0.7932712
240	0x3f1909d5	0.5978063
241	0x3f720352	0.94536316
242	0x3f66e338	0.9019046
243	0x3f8357bd	1.0261151
244	0x3eb3d207	0.35121176
245	0x3ec8b8d0	0.392035
246	0x3f9cbf8f	1.2245959
247	0x3f6e3a51	0.93057734
248	0x3f410651	0.75400263
249	0x3eab4816	0.33453435
250	0x3f94edb6	1.1635044
251	0x3fb556a7	1.4167069
252	0x3f82cd78	1.0218954
253	0x3fb2dab1	1.3972989
254	0x3ea39b3e	0.31954378
255	0x3ef1da30	0.47236776
