weights/model_critic_147.pt (torch, 431175 bytes, 9 tensors)

l1.weight f4 [300, 42]
000000 ff 22 4f bd 36 1b 57 3f 93 ce 17 bc b2 7f ff bd
       -0.050570484 0.84025896 -0.00926556 -0.12475528
000010 72 a4 5f 3e 75 67 f0 3f 85 5a 59 3f 7e 0d d8 3e
       0.21840075 1.8781573 0.84903747 0.42197794
000020 e2 34 23 bf 81 7a bc 3e f6 88 40 3f c7 94 7f bf
       -0.6375257 0.36812213 0.75208986 -0.9983639
000030 3b 1c 5b bd b4 f8 da be d7 ba 86 3f 1b 40 14 bf
       -0.05349372 -0.4276787 1.0525769 -0.5791032
000040 54 d6 2e 3f 47 a5 62 40 a3 73 b1 bf 81 d5 9c c0
       0.6829579 3.5413377 -1.3863415 -4.9010625
000050 1d f4 02 3f d6 f2 d8 40 f1 37 58 c0 bd 60 82 3e
       0.5115374 6.779643 -3.3784144 0.2546443
000060 26 8c 05 3f ad 4c 9e bf 9f bc f4 3f 90 c9 cc bd
       0.52166975 -1.236715 1.9120063 -0.099993825
000070 5b 92 3a c0 42 6f 08 c0 36 aa 0b c0 48 d8 1d 40
       -2.9151828 -2.1317906 -2.1822639 2.4663258
000080 43 85 36 c0 3d 1a 80 c0 b8 0e fd 3e e1 ae 2f 40
       -2.8518836 -4.003203 0.49425292 2.7450488
000090 7e 5e e3 be a2 8b 56 be c8 22 14 bf 56 07 37 41
       -0.4440803 -0.20951703 -0.5786557 11.439291
0000a0 1a 22 50 bf f5 4c 72 c0 33 db 7e 3e db 02 54 3e
       -0.81302035 -3.785947 0.24888305 0.20704214
0000b0 35 ad db 3d 71 ca 44 3e 3a d7 11 3d b1 47 f7 3d
       0.10726396 0.1921785 0.035605647 0.12074221
0000c0 2f ff 29 be 44 7d a9 bf b4 f4 a1 be 93 fc a7 be
       -0.16601251 -1.3241353 -0.31632006 -0.32809886
0000d0 a1 29 bf 3e c4 a2 45 3d d0 83 d2 3e 50 89 a8 be
       0.37336448 0.04825093 0.4111619 -0.3291726
0000e0 ec fa 11 40 10 66 0f bf 5c 18 29 c0 c8 81 a9 3f
       2.28094 -0.5601511 -2.6421118 1.3242731
0000f0 97 9e d7 3d 99 de 91 bf d6 c5 29 3f 6c 0f 59 40
       0.105282955 -1.1396056 0.663175 3.3915663
000100 91 c9 03 c0 b3 7b 60 3e 90 c3 9b 3e a5 ef 6c bf
       -2.0591776 0.21922188 0.3042264 -0.9255317
000110 62 c2 c2 3e b0 58 dc 3e 14 1c 6f 40 5f de 3a bf
       0.38038927 0.43036413 3.7360888 -0.7299556
000120 b2 cc 89 3e 1a 97 c1 3e bf 24 21 41 b9 37 c9 bf
       0.26913983 0.37810594 10.071471 -1.572013
000130 d4 d4 86 3e e2 45 a2 c0 37 4d 92 40 c5 f1 06 40
       0.2633425 -5.0710306 4.5719256 2.1085064
000140 60 df 26 3e 51 c8 11 3f 00 44 1f c0 2b d8 05 bf
       0.16296148 0.56946284 -2.4885254 -0.5228297
000150 1d 6c 05 3f b3 a9 7a 3c af ea b9 3e 27 71 ec 3e
       0.5211809 0.0152992485 0.36311862 0.46180078
000160 3d 8d 17 3e 1e 92 29 3d f9 e3 5c be 77 65 18 bf
       0.14799972 0.041399114 -0.2157134 -0.59529823
000170 d1 01 68 3e 73 28 41 bf 91 40 ff 3e d3 d2 39 bf
       0.22656943 -0.75452346 0.49853948 -0.7258732
000180 99 20 76 3e e4 8b 34 bf df 14 5f bf a9 a0 9a 3e
       0.24035873 -0.70525956 -0.8714122 0.302007
000190 28 e4 98 3e 27 51 98 bf ea ca e1 3f 18 23 27 3b
       0.2986157 -1.1899766 1.764005 0.0025503095
0001a0 ec 13 56 be 28 ac 83 be da 85 6f bf cf ca 08 3f
       -0.20906037 -0.25717282 -0.93563616 0.5343446
0001b0 42 c5 c8 3e ba ac 0a bf 7a 38 f9 3e 5e cb 31 c0
       0.39212996 -0.5416981 0.486759 -2.7780375
0001c0 e4 4e a2 bf f1 3d fe 3e 6c b4 67 bf 41 92 fc 3e
       -1.2680326 0.49656633 -0.90509677 0.49330333
0001d0 d5 79 cd c0 11 28 55 40 f9 7f 28 3f 12 84 27 40
       -6.421122 3.3305705 0.6582027 2.617436
0001e0 9c e6 39 3e b7 cc 30 bf 38 64 d3 3e 4e 1d c7 3f
       0.18154377 -0.6906237 0.41287398 1.5555818
0001f0 e4 5f a7 bf 3c 1a 69 be b6 72 14 3f 16 c6 7c bd
       -1.3076138 -0.22763914 0.57987535 -0.061712347
000200 ba ea a7 3e 2e 32 05 3e 10 f9 60 3e 88 e8 12 bd
       0.3279627 0.13007423 0.2197001 -0.03586629
000210 ff 20 76 be 27 bf 0a bf 80 45 9f 3d 44 7f 65 bf
       -0.24036025 -0.54197925 0.07776928 -0.89647317
000220 33 f4 00 3f 03 e3 ab be cc 24 8d 3e 13 5e 3f bf
       0.5037262 -0.33571634 0.27567136 -0.7475292
000230 4d bf 32 bf bb 8b bf bc 9c 8b 34 be 36 9e b7 bf
       -0.6982315 -0.023382058 -0.17631382 -1.4345157
000240 ba c3 eb 3f c3 d9 8c 3d 84 f2 bf be 56 1e 85 bf
       1.8419106 0.06877472 -0.37489712 -1.0399883
000250 aa 37 c8 be 9c 87 16 3f dd 90 cb 3e 64 95 03 bf
       -0.39104968 0.58800673 0.3975896 -0.51399827
000260 1d 70 03 3f 63 ee 34 c0 8a 4c b7 bf 33 7e 17 3f
       0.51342946 -2.82705 -1.4320233 0.5917694
000270 2e 2e 38 bf 33 eb 19 3f af 80 d2 c0 23 e6 4c 40
       -0.71945465 0.6012451 -6.5782084 3.2015464
000280 71 c9 22 3f f3 45 28 40 6d da 6d 3e d5 f2 48 bf
       0.63588625 2.6292694 0.23227854 -0.7849553
000290 41 3b a5 3e be 65 c2 3e 68 40 8d be ed aa eb 3e
       0.3227177 0.37968248 -0.275882 0.46028844
0002a0 2a 59 09 3e 15 c4 20 3f 52 81 e0 3e 2a 31 0d 3e
       0.1341292 0.627992 0.43848664 0.13788286
0002b0 b0 74 80 3e 25 d2 ac 3e 0c 2d 15 3e b0 1a 0c bd
       0.25089025 0.33754078 0.14567965 -0.03420514
0002c0 b0 85 05 3f 77 ff 5d bf a3 61 ca 3e 9c ea 43 be
       0.52157116 -0.86717933 0.39527616 -0.19132465
0002d0 a2 8a c6 be ef 04 fa be b5 6e 2b be b7 92 a3 be
       -0.38777643 -0.4883189 -0.1674145 -0.31947872
0002e0 8b 38 7e 3f 44 1c ca bf ca 7a a9 3f 71 2d f4 3e
       0.9930503 -1.5789876 1.3240597 0.4769092
0002f0 2c 9a 16 c0 19 35 1f c0 eb 77 69 bf 86 ef 16 be
       -2.35316 -2.4876158 -0.91198605 -0.14739808
000300 8a e8 5d 3e 8d df 4f 3f 02 81 47 3f 20 68 d3 bf
       0.21670738 0.81200486 0.77931225 -1.6516151
000310 2f 05 10 c0 59 17 b8 c0 17 79 47 c0 ba c8 7e bf
       -2.2503164 -5.75285 -3.1167657 -0.99525034
000320 81 70 3a c0 73 79 11 c1 11 31 66 3d d4 e5 53 3e
       -2.9131167 -9.092151 0.056199137 0.20693141
000330 95 af 64 c0 a7 1f 51 3f 3d a6 0c c0 fd 11 09 c0
       -3.5732167 0.8168892 -2.1976464 -2.141723
000340 e6 b9 aa 40 dd 0f 74 c0 32 83 25 3f aa 85 bc be
       5.3351927 -3.8134682 0.64653313 -0.36820728
000350 f8 78 e1 3e 6a ee 5a bf 61 58 ac 3e be 19 20 be
       0.44037604 -0.8552004 0.33661178 -0.1563482
000360 1a 46 20 bf f5 ee 14 bb 0a f0 d1 be 5c 37 ae bf
       -0.62606966 -0.0022725437 -0.41003448 -1.3610644
000370 66 fc 0c 3f 99 7c 40 3f 39 a3 e1 3e 39 1c 59 bf
       0.5507263 0.7519012 0.44069842 -0.8480869
000380 c2 64 be be 86 a3 8b bf d5 79 03 c0 4d b9 fc bf
       -0.37186247 -1.0909278 -2.054311 -1.9744049
000390 03 bc 11 40 f5 60 81 3e 92 e8 ac bf bd b0 68 c0
       2.2771003 0.25269285 -1.3508475 -3.6357872
0003a0 e8 f3 95 3f 2e 8d 51 3f 7c 80 f5 3e ac 8c c9 be
       1.1715059 0.8185605 0.47949588 -0.39365137
0003b0 e1 8a cc 3e 9c 52 4d c0 0b 66 f6 bf d9 8c 93 3f
       0.39949706 -3.208167 -1.9249891 1.1527358
0003c0 8c a2 18 be 95 c4 2b 3f ef 98 d8 c0 0b 9f 0a 40
       -0.14905757 0.67096835 -6.7686687 2.1659572
0003d0 67 94 30 3f d5 35 2b 40 e6 88 b5 3e 35 41 93 bf
       0.68976444 2.6751606 0.35456008 -1.1504275
0003e0 75 aa 73 bd ba 47 37 c0 fb bd 22 40 c0 29 19 40
       -0.059488732 -2.8637528 2.5428455 2.3931732
0003f0 22 a2 d3 3e 97 cb 3f 3f 8e 9b 77 3d 8e be e2 3f
       0.41334635 0.7492003 0.060451083 1.7714403

l1.bias f4 [300]
000000 a7 51 d8 3e fa 68 ff 3c dd 89 cd 3e e9 6e d8 3e
       0.42249796 0.031177986 0.40144244 0.42272118
000010 11 2e 5d 3d 71 8b 0d 3f fb 0a 02 bd 4d 10 e6 3e
       0.05399901 0.55290896 -0.031748753 0.44934312
000020 d1 f2 16 3f 59 4c fe 3e b6 5d 35 3e e7 f2 bc 3d
       0.5896426 0.49667624 0.17711529 0.092260174
000030 bf 4c e1 3b ca 8c 12 3f f9 19 44 be 3f 80 2c bd
       0.006875604 0.5724608 -0.19150533 -0.042114493
000040 0d 7f 3e 3f 16 20 d7 3d 30 a8 88 bd 68 24 c6 3d
       0.74412614 0.10504167 -0.06672704 0.09674913
000050 d1 46 02 3e 5d d4 d9 3e f2 18 32 3d 36 a2 b6 3e
       0.12722327 0.42544833 0.04348082 0.35670632
000060 56 61 b0 3d 36 37 ca 3e 09 bd b8 3e bc 66 5e be
       0.08612315 0.39495248 0.36081722 -0.21718878
000070 0e e4 cd 3d bf 74 2e 3e bc ae 88 3d c3 02 cb 3e
       0.100532636 0.17036723 0.06673953 0.39650545
000080 6d e7 04 3e 85 4b 38 3e 0d 5d d7 3c 6f 1d 81 3e
       0.12978907 0.17997558 0.026289487 0.2521777
000090 77 c0 13 3e 7f dd f5 3e db 6b f1 3e 10 7b 7a 3e
       0.14428888 0.4802055 0.471526 0.24461007
0000a0 dd ba 5a 3e 1b 3b 3f 3e 2b e4 1a 3e 8f 11 ab bd
       0.21360345 0.1867489 0.15126102 -0.083529584
0000b0 81 7a b4 3e b4 66 1f 3f 59 8b 08 3f 22 e2 e8 3e
       0.35249713 0.6226609 0.5333763 0.45485026
0000c0 24 0f fb 3e ca 21 be 3e 1f bd 95 3d bb ec 20 3f
       0.4903499 0.37135154 0.073114626 0.6286122
0000d0 d6 11 bc 3e c7 49 b2 b9 cc 29 03 3f 2d 1a aa 3e
       0.36732358 -0.00034005774 0.5123565 0.33223096
0000e0 71 06 cb 3e 06 45 b7 3d c9 84 14 3e 40 07 9f bd
       0.39653352 0.08948712 0.14503779 -0.07765055
0000f0 99 3a 3c 3e d0 46 cd 3d ce d7 e1 3e ee a6 94 bb
       0.18381728 0.10023272 0.44109958 -0.004536501
000100 be 73 c3 bd d9 7e 1d bd 97 fa 0c 3f 13 e0 31 3e
       -0.095435604 -0.03845105 0.5506987 0.17370634
000110 2e e5 07 3f 63 c5 87 3e 63 59 da 3e b6 b0 0d 3f
       0.53084075 0.26517782 0.42646322 0.55347764
000120 9f f5 6e 3e ef 36 8c 3d 68 4c f5 3e a0 5a 23 3e
       0.23335885 0.06846415 0.47909856 0.1595254
000130 81 5b da 3e e3 6e ac 3e fc 2e e7 3e c3 ce a1 3e
       0.42647937 0.3367835 0.45153034 0.3160306
000140 a4 c4 bc 3e fd 72 0c 3f 08 37 9a 3e 5b 6e f5 3e
       0.36868775 0.5486296 0.3012011 0.47935757
000150 c6 53 b9 3e 70 25 60 3d de 01 eb 3e fd 17 b4 3e
       0.36196727 0.054723203 0.45899862 0.35174552
000160 08 1e 27 3e f7 ba ce 3e 27 af 2f 3f 4a bf 6e 3e
       0.1632005 0.40377018 0.68626636 0.23315158
000170 e0 bd 08 be 64 4d 87 3e 94 a1 02 3f ad 7f 2a 3d
       -0.13353682 0.26426232 0.510278 0.041625667
000180 e5 1c 76 3e 54 28 27 3e b1 5c 04 3f 36 3c 09 3f
       0.2403446 0.16323978 0.51703936 0.536075
000190 50 ef 9d 3e 47 47 e8 3e e4 63 04 be 41 45 56 3e
       0.30846643 0.4536688 -0.1292873 0.20924856
0001a0 e6 d9 e0 3d dd 65 e6 3e 0e 4f 6d 3e 0d ca f3 3e
       0.10979061 0.4499959 0.23174688 0.4761509
0001b0 ad f5 a6 3e 6c 10 c3 3e 21 57 a6 3e 00 2e d8 3e
       0.3260931 0.38098466 0.3248835 0.42222595
0001c0 c5 04 59 3e e7 75 07 3f 12 ee 91 3e 20 94 ee 3e
       0.21193226 0.5291428 0.28501946 0.46597385
0001d0 e6 11 92 3e e1 88 8a 3e 47 46 89 3e 6c 84 25 3f
       0.2852928 0.27057555 0.2681143 0.64655185
0001e0 0e 2f 71 3e aa a5 fe 3e 5a 64 d9 3e 45 7a 0e 3f
       0.23553106 0.49735767 0.42459375 0.5565532
0001f0 b7 e1 cc 3e f5 24 87 3c d0 86 60 bc 9e d7 3f 3e
       0.40015957 0.016497115 -0.013704017 0.18734595
000200 0e 51 e0 3e 82 ff e9 3e 8e e5 c9 3e dc e8 38 3c
       0.4381184 0.4570275 0.3943295 0.011285987
000210 38 05 04 3f 85 8e d2 3e a0 3d 09 3f 96 4f 47 3f
       0.51570463 0.4112436 0.5360966 0.77855814
000220 81 c7 de 3e f3 78 01 3f 15 8f f1 3e 55 a3 ef 3d
       0.43511584 0.5057518 0.47179475 0.11701075
000230 ac 1b 7f 3e f3 05 fd 3e c8 df ca 3e 35 f1 98 3d
       0.249129 0.494186 0.39623857 0.074678816
000240 01 70 b1 3e b1 f5 ad 3e 5d 22 00 bd 80 b4 69 3f
       0.34655765 0.3397651 -0.03128277 0.91291046
000250 15 db 0f 3f 9b c1 68 3e 25 88 6e 3e cf cb 7a 3d
       0.5619367 0.22730105 0.23294123 0.061229523
000260 63 36 bb 3e eb 8e 98 3e 5b 57 ce 3e c5 e6 f5 3e
       0.3656493 0.29796538 0.40301022 0.48027626
000270 0b a9 cc 3e 32 52 e0 3e 5a 40 82 3e 28 1e 89 3e
       0.3997272 0.4381271 0.2543972 0.2678082
000280 20 5e 7c 3e b1 0f ed 3e b3 26 5c 3e 8f 9d c7 3e
       0.24645281 0.46301034 0.21499138 0.38987395
000290 0a b8 b6 3e 1e 38 09 3f 6f 78 f6 3d 2d 33 b9 3e
       0.35687286 0.53601253 0.1203469 0.36171857
0002a0 3e 49 dc 3c 67 97 1f be c1 13 39 be 80 e4 7f 3e
       0.026890393 -0.15585099 -0.18073942 0.2498951
0002b0 cd 61 e9 3e 5d 48 29 3f 9d 85 59 3e 91 e5 cb 3e
       0.4558243 0.6612604 0.21242376 0.39823583
0002c0 a5 eb c2 3e 9a 70 bf 3e 4c f6 a0 3e d1 9a d7 3e
       0.38070408 0.37390596 0.3143791 0.42110303
0002d0 d9 35 bb 3e dd 57 c7 3e bb 7d dc 3d 95 7d 9c 3e
       0.3656452 0.38934222 0.10766169 0.3056456
0002e0 b6 92 09 3f 6d c5 1a 3f 31 a9 87 3e e6 da 10 3f
       0.5373949 0.604575 0.2649627 0.5658401
0002f0 5d 5a 14 3f cd 94 d6 3e 11 66 a7 3e de 2c f2 3d
       0.57950383 0.419104 0.32695058 0.11824964
000300 1f 1d cc 3d 95 48 08 3f 94 7f 65 bd a9 8e 6d 3d
       0.09966492 0.5323575 -0.05602987 0.05799738
000310 43 ae f7 3e 4c f4 95 3d 0c 00 b1 3e 39 e1 6a 3c
       0.4837514 0.073219866 0.34570348 0.014335924
000320 07 04 d6 3e af 04 6d 3c 5f 72 7a 3e e8 14 9a 3e
       0.41799948 0.014466449 0.24457692 0.30094075
000330 6f e0 ba 3e 60 e1 05 3f a6 e9 fe 3d 3f 39 8f 3e
       0.36499354 0.5229702 0.12446909 0.27973363
000340 8a e1 e7 3e 49 7f f4 3e 17 4b 04 3e a7 c9 33 3e
       0.4528926 0.4775336 0.1291927 0.17557393
000350 f7 0a fb 3e 3e a3 40 3e e2 a4 b0 3e af 21 26 3f
       0.49031803 0.18812272 0.34500796 0.6489515
000360 2b 6f 6d 3e eb b7 a5 3e 11 ae e3 3e 46 da 90 3e
       0.23186938 0.3236688 0.4446874 0.2829153
000370 3f a0 8c 3e d2 c4 13 3e b2 5a 21 3e 04 20 9a be
       0.27466008 0.1443055 0.15757254 -0.3010255
000380 5b f1 ec 3e 27 f2 0b 3e e7 9a 33 bc 48 ab da 3e
       0.4627789 0.13666593 -0.010962225 0.42708802
000390 52 14 27 3e 0d bd bd 3d d4 43 7c 3e 57 9d cd 3e
       0.16316345 0.09264574 0.2463525 0.40159103
0003a0 7d 56 15 3d 74 19 85 3e 46 d0 7c 3e 78 67 cc 3e
       0.036459435 0.25995982 0.24688825 0.3992269
0003b0 ed 78 2f 3e f3 e6 8c 3e f2 8b e4 3e f6 d9 03 3f
       0.17135973 0.2751995 0.4463802 0.51504457
0003c0 21 c8 e9 3e d4 7b d5 3e cc 4b e4 3e 5d 25 ca 3e
       0.456605 0.41696036 0.44589078 0.3948163
0003d0 66 ac 46 3e 90 2f 38 bd c6 ba 03 3f a3 24 cd 3e
       0.19401702 -0.044967234 0.5145687 0.40067014
0003e0 ca 41 4d 3c 82 03 de 3c c4 ca e4 3e 19 bc 7c bd
       0.012527892 0.027101282 0.44685948 -0.06170282
0003f0 e8 aa 3c 3e 3f 52 45 3e 7d 55 0b bb e4 74 8d 3e
       0.1842457 0.19269656 -0.0021260672 0.27628243

bn1.weight f4 [300]
000000 de 0b a9 3f 23 c6 ec 3f 58 bf c0 3e e7 78 c4 3e
       1.3206747 1.8497967 0.37645984 0.3837349
000010 87 1e ec 3f d3 3a 85 3e 58 56 4b 40 35 82 a6 3e
       1.8446816 0.26021442 3.177145 0.32521215
000020 b2 7e 49 3e 60 18 a6 3e bb 0b 28 40 3d 20 69 40
       0.19677237 0.32440472 2.625716 3.6425927
000030 63 41 04 40 94 fe 18 40 af 69 13 40 cb c3 02 40
       2.066491 2.3905382 2.3033254 2.0432003
000040 44 d5 73 40 b1 93 c4 3f 90 8f ff 3f 45 72 27 40
       3.8098917 1.5357572 1.9965687 2.6163495
000050 9c 31 1d 40 09 48 14 40 a1 06 fe 3f 9d 80 14 40
       2.456153 2.3168967 1.9845773 2.32035
000060 d3 5a 52 40 43 c5 2f 40 f5 64 df 3f 51 be 03 40
       3.2867935 2.746415 1.7452685 2.058491
000070 fe bd d7 3f 7e be 0c 40 b0 3b 89 40 d1 45 bd 3e
       1.6854856 2.1991267 4.288536 0.36967328
000080 54 76 e8 3f 37 52 ea 3f 68 85 14 40 82 05 37 40
       1.8161111 1.830634 2.3206425 2.8597112
000090 d7 e8 0a 40 9c 1d 8e 3e 71 2b 21 40 67 68 07 40
       2.1704614 0.27756965 2.5182765 2.1157472
0000a0 16 25 26 40 20 9e c8 3f e0 ce d2 3f cc 06 63 40
       2.5960135 1.5673256 1.6469383 3.5472898
0000b0 93 76 ab 3f b7 7a 02 40 cd f6 b0 3e 13 81 b1 3e
       1.3395561 2.03874 0.34563294 0.34668788
0000c0 56 2d 55 40 88 43 84 3e c8 bb 73 3f 22 cb 90 40
       3.330892 0.25832772 0.95208406 4.5247965
0000d0 a7 fc 30 40 8a 66 3a 40 eb 61 eb 3f b4 99 15 40
       2.7654207 2.9125085 1.8389257 2.3375063
0000e0 af 40 92 3e c0 ca d3 3f 4e 39 8e 3f f2 2c 59 40
       0.28564975 1.6546249 1.1111238 3.3933682
0000f0 ac fe 11 40 e0 53 b7 3f 19 d8 ad 3e ed b8 c0 3f
       2.281169 1.4322472 0.33953932 1.5056435
000100 02 8b 00 40 42 24 ab 3f 9f fc 71 3e d3 ae 73 3f
       2.0084844 1.337044 0.23631524 0.95188636
000110 f6 23 f4 3f 5f 05 08 3f 8c 2e 55 40 11 68 87 3e
       1.9073474 0.53133196 3.330966 0.26446584
000120 89 66 a2 3f 61 27 55 40 6f a0 be 3e f5 90 d5 3f
       1.2687541 3.3305285 0.37231776 1.6684862
000130 62 80 02 40 64 b1 f9 3f a4 90 a9 3e a8 5a ac 3f
       2.0390859 1.950726 0.33118165 1.3465166
000140 df 3f f2 3f c8 3e e9 3f e0 3f 64 40 8a 56 8e 3e
       1.8925742 1.8222284 3.5663986 0.278004
000150 b5 13 1e 3e 89 58 f8 3f 93 24 b8 3e 26 c0 97 3e
       0.15437205 1.9402019 0.35965404 0.29638785
000160 0c dd 16 40 de a5 b2 3e 7c 6a 99 40 41 fd 10 40
       2.3572416 0.34892172 4.7942486 2.2654574
000170 58 6e cc 3f be 76 19 40 83 ba 20 40 5c 7e 83 40
       1.5971174 2.3978724 2.5113838 4.1091747
000180 fa c1 f7 3f b8 ba 07 40 d4 53 86 3e 6a 05 b1 3e
       1.9356072 2.1207714 0.2623583 0.34574443
000190 cd e6 76 40 44 e8 37 40 dd e5 2e 40 52 98 c8 3f
       3.857837 2.8735514 2.7327797 1.5671484
0001a0 e4 a8 89 3f 24 f7 2a 40 59 14 c3 3f cd a7 98 3e
       1.0754666 2.6713343 1.5240585 0.29815522
0001b0 d7 a4 07 40 7b 7b bb 3e 5a c4 8f 3f 0e ad 9b 3e
       2.119436 0.36617646 1.1231797 0.30405468
0001c0 16 0b 63 40 b4 f6 2e 3e 71 a9 06 40 90 ba aa 3e
       3.5475516 0.17086297 2.104092 0.3334546
0001d0 52 f3 d1 3f d5 08 0c 40 35 3b e5 3f 90 c4 2d 40
       1.640238 2.188039 1.7908694 2.7151222
0001e0 40 84 11 40 d9 0c 8f 3e fc 58 06 40 f9 c6 8b 3e
       2.273697 0.2793949 2.0991812 0.27300242
0001f0 80 e1 9b 3e 7a 79 b1 3f 1f f7 b2 3f 95 6e 0d 40
       0.3044548 1.3865197 1.3981665 2.2098744
000200 17 a6 9f 3e 2b 61 99 3e 7a 5f 64 40 3a bb c7 3f
       0.31181404 0.29956946 3.5683274 1.5604012
000210 e4 c9 9e 3e cc 2c b5 3e 94 23 58 3e 6d 3b f2 3f
       0.31013405 0.3538574 0.21107322 1.8924385
000220 66 8a 01 40 8b b9 30 40 c2 04 9b 3e fa ee 0e 40
       2.0240722 2.7613246 0.30277067 2.233336
000230 66 95 9b 40 cd 6e a2 3e 28 6a ab 3f fe 59 d4 3f
       4.861987 0.3172516 1.3391771 1.6589963
000240 95 fd a7 3f 6b 78 37 40 f9 97 b7 3f 55 f2 7c 40
       1.3124262 2.8667247 1.4343253 3.9522908
000250 7c 05 29 40 c0 8a cb 3f 76 fe 8f 3f b5 d7 df 3f
       2.6409597 1.5901718 1.124953 1.7487704
000260 9c ef 79 3f 40 24 1b 40 e6 45 3f 40 2b 38 ae 3e
       0.9763124 2.4240875 2.9886413 0.34027228
000270 f8 0b 06 40 26 e2 b4 3e 2a b9 0b 40 bb 5e a8 3f
       2.0944805 0.35328788 2.1831765 1.315391
000280 52 a4 0b 40 3c 1e 06 40 5a f5 07 40 8b 2b b0 3e
       2.1819043 2.0955954 2.12435 0.3440822
000290 b6 21 3d 40 26 91 94 3e 05 b3 17 40 b0 61 8c 3e
       2.9551826 0.2901699 2.3703015 0.2741828
0002a0 72 27 db 3f a2 72 e5 3f cf bf 1e 40 ec 89 7e 40
       1.7121413 1.7925608 2.480457 3.977168
0002b0 0b b4 1c 40 2f 74 d2 3f 0e 43 3c 40 50 a8 86 3e
       2.448489 1.6441706 2.9415927 0.26300287
0002c0 9e c8 88 3f 3f 34 d9 3f b2 81 87 40 1c be 14 40
       1.0686224 1.6969069 4.234582 2.3241034
0002d0 ca 9e c2 3f 28 5c e2 3f 60 b9 60 40 ad 6b ee 3f
       1.5204709 1.7684374 3.5113144 1.862661
0002e0 ac 0a 88 3e 21 a7 83 3e 50 62 83 3f 21 f2 57 3e
       0.26570642 0.25713447 1.0264378 0.21088459
0002f0 d4 f5 ad 3e fb be c3 3f 76 81 65 3f ec 1d bd 3f
       0.33976614 1.5292658 0.89650667 1.4774756
000300 61 94 ea 3f 48 38 b5 3e 5c d5 15 40 bf 4f 41 40
       1.8326532 0.35394502 2.3411474 3.0204923
000310 4b 9c 8c 40 66 ea f9 3f a2 0b 95 3e ce 32 aa 3f
       4.3940787 1.9524658 0.29110438 1.3296754
000320 0c ca a7 3e 18 f1 56 40 25 ed f7 3f 0e a5 7b 40
       0.32771337 3.3584652 1.9369246 3.9319491
000330 15 d2 8f 3e 73 32 61 3e 75 f6 e7 3f 6d 5d dd 3f
       0.28089967 0.21991901 1.8122088 1.7294136
000340 02 e7 c9 3f 4e 6d 75 3e 71 18 f5 3f a4 73 e1 3f
       1.5773623 0.23967478 1.9148084 1.7613416
000350 51 bd ae 3e 18 06 07 40 51 f1 00 40 2a e7 b9 3e
       0.34128812 2.109747 2.0147288 0.36309177
000360 cc 51 d9 3f 11 8c 17 40 90 3d 9b 3e d9 16 d9 3f
       1.6978087 2.367924 0.30320406 1.6960098
000370 5d e7 17 40 34 50 01 40 7a 8b 35 40 6a 44 2d 40
       2.3734963 2.0205202 2.836638 2.7073007
000380 18 b2 0d 40 75 4e 2b 40 f0 a7 41 40 6d 91 ad 3e
       2.213995 2.6766636 3.025875 0.33900014
000390 da f7 39 40 32 45 0f 40 02 f1 33 40 cf 23 af 3e
       2.9057527 2.2385983 2.811585 0.34207007
0003a0 4f ef f9 3f 3f ec 8b 40 0d 3b 86 40 f7 3c 02 40
       1.9526156 4.3725886 4.1947083 2.034971
0003b0 fc 3e c5 3f 46 68 12 40 b7 4c 50 40 82 77 b9 3e
       1.5409846 2.2876143 3.2546823 0.3622399
0003c0 f2 18 25 3e bb 5c a4 3e 18 02 c3 3e d9 53 f0 3f
       0.16122797 0.32101998 0.38087535 1.8775588
0003d0 e3 d0 00 40 1e 03 1e 40 b2 30 9f 3f 7a cb 01 40
       2.0127494 2.4689403 1.2436736 2.0280442
0003e0 2d 5f 28 40 36 16 c9 3f 1d cd 33 40 58 2b 05 40
       2.630809 1.5709903 2.8093941 2.0807705
0003f0 30 55 84 3f 74 95 36 40 5d 72 1a 40 9a 4e 9c 3f
       1.0338497 2.852872 2.4132302 1.2211487

bn1.bias f4 [300]
000000 ec bf 7b bf 4e a9 01 bf 10 01 27 bf 68 18 1f bf
       -0.98339725 -0.50648963 -0.65235996 -0.62146616
000010 3d a5 df be 49 fb 24 bf c3 07 45 bf aa 0a 21 bf
       -0.43680754 -0.6444593 -0.7696497 -0.629069
000020 14 38 34 bf 51 db 33 bf 80 08 32 be dd d7 66 bf
       -0.7039807 -0.70256525 -0.17386055 -0.9017313
000030 e6 d6 a1 bf bb 3b d5 bd fa e9 c2 be fb 41 b4 bf
       -1.2643707 -0.10411783 -0.38069135 -1.4082636
000040 37 e2 97 3f 43 0b eb bf 90 e7 b5 bf 7d 8f a6 bf
       1.186591 -1.8362812 -1.4211292 -1.3012539
000050 01 3b af bf c0 d3 39 bf 64 43 e8 bf d6 36 20 bf
       -1.3689882 -0.7258873 -1.8145566 -0.62583673
000060 89 70 6e bd 5c 51 7a 3f 4b d3 ee be 54 b1 78 bf
       -0.05821279 0.97780395 -0.4664558 -0.9714558
000070 2e 86 6c bf 84 31 3c bf 16 4c b7 be 02 01 1c bf
       -0.9239224 -0.73513055 -0.35800236 -0.6093904
000080 df 8f a9 bf ab 93 68 bf 54 0a de bf 70 b0 30 bf
       -1.3247031 -0.90850323 -1.7346902 -0.6901922
000090 e1 86 2a bf 72 6d 2d bf 2c 6c 33 bf d8 6c b9 be
       -0.6661206 -0.67745125 -0.7008693 -0.36215854
0000a0 c5 91 9b be 9f e0 24 bf e3 a6 4b bf 22 24 74 bf
       -0.3038465 -0.64405245 -0.79551524 -0.95367634
0000b0 3b 79 dd 3e e2 21 af bf 7a 77 14 bf e9 1c 17 bf
       0.43256554 -1.3682215 -0.57994807 -0.5902849
0000c0 e8 bc eb bd bf d0 26 bf 9b 3a 9b be 85 75 4a 3f
       -0.115106404 -0.6516227 -0.3031815 0.7908557
0000d0 ab 91 98 bf 3f b4 ef be 65 75 b1 bd cd a1 bf bf
       -1.1919454 -0.46817204 -0.08664969 -1.4971253
0000e0 83 05 2d bf c0 b7 65 be a2 07 68 3f 05 66 31 3f
       -0.67586535 -0.22433376 0.90636647 0.69296294
0000f0 a7 ae b7 bf f7 c4 99 bf 95 44 1c bf 43 09 ad bf
       -1.4350175 -1.2013234 -0.6104215 -1.3518451
000100 81 40 5f bf 1c 9c 95 bf 13 7f 28 bf f6 e4 77 bf
       -0.872078 -1.1688266 -0.658189 -0.9683374
000110 e4 62 23 3f 77 5a e8 3d e1 65 b2 bf 15 c3 18 bf
       0.6382277 0.1134538 -1.3937341 -0.5967267
000120 e3 f9 e1 be 66 20 ab bd 1b c6 1c bf 31 20 27 3f
       -0.4413596 -0.08355789 -0.61239785 0.65283495
000130 6a 97 1a bf 01 ad af be 41 99 24 bf bc a1 a6 3e
       -0.6038729 -0.3431168 -0.64296347 0.3254527
000140 d6 98 de bf 92 93 24 be 0b 87 1e bf 87 6e 29 bf
       -1.7390392 -0.16071919 -0.6192481 -0.66184276
000150 4c 41 5d bf df 69 80 bf fb 7d 24 bf f5 7b 21 bf
       -0.8642776 -1.0032309 -0.6425473 -0.6307977
000160 00 3c 07 bf 6e f9 17 bf 3b ae 29 3f 44 ec 91 bf
       -0.5282593 -0.59364974 0.6628148 -1.1400228
000170 39 9e 8e bf 10 74 91 be 52 69 12 be 09 0d f3 3e
       -1.1142036 -0.2840886 -0.14297989 0.47470883
000180 5c 9b 63 be 70 24 18 c0 68 aa 1c bf a1 cf 0f bf
       -0.22227234 -2.377224 -0.6119752 -0.5617619
000190 25 7c 29 bf 0e 00 b7 bd 4d 16 2d bf a1 62 8e bf
       -0.66205055 -0.08935557 -0.67612153 -1.1123849
0001a0 a1 45 31 bf 76 67 34 bf d6 1d a9 bf 8c a6 26 bf
       -0.6924687 -0.7047037 -1.321223 -0.6509788
0001b0 35 73 c2 bf bc f0 1b bf 42 d3 1d bf 37 dd 19 bf
       -1.5191408 -0.60914207 -0.6165048 -0.6010317
0001c0 a2 05 d5 be fe 91 0c bf 10 e1 60 bf 89 5e 24 bf
       -0.4160586 -0.54910266 -0.8784342 -0.6420675
0001d0 dc 2d 3c bf 54 95 eb bd 12 f5 7d bf 9d f9 44 3f
       -0.73507476 -0.115030915 -0.9920207 0.7694338
0001e0 da 46 c6 bf 6d a5 2c bf e0 4c 23 3e b8 70 3c bf
       -1.5490372 -0.6743992 0.15947294 -0.73609495
0001f0 2a 74 25 bf f9 fb a2 bf d0 cd f7 bf 7b 3c 1a bf
       -0.6463038 -1.2733146 -1.9359684 -0.60248536
000200 12 ca 1c bf c5 02 31 bf 90 2b b5 3f a2 15 b2 bf
       -0.61245835 -0.6914485 1.4153919 -1.3912852
000210 6f 66 23 bf 21 a0 14 bf 4f a7 42 bf 8c ca a8 3d
       -0.63828176 -0.5805684 -0.7603654 0.08241758
000220 2a d7 dd 3e 29 e2 8c 3d 85 6c 2f bf 8b fc 16 bf
       0.4332822 0.06879074 -0.6852496 -0.589791
000230 9a 3d 42 bf f4 b8 13 bf 9d 0d 04 bf 02 cc 7b bf
       -0.75875247 -0.5770409 -0.5158327 -0.98358166
000240 55 01 c7 be 63 c1 6c bf 00 5c ab bf b1 84 e6 3f
       -0.38868204 -0.92482585 -1.3387451 1.8009244
000250 32 12 3f bf f1 86 ff be ed 36 36 bf 64 ac 5a bf
       -0.7463714 -0.4990764 -0.7117756 -0.854193
000260 66 c8 2b be 54 84 10 bf 2d 7e 9d bf 75 af 15 bf
       -0.16775665 -0.56451917 -1.2304131 -0.5847085
000270 a3 7e ac be 9f 4a 1e bf c6 de 5c 3d b3 2c b6 be
       -0.33690366 -0.6183261 0.05392339 -0.35580978
000280 8b 76 bd 3d 27 c6 bf bf 7d e5 3c bf 57 a5 17 bf
       0.09251126 -1.4982346 -0.7378767 -0.59236664
000290 74 17 ec 3b a9 1d 12 bf f5 09 d2 bf e5 19 27 bf
       0.0072049443 -0.5707651 -1.6409289 -0.65273887
0002a0 85 5a b3 bf 3d 7e 9f bf 36 aa 6a bf 56 bf a3 be
       -1.4011999 -1.24604 -0.9166597 -0.31981915
0002b0 26 c9 2a 3f 32 4a 5c be 7e 2e 04 bf 43 22 12 bf
       0.6671318 -0.21512678 -0.5163344 -0.5708353
0002c0 5e e5 63 bf 22 f1 8b bd f8 0b 82 be 21 84 26 be
       -0.8902186 -0.06833102 -0.25399756 -0.1626134
0002d0 70 40 29 bf f6 19 1b bf 59 99 6a 3c 1b 26 96 3e
       -0.6611395 -0.6058649 0.0143187875 0.29325947
0002e0 f9 aa 2d bf 55 3d 38 bf 7f cf dd bc 96 be 2d bf
       -0.6783901 -0.71968585 -0.02707648 -0.67868936
0002f0 7e 7e 1b bf 65 54 53 be 4e 1b 22 3f ef f9 ee be
       -0.60739887 -0.20637663 0.63322914 -0.4667506
000300 56 05 66 bf 85 3d 15 bf 8d d1 46 bf 3a 8e a6 be
       -0.8985189 -0.58296996 -0.776635 -0.32530385
000310 d7 4d e0 3c ad ad b7 bf fe d2 26 bf 17 a4 7d bf
       0.027380867 -1.4349877 -0.651657 -0.99078506
000320 e4 4c 15 bf 78 10 90 bc ba b1 2c bf e4 ff 35 bd
       -0.5832045 -0.017585978 -0.6745869 -0.04443349
000330 96 1c 1d bf 26 9a 2d bf 5c 7f cf bf b5 ee 12 3e
       -0.61371744 -0.67813337 -1.6210742 0.14348872
000340 11 da 5a bf bc 83 29 bf cb 93 fc be 31 d1 f2 bd
       -0.8548899 -0.66216636 -0.49331507 -0.11856306
000350 de 2f 25 bf 68 f5 e5 bf 8e 1c 0a bf 82 a0 18 bf
       -0.64526165 -1.7965517 -0.5394982 -0.59619915
000360 08 f2 43 bf 25 f7 bf 3e 66 44 07 bf 1b a6 7f be
       -0.76541185 0.37493244 -0.5283874 -0.24965708
000370 28 9e c6 bf 20 da 89 3c 5f e8 f3 be 98 99 f4 bf
       -1.5517015 0.016827643 -0.47638223 -1.9109373
000380 00 ea 18 bf 74 1e 35 bf ba e5 10 3f bf 5a 1f bf
       -0.59732056 -0.7074959 0.56600535 -0.6224784
000390 70 2a fd be f3 55 32 bf 6d cf db be b4 ae 17 bf
       -0.4944644 -0.696624 -0.4293169 -0.5925095
0003a0 d5 d3 c4 bf cf 48 87 3f 6f 49 29 3f e0 bf c3 bf
       -1.5377146 1.0569094 0.66127676 -1.5292931
0003b0 93 e8 97 bf 89 d5 75 bf 5c 16 dc bd 94 48 19 bf
       -1.1867851 -0.96028954 -0.10746452 -0.5987637
0003c0 ef 3e 39 bf 49 41 1b bf 3e 34 27 bf 7d 5c a3 3e
       -0.72361654 -0.6064649 -0.6531409 0.319065
0003d0 cc 0a c3 bf 84 c2 a0 be 1a f9 6c bd 58 2f cd bf
       -1.523767 -0.31398404 -0.05785475 -1.6030073
0003e0 c9 1d 4d bf 67 e8 7d bf 9c 55 8a bf 09 94 92 be
       -0.80123574 -0.9918274 -1.0807376 -0.28628567
0003f0 a0 0f 3f bf 0d a0 60 bf e6 fe 88 bf 5d 8b 25 bb
       -0.74633217 -0.8774422 -1.0702789 -0.002526007

l2.weight f4 [300, 308]
000000 e6 5f d3 be eb b9 e8 3f b4 78 7a bd f3 88 1c bd
       -0.41284102 1.8181738 -0.061150268 -0.038216542
000010 35 be 13 3f ac c6 35 bd f3 78 b3 3f 55 15 1b bd
       0.5771211 -0.04437892 1.4021286 -0.03786214
000020 f5 65 e7 3d 56 d3 11 3e fa 7d fe bf 2b 42 1d 3d
       0.11298744 0.14240775 -1.9882195 0.03839318
000030 cf f1 d4 bf 28 bd b6 3f 87 9e d3 be d0 c0 91 bf
       -1.6636294 1.4276476 -0.41331884 -1.1386967
000040 44 01 d6 bf d0 99 15 c0 48 fd 13 40 46 2f c2 3f
       -1.6719136 -2.337513 2.312334 1.5170677
000050 c3 1f bd bf ed 86 d7 3d 52 28 d2 bf 31 74 28 40
       -1.4775318 0.10523782 -1.6418555 2.6320918
000060 fe d5 07 3f ba e5 4b 3f e0 b5 dc bd 30 83 af 3f
       0.530609 0.7964741 -0.107768774 1.371191
000070 a7 85 81 3e 1a df d3 bf 9e 14 f4 bf 56 8b 15 3c
       0.2529728 -1.655246 -1.9068792 0.009127459
000080 dd dd c4 3e 80 31 00 3f 1e dd b3 3f b8 d5 ff bd
       0.38450518 0.5007553 1.4051855 -0.124919355
000090 69 08 ac be 23 50 d2 bb 2d 7c 46 bf 3f 74 02 3f
       -0.33600166 -0.0064182444 -0.7753323 0.5095863
0000a0 e2 c8 73 bf 3b 18 30 3e 2d a5 70 3f 06 b4 1f 3c
       -0.952284 0.17196743 0.9400204 0.009747511
0000b0 68 58 24 bf f2 91 4a 3f c6 ee 89 3d 24 5a 77 3d
       -0.641974 0.79128945 0.067349955 0.0603887
0000c0 42 7a 38 3e 94 2c 88 bd 1f f4 cc 3e fb fa 4c 3f
       0.18015388 -0.066491276 0.4003 0.80070466
0000d0 0c 32 a0 3f c0 f8 e4 3f b0 99 fc 3f f8 10 9a bf
       1.2515273 1.7888412 1.9734402 -1.2036428
0000e0 6a 72 87 3b f3 c0 bb bf be d3 cb bf db 43 ae bf
       0.0041335123 -1.4668258 -1.5923994 -1.3614458
0000f0 85 3f 07 3f 81 24 13 3f ad ce a7 3c 1f 48 c6 3f
       0.528313 0.57477576 0.020484293 1.549076
000100 2d 91 13 3e 70 24 75 bf db 5f 1a 3e 27 82 78 3f
       0.14410849 -0.95758724 0.15075628 0.97073597
000110 21 2c e3 3e c0 73 8c 3e b5 8f ce bf 8c 38 12 3c
       0.44369605 0.2743206 -1.6137606 0.008924615
000120 07 4c e0 3e cf 2a 44 c0 a1 80 2f 3c 97 1b 06 bf
       0.43808004 -3.0651128 0.01071182 -0.5238585
000130 16 d3 61 bf 54 b8 2e 3f 86 bc 14 3c 4a b2 45 3d
       -0.88212717 0.6825001 0.009078151 0.048265733
000140 a0 09 60 bf 46 dd 71 bf 91 7b 1c ba 93 9f 8c 3e
       -0.87514687 -0.9447826 -0.00059693406 0.27465495
000150 ab b0 09 3c eb ac 49 bf 03 11 7c bc 83 47 78 bb
       0.008403937 -0.78779477 -0.015384915 -0.0037884421
000160 88 1e ec bf 8f a6 f9 bd 1d f4 92 be 93 71 16 3e
       -1.8446817 -0.12189972 -0.2870187 0.14691763
000170 24 c0 0c be e4 f1 96 be 7b f7 73 3e cf 21 e1 bf
       -0.13745171 -0.29481423 0.23824875 -1.7588443
000180 e2 b1 c8 3f 07 f2 7a bf 4c 2b c5 3c 72 47 7f 3d
       1.5679286 -0.98025554 0.024068497 0.062323995
000190 81 e5 0f 3e fe 7f 46 c0 ea 5a ba 3f 0e 47 9a 3f
       0.14052393 -3.101562 1.4558995 1.2052934
0001a0 ee 1e 02 be d4 76 3a 40 df b5 4c 40 e6 8f dc bd
       -0.12707111 2.9135027 3.1986005 -0.10769634
0001b0 83 4f 34 bf a4 6c d6 bd 46 10 19 3d 92 3f 28 bd
       -0.70433825 -0.1046994 0.037369035 -0.04107625
0001c0 6c 69 b9 3e 6a 18 3d be ee 1a f8 bf f8 bb dd bd
       0.36213243 -0.18466344 -1.9383218 -0.10826868
0001d0 e7 ac f6 bf bf cc e6 3e 16 f6 60 3f 40 02 d3 bf
       -1.9271516 0.45078084 0.878755 -1.6485062
0001e0 1b d3 26 c0 e4 81 d1 3d fa c3 b7 bb 75 2b b9 3c
       -2.6066349 0.10229853 -0.005608079 0.02260373
0001f0 82 fc 12 bd 69 1c 42 be 69 9d c8 bd 7b 87 ab be
       -0.03588534 -0.1895615 -0.097956486 -0.335018
000200 5a de f0 3d 7b cd 0d be c3 56 35 bf e9 81 14 40
       0.1176116 -0.13847916 -0.7083551 2.320429
000210 fd 9e e8 3d 6f 3b 68 3d 77 37 73 3a 24 ff c8 be
       0.113584496 0.056697305 0.0009277979 -0.39257157
000220 65 de 1f bf 59 e7 f1 3f 0d 49 a7 bd 58 1e c8 3d
       -0.6244872 1.8898727 -0.0816823 0.097714126
000230 31 2b b7 3f d2 3c 89 bd 1c d8 34 bf a2 2c 80 bf
       1.4310056 -0.06701054 -0.70642257 -1.0013621
000240 19 dd c0 bf 80 08 7a be 95 a6 18 3f 81 76 fa be
       -1.5067474 -0.24417305 0.59629184 -0.48918536
000250 84 ec a9 3f fc 86 38 3f f5 87 af 3f 9d fb cd bf
       1.3275304 0.7208097 1.3713366 -1.6092411
000260 97 b3 f4 be d1 21 2b 3f ec 1c ce bc db 76 61 be
       -0.47793266 0.66848475 -0.025160275 -0.22017996
000270 aa 5d e6 be 9f 43 e5 be e0 6a 62 bd b5 0a 5d bf
       -0.44993335 -0.44778153 -0.055277705 -0.8634446
000280 7a d0 25 bc 55 71 6e bd 10 2f eb be 8b 5f 97 3d
       -0.0101205055 -0.05821355 -0.45934343 0.0739127
000290 4f 53 2b c0 32 01 fe ba 68 b9 41 40 8e 7e 1f be
       -2.6769598 -0.0019379018 3.0269413 -0.1557562
0002a0 46 99 c3 3f 6c 3a cb bf 35 3a 4e bf 2c db 1a c0
       1.528115 -1.5877204 -0.80557567 -2.4196272
0002b0 5f a3 05 3f 98 8c ec 3d 90 7a 4b bf 0a 0c 80 3d
       0.5220241 0.11550254 -0.7948389 0.06252296
0002c0 00 3e 0a 3f 3f 78 c8 bb db 51 18 c0 bc c4 65 bf
       0.54000854 -0.00611785 -2.379996 -0.8975332
0002d0 ff f3 96 3f 60 89 4f be f2 73 7a 3e c8 af 85 3f
       1.1793212 -0.20267248 0.24458292 1.0444269
0002e0 47 ae e6 3c f9 3d 75 3e 4b 73 3c bf 26 3d 5e 39
       0.028159274 0.23949422 -0.73613423 0.0002119435
0002f0 ac 84 c2 3c ff 45 94 3f aa e9 c2 bf 52 91 11 c0
       0.023744904 1.1583861 -1.5227559 -2.2744946
000300 2d 0f ea 3e a6 8e 67 bc 07 00 01 c0 22 35 ed 3e
       0.45714703 -0.014133131 -2.0156267 0.463296
000310 6e b7 fc bf 0d a7 93 bf f6 8e 71 3d bb 99 bf 3f
       -1.9743478 -1.1535355 0.05897423 1.496879
000320 3c 88 c9 3d fc e1 c9 be 56 ae d0 3e be 12 dc 3d
       0.09840438 -0.39430225 0.40758008 0.10745762
000330 35 e7 34 bd ca 07 d3 bd d4 45 e1 3f 96 00 12 3f
       -0.04416581 -0.1030422 1.7599435 0.57032144
000340 3c e4 a1 be 17 60 9c bd 8a 98 11 be ad fe 1f 3f
       -0.31619442 -0.07635515 -0.14218345 0.6249798
000350 71 6d f3 3d 59 83 f0 3f 66 6f da bf 3b d7 b2 3d
       0.11886109 1.8790084 -1.7065246 0.08732458
000360 6e 9c 2f bf d0 2d bf 3e 00 38 f9 3d ca 2c 41 3f
       -0.6859807 0.3733964 0.12168884 0.7545897
000370 4a b6 08 40 cb 3f be 3f ad 99 45 3d ee 53 5f bf
       2.136126 1.4863218 0.04824226 -0.8723744
000380 42 73 34 bf fa eb f4 3f fa ab 10 be b4 ab a4 3d
       -0.7048837 1.9134514 -0.14128104 0.08040562
000390 c2 19 b6 3f 9e 47 88 bf 88 d3 55 3f a6 cd bb 3d
       1.4226611 -1.0646856 0.83525896 0.09170084
0003a0 8d 62 ff 3f 76 60 21 bf 33 d3 1b bf 03 c1 08 be
       1.995195 -0.6303781 -0.6086914 -0.13354878
0003b0 f8 c0 9b be ba ab 7b 3f b4 f3 69 3f d3 8a b1 3d
       -0.3042066 0.9830891 0.91387486 0.08669057
0003c0 41 43 ca bd 9a 10 4f bd 8c e9 f4 bc 32 14 47 bf
       -0.09876109 -0.05055294 -0.02989652 -0.7776519
0003d0 82 cf 6c 3f 01 1e 1c 3f b7 6d 1d bf 9f e2 61 3f
       0.9250413 0.6098328 -0.61495537 0.8823642
0003e0 7d 19 db bf 56 e9 72 bf 5d 13 fe bd cc a0 d1 be
       -1.7117153 -0.9488729 -0.12406037 -0.4094299
0003f0 52 a9 9e 3e be 23 34 bf 78 bf 88 bf f1 b1 ec be
       0.30988556 -0.7036704 -1.0683432 -0.4622951

l2.bias f4 [300]
000000 2b e5 3f 3f 63 15 f1 3e 8f ce ec 3e 62 2f 2c 3f
       0.7495906 0.4708663 0.46251342 0.672598
000010 6d 91 8c 3f 8a 7e 9f 3e 39 84 76 3f 0e da 8b 3f
       1.098188 0.3115123 0.96295506 1.092592
000020 12 aa 02 3e 7d 27 5a bf 20 0b 5b bf d9 3e ef be
       0.12760189 -0.85216504 -0.8556385 -0.46727636
000030 e5 24 ba 3d 67 25 53 bf ac cc ea bf b3 f3 4f 3f
       0.09089068 -0.82478946 -1.8343711 0.8123123
000040 79 18 ac be 1f 20 7d bf 55 65 15 bf 64 f7 32 3f
       -0.3361242 -0.9887714 -0.58357745 0.6990874
000050 42 3a ea bf e0 80 f7 be b1 11 cc 3f 6f 62 1d bf
       -1.8299029 -0.4834051 1.5942899 -0.6147832
000060 40 d2 a5 be 4e fe c5 3f a8 06 e4 3e 93 77 e7 3e
       -0.3238697 1.5468233 0.44536328 0.45208415
000070 f6 fc 04 3d 41 3d 5f 3f 3b 9a 36 3f 9c 4d cd 3f
       0.032467805 0.8720284 0.71329087 1.603931
000080 17 95 8c 3f 29 8c 5e bf ae 1c 3b bf f2 47 10 3f
       1.0982999 -0.8693262 -0.73090637 0.5635978
000090 64 bc 83 bf f1 cc 37 3f e5 40 20 be d1 10 a0 3f
       -1.0291867 0.7179709 -0.15649755 1.2505132
0000a0 21 2c 49 3f 93 0e 75 3f 93 99 0a 3f d0 22 b8 bf
       0.7858296 0.95725363 0.54140586 -1.4385624
0000b0 d8 e8 84 3f b9 03 1f bf 0e 92 98 bd 4a c9 99 bf
       1.0383558 -0.62115055 -0.07449733 -1.2014554
0000c0 85 5c be bf 07 21 7c be f6 8e d2 3e 85 d3 1d bf
       -1.4871985 -0.24621974 0.41124696 -0.6165088
0000d0 e1 95 7d 3e 5a 30 49 be 78 ff 16 3f ee 3d 90 bf
       0.24764206 -0.19647351 0.58983564 -1.12689
0000e0 40 44 3b 3f 41 c6 9d 3f c8 30 db bd f5 d0 7b 3f
       0.73151016 1.2326127 -0.10702664 0.9836572
0000f0 6b f4 1f bf 65 de c7 bf 2b 28 5b 3e 66 39 ac bf
       -0.6248233 -1.5614744 0.21402042 -1.3455017
000100 21 5c 60 bf bb 72 45 bf f8 2c 38 bf a4 11 d4 3e
       -0.8764058 -0.7712819 -0.71943617 0.4141971
000110 05 ca 69 3f 08 bb 82 bf 19 43 a0 3f ea 50 d6 3e
       0.9132388 -1.0213327 1.2520477 0.41858608
000120 d5 2e 8e bf 3d fa 98 bf 1d ac 88 3e 8a b2 64 bf
       -1.1108042 -1.1951367 0.26693812 -0.8933493
000130 c7 2a d0 3e d3 79 b3 bf 21 13 01 3f a1 5d fa 3e
       0.40657637 -1.4021553 0.50419813 0.48899558
000140 1d cc 78 3f 41 1c cc 3d 57 e2 7b 3f 20 f5 dc 3d
       0.9718645 0.099663265 0.9839224 0.107889414
000150 0f 4b b1 bf ea d0 a0 3e 15 f0 85 bf dc 68 7e 3f
       -1.3851031 0.3140939 -1.0463892 0.9937875
000160 5f 13 6b 3f d6 ff fd 3e 78 e0 65 bf 93 3a 79 3e
       0.9182643 0.4960925 -0.8979564 0.2433875
000170 1f b2 ed 3e 0e 56 c8 bf 20 5c 01 3f 62 a1 65 bf
       0.46424958 -1.5651262 0.50531197 -0.89699376
000180 6e 1a b2 3e 12 33 45 3f e6 df dc 3e b4 62 77 bf
       0.3478579 0.7703105 0.4313957 -0.96634984
000190 61 b6 bd bf 17 45 34 3f d2 37 ad 3d 87 04 ab 3f
       -1.4821283 0.7041792 0.084579125 1.3360757
0001a0 23 06 0d c0 63 87 59 be 42 aa c2 bf fd d5 9c bf
       -2.2034996 -0.21243052 -1.5208209 -1.2252804
0001b0 2d 77 9c bf 6b 60 66 3e 4e b0 12 3f b7 22 cc 3e
       -1.222387 0.22497718 0.5730027 0.39870235
0001c0 df 12 57 bf fe e1 43 3f c1 21 91 3c 27 a5 49 bf
       -0.8401317 0.7651671 0.01771629 -0.7876763
0001d0 e4 d1 40 be 45 f1 a9 bf 3f 52 b0 3f e4 c9 b9 3f
       -0.18830067 -1.3276755 1.37751 1.4514737
0001e0 2f 69 ca 3f 61 35 69 3f 27 4b 17 bf 55 72 d0 bf
       1.581335 0.91097075 -0.5909905 -1.6284891
0001f0 74 b7 03 3f 14 3a 3d bf 1d 5a 81 bf 11 4f c6 bf
       0.514518 -0.73916745 -1.0105625 -1.5492879
000200 48 e0 5f 3d 7f e3 3f bf 59 16 9c 3e 39 48 4d 3e
       0.05465725 -0.74956506 0.304858 0.20047082
000210 7c 68 21 bf f6 d5 85 3f 7d 88 15 bf 4a cd a5 3f
       -0.63050056 1.0455921 -0.5841139 1.2953274
000220 ec 87 92 3f 75 50 aa bf 77 5a 85 be 09 3d ef bf
       1.144773 -1.3305804 -0.26045582 -1.8690501
000230 87 1c 2f 3f 53 e5 87 bf 36 ea 9b be 13 fe 6a bf
       0.68402904 -1.0616859 -0.30452126 -0.91793936
000240 73 d5 ff 3d a6 f8 9e 3f af 80 23 3f 89 f3 15 bf
       0.12491884 1.2419631 0.6386823 -0.5857473
000250 a2 aa 5b bf 60 67 3f bf 7b 0a 08 bf cd ab fa be
       -0.8580724 -0.7476711 -0.5314099 -0.489592
000260 93 17 8a be 77 b4 40 3e 7a 53 52 bf 93 9f e2 3e
       -0.2697111 0.18818842 -0.82158625 0.4426237
000270 cf 64 1a 3f ac de cb 3f 02 56 c1 bf c3 24 f5 bf
       0.6031007 1.5927329 -1.5104373 -1.9151844
000280 76 29 60 bf 0e 21 93 bf 13 ca 89 bf 18 ce c4 3e
       -0.87563264 -1.1494462 -1.0764793 0.38438487
000290 46 4f 6e 3f ce dd 9b 3e 7c 80 a0 3f e1 46 d8 be
       0.9308971 0.3044266 1.253921 -0.42241576
0002a0 07 b1 67 3d 30 31 ed bc 78 a5 77 3f db af ab 3f
       0.05656531 -0.028954118 0.9673686 1.3413042
0002b0 d7 b5 65 be c9 08 87 bf f0 ff 93 bf 2b 0e bb bf
       -0.22432648 -1.0549556 -1.1562481 -1.4613699
0002c0 b3 67 8d bf c7 af ec 3e 3e e1 78 bd ae 3e 13 3f
       -1.1047271 0.46227857 -0.060761683 0.57517517
0002d0 8e 76 4c 3f 00 5d d8 3e 6f d5 f4 3e 09 c7 1e 3f
       0.798684 0.42258453 0.47819087 0.62022454
0002e0 7f ca c6 3e 90 b7 9d bf 0a e4 2b c0 a3 19 51 bf
       0.38826367 -1.2321644 -2.6857934 -0.81679744
0002f0 75 fd db be 86 c9 84 3f d1 5f af 3d 76 0f 82 3f
       -0.4296681 1.0374 0.085631974 1.0160968
000300 cb 2f 13 3f fb 0c ad bf 80 73 a6 be ab b6 8b 3d
       0.574948 -1.3519586 -0.32509995 0.068219505
000310 53 f6 34 bf a1 e9 d6 bf e9 42 de be 79 08 c2 bf
       -0.7068836 -1.6790048 -0.43410423 -1.5158836
000320 2b 7a 77 3d 67 5c 01 bf cf a0 b3 be 0b 8b 29 3e
       0.060419243 -0.5053162 -0.35083625 0.16556947
000330 6b 26 5b bf 66 3c 52 3d 57 93 b6 3f 97 f9 a9 3e
       -0.85605496 0.05132713 1.4263715 0.33198234
000340 a4 a2 b4 bf 77 f9 ad be bb 30 0c 3e 8f 95 50 3f
       -1.4112134 -0.3397939 0.13690464 0.8147821
000350 5c 7a c0 3f 30 b5 99 3f 7d 8c ae 3e 9f 18 9e be
       1.5037341 1.2008419 0.3409156 -0.3087816
000360 6e b4 94 bf 29 4f d9 be fd 8d 0f bc 28 89 86 bf
       -1.1617563 -0.42443207 -0.00876188 -1.0510607
000370 c0 8a 26 3f 56 ea 46 3d fa 10 ac 3f 87 f7 76 bf
       0.65055466 0.048563324 1.3442681 -0.96471447
000380 da 24 88 bf 39 64 bf 3e 04 cc 35 3f 16 dc 87 bd
       -1.0636246 0.3738115 0.7101443 -0.06633775
000390 96 12 a8 3d 8b 5e 5a 3f d7 3d c3 bf 97 b4 35 3f
       0.0820667 0.8530051 -1.5253247 0.70978683
0003a0 fd 8e 68 3f c3 2f 7e bf ab 26 84 bf 2c a6 f5 be
       0.9084318 -0.9929163 -1.03243 -0.47978342
0003b0 e1 fd 09 3e e2 7b e6 bf da 9a d4 3e 10 cb 27 bf
       0.13475753 -1.8006556 0.41524392 -0.65544224
0003c0 41 90 36 bd d5 e7 7f 3f 37 24 9d 3b a2 a0 13 3f
       -0.044571165 0.9996312 0.004795577 0.5766698
0003d0 54 6d 8d bf ea 64 c9 bf 80 88 ba 3f 25 48 5b 3f
       -1.1048989 -1.5733922 1.4572906 0.8565696
0003e0 73 5d 2d 3e 5c 13 0d c0 05 9e f3 3e cd b4 61 3f
       0.1693018 -2.2043066 0.47581497 0.88166505
0003f0 38 2e 19 3e b0 72 d2 3e d1 48 84 bf 1a c5 42 3f
       0.14959037 0.41103125 -1.0334722 0.76082003

bn2.weight f4 [300]
000000 3c 4a de 3f ee b3 be 3f 31 92 ab 3f 3f 37 bb 3f
       1.7366405 1.489866 1.3403989 1.4626235
000010 8c d0 d6 3f ed 7b b6 3f 41 ca b7 3f 51 5d ca 3f
       1.6782393 1.4256569 1.4358598 1.5809728
000020 e2 50 c8 3f 0b ff 44 3e 39 16 b1 3f d0 46 6a 3e
       1.5649683 0.19237916 1.3834907 0.22878575
000030 78 02 ad 3f 3a af 9d 3e cf e3 f1 3f c9 0b ad 3f
       1.3516378 0.3079775 1.8897647 1.3519222
000040 e9 7d e1 3f ff a5 2e 3e 9e 52 ca 3f 4e 33 c7 3f
       1.761655 0.1705551 1.5806463 1.5562532
000050 48 60 56 3e 89 41 f1 3f d5 59 ba 3f 55 0c 08 40
       0.20935166 1.8848125 1.4558665 2.1257527
000060 0a f1 b0 3f 07 4c ea 3f 27 71 c6 3f ad 32 ab 3f
       1.3823559 1.8304452 1.5503281 1.337484
000070 0a 1a b6 3f 08 f6 ec 3f cc ae da 3f 99 24 c1 3f
       1.4226696 1.8512583 1.7084594 1.5089294
000080 fd 23 ab 3f a0 80 7c 3e 66 ff 6a 3e d1 19 bd 3f
       1.3370358 0.24658442 0.2294899 1.4773504
000090 1e e8 81 3e 5b b9 df 3f cb 92 a2 3f 6f 4c ae 3f
       0.25372404 1.7478441 1.2701048 1.3617076
0000a0 c6 27 ca 3f a9 44 e4 3f 33 79 b0 3f af 74 fc 3f
       1.5793388 1.7833453 1.3786987 1.9723109
0000b0 2f 43 ae 3f cd 7b 6e 3e 1d 90 a0 3f 7c 2a 6a 3e
       1.3614253 0.23289414 1.254398 0.22867769
0000c0 35 dc 9f 3f 57 f3 a5 3f 6d ae aa 3f cb 08 b7 3e
       1.2489077 1.2964886 1.333448 0.35748896
0000d0 1b 39 cb 3f 12 8f e6 3f 9b ef d0 3f 25 08 8d 3e
       1.5876802 1.8012412 1.6323122 0.27545276
0000e0 39 9a c5 3f 90 a0 c9 3f 13 6d c2 3f bf cd bb 3f
       1.543769 1.5752125 1.5189537 1.4672164
0000f0 48 d1 82 3e 8a 11 de 3f 2d 4a d2 3f 9f 30 c8 3f
       0.25550294 1.7349102 1.6428887 1.5639838
000100 58 81 ef 3e d6 2d 7c 3e a8 db 4c 3e 91 48 b6 3f
       0.4677837 0.2462686 0.20005667 1.4240896
000110 20 3e bf 3f 81 ab fc 3f 68 2d d8 3f 64 59 ad 3f
       1.4940834 1.9739839 1.6888857 1.3542905
000120 c3 0b 80 3e 9f eb 58 3e 6e 5a b4 3f fc ff 95 3e
       0.25008973 0.21183632 1.4090097 0.29296863
000130 01 a6 ab 3f 36 a3 1a 40 ef e4 ab 3f 76 96 be 3f
       1.3410035 2.4162116 1.342924 1.4889667
000140 73 48 b1 3f 1e a2 bf 3f cc 83 cc 3f 08 68 bc 3f
       1.3850235 1.4971349 1.5977721 1.4719248
000150 56 c4 2b 3e f7 ef ca 3f 8c 64 fb 3f 61 fa d4 3f
       0.16774115 1.5854481 1.964006 1.663891
000160 97 26 bf 3f b4 0c ab 3f b9 15 b6 3f f7 87 be 3f
       1.4933652 1.3363252 1.4225379 1.4885243
000170 28 98 9b 3f 87 fa 6d 3e 36 e2 ae 3f 3f b9 cc 3f
       1.2155809 0.232401 1.3662784 1.5994033
000180 a0 b5 bf 3f 71 1a c2 3f c3 76 ba 3f 69 7d 80 3f
       1.4977303 1.5164319 1.4567493 1.0038272
000190 c0 66 a3 3f a7 08 bf 3f a0 2c c7 3f d8 2f ce 3f
       1.2765732 1.4924515 1.5560493 1.6108351
0001a0 a1 76 ee 3f 01 e9 9c 3f 8e c4 69 3f 06 4c 95 3e
       1.8629953 1.2258607 0.91315544 0.29159564
0001b0 11 18 c3 3f c7 0f a3 3f 1d 0c c6 3f b8 0a af 3f
       1.524172 1.273919 1.5472447 1.3675146
0001c0 cc 9d ee 3f 2a 9a ca 3f 54 f8 4f 3e 46 e4 61 3e
       1.8641906 1.5828297 0.20309573 0.22059736
0001d0 2f ee b1 3f 70 e5 7c 3e 05 c1 ad 3f 78 25 b5 3f
       1.3900813 0.24696898 1.357453 1.415206
0001e0 e6 81 c4 3f a2 10 cc 3f e6 c1 d0 3f f1 f3 68 3e
       1.5352142 1.5942576 1.6309173 0.22749306
0001f0 ef 57 c6 3f 7d bb 82 3e b8 6c 66 3e 77 36 0b 40
       1.5495585 0.25533667 0.2250241 2.1751993
000200 e0 dc bc 3f c7 02 b6 3f 56 58 a3 3f 7c b7 ba 3f
       1.4754906 1.4219598 1.2761333 1.4587245
000210 59 b5 cc 3f be 24 b2 3f 6a 80 00 40 70 a5 b7 3f
       1.5992843 1.3917463 2.0078378 1.4347363
000220 db ec d5 3f 41 bf df 3f 06 a9 a0 3f a6 69 ff 3f
       1.6712908 1.7480241 1.2551582 1.9954116
000230 e6 4d c3 3f 48 66 ac 3f 76 48 44 3e c6 5f 56 3e
       1.5258148 1.3468714 0.19168267 0.20934972
000240 90 33 b3 3f a5 d2 cd 3f 3c 82 a5 3f 7a b6 93 3e
       1.4000111 1.6079909 1.2930369 0.28850156
000250 8c 38 06 40 78 23 bb 3f 04 44 24 40 7a 73 ae 3f
       2.0972013 1.4620199 2.5666513 1.3628991
000260 6c 33 a4 3f 43 83 b4 3f 09 1d f1 3f bd 42 be 3f
       1.2828193 1.4102558 1.8836986 1.4864117
000270 ba 22 c8 3f 3e 6a bb 3f f4 28 31 3e 11 02 27 40
       1.5635598 1.4641798 0.17300779 2.6095011
000280 e3 9e 56 3f d8 2a 5c 3e 7d 9f dc 3f ca 32 a1 3f
       0.8383619 0.21500719 1.7236172 1.2593625
000290 62 30 c1 3f f3 1b b3 3f 07 23 b6 3f 9b 3b 8e 3e
       1.509289 1.3992904 1.422944 0.2777985
0002a0 ee da d8 3f e5 01 b6 3f 7c 8b ae 3f f8 dc cd 3f
       1.6941812 1.4219328 1.3636317 1.6083059
0002b0 d0 30 a7 3f bc b2 5f 3e dc 10 84 3e 21 bc b9 3e
       1.3061771 0.21845526 0.25794113 0.36276343
0002c0 2a 9c 19 3e 26 77 cc 3f 3b 0d b9 3f df de ae 3f
       0.15000978 1.5973861 1.4457163 1.3661765
0002d0 11 5f a6 3f 56 03 bb 3f 4f 0d aa 3f 9b aa dc 3f
       1.2997762 1.4610393 1.3285311 1.7239565
0002e0 73 2c d8 3f e5 6a 86 3e e2 97 d0 3f 63 45 48 3e
       1.6888565 0.2625343 1.6296351 0.19557719
0002f0 94 d0 90 3e c2 da b0 3f a4 4a ce 3f 1d 2f d6 3f
       0.28284132 1.381676 1.6116529 1.6733128
000300 04 d2 ca 3f db 16 80 3e c7 e7 90 3e c5 3f b9 3f
       1.5845342 0.25017437 0.28301832 1.4472586
000310 90 da 4d 3e 59 a7 6d 3e cd 40 b9 3f 23 91 93 3e
       0.20102906 0.2320837 1.4472901 0.28821668
000320 5f a9 a4 3f 2d 07 a5 3f 35 bb c2 3f 4c 23 a2 3f
       1.2864188 1.2892815 1.5213381 1.2667022
000330 1a ee a5 3e 94 df b2 3f 0d db c3 3f db 7b cb 3f
       0.3240822 1.3974481 1.5301224 1.5897173
000340 67 c2 89 3e 14 73 1f 3e 97 3b bf 3f 92 c4 dc 3f
       0.2690613 0.15571243 1.494006 1.7247488
000350 d0 39 bd 3f ba 95 c8 3f a8 71 cf 3f 95 cf d9 3f
       1.4783268 1.5670693 1.620656 1.7016474
000360 1b 23 fa 3f 3d 51 25 40 77 1a 79 3e e6 0a f3 3f
       1.9541963 2.5830834 0.24326502 1.8987701
000370 76 91 ad 3f 4b 81 cd 3f 6e 82 ce 3f 22 45 df 3f
       1.3560016 1.6055082 1.6133554 1.7442973
000380 37 83 e0 3f 2d 45 c0 3f 48 51 ab 3f 1f e9 bd 3f
       1.7540044 1.5021111 1.338418 1.4836768
000390 ab 22 b2 3f 23 58 b2 3f d1 29 dd 3f cd 23 a9 3f
       1.391683 1.3933147 1.7278386 1.321405
0003a0 61 4b b8 3f af e8 6c 3e 05 25 90 3e 72 f3 4b 3e
       1.4398004 0.23135637 0.28153244 0.19917086
0003b0 d3 90 b1 3f ab 9e 12 3e 1a ff cc 3f d8 27 de 3f
       1.3872322 0.1431834 1.6015351 1.7355909
0003c0 93 be b0 3f 81 9f aa 3f bf e1 a5 3f 6f eb c3 3f
       1.3808159 1.3329927 1.2959517 1.5306224
0003d0 82 a6 0f 40 54 23 80 3e 31 44 bf 3f 76 f3 c3 3f
       2.2445378 0.25026953 1.4942685 1.5308673
0003e0 43 13 b8 3f 67 c6 86 3e da 91 d5 3f e1 a8 f3 3f
       1.4380878 0.26323244 1.6685135 1.9035913
0003f0 bb 37 d6 3f 65 ca ea 3f e0 2d 6c 3e d9 88 ad 3f
       1.6735758 1.8343016 0.23064375 1.3557388
