weights/model_177.pt (torch, 429959 bytes, 10 tensors)

l1.weight f4 [300, 42]
0.58775663 -0.57116395 0.4745952 -0.66577816 0.90347254 0.55748385 -0.2536399 -1.1188173
-1.360184 1.9902588 0.47474292 -0.8931979 0.6020254 -0.8059999 -5.0223994 0.7997903
1.7352093 -0.7328638 3.275797 0.601406 -1.6697034 2.8381116 0.9862537 0.8933557
0.8181337 0.44814834 1.1006831 -1.1491607 4.0475116 -1.3259436 -1.609279 -3.6255996
9.151697 -4.1942325 0.69705045 -6.984484 -4.420002 1.6585314 -1.0021803 -4.1359644
4.5160036 1.2520037 0.64685875 1.3201617 0.69927603 1.0972786 0.2643003 1.7696512
-0.39922523 -0.74681365 0.2792924 0.5794587 0.28933692 -2.6038854 0.19384928 -0.99204725
0.67242754 1.5078894 -0.24995576 -2.5059056 -2.9653187 0.16649917 -0.33822227 -0.8119224
-7.1013436 0.5485928 1.0531604 1.0916237 1.7958117 2.0250046 -2.3526497 -0.83856165
0.92459095 2.3451812 -4.243171 -4.395941 0.8948713 -1.2574728 -2.1284773 0.2617553
-2.8573437 1.8856646 -5.013638 -2.5299637 0.9683234 0.4190162 0.447232 0.99162763
0.86449486 -0.8749254 2.503556 -0.7591696 -0.017292058 1.026537 1.0064585 -0.2013053
1.3069457 -0.30475622 -0.17215355 -0.3384157 2.8627672 -1.6087327 -6.0071816 1.482314
-0.4264463 2.1636047 2.1344132 1.061494 0.93493974 -2.4955676 -1.5497876 0.33520156
0.06045727 -0.67912173 1.1961957 -0.16251372 10.482824 -1.960437 0.47533813 1.7304833
0.13106267 -0.9142476 -1.137738 -1.1797667 2.2650979 10.368338 0.99056756 0.7551199
1.1199895 1.3432804 0.6419785 -2.1448536 -2.1466951 -2.0344362 1.4448289 0.8675856
0.5687007 0.93309826 0.987536 -1.8202736 2.5068607 -0.33500317 -0.19646768 -1.1841636
2.2235441 0.48936406 1.6043607 -1.2498422 -3.2911348 0.6219457 0.7802486 -0.50670224
-2.9362376 -0.6536066 10.435404 -1.3696103 -0.8173988 -1.875706 -3.6214104 7.4032907
0.5553832 2.481013 -0.22607414 -0.45692807 0.28631887 1.7905684 -10.514247 4.3321795
0.8626117 0.2793031 0.76253843 -1.0961367 0.42127085 1.5217845 -2.4139004 -0.4150822
-1.1247499 0.4528037 0.6968414 -3.2389338 0.29360014 -0.929495 -0.34067565 2.407196
-2.5403135 3.8403127 1.5841099 -0.8396423 5.636537 -0.16291304 -0.4152973 0.864932
1.0393083 5.927046 1.8030126 1.8099681 3.0508516 -1.3248852 -1.3776082 -0.84449726
-13.238177 7.786138 0.7329011 4.3817787 2.0761516 0.5548389 0.49834296 5.566919
-3.1576478 1.2662772 1.0061625 1.1260629 1.1468096 -0.30823034 0.4888952 1.5370332
-0.29283258 0.043668583 0.036883276 0.60889816 0.60292584 -0.75393057 -0.6227914 -0.2912488
-3.2888157 3.003335 -3.4316382 0.39736232 1.84175 -0.29778793 3.0326366 1.2725657
4.10428 0.70989764 0.68449104 2.2539303 -0.40395048 0.6413008 3.8344479 -0.77153313
0.26216546 -0.09558217 2.4855762 0.9485727 0.8724611 -0.5039383 -3.340285 0.95900947
-3.0286593 1.2259914 4.515873 1.0534251 0.4409897 1.1586901 0.6917959 1.6161402
00000000: 3877 163f cd37 12bf 24fe f23e 7070 2abf
00000010: fa49 673f 43b7 0e3f 17dd 81be 6835 8fbf
00000020: 821a aebf cdc0 fe3f 8111 f33e 9ea8 64bf
00000030: 561e 1a3f 0256 4ebf 7fb7 a0c0 0fbf 4c3f
00000040: 571b de3f f69c 3bbf a8a6 5140 bef5 193f
00000050: d7b8 d5bf 9fa3 3540 1f7b 7c3f f6b2 643f
00000060: 3671 513f b373 e53e 2fe3 8c3f b317 93bf
00000070: 3785 8140 85b8 a9bf dbfc cdbf d309 68c0
00000080: 5a6d 1241 2737 86c0 e671 323f e580 dfc0
00000090: a870 8dc0 c24a d43f 7247 80bf d259 84c0
000000a0: 1a83 9040 a841 a03f 8998 253f 0ffb a83f
000000b0: c103 333f a073 8c3f 5e52 873e ee83 e23f
000000c0: 4067 ccbe 2e2f 3fbf 6aff 8e3e 6857 143f
000000d0: f823 943e 0fa6 26c0 6d80 463e cff6 7dbf
000000e0: 3624 2c3f 8502 c13f 67f4 7fbe c260 20c0
000000f0: c8c7 3dc0 c27e 2a3e 782b adbe 25da 4fbf
00000100: 353e e3c0 9470 0c3f f6cd 863f 53ba 8b3f
00000110: 28dd e53f ad99 0140 d091 16c0 faab 56bf
00000120: feb1 6c3f 7317 1640 0fc8 87c0 8cab 8cc0
00000130: 4916 653f def4 a0bf f938 08c0 ca04 863e
00000140: b8de 36c0 755d f13f b96f a0c0 edea 21c0
00000150: 0be4 773f 4b89 d63e 98fb e43e 4fdb 7d3f
00000160: 894f 5d3f 1cfb 5fbf 433a 2040 f058 42bf
00000170: 13a8 8dbc 9065 833f a2d3 803f fa22 4ebe
00000180: ff49 a73f 0209 9cbe 0549 30be d344 adbe
00000190: 9437 3740 f4ea cdbf d53a c0c0 77bc bd3f
000001a0: 2b57 dabe 8078 0a40 3a9a 0840 09df 873f
000001b0: 3658 6f3f 61b7 1fc0 715f c6bf 8a9f ab3e
000001c0: 0ba2 773d ecda 2dbf f11c 993f ff69 26be
000001d0: a6b9 2741 9aef fabf 855f f33e 7a80 dd3f
000001e0: 4b35 063e 210c 6abf 66a1 91bf 9802 97bf
000001f0: 5df7 1040 b6e4 2541 d695 7d3f 8a4f 413f
00000200: d15b 8f3f 9df0 ab3f b458 243f 4845 09c0
00000210: 7463 09c0 3434 02c0 27f0 b83f 171a 5e3f
00000220: 5e96 113f 87df 6e3f 29cf 7c3f bafe e8bf
00000230: 6870 2040 8985 abbe d32e 49be ac92 97bf
00000240: 8c4e 0e40 ed8d fa3e b15b cd3f d4fa 9fbf
00000250: f4a1 52c0 d537 1f3f 5fbe 473f 3db7 01bf
00000260: 51eb 3bc0 c352 27bf 6af7 2641 644f afbf
00000270: 0c41 51bf 2217 f0bf 30c5 67c0 c2e7 ec40
00000280: 982d 0e3f ebc8 1e40 fb7f 67be 7af2 e9be
00000290: 6398 923e 5831 e53f 5b3a 28c1 37a1 8a40
000002a0: 1fd4 5c3f d100 8f3e b835 433f 354e 8cbf
000002b0: d0b0 d73e d6c9 c23f 587d 1ac0 a785 d4be
000002c0: cef7 8fbf e3d5 e73e 3364 323f b14a 4fc0
000002d0: c252 963e 62f3 6dbf 0a6d aebe 800f 1a40
000002e0: 7f94 22c0 afc7 7540 1dc4 ca3f ccf2 56bf
000002f0: 835e b440 add2 26be d9a1 d4be 2f6c 5d3f
00000300: 0e08 853f 5caa bd40 1ec9 e63f 09ad e73f
00000310: 2741 4340 d795 a9bf 7755 b0bf f930 58bf
00000320: 93cf 53c1 0b28 f940 689f 3b3f 8837 8c40
00000330: abdf 0440 ec09 0e3f cf26 ff3e 3324 b240
00000340: e716 4ac0 5f15 a23f efc9 803f d422 903f
00000350: a8ca 923f 5ed0 9dbe 7950 fa3e 81bd c43f
00000360: 27ee 95be d4dd 323d eb12 173d c0e0 1b3f
00000370: 5959 1a3f 9801 41bf 426f 1fbf 901e 95be
00000380: f57b 52c0 a436 4040 f69f 5bc0 1373 cb3e
00000390: 77be eb3f a977 98be b816 4240 6fe3 a23f
000003a0: 4356 8340 dabb 353f ce3a 2f3f 6540 1040
000003b0: 99d2 cebe 4a2c 243f 9867 7540 3283 45bf
000003c0: 8d3a 863e 96c0 c3bd ae13 1f40 a9d5 723f
000003d0: 9c59 5f3f 1a02 01bf 3bc7 55c0 a581 753f
000003e0: 8ed5 41c0 49ed 9c3f 0882 9040 a2d6 863f
000003f0: 67c9 e13e f54f 943f 8919 313f afdd ce3f

l1.bias f4 [300]
0.71177644 0.8794062 0.95868385 0.86645484 0.8296533 0.8816514 0.94105524 0.7104501
1.2214848 0.7241587 0.90438294 1.0429448 0.91948634 0.65014184 0.32134858 0.8464861
0.75676596 0.76977223 0.99425465 0.89172846 0.87608844 1.1634783 0.8015347 0.6599299
0.9805226 0.90816325 0.8547278 0.76085323 0.85231274 0.71961033 0.9597335 0.8077535
1.0869324 0.906895 0.8003818 0.6916475 0.935069 0.91277313 0.6902333 0.851026
1.015016 0.65045244 1.1024585 0.5291708 0.6644744 0.84204006 0.8020655 0.8687149
0.7661261 1.1316035 0.6434066 0.7634546 0.8121392 0.9520577 1.2518226 0.8579417
0.30082178 0.8107046 0.85865706 0.68827915 1.3141985 0.77197444 0.87471026 0.88871646
0.55179054 0.7582149 1.1683152 0.9485851 0.7159388 1.0001311 0.777468 0.89393246
0.8576627 0.72072667 1.0419267 0.7368943 0.87010217 0.9404139 0.74973184 0.88408977
0.7778878 0.6267404 0.59421664 0.61111516 0.82575196 0.8653051 0.71250486 0.6514977
1.3832018 1.041258 0.91346514 0.4790031 0.9696945 2.5001602 0.5703687 0.87340546
1.1360023 0.77006644 0.75448024 0.8903288 0.93565625 0.6854234 0.7485503 0.7446038
0.5573603 0.6888131 0.7573793 1.1765404 1.1849058 0.74218065 0.9093396 1.1174484
0.86012906 0.6093337 0.99976397 1.0335037 0.98201483 0.8142224 0.89276433 1.0536727
0.59762585 1.0447774 0.78763646 0.9522486 0.75158083 0.8477243 1.12576 0.7551279
1.0403819 0.94081587 1.0497352 0.72199243 1.1212788 0.8605342 0.67016625 0.60135967
0.9883278 0.779975 0.91749847 1.2677722 0.7468869 0.7212223 1.0346912 0.6617836
1.0055563 0.62955254 0.9300599 0.7740018 0.5542001 0.6700592 0.57521766 0.52568936
1.072215 0.6605038 0.73165584 0.51970214 0.58856696 0.7110275 0.84318155 0.5490325
0.6249198 0.9740249 0.49336007 1.0191237 0.5555872 0.7963174 0.8595305 0.73336864
0.7536121 0.9613926 0.85215104 1.0291389 0.44568148 0.6283776 0.9328698 2.7302597
0.8739954 0.9542072 0.72691286 0.8879397 0.89603156 0.33181354 0.7118278 0.89143443
0.67224264 0.9758722 0.855383 0.65459025 0.51894903 1.1069129 0.48128283 0.57954997
0.74495 0.7558365 0.94108284 0.9192552 0.7049577 0.8703749 0.8366515 0.6927139
0.809312 0.8760958 2.6365378 0.9203162 1.0829334 0.69134396 0.7769629 0.83236206
0.9368728 0.8220018 0.7426176 0.8914088 0.91358256 0.8305076 0.33533922 0.6323284
0.8278059 0.57476294 0.7558546 0.91042894 0.99906486 2.5021691 0.43604466 1.0190656
0.70365816 0.75579786 0.6119809 0.69072294 1.1458018 1.1592834 0.7399693 0.44061407
0.8665181 0.7959831 0.91622007 0.6929963 0.86317295 1.3659847 0.79723763 0.6776875
0.8967643 0.71849364 1.3121619 1.0880586 1.0688947 0.8913223 0.91931355 0.8878093
0.73958206 0.66780144 0.65076035 0.96903753 0.6683871 1.007496 0.56623155 0.5416968
00000000: fb36 363f c420 613f 4e6c 753f fccf 5d3f
00000010: 2964 543f e8b3 613f ffe8 703f 0fe0 353f
00000020: 9d59 9c3f 7762 393f a485 673f 377f 853f
00000030: 7563 6b3f b26f 263f cd87 a43e 50b3 583f
00000040: 6abb 413f cb0f 453f 7987 7e3f 5148 643f
00000050: 5547 603f dbec 943f 6131 4d3f 2af1 283f
00000060: 8703 7b3f 637d 683f 71cf 5a3f 47c7 423f
00000070: 2b31 5a3f 6238 383f 18b1 753f efc8 4e3f
00000080: 9a20 8b3f 452a 683f d2e5 4c3f d00f 313f
00000090: af60 6f3f 80ab 693f 21b3 303f d7dc 593f
000000a0: 0bec 813f 0d84 263f 5c1d 8d3f bd77 073f
000000b0: ff1a 2a3f f08f 573f 2a54 4d3f 1a64 5e3f
000000c0: d720 443f 62d8 903f 4cb6 243f c371 433f
000000d0: 5be8 4f3f 0eba 733f b93b a03f 11a2 5b3f
000000e0: 5005 9a3e 568a 4f3f f3d0 5b3f 1033 303f
000000f0: a837 a83f 1ea0 453f 03ed 5f3f ec82 633f
00000100: 2542 0d3f 5f1a 423f 5a8b 953f 79d6 723f
00000110: c447 373f 4c04 803f 2508 473f c2d8 643f
00000120: c88f 5b3f 8b81 383f db5d 853f 1ba5 3c3f
00000130: 04bf 5e3f f7be 703f 6dee 3f3f b553 623f
00000140: a823 473f 0f72 203f 951e 183f 0b72 1c3f
00000150: 7b64 533f a384 5d3f b866 363f 8ec8 263f
00000160: c20c b13f f147 853f dad8 693f e53f f53e
00000170: e63d 783f a002 2040 af03 123f 8097 5f3f
00000180: 8668 913f 1323 453f 9e25 413f 97ec 633f
00000190: 2b87 6f3f e877 2f3f fea0 3f3f 5b9e 3e3f
000001a0: 2aaf 0e3f 0e56 303f 9ce3 413f e098 963f
000001b0: feaa 973f 8dff 3d3f 7bca 683f 8d08 8f3f
000001c0: 6b31 5c3f 4bfd 1b3f 88f0 7f3f d949 843f
000001d0: 5365 7b3f e170 503f 348c 643f bfde 863f
000001e0: 02fe 183f 44bb 853f 8ba2 493f 90c6 733f
000001f0: 9a67 403f 7604 593f e718 903f 1050 413f
00000200: 3c2b 853f 4fd9 703f b95d 863f 7fd4 383f
00000210: 1086 8f3f f84b 5c3f 0490 2b3f b5f2 193f
00000220: 0d03 7d3f 71ac 473f 2ee1 6a3f 5c46 a23f
00000230: fb33 3f3f 06a2 383f c370 843f a66a 293f
00000240: 12b6 803f 5b2a 213f 6818 6e3f fb24 463f
00000250: 0fe0 0d3f 0089 2b3f 7741 133f 9493 063f
00000260: 573e 893f c716 293f cc4d 3b3f 330b 053f
00000270: 53ac 163f e605 363f bfda 573f 658d 0c3f
00000280: befa 1f3f b259 793f b199 fc3e a572 823f
00000290: f63a 0e3f 75db 4b3f 310a 5c3f 0cbe 3b3f
000002a0: b9ec 403f d31d 763f 9226 5a3f d3ba 833f
000002b0: 5d30 e43e 5bdd 203f 8ed0 6e3f 93bc 2e40
000002c0: 2abe 5f3f ec46 743f f616 3a3f 0450 633f
000002d0: 5362 653f 77e3 a93e 593a 363f 0c35 643f
000002e0: 1818 2c3f c3d2 793f 61fa 5a3f 3a93 273f
000002f0: d8d9 043f 52af 8d3f b46a f63e 635d 143f
00000300: 0bb5 3e3f 807e 413f ceea 703f 4f54 6b3f
00000310: 1c78 343f e4d0 5e3f cb2e 563f b355 313f
00000320: 122f 4f3f d047 603f 09bd 2840 d899 6b3f
00000330: 909d 8a3f ebfb 303f 0ae7 463f ae15 553f
00000340: e5d6 6f3f b66e 523f 301c 3e3f 5e33 643f
00000350: 8ce0 693f 259c 543f 95b1 ab3e 46e0 213f
00000360: 16eb 533f aa23 133f b07f 413f df11 693f
00000370: b7c2 7f3f 8a23 2040 3f41 df3e be70 823f
00000380: f122 343f f87b 413f c8aa 1c3f 38d3 303f
00000390: a2a9 923f 6663 943f a16e 3d3f 2b98 e13e
000003a0: 21d4 5d3f 8cc5 4b3f 668d 6a3f 3568 313f
000003b0: e7f8 5c3f 96d8 ae3f c417 4c3f ee7c 2d3f
000003c0: 5892 653f 33ef 373f ecf4 a73f 8145 8b3f
000003d0: 8bd1 883f b32d 643f 2258 6b3f 7847 633f
000003e0: 4055 3d3f 09f5 2a3f 3b98 263f d812 783f
000003f0: 6b1b 2b3f a1f5 803f 8df4 103f a4ac 0a3f

bn1.weight f4 [300]
2.277823 3.283869 1.8769463 1.5907265 3.2626402 2.5189202 1.9588795 1.7011985
3.5627778 8.005481 3.5703537 2.3707967 2.01531 2.804802 2.4228373 2.1796246
3.0748456 2.1877975 3.7320821 2.2177732 1.3137293 4.802819 2.4625018 2.223908
3.2563267 1.6351558 2.117755 1.8807495 1.69384 2.0641265 1.7427891 2.3145602
2.0881698 3.3209434 1.6392934 2.9983566 2.4085624 2.415213 1.906732 2.9572675
1.6129367 3.4790688 2.4952598 1.4673109 3.0328507 1.6434366 1.9576344 2.3685493
2.794946 1.8080767 1.9415094 2.9991543 2.045797 3.2116241 2.2044883 1.1742568
2.7318606 2.3278391 1.442544 1.796423 1.2054482 2.0730016 2.0250146 3.1394384
3.4072704 3.0831206 2.8742611 1.1747227 2.3511639 2.1331642 2.3530512 2.6637528
4.41406 2.2371378 1.4613228 1.9693661 2.0794954 2.3287609 3.9932914 2.0206559
2.4195411 3.3140574 2.4311059 4.4312935 1.6873316 1.8537983 2.4532084 3.5549562
1.3380678 3.4559245 3.5045414 4.191043 1.3191985 0.14226997 3.2833147 2.2089794
1.0355405 2.464414 3.72198 3.098158 4.276893 4.5696898 1.9466685 5.048699
1.9664855 3.0470839 4.3571286 3.5984724 3.535879 2.2045455 3.1106136 2.1450608
2.0153353 2.7427042 2.4105709 3.1325905 1.4113306 2.4414005 3.679097 3.137492
2.9629393 2.391914 1.939613 3.5930054 2.3042645 2.4148476 3.2958186 1.5370429
3.0977783 1.2881563 3.17028 1.8072093 2.1369119 3.1357558 1.4123982 2.6541157
4.814157 3.1771264 2.0458755 2.2435808 4.1482463 2.6869118 1.7888023 1.9658114
3.402647 1.5153681 2.6336827 2.0831366 1.7782724 2.4704835 2.6714885 3.2556562
3.4543648 2.3620796 3.0967426 2.4159837 2.3736377 2.3050723 2.1318543 3.0270944
2.1574793 2.2976093 2.888587 3.3199666 4.1357336 2.9143507 2.7193096 2.829814
2.0237625 3.2520225 2.733304 1.4177334 2.7403247 2.7028089 1.5379696 0.14553435
1.8470477 4.4798555 2.06776 3.793451 1.2535547 4.817741 2.0911152 1.9800551
3.9856277 2.5930123 2.022543 1.506774 1.9219687 2.504055 3.7097077 2.8344734
3.691141 3.1608045 2.7566545 2.6521823 2.2955816 1.7760491 2.5094125 2.173781
2.0475883 4.0097785 0.10190862 2.9551656 4.09281 1.3649669 2.7157407 3.9712026
1.7905985 3.286397 0.9009446 2.3318846 3.2574904 2.644186 2.5970914 2.175107
2.409906 2.4675584 2.5855105 3.0428107 2.0698195 0.12035574 3.2299573 1.8415205
2.0995872 1.4618223 2.2229943 2.4046504 2.9206278 2.2388663 3.0910416 3.8065202
2.107864 2.179422 1.9543978 2.2184293 2.8511894 2.8047037 2.9281118 2.2242417
1.6040504 3.665225 2.3986197 4.0713334 4.5195 2.7630885 1.3944944 2.490377
2.9368935 3.017292 1.8309417 2.0486147 2.2349842 1.6291276 2.2554607 2.043221
00000000: dac7 1140 e92a 5240 c73f f03f ed9c cb3f
00000010: 19cf 5040 fd35 2140 90bc fa3f dfc0 d93f
00000020: 8d04 6440 7316 0041 ad80 6440 22bb 1740
00000030: d7fa 0040 e081 3340 c40f 1b40 f87e 0b40
00000040: 45ca 4440 e004 0c40 6fda 6e40 ffef 0d40
00000050: 4828 a83f b1b0 9940 a199 1d40 8254 0e40
00000060: a867 5040 c94c d13f 4c89 0740 66bc f03f
00000070: c0cf d83f a61a 0440 b713 df3f c121 1440
00000080: 93a4 0540 568a 5440 5ed4 d13f 13e5 3f40
00000090: e325 1a40 da92 1a40 cb0f f43f df43 3d40
000000a0: b674 ce3f 10a9 5e40 56b2 1f40 d8d0 bb3f
000000b0: 3a1a 4240 215c d23f c493 fa3f 5096 1740
000000c0: 65e0 3240 0f6f e73f 6183 f83f 25f2 3f40
000000d0: 57ee 0240 408b 4d40 5616 0d40 0c4e 963f
000000e0: ced6 2e40 51fb 1440 48a5 b83f 30f1 e53f
000000f0: 204c 9a3f 0fac 0440 d799 0140 8fec 4840
00000100: b810 5a40 d951 4540 e5f3 3740 505d 963f
00000110: 7879 1640 c385 0840 6498 1640 ed7a 2a40
00000120: fb3f 8d40 442d 0f40 a00c bb3f 3014 fc3f
00000130: 7416 0540 6b0a 1540 1692 7f40 6d52 0140
00000140: c3d9 1a40 8419 5440 3d97 1b40 28cd 8d40
00000150: 7bfa d73f 4349 ed3f 5e01 1d40 6784 6340
00000160: ce45 ab3f de2d 5d40 684a 6040 061d 8640
00000170: 7fdb a83f 38af 113e d421 5240 eb5f 0d40
00000180: 978c 843f f5b8 1d40 ec34 6e40 3848 4640
00000190: 4fdc 8840 e63a 9240 6f2c f93f f18e a140
000001a0: ccb5 fb3f 6c03 4340 996d 8b40 5f4d 6640
000001b0: d74b 6240 4617 0d40 4b14 4740 ad48 0940
000001c0: 41fb 0040 7788 2f40 cb46 1a40 5d7c 4840
000001d0: 7ba6 b43f e83f 1c40 5376 6b40 abcc 4840
000001e0: cca0 3d40 1e15 1940 3d45 f83f cdf3 6540
000001f0: 1279 1340 dd8c 1a40 b1ee 5240 d2bd c43f
00000200: 0042 4640 4ee2 a43f dee5 4a40 a252 e73f
00000210: 2ac3 0840 39b0 4840 77c9 b43f 08dd 2940
00000220: 930d 9a40 0a56 4b40 a0ef 0240 d496 0f40
00000230: 6fbe 8440 5df6 2b40 79f7 e43f b59f fb3f
00000240: f8c4 5940 95f7 c13f 428e 2840 1c52 0540
00000250: 6e9e e33f 671c 1e40 abf9 2a40 ac5c 5040
00000260: 5014 5d40 502c 1740 0831 4640 7a9f 1a40
00000270: aee9 1740 4e86 1340 4d70 0840 eabb 4140
00000280: 2414 0a40 080c 1340 9cde 3840 557a 5440
00000290: ee57 8440 b984 3a40 2b09 2e40 ac1b 3540
000002a0: 5385 0140 2321 5040 74ee 2e40 4a78 b53f
000002b0: 7b61 2f40 d2fa 2c40 30dc c43f f506 153e
000002c0: 0f6c ec3f fa5a 8f40 2e56 0440 e7c7 7240
000002d0: 7b74 a03f ef2a 9a40 d5d4 0540 7272 fd3f
000002e0: 8614 7f40 eaf3 2540 5871 0140 f8dd c03f
000002f0: 1203 f63f 7042 2040 da6b 6d40 0368 3540
00000300: a73b 6c40 9f4a 4a40 076d 3040 5bbd 2940
00000310: cfea 1240 9455 e33f 379a 2040 3a1f 0b40
00000320: b00b 0340 1b50 8040 77b5 d03d 6f21 3d40
00000330: 4df8 8240 3cb7 ae3f b2ce 2d40 2f28 7e40
00000340: 5532 e53f 5454 5240 4ea4 663f 993d 1540
00000350: b97a 5040 583a 2940 bf36 2640 f434 0b40
00000360: e63b 1a40 7aec 1d40 0179 2540 69bd 4240
00000370: ec77 0440 127d f63d 9fb7 4e40 f2b6 eb3f
00000380: a35f 0640 fe1c bb3f 8a45 0e40 cbe5 1940
00000390: 91eb 3a40 9649 0f40 a0d3 4540 079e 7340
000003a0: 3ee7 0640 a67b 0b40 b529 fa3f bffa 0d40
000003b0: e379 3640 4480 3340 2f66 3b40 fa59 0e40
000003c0: 8651 cd3f 0c93 6a40 fc82 1940 5d48 8240
000003d0: be9f 9040 71d6 3040 cb7e b23f 5662 1f40
000003e0: 10f6 3b40 501b 4140 4c5c ea3f 811c 0340
000003f0: fb09 0f40 4187 d03f 7859 1040 22c4 0240

bn1.bias f4 [300]
-0.98577625 -0.953881 -0.8849988 -0.64347607 -1.0382578 -0.6142623 -0.843985 -1.5781035
0.6295132 0.09606297 0.57777333 -1.0334835 -1.9095 -1.4355984 -1.0542891 -0.42181173
-0.11095033 -0.822345 -0.26383984 -0.07518475 -0.79692507 0.8426925 -1.5251396 -1.6970385
-0.035763696 -1.4388137 -0.39611164 -1.199121 -0.95662874 -0.02294345 -1.0050998 -0.9535306
-0.82024497 0.013106252 -0.6986473 -1.2809129 -0.3991697 -1.0802636 -0.41935727 -0.17522024
-1.2740101 -0.50532275 -0.3029205 -2.132334 -0.44051662 -1.2377322 -0.8559379 0.09922181
0.6703733 -0.45057738 -1.050772 -0.8764058 -1.1092519 -0.27695057 -0.55317706 -1.2093045
-0.2948525 -0.49100557 -0.7415632 -1.1598777 -1.5482277 0.091657214 -0.2536232 0.54973924
0.38144067 -0.08511951 -0.12996885 -1.274937 -1.0469366 -0.17756394 -1.4769778 -0.1962047
0.5710793 -1.6423634 -0.80158895 -0.8629672 -1.3582563 -1.0221345 -0.8711879 -0.30730584
-0.2644006 -1.2000804 -1.0026708 -0.0647186 -1.655429 -0.62886995 0.15132564 -0.48758
-1.2850827 0.3694705 0.7524843 -0.2166282 -1.6338669 -0.9893321 -0.6875808 -0.49310455
0.04188051 -0.6008714 -0.86619496 -0.12506336 0.5096361 -0.23512521 -0.36332527 0.15048924
-1.0450562 -0.3117349 -0.5439889 0.17881776 0.80190367 -1.0370872 -0.63554275 -1.555258
-1.6413838 -0.79656106 -1.0829742 -0.28771418 -0.46754858 -1.5260527 0.38090143 0.19159324
-0.3880732 0.7327774 -1.1343886 0.07232725 -0.26078257 -0.5416966 0.22267562 -0.60656
-0.4592605 -1.3873562 -0.8348968 -0.4544293 -0.79001397 -0.435032 -0.79539675 -0.45702484
0.7802097 -0.71173316 -0.8629901 -1.5393122 -0.21554592 -1.3343921 -0.5255102 -1.5135783
-0.025703227 -1.3375596 -0.23467143 -0.6984042 -0.6277931 -0.45184013 -0.8384766 -0.97557974
-0.18243127 -0.8327105 -1.3213425 -0.23732902 -1.4468675 -1.0888338 -0.4104219 -0.5690335
-1.9215435 -0.53323907 -1.0259678 -1.2220142 -0.40709448 0.07162525 -0.85013163 0.39659575
-2.4228039 0.15700816 -0.64912254 -0.34151512 -1.4324726 -0.956956 -2.0938509 -0.9904051
-0.59130734 0.11431484 -1.1262008 -0.09389545 -1.0712144 -0.8783147 -0.63364196 -1.735509
-1.2367938 -0.25357515 -0.8543019 -0.9666302 -1.121971 0.26950955 -1.1462427 -1.0189925
-0.29207426 -0.81606835 -0.66557515 -0.59983116 -0.8365777 -0.504989 -0.6941204 -0.6242134
-0.8672592 -0.25124326 -1.1459398 -0.60234964 -0.056496006 -1.1509197 -1.26906 0.3507849
0.82753205 -0.25355917 -0.21241294 -0.83193964 0.15633607 -0.9237865 -1.5131954 -0.79145324
-1.0053058 -1.1854583 -0.5599509 0.344236 -1.0526013 -0.9797571 -0.6569472 -1.1327268
-1.435564 -0.84228957 -0.8600674 -0.91892236 -0.5463726 -0.5082851 -0.16256224 -0.36665756
-1.0591898 -0.90036285 -1.5465943 0.37313268 0.05534416 -0.65143925 0.0076789116 -0.98562795
-1.2712588 -0.042649686 -0.6551571 0.6109719 0.06822079 0.0068083704 -2.1931486 -1.0335659
-0.8715218 0.027190542 -0.3272614 -0.29049706 -0.5080052 -1.1430769 -1.0532243 -1.2653989
00000000: d55b 7cbf 8c31 74bf 488f 62bf d9ba 24bf
00000010: a2e5 84bf 4b40 1dbf 670f 58bf 4cff c9bf
00000020: c727 213f aabc c43d f4e8 133f 3049 84bf
00000030: 7f6a f4bf b0c1 b7bf f2f2 86bf b5f7 d7be
00000040: ed39 e3bd 3485 52bf 0416 87be 76fa 99bd
00000050: 4803 4cbf b2ba 573f c637 c3bf 8f38 d9bf
00000060: f47c 12bd 0c2b b8bf 25cf cabe cc7c 99bf
00000070: 9fe5 74bf e7f3 bbbc 1ca7 80bf 951a 74bf
00000080: 93fb 51bf 9bbb 563c 8dda 32bf f4f4 a3bf
00000090: f95f ccbe 1446 8abf ffb5 d6be ef6c 33be
000000a0: c312 a3bf d55c 01bf 6518 9bbe 2978 08c0
000000b0: 658b e1be 026e 9ebf bf1e 5bbf ce34 cb3d
000000c0: 969d 2b3f 14b2 e6be b27f 86bf 215c 60bf
000000d0: f7fb 8dbf 77cc 8dbe 039d 0dbf 7dca 9abf
000000e0: e8f6 96be 1565 fbbe 16d7 3dbf df76 94bf
000000f0: 532c c6bf c7b6 bb3d e6da 81be b6bb 0c3f
00000100: 314c c33e 2353 aebd 8e16 05be 2331 a3bf
00000110: 0502 86bf 52d3 35be 9c0d bdbf e3e9 48be
00000120: 4132 123f f738 d2bf ef34 4dbf 6beb 5cbf
00000130: 58db adbf 4ed5 82bf 2c06 5fbf 3157 9dbe
00000140: 845f 87be 3c9c 99bf 8457 80bf 2f8b 84bd
00000150: 19e5 d3bf 9ffd 20bf 1cf5 1a3e 16a4 f9be
00000160: 977d a4bf 3d2b bd3e d0a2 403f c8d3 5dbe
00000170: 8d22 d1bf de44 7dbf 4c05 30bf 3378 fcbe
00000180: e68a 2b3d b5d2 19bf f4be 5dbf 9c10 00be
00000190: 8377 023f aac4 70be c505 babe da19 1a3e
000001a0: 67c4 85bf b89b 9fbe db42 0bbf 011c 373e
000001b0: 8f49 4d3f 46bf 84bf eeb2 22bf b212 c7bf
000001c0: dd18 d2bf 6deb 4bbf e69e 8abf 464f 93be
000001d0: 8762 efbe b255 c3bf 8305 c33e 0531 443e
000001e0: 88b1 c6be 4d97 3b3f a533 91bf 4f20 943d
000001f0: 4b85 85be a1ac 0abf 1405 643e 8447 1bbf
00000200: 3124 ebbe e394 b1bf ccbb 55bf f5aa e8be
00000210: 5b3e 4abf 84bc debe 1f9f 4bbf 29ff e9be
00000220: d3bb 473f 2534 36bf ebec 5cbf 2f08 c5bf
00000230: 12b8 5cbe 5ccd aabf d687 06bf efbc c1bf
00000240: 938f d2bc 2735 abbf b54d 70be 9eca 32bf
00000250: 0cb7 20bf 9757 e7be 67a6 56bf 98bf 79bf
00000260: 43cf 3abe 842c 55bf c021 a9bf 6106 73be
00000270: f432 b9bf e85e 8bbf d222 d2be 2eac 11bf
00000280: 23f5 f5bf 5b82 08bf ea52 83bf f66a 9cbf
00000290: b06e d0be 42b0 923d 3aa2 59bf 990e cb3e
000002a0: 380f 1bc0 bfc6 203e e52c 26bf 12db aebe
000002b0: 435b b7bf 12fb 74bf a701 06c0 308b 7dbf
000002c0: eb5f 17bf e61d ea3d 5927 90bf 424c c0bd
000002d0: 8e1d 89bf 3bd9 60bf 5c36 22bf 2925 debf
000002e0: 424f 9ebf 9ad4 81be 88b3 5abf 1475 77bf
000002f0: bf9c 8fbf 28fd 893e 15b8 92bf 596e 82bf
00000300: c28a 95be dbe9 50bf 2263 2abf 898e 19bf
00000310: f529 56bf f646 01bf e0b1 31bf 73cc 1fbf
00000320: b304 5ebf f5a2 80be 28ae 92bf 9633 1abf
00000330: 5b68 67bd 5651 93bf 8f70 a2bf 149a b33e
00000340: 24d9 533f 82d2 81be c782 59be fff9 54bf
00000350: 9016 203e 467d 6cbf 63b0 c1bf ae9c 4abf
00000360: dcad 80bf 19bd 97bf f158 0fbf b33f b03e
00000370: a4bb 86bf 5cd1 7abf b12d 28bf 31fd 90bf
00000380: 90c0 b7bf 4aa0 57bf 612d 5cbf 7f3e 6bbf
00000390: 13df 0bbf f91e 02bf b776 26be 8aba bbbe
000003a0: 8893 87bf 2e7e 66bf cdf6 c5bf 3f0b bf3e
000003b0: 8fb0 623d b9c4 26bf 619f fb3b 1d52 7cbf
000003c0: 9cb8 a2bf 70b1 2ebd 60b8 27bf a868 1c3f
000003d0: 57b7 8b3d c018 df3b 8c5c 0cc0 e34b 84bf
000003e0: 0d1c 5fbf b3be de3c ce8e a7be 08bc 94be
000003f0: a10c 02bf 5850 92bf 0ed0 86bf 97f8 a1bf

l2.weight f4 [300, 300]
-0.28108996 2.913705 -0.21649055 1.0839921 -1.0047748 2.3163474 -0.5058254 1.3012643
-2.0114093 3.7791986 0.8456637 -1.7216825 1.980406 1.8406055 1.9366977 1.951669
0.21188691 0.6804562 2.4300368 0.039085463 0.6760268 1.8324275 0.24721201 -0.6502374
1.0237237 0.5292625 2.909345 -1.0358223 0.9685551 -0.3917619 1.3636984 0.26068982
-0.9512701 0.2395193 0.58451134 3.2810524 -1.1984375 1.5303314 2.6275148 1.5847245
1.183506 0.22096346 -0.5738899 0.99846166 0.5683885 0.6485477 0.49576634 0.3522371
3.7502425 0.70668995 0.07836514 1.9184848 2.133953 1.4384803 1.0627965 1.5569601
0.2703005 1.318908 -0.60919386 2.5741856 2.821696 0.81668717 0.85102516 0.99104416
-2.5828357 1.064678 1.0739697 1.8571433 0.7528527 1.9561356 0.73242617 2.9932144
0.21351407 1.1098177 -1.0259929 1.3650678 2.403891 -1.0171193 1.1433576 -2.1207156
3.3514247 0.29834166 0.8649154 1.2857594 -0.9332421 1.024181 2.0396187 1.3532054
1.2126561 1.0500963 1.6134765 1.4847438 1.3910561 0.20509166 0.9291001 0.9019286
2.0949101 2.583441 0.7800666 0.6815533 0.23404318 2.241663 -0.8068547 2.212003
1.3461825 -1.0331591 0.26950395 0.5310941 0.90055704 2.9844372 0.20452385 -1.4149741
1.4363184 -0.38547447 -1.054527 1.8966068 -0.49375197 1.1067835 1.2586732 0.545186
1.6210023 -0.32232887 1.3036274 2.8691149 1.5641729 1.0715697 0.44413942 2.8528144
0.0068652406 1.0212876 -0.051893506 -0.5326114 -2.1293378 1.170407 0.16154721 -2.1471512
1.8085735 2.5781152 -0.25620422 3.615531 0.6557664 2.3783782 0.124600865 -0.115781024
-0.68279135 2.276275 1.3654896 3.5905924 1.111107 -0.17324387 1.1681703 -2.1900587
0.89270496 1.5668647 2.683114 2.1684473 -1.3991116 -0.008113388 -0.027389243 1.2456907
3.2608795 0.91208124 -0.8215454 1.9851195 -1.3568703 1.2396616 0.3783048 -0.6640869
-0.20911686 2.5377548 -0.17640544 -1.1123805 1.1616869 0.8481321 1.3048743 0.03008362
2.0554638 -0.61613417 0.5189914 2.0380971 0.23512694 -1.485762 0.9165144 1.637445
0.7929128 1.7264737 -0.5613929 0.9344284 1.8031148 1.8960961 0.65220606 -1.3124273
0.9239507 0.27000326 -0.20163152 1.682741 -0.63797873 -0.118831195 1.3715158 -0.1714075
-1.2786291 4.0322533 0.14163645 1.1450347 -0.022583721 -0.7630619 1.5590432 3.531742
1.7505773 -0.3484392 -0.5343459 0.7022837 -0.43296236 0.017480142 3.010252 2.5033264
-0.6893932 -0.06126975 1.731457 1.9787675 -0.40011105 0.24756525 1.0892018 2.5340512
-2.3743944 -1.2602947 0.15797092 1.1368581 -0.9039064 1.641978 0.36290523 2.7322645
3.4827604 -0.0011472788 1.0014787 0.837644 2.336532 0.3493909 2.390908 1.1260198
0.62926364 1.7041353 0.8931038 1.0925491 -0.25549632 2.0671651 1.0235081 2.1797273
-0.118338905 0.9717238 -0.1925371 1.9030553 0.7697658 1.5513558 1.4650934 1.3485748
00000000: 06eb 8fbe 257a 3a40 b3af 5dbe 41c0 8a3f
00000010: 769c 80bf 093f 1440 c67d 01bf d48f a63f
00000020: eeba 00c0 64de 7140 6b7d 583f 1860 dcbf
00000030: f27d fd3f f698 eb3f b6e5 f73f 4ad0 f93f
00000040: e2f8 583e 6132 2e3f b985 1b40 1418 203d
00000050: 1810 2d3f fc8c ea3f 2525 7d3e f575 26bf
00000060: 6109 833f bf7d 073f b532 3a40 d395 84bf
00000070: 3af3 773f 0495 c8be ab8d ae3f 2379 853e
00000080: 7086 73bf 8c44 753e 89a2 153f c3fc 5140
00000090: 6666 99bf e6e1 c33f 3429 2840 41d8 ca3f
000000a0: 207d 973f 3f44 623e 73ea 12bf 2f9b 7f3f
000000b0: e981 113f 3907 263f 16d5 fd3e 6c58 b43e
000000c0: f903 7040 a2e9 343f e77d a03d e990 f53f
000000d0: b092 0840 1f20 b83f b709 883f 784a c73f
000000e0: d464 8a3e fad1 a83f 21f4 1bbf 75bf 2440
000000f0: ab96 3440 6912 513f c9dc 593f 12b5 7d3f
00000100: 2e4d 25c0 5e47 883f d777 893f dfb6 ed3f
00000110: f4ba 403f a762 fa3f 4880 3b3f d390 3f40
00000120: 6fa3 5a3e 820e 8e3f bc53 83bf 8bba ae3f
00000130: 5ad9 1940 f730 82bf 8b59 923f ceb9 07c0
00000140: be7d 5640 3dc0 983e 186b 5d3f c493 a43f
00000150: f4e8 6ebf 5d18 833f 1d89 0240 d635 ad3f
00000160: 5138 9b3f 8e69 863f 6686 ce3f 160c be3f
00000170: 200e b23f 8c03 523e 81d9 6d3f cbe4 663f
00000180: 0213 0640 1957 2540 72b2 473f 477a 2e3f
00000190: 04a9 6f3e 6877 0f40 088e 4ebf 7591 0d40
000001a0: b54f ac3f 8f3e 84bf 6cfc 893e c8f5 073f
000001b0: e88a 663f 0501 3f40 b36e 513e df1d b5bf
000001c0: 48d9 b73f e95c c5be befa 86bf 03c4 f23f
000001d0: 0fcd fcbe 15ab 8d3f 341c a13f 4f91 0b3f
000001e0: 017d cf3f 4a08 a5be 43dd a63f 949f 3740
000001f0: d136 c83f 3229 893f 3e66 e33e 8394 3640
00000200: d0f5 e03b 8db9 823f 498e 54bd 3959 08bf
00000210: 1247 08c0 e6cf 953f a26c 253e ed6a 09c0
00000220: 567f e73f d7ff 2440 332d 83be dc64 6740
00000230: 4fe0 273f 5937 1840 bd2e ff3d 9a1e edbd
00000240: 6acb 2ebf 7dae 1140 5dc8 ae3f 44cc 6540
00000250: c138 8e3f d766 31be 9b86 953f ec29 0cc0
00000260: 5088 643f 068f c83f 24b8 2b40 d7c7 0a40
00000270: 1716 b3bf 04ee 04bc 685f e0bc cb72 9f3f
00000280: 40b2 5040 287e 693f cd50 52bf 6518 fe3f
00000290: edad adbf 3bad 9e3f 2bb1 c13e 9901 2abf
000002a0: bb22 56be 936a 2240 a1a3 34be 7c62 8ebf
000002b0: 28b2 943f 2f1f 593f 1f06 a73f ed71 f63c
000002c0: b88c 0340 f8ba 1dbf 9fdc 043f 2f70 0240
000002d0: 1ec5 703e 732d bebf b0a0 6a3f cc97 d13f
000002e0: 55fc 4a3f 17fd dc3f 72b7 0fbf b336 6f3f
000002f0: 77cc e63f 47b3 f23f faf6 263f 9efd a7bf
00000300: 0888 6c3f de3d 8a3e 7e78 4ebe 0f64 d73f
00000310: 9352 23bf c55d f3bd d48d af3f 7385 2fbe
00000320: 1eaa a3bf 3808 8140 2509 113e 7f90 923f
00000330: 7f01 b9bc 0658 43bf ba8e c73f 1008 6240
00000340: eb12 e03f 9f66 b2be e5ca 08bf ddc8 333f
00000350: 3ead ddbe 8432 8f3c f8a7 4040 8036 2040
00000360: 137c 30bf fdf5 7abd 62a0 dd3f 4148 fd3f
00000370: 5bdb ccbe bf81 7d3e f76a 8b3f e52d 2240
00000380: 14f6 17c0 5651 a1bf 21c3 213e 9184 913f
00000390: 6966 67bf 562c d23f b7ce b93e 6cdd 2e40
000003a0: 8ce5 5e40 4a60 96ba 7430 803f d66f 563f
000003b0: be89 1540 5de3 b23e a304 1940 6b21 903f
000003c0: 6c17 213f 1b21 da3f 73a2 643f a6d8 8b3f
000003d0: 6ad0 82be 6f4c 0440 5002 833f a780 0b40
000003e0: ab5b f2bd e4c2 783f 7228 45be 5197 f33f
000003f0: 5f0f 453f d492 c63f 2e88 bb3f 199e ac3f

l2.bias f4 [300]
1.3927078 1.166836 1.9792536 0.66676927 0.8896899 1.1872247 1.1414729 1.6993153
1.158346 0.59524107 1.4392248 0.9637144 1.266465 0.7715861 1.6380959 1.3882666
1.3183155 1.1347903 0.25782156 0.6225276 0.88042074 1.087856 1.4243088 0.78034204
0.64624935 0.71523225 2.4083114 0.09837551 0.3030471 1.8671384 1.6145788 0.67302454
0.72189355 0.7437293 1.2463406 1.2990427 0.45584556 0.7478335 2.2138422 0.8776631
1.3500346 0.93746597 1.5529506 1.6474664 0.6379371 1.3920977 1.1381452 0.6930202
0.9608644 1.6872016 1.299861 1.2284911 1.2452708 1.2003968 1.7282164 1.3835106
1.1477456 0.7536349 1.4412307 1.2573761 0.6907398 1.9205518 1.1852024 0.35143808
0.88314754 1.2563058 0.44832063 1.1631924 0.6160009 0.68811476 0.6333282 1.5013047
1.1997137 0.7221156 0.8172352 0.88912904 0.8933776 0.9009924 1.150983 0.8210567
1.2963502 1.8110268 0.87515795 0.7032286 1.1236664 1.3415068 0.9983811 1.2008144
0.82555336 1.3663405 1.7650919 1.6690048 2.4246697 0.35310894 1.3808268 0.26960334
1.0184511 1.2637403 1.1974616 1.3245245 1.0965879 0.7751577 0.49550572 0.74352264
1.6173285 1.1811537 0.99874157 1.2626301 1.0920075 0.67591697 1.4171808 1.2855353
1.1496052 1.6095533 0.6271659 1.0394243 0.99456775 0.87687707 1.2707295 1.0550498
0.459824 0.6598109 1.2520194 1.1811961 0.73255193 1.1944362 0.5206689 1.7878032
21.34664 1.3845311 0.68579066 1.7699822 1.321913 0.23165497 1.0007669 1.2144436
1.5686213 1.605071 21.336924 1.051793 1.3979547 1.167299 0.6038514 0.6887648
0.4311039 0.98717386 1.5348905 2.1118834 0.6017288 0.9551747 1.3549206 1.4846427
1.1850963 0.27679005 0.84389883 1.0918015 0.98423123 1.5907512 1.4374914 0.90741676
1.2127093 1.0834018 1.9137117 1.1125342 1.4706918 1.4503019 1.5550395 1.3308666
0.9697048 1.5781219 1.7235681 0.9300641 0.7545457 1.4605118 0.8703554 1.0821854
1.5232236 1.3331252 0.92413557 0.7558762 1.0443 1.4228725 0.616814 0.8440433
-0.022956576 2.0959778 0.14214009 0.5958047 0.7526379 0.46418568 1.0021601 0.95893335
1.1971421 1.377483 0.31675166 0.31904405 1.7727673 1.5930512 0.45788062 3.05143
0.43290585 0.5921605 0.6935048 0.9453553 0.6005953 0.78181285 0.9845126 1.0669061
0.9360737 1.1934991 0.55802935 21.417727 0.4954063 1.0808693 0.6002491 1.6774123
1.2442399 0.11827982 0.8794306 1.1920171 0.96851224 0.5918217 1.6274707 0.77030605
2.0244546 0.94165885 1.8249985 21.141354 0.9966816 1.0194608 0.9547187 1.3707614
0.53754604 1.2876076 21.381756 0.9796989 0.31902912 1.436425 1.199874 1.0264843
1.2862235 1.9092109 0.5641424 0.97330564 1.4952109 1.0015825 0.8200797 2.1968117
0.68692297 0.95532864 0.6109364 1.7033947 1.4972001 1.5740762 1.1155622 1.6653769
00000000: 4044 b23f e25a 953f 2f58 fd3f 64b1 2a3f
00000010: b8c2 633f fbf6 973f c91b 923f 2a83 d93f
00000020: af44 943f b861 183f 8538 b83f fdb5 763f
00000030: 861b a23f ab86 453f 20ad d13f b8b2 b13f
00000040: 90be a83f cf40 913f 3001 843e f85d 1f3f
00000050: 4163 613f de3e 8b3f c04f b63f 7fc4 473f
00000060: 9970 253f 7619 373f c621 1a40 1979 c93d
00000070: fd28 9b3e 64fe ee3f 85aa ce3f 564b 2c3f
00000080: 04ce 383f 0b65 3e3f 1788 9f3f 0847 a63f
00000090: 9764 e93e 0472 3f3f 97af 0d40 87ae 603f
000000a0: efcd ac3f c5fd 6f3f 16c7 c63f 2ee0 d23f
000000b0: d94f 233f 4230 b23f beae 913f c669 313f
000000c0: 36fb 753f 39f6 d73f d861 a63f 323f 9d3f
000000d0: 0965 9f3f 9aa6 993f 3236 dd3f e016 b13f
000000e0: 54e9 923f 38ee 403f 3f7a b83f b3f1 a03f
000000f0: 53d4 303f a4d4 f53f b6b4 973f b1ef b33e
00000100: f515 623f a1ce a03f 488a e53e 7de3 943f
00000110: 3cb2 1d3f 4a28 303f cc21 223f c12a c03f
00000120: 3890 993f 91dc 383f 5336 513f f69d 633f
00000130: 65b4 643f 70a7 663f 6953 933f c630 523f
00000140: ceee a53f bacf e73f 5a0a 603f ca06 343f
00000150: 4dd4 8f3f 7fb6 ab3f e795 7f3f 49b4 993f
00000160: 7757 533f 3fe4 ae3f 88ee e13f f3a1 d53f
00000170: ca2d 1b40 b2ca b43e efbe b03f 7309 8a3e
00000180: 9b5c 823f 3ec2 a13f 6c46 993f 058a a93f
00000190: fe5c 8c3f bc70 463f edb2 fd3e 8057 3e3f
000001a0: 9f04 cf3f 0b30 973f 87ad 7f3f dd9d a13f
000001b0: e7c6 8b3f e508 2d3f 2e66 b53f 6c8c a43f
000001c0: 4326 933f d805 ce3f f28d 203f db0b 853f
000001d0: fe9b 7e3f 047b 603f 44a7 a23f df0b 873f
000001e0: 0d6e eb3e 5ee9 283f 2c42 a03f 6f31 973f
000001f0: 8688 3b3f 49e3 983f 8f4a 053f bcd6 e43f
00000200: ebc5 aa41 5138 b13f fa8f 2f3f c78e e23f
00000210: 7234 a93f f636 6d3e 2119 803f e372 9b3f
00000220: 95c8 c83f f772 cd3f 05b2 aa41 27a1 863f
00000230: 2ef0 b23f 0e6a 953f 0196 1a3f e452 303f
00000240: a6b9 dc3e 6db7 7c3f 4b77 c43f 1929 0740
00000250: e60a 1a3f 5486 743f 0a6e ad3f c608 be3f
00000260: 3cb1 973f 6db7 8d3e c109 583f 27c0 8b3f
00000270: 94f6 7b3f bc9d cb3f b8ff b73f 774c 683f
00000280: 0f3a 9b3f e9ac 8a3f 81f4 f43f 8567 8e3f
00000290: a13f bc3f 7ea3 b93f 890b c73f d659 aa3f
000002a0: 933e 783f e6ff c93f e19d dc3f ae18 6e3f
000002b0: e829 413f 0df2 ba3f 9dcf 5e3f 0d85 8a3f
000002c0: fef8 c23f d9a3 aa3f 2694 6c3f 1a81 413f
000002d0: 9fab 853f b020 b63f 86e7 1d3f 3913 583f
000002e0: 6e0f bcbc 8024 0640 2c8d 113e a886 183f
000002f0: e1ac 403f bfa9 ed3e c846 803f a87c 753f
00000300: f43b 993f 5d51 b03f 462d a23e be59 a33e
00000310: 0aea e23f 1ae9 cb3f 546f ea3e a14a 4340
00000320: d6a5 dd3e d597 173f 8889 313f ce02 723f
00000330: 9dc0 193f e324 483f 0509 7c3f 6190 883f
00000340: 87a2 6f3f 94c4 983f 03db 0e3f 8157 ab41
00000350: e5a5 fd3e ed59 8a3f eda9 193f 72b5 d63f
00000360: 4143 9f3f b13c f23d 5d22 613f 0494 983f
00000370: 6bf0 773f a081 173f f650 d03f c732 453f
00000380: aa90 0140 8e10 713f 8d99 e93f 7e21 a941
00000390: 8626 7f3f b17d 823f 7268 743f 1c75 af3f
000003a0: 9e9c 093f 53d0 a43f d60d ab41 8ccd 7a3f
000003b0: c957 a33e c6dc b73f 7995 993f d663 833f
000003c0: f9a2 a43f 0661 f43f a36b 103f 8f2a 793f
000003d0: 1263 bf3f db33 803f bef0 513f 9098 0c40
000003e0: 2fda 2f3f 6b90 743f 5466 1c3f d608 da3f
000003f0: 41a4 bf3f 547b c93f beca 8e3f 122b d53f

bn2.weight f4 [300]
1.5834553 1.978813 2.0419393 1.63271 3.4453597 3.1338708 2.7011304 1.9392568
2.7261136 2.8905022 2.0861685 1.9482954 2.9001486 2.8359613 1.7593629 2.586784
2.7468321 2.613747 2.859631 2.550387 1.9928577 2.7259324 1.7834258 2.3569527
2.8672407 1.9757057 2.1555572 3.2885015 3.3821974 2.1336045 3.1440759 2.703508
2.1822665 4.1894093 3.33627 2.9895134 2.699927 2.3521895 2.2339802 2.0044227
2.1949224 1.6726568 3.5327601 2.6379821 3.106687 2.2329552 2.3787448 3.5382812
2.4864967 3.4524336 2.4092948 2.7101433 2.2043724 2.9581456 2.133762 2.4271688
3.3727734 2.3903465 2.259485 2.3005466 2.8419962 2.7558897 1.8504528 3.5137236
2.351541 3.156294 3.5404322 2.3685338 3.115899 2.117086 2.4662306 2.2003484
2.2166016 1.7299032 3.186427 1.7039121 2.121138 2.046753 2.092346 2.2976334
1.9934927 1.7447472 2.581598 2.526755 1.4985899 2.6500223 4.203536 2.1086967
3.0916097 1.661219 3.8702822 2.1288486 2.2296138 2.6134038 2.5844488 3.452102
2.3036444 2.4901524 1.6548533 1.8732224 2.2034373 2.474338 2.8818686 1.8354361
2.0879002 2.5748308 1.5706528 2.1002533 1.8982002 2.2756667 4.183347 2.8578925
2.137246 2.5570953 3.2667534 2.800577 2.1181352 2.2085721 2.1645794 2.9163892
2.5790563 2.2008111 2.752605 1.7741034 2.4282677 1.907644 2.676062 1.8447468
0.099420086 2.4239895 2.9894216 2.3513718 2.5274704 2.9289362 2.2799175 3.1027267
2.6648011 2.1038313 0.109696664 2.2580893 1.7797345 2.4321897 2.60392 2.5245917
2.1094785 2.4538057 2.2886887 2.152038 1.7967697 2.372933 3.3371346 1.8757694
2.0638173 3.261519 2.2595966 1.9562016 1.8821566 2.5447829 2.1506395 2.807662
1.5265702 2.2850306 1.805233 1.9125961 2.579362 2.2155502 2.2636924 2.3332002
1.2811687 2.8094487 2.2826002 2.9263356 2.7899797 2.1218348 2.424277 2.2706127
2.3480923 1.9795243 2.0115366 2.8288858 2.3632572 1.1616836 1.4286002 2.4624968
3.8758037 2.916656 3.0076365 2.9327688 2.337197 2.4848895 2.294831 1.74087
1.8191065 1.8851686 2.4217572 3.00228 2.3092365 1.9668096 3.596285 1.8846127
2.9754374 2.5424168 1.382128 2.6159396 2.7155383 3.0701745 2.255465 3.3744462
1.8925307 2.394447 3.7409768 0.113554575 3.5772226 1.8526301 2.5291522 2.5881295
2.7999477 2.8366034 2.8044403 2.2610729 2.3547544 2.637409 1.8494976 2.57576
2.4526772 3.008079 2.7462347 0.111223124 2.3137052 2.9552376 2.2934074 2.2685945
2.485055 2.7527926 0.08936405 3.5743654 1.9379723 2.5873103 3.2759433 3.4858077
1.9091194 2.1980832 3.450982 2.4379985 2.4852393 2.159326 2.4781168 1.7692094
2.5588348 3.2902641 2.5606406 2.0652008 1.9159806 3.210941 3.0495806 1.6493735
00000000: aaae ca3f bf49 fd3f 22af 0240 a4fc d03f
00000010: c680 5c40 5791 4840 52df 2c40 9139 f83f
00000020: a578 2e40 fdfd 3840 c983 0540 be61 f93f
00000030: 099c 3940 6480 3540 ce32 e13f de8d 2540
00000040: 19cc 2f40 a147 2740 3204 3740 8a39 2340
00000050: f615 ff3f ad75 2e40 4c47 e43f 50d8 1640
00000060: df80 3740 ede3 fc3f a6f4 0940 cf76 5240
00000070: ec75 5840 fa8c 0840 8a38 4940 4606 2d40
00000080: 41aa 0b40 a40f 8640 7385 5540 3054 3f40
00000090: 9bcb 2c40 468a 1640 88f9 0e40 7648 0040
000000a0: 9c79 0c40 9e19 d63f be18 6240 b3d4 2840
000000b0: f6d3 4640 bde8 0e40 5b3d 1840 3373 6240
000000c0: c322 1f40 acf4 5c40 e331 1a40 fd72 2d40
000000d0: 7014 0d40 4252 3d40 8e8f 0840 bc56 1b40
000000e0: 85db 5740 70fb 1840 679b 1040 283c 1340
000000f0: 44e3 3540 7f60 3040 a3db ec3f d9e0 6040
00000100: a67f 1640 b900 4a40 7196 6240 0f96 1740
00000110: e46a 4740 567e 0740 b9d6 1d40 82d2 0c40
00000120: cddc 0d40 786d dd3f 6cee 4b40 cb19 da3f
00000130: bac0 0740 00fe 0240 ffe8 0540 6d0c 1340
00000140: c52a ff3f e053 df3f e738 2540 5bb6 2140
00000150: cbd1 bf3f f799 2940 5e83 8640 e3f4 0640
00000160: efdc 4540 d3a2 d43f b4b2 7740 0e3f 0840
00000170: feb1 0e40 0242 2740 9c67 2540 3def 5c40
00000180: e96e 1340 a85e 1f40 3cd2 d33f c0c5 ef3f
00000190: 1e05 0d40 8e5b 1e40 8970 3840 92ef ea3f
000001a0: 28a0 0540 07ca 2440 270b c93f 8d6a 0640
000001b0: 39f8 f23f 86a4 1140 fbdd 8540 b6e7 3640
000001c0: a3c8 0840 73a7 2340 7d12 5140 a73c 3340
000001d0: 878f 0740 3f59 0d40 7888 0a40 1fa6 3a40
000001e0: 420f 2540 17da 0c40 ae2a 3040 d215 e33f
000001f0: bd68 1b40 ae2d f43f 9a44 2b40 aa20 ec3f
00000200: c29c cb3d a522 1b40 af52 3f40 e07c 1640
00000210: 13c2 2140 b173 3b40 2bea 1140 1393 4640
00000220: 1a8c 2a40 2ca5 0640 a5a8 e03d 8984 1040
00000230: 57ce e33f ffa8 1b40 a0a6 2640 e992 2140
00000240: b201 0740 270b 1d40 e079 1240 feba 0940
00000250: 8dfc e53f 22de 1740 9d93 5540 3619 f03f
00000260: 9515 0440 babc 5040 3b9d 1040 d064 fa3f
00000270: 82ea f03f b9dd 2240 14a4 0940 bcb0 3340
00000280: a766 c33f f13d 1240 e011 e73f f3cf f43f
00000290: 4414 2540 93cb 0d40 56e0 1040 2753 1540
000002a0: 56fd a33f 02ce 3340 1f16 1240 1549 3b40
000002b0: 078f 3240 24cc 0740 5b27 1b40 b851 1140
000002c0: 2547 1640 0d61 fd3f 04bd 0040 770c 3540
000002d0: 9b3f 1740 0cb2 943f 5fdc b63f 8c99 1d40
000002e0: 2b0d 7840 7eaa 3a40 1e7d 4040 7cb2 3b40
000002f0: a394 1540 6e08 1f40 83de 1240 d4d4 de3f
00000300: 7bd8 e83f 344d f13f 12fe 1a40 5b25 4040
00000310: 88ca 1340 6bc0 fb3f 8929 6640 fd3a f13f
00000320: 916d 3e40 f5b6 2240 92e9 b03f 8e6b 2740
00000330: 61cb 2d40 bd7d 4440 8a59 1040 edf6 5740
00000340: 723e f23f 9f3e 1940 2a6c 6f40 4d8f e83d
00000350: 37f1 6440 fc22 ed3f a1dd 2140 eaa3 2540
00000360: 5832 3340 e98a 3540 f37b 3340 6bb5 1040
00000370: 4cb4 1640 4fcb 2840 56bc ec3f 40d9 2440
00000380: aaf8 1c40 5e84 4040 4fc2 2f40 f3c8 e33d
00000390: bf13 1440 9d22 3d40 30c7 1240 a730 1140
000003a0: 240b 1f40 c12d 3040 8004 b73d 67c2 6440
000003b0: 7a0f f83f 7e96 2540 0ea9 5140 7917 5f40
000003c0: 065e f43f 65ad 0c40 e4dc 5c40 2b08 1c40
000003d0: 290e 1f40 6632 0a40 7799 1e40 7475 e23f
000003e0: f3c3 2340 b093 5240 89e1 2340 402c 0440
000003f0: da3e f53f 0f80 4d40 542c 4340 ac1e d33f

bn2.bias f4 [300]
0.36892724 0.563024 -0.6269834 0.31881765 0.0024923903 -0.19811241 0.19606198 -0.47760928
0.2349257 -0.4828937 0.21668929 -0.06675693 -0.2852593 -0.063916996 -0.23815894 0.2864262
-0.30251327 0.072676644 -0.40399602 0.061989922 -0.28628063 0.3884583 0.4522215 0.23393515
0.37570354 0.31832105 -0.7097709 -0.46559036 -0.3175527 0.30316636 0.012525075 0.09932169
-0.22757226 0.11990365 0.04961242 0.18152119 -0.2963017 0.26228812 0.22151893 0.31848142
-0.0049344683 0.047582045 -0.09808842 -0.29822788 -0.5961595 0.25233766 0.18553583 -0.36742488
0.17567499 -0.21808384 0.2939877 -0.10915156 0.2215228 -0.06797561 -0.09359695 -0.3209094
0.14304633 -0.082929365 0.12170654 0.30238062 0.20751889 0.46537393 -0.1619035 -0.44514114
0.09414625 -0.2802519 -0.1767057 0.48500794 -0.31838316 0.37699947 -0.26476178 0.14861146
-0.005254044 0.15656468 -0.19014767 0.18032482 -0.06815961 0.26700795 0.27232853 0.12144532
0.33338207 0.100085445 0.16866565 0.030996382 0.37353837 -0.11318624 0.25557145 -0.15985171
0.18824197 0.09739614 0.005842745 0.3679038 -0.18052816 -0.3290348 0.25858182 -0.2764882
-0.40437308 0.09190634 0.26171663 0.20138511 -0.13116154 0.3566431 -0.35848683 0.26038966
0.19844888 0.12954165 0.32991466 0.39254284 0.17958993 0.22526076 0.11344788 -0.023533477
0.22623582 0.20971486 -0.39523363 0.20495129 0.026442556 0.11152376 0.284533 0.3544362
-0.03701851 -0.022225676 0.039638344 0.3897633 0.18740699 0.24359542 0.41867644 -0.17812185
-0.78001815 0.20708607 -0.3371609 -0.22713661 0.033374913 -0.9241401 0.28596747 -0.0034967612
0.014251711 0.2395982 -0.91219306 0.22253723 -0.23277153 0.16983606 0.01861264 0.065594085
0.35601076 -0.006632771 -0.37456298 0.34890825 0.3080117 0.18954165 0.0583897 0.45148346
-0.60312974 -0.5132308 0.33634055 0.44828624 0.19486856 0.13767155 -0.09487949 0.14737472
0.18400787 -0.0612675 -0.17828216 0.00037810922 0.3135921 0.0031612378 0.47623286 0.48928857
0.18767445 -0.52636355 0.20399627 0.37336797 0.029525913 0.11566852 -0.38296103 -0.11339005
0.2160345 0.0792677 -0.582026 -0.16187252 0.037766203 0.31531516 0.11115494 0.3016732
-0.6800102 0.13178222 -0.3805246 0.13492243 0.37155864 0.19392194 0.27017632 0.38072404
-0.32788613 -0.11546513 0.0021706542 -0.48815572 0.3440884 0.21763892 -0.13978116 -0.6283067
-0.23912911 -0.18030845 0.120734625 -0.5493684 0.1939567 -0.2671619 0.13251731 -0.042539973
0.28855014 0.08874789 -0.093633205 -0.9260137 0.19647597 -0.06334725 -0.16631556 0.011766746
-0.024466611 -0.46007693 0.091609135 0.3781075 -0.061338168 -0.3934082 0.3596167 -0.18448433
-0.22457011 -0.123750515 -0.112957574 -0.8686292 0.33415586 0.22370717 -0.20971498 -0.023171918
-0.18729311 -0.18167183 -0.7999191 -0.36500955 0.38485986 -0.047324494 0.24577029 0.08292437
0.30710265 -0.18101251 -0.4431958 -0.27151686 0.10521969 0.038891733 0.17907354 0.18494773
0.0011138372 -0.20120193 0.1786997 0.28917897 0.11710766 0.09979194 -0.30644375 0.4106871
00000000: 08e4 bc3e 5722 103f fc81 20bf 113c a33e
00000010: 5f57 233b fbdd 4abe 79c4 483e 3489 f4be
00000020: 5d90 703e d83d f7be cce3 5d3e dbb7 88bd
00000030: 820d 92be eae6 82bd f0df 73be 74a6 923e
00000040: 05e3 9abe 7ed7 943d 91d8 cebe 25e9 7d3d
00000050: 6093 92be 02e4 c63e 9489 e73e b28c 6f3e
00000060: 375c c03e fafa a23e 8cb3 35bf dc61 eebe
00000070: 4496 a2be 9f38 9b3e f935 4d3c 2c69 cb3d
00000080: b408 69be 0b90 f53d 6536 4b3d b1e0 393e
00000090: dbb4 97be a14a 863e dcd5 623e ff0f a33e
000000a0: 52b1 a1bb 64e5 423d 95e2 c8bd 53b1 98be
000000b0: e99d 18bf 6732 813e 1bfd 3d3e 1d1f bcbe
000000c0: 25e4 333e 5f51 5fbe 8e85 963e da8a dfbd
000000d0: dfd6 623e cc36 8bbd c2af bfbd 3d4e a4be
000000e0: bd7a 123e dfd6 a9bd 4741 f93d a2d1 9a3e
000000f0: d57f 543e 7e45 ee3e 08ca 25be 8ae9 e3be
00000100: c0cf c03d 2d7d 8fbe 57f2 34be f652 f83e
00000110: 1e03 a3be 1306 c13e db8e 87be 9a2d 183e
00000120: 1e2a acbb 7e52 203e 12b6 42be 12a7 383e
00000130: 4497 8bbd 44b5 883e a56e 8b3e 53b8 f83d
00000140: 0eb1 aa3e 99f9 cc3d b0b6 2c3e 20ec fd3c
00000150: 6c40 bf3e 30ce e7bd 43da 823e 2bb0 23be
00000160: 81c2 403e a177 c73d 7f74 bf3b e35d bc3e
00000170: 60dc 38be 4077 a8be d664 843e dd8f 8dbe
00000180: fd09 cfbe 6439 bc3d b9ff 853e e637 4e3e
00000190: 364f 06be ed99 b63e 968b b7be cb51 853e
000001a0: 2f36 4b3e 91a6 043e 93ea a83e 60fb c83e
000001b0: 6ce6 373e c2aa 663e 5d57 e83d 47c9 c0bc
000001c0: 5daa 673e 7ebf 563e 105c cabe c0de 513e
000001d0: 0f9e d83c 9266 e43d 4fae 913e a978 b53e
000001e0: b9a0 17bd 9f12 b6bc d15b 223d 0e8f c73e
000001f0: 9ee7 3f3e 1471 793e c25c d63e 9365 36be
00000200: 45af 47bf 5f0e 543e 5aa0 acbe 8096 68be
00000210: 22b4 083d 7294 6cbf 546a 923e eb29 65bb
00000220: 0280 693c 3b59 753e 7c85 69bf cde0 633e
00000230: a95b 6ebe 81e9 2d3e 8979 983c 3156 863d
00000240: 0b47 b63e b757 d9bb b8c6 bfbe 1aa4 b23e
00000250: b6b3 9d3e 3517 423e 0a2a 6f3d d728 e73e
00000260: b666 1abf 1863 03bf d434 ac3e c685 e53e
00000270: a08b 473e c5f9 0c3e 2e50 c2bd 66e9 163e
00000280: 8f6c 3c3e a1f3 7abd 998f 36be f63c c639
00000290: 258f a03e c52c 4f3b cbd4 f33e 0884 fa3e
000002a0: bb2d 403e c3bf 06bf 66e4 503e 162a bf3e
000002b0: 54e0 f13c 9ee3 ec3d 7813 c4be 0b39 e8bd
000002c0: 2638 5d3e 1b57 a23d a8ff 14bf e9c1 25be
000002d0: bcb0 1a3d fd70 a13e 34a5 e33d e974 9a3e
000002e0: 2615 2ebf ebf1 063e 1fd4 c2be 1b29 0a3e
000002f0: ef3c be3e 7993 463e 8d54 8a3e 43ee c23e
00000300: b1e0 a7be fb78 ecbd 8941 0e3b 8cef f9be
00000310: 5b2c b03e bddc 5e3e cb22 0fbe b5d8 20bf
00000320: 43de 74be c7a2 38be b743 f73d 68a3 0cbf
00000330: 969c 463e 72c9 88be 9eb2 073e 653e 2ebd
00000340: d8bc 933e 74c1 b53d c4c2 bfbd 3c0f 6dbf
00000350: ff30 493e 34bc 81bd a04e 2abe 4fc9 403c
00000360: 346e c8bc 348f ebbe 929d bb3d 4e97 c13e
00000370: bb3d 7bbd cd6c c9be ae1f b83e 76e9 3cbe
00000380: b5f5 65be e970 fdbd 4d56 e7bd 7c5e 5ebf
00000390: 7a16 ab3e 7e13 653e 86bf 56be 09d3 bdbc
000003a0: c4c9 3fbe 2e08 3abe 80c7 4cbf 88e2 babe
000003b0: 5a0c c53e 54d7 41bd 35ab 7b3e 41d4 a93d
000003c0: 8f3c 9d3e 585b 39be 8fea e2be 4204 8bbe
000003d0: 6c7d d73d f04c 1f3d 0e5f 373e f062 3d3e
000003e0: 2dfe 913a e107 4ebe 0efd 363e 440f 943e
000003f0: 24d6 ef3d b75f cc3d 32e6 9cbe 9445 d23e
