weights/model_actor_target_30.pt (torch, 429959 bytes, 10 tensors)

l1.weight f4 [300, 42]
000000 c0 1e b1 3e 10 03 69 be 3f b6 bc 3e c0 59 b7 3c
       0.34593773 -0.22755075 0.36857793 0.022381663
000010 b2 ea 61 3e c1 a7 83 be 8d 9c bc bf 7d 14 3c bf
       0.22062185 -0.25713924 -1.4735276 -0.7346876
000020 57 f6 b9 be 92 27 6c 3e 2e b0 87 3e 96 b0 f6 3b
       -0.36320755 0.2306197 0.26501602 0.007528375
000030 d4 36 04 3f ec df 1a bf 23 a2 5e bf 43 10 92 3f
       0.5164616 -0.6049793 -0.8696615 1.1411213
000040 40 60 9a 3e 6b f0 dc 3e 8a 18 44 40 60 b6 71 3f
       0.30151558 0.43152174 3.0639977 0.9441891
000050 85 14 8f 3f 51 5a bf bd a3 7a cb bf 74 06 b1 3e
       1.1178137 -0.09343398 -1.5896801 0.34575236
000060 c0 7d d9 3e 71 88 04 3f 96 3c ca 3d d0 21 32 bf
       0.42478752 0.51770693 0.09874837 -0.69582844
000070 31 b9 2a 3e ed b0 b2 be 17 03 c2 be 41 5a d1 38
       0.16672207 -0.3490061 -0.37892982 9.982708e-05
000080 8b f0 ac 3e 75 2a f1 bd 4e c7 89 3e 93 54 3a c0
       0.3377727 -0.11775676 0.2690987 -2.911412
000090 46 03 d4 bf 70 e4 c4 3e ab 89 0c 3d a4 2d 93 bc
       -1.6563499 0.38455534 0.034310978 -0.0179661
0000a0 35 33 b0 bf 42 fd 67 3f 0e 9c d7 3e c8 c1 01 3f
       -1.3765627 0.90620816 0.42111248 0.5068631
0000b0 0d 34 7a 3e e2 f3 47 3f 02 de 29 3e ca 09 a5 3e
       0.24433918 0.7810651 0.16588596 0.3223403
0000c0 ad 9d a4 be 74 a7 64 3d f1 f1 fe bd 7b 40 68 3d
       -0.32151547 0.05582376 -0.124484904 0.05670212
0000d0 46 6e 44 3e 80 5d c4 bf 16 25 7f 3c 8a 8c b7 be
       0.19182691 -1.5341034 0.015572807 -0.3584941
0000e0 73 13 75 3f e2 37 1c bf c2 8d cd be c6 d8 bf bf
       0.957328 -0.6102277 -0.40147215 -1.4988029
0000f0 b5 ea 09 bf ee dc 49 3f 19 6f 1b 3f f9 e4 89 be
       -0.5387376 0.78852737 0.60716397 -0.26932505
000100 de e8 16 c0 87 c4 8e 3e 98 c7 f7 3e 67 29 90 3f
       -2.357963 0.27884313 0.48394465 1.1262635
000110 1c 4b 7b 3f 67 ef d4 3f ac 28 07 3f 9f cd 8c bf
       0.9816148 1.663556 0.52796435 -1.100025
000120 e8 95 44 3f 8a 28 82 bd 92 5f 51 bf d6 22 b4 bf
       0.7679124 -0.063553885 -0.81786454 -1.4073131
000130 0e a5 b9 3e 95 2d 6d bf 1b 1d f9 bf 99 26 d6 be
       0.3625874 -0.9264768 -1.9462007 -0.41826323
000140 ed 23 54 bf 86 7c 1a 3e 50 34 e2 bf 26 65 04 bf
       -0.8286732 0.15086564 -1.7672215 -0.5171684
000150 49 7c c4 3a a8 9c 40 3e 19 87 70 be 8a 69 8c bf
       0.0014990653 0.1880976 -0.23489036 -1.0969708
000160 3d a2 77 3e 43 0a 11 bf b5 2b 8d 3e da dc 02 bf
       0.24182983 -0.56656283 0.27572408 -0.5111824
000170 28 e8 8a bd 6d ba 12 3f 3a d2 dc 3e 1d 8b a7 be
       -0.067825615 0.57315713 0.4312914 -0.32723323
000180 88 26 ce 3e 8d ff a0 be 97 7a 0d be fe 81 0a bf
       0.40263772 -0.3144497 -0.13816296 -0.541046
000190 4b 93 86 bd 41 7c f9 3f cd ba da bf a6 2f 86 3e
       -0.06571063 1.9491044 -1.7088257 0.26208228
0001a0 07 a6 e5 bf f3 4e 4c bf 5a 5f 90 3e 4d 3a f2 3e
       -1.7941293 -0.79807967 0.28197747 0.47310105
0001b0 c8 2b 02 3f 10 78 62 3f 38 b3 8b bf b8 be 3f bf
       0.50848055 0.8846445 -1.0914068 -0.7490039
0001c0 a4 5e a7 3e d8 5e 27 3e bd 75 cb 3e ef 45 12 3d
       0.32689393 0.16344774 0.39738265 0.035711225
0001d0 07 7d 94 3f 62 7f bd bc 5a ca e9 3e 21 85 66 be
       1.1600655 -0.02313203 0.45662194 -0.22511722
0001e0 c7 2b c7 bf f7 3a 47 bf 7f d8 92 bf a4 23 94 bf
       -1.5560235 -0.7782435 -1.1472319 -1.1573377
0001f0 67 a7 87 3e e2 7f 39 3f f6 44 09 3f ad 1f ac 3c
       0.26494905 0.7246076 0.5362085 0.021011198
000200 3d f5 b2 3e 31 ea b3 bd 3d 6a d3 3e 25 b0 be 3e
       0.34952727 -0.08784903 0.4129199 0.37243763
000210 90 d2 f3 be 9a 10 63 bf 3e 4d 06 bf fb 8e f4 3e
       -0.47621584 -0.88697207 -0.5246161 0.47765335
000220 c1 a4 51 3e f5 a3 e3 be 87 54 8e 3e 9b 38 1b bf
       0.20473005 -0.44461027 0.27798864 -0.6063325
000230 d9 39 fb 3f 48 9a c9 bf 2b d0 37 bf 80 57 00 40
       1.9627029 -1.5750208 -0.71802014 2.0053406
000240 4c c2 04 3f d0 c8 c0 bf c9 99 cf 3f 5a 53 b4 3e
       0.51858974 -1.5061283 1.6218807 0.35219842
000250 9e bf d6 bf ee 53 ac 3e f2 91 11 3f 36 1d f3 3c
       -1.6777227 0.33657783 0.5686332 0.029677015
000260 78 9b 00 bf d8 f3 d8 3f 43 53 40 bf b0 ea 58 3f
       -0.50237226 1.6949415 -0.7512705 0.84733105
000270 04 c6 6f 3e 49 86 3e be 54 e1 a8 3d 2a af f5 3f
       0.2341538 -0.18605913 0.08246103 1.9194081
000280 e8 83 ae 3e 74 04 5d be a3 37 bb 3f 8f 9e 6a 3f
       0.3408501 -0.2158373 1.4626354 0.9164819
000290 2b 8c 8e be 21 c7 a5 3e a4 f1 1b c0 06 9c 6d 3d
       -0.27841315 0.32378486 -2.4366236 0.058010124
0002a0 57 df 89 3e bb b2 a9 3e d7 86 92 3e bc 5b ac be
       0.26928207 0.33144173 0.286185 -0.33663738
0002b0 02 7a 51 3e dc f5 24 3f dc 0c 11 3f e1 a4 12 bf
       0.20456699 0.6443765 0.56660247 -0.57282835
0002c0 dd 57 85 be c1 cf 85 3e 93 f9 ca 3e de c4 8b 3f
       -0.26043597 0.26135066 0.39643535 1.0919454
0002d0 67 df 23 3e a2 2a 10 be 79 40 d2 bf c8 ca a1 3f
       0.1600319 -0.14078763 -1.6425925 1.2640009
0002e0 53 10 65 bf f7 e0 9d 3f e2 f2 74 40 19 4e 22 3f
       -0.89478034 1.2334279 3.8273244 0.6340042
0002f0 9f 5c 42 40 38 20 ee 3e ed 19 e7 3e 75 de ad 3e
       3.0369031 0.46508956 0.45136967 0.33958784
000300 36 a2 a9 3e b8 86 97 bf 0e d4 d3 bd c8 79 7b bf
       0.3313157 -1.1837988 -0.103431806 -0.982327
000310 ee 70 06 bf 4a 9e 7d 3e 4e 3a 00 be 8a 97 ce be
       -0.5251607 0.24767414 -0.12522241 -0.4034999
000320 b4 6a 1e bf 94 6e 1c 40 e6 4b 94 3e 1d 96 cb 3f
       -0.61881566 2.4442492 0.28964156 1.5905186
000330 95 6c dc 3f cc d0 3f 3f 7a 28 4e be 5d 9a 2c 3f
       1.7220637 0.74927974 -0.20132628 0.6742304
000340 a8 1d 6d be 19 9d 0b 3e 61 7f 80 bd ce c2 fc 3d
       -0.23155844 0.13634147 -0.062742956 0.123418435
000350 6e 2d 1a 3f 66 c5 58 bf 13 8a 31 3e 9a 8a f4 3e
       0.6022557 -0.84676206 0.17337827 0.47761995
000360 4f 53 90 3e 75 51 16 bf 7e 9a f3 bd 75 12 0e 3f
       0.2818856 -0.58718044 -0.118947014 0.55496913
000370 26 31 0d 3e f0 eb f4 bd 03 49 38 be de 95 bb 3e
       0.1378828 -0.11959064 -0.17996602 0.36637777
000380 0a ba d7 bf 9f 7f 09 bf ce af 83 3e 3e c7 9b 3f
       -1.685365 -0.5371036 0.25720066 1.2170179
000390 1c 87 16 40 3e 3b 6e 3f 65 4a bd 3f 7e 24 a7 bf
       2.3519964 0.93059146 1.4788328 -1.3058012
0003a0 55 21 1c bf 64 ca 42 3e c7 19 37 3e 35 a0 79 bf
       -0.6098836 0.19022518 0.17880927 -0.9751008
0003b0 60 75 a4 bd a5 7b 87 bd bf 6f a6 3f 33 8f fb bf
       -0.080302 -0.0661538 1.3002852 -1.9653076
0003c0 ea 33 cf be 04 93 02 3f 2d 7d 41 3f 98 71 a5 bf
       -0.40469295 0.5100558 0.7558163 -1.2925291
0003d0 b0 11 cb 3e f4 24 93 be 28 38 de bf d0 3d 75 be
       0.39661932 -0.2873913 -1.7360888 -0.23949361
0003e0 d1 29 87 be d8 90 a4 bf 33 97 78 be 9d 9b b4 be
       -0.2639909 -1.2856703 -0.24276428 -0.35274974
0003f0 8f d5 6a 3e 0b 12 86 3e a4 3a 86 3e f0 a4 f7 3e
       0.22933029 0.2618564 0.26216614 0.48368025

l1.bias f4 [300]
000000 d5 23 e8 3e 3c 6a a6 3e 30 a0 df 3e c1 5d f8 3e
       0.45339838 0.32502925 0.436769 0.4850903
000010 62 04 be 3e 07 57 58 3e f4 dd d9 3e 62 01 ca 3e
       0.3711272 0.21126948 0.4255215 0.3945418
000020 be ee dd 3e 0e 2f 26 3e 39 87 a7 3e a2 54 f9 3e
       0.43346208 0.16228887 0.32720354 0.48697382
000030 eb 29 a9 3e 65 60 52 3e 7e 44 13 3e 1a fc dd 3e
       0.33039793 0.20544584 0.14381596 0.433564
000040 ca 07 99 3e 35 c0 87 3e 9b f2 b7 3e a6 aa 8d 3e
       0.29888755 0.2651383 0.3592728 0.27669257
000050 57 fe 2f 3e 79 23 be 3e f8 15 ea 3e 6f d6 93 3e
       0.17186867 0.37136438 0.45719886 0.28874537
000060 3a 55 b9 3e 46 d9 05 3f 55 ca d1 3e 03 95 9e 3e
       0.36197835 0.5228466 0.4097468 0.30973062
000070 62 c7 98 3e 35 ae 6b 3e 1c 46 15 3e 22 ad b1 3e
       0.29839617 0.23015673 0.14577526 0.34702402
000080 2a 25 ec 3e d7 45 b2 3e ed e8 e2 3e b7 aa 0b 3e
       0.46122104 0.3481891 0.44318333 0.13639341
000090 84 56 0c 3f ce 87 5b 3e 40 13 6a 3e 3b 84 74 3e
       0.5481951 0.21438524 0.22858906 0.23878567
0000a0 4f 10 d8 3e 34 b7 d8 3e eb d8 80 3e a3 87 1b 3e
       0.42199942 0.42327273 0.25165495 0.1518846
0000b0 f5 31 c4 3e 28 b5 a2 3e b0 35 bc 3e 97 75 6c 3e
       0.38319364 0.31778836 0.3675971 0.23091732
0000c0 99 06 78 3e df ee 91 3e 72 18 49 3e c9 5b 14 3e
       0.24221267 0.28502557 0.19638231 0.14488138
0000d0 fe a0 15 3e 6f e2 89 3e a7 0c e2 3e a0 91 d0 3e
       0.14612195 0.26930568 0.44150278 0.40736103
0000e0 44 4a c8 3b b0 ba 98 3e d1 d0 99 3e 72 ed b4 3e
       0.006112369 0.2982993 0.30042127 0.35337406
0000f0 fe c5 07 3f b2 e6 7d 3e c1 c6 95 3e ba 73 99 3e
       0.5303649 0.24795035 0.292532 0.29971105
000100 27 f5 e2 3d 6e 9d 39 3e fe 43 09 3f 92 05 74 3e
       0.11081915 0.18126461 0.5361937 0.2383025
000110 26 db 89 3e bc 24 94 3e 83 8a b7 3e ff 4b 8f 3e
       0.2692501 0.28934276 0.35847864 0.27987668
000120 7a f5 b4 3e 6d 29 7a 3e aa 9b d0 3e e2 4c 1a 3e
       0.35343534 0.24429865 0.40743762 0.15068391
000130 6c c4 b7 3e 47 1d 93 3e e5 55 0d 3f 05 12 bd 3e
       0.35892045 0.28733274 0.5520919 0.3692781
000140 e3 0d a1 3e c4 65 d7 3e 74 85 50 3e 04 0b 7a 3e
       0.31455907 0.4206983 0.20363408 0.24418265
000150 78 a1 a2 3e 6d 95 92 3e 9f 3a 64 3e 4f fe 3d 3e
       0.31763816 0.28629628 0.22287987 0.18554042
000160 a3 69 00 3f 4f a8 c1 3e 1d b8 a8 3e 84 07 10 3e
       0.5016119 0.37823722 0.32952967 0.14065367
000170 01 44 05 3f 7b 72 86 3f 55 c5 82 3e 7e c6 82 3e
       0.5205689 1.0503687 0.25541177 0.25542063
000180 b0 12 d6 3e fe 13 10 3e 33 4e 2d 3e ad 03 b3 3e
       0.41811132 0.14070126 0.16924362 0.34963742
000190 10 85 d3 3e a2 75 69 3e 4c 48 8f 3e d6 f4 b2 3e
       0.41312456 0.2279878 0.27984846 0.3495242
0001a0 36 a0 47 3d 52 33 29 3e 1a 1a d7 3e bb d0 f2 3e
       0.048736773 0.16523483 0.420121 0.47424874
0001b0 26 e5 cd 3e 49 86 9d 3e 16 e7 ae 3e 38 66 d7 3e
       0.4021389 0.30766514 0.3416068 0.42070174
0001c0 a0 78 d4 3e bb da 5f 3e de 03 d1 3e cf 0c a4 3e
       0.4149828 0.21860783 0.40823263 0.32041022
0001d0 a1 37 d8 3e 66 4c c2 3e de c3 0d 3e f6 34 07 3f
       0.4222994 0.37948912 0.13844249 0.52815187
0001e0 f4 66 71 3e ee 22 f1 3e 24 97 96 3e 4a 66 9d 3e
       0.2357443 0.47096962 0.29412186 0.30742103
0001f0 8e af 29 3e ae 07 8c 3e cd ed 23 3e d7 a4 b1 3e
       0.16570875 0.2734961 0.16008683 0.34696075
000200 9f 74 f1 3e a0 a5 b3 3e 82 22 ef 3e 24 34 13 3e
       0.47159287 0.350873 0.46706015 0.14375359
000210 39 6c 1b 3f ad 16 f6 3e ba 92 85 3d 1b c1 5b 3e
       0.6071201 0.48064175 0.065221265 0.21460383
000220 f2 a3 c4 3e a3 45 60 3e 63 ad d5 3e fc 41 e1 3e
       0.3840633 0.21901564 0.41733846 0.43995655
000230 c2 56 68 3e 87 ca 57 3e 0b 88 e6 3e a2 c5 b1 3e
       0.22689345 0.21073352 0.45025668 0.34721094
000240 7d ad 05 3f 5d b0 ad 3e 05 c7 c1 3e 1f 4a 5a 3e
       0.5221785 0.33923617 0.37847152 0.21317337
000250 97 8f 06 3e 23 5d a3 3e 79 d1 58 3e a2 1f 21 3e
       0.13140713 0.31906995 0.21173657 0.15734723
000260 a6 06 00 3f a4 75 68 3e 4a 8d b2 3e 32 01 e3 3d
       0.50010145 0.22701126 0.3487342 0.11084212
000270 b7 cc 95 3e d3 e5 93 3e 3b 58 a7 3e f9 ae 28 3e
       0.29257748 0.2888628 0.32684502 0.16472997
000280 b0 17 43 3e 76 f8 07 3f 47 42 cc 3d f2 4d 8b 3e
       0.19052005 0.53113496 0.09973579 0.27207905
000290 0d e1 c6 3d a9 aa 95 3e 93 cb da 3e 9f 18 98 3d
       0.09710894 0.29231766 0.4273344 0.07426571
0002a0 4f 82 b2 3e 9a 95 ab 3e 9f 43 a9 3e f1 74 91 3e
       0.34865043 0.33512574 0.33059403 0.28409532
0002b0 14 ff ab 3e 84 40 81 3e 73 7c 51 3e c6 da 94 3f
       0.33593047 0.25244534 0.2045763 1.1629264
0002c0 c1 60 dd 3e ba 0f d9 3e 30 6b a7 3e 06 9c 88 3e
       0.4323788 0.4239481 0.32698965 0.26681536
0002d0 17 80 49 3e 3f 86 03 3e c2 ca 31 3e 72 71 ce 3e
       0.19677769 0.1284418 0.17362502 0.40320927
0002e0 db 42 51 3e d5 86 96 3e 4f d6 d1 3e 55 ea 63 3e
       0.2043566 0.29399744 0.40983817 0.2225736
0002f0 52 4e 95 3e 89 57 b1 3e ef df a6 3e 83 26 93 3e
       0.29161316 0.34637097 0.32592723 0.2874032
000300 6c 6c 18 3e 8d 66 90 3d 3c a1 9e 3e 72 c4 82 3e
       0.1488511 0.0705081 0.30982387 0.255405
000310 69 38 7d 3e 76 73 a7 3e 7f cb c5 3e 6c f5 81 3e
       0.2472855 0.32705277 0.38631818 0.25382555
000320 3f 00 41 3e 1d e6 65 3e e1 ce a0 3f 80 6c 39 3e
       0.1884775 0.22451063 1.2563134 0.18107796
000330 9d 75 b0 3e 09 1b 91 3e 1d 1e 7c 3e a0 72 49 3e
       0.34464732 0.2834094 0.24620862 0.19672632
000340 2f 50 96 3e 83 a4 63 3e b2 f3 4a 3e 87 c5 99 3e
       0.2935805 0.22230725 0.19819525 0.30033514
000350 4c 4d 1a 3e 6c 3a b7 3e 87 43 3b 3e cb 84 26 3e
       0.15068549 0.3578676 0.18287478 0.16261594
000360 c4 71 dc 3e 20 1a 43 3e 31 c4 81 3e f3 d2 9f 3e
       0.43055546 0.19052935 0.25344995 0.3121563
000370 64 c4 f9 3e 7b f7 8c 3f ab c6 9f 3e 6f 6e 8d 3e
       0.48782647 1.1013025 0.3120626 0.27623317
000380 ea 11 9c 3e 6b 1c 11 3e 90 57 34 3e b2 35 86 3e
       0.30482417 0.14170997 0.17611527 0.2621284
000390 bc ed 8b 3e 1a 18 00 3f 7d 7e b2 3d bd b9 95 3e
       0.27329814 0.50036776 0.08715532 0.2924327
0003a0 d2 4a d5 3e ea 16 82 3e 07 c8 b5 3e 9f 05 27 3e
       0.41658646 0.25408107 0.3550417 0.16310738
0003b0 f8 f8 83 3e 99 9c 1a 3f d2 fc 3b 3e 84 03 ef 3d
       0.25775886 0.603952 0.18358162 0.116705924
0003c0 32 0d ba 3e de df 2b 3e 4c 80 07 3f 83 b5 94 3e
       0.36338192 0.16784617 0.5293014 0.29044732
0003d0 19 5c eb 3e 59 2c a9 3e bc 4f b7 3e af 1c c2 3e
       0.45968702 0.33041647 0.3580302 0.3791251
0003e0 fe 7f 20 3e cd f3 20 3e 53 b3 c7 3e 9b c5 be 3e
       0.15673825 0.15718003 0.39004 0.37260136
0003f0 55 2c 81 3e 51 0b af 3e fd 63 77 3e 88 8d f2 3d
       0.25229135 0.3418832 0.24159236 0.11843401

bn1.weight f4 [300]
000000 4e 6f 90 3f d6 a9 db 3f 3c 1f e9 3f 9f 10 56 3f
       1.1283967 1.7161205 1.8212657 0.8361911
000010 69 9d 51 3f 81 f4 eb 3f 3b f6 94 3f 23 24 85 3f
       0.81880814 1.8433992 1.1637644 1.0401653
000020 23 9d 25 40 28 80 c9 3f c3 5f 8a 40 42 8c 83 3f
       2.5877159 1.5742235 4.3241897 1.0277178
000030 b7 52 88 3f 44 de c2 3f 0e 59 a6 3f 89 34 dd 3f
       1.0650243 1.522408 1.2995927 1.7281657
000040 52 e8 ad 3f 6f 69 e4 3f e6 93 9e 3f be 30 cf 3f
       1.3586524 1.7844676 1.2388885 1.618675
000050 e6 b8 26 3f a2 09 87 40 af b8 9f 3f 5e d4 a6 3f
       0.6512588 4.219926 1.2478236 1.3033559
000060 69 f4 05 40 b3 43 ea 3e 5d e2 04 40 bb a9 75 3f
       2.0930426 0.45754775 2.076316 0.95962113
000070 e9 53 64 3f c8 ce 97 3f 50 15 64 3f 47 36 d4 3f
       0.89190537 1.185998 0.8909502 1.6579064
000080 1c 6f 3b 3f db f0 08 40 41 64 24 40 3b 84 8e 3f
       0.73216414 2.1397007 2.568619 1.1134104
000090 b1 42 05 40 5b cc b4 3f 11 4e b6 3f a0 01 d5 3f
       2.0821955 1.4124864 1.4242574 1.6641121
0000a0 37 0f dd 3f 70 ce 1e 40 80 42 fe 3f de b9 2c 3f
       1.7270268 2.48135 1.9864044 0.6747111
0000b0 51 37 a4 3f 37 82 68 3f 24 48 ac 3f 86 da c5 3f
       1.2829381 0.9082369 1.3459516 1.5457313
0000c0 1b c5 c9 3f 12 57 9a 3f eb ee a0 3f f1 28 c9 3f
       1.5763277 1.2057822 1.2572912 1.5715619
0000d0 2b cf b0 3f 18 a2 41 40 b4 9b dc 3f 3b 57 69 3f
       1.3813223 3.0255184 1.7235017 0.9114873
0000e0 10 b2 1c 40 8e 1c 06 40 70 8f a2 3f 59 70 07 3f
       2.448368 2.0954928 1.2700024 0.52905804
0000f0 c8 58 0a 3f b1 e1 d4 3f 6f ca e6 3f ee d8 c1 3f
       0.5404172 1.6631376 1.8030528 1.5144327
000100 be d7 72 40 db 2a 15 40 a8 ba 2e 40 0e 6c 59 3f
       3.7944179 2.3307407 2.7301426 0.84930503
000110 2a df e6 3f c0 46 ad 3f 7e 76 8d 3f e6 51 dc 3f
       1.8036854 1.3537216 1.1051786 1.7212493
000120 5c 37 17 40 c1 6d a1 3f f4 b1 a4 3f fd c2 6f 3f
       2.3627539 1.2611619 1.2866807 0.93656904
000130 7f 02 92 3f 3e c1 d9 3f ae 74 c1 3f 24 24 a7 3f
       1.1407012 1.7012098 1.5113733 1.3057904
000140 21 56 a2 3f 2e 1c 3d 3f 8c 68 fd 3f 37 84 1b 40
       1.2682534 0.73871124 1.979753 2.4299448
000150 40 90 d3 3f 87 67 81 3f 39 f9 1d 40 28 11 bf 3f
       1.6528397 1.0109719 2.4683363 1.4927111
000160 9f 14 47 3f 9d b7 28 40 b0 b5 20 40 ca 63 05 40
       0.7776584 2.6362069 2.5110893 2.0842156
000170 58 8a e1 3e bd af 11 3e 3d 5a 13 40 b1 33 09 40
       0.4405086 0.14227195 2.3023827 2.14378
000180 1c c7 9f 3f fa 3c 4e 3f f2 72 fe 3f f9 56 ed 3f
       1.2482638 0.8056179 1.9878829 1.8542167
000190 59 f2 df 3f c1 ee ce 3f bf be 1a 40 b6 28 f5 3f
       1.7495834 1.6166612 2.4178922 1.9153049
0001a0 30 92 99 3f da c4 a5 3f 90 97 9c 3f 24 b2 ed 3f
       1.1997738 1.2950699 1.2233753 1.8569989
0001b0 25 83 65 40 3d 34 c0 3f 45 29 df 3f 8b 0e 99 3f
       3.5861294 1.5015942 1.743447 1.1957563
0001c0 49 2d 8b 3f bc d2 8d 3f 1a 50 a9 3f 47 51 a2 3f
       1.0873195 1.1079936 1.322757 1.2681054
0001d0 a6 de 62 3f 11 e7 79 3f 2b 7e c0 3f 0d 2f 44 40
       0.88620985 0.97618204 1.5038503 3.0653718
0001e0 cf 8e ea 3f d8 1f 31 40 6a 8a fc 3f 4f b7 bc 3f
       1.8324832 2.7675686 1.9729741 1.4743441
0001f0 2c 6c 04 40 68 fc 7e 3f 59 df f3 3f 21 7f 8f 3f
       2.0691023 0.9960389 1.9052535 1.1210672
000200 fb 10 a6 3f 55 18 1f 3f 9a 67 d8 3f 78 ce a7 3f
       1.2973932 0.621465 1.6906617 1.3109884
000210 9a fb 51 3f 5c 45 07 40 c2 ce 8a 3f 5f e9 2d 40
       0.8202454 2.1136084 1.0844347 2.7173688
000220 0b 68 04 40 c3 0f b6 3f 89 ff c3 3f cb 99 35 3f
       2.0688503 1.422356 1.5312358 0.70937794
000230 31 22 cf 3f 14 57 a5 3f 70 5c 8c 3f 32 e9 5d 3f
       1.6182309 1.2917199 1.096571 0.8668395
000240 54 b9 15 40 68 fe 9e 3f c6 a4 08 40 4b 19 b7 3f
       2.3394365 1.2421389 2.135057 1.4304594
000250 41 50 8e 3f d8 29 cb 3f d2 ca 81 3f c1 6d a9 3f
       1.1118242 1.5872145 1.0140021 1.3236619
000260 75 a6 b6 3f b0 0f 94 3f 9b be 9f 3f f5 fc ad 3f
       1.4269549 1.1567287 1.2480043 1.3592821
000270 14 bf 97 3f e7 fe 5a 3f 71 91 d8 3f 53 f6 b3 3f
       1.1855187 0.855452 1.6919385 1.4059547
000280 a9 59 c2 3f e6 d9 a8 3f f0 76 95 3f d3 0d 7d 3f
       1.5183612 1.3191497 1.1676922 0.9884922
000290 70 eb 02 40 ba e9 92 3f 03 d0 a1 3f 33 db e3 3f
       2.04562 1.1477578 1.2641605 1.7801269
0002a0 72 a8 8a 3f 65 75 cf 3f f5 6a ef 3f ff c2 ee 3f
       1.0832655 1.6207701 1.8704516 1.8653258
0002b0 c7 06 b4 3f e6 5b 46 3f c5 fd 3a 3f 35 07 15 3e
       1.4064568 0.77483976 0.7304347 0.1455353
0002c0 61 bd d4 3f 14 4e 1f 40 d2 12 d2 3f fe 98 06 40
       1.6620294 2.4891405 1.6411994 2.103088
0002d0 f5 be 68 3f 49 07 d8 3f 3f f4 b1 3f 92 01 77 3f
       0.9091638 1.6877223 1.3902663 0.9648677
0002e0 24 81 ac 3f 35 8c d6 3f eb 61 a2 3f 46 be 86 3f
       1.347691 1.6761538 1.2686132 1.0526817
0002f0 fd 94 9d 3f 2b 3d ee 3f 10 d1 ef 3f 0b 9d b8 3f
       1.2311093 1.8612417 1.8735676 1.4422926
000300 fd c2 cf 3f 02 3d 85 3f c1 d2 de 3f e1 c1 01 40
       1.6231381 1.0409243 1.7408067 2.0274584
000310 e6 b2 d1 3f 65 86 b6 3f a8 8d 80 3f 58 a1 e7 3f
       1.638272 1.4259764 1.004323 1.8096113
000320 a0 56 81 3f 9c ad 0c 40 21 b6 d0 3d 96 8c 19 40
       1.0104561 2.1980963 0.10190988 2.3992057
000330 0d 27 15 40 bc f8 d6 3f 20 2d 9b 3f 87 d5 14 40
       2.3305085 1.6794658 1.2123146 2.3255327
000340 f8 95 ed 3f 9b e4 0c 40 62 51 36 40 28 14 5b 3f
       1.8561392 2.201453 2.8487172 0.8557763
000350 89 23 19 40 75 e1 cb 3f 74 40 82 3f 51 4c fe 3f
       2.392794 1.5928179 1.017592 1.986704
000360 cc 73 30 3f b4 a8 e4 3f 46 33 e3 3f a5 db 07 40
       0.6892669 1.7863984 1.7750022 2.122781
000370 44 be f4 3f 3b 7d f6 3d 8c 81 9f 3f b1 e0 3c 3f
       1.9120564 0.120356046 1.246141 0.7378035
000380 b7 9f b4 3f a1 b0 f6 3f 2d 77 c9 3f 1d 43 bb 3f
       1.4111241 1.9272653 1.5739495 1.4629856
000390 c5 eb f3 3f f4 09 d3 3f 3a ef 1c 40 26 b2 0a 40
       1.9056326 1.6487412 2.4521012 2.1671233
0003a0 5c 81 c4 3f 94 05 95 3f 53 a7 5a 3f 0c f6 14 40
       1.5351977 1.1642327 0.85411566 2.3275175
0003b0 83 38 4b 40 12 ca d7 3f 7c f0 0a 40 f0 9c ca 3f
       3.1753242 1.6858542 2.170928 1.5829144
0003c0 b8 5f 79 3f 10 79 82 3f 6d 1e ef 3f eb 3d 2b 40
       0.9741168 1.0193195 1.868116 2.6756542
0003d0 9e e2 15 40 32 f7 15 40 53 39 3c 3f 21 e1 b3 3f
       2.3419566 2.3432126 0.7352497 1.4053079
0003e0 61 b6 57 3f d6 fc 98 3f 53 c7 a2 3f e4 ee b5 3f
       0.84262663 1.195216 1.2717079 1.4213529
0003f0 17 bb 02 40 80 98 32 3f 72 6f 98 3f 1c a1 cf 3f
       2.042669 0.69763947 1.190901 1.6221042

bn1.bias f4 [300]
000000 e0 2f ef be df e8 25 bf 43 be 20 bf 9a 1b 37 bf
       -0.46716213 -0.6480846 -0.62790316 -0.7152649
000010 4b d5 57 bf 4f 5c b5 be 56 38 b4 be 8c 02 3f bf
       -0.84309834 -0.35421988 -0.3519923 -0.7461326
000020 f2 58 2a be c9 76 39 be 4c 3b fa bd e9 61 f0 be
       -0.16635492 -0.18111719 -0.12218341 -0.469497
000030 c7 90 4b bf 73 59 ef be 55 db 1a bf 10 2a b8 be
       -0.7951779 -0.46747932 -0.60490924 -0.3596959
000040 14 5c aa bd 9f 1b 1b bf d7 57 09 bf 57 b2 d0 be
       -0.08318344 -0.6058902 -0.5364966 -0.40761063
000050 af 6c cc be 32 73 ef b9 5e 78 f3 be 83 2b ed be
       -0.3992667 -0.0004567146 -0.4755277 -0.4632226
000060 22 f0 94 be e7 bd 9e bf f6 55 e4 be cf 1b 33 bf
       -0.29089457 -1.2401704 -0.44596833 -0.6996431
000070 8e 03 83 bf 9a 86 14 bf 17 f7 3f bf 94 da d5 be
       -1.023546 -0.58017886 -0.74986404 -0.41768324
000080 fb 02 78 bf 05 e7 58 bd ad 1b 94 be cc 60 14 bf
       -0.9687955 -0.052954692 -0.28927365 -0.579602
000090 95 7e 73 bd 01 a7 30 bf b6 44 b4 be 18 92 c4 be
       -0.05944689 -0.6900483 -0.35208672 -0.3839271
0000a0 0e 57 0f bf d2 31 b6 be f1 33 c6 be fa ca 7a bf
       -0.5599221 -0.35584885 -0.38711503 -0.9796597
0000b0 42 8d 8a be 35 e4 19 bf da c7 aa be 86 74 70 be
       -0.27060896 -0.6011384 -0.333556 -0.2348195
0000c0 dc 15 83 3d 4e f1 49 bf f7 06 39 bf d1 9e ef be
       0.06400654 -0.78883827 -0.7227625 -0.46800855
0000d0 f8 c1 be be 3a 65 21 bd 23 17 bc be c9 d0 1f bf
       -0.3725736 -0.039403178 -0.36736402 -0.62427956
0000e0 47 cb 98 be 4b 02 b9 be f6 68 0e bf 26 f0 65 bf
       -0.29842588 -0.36134562 -0.5562891 -0.8981956
0000f0 68 ca 7b bf 85 04 ce be bc fa cf be 1f de 5c be
       -0.9835572 -0.40237823 -0.40620983 -0.21569107
000100 c4 74 33 bd e7 a8 c2 be 9d 24 da be d8 fb 20 bf
       -0.04381253 -0.38019487 -0.4260606 -0.62884283
000110 d0 84 92 be 96 41 b0 be 72 b9 30 bf 7d f3 47 bf
       -0.28616953 -0.34425038 -0.6903297 -0.7810591
000120 6c 7d 9a be 33 d1 07 bf 30 51 da be 5d 64 ec be
       -0.30173814 -0.5305359 -0.42640066 -0.4617032
000130 28 45 4f bf c8 11 98 be 17 bb 84 be 97 f2 5f be
       -0.809649 -0.29701066 -0.25923988 -0.21869884
000140 32 b9 5d be 0d 2e 14 bf 17 df 03 bf 91 8c 95 be
       -0.21652678 -0.5788277 -0.51512283 -0.29208806
000150 a3 ab 3a bf 6f c9 1d bf c3 4f 89 3d 18 f3 ac be
       -0.72918147 -0.6163549 0.067046665 -0.33779216
000160 53 fe 5f bf e0 1b 8d bd 3c ed 8e be e0 2b 96 be
       -0.8749744 -0.06890082 -0.2791537 -0.2933035
000170 9c bd 58 bf 64 44 7d bf 22 69 54 bd b5 1f 0a bf
       -0.8466432 -0.9893248 -0.051858075 -0.5395463
000180 96 6f 3a be f7 57 6c bf d2 a0 05 bf f4 03 e1 be
       -0.18206629 -0.92321724 -0.5219852 -0.43948328
000190 35 69 18 be 39 c4 ab be bf 2d b3 be d3 f7 08 bf
       -0.14883883 -0.33548144 -0.3499584 -0.5350315
0001a0 dd 06 25 bf 84 4a 2a bf b2 99 dc be a4 97 6d be
       -0.644636 -0.6651995 -0.4308601 -0.23202378
0001b0 a4 7e bf 3c 7e 68 31 bf 67 cc 9f be ec c9 39 bf
       0.023375817 -0.6930007 -0.31210634 -0.72573733
0001c0 53 67 54 bf af 7d 22 bf 4c 9e b9 be 9c 9d 3c bf
       -0.8297016 -0.6347303 -0.36253583 -0.7367799
0001d0 47 f8 33 bf 95 2e 4a bf b8 7e bc be 8e 30 85 bd
       -0.70300716 -0.7897733 -0.3681543 -0.06503402
0001e0 c7 ac d5 be ba ce 4c 3e 47 47 01 bf cf 09 f0 bd
       -0.4173338 0.20000735 -0.50499386 -0.11720621
0001f0 51 6a e9 be 87 1e 37 bf 44 7b bb be 97 5e b4 be
       -0.45588925 -0.71530956 -0.36617482 -0.35228416
000200 0b 45 bc be 45 06 32 bf 6c a8 19 bf d0 ee 22 bf
       -0.36771426 -0.69540817 -0.60022616 -0.6364565
000210 9a c5 4f bf 63 e2 1f 3d bf bc 9a be f7 59 49 be
       -0.8116089 0.03903426 -0.30222127 -0.19663225
000220 79 15 17 bd 65 39 fc be 53 5d cd be c4 0c 80 bf
       -0.036885712 -0.4926254 -0.40110263 -1.0003896
000230 e3 39 a5 be 47 ce 53 bf 42 52 2f bf 57 87 4d bf
       -0.32270727 -0.8273663 -0.6848489 -0.8028464
000240 e5 86 dd bd 53 78 f1 be 92 c8 49 3c 78 e6 1f bf
       -0.10816745 -0.47162113 0.012315886 -0.6246104
000250 7b c7 10 bf c6 7d 70 bd 98 9e f5 be b7 a1 0a bf
       -0.56554383 -0.058713697 -0.4797256 -0.5415301
000260 e4 a4 c4 be e5 6e 3e bf de a1 0e bf 10 e2 29 be
       -0.38407052 -0.7438796 -0.5571574 -0.16590142
000270 a4 ab 41 bf 27 88 4d bf 96 f3 4e be 9e 72 9b be
       -0.7565253 -0.80285877 -0.20210108 -0.30360883
000280 ce 51 32 bf c0 26 a6 be c6 b3 1a bf 2c 64 41 bf
       -0.69656074 -0.3245144 -0.6043056 -0.75543475
000290 ad 43 d5 be f1 98 79 be 10 7a 70 bf 41 5b c2 bc
       -0.41653195 -0.24374749 -0.9393625 -0.023725154
0002a0 38 0c 9e be a4 54 b6 be 75 74 30 bf 54 56 71 be
       -0.30868697 -0.3561145 -0.689277 -0.23568088
0002b0 36 3e d1 be ca ba 13 bf 5d 1b 5a bf b4 8a 7d bf
       -0.40867776 -0.5770689 -0.85198003 -0.9903977
0002c0 66 47 a9 be cd 49 19 be a9 89 1b be 33 eb df be
       -0.33062285 -0.14969559 -0.15189232 -0.4373413
0002d0 70 7e cd be ba 06 0d bf cf 1e 0a bf 91 66 31 bf
       -0.40135527 -0.5508839 -0.5395326 -0.6929713
0002e0 f5 0d f3 be 7b 75 e8 be a2 c8 06 bf cc e5 f7 be
       -0.47471586 -0.4540213 -0.5264989 -0.4841751
0002f0 41 e5 ee be 8d 35 36 be 99 64 a6 be 43 c7 88 be
       -0.46659282 -0.17793866 -0.32498625 -0.26714525
000300 c4 12 01 bf 74 45 14 bf 3c 42 6d be a4 0d ba be
       -0.5041926 -0.5791848 -0.23169798 -0.36338532
000310 c4 0c 9d be 55 02 1a bf d3 8d 49 bf fa 56 cd be
       -0.30673802 -0.6015981 -0.7873203 -0.4010542
000320 e6 f4 34 bf 6a d3 f3 be a6 ad 92 bf e1 9f d0 be
       -0.70686185 -0.47622234 -1.1459243 -0.40746978
000330 e8 ff b1 be b9 a2 09 bf 5a 4c b5 be d3 51 75 be
       -0.34765553 -0.5376392 -0.35409814 -0.23956995
000340 20 41 bd bd 5e b9 87 be 2a 7e 56 be 54 17 05 bf
       -0.09240937 -0.2650861 -0.20946565 -0.5198872
000350 be 75 a4 be f1 6f 31 bf 9c e9 3c bf 8f 59 3e be
       -0.3212108 -0.69311434 -0.7379396 -0.18588851
000360 08 a2 3b bf c9 9c ff be 1b 27 8a be 08 a1 33 bd
       -0.73294115 -0.49924305 -0.2698296 -0.043854743
000370 ca 99 9f be 0c d1 7a bf db 76 cd be 4a 6d 1f bf
       -0.3117202 -0.9797523 -0.40129742 -0.62276137
000380 89 e3 03 bf 2c d9 ed be 43 ef e0 be 33 4c c5 be
       -0.51519066 -0.46454751 -0.43932542 -0.38534698
000390 b4 27 e1 be 7f a3 05 bf 77 9c b3 be 8d cf 50 be
       -0.43975604 -0.522026 -0.3508031 -0.20391674
0003a0 ac 3c cb be e9 a6 06 bf c8 c4 65 bf 04 22 96 bd
       -0.39694726 -0.52598435 -0.8975339 -0.07330707
0003b0 53 18 6c 3d 18 b6 13 bf 38 0d 07 bf 17 7b 13 bf
       0.057640385 -0.5769973 -0.52754545 -0.57609695
0003c0 59 44 1e bf d7 d9 d7 bd 7f 89 27 bf d0 db 03 bf
       -0.6182304 -0.105395965 -0.6544418 -0.5150728
0003d0 37 ed 0f 3d 6b ec 3b be fb 0f 10 bf fb fe 3a bf
       0.035138335 -0.18351905 -0.56274384 -0.7304532
0003e0 5b 0c 3d bf a9 1d b0 be 7e cb e5 bd b7 01 06 bf
       -0.7384698 -0.3439763 -0.11220454 -0.52346367
0003f0 3c 8d 7c be 32 9c 2d bf 62 a9 34 bf c4 e0 d1 be
       -0.24663252 -0.6781646 -0.7057096 -0.40991795

l2.weight f4 [300, 300]
000000 d0 7a a1 be 64 a1 99 3f ad ce 1a 3e 4a 9a 49 3e
       -0.3153901 1.2002378 0.15117903 0.19687763
000010 84 fc 97 bc 99 81 36 3f 2b 5e a4 3f bc 11 1a 3f
       -0.018553026 0.712915 1.2841238 0.6018331
000020 a4 04 5b 3f 62 33 71 3f b5 c0 e5 bf b7 a7 b8 3e
       0.85553956 0.9421903 -1.7949435 0.36065456
000030 7f 2b 22 bf 9c 1f bd bc d4 80 21 3f ea dc 8f 3f
       -0.6334762 -0.023086362 0.630872 1.1239293
000040 46 31 90 3e 6f fd 99 be 44 1d 52 3f 8d 0d 2f 3f
       0.28162593 -0.30076167 0.82075906 0.6838005
000050 fe cb 70 bf 8c 34 3e bf be c0 96 3e 51 c5 0e bf
       -0.9406127 -0.7429893 0.29443926 -0.5576983
000060 1a 9c 44 3f 07 80 bc 3e 94 ba 75 3f 6f 8c 1d 3e
       0.7680069 0.36816427 0.9598782 0.15385602
000070 ca 8e 25 3e 9f c8 a9 bc 34 61 78 3e a8 8d 35 3e
       0.16167751 -0.020725546 0.2425583 0.17729819
000080 42 22 fb 3e cd 53 44 bd 8e 57 fd 3e b8 71 ec 3d
       0.49049574 -0.04793148 0.4948086 0.11545128
000090 0a 5d 56 3f dc a3 2c 3f 04 55 7f 3f 26 fc 67 be
       0.83735716 0.6743753 0.997391 -0.22654781
0000a0 16 58 86 3f a9 1b 9f be 80 db 64 3e c3 90 0d 3d
       1.0495632 -0.3107579 0.22349358 0.034561884
0000b0 7b 32 e2 3d da 4a 2f 3f 80 d7 24 3f 7b 16 4b bd
       0.11044785 0.6847359 0.64391327 -0.049581986
0000c0 f5 da 09 40 93 82 72 3e d4 56 7a 3e c1 3b dc 3e
       2.153989 0.23682623 0.24447185 0.4301434
0000d0 a8 80 f5 3f e6 e1 8e be 4d e4 d0 3e c9 4b 0e 3f
       1.9179888 -0.27906722 0.4079918 0.5558439
0000e0 49 02 c5 3e eb e4 92 be ed 7f 27 bd 7e c0 95 3f
       0.38478306 -0.28690276 -0.040893484 1.1699369
0000f0 e8 da 8c 3f c0 bf e3 3e 14 73 01 bf b4 81 29 3f
       1.1004305 0.4448223 -0.5056622 0.66213536
000100 c7 88 a0 3d 07 72 24 3e 88 7d 0c bf 8d b7 dc 3e
       0.07838588 0.16059123 -0.54879045 0.43108788
000110 78 49 47 3f 86 22 98 3e 5b fe 34 be c8 a2 b8 bd
       0.7784648 0.2971384 -0.17675154 -0.09015423
000120 97 c3 90 be 53 6d 0c 3f cd 05 8a 3f 08 4c 8e 3f
       -0.28274223 0.54854316 1.078302 1.1116953
000130 20 b9 b9 be d4 36 d3 3e 9e 5c 48 3f 54 df c9 3e
       -0.36274052 0.41252768 0.7826632 0.39428198
000140 0c ab 24 3f 10 6b 47 3f cf d6 5e 3f 84 08 5d 3f
       0.64323497 0.7789774 0.8704652 0.8634112
000150 bc ac 0e 3f e2 6e 9d be 3d d0 6c 3e 35 c3 99 3e
       0.5573232 -0.3074866 0.23126312 0.30031744
000160 97 0a 54 bf fb 6c 56 3e 8b f2 84 3f 30 98 09 be
       -0.8282866 0.2094001 1.0386518 -0.13436961
000170 5f 2f ca bd b9 03 52 3e d5 c0 6c 3f 10 99 fb 3d
       -0.098723166 0.20509233 0.9248174 0.12285054
000180 02 e5 70 3f 25 b8 10 3e 35 05 d4 3e 14 12 97 3f
       0.9409944 0.14132746 0.41410223 1.1802392
000190 82 b2 19 3f 04 24 5d 3f 04 4a 5b be 94 64 6b 3d
       0.60038006 0.8638308 -0.21414953 0.057468966
0001a0 f7 ea 4b 3f ce 1d 74 3e 95 23 c2 3e 00 9c 1c 3f
       0.796554 0.23839495 0.37917772 0.6117554
0001b0 0d 32 26 bf 34 6d e3 3e 56 33 c3 be 4a ca ab 3d
       -0.6492012 0.44419253 -0.38125104 0.08388193
0001c0 4d 8c 25 3e 7c 05 e3 3d 68 8b c5 bd 5f e9 d4 be
       0.16166802 0.110850304 -0.0964573 -0.41584298
0001d0 f9 8e 01 bf 46 02 4b 3f 30 37 30 3e d7 83 ae 3b
       -0.50608784 0.79300344 0.17208552 0.005325775
0001e0 a3 a5 13 bf 66 c8 54 be 60 71 b8 3e b6 a4 a8 be
       -0.57674617 -0.20779571 0.36023998 -0.32938164
0001f0 67 02 72 3d e3 78 be 3e 03 1e bb 3e 05 12 bf 3e
       0.059084322 0.37201604 0.36546335 0.37318435
000200 e7 71 2b bd d5 50 10 3f 27 35 45 be cd 4d 6f bf
       -0.041856673 0.5637334 -0.19258557 -0.9347809
000210 74 09 c7 3e fa 0b 63 3f e5 66 05 bf 2a b0 b5 be
       0.388744 0.8869015 -0.5211013 -0.35485965
000220 bd 5f 9b 3f 29 77 78 3f 96 e5 61 be 96 a4 36 3f
       1.2138592 0.97056824 -0.22060236 0.7134489
000230 86 c5 de be 9b 53 0e 3f 3d fd 0a 3f fc 94 17 be
       -0.43510073 0.5559632 0.5429266 -0.14802927
000240 06 bd c6 3e 85 f2 aa 3f eb 9f 9a 3f 77 1a 16 3f
       0.38816088 1.3355261 1.2080053 0.5863413
000250 32 62 8e bf 2b 06 15 3f 3b 7d 9e bf ff fc 16 bf
       -1.1123717 0.58212537 -1.2381967 -0.5897979
000260 9e d9 42 3f 9e b0 d2 bd ed 30 4a bb cf 06 91 3f
       0.7611331 -0.10287593 -0.0030851916 1.1330203
000270 dd b2 1d bf 3d 1b ea 3e ec fb 32 3e 13 e8 e4 3d
       -0.6160105 0.45723906 0.17478913 0.11177077
000280 9f c1 dc bd 59 2d 18 be 10 0e 0e bf 99 7a 85 3e
       -0.10779118 -0.14861049 -0.5549021 0.26070097
000290 65 7a 4f be a6 65 83 3f f1 77 19 bf 80 18 c3 be
       -0.20261534 1.0265396 -0.5994864 -0.3810463
0002a0 de fb 75 3f 0b 1f 2f 3f f9 41 9e 3d 9e c9 6c 3f
       0.96087444 0.6840674 0.07727427 0.92495143
0002b0 4e 3e 50 be 37 68 32 3e 3c b4 12 3f 84 71 f6 3c
       -0.20336267 0.17422567 0.57306266 0.030083425
0002c0 7a 5a 7f 3d 2b 47 01 3f 66 27 7f 3d f0 d6 85 3e
       0.062342145 0.5049922 0.062293433 0.26140547
0002d0 c8 61 1a bf 37 43 39 be e8 4a f7 bd dc 64 d4 3f
       -0.6030545 -0.18092047 -0.12074834 1.659328
0002e0 e5 1a 9a 3f a1 ae 51 bf a8 59 b7 3e 74 f8 80 3d
       1.2039458 -0.8190709 0.3581059 0.06297389
0002f0 fc f0 c4 3e 5d 51 1b be 31 b0 2c 3f f6 08 0f bf
       0.38465106 -0.15167756 0.67456347 -0.5587305
000300 bb 5e bc 3e ad 98 4f 3f 41 89 1a 3f e8 76 79 3f
       0.36791024 0.8109234 0.6036568 0.9744706
000310 40 cc 7f 3e e6 e2 ac 3d b9 ae 9d 3b 66 e2 9d bd
       0.24980259 0.08441715 0.0048120883 -0.07709198
000320 f1 d4 e6 3e 65 bc 8d bf 55 09 11 3e 3b b8 a0 3e
       0.45084336 -1.1073118 0.14163716 0.31390557
000330 ff 30 8e be 43 b9 d1 3e d7 3a 7f 3e 55 83 63 3f
       -0.27771756 0.40961656 0.2492479 0.8887227
000340 77 ac 2d 3e b5 4b 87 3e 27 b9 e4 be c3 f0 32 3f
       0.16960321 0.26424947 -0.4467251 0.69898623
000350 06 d5 3c 3f 51 52 62 3f d9 b5 30 3f a4 66 8c 3f
       0.7376255 0.88406855 0.6902748 1.0968823
000360 78 ff 4c 3f 7c 57 47 3f ad 7c 37 3f 58 03 46 3f
       0.80077314 0.77867866 0.71674615 0.7734885
000370 46 16 d4 be 1b 82 7d 3e 63 90 cf 3f 89 4d 2c 3e
       -0.41423243 0.24756663 1.6215938 0.16826452
000380 3e da e3 bc da f3 9f 3e 2d 08 27 3f f2 c6 9a 3f
       -0.027814027 0.3124073 0.6524685 1.2091963
000390 b3 a7 dd be c0 b2 e1 3d 4f 44 0f 3f c7 68 7a 3e
       -0.43292007 0.11020422 0.55963606 0.24454032
0003a0 da 32 a6 bd b0 54 42 be 57 1a 01 3e 92 ee ce 3e
       -0.08115168 -0.18977618 0.12607704 0.4041639
0003b0 cd 7b 88 3e 6f 50 9c 3e fe 58 25 be fb 99 1f 3f
       0.26656953 0.30530116 -0.16147229 0.6234433
0003c0 76 d9 49 3f a6 f8 70 bf 1c 3f eb be e4 1e 9e be
       0.78847444 -0.9412941 -0.45946586 -0.30882943
0003d0 1f 59 e4 bf c2 e3 88 3d f7 1f ee 3e 8c e7 62 3e
       -1.7839698 0.06684066 0.46508762 0.2215864
0003e0 df 39 a7 3e 0a 68 e4 3e a0 b8 bd 3f 35 42 27 3f
       0.3266134 0.44610626 1.4821968 0.653354
0003f0 9d b1 43 be c4 e4 16 3f 88 2e f1 be 14 1b 11 be
       -0.19110723 0.5894282 -0.47105813 -0.14170486

l2.bias f4 [300]
000000 1d 47 d1 3e ba 82 a1 3e 7d 4b 88 3f 91 7a b4 3d
       0.40874568 0.3154505 1.0648037 0.0881244
000010 55 95 b4 3e 82 b9 e1 3e 68 31 08 3f b0 7c 70 3f
       0.3527018 0.44086844 0.5320039 0.9394026
000020 a6 14 c3 3e 0e 33 27 3e 3a 7d ee 3e a4 de 0c 3e
       0.3810169 0.1632807 0.46579915 0.13756806
000030 33 1c d0 3e 56 c7 86 3e 4a 7d 3e 3f 35 bf b9 3e
       0.40646514 0.26323956 0.74409926 0.36278692
000040 f2 84 c1 3e 75 35 b7 bc 5e d0 4a be 44 a7 11 3d
       0.37796742 -0.022364357 -0.19806048 0.035559908
000050 52 e7 70 3e 70 96 a5 3d 0d 7e 96 3e 22 ca 45 be
       0.23525742 0.08085334 0.29393044 -0.19315389
000060 80 99 f7 3c e1 19 2a be 95 4c 67 3f ce 57 c0 be
       0.030224562 -0.16611435 0.9035123 -0.3756699
000070 d9 ae 8b be 9e d9 32 3f 5b 95 16 3f a4 ad 61 be
       -0.27281836 0.6986331 0.5882165 -0.22038895
000080 a0 b8 ab 3e 96 65 b7 3e 5e 68 0d 3f c5 81 d0 3e
       0.33539295 0.3581969 0.55237377 0.40724006
000090 6d d0 98 be 2d 2a b5 3e 5e fb 4e 3f 68 ad 5b be
       -0.29846516 0.3538374 0.80852306 -0.21452868
0000a0 5a 14 83 3e 3d 5d de 3d 6e e8 7f 3e fb a6 45 3f
       0.25601465 0.108576275 0.24991009 0.77207917
0000b0 99 8b 02 be 55 2e f0 3d 68 84 5d 3e 64 9a f4 be
       -0.12748565 0.11727587 0.2163254 -0.4777404
0000c0 64 3e 18 be db ee fe 3d ee 76 16 3f db ea d9 3e
       -0.1486755 0.12447902 0.5877522 0.42561993
0000d0 f0 9a 1a 3f 5c 63 b5 3e e6 db e4 3e b0 7f e6 3e
       0.60392666 0.35427368 0.4469902 0.45019293
0000e0 24 ba 6d 3e a4 a5 ae 3e 06 a4 0e 3f 58 88 c8 3d
       0.23215538 0.3411075 0.5571903 0.097916305
0000f0 34 f2 1b bd 3a 20 dd 3e 85 c4 32 3f f7 1f a6 be
       -0.03807278 0.4318865 0.69831115 -0.32446262
000100 bc ac 00 3f 50 a1 d4 3e 6f 12 20 be 2f f0 ea 3e
       0.5026357 0.41529322 -0.15632032 0.4588637
000110 9a 2d 9b bd 77 e1 c7 bd 67 bc 36 bd 61 29 08 3e
       -0.07577057 -0.09759801 -0.04461327 0.13297035
000120 a2 ad 0d 3f b8 0f 0e 3f 62 e1 be 3e 0e 0e 19 3e
       0.5534307 0.55492735 0.37281328 0.14946768
000130 9b 8f c5 3e 49 73 8a 3e b2 cd bf 3e 33 84 b6 3e
       0.38586125 0.2704108 0.3746162 0.35647735
000140 d2 a1 fb 3e 3b 87 b9 3e 3a 7a 55 be 1a 4e f5 bc
       0.49146897 0.36235985 -0.20847407 -0.029944468
000150 eb f0 65 3e 96 2d 41 3e bd 73 10 3e 7c 84 a8 3e
       0.22455184 0.18865046 0.1410665 0.32913578
000160 0a 85 dc 3d 6e 6d 39 3f d8 9c 38 3f d3 b9 f4 3e
       0.10767563 0.724326 0.72114325 0.47798023
000170 48 f1 8c 3f bd 4d bf be 2c c3 90 3e 98 04 df be
       1.1011133 -0.37363997 0.28273904 -0.43558192
000180 24 63 fa 3e bc 68 b1 3e ed ff e4 3d 16 1c 65 3e
       0.48903763 0.34650218 0.111816265 0.22373995
000190 97 15 98 bd 2a c8 87 3e ef a3 70 be 1a 70 b0 3c
       -0.07425993 0.265199 -0.23500036 0.02153783
0001a0 74 93 21 3f 15 e8 a4 3e 89 f1 3b 3e b2 76 b6 3e
       0.6311562 0.32208315 0.18353857 0.35637432
0001b0 ce 83 71 3e 77 1f 04 3e 9b b1 63 3e 8d 6f 1a 3f
       0.23585436 0.12902628 0.2223572 0.60326463
0001c0 5c bf 03 3f 7d 27 17 3f d5 e5 a9 3e c7 49 d7 3d
       0.51463866 0.5904463 0.3318316 0.10512119
0001d0 99 4a 2e 3e 1d bf 53 3e 69 d8 12 3e 16 91 cd 3e
       0.17020644 0.20678373 0.14340366 0.40149754
0001e0 f3 73 af 3e 79 98 52 be 03 fe db 3e dc b5 bf 3e
       0.3426815 -0.20565976 0.42967233 0.37443435
0001f0 55 bd c5 3d 08 47 87 3e 0b 92 33 bd a0 ea 2d 3f
       0.09655253 0.2642138 -0.04384045 0.67936134
000200 6e 70 9e 40 fb 41 94 3e 35 e8 aa 39 d7 8b 19 3e
       4.9512243 0.2895659 0.00032597934 0.14994751
000210 e8 f7 20 3f 33 81 2a bf fc 9a bd 3e 5a 97 6d 3e
       0.62878275 -0.6660339 0.37032306 0.23202267
000220 a9 94 d4 3e e5 80 2d 3f c5 d8 9c 40 ec d0 cd 3e
       0.4151967 0.677748 4.901461 0.40198457
000230 5e 32 f1 3e 75 09 24 3e 7f f7 8e 3e 90 ce 44 3e
       0.4710874 0.16019233 0.279232 0.19219422
000240 4d 77 80 3d f4 a4 05 3e 4a de e7 3e 7e 81 5c 3f
       0.06272755 0.13051206 0.4528678 0.8613509
000250 cf 69 1c be bc 42 ef 3e 35 f0 0c 3e 0d 63 01 3f
       -0.15274738 0.46730602 0.13763507 0.50541764
000260 76 0d fc 3d d3 3b 08 3d 96 14 06 3e ca be 5b bd
       0.12307255 0.033260178 0.1309379 -0.053648748
000270 24 80 4a 3d d6 7e 04 3f 5f 83 e6 3e f4 77 05 3f
       0.04943861 0.51756036 0.45022103 0.5213616
000280 71 aa 54 3f 33 54 a5 3e 95 56 2f 3f f0 dc d0 3e
       0.8307257 0.322908 0.6849149 0.40793562
000290 ef 3c b6 3e 54 3b d3 3e 0d f7 e6 3e d6 dc e2 3e
       0.35593364 0.412562 0.4511036 0.4430911
0002a0 3f 90 8b 3e 1b 6f f7 3e 6e f4 08 3f 93 30 06 3e
       0.2725849 0.48326954 0.5349797 0.13104467
0002b0 96 a9 5c 3e 74 df ac 3e 55 55 a3 3e 5f a4 36 3e
       0.21549067 0.3376423 0.3190104 0.1783614
0002c0 fc b8 57 3e 51 cd 1e 3f be d2 4c 3e 23 08 24 3e
       0.2106666 0.6203204 0.20002267 0.16018729
0002d0 66 80 89 3e 06 7b 38 3f 94 aa 6f 3d 53 ec b1 3d
       0.26855773 0.7206272 0.058512285 0.086876534
0002e0 71 ad 1c be e6 c6 50 3f 09 2f 70 be a5 a1 c3 3d
       -0.15300538 0.81553495 -0.23455442 0.095523156
0002f0 8b 18 03 3e 95 8e 89 3d 7c 3b 41 3e ce 7a 9f 3e
       0.12802331 0.067166485 0.18870348 0.3114838
000300 70 d2 a2 3e 87 12 fb 3e f6 62 af be 87 61 ed be
       0.31801176 0.49037573 -0.3425519 -0.4636347
000310 90 51 30 3f c5 39 62 3f 20 e2 a0 3e 15 71 db 3f
       0.68874454 0.883694 0.3142252 1.7143885
000320 3a da 7e 3d 38 ba f4 3e 67 78 25 bd 01 21 37 be
       0.062219836 0.47798324 -0.040398028 -0.17883684
000330 03 53 fb bd fe 2c c7 3c 53 98 9d bc e5 ed 85 3c
       -0.122716926 0.024313446 -0.019237673 0.016348789
000340 7d d5 63 bd d9 3d ab 3e 5d 77 b8 be 55 87 9f 40
       -0.05562352 0.33445624 -0.36028567 4.98527
000350 59 0d 92 3e d2 62 dd 3e 34 5f 29 3e 4e fa 05 3f
       0.28525808 0.43239456 0.16540223 0.5233506
000360 09 60 be bd 48 9b 01 be 08 45 0a 3f b6 eb 61 3e
       -0.09295661 -0.12656891 0.54011583 0.22062573
000370 20 af be 3d 00 3c 67 3e 73 60 ed 3e d4 f1 2d 3e
       0.09310746 0.22581482 0.46362647 0.16986781
000380 ca 0a 74 3f 87 3f b1 be fa 7c 24 3f 38 75 98 40
       0.9532896 -0.3461878 0.642532 4.764309
000390 89 b0 a1 3d 95 a1 50 3e 7d 1b 57 3f 0b 4b 34 3f
       0.078949995 0.20374139 0.8402632 0.70427006
0003a0 31 26 b5 be 69 a5 97 3e 6b 96 9f 40 5b ad e2 be
       -0.353807 0.29618385 4.9871116 -0.44272885
0003b0 5d f0 2a 3e 60 80 10 3e 7a 5c 59 3e dd 2c 30 3c
       0.16693254 0.14111471 0.21226683 0.010752884
0003c0 ed 49 d5 3e 0d 47 53 3f 70 b5 59 be d8 f6 3a be
       0.41657963 0.8253029 -0.21260619 -0.18258226
0003d0 f9 26 05 3f 8a b7 d1 3d 14 9c 52 bc 73 3a 1d 3f
       0.5201259 0.102400854 -0.012854595 0.6141731
0003e0 20 57 9f 3d 10 d8 4f bd 83 09 98 3e 5c 7f c2 3e
       0.0778029 -0.050743163 0.29694757 0.37987792
0003f0 2a 57 16 3e 04 d9 2c 3f d1 4d 2f 3e 07 e8 29 3f
       0.14681688 0.6751864 0.17119528 0.6636967

bn2.weight f4 [300]
000000 b7 6a 95 3f 1d c4 e9 3f 06 0f 43 3f 9e ec 05 40
       1.1673192 1.8262974 0.761948 2.092567
000010 4f 3c e1 3f b6 93 01 40 e5 d5 ec 3f 53 a7 61 3f
       1.759653 2.0246406 1.8502775 0.8814594
000020 88 5e d5 3f dd 98 01 40 8a 51 e0 3f 0b 63 c4 3f
       1.6669474 2.024955 1.7524884 1.5342726
000030 70 a4 c7 3f 73 b9 a6 3f ee 0a 82 3f 41 d8 c1 3f
       1.5597057 1.3025345 1.0159585 1.514412
000040 73 56 f8 3f ed 64 1e 40 9b ce ef 3f 7c c0 f7 3f
       1.9401382 2.47491 1.8734926 1.9355617
000050 f5 7a c7 3f 4d 00 14 40 d3 5c e3 3f 4d 58 d8 3f
       1.5584399 2.3125184 1.7762703 1.6901947
000060 21 f4 04 40 c8 cc ec 3f b7 e7 6b 3f e5 10 4d 40
       2.0774004 1.8499994 0.92150444 3.2041562
000070 1e 23 44 40 1e 6e ea 3f 36 ba a2 3f 04 0e 03 40
       3.0646434 1.8314855 1.2713077 2.0477304
000080 3a 05 a9 3f 3a 1b d7 3f c7 42 07 40 a1 ba f7 3f
       1.320472 1.6805184 2.1134508 1.935383
000090 f8 a8 15 40 94 b5 d4 3f 43 4e 9f 3f 58 ef 00 40
       2.338438 1.6617913 1.2445759 2.0146084
0000a0 dd 85 bc 3f 1a e3 f0 3f 74 4b f8 3f bf e4 97 3f
       1.4728352 1.8819306 1.9398026 1.1866683
0000b0 bb 34 0b 40 e6 a4 fc 3f cb bb ed 3f b5 9a 3e 40
       2.1750934 1.9737823 1.8572935 2.9781926
0000c0 c0 8c 0e 40 de 5a 30 40 8c b8 23 40 aa 1a e2 3f
       2.2273407 2.755546 2.5581388 1.7664387
0000d0 32 a0 ec 3f eb 44 b3 3f 13 a1 f7 3f 20 e0 96 3f
       1.8486388 1.4005407 1.9346031 1.1787148
0000e0 57 cb fd 3f 7a cd 05 40 e5 97 ca 3f e2 1d 03 40
       1.9827679 2.0906663 1.5827605 2.048699
0000f0 f0 49 01 40 6b 5b a5 3f 85 c2 86 3f ac c8 36 40
       2.0201378 1.2918524 1.0528113 2.855998
000100 b8 df bb 3f 29 66 ea 3f 44 b5 3d 40 2e 51 d5 3f
       1.4677649 1.8312427 2.9641886 1.6665399
000110 a0 80 12 40 17 64 0d 40 4c 52 e5 3f cd fc b1 3f
       2.2891006 2.209234 1.791574 1.3905274
000120 d0 b1 94 3f 6b 4d a5 3f 97 d4 05 40 ff 38 df 3f
       1.1616764 1.2914251 2.0911005 1.7439269
000130 5a af df 3f 9d 04 fd 3f b2 31 f3 3f 20 3c ca 3f
       1.7475388 1.9767033 1.8999541 1.5799599
000140 6a 3d a0 3f fb 33 e8 3f bb 22 0f 40 7e 28 f7 3f
       1.2518742 1.8140863 2.2364948 1.9309232
000150 e5 bd 19 40 e0 eb f2 3f 34 9d d6 3f 64 5c ad 3f
       2.4022152 1.8978233 1.6766725 1.354382
000160 6d c0 d9 3f 7d 95 a7 3f e9 25 10 40 65 12 dc 3f
       1.7011849 1.3092495 2.2523139 1.7193114
000170 1c d4 63 3f 37 f4 0c 40 f6 36 08 40 03 ff 27 40
       0.8899553 2.2024057 2.1283545 2.6249397
000180 2e 16 ae 3f d4 0c 00 40 c8 5d f9 3f bb d7 da 3f
       1.3600519 2.000783 1.9481745 1.7097086
000190 62 f0 fd 3f bc fc 11 40 39 82 36 40 81 77 c5 3f
       1.9838984 2.2810507 2.8516982 1.5427095
0001a0 c6 35 bd 3f b6 29 fb 3f 26 5c 05 40 f9 fd 0e 40
       1.4782035 1.9622104 2.0837493 2.2342513
0001b0 7f 62 e0 3f 54 54 d4 3f 75 30 da 3f 68 a0 d6 3f
       1.7530059 1.6588235 1.7046038 1.6767702
0001c0 16 1d a5 3f 59 60 cf 3f 3f 7d f0 3f 5e 99 10 40
       1.2899501 1.6201278 1.8788222 2.2593608
0001d0 1f 46 c8 3f 1b 83 ec 3f 9a d7 d8 3f 23 59 d9 3f
       1.5646399 1.847751 1.6940796 1.6980327
0001e0 7f 25 ff 3f 3c 29 12 40 e0 55 07 40 88 bd e4 3f
       1.9933318 2.2837667 2.1146164 1.787034
0001f0 02 6c 1d 40 83 d7 05 40 58 f9 fe 3f 29 3c 84 3f
       2.4597173 2.0912788 1.9919844 1.033086
000200 70 9d cb 3d e3 3d cc 3f a0 47 c2 3f 15 df cd 3f
       0.09942138 1.5956386 1.5178108 1.6083704
000210 59 bf 97 3f 88 4a 24 40 65 87 da 3f cd 0d f3 3f
       1.185527 2.567049 1.7072569 1.8988587
000220 bc 16 ec 3f 63 b9 d7 3f 05 dc 10 3e 5d ed d6 3f
       1.8444438 1.685345 0.14146431 1.6791188
000230 61 8f bb 3f 88 c1 f8 3f 1b ae 0e 40 bf b4 d7 3f
       1.4653131 1.9434061 2.2293766 1.6852034
000240 83 27 ec 3f 7b b0 c6 3f cc 96 b9 3f da d4 dd 3f
       1.8449558 1.5522608 1.4499145 1.7330582
000250 4a 43 1d 40 6d bf f2 3f 1a 20 1c 40 38 14 d1 3f
       2.457232 1.8964669 2.4394593 1.6334295
000260 64 ad cc 3f 73 f6 3e 40 43 22 d1 3f b5 fa f8 3f
       1.5990415 2.983792 1.6338581 1.945151
000270 31 cb ee 3f b7 14 cc 3f 7c 0e 94 3f 28 d5 8e 3f
       1.8655759 1.5943822 1.156692 1.11588
000280 63 24 3a 3f ff 97 d5 3f 50 74 5c 3f c3 81 b3 3f
       0.7271177 1.668701 0.8611498 1.4023975
000290 6e 62 e6 3f 58 ed df 3f 6a 1c b0 3f 3a cd 8e 3f
       1.7998788 1.7494307 1.3758671 1.115638
0002a0 12 46 c7 3f b3 31 b6 3f d0 1d c2 3f 62 03 e6 3f
       1.5568259 1.4233917 1.5165348 1.7969782
0002b0 34 95 eb 3f 72 e9 bc 3f b3 c1 e5 3f 54 70 cd 3f
       1.8404908 1.4758742 1.7949737 1.6049905
0002c0 8b 26 fb 3f d9 0e d4 3f 2b 74 bb 3f 28 fa d8 3f
       1.9621137 1.6567031 1.4644827 1.6951342
0002d0 f6 18 02 40 c1 9e a2 3f 0e 62 de 3f 80 d3 01 40
       2.0327735 1.2704698 1.7373674 2.028534
0002e0 ac 14 39 40 dc 3d 96 3f 9c db 33 40 fa 86 04 40
       2.8918867 1.1737628 2.810279 2.0707383
0002f0 f9 cb fb 3f 3b 36 11 40 12 68 0e 40 95 ed cd 3f
       1.9671623 2.268935 2.225102 1.6088129
000300 e6 d8 b3 3f ff ad 84 3f 92 fe 20 40 0a da 44 40
       1.4050567 1.0365599 2.5155377 3.075808
000310 a7 e3 07 40 75 c1 5c 3f eb 33 ba 3f 14 c5 22 3f
       2.1232698 0.8623269 1.4547094 0.6358197
000320 aa 25 fe 3f 45 a8 03 40 b9 fc 1a 40 cc 28 14 40
       1.9855244 2.0571454 2.421675 2.31499
000330 d7 3d 19 40 e4 12 dd 3f e1 74 fd 3f 47 b2 16 40
       2.3943994 1.727139 1.9801294 2.3546312
000340 2e 43 05 40 c6 c0 d9 3f 75 87 3f 40 9a 8f e8 3d
       2.0822253 1.7011955 2.9926426 0.11355515
000350 e8 60 db 3f 8b 32 85 3f 18 2f d2 3f fb 33 c3 3f
       1.7138948 1.040605 1.6420622 1.5250238
000360 f1 ec 2b 40 86 5f e1 3f 6f a1 c2 3f 23 62 f4 3f
       2.6863368 1.7607276 1.5205516 1.9092449
000370 6f 49 07 40 24 91 cc 3f b9 8b d8 3f 60 0a c0 3f
       2.113857 1.5981793 1.691764 1.5003166
000380 11 4f a1 3f c1 00 0f 40 e4 ec d5 3f 3c a1 09 3e
       1.2602254 2.234421 1.6712918 0.13440412
000390 09 11 00 40 ac 19 05 40 a6 a5 8c 3f 9e a2 c2 3f
       2.0010397 2.079692 1.0988052 1.5205877
0003a0 ab 90 0d 40 81 32 0c 40 c3 20 f8 3d 42 a6 1f 40
       2.2119548 2.1905825 0.12115624 2.4945226
0003b0 3d 5b ce 3f 45 57 12 40 7d 88 0c 40 de ee 15 40
       1.6121594 2.2865765 2.1958306 2.3427043
0003c0 fe 0c e3 3f 8a 8a 8c 3f 47 7e 4f 40 d5 26 01 40
       1.773834 1.0979779 3.2420824 2.017995
0003d0 d1 c1 a6 3f 11 a3 ed 3f dc 20 00 40 c4 ba bc 3f
       1.3027898 1.8565389 2.0020056 1.4744496
0003e0 3f ed ed 3f 5d cf 15 40 f5 19 fe 3f 51 79 a2 3f
       1.8588027 2.3407815 1.9851671 1.2693273
0003f0 67 d4 c1 3f c5 4d c7 3f f2 6a cc 3f c2 96 e5 3f
       1.5142945 1.5570608 1.5970137 1.7936633
