weights/model_critic_target_168.pt (torch, 431175 bytes, 9 tensors)

l1.weight f4 [300, 42]
000000 1f 5f 1a 3e d5 4b 12 3f 59 b7 93 3d 54 54 9b 3e
       0.15075348 0.5714696 0.07212705 0.30337775
000010 d4 7d 44 3e 57 45 c5 3f 08 89 04 3f d3 84 8b 3f
       0.19188625 1.5411786 0.51771593 1.089991
000020 f3 9a 97 bf ab 56 d3 3c 3f b9 3d 3f 7f 17 8c bf
       -1.1844162 0.025798162 0.7411079 -1.094467
000030 0b 91 af 3e e3 54 f4 be 5f 76 19 40 4c 67 62 bf
       0.34290347 -0.47721013 2.3978498 -0.8843887
000040 8b ad b4 be d7 db 18 40 b7 09 8c bf 0f 15 b8 c0
       -0.35288653 2.388418 -1.0940465 -5.7525706
000050 02 ca 8b 3e 80 33 eb 40 15 40 0b c0 c8 ef e5 3e
       0.27302557 7.3500366 -2.1757863 0.449095
000060 e3 71 1a 3f d0 8a b2 be ed 92 eb 3f 5a 44 7c 3f
       0.6033003 -0.3487153 1.8404213 0.98541796
000070 ba 60 37 c0 32 8a 1f c0 16 c4 eb 3c a5 05 5a 3e
       -2.8652787 -2.4928098 0.028780024 0.21291216
000080 ca 41 2f c0 8a 6b 9a c0 6b 51 fa 3e bb 12 41 40
       -2.7383904 -4.8256273 0.48890242 3.0167682
000090 c8 7f 51 bf 9b 03 c0 3e 2e 5f fa 3c 55 69 46 41
       -0.81835604 0.3750275 0.030562963 12.400716
0000a0 f5 8a 21 40 67 fd 06 3f 22 00 8c 3e da b2 87 3e
       2.5241063 0.5273041 0.2734385 0.2650364
0000b0 f4 09 8e 3e be b1 f0 bc 46 fe 91 bd 93 42 e7 3e
       0.2774197 -0.02938163 -0.07128577 0.4516798
0000c0 de 61 59 be cf c3 cf bf 97 a6 9f be f6 c6 19 bd
       -0.2122874 -1.6231631 -0.31181785 -0.03754326
0000d0 73 33 b6 3e a8 ff 27 bf 91 3f c6 3e 57 68 ee be
       0.35586128 -0.65624475 0.38720372 -0.4656398
0000e0 81 cf f1 3f 96 05 38 be 09 25 13 c0 f3 40 72 3f
       1.889145 -0.17970881 -2.2991354 0.94630355
0000f0 81 4e 14 bf 86 63 9c bf 01 30 8f 3f e6 5d 6d 40
       -0.5793229 -1.2217872 1.1186525 3.708856
000100 fd de 14 c0 e1 cf 1b 3e 8b fa cc 3e b1 15 50 bf
       -2.3261101 0.15216018 0.400349 -0.812831
000110 2a 33 0e 3f 3b 35 91 3e 88 31 b2 40 00 26 cf bf
       0.5554682 0.28360924 5.5685463 -1.6183472
000120 8e 90 bb 3f f5 05 73 bd d3 93 1e 41 ec 40 9b bf
       1.465349 -0.059331853 9.91109 -1.2129188
000130 07 eb 80 3e c2 39 b4 c0 d7 9b 9d 40 8d e6 14 40
       0.25179312 -5.6320505 4.9252734 2.3265717
000140 6d ab 89 be 78 da cf 3f f5 4d 6c c0 7d e0 fa bf
       -0.268886 1.6238546 -3.6922581 -1.9599758
000150 5d 2f 08 3f ec c4 e1 bc 95 08 c8 3e 35 22 0f 3f
       0.5319727 -0.02755972 0.39069048 0.5591157
000160 24 63 20 3d bb 07 be bd 0a 4e a1 bd 85 da 24 bf
       0.039157048 -0.09278818 -0.07876213 -0.64395934
000170 2a fe 84 3d 54 76 14 bf 6d fb 01 3f f5 81 3f bf
       0.064937904 -0.57993054 0.5077427 -0.74807674
000180 54 22 68 3e 06 82 1e bf e6 10 86 bf b6 00 f0 3e
       0.22669345 -0.6191715 -1.0473907 0.46875542
000190 4c 01 06 3f e3 b5 89 bf 3f 93 ed 3f 0e da 5c bd
       0.5234573 -1.0758632 1.8560561 -0.05391889
0001a0 ea 84 d5 bd b2 a3 0f bf 0b a1 aa bf 41 82 2c 3f
       -0.10425742 -0.56109154 -1.3330396 0.6738625
0001b0 61 7a c6 3e 76 9c de be 02 79 1b 3f c5 07 35 c0
       0.38765243 -0.43478745 0.6073152 -2.8285992
0001c0 3e 52 c5 3d d6 ff 84 bf 1b 3e 44 bf 1b 35 12 3f
       0.09634827 -1.0390575 -0.76657265 0.5711228
0001d0 cc ab dc c0 d4 c8 57 40 01 d7 4a 3f ff ad 2e 40
       -6.8959713 3.3716326 0.7923432 2.7293699
0001e0 8d 8e 61 be 08 e6 86 bf fe 50 13 3f 64 48 cd 3f
       -0.22027035 -1.053895 0.5754546 1.6037717
0001f0 59 f2 02 c0 51 de 0b bd 7c 32 1a 3f 24 61 f6 bd
       -2.0460417 -0.034147564 0.60233283 -0.12030247
000200 eb 78 bc 3e 21 f1 52 3e 11 e7 e8 3d e8 c5 55 be
       0.36811003 0.20599796 0.113721974 -0.20876276
000210 53 ee 07 bd 1c ea 0e bf 81 f0 bb bd d5 7c 3e bf
       -0.033186268 -0.5582597 -0.09176732 -0.7440923
000220 4a 75 00 3f 66 5d 98 be ba bb 82 3e 1c aa 29 bf
       0.5017897 -0.29758757 0.2553385 -0.6627519
000230 d3 cc 64 bf ba 36 65 bd d0 2b 5a 3d 20 45 a1 bf
       -0.89375037 -0.055960394 0.05326444 -1.259922
000240 59 7b f1 3f ba d0 3a 3d 98 82 79 be e3 bd ce bf
       1.8865768 0.045609213 -0.24366224 -1.6151699
000250 52 f5 15 bf 59 84 3d 3f 95 2a ca 3e 45 2d e6 be
       -0.58577454 0.7403007 0.39485613 -0.44956413
000260 6d 75 1c 3f d3 0d 3a c0 0d 6a e5 bd d9 f3 6a bf
       0.6111668 -2.9070938 -0.11201868 -0.9177833
000270 31 cf 2b bf f5 c6 38 3f c0 e9 e2 c0 b7 e0 49 40
       -0.67113024 0.72178584 -7.091034 3.1543405
000280 f1 55 47 3f 1a 98 2b 40 07 25 32 be 3d 4f 97 bf
       0.7786551 2.6811585 -0.17396937 -1.1821057
000290 c9 94 0f 3f c3 30 5b 3c 8b 9b 0d bf 8c 02 39 3f
       0.56086403 0.013378325 -0.55315465 0.7226951
0002a0 fa 2e cf 3d 95 da 27 3f 76 2e b2 3e 32 b7 c8 bc
       0.10116382 0.65567905 0.34801072 -0.024501417
0002b0 6c fb 88 3e 33 ec 38 3f 29 96 50 3e b1 5b 2e 3c
       0.2675432 0.7223541 0.20369782 0.010641978
0002c0 b9 d8 2a 3f 8c 14 70 bf 5f d3 c4 3e 2a 75 14 bf
       0.6673694 -0.9378135 0.38442513 -0.5799128
0002d0 95 e0 2c bf 09 54 02 bf d9 31 d8 bd 51 f1 8d be
       -0.67530185 -0.5090948 -0.10556383 -0.27723172
0002e0 5a 29 b7 3e 8a 01 9c bf e9 a7 0f 40 9d 6e 99 be
       0.35773736 -1.218797 2.2446234 -0.29967204
0002f0 b5 fb 4b c0 93 6b 07 c0 e2 8f a0 bf b0 48 5a be
       -3.187238 -2.1159408 -1.254391 -0.2131679
000300 86 a1 83 3e f9 ac 2f 3f eb 1f 96 3f b4 5c b5 bf
       0.2570917 0.6862331 1.172849 -1.4168916
000310 93 f9 e8 bf bf 5f ec c0 b9 63 22 c0 c0 95 e1 bf
       -1.8201164 -7.3866878 -2.5373366 -1.7623825
000320 77 20 19 c0 67 3e 28 c1 37 dd 0a 3d 4f 96 a9 3f
       -2.3926065 -10.515235 0.033902373 1.3248996
000330 61 5c 45 c0 66 5f a0 3f 10 d6 11 c0 a1 18 13 c0
       -3.0837634 1.2529113 -2.2786903 -2.2983782
000340 fb b0 d2 40 93 f0 9e c0 59 b6 36 3f be ee ea be
       6.584104 -4.966867 0.7137199 -0.4588527
000350 19 68 09 3f 9c 77 52 bf de b1 77 3e 55 1c d6 be
       0.53674465 -0.8221376 0.24188945 -0.4181849
000360 98 de 91 be 1e c4 a3 3d cb 80 13 bf 03 7a a9 bf
       -0.28490138 0.07996391 -0.576184 -1.324036
000370 ff 27 05 3f 6e fe 80 3f 1c e9 c9 3e 13 fc 48 bf
       0.52014154 1.0077646 0.3943566 -0.78509635
000380 48 e1 15 bf 24 cc ed bf c4 3d e9 bf f6 bf c3 bf
       -0.58546877 -1.8577924 -1.8221974 -1.5292957
000390 d7 a7 0d 40 57 ed cb 3e 0d 99 96 bf 15 be 9c c0
       2.2133691 0.39829513 -1.1765457 -4.8982034
0003a0 c5 cd b4 3f 22 e2 7f 3f ee 11 fe 3e 72 05 e0 be
       1.4125296 0.99954426 0.49623054 -0.43754154
0003b0 af 67 e8 3e 40 18 59 c0 b3 7d 72 bf 4b 95 0a be
       0.45391604 -3.392105 -0.9472305 -0.13533513
0003c0 b1 2e b4 be 5d ff 60 3f 05 8b ec c0 a0 05 dd 3f
       -0.35191873 0.87889653 -7.39197 1.7267342
0003d0 d3 19 5b 3f 7e d2 21 40 99 65 67 bc 62 5b ce bf
       0.8558628 2.5284724 -0.014123344 -1.6121638
0003e0 f0 b9 f4 3e 33 b2 83 c0 06 25 4f 40 c3 87 2d 40
       0.4779811 -4.115503 3.2366347 2.7114112
0003f0 43 4b 1e 3f 65 4d 61 3f 92 77 7e 3e 00 ae 18 40
       0.6183359 0.8800872 0.248503 2.38562

l1.bias f4 [300]
000000 b7 18 e6 3e b6 7b b3 3d 42 41 e2 3e 30 c0 ee 3e
       0.4494073 0.0876383 0.44190413 0.46631002
000010 e9 83 27 3d 6c 81 1c 3f 54 62 bc bc 21 5d f7 3e
       0.040897284 0.6113498 -0.022996105 0.4831324
000020 9b cb 26 3f ff 19 0d 3f 04 27 05 3e 32 1d 5b 3d
       0.6515443 0.5511779 0.13003165 0.05349464
000030 4f 3a f8 3c 69 ae 18 3f 14 9e 96 be a8 80 a2 3c
       0.030301241 0.5964113 -0.2941748 0.019836739
000040 6a 65 3a 3f 2f 04 a2 3d ee 63 a1 bd 6b a4 44 3e
       0.72810996 0.07910954 -0.07880388 0.19203345
000050 bf 35 09 3e 5b 7d b2 3e 4f 8f 1b 3d 6c 40 90 3e
       0.13399409 0.34861264 0.037978467 0.2817415
000060 39 9a 24 3e d0 48 b0 3e 62 6e be 3e 4c c5 54 be
       0.16074456 0.34430552 0.3719359 -0.20778388
000070 df 6b cd 3d c8 c5 31 3e 5b a9 f3 3d 58 92 de 3e
       0.100303404 0.17360604 0.11897536 0.43471026
000080 cf 18 3c 3c 62 a7 ea 3d ca 9a e7 3d 51 8a c0 3e
       0.011480524 0.11457707 0.113088205 0.37605527
000090 c6 d0 3f 3e 97 b8 08 3f c0 1e f3 3e 22 2c 58 3e
       0.18731984 0.5340666 0.47484398 0.21110585
0000a0 11 fd 83 3e 15 8d 1c 3e 7c 6b 30 3e 37 a2 6f bd
       0.25779012 0.15288194 0.17228502 -0.05850431
0000b0 b2 5d bb 3e e1 ef 35 3f 1e 88 12 3f e2 f7 ff 3e
       0.3659492 0.7106915 0.5723895 0.49993807
0000c0 cd 80 09 3f 7e 05 ce 3e 2a 15 8a 3d 12 75 40 3f
       0.5371216 0.40238565 0.06742318 0.75178635
0000d0 25 80 da 3e 4b 43 a7 bb c7 12 11 3f c6 72 90 3e
       0.42675892 -0.0051044575 0.56669277 0.28212565
0000e0 41 09 dc 3e 4d 75 c0 3d 41 9f b6 3d f0 df e4 bd
       0.4297581 0.09397373 0.08917094 -0.11175525
0000f0 45 c9 35 3e 2a 18 0d 3e 60 0b f8 3e 8a 88 28 bd
       0.1775256 0.13778749 0.48446178 -0.04114584
000100 50 b7 aa bd c4 ed d8 bb e0 85 19 3f 28 9e fa 3d
       -0.08335745 -0.0066201407 0.599699 0.12237197
000110 9d 5f 0c 3f 7d 5e 3e 3e 9c bb fe 3e df 1d 16 3f
       0.54833394 0.18590732 0.4975251 0.5863933
000120 a9 f8 8b 3e ce b2 0a ba 68 d7 04 3f 06 f0 c1 3d
       0.2733815 -0.0005290926 0.51891184 0.09469609
000130 61 a2 f2 3e f2 3b cc 3e 8b 5c fe 3e 6a 5d c4 3e
       0.4738951 0.39889485 0.4967998 0.3835252
000140 7f 29 c7 3e d0 3b 1b 3f 42 a1 d3 3e 44 bb 07 3f
       0.38898847 0.6063814 0.41333967 0.5302012
000150 55 4c bc 3e e7 ae f5 39 35 08 00 3f f8 3b c5 3e
       0.36776987 0.00046860354 0.5001252 0.38522315
000160 bf eb 23 3e dc 51 e4 3e e9 98 42 3f 47 25 b8 3e
       0.16007899 0.44593704 0.7601457 0.3596594
000170 bf 29 44 be 51 fe 5f 3e 9b 7b 0c 3f c8 94 7e bd
       -0.1915655 0.21874358 0.54876107 -0.062153608
000180 2e ec 84 3e 61 e7 e2 3d aa a9 0f 3f ae 97 14 3f
       0.2596144 0.11079288 0.5611826 0.58043945
000190 ac 33 b4 3e 5e d1 04 3f d2 c1 fb bd 5d 2d 77 3e
       0.35195673 0.5188197 -0.12292828 0.24138398
0001a0 50 34 99 3d da d3 0a 3f 5a cb ae 3e 6c b1 07 3f
       0.07480681 0.5422951 0.3413952 0.530051
0001b0 25 6a b3 3e 7c 26 d6 3e 07 af a8 3e d3 c1 e9 3e
       0.3504192 0.41826236 0.32946035 0.4565569
0001c0 fb 93 77 3e a0 bf 0e 3f 34 a7 92 3e a1 44 00 3f
       0.24177544 0.55761147 0.2864319 0.5010472
0001d0 e9 d4 82 3e c8 0c 90 3e 96 ee 7e 3e 5f 28 3e 3f
       0.25553063 0.2813475 0.24895701 0.7428035
0001e0 82 96 1e 3e fe f3 0d 3f 7e 3e e9 3e a0 eb 1d 3f
       0.15487102 0.5545043 0.4555549 0.6168766
0001f0 46 24 df 3e 68 f6 79 3c 54 e1 0f 3b 15 6b 2f 3e
       0.43582362 0.015256502 0.0021954374 0.17130692
000200 02 f0 f7 3e 18 70 fb 3e 36 f4 de 3e 95 95 1c 3d
       0.484253 0.49108958 0.43545693 0.03822859
000210 c7 1c 11 3f ce 72 e5 3e e0 fa 0f 3f dd 2f 55 3f
       0.56684536 0.44814152 0.5624218 0.8327616
000220 df 30 df 3e 22 8d 07 3f 3b 61 06 3f 4c 6d 59 3e
       0.43591973 0.52949727 0.5249211 0.212331
000230 22 2f 8d 3e 6e 8e 0a 3f 13 68 ea 3e bd e8 84 3d
       0.27575022 0.5412358 0.45782527 0.06489704
000240 e6 19 c1 3e ac 46 ce 3e 97 0d 94 3d 33 22 70 3f
       0.3771507 0.40288293 0.072291546 0.93802184
000250 3a d0 0f 3f fa 6a 32 3e d7 30 69 3e 7c 8e e8 3c
       0.56177104 0.17423621 0.22772537 0.028388254
000260 1e 68 a0 3e d3 21 31 3e 80 76 19 3f 0a 63 04 3f
       0.31329435 0.17298059 0.5994644 0.5171362
000270 ea 58 d5 3e c9 1a f3 3e 24 8e 87 3e c7 5b 5f 3e
       0.416694 0.47481373 0.26475632 0.21812354
000280 2d 79 82 3e 7f 2f f5 3e 80 e1 7b 3e 82 73 da 3e
       0.25483075 0.478878 0.2459774 0.4266625
000290 1d 3e d7 3e 8a 82 15 3f 96 c9 49 3e b6 50 ca 3e
       0.42039576 0.5840231 0.19705805 0.39514703
0002a0 a9 b9 ca bc 72 d6 24 be 5d 48 58 be d4 3e 94 3e
       -0.024746733 -0.1609743 -0.21121354 0.28954184
0002b0 64 2f da 3e 8d 86 3c 3f 77 cd 81 3e 70 9d dd 3e
       0.4261428 0.7364281 0.2535207 0.43284178
0002c0 0b 17 57 3e f9 2c b2 3e ee 6f ac 3e f0 2e ce 3e
       0.21004884 0.34799936 0.33679146 0.40270185
0002d0 27 26 b6 3e 2c d5 fc 3e cf ed 99 3d 4f a4 b5 3e
       0.35575983 0.49381387 0.075160615 0.3547692
0002e0 16 c8 18 3f 9a 68 2b 3f 56 65 24 3e fc c3 21 3f
       0.59680307 0.66956484 0.16054282 0.63189673
0002f0 cc ca 1d 3f 24 ab eb 3e ed b4 cb 3e 45 3b bd 3d
       0.6163757 0.46029007 0.39786473 0.092398204
000300 08 e1 ec 3d 78 95 12 3f dc 38 7e bd e7 0c 89 3d
       0.11566359 0.5725932 -0.062065944 0.06691914
000310 bd 17 f6 3e 5c 2b e6 3d b9 6d c2 3e db b4 fd bc
       0.48064986 0.11238739 0.37974337 -0.030970028
000320 47 f7 e8 3e df 3c f5 39 0d f2 a3 3e e6 6f b3 3e
       0.45501158 0.00046775394 0.32020608 0.3504631
000330 2b 1a cc 3e 68 23 17 3f 6c b2 57 3e 37 6d a4 3e
       0.39863715 0.590384 0.21064156 0.32114574
000340 41 4a 07 3f f2 24 09 3f ca b5 17 3e 6e 59 b0 3e
       0.5284768 0.53572 0.14815441 0.3444323
000350 bf 87 0a 3f f4 2c 50 3e 63 1d 91 3e 12 1a 30 3f
       0.5411338 0.20329648 0.28342733 0.6878978
000360 51 29 99 3e 20 a7 a3 3e 8f f5 f9 3e a9 fd 6f 3e
       0.29914334 0.31963444 0.4882016 0.23436607
000370 09 de a0 3e 24 f1 13 3e e5 7f 02 3e a3 2e 9f be
       0.314194 0.14447457 0.127441 -0.31090268
000380 ac 52 03 3f 7c 09 c2 3d 38 d1 a3 bd 93 4b f1 3e
       0.5129802 0.09474465 -0.0799889 0.4712797
000390 4a 84 e9 3d 30 d1 e3 3c 07 0b 5d 3e 17 d5 e1 3e
       0.11402185 0.02780971 0.21586238 0.44107887
0003a0 b7 30 02 3e 9a fc 76 3e 6b 04 87 3e e5 58 ce 3e
       0.12713896 0.24119797 0.26370558 0.40302196
0003b0 9e 36 75 3e d5 8b 89 3e d4 f4 00 3f c5 b3 0d 3f
       0.23946616 0.26864496 0.5037358 0.5535243
0003c0 f0 6d f3 3e 5f 20 ea 3e 17 33 f9 3e e2 92 b2 3e
       0.47544813 0.45727822 0.4867179 0.34877688
0003d0 79 91 94 3e 6c 6d 51 bd ce 1d 04 3f 0b f6 f4 3e
       0.29017237 -0.051129743 0.5160798 0.47843966
0003e0 28 27 4e 3c 63 73 a6 3c 5b 00 0c 3f 9d ca 5f bd
       0.012582578 0.020318693 0.5468804 -0.054636586
0003f0 50 d0 2c 3e 4a 8b 21 3e b6 62 42 bc 41 c7 48 3e
       0.1687634 0.15775791 -0.011864355 0.1960726

bn1.weight f4 [300]
000000 53 90 be 3f 36 d9 fa 3f 68 bf c0 3e 50 79 c4 3e
       1.4887794 1.9597538 0.3764603 0.38373804
000010 18 60 0a 40 74 3b 85 3e 4f 3c 4e 40 de 4c a2 3e
       2.162115 0.26021922 3.222431 0.3169927
000020 40 7f 49 3e be 18 a6 3e 99 99 18 40 ae e5 78 40
       0.19677448 0.32440752 2.3843749 3.8890185
000030 da 55 e8 3f 5e e5 16 40 e1 7b 27 40 1b 85 d9 3f
       1.81512 2.3577495 2.616936 1.6993746
000040 29 32 57 40 c3 7e c6 3f 84 67 f8 3f 18 a7 15 40
       3.3624365 1.5507435 1.940659 2.3383236
000050 19 35 30 40 94 f3 39 40 08 90 0a 40 fc 62 24 40
       2.7532408 2.9054918 2.165041 2.5685415
000060 cf 1d 7a 40 c3 28 f0 3f d0 3b 03 40 2a fc 1a 40
       3.9080694 1.876244 2.0505257 2.4216409
000070 9b 3b e8 3f aa af ef 3f 9c b3 85 40 57 46 bd 3e
       1.814319 1.8725483 4.178175 0.36967728
000080 f6 b4 14 40 bd 6f 07 40 6b 37 09 40 b7 88 5f 40
       2.323545 2.116195 2.1440074 3.4927194
000090 26 0a 08 40 ac 1d 8e 3e 49 da 2a 40 9a 0e 14 40
       2.1256194 0.27757013 2.669573 2.3133912
0000a0 f4 7b 19 40 a2 5e d5 3f 3e 73 e6 3f b4 7c 6e 40
       2.3981905 1.6669505 1.8003919 3.7263613
0000b0 1d fc b4 3f 32 b7 08 40 8f f7 b0 3e d7 81 b1 3e
       1.4139439 2.1361814 0.34563872 0.34669372
0000c0 1c 97 48 40 f4 0e 82 3e 28 98 8f 3f cf fa 91 40
       3.134223 0.25402033 1.1218309 4.5618663
0000d0 1d 21 3a 40 ad de 6c 40 0d aa 04 40 68 1d 1e 40
       2.908271 3.701091 2.072879 2.4705448
0000e0 ac 68 8e 3e d6 90 d3 3f f0 58 a1 3f b7 ba 56 40
       0.27814233 1.6528575 1.2605267 3.3551462
0000f0 c4 2a 32 40 c2 f9 a5 3f 56 d8 ad 3e 5c 2e cf 3f
       2.7838602 1.2966845 0.33954114 1.6186023
000100 cf 88 16 40 3c 68 d8 3f e3 fc 71 3e 99 08 74 3f
       2.3521001 1.690681 0.23631625 0.9532562
000110 7b 6f c7 3f 6b b4 da 3e 47 0b 56 40 7c 68 87 3e
       1.5580896 0.42715773 3.3444383 0.26446903
000120 c6 1b 8c 3f 32 a9 79 40 37 a1 be 3e 20 d6 89 3f
       1.0945976 3.9009519 0.37232372 1.0768471
000130 f0 7d 0a 40 56 4f da 3f 06 91 a9 3e 83 16 4a 3f
       2.1639366 1.7055461 0.33118457 0.789406
000140 e4 c2 e7 3f b9 e0 20 40 9f 48 53 40 b4 56 8e 3e
       1.8106351 2.513716 3.3013074 0.27800524
000150 65 14 1e 3e 2d e3 07 40 0f 25 b8 3e cc 7c 87 3e
       0.15437467 2.1232407 0.35965773 0.264624
000160 54 e2 19 40 07 a6 b2 3e b1 b5 96 40 e0 71 2e 40
       2.404439 0.34892294 4.709679 2.7257004
000170 c4 26 06 40 fd 23 1f 40 04 0d 19 40 0f 58 90 40
       2.096116 2.4865716 2.3914194 4.5107493
000180 f4 43 b9 3f aa 87 05 40 ec 53 86 3e 9f 05 b1 3e
       1.4473863 2.0864053 0.26235902 0.345746
000190 d0 65 7d 40 7a a9 0e 40 98 9d 34 40 d2 f9 c5 3f
       3.9593391 2.229094 2.8221188 1.5466864
0001a0 f3 8a a3 3f 27 45 1a 40 76 12 b8 3f 1d a8 98 3e
       1.2776779 2.4104707 1.4380634 0.2981576
0001b0 2f ba 19 40 bf 7b bb 3e 3f 8f 86 3f 8d ad 9b 3e
       2.4019887 0.36617848 1.0512465 0.30405846
0001c0 35 34 4e 40 0e f7 2e 3e 26 63 13 40 2e d3 a8 3e
       3.2219365 0.17086431 2.3029265 0.32973617
0001d0 80 fb d9 3f e5 2f 20 40 ff fb 00 40 23 a7 36 40
       1.7029877 2.5029233 2.0153806 2.8539512
0001e0 13 3b 29 40 84 0d 8f 3e 9e 01 04 40 3c c7 8b 3e
       2.6442306 0.2794 2.0625987 0.2730044
0001f0 e5 e1 9b 3e 69 88 ef 3f 62 49 ad 3f 70 55 29 40
       0.3044578 1.8713504 1.353802 2.6458397
000200 bd a6 9f 3e 45 61 99 3e c2 73 67 40 22 23 bd 3f
       0.311819 0.29957023 3.6164403 1.4776347
000210 6d ca 9e 3e e7 2c b5 3e b1 23 58 3e 37 de 0e 40
       0.31013814 0.3538582 0.21107365 2.232313
000220 d3 18 33 40 fe 99 75 40 cd 04 9b 3e c4 9b 01 40
       2.7983902 3.837524 0.302771 2.0251322
000230 53 88 ae 40 3e 6f a2 3e e4 30 83 3f 1e 99 ec 3f
       5.454141 0.31725496 1.0249295 1.8484228
000240 98 af 89 3f 4c e3 3e 40 d3 f6 b9 3f d5 61 84 40
       1.0756712 2.982623 1.452845 4.1369424
000250 ca 7a 0d 40 24 45 fb 3f 0f 74 c2 3f 39 30 00 40
       2.2106194 1.9630475 1.5191668 2.0029433
000260 2b 33 3d 3f 01 00 2b 40 e5 80 31 40 6e 38 ae 3e
       0.739062 2.6718752 2.773492 0.34027427
000270 5c 7e 2a 40 af e2 b4 3e 22 16 ec 3f 3e 9e c5 3f
       2.6639624 0.35329196 1.8444254 1.5438917
000280 f3 1a 21 40 12 9d 08 40 2e 73 05 40 5d e8 9f 3e
       2.5172698 2.1345868 2.085155 0.31231967
000290 9d 90 29 40 3d 91 94 3e 4e e2 10 40 ec 61 8c 3e
       2.6494515 0.29017058 2.2638125 0.27418458
0002a0 0a d9 e9 3f d6 16 f4 3f f8 a3 2a 40 a4 93 6b 40
       1.826936 1.9069469 2.6662579 3.6808863
0002b0 7e 50 1f 40 83 df 8e 3f 09 b1 40 40 14 a9 86 3e
       2.4892879 1.116196 3.0108054 0.2630087
0002c0 fa 56 b6 3f 61 8e 15 40 a6 14 8f 40 69 ed 20 40
       1.4245293 2.336815 4.4712706 2.5144904
0002d0 96 a7 d6 3f 64 66 e9 3f 9c 78 7e 40 90 c2 00 40
       1.6769893 1.8234372 3.9761114 2.0118752
0002e0 fc 0a 88 3e 8c a7 83 3e 6d 78 bc 3f 79 f2 57 3e
       0.2657088 0.25713766 1.4724251 0.2108859
0002f0 06 f6 ad 3e 84 88 86 3f 07 a2 85 3f fe 7f e1 3f
       0.33976763 1.0510411 1.0440072 1.7617185
000300 2d 10 f1 3f 9f 38 b5 3e 1d 3f 27 40 fe 9f 5c 40
       1.8833061 0.3539476 2.6132271 3.4472651
000310 9e 31 69 40 80 67 00 40 e5 0b 95 3e 8f db 98 3f
       3.6436534 2.0063171 0.29110637 1.1942004
000320 56 ca a7 3e e9 31 63 40 cb 0a fe 3f 42 f1 7f 40
       0.32771558 3.5499213 1.9847044 3.9991002
000330 2c a0 8b 3e 3a 33 61 3e 42 3b ff 3f e0 c5 b8 3f
       0.2727064 0.21992198 1.9939959 1.4435387
000340 9d eb df 3f 23 6e 75 3e c4 44 e6 3f 13 9c c2 3f
       1.7493778 0.23967795 1.7989736 1.520388
000350 06 be ae 3e 3d 96 2d 40 fd fc e2 3f d7 e7 b9 3e
       0.3412935 2.7122948 1.7733456 0.36309692
000360 63 10 e8 3f ba e7 48 40 d5 3d 9b 3e e5 6d 10 40
       1.8130001 3.1391435 0.30320612 2.2567074
000370 aa 5c 20 40 03 51 d4 3f bd 71 29 40 4b 59 52 40
       2.5056558 1.6587223 2.647567 3.2867
000380 80 49 27 40 18 38 69 40 2e b4 6f 40 06 92 ad 3e
       2.613861 3.6440487 3.7453723 0.3390047
000390 e1 76 2c 40 14 a0 40 40 67 c1 2d 40 5e 24 af 3e
       2.6947558 3.0097704 2.7149293 0.34207433
0003a0 38 98 e7 3f 42 c6 a6 40 bd 59 98 40 e6 ef 0d 40
       1.8093328 5.2117014 4.7609544 2.2177672
0003b0 94 7e b1 3f ae ca 32 40 ef dc 7e 40 1f 78 b9 3e
       1.3866754 2.7936206 3.9822347 0.36224458
0003c0 46 19 25 3e fe 5c a4 3e 50 02 c3 3e 0b 60 c1 3f
       0.16122922 0.32102197 0.38087702 1.5107435
0003d0 2a 7d 18 40 9a 5c f3 3f f8 bb ae 3f 11 2f d4 3f
       2.3826394 1.9012635 1.3651114 1.6576864
0003e0 cb 0a 2d 40 8c 57 d3 3f 69 26 53 40 28 66 1e 40
       2.7037838 1.6511092 3.2992194 2.4749851
0003f0 be b1 8b 3f c4 fc 24 40 28 13 16 40 04 4c 03 40
       1.0913618 2.5779276 2.3449192 2.0515146

bn1.bias f4 [300]
000000 4a e4 7b bf ca c8 37 bf c7 00 27 bf c6 17 1f bf
       -0.98395216 -0.71790755 -0.6523556 -0.6214565
000010 78 0d 22 bf cf fa 24 bf bc af 95 bf 1f 7f 23 bf
       -0.633018 -0.64445204 -1.1694255 -0.63865846
000020 98 37 34 bf a0 da 33 bf 34 41 c8 be c2 1e 85 bf
       -0.7039733 -0.7025547 -0.39112246 -1.0400012
000030 37 ed aa bf e1 73 60 be b6 26 c1 be 17 8d ce bf
       -1.3353642 -0.21919204 -0.37724847 -1.6136807
000040 94 98 a1 3f 02 73 00 c0 66 4d c8 bf ef b3 9f bf
       1.2624688 -2.0070195 -1.564862 -1.2476786
000050 c9 af ad bf 2e 7b 2f bf 5c 1d f2 bf 65 25 41 bf
       -1.356927 -0.6854733 -1.891521 -0.75447685
000060 bc 2e 04 3e f3 92 87 3f 7e 45 1b bf 3d 9d 7f bf
       0.12908453 1.059172 -0.6065291 -0.998493
000070 53 91 6c bf 53 9f 1d bf 75 53 3f bf 5e 00 1c bf
       -0.9240925 -0.61571234 -0.7473672 -0.6093806
000080 c3 f3 ae bf 1e 23 78 bf 0d 47 d9 bf 20 a2 5e bf
       -1.366814 -0.96928585 -1.6974808 -0.86966133
000090 49 71 59 bf 4f 6d 2d bf e6 47 57 bf ee 09 f6 be
       -0.84938484 -0.67744917 -0.84094083 -0.4805445
0000a0 a5 03 31 bf c3 12 1b bf 60 46 7e bf 7a aa 5d bf
       -0.69146186 -0.60575503 -0.99326134 -0.8658825
0000b0 42 b2 ee 3e fc 66 ae bf 76 77 14 bf ce 1c 17 bf
       0.46620375 -1.3625178 -0.5799478 -0.5902833
0000c0 a1 2a 74 be a7 ac 27 bf d5 c6 8d be ec 79 ba 3f
       -0.23844387 -0.6549782 -0.2769076 1.4568458
0000d0 ff 29 64 bf cc 6e 67 bf 6c 1b 5c bd ae 13 c3 bf
       -0.8912658 -0.9040344 -0.05373709 -1.5240381
0000e0 cf 09 2f bf 5a 09 85 bf 35 1a 86 3f 4e be 1d 3f
       -0.6837434 -1.0393479 1.0476748 0.61618507
0000f0 31 09 c3 bf d0 82 e0 bf 56 44 1c bf 2a 09 c8 bf
       -1.523718 -1.7539921 -0.6104177 -1.5627797
000100 f8 4e 80 bf 5e 62 c0 bf cf 7e 28 bf 8f 8c a1 bf
       -1.0024099 -1.5030019 -0.65818495 -1.262102
000110 ab 0f 77 3f 70 f6 29 3e fe 5b d8 bf ae c2 18 bf
       0.9650828 0.16597915 -1.6903074 -0.5967206
000120 c6 53 25 bf 0e 25 bc be 06 c6 1c bf 4d 87 f1 3e
       -0.64580953 -0.3674702 -0.6123966 0.4717354
000130 40 c3 02 bf bd ae 17 be 27 99 24 bf 13 58 d8 3e
       -0.5107918 -0.14812751 -0.6429619 0.42254695
000140 f2 80 e2 bf a8 5f ee 3d 6e a3 14 bf df 6d 29 bf
       -1.7695601 0.11639339 -0.58061874 -0.66183275
000150 12 41 5d bf 0e 5c a0 bf cf 7d 24 bf 87 9d 29 bf
       -0.86427414 -1.2528093 -0.6425447 -0.6625599
000160 4f b2 57 bf 1e f9 17 bf dd e7 4b 3f e5 bf 93 bf
       -0.8425645 -0.593645 0.7965067 -1.1542937
000170 62 6f 84 bf e7 be 8b be 2d 1f 68 be c6 a3 79 3e
       -1.0346491 -0.27294084 -0.22668143 0.24378881
000180 92 ae d9 be cc 72 27 c0 e6 a9 1c bf 45 cf 0f bf
       -0.42516 -2.6163816 -0.61196744 -0.56175643
000190 90 c2 13 bf b3 d3 0c be e7 fd eb be bc af 81 bf
       -0.57718754 -0.13752632 -0.4609215 -1.0131755
0001a0 08 d9 4f bf ed cc 2a bf ea 5c b3 bf 27 a6 26 bf
       -0.8119054 -0.6671894 -1.401273 -0.6509728
0001b0 9d 65 c4 bf be f0 1b bf 49 bc 0b bf b6 dc 19 bf
       -1.534351 -0.6091422 -0.54584175 -0.60102403
0001c0 6c 41 ba be 95 91 0c bf 61 c5 40 bf 27 61 25 bf
       -0.36378038 -0.5490964 -0.75301176 -0.6460137
0001d0 cc de 4e bf 18 c7 0d bd c9 3b 7b bf 1b d0 68 3f
       -0.8080871 -0.0346137 -0.981381 0.90942544
0001e0 a1 a4 d9 bf 4f a5 2c bf cb 13 a3 3d 48 70 3c bf
       -1.7003366 -0.6743974 0.079627596 -0.7360883
0001f0 e7 73 25 bf c2 29 b9 bf de d2 04 c0 f4 44 04 bf
       -0.6462998 -1.4465868 -2.0753703 -0.51667714
000200 ee c9 1c bf 80 02 31 bf 3a 4e be 3f 02 e4 ba bf
       -0.6124562 -0.6914444 1.4867623 -1.4600832
000210 1f 66 23 bf 16 a0 14 bf e9 a6 42 bf e0 9e a2 3e
       -0.638277 -0.5805677 -0.76035935 0.31761837
000220 42 1d 23 3f 2a 38 fb 3d 3f 6c 2f bf 0d 05 0e bf
       0.6371652 0.12266572 -0.68524545 -0.55476457
000230 eb 09 24 bf d6 b8 13 bf 97 f2 d0 be 19 5b 50 bf
       -0.64077634 -0.5770391 -0.4081008 -0.81389004
000240 f8 44 0c bf f2 c0 80 bf aa ad c6 bf c8 54 f5 3f
       -0.5479274 -1.0058882 -1.5521748 1.9166498
000250 85 ab 5b bf 43 55 3d bf d8 90 25 bf 7e ae 86 bf
       -0.85808593 -0.73958224 -0.6467414 -1.0522001
000260 a6 73 fe bd 10 0a 35 bf d4 59 8c bf 2e af 15 bf
       -0.12424402 -0.7071848 -1.0964913 -0.5847043
000270 2d ba 6a be 4e 4a 1e bf 83 9a 57 be 14 ab c9 be
       -0.22922583 -0.6183213 -0.21055035 -0.39388335
000280 ab f8 71 3e be 3e c0 bf 72 1f 7a bf c6 c6 1f bf
       0.23630016 -1.5019147 -0.9770423 -0.6241268
000290 66 f2 ac 3c 1e 1d 12 bf 61 95 ed bf c7 19 27 bf
       0.021111678 -0.5707568 -1.8561212 -0.6527371
0002a0 53 c1 cb bf 23 be c4 bf 77 99 96 bf a9 8d cf be
       -1.5918373 -1.5370525 -1.1765584 -0.40537766
0002b0 b4 60 38 3f 3e 28 05 be 95 43 c3 be ce 21 12 bf
       0.7202256 -0.13003632 -0.38137498 -0.5708283
0002c0 79 34 86 bf 11 b8 b5 be dc f4 ff 3c e2 50 b7 be
       -1.0484763 -0.35491994 0.031244688 -0.35803896
0002d0 c9 de 5c bf a9 9f 1c bf 43 93 16 3e 22 7c 8b 3e
       -0.86277443 -0.6118112 0.14704613 0.27243143
0002e0 3f aa 2d bf 48 3d 38 bf ae 46 de bd 8f be 2d bf
       -0.678379 -0.7196851 -0.10853325 -0.67868894
0002f0 e6 7d 1b bf a0 82 a2 bd 43 3b 06 3f c1 10 f5 be
       -0.6073898 -0.07935071 0.52434176 -0.47864345
000300 74 39 70 bf 1e 3d 15 bf be 4b 95 bf 19 6d a2 be
       -0.93837667 -0.5829638 -1.166374 -0.3172386
000310 88 5d 07 3d 12 e9 b4 bf af d2 26 bf 69 89 89 bf
       0.033048183 -1.4133627 -0.6516523 -1.0745059
000320 be 4c 15 bf c2 3b e1 bc 79 b3 1b bf 3b 1b a0 3d
       -0.58320224 -0.027494315 -0.6082073 0.07817694
000330 86 75 1f bf d7 99 2d bf e7 81 c6 bf ef 7f ba 3c
       -0.622887 -0.67812866 -1.5508393 0.022766082
000340 25 35 5e bf bf 83 29 bf b8 15 01 bf 37 68 44 be
       -0.8679984 -0.66216654 -0.50423765 -0.1918038
000350 27 2f 25 bf 3e 6e 00 c0 e7 c3 1e bf 4e a0 18 bf
       -0.64525074 -2.0067286 -0.62017673 -0.59619606
000360 e0 05 95 bf 4b 1c a8 3e c5 43 07 bf 0f b0 a7 3d
       -1.1642418 0.32834086 -0.52837783 0.081878774
000370 7e 3c d7 bf 38 bd 33 be bc ed 88 be 98 b5 04 c0
       -1.6815336 -0.1755265 -0.26743877 -2.0735836
000380 5c 24 19 bf 64 6e 27 bf 94 ff 19 3f 2e 5a 1f bf
       -0.59821105 -0.6540282 0.60155606 -0.6224698
000390 0b d4 32 bf 22 5f 1e bf cd 2b 07 bf 1e ae 17 bf
       -0.698548 -0.6186391 -0.5280121 -0.59250057
0003a0 04 42 e5 bf 8f 31 a2 3f 4b 8a 80 3f 18 b8 ea bf
       -1.7910771 1.2671374 1.0042204 -1.8337431
0003b0 87 d2 a7 bf 0f 95 81 bf 47 19 a1 3d 46 48 19 bf
       -1.3111123 -1.0123614 0.078661494 -0.59875906
0003c0 50 3e 39 bf f6 40 1b bf 8f 33 27 bf 31 9e 73 3e
       -0.72360706 -0.60646 -0.6531305 0.23790814
0003d0 23 c2 cd bf c6 9b cc be 70 75 8b ba 52 ac ac bf
       -1.6074871 -0.39962596 -0.0010639858 -1.3490088
0003e0 8c 60 a0 bf e6 c3 8a bf 54 d4 93 bf 37 07 fb be
       -1.2529464 -1.0841033 -1.1549172 -0.49028942
0003f0 4b 99 30 bf 3e c7 33 bf 23 a7 ba bf 0a c8 a0 3e
       -0.68983907 -0.70225894 -1.4582256 0.31402618

l2.weight f4 [300, 308]
000000 96 65 04 bf 71 6e 13 40 8a 79 7a bd 4e 88 1c bd
       -0.5171751 2.3036158 -0.061151065 -0.038215928
000010 28 98 5c be 08 c6 35 bd c8 12 65 3f 7d 28 01 bd
       -0.21542418 -0.04437831 0.8948178 -0.031532753
000020 f3 65 e7 3d e6 d2 11 3e 2c a9 25 c0 4c 08 67 bf
       0.11298742 0.14240608 -2.5884504 -0.90247035
000030 d6 d1 a3 bf c7 95 9c 3e cc e3 3a 3f 6b 92 9d bf
       -1.2798412 0.3058302 0.7300384 -1.2310308
000040 43 84 de be 7b be fe bf 47 0c 08 40 80 fb dc 3f
       -0.43460283 -1.990188 2.1257493 1.7264252
000050 b4 ea 13 3f 4b 67 84 3e 0a 55 0c c0 2c da 04 40
       0.57780004 0.25860056 -2.1926904 2.0758162
000060 40 8d 08 3f 99 95 b0 3f 38 1f 10 3e da cf 61 3f
       0.5334053 1.3795654 0.14074409 0.8820778
000070 3d fa 71 be 1f 67 cb bf 92 b5 0e 3f 05 8c 15 3c
       -0.23630615 -1.5890845 0.55745804 0.009127622
000080 13 24 af 3f d8 e9 b2 3c 22 d2 d1 be 8e 21 1c bf
       1.3682884 0.021840021 -0.4098063 -0.609887
000090 3a c0 e8 be 82 4f d2 bb 49 da fd bf 3e 2c 79 3f
       -0.45459157 -0.0064181695 -1.983224 0.97333133
0000a0 50 7c 33 bf 6d 12 de be cb a6 06 3f 61 e0 03 c0
       -0.7011156 -0.43373433 0.52598256 -2.06057
0000b0 65 65 2f be 80 5b a3 3f 95 ee 89 3d 53 5a 77 3d
       -0.17128523 1.2762299 0.06734959 0.060388874
0000c0 10 21 2d bf 0c 32 88 bc 97 d9 a7 be 2a b7 0c 40
       -0.67628574 -0.016625427 -0.32783195 2.1986794
0000d0 d2 13 a8 3f da b5 e9 3f 6f 61 84 3f d5 7f ef bf
       1.3131049 1.8258622 1.0342234 -1.8710886
0000e0 ca 00 59 3d 09 dd 4e bf ef e5 b7 bf 7a b1 86 bf
       0.052979268 -0.8080602 -1.4367045 -1.0522912
0000f0 37 30 1d be 16 6e dd 3e 06 cf a7 3c ad 04 f6 3f
       -0.15350424 0.4324805 0.020484459 1.9220177
000100 6f 62 da 3f d1 eb 19 bf 2e 5f 1a 3e 87 a8 40 3e
       1.706129 -0.6012545 0.1507537 0.18814288
000110 52 90 80 3f 3d 4d 06 3f 0c 7a d9 bf 76 38 12 3c
       1.0044043 0.52461606 -1.6990371 0.008924594
000120 f3 b5 52 3f a6 19 4b c0 8f 80 2f 3c e5 99 b0 3e
       0.8230888 -3.1734405 0.010711803 0.34492412
000130 71 a1 81 bf 33 84 c1 3f fd bc 14 3c 59 6f 2d 3f
       -1.0127393 1.5118469 0.009078261 0.6774803
000140 a2 0c 48 bf c2 e0 0d bf b2 7a ec bd dd 9e 8c 3e
       -0.78144276 -0.5542108 -0.1154684 0.27464953
000150 dc b0 09 3c ab 29 57 bf 94 10 7c bc e2 79 d9 3c
       0.008403983 -0.84047955 -0.015384812 0.026547376
000160 91 f0 84 bf 63 a7 f9 bd 89 f1 12 be 8e 43 e2 bd
       -1.0385915 -0.121901296 -0.14349951 -0.11048041
000170 14 e3 7b bf d9 c7 58 bf ee 24 12 3f fb 0f 10 c0
       -0.9839337 -0.84679943 0.570876 -2.2509754
000180 a8 71 9c 3f 51 17 7f bf 70 2b c5 3c 03 48 7f 3d
       1.2222185 -0.99644953 0.024068564 0.062324535
000190 a2 65 9a be de 07 22 c0 1f 46 28 3f 70 af d5 3f
       -0.30155665 -2.5317302 0.65731996 1.6694164
0001a0 af b3 9d 3e 1f 20 32 40 06 f2 56 40 ba 8f dc bd
       0.3080115 2.7832105 3.358522 -0.10769601
0001b0 58 b5 05 bf a2 6c d6 bd 8b 14 67 bd 87 3f 28 bd
       -0.52229834 -0.10469939 -0.056416076 -0.04107621
0001c0 d3 57 86 bf 07 19 3d be 9e 8c a6 bf 68 71 cd bd
       -1.0495552 -0.18466578 -1.3011663 -0.10031396
0001d0 66 9e 0a c0 c9 a6 a9 be e1 bc 46 3f d9 a5 95 bf
       -2.1659179 -0.3313506 0.77631956 -1.1691238
0001e0 0f 92 1d c0 42 81 d1 3d 95 d6 c4 3f 8f 2b b9 3c
       -2.4620397 0.10229732 1.5377985 0.022603778
0001f0 8d fc 12 bd 3f 85 4f 3f 51 58 cf 3e 94 5e e1 3e
       -0.035885382 0.8106269 0.40497068 0.4401747
000200 f3 de f0 3d 35 cd 0d be 9c d9 9f bf 8c 7c 04 40
       0.11761274 -0.13847812 -1.2488284 2.0701017
000210 73 9e e8 3d 02 3c 68 3d f4 36 73 3a f7 f1 a8 bc
       0.11358347 0.056697853 0.0009277903 -0.02062319
000220 d6 f9 97 bf 68 75 c5 3f a7 48 a7 bd 34 0f d4 3d
       -1.1873119 1.5426455 -0.08168154 0.10354462
000230 e4 c3 7c 3f 75 3c 89 bd a8 54 27 bf 14 72 15 3e
       0.98736405 -0.067009844 -0.6536355 0.14594299
000240 38 97 d1 bf d1 1e 18 bf 5d 2e 91 3f e0 4f a0 3e
       -1.6374273 -0.5942202 1.1342274 0.3131094
000250 59 1b 2e 3f e4 28 95 3f 76 6d a0 3f c5 98 01 c0
       0.6801048 1.1653104 1.2533405 -2.0249493
000260 94 b7 0f 3f e6 69 8b 3f 89 1d 5a bf 6b 76 61 be
       0.56139493 1.0891693 -0.8520132 -0.22017829
000270 29 cb 29 bc 13 43 e5 be 97 0f 56 bf 9a af 3b bf
       -0.010363379 -0.44777736 -0.8361754 -0.7331482
000280 92 33 09 3f d1 91 03 3f ec bd 2a 3f b0 32 49 3d
       0.53594315 0.51394373 0.6669605 0.049120605
000290 a0 d9 4b c0 73 01 fe ba 1e 96 e6 3f 1e 7e 1f be
       -3.1851578 -0.0019379094 1.8014562 -0.15575454
0002a0 f4 01 ee 3f 7f 01 0e bf d3 8c 78 3f f9 11 2a c0
       1.8594346 -0.5547103 0.9708988 -2.657347
0002b0 32 92 54 3f ba ab 91 3e f6 c4 51 bf 87 0b 80 3d
       0.83035576 0.2845133 -0.81941164 0.06252199
0002c0 38 b8 5f 3e 37 34 27 3f ca a9 33 c0 23 bf a1 bf
       0.21847618 0.6531405 -2.807238 -1.2636455
0002d0 b8 2d 32 3b 31 6c 2f 3e ac f4 f2 3e f5 f7 11 40
       0.0027187895 0.17131115 0.47452295 2.280759
0002e0 5a ae e6 3c b4 3d 75 3e a9 27 a5 be 69 3d 5e 39
       0.02815931 0.23949319 -0.3225682 0.00021194447
0002f0 50 85 c2 3c 66 fe 15 3f 7b 77 96 bf 6c a2 29 bf
       0.023745209 0.58591306 -1.1755213 -0.6626346
000300 c2 d9 a6 3f 5a 8f 67 bc 86 5e a9 bf be bb 4f 3f
       1.3035204 -0.014133299 -1.3231971 0.81145847
000310 d3 7d 08 c0 1c d2 d5 bf bc 8e 71 3d 9c 42 9d 3f
       -2.1326797 -1.6704745 0.058974013 1.2285953
000320 a0 88 c9 3d 17 7c 35 bd e4 17 3e 3f ec 41 d9 be
       0.09840512 -0.044307794 0.74255204 -0.42433107
000330 82 cf 5e bd e1 07 d3 bd 60 16 2b 3f 79 bf e0 be
       -0.054397114 -0.10304237 0.66831017 -0.43896082
000340 58 ed 6f be ae 5f 9c bd 9e de 80 3d b1 cf 5c 3f
       -0.23430383 -0.07635437 0.06292461 0.8625441
000350 a3 6d f3 3d fd 4a 0d 40 13 00 10 bf 07 d8 b2 3d
       0.11886146 2.207702 -0.56250113 0.0873261
000360 40 59 2f 3e 3c e4 c4 3e ac 37 f9 3d 58 71 86 3f
       0.1712389 0.3845538 0.12168822 1.050334
000370 d0 c7 bf 3f 3c cd 7d 3f a6 62 a9 3f df cf f6 bf
       1.4982853 0.9914129 1.323323 -1.9282187
000380 e6 25 3f 3f 70 f1 18 40 f3 22 8d be 1f ab a4 3d
       0.74667203 2.3897362 -0.27565727 0.08040451
000390 79 c5 9d 3f 76 b0 a2 bf f7 fb 97 3d 00 cd bb 3d
       1.2325889 -1.2710102 0.07421105 0.0916996
0003a0 0f 52 1a 40 01 d7 82 3f ac 9a 27 be 96 11 65 3f
       2.4112585 1.0221864 -0.16367596 0.8947996
0003b0 bf ce 82 3e 6d 07 88 3f 2a 82 99 3f 70 8a b1 3d
       0.2554836 1.0627266 1.1992848 0.08668983
0003c0 58 43 ca bd 41 10 4f bd 1b ea f4 bc 5c 05 04 bf
       -0.09876126 -0.05055261 -0.029896786 -0.5157068
0003d0 0e 6c 6b 3f bd 8f 5a 3f 08 e7 4c bf 58 bc 1d 3f
       0.91961753 0.8537558 -0.80040026 0.61615515
0003e0 10 97 24 c0 2d 33 37 be 21 c2 2e bc 78 94 30 bf
       -2.5717201 -0.17890616 -0.010666401 -0.68976545
0003f0 a2 63 e0 3e d7 8e 2d 3f 5e 3a e2 bf 3f 5a e9 3e
       0.43826014 0.6779608 -1.7674062 0.45576665

l2.bias f4 [300]
000000 08 90 2c 3f a6 14 0f 3f 99 44 99 3e f0 ac 63 3f
       0.67407274 0.5589088 0.29935148 0.88935757
000010 64 5e 74 3f 5a 9d f0 3e 71 d6 8c 3f ac a0 c8 3f
       0.9545653 0.4699505 1.1002942 1.5674033
000020 66 ea bc 3e 49 99 3d bf 2d 35 94 bf 75 93 ec be
       0.36897582 -0.7406202 -1.1578728 -0.4620625
000030 aa 31 f4 bc 42 e2 40 bf 78 2f 03 c0 fc 6e 1e 3f
       -0.029808838 -0.7534524 -2.0497723 0.618881
000040 9e 89 f9 be 90 cf 99 bf 9c 40 05 bf e1 3f a7 3e
       -0.48737806 -1.2016468 -0.5205171 0.32665923
000050 72 8d fd bf 00 70 1b bf d9 cf d9 3f 64 8e 81 bf
       -1.9808791 -0.60717773 1.7016555 -1.0121579
000060 f0 c2 93 be ba 16 e4 3f 46 d8 8e 3e 1f 0f 09 3f
       -0.28859663 1.7819436 0.2789938 0.535387
000070 88 36 cb 3e 6d d4 7c 3f 7e 98 5e 3f d2 13 d2 3f
       0.39690042 0.98761636 0.86951435 1.6412299
000080 37 54 9d 3f 44 7b 62 bf 5d cf 48 bf 27 03 6d 3f
       1.2291325 -0.8846934 -0.7844141 0.92582935
000090 9b 0b 9c bf 7e 0d 56 3f df 10 b1 be 82 48 8b 3f
       -1.2191042 0.8361434 -0.34583184 1.0881503
0000a0 22 c0 84 3f 9e 40 8d 3f 8c 07 2c 3f 61 38 b7 bf
       1.0371134 1.1035345 0.67199016 -1.431408
0000b0 19 82 a7 3f 6d 9b 45 bf 7c 24 16 3e 39 8a a9 bf
       1.3086578 -0.77190286 0.14662355 -1.3245307
0000c0 f5 d4 d6 bf 19 7a 1d bf e9 9a 13 3e bc 8c 1a bf
       -1.6783739 -0.6151443 0.14414562 -0.60370994
0000d0 9c f6 f4 3e fb d3 10 be e0 4a 44 3f cf 44 b3 bf
       0.47844398 -0.14143364 0.7667675 -1.4005374
0000e0 1d fe 7d 3f 26 f5 94 3f d6 c3 c2 3e 1e e5 59 3f
       0.9921587 1.1637313 0.38040036 0.8511523
0000f0 55 23 32 bf 1b b8 c4 bf e6 e0 c8 3e 38 79 bd bf
       -0.6958516 -1.5368685 0.39234084 -1.4802618
000100 44 ef 6a bf 93 e2 8d bf f0 32 5e bf 02 0f 18 3f
       -0.9177134 -1.108477 -0.86796474 0.593979
000110 ea d6 76 3f 67 57 ab bf 30 7d a7 3f 1b 8c 44 3f
       0.9642168 -1.3386048 1.3085079 0.76776284
000120 89 08 aa bf 7f 92 7c bf da 1c c6 3e 45 ad 82 bf
       -1.3283855 -0.98661035 0.38693887 -1.0209128
000130 40 72 a2 3e cb 02 a8 bf 00 8e a1 3e a8 41 16 3f
       0.3172779 -1.3125852 0.3155365 0.58693933
000140 fb 4d 89 3f ee a1 e1 3d 51 08 9b 3f 5b 4c a2 3e
       1.0726923 0.11017214 1.2111913 0.3169888
000150 be b8 c8 bf 3a b6 59 3e 21 f7 88 bf bf 94 8f 3f
       -1.5681379 0.2126092 -1.0700418 1.1217269
000160 97 84 91 3f 71 39 f5 3d 3d 58 5b bf da ce 35 3f
       1.1368588 0.11973847 -0.85681516 0.71018755
000170 5c 0d 01 3f 73 94 da bf 90 6f e6 3e aa 38 87 bf
       0.5041101 -1.7076553 0.4500699 -1.0564167
000180 3a de c1 3e 0d dd 74 3f 63 26 00 3f 38 bd 94 bf
       0.37864858 0.95649797 0.50058573 -1.1620245
000190 41 90 dd bf ef b1 7a 3f a4 e7 d9 bd d4 a8 c0 3f
       -1.7309648 0.97927755 -0.10639885 1.5051522
0001a0 63 cd 1e c0 1f cb 3e bd 28 54 e6 bf 62 06 a7 bf
       -2.4812858 -0.04658043 -1.7994432 -1.3048823
0001b0 de e1 c7 bf c4 14 38 3e c4 1a 50 3f 25 92 ce 3e
       -1.5615804 0.17976671 0.8129084 0.40345874
0001c0 ab 9e 87 bf b3 72 97 3f ed 01 4c be d0 c2 51 bf
       -1.0595297 1.1831878 -0.1992261 -0.81937885
0001d0 6f be f9 bd ac b3 a5 bf a7 3b c3 3f 31 d4 ae 3f
       -0.121945255 -1.2945457 1.525258 1.3658506
0001e0 95 96 b9 3f ed ac 8b 3f 9c 12 b2 be a9 b8 de bf
       1.4499079 1.0912148 -0.34779823 -1.7400104
0001f0 a1 8b 26 3f 4a 45 5c bf ea 92 86 bf 7c b8 b3 bf
       0.65056807 -0.86043227 -1.0513585 -1.4040675
000200 16 1d e0 3e 54 07 d4 be 56 d0 06 3f 36 5e f6 3e
       0.4377219 -0.4141184 0.52661645 0.48118752
000210 5e e2 cc be 41 31 86 3f ff 65 85 bf d8 d9 9e 3f
       -0.40016454 1.0483781 -1.0421752 1.2410231
000220 29 4a 9b 3f d7 5a d1 bf 59 4b 2a 3d 5d e5 0c c0
       1.2132007 -1.6355847 0.041575763 -2.2014992
000230 bd 02 32 3f 5c 17 9c bf b7 8e 15 bf 5a 30 7c bf
       0.6953543 -1.2194629 -0.5842089 -0.9851128
000240 75 22 39 3e f8 c3 be 3f b8 10 d8 3e 4b b1 aa be
       0.1807955 1.4903555 0.42200255 -0.3333839
000250 57 d3 8a bf cf 36 db be 75 f0 0e bf fe 0a 27 bf
       -1.0845746 -0.42815253 -0.5583566 -0.6525115
000260 5b 73 07 bd 20 64 b8 bd 59 d4 13 bf 3d 9c 4b 3f
       -0.033068996 -0.09003472 -0.5774589 0.79535276
000270 0b fa ed 3e 58 c2 d4 3f ab 75 d7 bf 8b 42 e6 bf
       0.4647983 1.6621809 -1.6832784 -1.7989057
000280 4b 28 66 bf 89 47 bc bf 7d 20 79 bf 57 22 47 3e
       -0.8990523 -1.4709331 -0.973152 0.19446693
000290 57 73 33 3f 6c c0 b5 3e 82 1d dc 3f fc 66 a5 be
       0.7009787 0.3549837 1.7196505 -0.32305133
0002a0 ee 8c ed be 77 eb 72 bd b0 f5 cf 3e 13 2b 95 3f
       -0.46396583 -0.059306588 0.40617132 1.165377
0002b0 31 30 0d bf 00 88 b2 bf fb 3c a8 bf 27 48 be bf
       -0.5515166 -1.3947754 -1.314361 -1.4865769
0002c0 50 53 8a bf e0 5d cb 3e 7e d2 d3 bc 6c 98 5f 3f
       -1.0806675 0.39720058 -0.025857206 0.8734195
0002d0 ea 1b 84 3f b2 a0 20 3f 5d 67 43 3f d3 5b 8b 3f
       1.0321019 0.627452 0.76329595 1.0887398
0002e0 96 26 c3 3e 67 51 a3 bf 3c 2b 39 c0 c4 84 65 bf
       0.38115376 -1.2759217 -2.8932638 -0.8965571
0002f0 9f f4 38 bf cc 16 89 3f f3 57 02 3e be 2f 8f 3f
       -0.7224826 1.0710082 0.12728862 1.1186445
000300 ee e9 3f 3f 91 ae b7 bf 7d 6f bd be 79 ee 3c 3e
       0.74966323 -1.4350148 -0.3699912 0.18450345
000310 84 65 39 bf 7a 0c e7 bf a4 66 92 be 74 6d ad bf
       -0.72420526 -1.8050683 -0.28593934 -1.3549027
000320 1a 12 93 3e 0c d9 00 bf 74 be 17 bf f6 de 3b 3e
       0.28724748 -0.5033119 -0.59274983 0.18346772
000330 28 52 65 bf 64 50 f4 3e 2e f2 c1 3f 7a a1 21 3e
       -0.89578485 0.47717583 1.5152032 0.15784255
000340 db f8 d0 bf f4 d9 dd be 96 96 79 3d ba 9e 35 3f
       -1.6325945 -0.43330348 0.060934626 0.7094532
000350 7d fc bd 3f c1 35 8b 3f 6d ae c3 3e aa 8f 14 3e
       1.4842678 1.0875779 0.38219014 0.14507928
000360 90 88 79 bf 57 60 04 bf 8e 37 5e be 1c 96 95 bf
       -0.97474 -0.517095 -0.2170088 -1.1686435
000370 35 c2 14 3f f3 91 07 3b fc 5e a0 3f 39 c8 81 bf
       0.58108836 0.0020686358 1.2528987 -1.0139228
000380 2e 43 83 bf b6 ea 09 3f 5d bd 64 3f 8f 29 8f be
       -1.0254877 0.53873765 0.89351445 -0.27961394
000390 bf 56 bf 3e 53 26 8a 3f 36 dc de bf 8f c3 25 3f
       0.3737087 1.0792946 -1.7410953 0.64751524
0003a0 f4 32 79 3f f0 0b 8d bf f2 dc 85 bf c9 ec 05 bf
       0.97343373 -1.1019268 -1.0458052 -0.5231443
0003b0 62 9c 02 3d a2 a5 e5 bf 23 c5 12 3f 0a 62 db be
       0.03188742 -1.7941172 0.57332057 -0.42848235
0003c0 af 23 99 be e7 aa a5 3f 0c f2 41 be 2b 9e 4b 3f
       -0.29910037 1.294278 -0.1893999 0.7953822
0003d0 bc c6 9d bf 90 41 d6 bf c5 5b d1 3f c1 0e 53 3f
       -1.2326274 -1.6738758 1.6356131 0.8244439
0003e0 f4 72 a2 3e a8 b7 0f c0 90 0e 9f 3e 4a 33 4c 3f
       0.31728327 -2.2455845 0.31065798 0.7976576
0003f0 9c f7 18 3e b6 6f 2c 3f 39 6c 83 bf f8 c6 72 3f
       0.14938205 0.6735796 -1.0267402 0.9483485

bn2.weight f4 [300]
000000 79 31 c7 3f a5 bb c5 3f 6d f4 ab 3f 44 7d c4 3f
       1.5561973 1.544789 1.3433968 1.5350728
000010 7c c8 f6 3f a6 57 df 3f 2a 1a c2 3f 4a a0 d0 3f
       1.9279933 1.7448623 1.5164235 1.6298916
000020 f5 38 c7 3f b0 ff 44 3e 1a f8 c2 3f 72 47 6a 3e
       1.5564257 0.19238162 1.5231965 0.22878817
000030 06 52 a8 3f 9d af 9d 3e d0 01 00 40 57 7d b2 3f
       1.3150032 0.30798045 2.0001106 1.3944501
000040 e4 7b e2 3f 96 a6 2e 3e a4 f4 a3 3f fc f2 db 3f
       1.7694058 0.17055735 1.2809033 1.7183528
000050 e9 60 56 3e fa 09 02 40 b9 b1 b4 3f a6 dc 11 40
       0.20935406 2.031859 1.4116737 2.2790923
000060 12 fa c6 3f 3d 00 e4 3f 3e 28 ca 3f 3b 64 bb 3f
       1.5545065 1.7812573 1.5793531 1.4639963
000070 65 21 bb 3f 9d 3b f3 3f 12 e9 e1 3f f1 26 c2 3f
       1.4619566 1.9002568 1.7649252 1.5168134
000080 de c5 af 3f 13 81 7c 3e d2 ff 6a 3e 3d 4d c3 3f
       1.3732259 0.24658613 0.2294915 1.5257946
000090 ac e8 81 3e 30 fd e0 3f f5 76 b9 3f 83 33 bf 3f
       0.25372827 1.7577267 1.4489428 1.4937595
0000a0 6e ef d2 3f 4f 0b d7 3f b4 6b ba 3f ad 13 10 40
       1.6479318 1.6800326 1.4564118 2.251201
0000b0 d7 ea ac 3f 02 7c 6e 3e 97 53 ae 3f 52 2b 6a 3e
       1.3509167 0.23289493 1.361926 0.22868088
0000c0 d7 3e b6 3f 67 11 ac 3f 7b 7d b6 3f 41 87 d0 3e
       1.4237927 1.3442811 1.4257044 0.4072819
0000d0 cc df c6 3f c1 e1 ea 3f a4 20 de 3f 54 08 8d 3e
       1.5537047 1.8350145 1.7353711 0.27545416
0000e0 f0 77 d3 3f 89 62 c8 3f 59 5a bd 3f f4 7f c7 3f
       1.6520977 1.565507 1.4793197 1.5585923
0000f0 7c d1 82 3e 04 5f fa 3f b2 a4 db 3f 65 48 db 3f
       0.2555045 1.9560246 1.7159636 1.7131468
000100 ba 81 ef 3e 43 2e 7c 3e 30 dc 4c 3e 9e 8e ab 3f
       0.4677866 0.24627022 0.2000587 1.3402898
000110 b9 7e bc 3f 3d c9 cf 3f 21 e9 e0 3f 9e 56 bc 3f
       1.4726173 1.6233288 1.7571145 1.4713933
000120 4e 0c 80 3e b1 eb 58 3e cf a7 b7 3f 6d 00 96 3e
       0.25009388 0.21183659 1.4348086 0.292972
000130 01 d0 ad 3f 34 44 0f 40 0b 1b bf 3f 02 2e d0 3f
       1.3579103 2.2385378 1.4930128 1.626404
000140 d5 4f b3 3f 35 9e c9 3f 2c 18 e5 3f 6e 54 b6 3f
       1.4008738 1.5751406 1.7898002 1.4244516
000150 16 c5 2b 3e 75 56 c3 3f fa 88 09 40 ee ab d3 3f
       0.16774401 1.526076 2.1489854 1.6536844
000160 cd b6 cc 3f 49 08 d2 3f 34 98 b8 3f 36 82 bf 3f
       1.5993286 1.6408778 1.4421449 1.4961612
000170 88 c4 ad 3f 1a fb 6d 3e e3 25 ce 3f 46 29 c9 3f
       1.3575602 0.23240319 1.6105312 1.5715721
000180 43 f7 d0 3f ef 1b bf 3f d2 8b c8 3f 03 aa a2 3f
       1.6325458 1.49304 1.566767 1.2708133
000190 e6 66 a3 3f 9a d8 b2 3f 08 97 cd 3f 03 d8 d5 3f
       1.2765777 1.3972352 1.6061716 1.6706547
0001a0 e9 c5 d5 3f 70 be b6 3f 31 21 81 3f cc 24 85 3e
       1.6701022 1.4276867 1.0088254 0.26004636
0001b0 78 a9 94 3f 90 11 af 3f 30 26 c8 3f b2 e2 a3 3f
       1.1614218 1.3677235 1.5636654 1.2803557
0001c0 df ca f6 3f 46 1f c4 3f 10 f9 4f 3e 92 e4 61 3e
       1.9280661 1.5322044 0.20309854 0.22059849
0001d0 cb 0c a2 3f db e5 7c 3e aa e3 be 3f 72 d0 bc 3f
       1.2660154 0.24697058 1.4913228 1.4751112
0001e0 c6 4e cf 3f f4 21 ce 3f f4 98 ca 3f 62 f4 68 3e
       1.6195915 1.6104112 1.5827928 0.22749475
0001f0 1e 0e d8 3f 9c bb 82 3e 82 6d 66 3e 0f ed 1c 40
       1.6879308 0.2553376 0.22502711 2.451969
000200 06 54 af 3f 08 1b a2 3f 08 52 b0 3f 08 0d c2 3f
       1.3697517 1.2664499 1.3775034 1.5160227
000210 da 4d d3 3f 4f 84 ab 3f 70 8c 00 40 a5 ea bb 3f
       1.6508133 1.3399752 2.0085716 1.4680983
000220 6a 58 d5 3f 89 6d e1 3f ab ea a6 3f a9 fc ed 3f
       1.6667607 1.7611552 1.3040365 1.8592731
000230 07 70 cc 3f 7f a7 bb 3f e0 48 44 3e 21 60 56 3e
       1.5971688 1.4660491 0.19168425 0.20935108
000240 56 c0 bf 3f d1 0f c0 3f 33 42 b7 3f 45 b7 93 3e
       1.4980571 1.5004827 1.4317077 0.2885076
000250 1c 36 06 40 df ca cd 3f e6 65 24 40 fd 2a b0 3f
       2.0970526 1.6077536 2.5687194 1.3763119
000260 f0 85 aa 3f 01 85 b7 3f f1 b7 d9 3f 05 b4 bd 3f
       1.3322124 1.4337465 1.700926 1.4820563
000270 bc 56 cf 3f 2b d6 da 3f 8f 29 31 3e 54 26 42 40
       1.6198344 1.7096609 0.1730101 3.0335894
000280 69 9f 56 3f f1 2a 5c 3e 77 f2 be 3f 1d e7 b1 3f
       0.8383699 0.21500756 1.4917744 1.3898655
000290 67 9d cc 3f 90 f3 c5 3f aa 49 b9 3f 24 3c 8e 3e
       1.5985535 1.5464954 1.4475605 0.2778026
0002a0 1a d3 db 3f 05 3c b9 3f ec dd c1 3f ad 43 da 3f
       1.7173798 1.4471442 1.514585 1.7051903
0002b0 2e 54 80 3f d9 b2 5f 3e 04 11 84 3e 86 39 a9 3e
       1.002569 0.21845569 0.25794232 0.330517
0002c0 a5 9c 19 3e c2 bb c9 3f 12 50 cf 3f c5 4e a8 3f
       0.15001161 1.5760424 1.619631 1.3149039
0002d0 f3 32 b2 3f 93 52 ba 3f 9f 19 a2 3f b8 3e be 3f
       1.3921798 1.455645 1.2664069 1.486289
0002e0 ee 3b d6 3f 5c 6b 86 3e b5 ca 01 40 f8 45 48 3e
       1.6737039 0.26253784 2.0279973 0.19557941
0002f0 76 93 80 3e ab a7 ad 3f c0 1d c9 3f f5 db d2 3f
       0.25112504 1.3566793 1.5712204 1.6473376
000300 ef db cb 3f 3e 17 80 3e 85 e8 90 3e 2a 06 be 3f
       1.5926493 0.25017732 0.28302398 1.4845631
000310 e0 da 4d 3e 82 a7 6d 3e 2b 22 b6 3f c5 91 93 3e
       0.20103025 0.2320843 1.4229177 0.2882215
000320 30 d0 b4 3f 52 58 b8 3f 20 0e c6 3f 46 8d b4 3f
       1.4126034 1.4401953 1.5473061 1.4105613
000330 8e ee a5 3e 18 58 b9 3f ea 6f c4 3f d5 63 ca 3f
       0.32408565 1.4480009 1.5346653 1.5811716
000340 d4 c2 89 3e 2d 73 1f 3e 25 f4 cf 3f 30 c9 d7 3f
       0.26906455 0.1557128 1.6246382 1.6858273
000350 db 1a b3 3f de 2c c6 3f f5 35 e4 3f 2c 21 d1 3f
       1.3992571 1.5482442 1.7828966 1.6338248
000360 c0 bb f6 3f 69 14 09 40 c3 1a 79 3e dc 6c 0b 40
       1.9276047 2.1418707 0.24326615 2.1785192
000370 75 9e bf 3f 82 58 d1 3f 31 9b cf 3f 6b f6 f4 3f
       1.4970232 1.6355135 1.6219236 1.9137701
000380 37 29 fc 3f 2c 1e c7 3f 47 72 9c 3f 66 c3 d0 3f
       1.9700078 1.5556083 1.2222375 1.6309631
000390 2d e5 ca 3f 18 b7 b4 3f 7d 03 cf 3f 71 c0 c6 3f
       1.5851189 1.4118376 1.617294 1.5527478
0003a0 31 e9 bc 3f e2 e8 6c 3e 35 25 90 3e 28 f4 4b 3e
       1.4758664 0.23135713 0.28153387 0.19917357
0003b0 a2 70 c6 3f cd 9e 12 3e cc b8 bb 3f 7e 52 dd 3f
       1.5503123 0.1431839 1.466577 1.72908
0003c0 1d 7c a9 3f 2e a1 b7 3f a7 44 b5 3f 9a 64 bb 3f
       1.3241001 1.4346063 1.4161576 1.4640076
0003d0 e9 53 06 40 be 23 80 3e a1 91 d0 3f 97 c2 b5 3f
       2.0988715 0.2502727 1.6294442 1.4200009
0003e0 a2 b0 b3 3f c4 c6 86 3e ab cc de 3f 6f fd f5 3f
       1.4038279 0.2632352 1.740621 1.9217967
0003f0 c8 cd d3 3f 8e 45 e6 3f 2a 2e 6c 3e 58 bd b9 3f
       1.6547174 1.7989976 0.23064485 1.4510908
