weights/model_critic_110.pt (torch, 431175 bytes, 9 tensors)

l1.weight f4 [300, 42]
000000 4f 02 43 be 51 7f 3d 3f b7 13 5f 3c 50 53 ee bf
       -0.1904385 0.74022394 0.01361554 -1.8619175
000010 fe ab 13 3e 40 50 f6 3f f7 c0 82 3f 00 07 0c 3e
       0.14421079 1.924324 1.0215138 0.13674545
000020 bd df f8 be b3 5f 19 3e 25 31 23 3f 5f ae 2c be
       -0.486082 0.14977913 0.63746864 -0.16863392
000030 1d c8 8f be 19 d0 ca be 6b 1a 65 40 a9 11 f1 bf
       -0.28082362 -0.3961189 3.5797374 -1.8833514
000040 fd 1b a8 be fa 54 46 40 2c 11 45 be e9 2f 0c 3d
       -0.32833853 3.0989366 -0.19244832 0.03422538
000050 06 38 41 be 2b ca 5d 40 3c fa 4d c0 9f ff 15 3e
       -0.18869027 3.4654644 -3.218398 0.14648293
000060 78 e3 b6 3e b8 94 1b c0 c0 c4 a7 3f d3 71 65 bf
       0.3572042 -2.430952 1.3106918 -0.89626807
000070 fa b4 10 c0 85 8a 16 c0 1a e7 4e bf 2b a0 61 3f
       -2.261046 -2.3522046 -0.80821383 0.8813502
000080 fd 78 83 c0 64 1d 3c c0 29 76 bb 3e 1c f7 21 40
       -4.108519 -2.9392939 0.36613587 2.5307074
000090 a1 fd a4 bf aa 5d 9d bf 37 c2 b2 bf f8 90 c7 40
       -1.2889901 -1.2294209 -1.396552 6.2364464
0000a0 ed 6a 4f c0 03 d9 24 c0 30 36 ba 3e fc 69 5f 3e
       -3.2409012 -2.5757453 0.36369467 0.21817774
0000b0 89 d4 a4 3e d6 d3 62 3f 03 b1 49 3e ff 58 92 be
       0.321934 0.88604486 0.19696431 -0.28583524
0000c0 d7 7d f1 bc e9 56 54 bf b3 f2 04 be 0f fa 70 bf
       -0.02947895 -0.82945114 -0.12983207 -0.9413156
0000d0 5c e2 6f 3e 53 59 36 3f 74 24 d7 3e cc ef bc be
       0.23426193 0.7123005 0.4202 -0.369017
0000e0 bc de 04 40 b7 63 8a 3e ff 42 85 bf 3e 72 88 3f
       2.0760946 0.270292 -1.041107 1.0659864
0000f0 0a a0 b1 bf 75 62 1e be 1c bf 0d be 1f 9a fe 3f
       -1.3876965 -0.15467246 -0.13842434 1.9890784
000100 bc e1 cc bf 9e 9d 41 3e 05 ba 71 3e 88 24 34 bf
       -1.6006389 0.18907782 0.23606117 -0.7036824
000110 53 17 4b be be 8d 85 3f 3d f9 43 bf d3 dc 25 40
       -0.19833116 1.0433881 -0.7655218 2.591603
000120 8a 92 a9 bf 8c b9 27 bd 58 e6 08 41 9f aa ac bf
       -1.3247845 -0.040948436 8.556236 -1.348957
000130 74 f8 64 3e bf 1b 9c c0 9b cb 93 40 06 a1 eb 3f
       0.22360402 -4.878387 4.618604 1.8408515
000140 ce 61 39 3f 68 b8 3c 3d a5 26 cf bf 16 e3 2e 3e
       0.72414863 0.0460743 -1.6183668 0.17078814
000150 23 f2 03 3f 7f e3 d6 3d 4f 21 b1 3e 35 66 19 3f
       0.51541346 0.1049261 0.34595725 0.5992158
000160 ba 2c b6 3e f5 5a df 3e 4e 0e c7 3e cf 11 cf be
       0.35581 0.43624082 0.388781 -0.40443274
000170 bf 13 85 3e 78 1f 86 bf ee bc eb 3e b4 b5 10 bf
       0.25991628 -1.0478354 0.4604258 -0.56527257
000180 2d 8c 5e 3e c0 66 2a bf 90 dc 0c bf 0c 91 dc 3e
       0.2173316 -0.66563034 -0.5502405 0.43079412
000190 fb c4 0a bf 69 23 ae bf c7 fb b7 3f d1 58 f4 bd
       -0.5420682 -1.3604556 1.4373711 -0.11931003
0001a0 de e5 d8 3e 2d 3c d0 3e fa 90 01 bf 16 98 b9 3e
       0.42362875 0.4067091 -0.5061184 0.36248845
0001b0 e2 1f cc 3e 9c 00 7c bf f6 a9 29 3e bf b7 05 c0
       0.39868075 -0.9843843 0.16568741 -2.08934
0001c0 3d 79 53 3f bb 99 02 c0 b0 0e 58 be e3 8e 8c bd
       0.8260687 -2.040633 -0.21099353 -0.06863191
0001d0 c5 c7 ba c0 5e 5d 5e 40 94 e4 05 3f ee 38 21 40
       -5.836886 3.4744487 0.5230191 2.5190997
0001e0 2e a2 db 3d 64 e6 01 bf be 73 b0 3d b4 a0 ef 3f
       0.10724293 -0.50742173 0.08615826 1.8720918
0001f0 65 cf 4b bf 3a 9a 88 bf 10 01 11 3f 0c ea 77 3d
       -0.79613334 -1.0672066 0.56642246 0.06052594
000200 d9 de 9c 3e c7 a0 b4 3e 6f 78 d6 3e f0 89 d7 3e
       0.3063877 0.35278913 0.4188876 0.42097425
000210 e4 d7 c5 3e c8 d8 cd be 6a 7c 22 3e f3 0b 92 bf
       0.38641274 -0.40204453 0.15867773 -1.1409897
000220 18 00 ef 3e e9 ea a0 be fe 40 6d 3e e4 e4 32 bf
       0.4667976 -0.31429222 0.23169324 -0.6988051
000230 92 d1 de be 7a 54 75 3e bf 8f 42 bf 88 2f bd bf
       -0.43519264 0.23958007 -0.7600059 -1.478013
000240 dc 78 bb 3f 36 42 61 bd 69 ba de 3e 1c aa 16 3d
       1.4646258 -0.054994784 0.43501595 0.036783323
000250 5b 32 1a be 81 17 c6 3e bb ce d0 3e 9f 11 71 bf
       -0.15058272 0.38689807 0.40782723 -0.9416751
000260 88 e3 79 3e df 69 03 c0 64 1b 3f 3f 4a 58 00 c0
       0.24403203 -2.0533369 0.7465117 -2.0053887
000270 d2 0d 1b be dc 30 83 b9 07 53 bf c0 7e 6e 61 40
       -0.15141991 -0.0002502267 -5.978885 3.522369
000280 6a 0b fa 3e 40 a9 1f 40 11 db 30 3e e3 7b 06 bf
       0.48836833 2.4947052 0.17271067 -0.52532786
000290 cc 59 fd 3c 3f 38 a8 3f 8d 75 99 be 92 41 2c bf
       0.030926608 1.3142165 -0.29972497 -0.6728755
0002a0 68 7f 89 3e d0 3c 01 3f 05 3a d4 3e 2b 6d 86 3f
       0.26855016 0.5048342 0.41450515 1.0502065
0002b0 83 19 6e 3e f1 74 cf be 8e 2f 3f 3f 14 73 62 3e
       0.2325192 -0.40518907 0.7468194 0.22114211
0002c0 28 5b cc 3e 55 55 e4 be 8e 22 81 3e 30 3b 2d 3e
       0.39913297 -0.44596353 0.25221676 0.1691711
0002d0 33 73 06 3d 49 09 aa be 20 2c 03 3f 96 b8 b9 be
       0.032824706 -0.3321021 0.51239204 -0.3627364
0002e0 8a c9 dc 3f 2e fb a6 bf d0 b3 9f 3f 51 02 69 3e
       1.7249005 -1.3045404 1.247675 0.2275479
0002f0 fd f7 c0 bf e4 02 fc 3e 55 49 f6 3e dd 69 f8 3c
       -1.507568 0.49220955 0.48102823 0.030323917
000300 e5 6e 26 3e be f1 90 3e 8e 6d fd 3e d7 9e 99 bf
       0.1625324 0.28309435 0.49497646 -1.2001599
000310 81 f6 8f bf 47 ff 1e c0 ea 9c bc bf 4a 4b 34 bf
       -1.1247102 -2.484331 -1.4735386 -0.7042738
000320 91 72 6c bf 53 e4 d9 c0 f8 7e 12 3e 1e 52 2a bf
       -0.92362314 -6.8091216 0.14306247 -0.6653155
000330 71 f7 63 c0 4a be 50 3f 48 3a 04 c0 5c d7 42 3e
       -3.5619776 0.8154036 -2.0660572 0.19027466
000340 88 c4 92 40 94 32 c9 bf fc 8a 19 3f 0a 18 20 be
       4.5864906 -1.571856 0.599777 -0.1563417
000350 e5 54 c6 3e c9 92 ab be 2e 09 fd 3e 38 b1 e1 3e
       0.38736644 -0.33510426 0.49421066 0.4408052
000360 47 6d e5 3d 91 c1 d9 bb 22 be 2e be 00 d8 b7 bf
       0.112024836 -0.0066453894 -0.17064717 -1.4362793
000370 1e ba fe 3e be 51 64 3e 1b ed 9e 3e 54 c5 40 bf
       0.4975137 0.22296807 0.31040272 -0.753011
000380 25 03 ad be ac ee b5 be 7d b6 d6 bf e5 e8 d1 bf
       -0.33791462 -0.35533655 -1.6774441 -1.6399199
000390 2f 55 cd 3f ad 3a e1 3d 26 7b 03 3e aa 5f af bf
       1.6041621 0.1099752 0.12839946 -1.3701069
0003a0 3b a7 69 3f 63 29 04 3f ca 41 f9 3e a9 f1 3b bf
       0.912708 0.5162565 0.48683006 -0.7341562
0003b0 96 ee 98 3e 0c f0 05 c0 f4 fe 0b 3f bd 0b d2 bf
       0.29869527 -2.0927763 0.546859 -1.6409832
0003c0 4f da d8 3c 49 7a e3 bd b9 80 c5 c0 ed b7 49 40
       0.026471285 -0.111073084 -6.171963 3.151851
0003d0 75 3c fb 3e d1 79 1a 40 e0 26 a0 3e 98 ba 21 bf
       0.49069563 2.413685 0.3127966 -0.63175344
0003e0 ff 20 2f be 8c b9 a5 be 11 0b 97 3f fc 19 21 3f
       -0.17102431 -0.32368124 1.1800252 0.62930274
0003f0 0e 3b 71 3e 0d 38 39 3f 9f 0b ca 3d 22 4d 14 3f
       0.23557684 0.7235115 0.09865498 0.57930195

l1.bias f4 [300]
000000 b1 1e b4 3e 47 51 65 3b 9a 2d 9b 3e 00 ad a3 3e
       0.35179666 0.0034991072 0.3030823 0.31967926
000010 a2 71 ba 3d 5c 6a d8 3e 3a 70 3f bd 68 72 bc 3e
       0.09103705 0.42268646 -0.046737887 0.36806035
000020 47 81 e8 3e 1c 11 bf 3e a7 71 fe 3d e1 45 87 3d
       0.4541113 0.3731774 0.12424021 0.06605125
000030 2f d9 50 3d 31 d4 12 3f f7 41 e0 bc 18 4f 8a bd
       0.050988372 0.5735503 -0.027375204 -0.06753367
000040 49 b7 13 3f d0 cf cf 3c 0b 2e df bc 30 06 98 3d
       0.57701546 0.025367647 -0.027243635 0.07423055
000050 66 37 88 3d 70 72 a4 3e f1 49 0d 3d 54 b1 86 3e
       0.066511914 0.3211856 0.034494344 0.26307166
000060 02 30 83 3d 19 7a c2 3e 90 94 89 3e d3 24 f3 bd
       0.06405641 0.37983778 0.26871157 -0.11872258
000070 1e b3 51 3d a4 29 9b 3d 95 c8 01 3e a6 ad 99 3e
       0.05119621 0.07576302 0.12674172 0.30015296
000080 29 88 2f 3e e3 7f 4f 3e 04 7a 7f bd 5e ee c2 3d
       0.17141785 0.20263629 -0.062372223 0.09518121
000090 65 70 bc 3d dd df b5 3e 93 f8 fc 3e 32 49 1e 3e
       0.09201125 0.35522357 0.49408397 0.1545761
0000a0 b2 d5 6b 3e 7b 23 17 3e 5a ac 19 3e fc f0 42 bd
       0.23030737 0.14759628 0.15007153 -0.0475931
0000b0 fe 7b 9a 3e a4 88 eb 3e 69 4d e3 3e f2 0f b1 3e
       0.30172724 0.46002686 0.44394997 0.34582478
0000c0 e8 62 ce 3e b4 5e 97 3e f9 b2 82 3d 4f 7c e1 3e
       0.40309834 0.2956444 0.063817926 0.44040152
0000d0 cd 61 7b 3e a1 4f 3c 3d d8 10 00 3f 0c f9 ef 3e
       0.24549027 0.045974378 0.500257 0.46869695
0000e0 c6 1d a3 3e 15 7b a4 3d 95 34 e8 3d c5 3f 54 3e
       0.31858653 0.080312885 0.11338154 0.20727451
0000f0 94 3d 1c 3e 78 05 91 3d 70 b5 ac 3e be 37 b9 bb
       0.15257865 0.07081121 0.33732176 -0.005652397
000100 96 52 b5 3d 26 95 c1 3d ef 90 e0 3e b5 67 00 3e
       0.08853643 0.09452276 0.43860576 0.12539561
000110 0c e6 ea 3e c4 ad 5b 3e e2 ab be 3e 6f e9 f1 3e
       0.45878637 0.21453005 0.3724051 0.47248408
000120 56 13 0e 3e 8a 7d 26 3e 2d 19 c5 3e 94 d3 33 3e
       0.13874564 0.16258827 0.3849577 0.1756118
000130 e9 43 c1 3e 9e 9b b3 3e 73 9f af 3e f2 29 20 3e
       0.37747124 0.35079664 0.34301338 0.15641001
000140 ff 7e e5 3e 16 e6 0c 3f b8 97 19 3e 61 cf b6 3e
       0.44823453 0.55038583 0.14999282 0.35705093
000150 6c 02 a0 3e 00 52 4b 3d 54 a8 b7 3e 91 ff 8a 3e
       0.31251848 0.04963875 0.35870612 0.27148107
000160 74 d8 68 3e 05 e2 98 3e 58 98 1f 3f 12 29 49 3e
       0.2273882 0.2985994 0.62341833 0.19644573
000170 f8 05 1f 3e 3a 4e 8c 3e 24 57 f6 3e 98 9f ff 3d
       0.1552962 0.27403432 0.48113358 0.12481612
000180 e9 0c 72 3e 94 3c 2f 3e 7c 3a d2 3e 32 a2 da 3e
       0.23637737 0.17112952 0.41060245 0.4270187
000190 c9 bd a8 3e f9 60 c6 3e 3a e7 bc bd df 9f 2f 3e
       0.32957295 0.3874586 -0.092237905 0.1715083
0001a0 8b 71 b0 3d d8 39 d3 3e 32 80 78 3e 9d 47 b4 3e
       0.086154066 0.4125507 0.24267653 0.35210887
0001b0 f5 b0 6e 3e 0e 57 94 3e eb ff a5 3e 24 fc ad 3e
       0.23309691 0.28972667 0.32421812 0.3398143
0001c0 ac 58 96 3d d4 f9 e6 3e f1 e5 8b 3e 7f f2 c3 3e
       0.073411316 0.4511248 0.2732387 0.38270947
0001d0 a3 94 4d 3e fd df 6c 3e c4 67 9f 3e 61 60 1b 3f
       0.20076232 0.2313232 0.31133854 0.6069394
0001e0 1d a4 90 3e 53 b3 bd 3e 93 24 db 3e 96 b9 d8 3e
       0.28250208 0.37050876 0.4280134 0.4232909
0001f0 d8 d7 a2 3e 37 f7 a2 3c f1 ac 40 3c f1 87 1f 3e
       0.318053 0.019893272 0.011759982 0.15579201
000200 2c 8f a7 3e 97 17 c0 3e 14 bd 9a 3e 74 35 88 3c
       0.3272642 0.37517998 0.3022238 0.016627051
000210 dc 45 cd 3e f3 a0 a3 3e 1d be ee 3e cb eb 3f 3f
       0.4009236 0.31958732 0.4662942 0.74969167
000220 5a 12 c7 3e cd bc e5 3e f9 8d b3 3e 24 24 84 3e
       0.3888119 0.44870606 0.35069254 0.25808823
000230 53 8b 73 3e 8a 19 c3 3e 30 71 ad 3e cb 04 e8 3d
       0.23783617 0.38105422 0.33875418 0.11329039
000240 e6 48 97 3e a7 71 b4 3e 77 2e af bd 71 0b 53 3f
       0.29547805 0.3524296 -0.08553784 0.82439333
000250 7a 4b f7 3e 4e 35 87 3e 7e 4b ad 3e 68 fe 16 3d
       0.48299772 0.26407856 0.33846658 0.036863714
000260 78 17 a7 3e 00 f3 3f 3e 09 88 b7 3e 0a f0 c7 3e
       0.32635093 0.18745041 0.35845974 0.39050323
000270 9a 7e c6 3e ae ff b2 3e bc f0 90 3d 43 22 92 3e
       0.38768464 0.34960693 0.070771664 0.28541765
000280 52 7c 72 3e 07 b5 d8 3e 71 cd a5 3e 27 51 9b 3e
       0.23680237 0.42325613 0.32383302 0.30335352
000290 bf 28 2c 3e 47 94 d7 3e 93 ee 83 3d c6 1e 90 3e
       0.16812418 0.42105314 0.06441989 0.28148478
0002a0 9b 91 e1 3b 7b 2f f2 bd 12 c9 20 be a2 ee e3 3d
       0.0068838126 -0.118254624 -0.15701702 0.111295
0002b0 26 d2 c5 3e 0a f0 f6 3e 90 cc 56 3e 72 4c a3 3e
       0.38636893 0.4823001 0.20976472 0.3189426
0002c0 ea d6 bc 3e a3 8b c9 3e 7f 48 aa 3e 5c 52 c2 3e
       0.36882716 0.39364347 0.33258435 0.3795346
0002d0 36 0d 6a 3e 0b 88 a4 3e 28 b7 1c 3e ab cd c8 3e
       0.22856602 0.32135043 0.15304244 0.39219412
0002e0 fb 1a cf 3e f2 96 ef 3e a2 23 7a 3e ec f3 d8 3e
       0.40450272 0.4679485 0.24427655 0.42373598
0002f0 2c 4d fb 3e 1b 09 a0 3e 31 ca 9e 3e 45 28 e2 3d
       0.49082315 0.31256947 0.31013635 0.11042837
000300 1a 81 23 3e 55 69 dd 3e 24 29 2d 3c 60 e9 07 3d
       0.15967217 0.43244424 0.010568891 0.033181548
000310 23 1f d9 3e 1a ee 03 3d 5e 93 87 3e 8d e1 67 bc
       0.42406568 0.032209493 0.2647962 -0.014152897
000320 f2 74 a7 3e d3 08 32 bc 4c 44 b2 3d cc 10 69 3e
       0.3270641 -0.010866362 0.08704433 0.22760314
000330 d3 97 92 3e 3f fd c1 3e 6a 80 12 3e b6 49 12 3e
       0.28631458 0.37888524 0.14306799 0.14285931
000340 e8 dc c8 3e 7b 16 b3 3e 9a 8c f0 3d 5d fa aa 3d
       0.39231038 0.3497809 0.117455676 0.08348534
000350 a9 86 bf 3e a2 8b 50 3e e8 77 91 3e 62 87 0f 3f
       0.37407425 0.20365766 0.28411794 0.5606595
000360 fa 59 e2 3e 0e 59 c4 3e 8a b8 ae 3e a0 67 9c 3e
       0.44209272 0.38349193 0.34125167 0.3054781
000370 09 99 a2 3e d3 ab 07 3e 5e 3d 0f 3e 82 70 76 be
       0.31757382 0.1324914 0.13988253 -0.24066356
000380 66 c2 a3 3e 6e 97 2e 3d 4a 50 68 3c 07 da a3 3e
       0.31984252 0.042624883 0.014179299 0.3200228
000390 cd d8 30 3e 43 b9 c1 3d f3 24 8d 3e 47 b7 9c 3e
       0.17270203 0.09459164 0.27567253 0.3060858
0003a0 a9 3e a3 bd 61 9c 77 3e 97 7e 11 3e 8b b5 b5 3e
       -0.07970936 0.24180748 0.14208446 0.3549007
0003b0 f5 e0 92 3d 33 c0 99 3e 67 cc 01 3f 9f a4 d6 3e
       0.071718134 0.3002945 0.5070252 0.4192247
0003c0 b0 fc c8 3e 7c df a2 3e 7a 85 b0 3e cc 99 c1 3e
       0.39255285 0.3181113 0.34476835 0.3781265
0003d0 59 a2 01 3e e9 46 7f bd 5e 2f fa 3e 4a 78 6c 3e
       0.12659587 -0.062323485 0.48864263 0.23092762
0003e0 12 90 a3 b8 c7 ce 10 3d 81 b3 85 3e 60 2f 2d 3c
       -7.799281e-05 0.03535345 0.26113513 0.010570377
0003f0 78 74 0a 3e 8f e6 1e 3e 8c 7e 30 3d d6 6a 9f 3e
       0.13520992 0.15517639 0.043089435 0.31136197

bn1.weight f4 [300]
000000 08 be ac 3f 80 a8 da 3f 58 bf c0 3e e7 78 c4 3e
       1.3495493 1.7082672 0.37645984 0.3837349
000010 f1 86 ea 3f d3 3a 85 3e 22 33 1d 40 19 f6 b0 3e
       1.8322431 0.26021442 2.456246 0.34562758
000020 b2 7e 49 3e c3 a6 ac 3e 85 01 44 40 cf 60 2c 40
       0.19677237 0.3372098 3.0625927 2.6934087
000030 a0 fd e2 3f a7 2a 1a 40 42 58 fa 3f e2 33 de 3f
       1.773365 2.4088533 1.9558184 1.7359583
000040 71 95 5b 40 c3 c0 a1 3f 81 d8 fc 3f 57 02 0c 40
       3.4309962 1.2636951 1.9753572 2.1876428
000050 19 a0 1e 40 d8 a7 0d 40 20 21 c2 3f 11 83 cb 3f
       2.4785216 2.2133694 1.5166359 1.5899373
000060 fe 61 2b 40 b8 43 33 40 d2 3c ce 3f ef b7 e1 3f
       2.677856 2.8010082 1.6112311 1.7634257
000070 7c d5 f1 3f 1f 4b 0b 40 3a 8e 2f 40 d1 45 bd 3e
       1.8893275 2.17646 2.7430558 0.36967328
000080 b6 c8 cf 3f d7 00 b8 3f 17 c8 a4 3f e6 d4 db 3f
       1.6233127 1.4375256 1.2873563 1.7174346
000090 6e 6d 0b 40 1e 61 9e 3e f0 55 11 40 a2 46 18 40
       2.178554 0.3093347 2.2708702 2.379311
0000a0 a6 75 2f 40 f8 1d f9 3f 36 62 aa 3f 18 8e 06 40
       2.7415557 1.9462271 1.3311222 2.1024227
0000b0 27 32 c2 3f e7 ff 19 40 cd f6 b0 3e 13 81 b1 3e
       1.5171555 2.406244 0.34563294 0.34668788
0000c0 11 44 39 40 88 43 84 3e 7b 18 b5 3f be e4 74 40
       2.8947794 0.25832772 1.4148096 3.8264613
0000d0 11 72 4f 40 9d 60 24 40 f7 ea c8 3f e1 3e ff 3f
       3.241337 2.5683968 1.5696706 1.9941064
0000e0 af b8 96 3e c1 c5 ce 3f 48 63 cd 3f 5a 4c 3b 40
       0.29437777 1.61541 1.6045923 2.9265351
0000f0 b0 23 d8 3f cb 1f c5 3f 19 d8 ad 3e b3 c6 aa 3f
       1.6885891 1.5400327 0.33953932 1.3341888
000100 72 8c ab 3f 8e ea 8e 3f 9f fc 71 3e 42 5b 50 3f
       1.3402236 1.116533 0.23631524 0.8138925
000110 53 35 01 40 c1 1f 49 3f a6 7b 2b 40 95 ab 97 3e
       2.0188797 0.7856408 2.679422 0.29623094
000120 ee 71 e5 3f ed dd 19 40 6f a0 be 3e 65 97 3a 40
       1.7925394 2.4041703 0.37231776 2.9154904
000130 00 23 0a 40 1a c0 20 40 a4 90 a9 3e 4b d4 01 40
       2.1583862 2.511725 0.33118165 2.0285823
000140 6c c2 d2 3f b4 01 f7 3f 45 85 48 40 dd 99 9e 3e
       1.6465583 1.9297395 3.1331341 0.30976763
000150 b5 13 1e 3e ed d2 fd 3f 93 24 b8 3e 15 d3 a1 3e
       0.15437205 1.9829994 0.35965404 0.31606355
000160 2f e4 29 40 de a5 b2 3e 7e d0 8b 40 36 cd b1 3f
       2.6545522 0.34892172 4.3692007 1.389075
000170 26 95 43 3f 47 d7 ff 3f 04 96 36 40 9a f0 9f 40
       0.7639946 1.9987572 2.8529062 4.9981203
000180 df b3 00 40 60 3e 41 40 d4 53 86 3e 6a 05 b1 3e
       2.0109785 3.019432 0.2623583 0.34574443
000190 c8 0e 3a 40 3f 06 38 40 7d 40 1f 40 b9 64 dc 3f
       2.9071522 2.8753812 2.488311 1.7218238
0001a0 bf cf ab 3f 60 1f 1f 40 d2 37 be 3f cd a7 98 3e
       1.3422774 2.48629 1.4860785 0.29815522
0001b0 61 3a 02 40 7b 7b bb 3e 1f 76 87 3f c4 00 a0 3e
       2.0348132 0.36617646 1.0582923 0.31250584
0001c0 fb f4 3e 40 d4 7d 4f 3e f8 cc 16 40 90 ba aa 3e
       2.9837024 0.20262843 2.3562603 0.3334546
0001d0 8f d8 d3 3f 84 7d 1b 40 d7 32 c2 3f ee 93 4d 40
       1.6550463 2.4295359 1.5171765 3.212154
0001e0 24 f2 00 40 d9 0c 8f 3e 1b 67 14 40 f9 c6 8b 3e
       2.014779 0.2793949 2.318793 0.27300242
0001f0 b7 0b b0 3e ae 76 aa 3f c2 90 9f 3f d2 50 0f 40
       0.34383938 1.3317468 1.2466052 2.2393079
000200 17 a6 9f 3e ab a4 a9 3e ab 95 24 40 35 8f ca 3f
       0.31181404 0.33133444 2.571635 1.5824953
000210 e4 c9 9e 3e cc 2c b5 3e cd 6e 6d 3e 4d f5 0d 40
       0.31013405 0.3538574 0.23186798 2.218097
000220 88 0f b2 3f eb 73 e4 3f c2 04 9b 3e 86 fd 08 40
       1.391099 1.7847875 0.30277067 2.1404738
000230 5f 09 63 40 cd 6e a2 3e 95 64 e5 3f 21 aa 8d 3f
       3.547447 0.3172516 1.792132 1.1067544
000240 8e 98 cd 3f 5e 29 16 40 a9 83 91 3f 1b 05 70 40
       1.6062181 2.3462749 1.1368304 3.7503116
000250 85 8a 37 40 98 2a a8 3f 34 86 98 3e e5 14 a9 3f
       2.8678296 1.3137999 0.2978989 1.3209502
000260 c3 ff 9d 3f 4c 9f 5b 40 68 2e 21 40 2b 38 ae 3e
       1.2343677 3.4315977 2.5184574 0.34027228
000270 e4 91 b9 3f 26 e2 b4 3e d8 69 40 40 8f d6 44 3f
       1.4497647 0.35328788 3.0064602 0.7688989
000280 49 b6 ca 3f a3 3f d1 3f f5 c5 b4 3f 17 6a b3 3e
       1.5836879 1.6347545 1.4122912 0.35041878
000290 61 8b 6c 40 26 91 94 3e 02 69 0f 40 25 a5 9c 3e
       3.696007 0.2901699 2.2407842 0.30594745
0002a0 ec 83 c9 3f 8a e9 df 3f cf 3d ff 3f 3a d0 40 40
       1.5743384 1.7493145 1.9940737 3.0127091
0002b0 70 c7 4a 40 42 0a 18 40 c0 d7 0d 40 50 a8 86 3e
       3.1684227 2.375626 2.2162933 0.26300287
0002c0 9d cf 80 3f 85 37 0c 40 14 10 1f 40 04 e0 15 40
       1.0063359 2.1908886 2.4853563 2.3417978
0002d0 52 3e dc 3f 7c ea ae 3f 47 de 22 40 37 91 91 3f
       1.7206519 1.3665309 2.5448167 1.1372441
0002e0 ac 0a 88 3e 21 a7 83 3e 0c 94 46 3f 21 f2 57 3e
       0.26570642 0.25713447 0.7756965 0.21088459
0002f0 d4 f5 ad 3e 59 d5 be 3f 50 5c 9b 3f cc 84 c8 3f
       0.33976614 1.4908859 1.2137547 1.5665526
000300 38 78 d9 3f 48 38 b5 3e 36 d2 db 3f 94 3c 1e 40
       1.6989813 0.35394502 1.7173526 2.4724474
000310 b3 cc 86 40 59 51 0f 40 2a 4f a5 3e c7 34 c8 3f
       4.2124877 2.23934 0.3228696 1.5641106
000320 0c ca a7 3e c9 78 44 40 48 69 fd 3f 78 0c 32 40
       0.32771337 3.0698721 1.9797754 2.782011
000330 3d fc 91 3e 73 32 61 3e 5d 65 bf 3f 71 60 14 40
       0.28512755 0.21991901 1.4952809 2.3183863
000340 7c 30 fc 3f 34 fa 8a 3e 15 2b f7 3f b6 9a f3 3f
       1.9702296 0.27144015 1.9310023 1.9031589
000350 51 bd ae 3e 4d 87 e3 3f 50 c6 d4 3f 2a e7 b9 3e
       0.34128812 1.7775666 1.662302 0.36309177
000360 7e 92 55 3f 59 76 0d 40 90 3d 9b 3e 33 87 15 40
       0.83426654 2.2103484 0.30320406 2.336377
000370 74 b1 16 40 9b 7b b9 3f cc fe 3b 40 2d 68 e6 3f
       2.3545809 1.4490846 2.9374266 1.8000542
000380 fe 1a 0e 40 94 74 00 40 df 6c 36 40 6d 91 ad 3e
       2.2203975 2.0071154 2.850395 0.33900014
000390 be ef 3b 40 24 95 06 40 82 4d 2c 40 cf 23 af 3e
       2.9365077 2.1028528 2.6922307 0.34207007
0003a0 8a ca 0a 40 eb 51 48 40 db 1f 4b 40 2d 71 f3 3f
       2.168612 3.1299999 3.1738193 1.9018914
0003b0 18 12 e0 3f 71 46 88 3f 84 6e 9f 3f 82 77 b9 3e
       1.7505522 1.0646497 1.2455602 0.3622399
0003c0 c9 a5 46 3e bb 5c a4 3e 18 02 c3 3e 60 72 2f 40
       0.1939918 0.32101998 0.38087535 2.741356
0003d0 89 31 a3 3f 6e ac 29 40 6f 9d 73 3f 70 31 f9 3f
       1.2749492 2.6511493 0.951621 1.9468212
0003e0 68 69 13 40 ef d2 f5 3f 2e 7c ee 3f 53 f2 e8 3f
       2.3033085 1.9204997 1.8631647 1.8198951
0003f0 93 f6 91 3f b6 67 55 40 92 a0 0a 40 28 f7 ca 3f
       1.1403373 3.334455 2.1660504 1.5856676

bn1.bias f4 [300]
000000 fc 8a 5f bf 1f 1d 90 be 10 01 27 bf 68 18 1f bf
       -0.8732145 -0.28147218 -0.65235996 -0.62146616
000010 39 29 57 be 49 fb 24 bf 0a e5 47 bf 29 90 1b bf
       -0.21011819 -0.6444593 -0.7808386 -0.60766846
000020 14 38 34 bf a9 90 30 bf c9 61 c1 be c0 4b 4b bf
       -0.7039807 -0.68970734 -0.37769917 -0.7941246
000030 48 03 88 bf 2c 3a 99 3c dc 95 94 be 3d 26 95 bf
       -1.0626001 0.018704496 -0.29020584 -1.1652294
000040 cb eb 25 3f 7e b2 a6 bf 36 78 5b bf a5 29 7b bf
       0.64812917 -1.3023221 -0.857303 -0.9811042
000050 e6 06 84 bf 7a a4 3b bf b3 9a bf bf 5c bf 62 bf
       -1.0314605 -0.73297846 -1.4969085 -0.8857324
000060 36 89 80 be 00 08 12 3f 33 c1 93 be 12 2a dc be
       -0.25104684 0.5704346 -0.28858337 -0.43000847
000070 7d 3c 32 bf 2e 18 32 bf 28 8d 47 be 02 01 1c bf
       -0.6962355 -0.69568145 -0.1948744 -0.6093904
000080 81 67 8f bf 8c cc 34 bf 70 db ae bf 9f 4c 36 bf
       -1.1203462 -0.70624614 -1.3660717 -0.71210665
000090 1a 24 09 bf c0 4b 25 bf d9 49 0a bf f9 5a af be
       -0.5357071 -0.6456871 -0.5401893 -0.34249094
0000a0 35 30 f4 bd 7d 7c 63 bf b1 6f 9b bd f7 de 96 bf
       -0.11923257 -0.8886183 -0.07589663 -1.1786793
0000b0 f0 ea ea 3d 89 79 6e bf 7a 77 14 bf e9 1c 17 bf
       0.11470592 -0.931542 -0.57994807 -0.5902849
0000c0 b9 45 38 3e bf d0 26 bf 61 17 b9 be 0d e6 34 3f
       0.17995347 -0.6516227 -0.3615065 0.7066353
0000d0 46 96 91 bf 7a cb fd bd f2 d1 e1 3d 2a fc 6a bf
       -1.1373985 -0.12392326 0.11026372 -0.9179102
0000e0 20 ad 2a bf de a9 25 bb c3 23 0c 3f 2b 8b 16 3f
       -0.6667042 -0.002527825 0.5474207 0.58806103
0000f0 de 3d 9d bf e5 9f 67 bf 95 44 1c bf 95 1f 56 bf
       -1.2284505 -0.90478355 -0.6104215 -0.8364194
000100 86 71 2a bf 14 3c e5 be 13 7f 28 bf 35 5f 43 bf
       -0.66579473 -0.44772398 -0.658189 -0.7631715
000110 d4 63 2c 3d 0e 4b 3e be 90 62 78 bf 61 a1 10 bf
       0.04208739 -0.18583319 -0.97025394 -0.56496245
000120 0f b0 c5 be b4 4f 30 bd 1b c6 1c bf f3 42 fd 3c
       -0.38610885 -0.04304476 -0.61239785 0.030915713
000130 1c 4f e6 be cc 1f 04 bf 41 99 24 bf 20 df 77 bd
       -0.4498223 -0.5161102 -0.64296347 -0.060515523
000140 74 2a d0 bf 84 c4 1c 3d 80 b5 5c bf 07 4d 21 bf
       -1.6262956 0.03827335 -0.8621445 -0.6300816
000150 4c 41 5d bf ba d0 45 bf fb 7d 24 bf 8f 04 1c bf
       -0.8642776 -0.77271616 -0.6425473 -0.60944456
000160 8b 17 c1 be 6e f9 17 bf 81 77 6f 3f 7e 79 3f bf
       -0.37713274 -0.59364974 0.93541723 -0.7479476
000170 f0 f0 16 bf 57 fb a4 be 43 22 ca 3d f5 0f 0d 3f
       -0.5896139 -0.32223007 0.09869816 0.55102473
000180 71 9f bf be e8 62 d5 bf 68 aa 1c bf a1 cf 0f bf
       -0.37426332 -1.6670809 -0.6119752 -0.5617619
000190 ca 1b 6a bf ae 25 24 3e 8b 86 09 bf 41 a5 9d bf
       -0.9144865 0.16029999 -0.5372092 -1.2316056
0001a0 48 f9 df be 2a 30 11 bf 65 01 9a bf 8c a6 26 bf
       -0.43744874 -0.5671412 -1.2031676 -0.6509788
0001b0 dc 86 b2 bf bc f0 1b bf 68 95 2f bf 13 95 17 bf
       -1.3947406 -0.60914207 -0.6858735 -0.59211844
0001c0 c2 82 31 bf 47 70 04 bf c7 a6 40 bf 89 5e 24 bf
       -0.69340146 -0.5173382 -0.7525448 -0.6420675
0001d0 4b 96 62 bf 57 87 5b be 2c d8 79 bf e2 b0 bc 3e
       -0.8851058 -0.21438347 -0.9759548 0.368537
0001e0 91 85 9e bf 6d a5 2c bf c8 11 5f 3d b8 70 3c bf
       -1.2384511 -0.6743992 0.054460317 -0.73609495
0001f0 e0 7f 1a bf e5 37 65 bf 60 21 b9 bf ae 4d 0e bf
       -0.6035137 -0.89538413 -1.446331 -0.5558728
000200 12 ca 1c bf 17 e1 28 bf 14 68 a0 3f a3 31 97 bf
       -0.61245835 -0.6596846 1.2531762 -1.1812023
000210 6f 66 23 bf 21 a0 14 bf f9 4a 3d bf 4f 83 03 3f
       -0.63828176 -0.5805684 -0.73942524 0.51372236
000220 f7 ff a4 3e 28 74 c7 bb 85 6c 2f bf 22 09 0e bf
       0.32226536 -0.006086845 -0.6852496 -0.55482686
000230 03 3c 0f bf f4 b8 13 bf 7d 22 00 bf 6d b6 ad bf
       -0.55950946 -0.5770409 -0.50052625 -1.3571297
000240 31 3a 16 be a7 5a 0f bf d3 d3 90 bf a7 8c c8 3f
       -0.14670636 -0.559977 -1.1314644 1.5667924
000250 15 f7 27 bf 8e 9e 6f be 96 0b 35 bf ee fe 0e bf
       -0.6561139 -0.23400328 -0.70720804 -0.5585774
000260 b3 ca f7 be 8c 11 45 bf 81 62 86 bf 75 af 15 bf
       -0.48396835 -0.769799 -1.0498811 -0.5847085
000270 ac 52 93 be 9f 4a 1e bf a5 03 72 bc 62 05 52 be
       -0.2877401 -0.6183261 -0.014771377 -0.20509866
000280 2f 71 c4 bd ff 36 b7 bf f3 7b c5 be 28 cc 14 bf
       -0.095919006 -1.4313658 -0.38571128 -0.5812402
000290 6f b6 87 be a9 1d 12 bf 24 12 a8 bf 42 f8 1e bf
       -0.26506373 -0.5707651 -1.3130536 -0.6209756
0002a0 45 15 b8 bf 86 bb 21 bf ca 15 56 bf f2 c4 10 bf
       -1.4381491 -0.63176763 -0.83627 -0.56550515
0002b0 a4 d2 1d 3f 44 a1 ef be 6e 9f 8a be 43 22 12 bf
       0.6164954 -0.46802723 -0.2707476 -0.5708353
0002c0 83 f4 20 bf a7 e7 f4 bc fd 79 f8 bd 53 a9 47 be
       -0.62873095 -0.029895617 -0.121326424 -0.19498186
0002d0 4e a0 04 bf e6 35 16 bf 46 df 44 be 25 10 10 3f
       -0.51807106 -0.5867599 -0.19225797 0.56274635
0002e0 f9 aa 2d bf 55 3d 38 bf bb 6b f4 3d 96 be 2d bf
       -0.6783901 -0.71968585 0.119346105 -0.67868936
0002f0 7e 7e 1b bf e3 0d 19 be 91 6a d4 3e 3b a5 c5 be
       -0.60739887 -0.14946704 0.41487554 -0.38602623
000300 75 8e 40 bf 85 3d 15 bf 88 2c 76 be 01 a4 0b bd
       -0.7521737 -0.58296996 -0.24040425 -0.034091953
000310 4b 72 24 bd c1 f8 a3 bf 4a b1 1e bf 79 a3 7c bf
       -0.04014806 -1.2810289 -0.6198927 -0.9868694
000320 e4 4c 15 bf 2b da 7c 3e cf 26 6b bf a7 3d 6d be
       -0.5832045 0.246926 -0.9185609 -0.2316805
000330 ba fd 1b bf 26 9a 2d bf 0e a9 a2 bf 28 c9 03 3c
       -0.6093403 -0.67813337 -1.2707841 0.008043565
000340 89 76 40 be 08 62 21 bf 8f 55 b2 be 62 73 cb bd
       -0.18795218 -0.6304021 -0.348309 -0.09934117
000350 de 2f 25 bf 17 6c ad bf 3c 2c 4a bf 82 a0 18 bf
       -0.64526165 -1.3548611 -0.78973746 -0.59619915
000360 69 9d df be ae c9 18 3f 66 44 07 bf c8 b7 ce be
       -0.43674782 0.5968274 -0.5283874 -0.4037459
000370 b2 42 61 bf 6f 9b 9b 3e 43 65 08 bf ca d2 c7 bf
       -0.87992394 0.30392024 -0.53279513 -1.5611203
000380 00 9d 5b bf 28 79 39 bf 3d bc b8 3e bf 5a 1f bf
       -0.8578644 -0.72450495 0.36081114 -0.6224784
000390 3d 28 33 be 6b 31 fc be af 77 15 bf b4 ae 17 bf
       -0.17495818 -0.49256453 -0.5838575 -0.5925095
0003a0 30 0d ac bf 7e 1f 31 3f 31 ee 78 3e 8b 1a b1 bf
       -1.3441525 0.6918868 0.24309613 -1.3836225
0003b0 45 b1 50 bf 02 77 43 bf 9e 50 71 3e 94 48 19 bf
       -0.8152049 -0.76353467 0.2356591 -0.5987637
0003c0 74 f6 2f bf 49 41 1b bf 3e 34 27 bf 87 f1 bf bd
       -0.6873543 -0.6064649 -0.6531409 -0.093722396
0003d0 1e 3b 7c bf a1 35 be be bf 62 6c be 7f 77 da bf
       -0.98527706 -0.3715029 -0.23084544 -1.7067717
0003e0 72 b4 90 be c6 0a 15 bf df 06 5c bf d9 1e 7c be
       -0.2826267 -0.58219564 -0.85947984 -0.24621142
0003f0 46 9c 14 bf 7a 2f 3d bf 9a aa 14 bf 51 16 e1 be
       -0.58050954 -0.7390057 -0.5807282 -0.4396234

l2.weight f4 [300, 308]
000000 db 71 ca bd 30 e0 99 3f b4 78 7a bd f3 88 1c bd
       -0.098849975 1.2021542 -0.061150268 -0.038216542
000010 bf b1 08 3f ac c6 35 bd 83 91 17 bf fa f0 10 bd
       0.5339622 -0.04437892 -0.5920641 -0.035386063
000020 f5 65 e7 3d 85 aa ef 3d b7 ee a8 bf 24 20 b7 bf
       0.11298744 0.11702446 -1.319785 -1.4306684
000030 62 6e 96 bf 0d 2d b0 3e 83 e4 e5 3e 6c 08 30 bf
       -1.1752436 0.3440937 0.44900903 -0.6876285
000040 8f 67 cc bf b9 93 82 3f 7e f6 06 40 1a 6a 16 40
       -1.5969104 1.0201331 2.1087947 2.350226
000050 c1 af 6d bf da 0a 4e 3e 56 0e 0b be ec 10 09 40
       -0.92846304 0.20121327 -0.13579687 2.1416578
000060 63 49 c7 3e ff d1 58 be 85 66 66 bf e8 ea ca 3e
       0.38923177 -0.21173857 -0.9000018 0.39632344
000070 68 55 d0 bc f6 01 62 bf 54 45 8d bf 56 8b 15 3c
       -0.02543135 -0.8828424 -1.1036782 0.009127459
000080 ee 24 28 bf 7c 22 bf 3f 35 9a 9b 3f 3a b5 c5 be
       -0.6568135 1.4932399 1.2156435 -0.38614827
000090 6e 8c d2 3e 4d fb b0 3c c7 80 72 bf e2 ba 48 3f
       0.41122764 0.021604205 -0.9472775 0.7841016
0000a0 18 1c 7d bf 83 e5 63 3f 95 c4 31 3f aa e1 c1 3f
       -0.9887099 0.8902208 0.69440585 1.5146992
0000b0 7d f1 88 bf b5 f5 b1 3f c6 ee 89 3d 24 5a 77 3d
       -1.0698696 1.3903109 0.067349955 0.0603887
0000c0 fb 65 36 3f 94 2c 88 bd eb 0a 48 3c b1 bd 93 3f
       0.7124936 -0.066491276 0.012209634 1.1542264
0000d0 05 81 be 3e ad 00 f8 3f c2 80 32 40 bf c6 6a bf
       0.3720781 1.9375206 2.7891088 -0.9170951
0000e0 57 96 b1 3c f4 b3 66 3d 9e f8 f6 be f2 ee cd be
       0.021678133 0.05632396 -0.48236555 -0.40221363
0000f0 d3 b0 fe 3f 55 46 15 3f ad ce a7 3c 51 ca 14 40
       1.9897712 0.58310443 0.020484293 2.3248484
000100 86 9b b4 3c aa cd 86 be db 5f 1a 3e f7 e3 60 3f
       0.022046816 -0.26328784 0.15075628 0.87847847
000110 2b 14 71 3f f4 01 e7 be 95 e6 0c bf af 6b b6 bc
       0.941714 -0.45118678 -0.5503934 -0.022268144
000120 f6 c1 0d bf 56 5e 09 c0 a1 80 2f 3c 4d 1a 0a bf
       -0.55374086 -2.1463828 0.01071182 -0.5394638
000130 25 56 82 3d e9 9d ae 3c 86 bc 14 3c 1f cd 89 be
       0.06364087 0.021315532 0.009078151 -0.26914307
000140 43 5d 08 bf df 31 cb be f8 a1 65 be de f0 7a 3e
       -0.53267306 -0.39686486 -0.22425067 0.24505946
000150 ab b0 09 3c bc cf d6 bc 03 11 7c bc 31 e6 b2 3c
       0.008403937 -0.026222102 -0.015384915 0.02183828
000160 35 bf 03 bf 8f a6 f9 bd db 64 85 bf 5a 05 da be
       -0.51463634 -0.12189972 -1.0421404 -0.42582208
000170 5a 22 7d 3e d7 ac d1 3e 16 e2 e8 3c 14 c0 43 bf
       0.24720135 0.4095218 0.028428119 -0.7646496
000180 c4 97 9b 3f 5c 9d 5f bf 4c 2b c5 3c 72 47 7f 3d
       1.215569 -0.87349486 0.024068497 0.062323995
000190 04 ff 04 3f fb 90 25 c0 cd 63 9d 3d 5f ae 10 bf
       0.5195162 -2.586974 0.07685051 -0.5651607
0001a0 f8 c7 ee 3b 17 7d 1c 40 01 60 11 40 e6 8f dc bd
       0.0072870217 2.4451349 2.2714846 -0.10769634
0001b0 be 95 15 be a4 6c d6 bd a0 90 de bc d0 3b 12 3c
       -0.14607903 -0.1046994 -0.027168572 0.008925393
0001c0 98 d5 03 3f e0 c4 55 be 5d 12 f2 bf f8 bb dd bd
       0.51497793 -0.20875883 -1.8911854 -0.10826868
0001d0 78 3c 79 bf ac 02 66 3f da 25 03 bc fd 4d ff bf
       -0.97357893 0.89847827 -0.00800463 -1.9945675
0001e0 c1 e8 c1 bf e4 81 d1 3d 5e a3 18 bf 75 2b b9 3c
       -1.5149156 0.10229853 -0.5962428 0.02260373
0001f0 b9 a2 8e bd 52 76 99 bf 0c 54 48 3f 7e a0 96 be
       -0.06964631 -1.1989233 0.78253245 -0.2941932
000200 5a de f0 3d b3 ed 05 be ed 8d 14 3f aa 0c e7 3e
       0.1176116 -0.13078956 0.5802906 0.4512685
000210 fd 9e e8 3d 6f 3b 68 3d 36 35 89 bc 65 c8 a4 bf
       0.113584496 0.056697305 -0.016749006 -1.2873656
000220 3d ec 9f bb 64 bf 48 3e 0d 49 a7 bd be 3d 72 bf
       -0.0048804567 0.1960426 -0.0816823 -0.9462546
000230 02 26 2b be d2 3c 89 bd 42 e8 41 bf 7b 36 c9 bf
       -0.16713718 -0.06701054 -0.7574502 -1.5719751
000240 15 fb c2 bf ed 0d 90 bd e7 77 38 3f eb be 14 be
       -1.5232874 -0.07033906 0.72057956 -0.14525954
000250 c8 1c 2e 3f 16 c5 20 3f cd 4d 68 be 26 97 b7 bf
       0.68012667 0.6280073 -0.22685929 -1.4343002
000260 80 e7 87 bf 4f 7e 65 3e 61 68 5c 3f db 76 61 be
       -1.0617523 0.22411464 0.8609677 -0.22017996
000270 4a a1 a4 bf 9f 43 e5 be f1 55 4e 3e 94 0a 72 3e
       -1.2861722 -0.44778153 0.20149972 0.23636848
000280 25 c2 fd be 86 60 15 bf 5e 9c 34 bf 78 46 d1 bc
       -0.49562183 -0.5835041 -0.705511 -0.025546297
000290 10 a9 97 bf 32 01 fe ba 86 74 f5 3f 42 8b 00 be
       -1.1848469 -0.0019379018 1.9176185 -0.12553123
0002a0 90 9b 99 3f 54 b1 4e bf ec 4f 02 3f 5a 76 cc bf
       1.2000599 -0.8073933 0.509032 -1.5973618
0002b0 5a f0 05 3e 04 5b d2 3d bc af 81 3f 0a 0c 80 3d
       0.13079968 0.10271266 1.0131755 0.06252296
0002c0 f1 18 37 3f 32 16 ed be 18 c0 09 c0 99 d9 a1 bf
       0.7152243 -0.46305996 -2.1523495 -1.264453
0002d0 74 11 e4 3f 61 37 f2 be 46 4f 28 bf 04 ba cd 3f
       1.7817826 -0.47307876 -0.6574596 1.6072392
0002e0 47 ae e6 3c f9 3d 75 3e fb ba 2b bf 26 3d 5e 39
       0.028159274 0.23949422 -0.67082185 0.0002119435
0002f0 ac 84 c2 3c 77 b4 7f 3e 76 c3 cc be 31 4a d2 bf
       0.023744904 0.24971186 -0.39992875 -1.6428891
000300 66 d1 20 3f a6 8e 67 bc 9d 91 cc 3e 29 5c 1f 3e
       0.62819517 -0.014133131 0.39954844 0.155625
000310 11 bd ac bf 3f b9 a6 bf e1 33 1f 3d 41 8a 70 3f
       -1.3495198 -1.3025283 0.038867835 0.9396096
000320 3c 88 c9 3d d2 6c c2 bf 49 ec 50 bc cf 48 42 be
       0.09840438 -1.5189459 -0.012751647 -0.18973087
000330 9e 7a 20 bd ca 07 d3 bd 25 ed bb 3f a5 6c 2b 3e
       -0.039179437 -0.1030422 1.4681746 0.16740663
000340 a8 00 f2 39 2f ec 87 bd e8 bb 1c 3e 46 55 5a 3f
       0.00046158326 -0.06636845 0.15306056 0.85286367
000350 71 6d f3 3d 7e cb 00 bf 19 c4 ae bf 3b d7 b2 3d
       0.11886109 -0.50310504 -1.3653594 0.08732458
000360 50 b3 8f b7 49 84 09 3f 00 38 f9 3d 99 34 0e be
       -1.7130427e-05 0.53717476 0.12168884 -0.13887252
000370 0d 50 e9 3f f2 09 b1 3e 61 6f fc 3e aa a8 0a 3f
       1.8227555 0.345779 0.49303725 0.5416361
000380 c6 67 00 bf d6 b8 ea 3f 76 23 5a 3e b4 ab a4 3d
       -0.50158346 1.8337657 0.2130259 0.08040562
000390 bd db 95 3f 8f f8 34 bf 83 7d 77 3c a6 cd bb 3d
       1.1707684 -0.7069177 0.015105608 0.09170084
0003a0 f0 5c 6e 3d f4 2a 53 3f 2b f5 a8 be e3 cd 48 bf
       0.0581941 0.82487416 -0.32999548 -0.7843916
0003b0 54 24 66 3f d5 36 ed 3f 9c 88 4c 3f d3 8a b1 3d
       0.8989918 1.8532358 0.7989595 0.08669057
0003c0 53 73 e2 bd 9a 10 4f bd 8c e9 f4 bc 67 ad ab 3e
       -0.110571526 -0.05055294 -0.02989652 0.33530733
0003d0 9f 9b 72 3f ee bf 9e 3e 02 ed 7d bf a4 46 89 3f
       0.9476871 0.31005806 -0.9918977 1.0724683
0003e0 db c6 0c be b2 0d dd bd cd df 13 3d af c4 48 bf
       -0.13747732 -0.10793628 0.036102105 -0.78425115
0003f0 bc 4f 99 3d 1e 64 f4 be ea 3d c0 be 2d 2f 38 bf
       0.07485911 -0.47732633 -0.37547237 -0.71946985

l2.bias f4 [300]
000000 0a f1 17 3f 6e 6f b2 3e a1 50 9d 3e d1 73 74 3c
       0.5935217 0.3485064 0.30725577 0.014920191
000010 b7 ed 87 3f 1b 79 90 3e b4 43 28 3f 1d 3c 53 3f
       1.061942 0.28217396 0.65728307 0.825136
000020 41 99 13 be 5c ea 3b bf 5c 0b 56 bf 3a 6e 1e bf
       -0.1441393 -0.7340448 -0.83611083 -0.6188694
000030 de a5 1f 3e f4 ae 79 bf 84 46 dc bf 63 6f 32 3f
       0.15590617 -0.9753258 -1.720902 0.6970121
000040 78 58 e3 be 4a 58 36 bf 93 75 3e bf 6f 13 8a 3e
       -0.44403434 -0.7122847 -0.74398154 0.26967952
000050 d1 6e bc bf 2d 16 3b be e4 7c a7 3f eb e7 d0 be
       -1.4721318 -0.18270178 1.3084989 -0.4080194
000060 2c 77 2d be cf 8e 9e 3f dc 26 d9 3e 21 a0 b8 3e
       -0.16939992 1.2387332 0.4241246 0.3605967
000070 f3 da 61 3e d2 e6 2c 3f e1 9d 62 3f 74 e7 a4 3f
       0.22056179 0.67539704 0.88522154 1.2883134
000080 51 67 24 3f 0a 19 10 bf c7 3a 3b bf 11 17 c2 3e
       0.6422015 -0.56288207 -0.7313656 0.37908223
000090 ff a1 7e bf fb 74 6d 3f 34 44 b9 3d 97 f5 6d 3f
       -0.99465936 0.92756623 0.09046212 0.92952865
0000a0 23 02 24 3f 00 ca 9c 3f 01 bc ee 3e 92 cf bb bf
       0.6406576 1.2249146 0.4662781 -1.467272
0000b0 cb e4 26 3f 96 ef db be c4 33 0e be b4 fd 90 bf
       0.6519286 -0.42956227 -0.13886935 -1.1327424
0000c0 90 7d 8a bf db 47 c6 be 75 bd 52 3e e6 de 26 bf
       -1.0819569 -0.38726696 0.20580085 -0.65183866
0000d0 26 69 c5 be 30 82 10 be b7 da fa 3e da 8f 67 bf
       -0.38556784 -0.14112163 0.4899499 -0.90453875
0000e0 85 73 de 3e 59 61 68 3f d0 4a 32 3e e9 e2 ec 3e
       0.4344751 0.9077354 0.17411351 0.4626687
0000f0 57 14 fe be 9e a7 98 bf 88 dd 0d be 74 13 85 bf
       -0.49624893 -1.1926153 -0.13854039 -1.0396562
000100 e5 b2 3e bf 05 a8 66 bf 26 5c d5 be d7 24 fe 3e
       -0.7449172 -0.9010013 -0.41671866 0.49637482
000110 7b 64 1f 3f 57 ef 0f bf 12 c3 5c 3f 00 94 b0 3e
       0.62262696 -0.5622458 0.86235154 0.34487915
000120 51 9d 72 bf 2f cf 79 bf 8c 98 08 3f 56 76 19 bf
       -0.94771296 -0.9758176 0.5335777 -0.5994619
000130 88 d9 b2 3e 8a 55 86 bf 00 c4 81 3e bb 7f 93 3e
       0.34931588 -1.0494854 0.2534485 0.28808388
000140 03 bd 10 3f fa 57 60 3e 92 a5 01 3f 49 f0 86 3e
       0.5653841 0.2190856 0.50643265 0.26355198
000150 6e 71 9e bf 4d 19 9d 3d 03 38 88 bf 10 bc 43 3f
       -1.2378366 0.07670841 -1.0642093 0.76458836
000160 f3 84 2f 3f 63 11 1c 3f 77 91 43 bf f8 4d 21 be
       0.6856224 0.6096403 -0.76393837 -0.15752399
000170 3d e3 55 3e 2d 7c a9 bf 24 99 3d 3e 0f 2d 18 bf
       0.20887466 -1.324102 0.1851545 -0.59443754
000180 96 6f 01 3f e8 89 cc 3e d3 bd dc 3e 5a 6f 30 bf
       0.5056089 0.39948964 0.43113574 -0.6891991
000190 84 d9 89 bf 68 18 06 3f c2 44 df 3e 72 b2 29 3f
       -1.0769506 0.5238099 0.43607146 0.6628791
0001a0 f9 5e fb bf dc 2a 8b bc 17 7e b7 bf 1b 15 7e bf
       -1.9638358 -0.01698821 -1.4335355 -0.99250954
0001b0 c6 13 9a bf 1f 37 2a be 2d 3d 1d 3f f1 2e b1 3e
       -1.2037284 -0.1662259 0.6142147 0.34606126
0001c0 96 b8 7b bf 91 de 1f 3f 5f fd 23 be 0c 54 ff be
       -0.9832853 0.62448984 -0.16014622 -0.4986881
0001d0 11 60 06 be cc 0f 7e bf 0e 29 41 3f 72 27 b7 3f
       -0.13122584 -0.99242854 0.7545327 1.4308913
0001e0 2c c3 bb 3f bf 90 33 3f bd 86 8b bd 1c a1 d5 bf
       1.4668937 0.7014274 -0.06812809 -1.6689792
0001f0 4e 77 42 3d db f4 4e bf 5f ee 93 bf e6 54 82 bf
       0.04747706 -0.8084237 -1.155712 -1.0182159
000200 7b cc 42 3e 30 47 1d bd 14 9e 54 3e a1 38 a6 3e
       0.19023316 -0.038397968 0.20763427 0.3246508
000210 92 b7 27 bf 82 ae 6b 3f c0 67 12 bf cc a5 14 3f
       -0.6551448 0.9206315 -0.5718956 0.58065486
000220 68 af 29 3f 5a b1 9b bf 3a d8 18 bf 96 a5 ed bf
       0.66283274 -1.2163498 -0.59704936 -1.8566158
000230 dd 1d e9 3e 7b 1c 71 bf 6d d4 d5 be 11 1f 3c bf
       0.45530596 -0.9418408 -0.4176363 -0.73484904
000240 e4 0d 95 bc eb 23 49 3f 83 38 27 3f e9 64 12 bf
       -0.0181951 0.7857043 0.65320605 -0.57185227
000250 37 9c 84 bf 3e 16 42 bf d2 8e 34 bf 6f 5f 92 bd
       -1.0360173 -0.7581519 -0.70530427 -0.07147109
000260 8a 48 2e bf 5a ea ae 3e d3 a9 50 bf dd cf 10 3f
       -0.68079436 0.3416317 -0.8150913 0.56567174
000270 60 33 fb 3e 9b c2 8f 3f 66 28 93 bf 07 75 04 c0
       0.49062634 1.1231264 -1.1496704 -2.0696428
000280 a2 d6 df be 04 00 69 bf 70 f1 8b bf d6 86 b8 3e
       -0.4371844 -0.9101565 -1.0933056 0.36040372
000290 65 57 9c 3f 1e 9a 34 3d 8a 56 b4 3e 24 21 95 be
       1.2214171 0.04409229 0.35222274 -0.29126847
0002a0 44 fb 2a 3e d8 71 45 be 33 4a 32 3f 27 f4 46 3f
       0.16697413 -0.19281709 0.6964447 0.77716297
0002b0 43 75 06 3d a2 5e 46 bf 16 b7 80 bf 90 77 69 bf
       0.032826673 -0.7748815 -1.0055873 -0.9119806
0002c0 e7 ba a2 bf 64 29 42 3e 73 2c d5 be 72 b2 d6 3e
       -1.2713288 0.18961102 -0.41635475 0.41933018
0002d0 4a 05 0a 3f 0d b0 9e 3d c1 df 1e 3e 03 e7 13 3f
       0.5391432 0.07748423 0.15515043 0.5777437
0002e0 79 c0 b8 3e 57 2a 8b bf 87 77 0f c0 08 e7 39 bf
       0.36084345 -1.0872296 -2.2416704 -0.7261815
0002f0 20 70 ba be 8f b6 3a 3f 79 0e d0 bd 64 9f 7a 3f
       -0.3641367 0.7293481 -0.101590104 0.9789946
000300 52 12 5d 3f d7 f3 8a bf 17 7d 04 be 29 7b 6c 3e
       0.8635608 -1.0855664 -0.12938343 0.23093857
000310 ab 2a 00 bf 3f c3 9e bf c4 32 82 be 1a d6 8d bf
       -0.50065106 -1.2403334 -0.25429356 -1.1080964
000320 2e ab 76 3e d8 d7 a0 be 54 f7 28 bd 18 0d 0a 3c
       0.24088737 -0.31414676 -0.041251495 0.008425973
000330 3d a6 5d bf 03 75 04 3d 3a 54 a1 3f bd 0d 10 3f
       -0.86581784 0.032338154 1.2603829 0.5627096
000340 5b a9 b2 bf f4 32 45 bd 10 51 3a 3f 74 03 32 3f
       -1.3957933 -0.048144296 0.7277994 0.6953652
000350 b8 c6 85 3f 08 c4 9f 3f 52 65 7b 3e 8d b0 96 be
       1.0451269 1.2481699 0.2455037 -0.29431573
000360 6d 22 a9 bf e1 bc d4 be e7 f8 7c 3d 7c 08 4f bf
       -1.3213631 -0.41550353 0.06176081 -0.8087232
000370 19 c1 62 3f 88 ad cf 3e 65 bf 86 3f c4 62 0e bf
       0.88575894 0.4056208 1.0527159 -0.55619454
000380 5d c2 66 bf a0 14 68 3e 64 3b 35 3f 38 88 b8 3e
       -0.90140325 0.22664118 0.7079375 0.36041427
000390 c0 71 10 be 63 39 89 3f ee d2 bc bf 74 4d 2b 3f
       -0.14105892 1.0720638 -1.4751871 0.6691506
0003a0 ef e9 8f 3f fc bf 64 bf f0 c5 81 bf 3b a2 69 be
       1.1243266 -0.89355445 -1.0138531 -0.22815792
0003b0 e2 db b1 3d 10 6d c9 bf 47 93 e5 3e 03 f1 eb be
       0.086845174 -1.5736408 0.44838926 -0.46082315
0003c0 06 d3 1a 3d ec 7d 3e 3e 7b 80 4b 3e 16 5c 49 3f
       0.037798904 0.18602723 0.1987323 0.78656137
0003d0 43 4d 78 bf 5b 9a c4 bf 9d f7 9d 3f 77 23 0e 3f
       -0.9699289 -1.5359606 1.234119 0.55522865
0003e0 76 e0 39 3d 7f 73 dd bf df 75 63 3f 5b 1b 4a 3f
       0.04538008 -1.7300872 0.8885173 0.7894799
0003f0 59 01 5d 3e d9 58 d6 3d 0a 65 8b bf de 75 1a 3f
       0.21582545 0.10466165 -1.089021 0.603361

bn2.weight f4 [300]
000000 02 5d cc 3f e5 85 c4 3f 56 03 ac 3f b2 8a bf 3f
       1.5965884 1.5353361 1.3438518 1.4964201
000010 10 ae dc 3f 76 7b a0 3f c6 3a aa 3f a1 92 b8 3f
       1.724062 1.2537677 1.3299186 1.4419748
000020 50 1b bc 3f ec 81 65 3e 4d 26 78 3f d0 46 6a 3e
       1.4695835 0.22412843 0.9693344 0.22878575
000030 0e 89 96 3f 3a af 9d 3e 62 f1 c0 3f d8 88 b3 3f
       1.1760576 0.3079775 1.5073664 1.4026136
000040 21 dc e6 3f ff a5 2e 3e be ca 41 3f d3 a6 bb 3f
       1.8035928 0.1705551 0.75699985 1.4660286
000050 48 60 56 3e 68 37 db 3f 6d 45 a9 3f e5 1d c6 3f
       0.20935166 1.7126284 1.3224312 1.5477873
000060 27 32 ab 3f c3 75 e3 3f e5 31 9c 3f 81 9f 9b 3f
       1.337468 1.7770313 1.2202727 1.2158052
000070 27 dc a1 3f 61 3b db 3f 0b a2 cd 3f 0d 63 ab 3f
       1.264531 1.7127496 1.6065077 1.3389603
000080 07 29 ae 3f a0 80 7c 3e 66 ff 6a 3e b6 8f c1 3f
       1.360627 0.24658442 0.2294899 1.5121982
000090 1e e8 81 3e c2 18 b6 3f 88 51 9d 3f 3a 7f ae 3f
       0.25372404 1.4226305 1.2290506 1.3632576
0000a0 31 9a c4 3f 7f 1c df 3f 08 8f aa 3f a0 dc d7 3f
       1.5359555 1.7430571 1.33249 1.6864204
0000b0 71 5f 9c 3f cd 7b 6e 3e 4f 3d 9e 3f 7c 2a 6a 3e
       1.2216626 0.23289414 1.236246 0.22867769
0000c0 5f 74 a0 3f 64 49 a4 3f 27 ee ac 3f cb 08 b7 3e
       1.2535514 1.2834897 1.3510178 0.35748896
0000d0 bf e8 e6 3f e4 de dc 3f d7 14 d4 3f a1 60 91 3e
       1.8039778 1.7255521 1.656886 0.28394035
0000e0 32 cd d6 3f ed 6b c8 3f 38 86 9d 3f 58 52 bf 3f
       1.6781371 1.5657936 1.2306585 1.4947004
0000f0 48 d1 82 3e 00 9e c4 3f 48 17 bd 3f dc 54 a1 3f
       0.25550294 1.5360718 1.477273 1.2604022
000100 58 81 ef 3e d6 2d 7c 3e 6b c0 90 3e 6e 55 c9 3f
       0.4677837 0.2462686 0.28271803 1.5729196
000110 ca 63 a6 3f 76 f1 d7 3f ae 32 da 3f 2f f1 9e 3f
       1.2999203 1.6870563 1.7046716 1.2417353
000120 c3 0b 80 3e 9f eb 58 3e c0 a0 ad 3f fc ff 95 3e
       0.25008973 0.21183632 1.3564682 0.29296863
000130 50 01 a2 3f ce 73 1c 40 c2 81 8d 3f 9e 9f a4 3f
       1.265665 2.4445682 1.1055224 1.2861211
000140 96 67 97 3f 22 85 98 3f 52 b7 be 3f ab 0c b3 3f
       1.1828487 1.1915629 1.4899695 1.3988241
000150 56 c4 2b 3e 46 77 c0 3f 7b 0b 9f 3f e9 6d c4 3f
       0.16774115 1.5036399 1.2425379 1.5346042
000160 b3 a7 a2 3f 39 69 a5 3f 81 79 a4 3f 92 2f b8 3f
       1.2707428 1.2922736 1.284958 1.4389517
000170 01 3f a0 3f 87 fa 6d 3e b9 8e b2 3f 94 28 d3 3f
       1.2519227 0.232401 1.3949805 1.6496758
000180 b0 8f c3 3f 6d 85 ad 3f ec 20 ad 3f f8 db 6e 3f
       1.5278225 1.3556343 1.3525672 0.93304396
000190 87 f8 a6 3f 2e 4c b4 3f f8 8a b4 3f 6b d5 d2 3f
       1.3044595 1.4085748 1.410491 1.647138
0001a0 f6 d8 d2 3f 01 df 94 3f da 4f 75 3f 06 4c 95 3e
       1.6472461 1.1630555 0.9582497 0.29159564
0001b0 c8 6f bf 3f 11 6a 98 3f b3 23 cd 3f 41 0b a2 3f
       1.4955988 1.1907369 1.602652 1.2659684
0001c0 59 18 ee 3f 62 f6 bc 3f 54 f8 4f 3e 46 e4 61 3e
       1.860118 1.476269 0.20309573 0.22059736
0001d0 0d 82 aa 3f 70 e5 7c 3e d5 4e ae 3f d1 cc c0 3f
       1.3320938 0.24696898 1.3617808 1.5062505
0001e0 f9 b3 b8 3f 86 39 d0 3f ca be c0 3f f1 f3 68 3e
       1.4429923 1.6267555 1.5058224 0.22749306
0001f0 3e 77 d3 3f 7d bb 82 3e b8 6c 66 3e 2c 61 f6 3f
       1.6520765 0.25533667 0.2250241 1.9248405
000200 d6 5b ad 3f d0 5e 8a 3f f3 43 ab 3f 4b 55 a9 3f
       1.3543651 1.0810184 1.3380111 1.3229154
000210 03 c9 a5 3f d0 15 a1 3f c1 25 cc 3f d1 1e ba 3f
       1.2951969 1.2584782 1.5949022 1.4540654
000220 74 b2 be 3f b7 b5 b0 3f 14 c0 9a 3f 58 16 00 40
       1.489821 1.3805455 1.2089868 2.0013638
000230 9f d6 bb 3f 3f 4e 7d 3f 76 48 44 3e c6 5f 56 3e
       1.4674872 0.9894752 0.19168267 0.20934972
000240 3c 15 b0 3f f8 f3 b3 3f 4f f7 a7 3f 7a b6 93 3e
       1.375648 1.4058828 1.3122348 0.28850156
000250 c7 96 05 40 07 c9 74 3f 65 ce 31 40 ab 38 aa 3f
       2.0873277 0.95619243 2.7782223 1.3298544
000260 82 6a 99 3f 25 f1 a0 3f 55 00 d6 3f 42 85 b3 3f
       1.1985629 1.2573591 1.6718851 1.4025042
000270 30 3b ce 3f 6e b6 bd 3f f4 28 31 3e 68 fb 01 40
       1.6111813 1.4821298 0.17300779 2.0309696
000280 e3 9e 56 3f 84 b1 7c 3e db f7 d2 3f a4 fa 9a 3f
       0.8383619 0.24677092 1.648189 1.210774
000290 1e 5c bb 3f 45 dc b9 3f 9f 06 aa 3f 9b 3b 8e 3e
       1.4637487 1.4520346 1.3283271 0.2777985
0002a0 ed e4 b7 3f 9e c6 a2 3f 11 1a b1 3f 27 62 c2 3f
       1.4366738 1.2716863 1.383608 1.5186204
0002b0 53 24 c9 3f bc b2 5f 3e dc 10 84 3e 21 bc b9 3e
       1.571421 0.21845526 0.25794113 0.36276343
0002c0 da c9 39 3e 3d a4 b8 3f 60 88 9b 3f de 6f 9c 3f
       0.18143407 1.4425122 1.2150993 1.2221639
0002d0 4e d5 bd 3f 1c 59 a3 3f 15 b8 b2 3f 62 3d ab 3f
       1.483072 1.2761569 1.3962427 1.3378108
0002e0 6e 14 b8 3f e5 6a 86 3e bd 85 c6 3f 63 45 48 3e
       1.4381235 0.2625343 1.5509564 0.19557719
0002f0 94 d0 90 3e 52 a9 a1 3f 90 63 c2 3f fe a7 c4 3f
       0.28284132 1.2629797 1.5186634 1.5363767
000300 40 9f d1 3f db 16 80 3e 70 76 9b 3e de 41 a6 3f
       1.6376724 0.25017437 0.30363798 1.2988851
000310 90 da 4d 3e 61 85 94 3e dd f2 b0 3f 23 91 93 3e
       0.20102906 0.2900801 1.3824116 0.28821668
000320 96 e5 92 3f 8c cf 9a 3f b8 95 ac 3f 13 7f 8b 3f
       1.1476314 1.2094588 1.348319 1.0898155
000330 1a ee a5 3e 96 4a b5 3f 5c d0 bf 3f 78 25 ac 3f
       0.3240822 1.4163387 1.4985461 1.3448935
000340 34 35 94 3e 97 f8 3f 3e 77 4d bc 3f 40 8b c9 3f
       0.2894684 0.18747173 1.471114 1.5745621
000350 3b 97 bb 3f 00 ab c4 3f ca 81 be 3f a7 fa b2 3f
       1.4655527 1.5364685 1.4883358 1.3982743
000360 09 7c c8 3f 95 0e 05 40 cc d0 8c 3e d9 1f b5 3f
       1.5662853 2.079015 0.2750305 1.4150344
000370 51 17 ad 3f 8a 29 b8 3f 6d f0 bd 3f fa 8f bc 3f
       1.3522741 1.4387677 1.4838997 1.4731438
000380 ad 17 b4 3f 81 d0 a1 3f b0 6d a4 3f 8f 07 9c 3f
       1.4069725 1.2641755 1.2845974 1.2189807
000390 16 41 a4 3f a5 54 a3 3f 18 33 04 40 7f 21 a2 3f
       1.2832363 1.2760206 2.0656185 1.2666472
0003a0 ee 91 b1 3f af e8 6c 3e 05 25 90 3e 0d a0 57 3e
       1.3872659 0.23135637 0.28153244 0.21057148
0003b0 b9 eb c4 3f ab 9e 12 3e f8 04 ba 3f be 6d b4 3f
       1.5384437 0.1431834 1.4532766 1.4095991
0003c0 f7 ac ac 3f 38 96 b7 3f d5 d6 a9 3f cb b1 d1 3f
       1.3490285 1.4342718 1.3268687 1.6382383
0003d0 d5 25 5a 3f 54 23 80 3e ab fd c9 3f 83 4f ab 3f
       0.8521398 0.25026953 1.5780538 1.338364
0003e0 64 24 a1 3f 67 c6 86 3e 1f b1 d3 3f ce fd c6 3f
       1.258923 0.26323244 1.6538428 1.5546205
0003f0 6d f7 bc 3f d2 72 cd 3f e0 2d 6c 3e b9 18 a9 3f
       1.4763008 1.6050665 0.23064375 1.321067
