weights/model_critic_target_69.pt (torch, 431175 bytes, 9 tensors)

l1.weight f4 [300, 42]
0.31403798 0.4175241 0.17797105 0.015615445 0.24272035 0.25527737 0.76796955 1.2829685
-0.25013345 -1.4393927 0.4730682 -0.408519 0.12514177 -0.430024 4.6878967 -2.4313464
-1.3191507 0.4128 -0.96628666 1.9095057 0.45143366 0.0072910837 -0.9224552 0.22501576
0.28375885 -1.428669 -0.28416902 0.4347105 -0.29839587 0.118007384 -0.5027629 0.35306108
-4.930935 -1.8947452 0.26193994 2.2832084 -1.4612834 -0.38061708 -1.039813 1.2535951
-0.43682146 0.2818273 0.315354 0.07515084 0.34504882 0.31590363 0.12100655 -0.25575516
-0.37403205 -0.8410271 -0.36835894 -0.10315169 0.061693467 0.1322363 0.3053781 -0.22232565
0.6581663 -0.55435294 0.7626726 1.7196997 -0.9908475 -1.2830156 0.19146378 0.21413092
-0.66882294 0.0035376523 0.14096151 0.22373691 -0.4531673 1.2219603 -0.6475536 1.3371291
-0.8967098 -1.7761778 6.453531 -1.8720986 0.025121862 -3.6211538 4.676892 1.3777089
0.71543235 -0.5758979 -0.36984786 0.27601656 0.45101553 0.07222686 0.25400195 0.33007804
0.3861613 0.13934183 0.39430255 -0.4192966 -0.03135296 -1.0970827 0.39229912 -0.11363405
0.35568678 -0.65009624 -1.0250573 -0.22598203 -0.9443739 -0.24603415 0.34330976 0.707065
-0.3016832 0.0499692 -0.5077268 0.27993837 0.36975393 -1.4832071 -0.41544858 -1.6728845
0.1837888 -1.570454 0.067768864 0.46389404 -5.327611 3.7664518 0.37304312 1.8024918
-0.30856165 -0.2834388 -0.15565751 0.9483868 -1.0799341 -0.21560575 0.48404685 0.07342363
0.20304582 0.24913909 0.42997867 0.13353387 0.42386216 -0.48323715 -0.05122033 -1.125833
0.4091157 0.01218331 0.3669853 -0.6732674 -0.95313996 -0.2881832 -0.9476029 -0.2796441
0.32697096 0.7441452 -0.22641401 0.030850608 -0.42688796 0.27551386 0.3780202 -1.4605833
-0.34667718 -1.619126 0.13410594 -1.5958308 0.022777077 0.5823347 -5.445889 3.890249
0.3324474 1.782781 -0.25647512 -0.2669318 -0.15013698 0.8671511 -1.0593184 -0.21413137
0.3726395 0.4244849 0.4065724 1.2323135 0.27317968 -0.2376241 0.9577699 0.39238682
0.11935386 -0.11454415 0.21835975 -0.17547773 0.084229305 0.030773832 0.5324017 -0.8737077
1.7100343 -1.6672221 -1.043262 -1.0321727 -2.7205575 2.085753 1.6771327 0.13642436
0.17961371 0.07917082 0.9660744 -0.72272474 -0.6802819 0.51057154 0.3793668 0.6918982
-0.6466665 -4.3639274 0.15772548 -0.98426557 -2.4206476 0.5712494 -1.0705842 2.1364763
4.0399776 0.21103026 0.44991943 0.016283764 0.24205114 0.110396326 0.43532357 0.19562274
0.32803696 -0.3373012 -0.11198547 -1.1747949 0.47819966 0.0820518 0.42683804 -0.68317515
-1.0293598 -0.41853917 -1.1254317 -0.2266682 0.34530443 0.79306024 -0.2959261 -0.14973004
-0.2612498 0.30611303 0.45022434 -1.4016442 -0.3078514 -1.5916141 0.096053734 -1.5213525
-0.047098663 0.60495234 -5.4474072 3.7135756 0.3150416 1.7339214 -0.22641058 -0.25032973
-0.19143116 0.67862624 -0.8802179 -0.06936043 0.15311222 0.84027493 0.27611113 0.07133432
00000000: 96c9 a03e b8c5 d53e 0b3e 363e ecd7 7f3c
00000010: af8b 783e b7b3 823e a799 443f 5038 a43f
00000020: 7e11 80be 053e b8bf ff35 f23e 6729 d1be
00000030: 2a25 003e 1b2c dcbe 4003 9640 2e9b 1bc0
00000040: eed9 a8bf 865a d33e 905e 77bf af6a f43f
00000050: 5022 e73e 0bea ee3b 0626 6cbf 886a 663e
00000060: d748 913e a0de b6bf 9a7e 91be 6092 de3e
00000070: 58c7 98be dbad f13d 12b5 00bf 6cc4 b43e
00000080: 38ca 9dc0 0387 f2bf fe1c 863e 1620 1240
00000090: 560b bbbf 3ee0 c2be 9818 85bf ce75 a03f
000000a0: 10a7 dfbe ab4b 903e 1476 a13e afe8 993d
000000b0: 3daa b03e 1fbe a13e 48d2 f73d 57f2 82be
000000c0: 2181 bfbe 8d4d 57bf 8b99 bcbe 3141 d3bd
000000d0: 4ab2 7c3d f468 073e 855a 9c3e 56a9 63be
000000e0: 967d 283f 13ea 0dbf 833e 433f 1f1f dc3f
000000f0: 2fa8 7dbf db39 a4bf 150f 443e 2345 5b3e
00000100: fb37 2bbf f5d7 673b 3758 103e 4a1b 653e
00000110: 8b05 e8be 3269 9c3f 13c6 25bf 0c27 ab3f
00000120: c68e 65bf cb59 e3bf 5383 ce40 eda0 efbf
00000130: 5dcc cd3c fcc0 67c0 19a9 9540 c458 b03f
00000140: 9326 373f 0b6e 13bf b35c bdbe 0b52 8d3e
00000150: 82eb e63e adeb 933d 8b0c 823e fdff a83e
00000160: efb6 c53e a0af 0e3e 06e2 c93e 0bae d6be
00000170: f66b 00bd 356d 8cbf 6edb c83e f8b8 e8bd
00000180: 941c b63e b56c 26bf 1435 83bf d567 67be
00000190: 7dc2 71bf 60f0 7bbe 4cc6 af3e 3602 353f
000001a0: 3876 9abe 81ac 4c3d 62fa 01bf 1554 8f3e
000001b0: 6350 bd3e bbd9 bdbf adb5 d4be 1421 d6bf
000001c0: 2233 3c3e a304 c9bf 67ca 8a3d 8583 ed3e
000001d0: ca7b aac0 8c0d 7140 82ff be3e 0db8 e63f
000001e0: cbfb 9dbe e41e 91be af64 1fbe 7ac9 723f
000001f0: 483b 8abf c1c7 5cbe fdd4 f73e 215f 963d
00000200: 3eeb 4f3e 511e 7f3e 2a26 dc3e 1abd 083e
00000210: 7604 d93e dc6a f7be 69cc 51bd 4c1b 90bf
00000220: 9d77 d13e 829c 473c 7fe5 bb3e 415b 2cbf
00000230: fb00 74bf c08c 93be 1b96 72bf 832d 8fbe
00000240: bd68 a73e 4d80 3e3f 13d9 67be 6aba fc3c
00000250: 0f91 dabe 2710 8d3e dd8b c13e 65f4 babf
00000260: ac7f b1be 853f cfbf 1153 093e 2f44 ccbf
00000270: fe96 ba3c e313 153f b944 aec0 d7f9 7840
00000280: 8c36 aa3e 2b32 e43f b550 83be 49ab 88be
00000290: 82bd 19be 9dfd 5d3f bf97 87bf 4145 5bbe
000002a0: 9bca be3e 1656 d93e 422a d03e 73bc 9d3f
000002b0: 35de 8b3e bb53 73be 6830 753f ede6 c83e
000002c0: cc6f f43d 2096 eabd b399 5f3e 6fb0 33be
000002d0: 6a80 ac3d 6719 fc3c 7a4b 083f 4fab 5fbf
000002e0: 67e2 da3f 8967 d5bf 9c89 85bf 3c1e 84bf
000002f0: 9d1d 2ec0 fa7c 0540 49ac d63f d4b2 0b3e
00000300: a8ec 373e 5024 a23d a750 773f 7d04 39bf
00000310: f426 2ebf d1b4 023f 5d3c c23e 3e20 313f
00000320: f08b 25bf 4ba5 8bc0 ca82 213e d4f8 7bbf
00000330: e4eb 1ac0 673d 123f e708 89bf 07bc 0840
00000340: 7f47 8140 5118 583e d75b e63e 8765 853c
00000350: 41dc 773e 7817 e23d bbe2 de3e 5451 483e
00000360: 76f4 a73e beb2 acbe a358 e5bd ae5f 96bf
00000370: 96d6 f43e c60a a83d 848a da3e 91e4 2ebf
00000380: 10c2 83bf c44a d6be 250e 90bf b51b 68be
00000390: becb b03e ff05 4b3f a083 97be d552 19be
000003a0: 89c2 85be d9ba 9c3e ce83 e63e 1469 b3bf
000003b0: b39e 9dbe 03ba cbbf d2b7 c43d aebb c2bf
000003c0: 87ea 40bd 28de 1a3f 2951 aec0 39ab 6d40
000003d0: 224d a13e 23f1 dd3f 2dd8 67be 382b 80be
000003e0: 8806 44be 73ba 2d3f f655 61bf d70c 8ebd
000003f0: 73c9 1c3e 421c 573f 705e 8d3e ba17 923d

l1.bias f4 [300]
0.29843098 -0.12133508 0.1635662 0.17492346 0.1301453 0.25967583 -0.055193823 0.24182364
0.2885025 0.2157658 0.08534482 0.035899572 0.07403334 0.5180691 0.0016061679 -0.015247431
0.49287155 0.02689876 0.052623905 0.038953282 0.04383295 0.32777098 0.005081289 0.20290917
0.08505365 0.3340793 0.2816955 -0.0755691 0.07500091 0.04420236 0.22507487 0.16164698
0.13585632 0.2660457 -0.12300138 0.10750631 0.09631165 0.19643801 0.42234227 0.113472894
0.1996065 0.14447035 0.16513282 -0.076208964 0.27304742 0.4106255 0.30935666 0.1972784
0.25365868 0.17682838 0.06328614 0.36097062 0.12569927 0.093340434 0.36315298 0.44185746
0.1987012 0.019362824 -0.024561038 0.28912476 0.16684073 0.046298113 0.19379742 -0.033690557
0.13402855 0.23348679 0.28701475 0.15462703 0.34953743 0.21139307 0.21669917 0.3481705
0.009186325 0.20974039 0.24720998 0.14319465 0.29528296 0.27875763 0.19446425 0.012903342
0.3091036 0.37483233 0.15968548 0.20259482 0.24444157 -0.019815378 0.21767595 0.14849389
0.1359524 0.15354769 0.5382241 0.1980568 0.14385732 0.29679558 0.29555577 0.15122974
0.14353637 0.22414692 0.2644652 0.27939242 0.26897943 0.3620566 -0.03122915 0.24105181
0.05418877 0.3097381 0.17951576 0.19436622 0.19151881 0.15431535 0.23947291 0.21366462
0.04761901 0.33793002 0.2856802 0.25573027 0.08019236 0.18583316 0.31539616 0.5428829
0.2815331 0.20880091 0.32314402 0.26006004 0.19023089 0.045137554 0.03335538 0.09509607
0.17840354 0.25342518 0.34364367 -0.025308426 0.24812283 0.18462834 0.3622108 0.5223891
0.22659309 0.42742577 0.19283448 0.14948566 0.20475541 0.2300363 0.25276834 0.05387078
0.25113586 0.32778406 -0.114354745 0.7280846 0.32918772 0.2581525 0.22233063 0.03414573
0.24295256 0.14959249 0.26325476 0.25688693 0.4206467 0.21472962 0.08255983 0.29936203
0.23273224 0.3169063 0.19448967 0.17474669 0.116670005 0.26872557 0.023135537 0.15980428
-0.029942885 -0.06663487 -0.12849899 0.07773014 0.39534333 0.3950806 0.11115644 0.19354235
0.32894605 0.32554382 0.26655644 0.37548903 0.09839067 0.24555363 0.18000007 0.32512632
0.24091476 0.29779693 0.23018329 0.25316435 0.35873637 0.2413944 0.20202161 0.0814418
0.1448817 0.292487 0.095351465 0.12111741 0.2848817 -0.008006109 0.14372112 -0.0036469263
0.19426183 -0.073434226 0.058700938 0.1613085 0.16450284 0.2064985 0.2393564 0.010403092
0.3472372 0.18780227 0.17245337 0.021043237 0.21959639 0.23689859 0.1596615 0.4256346
0.406084 0.344892 0.19483615 0.2049626 0.2342692 0.071448535 0.06182585 -0.22386472
0.15525593 -0.026923696 0.016431598 0.17386977 0.22519167 0.066252425 0.2585295 0.16764551
-0.012999584 0.2472195 0.048372976 0.21212578 0.031121494 0.23749259 0.4679947 0.28058162
0.29600835 0.17774208 0.20193417 0.2693634 0.016150832 0.06977503 0.43708774 0.16077328
0.06950589 0.09280946 0.15714377 -0.014503656 0.124216884 0.06501688 0.025569659 0.34823272
00000000: f2cb 983e 877e f8bd e67d 273e 231f 333e
00000010: cf44 053e 3bf4 843e eb12 62bd 9ea0 773e
00000020: 9ab6 933e b6f1 5c3e 44c9 ae3d 6e0b 133d
00000030: cb9e 973d 2da0 043f 0d86 d23a 5cd0 79bc
00000040: a959 fc3e ca5a dc3c 2a8c 573d 7a8d 1f3d
00000050: 2e8a 333d 99d1 a73e f180 a63b 6cc7 4f3e
00000060: 9c30 ae3d 710c ab3e 643a 903e f9c3 9abd
00000070: 149a 993d 890d 353d 077a 663e c986 253e
00000080: eb1d 0b3e 2437 883e 26e8 fbbd 452c dc3d
00000090: 0b3f c53d 0c27 493e 3f3d d83e 7a64 e83d
000000a0: a565 4c3e 09f0 133e 9418 293e 7213 9cbd
000000b0: dfcc 8b3e 813d d23e ff63 9e3e 5903 4a3e
000000c0: 8ddf 813e 8012 353e 2a9c 813d 24d1 b83e
000000d0: 4fb7 003e 4529 bf3d 30ef b93e 243b e23e
000000e0: 5478 4b3e c99e 9e3c 3b34 c9bc 2908 943e
000000f0: 4cd8 2a3e 17a3 3d3d d572 463e 1cff 09bd
00000100: c83e 093e 2917 6f3e 99f3 923e 8c56 1e3e
00000110: 92f6 b23e 6d77 583e 63e6 5d3e 6743 b23e
00000120: 3d82 163c 2fc6 563e 9d24 7d3e 9ea1 123e
00000130: 542f 973e 52b9 8e3e a321 473e 8a68 533c
00000140: d442 9e3e 06ea bf3e 9784 233e 0475 4f3e
00000150: e44e 7a3e dc53 a2bc 72e6 5e3e c80e 183e
00000160: 1b37 0b3e 9b3b 1d3e 0ec9 093f 67cf 4a3e
00000170: 554f 133e 97f5 973e 1653 973e f8db 1a3e
00000180: 33fb 123e c586 653e fc67 873e 860c 8f3e
00000190: acb7 893e 7c5f b93e 46d4 ffbc 49d6 763e
000001a0: 0bf5 5d3d fe95 9e3e fbd2 373e f007 473e
000001b0: 821d 443e d804 1e3e 6338 753e e6ca 5a3e
000001c0: 270c 433d 2a05 ad3e ad44 923e 14ef 823e
000001d0: e43b a43d 0c4b 3e3e 9b7b a13e 60fa 0a3f
000001e0: 1b25 903e e8cf 553e 2273 a53e 9726 853e
000001f0: e3cb 423e 28e2 383d a79f 083d bac1 c23d
00000200: 6baf 363e f2c0 813e 10f2 af3e 9e53 cfbc
00000210: e913 7e3e 360f 3d3e b273 b93e 4bbb 053f
00000220: 0508 683e 8dd7 da3e 6776 453e c512 193e
00000230: 67ab 513e a38e 6b3e da6a 813e 9ba7 5c3d
00000240: e194 803e 50d3 a73e d232 eabd c163 3a3f
00000250: 4b8b a83e 912c 843e a4aa 633e 65dc 0b3d
00000260: 8ec8 783e c62e 193e 54c9 863e af86 833e
00000270: 015f d73e 15e2 5b3e 2115 a93d fb45 993e
00000280: 5c51 6e3e 8b41 a23e 4d28 473e ccf0 323e
00000290: aff0 ee3d 6696 893e bd86 bd3c bca3 233e
000002a0: c84a f5bc dd77 88bd 3d95 03be fb30 9f3d
000002b0: 716a ca3e 0148 ca3e fda5 e33d f72f 463e
000002c0: 9e6b a83e aead a63e 167a 883e 1940 c03e
000002d0: 0c81 c93d 6972 7b3e f051 383e f576 a63e
000002e0: 5cb2 763e d778 983e 2bb5 6b3e c29e 813e
000002f0: 4bac b73e 1830 773e c1de 4e3e f5ca a63d
00000300: de5b 143e dbc0 953e a147 c33d 680c f83d
00000310: 04dc 913e 0e2c 03bc a12b 133e 4501 6fbb
00000320: 93ec 463e af64 96bd 6570 703d 0e2e 253e
00000330: 6f73 283e 5874 533e d819 753e bb71 2a3c
00000340: 13c9 b13e 3d4f 403e 9e97 303e de62 ac3c
00000350: e0dd 603e 8b95 723e 4e7e 233e c7ec d93e
00000360: 3eea cf3e af95 b03e 2183 473e b7e1 513e
00000370: 44e4 6f3e 9c53 923d 1a3d 7d3d cb3c 65be
00000380: 69fb 1e3e 158f dcbc 8f9b 863c eb0a 323e
00000390: a598 663e 5aaf 873d fb5d 843e 44ab 2b3e
000003a0: 35fc 54bc 1c27 7d3e be22 463d 8037 593e
000003b0: 81f2 fe3c 4231 733e 009d ef3e 65a8 8f3e
000003c0: 688e 973e 0502 363e d5c7 4e3e 00ea 893e
000003d0: c04e 843c 36e6 8e3d f7c9 df3e c0a1 243e
000003e0: 1b59 8e3d e312 be3d 4cea 203e bea0 6dbc
000003f0: 6c65 fe3d 9227 853d 7677 d13c 8f4b b23e

bn1.weight f4 [300]
1.142621 1.4092677 0.3764603 0.38373804 1.7129443 0.29196468 1.8939229 0.34563276
0.19677448 0.3372106 2.5610368 1.7749814 1.1969006 2.1105623 1.860895 1.5961529
3.44239 0.8546083 1.7797608 1.7447706 1.8226656 0.8117842 1.1746417 1.2374374
1.2493677 2.9817848 1.3573883 2.4152324 1.8592081 1.4521651 1.6907052 0.36967728
1.3887634 1.1307106 1.0712284 1.970741 2.1270878 0.30933943 1.6855954 1.9330654
3.0932937 1.5278373 1.4543064 1.8802636 1.1098477 2.1892033 0.34563872 0.34669372
2.0991914 0.3246042 2.1035306 2.583714 2.501963 2.1488867 2.5725298 1.700864
0.37855244 1.3795362 1.0576591 2.7179642 1.3341081 1.3404075 0.33954114 0.95488477
0.96941733 1.284984 0.23631625 0.62566364 1.6210536 0.94860303 1.6883991 0.32453865
1.3716135 2.0954347 0.37232372 2.572987 1.4403183 2.1693256 0.33118457 1.5414181
1.4504002 1.9347298 2.6409872 0.326297 0.32782882 2.2924666 0.35965773 0.3338608
2.0060112 0.34892294 4.0684605 0.8550984 0.7807669 1.2979302 1.892231 3.5979843
1.2373408 1.8037851 0.26235902 0.345746 2.376436 2.343218 2.2422817 1.3467177
1.5257213 2.3244164 1.8772181 0.317249 1.2701927 0.36617848 1.1940053 0.34427378
2.4029505 0.23437312 1.5068625 0.36521885 1.6826 1.776674 1.188074 3.6205943
1.6215171 0.31115738 2.3688624 0.2730044 0.34384462 1.0888879 0.98902667 1.5932357
0.311819 0.36310288 2.8129692 1.3049603 0.31013814 0.3538582 0.34387466 2.6131666
2.7668328 1.9207673 0.33453435 2.9571536 2.5459085 0.31725496 1.453613 1.1639464
2.207331 1.3519809 1.108614 4.196212 3.2544818 1.378831 0.3851924 1.1474177
1.1847718 2.3036194 2.1955059 0.34027427 1.579777 0.35329196 1.753164 0.8476661
1.6680267 1.1987504 1.9376535 0.3576133 3.2626128 0.321922 1.4661548 0.351325
1.1431898 1.1900705 1.5010835 1.9157903 1.7431294 2.5395572 2.365761 0.2947661
0.9291188 2.3528602 1.8020409 1.9243535 0.97671235 1.7692353 2.2083805 1.6871797
0.2657088 0.288901 1.108923 0.2108859 0.33976763 1.1412842 1.2364267 1.2458131
1.7187023 0.3539476 1.3106251 2.3881378 2.7408304 2.0946426 0.36700103 1.3123685
0.32771558 2.4323835 1.6641604 1.98584 0.32488436 0.27135336 1.5558643 2.7225857
2.1341076 0.28204647 1.7737594 1.541761 0.34792158 1.2157902 1.6761316 0.36309692
0.83689255 1.5459347 0.30320612 1.9366491 1.7529799 1.1823097 2.8597634 1.6205903
2.137124 2.1346862 2.1052358 0.3390047 2.7645438 2.1255417 2.6332383 0.34207433
0.83050233 1.6743453 1.7415628 1.3724586 1.1757376 1.2292261 2.1147144 0.36224458
0.33027026 0.32102197 0.38087702 1.6615658 0.8471546 2.2191699 0.969647 1.4581913
2.1289117 1.6394604 1.8859211 1.6394361 1.118907 2.4830754 1.854253 0.37746167
00000000: 6841 923f e262 b43f 68bf c03e 5079 c43e
00000010: c241 db3f 657c 953e 116c f23f c7f6 b03e
00000020: 407f 493e dea6 ac3e 07e8 2340 9732 e33f
00000030: 0a34 993f 7413 0740 cf31 ee3f bd4e cc3f
00000040: 1e50 5c40 9cc7 5a3f 34cf e33f a554 df3f
00000050: 1b4d e93f 17d1 4f3f a95a 963f 5964 9e3f
00000060: 48eb 9f3f 90d5 3e40 e6be ad3f 2b93 1a40
00000070: 88fa ed3f 8ce0 b93f 0769 d83f 5746 bd3e
00000080: 00c3 b13f 20bb 903f 031e 893f 3e41 fc3f
00000090: 3522 0840 bd61 9e3e 97c1 d73f b06e f73f
000000a0: 86f8 4540 2c90 c33f b626 ba3f 7aac f03f
000000b0: 7d0f 8e3f e81b 0c40 8ff7 b03e d781 b13e
000000c0: 2759 0640 8632 a63e 3fa0 0640 925b 2540
000000d0: 2920 2040 5c87 0940 54a4 2440 e9b5 d93f
000000e0: a0d1 c13e a494 b03f 6061 873f 20f3 2d40
000000f0: 0ec4 aa3f 7992 ab3f 56d8 ad3e 5473 743f
00000100: bc2b 783f 5b7a a43f e3fc 713e 7e2b 203f
00000110: af7e cf3f a6d7 723f 761d d83f ee29 a63e
00000120: 0891 af3f 9a1b 0640 37a1 be3e d2ab 2440
00000130: 5a5c b83f 3bd6 0a40 0691 a93e 304d c53f
00000140: b7a6 b93f 3aa5 f73f ef05 2940 6610 a73e
00000150: 2ed9 a73e c6b7 1240 0f25 b83e ceef aa3e
00000160: 7d62 0040 07a6 b23e d430 8240 bbe7 5a3f
00000170: 57e0 473f 9422 a63f a034 f23f 6045 6640
00000180: 2f61 9e3f 6ee2 e63f ec53 863e 9f05 b13e
00000190: 8717 1840 49f7 1540 8b81 0f40 3f61 ac3f
000001a0: d64a c33f 3dc3 1440 af48 f03f 766e a23e
000001b0: ad95 a23f bf7b bb3e 2ad5 983f a744 b03e
000001c0: f1c9 1940 82ff 6f3e dfe0 c03f f7fd ba3e
000001d0: 705f d73f 0e6a e33f cf12 983f d1b7 6740
000001e0: df8d cf3f 0550 9f3e 719b 1740 3cc7 8b3e
000001f0: 670c b03e ae60 8b3f da30 7d3f 26ef cb3f
00000200: bda6 9f3e 9fe8 b93e b007 3440 f008 a73f
00000210: 6dca 9e3e e72c b53e 5710 b03e 1f3e 2740
00000220: ca13 3140 b4db f53f 1648 ab3e 0142 3d40
00000230: 2af0 2240 3e6f a23e fe0f ba3f 32fc 943f
00000240: e944 0d40 b60d ad3f 10e7 8d3f 5e47 8640
00000250: 6e49 5040 897d b03f f037 c53e 95de 923f
00000260: 9aa6 973f 806e 1340 2b83 0c40 6e38 ae3e
00000270: 2236 ca3f afe2 b43e ae67 e03f a500 593f
00000280: e681 d53f a770 993f 0805 f83f 1719 b73e
00000290: a6ce 5040 f6d2 a43e f6aa bb3f dfe0 b33e
000002a0: 0b54 923f 3b54 983f 8123 c03f 9e38 f53f
000002b0: dd1e df3f 1b88 2240 a168 1740 95eb 963e
000002c0: bbda 6d3f 4395 1640 47a9 e63f 3751 f63f
000002d0: d209 7a3f 4d76 e23f 1b56 0d40 81f5 d73f
000002e0: fc0a 883e d5ea 933e 30f1 8d3f 79f2 573e
000002f0: 06f6 ad3e 9a15 923f 3b43 9e3f ce76 9f3f
00000300: 70fe db3f 9f38 b53e 90c2 a73f 40d7 1840
00000310: c469 2f40 a00e 0640 8fe7 bb3e b1fb a73f
00000320: 56ca a73e 2cac 1b40 3503 d53f 0130 fe3f
00000330: 3e57 a63e d4ee 8a3e 9026 c73f d83e 2e40
00000340: 3895 0840 6568 903e 8c0a e33f 6d58 c53f
00000350: c722 b23e 039f 9b3f 7b8b d63f d7e7 b93e
00000360: 973e 563f 30e1 c53f d53d 9b3e 1ee4 f73f
00000370: a561 e03f ed55 973f 5d06 3740 816f cf3f
00000380: a4c6 0840 b39e 0840 2fbc 0640 0692 ad3e
00000390: 49ee 3040 e008 0840 fa86 2840 5e24 af3e
000003a0: cd9b 543f f250 d63f 88eb de3f b9ac af3f
000003b0: 927e 963f 4857 9d3f 7b57 0740 1f78 b93e
000003c0: 2f19 a93e fe5c a43e 5002 c33e 30ae d43f
000003d0: 20df 583f e106 0e40 c93a 783f 03a6 ba3f
000003e0: 1740 0840 d7d9 d13f dd65 f13f 0bd9 d13f
000003f0: 5838 8f3f b5ea 1e40 2a58 ed3f a842 c13e

bn1.bias f4 [300]
-0.69986403 -0.29233727 -0.6523556 -0.6214565 -0.24243307 -0.61271846 -0.40058932 -0.607664
-0.7039733 -0.68970394 -0.21149102 -0.6378374 -0.8677803 0.035678115 -0.2638817 -0.8758312
0.6809707 -0.57778174 -0.51395917 -0.4025174 -0.84506196 -0.51072925 -1.0564425 -0.46227854
-0.46753564 0.17553282 -0.2472061 -0.16743001 -0.4221864 -0.61281383 -0.15906028 -0.6093806
-0.6028884 -0.35671964 -1.2447635 -0.11797622 -0.6238973 -0.6456799 -0.4441124 -0.12448988
-0.33394197 -0.9305047 0.059784874 -0.97662944 -0.04381239 -0.59481364 -0.5799478 -0.5902833
0.09650001 -0.58503807 -0.24986137 0.808548 -0.7028615 0.09661363 0.06819945 -0.64931494
-0.579316 -0.06951617 0.16634199 0.5116709 -0.6120038 -0.55628985 -0.6104177 -0.57468504
-0.27998787 -0.22785394 -0.65818495 -0.756265 -0.48746026 -0.51079506 -0.50477564 -0.5367821
-0.19371408 0.08916853 -0.6123966 -0.009235135 -0.25330722 -0.19002818 -0.6429619 -0.420532
-1.1007248 0.12582171 -0.78114814 -0.6177491 -0.69522333 -0.61478204 -0.6425447 -0.591535
-0.37543324 -0.593645 1.0063806 -0.37995297 -0.539015 -0.11690882 -0.12800027 0.4098696
-0.6162965 -0.6166638 -0.61196744 -0.56175643 -0.6954741 -0.17299221 -0.44350567 -1.2558671
-0.4561226 -0.50344867 -0.9929523 -0.63073105 -0.96982944 -0.6091422 -0.56457055 -0.56034976
-0.45233 -0.48561442 -0.2141741 -0.61031044 -0.825091 -0.3100055 -0.7184958 0.19066378
-0.9088632 -0.64264005 -0.097911574 -0.7360883 -0.6035036 -0.7265304 -1.02322 -0.36379758
-0.6124562 -0.6279177 0.9237273 -1.100108 -0.638277 -0.5805677 -0.61562324 0.32148746
0.43703017 -0.12391461 -0.6535 -0.5351707 -0.54087424 -0.5770391 -0.41913185 -1.1862129
-0.22441918 -0.283899 -0.86374336 1.3416382 -0.71250093 -0.5273558 -0.6204313 -0.6337215
-0.31429562 -0.52434736 -0.820614 -0.5847043 -0.050996877 -0.6183213 -0.015197302 -0.270144
-0.24919885 -1.0573871 -0.6081563 -0.5734986 -0.32028174 -0.5390232 -1.0786449 -0.5726999
-1.130177 -0.4307749 -0.64615864 -0.49182904 0.43001187 -0.34632295 0.045411836 -0.5390709
-0.53186315 -0.20602381 -0.21029186 -0.22903715 -0.3661418 -0.40452906 -0.34049356 0.4390681
-0.678379 -0.6879158 0.11198404 -0.67868894 -0.6073898 -0.014337228 -0.061618816 -0.12005813
-0.56442314 -0.5829638 -0.041401573 0.20789512 -0.0096401125 -0.91233015 -0.5750483 -0.93553376
-0.58320224 0.0867547 -0.6557553 -0.08456498 -0.56942165 -0.626213 -0.9653946 -0.24329636
0.020319007 -0.6194776 -0.15436032 -0.157663 -0.63905185 -0.7945972 -0.76511985 -0.59619606
-0.2420464 0.53495777 -0.52837783 -0.15670517 -0.32245082 0.3673468 -0.57479376 -0.9768748
-0.49865496 -0.24508639 0.18554291 -0.6224698 0.027007265 -0.55173254 -0.4465797 -0.59250057
-0.85953677 0.49207526 0.082566276 -1.2180661 -0.5145433 -0.44239345 0.25356257 -0.59875906
-0.5498933 -0.60646 -0.6531305 -0.083063364 -0.5685219 -0.2711757 -0.30195513 -1.5331941
-0.32099146 -0.6156029 -0.2055406 -0.315582 -0.44754207 -0.68973964 -0.5196314 -0.6360001
00000000: 4a2a 33bf 3bad 95be c700 27bf c617 1fbf
00000010: 6040 78be 1edb 1cbf 0b1a cdbe de8f 1bbf
00000020: 9837 34bf 7090 30bf 1a91 58be 5049 23bf
00000030: da26 5ebf 3723 123d 811b 87be 7936 60bf
00000040: 1954 2e3f 81e9 13bf d492 03bf c316 cebe
00000050: fb55 58bf 27bf 02bf 8239 87bf c6af ecbe
00000060: d560 efbe e0be 333e 9923 7dbe c672 2bbe
00000070: d128 d8be 5ee1 1cbf b3e0 22be 5e00 1cbf
00000080: e556 1abf f5a3 b6be 6954 9fbf 849d f1bd
00000090: bcb7 1fbf 474b 25bf b362 e3be 8df4 febd
000000a0: 71fa aabe 8e35 6ebf fce0 743d 6304 7abf
000000b0: 9f74 33bd b545 18bf 7677 14bf ce1c 17bf
000000c0: cca1 c53d 0ec5 15bf a9db 7fbe 00fd 4e3f
000000d0: bbee 33bf 5edd c53d 27ac 8b3d 8139 26bf
000000e0: 0e4e 14bf 7e5e 8ebd 8e55 2a3e ddfc 023f
000000f0: 48ac 1cbf 0369 0ebf 5644 1cbf 8f1e 13bf
00000100: 925a 8fbe 8b52 69be cf7e 28bf 959a 41bf
00000110: 6494 f9be 77c3 02bf fa38 01bf 8d6a 09bf
00000120: fc5c 46be fe9d b63d 06c6 1cbf f74e 17bc
00000130: 7cb1 81be bf96 42be 2799 24bf f84f d7be
00000140: 8de4 8cbf 68d7 003e 53f9 47bf ce24 1ebf
00000150: 28fa 31bf 5b62 1dbf cf7d 24bf d66e 17bf
00000160: c938 c0be 1ef9 17bf 14d1 803f 3289 c2be
00000170: e3fc 09bf e46d efbd 8112 03be 6eda d13e
00000180: 9cc5 1dbf aedd 1dbf e6a9 1cbf 45cf 0fbf
00000190: 970a 32bf df24 31be 2d13 e3be 41c0 a0bf
000001a0: e788 e9be 03e2 00bf 1f32 7ebf 9777 21bf
000001b0: be46 78bf bef0 1bbf b287 10bf 1573 0fbf
000001c0: cc97 e7be 74a2 f8be 7550 5bbe 4e3d 1cbf
000001d0: 2a39 53bf 0ab9 9ebe 57ef 37bf 5e3d 433e
000001e0: 42ab 68bf 0f84 24bf dd85 c8bd 4870 3cbf
000001f0: 367f 1abf e5fd 39bf dff8 82bf ad43 babe
00000200: eec9 1cbf 37bf 20bf 6479 6c3f 57d0 8cbf
00000210: 1f66 23bf 16a0 14bf 7c99 1dbf 019a a43e
00000220: 6bc2 df3e f1c6 fdbd c74b 27bf f200 09bf
00000230: bc76 0abf d6b8 13bf 7398 d6be d3d5 97bf
00000240: 24ce 65be 365b 91be 491e 5dbf cdba ab3f
00000250: 7666 36bf ca00 07bf 96d4 1ebf 923b 22bf
00000260: 5beb a0be a13b 06bf c213 52bf 2eaf 15bf
00000270: 1ae2 50bd 4e4a 1ebf 1bfe 78bc 5050 8abe
00000280: fc2d 7fbe 7658 87bf 22b0 1bbf ced0 12bf
00000290: f8fb a3be 6dfd 09bf 0911 8abf 769c 12bf
000002a0: a4a9 90bf 878e dcbe a76a 25bf 04d1 fbbe
000002b0: 842a dc3e 3e51 b1be c301 3a3d 8d00 0abf
000002c0: 2f28 08bf e8f7 52be c056 57be b788 6abe
000002d0: f076 bbbe 6f1e cfbe 2c55 aebe 89cd e03e
000002e0: 3faa 2dbf 401b 30bf e357 e53d 8fbe 2dbf
000002f0: e67d 1bbf b1e6 6abc 0364 7cbd 09e1 f5bd
00000300: 097e 10bf 1e3d 15bf b294 29bd 75e2 543e
00000310: 90f1 1dbc 788e 69bf 5e36 13bf 247f 6fbf
00000320: be4c 15bf 73ac b13d 94df 27bf 6730 adbd
00000330: 9ec5 11bf 7f4f 20bf 1a24 77bf ae22 79be
00000340: 0c74 a63c 1696 1ebf a210 1ebe 6972 21be
00000350: e798 23bf b96a 4bbf e5de 43bf 4ea0 18bf
00000360: 03db 77be fef2 083f c543 07bf 5277 20be
00000370: 4618 a5be e114 bc3e af25 13bf 7814 7abf
00000380: b44f ffbe edf7 7abe f6fe 3d3e 2e5a 1fbf
00000390: 573e dd3c 583e 0dbf 18a6 e4be 1eae 17bf
000003a0: 9a0a 5cbf 4af1 fb3e 8218 a93d 97e9 9bbf
000003b0: 1cb9 03bf 6581 e2be f4d2 813e 4648 19bf
000003c0: cfc5 0cbf f640 1bbf 8f33 27bf 201d aabd
000003d0: a78a 11bf 8bd7 8abe dd99 9abe b43f c4bf
000003e0: fe58 a4be 2798 1dbf 3c79 52be f793 a1be
000003f0: 3c24 e5be c792 30bf 9006 05bf e7d0 22bf

l2.weight f4 [300, 308]
-0.3161105 0.29437083 -0.061151065 -0.038215928 1.144462 -0.021560324 -0.097719856 -0.035385452
0.11298742 0.11702563 -0.054208737 -0.32158178 0.22433856 0.572691 0.49327973 -0.34115094
-0.09523619 0.39691135 1.7320838 1.0396054 -0.51810944 -0.50285757 -0.56146395 0.34539786
0.36783642 0.18316513 -1.0339229 0.9151712 0.841313 -1.1141367 -1.5271118 0.009127622
-1.4512274 0.21203358 0.25536516 0.08983532 0.31936023 0.021603912 -0.8591662 1.3294833
-1.3429755 0.9948399 1.0265234 -0.08808129 -0.53354126 1.6739875 0.06734959 0.060388874
-0.07206137 -0.03087803 -0.53621024 1.8453897 0.4981418 0.99581444 0.9742156 -0.94761837
0.11498417 -0.25087816 -0.101210535 -0.54148287 1.2497032 -0.17845564 0.020484459 1.1731498
-0.7152287 0.14387095 0.1507537 1.1762505 0.3039603 -0.5845992 -0.93151736 -0.058416706
-0.14116079 -1.7192831 0.010711803 -0.98796946 -0.266696 -0.64111036 0.009078261 0.2710353
-1.5167704 -0.33245438 -0.34125262 0.19264984 0.006276235 -0.49691606 -0.015384812 0.06633035
-1.219868 -0.121901296 -0.08887614 0.1862302 0.16538864 0.10506246 -0.5838612 0.44017908
0.6249731 0.14466174 0.024068564 0.062324535 0.067031965 -0.3648935 -0.51312214 -0.7149102
0.1354151 1.1020914 0.29740143 -0.10740841 -0.21060137 -0.10469939 0.7343123 0.038206242
-0.43643573 -0.20360221 -0.8484757 -0.09219282 -0.65490544 0.65405834 0.83776283 -0.6892212
-0.70429736 0.09013647 -0.93155813 0.022603778 -0.06964586 -0.47027704 1.032062 -2.0476997
0.11761274 -0.16088055 0.093333945 0.51880074 0.11358347 0.056697853 0.094473556 -0.4020642
0.16829422 0.8826357 -0.05414752 -2.0442102 -0.054475 -0.067009844 0.09413582 -1.0742317
0.30029437 -0.08956066 1.0100012 0.55857843 -0.09053943 0.23640402 -0.16677843 -1.4461662
-0.59858143 1.0965345 -1.7499193 -0.22017829 -1.7422323 -0.44777736 0.52622634 0.009614226
-0.9332792 -0.08653355 -0.86379915 -0.0692316 -2.4838164 -0.02143776 1.4219704 -0.077291645
1.2086221 -0.3051073 -0.62954247 -1.0361682 -0.19062668 0.1363942 0.89682376 0.03145452
0.8532185 -0.3770491 -1.1485544 0.4591184 0.79822147 -0.29734233 -0.34028313 1.5917605
0.02815931 0.20806064 -0.007899874 0.00021194447 0.023745209 -0.42991605 -0.12024138 0.41023093
-0.27867287 -0.014133299 0.10153748 -0.34662545 -0.30552423 -0.72590536 0.01595711 0.6293338
0.09840512 -0.45941743 0.031218007 -0.07834919 0.01888221 -0.12772246 0.9240821 0.50585586
-0.28502798 -0.054155715 -0.4768994 0.680084 0.12299952 1.0865884 -1.8436643 0.0873261
-0.36946768 0.4843592 0.12168822 0.38080725 0.9136976 -0.5477843 -0.54611546 0.15469213
0.37166956 0.4143749 0.7538697 0.08040451 1.5130337 0.08114634 -0.34161294 0.0916996
0.48330384 0.31447923 -0.11984769 -0.89086574 0.49646503 0.6493336 0.1393559 0.08668983
-0.06906074 -0.05055261 -0.029896786 0.51678085 0.71291524 -0.065324575 -0.16764009 1.0087295
0.2929964 -0.26994544 0.38212815 -0.37640113 0.1437685 -0.712075 1.6691906 -0.034932453
00000000: 3cd9 a1be c6b7 963e 8a79 7abd 4e88 1cbd
00000010: bb7d 923f 479f b0bc 5921 c8bd 56f0 10bd
00000020: f365 e73d 22ab ef3d fb09 5ebd 5ea6 a4be
00000030: 02b9 653e e19b 123f 298f fc3e 56ab aebe
00000040: 310b c3bd f737 cb3e ecb4 dd3f ca11 853f
00000050: d2a2 04bf 46bb 00bf 1abc 0fbf fdd7 b03e
00000060: 0e55 bc3e a48f 3b3e 9657 84bf a948 6a3f
00000070: 4a60 573f 089c 8ebf 6678 c3bf 058c 153c
00000080: d2c1 b9bf 551f 593e 39bf 823e 95fb b73d
00000090: 2f83 a33e b0fa b03c 51f2 5bbf 822c aa3f
000000a0: 9fe6 abbf d4ad 7e3f 1e65 833f f763 b4bd
000000b0: 2996 08bf 3945 d63f 95ee 893d 535a 773d
000000c0: e994 93bd ecf3 fcbc 1345 09bf bb35 ec3f
000000d0: 710c ff3e b2ed 7e3f 3266 793f 1e97 72bf
000000e0: d27c eb3d 1a73 80be 7847 cfbd 9f9e 0abf
000000f0: 46f6 9f3f 13bd 36be 06cf a73c c629 963f
00000100: 3a19 37bf e852 133e 2e5f 1a3e 608f 963f
00000110: afa0 9b3e 4ba8 15bf ec77 6ebf 5b46 6fbd
00000120: 748c 10be 7811 dcbf 8f80 2f3c 91eb 7cbf
00000130: 618c 88be cf1f 24bf fdbc 143c 24c5 8a3e
00000140: 8825 c2bf 7637 aabe aab8 aebe 0046 453e
00000150: e0a8 cd3b c86b febe 9410 7cbc 35d8 873d
00000160: a224 9cbf 63a7 f9bd b204 b6bd 21b3 3e3e
00000170: a45b 293e fd2a d73d ed77 15bf 275f e13e
00000180: 3dfe 1f3f 3522 143e 702b c53c 0348 7f3d
00000190: 0e48 893d 52d3 babe f95b 03bf 5b04 37bf
000001a0: 42aa 0a3e 5511 8d3f 0045 983e f1f8 dbbd
000001b0: e3a7 57be a26c d6bd e4fb 3b3f 267e 1c3d
000001c0: 8174 dfbe 197d 50be b435 59bf 97cf bcbd
000001d0: e2a7 27bf 5e70 273f a077 563f cd70 30bf
000001e0: d54c 34bf 7899 b83d 987a 6ebf 8f2b b93c
000001f0: 7da2 8ebd 27c8 f0be 9c1a 843f 830d 03c0
00000200: f3de f03d dfbd 24be de25 bf3d 20d0 043f
00000210: 739e e83d 023c 683d 5a7b c13d 5cdb cdbe
00000220: 5255 2c3e 6af4 613f cac9 5dbd 57d4 02c0
00000230: 2d21 5fbd 753c 89bd 48ca c03d 6d80 89bf
00000240: 2fc0 993e 946b b7bd b847 813f fffe 0e3f
00000250: bd6c b9bd e513 723e f7c7 2abe f91b b9bf
00000260: a23c 19bf 3e5b 8c3f 5bfd dfbf 6b76 61be
00000270: 7801 dfbf 1343 e5be c5b6 063f fd84 1d3c
00000280: 63eb 6ebf 8038 b1bd f121 5dbf 4cc9 8dbd
00000290: d9f6 1ec0 3e9e afbc 2003 b63f 154b 9ebd
000002a0: 21b4 9a3f 0637 9cbe b229 21bf 29a1 84bf
000002b0: a433 43be ecaa 0b3e 3e96 653f 74d6 003d
000002c0: 876c 5a3f 940c c1be d503 93bf 9111 eb3e
000002d0: 3e58 4c3f 413d 98be 9739 aebe cfbe cb3f
000002e0: 5aae e63c d90d 553e 796e 01bc 693d 5e39
000002f0: 5085 c23c f51d dcbe 1d41 f6bd ca09 d23e
00000300: 36ae 8ebe 5a8f 67bc e2f2 cf3d e478 b1be
00000310: ac6d 9cbe efd4 39bf 7cb8 823c 051c 213f
00000320: a088 c93d c338 ebbe e8bc ff3c 8a75 a0bd
00000330: ddae 9a3c adc9 02be a590 6c3f c57f 013f
00000340: 30ef 91be 62d2 5dbd 282c f4be fc19 2e3f
00000350: 2ce7 fb3d 5415 8b3f 31fd ebbf 07d8 b23d
00000360: de2a bdbe eefd f73e ac37 f93d 2bf9 c23e
00000370: 16e8 693f 983b 0cbf 39ce 0bbf 9d67 1e3e
00000380: 794b be3e f228 d43e 9bfd 403f 1fab a43d
00000390: 17ab c13f 0d30 a63d e4e7 aebe 00cd bb3d
000003a0: 9a73 f73e 6c03 a13e b572 f5bd c70f 64bf
000003b0: aa30 fe3e ba3a 263f 50b3 0e3e 708a b13d
000003c0: b86f 8dbd 4110 4fbd 1bea f4bc c04b 043f
000003d0: 9d81 363f e4c8 85bd d8a9 2bbe 0c1e 813f
000003e0: a003 963e 4a36 8abe 4da6 c33e a6b7 c0be
000003f0: 0d38 133e 8c4a 36bf 0aa8 d53f 5515 0fbd

l2.bias f4 [300]
0.69383913 0.11830969 0.015884371 0.0769364 0.4992541 -0.112034224 0.66793436 0.13061137
-0.37089667 -0.4501927 -0.74532324 -0.68915147 0.54652596 -0.83384156 -1.0748286 0.121191375
-0.5411393 -0.53222036 -0.65818673 -0.04891946 -1.0333534 0.047414046 0.89102733 -0.2849501
-0.5566025 1.1590519 0.45146948 -0.008814021 0.3341511 0.529431 0.87553966 0.7438414
0.25262782 -0.51215 -0.81249166 0.2182729 -0.5715063 0.5391628 0.07464498 0.64816904
0.64730203 0.6718409 0.3445157 -1.1350775 0.59742624 -0.34485722 -0.16832428 -0.88856345
-1.1577215 -0.05537005 -0.07884375 -0.640227 -0.058834586 -0.49052042 0.50250614 -0.50188076
0.35446507 0.5097555 0.054368462 0.58974993 -0.6017289 -0.7411444 -0.15219425 -0.95733875
-0.6880629 -0.80230063 -0.3566021 0.42144147 0.47575954 -0.82935727 0.6815434 0.086150184
-0.6198132 -0.5006121 0.13151768 -0.43692407 0.3106743 -0.70119387 -0.019545812 0.4286171
0.119137526 0.4823347 0.29368204 0.0311474 -0.932691 -0.13179821 -0.98152554 0.51197636
0.31081071 0.4128608 -0.49263203 -0.12708144 0.1783147 -0.92178965 0.20505174 -0.3014544
0.4536527 0.21139441 0.071947716 -0.35213575 -0.70114195 0.24186946 0.35725635 0.62652403
-1.5584402 -0.12676464 -1.115323 -0.6426099 -1.0149884 -0.17620806 0.80544317 0.3106543
-0.67084634 0.41988558 0.077780075 -0.23578988 -0.20124185 -0.84654695 0.62506163 1.0873315
1.0178913 0.4469982 -0.10275613 -1.0887965 0.11363596 -0.5239485 -0.9096975 -0.6617069
0.37466112 -0.11024615 0.24176228 -0.02653405 -0.36651328 0.7420197 -0.6544082 0.5144819
0.17183553 -1.1547074 -0.44292796 -1.4633633 0.24544741 -0.78646916 -0.5177888 -0.9279161
0.13547556 0.5051707 0.4544431 -0.8765069 -1.0430238 -0.6289634 -0.75946337 -0.32448184
-0.63973397 0.16224328 -0.7234587 0.6443953 0.38127545 0.6704931 -0.93992394 -1.6817732
-0.12882923 -0.5786997 -0.93591344 0.44852206 0.9020035 0.4251612 0.049811985 -0.23351286
0.13583973 -0.11009655 -0.06346192 0.34530985 -0.11240356 -0.85085297 -0.53717613 -0.48081174
-0.84867966 -0.092152126 0.081441596 0.1810567 0.42208278 -0.035810772 0.10263857 0.4645986
0.052691255 -1.1207342 -1.6355493 -0.68750906 -0.43191856 0.34483585 -0.06165239 0.7131073
0.5083095 -1.002974 0.014018253 0.13515423 -0.18170962 -1.0405173 0.029426644 -1.0512807
0.26943666 -0.25750968 -0.26401863 0.12982093 -0.57728434 0.08449851 0.7801593 0.48281133
-1.1402588 0.14396758 0.15119046 0.72392285 0.90855277 0.63404274 0.48193672 -0.51246935
-1.1074938 -0.16228504 0.02611372 -0.72816676 0.60439235 0.16525842 0.89990693 -0.6545399
-0.73962635 -0.096766345 0.44333217 -0.0770475 -0.112390704 0.7598999 -1.1415696 0.52815413
0.9307707 -0.7881743 -0.66924024 -0.079495214 0.18776242 -1.2867503 0.41192314 -0.5984067
0.0070264284 0.032632668 0.06794005 0.49644768 -0.9342802 -0.8694903 0.86259264 0.28852838
0.35437414 -1.5010977 0.55820686 1.0044339 0.053834964 -0.026313951 -1.0088829 0.2855779
00000000: 719f 313f 5a4c f23d f11f 823c d590 9d3d
00000010: 3c9e ff3e 3372 e5bd bffd 2a3f fdbe 053e
00000020: 2be6 bdbe a87f e6be 81cd 3ebf 3b6c 30bf
00000030: 20e9 0b3f a476 55bf fc93 89bf 2f33 f83d
00000040: 1b88 0abf 983f 08bf ed7e 28bf c65f 48bd
00000050: ed44 84bf 3b35 423d 5e1a 643f fbe4 91be
00000060: 807d 0ebf d05b 943f 0227 e73e af68 10bc
00000070: da15 ab3e ca88 073f 5e23 603f 646c 3e3f
00000080: 6f58 813e 431c 03bf 74ff 4fbf ee82 5f3e
00000090: 3d4e 12bf 9306 0a3f 78df 983d 68ee 253f
000000a0: 96b5 253f c4fd 2b3f 5d64 b03e 384a 91bf
000000b0: edf0 183f 2091 b0be 335d 2cbe e578 63bf
000000c0: 3830 94bf b5cb 62bd d578 a1bd ebe5 23bf
000000d0: 89fc 70bd 7e25 fbbe 3ea4 003f 427b 00bf
000000e0: 727c b53e 567f 023f 77b1 5e3d daf9 163f
000000f0: e80a 1abf a4bb 3dbf cfd8 1bbe 2714 75bf
00000100: e424 30bf 9363 4dbf 8d94 b6be 2dc7 d73e
00000110: c196 f33e c250 54bf a179 2e3f 826f b03d
00000120: 14ac 1ebf 1d28 00bf 92ac 063e 83b4 dfbe
00000130: b410 9f3e 7181 33bf 8a1e a0bc b373 db3e
00000140: 60fe f33d 93f4 f63e 7e5d 963e d528 ff3c
00000150: d6c4 6ebf 1cf6 06be 4245 7bbf e210 033f
00000160: 9522 9f3e 7e62 d33e 443a fcbe a321 02be
00000170: 2198 363e 68fa 6bbf 15f9 513e 3b58 9abe
00000180: 2b45 e83e c777 583e 5359 933d 234b b4be
00000190: 0a7e 33bf a1ac 773e 4eea b63e e163 203f
000001a0: f87a c7bf 97ce 01be e7c2 8ebf 1582 24bf
000001b0: 24eb 81bf e36f 34be 8631 4e3f 150e 9f3e
000001c0: 96bc 2bbf 3efb d63e 294b 9f3d e772 71be
000001d0: 5812 4ebe 4db7 58bf 0a04 203f ae2d 8b3f
000001e0: 434a 823f f3dc e43e ce71 d2bd af5d 8bbf
000001f0: f8b9 e83d 7d21 06bf efe1 68bf a065 29bf
00000200: 95d3 bf3e bcc8 e1bd 8890 773e f05d d9bc
00000210: a1a7 bbbe 01f5 3d3f 4c87 27bf 16b5 033f
00000220: a7f5 2f3e 74cd 93bf 74c7 e2be 7d4f bbbf
00000230: 9156 7b3e 0b56 49bf cf8d 04bf e98b 6dbf
00000240: 1bba 0a3e de52 013f c4ac e83e c262 60bf
00000250: ce81 85bf bf03 21bf 316c 42bf 7c22 a6be
00000260: 9bc5 23bf 1a23 263e 9734 39bf 17f7 243f
00000270: 8936 c33e 70a5 2b3f db9e 70bf 5844 d7bf
00000280: cfeb 03be aa25 14bf 0698 6fbf afa4 e53e
00000290: b4e9 663f bbae d93e a707 4c3d ff1d 6fbe
000002a0: 9219 0b3e 4d7a e1bd 53f8 81bd 74cc b03e
000002b0: d633 e6bd 80d1 59bf 6084 09bf f52c f6be
000002c0: 1243 59bf 41ba bcbd daca a63d ed66 393e
000002d0: 3c1b d83e 51ae 12bd 2c34 d23d dedf ed3e
000002e0: c9d2 573d 3874 8fbf ae59 d1bf 9800 30bf
000002f0: 6e24 ddbe 538e b03e 3787 7cbd 338e 363f
00000300: 9220 023f 7461 80bf d1ac 653c df65 0a3e
00000310: 1612 3abe ac2f 85bf 2510 f13c 5e90 86bf
00000320: 9af3 893e 4fd8 83be 732d 87be c7ef 043e
00000330: e8c8 13bf 8e0d ad3d 85b8 473f 0c33 f73e
00000340: 00f4 91bf 3d6c 133e acd1 1a3e 0253 393f
00000350: ea96 683f a050 223f 69c0 f63e 3131 03bf
00000360: 5bc2 8dbf 0d2e 26be 71ec d53c 2369 3abf
00000370: 75b9 1a3f 8139 293e 4d60 663f ed8f 27bf
00000380: 2758 3dbf 6f2d c6bd 6ffc e23e 14cb 9dbd
00000390: 192d e6bd cd88 423f f41e 92bf 1c35 073f
000003a0: fd46 6e3f cac5 49bf 5453 2bbf 63ce a2bd
000003b0: cb44 403e 3cb4 a4bf 97e7 d23e 2e31 19bf
000003c0: f43d e63b d5a9 053d 2724 8b3d 642e fe3e
000003d0: fd2c 6fbf eb96 5ebf dfd2 5c3f feb9 933e
000003e0: 8770 b53e f823 c0bf a5e6 0e3f 4a91 803f
000003f0: 0d82 5c3d 5b90 d7bc 1323 81bf 4437 923e

bn2.weight f4 [300]
1.4170297 1.4095173 1.3465357 1.3331616 1.7481862 1.234851 1.3324518 1.3753281
1.216636 0.22413006 1.4138093 0.260553 1.1013439 0.30798045 1.213758 1.3105456
1.73367 0.17055735 0.30047026 1.4313735 0.20935406 1.780003 1.2632134 1.5653558
1.3794864 1.6983286 1.0747539 1.1350925 0.91897804 1.5737631 1.553843 1.4136714
1.1672239 0.24658613 0.2294915 1.300128 0.25372827 1.5643858 1.0428458 1.0849621
1.414906 1.6605833 1.2485913 1.2059822 1.1417254 0.23289493 1.0635107 0.22868088
1.2706255 1.0436559 1.1064868 0.3574941 1.3790148 1.79494 1.5269815 0.2839419
1.6075559 1.7009913 1.058791 1.3578514 0.2555045 1.1582465 1.450256 1.1511366
0.4677866 0.27803504 0.28272 1.4119855 1.3035283 1.6334475 1.598934 1.0737435
0.25009388 0.21183659 1.2582358 0.292972 1.1421463 1.9858037 1.0885763 1.1684413
1.09536 1.0271306 1.3682673 1.2441847 0.16774401 0.9990215 0.70241755 1.7588776
1.0685527 1.2583699 1.2552445 1.2736187 1.4865429 0.23240319 1.2415128 1.6031426
1.4238265 1.3090236 1.2405705 0.9262227 1.6932861 1.1783762 1.232156 1.4268098
1.4763795 1.0978596 0.8912077 0.2916011 1.141901 1.186507 1.387467 1.1912653
1.6626285 1.4121597 0.20309854 0.22059849 1.1454937 0.27873242 1.2614287 1.8031979
1.4984747 1.660552 1.2605081 0.25304878 1.3002034 0.2553376 0.22502711 1.4991066
1.2511871 1.1395826 1.0608332 1.3168148 1.0112473 1.2406867 1.5319896 1.3485546
1.280552 1.5887382 1.2357162 1.6200331 1.5183727 1.0685711 0.22345057 0.24111442
1.4312608 1.4710817 1.5236458 0.2896401 1.8733406 0.31292766 2.5322895 1.4239295
1.249578 1.1784276 1.2224109 1.1735643 1.4444684 1.5010389 0.20461847 1.6379586
1.4563626 0.24677388 1.279081 1.1894631 1.4131916 1.1602757 1.3547354 0.2778026
1.4178787 1.1415544 1.3601933 1.4226949 1.4377047 0.21845569 0.25794232 0.32523006
0.18143521 1.4943653 1.2710519 1.1557294 1.1998862 0.9813423 1.2881691 1.1660739
1.5664482 0.26253784 1.2170284 0.252411 0.2913567 1.2187635 1.2592806 1.3516827
1.4833835 0.25017732 0.30364123 1.3323286 0.20103025 0.26965463 1.1966722 0.2882215
1.0756685 1.1415678 1.3902831 1.0855412 0.3590915 1.3580971 1.2380538 1.2386874
0.2894732 0.19982922 1.4298663 1.6355511 1.3688449 1.476925 1.4508746 1.2712495
1.4438396 1.6709957 0.27503097 1.0190569 1.4633614 1.2174054 1.5004201 1.2742682
1.5619372 1.0780141 1.0702405 1.2043319 1.1172034 1.1444781 1.7768236 1.1148582
1.3514291 0.23135713 0.28153387 0.21057297 1.230077 0.17479526 1.295516 1.2504704
1.3531103 1.1226397 1.2391558 1.627369 0.3194484 0.2502727 1.4563015 1.3899107
1.0986835 0.2632352 1.6717587 1.5837238 1.5564739 1.3991085 0.23064485 1.1570742
00000000: 3b61 b53f 106b b43f 485b ac3f 0aa5 aa3f
00000010: 91c4 df3f 990f 9e3f c88d aa3f c00a b03f
00000020: baba 9b3f 5a82 653e b4f7 b43f 3467 853e
00000030: d6f8 8c3f 9daf 9d3e 6c5c 9b3f f5bf a73f
00000040: e6e8 dd3f 96a6 2e3e 3dd7 993e 3f37 b73f
00000050: e960 563e 23d7 e33f fab0 a13f 945d c83f
00000060: 0393 b03f d562 d93f 8991 893f b64a 913f
00000070: 2542 6b3f 1271 c93f 54e4 c63f 2ff3 b43f
00000080: 9867 953f 1381 7c3e d2ff 6a3e 986a a63f
00000090: ace8 813e cb3d c83f f97b 853f 0ae0 8a3f
000000a0: a41b b53f fe8d d43f d7d1 9f3f a05d 9a3f
000000b0: 0f24 923f 027c 6e3e 1e21 883f 522b 6a3e
000000c0: dba3 a23f 8496 853f 5ca1 8d3f 7709 b73e
000000d0: 8f83 b03f 98c0 e53f 2174 c33f d560 913e
000000e0: 64c4 cd3f 15ba d93f 7786 873f 13ce ad3f
000000f0: 7cd1 823e 6c41 943f fda1 b93f 7258 933f
00000100: ba81 ef3e 9c5a 8e3e adc0 903e f1bb b43f
00000110: 04da a63f cf14 d13f dfa9 cc3f 6d70 893f
00000120: 4e0c 803e b1eb 583e df0d a13f 6d00 963e
00000130: da31 923f d12e fe3f 7856 8b3f 7c8f 953f
00000140: c234 8c3f 0479 833f 6223 af3f 7241 9f3f
00000150: 16c5 2b3e dfbf 7f3f a3d1 333f e722 e13f
00000160: 56c6 883f 4412 a13f daab a03f f005 a33f
00000170: 0a47 be3f 1afb 6d3e e4e9 9e3f c733 cd3f
00000180: f23f b63f 168e a73f 04cb 9e3f ee1c 6d3f
00000190: 99bd d83f 08d5 963f 4ab7 9d3f b4a1 b63f
000001a0: 01fa bc3f aa86 8c3f 3026 643f bd4c 953e
000001b0: d029 923f 76df 973f 8598 b13f 627b 983f
000001c0: 03d1 d43f a6c1 b43f 10f9 4f3e 92e4 613e
000001d0: 8a9f 923f 04b6 8e3e 7f76 a13f 30cf e63f
000001e0: 05ce bf3f f88c d43f 5458 a13f 9c8f 813e
000001f0: 116d a63f 9cbb 823e 826d 663e bae2 bf3f
00000200: e626 a03f d8dd 913f 62c9 873f 638d a83f
00000210: 8d70 813f d2ce 9e3f 3c18 c43f 709d ac3f
00000220: 21e9 a33f c65b cb3f f32b 9e3f 3f5d cf3f
00000230: 095a c23f f0c6 883f 3ad0 643e b3e6 763e
00000240: 8e33 b73f 684c bc3f d306 c33f b54b 943e
00000250: a0c9 ef3f 0e38 a03e 0811 2240 5243 b63f
00000260: 2cf2 9f3f b7d6 963f f677 9c3f 5b37 963f
00000270: 57e4 b83f 0b22 c03f 8187 513e a1a8 d13f
00000280: 176a ba3f 4bb2 7c3e edb8 a33f 5440 983f
00000290: 76e3 b43f ea83 943f f867 ad3f 243c 8e3e
000002a0: 0d7d b53f 741e 923f d01a ae3f de1a b63f
000002b0: b506 b83f d9b2 5f3e 0411 843e 8e84 a63e
000002c0: 27ca 393e 5d47 bf3f d4b1 a23f f1ee 933f
000002d0: df95 993f 4039 7b3f bae2 a43f e941 953f
000002e0: 6081 c83f 5c6b 863e 96c7 9b3f 043c 813e
000002f0: b52c 953e 7100 9c3f 1b30 a13f f003 ad3f
00000300: 83df bd3f 3e17 803e dd76 9b3e be89 aa3f
00000310: e0da 4d3e 2c10 8a3e 8e2c 993f c591 933e
00000320: 81af 893f e51e 923f ccf4 b13f 04f3 8a3f
00000330: d7da b73e 20d6 ad3f 8c78 9e3f 4f8d 9e3f
00000340: d535 943e 08a0 4c3e dc05 b73f bd59 d13f
00000350: 4f36 af3f e10b bd3f 42b6 b93f 4eb8 a23f
00000360: bccf b83f 30e3 d53f dcd0 8c3e 7570 823f
00000370: 6d4f bb3f f1d3 9b3f c40d c03f 381b a33f
00000380: 8fed c73f 5efc 893f a4fd 883f 8c27 9a3f
00000390: 8500 8f3f 427e 923f f56e e33f acb3 8e3f
000003a0: a1fb ac3f e2e8 6c3e 3525 903e 71a0 573e
000003b0: 2a73 9d3f 87fd 323e 78d3 a53f 6a0f a03f
000003c0: b832 ad3f a8b2 8f3f a89c 9e3f a14d d03f
000003d0: be8e a33e be23 803e 1668 ba3f 98e8 b13f
000003e0: a9a1 8c3f c4c6 863e 30fc d53f 76b7 ca3f
000003f0: 893a c73f fd15 b33f 2a2e 6c3e 021b 943f

bn2.bias f4 [300]
-0.6133973 -0.832331 -1.0066462 -0.9037547 -1.1174384 -0.45416266 -0.68553144 -0.5785161
-1.1398515 -0.7689424 -2.0628085 -0.87779254 -1.2643967 -0.8743354 -0.12122938 -0.5911111
-1.61019 -0.7199354 -0.8413979 -0.7112492 -0.6825275 -1.0624942 -1.257296 -1.5869535
-0.96370935 -0.4752701 -0.77783364 -1.1034749 -1.0404048 -0.39098424 -0.88957113 -0.74679714
-0.69465834 -0.668127 -0.7389374 -0.9858381 -0.8271047 -0.30622602 -0.90216494 -0.86788994
-0.9588294 -0.5283362 -1.3235304 -1.014058 -0.7286446 -0.7039256 -1.1068752 -0.7720657
-1.3061738 -1.1291146 -1.0392829 -1.2335193 -1.3527815 -0.61540693 -0.7500861 -0.7836409
-0.96952206 -0.9430813 -0.9427604 -0.72170526 -0.7551618 -1.3026236 -0.77672946 -1.5154157
-1.548566 -0.86683714 -0.7267542 -1.1413041 -1.1557515 -1.2384695 -0.4116627 -1.3818667
-0.8285233 -0.6649441 -0.94206655 -0.90589017 -0.6341405 -1.9594314 -1.4072698 -0.8862697
-1.1633037 -0.95113844 0.05899341 -0.9591965 -0.70280504 -0.3622496 -0.41145548 -0.7656997
-1.046803 -0.8563393 -1.2619344 -0.9204976 -1.0133656 -0.79881626 -0.9046971 -1.2463015
-0.5792232 -0.93354213 -0.8764695 0.5361985 -2.999857 -1.1041743 -1.0068659 -0.9210935
-0.13927427 -0.8675599 0.077908635 -0.7932492 -1.2783604 -1.2301292 -1.3117374 -0.878684
-1.8677773 -0.687975 -0.81693614 -0.6628937 -0.8817794 -0.71910095 -0.83353895 -1.0308639
-0.43502358 -0.7089163 -1.1165925 -0.6704635 -0.809226 -0.88121384 -0.7859536 -0.85320795
-0.79134744 -1.0069703 -0.86494786 -0.8565711 -0.9801711 -0.7220864 -1.6960478 -0.6995584
-1.5457916 -1.5754884 -0.9963446 -0.45855483 -1.0580139 -1.6234776 -0.75278956 -0.7027335
-1.2786008 -1.4278729 -0.98883265 -0.84104025 -1.0136203 -0.64036316 -1.7848366 -1.141244
-1.0470041 -0.9651431 -1.2399678 -0.91494817 -0.9986834 -0.85042965 -0.69620085 -0.35233334
-1.7998784 -0.6868786 -1.4296657 -1.2061588 -0.7977721 -1.0698037 -0.9485902 -0.86371386
-0.89395094 -1.0878077 -1.0814568 -0.99657935 -1.974501 -0.7039614 -0.8284279 -0.84855044
-0.60409963 -1.0101634 -0.78444695 -1.2440945 -1.0425247 -1.2504271 -1.2783892 -0.9335596
-1.4539706 -0.8143612 0.053934913 -0.6180352 -0.7486291 -0.8253648 -0.79509103 -0.69663376
-0.78512675 -0.83894217 -0.9716103 -1.3198885 -0.74825954 -0.6229466 -1.1142619 -0.8839676
-0.96499985 -0.86379045 -0.5938921 -0.88441825 -0.94036555 -0.8843797 -0.5954219 -0.956689
-0.77762085 -0.5262082 -0.8342738 -1.1253943 -0.7382286 -0.9285656 -1.0998309 -0.6882695
-1.1179997 -1.7857333 -0.8340069 -1.6093606 -1.0242517 -1.1470724 -0.9446208 -1.3654896
-1.0088937 -1.0949471 -1.2975398 -0.5082539 -1.0605006 -1.0401206 -0.6073263 -0.95662177
-0.8780119 -0.80387074 -0.8612343 -0.63294834 -0.992664 -0.5963391 -0.8079074 -0.78326845
-0.95320886 -1.5618982 -1.1385977 -0.9928592 -0.76685625 -0.7742711 -0.51256645 -0.55444306
-1.1860698 -0.668878 -0.7795877 -0.5682581 -0.64448637 -0.021150025 -0.8568593 -1.0457836
00000000: 9b07 1dbf a513 55bf c8d9 80bf 785c 67bf
00000010: 3908 8fbf 0288 e8be fd7e 2fbf a219 14bf
00000020: a7e6 91bf 69d9 44bf 0e05 04c0 03b7 60bf
00000030: c0d7 a1bf 72d4 5fbf 1c47 f8bd 0f53 17bf
00000040: b51a cebf b04d 38bf da65 57bf 6d14 36bf
00000050: 1fba 2ebf cfff 87bf 13ef a0bf 4b21 cbbf
00000060: a8b5 76bf 9a56 f3be 1b20 47bf aa3e 8dbf
00000070: fc2b 85bf 162f c8be efba 63bf 192e 3fbf
00000080: 21d5 31bf 5f0a 2bbf 002b 3dbf e35f 7cbf
00000090: 22bd 53bf a8c9 9cbe 48f4 66bf 092e 5ebf
000000a0: d875 75bf 0b41 07bf 7269 a9bf a7cc 81bf
000000b0: 7488 3abf 7834 34bf 16ae 8dbf 19a6 45bf
000000c0: b430 a7bf d486 90bf 3907 85bf f6e3 9dbf
000000d0: f227 adbf 4f8b 1dbf a505 40bf b19c 48bf
000000e0: 9932 78bf c76d 71bf bf58 71bf adc1 38bf
000000f0: 4952 41bf 5fbc a6bf bed7 46bf 24f9 c1bf
00000100: 6937 c6bf 0ae9 5dbf 900c 3abf 4116 92bf
00000110: aaef 93bf 2b86 9ebf 74c5 d2be 02e1 b0bf
00000120: 1a1a 54bf c739 2abf 462b 71bf 6be8 67bf
00000130: 0857 22bf a6ce fabf 6b21 b4bf 92e2 62bf
00000140: 23e7 94bf cf7d 73bf 13a3 713d e78d 75bf
00000150: 08eb 33bf c878 b9be 4baa d2be e504 44bf
00000160: a4fd 85bf 0d39 5bbf 1187 a1bf bba5 6bbf
00000170: f7b5 81bf 397f 4cbf 3b9a 67bf cf86 9fbf
00000180: f947 14bf 9efc 6ebf 4e60 60bf 4e44 093f
00000190: a8fd 3fc0 9555 8dbf fbe0 80bf c9cc 6bbf
000001a0: ea9d 0ebe 6818 5ebf 908e 9f3d 6112 4bbf
000001b0: 50a1 a3bf e074 9dbf 03e7 a7bf 6ff1 60bf
000001c0: 5413 efbf 211f 30bf ba22 51bf 67b3 29bf
000001d0: 4bbc 61bf 0017 38bf cf62 55bf 59f3 83bf
000001e0: 69bb debe 8a7b 35bf 81ec 8ebf 7fa3 2bbf
000001f0: 6f29 4fbf 3b97 61bf 4134 49bf d66b 5abf
00000200: bf95 4abf 67e4 80bf 396d 5dbf 3e48 5bbf
00000210: 7eec 7abf a8da 38bf 1818 d9bf 4216 33bf
00000220: 80dc c5bf 9ba9 c9bf 7110 7fbf b3c7 eabe
00000230: 006d 87bf 1dce cfbf d1b6 40bf 58e6 33bf
00000240: 31a9 a3bf 8ac4 b6bf 2324 7dbf 6a4e 57bf
00000250: 4fbe 81bf d7ee 23bf 8775 e4bf 4914 92bf
00000260: 3b04 86bf 9e13 77bf 44b7 9ebf 0b3a 6abf
00000270: b7a9 7fbf c2b5 59bf 383a 32bf 0965 b4be
00000280: 6a62 e6bf 47d7 2fbf 49ff b6bf 6963 9abf
00000290: cb3a 4cbf 54ef 88bf cfd6 72bf 5a1c 5dbf
000002a0: f8d9 64bf 483d 8bbf 2d6d 8abf d31f 7fbf
000002b0: 73bc fcbf d036 34bf da13 54bf 9a3a 59bf
000002c0: 46a6 1abf 094d 81bf 84d1 48bf 7d3e 9fbf
000002d0: 7371 85bf ff0d a0bf 42a2 a3bf c3fd 6ebf
000002e0: b51b babf fa79 50bf dbea 5c3d 8e37 1ebf
000002f0: 28a6 3fbf 1c4b 53bf 168b 4bbf 9756 32bf
00000300: 11fe 48bf eac4 56bf 74bb 78bf 1bf2 a8bf
00000310: f08d 3fbf 6e79 1fbf 22a0 8ebf b34b 62bf
00000320: 3b0a 77bf 5f21 5dbf 5009 18bf 3c69 62bf
00000330: ccbb 70bf b566 62bf 926d 18bf 92e9 74bf
00000340: 2912 47bf 95b5 06bf f892 55bf ec0c 90bf
00000350: 8dfc 3cbf 7ab6 6dbf 42c7 8cbf 6e32 30bf
00000360: 9d1a 8fbf e992 e4bf 7a81 55bf 87ff cdbf
00000370: ae1a 83bf 45d3 92bf abd2 71bf 5dc8 aebf
00000380: 6e23 81bf 3a27 8cbf c915 a6bf ed1c 02bf
00000390: 7cbe 87bf ac22 85bf bd79 1bbf 2ae5 74bf
000003a0: 63c5 60bf 79ca 4dbf da79 5cbf e708 22bf
000003b0: 3a1f 7ebf aea9 18bf 05d3 4ebf 4884 48bf
000003c0: 7f05 74bf 48ec c7bf 92bd 91bf 052c 7ebf
000003d0: b150 44bf a136 46bf 8e37 03bf fbef 0dbf
000003e0: 23d1 97bf 973b 2bbf 0f93 47bf 5d79 11bf
000003f0: 0ffd 24bf d142 adbc 225b 5bbf 3ddc 85bf
