weights/model_actor_target_52.pt (torch, 429959 bytes, 10 tensors)

l1.weight f4 [300, 42]
0	0x3f19e968	0.60121775
1	0xbe8ee423	-0.2790843
2	0x3f1e5ff2	0.6186515
3	0xbf030389	-0.5117727
4	0x3ebe5862	0.37176806
5	0x3dd82898	0.10554618
6	0xbfbf72e8	-1.4956942
7	0xbf6fd4ef	-0.93684286
8	0xbf37dffa	-0.71826136
9	0x3e7b0a10	0.24515557
10	0x3ec86d8e	0.39146084
11	0xbe76977e	-0.24081227
12	0x3f0f3626	0.55942
13	0xbf3731f7	-0.71560615
14	0xbff5aefb	-1.9194025
15	0x3fbb69fa	1.4641716
16	0x3ea7123c	0.326311
17	0x3ebf135f	0.37319466
18	0x4060b136	3.510816
19	0x3ff9d8f9	1.951934
20	0x3f0cc5bf	0.54989237
21	0xbe8370d0	-0.25672007
22	0xbfbbe2c1	-1.4678575
23	0x3efa59a1	0.48896506
24	0x3f0e33fe	0.55548084
25	0x3eb34ece	0.3502106
26	0x3e27a1ee	0.16370365
27	0x3b47aad2	0.0030466807
28	0x3f5bc8a9	0.8585306
29	0xbf07ec82	-0.5309526
30	0x3e9f479a	0.31109315
31	0xbf29014c	-0.66017604
32	0x3ff6b019	1.9272491
33	0xbebc92a5	-0.3683063
34	0x3eca1fa1	0.39477256
35	0xc09a8ba3	-4.8295455
36	0xc03b7dde	-2.9295573
37	0x3f33a4a5	0.701731
38	0xbe15be62	-0.14623407
39	0xbf02feca	-0.5117003
40	0xbf9d00c7	-1.2265862
41	0x3f8e0ffe	1.109863
42	0x3f0c4161	0.5478726
43	0x3f39db78	0.7260051
44	0x3e987d4d	0.29783097
45	0x3efbc051	0.49170163
46	0x3e204e5c	0.15654892
47	0x3f1d89dd	0.6153849
48	0xbd6e934c	-0.058245942
49	0x3be9ed47	0.0071388814
50	0xbe63ea45	-0.22257335
51	0x3ea8d210	0.32972765
52	0x3ebff545	0.37491813
53	0xc0031547	-2.0481737
54	0x3e7c06f8	0.24612033
55	0xbecba036	-0.3977067
56	0x3fa45b4c	1.2840362
57	0xbfb8256f	-1.4386424
58	0xbf5ea06f	-0.8696355
59	0xbfdf9772	-1.7468092
60	0xbfcde9e7	-1.6087006
61	0x3ee0cc3f	0.43905827
62	0xbdc840ad	-0.09777961
63	0xbfaf29ef	-1.3684672
64	0xc003fd6b	-2.0623424
65	0x3eb0fb21	0.34566596
66	0x3f24f527	0.6443657
67	0x3fae8789	1.3635112
68	0x3f646486	0.89215887
69	0x4041c2cd	3.0275147
70	0xbf30c8a8	-0.6905618
71	0xbf1574a4	-0.58381104
72	0xbe0dfc3e	-0.13865754
73	0x3e826373	0.254665
74	0xc001e529	-2.0296118
75	0xc0206936	-2.5064216
76	0x3f0157d5	0.50524646
77	0xbfcfce1c	-1.6234775
78	0xc000da81	-2.0133364
79	0xbf6fb7f7	-0.93640083
80	0xbfb2af72	-1.3959792
81	0xbf1b6100	-0.60694885
82	0xbf7f2c4a	-0.99676955
83	0xbf849c04	-1.0360112
84	0x3e0917c2	0.13387969
85	0x3e11c959	0.14236964
86	0x3a99cac1	0.0011733399
87	0xbf9b2a1f	-1.2122229
88	0x3ebc2341	0.36745647
89	0xbea2948e	-0.31753963
90	0x3f77f6ef	0.96861166
91	0xbf4ed2a7	-0.8079018
92	0xbeefb85b	-0.4682034
93	0x3f560e41	0.836155
94	0x3f23c168	0.6396699
95	0xbf4632cf	-0.7742128
96	0x3f04fa1e	0.5194415
97	0xbe9f2c1a	-0.31088334
98	0x3e95aa99	0.29231718
99	0x3f08d742	0.5345346
100	0x3f3cd495	0.73761874
101	0x3f943084	1.1577306
102	0xbf9365ab	-1.1515402
103	0x3f723b93	0.94622153
104	0xc00ebc40	-2.2302399
105	0xbf0c2da4	-0.5475714
106	0xbe5c8cf2	-0.21538141
107	0x3f1c82e2	0.6113721
108	0x3f24c022	0.6435567
109	0x3e147e7f	0.1450138
110	0xbf423b72	-0.75871956
111	0x3e91c84c	0.28473127
112	0xbedeb425	-0.43496814
113	0x3f75ae70	0.95969296
114	0x3f06699e	0.5250491
115	0x3b893c29	0.00418808
116	0x4082411c	4.070448
117	0xbf889339	-1.0669929
118	0x3f06e9c3	0.5270044
119	0x3f52c464	0.8233092
120	0xbf593e2b	-0.84860486
121	0xbfa8bdcf	-1.3182925
122	0xbffa5495	-1.9557062
123	0xbfb5f255	-1.4214579
124	0x3d0240dd	0.03180014
125	0x3f8bbc13	1.0916771
126	0x3f168fd7	0.5881323
127	0x3ea67eb4	0.32518542
128	0x3ea58f94	0.32336104
129	0x3c8307b1	0.015994878
130	0x3edb8f86	0.42882937
131	0x3d74d849	0.059776578
132	0xbe82fd55	-0.25583902
133	0xbfb27652	-1.3942358
134	0xbf1b9fac	-0.60790515
135	0x3f9cc537	1.2247685
136	0x3eae0ea1	0.33995536
137	0xbfae754c	-1.3629546
138	0x3f0a6b5e	0.5407008
139	0xbf6310fe	-0.88697803
140	0x40024c75	2.0359166
141	0xc0098d89	-2.1492636
142	0xbf3007bd	-0.6876181
143	0x3fc36abe	1.526695
144	0xbe7e66ca	-0.24843898
145	0xbf887ca9	-1.0663043
146	0x40178351	2.36739
147	0x3f103ab1	0.56339556
148	0xc007ec3e	-2.123794
149	0x3ed1c30b	0.40969118
150	0x3f4a689e	0.79065883
151	0x3e95f534	0.29288638
152	0xbf92e33d	-1.1475598
153	0x3fb15279	1.3853294
154	0xbe9d58a9	-0.30731705
155	0x3ef1b3d0	0.472075
156	0x3ecfba87	0.40571997
157	0xbf5d4ff6	-0.86450136
158	0xbf8331a8	-1.0249529
159	0x409e9433	4.9555907
160	0x3ee6db15	0.4508902
161	0x3f8688b6	1.0510471
162	0x3fe2d2de	1.7720602
163	0x3fb5c4cf	1.4200686
164	0xbee4017c	-0.44532382
165	0x3f62bbf9	0.88568074
166	0xc070fa46	-3.7652755
167	0xbcc9d532	-0.024637792
168	0x3f0123d6	0.50445306
169	0x3e9902fa	0.29885083
170	0x3eee56f0	0.46550703
171	0xbea127b5	-0.31475607
172	0x3e98fca2	0.29880244
173	0x3f535d62	0.82564366
174	0x3db8862e	0.09009968
175	0xbe6602f6	-0.22462067
176	0xbf0522b4	-0.5200608
177	0xbedf2b39	-0.43587664
178	0x3efed635	0.49772802
179	0x3f63a65c	0.8892572
180	0x3e9f553a	0.3111971
181	0xbeae2778	-0.34014487
182	0xc0334b61	-2.8014758
183	0x4006623d	2.099746
184	0xbfef13cb	-1.8677915
185	0x3ff45a83	1.9090122
186	0x409ff521	4.998673
187	0x3fa1ac76	1.2630756
188	0x408648f5	4.196406
189	0x3f767fdd	0.96288854
190	0x3f115c27	0.5678124
191	0x3eed54be	0.46353716
192	0x3f0cb676	0.54965913
193	0xbf66246f	-0.89899343
194	0x3f14d2ec	0.5813434
195	0xbed5a5ea	-0.41728145
196	0xbe3db7c5	-0.18527134
197	0xbe98a37a	-0.29812223
198	0xbeab5643	-0.3346425
199	0xbf1acffb	-0.60473603
200	0xc06878a5	-3.6323636
201	0x408a3149	4.3185163
202	0x3ec9fb3b	0.39449486
203	0x401caafd	2.4479363
204	0x3fb47fb2	1.410147
205	0x3f5b0a69	0.8556276
206	0xbee6bb2a	-0.4506467
207	0x3ff0f9a7	1.8826188
208	0xbf18a2b2	-0.59623253
209	0x3eb08808	0.34478784
210	0x3e8da13a	0.2766207
211	0x3ec42ebe	0.3831691
212	0x3f5aa3b3	0.85406035
213	0xbe84956a	-0.25895244
214	0x3e9f8101	0.3115311
215	0x3f29bbde	0.6630229
216	0x3e651a58	0.2237333
217	0xbe2f947b	-0.17146485
218	0xbe2094c4	-0.1568175
219	0x3e5618f4	0.20907956
220	0x3ea91ee2	0.33031374
221	0xbe2046ad	-0.1565196
222	0xbe38434b	-0.1799442
223	0x3ece9f0a	0.40355712
224	0xc02df62d	-2.7181504
225	0x3e03b56b	0.12862174
226	0xbee118b5	-0.43964162
227	0x3fe95940	1.8230362
228	0x405095a9	3.2591345
229	0xbe982e47	-0.29722807
230	0x4048cd61	3.1375353
231	0xbea590bc	-0.32336986
232	0x3f01bbaf	0.5067701
233	0x3ea7d733	0.3278137
234	0x3e889084	0.26672757
235	0xbf82bc36	-1.0213687
236	0x3e956536	0.2917878
237	0x3ecb3728	0.39690518
238	0x3f9a9e61	1.2079583
239	0xbfb8c92c	-1.4436393
240	0xbe8c87fa	-0.27447492
241	0xbead3387	-0.33828375
242	0x4049d9aa	3.1539102
243	0x3f126dc1	0.5719872
244	0x3f09e483	0.53864306
245	0x3e6492b2	0.22321585
246	0xc038c28d	-2.8868744
247	0xbe9a51fc	-0.30140674
248	0xbf051296	-0.51981485
249	0xbf6b9b14	-0.92033505
250	0x3e60a803	0.21939091
251	0xbee981dc	-0.45606887
252	0x3e974f2b	0.29552588
253	0x3f1046f1	0.5635825
254	0x3ed16c1b	0.4090279
255	0x3f5686dd	0.83799535

l1.bias f4 [300]
0	0x3f12efc8	0.5739713
1	0x3eeef713	0.46672878
2	0x3f02854a	0.5098463
3	0x3f17325c	0.5906122
4	0x3ef39caf	0.47580478
5	0x3eb5bf9b	0.35497746
6	0x3f000499	0.50007015
7	0x3f0345c8	0.5127835
8	0x3f1e61c0	0.61867905
9	0x3e97904c	0.29602277
10	0x3f0c8ee0	0.5490551
11	0x3f33c327	0.70219654
12	0x3ec4c604	0.38432324
13	0x3ec2b259	0.38026693
14	0x3e8889f2	0.26667744
15	0x3ef5cbfe	0.48007196
16	0x3eddade3	0.43296728
17	0x3ebb86b9	0.36626223
18	0x3ef6670f	0.48125502
19	0x3eb6ed62	0.35727984
20	0x3eb053a0	0.344388
21	0x3f3fb3fc	0.7488401
22	0x3f19418e	0.59865654
23	0x3efae1e6	0.49000472
24	0x3f04ef43	0.51927584
25	0x3f193513	0.5984661
26	0x3ef451aa	0.47718555
27	0x3f083e3e	0.53219974
28	0x3ebb2b7f	0.36556622
29	0x3e897287	0.2684519
30	0x3eb839f5	0.35981718
31	0x3ef21a8e	0.47285885
32	0x3f086bad	0.532893
33	0x3eeb0af6	0.459068
34	0x3f10d019	0.5656753
35	0x3e8bbbea	0.27291805
36	0x3f207d04	0.6269076
37	0x3ed1a46f	0.40945765
38	0x3edae18c	0.42750204
39	0x3eaee759	0.3416088
40	0x3f17a11b	0.592302
41	0x3f0da01f	0.5532245
42	0x3ecf63eb	0.4050592
43	0x3ebcb887	0.36859533
44	0x3f027685	0.50962096
45	0x3ed2e2e0	0.41188717
46	0x3ef6fa62	0.48237902
47	0x3eb595ef	0.35465953
48	0x3ebcac88	0.3685038
49	0x3ef954f0	0.48697615
50	0x3ed70e86	0.42003268
51	0x3e97610b	0.29566225
52	0x3e9ddde9	0.30833367
53	0x3ee33e0b	0.44383273
54	0x3f274c4f	0.6535081
55	0x3f12153a	0.5706364
56	0x3e439386	0.19099244
57	0x3efdadc4	0.49546635
58	0x3ebcd175	0.36878553
59	0x3eed5552	0.46354157
60	0x3f42e0fb	0.7612454
61	0x3ecee61b	0.40409932
62	0x3ee71a3d	0.45137206
63	0x3ecd282f	0.4006972
64	0x3e9bef53	0.30456027
65	0x3e94f203	0.2909089
66	0x3f4043cd	0.75103456
67	0x3ea3e087	0.32007238
68	0x3ea5259e	0.32255262
69	0x3ee39767	0.44451448
70	0x3f0f39a8	0.5594735
71	0x3ed80ff5	0.42199674
72	0x3ec7d7af	0.3903174
73	0x3eca60ed	0.39527074
74	0x3f0d4c4f	0.5519456
75	0x3e81e869	0.25372627
76	0x3ef614c7	0.48062727
77	0x3ebda6fe	0.37041467
78	0x3f1577a6	0.58385694
79	0x3f0d9691	0.5530787
80	0x3ecef019	0.40417555
81	0x3f121ed9	0.5707832
82	0x3ea09a4f	0.31367728
83	0x3ec1bde1	0.3784018
84	0x3ede2549	0.4338782
85	0x3edade1f	0.4274759
86	0x3edafc1b	0.42770466
87	0x3e9d5420	0.30728245
88	0x3f2ed9f2	0.6830131
89	0x3f276545	0.653889
90	0x3edb70bf	0.42859456
91	0x3ea4b233	0.32167205
92	0x3f2db3a0	0.6785221
93	0x3fb03e6d	1.3769051
94	0x3ec65fa8	0.38744855
95	0x3ec92088	0.39282632
96	0x3f170ff2	0.59008706
97	0x3e86a397	0.26296684
98	0x3ea7d4a7	0.32779428
99	0x3f1829b7	0.5943865
100	0x3f3060bf	0.6889762
101	0x3ec86ed0	0.39147043
102	0x3ec88c83	0.39169702
103	0x3f02870a	0.50987303
104	0x3de5b356	0.11215846
105	0x3e99c9d9	0.3003681
106	0x3f02be19	0.51071316
107	0x3f2aa1ac	0.6665294
108	0x3f0f9fb2	0.5610305
109	0x3f01af94	0.50658536
110	0x3f14e9ca	0.58169234
111	0x3f210a30	0.6290617
112	0x3f1d48ac	0.61439013
113	0x3e98c698	0.29839015
114	0x3f0876cc	0.5330627
115	0x3f01e9c2	0.5074731
116	0x3f10c9da	0.56558
117	0x3f0734a9	0.5281473
118	0x3e9c6943	0.30549058
119	0x3f20b424	0.6277487
120	0x3ecb9069	0.39758614
121	0x3f1ee1cd	0.62063295
122	0x3ef0b53b	0.47013268
123	0x3ea6f197	0.32606193
124	0x3eb5bbd7	0.35494873
125	0x3ec33c1b	0.38131794
126	0x3edc78b5	0.43060842
127	0x3edae9ae	0.42756408
128	0x3f23a01f	0.639162
129	0x3ee85466	0.4537689
130	0x3f2477d1	0.64245325
131	0x3e7263a0	0.23670816
132	0x3f54b39a	0.8308655
133	0x3f1b1e5d	0.60593206
134	0x3e5ae40d	0.21376057
135	0x3ebfbf45	0.37450615
136	0x3f160fe2	0.58617985
137	0x3eaf3222	0.34217936
138	0x3f0fcce6	0.56172025
139	0x3f0804ec	0.5313251
140	0x3eb9d436	0.36294717
141	0x3eba3eb7	0.36375973
142	0x3f255468	0.6458192
143	0x3f0cb3ac	0.5496166
144	0x3f46526c	0.77469516
145	0x3ece5ec3	0.40306672
146	0x3f04c154	0.51857495
147	0x3ec858fb	0.39130387
148	0x3e8e8a50	0.278399
149	0x3ef4c9e3	0.47810277
150	0x3e84ecdb	0.25961956
151	0x3e995967	0.2995102
152	0x3f2071c4	0.6267359
153	0x3e921fe0	0.28539944
154	0x3ef7ebb1	0.48422006
155	0x3e91e589	0.28495434
156	0x3eccb609	0.39982632
157	0x3ec5ea71	0.38655427
158	0x3eecee0c	0.46275365
159	0x3e93b28a	0.28847152
160	0x3ecf55c8	0.40495133
161	0x3f27af06	0.6550144
162	0x3e56ff54	0.20995837
163	0x3ecf01e8	0.40431142
164	0x3e727188	0.23676121
165	0x3ec2e8a8	0.38068128
166	0x3f00dbab	0.50335187
167	0x3e4e83b9	0.20167436
168	0x3ed69062	0.4190703
169	0x3eee11bf	0.46497914
170	0x3ede7891	0.4345136
171	0x3f068342	0.52544034
172	0x3ee3bc98	0.44479823
173	0x3ecc91c3	0.39954957
174	0x3eb9dcb9	0.3630121
175	0x3fbec984	1.4905248
176	0x3ed89bc0	0.42306328
177	0x3f251094	0.6447842
178	0x3eea43f2	0.45754963
179	0x3ebde5f8	0.37089515
180	0x3e94fc7d	0.29098883
181	0x3e8b4f07	0.2720873
182	0x3ef91405	0.48648086
183	0x3f11ac1a	0.5690323
184	0x3ecab182	0.39588553
185	0x3ee8e032	0.45483547
186	0x3f1cdf59	0.612783
187	0x3eb5d7de	0.35516256
188	0x3eb3c3a5	0.35110202
189	0x3ef64798	0.48101497
190	0x3ee6e799	0.4509857
191	0x3ebb2cad	0.36557522
192	0x3e8c8cec	0.27451265
193	0x3e819e3b	0.25316033
194	0x3ec49054	0.38391364
195	0x3ee3c656	0.44487256
196	0x3ecad854	0.3961817
197	0x3ee9ad70	0.45640135
198	0x3f11a546	0.5689281
199	0x3eb32943	0.34992418
200	0x3ea6b58a	0.32560378
201	0x3eee4d08	0.46543145
202	0x3fc0dc22	1.5067179
203	0x3ef1cfe2	0.47228914
204	0x3f048853	0.51770514
205	0x3ee631b8	0.44959807
206	0x3eb164ef	0.3464732
207	0x3e8dce92	0.27696663
208	0x3ef84f5a	0.4849804
209	0x3ed5f979	0.41791895
210	0x3ec0bb15	0.37642732
211	0x3f15b81c	0.58484054
212	0x3eaea64f	0.34111258
213	0x3f05b772	0.5223304
214	0x3ead41c8	0.3383925
215	0x3e82f0e2	0.25574404
216	0x3f025a6d	0.5091923
217	0x3eb28787	0.34869024
218	0x3ebd988a	0.3703044
219	0x3f0a72ed	0.5408161
220	0x3f27482a	0.6534449
221	0x3fad8469	1.3556033
222	0x3eee85f2	0.46586567
223	0x3eca4b74	0.3951069
224	0x3ee7c4e1	0.45267394
225	0x3e75d92c	0.24008626
226	0x3e86fbf1	0.2636409
227	0x3ebd3853	0.36957034
228	0x3ef60bfd	0.4805602
229	0x3f2a143f	0.66437143
230	0x3e6a849e	0.22902152
231	0x3eb817a3	0.35955533
232	0x3f17c4f1	0.59284884
233	0x3ebf3baf	0.37350222
234	0x3ed530d4	0.41638815
235	0x3eaa3eb9	0.3325098
236	0x3ee0b8f9	0.43891123
237	0x3f6912f5	0.9104455
238	0x3eb79977	0.35859272
239	0x3e872d72	0.2640186
240	0x3f0a508f	0.5402917
241	0x3e6a1eb9	0.22863282
242	0x3f2e389f	0.68055147
243	0x3ee083d7	0.43850586
244	0x3f2b5980	0.6693344
245	0x3ee7daa6	0.45284003
246	0x3f05aeda	0.5221993
247	0x3f0d6822	0.5523702
248	0x3eba4a65	0.36384884
249	0x3e8fb664	0.2806884
250	0x3ef082be	0.46974748
251	0x3f090fe1	0.53539854
252	0x3ed17b79	0.40914515
253	0x3ee8a123	0.45435438
254	0x3ed622ea	0.41823512
255	0x3e5bc4a9	0.21461739

bn1.weight f4 [300]
0	0x3f9cdf47	1.2255639
1	0x40213531	2.5188715
2	0x3fda3c48	1.7049646
3	0x3f87591b	1.0574068
4	0x3f94e4f9	1.1632377
5	0x401e05f1	2.4691126
6	0x3fa94dd0	1.3226871
7	0x3f740fd7	0.9533667
8	0x4061ff28	3.5311985
9	0x3fda2d03	1.7044986
10	0x40b03bcd	5.5073
11	0x3fa4093e	1.281532
12	0x3fd00f3e	1.6254652
13	0x3fd5e2c5	1.670983
14	0x3fb504e1	1.4142114
15	0x3fd78ba6	1.6839492
16	0x3f915317	1.1353482
17	0x400a08b7	2.156782
18	0x3faee852	1.3664649
19	0x40178bd4	2.3679094
20	0x3f31c014	0.6943371
21	0x409ead5c	4.958662
22	0x3fae448d	1.361467
23	0x3f9d7f25	1.2304426
24	0x40167189	2.3506796
25	0x3f1f1602	0.62142956
26	0x3fe33488	1.7750406
27	0x3f854b2c	1.0413566
28	0x3f8d687a	1.1047509
29	0x3fba9261	1.4575921
30	0x3f7ed35a	0.99541247
31	0x3fa4a10d	1.2861649
32	0x3fad0cd5	1.3519541
33	0x400a9d32	2.1658444
34	0x402cc052	2.6992383
35	0x3fd0d4fd	1.6314999
36	0x401ea310	2.4787025
37	0x3fdbc075	1.7168108
38	0x3fb6d8e8	1.4284945
39	0x3fc58ab4	1.5432954
40	0x3faea7e5	1.3644987
41	0x401f338b	2.487521
42	0x400e90c6	2.2275863
43	0x3f7eaf6f	0.9948644
44	0x3fcab82a	1.5837452
45	0x3f908c55	1.1292826
46	0x3fbc629b	1.4717592
47	0x400a9dca	2.1658807
48	0x3ffcdc7d	1.9754788
49	0x3fb55e1c	1.4169345
50	0x3f9eada8	1.2396746
51	0x3ff79315	1.9341761
52	0x3fa8d094	1.3188653
53	0x405b7cdc	3.4294958
54	0x40100183	2.2500923
55	0x3f6b4b35	0.9191163
56	0x4059cf2e	3.4032702
57	0x401c6e52	2.4442334
58	0x3fce2216	1.6104152
59	0x3f372644	0.71542764
60	0x3f25541b	0.6458146
61	0x3fc6444f	1.5489596
62	0x40206a69	2.5064948
63	0x3fe70cf3	1.8050827
64	0x4060357a	3.503264
65	0x4036482a	2.8481545
66	0x405468d1	3.3188975
67	0x3f6fdf79	0.9370037
68	0x400bfa91	2.1871684
69	0x3feafabc	1.8357768
70	0x3fddb16a	1.7319767
71	0x40051389	2.0793173
72	0x401cd413	2.450444
73	0x3fc513e4	1.5396695
74	0x3fe66df0	1.80023
75	0x3f8a7edc	1.0819964
76	0x3fc030e6	1.5014923
77	0x3ff9d125	1.9516951
78	0x4001c7bd	2.027816
79	0x3fb1680e	1.385988
80	0x3fb81156	1.438029
81	0x3f6ac7cb	0.9171111
82	0x4012d962	2.294518
83	0x402fb91e	2.7456737
84	0x3ffbc59c	1.966968
85	0x3fa855ad	1.3151146
86	0x402ca7fa	2.6977525
87	0x3fc228c9	1.5168697
88	0x3f8eadec	1.1146827
89	0x401fd23b	2.4972064
90	0x40766820	3.8501053
91	0x401748b4	2.3638124
92	0x3f033e12	0.51266587
93	0x3e11afbd	0.14227195
94	0x401fdfbd	2.498031
95	0x3fe5eb8e	1.796251
96	0x3f9c5c8a	1.2215741
97	0x3fbaa631	1.4581968
98	0x400ceeb3	2.202069
99	0x400311ab	2.0479534
100	0x3fd7270d	1.6808792
101	0x3fc46a48	1.5344934
102	0x40010d46	2.0164351
103	0x401ab2e0	2.4171677
104	0x3fbf0c30	1.4925594
105	0x3fc84284	1.5645299
106	0x3fc0c7c8	1.5060968
107	0x40024180	2.0352478
108	0x40803957	4.0069995
109	0x3fc8bbc2	1.5682299
110	0x40096a5e	2.1471171
111	0x3fb6ac41	1.4271318
112	0x3f8a2eec	1.079557
113	0x3fdc139d	1.7193485
114	0x3fcebd0f	1.6151446
115	0x3fc13ec3	1.5097278
116	0x3fb3fa43	1.4060749
117	0x3fafb398	1.3726683
118	0x400d7ce6	2.2107482
119	0x4055aa73	3.3385284
120	0x3fe5f8b0	1.7966518
121	0x40573775	3.3627598
122	0x3fe40944	1.7815328
123	0x3ff035bc	1.8766398
124	0x40290db1	2.6414607
125	0x3f8d1ee7	1.1025056
126	0x403b7bb7	2.929426
127	0x3fced5da	1.6159012
128	0x4015b7ff	2.3393552
129	0x3f4ccf5e	0.8000392
130	0x40108235	2.2579472
131	0x3fc1c823	1.5139202
132	0x3f569b1d	0.83830434
133	0x3ff7169b	1.9303774
134	0x3f86235a	1.0479538
135	0x401ecf79	2.4814131
136	0x4024ce0d	2.5750763
137	0x40000d2a	2.0008035
138	0x3fe8e4e1	1.8194848
139	0x3f823df3	1.0175155
140	0x3fffd30c	1.9986281
141	0x3fb7b88b	1.4353193
142	0x3f9ea266	1.239331
143	0x3f7a6483	0.9780962
144	0x401efc5e	2.4841533
145	0x3f9efc15	1.2420679
146	0x40210fd4	2.516591
147	0x40086d33	2.131665
148	0x3fb13248	1.384347
149	0x3fc33359	1.5250045
150	0x3fb02a5b	1.3762926
151	0x3fe784e2	1.8087428
152	0x3fe42fc9	1.7827083
153	0x3fcd26a8	1.6027422
154	0x3fc6c0a3	1.5527538
155	0x3fb5a89d	1.4192082
156	0x3fc51ac7	1.5398797
157	0x3fb089b9	1.379203
158	0x3fe2d78f	1.7722033
159	0x3f90d2e9	1.1314365
160	0x3fa1833c	1.2618175
161	0x3fb665fe	1.4249876
162	0x3faadfd6	1.3349559
163	0x3fb822c0	1.4385605
164	0x40058481	2.0862124
165	0x3fc95345	1.5728537
166	0x3fbcdd49	1.4755031
167	0x4020528c	2.5050383
168	0x3fb72129	1.4306995
169	0x3fd93ce4	1.6971707
170	0x3ff541e2	1.9160731
171	0x40130020	2.2968826
172	0x3fb7a1d8	1.4346266
173	0x3fb057f7	1.3776845
174	0x3f4ea893	0.80725974
175	0x3e150735	0.1455353
176	0x3fe9c905	1.8264471
177	0x4006baa0	2.1051407
178	0x40109f3f	2.2597196
179	0x3ff8a04e	1.9423921
180	0x3f8497b6	1.0358799
181	0x3fe7399a	1.8064454
182	0x3fbd4c3a	1.4788888
183	0x3f98ae73	1.1928238
184	0x3fb6fab5	1.429526
185	0x4008bd2c	2.1365461
186	0x3f95f0f3	1.1714157
187	0x3f8c64e2	1.0968287
188	0x3fb9e13a	1.4521859
189	0x402172fe	2.5226436
190	0x3ff499b8	1.9109411
191	0x3fa9a595	1.3253657
192	0x4002eeca	2.0458245
193	0x3fca1391	1.5787221
194	0x3fe5d7c8	1.7956476
195	0x3ff734d2	1.9312994
196	0x3fe21ac6	1.7664421
197	0x3fe33b38	1.7752447
198	0x3fa09923	1.2546734
199	0x3fd06d52	1.6283362
200	0x3fbc2494	1.4698663
201	0x40349226	2.8214202
202	0x3dd0b621	0.10190988
203	0x3ff9931c	1.9498019
204	0x40329b9a	2.7907472
205	0x3faef8d0	1.3669682
206	0x3fb3fbbc	1.4061198
207	0x403fa3d1	2.9943736
208	0x40226f63	2.5380485
209	0x4029f1db	2.6553867
210	0x4052658c	3.287448
211	0x3f7da7be	0.9908408
212	0x401fe134	2.4981203
213	0x3fd725b4	1.6808381
214	0x3f85e75b	1.0461229
215	0x3ff994a0	1.9498482
216	0x3f6ad07f	0.9172439
217	0x3fed490c	1.8537917
218	0x3fd20cdb	1.6410173
219	0x4011ee72	2.2801785
220	0x3fd81439	1.6881171
221	0x3df67d3b	0.120356046
222	0x3f8e85fb	1.1134638
223	0x3f59f130	0.8513365
224	0x3feb216a	1.8369572
225	0x4027c39e	2.6213145
226	0x400bd0d1	2.1846201
227	0x3fcb241b	1.5870394
228	0x401adc62	2.419701
229	0x3fee12fe	1.8599546
230	0x400d20a2	2.2051167
231	0x40149686	2.3216872
232	0x3fda517c	1.7056117
233	0x3fc57811	1.5427266
234	0x3fa534c1	1.2906724
235	0x40211958	2.5171719
236	0x4015daa4	2.3414698
237	0x401485bc	2.3206625
238	0x401b1603	2.4232185
239	0x3fc23273	1.5171646
240	0x3f6fcea2	0.9367467
241	0x3feb9342	1.8404315
242	0x402970c6	2.6475081
243	0x40576125	3.3653042
244	0x403acb91	2.9186747
245	0x400ce164	2.2012568
246	0x3f4fb37b	0.8113324
247	0x3fe0db4f	1.7566928
248	0x3f87502c	1.0571342
249	0x3fb6dce6	1.4286163
250	0x3fd3002f	1.6484431
251	0x3fed5c85	1.854386
252	0x3feedd59	1.86613
253	0x3fa57eb2	1.2929289
254	0x3fa3c365	1.2794005
255	0x3f9c51ad	1.2212425

bn1.bias f4 [300]
0	0xbf1ef82c	-0.6209743
1	0xbf4013d5	-0.7503026
2	0xbf56b17f	-0.8386459
3	0xbf5f4496	-0.8721403
4	0xbf6e0bc6	-0.92986715
5	0xbea753ed	-0.32681218
6	0xbf12e082	-0.5737382
7	0xbf830d82	-1.0238497
8	0x3ce2a331	0.027665706
9	0xbe21fd9e	-0.15819404
10	0x3ea115d5	0.3146197
11	0xbf0ed09f	-0.5578708
12	0xbf9ad8ac	-1.2097373
13	0xbf18d363	-0.5969755
14	0xbf2d8213	-0.677766
15	0xbf032f46	-0.5124401
16	0x3c7861ee	0.015160067
17	0xbf33385e	-0.70007885
18	0xbf0a9d0b	-0.5414588
19	0xbedd223a	-0.43190175
20	0xbedb9013	-0.42883357
21	0x3e9ab156	0.30213422
22	0xbf145cda	-0.5795418
23	0xbf025e7e	-0.50925434
24	0xbe629f74	-0.22131139
25	0xbfbee991	-1.4915029
26	0xbf216968	-0.6305146
27	0xbf51051e	-0.81648433
28	0xbf874ba6	-1.0569961
29	0xbf0b83bc	-0.54497886
30	0xbf5feab5	-0.8746751
31	0xbef4c1f5	-0.47804227
32	0xbf94386f	-1.1579722
33	0xbd438768	-0.047736555
34	0xbe871e1d	-0.26390162
35	0xbf0fe3a1	-0.5620671
36	0xbe8b004e	-0.2714867
37	0xbf33f2ef	-0.7029256
38	0xbe59be8c	-0.21264094
39	0xbece5115	-0.40296236
40	0xbf56e854	-0.83948255
41	0xbee8077e	-0.45318216
42	0xbeeddbee	-0.46456856
43	0xbf7cfe46	-0.9882549
44	0xbe3b62a4	-0.18299347
45	0xbf0cf300	-0.5505829
46	0xbefa110c	-0.4884113
47	0xbe654830	-0.22390819
48	0x3e107cbc	0.14110082
49	0xbf2887f3	-0.6583244
50	0xbf664464	-0.89948106
51	0xbf0e6eb4	-0.5563767
52	0xbf40dac7	-0.7533383
53	0xbc8bb90f	-0.017056016
54	0xbe46c90d	-0.19412632
55	0xbf3f2763	-0.74669474
56	0xbe6b1f5f	-0.22961186
57	0xbeb7d6a4	-0.35905945
58	0xbf5e7712	-0.86900437
59	0xbf76ccf2	-0.9640647
60	0xbf9698e5	-1.176541
61	0xbf05990b	-0.5218665
62	0xbecc4952	-0.3989969
63	0xbea33250	-0.31874323
64	0x3e1b4685	0.1516362
65	0xbf076bec	-0.5289905
66	0xbe4fd011	-0.20294215
67	0xbf38c5f4	-0.7217705
68	0xbeedfed9	-0.46483496
69	0xbe069ef4	-0.13146573
70	0xbf4e25ce	-0.80526435
71	0xbf0f6330	-0.56010723
72	0xbec9c6c0	-0.39409447
73	0xbf2f7921	-0.68544203
74	0xbf33c2e4	-0.70219254
75	0xbf257e1e	-0.64645565
76	0xbf802073	-1.0009903
77	0xbf041379	-0.5159221
78	0xbebfa8b6	-0.37433404
79	0xbe9141c5	-0.2837049
80	0xbe810f20	-0.25206852
81	0xbf555d8a	-0.83345854
82	0xbf09b629	-0.5379358
83	0xbe09ec56	-0.13469061
84	0xbf62ef6c	-0.8864658
85	0xbefed60d	-0.49772683
86	0x3e71efef	0.23626684
87	0xbebbb393	-0.36660442
88	0xbf7b36d5	-0.9813054
89	0x3e91184f	0.28338858
90	0xbe0b75ac	-0.13619107
91	0xbe87672b	-0.26445898
92	0xbf6c2c83	-0.9225542
93	0xbf7d4464	-0.9893248
94	0xbdbfc211	-0.09363187
95	0xbed31c73	-0.41232643
96	0xbe484b0f	-0.19559883
97	0xbf740465	-0.95319206
98	0xbf2211e9	-0.6330858
99	0xbe97b3e6	-0.2962944
100	0x3cb4ff00	0.02209425
101	0xbe8ac33b	-0.27102074
102	0xbeb920a3	-0.36157712
103	0xbf3dd1d6	-0.7414831
104	0xbf60d173	-0.87819594
105	0xbf035123	-0.5129568
106	0xbefb94a4	-0.4913684
107	0xbe3445e7	-0.1760479
108	0x3e04b317	0.12958942
109	0xbf0d9ac4	-0.5531428
110	0xbe989643	-0.2980214
111	0xbf35fb36	-0.7108644
112	0xbf835e46	-1.0263145
113	0xbf1baf6e	-0.6081456
114	0xbe9ba2dd	-0.30397692
115	0xbf347fa1	-0.70507246
116	0xbf17f46a	-0.5935732
117	0xbf8b0f19	-1.0863982
118	0xbe909032	-0.28235012
119	0x3d20486d	0.03913157
120	0xbeaf9eed	-0.34300938
121	0x3edd272f	0.43193957
122	0xbf4e0589	-0.80477196
123	0xbe04e82b	-0.1297919
124	0xbe5810ae	-0.21100113
125	0xbf33195e	-0.6996058
126	0xbe80b72e	-0.25139755
127	0xbed2c157	-0.41163132
128	0xbe12d924	-0.14340645
129	0xbf7a4d53	-0.9777424
130	0xbf1fb283	-0.6238176
131	0xbf464409	-0.77447563
132	0xbf5fdad8	-0.87443304
133	0x3dd9c57c	0.1063337
134	0xbf08f215	-0.5349439
135	0xbe8fefc5	-0.28112617
136	0x3e1f37b1	0.15548588
137	0xbee0beba	-0.43895513
138	0xbe98ab32	-0.29818112
139	0xbf894540	-1.0724258
140	0xbe8ca95e	-0.27472967
141	0xbf786c0f	-0.97039884
142	0xbf30bb41	-0.69035727
143	0xbf550d81	-0.8322373
144	0xbd6b83fd	-0.05749892
145	0xbf0cc6ee	-0.5499104
146	0xbd086a78	-0.03330466
147	0xbf253b3b	-0.64543504
148	0xbeef212d	-0.46705
149	0x3c928af0	0.017888516
150	0xbee3fbc9	-0.44528034
151	0xbedcb440	-0.4310627
152	0xbf14237d	-0.5786665
153	0xbf4ffd8d	-0.8124626
154	0xbf3d7706	-0.7400974
155	0xbe33fdfc	-0.17577356
156	0xbf527cc8	-0.8222165
157	0xbf6fc49c	-0.9365938
158	0xbeae670b	-0.3406299
159	0xbee44172	-0.4458118
160	0xbf2c10aa	-0.6721293
161	0xbe9f87fb	-0.31158432
162	0xbf2eca33	-0.6827728
163	0xbf7d6a0c	-0.9898994
164	0xbeeded9f	-0.46470353
165	0xbe94c852	-0.29059082
166	0xbf8b38a0	-1.0876656
167	0x3da5f8c5	0.0810409
168	0xbf29dc17	-0.66351455
169	0xbeaeddf8	-0.34153724
170	0xbf43dde7	-0.7651047
171	0x3de305de	0.110851035
172	0xbf117833	-0.56824034
173	0xbeeba5ab	-0.46024832
174	0xbf937716	-1.1520717
175	0xbf7d8ab4	-0.9903977
176	0xbeeb0ce6	-0.45908278
177	0x3c3e760c	0.011624824
178	0xbe6cbd5c	-0.2311911
179	0xbedfc74a	-0.43706733
180	0xbf04130b	-0.5159156
181	0xbf503daf	-0.8134412
182	0xbebb1f18	-0.3654716
183	0xbf54ebea	-0.83172476
184	0xbf215d4e	-0.63032997
185	0xbe8c95e3	-0.27458104
186	0xbeea7bff	-0.45797727
187	0xbf39e846	-0.72620046
188	0xbf09cddc	-0.5382974
189	0xbe3c91b9	-0.18414964
190	0xbee04231	-0.438005
191	0xbe97d38a	-0.2965358
192	0xbee67d61	-0.45017532
193	0xbeeaf8e0	-0.45893002
194	0xbec90065	-0.39258114
195	0xbe8519c1	-0.2599621
196	0xbecab38a	-0.39590102
197	0xbf20a9d7	-0.62759155
198	0xbf56cd21	-0.8390675
199	0xbf088852	-0.5333301
200	0xbf3073c3	-0.6892664
201	0xbe5d9301	-0.21638109
202	0xbf92ada6	-1.1459243
203	0xbe5fbc0a	-0.21849075
204	0xbe7d1025	-0.2471319
205	0xbf2da33a	-0.6782719
206	0xbf1b9f5a	-0.60790026
207	0xbe4458e3	-0.19174533
208	0xbd4c3d7b	-0.04986332
209	0xbd780df5	-0.060560185
210	0x3db2d03f	0.08731126
211	0xbef6c553	-0.4819742
212	0xbe8e2445	-0.27762046
213	0xbf2de865	-0.6793273
214	0xbf6ebe93	-0.93259543
215	0xbe8b8eb7	-0.2725732
216	0xbf917b4b	-1.1365751
217	0xbed6e4d1	-0.41971448
218	0xbeaad635	-0.33366552
219	0x3dbc39de	0.09190725
220	0xbf14e014	-0.58154416
221	0xbf7ad10c	-0.9797523
222	0xbeac1081	-0.3360634
223	0xbf5aa1b3	-0.85402983
224	0xbf2680ed	-0.65040475
225	0xbf0a8372	-0.5410682
226	0xbee8b365	-0.45449367
227	0xbef8ec3a	-0.48617727
228	0xbed4456d	-0.41459218
229	0xbf1d86e6	-0.61533964
230	0xbebae772	-0.36504704
231	0xbe496f3a	-0.19671336
232	0xbf2cf765	-0.67564994
233	0xbf2094a4	-0.6272681
234	0xbf955605	-1.1666876
235	0x3d0c828e	0.034304194
236	0x3db038d9	0.08604593
237	0xbf166b39	-0.5875736
238	0xbedb2f8a	-0.42809707
239	0xbf34895b	-0.7052209
240	0xbf3c8bab	-0.73650616
241	0xbe8bcce9	-0.27304772
242	0xbf5413c3	-0.82842654
243	0xbea653ed	-0.32485905
244	0x3e2e3c9a	0.17015305
245	0xbd92917b	-0.071566544
246	0xbf48978c	-0.7835624
247	0xbf2d27b8	-0.6763873
248	0xbf70f688	-0.94126177
249	0xbeb1abdd	-0.34701434
250	0xbe9f0b17	-0.31063148
251	0xbf0d24ef	-0.5513448
252	0xbe551b76	-0.20811257
253	0xbf59751a	-0.8494431
254	0xbf2ea803	-0.68225116
255	0xbf2c25d7	-0.6724524

l2.weight f4 [300, 300]
0	0x3e22f84a	0.15915027
1	0x3ef50f92	0.47863442
2	0x3e99a34c	0.30007398
3	0x3f4bcc09	0.7960821
4	0x3e3f3015	0.18670686
5	0x3ff9ba1d	1.9509922
6	0x3fd32341	1.6495134
7	0x3f12ddfe	0.57369983
8	0x3f3fda1d	0.7494219
9	0x3ff31a5b	1.8992418
10	0xbf44645a	-0.76715624
11	0x3f2f87e7	0.68566746
12	0xbe6e7167	-0.23285447
13	0x3f93757d	1.152023
14	0x3f07b6e2	0.5301343
15	0x3ebaab40	0.36458778
16	0x3dae3a82	0.08507253
17	0xbe38e87c	-0.18057436
18	0x3e151b35	0.1456116
19	0xbf4ce7c2	-0.80041134
20	0xbede4024	-0.4340831
21	0xbeb468bc	-0.35236156
22	0x3ec9186d	0.39276448
23	0xbeedbadc	-0.46431625
24	0x3f211531	0.6292296
25	0x3f58b72f	0.84654516
26	0x3f746f3b	0.95482224
27	0x3e8089af	0.25105044
28	0x3f186f4c	0.59544826
29	0x3f04a8fa	0.5182034
30	0x3e59256d	0.21205683
31	0xbe284e4a	-0.16436115
32	0x3ed9867f	0.42485425
33	0xbea6631d	-0.32497492
34	0x3f16020e	0.58596885
35	0x3f29a5bb	0.6626851
36	0x3edc4a23	0.43025312
37	0xbef2f7f1	-0.4745479
38	0x3f80915b	1.0044359
39	0x3eaa194e	0.3322243
40	0x3f9d8500	1.2306213
41	0xbe5fdbd7	-0.21861206
42	0xbdd6795b	-0.104723655
43	0x3e8d20f6	0.2756421
44	0xbd6e838f	-0.058230933
45	0x3f242363	0.64116496
46	0x3f090bd8	0.535337
47	0xbf36c0ec	-0.71388125
48	0x4050aea0	3.2606583
49	0xbf17918c	-0.5920646
50	0x3f03c389	0.5147024
51	0xbd6f2510	-0.058384955
52	0x40502617	3.2523248
53	0x3f16d554	0.5891926
54	0x3ee22dfb	0.44175705
55	0x3eec17f1	0.46112016
56	0x3f1efda0	0.6210575
57	0xbf594042	-0.84863675
58	0x3cc7bd17	0.024382157
59	0x3fc21bbe	1.5164716
60	0x3ff4a1a1	1.9111825
61	0x3fbdcbfa	1.4827874
62	0xbe2faf26	-0.17156658
63	0x3fb32907	1.3996896
64	0xbedc22e6	-0.42995375
65	0x3db895cd	0.09012947
66	0xbe9b772e	-0.30364364
67	0x3f475500	0.77864075
68	0x3feb74e4	1.8395047
69	0x3f16b64c	0.5887191
70	0xbedd5989	-0.43232372
71	0xbda2f37b	-0.079565965
72	0x3f9dd745	1.233132
73	0x3f63dd74	0.89009786
74	0xbdcecee7	-0.10098057
75	0x400182ec	2.0236158
76	0xbf570851	-0.83997065
77	0xbf2c88a9	-0.67396027
78	0x3f9d6201	1.2295533
79	0x3e9ad97d	0.30244055
80	0x3e8fedbf	0.28111073
81	0x3fa1f6f5	1.265349
82	0x3eabcb36	0.33553475
83	0x3f80b1b1	1.0054227
84	0x3f118a58	0.5685172
85	0xbe59b78e	-0.21261427
86	0x3ed3be44	0.413561
87	0x3e7bded3	0.2459672
88	0xbfa51bd0	-1.2899113
89	0x3e9ea4dd	0.30985156
90	0x3fa50a49	1.2893764
91	0x3f591db7	0.84810966
92	0x3e2094a0	0.15681696
93	0x3e5203b9	0.20509233
94	0x3f8c4de6	1.0961273
95	0x3ed1a40c	0.4094547
96	0x3fc0b1d8	1.5054274
97	0xbf2248a1	-0.6339207
98	0x3f1f74e6	0.6228775
99	0x3f097c8a	0.53705657
100	0x3eb2a099	0.3488815
101	0x3f92873e	1.1447523
102	0x3f11584c	0.56775355
103	0x3f38e68d	0.7222679
104	0x3f7b167f	0.980812
105	0x3f52bcee	0.82319534
106	0x3f245671	0.641944
107	0x3e80bc9e	0.25143903
108	0xbee16569	-0.44022682
109	0x3f1737e7	0.59069675
110	0xbf58bae1	-0.84660155
111	0xbf4e282e	-0.8053006
112	0x3f4b7365	0.79472953
113	0xbdfe6d1b	-0.12423154
114	0x3ee227ce	0.44170994
115	0xbef2156e	-0.47281975
116	0xbf8c6f91	-1.0971547
117	0x3f0e44b3	0.55573577
118	0x3ef35239	0.47523668
119	0xbf323932	-0.69618523
120	0xbe7ad52e	-0.24495384
121	0xbf7f22c5	-0.9966243
122	0x3eb70ccc	0.3575195
123	0x3e2208ba	0.15823641
124	0x3f970c5d	1.1800648
125	0x3e2b5355	0.16731007
126	0xbea49175	-0.32142225
127	0x3fc947b4	1.5725007
128	0xbe37d85a	-0.17953625
129	0x3f9e1480	1.2350006
130	0xbf5013de	-0.81280315
131	0xbf28b0b2	-0.65894616
132	0x3f4154f1	0.75520235
133	0x3fcaeac0	1.585289
134	0xbe864061	-0.26220992
135	0xbecdb61a	-0.40177995
136	0x3face1fa	1.3506463
137	0x3ee3efc8	0.44518876
138	0x3caf9a38	0.021435842
139	0x3f1d615c	0.61476684
140	0xbebb203b	-0.36548027
141	0x3f26f8fb	0.65223664
142	0x3fb13343	1.3843769
143	0x3f444385	0.76665527
144	0xbee59d69	-0.44846657
145	0x3facf844	1.3513265
146	0x400daada	2.213553
147	0x3f6c8e1d	0.9240435
148	0xbf09af5c	-0.537832
149	0x3f5caeca	0.86204207
150	0xbf14635f	-0.5796413
151	0x3b03dfb6	0.0020122356
152	0x3f92fe5b	1.1483873
153	0x3d119bcf	0.03554898
154	0xbf0072da	-0.5017525
155	0x3fe41ac3	1.7820667
156	0xbfb1afb5	-1.3881747
157	0x3f7269fb	0.94692963
158	0x3efd8165	0.49512783
159	0x3f032893	0.51233786
160	0xbe30c20a	-0.1726152
161	0xbeaa15e8	-0.33219838
162	0xbeef0fbc	-0.46691692
163	0x3f8c3154	1.0952554
164	0x3e99227f	0.2990913
165	0x3f4dfb7c	0.8046186
166	0xbf0cfeff	-0.55076593
167	0x3f5b35e5	0.8562911
168	0x3ef2ffde	0.47460836
169	0x3cc11024	0.023567267
170	0xbddcad11	-0.10775197
171	0xbda84606	-0.08216481
172	0x3ed8587a	0.42255002
173	0x3e147f48	0.14501679
174	0x3f7878ac	0.9705913
175	0x3cf67184	0.030083425
176	0x3eaafbaa	0.3339513
177	0x3fb446b0	1.4084072
178	0x3f6703a6	0.9023994
179	0x3f173e84	0.59079766
180	0xbfa8167b	-1.313186
181	0x3e3f5993	0.18686514
182	0xbf5c9275	-0.86160976
183	0x3f960efd	1.1723324
184	0x3fcc1e53	1.5946754
185	0xbed24950	-0.41071558
186	0x3e4b936d	0.19880457
187	0x3f8583ce	1.0430849
188	0x3edfebed	0.43734685
189	0x3dea1759	0.114302345
190	0x3fc9d767	1.576886
191	0x3d5c8869	0.05384103
192	0x3e9e75be	0.30949205
193	0x3f19b942	0.60048306
194	0x3ef06618	0.4695289
195	0xbe997c06	-0.29977435
196	0x3e30af3a	0.17254344
197	0xbf38497b	-0.7198712
198	0x3f48e040	0.7846718
199	0x3eb760d1	0.35816053
200	0x3f0ae060	0.5424862
201	0xbf3efaf7	-0.7460169
202	0x3e110955	0.14163716
203	0xbf1b20b7	-0.60596794
204	0xbe51f006	-0.20501718
205	0x3f38bd35	0.72163707
206	0xbe2d02bf	-0.16895579
207	0xbf00bc32	-0.50287163
208	0x3f972e57	1.1811017
209	0xbf01b4a3	-0.50666255
210	0xbe2b2e29	-0.16716827
211	0x3f6a3bf5	0.9149774
212	0x3f96fcb8	1.1795874
213	0xbe275d57	-0.163442
214	0x3fd9466b	1.6974615
215	0x3f568f8c	0.83812785
216	0x3f92d6b3	1.1471771
217	0x3fc04496	1.5020931
218	0x3fa4c948	1.2873926
219	0x3f9a8dad	1.2074486
220	0xbf58dc50	-0.8471117
221	0x3e7d821b	0.24756663
222	0x3fd0220a	1.6260388
223	0xbf456ac9	-0.77116066
224	0x3dd52b98	0.104087055
225	0x3de789ec	0.113056034
226	0x3dad82ce	0.08472215
227	0x3fa6c5b2	1.3029082
228	0x3d0601b2	0.03271646
229	0x3fa909fb	1.3206171
230	0x3e84a21c	0.2590493
231	0x3e6974b4	0.22798425
232	0xbf8713ac	-1.0552878
233	0x3e67cb55	0.22636159
234	0x3f471982	0.77773297
235	0x3f85ee06	1.0463264
236	0x3efea384	0.49734128
237	0x3f39537c	0.7239301
238	0x3e9f7e68	0.31151128
239	0x3f6e462d	0.9307583
240	0x3f5ea950	0.869771
241	0xbf11f10d	-0.5700844
242	0xbf159824	-0.58435273
243	0xbd878c41	-0.06618548
244	0xbf984986	-1.1897438
245	0x3c667b29	0.01406745
246	0x3f2ab5ce	0.6668366
247	0xbf57ee52	-0.8434802
248	0x3ec4d65b	0.3844479
249	0x3ef34e92	0.47520882
250	0x3fd0b379	1.6304771
251	0x3fadb073	1.3569473
252	0xbf0f1f96	-0.5590757
253	0x3f2c9ff3	0.67431563
254	0x3f0263b2	0.5093337
255	0x3e67ec28	0.2264868

l2.bias f4 [300]
0	0x3f55e671	0.8355475
1	0x3e4da374	0.20081884
2	0x3fbb7c3f	1.4647292
3	0x3e962c32	0.29330593
4	0x3f0c34d3	0.54768103
5	0x3f4ae8a1	0.79261214
6	0x3f39629a	0.7241608
7	0x3f9b9397	1.2154416
8	0x3f299016	0.6623548
9	0x3e8c904b	0.27453837
10	0x3f1eb401	0.61993414
11	0x3e8030ec	0.25037324
12	0x3f2d949c	0.67804885
13	0x3f178d8c	0.5920036
14	0x3f79d49a	0.9759003
15	0x3eecb4fd	0.46231833
16	0x3f0426c0	0.5162163
17	0x3eabfbfa	0.3359068
18	0xbd82ad39	-0.06380696
19	0x3d8b83b4	0.0681223
20	0x3e5e754d	0.21724434
21	0x3ea987cc	0.33111417
22	0x3f140a77	0.5782847
23	0xbded23d6	-0.11579101
24	0x3eefa5ff	0.46806332
25	0x3db9de35	0.09075586
26	0x3fc262a6	1.5186355
27	0xbe7d4823	-0.24734549
28	0xbd9430ae	-0.072358474
29	0x3f842a50	1.0325413
30	0x3f8ecf94	1.1157098
31	0x3e5135d6	0.20430693
32	0x3eb05936	0.34443063
33	0x3f13355f	0.5750331
34	0x3f300ad0	0.687665
35	0x3f40a161	0.75246245
36	0x3ddbd4f6	0.107339785
37	0x3efefb57	0.49801132
38	0x3f8bebf4	1.0931382
39	0xbc5d244c	-0.013497423
40	0x3f2d90b1	0.67798907
41	0xbe2a269c	-0.16616291
42	0x3f2f0652	0.6836902
43	0x3f825f90	1.0185413
44	0xbc09d1b2	-0.008411812
45	0x3f16282f	0.58655065
46	0x3ebd2f4c	0.36950147
47	0xbe948fa4	-0.2901584
48	0x3e0dab40	0.13834858
49	0x3ebd4e49	0.3697379
50	0x3f6f5320	0.93486214
51	0x3f1df070	0.61695004
52	0x3f4ee829	0.80823
53	0x3f3053b3	0.68877715
54	0x3f7e0d3a	0.9923893
55	0x3f2deacc	0.67936397
56	0x3eea6a46	0.45784205
57	0x3e4d7b92	0.2006667
58	0x3f6fb16b	0.93630093
59	0x3e9c8e63	0.30577382
60	0x3e4c7880	0.19967842
61	0x3f48323a	0.7820164
62	0x3f51a42a	0.8189112
63	0xbdd85843	-0.105637096
64	0x3f2f49b2	0.68471825
65	0x3f1a8308	0.6035619
66	0xbda77bc7	-0.081779055
67	0x3f14120f	0.57840055
68	0x3e19cfc5	0.15020664
69	0x3e54a01d	0.20764203
70	0x3dfb9290	0.12283814
71	0x3f2d1cbd	0.67621976
72	0x3f25c5f1	0.6475516
73	0x3f0a96f8	0.5413661
74	0x3f4fa4df	0.8111095
75	0x3ec4eb61	0.3846083
76	0x3f257c37	0.6464266
77	0x3efb2d43	0.4905797
78	0x3f382b11	0.71940714
79	0x3f1308e1	0.57435423
80	0x3ef6961d	0.48161402
81	0x3f18e32b	0.5972163
82	0x3d58c757	0.05292448
83	0x3e2b75f6	0.16744217
84	0x3ed607bc	0.41802776
85	0x3ecbcf69	0.3980668
86	0x3f24713c	0.6423528
87	0x3f162a70	0.58658504
88	0x3da8caa6	0.08241777
89	0x3f76db1e	0.96428096
90	0x3f88d22f	1.0689143
91	0x3f2f56cb	0.6849181
92	0x3fc2763e	1.5192335
93	0xbd9d1151	-0.076693185
94	0x3f0cdfa7	0.55028766
95	0xbed2161b	-0.4103249
96	0x3ebcde02	0.3688813
97	0x3ec8331a	0.39101487
98	0x3eb2d119	0.34925154
99	0x3ec0357c	0.37540805
100	0x3dec4658	0.115368545
101	0x3e30fe61	0.17284538
102	0xbeb2e741	-0.34942058
103	0x3d87f069	0.066376515
104	0x3f2e7eb5	0.6816209
105	0x3f171f25	0.590319
106	0x3eb47fdd	0.35253802
107	0x3f24a9af	0.64321417
108	0x3eded59d	0.4352235
109	0x3ec20c74	0.37900126
110	0x3f1f1999	0.62148434
111	0x3f641c94	0.89106107
112	0x3f09ebd4	0.5387547
113	0x3f7d0054	0.98828626
114	0x3eea647c	0.45779788
115	0x3efb31b6	0.49061364
116	0xbda898c8	-0.08232266
117	0x3e6f6f28	0.23382246
118	0x3ed73acd	0.4203705
119	0x3f458137	0.7715029
120	0x3eb333bf	0.35000417
121	0xbe9a250c	-0.3010639
122	0x3efccad6	0.49373502
123	0x3f10c5d7	0.5655188
124	0x3e38f5f3	0.18062572
125	0x3ef633e8	0.48086476
126	0x3de373c5	0.11106066
127	0x3f6bc616	0.9209913
128	0x4109b081	8.605592
129	0x3f2f4d5d	0.6847742
130	0x3ce464bc	0.027880065
131	0x3f0fdb47	0.56193966
132	0x3f4a1812	0.7894298
133	0xbf24885f	-0.64270586
134	0x3ee7926c	0.452289
135	0x3edc0615	0.4297339
136	0x3f463cfe	0.77436817
137	0x3f832227	1.0244797
138	0x41099332	8.598436
139	0x3f26a2ef	0.65092367
140	0x3f4642f4	0.7744591
141	0x3f147fa1	0.58007246
142	0x3f110742	0.566517
143	0x3efd7936	0.4950654
144	0x3dbddf60	0.09271121
145	0x3f12e1cc	0.5737579
146	0x3eff0447	0.4980795
147	0x3fa4ef95	1.2885615
148	0xbe609567	-0.21931992
149	0x3f4255c8	0.7591214
150	0x3ecb95d6	0.39762753
151	0x3f6a0fcb	0.9143035
152	0x3ea7b5aa	0.32755786
153	0xbbbf513e	-0.0058385422
154	0x3e3e8177	0.18604074
155	0x3edb28d6	0.42804593
156	0x3e6dbe52	0.23217133
157	0x3f16600b	0.587403
158	0x3f2294a2	0.63508046
159	0x3f279327	0.6545891
160	0x3f6c3b03	0.92277545
161	0x3f2657d3	0.6497776
162	0x3f8b5a9e	1.0887029
163	0x3f11bbe4	0.56927323
164	0x3f127df9	0.5722347
165	0x3f5b9cdf	0.8578624
166	0x3f1c7800	0.61120605
167	0x3f1ce2af	0.6128339
168	0x3ee63a51	0.44966367
169	0x3f35a552	0.70955384
170	0x3f68622a	0.90774786
171	0x3ef40098	0.47656703
172	0x3eb620ad	0.35571805
173	0x3f4067dc	0.75158477
174	0x3eb4e629	0.35331848
175	0x3ef3ff7f	0.47655866
176	0x3ee82afa	0.4534529
177	0x3f42ba4c	0.76065516
178	0x3e487872	0.19577196
179	0x3ea52977	0.32258198
180	0x3e87d1b2	0.26527172
181	0x3f68a68c	0.9087913
182	0x3e76f550	0.24117017
183	0x3f0321cd	0.5122345
184	0xbda8a3ec	-0.082343906
185	0x3f762ef4	0.96165395
186	0xbe91a349	-0.2844489
187	0x3d047ca6	0.032345437
188	0x3e8663e4	0.26248085
189	0x3dcfadd2	0.101405755
190	0x3ecf3da8	0.40476727
191	0x3ea20f3c	0.31652248
192	0x3ec3804d	0.38183823
193	0x3f7157f4	0.9427483
194	0xbd9132d8	-0.07089776
195	0xbf1253bb	-0.5715901
196	0x3f56b412	0.83868515
197	0x3f8c901a	1.0981476
198	0x3ec9bc97	0.39401695
199	0x4004c38d	2.0744355
200	0x3b284967	0.0025678517
201	0x3f1584a6	0.5840553
202	0xbdaf3634	-0.0855526
203	0xbe3d9d84	-0.18517119
204	0xbd8917da	-0.066940024
205	0x3eb8aedc	0.36070907
206	0x3ef87e1c	0.48533714
207	0xbc988ac8	-0.018620864
208	0x3ccc8f63	0.024970716
209	0x3ee62805	0.44952407
210	0xbedf3ff8	-0.43603492
211	0x410ad2ce	8.676466
212	0x3e727495	0.23677285
213	0x3ec3f415	0.38272157
214	0x3eb340af	0.35010287
215	0x3f2df151	0.67946345
216	0x3e08ca96	0.1335853
217	0xbe2fb463	-0.17158656
218	0x3f1bc9ad	0.6085461
219	0x3f1a7a82	0.6034318
220	0x3ed18ddc	0.40928543
221	0x3e4bbd5a	0.1989645
222	0x3f348462	0.705145
223	0x3ef5e6e5	0.4802772
224	0x3fa9c00d	1.3261734
225	0x3db3eec4	0.08785775
226	0x3f6be625	0.9214805
227	0x4106e2f3	8.430408
228	0x3e0127b5	0.12612803
229	0x3e90dd7e	0.28293985
230	0x3f2eda4d	0.6830185
231	0x3f906ae8	1.1282625
232	0x3d173a28	0.036920696
233	0x3f3c0dbd	0.7345846
234	0x410aa50b	8.665294
235	0x3d8baa65	0.068196096
236	0x3d6ae132	0.05734367
237	0x3f20f2e7	0.6287064
238	0x3f0c4c64	0.5480406
239	0x3e82b7cc	0.2553085
240	0x3f22eb47	0.63640255
241	0x3f9760e3	1.1826442
242	0x3cabd941	0.020977618
243	0x3e4615b5	0.19344218
244	0x3f12823c	0.5722997
245	0x3ea260f1	0.31714585
246	0x3dd41cd0	0.10357058
247	0x3f9885ac	1.1915793
248	0x3ddf4509	0.10901839
249	0xbe13abfc	-0.14421076
250	0x3eae7c23	0.34079084
251	0x3f0bbea9	0.545878
252	0x3f4c0169	0.7968965
253	0x3f5cf8e6	0.8631729
254	0x3ef4efc6	0.47839183
255	0x3f8b771a	1.0895722

bn2.weight f4 [300]
0	0x3fa48bd7	1.2855176
1	0x3ffa8d85	1.9574438
2	0x3f7b72e4	0.98222184
3	0x3ffe21e7	1.9854096
4	0x3fd9053f	1.6954726
5	0x40131f66	2.2987914
6	0x4000dc49	2.0134451
7	0x3f8cf8a7	1.1013383
8	0x3fd06179	1.6279746
9	0x3ff4919c	1.9106936
10	0x40085c66	2.1306396
11	0x40097801	2.1479495
12	0x3fb38a27	1.4026536
13	0x3fb9311f	1.4468116
14	0x3f8e9f29	1.1142322
15	0x400d6fbd	2.209945
16	0x400a9631	2.165417
17	0x401f3593	2.487645
18	0x40044283	2.0665596
19	0x3fe26254	1.7686257
20	0x3fc72595	1.5558344
21	0x3ff78eeb	1.934049
22	0x3fed9d94	1.8563714
23	0x3fc66401	1.5499269
24	0x40123731	2.2846186
25	0x3ff866ea	1.9406407
26	0x3fabc5b6	1.3419712
27	0x403af932	2.9214597
28	0x40406071	3.0058863
29	0x3fdc6989	1.7219707
30	0x3fc38cf1	1.5277387
31	0x4002af96	2.041967
32	0x3fc48ecf	1.5356082
33	0x3fe4271d	1.7824436
34	0x400665ed	2.099971
35	0x4000881a	2.008307
36	0x4026bc8a	2.6052575
37	0x3fdf8ddc	1.7465167
38	0x3fb5752c	1.4176383
39	0x3ffa1fb2	1.9540923
40	0x40033b6c	2.0505018
41	0x400e32ea	2.2218575
42	0x3ff4f142	1.9136126
43	0x3fadc832	1.357672
44	0x4021dadb	2.5289829
45	0x3ff9ccc3	1.9515613
46	0x3ff5bd88	1.9198465
47	0x40481551	3.126301
48	0x4018a44e	2.3850284
49	0x401e2019	2.470709
50	0x40220e95	2.53214
51	0x3ff94a2b	1.9475759
52	0x400eca15	2.231084
53	0x3fa477c8	1.2849054
54	0x3fff6e6b	1.9955572
55	0x3fcf2100	1.6181946
56	0x40018dae	2.0242724
57	0x40182a17	2.377569
58	0x3fb3eae2	1.4056056
59	0x400a9a91	2.165684
60	0x400e39c1	2.222275
61	0x3fb64a36	1.4241397
62	0x3fa02c67	1.251355
63	0x403e184e	2.9702334
64	0x3fcf46f2	1.6193526
65	0x3feda6e8	1.8566561
66	0x403ad072	2.9189725
67	0x3ff2cb0b	1.8968214
68	0x401472cb	2.3195064
69	0x400fb0a7	2.245157
70	0x3febb3fa	1.84143
71	0x3fd4f0ff	1.6636046
72	0x3fb0ae33	1.3803161
73	0x3fad1d0e	1.3524492
74	0x3fd68da1	1.6761972
75	0x3fd318e5	1.6491972
76	0x3fd64192	1.673876
77	0x3ffda5a7	1.9816178
78	0x3fbc032f	1.4688472
79	0x3fcc9a89	1.598466
80	0x3ff2d98d	1.8972641
81	0x3ffc7817	1.9724149
82	0x4012baf0	2.2926598
83	0x400d03b4	2.203351
84	0x40216ff9	2.5224593
85	0x3ff3928f	1.9029101
86	0x4004b80e	2.0737338
87	0x3fcd243b	1.6026682
88	0x4006df65	2.107385
89	0x3fbf88b8	1.4963598
90	0x40207184	2.5069284
91	0x3fff13cd	1.9927918
92	0x3f9cc24f	1.2246798
93	0x4003d9f6	2.0601783
94	0x4014acac	2.323039
95	0x4030b755	2.7611897
96	0x3fea32fa	1.8296807
97	0x400a3168	2.1592655
98	0x3fea236f	1.8292063
99	0x3fe6f513	1.8043541
100	0x3feb12e4	1.836514
101	0x402f37c4	2.7377787
102	0x40548c42	3.3210607
103	0x400f608a	2.2402673
104	0x3fce13d2	1.6099799
105	0x40056b9a	2.0846925
106	0x4016550b	2.3489406
107	0x401201bc	2.2813559
108	0x3fc9fecf	1.5780886
109	0x3fd9e195	1.7021967
110	0x3ff3896c	1.9026313
111	0x3ffb15cc	1.9616027
112	0x3fac9aff	1.3484801
113	0x3ff83309	1.9390575
114	0x400b093b	2.1724384
115	0x400d1312	2.204289
116	0x3fd4726b	1.6597418
117	0x3fee5686	1.8620155
118	0x3fd0f36c	1.6324286
119	0x3fdb003f	1.710945
120	0x400522dc	2.0802526
121	0x40231497	2.5481317
122	0x40129e4f	2.2909124
123	0x3fca8b06	1.5823677
124	0x40171822	2.360848
125	0x400d2cea	2.2058663
126	0x40164658	2.3480434
127	0x3f9b3333	1.2125
128	0x3dcb9d70	0.09942138
129	0x401395c3	2.3060157
130	0x3ff58a9c	1.9182925
131	0x3ffca616	1.9738185
132	0x3fb14267	1.3848389
133	0x4071186e	3.767116
134	0x3ffbb92c	1.9665885
135	0x40140f20	2.3134232
136	0x3fcb0cb9	1.5863258
137	0x4005d8dc	2.091361
138	0x3de0a8f2	0.10969724
139	0x3ff6a95a	1.9270432
140	0x3fbfc90e	1.4983232
141	0x4009d2a2	2.153481
142	0x400f3bd4	2.2380266
143	0x3feb3c92	1.837786
144	0x3fef460e	1.8693254
145	0x3fddc790	1.7326527
146	0x3fe20134	1.7656617
147	0x400b8452	2.1799512
148	0x40320a57	2.781881
149	0x3fe66489	1.7999431
150	0x40121a61	2.28286
151	0x3fdecacc	1.7405639
152	0x3ff4c137	1.9121464
153	0x404e50cf	3.2236822
154	0x3fcfd09b	1.6235536
155	0x3fd1b08e	1.6382005
156	0x3ff04041	1.8769609
157	0x3fdbe9a2	1.7180674
158	0x3fbe0055	1.4843851
159	0x3fccca84	1.5999303
160	0x3f5d0a51	0.86343867
161	0x40046fbf	2.0693204
162	0x3f8d6f4c	1.104959
163	0x3fc2b1ea	1.5210545
164	0x400ea14a	2.2285943
165	0x3ffff5f1	1.999693
166	0x3feb17cb	1.8366636
167	0x3fb3cccd	1.4046875
168	0x3ff60642	1.922066
169	0x3fcdd91f	1.6081885
170	0x3fee798a	1.8630841
171	0x40073916	2.1128592
172	0x3fe21383	1.7662205
173	0x3fc82c94	1.5638604
174	0x400d0eaa	2.20402
175	0x4001830a	2.023623
176	0x3ffcb889	1.9743816
177	0x3feb1cf7	1.8368214
178	0x3fe841f3	1.8145126
179	0x400198df	2.0249555
180	0x3ff3f09d	1.9057804
181	0x3fcdbb19	1.6072723
182	0x3fd6891f	1.6760596
183	0x3ff49194	1.9106927
184	0x4050e735	3.2641118
185	0x3fbf9b9c	1.4969363
186	0x40675ae4	3.6149225
187	0x400993b6	2.1496406
188	0x40102035	2.2519658
189	0x401e6420	2.4748611
190	0x401e4e74	2.4735384
191	0x3fcec842	1.6154864
192	0x3fd2f902	1.6482241
193	0x3f9fe440	1.2491531
194	0x4014e664	2.326562
195	0x403ed371	2.9816554
196	0x3fff78a4	1.9958692
197	0x3fa13579	1.2594444
198	0x3fe7925c	1.809154
199	0x3f67236e	0.90288436
200	0x4009c790	2.1528053
201	0x40125247	2.2862718
202	0x40237798	2.5541744
203	0x401e4576	2.4729896
204	0x401969e2	2.3970876
205	0x3fd799f8	1.6843863
206	0x4000ac64	2.010522
207	0x4024f3f2	2.5773892
208	0x400c1e50	2.1893501
209	0x3fe5bb8d	1.7947861
210	0x40576f27	3.3661592
211	0x3de88f9a	0.11355515
212	0x40000885	2.00052
213	0x3fae614c	1.3623443
214	0x3fe36760	1.7765923
215	0x3febce3b	1.8422312
216	0x402a383d	2.6596825
217	0x4006528d	2.0987885
218	0x3fede0cc	1.8584228
219	0x3ffd4fa3	1.9789928
220	0x40046e7d	2.0692437
221	0x3fd58917	1.6682462
222	0x4001d4e8	2.0286198
223	0x3fe0371f	1.7516822
224	0x3fca01ef	1.578184
225	0x400fbe2c	2.2459822
226	0x3fe00e0f	1.750429
227	0x3e09a13c	0.13440412
228	0x401c7a10	2.44495
229	0x4015dc82	2.3415837
230	0x3faf6f15	1.3705775
231	0x3feaa948	1.833291
232	0x40144ff0	2.317379
233	0x4008bd18	2.1365414
234	0x3df820c3	0.12115624
235	0x4018edcf	2.3895147
236	0x4008655f	2.1311872
237	0x4013ce41	2.3094637
238	0x40018584	2.0237741
239	0x4014f02a	2.3271585
240	0x3ffcc06a	1.974622
241	0x3fa3d719	1.2800018
242	0x404626bc	3.0961142
243	0x4006e0d6	2.107473
244	0x3fd9b73b	1.7009043
245	0x3fec504b	1.8462003
246	0x40023868	2.0346928
247	0x3fefabb7	1.8724278
248	0x400c9161	2.1963732
249	0x404bea71	3.1861842
250	0x3ffc06c4	1.9689565
251	0x3fcb885a	1.5900986
252	0x3fe87195	1.8159662
253	0x3ff02684	1.8761754
254	0x3ffac06f	1.9589976
255	0x3fe3c484	1.7794347
