weights/model_156.pt (torch, 429959 bytes, 10 tensors)

l1.weight f4 [300, 42]
000000 30 60 19 3f 2c 0e f6 be 59 43 0c 3f 52 7b a5 be
       0.59912395 -0.48057687 0.54790264 -0.32320648
000010 a6 02 4a 3f 13 c4 9e 3c a9 bc a3 bf 14 87 a6 bf
       0.7891029 0.019380605 -1.279195 -1.3009973
000020 0e d2 97 bf 12 ab 05 40 50 a9 16 3f f9 ce 67 bf
       -1.1860979 2.0885663 0.588521 -0.9055019
000030 80 65 4c 3f 73 38 52 bf e0 46 8f c0 13 5d 96 3e
       0.79842377 -0.82117385 -4.4774017 0.29367885
000040 a8 9c a2 3f 4c af 65 be 68 c0 70 40 fb ee 22 3f
       1.2704058 -0.22430152 3.7617435 0.63645905
000050 f5 8a f3 bf 25 97 f4 3f 41 e9 8f 3f b4 37 55 3f
       -1.9026781 1.9108626 1.1243058 0.8328812
000060 7d f6 47 3f 8b f2 af 3f 47 38 29 3f 9d fa c3 bf
       0.78110486 1.3745893 0.661015 -1.5310856
000070 57 31 99 40 cf 2c 23 c0 70 85 67 bf 8b 3d 51 c0
       4.787273 -2.54961 -0.90437984 -3.2693813
000080 4a e1 f5 40 38 03 3c c0 f0 3c 2e 3f b4 78 e6 c0
       7.683751 -2.9376965 0.68061733 -7.2022343
000090 cd 88 97 c0 97 8d ab 3f 6d 6e 50 bf 8a a2 64 c0
       -4.7354493 1.3402585 -0.81418496 -3.5724206
0000a0 9a 9b 3c 40 c0 b9 14 3f 07 c4 2a 3f 21 55 93 3f
       2.9469972 0.5809593 0.66705364 1.1510354
0000b0 24 69 27 3f b2 27 20 3f 4e d2 ae 3e dc a3 e5 3f
       0.65394807 0.6256057 0.34144825 1.7940631
0000c0 a7 1d 71 be 30 22 e1 be d9 92 0f bd 79 05 38 3f
       -0.23546468 -0.43971395 -0.035052154 0.7188335
0000d0 f3 94 6e 3e 4a 9d 15 c0 0a 1a 15 3e f1 b1 64 bf
       0.23299007 -2.3377252 0.14560714 -0.8933402
0000e0 bc 5d 1c 3f 69 13 96 3f dc 09 f1 be 7f 98 0a c0
       0.6108053 1.1724674 -0.47077835 -2.1655576
0000f0 04 0a 60 c0 22 a9 5d be 07 6f 48 bf aa 56 9e 3e
       -3.5006113 -0.2164655 -0.78294414 0.30925494
000100 cf 26 9b c0 78 84 24 3f 4b da 85 3f 48 ef 8a 3f
       -4.8484874 0.6426463 1.0457243 1.0854273
000110 fc dc 17 40 08 d1 e9 3f e3 60 94 c0 c3 0b a3 be
       2.3728628 1.8266916 -4.636827 -0.3184491
000120 b2 27 d6 3f fa 46 4a bc 28 44 34 bf 23 17 51 c0
       1.6730864 -0.012346024 -0.704165 -3.2670372
000130 28 a5 61 3f f4 48 70 bf 6c be de bf 86 8b 69 be
       0.88142633 -0.9386132 -1.7401862 -0.2280713
000140 c9 ad 45 c0 c6 6d dd 3e 6b 89 31 c0 b9 84 55 bf
       -3.088732 0.43247813 -2.7740123 -0.83405644
000150 eb 90 61 3f fc 1c 93 3e f6 7c d5 3e 43 6e 41 3f
       0.8811175 0.2873305 0.416969 0.7555887
000160 d2 73 4b 3f cb a9 66 bf 92 a8 29 40 e6 7a 23 bf
       0.794736 -0.90102834 2.6509137 -0.63859403
000170 2b 62 43 bf c6 48 9b 3f e8 4e 7c 3f 60 89 7a bf
       -0.7632167 1.2131584 0.985579 -0.9786587
000180 65 b4 bd 3f 8b b0 24 be aa 9e b1 3e 32 39 ce 3e
       1.4820677 -0.16082971 0.34691364 0.40278012
000190 58 7b 3d 40 86 22 ad bf 5f 26 93 c0 aa 73 b8 3f
       2.9606533 -1.3526161 -4.598434 1.4410298
0001a0 12 17 19 bf 07 45 19 40 dd 0d 17 40 bd b4 84 3f
       -0.5980083 2.394838 2.3602211 1.0367657
0001b0 6a b9 7f 3f cb c7 ee bf 42 ef a7 bf ba a7 93 3f
       0.99892294 -1.8654722 -1.3119891 1.1535561
0001c0 a6 20 8c bf 31 a2 f1 3f 6a 47 3b 3e 47 ac 69 3f
       -1.0947464 1.8877622 0.18288961 0.912785
0001d0 d9 3d 30 41 e9 ba 0c c0 13 13 0d 3f fb 92 d6 3f
       11.0151 -2.198908 0.5510723 1.6763605
0001e0 ed b1 cd be 4c ae 2f bf af a4 ce bf 9c 0e 03 c0
       -0.4017481 -0.6862533 -1.6144007 -2.0477667
0001f0 b7 e0 60 40 e8 f4 f7 40 b2 c2 49 3f ce 0a 52 3f
       3.5137155 7.748646 0.78812706 0.82047737
000200 df 92 6c 3f eb 99 7c 3f 89 ea 1b 3f 03 14 77 bf
       0.9241161 0.9867236 0.6090475 -0.9651491
000210 07 80 b7 bf cb 06 06 c0 19 f5 a5 3f f5 eb 6b 3f
       -1.4335946 -2.0941646 1.2965423 0.92156917
000220 d1 31 5d 3f e2 4c 12 3d 44 cd 90 3f 3a b4 c0 bf
       0.8640414 0.035717852 1.1312642 -1.5055001
000230 55 dd f8 3f 93 c1 05 c0 45 a7 e0 3e b5 ac cc 3e
       1.9442545 -2.0899398 0.43877617 0.39975515
000240 64 e7 ef 3f 47 81 54 bf a0 01 f4 3f 71 95 e4 bf
       1.874249 -0.8300976 1.9062996 -1.7858106
000250 f5 74 4f c0 4a 21 06 3f 92 f9 49 3f 19 f8 93 bf
       -3.2415135 0.52394545 0.7889644 -1.1560088
000260 07 18 2e c0 5e c8 07 be cf 72 fd 40 a9 b8 0d c0
       -2.7202165 -0.13260028 7.9202647 -2.2143958
000270 ea 8a 31 3e c5 99 26 c0 8c ea 86 c0 f9 7a e4 40
       0.17338148 -2.6031353 -4.216131 7.1400113
000280 3b 2a 04 3f 23 86 3e 40 2e 57 bf 3e 7b 54 cd be
       0.5162694 2.976937 0.373712 -0.40103516
000290 d1 2d a8 3d d2 36 f5 3f 00 5b 17 c1 9e 76 e0 3f
       0.08211864 1.9157355 -9.459717 1.7536199
0002a0 15 07 69 3f a5 f8 5e 3e 67 55 3e 3f 2b a0 85 bf
       0.9102643 0.21774538 0.74349064 -1.0439504
0002b0 9c 9e 0b 3f c1 0a c3 3f e3 f0 1d c0 85 ae 08 bc
       0.54538894 1.5237657 -2.4678276 -0.00834239
0002c0 9f 8e 8d bf 42 e9 bd be ac bf 23 3f 1b 92 15 c0
       -1.105915 -0.37092024 0.63964343 -2.3370426
0002d0 c1 22 4f 3e 2a 1f 79 bf 0c 82 87 bf 52 cc 28 40
       0.20228101 -0.9731318 -1.0586562 2.6374707
0002e0 e7 f5 21 c0 35 2a 3f 40 91 48 65 40 ff 48 a8 be
       -2.5306337 2.986951 3.582554 -0.32868192
0002f0 8a c7 ad 40 0b 5b e7 3e 6e f0 37 bf e8 2a 67 3f
       5.430608 0.45186648 -0.7185124 0.90299845
000300 31 17 85 3f 1d 5f a1 40 84 22 02 40 b1 a4 ea 3f
       1.0397702 5.0428605 2.0333567 1.833151
000310 6a cb 78 40 ee f8 1e c0 16 8e 0a c0 ef 6f fc 3d
       3.8874154 -2.4839435 -2.1649222 0.12326037
000320 3a 5d 2d c1 61 27 ab 40 a4 83 38 3f 80 c5 7e 40
       -10.83526 5.348557 0.7207587 3.9808044
000330 df ab aa 3f 21 ae 7c 3f 9a 46 28 3f be 58 a3 40
       1.3333701 0.987032 0.6573273 5.104583
000340 ad 9b 22 c0 fc a8 d3 3f 1b 23 8a 3f 2d bb 95 3f
       -2.5407517 1.6535945 1.0791963 1.1697747
000350 73 ae 9c 3f 8b 75 94 3c a5 0c 31 3f a7 8c b8 3f
       1.2240738 0.018122455 0.6915992 1.4417924
000360 ae 2e 41 3c aa 8d 7a 3e 27 68 9a be 55 de 95 3e
       0.011790914 0.24468103 -0.30157587 0.29271188
000370 e4 d8 44 3f 80 4c d7 be e3 4e b2 be dc 37 8a be
       0.7689345 -0.42050552 -0.3482581 -0.26995742
000380 34 3b 32 c0 57 ca 09 40 b3 3b 66 c0 76 b0 77 3f
       -2.7848635 2.1529748 -3.5973938 0.96753633
000390 a6 0f 04 40 f8 49 eb 3e 2c 6d 36 40 44 26 c9 3f
       2.063455 0.4595487 2.8504133 1.5714803
0003a0 58 51 6f 40 72 6a 44 3f 4b 6f 3d 3f 45 f0 de 3f
       3.7393398 0.7672492 0.73997945 1.7417074
0003b0 6e ef 0e bf 4f c1 a6 3f 63 95 6d 40 13 95 40 bf
       -0.5583409 1.3027743 3.7122428 -0.7522747
0003c0 fa 35 d9 be b6 bc 94 3e 5d 9a 9b 3f 83 0a 36 3f
       -0.42423993 0.29050225 1.2156483 0.7110979
0003d0 30 09 6c 3f fd 3f 58 bf 14 14 3a c0 66 fb 96 3f
       0.9220152 -0.8447264 -2.9074755 1.1795471
0003e0 56 62 2d c0 83 fc 29 40 6a a8 88 40 1b 6a 8f 3f
       -2.709127 2.656037 4.2705584 1.1204256
0003f0 03 e2 ec 3e bd 88 92 3f 3e 97 32 3f a9 cc ef 3f
       0.46266183 1.1447979 0.6976203 1.8734332

l1.bias f4 [300]
000000 fb 4a 30 3f 14 f4 5a 3f 87 07 60 3f c4 11 5d 3f
       0.6886441 0.85528684 0.87511486 0.86355233
000010 29 5e 51 3f b0 dc 5f 3f bf 7f 69 3f 7c f1 40 3f
       0.817843 0.8744612 0.9121055 0.75368476
000020 03 3b 89 3f e4 6e 30 3f 57 b7 60 3f 0e 5f 83 3f
       1.0721134 0.68919206 0.87779754 1.0263383
000030 6a cd 43 3f 46 4d 25 3f e5 87 e8 3e 1f c2 4f 3f
       0.7648531 0.64571035 0.4541618 0.8115558
000040 fe a6 48 3f cd ef 2a 3f 00 73 58 3f cc e0 63 3f
       0.7837981 0.66772157 0.84550476 0.8901489
000050 57 46 43 3f df 78 8e 3f 82 e3 5f 3f 06 d4 29 3f
       0.76279205 1.1130637 0.87456524 0.6633915
000060 e5 33 7b 3f 07 55 84 3f fd ed 59 3f e5 63 3f 3f
       0.9812606 1.0338448 0.85128766 0.747618
000070 97 16 3c 3f da de 1a 3f 1f 35 4b 3f 9d 2f 4f 3f
       0.7347197 0.60496294 0.7937793 0.8093203
000080 1a 27 84 3f c5 e7 52 3f 30 e4 40 3f 2a d9 1e 3f
       1.0324433 0.823849 0.75348186 0.62050116
000090 17 37 65 3f 89 93 50 3f 8b e9 22 3f b9 e1 4a 3f
       0.89537185 0.8147512 0.6363761 0.79250675
0000a0 88 a3 87 3f 08 e0 49 3f 49 eb 83 3f b4 c6 f1 3e
       1.0596781 0.7885747 1.0306178 0.4722191
0000b0 04 97 37 3f bd 28 27 3f 5c af 53 3f 28 20 39 3f
       0.71714807 0.65296537 0.8268945 0.7231469
0000c0 1b c6 32 3f 0e f4 82 3f 6a 78 25 3f 7e bb 28 3f
       0.69833535 1.023073 0.6463686 0.6591109
0000d0 f1 60 2d 3f 17 9a 58 3f d7 57 91 3f 91 72 73 3f
       0.67726046 0.8461012 1.1354932 0.9509669
0000e0 b1 0a c7 3e 3e bb 32 3f 5e f3 54 3f 4b db 1b 3f
       0.38875344 0.6981696 0.8318385 0.6088149
0000f0 78 ef 9b 3f c4 5d 3f 3f 8e 4e 68 3f 0c a3 51 3f
       1.2182455 0.7475245 0.90744865 0.81889415
000100 ce 54 1e 3f 17 14 37 3f b4 e2 86 3f f6 ac 42 3f
       0.6184815 0.7151503 1.0537934 0.7604517
000110 a5 7c 09 3f 82 d8 58 3f 37 60 53 3f d5 1e 69 3f
       0.5370582 0.84705365 0.8256869 0.9106267
000120 4e 63 47 3f 3c 34 39 3f ab 33 86 3f 52 7a 25 3f
       0.778859 0.7234533 1.0484518 0.6463977
000130 b6 7c 3f 3f 28 35 66 3f 77 0e 3f 3f 91 0b 5b 3f
       0.7479967 0.8992486 0.74631447 0.85564524
000140 05 e2 2f 3f ef 3d 1b 3f 0a 1c 1e 3f 89 3b 07 3f
       0.68704253 0.6064138 0.61761534 0.5282522
000150 9f 0b 5e 3f 88 b5 3b 3f f3 bd 3a 3f 0d 23 11 3f
       0.8673648 0.7332387 0.7294609 0.5669411
000160 ac e8 9f 3f ef 4c 6a 3f ee a0 58 3f 5c f7 ec 3e
       1.2492881 0.9152364 0.8462056 0.4628247
000170 28 aa 76 3f b8 64 14 40 fc a8 0b 3f ba e6 35 3f
       0.9635339 2.3186474 0.54554725 0.71055186
000180 dc e3 81 3f 1e 8c 37 3f 95 95 2c 3f ef ac 61 3f
       1.0147662 0.71698177 0.67415744 0.881545
000190 45 fd 5f 3f da 89 3a 3f 7d 9b 46 3f 76 4c 40 3f
       0.87495834 0.72866595 0.77581006 0.7511667
0001a0 cf 41 e7 3e e8 af 24 3f 7c 0a 4f 3f 58 ee 97 3f
       0.45167395 0.6433091 0.8087537 1.1869612
0001b0 e7 03 87 3f 7f 1d 58 3f e4 17 63 3f 43 f5 7a 3f
       1.0548066 0.8442001 0.8870833 0.9803049
0001c0 e5 4b 4e 3f fe c1 06 3f 24 e4 72 3f 4f 9a 70 3f
       0.80584556 0.5263976 0.94879365 0.93985456
0001d0 60 e2 74 3f 40 58 3b 3f d9 6b 51 3f 1e 2b 70 3f
       0.9565792 0.73181534 0.8180519 0.9381579
0001e0 63 f7 27 3f 30 2c 6b 3f 90 72 48 3f 21 35 5d 3f
       0.6561186 0.918643 0.7829981 0.86409193
0001f0 80 e7 3e 3f fb 03 2a 3f 20 5b 76 3f 47 a9 40 3f
       0.7457199 0.66412324 0.96232796 0.75258297
000200 31 fd 87 3f 52 3c 7f 3f 90 2a 7c 3f 88 de 26 3f
       1.0624143 0.99701416 0.98502445 0.65183306
000210 54 79 74 3f 36 18 48 3f 91 9a 17 3f 3d 91 02 3f
       0.9549763 0.7816194 0.59220225 0.51002866
000220 09 9f 83 3f ae a1 3d 3f 23 8b 52 3f 08 3a 86 3f
       1.0282909 0.7407483 0.82243556 1.048646
000230 b5 dd 46 3f 73 d9 27 3f d7 47 82 3f d9 4e 37 3f
       0.7768205 0.65566176 1.0178174 0.71604687
000240 67 48 86 3f 14 00 3b 3f 41 74 5b 3f 69 65 20 3f
       1.0490845 0.73046994 0.85724264 0.6265474
000250 62 66 0f 3f bd d5 10 3f e8 6b 0d 3f 6a 0b 03 3f
       0.560156 0.5657614 0.55242777 0.5118929
000260 63 53 88 3f f9 2c 26 3f bc 3e 4d 3f a0 23 04 3f
       1.0650448 0.6491237 0.8017385 0.5161686
000270 ca d8 16 3f 1c d4 3a 3f 83 a5 4e 3f d0 4c 10 3f
       0.58924544 0.72979903 0.807213 0.56367207
000280 75 d2 2e 3f 29 e3 80 3f 4d 2f d9 3e 0e d8 6e 3f
       0.6828988 1.0069324 0.424189 0.93298423
000290 2d 11 19 3f ea 5d 4f 3f 82 c7 22 3f a7 ac 21 3f
       0.59791833 0.81002676 0.63585675 0.6315407
0002a0 73 5f 32 3f a7 87 69 3f 85 fe 53 3f 95 55 72 3f
       0.69676894 0.91222614 0.8281024 0.9466184
0002b0 b4 7d cf 3e c3 18 29 3f 19 b4 6b 3f 98 c8 1b 40
       0.4052559 0.6605341 0.9207168 2.4341183
0002c0 88 06 4f 3f 39 8a 78 3f 57 f5 2f 3f 5c c5 3b 3f
       0.8086934 0.9708591 0.68733734 0.7334802
0002d0 60 d1 3e 3f c6 b3 a8 3e 85 71 2f 3f bf 8f 6b 3f
       0.7453823 0.32949656 0.6853259 0.92016214
0002e0 dd ec 1b 3f 96 71 5c 3f d1 d8 76 3f 6e 1b 1e 3f
       0.609083 0.8611082 0.96424586 0.61760604
0002f0 82 a3 1d 3f 96 de 82 3f 17 fc 08 3f 1d dd 0c 3f
       0.6157762 1.0224178 0.5350966 0.5502489
000300 8a 07 12 3f 04 c1 32 3f fa fd 5f 3f d4 96 5d 3f
       0.57042754 0.6982577 0.8749691 0.8655827
000310 bc c7 35 3f 96 88 51 3f db 9c 4f 3f 7b 69 17 3f
       0.71007895 0.8184904 0.8109872 0.59145325
000320 25 aa 3e 3f 62 47 55 3f 8e 46 1d 40 57 3e 65 3f
       0.7447837 0.83312047 2.4574313 0.8954825
000330 f8 5c 76 3f f3 8c 1b 3f f9 09 28 3f ea f7 49 3f
       0.9623561 0.60761946 0.6564022 0.7889391
000340 73 eb 58 3f 34 18 39 3f 16 24 37 3f f6 43 45 3f
       0.84734267 0.72302556 0.7153944 0.77056825
000350 ca c3 51 3f 05 7f 52 3f 09 ab f9 3e a6 80 1c 3f
       0.81939375 0.82225066 0.48763302 0.611338
000360 19 8c 5c 3f 00 3f 13 3f b9 e6 20 3f 02 41 5e 3f
       0.8615127 0.57518005 0.62852055 0.86817944
000370 cf 67 83 3f 81 2c 13 40 06 4d db 3e f1 e5 7b 3f
       1.0266055 2.2995913 0.42832202 0.9839774
000380 50 98 1b 3f b7 97 3a 3f c5 68 1d 3f 7f 75 2c 3f
       0.60779285 0.7288775 0.6148799 0.67366785
000390 8a 91 91 3f 52 f6 88 3f 33 fd 24 3f ca 9a da 3e
       1.137254 1.0700171 0.6444885 0.4269622
0003a0 35 ac 4b 3f 3c 3b 29 3f 24 1d 47 3f 09 70 1d 3f
       0.7955964 0.6610601 0.7777884 0.6149908
0003b0 3c cb 5c 3f bc 72 a6 3f 65 d7 36 3f 4d 2b 1b 3f
       0.8624761 1.3003764 0.71422416 0.60612947
0003c0 98 ad 43 3f ff 66 1f 3f e0 57 96 3f 65 e2 81 3f
       0.7643676 0.62266535 1.1745567 1.0147215
0003d0 39 98 7b 3f d2 78 5a 3f cf a4 60 3f cc 8b 4c 3f
       0.9827915 0.8534061 0.8775148 0.79900813
0003e0 2a ba 44 3f 9a 8a 1c 3f b7 21 1a 3f 9d 85 70 3f
       0.76846564 0.6114899 0.60207695 0.9395388
0003f0 58 74 1d 3f b0 29 68 3f e4 1e 27 3f 30 7e 0c 3f
       0.6150565 0.9068861 0.6528151 0.54880047

bn1.weight f4 [300]
000000 b6 32 28 40 73 01 42 40 45 95 04 40 18 fd b2 3f
       2.6280951 3.0313385 2.0716107 1.3983488
000010 41 8d 1c 40 0a 52 08 40 b4 3c f0 3f af 2f d0 3f
       2.4461215 2.1300073 1.8768525 1.6264552
000020 fa 7b 4d 40 97 30 c8 40 82 d3 66 40 fb 46 14 40
       3.210692 6.2559314 3.6066594 2.3168323
000030 8c 41 08 40 b6 47 0a 40 58 6e c0 3f de 01 03 40
       2.1290007 2.160627 1.5033674 2.046989
000040 91 36 3d 40 9c fc 28 40 e3 59 63 40 ae 16 34 40
       2.9564555 2.640418 3.5523612 2.8138843
000050 11 8e 92 3f 76 8e ae 40 3a 92 08 40 a7 1a 0b 40
       1.1449605 5.4548903 2.133925 2.1735017
000060 38 ff 63 40 6a 07 b2 3f b7 78 02 40 37 b6 05 40
       3.5624523 1.3908513 2.0386178 2.0892465
000070 59 8a 02 40 18 03 2d 40 b5 b4 bc 3f 47 22 00 40
       2.039694 2.7033138 1.4742647 2.0020921
000080 40 ad 1b 40 1b 4f 57 40 3e ef 19 40 d6 92 06 40
       2.4324493 3.3642032 2.4052272 2.1027122
000090 f5 bd 0f 40 21 cd 1b 40 3b a8 1e 40 13 22 2c 40
       2.245969 2.434395 2.479018 2.6895797
0000a0 c6 c9 ce 3f 32 c0 33 40 50 fa 03 40 79 e5 bf 3f
       1.6155326 2.8086057 2.0621529 1.4991904
0000b0 9d 8e 2f 40 4b 97 02 40 9c f7 de 3f 08 51 03 40
       2.7430794 2.0404842 1.7419314 2.0518208
0000c0 cc 15 4f 40 47 a0 ea 3f f1 b0 f1 3f fc 35 1d 40
       3.2357054 1.8330163 1.8882123 2.45642
0000d0 12 b7 0f 40 94 62 5f 40 d3 44 1b 40 e3 37 49 3f
       2.2455487 3.4903917 2.4260757 0.786009
0000e0 d5 4f 28 40 ce 7d 19 40 66 86 ca 3f 46 d5 bb 3f
       2.6298726 2.3983035 1.5822265 1.4674461
0000f0 d3 8c ae 3f 90 c2 08 40 1c a1 1c 40 99 19 0d 40
       1.3636726 2.1368752 2.4473333 2.2046874
000100 85 af 4e 40 a6 08 69 40 8b d7 48 40 5b 93 8c 3f
       3.2294629 3.6411529 3.1381557 1.0982469
000110 2f e3 37 40 94 b7 1a 40 cf 86 0a 40 cc 23 0f 40
       2.8732412 2.4174547 2.164478 2.2365599
000120 12 e4 8a 40 97 9a 0e 40 a9 c2 d6 3f 24 2b d5 3f
       4.3403406 2.2281854 1.6778156 1.665379
000130 ee b2 f0 3f f4 f9 24 40 e5 1a 81 40 16 0d 07 40
       1.8804605 2.577756 4.034533 2.1101737
000140 15 97 1c 40 16 da 42 40 3e df 19 40 bb e8 b9 40
       2.4467213 3.044561 2.4042506 5.8096595
000150 b9 31 d2 3f 7e 7e 0b 40 1a 22 2f 40 49 26 67 40
       1.6421424 2.1795955 2.7364564 3.6117117
000160 25 f9 b0 3f 36 d0 12 40 76 21 49 40 c6 c5 4c 40
       1.3826033 2.2939582 3.1426673 3.1995711
000170 29 12 96 3f 38 af 11 3e da ce 23 40 63 dd 05 40
       1.1724292 0.14226997 2.5595002 2.0916374
000180 85 fc ee 3f 9a 07 21 40 2b b2 71 40 52 9e 14 40
       1.8670813 2.516089 3.7764995 2.322163
000190 09 b6 32 40 a4 b4 64 40 ba 5f 19 40 3c e7 85 40
       2.7923605 3.5735254 2.3964677 4.184477
0001a0 7a 4e c8 3f 48 cd 47 40 7d 8a 3f 40 72 b2 69 40
       1.5648949 3.1219044 2.9928277 3.6515164
0001b0 85 80 67 40 66 55 0f 40 3a af 56 40 04 a3 12 40
       3.6172192 2.2395873 3.354445 2.2911997
0001c0 da ee ef 3f d8 87 2a 40 52 41 0f 40 df da 25 40
       1.8744767 2.6645412 2.2383618 2.5914838
0001d0 19 7d ce 3f b5 9a 09 40 e8 46 7a 40 fd 69 68 40
       1.6131927 2.1500676 3.9105778 3.631469
0001e0 6e 3f 52 40 41 25 f3 3f 5d bd de 3f cd bc 67 40
       3.2851214 1.8995744 1.7401539 3.6208985
0001f0 00 14 24 40 b1 80 20 40 af c1 59 40 5e 8a 9a 3f
       2.5637207 2.5078547 3.4024465 1.2073476
000200 fd b5 2a 40 48 46 96 3f 31 de 54 40 69 11 02 40
       2.6673577 1.1740198 3.3260615 2.0323126
000210 6a 9f ef 3f 0a 94 39 40 37 36 bd 3f 66 2a 35 40
       1.8720524 2.8996606 1.478217 2.8307128
000220 1b 8d 86 40 35 69 57 40 c4 1d 12 40 7c b8 fe 3f
       4.204725 3.3657963 2.2830667 1.990005
000230 a0 0b 38 40 31 53 2a 40 5e 22 cd 3f 3b 91 b4 3f
       2.8757095 2.6613276 1.6026113 1.4106821
000240 4c 9d 62 40 bf 20 b8 3f f1 74 3c 40 44 e3 0b 40
       3.5408506 1.4384993 2.9446375 2.1857462
000250 bb a8 d9 3f 89 51 41 40 53 95 1f 40 1e cf 4a 40
       1.7004617 3.0206015 2.493489 3.1688914
000260 0a 6f 49 40 9e e6 11 40 86 b9 55 40 56 f9 13 40
       3.1474023 2.2797008 3.3394485 2.3120933
000270 c7 a3 02 40 8f dd fd 3f 64 0b 15 40 d8 7e 33 40
       2.0412462 1.9833239 2.3288202 2.804617
000280 c1 10 04 40 ba e7 18 40 81 01 41 40 fc ad 53 40
       2.0635226 2.3891435 3.0157168 3.3074942
000290 17 32 66 40 2d 9d 2a 40 22 c9 30 40 96 6d 47 40
       3.5968072 2.6658432 2.7622762 3.1160636
0002a0 71 ad e7 3f bd c8 2c 40 47 23 0a 40 78 4a cd 3f
       1.8099805 2.699752 2.1584032 1.6038351
0002b0 81 49 32 40 15 3e 01 40 61 27 c7 3f f5 06 15 3e
       2.7857363 2.0194142 1.5558892 0.14553435
0002c0 3b 96 f3 3f ab 68 78 40 ec c1 f8 3f 52 5f 47 40
       1.9030222 3.8813884 1.943418 3.115193
0002d0 ac 22 9b 3f 36 c9 98 40 95 f6 2b 40 3c 0b ed 3f
       1.2119956 4.774562 2.6869252 1.8519053
0002e0 30 f1 55 40 9f d7 4a 40 95 07 d2 3f a0 6f b2 3f
       3.342846 3.1694105 1.6408564 1.3940315
0002f0 01 10 e6 3f 83 73 2c 40 7a b8 5c 40 20 87 38 40
       1.7973634 2.6945503 3.4487596 2.8832474
000300 ce dd 57 40 99 2d 23 40 5d 7a 17 40 12 0d 24 40
       3.372913 2.549658 2.3668435 2.5632977
000310 0a a5 04 40 8d 5c 0d 40 21 6d 31 40 a2 43 0d 40
       2.0725732 2.2087739 2.7722857 2.207253
000320 ab ee 19 40 c0 54 88 40 77 b5 d0 3d 57 13 1f 40
       2.4051921 4.2603455 0.10190862 2.4855554
000330 3e 1a 8a 40 89 8d c0 3f cc 74 2d 40 a2 82 60 40
       4.3157034 1.5043193 2.7102537 3.5079732
000340 57 72 4e 40 b1 a5 62 40 7d 47 9d 3f 1f b9 f7 3f
       3.2257288 3.541363 1.2287441 1.935337
000350 26 41 56 40 a5 f3 24 40 9b af 0e 40 81 52 f3 3f
       3.3477263 2.577371 2.229468 1.9009553
000360 cf a5 00 40 51 22 31 40 b1 cd 1a 40 5f 38 45 40
       2.0101202 2.7677195 2.4188044 3.0815656
000370 07 db f3 3f 12 7d f6 3d cc 3b 0a 40 cc e1 df 3f
       1.9051217 0.12035574 2.1598997 1.7490783
000380 88 f5 04 40 52 e2 c7 3f 5c 20 fa 3f a8 fe 10 40
       2.077486 1.5615942 1.9541125 2.265543
000390 c9 7b 32 40 ac 2d 11 40 4e 8f 3f 40 08 c4 6c 40
       2.7888052 2.2684126 2.9931216 3.6994648
0003a0 b1 c9 00 40 c2 f6 12 40 6e 8e f0 3f f3 40 10 40
       2.0123103 2.296311 1.8793466 2.2539642
0003b0 ed 94 3a 40 55 61 24 40 11 82 45 40 8c f0 f0 3f
       2.9153397 2.5684407 3.0860636 1.8823409
0003c0 bd 11 a8 3f d6 7e 2c 40 6e 1f 2f 40 7b 5b 66 40
       1.3130413 2.6952415 2.7362933 3.5993335
0003d0 a2 45 81 40 90 c4 49 40 b4 60 a3 3f 9c 6f 32 40
       4.03975 3.1526222 1.2763886 2.788062
0003e0 bd f2 1f 40 c7 19 2a 40 0e 90 1b 40 8d d4 f0 3f
       2.4991906 2.6578233 2.4306674 1.8814865
0003f0 c2 6c 03 40 6f bb a9 3f e9 24 e2 3f 7a 43 ed 3f
       2.053513 1.3260325 1.7667514 1.8536217

bn1.bias f4 [300]
000000 a6 6a 84 bf a7 20 42 bf 34 ff 9c bf 6a 37 24 bf
       -1.0345047 -0.75831074 -1.2265382 -0.64147055
000010 92 0e 7a bf 2d 42 1f bf 4a 5a 53 bf 59 7b b1 bf
       -0.9767848 -0.6221035 -0.82559645 -1.3865768
000020 a6 6e 00 3f 1f d7 9d bd 46 76 c4 3e e0 11 84 bf
       0.50168836 -0.07707047 0.38371485 -1.0317955
000030 27 25 d2 bf 22 55 a6 bf b6 1f 78 bf 7d 02 25 bf
       -1.6417588 -1.299473 -0.9692339 -0.6445692
000040 33 35 55 bd 9a 4a 3d bf d3 36 8c be 88 e6 a6 3d
       -0.052052688 -0.7394196 -0.27385578 0.08149439
000050 d7 71 46 bf b1 6f 3e 3f 17 2b b1 bf d9 08 a0 bf
       -0.77517456 0.7438918 -1.3841275 -1.25027
000060 82 64 1d 3e 58 85 b9 bf e5 b3 9a be ee a9 9f bf
       0.15370372 -1.4493818 -0.30215374 -1.2473733
000070 d5 19 58 bf e8 a3 88 be 9f aa 6b bf 54 25 27 bf
       -0.84414417 -0.2668755 -0.9205722 -0.65291333
000080 bd 8c 88 bf 8f 59 51 3b 37 e5 0e bf 67 52 bc bf
       -1.066795 0.003194425 -0.55818504 -1.4712647
000090 b4 92 b1 be cb 01 8f bf 8f 3f 21 bf d5 48 b8 bd
       -0.34682238 -1.1172422 -0.6298761 -0.089982666
0000a0 ca 9c 87 bf 16 05 c1 be 76 95 57 bd 63 1c 02 c0
       -1.0594723 -0.37699193 -0.05263277 -2.0329826
0000b0 73 cd 97 be 09 42 a2 bf be c6 2f bf a8 ea 39 bd
       -0.29648933 -1.2676402 -0.6866263 -0.0453898
0000c0 5b c3 f6 3e dd 67 0d bf dd 55 64 bf 92 a6 79 bf
       0.4819592 -0.5523661 -0.89193517 -0.9751979
0000d0 e6 c2 81 bf 67 4e 76 be d4 2a 1b bf cc f3 7d bf
       -1.0137603 -0.24053346 -0.60612226 -0.9920013
0000e0 57 44 f7 bd 44 77 fe be 7d d0 20 bf 92 1c 9d bf
       -0.12073582 -0.49700367 -0.6281813 -1.2274344
0000f0 23 55 c6 bf 83 53 13 3d 9a d9 1a be 89 ac 9f 3e
       -1.5494732 0.035968315 -0.15122071 0.3118632
000100 ec 49 06 3f ca 27 05 bc 23 2b aa be aa 50 97 bf
       0.52456546 -0.008127162 -0.33236036 -1.1821492
000110 a6 38 95 bf 3b c9 47 be 5c a6 b9 bf fb f2 7f bd
       -1.1657913 -0.19510357 -1.4503894 -0.062487584
000120 dd 97 c0 3e 56 6d b7 bf e1 44 48 bf 92 49 64 bf
       0.37615862 -1.4330242 -0.782301 -0.8917476
000130 71 dd 9d bf c7 8d 81 bf ae fb 73 bf ec 1d ab be
       -1.2333204 -1.0121392 -0.9530591 -0.33421266
000140 32 41 dd be ea 89 8f bf ec d2 36 bf e3 57 04 be
       -0.43213803 -1.1213963 -0.7141559 -0.12924151
000150 38 f6 b5 bf cf b7 1a bf 26 4c c7 3c fb 74 74 be
       -1.4215765 -0.6043672 0.024328303 -0.2387275
000160 2c bd 97 bf df 52 ee 3e 60 b6 d2 3e b7 08 9a be
       -1.1854606 0.465476 0.41154766 -0.30084774
000170 82 47 ca bf de 44 7d bf e5 56 11 bf 7a ed 25 bf
       -1.5803072 -0.9893321 -0.56773216 -0.64815485
000180 da ec 36 be c6 43 22 bf 40 b5 66 bf da d3 59 be
       -0.17863789 -0.63384664 -0.90120316 -0.21272221
000190 cc 67 89 3e d2 86 5a bd bf 11 92 be aa d2 70 3c
       0.26837003 -0.05335123 -0.28529164 0.014698664
0001a0 da 17 94 bf 57 c4 14 bf c7 2a 05 bf 19 a8 a8 3e
       -1.1569779 -0.5811209 -0.520184 0.32940748
0001b0 5e f9 1d 3f 49 77 66 bf a5 a7 39 bf bb 2f cc bf
       0.6170863 -0.90025765 -0.7252143 -1.5952066
0001c0 f4 96 cc bf 5f 04 18 bf 30 30 65 bf 63 18 17 bf
       -1.5983567 -0.5938167 -0.89526653 -0.59021586
0001d0 e4 b8 ee be af d3 d7 bf 04 ab 55 3e 41 db 9b bd
       -0.46625435 -1.6861476 0.20866019 -0.07610179
0001e0 90 c2 d5 be 86 72 23 3f 8e 70 82 bf c3 5a ae 3e
       -0.41750002 0.63846624 -1.0190599 0.3405362
0001f0 34 cd 4e be 48 c1 22 bf da 29 e2 3d 7d 07 f2 be
       -0.20195466 -0.63576174 0.11043139 -0.47271338
000200 3e b9 4b bd 7e 16 97 bf a3 f8 44 bf 19 b7 1a bf
       -0.049737208 -1.1803739 -0.7694189 -0.60435635
000210 ad 8d 96 bf 01 f2 d3 be 5d e2 4b bf c2 1a db be
       -1.1761986 -0.41395572 -0.7964228 -0.42793852
000220 39 4a 42 3f 74 ab 5b be 9f 94 03 bf f5 13 eb bf
       0.75894505 -0.21452123 -0.5139865 -1.8365465
000230 9d 8d 38 be 67 15 b2 bf 9a 0e cb be 48 d3 b9 bf
       -0.18022771 -1.3912781 -0.39659578 -1.4517603
000240 1b 3d 82 bc 93 09 93 bf 78 7d ed bd bf a1 25 bf
       -0.015898278 -1.1487297 -0.11596197 -0.6469993
000250 f7 9f fe be 14 d3 00 bf a0 76 4e bf ae 58 54 bf
       -0.49731418 -0.5032208 -0.8064976 -0.82947814
000260 79 a3 bb be f1 d9 88 bf da 5d 8d bf 47 51 89 be
       -0.36648157 -1.069151 -1.1044266 -0.26819822
000270 fe 0a a8 bf e5 ce 80 bf ad b3 b8 be 73 f1 3e be
       -1.3128355 -1.0063139 -0.36074582 -0.18646793
000280 e6 52 dd bf 0f 05 8e be 68 e8 7c bf 1c 4b a5 bf
       -1.7290924 -0.27738234 -0.98792124 -1.2913547
000290 8c cf 0a be f9 7f e4 3d fc 0a 7b bf ed 48 98 3e
       -0.13555735 0.11157221 -0.98063636 0.29743138
0002a0 eb 43 11 c0 42 fc df bd ca c3 31 bf 82 77 93 be
       -2.2697704 -0.10936786 -0.69439375 -0.28802115
0002b0 db c1 b0 bf 38 9b 5f bf b5 06 fd bf 30 8b 7d bf
       -1.380916 -0.8734622 -1.9767672 -0.9904051
0002c0 b3 d3 16 bf f9 bf 6c 3e d8 60 85 bf d4 8c ad be
       -0.5891678 0.23120107 -1.0420179 -0.33896506
0002d0 a9 0e 5a bf 1c 53 2a bf b9 96 1f bf a3 9d c2 bf
       -0.8517862 -0.66533065 -0.6233936 -1.5204357
0002e0 7e 8a a8 bf b8 01 7d be 80 b6 04 bf 6d f2 4c bf
       -1.3167264 -0.24707687 -0.5184097 -0.8005741
0002f0 d6 ab 57 bf 8b 0c f3 3d 96 a8 8a bf a2 4d 52 bf
       -0.84246576 0.11867627 -1.0832698 -0.8214971
000300 1d 93 7d be 70 f6 2b bf e7 f3 1d bf bb af 12 bf
       -0.2476315 -0.6717291 -0.6170029 -0.57299393
000310 a9 23 30 bf 50 f2 a7 be 24 44 3c bf c6 59 68 bf
       -0.68804413 -0.32802057 -0.73541474 -0.90761983
000320 7c 0e 86 bf 6c 26 2f bd 28 ae 92 bf 36 66 0d bf
       -1.047317 -0.04276125 -1.1459398 -0.55234087
000330 a3 4a 4a be e6 27 91 bf 9a 2d 84 bf 9d 01 0b 3e
       -0.19755034 -1.1340301 -1.0326416 0.13574834
000340 46 37 44 3f 97 59 cb be 98 0f 3b 3d ad c1 83 bf
       0.7664684 -0.3971679 0.04566917 -1.029348
000350 0f ef 47 3e 70 94 69 bf 02 c2 a7 bf 94 00 1f bf
       0.19524787 -0.9124212 -1.3106081 -0.6211026
000360 5b 97 92 bf d6 9e 46 bf 7a d8 37 bf d8 a8 94 3e
       -1.145244 -0.77586114 -0.7181469 0.29035068
000370 c0 7a 29 bf 5c d1 7a bf 1a 15 14 bf 92 46 88 bf
       -0.66202927 -0.9797571 -0.578447 -1.0646536
000380 42 6b b8 bf e6 c5 32 bf 66 c1 46 bf 0f 0e 52 bf
       -1.4407732 -0.6983322 -0.7763885 -0.820527
000390 37 01 ab be 72 21 c8 be fd 57 ca be eb ce 81 bd
       -0.33399364 -0.39088017 -0.39520255 -0.063382946
0003a0 e1 f6 92 bf 60 fd 63 bf c0 b0 c9 bf 61 ef 9c 3e
       -1.1481591 -0.89058495 -1.5757065 0.30651382
0003b0 ec 75 a0 3d 06 85 5b bf d7 0f 3b be 2f 7d 5b bf
       0.07834992 -0.8574985 -0.18267761 -0.8573789
0003c0 1f 75 8f bf 56 08 67 be 03 af 2a bf fe 5a 1d 3f
       -1.1207618 -0.22561774 -0.66673297 0.6146697
0003d0 5f d5 6a bd 60 3a 95 3e 95 83 f3 bf aa 07 53 bf
       -0.057332393 0.291461 -1.9024531 -0.8243357
0003e0 64 da 43 bf 6d 40 19 be d0 dd 8b be ee 5a ef be
       -0.7650511 -0.14965983 -0.27317667 -0.4674906
0003f0 1b 5f 07 bf b4 35 86 bf be b2 67 bf d7 f0 93 bf
       -0.52879494 -1.0485139 -0.90507114 -1.1557873

l2.weight f4 [300, 300]
000000 93 1b 46 bf 46 e1 40 40 29 63 9e 3d 70 2e 86 3f
       -0.77385825 3.0137496 0.07733757 1.0482922
000010 e2 1f 18 be 7b 6c 07 40 3a 2e a6 bf 52 dc ac 3f
       -0.14855912 2.1159961 -1.2982857 1.3504736
000020 ed 55 00 c0 8d 1e 5c 40 ad bf 17 3f 9e 20 f9 bf
       -2.0052445 3.4393647 0.5927685 -1.9463079
000030 8d 5f c0 3f ff 3d 95 3f 3a 0f 95 3f 16 2b d0 3f
       1.502916 1.1659545 1.1645272 1.6263149
000040 e3 bd 9d 3e 90 c4 b1 3f d7 6f 4f 3f 6b 14 26 be
       0.30808935 1.3888111 0.8103003 -0.16218726
000050 72 4a 02 3f 3f 36 0f 40 6f d4 dc 3d 77 dd 1e bf
       0.50894845 2.237686 0.10782706 -0.6205668
000060 11 03 01 be 05 95 07 3f 3b 19 28 40 46 76 a4 bf
       -0.12598826 0.5296176 2.62654 -1.2848594
000070 15 d5 a3 3f f0 5b 81 3b 1c 59 bd 3f cd 35 ba 3f
       1.2799402 0.0039477274 1.4792819 1.4547669
000080 ab 1e d1 bf cd 6a 9f 3f 5c 62 64 3f 0a 0e 41 40
       -1.6337484 1.2454468 0.89212584 3.0164819
000090 54 ef 8b bf fb 4d 18 3f 7a f0 1f 40 d3 96 da 3f
       -1.0932412 0.5949399 2.4990525 1.7077278
0000a0 4c 58 25 3f 54 a4 0e 3f 4d 65 2b 3f 42 d1 13 3f
       0.64587855 0.55719495 0.6695145 0.5774118
0000b0 92 e6 b2 3e a4 9b 5e 3e a9 b7 52 3f 6a 54 7f 3f
       0.34941536 0.2173906 0.82311493 0.9973818
0000c0 17 19 81 40 46 67 00 3e ae 4e 56 3f 5c 12 b8 3f
       4.0343127 0.12539396 0.83713806 1.4380603
0000d0 b2 86 2d 40 6f 87 d2 3f 95 1d b4 3f 15 8e 77 3f
       2.7113461 1.6447581 1.4071528 0.96701175
0000e0 4a 9c 80 3f 4d d7 8c 3f 1d 35 21 bf 84 f1 f8 3f
       1.0047696 1.1003205 -0.6297167 1.9448705
0000f0 5a 88 37 40 0e 6e 21 be a1 72 2e 3e d4 b1 a1 3f
       2.8676972 -0.15764639 0.17035915 1.2632394
000100 40 d9 0d c0 09 cc a5 3f 55 4d 31 3f 91 38 b8 3f
       -2.216385 1.2952892 0.69258624 1.4392263
000110 ff b3 ad 3f 01 c1 9d 3f ea 4b 32 3f 7e 82 95 3f
       1.3570555 1.2324525 0.69647086 1.1680448
000120 3e 9a 16 be f1 c2 b1 3f 84 e5 a6 be f6 42 ea 3f
       -0.14707276 1.3887616 -0.32596982 1.8301685
000130 df c5 15 40 ed 33 b9 bf ac d1 99 3f f0 77 a8 bf
       2.340202 -1.4468971 1.2017112 -1.3161602
000140 ec 7b 14 40 e7 f8 9b bd 84 a6 11 40 1e af 67 3f
       2.3200636 -0.07615834 2.2757883 0.9050158
000150 e7 cb 97 bf e5 c7 d1 3d 8c 4a a9 3f f9 dc 07 40
       -1.1859101 0.10243205 1.3225875 2.122862
000160 c9 4e d5 3f a6 ba 20 3f 32 4c 50 3f 71 73 c2 3f
       1.6664668 0.627848 0.81366265 1.519148
000170 43 17 0a 3f 8c 03 52 3e dc f4 93 3f dd d4 bc 3f
       0.53941745 0.20509166 1.15591 1.4752461
000180 c3 7c ee 3f 95 32 07 40 e6 4d b0 3f 75 aa 00 bf
       1.8631824 2.1124623 1.3773773 -0.50260097
000190 92 c3 2a be 95 b9 0d 40 4b 7f ec be fc 03 ec 3f
       -0.16676167 2.214452 -0.46190867 1.8438716
0001a0 ef 1f d0 3e 9a cd b8 bf dd 48 6a bd 99 1a 28 3e
       0.40649363 -1.4437745 -0.057198394 0.16416396
0001b0 b3 78 4d 3f 5f 1e 1a 40 78 0e 34 3f 9a 95 91 bf
       0.802623 2.4081037 0.7033458 -1.137378
0001c0 68 bf 83 3f a6 27 04 3e a5 7b 1d bf a9 75 f2 3f
       1.0292788 0.1290575 -0.6151679 1.8942157
0001d0 28 e6 6b bf f0 8b 04 40 ad 2a e2 3f 30 ad e1 be
       -0.92148066 2.071041 1.7669274 -0.44077444
0001e0 e5 2f ac 3f da 74 64 bf bd 75 12 3f a6 25 fb 3f
       1.3452116 -0.892408 0.57210904 1.9620864
0001f0 e2 35 a7 3f af 26 d2 3f 16 e6 a9 3e ed f0 22 40
       1.3063319 1.6418055 0.33183354 2.545955
000200 5a a9 09 bf 84 41 52 3f 16 fb 4b be 33 02 28 bf
       -0.53774035 0.8213122 -0.1992 -0.65628356
000210 f9 3e 9d bf 23 36 00 40 ec 9a a2 3f 1d a0 e3 bf
       -1.2284843 2.0033042 1.2703528 -1.7783238
000220 3b 3a 39 40 d3 80 a6 3f dd 52 8a 3c 48 6f 42 40
       2.894179 1.3008064 0.016885215 3.038042
000230 06 46 85 3f 0f 8d 16 40 05 a8 3c 3e 03 69 10 3f
       1.0411994 2.3523595 0.1842347 0.56410235
000240 49 5b be bf 87 e2 10 40 9d 4d fd 3f 71 82 6a 40
       -1.4871608 2.2638261 1.9789311 3.6642115
000250 e1 73 72 3f a0 d7 26 be 25 af ae 3f c9 81 18 c0
       0.9470807 -0.16293192 1.36472 -2.3829215
000260 5a 6d 12 3f db 2c 98 3f d2 ef fd 3f 2f 06 27 40
       0.5719811 1.1888689 1.9838812 2.6097524
000270 c1 c4 ca bf 4b 86 64 be cf 39 4f 3f d2 b2 27 40
       -1.5841295 -0.22316854 0.80947584 2.6202893
000280 59 52 28 40 f7 eb 8c 3f aa 78 34 3f 12 0a 13 40
       2.630026 1.1009511 0.7049662 2.2974896
000290 49 fe 8b bf 9c 76 d2 3e f1 b5 cd 3e d1 9c 6d bd
       -1.0936977 0.41106117 0.40177873 -0.05801088
0002a0 4b f0 80 bf c9 13 08 40 3b b9 ac bd 4b 5e 93 bf
       -1.0073332 2.1262076 -0.084337674 -1.1513151
0002b0 a6 e9 83 3f db 0f 2c be 1f a6 89 3f ed 71 f6 3c
       1.0305679 -0.16802923 1.0753821 0.03008362
0002c0 bb 75 33 40 e2 32 d3 bf 2d a7 4b 3f 81 7a 07 40
       2.8040607 -1.6499903 0.79551965 2.116852
0002d0 65 8b eb 3c b0 48 f5 bf 13 43 b1 3f 56 45 8e 3f
       0.028752992 -1.9162807 1.3848594 1.111491
0002e0 2e 83 5d 3f 5d 58 a9 3f 9b 2e 64 be 28 73 e1 3f
       0.8652829 1.3230091 -0.22283404 1.7613268
0002f0 3e e0 d8 3f 1f e9 73 3f 12 ff 9b 3f 32 8a 93 be
       1.6943433 0.9527759 1.2187216 -0.28816372
000300 51 8f 63 3f c7 80 08 bf 45 1d ae bc ce 3a e8 3f
       0.8889056 -0.533215 -0.021254191 1.8142946
000310 67 af 9c bf 36 d3 fe be 43 58 f8 3f d1 26 21 3e
       -1.2241029 -0.49770516 1.9401935 0.15737464
000320 79 a7 05 c0 7b 19 39 40 25 09 11 3e 90 97 a3 3f
       -2.0883467 2.8921802 0.14163645 1.2780628
000330 8d 22 08 3f 64 c3 13 bf 41 24 e6 3f 67 26 43 40
       0.5317772 -0.5772002 1.7979814 3.049219
000340 14 74 9e 3f 08 5f d4 be 32 64 74 be 09 3d ae 3e
       1.2379174 -0.41478753 -0.23866346 0.3403094
000350 cf 32 a9 bf 6c 01 a5 3e fb 76 5c 40 41 e0 27 40
       -1.321863 0.32227647 3.444762 2.6230624
000360 65 0d e6 be 84 9d 6f 3e ea ba ba 3f 0a 76 17 40
       -0.44932094 0.23399931 1.4588292 2.3665795
000370 94 21 0f be bf 81 7d 3e d0 93 7a 3f 0a bb 18 40
       -0.13977653 0.24756525 0.97881794 2.386416
000380 50 c2 0f c0 f2 eb ca bf ee c9 3e 3f 08 0c b0 3f
       -2.246235 -1.5853255 0.7452687 1.3753672
000390 0c 31 27 bf ee 35 bc 3f c2 20 24 3d 86 31 37 40
       -0.65309215 1.4703958 0.040070303 2.8623977
0003a0 1f 05 68 40 26 da 48 3f 1b 64 54 3f 4f 93 6f 3d
       3.6253126 0.7845787 0.8296525 0.058490094
0003b0 51 32 ec 3f b8 89 5d bf f3 ba 9a 3e 2b a9 a6 3f
       1.8452855 -0.8653827 0.30220756 1.3020376
0003c0 e9 83 7a 3f 0e 3c a5 3f d8 2e 1d 3f 78 d3 5d 3d
       0.9785753 1.2908952 0.613996 0.05415675
0003d0 78 a7 82 be 29 1f 02 40 88 65 9f 3f 16 93 df 3f
       -0.25518394 2.0331519 1.245286 1.7466762
0003e0 91 69 97 3f 0f 7a ba 3f 2d fc 48 3e 40 e8 9b 3f
       1.1829091 1.4568499 0.19627447 1.2180252
0003f0 04 d5 5a be 97 08 8e 3f d2 45 0c 40 1f 31 a5 3f
       -0.21370322 1.1096371 2.1917615 1.2905616

l2.bias f4 [300]
000000 cd 41 b9 3f c2 07 90 3f 03 fc ee 3f 41 9f 0c 3f
       1.4473206 1.1252367 1.8670658 0.549305
000010 35 7a 76 3f 49 69 9c 3f 03 6a a0 3f db 01 cb 3f
       0.96280223 1.221963 1.2532352 1.5859941
000020 8a a7 8c 3f ee f2 08 3f 70 7d c2 3f d9 44 81 3f
       1.0988629 0.5349568 1.519453 1.0099136
000030 27 a4 8b 3f 4d 1c 64 3f 8c 6a cc 3f 8e 9c b4 3f
       1.090947 0.89105684 1.5970016 1.4110277
000040 f3 2f 85 3f 28 55 7d 3f de 48 12 3e 9a 44 2b 3f
       1.0405258 0.98958063 0.14285609 0.6690155
000050 6f 72 55 3f 9d e5 6c 3f 62 0d a7 3f 51 aa 17 3f
       0.83377737 0.9253786 1.3050959 0.5924426
000060 b5 7f 10 3f 9d 6c 34 3f 11 b5 04 40 34 bd 29 3b
       0.56444865 0.7047823 2.0735514 0.0025900127
000070 92 2a 69 3e bc 10 e6 3f 6e 8a bd 3f 2d 6a 3a 3f
       0.22770146 1.7973857 1.480787 0.7281826
000080 e0 8e 21 3f c9 8c 22 3f 47 34 8e 3f 43 48 90 3f
       0.63108635 0.6349607 1.1109704 1.1272053
000090 2c 59 e6 3e f9 07 3b 3f d5 2d fe 3f 3c 40 5c 3f
       0.44989908 0.7305904 1.9857737 0.86035514
0000a0 27 29 8e 3f 57 82 3e 3f c1 4f be 3f 5e d0 d3 3f
       1.1106309 0.7441763 1.4868089 1.6547964
0000b0 d5 0f e0 3e 0d 29 b6 3f dd bf 5e 3f a2 eb 24 3f
       0.4376208 1.4231278 0.8701151 0.6442205
0000c0 fa 94 56 3f 45 07 af 3f 4c 95 a3 3f d7 23 84 3f
       0.8382107 1.3674093 1.2779937 1.0323437
0000d0 07 0d b0 3f 79 b8 94 3f dd a6 c9 3f ea 4f 8b 3f
       1.3753976 1.1618797 1.5754048 1.0883763
0000e0 a3 83 9e 3f 41 0e 26 3f 08 c5 bf 3f 77 e3 8b 3f
       1.2383922 0.648655 1.4982004 1.0928792
0000f0 e1 a2 05 3f a9 15 df 3f 99 63 b0 3f b9 ce c1 3d
       0.5220166 1.7428485 1.3780395 0.09463257
000100 ec ed 49 3f 64 6b 99 3f 14 55 e5 3e 64 63 6e 3f
       0.78878665 1.1985898 0.44791472 0.9312041
000110 eb de 13 3f 9d 12 27 3f 21 53 01 3f dc df b5 3f
       0.5776202 0.65262777 0.5051747 1.4208941
000120 e1 92 aa 3f fd 71 4f 3f 2a 5a 81 3f 23 a7 4a 3f
       1.3326074 0.8103331 1.0105641 0.7916128
000130 ec e2 4e 3f 71 cb 52 3f c0 55 a2 3f 3b 7b 23 3f
       0.80815005 0.82341677 1.2682419 0.6385991
000140 5e a3 95 3f e6 70 de 3f bc 34 46 3f 01 f6 16 3f
       1.1690481 1.7378204 0.77424216 0.5896912
000150 10 69 94 3f c5 b8 a5 3f 8c 5b 7a 3f 10 34 8a 3f
       1.1594563 1.2947012 0.9779594 1.0797138
000160 ce 91 5a 3f 09 59 a2 3f fb d6 d6 3f 20 dd d4 3f
       0.8537873 1.2683421 1.6784357 1.6629982
000170 63 37 19 40 20 45 33 3e c8 2b b6 3f 9a 70 01 3e
       2.3940055 0.17506838 1.4232111 0.1264061
000180 19 7d 80 3f 74 1e 91 3f d3 39 81 3f b3 85 8d 3f
       1.0038177 1.1337419 1.0095772 1.1056427
000190 97 34 7e 3f e3 8c 44 3f cc 1f 16 3f 53 34 21 3f
       0.99298996 0.76777476 0.5864227 0.62970465
0001a0 1c fb c4 3f 0f 77 93 3f a2 cc 86 3f cd 99 84 3f
       1.5389132 1.1520709 1.0531199 1.0359436
0001b0 d7 fa 84 3f 58 9c 3d 3f 31 40 ad 3f 81 20 98 3f
       1.038905 0.74066687 1.3535215 1.188492
0001c0 2d 36 99 3f b7 17 b6 3f dd 70 0e 3f b1 14 8f 3f
       1.1969658 1.4225987 0.55640966 1.117819
0001d0 1c a0 30 3f 16 e7 4b 3f 26 bc 98 3f a4 51 70 3f
       0.6899431 0.79649484 1.1932418 0.93874574
0001e0 68 3f 09 3f f1 0d dd 3e 58 d9 91 3f 7b 59 9b 3f
       0.53612375 0.431747 1.1394453 1.2136682
0001f0 52 95 2b 3f 7b 30 8b 3f d0 df d5 3e 1f 5e d3 3f
       0.6702472 1.087417 0.41772318 1.6513098
000200 65 10 9b 41 76 84 a7 3f b1 44 43 3f d2 1e b6 3f
       19.383005 1.3087299 0.7627669 1.4228156
000210 49 a3 a5 3f 37 e1 7f 3e b2 1a 73 3f e0 5f 83 3f
       1.2940456 0.24988256 0.9496261 1.0263634
000220 f1 8b bb 3f e4 f5 c9 3f 6e f4 9a 41 ac a2 87 3f
       1.4652082 1.5778165 19.36935 1.0596519
000230 e6 bd 90 3f de 20 a2 3f 16 42 36 3f 00 88 62 3f
       1.1307952 1.266628 0.7119459 0.8848877
000240 0b 12 1f 3f 3b 50 6c 3f 6c 21 94 3f 70 d9 f6 3f
       0.62136906 0.9230992 1.15727 1.9285107
000250 ec 70 dd 3e 05 4c 54 3f b9 a8 ae 3f fe a6 c9 3f
       0.43250215 0.82928497 1.364524 1.5754087
000260 49 0d 95 3f 26 9d a9 3e 36 bb 34 3f 08 67 83 3f
       1.1644679 0.33127707 0.7059816 1.0265818
000270 fe be 2e 3f 79 68 bb 3f a9 ed ab 3f e3 09 83 3f
       0.6826018 1.4641258 1.3431903 1.0237392
000280 88 d1 91 3f db 9d 5e 3f 40 70 e1 3f ec f6 80 3f
       1.1392069 0.8695962 1.7612381 1.0075355
000290 15 a0 a7 3f a6 26 c9 3f ba 91 b3 3f 39 91 b8 3f
       1.3095728 1.571492 1.4028847 1.4419318
0002a0 cb 98 64 3f 53 ea bf 3f 3b 77 f0 3f 67 c0 7c 3f
       0.89295644 1.4993385 1.8786386 0.9873108
0002b0 40 56 50 3f f0 1d c1 3f 58 19 50 3f ce 87 80 3f
       0.8138161 1.5087261 0.8128867 1.0041444
0002c0 9c ab b1 3f 00 68 af 3f ca 22 41 3f e4 cd 5d 3f
       1.3880496 1.3703613 0.7544371 0.8664229
0002d0 8d 4f 6b 3f 83 f5 c9 3f 22 11 21 3f 81 8b 3d 3f
       0.9191826 1.5778049 0.6291677 0.7404099
0002e0 97 50 df bd bb bc f2 3f 5d 55 d1 bd 80 05 0f 3f
       -0.10904043 1.8963846 -0.1022136 0.5586777
0002f0 34 25 38 3f 6d ea d6 3e 68 26 5c 3f 59 c0 66 3f
       0.7193177 0.41975728 0.85996103 0.9013725
000300 61 60 83 3f 99 8b 9f 3f 6a 06 5b 3e c7 5e bf 3e
       1.0263788 1.2464477 0.21389166 0.37376997
000310 a2 13 d5 3f 2c 8f dc 3f 8f 7c eb 3e e3 ba 35 40
       1.6646616 1.7231193 0.45993468 2.8395317
000320 c3 3a d1 3e c7 9f 2e 3f af 08 34 3f 84 62 37 3f
       0.40865144 0.6821255 0.7032575 0.716347
000330 11 8b 0b 3f 58 80 35 3f 46 b7 59 3f 8d 48 38 3f
       0.54509073 0.7089896 0.8504528 0.71985704
000340 9e d7 3f 3f ff 16 82 3f de d2 8f 3e 05 87 9b 41
       0.7493838 1.0163268 0.28090566 19.440928
000350 41 d6 1f 3f 2f 3f 7e 3f 0d d8 0f 3f 71 b7 c2 3f
       0.624363 0.9931516 0.5618904 1.5212232
000360 cd 43 71 3f 20 92 94 bc 78 f3 55 3f 2f 9d b6 3f
       0.9424408 -0.018136084 0.8357463 1.4266719
000370 d0 02 5c 3f a2 99 19 3f a0 8b c9 3f af ff 5d 3f
       0.8594179 0.6000005 1.5745735 0.8671827
000380 ac 81 f6 3f 6f 54 3c 3f 19 ea d9 3f c2 69 99 41
       1.9258323 0.73566335 1.7024566 19.17664
000390 be c1 03 3f ea 03 61 3f 3b 10 87 3f 2d 1a b0 3f
       0.514675 0.878966 1.0551828 1.3757988
0003a0 27 b0 0c 3f d0 55 76 3f b2 4f 9b 41 f5 37 75 3f
       0.5495629 0.9622469 19.413914 0.9578851
0003b0 88 10 4d 3e 66 1c a4 3f 95 1b 87 3f 61 35 8b 3f
       0.20025837 1.2821167 1.0555292 1.0875665
0003c0 6a 3f a7 3f 96 36 ed 3f 8d 27 00 3f 31 a5 69 3f
       1.3066227 1.8532283 0.5006035 0.9126769
0003d0 56 25 be 3f 83 63 30 3f 58 4d 50 3f 80 1b 0b 40
       1.4855144 0.6890184 0.8136802 2.1735535
0003e0 4c 83 06 3f a8 29 3b 3f e5 e4 3c 3f cd f6 c0 3f
       0.52544093 0.7311044 0.73786765 1.5075318
0003f0 99 79 c6 3f 74 52 be 3f 05 4b 9d 3f ce 95 cd 3f
       1.5505859 1.4868913 1.2288519 1.6061342

bn2.weight f4 [300]
000000 cd d4 d5 3f 20 c6 01 40 98 49 f8 3f 86 89 ef 3f
       1.6705567 2.0277176 1.9397459 1.8713844
000010 1c 72 60 40 af 0c 17 40 1a 11 00 40 3d ff e3 3f
       3.5069647 2.3601491 2.0010438 1.7812268
000020 72 5d 21 40 c1 25 31 40 7a 55 19 40 6a 98 06 40
       2.5213284 2.7679293 2.395842 2.1030526
000030 d4 89 3a 40 45 0f 11 40 f9 96 cd 3f 67 94 0d 40
       2.9146624 2.266557 1.6061698 2.2121828
000040 1a 22 4c 40 ac 1c 52 40 94 98 31 40 e2 14 12 40
       3.1895814 3.283 2.7749376 2.2825246
000050 ab ad 09 40 10 26 17 40 42 29 b7 3f 55 e5 fb 3f
       2.1512249 2.3616982 1.4309466 1.9679362
000060 0d ab 25 40 13 b2 23 40 5e 79 ff 3f ff c1 58 40
       2.588565 2.5577438 1.9958913 3.3868406
000070 03 fc 4b 40 51 9f eb 3f 0d 31 2f 40 57 a5 1e 40
       3.1872566 1.8407995 2.7373688 2.4788415
000080 ac 34 1d 40 64 76 6e 40 46 86 30 40 fc ba 40 40
       2.4563398 3.725976 2.7581954 3.0114126
000090 d0 84 40 40 9e a0 0e 40 1c a2 32 40 a0 6b 2b 40
       3.0081062 2.2285533 2.7911444 2.678444
0000a0 7c db 1c 40 bc 91 15 40 16 0a 4a 40 8e 87 11 40
       2.4508963 2.33702 3.1568656 2.2738986
0000b0 ab c9 43 40 3d c0 17 40 0b 1c 09 40 38 65 5f 40
       3.0591838 2.3711083 2.1423366 3.490553
0000c0 a6 6e 32 40 fb a3 66 40 68 ac 1f 40 eb 24 20 40
       2.7880034 3.6037586 2.4948978 2.5022533
0000d0 6f 02 24 40 f3 a1 0d 40 cb 3c 28 40 2e 35 0c 40
       2.5626485 2.2130096 2.6287105 2.1907458
0000e0 45 09 50 40 9d c2 09 40 f4 01 12 40 bc 32 2a 40
       3.2505658 2.1525033 2.2813692 2.6593466
0000f0 a1 95 f0 3f 1c 9a 14 40 b5 80 df 3f 33 37 59 40
       1.8795663 2.321906 1.7461153 3.393994
000100 d8 58 16 40 b6 e2 40 40 6f 99 4f 40 22 b3 1f 40
       2.3491726 3.0138373 3.2437398 2.4953084
000110 4b 3c 46 40 25 cf 01 40 e4 8c 07 40 4b e7 34 40
       3.09743 2.028268 2.1179743 2.826617
000120 03 ae fd 3f e6 cd e6 3f 56 04 3b 40 ce 55 1f 40
       1.9818729 1.8031585 2.9221396 2.489612
000130 c5 79 13 40 e1 d7 10 40 c4 87 be 3f f7 6d 19 40
       2.3043072 2.2631762 1.4885182 2.3973367
000140 03 12 0c 40 81 d6 f7 3f 91 65 14 40 a4 08 1a 40
       2.1885993 1.9362336 2.3186991 2.4067774
000150 7e b9 03 40 2c 1e 3d 40 f0 c4 66 40 91 4d 1c 40
       2.0581965 2.9549665 3.60577 2.4422343
000160 37 a9 22 40 9e ad c9 3f 81 9a 4a 40 a9 4f 11 40
       2.541578 1.5756109 3.1656802 2.270487
000170 ff bd d6 3f 7e 6e 2c 40 8b 47 0e 40 01 fd 5c 40
       1.6776732 2.694244 2.2231166 3.4529421
000180 f5 d8 11 40 56 9c 35 40 7d 32 d0 3f a8 b8 fc 3f
       2.278867 2.837667 1.6265408 1.9743853
000190 b8 b1 00 40 97 a9 36 40 cc f4 37 40 25 9a f4 3f
       2.010847 2.854101 2.8743162 1.9109541
0001a0 0c 21 f2 3f b5 36 2a 40 c6 67 c7 3f d8 42 30 40
       1.8916335 2.659589 1.5578544 2.7540798
0001b0 4a 76 09 40 66 27 f4 3f a1 6d 4b 40 89 e3 37 40
       2.1478448 1.9074523 3.1785662 2.8732626
0001c0 1e 46 17 40 62 d5 15 40 12 c9 30 40 19 86 4f 40
       2.3636546 2.3411489 2.7622724 3.2425597
0001d0 86 4c 0e 40 23 41 28 40 31 5b bd 3f ff 12 5e 40
       2.2234206 2.6289756 1.4793454 3.4699094
0001e0 ea b8 2e 40 f0 c0 0b 40 92 e2 32 40 46 9e 0d 40
       2.7300363 2.183651 2.7950788 2.2127852
0001f0 c9 4f 2c 40 20 87 22 40 ea 05 1c 40 f3 b7 e4 3f
       2.6923697 2.5394974 2.437861 1.7868637
000200 c2 9c cb 3d 9e e0 0b 40 c3 2f 22 40 de bc 22 40
       0.099420086 2.1855845 2.5341651 2.5427775
000210 6d f5 fc 3f 51 9b 46 40 a4 47 1f 40 b2 ce 5f 40
       1.9762398 3.1032298 2.4887476 3.4969907
000220 fc 36 27 40 65 ce 1d 40 a5 a8 e0 3d 43 f2 0a 40
       2.612731 2.4657223 0.109696664 2.1710365
000230 69 ab fa 3f 7b 50 12 40 eb 2a 12 40 52 4a 2f 40
       1.958356 2.2861621 2.2838695 2.7389112
000240 11 fc 00 40 da e5 1c 40 50 ef 1d 40 35 c5 33 40
       2.015385 2.451529 2.4677315 2.8089116
000250 8e 90 08 40 0a 61 18 40 fe 43 38 40 1a b2 e4 3f
       2.133823 2.3809228 2.87915 1.7866852
000260 23 cb 06 40 54 34 5b 40 3c 33 16 40 02 c3 06 40
       2.1061485 3.4250689 2.346877 2.1056523
000270 dc 5b 0d 40 4a fc 26 40 46 91 f6 3f c4 ed 34 40
       2.2087317 2.6091485 1.9263084 2.827012
000280 7e e5 dc 3f 9b de 14 40 aa cc ee 3f 43 e1 05 40
       1.7257535 2.3260868 1.8656209 2.091874
000290 0a 5f 0a 40 15 ae 11 40 a3 f0 27 40 85 bc 08 40
       2.1620507 2.2762501 2.6240623 2.1365063
0002a0 f1 c2 dc 3f df 7d 2f 40 60 96 00 40 65 c9 3c 40
       1.7246991 2.7420576 2.0091782 2.9497921
0002b0 9c a1 15 40 67 84 df 3f f7 c9 1b 40 99 70 14 40
       2.3379889 1.7462281 2.434202 2.3193724
0002c0 d1 f7 36 40 71 b4 22 40 bd 71 04 40 d9 49 35 40
       2.8588755 2.5422633 2.069442 2.8326323
0002d0 26 6e 1c 40 3c 12 9e 3f a6 a0 f7 3f 01 b4 0f 40
       2.444223 1.2349315 1.9345901 2.2453616
0002e0 37 f1 63 40 ca ff 1b 40 7d df 5d 40 92 25 26 40
       3.5615976 2.4374871 3.4667656 2.596043
0002f0 21 6d ec 3f ca 03 20 40 fb d0 2e 40 73 a1 e6 3f
       1.8470803 2.5002313 2.7315052 1.801802
000300 a5 88 f6 3f 38 45 f7 3f 46 3c 35 40 42 b8 37 40
       1.9260451 1.9317999 2.8318038 2.8706212
000310 54 07 eb 3f 3e 0e 08 40 1c 48 38 40 ae 4f e3 3f
       1.8361611 2.1258693 2.8794012 1.7758691
000320 b0 3e 29 40 5e 7e 36 40 15 1c 6a 3f 69 3b 32 40
       2.6444511 2.8514628 0.914491 2.784876
000330 15 4e 16 40 da 57 36 40 0c c7 f1 3f ed fc 40 40
       2.3485157 2.849112 1.8888869 3.0154374
000340 28 32 12 40 5a 68 1e 40 e3 37 59 40 4d 8f e8 3d
       2.2843113 2.475119 3.394036 0.113554575
000350 36 42 27 40 af 8f 0a 40 1d 98 1c 40 5a 49 09 40
       2.6134162 2.1650198 2.4467843 2.145102
000360 c5 ce 50 40 d2 7b 2a 40 76 53 4a 40 89 eb 0d 40
       3.2626202 2.6638074 3.161344 2.217501
000370 75 eb 25 40 a3 a0 28 40 a8 67 06 40 67 2a 06 40
       2.5924962 2.6348045 2.1000767 2.096338
000380 2e 73 25 40 b1 9f 40 40 34 55 20 40 f3 c8 e3 3d
       2.585155 3.0097468 2.5052004 0.111223124
000390 38 b4 14 40 3e ae 25 40 19 5c 14 40 fa 48 07 40
       2.3234997 2.58876 2.3181212 2.1138291
0003a0 d5 b4 39 40 ed dc 66 40 80 04 b7 3d 1b a3 60 40
       2.901662 3.6072342 0.08936405 3.5099552
0003b0 ec 15 2c 40 31 21 2b 40 fc 08 52 40 55 63 3a 40
       2.688838 2.6739008 3.2817984 2.9123127
0003c0 2c df 10 40 43 7c ff 3f 96 eb 57 40 cc 44 21 40
       2.2636213 1.9959797 3.373754 2.519824
0003d0 54 a7 13 40 00 eb 29 40 b6 9f 27 40 c9 43 0d 40
       2.307088 2.6549683 2.619123 2.2072623
0003e0 ba 3e 13 40 9e 08 54 40 c5 2f 04 40 9a 39 01 40
       2.3007035 3.313026 2.0654156 2.0191407
0003f0 14 4a 16 40 92 cc 2a 40 30 50 25 40 bd 61 ce 3f
       2.3482714 2.668736 2.5830193 1.6123577
