weights/model_critic_target_86.pt (torch, 431175 bytes, 9 tensors)

l1.weight f4 [300, 42]
000000 74 2d 6c 3e 49 0a 18 3f ed f7 6c 3e 62 26 59 bf
       0.23064214 0.59390694 0.23141451 -0.8482419
000010 40 fa 1e 3e 42 35 6c 3f 5b 56 02 3f d3 de 34 3f
       0.1552515 0.92268765 0.5091302 0.706525
000020 5c 67 dc be 63 4b 63 bf 49 f3 0a 3f 7a dc 6d be
       -0.43047607 -0.88786906 0.54277474 -0.23228636
000030 0c 60 89 bd 01 6d e3 be a7 62 be 40 b1 cb 06 c0
       -0.067077726 -0.444191 5.9495425 -2.1061823
000040 f1 8c 90 bf 08 de ab bd ce 5d 7f bf 68 fb 2a 40
       -1.1293012 -0.083919585 -0.9975251 2.6715946
000050 a2 40 b7 be f6 78 36 3f 36 36 e4 bf 58 f2 25 3e
       -0.35791498 0.7127832 -1.7829044 0.16205728
000060 e5 33 ae 3e fa 51 e8 bf e2 ad 2f 3e 55 14 88 be
       0.34023967 -1.8150017 0.17156175 -0.26578012
000070 cf 53 c3 3e 77 0f 01 c0 8f de 79 3d 8a 79 15 be
       0.38149878 -2.016569 0.061003264 -0.14597145
000080 26 e8 ae c0 93 9d 03 c0 3f 29 9c 3e 29 a6 0b 40
       -5.4658384 -2.0564926 0.30500218 2.1820166
000090 4f b4 5f bf 35 2c 94 bf 52 8c ac bf 70 4a 3b 40
       -0.87384504 -1.1575991 -1.3480322 2.9264183
0000a0 9b f0 de bf b7 98 8e bf 8b ae d6 3e 00 43 84 3e
       -1.7417177 -1.1140355 0.4193004 0.25832367
0000b0 41 17 d9 3e 30 66 83 3f da 9e 47 3e 36 5c ad be
       0.42400554 1.026556 0.19494191 -0.33859414
0000c0 ff a6 17 bf a5 12 2b bf 20 ca 3d be b5 44 33 bf
       -0.5923919 -0.66825324 -0.18534136 -0.70026714
0000d0 89 06 28 3e a7 42 9a 3e 74 f7 dc 3e b3 15 ab be
       0.16408743 0.30128977 0.43157542 -0.33414993
0000e0 72 33 7d 3f 84 38 25 3e 4c 02 67 3e 63 9d 9b 3f
       0.98906624 0.1613484 0.2255947 1.2157406
0000f0 2c dd 96 bf 1c 40 32 bf b2 a1 5c be 02 1a 5c 3f
       -1.1786246 -0.69629073 -0.21546057 0.85977185
000100 55 87 a1 bf 17 77 29 3d 69 82 48 3e 8e 34 75 3e
       -1.2619425 0.04137334 0.19580998 0.2394583
000110 c3 1a 30 bf 99 e8 b9 3f 9c dc 41 bd 86 50 82 3f
       -0.68790835 1.4524108 -0.04732953 1.0180824
000120 f2 ad 98 bf df 51 ca bf 07 fb db 40 3a ca bf bf
       -1.1928084 -1.5806235 6.874393 -1.498359
000130 0a a2 cd 3d 0c 26 82 c0 df 70 ac 40 3d 79 c4 3f
       0.10040672 -4.0671444 5.388778 1.5349499
000140 9e b6 1c 3f 43 22 13 be 86 16 98 bf da b3 41 be
       0.6121615 -0.14368539 -1.1881874 -0.18916264
000150 30 6c 08 3f 1d ff d7 3d f9 6a 8a 3e 83 c0 3e 3f
       0.5329008 0.10546706 0.2703474 0.745125
000160 7c 2e c5 3e 4b 30 9d 3e 6b 19 fe 3e 45 3e 81 be
       0.38512027 0.30700907 0.49628767 -0.2524282
000170 27 55 85 3e be 2a a4 bf bc 08 d5 3e 65 1b 7d be
       0.2604153 -1.2825544 0.41608226 -0.24717481
000180 e1 f5 a5 3e 51 03 25 bf 3d 36 79 bf 75 f9 d0 bd
       0.32414153 -0.64458185 -0.97348386 -0.1020383
000190 64 c4 36 bf de 4e 83 bf d4 a7 81 3f 10 d6 ac 3e
       -0.7139342 -1.0258443 1.0129342 0.33757067
0001a0 4d 15 34 3d e3 a3 28 3f 85 39 8e be 02 f9 9e 3e
       0.043965627 0.6587507 -0.2777826 0.31049353
0001b0 c9 f5 d2 3e 96 43 be bf 69 ec 41 be e1 b1 d9 bf
       0.41203144 -1.4864376 -0.1893784 -1.7007409
0001c0 43 1d 21 3f fb ac c7 bf 79 b3 b5 be 30 09 68 bb
       0.62935275 -1.5599664 -0.3548849 -0.0035405867
0001d0 1c 86 b3 c0 e5 30 71 40 79 64 e6 3e 25 20 0c 40
       -5.610121 3.7686093 0.4499853 2.189462
0001e0 c3 53 16 be 6c d2 82 be b5 7a 93 bd 7e 84 f5 3f
       -0.1468039 -0.25551164 -0.07201139 1.9181058
0001f0 dd 99 4c bf 0d 4e 4e bf e9 39 14 3f 89 9a b5 3d
       -0.79922277 -0.80587846 0.57900864 0.08867366
000200 c7 b9 6b 3e e4 bf 15 3f 6f 90 e1 3e d2 2c a2 3e
       0.23020087 0.58495927 0.44055507 0.3167482
000210 80 dd ff 3e 8c c8 92 be 7f bd 45 3e e2 4f ab bf
       0.4997368 -0.2866863 0.19310568 -1.3383753
000220 ef ef dc 3e c7 08 a8 bd 6b 9f ab 3e 08 da 2c bf
       0.43151805 -0.08204799 0.33520064 -0.6752019
000230 c1 50 63 bf 9a 1a 68 be 43 43 4f bf 5c ee 89 bf
       -0.88795096 -0.22666398 -0.8096201 -1.0775867
000240 45 de 82 3f de ac be 3e 23 fa b8 3d 47 a0 06 3f
       1.0224081 0.37241262 0.09032085 0.52588314
000250 6d 01 a2 bd 16 f8 a3 3e 92 ef d9 3e c9 d5 b7 bf
       -0.07910428 0.32025212 0.4256559 -1.4362117
000260 df 78 cd bd b5 26 d2 bf 27 72 14 3f e0 c2 c9 bf
       -0.1003282 -1.6418062 0.5798668 -1.5762596
000270 a2 57 da be 60 7a 19 3e 2b 05 b7 c0 d8 2d 78 40
       -0.42644984 0.14988089 -5.719381 3.877798
000280 83 12 d4 3e 73 81 0a 40 0d dc 9c bd 6b f8 76 be
       0.41420373 2.164151 -0.07659159 -0.24118201
000290 02 f1 91 bd dc dc d6 3f 33 e3 1b bf d8 86 2a bf
       -0.07126047 1.6786151 -0.60893553 -0.66612005
0002a0 09 ad b5 3e bb f5 fc 3e cb 15 dc 3e fc 9a 95 3f
       0.35483578 0.49406227 0.42985377 1.1687922
0002b0 82 1f 53 3e 32 bc c5 be e9 b1 83 3f cf 52 a4 3e
       0.20617488 -0.38620144 1.0288669 0.32094428
0002c0 ed 50 51 3e d4 3f 87 bd 6e 5b 5d 3e 1d 5e 8c 3e
       0.20441027 -0.06603971 0.21616909 0.27415553
0002d0 e8 92 2f 3e 9f c5 e2 bd 22 bb ca 3f 2e 24 8f bf
       0.17145884 -0.110728495 1.5838358 -1.1182916
0002e0 29 7a df 3f 70 b4 ea bf 56 90 f0 bd 4c cc 48 bf
       1.7459155 -1.8336315 -0.1174628 -0.7843673
0002f0 b8 4d e5 bf 3c 45 f0 3f fd 69 e5 3f 15 c7 f8 3d
       -1.7914343 1.8771129 1.792297 0.12147347
000300 9c aa 40 3e 01 20 3e be 8c 18 5a 3f 86 ff 8c bf
       0.18815082 -0.18566896 0.85193706 -1.101548
000310 51 66 a4 bf 44 2b fe 3e a5 43 ac 3e f0 c2 83 3f
       -1.2843724 0.49642384 0.3364536 1.0293865
000320 02 4c 76 be 9d 55 a7 c0 01 77 35 3e 52 72 8b bf
       -0.24052432 -5.229201 0.17721178 -1.0894263
000330 38 39 3a c0 f9 d9 3e 3f 5b 67 d7 bf 24 39 c8 3f
       -2.9097424 0.7455135 -1.6828417 1.5642438
000340 71 ac 98 40 e3 5c 48 be 42 e4 17 3f 39 bf 0c bd
       4.77105 -0.19566683 0.5933267 -0.03436205
000350 1a f8 9d 3e ef a1 2a 3e ed eb f9 3e b6 a1 d9 3e
       0.3085335 0.16663335 0.4881281 0.42506188
000360 0b 5a 95 3e ad 78 ce bc 6a 95 0c bd 50 7f bf bf
       0.2917026 -0.025204027 -0.03432218 -1.4960728
000370 eb 0f fd 3e 41 80 0b 3e 0c c4 ca 3e 60 06 37 bf
       0.49426207 0.13623144 0.39602697 -0.714941
000380 44 be 67 bf 2e 21 16 bf 0c ae a7 bf d8 9e 87 bf
       -0.905247 -0.5864438 -1.309999 -1.059535
000390 cd 65 8e 3f 7a 07 d8 3e f3 01 a0 bd af c5 cb bd
       1.1124817 0.42193204 -0.07812872 -0.099498145
0003a0 34 6c f2 3e 7c 5e cd 3e f8 7b 04 3f 0e bc 9f bf
       0.47348177 0.40111148 0.5175166 -1.2479265
0003b0 ce c6 86 3a fb 45 cb bf 58 c5 07 3f 11 c4 b9 bf
       0.0010282637 -1.5880731 0.530355 -1.451296
0003c0 43 37 1f bf 9f a0 99 3e 23 ca b7 c0 7c dc 6b 40
       -0.621937 0.30005357 -5.743425 3.6853323
0003d0 75 3b d3 3e 7b be 04 40 2e f9 22 3d 83 08 71 be
       0.412563 2.074126 0.039788418 -0.23538403
0003e0 a9 ea f7 bd 37 1f 6f 3f 28 91 65 3d 13 e2 3b bd
       -0.12105305 0.93407005 0.056046635 -0.045869898
0003f0 8a 45 58 3e a3 32 57 3f 0b 5f 4c 3e e7 f8 19 3f
       0.21120277 0.8406164 0.19958131 0.6014542

l1.bias f4 [300]
000000 be 27 a8 3e b3 5a 82 bd d2 b8 79 3e c9 28 85 3e
       0.3284282 -0.06364956 0.2438691 0.2600768
000010 94 95 0c 3e 67 27 b9 3e 9b 24 93 bd a4 d9 9d 3e
       0.13728935 0.36162874 -0.07184716 0.3083011
000020 da 06 c9 3e 9f ed 9f 3e 58 bd cc 3d f1 3d 35 3d
       0.3926304 0.31235978 0.09997052 0.044248525
000030 c3 d2 a9 3d a1 21 09 3f 89 e0 4e b9 39 0a 45 bd
       0.08292153 0.5356694 -0.00019729337 -0.048105452
000040 1e cf ff 3e cb 4b b8 3d c8 2c be 3c 73 65 5d 3d
       0.49962705 0.08998831 0.023214713 0.054051828
000050 e2 83 6e 3d fd c1 ac 3e 98 e9 be 3b 6a f6 3b 3e
       0.058231242 0.3374175 0.0058261864 0.18355718
000060 1d 1f 9a 3d 3f 37 bf 3e f9 8d 8a 3e a2 d2 f2 bd
       0.07525466 0.37346837 0.27061442 -0.11856581
000070 bd 83 49 3d 74 81 9f 3b 1f 8a 3d 3e 85 c2 76 3e
       0.0491979 0.004867727 0.1850972 0.24097641
000080 fb 9e 3a 3e c2 fe 6f 3e a6 93 af bd 35 38 a6 3d
       0.18224709 0.23437026 -0.085730836 0.081161894
000090 7d 82 c0 3d 72 c1 96 3e 74 a2 e5 3e 7f 0d d4 3d
       0.09399889 0.29444462 0.44850504 0.10354137
0000a0 8a 87 50 3e c0 cc 0e 3e 0d 25 47 3e dd a7 50 bd
       0.20364204 0.13945293 0.19447728 -0.050941337
0000b0 ad a8 8e 3e 53 6e e7 3e 9d a3 c4 3e d3 07 92 3e
       0.27863064 0.45201358 0.38406077 0.28521594
0000c0 1d 95 b0 3e b4 a8 70 3e da c9 51 3d 23 50 d1 3e
       0.34488764 0.23501855 0.05121789 0.40881452
0000d0 97 1a 1f 3e e6 67 6c 3d 44 a1 f7 3e f8 e6 f1 3e
       0.15537487 0.057716273 0.48365223 0.47246528
0000e0 f3 cd 84 3e ff d5 dc 3d 26 c6 19 3d 0a ad 88 3e
       0.25938377 0.10783004 0.037542485 0.26694518
0000f0 05 eb 23 3e 12 71 7f 3d 80 03 8e 3e fc ca af bc
       0.16007622 0.06236369 0.27737045 -0.021459095
000100 d4 da ec 3d 84 bf 4b 3e 48 13 c1 3e 45 54 22 3e
       0.11565176 0.19897276 0.37710023 0.15852459
000110 8e ee c2 3e c5 f8 69 3e 39 e9 a4 3e a5 77 d2 3e
       0.38072628 0.22848804 0.32209185 0.41106907
000120 81 5b 99 3c ca c1 45 3e 81 48 a6 3e bd ec 02 3e
       0.01872039 0.19312206 0.3247719 0.12785621
000130 63 c0 b7 3e b1 6a 95 3e 24 24 91 3e aa af 80 3d
       0.35888967 0.29182962 0.28347886 0.06283505
000140 93 b7 c9 3e 2c 5e ff 3e 14 55 28 3e 9b b8 98 3e
       0.3939787 0.49876535 0.16438705 0.29828343
000150 9a 85 7d 3e 4a 7e 91 bc 71 2a 99 3e 43 75 58 3e
       0.24757996 -0.017760415 0.29915193 0.21138482
000160 98 94 47 3e 7d 72 74 3e c2 cc 0f 3f d3 2c 30 3e
       0.19490278 0.23871799 0.5617181 0.17204599
000170 fe b4 35 3e 3b 8c 97 3e 32 c2 c6 3e 70 03 37 3e
       0.17744824 0.29599175 0.38820034 0.17872405
000180 fd 30 20 3e d0 d0 43 3e f2 24 b3 3e c3 1a bc 3e
       0.15643688 0.19122624 0.34989125 0.36739168
000190 43 39 94 3e 08 8b d2 3e 2e 7f 94 bd 19 43 72 3e
       0.28949937 0.41121697 -0.0725082 0.23658408
0001a0 f5 89 87 3d bd f3 ad 3e cc dd 51 3e a2 68 95 3e
       0.0661811 0.3397502 0.20494765 0.2918139
0001b0 ce 67 2c 3e 1b 62 6b 3e 86 be 7b 3e 82 71 8f 3e
       0.16836473 0.22986643 0.24584398 0.28016287
0001c0 ed 19 d9 3b 75 c3 c8 3e f0 7d 95 3e 42 a1 a5 3e
       0.006625405 0.39211622 0.29197645 0.32349592
0001d0 83 55 fb 3d b4 3d 42 3e 9f 77 9a 3e 12 19 16 3f
       0.122721694 0.1896885 0.3016939 0.58632004
0001e0 0d 16 88 3e b8 2f 9e 3e 2a 20 b9 3e f6 c6 b9 3e
       0.26579323 0.30895782 0.36157352 0.36284608
0001f0 e9 42 84 3e cf 24 b0 3b f7 3d e0 3a 58 2e f5 3d
       0.25832298 0.0053754817 0.0017108311 0.1197173
000200 be f2 88 3e 50 ef a1 3e 36 d7 ac 3e f8 1a ac bc
       0.26747698 0.31627893 0.33757943 -0.021008953
000210 fd 0e ae 3e 2f fb 84 3e 7a 21 ce 3e 90 22 21 3f
       0.3399581 0.25972888 0.40259916 0.62943363
000220 d0 c5 a8 3e bc 91 e3 3e f9 b5 93 3e 77 be 10 3e
       0.3296342 0.44447124 0.28849772 0.14135157
000230 65 59 4f 3e 7f 27 a4 3e 59 16 9a 3e 00 1b e3 3d
       0.20248945 0.32061383 0.30095175 0.11089134
000240 02 0f 57 3e 35 4b ab 3e c6 ea c0 bd 94 bd 40 3f
       0.21001819 0.33455816 -0.094197795 0.75289273
000250 52 bf cd 3e be c6 8b 3e 54 97 8e 3e 66 00 c4 3c
       0.40185028 0.27300066 0.2784983 0.023925971
000260 10 4f 97 3e f3 ac 33 3e 06 06 a8 3e 27 bf a9 3e
       0.29552507 0.17546444 0.32817096 0.3315365
000270 85 b7 d5 3e 0a bb 93 3e 0b 2e c1 3d 93 0b 92 3e
       0.41741577 0.28853637 0.0943261 0.28524455
000280 51 67 61 3e 4c 1f c2 3e 55 69 54 3e bc 4c 7a 3e
       0.22012068 0.37914503 0.20743306 0.24443334
000290 ff 5b 9a 3d 83 6f b8 3e 30 29 e1 3c 6c a5 61 3e
       0.07537078 0.36022577 0.02748546 0.2203576
0002a0 53 91 0f bd 47 63 65 bd 03 76 18 be a2 8b 9b 3c
       -0.0350507 -0.05600288 -0.14888768 0.01898748
0002b0 ff dd ba 3e f9 b5 d2 3e 6a f5 2b 3e fd 8a 83 3e
       0.36497495 0.4115446 0.16792837 0.25691977
0002c0 d4 57 a9 3e e4 36 c2 3e 66 17 a6 3e bb ce ca 3e
       0.3307482 0.37932503 0.32439727 0.39610848
0002d0 8c 5d eb 3d fa 1c 8e 3e e3 a6 48 3e d3 44 c8 3e
       0.11492452 0.27756482 0.19594912 0.3911501
0002e0 2a 5a b0 3e d6 9e d0 3e 8c 9e 43 3e 5e 57 b9 3e
       0.3444379 0.40746182 0.1910345 0.36199468
0002f0 65 b7 dc 3e a0 cf 98 3e c7 4e 8c 3e cf 37 b7 3d
       0.4310867 0.29845905 0.27403852 0.089461915
000300 7f 3d ee 3d 64 06 bf 3e 62 04 99 3d bc b3 cf 3d
       0.11632823 0.37309563 0.07471539 0.101417035
000310 29 3f ae 3e 12 a0 5d 3c 61 a6 53 3e 69 6f 13 bc
       0.34032562 0.013526933 0.20668937 -0.00899873
000320 39 1b 89 3e 0c 56 9a bc 53 38 40 3d 1a 8c 6b 3e
       0.26778582 -0.018839858 0.046928715 0.23002663
000330 da 1a 67 3e 04 76 a2 3e c8 12 63 3e 29 5f 8d 3d
       0.22568837 0.31730664 0.22175133 0.06902916
000340 1d f5 a6 3e 3a 8d 93 3e 15 13 01 3e d1 ce 36 3d
       0.32608882 0.28818685 0.12604935 0.04463083
000350 60 c1 a0 3e c1 6d 81 3e 71 f8 45 3e ea f0 ff 3e
       0.31397533 0.25279048 0.19333054 0.4998849
000360 fe 44 d4 3e 07 bf cb 3e a9 fd 8f 3e 61 76 69 3e
       0.41458887 0.3979418 0.28123215 0.22799064
000370 ec 7e 80 3e e0 b0 13 3e fb 6c b2 3d 05 ff 64 be
       0.25096834 0.14422941 0.087121926 -0.22362907
000380 c6 ed 61 3e 63 37 8a bb 51 a3 b1 bb 22 81 85 3e
       0.2206336 -0.0042180284 -0.00542108 0.26075083
000390 ac c7 6e 3e 38 21 ab 3d 69 b8 96 3e 82 e1 7b 3e
       0.23318356 0.08355945 0.2943757 0.24597743
0003a0 55 b3 69 bd 6a cf 6f 3e 54 e4 78 3d 76 8f 88 3e
       -0.05705579 0.23418966 0.060764626 0.26671952
0003b0 68 77 8f 3d a8 3e 81 3e d7 fd f5 3e 92 0a b8 3e
       0.07005197 0.25243115 0.48045227 0.35945565
0003c0 52 30 a9 3e ec c1 83 3e 49 9e 91 3e 57 1c aa 3e
       0.33044678 0.25733888 0.28441074 0.33224747
0003d0 86 4b d9 3c b9 b1 9f bc 53 8c e6 3e 1f 45 38 3e
       0.02652527 -0.019493924 0.45028934 0.17995118
0003e0 35 84 62 3d 9c 9f a5 3d be 62 19 3e 80 5d 05 3c
       0.055301864 0.08087084 0.14979073 0.008139968
0003f0 db 2a 02 3e 15 21 02 3e b0 66 c3 3c 3a 9d 8f 3e
       0.1271166 0.12707932 0.023852676 0.28049642

bn1.weight f4 [300]
000000 be b7 9d 3f a2 58 b2 3f 68 bf c0 3e 50 79 c4 3e
       1.2321699 1.3933299 0.3764603 0.38373804
000010 9d 1d 04 40 74 3b 85 3e 2c 36 f3 3f c7 f6 b0 3e
       2.0643075 0.26021922 1.9000907 0.34563276
000020 40 7f 49 3e de a6 ac 3e 83 4b 3d 40 47 36 f2 3f
       0.19677448 0.3372106 2.9577339 1.8922814
000030 0b 11 be 3f bb 8b 17 40 47 fd d8 3f 6c 35 e0 3f
       1.4848951 2.3679035 1.6952294 1.7516303
000040 9b d6 33 40 16 e1 76 3f 1d d6 01 40 7e 72 1a 40
       2.8099735 0.96437204 2.0286934 2.413238
000050 10 7d 07 40 10 96 9d 3f 80 a1 a3 3f 15 d3 bd 3f
       2.1170082 1.231142 1.2783661 1.4830042
000060 47 45 e1 3f 3b 9b 49 40 22 b3 c5 3f db e8 06 40
       1.7599267 3.1500995 1.5445292 2.1079624
000070 01 26 04 40 a3 11 fb 3f 70 b1 02 40 57 46 bd 3e
       2.0648196 1.9614757 2.04208 0.36967728
000080 8c dc b8 3f df cc 9c 3f 13 c3 8b 3f 72 39 05 40
       1.4442306 1.2250022 1.0918907 2.0816312
000090 2a 6a 03 40 bd 61 9e 3e 81 1a de 3f 74 b0 02 40
       2.0533547 0.30933943 1.7351838 2.0420198
0000a0 56 5d 35 40 8e 1e dc 3f 67 93 9d 3f 36 87 e6 3f
       2.8338218 1.7196825 1.2310609 1.8010013
0000b0 7c a4 b3 3f a3 77 0f 40 8f f7 b0 3e d7 81 b1 3e
       1.4034572 2.241677 0.34563872 0.34669372
0000c0 5c 91 03 40 15 87 94 3e 00 46 ea 3f f4 45 39 40
       2.055747 0.2900931 1.8302612 2.8948946
0000d0 d1 a2 1a 40 d0 74 25 40 37 68 12 40 de d3 f0 3f
       2.4161875 2.5852547 2.2876108 1.8814657
0000e0 57 8e b1 3e a4 aa e2 3f 85 f6 a6 3f 99 a4 33 40
       0.3467891 1.7708325 1.3043982 2.8069212
0000f0 e6 2a a4 3f eb 8c c8 3f 56 d8 ad 3e 82 15 b8 3f
       1.2825592 1.5668005 0.33954114 1.4381564
000100 77 e1 a0 3f ca 3e b1 3f e3 fc 71 3e 81 f8 20 3f
       1.2568806 1.3847287 0.23631625 0.62879187
000110 be ca 03 40 6d 4a 53 3f 61 61 12 40 ee 29 a6 3e
       2.0592494 0.8253544 2.2871935 0.32453865
000120 bd 1a f9 3f d3 a7 12 40 37 a1 be 3e 56 c1 3d 40
       1.9461285 2.2914932 0.37232372 2.9649253
000130 c2 90 d0 3f 04 03 3f 40 06 91 a9 3e 24 fd f7 3f
       1.6294177 2.984559 0.33118457 1.9374127
000140 89 2d e1 3f a7 68 f8 3f fa 54 39 40 fd 99 9e 3e
       1.7592021 1.9406937 2.8958116 0.3097686
000150 2f 9a 3e 3e fa 5d 0d 40 0f 25 b8 3e ce ef aa 3e
       0.18613504 2.2088609 0.35965773 0.3338608
000160 6a 9b 21 40 07 a6 b2 3e 1c ee 54 40 93 d6 8c 3f
       2.5251107 0.34892294 3.327033 1.1002983
000170 d3 2e 56 3f 14 06 d0 3f 3f b8 14 40 f6 9f 77 40
       0.836652 1.6251855 2.3237455 3.8691382
000180 43 8b c5 3f d9 e9 21 40 ec 53 86 3e 9f 05 b1 3e
       1.5433124 2.529898 0.26235902 0.345746
000190 43 e4 28 40 00 7d 19 40 c5 40 22 40 3c 62 b7 3f
       2.638932 2.3982544 2.5352032 1.4326854
0001a0 c0 8b b6 3f 64 73 09 40 d0 8d d6 3f 1d a8 98 3e
       1.4261398 2.147668 1.6762028 0.2981576
0001b0 51 d6 d9 3f bf 7b bb 3e 99 ff 97 3f a7 44 b0 3e
       1.7018529 0.36617848 1.1874877 0.34427378
0001c0 68 ee 24 40 82 ff 6f 3e e5 ff f7 3f f7 fd ba 3e
       2.5770512 0.23437312 1.9374968 0.36521885
0001d0 2d 50 c8 3f fa 38 0b 40 34 82 b7 3f 9c 3b 55 40
       1.5649468 2.1753526 1.433661 3.3317633
0001e0 4d 52 e2 3f 84 0d 8f 3e 56 ac 18 40 3c c7 8b 3e
       1.7681366 0.2794 2.3855186 0.2730044
0001f0 67 0c b0 3e c1 9e b1 3f 88 d5 9d 3f d2 57 e9 3f
       0.34384462 1.3876573 1.233079 1.8229926
000200 bd a6 9f 3e 9f e8 b9 3e b1 de 2e 40 44 48 b6 3f
       0.311819 0.36310288 2.732342 1.4240804
000210 6d ca 9e 3e e7 2c b5 3e 24 6e 8e 3e f8 d0 40 40
       0.31013814 0.3538582 0.27818406 3.0127544
000220 4d 4a 05 40 71 8e e9 3f 16 48 ab 3e be be 26 40
       2.08266 1.8246595 0.33453435 2.605392
000230 e7 60 3a 40 3e 6f a2 3e 57 d6 c6 3f 27 1e 88 3f
       2.9121644 0.31725496 1.5534161 1.0634202
000240 6a 1e fd 3f e0 a4 dc 3f 6b 01 8b 3f 77 70 6f 40
       1.9774907 1.7237816 1.0859808 3.7412393
000250 13 50 4f 40 ea 56 b3 3f a7 f4 b4 3e e4 a5 a7 3f
       3.2392623 1.4010899 0.35342905 1.3097501
000260 b3 e9 a9 3f d8 5e 4b 40 1a de 0e 40 6e 38 ae 3e
       1.3274444 3.1776638 2.232306 0.34027427
000270 f7 cb dd 3f af e2 b4 3e fb 5c 00 40 0d 94 61 3f
       1.732787 0.35329196 2.005675 0.8811653
000280 c5 ca c1 3f e1 2c b1 3f 7f c3 eb 3f 17 19 b7 3e
       1.5140005 1.3841821 1.8419036 0.3576133
000290 95 03 5c 40 3d 91 94 3e b0 e4 eb 3f e6 47 a4 3e
       3.4377186 0.29017058 1.8429165 0.32086104
0002a0 7e de ae 3f 99 98 d4 3f 11 04 ee 3f 03 6d 06 40
       1.3661649 1.6609069 1.8594991 2.1004035
0002b0 22 ed 17 40 fc 20 2b 40 7f 49 1f 40 95 eb 96 3e
       2.3738484 2.6738882 2.4888608 0.2947661
0002c0 1d 19 81 3f bd 1b 1f 40 5c b2 de 3f f1 6d 00 40
       1.0085789 2.486068 1.7398181 2.0067103
0002d0 62 0a b7 3f 1e 9d d6 3f 92 3e 15 40 ee 69 96 3f
       1.4300044 1.6766698 2.331944 1.1751077
0002e0 fc 0a 88 3e 8c a7 83 3e 2a 7f 63 3f 79 f2 57 3e
       0.2657088 0.25713766 0.8886591 0.2108859
0002f0 06 f6 ad 3e e6 ee c9 3f 21 fa 91 3f d0 4b c3 3f
       0.33976763 1.5776031 1.1404458 1.5257511
000300 d1 e5 fc 3f 9f 38 b5 3e 34 5a b8 3f b4 0d 01 40
       1.9757634 0.3539476 1.4402528 2.0164614
000310 07 8e 84 40 a7 0d 04 40 46 a4 ab 3e c4 6a af 3f
       4.1423373 2.0633333 0.33523768 1.3704457
000320 56 ca a7 3e 7f 85 3c 40 5d 4d ee 3f d6 0b 18 40
       0.32771558 2.945648 1.8617359 2.3757224
000330 3e 57 a6 3e 3a 33 61 3e 21 21 b2 3f 4e 42 30 40
       0.32488436 0.21992198 1.391636 2.754047
000340 21 5e 19 40 04 b0 8f 3e e9 42 f0 3f 7d f2 df 3f
       2.3963702 0.28063977 1.8770419 1.7495877
000350 c7 22 b2 3e 5a ca b0 3f fa a7 e5 3f d7 e7 b9 3e
       0.34792158 1.3811753 1.7941887 0.36309692
000360 62 89 3d 3f a9 84 b9 3f d5 3d 9b 3e 63 e0 1a 40
       0.74037755 1.449361 0.30320612 2.4199455
000370 0b 3f 00 40 08 0e 97 3f 57 97 34 40 d4 ad d3 3f
       2.0038478 1.1801157 2.821737 1.6537423
000380 23 9e 02 40 20 49 12 40 d3 06 25 40 06 92 ad 3e
       2.040902 2.2857132 2.5785415 0.3390047
000390 0c f5 1a 40 da 04 04 40 9c 29 1e 40 5e 24 af 3e
       2.4212065 2.062796 2.4712896 0.34207433
0003a0 6e 3c 8f 3f 76 55 13 40 34 a1 f7 3f b5 39 bc 3f
       1.1190317 2.3020911 1.934607 1.4705111
0003b0 6a 9d 8f 3f 2a 49 7d 3f 22 40 d4 3f 1f 78 b9 3e
       1.1219914 0.98939764 1.6582072 0.36224458
0003c0 83 c2 75 3e fe 5c a4 3e 50 02 c3 3e ff d2 09 40
       0.23999982 0.32102197 0.38087702 2.1535032
0003d0 2a 8c 6f 3f 02 f9 10 40 e0 6c 75 3f 8e fa d2 3f
       0.9357325 2.2651982 0.95869255 1.6482713
0003e0 3a 71 10 40 82 9a c9 3f dd 17 04 40 45 ba cf 3f
       2.2569108 1.5750277 2.0639565 1.622872
0003f0 9c 8c 78 3f 6c d2 26 40 1d 52 07 40 9f 38 68 3f
       0.9708955 2.6065931 2.1143868 0.90711397

bn1.bias f4 [300]
000000 ce 49 46 bf 48 82 87 be c7 00 27 bf c6 17 1f bf
       -0.77456367 -0.26466584 -0.6523556 -0.6214565
000010 aa b0 90 be cf fa 24 bf 1f 1b 1b bf de 8f 1b bf
       -0.28259784 -0.64445204 -0.6058826 -0.607664
000020 98 37 34 bf 70 90 30 bf 51 47 91 be b5 60 49 bf
       -0.7039733 -0.68970394 -0.28374723 -0.7866319
000030 59 09 72 bf c9 43 cf 3c ed 8a 83 be 35 42 7c bf
       -0.94545513 0.025300877 -0.2569193 -0.98538524
000040 99 58 18 3f e3 bf 6d bf 04 15 17 bf 9a 22 35 bf
       0.5951019 -0.9287092 -0.5901644 -0.7075592
000050 b6 c9 76 bf 6c b3 2b bf 17 d0 a0 bf c6 3a 38 bf
       -0.96401536 -0.6707065 -1.2563504 -0.7196468
000060 cd 67 d6 be 84 17 96 3e d9 40 80 be 91 1f 69 be
       -0.4187607 0.29314816 -0.25049475 -0.22765948
000070 db ed 0b bf d0 26 3a bf 14 13 09 be 5e 00 1c bf
       -0.54659814 -0.72715473 -0.13386184 -0.6093806
000080 38 15 5d bf 29 74 08 bf 74 68 a6 bf 8d 20 b2 be
       -0.863605 -0.53302246 -1.3000627 -0.3479046
000090 73 8a 1e bf 47 4b 25 bf b3 c7 f2 be fe 83 b6 be
       -0.61930007 -0.6456799 -0.47417983 -0.35647577
0000a0 f1 a2 7b be 76 54 72 bf 35 a6 49 3d d9 11 9b bf
       -0.24573876 -0.9466013 0.049230773 -1.2114822
0000b0 9a d2 cb 3c f1 44 06 bf 76 77 14 bf ce 1c 17 bf
       0.024880696 -0.52448946 -0.5799478 -0.5902833
0000c0 35 5a 60 3e 16 af 1e bf 93 d5 ab be a6 3e 5e 3f
       0.21909411 -0.6198591 -0.33561382 0.86814344
0000d0 19 d2 56 bf e6 9b a6 bb 63 21 39 3e e1 59 43 bf
       -0.83914334 -0.0050845025 0.18079142 -0.7630902
0000e0 4e 6f 1c bf de 7c 36 bd eb f4 bc 3e 79 9f 01 3f
       -0.6110734 -0.044552676 0.36905608 0.5063396
0000f0 52 93 7a bf 4a 28 5d bf 56 44 1c bf 31 36 26 bf
       -0.9788104 -0.863896 -0.6104177 -0.6492644
000100 da 22 e3 be cf d6 92 be cf 7e 28 bf f2 2a 3b bf
       -0.44362527 -0.2867951 -0.65818495 -0.73112404
000110 0b dd 53 be ea fe ba be ed cb 33 bf 8d 6a 09 bf
       -0.2068979 -0.3652261 -0.7023304 -0.5367821
000120 79 ec ae be 5d e8 46 3d 06 c6 1c bf 11 fa b9 3d
       -0.3416479 0.048561443 -0.6123966 0.090808995
000130 46 e8 a2 be 0e 9b 03 bf 27 99 24 bf e1 9d 3f be
       -0.31817836 -0.5140847 -0.6429619 -0.1871257
000140 fa 53 9d bf 55 45 88 3e 75 82 49 bf 9f 4c 21 bf
       -1.2291253 0.26615396 -0.78714687 -0.6300754
000150 d2 1f 55 bf 5b 1a 2e bf cf 7d 24 bf d6 6e 17 bf
       -0.8325168 -0.68008965 -0.6425447 -0.591535
000160 b8 60 ce be 1e f9 17 bf cf d9 76 3f 79 7b f9 be
       -0.40308166 -0.593645 0.964261 -0.48727015
000170 d3 9a 0c bf ce b2 30 be 8f 44 db 3d a9 e0 ef 3e
       -0.54923743 -0.17255709 0.10706436 0.4685109
000180 b6 58 0d bf 7a 3b 92 bf e6 a9 1c bf 45 cf 0f bf
       -0.5521349 -1.1424401 -0.61196744 -0.56175643
000190 c0 b3 47 bf 2b d1 7a bd b1 31 03 bf 73 d2 9c bf
       -0.7800865 -0.061234634 -0.512477 -1.2251724
0001a0 dc 1e dc be 0d b5 04 bf 09 84 8b bf 27 a6 26 bf
       -0.42992294 -0.5183876 -1.0899669 -0.6509728
0001b0 0c b0 a4 bf be f0 1b bf 2f 49 24 bf 15 73 0f bf
       -1.2866225 -0.6091422 -0.6417417 -0.56034976
0001c0 16 bb 0c bf 74 a2 f8 be 67 de e7 be 4e 3d 1c bf
       -0.5497297 -0.48561442 -0.45286867 -0.61031044
0001d0 67 ef 64 bf 9c 08 a8 be f4 0b 5a bf fa 00 75 3e
       -0.894278 -0.32819068 -0.8517449 0.23926154
0001e0 7c ae 79 bf 4f a5 2c bf 5b 76 47 bc 48 70 3c bf
       -0.9753187 -0.6743974 -0.012174214 -0.7360883
0001f0 36 7f 1a bf 44 68 55 bf 23 46 90 bf 62 31 ec be
       -0.6035036 -0.8336222 -1.1271404 -0.46131426
000200 ee c9 1c bf 37 bf 20 bf 9c 16 8c 3f c9 7d 94 bf
       -0.6124562 -0.6279177 1.09444 -1.1600887
000210 1f 66 23 bf 16 a0 14 bf 60 4a 31 bf c9 af 08 3f
       -0.638277 -0.5805677 -0.6925411 0.53393227
000220 b1 90 f3 3e fc 1a c1 bd c7 4b 27 bf a1 64 30 bf
       0.47571328 -0.09428975 -0.6535 -0.6890355
000230 9e e3 0b bf d6 b8 13 bf 86 4e ee be 05 09 93 bf
       -0.5464419 -0.5770391 -0.46544284 -1.1487128
000240 52 17 9e be 79 ee c4 be a2 44 79 bf 43 c0 b9 3f
       -0.30877167 -0.3846319 -0.9737035 1.4511799
000250 2f 8e 27 bf 5f 30 bd be d7 f5 26 bf a5 e5 1a bf
       -0.6545133 -0.36950967 -0.6521887 -0.6050666
000260 82 19 ed be bc 23 33 bf 0b 8b 85 bf 2e af 15 bf
       -0.46308523 -0.699764 -1.0433058 -0.5847043
000270 a8 56 1e be 4e 4a 1e bf 1c f2 8b bd 14 6d 7e be
       -0.15462744 -0.6183213 -0.06833288 -0.24846298
000280 82 be c5 bd 45 dd 9b bf c0 79 26 bf ce d0 12 bf
       -0.09655477 -1.2176901 -0.65029526 -0.5734986
000290 52 3c d9 be 1e 1d 12 bf 31 03 8f bf 2e 59 1b bf
       -0.42428833 -0.5707568 -1.1172849 -0.6068295
0002a0 a0 69 a7 bf 1e ce ee be d3 ea 23 bf b0 ec 08 bf
       -1.3079109 -0.4664163 -0.6403019 -0.53486156
0002b0 fc 86 f8 3e 5e a4 ec be bd 0a 95 bd 8d 00 0a bf
       0.48540485 -0.46219152 -0.07277439 -0.5390709
0002c0 af 79 0a bf 65 16 57 be 21 42 05 be 7c 8e 15 be
       -0.54091924 -0.21004637 -0.13013507 -0.14605135
0002d0 5f 27 e9 be 98 40 e6 be 5d e9 83 be 7b bb 2d 3f
       -0.4553785 -0.44971156 -0.2576398 0.678642
0002e0 3f aa 2d bf 48 3d 38 bf e7 71 05 3e 8f be 2d bf
       -0.678379 -0.7196851 0.13031732 -0.67868894
0002f0 e6 7d 1b bf 24 6e 00 3c bc e1 53 3e 4f b5 40 be
       -0.6073898 0.00783876 0.2069158 -0.18819164
000300 c9 b4 39 bf 1e 3d 15 bf 53 bb 7c bd 31 94 cc 3d
       -0.7254148 -0.5829638 -0.061702084 0.09989203
000310 ea ee d3 bd 7a e7 87 bf 9e 57 1b bf 60 f9 74 bf
       -0.103483036 -1.0617516 -0.6068057 -0.95693016
000320 be 4c 15 bf 6b 2c 74 3d d0 a3 51 bf 75 a8 01 be
       -0.58320224 0.059612673 -0.81890583 -0.12661918
000330 9e c5 11 bf d7 99 2d bf d0 31 92 bf af 3e 68 be
       -0.56942165 -0.67812866 -1.1421452 -0.22680162
000340 63 93 8c bd 56 9c 1e bf 85 1a 85 be 99 d1 51 be
       -0.06864049 -0.619573 -0.25996795 -0.20490111
000350 e7 98 23 bf 15 79 78 bf 1a d6 5f bf 4e a0 18 bf
       -0.63905185 -0.97059757 -0.8743607 -0.59619606
000360 5e 91 cb be 3b 46 23 3f c5 43 07 bf e1 5e 77 be
       -0.39759344 0.6377904 -0.52837783 -0.24157287
000370 88 74 18 bf f9 da 9e 3e 0b 4b 14 bf 00 4a 97 bf
       -0.5955281 0.31026438 -0.57927006 -1.1819458
000380 1d a3 2a bf 89 68 01 bf ac e0 80 3e 2e 5a 1f bf
       -0.6665514 -0.50550133 0.2517141 -0.6224698
000390 6c aa 15 3d b2 b8 10 bf af 66 09 bf 1e ae 17 bf
       0.03653948 -0.5653182 -0.5367231 -0.59250057
0003a0 d6 ad 8e bf 2b d1 1c 3f b1 bb cf 3d 02 57 b4 bf
       -1.11468 0.61256665 0.10143221 -1.4089053
0003b0 ac 6a 1b bf da bc 19 bf 20 99 bb 3e 46 48 19 bf
       -0.60709643 -0.6005379 0.36640263 -0.59875906
0003c0 a7 dd 23 bf f6 40 1b bf 8f 33 27 bf 29 dd 4c be
       -0.6401009 -0.60646 -0.6531305 -0.20006241
0003d0 55 36 50 bf 26 ce d5 be 3a c7 8a be 6e 08 c5 bf
       -0.81332904 -0.4175884 -0.27105123 -1.5393198
0003e0 a5 2e a8 be f8 50 24 bf 26 56 0d bf 32 11 92 be
       -0.32848087 -0.6418605 -0.5520958 -0.28528744
0003f0 1b 83 f7 be a4 44 1f bf b5 a2 fe be 54 a9 1b bf
       -0.48342213 -0.6221411 -0.4973351 -0.6080525

l2.weight f4 [300, 308]
000000 df 8d 75 3e f4 f3 b4 3e 8a 79 7a bd 4e 88 1c bd
       0.23979901 0.3534237 -0.061151065 -0.038215928
000010 f1 56 93 3f 08 c6 35 bd f0 8f 0a bf 56 f0 10 bd
       1.1510907 -0.04437831 -0.5412588 -0.035385452
000020 f3 65 e7 3d 22 ab ef 3d 7c 12 04 bf 43 d5 dd be
       0.11298742 0.11702563 -0.51590705 -0.43326768
000030 eb f5 23 be 2d a0 1b 3f 1c 1c 42 3f ef ce ea 3d
       -0.16011779 0.60791284 0.7582414 0.11465251
000040 77 5b 7a bf 30 27 68 3f 6c 1b 27 40 1d 18 15 40
       -0.97795814 0.90684795 2.6110487 2.3295968
000050 e4 85 91 be 20 5a 32 be 95 c5 b7 be be f9 8f 3f
       -0.28422463 -0.17417192 -0.3589293 1.124809
000060 4b fa cd bd 5a 25 68 3c a3 bb a7 bf 3d 53 eb 3e
       -0.10057505 0.014169062 -1.3104137 0.45961943
000070 11 b7 34 3e ec d6 95 bf 56 2f 07 bf 05 8c 15 3c
       0.1764796 -1.1706214 -0.52806604 0.009127622
000080 0c 91 b1 bf 94 48 6c 3f 49 3a 0a 3f ce 49 b4 be
       -1.387239 0.92298245 0.53995186 -0.35212559
000090 d4 50 9b 3e b0 fa b0 3c 24 89 38 bf a7 2c e0 3f
       0.30335104 0.021603912 -0.7208426 1.7513627
0000a0 5d 42 71 bf 2e 45 5f 3f 2f b6 6e 3f cb 3f 90 3f
       -0.9424189 0.87214935 0.9324674 1.1269468
0000b0 ff cc 5f bf 96 15 f0 3f 95 ee 89 3d 53 5a 77 3d
       -0.87422174 1.8756588 0.06734959 0.060388874
0000c0 be c6 7b 3f af f6 a0 bd a4 93 ca bd 75 33 c6 3f
       0.9835013 -0.07859551 -0.098914415 1.5484453
0000d0 d8 27 35 3f 44 61 9d 3f 4f d6 a8 3f 3b c6 60 bf
       0.7076392 1.2295308 1.3190402 -0.87802476
0000e0 a6 05 ae 3d 2e 61 55 bf da 88 8c be 6c a6 25 bf
       0.08497171 -0.8335141 -0.2744816 -0.64707065
0000f0 30 3e de 3f 5d 40 d6 3c 06 cf a7 3c c7 10 a1 3f
       1.7362728 0.026153738 0.020484459 1.2583245
000100 3a 50 40 be 22 51 b5 bd 2e 5f 1a 3e c8 18 92 3f
       -0.18780604 -0.088533655 0.1507537 1.1413813
000110 db b9 1a 3f fb 73 82 bf 02 a1 7d be 5b 46 6f bd
       0.6043984 -1.0191644 -0.24768451 -0.058416706
000120 ca 51 15 3e f4 fb d9 bf 8f 80 2f 3c 33 c4 60 bf
       0.14581981 -1.7030015 0.010711803 -0.87799376
000130 20 26 08 be 71 8f 5c 3e fd bc 14 3c dc 19 9d 3e
       -0.13295794 0.21539094 0.009078261 0.30683792
000140 d4 4c e4 be ba 74 b6 be 98 d5 32 bd 13 f1 7a 3e
       -0.44589865 -0.3563593 -0.04366073 0.24506025
000150 65 28 0a 3d 0e 7b 15 bd 94 10 7c bc 35 d8 87 3d
       0.03372993 -0.036494307 -0.015384812 0.06633035
000160 b5 7f 75 bf 63 a7 f9 bd b6 bc 12 bf 8a 35 86 3d
       -0.9589799 -0.121901296 -0.573192 0.065531805
000170 85 59 a8 3d 96 6e 19 3f fc ef 3c 3f b0 7e e4 be
       0.082201995 0.59934366 0.7380369 -0.44627905
000180 ca ca d2 3f 6c fb 21 3f 70 2b c5 3c 03 48 7f 3d
       1.6468136 0.63274264 0.024068564 0.062324535
000190 b0 71 3d 3e c0 9d a9 bf 49 5d 2c be 7d a5 ed be
       0.185004 -1.3251266 -0.1683246 -0.4641532
0001a0 fb 38 1e 3e 52 ea b3 3f bf 1c 9d 3f ba 8f dc bd
       0.15451424 1.4055884 1.2274398 -0.10769601
0001b0 10 42 70 3c a2 6c d6 bd fa aa 31 3f 26 7e 1c 3d
       0.014664188 -0.10469939 0.69401515 0.038206242
0001c0 c8 95 82 3e 19 7d 50 be 38 43 68 bf 97 cf bc bd
       0.255049 -0.20360221 -0.9072757 -0.09219282
0001d0 26 72 8c bf c2 7a 88 3f 50 ec 4c 3f 22 27 50 bf
       -1.0972335 1.0662463 0.80048084 -0.8130971
0001e0 f0 b3 c8 bf 42 81 d1 3d 38 de a9 bf 8f 2b b9 3c
       -1.5679913 0.10229732 -1.3270941 0.022603778
0001f0 7d a2 8e bd 3e 3e 3b bf 7b e8 04 3f 01 82 05 c0
       -0.06964586 -0.7314185 0.5191724 -2.0860598
000200 f3 de f0 3d df bd 24 be cb 36 f5 3e 13 aa 36 3f
       0.11761274 -0.16088055 0.47893366 0.7135326
000210 73 9e e8 3d 02 3c 68 3d e8 f4 35 bc f8 23 67 bf
       0.11358347 0.056697853 -0.0111057535 -0.9028926
000220 a8 d6 03 3f b0 5c c6 bc ca c9 5d bd 48 a1 bf bf
       0.51499414 -0.024214119 -0.05414752 -1.4971094
000230 2d 56 2a be 75 3c 89 bd f3 87 c4 bc 08 2b 9a bf
       -0.16634436 -0.067009844 -0.023990607 -1.2044382
000240 bb 4e 34 be ae e5 d0 bd fa 4f 71 3f e3 f3 d5 be
       -0.17608158 -0.10200058 0.9426266 -0.41787633
000250 90 1b 3e be 18 96 49 3f 19 47 40 be 8e 7e ef bf
       -0.18565202 0.7874465 -0.18777122 -1.8710496
000260 63 55 28 bf c4 88 ee 3e c7 c1 8c bf 6b 76 61 be
       -0.6575529 0.4658872 -1.0996636 -0.22017829
000270 4d af c1 bf 13 43 e5 be 2c 74 4e 3f ef bc 36 be
       -1.5131623 -0.44777736 0.80646014 -0.1784551
000280 87 8b 54 bf 7b ee e8 3e 76 d6 55 bf 4c c9 8d bd
       -0.830254 0.45494446 -0.83530366 -0.0692316
000290 36 37 af bf 73 01 fe ba fa 21 f6 3f 31 96 47 be
       -1.3688724 -0.0019379094 1.9229119 -0.19490887
0002a0 b2 dc c2 3f 85 18 44 bf 0a b4 ae be a9 30 c7 bf
       1.5223601 -0.76599914 -0.34121734 -1.5561725
0002b0 9a 79 4d bd cb 01 29 3f 61 32 ba 3f 74 d6 00 3d
       -0.050164796 0.6601836 1.4546624 0.03145452
0002c0 80 b7 1e 3f 8e 0f 16 bf 63 17 af bf 98 b2 ee be
       0.6199875 -0.58617485 -1.3679012 -0.4662063
0002d0 09 8c 45 3f 10 b7 46 bf 80 62 38 bf 38 2d 8b 3f
       0.771668 -0.7762308 -0.720253 1.0873175
0002e0 5a ae e6 3c b4 3d 75 3e 3f 54 86 be 69 3d 5e 39
       0.02815931 0.23949319 -0.2623615 0.00021194447
0002f0 50 85 c2 3c 0d 24 35 3e 15 ae ee be 5f 7f c5 3d
       0.023745209 0.17689534 -0.4661719 0.09643435
000300 c0 40 16 3f 5a 8f 67 bc d4 86 93 3e 5e 88 95 be
       0.5869255 -0.014133299 0.28813803 -0.29205602
000310 fe b6 3c bf ef 66 a4 bd ff 81 a2 3c 82 43 90 3f
       -0.73716724 -0.080274455 0.019837378 1.1270602
000320 a0 88 c9 3d 8a d7 d4 be 74 eb a7 3e 67 df ee bd
       0.09840512 -0.41570693 0.32796824 -0.11663704
000330 dd ae 9a 3c e1 07 d3 bd 29 fe ee 3f e2 63 09 3f
       0.01888221 -0.10304237 1.8671314 0.53668034
000340 6e 38 d4 bd 63 70 65 bd 67 37 4c be 05 ca 48 3f
       -0.103623256 -0.056015383 -0.1994301 0.7843326
000350 2c e7 fb 3d 87 5a 2d 3f 58 61 dc bf 07 d8 b2 3d
       0.12299952 0.6771626 -1.7217207 0.0873261
000360 72 46 6b be 5f 1d 5a 3e ac 37 f9 3d 24 de 0c 3f
       -0.22976092 0.21300267 0.12168822 0.5502646
000370 64 75 0b 40 25 66 e2 be 68 47 a7 be fb 09 29 3f
       2.17904 -0.44218555 -0.32671666 0.66030854
000380 50 eb 2a 3f 88 0d 6b 3f 1a a4 5b 3e 1f ab a4 3d
       0.6676531 0.9181752 0.21449319 0.08040451
000390 1f 32 dd 3f 20 31 85 be 1e 7c 6f bc 00 cd bb 3d
       1.7280921 -0.26014042 -0.014616994 0.0916996
0003a0 6e f8 91 3e b6 b0 ef 3e ce c3 e1 3e f8 9f 48 bf
       0.2850985 0.46814507 0.440947 -0.7836909
0003b0 dd ad 41 3f e8 ec 90 3f 12 2e 22 3e 70 8a b1 3d
       0.7565592 1.1322298 0.15837887 0.08668983
0003c0 49 d8 4c 3b 41 10 4f bd 1b ea f4 bc 08 1d 22 3e
       0.0031256846 -0.05055261 -0.029896786 0.15831387
0003d0 fd 62 79 3f fa f4 dd be d8 fb 36 bf 96 10 b5 3f
       0.9741667 -0.43350965 -0.71478033 1.4145687
0003e0 15 2e d3 3e 97 15 d3 bd f1 1b 45 be 9a 10 35 bf
       0.41246095 -0.10306852 -0.1924894 -0.70728457
0003f0 aa 7b 29 3d d6 9b 6b bf 00 6d 80 3f 6a e8 75 bf
       0.0413777 -0.9203466 1.0033264 -0.9605776

l2.bias f4 [300]
000000 a5 01 f0 3e b9 5a 52 3e 08 5b 13 3e 8a aa e7 3d
       0.46876255 0.2054242 0.14390194 0.113118246
000010 4f 35 69 3f b8 55 27 3d 40 09 39 3f 9c 53 c8 3e
       0.9109697 0.040853232 0.7227974 0.3912629
000020 d4 41 c6 be 02 ad 1e bf fb 75 4e bf d2 ce 12 bf
       -0.38722098 -0.6198274 -0.80648774 -0.5734683
000030 e6 f8 f9 3e 81 1b 53 bf 17 69 a9 bf b5 c2 3f 3e
       0.48822707 -0.8246384 -1.3235196 0.18726619
000040 c7 dd 00 bf db eb 2b bf bc a2 1d bf 5d 38 17 3e
       -0.50338405 -0.6715676 -0.6157644 0.14767595
000050 00 cd 9e bf 8e 8d 81 bd 98 11 8c 3f 72 c5 ce be
       -1.2406311 -0.063258275 1.0942869 -0.40385014
000060 ec 04 da be 83 0c 9a 3f dc 78 f2 3e 6b 52 0c 3e
       -0.4258188 1.2035068 0.47357833 0.13703315
000070 02 1c 7e 3e ae 66 3f 3f c8 37 81 3f fc 46 77 3f
       0.24815372 0.7476605 1.0095148 0.9659269
000080 30 a7 bc 3e f2 2b 0a bf 35 a6 3a bf fa ce f2 3d
       0.36846304 -0.53973305 -0.7290986 0.11855884
000090 4f 49 1e bf e1 c7 4c 3f 7a 8e 8b 3a c0 ea 3c 3f
       -0.6183061 0.7999249 0.001064732 0.737957
0000a0 f5 25 08 3f 27 df 69 3f e9 ab 26 3f 69 06 a5 bf
       0.5318292 0.9135613 0.65106064 -1.2892581
0000b0 43 9c 41 3f f1 a6 98 be 8a fe 3d be 6f 40 63 bf
       0.7562906 -0.29814866 -0.1855413 -0.8877019
0000c0 6d 10 a3 bf aa fd 8a bd 66 ec 2c 3d c9 ea 1d bf
       -1.2739388 -0.06786664 0.042217635 -0.6168638
0000d0 a3 ec a2 be 7e f3 e9 be 9e d5 f0 3e 29 32 36 bf
       -0.31821164 -0.45693582 0.47037977 -0.7117029
0000e0 7c e4 91 3e 6d fc 2c 3f 0a 74 25 3c 5d dd 02 3f
       0.28494632 0.6757267 0.010098467 0.51119024
0000f0 6d f5 fd be 56 58 87 bf 61 c2 18 be e2 11 85 bf
       -0.49601308 -1.0573833 -0.149179 -1.0396082
000100 ec 6d 42 bf dc 19 47 bf 86 cd be be 3a 5c f1 3e
       -0.7594898 -0.77773833 -0.37266177 0.47140676
000110 92 93 ff 3e 00 fc 12 bf b5 fa 5b 3f 51 8b 36 3e
       0.49917275 -0.5741577 0.85929424 0.17826582
000120 4d 54 32 bf e4 b1 3d bf ee 90 a6 3e 9b 15 fe be
       -0.6965988 -0.74099565 0.32532448 -0.4962586
000130 5f c3 3c 3e 90 80 6c bf 73 a0 25 3d 6c 2b 0b 3f
       0.18433903 -0.9238367 0.04043622 0.5436313
000140 eb 4d c7 3e 72 db 84 3e 02 13 c5 3e 9c b2 d4 bb
       0.38926634 0.25948673 0.38491064 -0.0064910185
000150 f5 08 8b bf 3b b3 83 3d 70 63 71 bf 4a f0 e5 3e
       -1.0862108 0.0643067 -0.94292355 0.44909889
000160 c9 ae a8 3e 60 fd 1f 3e 97 49 11 bf 44 0b 8a bd
       0.3294585 0.15623999 -0.56752914 -0.0674043
000170 14 37 1b 3e d1 21 8e bf 20 b3 2b 3e 84 ec f3 be
       0.1515773 -1.110407 0.1676755 -0.47641385
000180 6e ff 0d 3f c7 a1 a1 3e 1d 9a bd 3d fd b2 1a bf
       0.5546788 0.3156874 0.092579104 -0.60429364
000190 80 15 5d bf 5a 4e 97 3e 48 c4 c1 3e 42 74 3b 3f
       -0.8636093 0.29551965 0.37845063 0.7322427
0001a0 54 fe ca bf e0 dc 22 be 69 00 9a bf dc 72 40 bf
       -1.5858865 -0.1590457 -1.2031375 -0.7517526
0001b0 81 b0 8d bf 89 4c 87 be b8 9f 52 3f 84 6d 80 3e
       -1.106949 -0.2642558 0.8227496 0.25083554
0001c0 d0 a5 58 bf 07 ab fd 3e 83 23 3a 3d d1 6e d8 be
       -0.8462801 0.49544546 0.045444023 -0.42272046
0001d0 98 a0 59 be 29 d1 62 bf bf 99 2f 3f 5b de 8f 3f
       -0.21252668 -0.88600403 0.6859397 1.1239733
0001e0 ad 7d ad 3f 76 88 06 3f c3 18 40 be 54 a1 a8 bf
       1.3553978 0.5255197 -0.18759446 -1.3174233
0001f0 5d 7b 00 bd c4 c8 34 bf 5f 2d 76 bf 80 2c 6e bf
       -0.03136765 -0.70618844 -0.9616298 -0.9303665
000200 66 dd 6a 3e e5 1f 93 3c 9a d2 8e 3e 0c 8b eb 3d
       0.2293602 0.017959544 0.2789505 0.115011305
000210 6e 57 02 bf 90 57 58 3f 6a a2 22 bf 86 e0 00 3f
       -0.5091466 0.8450861 -0.63529074 0.50342596
000220 ac 43 ac 3e 19 5b 90 bf 73 77 95 be 92 6c bb bf
       0.3364538 -1.1277801 -0.29192695 -1.4642508
000230 81 a0 c7 3e ae 45 32 bf 48 58 d9 be fd 7c 5a bf
       0.38989642 -0.6963757 -0.42450166 -0.85346967
000240 95 96 d0 3d 84 58 2f 3f e4 73 26 3f 84 db 2c bf
       0.10184971 0.6849444 0.65020585 -0.67522454
000250 38 cf 89 bf 5f 35 19 bf ad 4c 33 bf e7 5e d2 be
       -1.0766363 -0.5984706 -0.7003887 -0.4108803
000260 20 51 1a bf 3e 6c 58 3e d4 d0 76 bf 0c 50 55 3f
       -0.60280037 0.21135041 -0.96412396 0.83325267
000270 27 98 93 3e 3a 9a 58 3f 37 f4 84 bf 38 89 db bf
       0.2882702 0.8461033 -1.0387028 -1.7151251
000280 31 8e de be 66 e9 45 bf 36 09 83 bf e9 b3 c5 3e
       -0.43467858 -0.7730926 -1.0237186 0.38613823
000290 1d e4 a5 3f 9f f9 b2 3e e7 b1 64 3d cb f1 7f be
       1.296024 0.3495607 0.055833723 -0.2499458
0002a0 84 3b 90 3d 9a aa c3 bd cc a0 9c 3e 7d 35 01 3f
       0.07042602 -0.09554024 0.30591428 0.5047224
0002b0 c5 e3 25 bd 56 e3 4f bf c8 36 4b bf 37 fc 31 bf
       -0.04050042 -0.8120626 -0.79380465 -0.69525474
0002c0 e8 20 64 bf 01 f4 a4 3c 07 69 44 bd c9 7a a6 3e
       -0.8911271 0.020135881 -0.047951724 0.32515553
0002d0 b0 fd 0d 3f 4a d7 ef 3b 11 61 95 3e 14 3d a2 3e
       0.5546522 0.0073193656 0.29175618 0.31687224
0002e0 ee 74 9c 3e 0f ec 77 bf 1c e8 f7 bf 60 91 45 bf
       0.3055796 -0.9684457 -1.9367709 -0.7717495
0002f0 5c 34 6e be c9 ca 97 3e 7e 16 6b be 62 07 41 3f
       -0.23262161 0.296469 -0.22957799 0.7540189
000300 95 61 2b 3f d8 37 7a bf d2 78 b5 bc dd b2 80 3e
       0.66945773 -0.9774146 -0.022152338 0.25136462
000310 07 6c a7 be 99 d9 94 bf 6c b4 40 be 09 20 93 bf
       -0.32699606 -1.1628906 -0.18818825 -1.1494151
000320 96 b0 a8 3e 4c 08 ba be 87 37 0c be e3 d9 38 3e
       0.32947224 -0.36334455 -0.13693057 0.18051867
000330 0e 2c 29 bf b6 95 a2 3d 5b 21 86 3f f3 90 22 3f
       -0.6608285 0.07938711 1.0478929 0.63502425
000340 28 d2 98 bf fc 95 0c bd 31 76 c1 3e 30 49 46 3f
       -1.1939135 -0.034322724 0.37785485 0.77455425
000350 b3 24 7f 3f 04 d6 5a 3f 83 10 b2 3e fb 27 f9 be
       0.99665374 0.8548281 0.34778222 -0.48663315
000360 da a8 a4 bf 4b a3 b3 be b7 02 60 3d 32 2e 44 bf
       -1.286403 -0.3508552 0.05469009 -0.7663299
000370 d4 73 24 3f 8c e3 97 3e c1 22 64 3f b6 b4 14 bf
       0.6423924 0.29665792 0.8911553 -0.58088243
000380 0e 74 78 bf 4a 25 3e 3d fa 4a 09 3f 8a 42 d3 3e
       -0.97052085 0.04642228 0.5363003 0.41261703
000390 63 eb 33 be 9c 2e 67 3f 06 2d ad bf e7 61 10 3f
       -0.17570262 0.90305495 -1.3529365 0.5639939
0003a0 76 75 82 3f 69 61 58 bf 7f 08 58 bf 89 2f 5c be
       1.0192096 -0.84523636 -0.84387964 -0.21502508
0003b0 7e 85 1c 3e ce fb ab bf 20 97 99 3e 6f e8 1b bf
       0.15285298 -1.343622 0.29998112 -0.6090154
0003c0 e3 2d f3 3d 20 54 32 bd e0 5d 43 3e 77 89 42 3f
       0.118739866 -0.04353726 0.19078779 0.75991005
0003d0 36 01 7d bf 98 ff a0 bf d9 c0 8a 3f 6a c5 b3 3e
       -0.9882997 -1.2578001 1.0840102 0.35111552
0003e0 3e aa d5 3c ab 1f d0 bf 26 10 4b 3f 3a 50 70 3f
       0.026082154 -1.6259664 0.79321516 0.93872416
0003f0 f2 ff 91 3d b5 94 14 3d 74 f0 75 bf 9a 1e 9f 3e
       0.07128896 0.03627463 -0.9607003 0.31078035

bn2.weight f4 [300]
000000 f9 bf bf 3f 44 bc b2 3f 15 dd a9 3f f9 13 ab 3f
       1.498046 1.3963704 1.3270594 1.336547
000010 4b bd d3 3f 60 e9 9b 3f 9d bc a6 3f db 2c aa 3f
       1.6542143 1.2180595 1.302631 1.3294939
000020 2d 2f aa 3f 5a 82 65 3e 22 73 aa 3f 72 47 6a 3e
       1.3295647 0.22413006 1.3316386 0.22878817
000030 1e 6e 8d 3f 9d af 9d 3e ee fd a9 3f db e0 ad 3f
       1.104923 0.30798045 1.3280618 1.3584245
000040 ff 93 ee 3f 96 a6 2e 3e 3d d7 99 3e 69 04 b7 3f
       1.8638915 0.17055735 0.30047026 1.4298221
000050 e9 60 56 3e be a0 dd 3f df 84 a3 3f e6 3d c0 3f
       0.20935406 1.731468 1.2774924 1.501889
000060 9d 5d b6 3f e4 3b dd 3f 6e fa 8d 3f 5d ee 8a 3f
       1.4247319 1.7283902 1.109205 1.0853993
000070 0a cf 95 3f db f0 c7 3f 08 5e c2 3f 74 d5 a4 3f
       1.1703808 1.5620378 1.5184946 1.2877641
000080 f0 6f 9c 3f 13 81 7c 3e d2 ff 6a 3e f1 e2 ae 3f
       1.2221661 0.24658613 0.2294915 1.3663007
000090 ac e8 81 3e 49 b9 cb 3f 14 82 89 3f a5 35 95 3f
       0.25372827 1.591592 1.0742822 1.1656996
0000a0 64 e5 c0 3f bf 62 d2 3f a0 bf 97 3f b0 3d c5 3f
       1.5070004 1.6436385 1.1855354 1.540945
0000b0 34 5d 8f 3f 02 7c 6e 3e aa 88 85 3f 52 2b 6a 3e
       1.1200318 0.23289493 1.0432332 0.22868088
0000c0 e4 a1 9e 3f 92 8e 94 3f f7 9e 97 3f 77 09 b7 3e
       1.2393155 1.1606009 1.1845387 0.3574941
0000d0 37 fb d9 3f a3 7a d9 3f 60 69 cc 3f d5 60 91 3e
       1.702979 1.6990551 1.5969658 0.2839419
0000e0 8f ef d9 3f 4f 8f cc 3f 26 ff 8f 3f 85 49 a5 3f
       1.7026232 1.5981234 1.124974 1.2913061
0000f0 7c d1 82 3e 96 95 bd 3f 7f 4a b3 3f 28 e7 8b 3f
       0.2555045 1.4811275 1.4007109 1.0929918
000100 ba 81 ef 3e 43 2e 7c 3e ad c0 90 3e 34 b4 ae 3f
       0.4677866 0.24627022 0.28272 1.3648744
000110 44 40 a2 3f 70 38 e0 3f f1 45 d2 3f 09 62 8e 3f
       1.2675862 1.7517223 1.6427594 1.1123668
000120 4e 0c 80 3e b1 eb 58 3e 88 48 a1 3f 6d 00 96 3e
       0.25009388 0.21183659 1.260026 0.292972
000130 d1 fd 9c 3f e7 79 09 40 d0 d5 94 3f 66 b3 94 3f
       1.2264959 2.1480653 1.162775 1.1617248
000140 3c c8 88 3f 9d 29 94 3f aa f4 b2 3f bc 21 b1 3f
       1.0686107 1.1575199 1.3980916 1.383842
000150 16 c5 2b 3e b4 e8 ad 3f e4 33 7a 3f be 43 c8 3f
       0.16774401 1.358664 0.9773543 1.5645673
000160 55 1a 8c 3f ad 29 a0 3f 83 ee a4 3f 54 c4 a5 3f
       1.0945536 1.2512718 1.2885288 1.295054
000170 dd 9a a7 3f 1a fb 6d 3e 2c 02 9b 3f 83 25 b7 3f
       1.3094136 0.23240319 1.2110038 1.4308323
000180 b2 3b b0 3f b8 ad 9d 3f 39 f3 93 3f b0 34 6d 3f
       1.3768218 1.231864 1.1558601 0.9265852
000190 80 33 c6 3f 02 43 9a 3f 34 ba 94 3f 8f 4d ba 3f
       1.5484467 1.2051699 1.1619325 1.4554919
0001a0 16 ed 92 3f cf 5c 8d 3f 6e d2 3c 3f bd 4c 95 3e
       1.1478603 1.1043948 0.7375859 0.2916011
0001b0 ba 6e b1 3f f7 ea 8d 3f c3 c0 af 3f f9 0e 92 3f
       1.3861916 1.108733 1.3730701 1.1410819
0001c0 1b fd e2 3f 45 1c af 3f 10 f9 4f 3e 92 e4 61 3e
       1.7733492 1.3680502 0.20309854 0.22059849
0001d0 a4 f1 8d 3f 04 b6 8e 3e be 8a a0 3f 26 28 be 3f
       1.1089368 0.27873242 1.2542341 1.4856002
0001e0 6b 30 bf 3f 91 26 c3 3f 88 e8 ad 3f 9c 8f 81 3e
       1.4936651 1.5246145 1.3586588 0.25304878
0001f0 7e ee c0 3f 9c bb 82 3e 82 6d 66 3e e6 a7 d1 3f
       1.5072782 0.2553376 0.22502711 1.6379364
000200 0c f1 97 3f 70 4e 8e 3f ce fd 9e 3f b0 f0 a7 3f
       1.1870437 1.1117687 1.2421205 1.3120327
000210 ad 00 89 3f b9 c8 8e 3f 8f d0 d0 3f 80 1b a8 3f
       1.0703331 1.1155006 1.6313647 1.3133392
000220 17 83 bf 3f 64 99 be 3f 9c 77 94 3f 2f 39 cd 3f
       1.496188 1.4890561 1.1599002 1.6033076
000230 bb 09 ae 3f 5d a8 89 3f 3a d0 64 3e b3 e6 76 3e
       1.359672 1.0754505 0.22345057 0.24111442
000240 83 af ae 3f 7b de b3 3f fd b8 a9 3f b5 4b 94 3e
       1.3647312 1.4052271 1.3259579 0.2896401
000250 85 fa 00 40 1b 4f 26 3f 22 65 24 40 48 47 a7 3f
       2.0152905 0.64964455 2.5686727 1.3068628
000260 55 86 8b 3f b8 27 90 3f 85 e6 b8 3f 5c 91 9d 3f
       1.090037 1.1262121 1.4445349 1.2309985
000270 e1 5c ba 3f b5 94 c1 3f 8f 29 31 3e e2 bf e1 3f
       1.4559594 1.5123507 0.1730101 1.7636683
000280 25 ad 90 3f 4b b2 7c 3e dc d6 ad 3f 03 a4 91 3f
       1.130284 0.24677388 1.3581195 1.1378177
000290 63 82 b6 3f 4f 58 a2 3f d7 6a b6 3f 24 3c 8e 3e
       1.4258541 1.26832 1.4251355 0.2778026
0002a0 1b 52 b7 3f 3a 15 9c 3f 87 3c a2 3f 7d af b1 3f
       1.4321932 1.2193978 1.2674721 1.388168
0002b0 a0 3b b4 3f d9 b2 5f 3e 04 11 84 3e 6e ff 00 3f
       1.4080696 0.21845569 0.25794232 0.50389755
0002c0 27 ca 39 3e c2 30 a4 3f fb 30 9c 3f 9e 5d 96 3f
       0.18143521 1.282738 1.2202448 1.174732
0002d0 f9 a7 a3 3f 87 24 87 3f 10 8e a6 3f 7e 42 a1 3f
       1.2785636 1.0558022 1.3012104 1.2598417
0002e0 76 75 b5 3f 5c 6b 86 3e 0f a3 92 3f bc c7 9b 3e
       1.4176471 0.26253784 1.1456012 0.30425823
0002f0 b5 2c 95 3e 68 80 9d 3f 72 6a af 3f df fb b2 3f
       0.2913567 1.2304811 1.370436 1.3983115
000300 47 35 c9 3f 3e 17 80 3e dd 76 9b 3e e7 03 a0 3f
       1.5719384 0.25017732 0.30364123 1.2501191
000310 e0 da 4d 3e 2c 10 8a 3e 6c 4a ab 3f c5 91 93 3e
       0.20103025 0.26965463 1.3382087 0.2882215
000320 bf fd 88 3f 1f 20 7f 3f dd 4c ca 3f 7a 66 8a 3f
       1.0702437 0.9965839 1.5804707 1.0812523
000330 6e 19 af 3e 0d f2 a8 3f 76 0c aa 3f 12 c7 97 3f
       0.3419909 1.3198868 1.3285053 1.1857626
000340 d5 35 94 3e 08 a0 4c 3e aa ea b0 3f ad dc d3 3f
       0.2894732 0.19982922 1.3821614 1.655172
000350 0c 9b 98 3f c9 7f bd 3f 9e 03 bd 3f c1 da a4 3f
       1.1922317 1.4804622 1.4766729 1.2879258
000360 ea f5 bc 3f 4b 6b f7 3f dc d0 8c 3e 38 f5 85 3f
       1.4762547 1.9329618 0.27503097 1.046546
000370 ab a0 a6 3f 44 0e a7 3f e1 42 bc 3f 44 2f af 3f
       1.3017782 1.3051229 1.470791 1.3686299
000380 c6 5c bc 3f 5f 6a 8e 3f f7 d6 94 3f a4 e0 9d 3f
       1.4715812 1.1126212 1.1628102 1.233418
000390 ab 05 93 3f 4c e2 9f 3f 23 36 b5 3f 64 f7 8f 3f
       1.1486105 1.2490935 1.4157146 1.1247373
0003a0 81 f7 aa 3f e2 e8 6c 3e 35 25 90 3e 71 a0 57 3e
       1.3356782 0.23135713 0.28153387 0.21057297
0003b0 56 b9 ad 3f 87 fd 32 3e 31 b2 b3 3f 75 fe a0 3f
       1.3572185 0.17479526 1.4038755 1.2577654
0003c0 f7 f1 96 3f c7 09 b1 3f 9f c4 9f 3f e9 7c ba 3f
       1.1792592 1.3831109 1.2481879 1.456937
0003d0 be 8e a3 3e be 23 80 3e 42 44 b8 3f 63 29 bb 3f
       0.3194484 0.2502727 1.4395831 1.4622005
0003e0 b3 ca 8d 3f c4 c6 86 3e d6 04 c2 3f 0e f1 c4 3f
       1.1077484 0.2632352 1.5157726 1.5386064
0003f0 5f bc b5 3f af 91 bd 3f 2a 2e 6c 3e 71 5d a3 3f
       1.4198111 1.4810084 0.23064485 1.2762891
