weights/model_critic_target_172.pt (torch, 431175 bytes, 9 tensors)

l1.weight f4 [300, 42]
000000 bb b4 1a 3e 63 e9 1b 3f d1 4f cc 3d b9 9d d3 3e
       0.15108006 0.60902995 0.09976161 0.4133127
000010 b0 43 3c 3e b2 2f c3 3f fe 94 28 3f 70 a8 87 3f
       0.18385196 1.524893 0.65852344 1.0598278
000020 f8 df 97 bf 30 2d 11 3b f7 b6 48 3f 0c 52 a8 bf
       -1.1865225 0.0022152178 0.7840418 -1.3150039
000030 97 d4 d3 3e f6 5a fa be a7 d2 15 40 ab b9 92 bf
       0.4137313 -0.48897523 2.3409822 -1.1462911
000040 20 e4 c0 be 64 54 06 40 a4 d8 84 bf b8 e0 b6 c0
       -0.37674046 2.0989008 -1.0378613 -5.7149315
000050 f6 82 c8 3e c1 5c e7 40 a0 fd 24 c0 b5 46 e8 3e
       0.39162415 7.2300725 -2.57798 0.45366445
000060 b3 af 1f 3f 4e bf c5 be 11 40 dc 3f 55 1d 95 3f
       0.6237747 -0.38622516 1.7207052 1.1649576
000070 3e 3c 32 c0 be 52 20 c0 49 b7 1c 3d 34 c7 20 3e
       -2.784927 -2.5050502 0.03826073 0.1570099
000080 13 c3 53 c0 3c 90 a5 c0 a5 44 00 3f 73 ea 32 40
       -3.3087814 -5.1738567 0.50104743 2.7955596
000090 7f 54 58 bf d4 aa ec 3e 96 48 cd 3d de f1 4e 41
       -0.8450393 0.46224082 0.1002361 12.93405
0000a0 59 f6 11 40 e0 76 da 3e ee 44 82 3e 72 20 63 3e
       2.2806609 0.4266882 0.25443214 0.22180346
0000b0 b9 bf 84 3e 7d c2 01 be 47 72 85 bd 54 a4 db 3e
       0.25927523 -0.12671848 -0.06515937 0.4289881
0000c0 03 58 3a be d0 49 cc bf f9 15 b1 be f7 46 9a bd
       -0.18197636 -1.5960026 -0.34587076 -0.07533067
0000d0 16 d6 a7 3e f4 b9 15 bf 72 7f d1 3e 5f 23 d7 be
       0.32780522 -0.58486867 0.40917546 -0.42019174
0000e0 1c 18 02 40 ea 42 85 be 57 7c 13 c0 55 d7 82 3f
       2.0327215 -0.26027614 -2.304464 1.0221964
0000f0 44 cd 4c bf b8 ba ab bf 4e 36 bb 3f 98 8a 64 40
       -0.8000071 -1.3416357 1.4625947 3.570959
000100 50 8c 03 c0 f9 b3 26 3e ea d2 c9 3e 20 27 6b bf
       -2.055439 0.16279592 0.39418727 -0.91856575
000110 48 15 0f 3f db d1 9c 3e 2a 3c b2 40 85 bc b4 bf
       0.5589185 0.30628857 5.5698442 -1.4120032
000120 f2 b6 c3 3f 95 fd 9b 3d 7c cf 1d 41 6e 41 8d bf
       1.5290205 0.07616726 9.863155 -1.1035593
000130 f9 be 75 3e 0c 9b be c0 cc 65 a1 40 28 1d 10 40
       0.23998632 -5.9564266 5.0436764 2.2517796
000140 a9 62 54 be 26 8a b2 3f cf 5f 54 c0 95 4e af bf
       -0.20740761 1.394841 -3.3183477 -1.3695856
000150 45 da 06 3f 7b 30 52 bd 32 c2 bf 3e 45 ce 12 3f
       0.526768 -0.051315766 0.37452847 0.5734599
000160 e5 48 80 3c c2 b8 d4 bd 74 cf d0 bd ba cf 26 bf
       0.015659759 -0.10386802 -0.101958185 -0.65160716
000170 20 d5 53 bb a3 8b fb be 21 89 03 3f 2e 05 3f bf
       -0.0032323077 -0.49129972 0.5138112 -0.7461728
000180 4b 8a 59 3e a4 77 1b bf da 04 82 bf be dc e5 3e
       0.21244161 -0.6072943 -1.015773 0.44894975
000190 ae 46 06 3f a5 c1 92 bf b6 d1 f8 3f 48 12 18 bd
       0.524516 -1.1465346 1.9438999 -0.03712681
0001a0 59 4c fb bd 0a 27 c9 be 4c a3 a0 bf 2e 3b 2f 3f
       -0.122704215 -0.39287597 -1.2549834 0.68449676
0001b0 1b 7a c1 3e 83 ff bb be 5b f7 25 3f f2 d2 38 c0
       0.37788472 -0.36718377 0.6483056 -2.887875
0001c0 08 39 26 3f 14 96 bf bf 81 d0 5b bf ac 92 c5 3e
       0.6493077 -1.4967675 -0.85865027 0.38588464
0001d0 71 36 d2 c0 26 d6 5e 40 db 63 4c 3f 11 eb 33 40
       -6.5691457 3.4818206 0.7983987 2.8112223
0001e0 ec f1 70 be b6 3d 89 bf 55 30 0c 3f 1f 7a ae 3f
       -0.23529786 -1.0721958 0.5476125 1.3631018
0001f0 14 6c 04 c0 24 7d a5 3d 60 fa 1a 3f 47 da 0e be
       -2.0690966 0.08080509 0.6053829 -0.13950454
000200 76 13 ba 3e 3c b1 52 3e 46 39 c0 3d c6 5b 4d be
       0.36342973 0.20575422 0.09385924 -0.2005454
000210 7c b8 54 bd 32 e5 11 bf 20 d1 34 be 21 03 27 bf
       -0.05193375 -0.5699035 -0.176579 -0.6523915
000220 83 63 03 3f 5e 42 8d be d5 d5 74 3e e9 03 28 bf
       0.5132372 -0.27589697 0.23909695 -0.65630966
000230 f4 b7 60 bf ce f9 f9 bd e5 a6 b5 3d 24 3b a9 bf
       -0.8778069 -0.122058496 0.08869723 -1.3221173
000240 63 bf f9 3f 92 1b a4 3d a8 c3 5e be 64 e9 ba bf
       1.9511532 0.08013071 -0.21754324 -1.4602475
000250 5a 33 00 bf 7a cc 41 3f 14 56 c7 3e dd e4 c4 be
       -0.50078356 0.7570263 0.3893286 -0.3845586
000260 b7 9f 28 3f d1 10 3f c0 78 e5 04 3f 8d b0 ba bf
       0.65868706 -2.9854014 0.5191264 -1.4585129
000270 9f 1f 51 bf 52 14 12 3f 5b 96 d7 c0 5f 59 51 40
       -0.81688875 0.57062256 -6.737104 3.2710798
000280 d5 1f 4b 3f 65 bc 2f 40 f3 3e 51 be d1 ee 99 bf
       0.79345447 2.7458737 -0.2043417 -1.2026006
000290 dc 63 06 3f da 91 91 be 72 cb 11 bf 6c 37 48 3f
       0.52496123 -0.28431588 -0.5695106 0.7820957
0002a0 5d d9 f6 3d 01 4c 2d 3f 78 fe b4 3e c8 e6 7e bd
       0.120531775 0.676941 0.35350394 -0.06223181
0002b0 c9 79 8f 3e 36 3b 55 3f f0 c7 49 3e b7 aa 9d 3b
       0.28022602 0.83293474 0.19705176 0.0048116106
0002c0 92 92 39 3f 66 8d 7f bf 4d 14 c5 3e 65 68 1d bf
       0.72489274 -0.9982513 0.3849205 -0.6148742
0002d0 8f 60 40 bf 95 36 03 bf 73 7d 86 be 33 c6 f5 be
       -0.75147337 -0.5125516 -0.26267585 -0.48002777
0002e0 2a 15 a0 3e c5 cc 84 bf a5 50 0c 40 85 40 e4 be
       0.31266147 -1.0374991 2.1924222 -0.44580474
0002f0 fc fb 5d c0 4c 54 f8 bf 86 bd b5 bf ab 1f 4d be
       -3.468505 -1.9400725 -1.4198463 -0.20031612
000300 92 5a 90 3e b2 ab 45 3f 94 d9 a4 3f 76 7c b6 bf
       0.281941 0.7721511 1.28789 -1.4256732
000310 dc d8 f1 bf d8 d6 f3 c0 74 0f 2f c0 a4 0b db bf
       -1.8894305 -7.619976 -2.7353182 -1.7112927
000320 4b 4b fe bf f4 a1 2b c1 b5 68 6c 3d 93 16 cd 3f
       -1.9866728 -10.727039 0.057717044 1.6022514
000330 0c b7 35 c0 75 03 9f 3f 58 fa 13 c0 e4 8e 27 c0
       -2.8392973 1.242293 -2.3121548 -2.6180964
000340 cf 76 d2 40 9d 7a a7 c0 67 b2 3e 3f 68 09 eb be
       6.577003 -5.2337174 0.7449097 -0.45905614
000350 8a 5c 13 3f f3 5e 5c bf 4c 8a 70 3e 02 3a ab be
       0.5756308 -0.8608238 0.23490256 -0.33442694
000360 8b 52 9c be 6b e5 5d 3d b7 d4 34 bf e1 93 9e bf
       -0.30531725 0.05417387 -0.7063708 -1.2388879
000370 4f 7f 0c 3f 64 92 8e 3f 2b 9e bb 3e 09 af 4b bf
       0.5488176 1.1138425 0.3664411 -0.7956396
000380 58 98 1e bf 1d 1a 06 c0 64 e6 d3 bf 13 f8 c6 bf
       -0.6195121 -2.0953438 -1.6554685 -1.5544456
000390 e6 d6 0c 40 aa 4d 05 3f bb 89 7b bf fa bb 98 c0
       2.2006164 0.5207163 -0.98257035 -4.7729464
0003a0 b0 96 bc 3f 43 14 84 3f dd 1d 01 3f 4d 46 c6 be
       1.4733486 1.0318683 0.5043619 -0.3872551
0003b0 c8 df 07 3f 38 11 62 c0 0c 7d ef bd aa 92 69 bf
       0.5307584 -3.532301 -0.11693773 -0.91239417
0003c0 df b3 2c bf 2b 03 5c 3f 2b d3 de c0 31 d0 e9 3f
       -0.6746196 0.85942334 -6.9632773 1.826666
0003d0 3d e6 65 3f fd 52 22 40 13 71 e5 bd 2a b4 d2 bf
       0.8980444 2.5363152 -0.11203208 -1.6461232
0003e0 67 6e cc 3e d5 25 90 c0 4b 8b 4d 40 98 11 26 40
       0.3992798 -4.504618 3.2116268 2.5948238
0003f0 8d 29 1e 3f f5 c1 55 3f 8c 83 84 3e 7a 0f 21 40
       0.6178215 0.8349908 0.25881612 2.5165696

l1.bias f4 [300]
000000 81 ff ee 3e c0 ef a7 3d 93 0e dc 3e e8 d9 ea 3e
       0.4667931 0.082000256 0.4297987 0.45869374
000010 e6 43 82 3d 0b 2f 1e 3f 95 c6 63 bd 31 6c ec 3e
       0.06360607 0.6179053 -0.055609304 0.46176293
000020 dd 12 29 3f 6e 03 0e 3f 65 94 d3 3d c3 96 5b 3d
       0.6604441 0.55473983 0.103310384 0.053610574
000030 db 7e b8 3c 87 11 16 3f 0d 72 a0 be ca cd 5c 3d
       0.022521427 0.58620495 -0.31337014 0.053907193
000040 21 6e 3d 3f b7 70 a8 3d e7 8a 84 bd ae 9b 70 3e
       0.7399617 0.08224624 -0.06471806 0.23496887
000050 37 c2 0f 3e 18 fc c3 3e f5 70 67 3d 1f 87 8e 3e
       0.14038931 0.3827827 0.05650421 0.27837464
000060 02 3b 24 3e 7e 6a b5 3e 60 49 c2 3e 00 c6 63 be
       0.16038135 0.3543281 0.37946606 -0.222435
000070 9f 25 92 3d b6 ae 4b 3e 4e b3 10 3e e5 de d8 3e
       0.07136082 0.19890866 0.141309 0.42357555
000080 dc 93 a0 bb 97 bd d3 3d b7 55 11 3e 20 37 d7 3e
       -0.0049004387 0.10338896 0.14192854 0.42034245
000090 0d 20 5d 3e 0c 8d 09 3f c9 da f5 3e 46 af 6b 3e
       0.21594258 0.53730845 0.48018482 0.2301608
0000a0 7a a9 85 3e 9a c5 29 3e 25 80 2e 3e 65 1a 65 bd
       0.26105863 0.16579285 0.17041071 -0.055933375
0000b0 f7 27 c3 3e 91 42 3a 3f e3 d8 0e 3f 4e fd fd 3e
       0.38116428 0.7275782 0.5579969 0.4960732
0000c0 7e a7 0e 3f 90 06 c0 3e 9f 23 81 3d 0d c4 4b 3f
       0.5572432 0.37505007 0.06305622 0.79596025
0000d0 23 f2 d4 3e f8 7a aa bb 1f ad 10 3f 13 6d 92 3e
       0.41590986 -0.0052026473 0.5651416 0.28598842
0000e0 5c 5a ce 3e 0d f8 00 3e 3a 48 d1 3d 19 dd f9 bd
       0.40303314 0.12594624 0.10218854 -0.12200374
0000f0 e0 68 32 3e 15 89 00 3e 63 4f f3 3e d3 7c 6b bd
       0.17422819 0.12552293 0.47521505 -0.05749209
000100 41 f2 9c bd 99 fd d3 b9 45 39 19 3f 62 f5 02 3e
       -0.07663394 -0.00040434 0.5985301 0.12788919
000110 e6 89 06 3f c4 3e 46 3e 96 7f 01 3f fe 26 12 3f
       0.52554166 0.1935988 0.50585306 0.5709075
000120 64 67 8b 3e 97 1f 5b bc 6e 8f 01 3f 1d 50 c7 3d
       0.27227318 -0.013374231 0.5060948 0.09732077
000130 8d 68 f7 3e 1c dd cd 3e e7 60 fb 3e 0c 31 c8 3e
       0.48321953 0.40207756 0.49097368 0.3909992
000140 54 84 bf 3e 74 17 17 3f 35 53 e1 3e 82 2a 08 3f
       0.37405646 0.5902016 0.44008794 0.5318986
000150 62 7b aa 3e 10 74 d2 3b 50 11 fb 3e 8d aa b8 3e
       0.3329726 0.006422527 0.49036646 0.3606762
000160 e6 35 33 3e 60 0a e1 3e 07 f2 45 3f 11 e2 ce 3e
       0.1750103 0.43953228 0.7732243 0.4040685
000170 50 ff 27 be 74 b7 5c 3e 96 41 0d 3f 28 03 58 bd
       -0.16405988 0.21554357 0.551782 -0.052737385
000180 6a d7 71 3e 3d ae c1 3d 49 35 0e 3f 93 37 13 3f
       0.2361733 0.094570614 0.55550057 0.57506675
000190 a8 0d ac 3e 49 94 02 3f 68 9b 04 be 41 bd 7f 3e
       0.3360417 0.51007515 -0.12949908 0.24974538
0001a0 d4 bb 73 3d d1 44 0d 3f 98 95 b0 3e ad 28 08 3f
       0.0595053 0.5518313 0.3448913 0.53187066
0001b0 ac 07 a4 3e 74 82 cf 3e 6c d5 a5 3e 6b b1 de 3e
       0.32037103 0.40529215 0.3238939 0.43494734
0001c0 42 a4 73 3e 47 79 08 3f 8e 15 97 3e 73 38 f6 3e
       0.23793128 0.53310055 0.29508632 0.48089942
0001d0 8e a1 82 3e 22 f0 93 3e cf 64 87 3e bc 8c 43 3f
       0.2551388 0.28894144 0.26444098 0.7638662
0001e0 c9 7d 18 3e 54 5a 0f 3f af d3 f6 3e 81 e4 1f 3f
       0.14891733 0.55997205 0.48208377 0.62458044
0001f0 40 27 d4 3e db 00 5c 3d 59 a3 05 bc ff 1d 30 3e
       0.41436195 0.053711753 -0.008156621 0.17198943
000200 92 2f f6 3e fe f5 ed 3e 46 4b de 3e 25 d1 38 3c
       0.48083168 0.4647674 0.43416804 0.011280333
000210 17 c1 10 3f c3 45 dd 3e 1a f9 07 3f 77 7d 59 3f
       0.5654463 0.43217286 0.53114474 0.8495707
000220 32 20 d4 3e ba 4b 08 3f 18 65 07 3f 48 04 5a 3e
       0.41430813 0.5324055 0.5288863 0.21290696
000230 50 db 94 3e b4 41 0a 3f 62 6e e2 3e 85 14 01 3d
       0.29073572 0.54006505 0.4422484 0.03151371
000240 b1 e7 b6 3e 57 e7 d1 3e ae 42 81 3d d4 cb 73 3f
       0.35723642 0.4099681 0.06311546 0.9523289
000250 2f 98 12 3f 3f f1 31 3e 7f 97 6e 3e 01 cd 38 3d
       0.57263464 0.17377184 0.23299979 0.045117382
000260 6b 00 ab 3e 68 89 32 3e be 98 1b 3f 8a 5f 00 3f
       0.33398756 0.17435229 0.6077994 0.5014578
000270 f0 62 df 3e 5b 11 ec 3e 2d 65 92 3e e2 d2 48 3e
       0.4363017 0.4610699 0.28592816 0.19611695
000280 96 93 69 3e 3e cd ed 3e 27 07 89 3e 77 19 d0 3e
       0.22810206 0.4644565 0.2676327 0.40644428
000290 9f c1 d8 3e 1a 71 15 3f 12 07 40 3e 9c ab be 3e
       0.4233522 0.58375704 0.18752697 0.37240303
0002a0 5b fe ac bc 18 f0 20 be 13 96 49 be 8e 9e 9d 3e
       -0.02111738 -0.15716588 -0.19686155 0.3078503
0002b0 13 d2 dd 3e cd 68 3f 3f 00 31 8b 3e 59 28 d3 3e
       0.43324336 0.7476929 0.27185822 0.4124172
0002c0 cd 6c 2e 3e c4 24 ab 3e f9 55 bd 3e a0 82 cd 3e
       0.17033692 0.33426487 0.36979654 0.4013872
0002d0 e3 f5 b1 3e 9d fa 01 3f 6e c3 8d 3d 8e 2c c4 3e
       0.3475791 0.5077303 0.06922041 0.38315243
0002e0 dc 5e 1a 3f c6 55 2d 3f 0e 4d 27 3e 66 4a 24 3f
       0.60300994 0.67709005 0.16337988 0.64176023
0002f0 86 1a 19 3f 7d 47 f6 3e 68 62 cc 3e 6f 54 a7 3d
       0.59806097 0.48101416 0.39918828 0.08170401
000300 e4 f9 e8 3d 88 00 10 3f 43 d9 93 bd 55 b7 a2 3d
       0.11375788 0.5625081 -0.07219174 0.07945124
000310 57 a3 f2 3e d7 0d 01 3e 89 c4 b5 3e 9c 67 0a bd
       0.47390243 0.12602936 0.35501507 -0.033790216
000320 68 cd e1 3e 0b 5b c3 3a 99 3b ae 3e c0 cd b6 3e
       0.44102025 0.0014904452 0.34029844 0.3570385
000330 e9 0d c0 3e 69 c4 19 3f 98 01 48 3e 5c 7e a2 3e
       0.37510613 0.60065323 0.19531858 0.3173703
000340 e9 c1 06 3f 8a b7 0a 3f 32 a9 18 3e 45 b6 ad 3e
       0.52639633 0.5418631 0.14908293 0.33928123
000350 46 71 0a 3f 07 0f 3e 3e ff 8c 8e 3e ee 4d 2c 3f
       0.5407909 0.1856042 0.27841946 0.6730641
000360 11 37 9a 3e 94 89 a0 3e 38 cc f6 3e 16 2f 4a 3e
       0.30120137 0.31354964 0.48202682 0.19744524
000370 4e 6b a4 3e 2b 15 11 3e d6 87 f1 3d 19 88 ad be
       0.32113117 0.14168231 0.11793487 -0.33892897
000380 9c 47 06 3f 52 a2 ee 3d 30 13 c7 bd 5d a9 ee 3e
       0.5245302 0.11652054 -0.097204566 0.4661359
000390 ce cd dc 3d 14 52 bb 3c 09 45 66 3e 94 c1 db 3e
       0.10781442 0.022866286 0.22487272 0.42921126
0003a0 19 3e ee 3d 93 ce 7b 3e 77 1a 8e 3e d3 09 d8 3e
       0.11632938 0.2459052 0.27754566 0.42194995
0003b0 79 d1 8d 3e e4 63 8f 3e 45 0a 05 3f f0 d6 0a 3f
       0.27698877 0.28005898 0.51968795 0.5423422
0003c0 dc 5e e1 3e 95 f7 e4 3e 28 dd f4 3e 2f 8f b8 3e
       0.44017684 0.4472014 0.4782498 0.3604674
0003d0 20 36 99 3e a9 a5 0b bd f2 79 04 3f c1 ac ef 3e
       0.29924107 -0.034093533 0.51748574 0.46811488
0003e0 64 7f bd 3c 7b ab 0c 3d d3 39 0a 3f 9f 98 26 bd
       0.023132034 0.034343224 0.5399448 -0.040672895
0003f0 b1 d9 3c 3e 1c 79 0f 3e 0b 52 e2 3b e3 5f 21 3e
       0.18442418 0.14011043 0.006906753 0.15759234

bn1.weight f4 [300]
000000 a3 df ba 3f cb a4 00 40 68 bf c0 3e 50 79 c4 3e
       1.4599499 2.0100582 0.3764603 0.38373804
000010 50 46 0b 40 74 3b 85 3e 25 c2 4e 40 de 4c a2 3e
       2.1761665 0.26021922 3.2305996 0.3169927
000020 40 7f 49 3e be 18 a6 3e 8c 17 23 40 48 a6 83 40
       0.19677448 0.32440752 2.5483122 4.114048
000030 71 63 e9 3f 21 bb 20 40 f6 dd 27 40 61 b0 d4 3f
       1.8233472 2.5114214 2.6229224 1.6616327
000040 0d 16 58 40 b6 f9 cb 3f 86 ea f0 3f 3a 71 13 40
       3.3763459 1.5935581 1.8821571 2.3037858
000050 df c0 31 40 b4 2c 42 40 f5 40 0f 40 ff 9c 23 40
       2.777397 3.0339785 2.2383397 2.5564573
000060 72 7b 82 40 22 c9 fa 3f 66 1e 04 40 41 ab 1b 40
       4.077569 1.9592631 2.0643554 2.4323275
000070 3b ec e4 3f 40 91 e0 3f 5f 5d 87 40 57 46 bd 3e
       1.7884592 1.7544327 4.230148 0.36967728
000080 5a 25 1f 40 29 98 0a 40 0f c8 08 40 64 03 63 40
       2.4866548 2.165537 2.1372106 3.547082
000090 34 12 06 40 ac 1d 8e 3e cb 0b 2b 40 29 a8 14 40
       2.094861 0.27757013 2.6725948 2.3227637
0000a0 6d 27 19 40 46 63 db 3f 45 e8 f3 3f 90 89 72 40
       2.3930314 1.7139671 1.9055258 3.7896461
0000b0 eb 5c b2 3f 78 a5 0a 40 8f f7 b0 3e d7 81 b1 3e
       1.3934606 2.1663494 0.34563872 0.34669372
0000c0 58 4a 4b 40 24 a3 81 3e 89 fc 8b 3f b4 6b 80 40
       3.1764126 0.2531978 1.0936443 4.0131474
0000d0 03 46 41 40 3e 87 71 40 83 05 01 40 47 5f 1b 40
       3.0198982 3.7738795 2.0159614 2.4276903
0000e0 ac 68 8e 3e 1c 0d d8 3f ca 8c aa 3f a1 94 68 40
       0.27814233 1.6879001 1.3324215 3.6340716
0000f0 91 90 30 40 55 06 af 3f 56 d8 ad 3e c1 3f d8 3f
       2.7588236 1.3673807 0.33954114 1.6894456
000100 29 bc 1d 40 63 30 cd 3f e3 fc 71 3e 3c ee 82 3f
       2.4646094 1.6030391 0.23631625 1.0228953
000110 06 40 d0 3f 93 fa 9f 3e 46 af 51 40 7c 68 87 3e
       1.6269538 0.3124586 3.2763228 0.26446903
000120 8f 91 86 3f 55 e6 82 40 37 a1 be 3e 53 b4 82 3f
       1.0513171 4.0906167 0.37232372 1.021128
000130 e2 ca 0b 40 75 97 f5 3f 06 91 a9 3e cf 80 39 3f
       2.184258 1.9186846 0.33118457 0.7246217
000140 81 0c e3 3f 91 48 38 40 0b b4 45 40 b4 56 8e 3e
       1.7738191 2.879429 3.089114 0.27800524
000150 65 14 1e 3e c8 67 0a 40 0f 25 b8 3e cc 7c 87 3e
       0.15437467 2.1625843 0.35965773 0.264624
000160 fc c6 22 40 07 a6 b2 3e 9a 52 98 40 c2 31 3a 40
       2.543395 0.34892294 4.760083 2.909287
000170 d5 e8 06 40 d9 0b 1e 40 35 31 17 40 84 0b 86 40
       2.107961 2.4694731 2.3623784 4.1889057
000180 52 6a b8 3f d3 dc 05 40 ec 53 86 3e 9f 05 b1 3e
       1.4407446 2.091603 0.26235902 0.345746
000190 31 bd 7c 40 c1 ee 0c 40 03 25 39 40 9f b9 cd 3f
       3.9490473 2.2020724 2.892884 1.6072272
0001a0 de 9e ad 3f fa 0c 18 40 6b 56 bb 3f 1d a8 98 3e
       1.3564107 2.375792 1.4635748 0.2981576
0001b0 de 8c 1b 40 bf 7b bb 3e 2e e3 84 3f 8d ad 9b 3e
       2.4304729 0.36617848 1.038183 0.30405846
0001c0 3e b8 4a 40 0e f7 2e 3e 7b b3 15 40 2e d3 a8 3e
       3.1674953 0.17086431 2.3390796 0.32973617
0001d0 56 e2 dc 3f 90 3c 1f 40 23 7c 05 40 f9 9d 4a 40
       1.7256572 2.4880714 2.0857017 3.165892
0001e0 79 b2 31 40 84 0d 8f 3e 3d e8 f5 3f 3c c7 8b 3e
       2.776518 0.2794 1.9211498 0.2730044
0001f0 e5 e1 9b 3e 5e 85 fd 3f 90 35 a8 3f fa 01 28 40
       0.3044578 1.9806325 1.3141346 2.6251206
000200 bd a6 9f 3e 45 61 99 3e df c0 77 40 0e c0 be 3f
       0.311819 0.29957023 3.871147 1.490236
000210 6d ca 9e 3e e7 2c b5 3e b1 23 58 3e 8f 2f 12 40
       0.31013814 0.3538582 0.21107365 2.2841527
000220 85 fd 37 40 d9 0a 7e 40 cd 04 9b 3e ab f4 fb 3f
       2.8748486 3.969412 0.302771 1.9684042
000230 c6 85 b1 40 3e 6f a2 3e cb 31 83 3f 50 9c f6 3f
       5.54758 0.31725496 1.0249571 1.9266453
000240 d9 94 8b 3f 3a f1 3a 40 47 7d bf 3f de 6b 87 40
       1.09048 2.9209733 1.4960107 4.2319174
000250 bc 4f 08 40 8e 61 07 40 43 68 c1 3f c6 4f f9 3f
       2.1298666 2.1153293 1.5109943 1.947747
000260 1e 92 41 3f 1e 09 33 40 fd 95 24 40 6e 38 ae 3e
       0.7561358 2.7974315 2.5716546 0.34027427
000270 3e 0f 31 40 af e2 b4 3e 24 d8 e5 3f 81 c9 d1 3f
       2.7665553 0.35329196 1.7956586 1.6389619
000280 a9 a7 29 40 c5 71 08 40 bb f1 07 40 5d e8 9f 3e
       2.6508582 2.131944 2.124129 0.31231967
000290 2d d3 1f 40 3d 91 94 3e 3c 83 0f 40 ec 61 8c 3e
       2.4972641 0.29017058 2.242385 0.27418458
0002a0 61 4a ee 3f e7 6a f6 3f 7b 87 2d 40 27 ee 61 40
       1.8616449 1.9251374 2.711394 3.5301607
0002b0 0b 4c 29 40 e5 84 81 3f b6 c7 3a 40 14 a9 86 3e
       2.6452663 1.0118681 2.9184394 0.2630087
0002c0 df e0 c7 3f 25 82 1d 40 84 04 8c 40 ac 3c 22 40
       1.56155 2.4610684 4.375551 2.534953
0002d0 2f e5 d0 3f 52 ed ed 3f 2b 48 82 40 28 23 fa 3f
       1.6319941 1.858805 4.0713096 1.9541979
0002e0 fc 0a 88 3e 8c a7 83 3e d2 03 c5 3f 79 f2 57 3e
       0.2657088 0.25713766 1.5391791 0.2108859
0002f0 06 f6 ad 3e b5 5e 80 3f a7 b3 8f 3f 93 9f eb 3f
       0.33976763 1.0028902 1.12267 1.8408073
000300 72 a7 eb 3f 9f 38 b5 3e a2 bd 2e 40 e8 22 5c 40
       1.8410475 0.3539476 2.7303243 3.4396305
000310 95 1f 60 40 33 58 f5 3f e5 0b 95 3e 08 55 9b 3f
       3.5019276 1.9167541 0.29110637 1.2135324
000320 56 ca a7 3e 7d c3 5b 40 03 99 f2 3f 4d 87 71 40
       0.32771558 3.4338067 1.8952945 3.773883
000330 2c a0 8b 3e 3a 33 61 3e 3f c2 01 40 79 dd a9 3f
       0.2727064 0.21992198 2.0274808 1.3270713
000340 91 f5 d8 3f 23 6e 75 3e f0 06 e3 3f 35 13 cd 3f
       1.6949941 0.23967795 1.7736492 1.6021487
000350 06 be ae 3e dd f7 3c 40 8f ab e4 3f d7 e7 b9 3e
       0.3412935 2.9526284 1.7864856 0.36309692
000360 7b e6 fe 3f d1 84 51 40 d5 3d 9b 3e e7 70 1a 40
       1.9914087 3.2737315 0.30320612 2.413141
000370 72 da 25 40 b2 b6 d9 3f 56 94 28 40 ac 71 59 40
       2.5914578 1.7008879 2.6340537 3.397563
000380 04 be 20 40 a4 b6 6d 40 73 ab 7d 40 06 92 ad 3e
       2.5115976 3.7142725 3.9635894 0.3390047
000390 a1 45 35 40 70 2d 4a 40 8b b4 37 40 5e 24 af 3e
       2.8323748 3.1590233 2.8703945 0.34207433
0003a0 7c 91 e1 3f ae 34 a4 40 27 14 9a 40 53 6d 0e 40
       1.7622523 5.1314306 4.81496 2.2254226
0003b0 7d 37 aa 3f 59 49 3d 40 96 e0 86 40 1f 78 b9 3e
       1.3298184 2.9576018 4.2149153 0.36224458
0003c0 46 19 25 3e fe 5c a4 3e 50 02 c3 3e a4 10 bf 3f
       0.16122922 0.32102197 0.38087702 1.4926953
0003d0 34 b7 21 40 e3 d1 e5 3f 28 03 c4 3f a1 58 ca 3f
       2.5268068 1.7954677 1.5313463 1.5808297
0003e0 d4 5e 2d 40 1f 16 cb 3f 18 7d 51 40 92 44 1f 40
       2.7089128 1.5866126 3.27326 2.4885602
0003f0 60 d4 8b 3f 3e 55 23 40 80 dc 10 40 f9 42 f7 3f
       1.0924187 2.5520778 2.2634583 1.9317313

bn1.bias f4 [300]
000000 1d 9f 85 bf 60 88 37 bf c7 00 27 bf c6 17 1f bf
       -1.0439183 -0.71692467 -0.6523556 -0.6214565
000010 67 78 27 bf cf fa 24 bf 75 19 9c bf 1f 7f 23 bf
       -0.65418094 -0.64445204 -1.2195269 -0.63865846
000020 98 37 34 bf a0 da 33 bf 5b 6d bf be ce 3a 82 bf
       -0.7039733 -0.7025547 -0.3738812 -1.0174196
000030 c5 86 ae bf b7 7c 85 be 1b cb d6 be 35 59 d0 bf
       -1.3634878 -0.26071712 -0.41951832 -1.6277224
000040 a7 9c a3 3f 50 28 02 c0 c8 b6 cf bf 4c 5d 94 bf
       1.2782182 -2.0337105 -1.6227655 -1.1590972
000050 c1 b6 b0 bf 1c c0 2a bf d3 6a ee bf 50 ed 4d bf
       -1.3805772 -0.66699386 -1.862635 -0.80440235
000060 0a f5 1f 3e 79 99 8a 3f fa 3a 34 bf f9 52 80 bf
       0.15620819 1.0828086 -0.7040249 -1.0025321
000070 50 18 71 bf 02 a1 1a bf 0d a2 4e bf 5e 00 1c bf
       -0.9417772 -0.6040193 -0.8071602 -0.6093806
000080 20 e1 ab bf 2a ff 82 bf 92 06 d5 bf 97 a1 54 bf
       -1.3428078 -1.023412 -1.664263 -0.83059067
000090 74 f1 52 bf 4f 6d 2d bf 8f 11 4e bf 8d 31 ce be
       -0.8239968 -0.67744917 -0.8049554 -0.4027218
0000a0 65 65 4d bf 93 04 15 bf fd 08 7c bf 5a dc 30 bf
       -0.8023284 -0.58210105 -0.98451215 -0.6908623
0000b0 0b 48 e8 3e c7 91 ae bf 76 77 14 bf ce 1c 17 bf
       0.45367464 -1.3638238 -0.5799478 -0.5902833
0000c0 d6 9a 7c be 57 b1 27 bf 06 e3 93 be 46 1f c8 3f
       -0.2466844 -0.65504974 -0.28884143 1.5634544
0000d0 88 5e 49 bf 19 10 76 bf fb 3e ca bd 4e 80 c6 bf
       -0.7865987 -0.96118313 -0.09875294 -1.5507905
0000e0 cf 09 2f bf ec 76 85 bf 37 11 90 3f 56 33 11 3f
       -0.6837434 -1.0426917 1.1255254 0.5671896
0000f0 50 62 cc bf 76 c7 e1 bf 56 44 1c bf 72 30 c7 bf
       -1.5967503 -1.7638996 -0.6104177 -1.5561659
000100 88 72 7b bf aa 08 cd bf cf 7e 28 bf 55 30 a4 bf
       -0.98221636 -1.6018269 -0.65818495 -1.282725
000110 a2 fd 7d 3f 16 ce 18 3e 67 26 dc bf ae c2 18 bf
       0.9921514 0.14922366 -1.719922 -0.5967206
000120 46 cd 2f bf 9f 68 d3 be 06 c6 1c bf b5 ba fe 3e
       -0.686726 -0.41290757 -0.6123966 0.4975182
000130 9f 66 fc be 42 c2 0d be 27 99 24 bf a2 30 c6 3e
       -0.49297044 -0.13843635 -0.6429619 0.3870898
000140 77 f6 e8 bf 8e cb 9a 3d bb 81 0c bf df 6d 29 bf
       -1.8200215 0.07558356 -0.54885453 -0.66183275
000150 12 41 5d bf 4b 53 a6 bf cf 7d 24 bf 87 9d 29 bf
       -0.86427414 -1.2994169 -0.6425447 -0.6625599
000160 ee 28 59 bf 1e f9 17 bf d8 f6 51 3f ab d9 80 bf
       -0.8482808 -0.593645 0.8201728 -1.0066427
000170 1a 02 8c bf 61 7a 9b be 9f 21 4e be 0e 91 48 3e
       -1.0938141 -0.30366805 -0.20130013 0.19586584
000180 49 39 05 bf 57 83 2a c0 e6 a9 1c bf 45 cf 0f bf
       -0.52040535 -2.6642663 -0.61196744 -0.56175643
000190 5f 4e 08 bf b8 79 0b be a5 c5 d9 be a2 e0 7c bf
       -0.53244585 -0.13620651 -0.42533603 -0.9878026
0001a0 f0 64 56 bf c8 58 21 bf 43 cd af bf 27 a6 26 bf
       -0.8374777 -0.63026094 -1.3734516 -0.6509728
0001b0 15 43 d1 bf be f0 1b bf 6c d2 1a bf b6 dc 19 bf
       -1.6348597 -0.6091422 -0.6047733 -0.60102403
0001c0 e8 7b 86 be 95 91 0c bf 6c 16 3a bf 27 61 25 bf
       -0.26266408 -0.5490964 -0.72690463 -0.6460137
0001d0 1e f8 45 bf be a7 bb 3c 58 fc 82 bf 1e 70 70 3f
       -0.7733172 0.022907134 -1.0233259 0.9392108
0001e0 a8 c2 d4 bf 4f a5 2c bf 74 4d ee 3c 48 70 3c bf
       -1.6621904 -0.6743974 0.029089667 -0.7360883
0001f0 e7 73 25 bf 0a e0 be bf 96 82 05 c0 e7 95 03 bf
       -0.6462998 -1.4912121 -2.0860953 -0.5140061
000200 ee c9 1c bf 80 02 31 bf 9b 98 ba 3f 4a 49 b8 bf
       -0.6124562 -0.6914444 1.4577821 -1.4397366
000210 1f 66 23 bf 16 a0 14 bf e9 a6 42 bf 1c 4d bf 3e
       -0.638277 -0.5805677 -0.76035935 0.37363517
000220 7d f1 21 3f ee e0 07 3e 3f 6c 2f bf 83 ac fd be
       0.63259107 0.13269398 -0.68524545 -0.49545678
000230 3d 6c 25 bf d6 b8 13 bf 85 a9 b4 be 70 7f 47 bf
       -0.64618284 -0.5770391 -0.35285583 -0.7792883
000240 e1 1a 0f bf 2e f3 75 bf 5a e1 c3 bf c8 f4 ff 3f
       -0.5590039 -0.9607419 -1.5303147 1.9996576
000250 b1 06 67 bf fd ba 43 bf 6f a3 16 bf 38 a1 89 bf
       -0.90244585 -0.76457196 -0.5884313 -1.0752325
000260 eb 6b df bd 35 57 33 bf 74 28 8b bf 2e af 15 bf
       -0.109092556 -0.7005494 -1.087172 -0.5847043
000270 23 fd 62 be 4e 4a 1e bf 84 c7 73 be d6 50 b9 be
       -0.22166876 -0.6183213 -0.23806578 -0.36194485
000280 ac ac 88 3e 6b 3c bc bf 78 b1 67 bf c6 c6 1f bf
       0.26694238 -1.4705938 -0.9050517 -0.6241268
000290 e7 3a 73 3d 1e 1d 12 bf bb 0f f0 bf c7 19 27 bf
       0.059382346 -0.5707568 -1.87548 -0.6527371
0002a0 0c 9b cc bf 7b 78 c5 bf c1 b2 9d bf 43 25 e3 be
       -1.5984817 -1.5427393 -1.2320176 -0.44364366
0002b0 35 0b 3c 3f 7d c4 ee bd 49 64 ce be ce 21 12 bf
       0.734546 -0.11658571 -0.40310887 -0.5708283
0002c0 36 87 94 bf 44 9b e7 be 57 37 57 3e 8b 78 aa be
       -1.1603763 -0.45235646 0.21017204 -0.33295092
0002d0 a1 6a 67 bf b9 8d 22 bf 23 be 2e 3e b6 53 a3 3e
       -0.9039708 -0.634975 0.17064719 0.31899804
0002e0 3f aa 2d bf 48 3d 38 bf 69 b3 94 bd 8f be 2d bf
       -0.678379 -0.7196851 -0.07260782 -0.67868894
0002f0 e6 7d 1b bf ed 7c 24 bd b5 53 ff 3e 5f 6d 08 bf
       -0.6073898 -0.0401582 0.4986855 -0.5329189
000300 e0 84 7a bf 1e 3d 15 bf e9 73 97 bf 3a 6b be be
       -0.97859 -0.5829638 -1.1832248 -0.37191182
000310 47 40 a0 3c 84 94 b4 bf af d2 26 bf 52 98 8b bf
       0.0195619 -1.4107823 -0.6516523 -1.090586
000320 be 4c 15 bf fd 55 79 3d 06 02 11 bf 06 10 fd 3d
       -0.58320224 0.06087302 -0.5664371 0.12356572
000330 86 75 1f bf d7 99 2d bf 04 cc cd bf ab 31 9a 3c
       -0.622887 -0.67812866 -1.6077886 0.018822512
000340 b8 8a 5c bf bf 83 29 bf 8a 6c 12 bf e0 ab 3a be
       -0.8614917 -0.66216654 -0.5719687 -0.18229628
000350 27 2f 25 bf 7a 75 00 c0 b3 96 21 bf 4e a0 18 bf
       -0.64525074 -2.0071702 -0.63120574 -0.59619606
000360 0c 2a 94 bf 34 44 b3 3e c5 43 07 bf 91 7d ec 3d
       -1.1575332 0.35012972 -0.52837783 0.115473874
000370 6f be dc bf 6e e5 4e be dd 07 37 be 50 bf 06 c0
       -1.7245616 -0.20204708 -0.17874093 -2.1054268
000380 e2 ef 15 bf 3d db 13 bf fb d0 08 3f 2e 5a 1f bf
       -0.5856916 -0.57756406 0.5344388 -0.6224698
000390 6b b0 2a bf c5 80 20 bf 69 a2 0c bf 1e ae 17 bf
       -0.6667544 -0.62696487 -0.5493532 -0.59250057
0003a0 21 57 ec bf b3 64 a8 3f f7 7a 8a 3f 82 49 e5 bf
       -1.846409 1.3155731 1.0818776 -1.7913058
0003b0 6c 68 9f bf 44 d6 6a bf 62 e1 26 3e 46 48 19 bf
       -1.2453742 -0.91733193 0.16296914 -0.59875906
0003c0 50 3e 39 bf f6 40 1b bf 8f 33 27 bf 39 31 58 3e
       -0.72360706 -0.60646 -0.6531305 0.21112527
0003d0 9c 45 bf bf 69 87 c9 be 3a d4 97 3a 83 7f a8 bf
       -1.4943118 -0.39361122 0.0011583634 -1.3163913
0003e0 1a 82 aa bf 0e 27 8d bf f9 bf 9a bf f0 ab ef be
       -1.3320954 -1.1027544 -1.2089835 -0.46810865
0003f0 7c c2 3a bf 60 c8 3e bf 86 c2 bf bf a8 1a dc 3e
       -0.7295301 -0.745245 -1.4981239 0.42989087

l2.weight f4 [300, 308]
000000 0e ab 2e bf 06 37 20 40 8a 79 7a bd 4e 88 1c bd
       -0.6822976 2.5033584 -0.061151065 -0.038215928
000010 48 77 36 bd 08 c6 35 bd 64 04 9d 3f 7d 28 01 bd
       -0.04454735 -0.04437831 1.2266965 -0.031532753
000020 f3 65 e7 3d e6 d2 11 3e 73 46 24 c0 a9 36 85 bf
       0.11298742 0.14240608 -2.5667999 -1.0407306
000030 05 34 9f bf 59 89 33 3e b5 14 22 3f 4c a5 97 bf
       -1.243775 0.17532863 0.63312846 -1.184732
000040 52 ae d2 be 11 2c 0c c0 4b 14 05 40 75 8e d2 3f
       -0.4114862 -2.1901896 2.0793636 1.6449724
000050 d5 90 58 3e 90 94 4e 3e a9 75 14 c0 25 d7 04 40
       0.21148999 0.2017386 -2.3196814 2.0756314
000060 a4 e3 54 3e 77 c4 b5 3f 6c 19 d1 3e f6 27 76 3f
       0.20789963 1.4200581 0.40839708 0.96154726
000070 0b f4 ea be 7c 24 a5 bf 41 f4 5c 3f 05 8c 15 3c
       -0.45889315 -1.2901759 0.863102 0.009127622
000080 bd e8 c4 3f 42 7e 4c 3d 56 d8 f1 be 68 2c 25 bf
       1.5383526 0.049925096 -0.47235364 -0.64520884
000090 df 22 85 be 82 4f d2 bb 0a 3c 01 c0 de b2 8f 3f
       -0.26003167 -0.0064181695 -2.0192895 1.1226461
0000a0 4c 17 32 bf 7d 26 c1 be d4 f3 06 3f 80 09 03 c0
       -0.695668 -0.37724677 0.527158 -2.0474548
0000b0 39 05 24 be 14 99 b3 3f 95 ee 89 3d 53 5a 77 3d
       -0.16017617 1.4031091 0.06734959 0.060388874
0000c0 83 37 79 bf 4d c8 09 3d 88 75 b0 be 81 b6 00 40
       -0.9735033 0.033638287 -0.3446467 2.0111392
0000d0 da d1 df 3f c9 81 ce 3f 0a 85 4c 3f ca 9e e6 bf
       1.7485917 1.6133357 0.798905 -1.8017209
0000e0 ca 00 59 3d 96 e4 8b bf b2 40 b3 bf 30 3e 70 bf
       0.052979268 -1.0929134 -1.4004118 -0.9384489
0000f0 0e 17 2e 3d ea 29 03 3f 06 cf a7 3c d8 1c 10 40
       0.042502455 0.5123583 0.020484459 2.2517605
000100 fc db 02 40 df a9 be 3d 2e 5f 1a 3e 02 97 eb 3d
       2.0446768 0.09309744 0.1507537 0.11503412
000110 cd a7 96 3f 8c 0a 09 3f 16 ac c7 bf 76 38 12 3c
       1.1769959 0.5353172 -1.5599391 0.008924594
000120 68 07 69 3f fb c0 5b c0 8f 80 2f 3c 06 ac ca 3e
       0.91026926 -3.4336536 0.010711803 0.39584368
000130 e6 7f 8a bf fb a8 b8 3f fd bc 14 3c 58 be 3e 3f
       -1.0820282 1.4426569 0.009078261 0.7450919
000140 1c 39 1e bf 1c a5 ed be 5d 87 94 bd dd 9e 8c 3e
       -0.6180589 -0.4641503 -0.07252381 0.27464953
000150 dc b0 09 3c c4 f6 49 bf 94 10 7c bc e2 79 d9 3c
       0.008403983 -0.7889216 -0.015384812 0.026547376
000160 93 2e 8d bf 63 a7 f9 bd 76 15 25 3d 60 9e 08 bf
       -1.1029838 -0.121901296 0.04030367 -0.5336666
000170 8a 55 8d bf de 5b 80 bf 00 14 b7 3e 9c e7 12 c0
       -1.104173 -1.0028036 0.35757446 -2.2953863
000180 96 2b 98 3f de d5 14 bf 70 2b c5 3c 03 48 7f 3d
       1.1888301 -0.58138835 0.024068564 0.062324535
000190 ce c5 4a bf 96 21 29 c0 bc 1c 55 3f bd 17 f5 3f
       -0.79208076 -2.642675 0.8324697 1.9147869
0001a0 6d c7 31 3f 89 a2 28 40 7c f5 4d 40 ba 8f dc bd
       0.69444925 2.6349204 3.2181082 -0.10769601
0001b0 80 c4 04 bf a2 6c d6 bd 89 59 42 be 87 3f 28 bd
       -0.51862335 -0.10469939 -0.18979467 -0.04107621
0001c0 60 62 4c bf 07 19 3d be 8d 93 90 bf 68 71 cd bd
       -0.7983761 -0.18466578 -1.1295029 -0.10031396
0001d0 8c 1e 11 c0 4c 69 10 bf c3 06 75 3f 84 b6 a7 bf
       -2.2674894 -0.5641067 0.9571344 -1.3102574
0001e0 fb 96 21 c0 42 81 d1 3d 5e d0 c5 3f 8f 2b b9 3c
       -2.52484 0.10229732 1.5454214 0.022603778
0001f0 8d fc 12 bd f4 79 15 3f a6 38 14 3f 63 33 09 3f
       -0.035885382 0.5838921 0.5789894 0.53594035
000200 f3 de f0 3d 35 cd 0d be c9 aa be bf 41 f8 fd 3f
       0.11761274 -0.13847812 -1.489587 1.9841386
000210 73 9e e8 3d 02 3c 68 3d f4 36 73 3a 21 1d e7 3d
       0.11358347 0.056697853 0.0009277903 0.11284853
000220 94 5e 67 bf c7 70 d1 3f a7 48 a7 bd 80 f3 06 3e
       -0.9037869 1.6362542 -0.08168154 0.13178825
000230 f4 98 75 3f 75 3c 89 bd 22 27 23 bf dd 66 a4 3e
       0.9593651 -0.067009844 -0.63731587 0.32109728
000240 4f 83 e1 bf ca cf 2a bf ca a2 a2 3f 88 55 bc 3e
       -1.7618197 -0.6672331 1.2705929 0.36784005
000250 bf d8 e6 3e ce 50 52 3f c2 63 a2 3f 32 43 05 c0
       0.4508724 0.8215455 1.2686694 -2.0822263
000260 9b 6e 03 3f a4 0b 8a 3f 83 85 81 bf 6b 76 61 be
       0.51340646 1.0784802 -1.011887 -0.22017829
000270 7c 8b c1 3e 13 43 e5 be ad e3 10 bf dc a9 e8 be
       0.3780173 -0.44777736 -0.56597406 -0.45442092
000280 29 3a fb 3e 7a e2 66 3f 2a 5a 39 3f b0 32 49 3d
       0.4906781 0.90189326 0.72403204 0.049120605
000290 92 b5 58 c0 73 01 fe ba db 19 02 40 1e 7e 1f be
       -3.3860822 -0.0019379094 2.032828 -0.15575454
0002a0 38 7c e9 3f 44 f5 21 bf de 0f 60 3f 48 2a 45 c0
       1.8241034 -0.6326487 0.8752421 -3.0807056
0002b0 bc 7b 69 3f 89 6e a9 3e c2 48 52 bf 87 0b 80 3d
       0.9120443 0.33092144 -0.8214227 0.06252199
0002c0 58 1c 46 3f 44 04 e0 3e 53 94 30 c0 3b 24 cb bf
       0.77387 0.43753254 -2.759053 -1.5870432
0002d0 38 2a 25 bd 0f a0 9c 3e 71 54 df 3e 57 86 eb 3f
       -0.040323466 0.30590865 0.4361911 1.8400372
0002e0 5a ae e6 3c b4 3d 75 3e af ed a7 be 69 3d 5e 39
       0.02815931 0.23949319 -0.32798526 0.00021194447
0002f0 50 85 c2 3c f4 1d 4e 3f 2d 03 8a bf f3 c0 86 be
       0.023745209 0.80514455 -1.0782219 -0.26319084
000300 0e b0 af 3f 5a 8f 67 bc fb 6f 1b bf 6e e1 8e 3f
       1.3725603 -0.014133299 -0.60717744 1.1162546
000310 94 09 12 c0 62 9a d8 bf bc 8e 71 3d 36 d1 ab 3f
       -2.2818346 -1.6922114 0.058974013 1.3423221
000320 a0 88 c9 3d 05 d7 c4 3c 66 aa 48 3f 42 52 46 3e
       0.09840512 0.02402831 0.7838501 0.19367316
000330 82 cf 5e bd e1 07 d3 bd d8 0c 49 3f cc f4 c4 be
       -0.054397114 -0.10304237 0.78535223 -0.38468015
000340 a6 31 46 be ae 5f 9c bd 61 98 51 3e 3a 2b 62 3f
       -0.19354877 -0.07635437 0.20468284 0.8834721
000350 a3 6d f3 3d 67 af 08 40 eb 3f 1d bf 07 d8 b2 3d
       0.11886146 2.1357057 -0.61425656 0.0873261
000360 94 52 b5 3e 35 93 b6 3e ac 37 f9 3d 5b 3d 95 3f
       0.35414565 0.35659185 0.12168822 1.1659349
000370 c6 44 aa 3f 72 6b 83 3f e3 35 9e 3f 42 2d 1b c0
       1.3302238 1.0267165 1.2360195 -2.4246373
000380 ab b7 84 3f 7c 5d c8 3f 04 ee 03 bf 1f ab a4 3d
       1.0368551 1.5653529 -0.5153506 0.08040451
000390 58 33 ba 3f 33 9b 52 bf 4e a0 0a 3e 00 cd bb 3d
       1.4546919 -0.82268065 0.13537714 0.0916996
0003a0 a6 90 22 40 24 91 9d 3f c7 55 8c bd fd a7 10 3f
       2.5400786 1.2309918 -0.06852298 0.5650633
0003b0 99 6c fb 3e a2 6b 48 3f cb 23 7a 3f 70 8a b1 3d
       0.4910629 0.78289235 0.97710866 0.08668983
0003c0 58 43 ca bd 41 10 4f bd 1b ea f4 bc e4 3a cf be
       -0.09876126 -0.05055261 -0.029896786 -0.40474617
0003d0 46 78 5e 3f c9 65 40 3f d8 d5 67 bf 5c 44 19 3f
       0.8690227 0.7515531 -0.90560675 0.59869933
0003e0 9c 79 10 c0 42 2c 17 be 89 a6 93 be d5 bf 3a bf
       -2.2574224 -0.14762977 -0.28837994 -0.7294896
0003f0 77 a6 41 3f 1f 46 26 3f fb 4f e3 bf 2e 3e 15 3f
       0.7564463 0.64950746 -1.7758783 0.58298004

l2.bias f4 [300]
000000 38 4e 3d 3f f0 56 1e 3f 18 d8 ac 3e fe 8e 3c 3f
       0.7394748 0.61851406 0.33758616 0.7365569
000010 7b 03 74 3f ed 53 11 3f 52 7b 90 3f 1c 03 cf 3f
       0.9531781 0.56768686 1.1287634 1.6172824
000020 f1 6f a5 3e 19 29 28 bf 49 8f 8f bf dd d2 02 bf
       0.32311967 -0.6568771 -1.1215602 -0.51103
000030 75 fd d1 bd 31 93 45 bf b2 f5 01 c0 4b 00 34 3f
       -0.10253421 -0.7717772 -2.030621 0.7031295
000040 e5 dd 08 bf a1 74 8f bf 7f 27 cc be c2 d7 b2 3e
       -0.53463584 -1.1207467 -0.39873883 0.34930235
000050 9d f7 01 c0 ef 7f 2d bf b7 0a e5 3f fd d1 80 bf
       -2.030738 -0.67773336 1.7893895 -1.0064083
000060 35 5b aa be 28 77 ef 3f 76 bb da 3d db 5f 1a 3f
       -0.3327271 1.8708239 0.106802866 0.60302514
000070 55 b7 e5 3e ed d4 81 3f 5b 79 53 3f c4 19 d4 3f
       0.44866434 1.0143105 0.8260705 1.6570363
000080 ec c5 8c 3f 57 1a 63 bf 87 85 4e bf 73 4a 80 3f
       1.0997901 -0.88712066 -0.80672497 1.002272
000090 09 8f 9b bf 9c 6a 5a 3f 4c 59 ce be a4 2f 80 3f
       -1.2153026 0.85318923 -0.40302503 1.0014539
0000a0 e9 1e 81 3f f1 2e 95 3f 1a 45 1e 3f 0c c6 c4 bf
       1.0087558 1.165495 0.6182419 -1.5372939
0000b0 9f af 9d 3f 24 0f 51 bf 85 ef 20 3e 6f 85 af bf
       1.231922 -0.8166373 0.1571637 -1.3712596
0000c0 9b 08 d7 bf c9 b3 29 bf 5c e5 45 3e af 1e 02 bf
       -1.6799501 -0.66289955 0.19325775 -0.5082807
0000d0 76 43 ec 3e b6 2b f7 bd c0 d0 46 3f 45 d0 b0 bf
       0.4614522 -0.12068884 0.7766228 -1.3813559
0000e0 4b 00 8f 3f a5 95 9c 3f 9b 17 02 3f 1c 72 64 3f
       1.1171964 1.2233168 0.5081727 0.8923662
0000f0 07 1f 22 bf f4 1d c2 bf 17 9b b2 3e d7 41 be bf
       -0.63328594 -1.5165391 0.3488395 -1.4863843
000100 4c 3a 62 bf 4a 33 88 bf b3 d4 59 bf fb 08 23 3f
       -0.88370204 -1.0640652 -0.8509018 0.6368558
000110 80 4f 71 3f e8 a6 b6 bf 06 f6 b0 3f ed ad 32 3f
       0.9426193 -1.4269686 1.382508 0.6979664
000120 81 bb ad bf dd 57 65 bf fc 63 c7 3e 7d 91 7c bf
       -1.3572847 -0.89587194 0.3894347 -0.986595
000130 1a e6 80 3e 3f 70 a5 bf f6 64 41 3e e5 37 33 3f
       0.25175554 -1.292488 0.1888617 0.70007163
000140 ed 0c 91 3f c8 ab a5 3c 05 62 9b 3f 85 26 b0 3e
       1.133207 0.020223513 1.2139288 0.34404388
000150 66 35 c2 bf 67 be 8c 3e 9a 95 8b bf f5 23 8e 3f
       -1.5172546 0.27489015 -1.090503 1.1104723
000160 46 ad 80 3f 78 a0 99 3d a5 b2 56 bf e6 e5 22 3f
       1.0052879 0.0750131 -0.8386634 0.6363205
000170 a8 92 02 3f 91 d8 d2 bf 1d 34 df 3e 12 c0 8b bf
       0.5100503 -1.6472341 0.43594447 -1.091799
000180 0a 8d bb 3e d6 d5 86 3f a6 fd 03 3f df b8 8c bf
       0.36631042 1.0534008 0.5155891 -1.0993918
000190 fd ee d5 bf 65 cf 81 3f 96 81 43 bd 40 4c af 3f
       -1.6713558 1.0141417 -0.047731005 1.3695145
0001a0 1a b7 21 c0 91 4f 75 3d b1 e3 ec bf f9 0d a5 bf
       -2.5268006 0.059890334 -1.8506986 -1.2894889
0001b0 a8 93 bf bf 38 d0 f0 3d 58 86 6f 3f 89 73 ca 3e
       -1.4966936 0.117584646 0.9356437 0.3954127
0001c0 a7 45 89 bf e8 f2 9e 3f e1 9b 8c be 4b 6a 3a bf
       -1.0724381 1.2417879 -0.27462676 -0.7281844
0001d0 6e cc 95 be 16 d2 a5 bf 0e e1 c5 3f 50 8b b4 3f
       -0.2925753 -1.2954738 1.5459306 1.4105015
0001e0 92 76 b4 3f e6 80 87 3f f7 01 a5 be 57 f1 d6 bf
       1.4098685 1.0586212 -0.32228062 -1.6792401
0001f0 41 83 2f 3f 35 4b 50 bf c5 7a 7d bf 37 10 b7 bf
       0.6855965 -0.81364757 -0.99015456 -1.4301823
000200 15 30 f1 3e d1 b4 dc be 2e 78 16 3f ca 9c e5 3e
       0.47106996 -0.43106702 0.5877713 0.44846183
000210 96 74 be be 2a c8 71 3f be cb 89 bf 01 d2 aa 3f
       -0.37198323 0.9444605 -1.0765302 1.3345338
000220 d5 8f 94 3f d8 02 e5 bf bc d7 85 3d dd f6 12 c0
       1.1606394 -1.7891493 0.06535289 -2.2963173
000230 0d 50 3b 3f 73 96 a1 bf 7e 95 18 bf bd f6 6f bf
       0.7316902 -1.2624038 -0.59603107 -0.9373587
000240 d0 a5 ff 3d 0c f5 bf 3f 48 66 fe 3e 6c 3b 96 be
       0.12482798 1.4996657 0.4968741 -0.2934221
000250 5e 33 86 bf 41 9b aa be 13 5c 15 bf 19 05 16 bf
       -1.0484426 -0.33321574 -0.5834362 -0.5860153
000260 e2 de c0 bd a5 d6 f4 bd 76 8f f3 be 9a dc 5c 3f
       -0.094175115 -0.11955003 -0.4757039 0.8627411
000270 f4 dc fe 3e 2c c9 d9 3f 96 c4 e1 bf c8 2f eb bf
       0.4977795 1.7014518 -1.7638118 -1.8373957
000280 c2 54 55 bf 96 72 b5 bf db 61 71 bf 4b 2e 33 3e
       -0.83332455 -1.4175594 -0.9428994 0.17498128
000290 b5 fe 4b 3f 85 3c fa 3e 57 9d e0 3f cb 47 a8 be
       0.7968553 0.48874298 1.7548016 -0.32867274
0002a0 de d3 1d bf 56 1c 24 be 86 68 bc 3e 35 e9 8e 3f
       -0.6165141 -0.16026434 0.36798495 1.1164919
0002b0 64 cf 01 bf c5 02 b9 bf 47 fe a0 bf 81 88 b4 bf
       -0.5070708 -1.445397 -1.2577599 -1.4104158
0002c0 1a 5c 7e bf 61 c6 bd 3e 85 f0 df bc 49 aa 63 3f
       -0.99359286 0.37065414 -0.027336368 0.8893171
0002d0 9a 6c 7a 3f 6c 5e 31 3f b4 af 33 3f 42 a3 8d 3f
       0.9782196 0.692847 0.70189977 1.1065447
0002e0 c3 97 d1 3e 42 f6 a1 bf e0 27 3d c0 c5 7d 4e bf
       0.40936098 -1.2653277 -2.9555588 -0.8066066
0002f0 1c 4e 63 bf 39 96 8f 3f 6d 5d 88 3e 1a 5d 87 3f
       -0.8879106 1.1217719 0.26633778 1.0575287
000300 27 6b 28 3f ac bb b6 bf 4a 05 c2 be c6 bf 51 3e
       0.657885 -1.4276023 -0.3789466 0.20483312
000310 3f d8 20 bf a3 8b e8 bf f2 5c 84 be a1 5f a8 bf
       -0.62829965 -1.8167614 -0.25852162 -1.3154184
000320 fc 4d 6f 3e 7a 75 15 bf a3 d8 0e bf ec a8 6f 3e
       0.23369592 -0.5838238 -0.5579931 0.23404282
000330 ae ca 4a bf b8 9b 08 3f e4 0c bd 3f a0 12 4b 3e
       -0.79215515 0.5336261 1.4769559 0.19831324
000340 bb 4e d8 bf d6 e4 bc be fb 3f 01 3e 27 6f 37 3f
       -1.6899027 -0.36893338 0.12622063 0.7165398
000350 7f dc c0 3f 2a 7b 95 3f ca 97 e6 3e f5 8b 11 3e
       1.506729 1.1678212 0.4503768 0.14213546
000360 b0 4b 78 bf de 18 0d bf f5 d0 6d be 59 cf 90 bf
       -0.9699049 -0.5511607 -0.23224242 -1.1313277
000370 d3 98 0b 3f de da 91 3d 4c 7d a1 3f ed d0 91 bf
       0.54530066 0.07121824 1.2616363 -1.1391884
000380 53 e5 88 bf 09 48 06 3f 81 0a 69 3f 8f 5d d3 be
       -1.0694984 0.52453667 0.9103165 -0.41282317
000390 12 c7 ba 3e 2e 9b 93 3f a0 e2 e6 bf f8 c6 35 3f
       0.36480004 1.1531732 -1.803791 0.7100673
0003a0 f2 73 70 3f 18 bd 90 bf fc fd 5d bf f0 cd f5 be
       0.9392692 -1.1307707 -0.86715674 -0.4800868
0003b0 50 de 81 3d 19 29 e2 bf 4d 5d 22 3f 06 86 de be
       0.06341231 -1.7668792 0.63423616 -0.43461627
0003c0 3d e1 a1 be cc 49 a1 3f 7e 9f 4f be 27 d8 5e 3f
       -0.31617156 1.2600646 -0.20275685 0.8704857
0003d0 a8 d1 9f bf d2 bc d3 bf ee a8 d2 3f 21 b5 70 3f
       -1.2485857 -1.6541998 1.6457803 0.9402638
0003e0 09 f2 88 3e fc eb 0c c0 68 90 bd 3e 47 a3 47 3f
       0.26747158 -2.2019033 0.37024236 0.77983516
0003f0 64 f1 84 3e b2 51 34 3f a2 07 83 bf f5 0f 86 3f
       0.25965416 0.7043716 -1.0236704 1.047362

bn2.weight f4 [300]
000000 0c 20 cc 3f 52 cf c3 3f 9f e5 ab 3f 09 ff c0 3f
       1.594728 1.5297644 1.342945 1.507783
000010 85 f1 fa 3f 3d 2a e4 3f 68 0c c7 3f 73 4d d1 3f
       1.9604956 1.782539 1.5550661 1.6351761
000020 c9 89 c1 3f b0 ff 44 3e 97 e5 bc 3f 72 47 6a 3e
       1.5120174 0.19238162 1.4757565 0.22878817
000030 35 92 b4 3f 9d af 9d 3e 5c 8c fc 3f 36 2d ae 3f
       1.4107119 0.30798045 1.9730334 1.3607547
000040 df 84 d9 3f 96 a6 2e 3e af bc a4 3f fa e4 d6 3f
       1.6993674 0.17055735 1.2870082 1.6788628
000050 e9 60 56 3e 7e 19 05 40 87 f8 b6 3f 74 09 11 40
       0.20935406 2.079681 1.4294595 2.266202
000060 e4 56 c5 3f da 66 e8 3f d8 6d d4 3f 35 42 c1 3f
       1.5417142 1.8156388 1.6596022 1.509833
000070 21 d4 bc 3f 6b 90 e7 3f 84 20 dd 3f 69 fe cb 3f
       1.4752237 1.8090948 1.7275548 1.5937015
000080 2e d3 b4 3f 13 81 7c 3e d2 ff 6a 3e 01 a1 c3 3f
       1.4126947 0.24658613 0.2294915 1.528351
000090 ac e8 81 3e 56 02 d9 3f f2 5d c2 3f 05 be bd 3f
       0.25372827 1.6953838 1.518492 1.4823614
0000a0 29 3b d4 3f f6 5f d6 3f 9a cf bd 3f 08 f6 0e 40
       1.6580554 1.6748035 1.482898 2.2337666
0000b0 02 36 ac 3f 02 7c 6e 3e 13 97 ac 3f 52 2b 6a 3e
       1.3453982 0.23289493 1.3483604 0.22868088
0000c0 68 35 b6 3f 03 03 a8 3f 07 b0 b8 3f 5e 7c e4 3e
       1.4235048 1.3125919 1.4428719 0.44626135
0000d0 18 db c6 3f f0 da e6 3f 71 cf de 3f 54 08 8d 3e
       1.5535612 1.8035564 1.7407056 0.27545416
0000e0 7a 23 cb 3f d9 eb cc 3f 21 43 bd 3f ed a3 cb 3f
       1.5870202 1.6009475 1.4786111 1.5909401
0000f0 7c d1 82 3e 3a 8f e8 3f 4a d2 e2 3f 3a 1d e6 3f
       0.2555045 1.8168709 1.7720425 1.7977669
000100 ba 81 ef 3e 43 2e 7c 3e 30 dc 4c 3e c6 ea aa 3f
       0.4677866 0.24627022 0.2000587 1.3352897
000110 64 5d b7 3f 0b c2 c8 3f f1 ec dd 3f 00 70 b0 3f
       1.4325376 1.5684217 1.7337934 1.378418
000120 4e 0c 80 3e b1 eb 58 3e d6 bc bb 3f 6d 00 96 3e
       0.25009388 0.21183659 1.4667003 0.292972
000130 29 d4 b2 3f 15 4b 1b 40 25 9b bd 3f 12 66 c7 3f
       1.3970996 2.4264576 1.4812971 1.5578024
000140 a7 2f b4 3f 30 48 c6 3f ec 33 e5 3f 9e 2e b4 3f
       1.4077042 1.549078 1.790647 1.4076726
000150 16 c5 2b 3e 41 16 c2 3f 13 12 0d 40 74 f5 d7 3f
       0.16774401 1.5163041 2.2042282 1.6871781
000160 e6 27 c1 3f 87 e7 df 3f a2 6a c2 3f 48 9f bf 3f
       1.5090301 1.7492532 1.5188792 1.4970484
000170 3f bd ab 3f 1a fb 6d 3e 7f 17 d5 3f ae f2 c3 3f
       1.3417128 0.23240319 1.6647795 1.5308435
000180 c8 96 c4 3f ff 09 bb 3f 88 4c cd 3f 85 41 ac 3f
       1.5358515 1.4612426 1.603898 1.3457495
000190 e6 66 a3 3f 1f 62 b6 3f 0e de bf 3f b8 f7 cf 3f
       1.2765777 1.4248694 1.4989641 1.6247473
0001a0 b2 8c d7 3f 63 c0 b6 3f 0e 58 73 3f cc 24 85 3e
       1.6839812 1.4277462 0.95056236 0.26004636
0001b0 37 3c 83 3f 9e 91 b2 3f 34 d8 ce 3f 08 bb 9e 3f
       1.0252751 1.3950689 1.615973 1.2400827
0001c0 3d db f5 3f f2 d4 bd 3f 10 f9 4f 3e 92 e4 61 3e
       1.9207531 1.4830611 0.20309854 0.22059849
0001d0 37 42 a6 3f db e5 7c 3e 8b 7b bd 3f 3c fe bf 3f
       1.2988957 0.24697058 1.4803327 1.4999461
0001e0 9c 01 cc 3f be d4 d0 3f 34 f8 cd 3f 62 f4 68 3e
       1.5937991 1.6314924 1.609137 0.22749475
0001f0 46 81 db 3f 9c bb 82 3e 82 6d 66 3e e6 a6 17 40
       1.7148826 0.2553376 0.22502711 2.3695617
000200 f7 c5 b1 3f dc f0 a7 3f f8 39 b0 3f eb ec bd 3f
       1.3888539 1.312038 1.3767691 1.4837927
000210 46 65 d9 3f f9 41 b7 3f 07 50 f4 3f a3 61 bd 3f
       1.6984031 1.4317008 1.9086922 1.4795421
000220 c7 c8 d4 3f be 9b e1 3f 16 01 a9 3f 1c 8d ed 3f
       1.6623772 1.7625654 1.3203456 1.8558688
000230 76 bb d1 3f 9d 22 bc 3f e0 48 44 3e 21 60 56 3e
       1.6385334 1.4698063 0.19168425 0.20935108
000240 9b d9 c2 3f 32 8f bc 3f ad bf c6 3f 45 b7 93 3e
       1.5222658 1.47312 1.5527245 0.2885076
000250 eb 77 05 40 85 f6 d9 3f bd 0e 17 40 75 ff b1 3f
       2.0854442 1.7028357 2.3602746 1.3906084
000260 c6 ed b0 3f fd 87 c6 3f 13 c8 e0 3f 86 0e c0 3f
       1.3822563 1.551025 1.7561058 1.5004432
000270 77 c5 c4 3f 74 4d e4 3f 8f 29 31 3e 5d 13 31 40
       1.5372761 1.7836137 0.1730101 2.7668068
000280 69 9f 56 3f f1 2a 5c 3e 2c 8b ba 3f de 48 bb 3f
       0.8383699 0.21500756 1.4573722 1.4631612
000290 12 33 cf 3f 5c bb c5 3f b8 bd bc 3f 24 3c 8e 3e
       1.618746 1.5447803 1.4745398 0.2778026
0002a0 9d 57 e4 3f de 51 c4 3f 90 4f cc 3f f0 21 dd 3f
       1.7839237 1.5337484 1.596178 1.7275982
0002b0 2e 54 80 3f d9 b2 5f 3e 04 11 84 3e 86 39 a9 3e
       1.002569 0.21845569 0.25794232 0.330517
0002c0 a5 9c 19 3e 41 e3 cb 3f 2a c7 cc 3f 99 67 a9 3f
       0.15001161 1.5928727 1.599828 1.323474
0002d0 4d 17 b7 3f 42 95 b6 3f 3e f1 95 3f 33 ea b9 3f
       1.4303986 1.42643 1.1714246 1.4524597
0002e0 26 84 d8 3f 5c 6b 86 3e dc 06 02 40 f8 45 48 3e
       1.6915329 0.26253784 2.0316687 0.19557941
0002f0 76 93 80 3e 00 30 ae 3f 78 81 d0 3f 6e 91 d2 3f
       0.25112504 1.3608398 1.6289511 1.6450632
000300 a6 3b cf 3f 3e 17 80 3e 85 e8 90 3e 88 71 c5 3f
       1.6190078 0.25017732 0.28302398 1.5425272
000310 e0 da 4d 3e 82 a7 6d 3e dc 79 b1 3f c5 91 93 3e
       0.20103025 0.2320843 1.3865314 0.2882215
000320 09 71 ba 3f b2 ad ba 3f b6 58 ce 3f 39 f0 b4 3f
       1.4565746 1.4584258 1.6120822 1.413581
000330 8e ee a5 3e 48 22 ba 3f cb 52 c8 3f 10 eb d4 3f
       0.32408565 1.4541712 1.5650266 1.6634235
000340 d4 c2 89 3e 2d 73 1f 3e 02 e3 d3 3f 6f a9 d0 3f
       0.26906455 0.1557128 1.6553652 1.6301707
000350 eb 7d b5 3f de 46 bd 3f 37 25 e5 3f d6 a8 ce 3f
       1.4179052 1.4787252 1.7901982 1.6145275
000360 36 00 fe 3f f4 1d 0a 40 c3 1a 79 3e 22 db 0c 40
       1.9843814 2.1580782 0.24326615 2.2008748
000370 73 d4 be 3f ac 35 c9 3f 02 fa d4 3f 11 c9 f5 3f
       1.4908584 1.5719504 1.6638796 1.9201986
000380 10 02 00 40 45 19 c6 3f fa a2 a0 3f 95 e8 dc 3f
       2.000126 1.5476462 1.2549736 1.7258478
000390 54 85 c3 3f a6 fe ba 3f 34 77 be 3f 4f f2 c7 3f
       1.5275064 1.4608963 1.4880128 1.5620822
0003a0 7d aa ba 3f e2 e8 6c 3e 35 25 90 3e 28 f4 4b 3e
       1.4583279 0.23135713 0.28153387 0.19917357
0003b0 1f a1 db 3f cd 9e 12 3e e9 10 bc 3f 98 98 db 3f
       1.7158545 0.1431839 1.469266 1.7155943
0003c0 2e d0 a5 3f de 3d bd 3f 7f 28 b3 3f fe 0a c0 3f
       1.2954156 1.4784505 1.3996733 1.5003355
0003d0 8c 3f 0c 40 be 23 80 3e de 93 d2 3f 51 c5 bb 3f
       2.1913786 0.2502727 1.6451375 1.4669591
0003e0 92 b6 b9 3f c4 c6 86 3e b0 51 df 3f b2 51 f6 3f
       1.4508841 0.2632352 1.7446804 1.9243681
0003f0 34 68 d2 3f 33 07 e3 3f 2a 2e 6c 3e 11 e4 b9 3f
       1.643805 1.7736572 0.23064485 1.4522725
