weights/model_actor_target_60.pt (torch, 429959 bytes, 10 tensors)

l1.weight f4 [300, 42]
0	0x3f2ceda7	0.6755013
1	0xbee9f31d	-0.45693293
2	0x3f3504e0	0.70710564
3	0xbf3d3861	-0.7391415
4	0x3ecde644	0.4021474
5	0x3e3bc5b2	0.18337134
6	0xbfa9e6d1	-1.3273565
7	0xbf54709b	-0.8298432
8	0xbf71c614	-0.9444287
9	0x3e3af7bb	0.18258564
10	0x3ecc7813	0.3993536
11	0xbe812020	-0.25219822
12	0x3f006f1d	0.50169545
13	0xbf3cf39d	-0.73809224
14	0xbff45da0	-1.9091072
15	0x3ef3877c	0.47564304
16	0x3eb98bd8	0.36239505
17	0x3ec38f00	0.38195038
18	0x406bfda6	3.6873565
19	0x3fcc13c7	1.5943536
20	0x3e9d1ac4	0.30684483
21	0xbdbb6a83	-0.09151175
22	0xbfb8bd89	-1.4432842
23	0x3f10d54a	0.56575453
24	0x3f19e158	0.6010947
25	0x3ea9370e	0.33049816
26	0x3efcd41d	0.4938058
27	0x3f4ab9db	0.7918984
28	0x3fef06fc	1.8674006
29	0xbfa83ad3	-1.3142952
30	0x3a337067	0.00068450574
31	0xbee067b9	-0.43829134
32	0x3fc4f3a2	1.5386851
33	0xbf690284	-0.91019464
34	0x3ed79aea	0.42110378
35	0xc0aaa38a	-5.3324633
36	0xc067b04a	-3.6201348
37	0x3f423be2	0.75872624
38	0xbe675abe	-0.22593209
39	0xbe6d8fe1	-0.23199417
40	0xbf871227	-1.0552415
41	0x3fb440e2	1.4082301
42	0x3f08b7ad	0.53405267
43	0x3f354191	0.7080317
44	0x3e81b4ed	0.25333348
45	0x3e3208b6	0.17386135
46	0x3d9fd243	0.07803776
47	0x3f845863	1.0339473
48	0xbe19af51	-0.15008284
49	0x3dfdef9e	0.12399219
50	0xbea671d1	-0.3250871
51	0x3e55a6fa	0.20864478
52	0x3ec7e7a5	0.39043918
53	0xc011f189	-2.2803671
54	0x3e25dd7e	0.16197774
55	0xbed63112	-0.41834313
56	0x3f8faed0	1.1225224
57	0xbfb21d08	-1.391511
58	0xbf926823	-1.143803
59	0xc009cabc	-2.152999
60	0xbfa2c357	-1.2715863
61	0x3f3b9533	0.73274535
62	0x3dce3fb4	0.10070744
63	0xbfc7b0ea	-1.5600865
64	0xc006a7bf	-2.1039884
65	0x3ea7b108	0.32752252
66	0x3f38ad04	0.72139
67	0x40010782	2.0160832
68	0x3fb8d4cc	1.443994
69	0x405879b6	3.3824286
70	0xbf3c8abc	-0.7364919
71	0xbf2a699d	-0.66567403
72	0x3e8d59df	0.2760763
73	0xbd966d2c	-0.07345042
74	0xbffbcc24	-1.9671674
75	0xbfd3ee1c	-1.655704
76	0x3f059338	0.52177763
77	0xbff92be5	-1.946652
78	0xbfbd12d3	-1.477137
79	0xbf2fcef5	-0.68675166
80	0xbf917ee4	-1.1366849
81	0xbf52f35c	-0.82402587
82	0xbfabd94e	-1.3425691
83	0xbfa18aaa	-1.2620442
84	0x3eb7c3c0	0.35891533
85	0xbbe91b5b	-0.0071138567
86	0x3e4e58ce	0.20151064
87	0xbfa8b66a	-1.3180668
88	0x3efc1fa6	0.49242896
89	0xbe538ec4	-0.2065993
90	0x3f808571	1.0040723
91	0xbf5c60cc	-0.860852
92	0xbf59ada4	-0.8503058
93	0x3f34f128	0.70680475
94	0x3f4847ff	0.7823486
95	0xbf61de42	-0.88229764
96	0x3f2ba638	0.67050505
97	0xbf01610a	-0.50538695
98	0xbde51ce0	-0.11187148
99	0x3f84b35d	1.0367237
100	0x3fb9f4d2	1.4527838
101	0x3f4bedae	0.79659545
102	0xbff2a00f	-1.8955096
103	0x3f3e8140	0.7441597
104	0xbfb9c0c2	-1.451195
105	0xbf106ea0	-0.564188
106	0xbe9e11b9	-0.30872896
107	0x3f4c3ac2	0.7977716
108	0x3f510867	0.81653446
109	0xbde8ee7b	-0.113736115
110	0xbebb0870	-0.36529875
111	0x3f61502e	0.8801297
112	0xbd501d04	-0.05080892
113	0x3f67445b	0.9033868
114	0x3e8f83ed	0.2803034
115	0x3dbcc800	0.092178345
116	0x40948375	4.641047
117	0xbf0dd05f	-0.55396074
118	0x3f2457b7	0.6419634
119	0x3f0c170d	0.5472267
120	0xbf3fda10	-0.7494211
121	0xbf565f1f	-0.83738893
122	0xc00c353e	-2.1907496
123	0xbfcf72ec	-1.6206946
124	0xbe7929d8	-0.24332368
125	0x3fc5cc86	1.5453041
126	0x3f0fb4be	0.56135166
127	0x3ececd46	0.40390986
128	0x3ec2180e	0.37908977
129	0x3de6abac	0.112632126
130	0x3eef934f	0.46792075
131	0xbde34491	-0.110970624
132	0xbf2d7e28	-0.67770624
133	0xbfd635ca	-1.6735165
134	0xbf1f28a0	-0.62171364
135	0x3fbfe953	1.499308
136	0x3ebdfe25	0.3710796
137	0xbfadb10a	-1.3569653
138	0x3f3c8c22	0.73651326
139	0xbf755f91	-0.9584895
140	0x3ffea485	1.9893957
141	0xbfbfa35a	-1.4971726
142	0xbe8d7301	-0.27626804
143	0x3fdc2767	1.7199525
144	0xbed4e6d0	-0.41582346
145	0xbf53e8bf	-0.8277702
146	0x400ae360	2.1701279
147	0x3f0eeb07	0.55827373
148	0xc00135cc	-2.0189085
149	0x3ed5ec56	0.41781873
150	0x3f538747	0.8262829
151	0x3eebe969	0.46076515
152	0xbfb9a84e	-1.4504488
153	0x3f90dc6b	1.1317266
154	0x3e0ef53f	0.13960741
155	0x3ecaac87	0.39584753
156	0xbe117d8c	-0.14208049
157	0xbf1e962b	-0.6194789
158	0xbf075c3a	-0.528751
159	0x409cf086	4.904361
160	0x3ef23917	0.4730918
161	0x3faa4c93	1.3304619
162	0x3f78fecd	0.97263795
163	0x3fa62064	1.2978635
164	0xbf2c1110	-0.67213535
165	0x3f2ccaad	0.6749676
166	0xc0641df4	-3.5643282
167	0xbe168e2c	-0.14702672
168	0x3f1a2dc4	0.6022608
169	0x3ea0def9	0.31420115
170	0x3f0e9240	0.5569191
171	0x3ddcf2cd	0.10788498
172	0x3e9e76d0	0.30950022
173	0x3f2a181a	0.66443026
174	0x3d9e513a	0.077303365
175	0xbe76d4fb	-0.24104683
176	0xbf117b8f	-0.5682916
177	0xbf3dedf1	-0.74191195
178	0x3f10c0ad	0.56544
179	0x3f14b31e	0.5808581
180	0x3eef0219	0.46681288
181	0xbed5be39	-0.4174669
182	0xc012a882	-2.291535
183	0x402064e0	2.506157
184	0xc004eae2	-2.076836
185	0x4026c1d8	2.6055813
186	0x4092b800	4.584961
187	0x3f7d42e9	0.9893022
188	0x4092c6fa	4.586789
189	0x3f8bbc72	1.0916884
190	0xbe9fad66	-0.3118698
191	0x3f051383	0.519829
192	0x3f1f0c50	0.6212816
193	0xbf601f47	-0.87547725
194	0x3f09713a	0.53688395
195	0xbe065f0c	-0.13122195
196	0x3fc5ed38	1.5463018
197	0xc01ade7e	-2.4198298
198	0xbf0fe6d7	-0.5621161
199	0xbf24e696	-0.64414346
200	0xc0a0faa2	-5.030595
201	0x408af6fd	4.34265
202	0x3edfd15d	0.4371442
203	0x402508b2	2.5786557
204	0x3ff4d175	1.9126421
205	0x3f6c7f88	0.923821
206	0xbe7e0767	-0.24807511
207	0x40213647	2.5189378
208	0xbfc92a0f	-1.571596
209	0x3edbe97e	0.42951578
210	0x3ec5d13f	0.38636205
211	0x3eaff79f	0.34368607
212	0x3f70acbe	0.94013584
213	0xbef63f5d	-0.48095217
214	0x3ea0a83f	0.31378362
215	0x3f1f31d9	0.62185436
216	0x3e9185cf	0.284224
217	0x3dabfe0a	0.083980635
218	0xbec462b4	-0.38356555
219	0x3e4dd99e	0.20102546
220	0x3eb34ffc	0.3502196
221	0xbf1774f7	-0.5916285
222	0x3c669184	0.01407278
223	0x3edf9fe2	0.43676668
224	0xc03ac6c0	-2.9183807
225	0x3e8546ea	0.26030666
226	0xbfb25a01	-1.3933717
227	0x3fd37faf	1.6523341
228	0x406b05e9	3.6722357
229	0xbe141212	-0.14460018
230	0x405fb81c	3.4956121
231	0xbf8f3168	-1.1186953
232	0x3f981070	1.1880016
233	0x3ef93a05	0.48677078
234	0x3eaf5a74	0.34248698
235	0xbf301dd7	-0.6879553
236	0x3d44c7fe	0.04804229
237	0x3f4a5a8b	0.7904441
238	0x3fee45df	1.8615073
239	0xbfee2a7e	-1.8606718
240	0xbf459e95	-0.771951
241	0xbd348ce9	-0.044079695
242	0x401256fa	2.2865586
243	0x3f312e8f	0.6921167
244	0x3f272d41	0.65303427
245	0xbe09ff60	-0.13476324
246	0xc036131d	-2.8449166
247	0xbd5fc2c6	-0.05462911
248	0xbf6da600	-0.9283142
249	0xbfb6d5db	-1.4284014
250	0x3f7d6646	0.9898418
251	0x3dd89d0d	0.1057683
252	0x3eb886da	0.36040384
253	0x3f21c8fe	0.63197315
254	0x3f0e2ba5	0.55535346
255	0x3f8970bd	1.073753

l1.bias f4 [300]
0	0x3f18ff9b	0.59765023
1	0x3ef64282	0.48097616
2	0x3f22605d	0.6342829
3	0x3f1d48dd	0.61439306
4	0x3f048087	0.5175862
5	0x3ef133d9	0.4710987
6	0x3f043dc4	0.51656747
7	0x3f03d876	0.5150217
8	0x3f2628c7	0.6490597
9	0x3eb032e7	0.34413835
10	0x3f2042d7	0.6260199
11	0x3f43d335	0.7649415
12	0x3ecff551	0.4061685
13	0x3eea92cb	0.4581512
14	0x3ebcc34e	0.36867756
15	0x3f07f48b	0.5310752
16	0x3ed80f70	0.42199278
17	0x3ecd4c31	0.40097192
18	0x3f0d7f70	0.5527258
19	0x3ecc4dd4	0.39903128
20	0x3ebfecad	0.37485257
21	0x3f6170d2	0.88062775
22	0x3f244110	0.6416178
23	0x3f052e3c	0.52023673
24	0x3f08156f	0.53157705
25	0x3f2ed7d6	0.6829809
26	0x3efa80d8	0.48926425
27	0x3f0fec2a	0.5621973
28	0x3ec7ed6f	0.39048335
29	0x3eaee686	0.3416025
30	0x3eafe69a	0.34355623
31	0x3ef3d11a	0.4762047
32	0x3f21d145	0.63209945
33	0x3f07a8d3	0.5299198
34	0x3f1850c7	0.59498256
35	0x3eb521f9	0.35377482
36	0x3f260fc2	0.64867795
37	0x3ed1d550	0.40983057
38	0x3f033cac	0.5126445
39	0x3ec5f8be	0.38666338
40	0x3f1cc2d4	0.61234784
41	0x3f0f9616	0.5608839
42	0x3eea681d	0.45782557
43	0x3eaa5098	0.33264613
44	0x3f046a3a	0.5172459
45	0x3eeebe36	0.46629494
46	0x3f08e98f	0.5348138
47	0x3ed656fe	0.41863245
48	0x3ecf1c15	0.40451112
49	0x3ef326fb	0.47490677
50	0x3ecc4065	0.3989288
51	0x3eb8cf58	0.3609569
52	0x3ea2f9b3	0.3183113
53	0x3f122b3e	0.5709723
54	0x3f3983ec	0.7246692
55	0x3f0f896e	0.56069076
56	0x3e82fba5	0.25582615
57	0x3f0fca2e	0.56167877
58	0x3ec968a9	0.39337662
59	0x3ed08d00	0.40732574
60	0x3f661b4e	0.89885414
61	0x3f017c85	0.50580627
62	0x3f0c1e95	0.54734164
63	0x3ecbef8d	0.398312
64	0x3eb9994f	0.36249778
65	0x3e946c14	0.28988707
66	0x3f43d246	0.76492727
67	0x3ec82522	0.3909083
68	0x3ea55ebb	0.32298836
69	0x3ee5f80b	0.44915804
70	0x3f1d0cf4	0.6134789
71	0x3eed0257	0.46290848
72	0x3edad30e	0.42739147
73	0x3f06d9cd	0.5267609
74	0x3f3911ea	0.7229296
75	0x3e935b06	0.28780383
76	0x3f0d01f5	0.5508111
77	0x3ecd62f5	0.4011456
78	0x3f21a107	0.63136333
79	0x3f0c9e6b	0.54929227
80	0x3ee0b3f0	0.4388728
81	0x3f11a64e	0.56894386
82	0x3ebaddc7	0.36497328
83	0x3eb80c70	0.3594699
84	0x3f0476c3	0.51743716
85	0x3ef23741	0.4730778
86	0x3efbd628	0.49186826
87	0x3ec75c66	0.38937682
88	0x3f35fc73	0.7108833
89	0x3f2e2e62	0.68039525
90	0x3ef1ab5a	0.47201043
91	0x3eacdf88	0.3376429
92	0x3f288713	0.65831107
93	0x3faf2a26	1.3684738
94	0x3eca7a6a	0.3954652
95	0x3edf1392	0.43569618
96	0x3f351b75	0.7074502
97	0x3e69a339	0.22816171
98	0x3eae80b3	0.34082565
99	0x3f16f1c9	0.58962685
100	0x3f3e467a	0.7432629
101	0x3ecd6e89	0.40123394
102	0x3ef0e170	0.47046995
103	0x3f0a1232	0.53934014
104	0x3e526086	0.20544633
105	0x3ed1076c	0.40825975
106	0x3ef41fb5	0.4768044
107	0x3f3412c1	0.70341116
108	0x3f106e8a	0.5641867
109	0x3f11f555	0.5701497
110	0x3f101cb3	0.5629379
111	0x3f189c57	0.59613556
112	0x3f21b420	0.63165474
113	0x3eb46913	0.35236415
114	0x3f0a059e	0.5391482
115	0x3f261781	0.64879614
116	0x3f0f8eab	0.5607707
117	0x3f002d2d	0.5006893
118	0x3eb54711	0.35405782
119	0x3f260390	0.64849186
120	0x3eddefe0	0.43347073
121	0x3f2a83bc	0.6660726
122	0x3f0cbde0	0.54977226
123	0x3eaab840	0.33343697
124	0x3ec022ea	0.37526637
125	0x3ecfd0ce	0.40588993
126	0x3f0da36b	0.5532748
127	0x3eceefca	0.4041732
128	0x3f32903c	0.69751334
129	0x3eedba45	0.46431175
130	0x3f38440d	0.7197884
131	0x3e7a30c7	0.2443267
132	0x3f54431e	0.8291491
133	0x3f288f51	0.65843683
134	0x3e4187ce	0.18899462
135	0x3ecfac5c	0.40561187
136	0x3f136c15	0.57586795
137	0x3ec89a39	0.39180163
138	0x3f104491	0.56354624
139	0x3f0d53cd	0.55205995
140	0x3ee78b13	0.45223293
141	0x3ede2746	0.43389338
142	0x3f3469b9	0.7047382
143	0x3f207031	0.6267119
144	0x3f45ca52	0.7726184
145	0x3ee2476c	0.44195116
146	0x3f0b9bff	0.54534906
147	0x3eca251c	0.39481437
148	0x3eadcfe5	0.33947673
149	0x3f06a908	0.5260167
150	0x3e97d76e	0.29656547
151	0x3e9fd92e	0.31220382
152	0x3f280062	0.65625584
153	0x3e9cfd84	0.30662167
154	0x3f04e035	0.5190461
155	0x3e83f957	0.2577617
156	0x3ed9fc98	0.42575526
157	0x3ec9b1df	0.39393517
158	0x3eead81d	0.45868006
159	0x3ea23966	0.31684417
160	0x3ed091e1	0.40736297
161	0x3f3b0b1d	0.7306383
162	0x3e8919fb	0.26777634
163	0x3edfe0c3	0.43726167
164	0x3eaa7b6e	0.33297294
165	0x3ed81341	0.4220219
166	0x3efe0a76	0.49617356
167	0x3e404f3e	0.18780228
168	0x3ee18882	0.4404946
169	0x3f0aaccb	0.5416991
170	0x3f01059c	0.50399184
171	0x3f133caa	0.5751444
172	0x3edde480	0.43338394
173	0x3ec5424f	0.38527152
174	0x3ef3f5c6	0.47648448
175	0x3fc0fa26	1.5076339
176	0x3ef67c54	0.4814173
177	0x3f34f791	0.70690256
178	0x3f008975	0.5020974
179	0x3ee7aa3b	0.45247063
180	0x3eb17c86	0.34665316
181	0x3e81b14b	0.25330576
182	0x3ef8d08f	0.48596618
183	0x3f092846	0.5357708
184	0x3ec9e54f	0.3943276
185	0x3ef22efd	0.47301474
186	0x3f234008	0.6376958
187	0x3ec73c28	0.38913083
188	0x3ec36c99	0.3816879
189	0x3f07acc0	0.5299797
190	0x3edd1e8b	0.43187365
191	0x3ec425e5	0.3831016
192	0x3e978471	0.29593232
193	0x3e922150	0.2854104
194	0x3ee9c358	0.45656848
195	0x3f0ca9b5	0.5494645
196	0x3ebbf3cb	0.36709437
197	0x3f05caab	0.5226237
198	0x3f17c4ec	0.59284854
199	0x3e999fc9	0.3000472
200	0x3ea21d1f	0.31662843
201	0x3ee90823	0.4551402
202	0x3fbf91ef	1.496641
203	0x3f035481	0.5130082
204	0x3f11efa5	0.57006294
205	0x3ed46882	0.41485983
206	0x3eab5bcf	0.33468482
207	0x3eaf61ae	0.3425421
208	0x3f0910f2	0.5354148
209	0x3ed84161	0.4223738
210	0x3ecbef20	0.39830875
211	0x3f04b5c8	0.51839876
212	0x3ecd8105	0.40137497
213	0x3f15f794	0.585809
214	0x3ef34cfe	0.47519678
215	0x3e9a1c73	0.3009983
216	0x3f056dfb	0.5212094
217	0x3ebceb56	0.36898297
218	0x3ed63d1b	0.41843495
219	0x3f147d48	0.58003664
220	0x3f2b3ae4	0.66886735
221	0x3faf6d2a	1.3705189
222	0x3ee1c1eb	0.4409326
223	0x3ee3a0c1	0.44458583
224	0x3eea70f0	0.4578929
225	0x3e983904	0.29731
226	0x3e94c034	0.2905289
227	0x3ee9de8b	0.456776
228	0x3ef82cab	0.4847158
229	0x3f363230	0.7117033
230	0x3e94a64f	0.29033133
231	0x3ec0ae59	0.37633017
232	0x3f0d81ad	0.55275995
233	0x3eb8ff1a	0.36132127
234	0x3ee740d0	0.45166636
235	0x3e8af2fe	0.27138513
236	0x3ef52fb6	0.47887963
237	0x3f6ec729	0.93272644
238	0x3ec72d58	0.38901782
239	0x3ea30a22	0.31843668
240	0x3f1516ce	0.5823792
241	0x3e7d0bb5	0.24711497
242	0x3f362ad6	0.7115911
243	0x3f0780f4	0.5293114
244	0x3f3ab9de	0.7293986
245	0x3ef32c47	0.47494718
246	0x3f17bafa	0.5926968
247	0x3f0bf1a0	0.54665565
248	0x3ebf1c0a	0.3732608
249	0x3eb9614f	0.36207053
250	0x3ef16e7f	0.47154614
251	0x3f1a06a5	0.6016639
252	0x3edccec3	0.43126497
253	0x3f08b888	0.5340657
254	0x3ef65aa1	0.4811602
255	0x3e5dd171	0.21661927

bn1.weight f4 [300]
0	0x3fab9c4c	1.3407073
1	0x40323e4b	2.785052
2	0x3fc94364	1.5723691
3	0x3f701bcd	0.9379242
4	0x3f9e8081	1.2382966
5	0x402efccd	2.7341797
6	0x3fc2e4c7	1.5226067
7	0x3f805102	1.0024722
8	0x407d8660	3.9613266
9	0x3febedd9	1.843196
10	0x40a14c6f	5.0405803
11	0x3f95a2b2	1.1690276
12	0x3fc6bdad	1.5526634
13	0x3fd2cbb3	1.6468414
14	0x3fb25673	1.3932632
15	0x3fe8db29	1.8191882
16	0x3fb4f6fa	1.4137871
17	0x4001215e	2.0176616
18	0x3fdf0841	1.7424394
19	0x4019c319	2.4025328
20	0x3f543219	0.8288894
21	0x406b8329	3.6798804
22	0x3fe3a7ec	1.7785621
23	0x3f926ae8	1.1438875
24	0x401b1fa9	2.4238074
25	0x3f2c6ff6	0.6735834
26	0x400cc8e5	2.1997616
27	0x3f887060	1.0659294
28	0x3f912d54	1.1341958
29	0x3fb7aee6	1.435025
30	0x3f94e71f	1.1633033
31	0x3fbaacb5	1.4583956
32	0x3fafaf77	1.3725423
33	0x400b4d66	2.176599
34	0x402d50be	2.708053
35	0x3fd9f5d3	1.7028145
36	0x4020f6ea	2.5150704
37	0x40010555	2.0159504
38	0x3fbedb26	1.4910629
39	0x3fdd2488	1.7276773
40	0x3fbc0bc3	1.4691089
41	0x402eaaf4	2.7291842
42	0x4016169d	2.3451302
43	0x3f9810c3	1.1880115
44	0x3fd309e5	1.6487395
45	0x3f9fbfdc	1.2480426
46	0x3fcae5e9	1.5851413
47	0x400c58eb	2.1929271
48	0x40082ae5	2.127618
49	0x3fad31a0	1.3530769
50	0x3f8b956a	1.0904973
51	0x400847b1	2.1293757
52	0x3fd0e662	1.6320307
53	0x405eded9	3.4823515
54	0x40036d9f	2.0535657
55	0x3f3579c8	0.7088895
56	0x40449598	3.0716305
57	0x40200d40	2.5008087
58	0x3fcd4497	1.6036557
59	0x3f5c9943	0.8617136
60	0x3f318e7e	0.6935805
61	0x3fd2c7b2	1.6467192
62	0x401fc0b6	2.4961371
63	0x3feb08a3	1.8362011
64	0x40828684	4.0789204
65	0x40370593	2.8597152
66	0x40579c24	3.368905
67	0x3f6a87f4	0.916137
68	0x4007d9dc	2.122672
69	0x3fd95046	1.6977623
70	0x3fef868d	1.8712937
71	0x400326bc	2.0492392
72	0x403873a3	2.882058
73	0x3fb0c714	1.3810754
74	0x3fe8639c	1.8155398
75	0x3f970c13	1.180056
76	0x3fd5745b	1.6676134
77	0x3ffe2453	1.9854835
78	0x3ffe2932	1.9856322
79	0x3fb4cb39	1.4124519
80	0x3fbe511a	1.48685
81	0x3fa6da93	1.3035454
82	0x401ea3c9	2.4787467
83	0x403eb0b8	2.979536
84	0x4001e1c6	2.029405
85	0x3fd30b9b	1.6487917
86	0x40199d60	2.4002304
87	0x3fdce1b3	1.7256378
88	0x3f8a5143	1.0806049
89	0x4009e990	2.1548805
90	0x40664658	3.5980434
91	0x402987d2	2.6489148
92	0x3f18fbd2	0.5975925
93	0x3e11afbd	0.14227195
94	0x402d3a4e	2.7066836
95	0x40002c88	2.002718
96	0x3f8671f2	1.0503523
97	0x3fdeb637	1.7399358
98	0x4020f902	2.5151982
99	0x4018587f	2.3804014
100	0x3fbace82	1.4594271
101	0x3fe55adf	1.7918357
102	0x4002b98f	2.0425756
103	0x4011305f	2.2685773
104	0x3fd20a26	1.6409347
105	0x3fc59990	1.5437489
106	0x3ff89191	1.9419423
107	0x4022cf2c	2.5438948
108	0x40660288	3.5939045
109	0x3fcefb12	1.617037
110	0x3ffa297a	1.9543908
111	0x3fae0b68	1.3597231
112	0x3f9069dd	1.1282307
113	0x3ff13da2	1.8846934
114	0x3ff9a938	1.9504766
115	0x3f96c14b	1.1777738
116	0x3fbf13e3	1.4927944
117	0x3fcb4b4f	1.5882357
118	0x400e6bb7	2.2253244
119	0x4051d5a4	3.2786646
120	0x3fcc57a4	1.5964246
121	0x405079ca	3.2574334
122	0x4005c55e	2.0901713
123	0x400f88ba	2.2427201
124	0x40254744	2.5824747
125	0x3f9b9eaa	1.2157795
126	0x40208579	2.5081465
127	0x3fe87570	1.8160839
128	0x4024ec77	2.5769327
129	0x3f50e606	0.8160099
130	0x4014bd22	2.3240438
131	0x3fcf1ca1	1.6180612
132	0x3f5139f9	0.81729084
133	0x4014ade3	2.3231132
134	0x3f8cc4f9	1.0997611
135	0x401167bc	2.2719564
136	0x403920ac	2.8926191
137	0x400f53a2	2.2394795
138	0x40035f81	2.052704
139	0x3f88b853	1.0681251
140	0x400074a8	2.0071201
141	0x3fb310a0	1.3989449
142	0x3fb7d5c5	1.4362112
143	0x3f575dc4	0.8412745
144	0x40188f6d	2.383754
145	0x3fb69fff	1.4267577
146	0x402aeb7e	2.6706233
147	0x4013fcab	2.3122966
148	0x3fa9c135	1.3262087
149	0x3fdc5c42	1.7215655
150	0x3fcc61c7	1.5967339
151	0x40176cd4	2.3660173
152	0x40071f53	2.1112869
153	0x3fc8e2ec	1.5694251
154	0x3fe17a53	1.7615455
155	0x3fd10c6c	1.6331916
156	0x3fb4ab20	1.4114723
157	0x3fb28b32	1.3948729
158	0x3fe384ed	1.7774941
159	0x3f9ac7f9	1.2092277
160	0x3fa3ca93	1.2796196
161	0x3fe28d01	1.7699281
162	0x3fadf37c	1.358993
163	0x3fc99b19	1.5750457
164	0x3fe4fc7c	1.7889552
165	0x3fc47f11	1.5351278
166	0x3fc92044	1.5712972
167	0x4026c4ea	2.6057687
168	0x3fadcf87	1.3578957
169	0x3fbe355a	1.4860032
170	0x3fde98a2	1.739033
171	0x3ff6b98b	1.9275373
172	0x3fd15e15	1.6356837
173	0x3f9d4bfc	1.2288814
174	0x3f62a553	0.88533515
175	0x3e150735	0.1455353
176	0x3fe50e9c	1.7895083
177	0x40086ac2	2.131516
178	0x400c4412	2.1916547
179	0x400105e9	2.0159857
180	0x3f938ee0	1.1527977
181	0x4000dc6e	2.013454
182	0x3feae15b	1.8350023
183	0x3f8ccd62	1.1000178
184	0x3fd0d15f	1.6313895
185	0x4026e26d	2.60757
186	0x3f965658	1.17451
187	0x3f9b9e3f	1.2157668
188	0x3fb4ccae	1.4124963
189	0x401f9a30	2.4937859
190	0x40047f03	2.0702522
191	0x3f9f32be	1.243736
192	0x400ee5a4	2.2327662
193	0x40032adf	2.0494916
194	0x4003e4a4	2.06083
195	0x40019410	2.024662
196	0x3ffa9f60	1.9579887
197	0x3ff41dfd	1.9071652
198	0x3f9cf3b5	1.2261873
199	0x3ff8471c	1.9396701
200	0x3fe57ca5	1.7928663
201	0x4045b730	3.0893059
202	0x3dd0b621	0.10190988
203	0x3fcde9d7	1.6086987
204	0x40279b8f	2.6188695
205	0x3fb4d9ac	1.4128928
206	0x3fcd3434	1.6031556
207	0x40397804	2.8979502
208	0x403f9c61	2.9939196
209	0x401bb03d	2.4326317
210	0x4060bee3	3.5116508
211	0x3f6a9084	0.91626763
212	0x4016cb00	2.3561401
213	0x3fd3f69c	1.6559634
214	0x3f7b78c2	0.98231137
215	0x4004a87b	2.0727832
216	0x3f71dc45	0.9447673
217	0x3ff07810	1.878664
218	0x3fe3305b	1.7749132
219	0x40026d0e	2.0379062
220	0x3fc78b31	1.5589353
221	0x3df67d3b	0.120356046
222	0x3fc87f2e	1.5663812
223	0x3f50ec3d	0.8161047
224	0x3fd549c5	1.6663138
225	0x401c22b7	2.4396188
226	0x401add97	2.4197748
227	0x3fdc0a7d	1.7190701
228	0x4015f464	2.3430414
229	0x4001640c	2.0217314
230	0x40011ba2	2.0173116
231	0x40024b8d	2.0358613
232	0x3fe6a805	1.8020025
233	0x3fc309f9	1.5237418
234	0x3fc9e20c	1.5772109
235	0x404666a5	3.100015
236	0x3ff88025	1.9414107
237	0x4017bd8a	2.3709435
238	0x40246f0b	2.5692775
239	0x3fc1806a	1.5117314
240	0x3f8c12e4	1.0943265
241	0x400f6e5b	2.2411106
242	0x4026d057	2.606466
243	0x403cf18f	2.9522436
244	0x4039bff1	2.9023402
245	0x400ea367	2.2287233
246	0x3f5d8397	0.86528915
247	0x3ff864ad	1.9405724
248	0x3f8f3942	1.1189349
249	0x3fe2007d	1.7656399
250	0x3ff10d24	1.8832135
251	0x3ffbe2e0	1.9678612
252	0x3ff544e3	1.9161648
253	0x3fa2af94	1.2709832
254	0x3fa3937c	1.2779384
255	0x3fb69718	1.426486

bn1.bias f4 [300]
0	0xbf38749c	-0.7205293
1	0xbf44261b	-0.76620644
2	0xbf50bef2	-0.8154136
3	0xbf55774d	-0.83385164
4	0xbf5ca7f9	-0.86193806
5	0xbdedbfab	-0.116088234
6	0xbf2cffb9	-0.675777
7	0xbf969d1d	-1.1766697
8	0x3e41f34b	0.18940465
9	0xbdac7658	-0.0842101
10	0x3edeb358	0.43496203
11	0xbf170ba0	-0.59002113
12	0xbf9e7db7	-1.2382115
13	0xbf2bb91e	-0.6707934
14	0xbf208db7	-0.6271624
15	0xbf20a491	-0.6275111
16	0xbb179952	-0.0023132158
17	0xbf32d2ca	-0.6985289
18	0xbedbef6a	-0.42956096
19	0xbe9e9dca	-0.30979759
20	0xbed2e5ba	-0.41190892
21	0x3ebb3392	0.36562783
22	0xbf2b9c4a	-0.67035353
23	0xbf11b7e8	-0.56921244
24	0xbde7c16f	-0.113161914
25	0xbfbb0b47	-1.4612817
26	0xbf29eb62	-0.6637479
27	0xbf5b8a0e	-0.8575753
28	0xbf8aebe3	-1.0853237
29	0xbefa3601	-0.48869327
30	0xbf5cf56e	-0.86311996
31	0xbf07ce0b	-0.5304877
32	0xbf95e69d	-1.1711003
33	0x3d71bc29	0.059017334
34	0xbe9094b3	-0.28238449
35	0xbf21475b	-0.62999505
36	0xbe3fa423	-0.18714957
37	0xbf411aa3	-0.7543127
38	0xbe51404a	-0.2043468
39	0xbeb01234	-0.34388888
40	0xbf4f596d	-0.8099583
41	0xbeeb0017	-0.45898506
42	0xbec097ab	-0.37615713
43	0xbf9410c1	-1.1567613
44	0xbe477d0e	-0.19481298
45	0xbf273800	-0.65319824
46	0xbee9e897	-0.45685264
47	0xbe5c2d7d	-0.21501727
48	0x3e182c43	0.14860635
49	0xbf4b2e07	-0.7936711
50	0xbf73756d	-0.9510105
51	0xbf08550a	-0.5325476
52	0xbf4a6214	-0.79055905
53	0x3e0614bb	0.13093846
54	0xbe8ec237	-0.2788255
55	0xbf3bd62c	-0.73373675
56	0xbebbab9e	-0.3665437
57	0xbe7afcd2	-0.24510506
58	0xbf6a8378	-0.91606855
59	0xbf7f9e0d	-0.9985054
60	0xbf8c24a5	-1.0948683
61	0xbef7a9ab	-0.48371634
62	0xbe9bf3bb	-0.3045939
63	0xbead2b48	-0.33822083
64	0x3e91431a	0.28371507
65	0xbf095c69	-0.5365663
66	0xbe1c5d9a	-0.15270081
67	0xbf388bb4	-0.7208817
68	0xbed5e338	-0.41774917
69	0xbe39b009	-0.18133558
70	0xbf600451	-0.87506586
71	0xbf08b628	-0.5340295
72	0xbe46e21d	-0.19422193
73	0xbf3e69a2	-0.7437993
74	0xbf106d6b	-0.5641696
75	0xbf44f336	-0.7693361
76	0xbf79493c	-0.9737737
77	0xbf2289a4	-0.6349127
78	0xbeb128d3	-0.3460146
79	0xbe97df2e	-0.2966246
80	0xbe85a2ff	-0.2610092
81	0xbf4a2598	-0.78963614
82	0xbeec190d	-0.46112862
83	0xbc1c2322	-0.009529861
84	0xbf5c0367	-0.8594269
85	0xbee2bab2	-0.44283062
86	0x3e846ad3	0.2586275
87	0xbe8a7616	-0.27043217
88	0xbf7ff8fa	-0.99989283
89	0x3ed4baa2	0.4154864
90	0xbdab389f	-0.08360409
91	0xbea551cf	-0.32288978
92	0xbf80836e	-1.0040109
93	0xbf7d4464	-0.9893248
94	0xbdf9153c	-0.12162253
95	0xbee98b83	-0.45614251
96	0xbe3b0324	-0.18262917
97	0xbf859c68	-1.0438356
98	0xbf13fb69	-0.57805496
99	0xbe851ef8	-0.2600019
100	0x3bf7e42e	0.007565043
101	0xbe987777	-0.29778644
102	0xbecf88c8	-0.40534043
103	0xbf393100	-0.72340393
104	0xbf6b5bdc	-0.9193704
105	0xbedbdc30	-0.42941427
106	0xbee5a85f	-0.4485502
107	0xbe05821f	-0.13037919
108	0x3d62bf92	0.055358477
109	0xbefa7336	-0.48916024
110	0xbedec7f1	-0.43511918
111	0xbf643d8b	-0.8915641
112	0xbf883ebd	-1.0644146
113	0xbf16c4dd	-0.5889414
114	0xbef175cd	-0.47160187
115	0xbf108d74	-0.5646584
116	0xbf1d56b4	-0.61460423
117	0xbf940c10	-1.1566181
118	0xbe95c0ca	-0.2924865
119	0x3d67055e	0.056401603
120	0xbe87c0a1	-0.26514152
121	0x3ee63291	0.44960454
122	0xbf418d35	-0.7560609
123	0xbd82f322	-0.0639403
124	0xbe6f5fdc	-0.23376411
125	0xbf35fefb	-0.71092194
126	0xbca498d8	-0.020092413
127	0xbf1569b0	-0.5836439
128	0xbd826153	-0.06366219
129	0xbf7bfda5	-0.98433906
130	0xbf33256c	-0.69978976
131	0xbf56b9b0	-0.83877087
132	0xbf65efeb	-0.8981921
133	0x3dece1ec	0.11566529
134	0xbf29cc6b	-0.6632754
135	0xbea4467d	-0.32085028
136	0x3e31e1ec	0.17371339
137	0xbed9a5e8	-0.4250939
138	0xbeb6f014	-0.3573004
139	0xbf9146a0	-1.1349678
140	0xbe4377f3	-0.19088726
141	0xbf761f34	-0.9614136
142	0xbf24eda2	-0.644251
143	0xbf6e5d50	-0.93111134
144	0xbe1a7bcd	-0.15086289
145	0xbf0646b9	-0.52451664
146	0xbd4c70aa	-0.049912132
147	0xbf09e26e	-0.5386113
148	0xbeba3845	-0.36371055
149	0xbd5103a8	-0.051028877
150	0xbf019343	-0.5061533
151	0xbee0fb3c	-0.43941677
152	0xbf1df14f	-0.6169633
153	0xbf6f160d	-0.9339302
154	0xbf4323cb	-0.7622649
155	0xbe3bded1	-0.18346716
156	0xbf6066c3	-0.876568
157	0xbf72f1c6	-0.94900167
158	0xbf04fabb	-0.51945084
159	0xbeedc953	-0.4644266
160	0xbf1b5e7e	-0.6069106
161	0xbe888615	-0.26664796
162	0xbf305618	-0.6888137
163	0xbf84d5e6	-1.0377777
164	0xbebacca6	-0.3648426
165	0xbe759499	-0.23982467
166	0xbf9710f9	-1.1802055
167	0xbd05fdb3	-0.03271265
168	0xbf613f59	-0.87987286
169	0xbe6ee374	-0.23328954
170	0xbf4d6f2a	-0.8024775
171	0x3e07946a	0.13240209
172	0xbf1f7586	-0.622887
173	0xbf0a866f	-0.5411138
174	0xbf96e168	-1.1787539
175	0xbf7d8ab4	-0.9903977
176	0xbef51e52	-0.47874695
177	0x3dbc72b9	0.09201569
178	0xbea3d0fb	-0.31995377
179	0xbec5ea51	-0.38655332
180	0xbf07c173	-0.53029555
181	0xbf47f9f2	-0.7811576
182	0xbe9136af	-0.28362033
183	0xbf82ef6c	-1.0229316
184	0xbf3a4fb3	-0.7277786
185	0xbe5a8ba8	-0.21342337
186	0xbf0e0b7f	-0.5548629
187	0xbf4696f8	-0.7757411
188	0xbee25ce0	-0.44211483
189	0xbe0cdf87	-0.13757144
190	0xbf09b6fc	-0.53794837
191	0xbe8bfdc7	-0.27342054
192	0xbebc366f	-0.3676028
193	0xbe9f1c80	-0.3107643
194	0xbec7af5b	-0.39000973
195	0xbea62c0f	-0.3245549
196	0xbef54e04	-0.47911084
197	0xbf11489b	-0.5675141
198	0xbf43f024	-0.765383
199	0xbf132d04	-0.57490563
200	0xbf62b06a	-0.88550436
201	0xbe78603e	-0.24255463
202	0xbf92ada6	-1.1459243
203	0xbe5243ae	-0.2053363
204	0xbe80dbb5	-0.25167623
205	0xbf2dfbc3	-0.6796228
206	0xbf16e30a	-0.58940184
207	0xbe098e07	-0.13433085
208	0xbc38f53f	-0.01128894
209	0xbcc0b531	-0.023523899
210	0x3e400697	0.18752514
211	0xbf206117	-0.6264815
212	0xbe2d2cd1	-0.16911627
213	0xbf3cdb73	-0.7377235
214	0xbf51871a	-0.81846774
215	0xbe77e722	-0.24209264
216	0xbfa24952	-1.2678626
217	0xbef6eeb7	-0.48229
218	0xbe9784c5	-0.29593483
219	0x3d766892	0.06015832
220	0xbf1f716b	-0.6228244
221	0xbf7ad10c	-0.9797523
222	0xbeb09ada	-0.34493142
223	0xbf510185	-0.81642944
224	0xbf355706	-0.7083591
225	0xbef5fadb	-0.4804295
226	0xbee6926f	-0.45033595
227	0xbecc4785	-0.39898315
228	0xbf028f9a	-0.5100037
229	0xbf22a26c	-0.63529086
230	0xbea282c0	-0.3174038
231	0xbe42d6cb	-0.1902725
232	0xbf3234e0	-0.6961193
233	0xbf3471fe	-0.7048644
234	0xbf9a23ce	-1.2042177
235	0xbcd019d7	-0.025402946
236	0x3d68608a	0.05673269
237	0xbf2a76df	-0.6658763
238	0xbe8e1a43	-0.2775441
239	0xbf312879	-0.6920238
240	0xbf4ec714	-0.8077252
241	0xbeaba61e	-0.33525175
242	0xbf83b5d4	-1.0289865
243	0xbe8a952a	-0.27066928
244	0x3e5c47d0	0.2151177
245	0xbdd7e33e	-0.1054139
246	0xbf4d9d1e	-0.80317867
247	0xbf3bca52	-0.7335559
248	0xbf6a532a	-0.9153315
249	0xbe6ac8aa	-0.2292811
250	0xbe94c161	-0.29053786
251	0xbf07208f	-0.52784055
252	0xbe7d6d71	-0.2474878
253	0xbf5041a0	-0.81350136
254	0xbf30a86b	-0.69006985
255	0xbf468283	-0.77542895

l2.weight f4 [300, 300]
0	0x3ee1b850	0.44085932
1	0x3f005848	0.50134706
2	0x3f7a5156	0.9778036
3	0x3f39e43e	0.72613895
4	0xbdcdcebe	-0.100491986
5	0x3ff01cf9	1.8758842
6	0x3fe176fe	1.7614439
7	0x3e89eecd	0.26940003
8	0x3f2e373f	0.6805305
9	0x400da17d	2.2129815
10	0xbed5efa9	-0.4178441
11	0x3f890b5a	1.0706589
12	0x3f339204	0.7014468
13	0x3f4d86e6	0.80283964
14	0x3ef7afcc	0.4837631
15	0x3f78d49b	0.9719941
16	0xbe6ceb77	-0.23136698
17	0xbf02640c	-0.5093391
18	0xbd965b7d	-0.07341669
19	0xc005911d	-2.086982
20	0xbe82c52e	-0.2554106
21	0x3df9e2ea	0.122014835
22	0xbdce8d59	-0.10085554
23	0xbedce8b3	-0.43146285
24	0x3f7b1ca3	0.9809057
25	0x3f38a9cc	0.7213409
26	0x3fc0be04	1.5057988
27	0x3ec2aa81	0.3802071
28	0x3f3238bd	0.69617826
29	0x3f46274f	0.7740373
30	0xbea7839e	-0.32717603
31	0x3ef9d1cc	0.48792875
32	0x3eaf6399	0.34255674
33	0x3e4e417c	0.20142168
34	0x3eecf6a6	0.46281928
35	0x3e95bd34	0.29245913
36	0x3e0fd8eb	0.14047591
37	0xbe508f0c	-0.20367068
38	0x3f9a02ad	1.2032067
39	0x3f0f105e	0.5588435
40	0x3f9f9335	1.2466799
41	0x3ebc56ce	0.36784977
42	0xbebb29d7	-0.3655536
43	0x3de86893	0.11348071
44	0x3d486016	0.04891976
45	0x3f59ffce	0.8515595
46	0x3d52bc16	0.051448904
47	0xbf76bd80	-0.96382904
48	0x405a8a78	3.4147015
49	0x3e6b215c	0.22961944
50	0x3f19c9a5	0.6007331
51	0xbf7c3a45	-0.9852641
52	0x405248e5	3.2856991
53	0x3f1bc2d4	0.6084416
54	0x3eb75c8c	0.35812795
55	0x3f4803a1	0.7813054
56	0x3f406d6f	0.7516698
57	0xbe9d7443	-0.30752763
58	0xbebb7e4a	-0.36619788
59	0x3fb4ba15	1.4119288
60	0x4025497d	2.5826104
61	0x3fc5969d	1.5436589
62	0xbeeb5252	-0.45961243
63	0x3fd25da7	1.643483
64	0xbeea3397	-0.45742485
65	0x3eb6f117	0.35730812
66	0x3e2d4126	0.16919383
67	0x3f248d2e	0.64277923
68	0x3f92261b	1.1417879
69	0x3f09512e	0.53639495
70	0xbf1074fb	-0.564285
71	0xbf05adae	-0.5221814
72	0x3fbe103f	1.4848708
73	0x3f95e31f	1.1709937
74	0x3ec7bb9c	0.39010322
75	0x3fe624d2	1.7979987
76	0xbf1e5491	-0.6184779
77	0xbf2fd58c	-0.6868522
78	0x3efd4fa3	0.4947482
79	0x3ed67202	0.41883856
80	0x3f3615e7	0.7112717
81	0x3fac69d4	1.3469796
82	0x3f57a284	0.84232354
83	0x3f8d81fb	1.1055292
84	0x3f16b5e1	0.58871275
85	0xbf28b3f7	-0.65899605
86	0x3f6ad581	0.9173203
87	0x3f1cc2ac	0.61234546
88	0xbdf50e18	-0.11965579
89	0x3d8d4469	0.06897814
90	0xbe910b12	-0.28328758
91	0x3efeef32	0.49791867
92	0xbe4f70d9	-0.20257892
93	0x3e5203b9	0.20509233
94	0x3f84af53	1.0366005
95	0x3f12003a	0.57031596
96	0x3fa24a07	1.2678841
97	0xbdde8571	-0.10865296
98	0x3eadd7e5	0.33953777
99	0xbf097452	-0.53693116
100	0x3ea8bfaf	0.32958743
101	0x3f9f7439	1.2457343
102	0x3f865d06	1.0497139
103	0x3f7f5e01	0.99752814
104	0x3f4a1fd7	0.78954834
105	0x3ea0f591	0.31437352
106	0x3f147b6b	0.5800082
107	0x3f0457c4	0.5169642
108	0xbe00148b	-0.12507837
109	0x3f8c6131	1.096716
110	0xbf86ac25	-1.0521284
111	0xbfd68cf9	-1.6761771
112	0x3f93b3b1	1.1539212
113	0xbded184d	-0.11576901
114	0x3f52f62f	0.82406896
115	0xbd28287f	-0.041054245
116	0xbfa10b94	-1.2581658
117	0x3f00aaa4	0.50260377
118	0xbd8b7585	-0.068095244
119	0xbe992eda	-0.29918557
120	0xbe6ac942	-0.22928336
121	0xbe1ad8eb	-0.1512181
122	0xbded4aa1	-0.115865
123	0x3f4755cd	0.77865297
124	0x3fa8e66e	1.3195322
125	0xbd9a7975	-0.07542697
126	0xbebb740d	-0.36611977
127	0x3f8f77f4	1.1208482
128	0xbde2c4cf	-0.110726945
129	0x3f7a3da9	0.97750336
130	0xbf42ec1b	-0.7614152
131	0xbef864d9	-0.4851444
132	0x3f2c48d1	0.6729861
133	0x3fd7e134	1.6865602
134	0x3e34ee0f	0.17668937
135	0xbf6783af	-0.9043531
136	0x3fe852fa	1.8150322
137	0x3f58bbb5	0.8466142
138	0x3e1b4f4c	0.15166968
139	0x3f2cbbab	0.6747386
140	0xbf030ed7	-0.5119452
141	0x3e815208	0.25257897
142	0x3f6342a1	0.8877354
143	0x3e82ebb2	0.25570446
144	0x3da3ecbe	0.08004139
145	0x3fb2d2f5	1.3970629
146	0x40075c04	2.1149912
147	0x3fcf1fbc	1.618156
148	0xbf77528c	-0.9661033
149	0x3f6f7266	0.93533933
150	0xbf4ac37d	-0.7920454
151	0x3e8f8c0d	0.28036538
152	0x3f2658ef	0.6497945
153	0x3ecf3c4e	0.40475696
154	0xbf27136c	-0.6526401
155	0x3fc55eb9	1.5419532
156	0xbfaa11e8	-1.3286715
157	0x3f8ef45d	1.1168324
158	0x3f26fe3e	0.6523169
159	0x3f43f3fa	0.76544154
160	0x3e09efeb	0.13470428
161	0x3e0fee91	0.1405585
162	0xbe19b3e1	-0.15010025
163	0x3fc14c0a	1.510133
164	0x3eb717d6	0.35760373
165	0x3ec05974	0.37568247
166	0xbe8a8473	-0.27054176
167	0x3f28597b	0.65761536
168	0x3d81e1c2	0.06341888
169	0xbe054fe5	-0.13018759
170	0xbed1a23d	-0.4094409
171	0xbf48249b	-0.78180856
172	0x3f06047c	0.5235059
173	0x3eebdc65	0.46066585
174	0x3fbaa3d5	1.4581248
175	0x3cf67184	0.030083425
176	0x3f3ab22c	0.7292812
177	0x3fc21903	1.5163883
178	0x3f439ddb	0.76412743
179	0x3f39d5f6	0.72592103
180	0xbfa23e86	-1.2675331
181	0x3db8d7ea	0.09025557
182	0xbed01705	-0.40642563
183	0x3f94b2a3	1.1617016
184	0x3fcea7f0	1.6145
185	0xbf6ec5d7	-0.9327063
186	0x3e4da05d	0.20080705
187	0x3fc6657c	1.549972
188	0x3f52cffe	0.8234862
189	0xbe37f6af	-0.17965196
190	0x3fa583f8	1.2930899
191	0x3de0e491	0.109810956
192	0x3f03173e	0.5120734
193	0x3c943d78	0.018095717
194	0x3e916878	0.28400016
195	0xbe940e39	-0.289171
196	0x3f57a7e0	0.8424053
197	0xbf7e9f3c	-0.9946172
198	0x3f5f6ac5	0.8727229
199	0xbf282db4	-0.6569474
200	0x3f3020eb	0.6880023
201	0xbfc27586	-1.5192115
202	0x3e110955	0.14163716
203	0xbea8e6c5	-0.32988563
204	0xbec0c6c6	-0.37651652
205	0x3ed75769	0.42058876
206	0xbd408006	-0.046997093
207	0xbedc92f3	-0.43080863
208	0x3fb1bcbe	1.3885725
209	0xbf197b52	-0.59953797
210	0x3d5d8b96	0.054088198
211	0x3f33300e	0.699952
212	0x3e9298bb	0.2863215
213	0x3da67d68	0.08129388
214	0x3fe653aa	1.7994282
215	0x3f5d1d2f	0.86372656
216	0x3f74ed00	0.95674133
217	0x3fab68e4	1.3391385
218	0x3fb0af14	1.380343
219	0x3f685479	0.90753895
220	0xbf37fd2e	-0.71870697
221	0x3e7d821b	0.24756663
222	0x40087d35	2.132642
223	0xbf4a0c06	-0.78924596
224	0xbd963413	-0.07334151
225	0x3e99eed7	0.30065033
226	0xbeb213e6	-0.34780806
227	0x3f91b918	1.1384611
228	0xbe0acf65	-0.13555677
229	0x3f90fbc9	1.1326839
230	0x3ec329d6	0.38117856
231	0x3ed7132c	0.42006814
232	0xbf03d8d8	-0.5150275
233	0x3c175854	0.009237368
234	0x3ecb4325	0.39699665
235	0x3f8460c7	1.0342034
236	0x3f1709b2	0.5899917
237	0x3f2ffdb2	0.68746483
238	0xbed502e0	-0.41603756
239	0x3f270cc7	0.6525387
240	0x3f1dbf13	0.6161968
241	0xbe019b94	-0.12657005
242	0xbf85a505	-1.0440985
243	0xbf107dd4	-0.56442
244	0xbf554fba	-0.8332478
245	0x3ea49186	0.32142276
246	0x3f23e1f3	0.64016646
247	0xbf1e5d51	-0.6186114
248	0x3ee49698	0.44646144
249	0x3f1d109d	0.61353475
250	0x3ff3fc5f	1.9061393
251	0x3f9cc6fb	1.2248224
252	0xbfc10197	-1.507861
253	0x3ebd832e	0.37014145
254	0x3ef83ff3	0.4848629
255	0xbe348749	-0.17629732

l2.bias f4 [300]
0	0x3f54b3e7	0.8308701
1	0x3e879a61	0.2648497
2	0x3fbb395a	1.4626877
3	0x3e50b3e9	0.2038113
4	0x3f36f742	0.71471035
5	0x3f56d8af	0.8392438
6	0x3f2bc76d	0.67101175
7	0x3f957156	1.1675212
8	0x3f467032	0.77514946
9	0x3eb2bd58	0.34910083
10	0x3f27a975	0.65492946
11	0x3eafcf4d	0.34337845
12	0x3f37040e	0.7149056
13	0x3f3f89bb	0.74819535
14	0x3f86bc41	1.05262
15	0x3f03c4c9	0.51472145
16	0x3f28ba33	0.6590912
17	0x3ecc175b	0.3986157
18	0xbd2bc5e9	-0.04193679
19	0x3e14b407	0.145218
20	0x3ed2c7a6	0.41167945
21	0x3ecbfee3	0.398429
22	0x3f445636	0.7669405
23	0xbdf933c6	-0.12168078
24	0x3eed8bfc	0.46395862
25	0x3e1b3615	0.1515735
26	0x3fc54746	1.5412376
27	0xbdf1c8da	-0.118058875
28	0xbda6a1ba	-0.08136316
29	0x3f8fe569	1.1241885
30	0x3fa7eb9f	1.3118781
31	0x3e93ec41	0.28891185
32	0x3eb5dbc6	0.35519236
33	0x3f0dfab8	0.5546069
34	0x3f3b783a	0.73230326
35	0x3f55fb64	0.83586717
36	0x3e495039	0.19659509
37	0x3ee5924d	0.4483818
38	0x3f95f371	1.1714917
39	0x3db3658e	0.087596044
40	0x3f2e3899	0.6805511
41	0x3d3594d2	0.04433138
42	0x3f3136e5	0.6922439
43	0x3f8c1d09	1.0946361
44	0x3df3810e	0.118898496
45	0x3f1a5fde	0.6030253
46	0x3ecf9d3a	0.40549642
47	0xbeb218b7	-0.3478448
48	0x3e87a024	0.26489365
49	0x3f0d452f	0.5518369
50	0x3f718bce	0.9435395
51	0x3f3dc927	0.7413506
52	0x3f67c771	0.905387
53	0x3f26663c	0.6499975
54	0x3f8fecd8	1.1244154
55	0x3f299d29	0.6625543
56	0x3f21071c	0.62901473
57	0x3eb1d16f	0.34730098
58	0x3f6d157b	0.926109
59	0x3ea43a04	0.32075512
60	0x3e7ca8b2	0.24673727
61	0x3f67d565	0.9055999
62	0x3f80c520	1.0060158
63	0xbe2368c5	-0.15957935
64	0x3f47f118	0.78102255
65	0x3f3c66fd	0.7359465
66	0x3c47ceef	0.012195333
67	0x3f166aab	0.5875651
68	0x3e8b68e4	0.27228463
69	0x3e5d895f	0.21634434
70	0x3e6fd338	0.23420417
71	0x3f375981	0.7162095
72	0x3f0826c0	0.5318413
73	0x3ed85126	0.4224941
74	0x3f4204e6	0.75788724
75	0x3f13d36d	0.57744485
76	0x3ef2f31c	0.47451103
77	0x3efd50b6	0.4947564
78	0x3f4c255a	0.79744494
79	0x3ea79e48	0.32737947
80	0x3f10d724	0.5657828
81	0x3f51a5a7	0.8189339
82	0x3dcd7fb6	0.100341246
83	0x3e1e6142	0.15466788
84	0x3efe7977	0.49702045
85	0x3f0eb9ae	0.55752075
86	0x3f280132	0.65626824
87	0x3f33f57a	0.7029644
88	0x3e32b7cc	0.17452925
89	0x3f5e68f3	0.8687889
90	0x3f9adfd0	1.2099552
91	0x3f4dceb9	0.8039356
92	0x3fd299c3	1.6453174
93	0xbe10f04f	-0.1415417
94	0x3f3b9978	0.7328105
95	0xbedc0b1c	-0.42977226
96	0x3f07694c	0.52895045
97	0x3f06ad89	0.52608544
98	0x3ec5b854	0.38617194
99	0x3ee61574	0.44938242
100	0x3e71be98	0.23607862
101	0x3eb6569b	0.3561295
102	0xbe9f5223	-0.31117353
103	0x3d8fd9fc	0.07023999
104	0x3f54d51d	0.83137685
105	0x3f445dc3	0.7670557
106	0x3eed45cb	0.4634231
107	0x3f478c8f	0.7794885
108	0x3ef052a5	0.46938053
109	0x3ef381d4	0.47559988
110	0x3f5167ce	0.8179902
111	0x3f7f7a7e	0.99796283
112	0x3f0399ca	0.5140654
113	0x3f7d180b	0.9886481
114	0x3f2ed746	0.6829723
115	0x3f1cdf9e	0.6127871
116	0x3dd40881	0.103531845
117	0x3ee76607	0.45195028
118	0x3f0e930e	0.5569314
119	0x3f3ab28b	0.72928685
120	0x3ece8c40	0.40341377
121	0xbeb9396f	-0.3617663
122	0x3f0d639d	0.5523012
123	0x3f03bf90	0.51464176
124	0x3e90f6cb	0.28313288
125	0x3f09e51c	0.5386522
126	0x3e16001e	0.14648482
127	0x3f77b9c9	0.9676786
128	0x411bec99	9.745263
129	0x3f5594be	0.8343009
130	0x3d6d502b	0.057937782
131	0x3f3b19be	0.73086154
132	0x3f4e0218	0.80471945
133	0xbf010d66	-0.5041107
134	0x3eded30c	0.4352039
135	0x3f11d7ff	0.5697021
136	0x3f2e2c66	0.68036497
137	0x3f8a1f5d	1.0790821
138	0x411ba93f	9.72882
139	0x3f00eecc	0.50364375
140	0x3f4c4058	0.7978568
141	0x3f2c5c92	0.6732875
142	0x3f033a6c	0.5126102
143	0x3f4a6a94	0.79068875
144	0x3e25c69b	0.16189043
145	0x3f142162	0.5786344
146	0x3f28b6bf	0.6590385
147	0x3fb697d1	1.4265081
148	0xbe60b2d4	-0.21943218
149	0x3f4e4497	0.8057341
150	0x3f10197d	0.5628889
151	0x3f757f85	0.95897704
152	0x3eb43e2e	0.3520369
153	0xbe35d59a	-0.17757264
154	0x3ec41a26	0.383012
155	0x3f054647	0.5206036
156	0x3ef3aaf6	0.4759137
157	0x3f2e4dc2	0.680874
158	0x3f39ce27	0.7258019
159	0x3f3859bf	0.7201194
160	0x3f683dae	0.90719116
161	0x3f27b064	0.65503526
162	0x3f8c10f4	1.0942674
163	0x3f336e61	0.700903
164	0x3f1eca53	0.6202747
165	0x3f4847b0	0.78234386
166	0x3f1a4d76	0.60274446
167	0x3f3ca448	0.73688173
168	0x3f0c074f	0.5469865
169	0x3f407269	0.75174576
170	0x3f62f550	0.8865557
171	0x3f0b6d3a	0.5446354
172	0x3ede4425	0.43411365
173	0x3f50af92	0.815179
174	0x3ea8dd36	0.3298127
175	0x3f073fc3	0.5283167
176	0x3f264abc	0.64957786
177	0x3f613693	0.879739
178	0x3e697808	0.22799695
179	0x3eaf64c1	0.34256557
180	0x3ebe8749	0.3721259
181	0x3f84326f	1.0327891
182	0x3e56109c	0.20904773
183	0x3edd1308	0.43178582
184	0xbe73c48d	-0.23805447
185	0x3f7612dc	0.9612253
186	0xbe2d4e98	-0.16924512
187	0x3db6df5c	0.08929321
188	0x3e35d36f	0.17756437
189	0x3de7915b	0.11307021
190	0x3f0ac554	0.5420735
191	0x3ec67abc	0.38765514
192	0x3ec9a586	0.39384097
193	0x3f7238ba	0.9461781
194	0x3cc3a60f	0.023882894
195	0xbec69553	-0.387858
196	0x3f6d401c	0.9267595
197	0x3f8eac46	1.1146324
198	0x3f127e91	0.57224375
199	0x4009f649	2.155657
200	0x3daee893	0.08540454
201	0x3f1cd390	0.6126032
202	0xbbb77cec	-0.0055996086
203	0xbec7ace6	-0.389991
204	0xbdaa5b4e	-0.08318196
205	0x3ed01ed9	0.40648535
206	0x3f0af4ba	0.54279673
207	0x3d50df0f	0.050993975
208	0x3d5edb9d	0.05440866
209	0x3f01823c	0.50589347
210	0xbecc2c6b	-0.39877638
211	0x411d0872	9.814562
212	0x3ec4d16b	0.38441023
213	0x3ebfd05d	0.37463656
214	0x3f02e76c	0.5113437
215	0x3f559f7d	0.83446485
216	0x3e006786	0.12539491
217	0xbe64dab1	-0.22349049
218	0x3f090701	0.5352631
219	0x3f1ac5b0	0.604579
220	0x3eed3970	0.46332884
221	0x3e49ddf2	0.19713572
222	0x3f582058	0.8442435
223	0x3edfd149	0.4371436
224	0x3fae22de	1.3604391
225	0x3e442f02	0.19158557
226	0x3f7c6572	0.98592293
227	0x4118f1a5	9.558995
228	0x3e0d09cd	0.1377327
229	0x3e8eafbe	0.27868456
230	0x3f3cdc29	0.7377344
231	0x3f97a0df	1.1845969
232	0xbdb3fd75	-0.087885775
233	0x3f4d5950	0.80214405
234	0x411cc846	9.798895
235	0x3e85781c	0.260682
236	0x3e4d2766	0.2003456
237	0x3f0ad00d	0.5422371
238	0x3f0f6aff	0.5602264
239	0x3eb737d2	0.35784775
240	0x3f1646ab	0.5870158
241	0x3f94d79f	1.1628302
242	0x3d7d3a53	0.0618232
243	0x3e89a8ce	0.268866
244	0x3f3cc677	0.73740333
245	0x3e9b5328	0.3033688
246	0x3db4e662	0.088330045
247	0x3fb80f87	1.4379739
248	0x3ec6705f	0.38757607
249	0xbe0f383a	-0.13986292
250	0x3ecac7e3	0.39605626
251	0x3f30de5a	0.6908928
252	0x3f682b9d	0.9069155
253	0x3f7128fb	0.94203156
254	0x3ed4b335	0.41542974
255	0x3f826981	1.0188447

bn2.weight f4 [300]
0	0x3fd8c9e0	1.6936607
1	0x3ff44c56	1.9085796
2	0x3f7fffbe	0.99999607
3	0x4004bd66	2.07406
4	0x400b29e3	2.1744316
5	0x400cc129	2.1992896
6	0x3ff67a17	1.9256009
7	0x3f9b6243	1.2139362
8	0x3fefd02f	1.8735408
9	0x40035b06	2.0524306
10	0x40166894	2.350133
11	0x400a07d2	2.1567273
12	0x3fd9ffa6	1.7031143
13	0x3fc0e2fe	1.5069273
14	0x3fa532c3	1.2906116
15	0x400dc685	2.2152417
16	0x400d604a	2.209002
17	0x40142bc3	2.315171
18	0x40099402	2.1496587
19	0x3fd96943	1.6985248
20	0x3fcbd8c1	1.5925523
21	0x3ffc998a	1.9734356
22	0x3feb862a	1.8400319
23	0x3fc09193	1.5044426
24	0x3ffe0ac4	1.9847035
25	0x40071916	2.1109061
26	0x3faad344	1.3345723
27	0x403c37f0	2.9409142
28	0x4038f3fc	2.8898916
29	0x3ff18dd1	1.8871404
30	0x40021f57	2.0331628
31	0x3fea5ad9	1.8308975
32	0x3fddb10a	1.7319653
33	0x3fec22ab	1.844808
34	0x40008946	2.0083785
35	0x3ff00717	1.8752164
36	0x402c7489	2.6946127
37	0x3fed5481	1.8541414
38	0x3fc4b7c5	1.5368582
39	0x400ddc72	2.21658
40	0x3fdb5cf7	1.7137746
41	0x400c8f0b	2.1962306
42	0x3fe932ea	1.8218663
43	0x3fc85f45	1.5654074
44	0x40172526	2.3616424
45	0x3ffee722	1.9914286
46	0x3fd02c5c	1.6263537
47	0x404f3c7e	3.2380672
48	0x40175b9c	2.3649664
49	0x4021ab38	2.5260754
50	0x400d7747	2.210405
51	0x3fee4858	1.8615828
52	0x4013cc79	2.309355
53	0x3fce89f4	1.613585
54	0x4004da72	2.0758328
55	0x3fc3f22c	1.530828
56	0x400069c0	2.0064545
57	0x400be5f4	2.1859102
58	0x3ff790d8	1.9341078
59	0x400840af	2.128948
60	0x4014c35d	2.324424
61	0x3fe2d216	1.7720363
62	0x3fa2703b	1.26905
63	0x404a06b8	3.15666
64	0x3fe71578	1.8053427
65	0x4006954e	2.1028628
66	0x40328740	2.789505
67	0x3fd487d0	1.6603947
68	0x400d19aa	2.2046914
69	0x40098aee	2.1491046
70	0x3ff134f8	1.884429
71	0x3fdb6424	1.7139935
72	0x3fc22429	1.5167285
73	0x3fb03db5	1.3768831
74	0x400fce10	2.246952
75	0x3fb00497	1.3751401
76	0x3ff78214	1.9336572
77	0x400510a3	2.0791404
78	0x3fb376c7	1.4020623
79	0x3fe394ae	1.7779748
80	0x3fe8c00e	1.818361
81	0x400eb648	2.2298756
82	0x4007f382	2.1242375
83	0x40076062	2.1152577
84	0x40261979	2.5953047
85	0x3ff4912c	1.9106803
86	0x40191a26	2.392221
87	0x3fcaee2f	1.5853938
88	0x3ffda74f	1.9816684
89	0x3fb4a629	1.4113208
90	0x402db8ad	2.7143967
91	0x3ff5af2f	1.9194087
92	0x3faf91ed	1.3716408
93	0x400aa7df	2.166496
94	0x400ecebe	2.2313685
95	0x4036e61d	2.857795
96	0x3feb5fdb	1.8388628
97	0x400e03b9	2.2189772
98	0x3ff6c727	1.9279526
99	0x3fe91398	1.8209105
100	0x40063654	2.097066
101	0x401b8d70	2.4305077
102	0x4045f153	3.0928543
103	0x4012461b	2.285529
104	0x3fd0a681	1.6300813
105	0x400991f9	2.1495345
106	0x3ff90cc6	1.9457023
107	0x400fe828	2.2485447
108	0x3fc10e0f	1.5082415
109	0x3feb8624	1.8400311
110	0x3fef88d0	1.8713627
111	0x3fee83b3	1.8633941
112	0x3fe4544c	1.7838225
113	0x3fec5a01	1.8464967
114	0x4005a1ba	2.087996
115	0x3fec5b49	1.8465358
116	0x3fed22a2	1.8526194
117	0x4010b672	2.2611356
118	0x3fe9a114	1.8252282
119	0x3fedade3	1.8568691
120	0x40069958	2.1031094
121	0x401eaafe	2.4791865
122	0x40200c53	2.5007522
123	0x400047f6	2.0043921
124	0x4010d3e6	2.2629333
125	0x40114460	2.2697983
126	0x4015a105	2.3379529
127	0x3f9a5c13	1.2059349
128	0x3dcb9d70	0.09942138
129	0x40114c2a	2.2702737
130	0x400b2182	2.1739202
131	0x4005c57c	2.0901785
132	0x3fe23f77	1.7675618
133	0x40606b5a	3.5065522
134	0x400aef32	2.1708493
135	0x401482fc	2.3204947
136	0x3ffb1ddb	1.9618486
137	0x40158dca	2.336779
138	0x3de0a8f2	0.10969724
139	0x3fdcf2b2	1.7261565
140	0x3fb3a537	1.4034795
141	0x40024027	2.0351655
142	0x400ae816	2.1704154
143	0x3fc6f186	1.5542457
144	0x4004f2e1	2.0773242
145	0x3fe0019b	1.750049
146	0x3fdd4cf1	1.7289106
147	0x40121757	2.2826746
148	0x40246a6c	2.5689955
149	0x400ad287	2.1690996
150	0x4005a38f	2.0881078
151	0x3ff7e616	1.9367092
152	0x3fef2c23	1.8685344
153	0x40665435	3.5988896
154	0x3fe24921	1.7678567
155	0x3fe37031	1.7768613
156	0x3fcfdadd	1.6238667
157	0x3fcbb3a1	1.5914193
158	0x3fcd69c4	1.6047902
159	0x3fdac372	1.7090895
160	0x3f8f6ae8	1.12045
161	0x3ffd36b1	1.9782315
162	0x3f9a2316	1.2041957
163	0x3fd00d57	1.6254071
164	0x401421a9	2.3145545
165	0x3ffe4a0f	1.9866351
166	0x3ff865de	1.9406087
167	0x3fcb0bc4	1.5862966
168	0x3ff4eb7b	1.9134363
169	0x3fe10ad7	1.7581433
170	0x400266a3	2.0375144
171	0x4005e867	2.0923097
172	0x3fe7d734	1.811255
173	0x3fc25123	1.5181011
174	0x401075fd	2.2572014
175	0x3fee9307	1.8638619
176	0x4008ac18	2.1355038
177	0x3ff6f754	1.9294229
178	0x3fed186d	1.8523079
179	0x40109a37	2.2594125
180	0x4014f310	2.3273354
181	0x3fcd6396	1.6046016
182	0x3fe652fa	1.7994072
183	0x3fda47a1	1.705311
184	0x407e3ee4	3.9725885
185	0x3fbe9028	1.4887743
186	0x404a3725	3.1596158
187	0x400ca302	2.1974492
188	0x4018085f	2.375511
189	0x401d851c	2.4612494
190	0x401db5d4	2.464223
191	0x3fa45356	1.2837932
192	0x3fdd8226	1.7305343
193	0x3fa0ec69	1.2572147
194	0x400f16a8	2.2357578
195	0x404d8750	3.2113838
196	0x40074807	2.1137712
197	0x3fb09f54	1.3798623
198	0x3ffacd7a	1.9593956
199	0x3f875bb8	1.0574865
200	0x4014cac1	2.324875
201	0x401ffaad	2.499675
202	0x40240f04	2.5634165
203	0x4020b713	2.511174
204	0x40147c3b	2.3200824
205	0x3fddaa71	1.731764
206	0x4001b440	2.0266266
207	0x4039a9fc	2.901
208	0x400d454c	2.2073545
209	0x3fe87ae9	1.8162509
210	0x40617539	3.5227797
211	0x3de88f9a	0.11355515
212	0x3ffecf15	1.9906946
213	0x3fb766a7	1.4328202
214	0x3ff0c46f	1.8809947
215	0x3fd886aa	1.6916096
216	0x4024fe65	2.578027
217	0x40194920	2.3950882
218	0x4000eae3	2.0143363
219	0x3ff80004	1.9375005
220	0x400ca932	2.1978269
221	0x3fe6e944	1.8039937
222	0x40126aac	2.2877607
223	0x400162df	2.0216596
224	0x3fdc427c	1.720779
225	0x4005f7a2	2.0932393
226	0x3fe27d33	1.7694458
227	0x3e09a13c	0.13440412
228	0x4017ecee	2.373836
229	0x402356c7	2.5521715
230	0x3fcb7a7b	1.5896753
231	0x3fe52b59	1.7903854
232	0x40156010	2.3339882
233	0x3ff17226	1.886296
234	0x3df820c3	0.12115624
235	0x401d65c9	2.4593375
236	0x3fd7ee16	1.6869533
237	0x401bddcc	2.4354124
238	0x400bc56e	2.1839252
239	0x400cced5	2.200124
240	0x3ffa28ae	1.9543664
241	0x3fa9a8e0	1.3254662
242	0x404981b1	3.1485407
243	0x400b2c70	2.1745872
244	0x3fdc369b	1.7204164
245	0x4003a7dd	2.0571206
246	0x402496fa	2.5717149
247	0x3fee15c3	1.8600391
248	0x40139316	2.3058524
249	0x4054a5f3	3.3226287
250	0x400f97d4	2.2436419
251	0x3fbb6297	1.4639462
252	0x3fe7b653	1.8102516
253	0x3ffa1c17	1.9539822
254	0x3febcefc	1.8422542
255	0x3fe303fd	1.7735592
