weights/model_critic_target_27.pt (torch, 431175 bytes, 9 tensors)

l1.weight f4 [300, 42]
0.22087744 -0.01594356 0.07416157 0.17177609 0.07733706 0.005335356 0.02462388 0.6707448
-0.099613 -1.3157852 0.20670666 0.40029934 -0.0019213135 -0.21584639 -1.3731513 -0.7234425
1.105114 1.3661213 -1.3348867 0.5485002 -0.551737 -0.060262125 -0.35764217 0.08799858
0.065091185 -0.64565784 0.4048454 0.33694112 0.3140385 -0.15639208 -0.07244558 -0.34400797
-2.800025 -1.8026744 0.068661384 0.4893641 -0.23777981 -0.15413922 -0.5202385 0.43940678
0.17750178 0.5361005 0.15353832 -0.08870045 0.19195543 -0.44160575 0.030464943 0.07860622
-0.18399851 -0.63672954 -0.37438902 0.22046727 0.0089309625 0.011502596 0.07852876 -0.08476731
0.7934099 -0.58234763 0.39692894 1.0846294 0.3109824 -0.20955943 0.5708169 -0.009113435
0.07797027 -0.039163318 0.10179407 0.24432637 -0.24540691 0.5054504 -0.27671072 0.5908011
-0.8739685 -0.8823445 4.6294765 -0.33470762 -0.0048728907 -0.68928146 0.97564757 0.90388286
0.6096589 -0.7504559 0.113989264 0.11237438 0.24289997 -0.047917515 0.09273006 0.21132316
0.23910365 -0.058573354 0.33704963 -0.34349528 -0.18080449 -0.4255782 0.23744008 -0.23981558
0.35549584 -0.3172333 -0.32053632 -0.42216754 -0.54118663 0.87393296 -0.6549481 0.69310796
-0.52365947 -0.16164377 -0.59595466 0.20296276 0.18765604 -1.1674552 -0.6570117 -0.6365221
-0.026752712 -0.33782136 0.32461342 0.33870605 -1.7363167 1.7346478 0.19190562 0.7605215
0.0738595 0.0038605859 -0.26846635 0.079016544 -1.0064707 0.370007 0.26799452 -0.044505652
0.034083396 0.16488543 0.27475083 -0.075807355 0.37030184 -0.4216302 -0.18248141 -0.4460522
0.2506819 -0.12590322 0.36521935 -0.33530757 -0.25832978 -0.45269918 -0.48991236 0.84521425
-0.68517494 0.73177904 -0.43236938 -0.13610551 -0.57343566 0.18984666 0.18997218 -1.1577528
-0.59202045 -0.5907453 -0.082056135 -0.35990918 0.31789193 0.40748438 -1.8511348 1.8755233
0.14560506 0.7332202 0.1152421 0.01487018 -0.2597425 0.045334335 -1.0554996 0.33768517
-0.0050473907 0.11543481 0.14919803 0.050296754 0.018041108 -0.028813602 0.21361007 -0.15239026
-0.2324492 0.6803391 0.010284252 -0.46023583 -0.018348182 0.058721114 -0.17419598 -0.81702805
2.1473 1.1573026 0.20833369 -1.7194666 -2.3303144 0.28596345 0.14633223 -0.017227186
0.02586478 1.1755003 1.5092627 -0.4518672 -0.028375572 0.58853024 -0.48044154 -0.17144182
-0.8561644 -2.3108492 -0.011607006 -0.28134206 -1.3889585 0.012482315 -0.2878427 0.41707358
0.80980724 0.04076232 0.19788028 -0.08211604 0.040984426 0.17076614 0.25216332 -0.07474677
0.334729 -0.32988912 -0.1591883 -0.44407967 0.3096757 -0.11966777 0.42850727 -0.3190356
-0.33879083 -0.4741995 -0.54395604 0.9026574 -0.7038078 0.7588536 -0.45489043 -0.17253995
-0.5858401 0.18931319 0.23938084 -1.1794661 -0.6007515 -0.59502053 -0.11126043 -0.2962253
0.3370085 0.32331425 -1.8416928 1.6932389 0.109811805 0.69936 0.1237376 0.003233912
-0.27083242 0.011745224 -1.0700395 0.34870276 -0.028503506 0.4407161 0.30731013 -0.09698991
00000000: b22d 623e 129c 82bc 05e2 973d 12e6 2f3e
00000010: e462 9e3d 36d4 ae3b 05b8 c93c eeb5 2b3f
00000020: e701 ccbd a66b a8bf e9aa 533e 09f4 cc3e
00000030: 95d4 fbba d606 5dbe 6cc3 afbf 8733 39bf
00000040: 6074 8d3f 10dd ae3f 91dd aabf 826a 0c3f
00000050: a33e 0dbf 6bd5 76bd e01c b7be 9938 b43d
00000060: 874e 853d d549 25bf e547 cf3e 8c83 ac3e
00000070: a7c9 a03e 3f25 20be 595e 94bd d021 b0be
00000080: 9c33 33c0 09be e6bf 579e 8c3d ee8d fa3e
00000090: 8d7c 73be acd6 1dbe 5a2e 05bf edf9 e03e
000000a0: 07c3 353e e23d 093f 2639 1d3e 95a8 b5bd
000000b0: f78f 443e 261a e2be 9e91 f93c 4cfc a03d
000000c0: 1b6a 3cbe b500 23bf ebaf bfbe 2cc2 613e
000000d0: 2c53 123c 6275 3c3c b0d3 a03d 7c9a adbd
000000e0: e91c 4b3f bc14 15bf 453a cb3e 23d5 8a3f
000000f0: 1639 9f3e bf96 56be 0e21 123f 8450 15bc
00000100: e0ae 9f3d b769 20bd 6979 d03d b130 7a3e
00000110: f34b 7bbe 3365 013f 07ad 8dbe be3e 173f
00000120: 66bc 5fbf 54e1 61bf ac24 9440 cc5e abbe
00000130: c5ac 9fbb c074 30bf 0ac4 793f de64 673f
00000140: 9b12 1c3f e11d 40bf 3473 e93d 8a24 e63d
00000150: c5ba 783e 2845 44bd 42e9 bd3d 1965 583e
00000160: 96d7 743e 9dea 6fbd c591 ac3e 9dde afbe
00000170: d024 39be 63e5 d9be 7e23 733e 3792 75be
00000180: 8d03 b63e 676c a2be 561d a4be 5826 d8be
00000190: 358b 0abf 12ba 5f3f aeaa 27bf 866f 313f
000001a0: 8c0e 06bf f285 25be 7c90 18bf 78d5 4f3e
000001b0: e828 403e 2c6f 95bf eb31 28bf 1df3 22bf
000001c0: 8128 dbbc ecf6 acbe bb33 a63e e16a ad3e
000001d0: a03f debf f008 de3f e882 443e 89b1 423f
000001e0: a643 973d e201 7d3b 6c74 89be 6dd3 a13d
000001f0: 08d4 80bf 8f71 bd3e 9436 893e 8f4b 36bd
00000200: 089b 0b3d bad7 283e 24ac 8c3e e340 9bbd
00000210: 3498 bd3e eadf d7be 68dc 3abe f460 e4be
00000220: 6159 803e c6ec 00be 08fe ba3e 6fad abbe
00000230: cd43 84be 30c8 e7be cbd5 fabe f65f 583f
00000240: a067 2fbf df55 3b3f 855f ddbe 3e5f 0bbe
00000250: aecc 12bf 2a67 423e 1188 423e 3e31 94bf
00000260: a78e 17bf 153b 17bf 0c0d a8bd 0446 b8be
00000270: bbc2 a23e cba1 d03e fcf1 ecbf 2611 f03f
00000280: 7e19 153e 52b4 3b3f 0d04 ec3d 0ea2 733c
00000290: f8fc 84be 7fb0 393d 9c1a 87bf 12e5 ac3e
000002a0: 9564 a5bb 1669 ec3d 5ec7 183e f803 4e3d
000002b0: f2ca 933c 810a ecbc 99bc 5a3e 310c 1cbe
000002c0: 2a07 6ebe b42a 2e3f 487f 283c 08a4 ebbe
000002d0: ed4e 96bc 8d85 703d 6e60 32be c028 51bf
000002e0: 5d6d 0940 7e22 943f 6d55 553e 7b17 dcbf
000002f0: df23 15c0 cd69 923e 1ed8 153e 0720 8dbc
00000300: 60e2 d33c cb76 963f 852f c13f 235b e7be
00000310: e373 e8bc eba9 163f 6ffc f5be 728e 2fbe
00000320: 972d 5bbf f4e4 13c0 502b 3ebc 110c 90be
00000330: 64c9 b1bf a082 4c3c 1e60 93be ab8a d53e
00000340: 874f 4f3f 64f6 263d 21a1 4a3e 742c a8bd
00000350: 49df 273d 52dd 2e3e 8d1b 813e d614 99bd
00000360: 9961 ab3e 3ae7 a8be 4202 23be 695e e3be
00000370: d08d 9e3e 6014 f5bd 4e65 db3e a258 a3be
00000380: fe75 adbe 47ca f2be b440 0bbf 8e14 673f
00000390: bf2c 34bf 3b44 423f 66e7 e8be 50ae 30be
000003a0: 9ef9 15bf 51db 413e 4020 753e bff8 96bf
000003b0: daca 19bf 4453 18bf 82dc e3bd d8aa 97be
000003c0: 618c ac3e 7289 a53e 97bc ebbf 0dbc d83f
000003d0: 03e5 e03d 4209 333f 246a fd3d 0af0 533b
000003e0: 8caa 8abe 0a6f 403c 0ef7 88bf 2b89 b23e
000003f0: 2f80 e9bc 8aa5 e13e c157 9d3e a5a2 c6bd

l1.bias f4 [300]
0.117624275 -0.14536445 0.011306312 0.016826367 -0.03424343 0.08268616 -0.1495947 0.10081689
0.109982766 0.04552412 -0.0012790444 0.037262782 0.042648826 0.27209526 -0.017976437 0.1256792
0.3117577 -0.013597364 0.05385906 -0.056935858 -0.04890502 0.20457636 0.0066055106 0.109449446
0.10039258 0.16002502 0.2473763 -0.13602844 -0.005311057 0.118468426 0.1660294 0.009014214
0.006163608 0.21099472 -0.15851185 -0.0034715214 0.07822609 0.025359457 0.15961604 0.015720548
0.07131594 0.1234891 0.138365 -0.03213863 0.17274036 0.2724186 0.15928523 0.035497375
0.026016206 0.044263344 -0.027088754 0.17437662 0.008682248 0.064584225 0.25388086 0.23668325
0.06576704 -0.12143396 -0.055407777 0.071084395 0.16837673 -0.06730509 0.037683245 -0.045141984
0.051170997 0.18254605 0.12174727 0.12334943 0.15411499 0.17079133 0.17470223 0.20517296
-0.059573244 0.08687476 0.09471698 0.12679248 0.13364717 0.1816559 0.03408812 -0.10625654
0.19950062 0.19521604 0.008664819 0.031950507 0.1688941 0.026922295 0.06363295 0.012570656
0.015627116 -0.0050364058 0.23372065 0.12968133 0.043006618 0.12105772 0.074012265 -0.00674502
0.12669751 0.089689694 0.10638614 0.11863778 0.13918972 0.30381534 -0.02535426 0.16225943
-0.1018586 0.15961526 0.12437285 0.024144664 0.14547013 0.005132983 0.14965446 0.073637985
0.1327312 0.20762362 0.16190684 0.11377267 0.016092284 0.094067015 0.29457927 0.2834758
0.22535025 0.03447878 0.20391361 0.08340759 0.049419753 0.07918914 0.06670674 0.066686384
0.017002424 0.11860731 0.15466665 0.010839151 0.082787514 0.036952466 0.24151134 0.3502474
0.040848132 0.19977723 0.02233271 -0.012998667 0.05196866 0.06555157 0.15331881 -0.006297828
0.22776334 0.20731527 -0.076045364 0.29233214 0.06427695 0.15057538 0.093121864 -0.035824466
0.14562088 -0.025846127 0.07195266 0.10852578 0.18231261 0.06530652 -0.0750569 0.16351455
0.1936068 0.25315708 0.06921071 0.032680847 0.15675355 0.10314841 0.023069216 0.02277707
0.006034376 -0.040345825 -0.046588555 0.14985949 0.092107065 0.25162786 0.13311389 0.053995166
0.21550784 0.20381178 0.04019243 0.2538239 0.09395016 0.17963424 0.05055768 0.14302745
0.06451509 0.113763034 0.18029344 0.070570454 0.21283987 0.026973125 0.034054793 0.12587237
0.02325278 0.13861977 0.12534243 0.1344253 0.107513204 -0.13048425 0.0072896485 -0.020788278
0.046033293 -0.15208276 -0.03581537 0.17728378 0.028592812 0.02109869 0.12906562 -0.050306663
0.17103241 0.011609532 0.1011566 0.077177085 0.052200682 0.16604002 0.05304087 0.27333003
0.20589888 0.18947043 0.03375564 0.07677025 0.17453359 0.030294832 -0.059837516 -0.116527274
0.13052078 -0.08475213 -0.06966527 0.013743936 0.08387291 0.06961617 0.20209393 0.014731345
-0.04548799 0.12193006 0.026240123 0.108121395 -0.029099282 0.08858436 0.20069969 0.12859902
0.18813112 0.024097819 0.0457737 0.28133237 0.033191677 0.003530028 0.3303961 0.07152489
-0.010720749 0.011419642 0.08775505 -0.049068112 0.16153069 -0.07657414 0.0827248 0.24250062
00000000: ffe4 f03d 6bda 14be 1c3e 393c 73d7 893c
00000010: d742 0cbd 5d57 a93d 5a2f 19be 1679 ce3d
00000020: a53e e13d 8077 3a3d 9ca5 a7ba dca0 183d
00000030: 89b0 2e3d 1250 8b3e 5243 93bc 0cb2 003e
00000040: b59e 9f3e 7ac7 5ebc 519b 5c3d 9335 69bd
00000050: a150 48bd 777c 513e 0a73 d83b 0827 e03d
00000060: a09a cd3d 99dd 233e 3650 7d3e 0a4b 0bbe
00000070: 6008 aebb 939f f23d 9c03 2a3e 5bb0 133c
00000080: 17f8 c93b 000f 583e ee50 22be 7782 63bb
00000090: 0035 a03d a3be cf3c 6372 233e 61c8 803c
000000a0: 170e 923d dae7 fc3d 8eaf 0d3e cca3 03bd
000000b0: d9e2 303e 737a 8b3e ab1b 233e b265 113d
000000c0: f01f d53c 7b4d 353d 3ce9 ddbc c98f 323e
000000d0: fd3f 0e3c bc44 843d acfc 813e 185d 723e
000000e0: dfb0 863d 5eb2 f8bd 44f3 62bd b294 913d
000000f0: f36a 2c3e 40d7 89bd bf59 1a3d cde6 38bd
00000100: ae98 513d 5aed 3a3e a256 f93d a09e fc3d
00000110: 52d0 1d3e ece3 2e3e 24e5 323e dc18 523e
00000120: 1303 74bd 65eb b13d fafa c13d e3d5 013e
00000130: ceda 083e 0104 3a3e fc9f 0b3d 079d d9bd
00000140: e449 4c3e b7e6 473e e3f6 0d3c 89de 023d
00000150: 93f2 2c3e 258c dc3c fe51 823d 27f5 4d3c
00000160: 7004 803c 6f08 a5bb 7754 6f3e 2fcb 043e
00000170: b527 303d 1ced f73d be93 973d 5405 ddbb
00000180: febc 013e 3baf b73d fae0 d93d 5df8 f23d
00000190: c087 0e3e af8d 9b3e bdb3 cfbc 5627 263e
000001a0: 3e9b d0bd 2f72 233e 31b7 fe3d 08cb c53c
000001b0: 1ff6 143e 9532 a83b 053f 193e 83cf 963d
000001c0: b0ea 073e 499b 543e e8ca 253e a501 e93d
000001d0: f7d3 833c 35a6 c03d 18d3 963e bd23 913e
000001e0: 37c2 663e 9f39 0d3d bbce 503e 99d1 aa3d
000001f0: 5e6c 4a3d ea2d a23d 8b9d 883d df92 883d
00000200: ab48 8b3c 64e8 f23d ef60 1e3e b296 313c
00000210: 808c a93d 785b 173d c04e 773e a153 b33e
00000220: 5f50 273d 6792 4c3e 16f3 b63c 5cf8 54bc
00000230: 17dd 543d e73f 863d 9bff 1c3e 035e cebb
00000240: cb3a 693e 744a 543e acbd 9bbd 8fac 953e
00000250: a2a3 833d 6f30 1a3e adb6 be3d adbc 12bd
00000260: a41d 153e 42bb d3bc eb5b 933d c442 de3d
00000270: 28b0 3a3e 6dbf 853d 6fb7 99bd 5c70 273e
00000280: dc40 463e ce9d 813e 58be 8d3d 5adc 053d
00000290: 0184 203e 793f d33d a7fb bc3c fa96 ba3c
000002a0: 04bc c53b aa41 25bd a4d3 3ebd c474 193e
000002b0: a1a2 bc3d 5ed5 803e 024f 083e 092a 5d3d
000002c0: 16ae 5c3e 09b4 503e d1a0 243d 35f5 813e
000002d0: f168 c03d 0af2 373e 9215 4f3d ca75 123e
000002e0: 7d20 843d 98fc e83d d89e 383e 3e87 903d
000002f0: b2f2 593e bef6 dc3c 0a7d 0b3d b0e4 003e
00000300: 9d7c be3c 57f2 0d3e c459 003e c9a6 093e
00000310: e22f dc3d aa9d 05be 01de ee3b 2e4c aabc
00000320: 688d 3c3d 95bb 1bbe 23b3 12bd e189 353e
00000330: 793b ea3c 29d7 ac3c c729 043e 5c0e 4ebd
00000340: 1f23 2f3e e835 3e3c 312b cf3d 050f 9e3d
00000350: 62d0 553d 6506 2a3e 6241 593d eaf1 8b3e
00000360: 28d7 523e 8904 423e 5b43 0a3d b939 9d3d
00000370: efb8 323e de2c f83c 2f18 75bd daa5 eebd
00000380: 3da7 053e 8692 adbd aaac 8ebd 3f2e 613c
00000390: 8fc5 ab3d ec92 8e3d b6f1 4e3e bd5b 713c
000003a0: 9d51 3abd 78b6 f93d 87f5 d63c c06e dd3d
000003b0: 9e61 eebc b86b b53d 3884 4d3e 76af 033e
000003c0: 72a5 403e ca68 c53c 347d 3b3d cc0a 903e
000003d0: fff3 073d 0b58 673b ad29 a93e a47b 923d
000003e0: 15a6 2fbc 7319 3b3c ebb8 b33d a5fb 48bd
000003f0: 4d68 253e e7d2 9cbd 9f6b a93d 1552 783e

bn1.weight f4 [300]
0.8157456 1.0815953 0.3764603 0.38373804 1.5863521 0.29196468 1.4929339 0.34563276
0.19677448 0.3372106 1.2881405 1.2409506 0.70523804 1.44672 1.1864469 1.2849773
1.9254708 0.70620143 0.7512253 0.9528009 1.014156 0.53817505 0.8395371 1.135097
0.67561793 2.4696944 1.1201937 1.9782131 1.714626 1.0036373 0.9269774 0.36967728
1.3058127 1.3229443 0.78921676 1.4402823 1.3840703 0.30933943 1.4344233 1.942853
2.0861392 1.136707 0.8620083 1.2480342 0.7560866 0.9883342 0.34563872 0.34669372
1.8262215 0.3246042 1.635819 1.2437297 1.8495378 1.4301215 1.1296439 2.033208
0.37855244 0.89328957 1.0912399 2.0620372 1.3182074 0.86119115 0.33954114 0.8225602
0.73050386 0.8452917 0.23631625 0.7887514 1.051429 1.0382491 1.4768597 0.32453865
0.9749554 1.6088291 0.37232372 1.923358 0.8737086 1.0236949 0.33118457 0.9543194
1.0882784 1.5608417 1.8364266 0.35806033 0.3913555 1.4319857 0.35965773 0.3338608
1.1022891 0.34892294 2.2682047 0.91849744 0.7182342 1.369927 1.768229 2.0560052
1.2105145 1.0410106 0.26235902 0.345746 1.6911025 2.0678098 1.8923421 1.0802261
1.3289685 1.7623134 1.4636241 0.34901235 0.93926156 0.36617848 0.9898467 0.34427378
1.6777879 0.23437312 1.0839977 0.36521885 1.3992528 1.4247193 0.94888246 2.3507884
1.0373999 0.31115738 1.6438378 0.2730044 0.34384462 1.2387885 0.7083647 0.8926511
0.311819 0.36310288 2.283781 0.9049415 0.31013814 0.3538582 0.37562585 1.7875252
1.8027741 1.6324182 0.3613386 1.2425549 1.8427155 0.31725496 1.3399541 0.64057255
2.2288864 1.3310971 0.85059327 2.414419 2.0461512 0.97480845 0.3851924 0.7304035
1.5780525 2.2080443 1.3934652 0.34027427 1.5747323 0.3850553 1.2411625 1.1250663
1.2232143 0.69884866 1.1985478 0.3576133 2.540397 0.321922 1.1955471 0.351325
0.71961254 1.3547401 0.80823785 1.2552644 1.7660558 1.8975124 2.2112796 0.2947661
0.8756177 0.9832021 1.4592298 1.4473493 0.48710513 1.7299408 1.2711657 1.5018872
0.2657088 0.36745402 1.4342142 0.2108859 0.33976763 1.7835194 0.93336815 0.80437946
1.855138 0.3539476 1.1319298 2.1770542 1.3760817 1.5401113 0.36700103 1.2947164
0.32771558 1.1759244 0.8198017 1.2675682 0.32488436 0.27135336 1.1670837 1.7435914
1.4012502 0.28204647 1.5199238 0.85611016 0.37309262 1.2176433 0.95267963 0.36309692
1.0373425 1.8592352 0.30320612 1.5302641 1.6076005 1.8019549 1.6629384 1.3280714
1.0353941 1.4967204 1.4661603 0.3390047 1.9525452 1.5294342 2.3178225 0.34207433
0.7166486 1.7384671 1.6669912 0.8864424 1.3498738 1.35479 1.8785113 0.36224458
0.33587545 0.32102197 0.38087702 1.8152467 1.2953756 1.4561306 0.9828719 0.9018215
1.675449 1.6832426 1.7487221 1.0156894 0.96356314 1.5162357 1.2665341 0.37746167
00000000: b4d4 503f b771 8a3f 68bf c03e 5079 c43e
00000010: 960d cb3f 657c 953e 7518 bf3f c7f6 b03e
00000020: 407f 493e dea6 ac3e cae1 a43f 78d7 9e3f
00000030: 7b8a 343f 1f2e b93f 7edd 973f 237a a43f
00000040: d475 f63f 9ec9 343f 4d50 403f c3ea 733f
00000050: ddcf 813f d7c5 093f e7eb 563f dc4a 913f
00000060: 4cf5 2c3f 790f 1e40 8262 8f3f 1636 fd3f
00000070: dd78 db3f 3077 803f 644e 6d3f 5746 bd3e
00000080: df24 a73f 3d56 a93f 1c0a 4a3f 2c5b b83f
00000090: 3729 b13f bd61 9e3e 2f9b b73f 68af f83f
000000a0: 4e83 0540 9d7f 913f 93ac 5c3f 96bf 9f3f
000000b0: e48e 413f 7803 7d3f 8ff7 b03e d781 b13e
000000c0: a0c1 e93f 8632 a63e 8462 d13f 8932 9f3f
000000d0: a8bd ec3f 390e b73f 2c98 903f 1420 0240
000000e0: a0d1 c13e a0ae 643f c0ad 8b3f 6bf8 0340
000000f0: 05bb a83f 0677 5c3f 56d8 ad3e 4e93 523f
00000100: 4d02 3b3f 0965 583f e3fc 713e 9deb 493f
00000110: 3a95 863f 59e5 843f bd09 bd3f ee29 a63e
00000120: ad96 793f 1dee cd3f 37a1 be3e 9830 f63f
00000130: 5eab 5f3f 6f08 833f 0691 a93e 474e 743f
00000140: b54c 8b3f a9c9 c73f 0710 eb3f af53 b73e
00000150: c05f c83e 4f4b b73f 0f25 b83e ceef aa3e
00000160: cf17 8d3f 07a6 b23e 442a 1140 a622 6b3f
00000170: 32de 373f c559 af3f 5455 e23f 9795 0340
00000180: 24f2 9a3f d63f 853f ec53 863e 9f05 b13e
00000190: 0c76 d83f ff56 0440 4438 f23f d944 8a3f
000001a0: a41b aa3f 7c93 e13f 0958 bb3f bfb1 b23e
000001b0: 7273 703f bf7b bb3e 9866 7d3f a744 b03e
000001c0: c1c1 d63f 82ff 6f3e 70c0 8a3f f7fd ba3e
000001d0: b71a b33f 345d b63f f6e9 723f 5173 1640
000001e0: 85c9 843f 0550 9f3e 4769 d23f 3cc7 8b3e
000001f0: 670c b03e 9f90 9e3f 6457 353f c884 643f
00000200: bda6 9f3e 9fe8 b93e 7829 1240 3faa 673f
00000210: 6dca 9e3e e72c b53e 0852 c03e a0cd e43f
00000220: 4dc1 e63f 14f3 d03f 5f01 b93e 0a0c 9f3f
00000230: 1ade eb3f 3e6f a23e 9e83 ab3f 90fc 233f
00000240: 13a6 0e40 6461 aa3f 7bc0 593f d785 1a40
00000250: 24f4 0240 0c8d 793f f037 c53e b9fb 3a3f
00000260: a0fd c93f 9950 0d40 115d b23f 6e38 ae3e
00000270: d490 c93f f825 c53e 6ade 9e3f 2c02 903f
00000280: 4992 9c3f bfe7 323f 046a 993f 1719 b73e
00000290: dd95 2240 f6d2 a43e b007 993f dfe0 b33e
000002a0: 8738 383f 2068 ad3f ade8 4e3f 81ac a03f
000002b0: 1e0e e23f b0e1 f23f 9b85 0d40 95eb 963e
000002c0: 7b28 603f 22b3 7b3f 0bc8 ba3f be42 b93f
000002d0: d865 f93e b36e dd3f 8fb5 a23f d73d c03f
000002e0: fc0a 883e ef22 bc3e 5594 b73f 79f2 573e
000002f0: 06f6 ad3e 5d4a e43f 37f1 6e3f d0eb 4d3f
00000300: 2975 ed3f 9f38 b53e 13e3 903f db54 0b40
00000310: 7223 b03f 5e22 c53f 8fe7 bb3e 44b9 a53f
00000320: 56ca a73e b184 963f 86de 513f ad3f a23f
00000330: 3e57 a63e d4ee 8a3e 0063 953f 012e df3f
00000340: 2b5c b33f 6568 903e dd8c c23f 092a 5b3f
00000350: ff05 bf3e bcdb 9b3f d0e2 733f d7e7 b93e
00000360: a4c7 843f 6bfb ed3f d53d 9b3e b2df c33f
00000370: dac5 cd3f 75a6 e63f 2adb d43f 3efe a93f
00000380: cb87 843f 8994 bf3f 24ab bb3f 0692 ad3e
00000390: 00ed f93f 80c4 c33f 3457 1440 5e24 af3e
000003a0: 4876 373f 1786 de3f f85f d53f e4ed 623f
000003b0: aac8 ac3f c269 ad3f 0f73 f03f 1f78 b93e
000003c0: def7 ab3e fe5c a43e 5002 c33e 015a e83f
000003d0: dece a53f 7d62 ba3f 7e9d 7b3f c6dd 663f
000003e0: 1d75 d63f 7e74 d73f 20d6 df3f 1c02 823f
000003f0: 13ac 763f 0314 c23f ca1d a23f a842 c13e

bn1.bias f4 [300]
-0.6083362 -0.10336996 -0.6523556 -0.6214565 -0.17225246 -0.61271846 -0.2193143 -0.607664
-0.7039733 -0.68970394 -0.12299469 -0.03795893 -0.49900737 -0.02560292 -0.15581514 -0.42688972
0.36024246 -0.27325648 -0.202787 -0.2629738 -0.69391656 -0.15744928 -0.60981756 -0.16234909
-0.42277208 -0.09398767 -0.3580257 -0.28818616 -0.003733948 -0.47551006 -0.34866142 -0.6093806
-0.39060712 -0.08313391 -0.63778424 -0.16495858 -0.746316 -0.6456799 -0.38289115 -0.1705376
-0.3377799 -0.56271034 -0.064301625 -0.6113545 -0.34829375 -0.34710935 -0.5799478 -0.5902833
0.13459925 -0.58503807 -0.1299332 0.39687034 -0.1832301 -0.0031788794 -0.08105202 -0.3913046
-0.579316 -0.28535727 -0.18908754 0.070578486 -0.3674982 -0.53986233 -0.6104177 -0.5041255
-0.1623858 -0.4536409 -0.65818495 -0.37854403 -0.5342101 -0.19851877 -0.11434902 -0.5367821
-0.13642836 -0.10932774 -0.6123966 -0.46143186 -0.17068921 -0.1041398 -0.6429619 -0.4339087
-0.25491393 0.029005859 -0.51932603 -0.58599174 -0.63169664 -0.4473423 -0.6425447 -0.591535
-0.24508075 -0.593645 0.14242281 -0.32444635 -0.5305895 -0.32524666 -0.12624854 0.2579809
-0.6710491 -0.58943236 -0.61196744 -0.56175643 -0.53676957 -0.096486695 -0.22302702 -0.8835198
-0.3256019 -0.5124821 -0.5541231 -0.59897363 -0.50846225 -0.6091422 -0.4389603 -0.56034976
-0.008487771 -0.48561442 0.033226624 -0.61031044 -0.5672085 -0.52497363 -0.32036892 -0.25678414
-0.49663302 -0.64264005 0.03167115 -0.7360883 -0.6035036 -0.40163255 -0.7184526 -0.12038387
-0.6124562 -0.6279177 0.25582746 -0.51024014 -0.638277 -0.5805677 -0.5838698 -0.0071152216
0.1363508 -0.0181582 -0.6272144 -0.38008454 -0.43764007 -0.5770391 -0.09368364 -0.74120015
-0.27189055 -0.23515157 -0.37081724 0.42999434 -0.38252845 -0.74491596 -0.6204313 -0.45568916
-0.11621414 -0.26478022 -0.23405568 -0.5847043 -0.24077655 -0.586552 0.022928257 -0.33363384
-0.5872804 -0.43864384 -0.75553757 -0.5734986 -0.2229524 -0.5390232 -0.5353307 -0.5726999
-0.49574402 -0.41452464 -0.53154194 -0.0025690675 0.15697724 -0.10170894 0.13633098 -0.5390709
-0.37751952 -0.602166 -0.3399365 -0.37273782 -0.19683118 -0.35391584 -0.4626592 -0.009408679
-0.678379 -0.6093806 0.1234699 -0.67868894 -0.6073898 -0.24848382 -0.3744224 -0.352915
-0.5174649 -0.5829638 -0.1785712 -0.16653569 -0.28092492 -0.3593728 -0.5750483 -0.61114794
-0.58320224 0.1517023 -0.3571441 0.12238772 -0.56942165 -0.626213 -0.4465027 0.003034596
-0.07551634 -0.6194776 -0.10721912 -0.45232525 -0.61385095 -0.40907592 -0.36973387 -0.59619606
-0.16624841 0.4229304 -0.52837783 -0.253164 0.017086098 -0.12745674 -0.33307713 -0.6006961
-0.26658165 -0.12451878 -0.10261955 -0.6224698 -0.16816664 -0.6010048 -0.13221084 -0.59250057
-0.4904946 0.018925708 0.014686163 -0.5407914 -0.5242262 -0.36409387 0.0068685054 -0.59875906
-0.5449479 -0.60646 -0.6531305 0.08076387 -0.27955613 -0.11602064 -0.36549714 -0.6142302
-0.39472583 -0.48567647 0.15424529 -0.41018304 -0.57134503 -0.38517135 -0.06805094 -0.6360001
00000000: ecbb 1bbf a1b3 d3bd c700 27bf c617 1fbf
00000010: f362 30be 1edb 1cbf ee93 60be de8f 1bbf
00000020: 9837 34bf 7090 30bf a4e4 fbbd d37a 1bbd
00000030: e57d ffbe 37bd d1bc 018e 1fbe 4a91 dabe
00000040: b371 b83e 46e8 8bbe 65a7 4fbe 80a4 86be
00000050: 84a4 31bf 623a 21be 011d 1cbf d73e 26be
00000060: 9575 d8be 9c7c c0bd 254f b7be 238d 93be
00000070: 41b5 74bb 0e76 f3be c083 b2be 5e00 1cbf
00000080: a8fd c7be 1d42 aabd d445 23bf e7ea 28be
00000090: 910e 3fbf 474b 25bf 4f0a c4be 69a1 2ebe
000000a0: 7df1 acbe c90d 10bf 92b0 83bd ba81 1cbf
000000b0: 8f53 b2be 51b8 b1be 7677 14bf ce1c 17bf
000000c0: 63d4 093e 0ec5 15bf 350d 05be 9732 cb3e
000000d0: aca0 3bbe bf54 50bb 9afe a5bd 1459 c8be
000000e0: 0e4e 14bf 591a 92be 2aa0 41be 748b 903d
000000f0: b928 bcbe 6b34 0abf 5644 1cbf 5e0e 01bf
00000100: 7748 26be 9f43 e8be cf7e 28bf 86d0 c1be
00000110: fec1 08bf 8148 4bbe d22f eabd 8d6a 09bf
00000120: e0b3 0bbe 39e7 dfbd 06c6 1cbf cc40 ecbe
00000130: 27c9 2ebe 3f47 d5bd 2799 24bf 4829 debe
00000140: 1484 82be b29d ed3c 8df2 04bf 8e03 16bf
00000150: dfb6 21bf 0d0a e5be cf7d 24bf d66e 17bf
00000160: 73f6 7abe 1ef9 17bf 49d7 113e d51d a6be
00000170: b7d4 07bf bb86 a6be 4c47 01be 1316 843e
00000180: e0c9 2bbf 0ae5 16bf e6a9 1cbf 45cf 0fbf
00000190: bb69 09bf d19a c5bd 3261 64be 5b2e 62bf
000001a0: 4bb5 a6be 0732 03bf 03db 0dbf 5656 19bf
000001b0: 952a 02bf bef0 1bbf 68bf e0be 1573 0fbf
000001c0: 4b10 0bbc 74a2 f8be a418 083d 4e3d 1cbf
000001d0: 9434 11bf ac64 06bf 6507 a4be 3679 83be
000001e0: af46 febe 0f84 24bf 9cb9 013d 4870 3cbf
000001f0: 367f 1abf c8a2 cdbe 82ec 37bf d28b f6bd
00000200: eec9 1cbf 37bf 20bf d1fb 823e 199f 02bf
00000210: 1f66 23bf 16a0 14bf 7e78 15bf ce26 e9bb
00000220: 8b9f 0b3e 81c0 94bc 1f91 20bf 719a c2be
00000230: 5c12 e0be d6b8 13bf 35dd bfbd 4bbf 3dbf
00000240: 3d35 8bbe 93cb 70be c2db bdbe 3828 dc3e
00000250: c5da c3be d0b2 3ebf 96d4 1ebf 1750 e9be
00000260: ae01 eebd 4691 87be 4bac 6fbe 2eaf 15bf
00000270: 218e 76be 4628 16bf 0ad4 bb3c 0ed2 aabe
00000280: 0258 16bf ed95 e0be e96a 41bf ced0 12bf
00000290: a24d 64be 6dfd 09bf 6f0b 09bf 769c 12bf
000002a0: 29d2 fdbe 933c d4be 2213 08bf cd5d 28bb
000002b0: a4be 203e c74c d0bd 599a 0b3e 8d00 0abf
000002c0: 3d4a c1be 8d27 1abf 280c aebe 7ed7 bebe
000002d0: 1d8e 49be 7534 b5be abe1 ecbe dc26 1abc
000002e0: 3faa 2dbf 5e00 1cbf c9dd fc3d 8fbe 2dbf
000002f0: e67d 1bbf 8b72 7ebe 4bb4 bfbe 46b1 b4be
00000300: 9478 04bf 1e3d 15bf 5edb 36be 5588 2abe
00000310: 64d5 8fbe b6ff b7be 5e36 13bf 3174 1cbf
00000320: be4c 15bf d957 1b3e 97db b6be 6aa6 fa3d
00000330: 9ec5 11bf 7f4f 20bf 009c e4be 13e0 463b
00000340: 50a8 9abd 1696 1ebf b395 dbbd 2d97 e7be
00000350: 5625 1dbf 6672 d1be c24d bdbe 4ea0 18bf
00000360: 063d 2abe 558a d83e c543 07bf b69e 81be
00000370: 25f8 8b3c 0584 02be 1689 aabe 38c7 19bf
00000380: 647d 88be b403 ffbd 332a d2bd 2e5a 1fbf
00000390: e033 2cbe 73db 19bf 4762 07be 1eae 17bf
000003a0: 1c22 fbbe 160a 9b3c 3b9e 703c 4e71 0abf
000003b0: b033 06bf 836a babe 3311 e13b 4648 19bf
000003c0: b581 0bbf f640 1bbf 8f33 27bf 8767 a53d
000003d0: fb21 8fbe 3b9c edbd 7122 bbbe 313e 1dbf
000003e0: 8119 cabe 96aa f8be 7af2 1d3e 8303 d2be
000003f0: ab43 12bf 2e35 c5be 4b5e 8bbd e7d0 22bf

l2.weight f4 [300, 308]
-0.32292944 0.05172944 -0.061151065 -0.038215928 0.00078523956 -0.021560324 0.48132306 -0.035385452
0.11298742 0.11702563 -0.79472715 0.21067838 -0.52260107 1.3419967 -0.7876378 0.22871925
-0.1398562 0.10161506 -0.30786517 0.29639694 -0.1841242 0.056187853 -0.27479675 0.10272286
0.3262052 0.3220518 -0.3177164 0.8142613 0.8250373 -1.091243 -0.0923279 0.009127622
-0.9556286 -0.69845855 0.45083284 -1.4162551 0.2794383 0.021603912 -0.006977612 0.64089686
-0.51335293 0.47367507 0.015291052 0.27652034 0.4203012 1.1964378 0.06734959 0.060388874
-0.22103557 -0.03087803 -0.67200506 0.65991396 0.6980182 0.080732256 0.45114604 -0.36197692
0.11498417 -0.46404913 0.17767291 -0.3171807 0.2600986 0.389642 0.020484459 0.022564927
-1.0899714 -0.03923519 0.1507537 0.2760193 0.3090796 -1.1558622 -0.8214467 -0.058416706
0.15357116 -0.8419528 0.010711803 -0.31536913 -0.71552294 -0.46268347 0.009078261 0.26953056
-0.26839897 0.88879347 -0.42186844 0.20860602 0.01415472 -0.27363747 -0.015384812 0.06633035
0.27149895 -0.121901296 -0.072493345 -0.40630895 -0.27906704 -0.31742933 -0.21142928 0.2923711
0.81661004 -0.086592115 0.024068564 0.062324535 -0.32905725 -0.049727798 0.42227486 -0.9928906
-0.13612844 -0.4621749 0.17144078 -0.13149244 -0.07063137 -0.10469939 1.0530574 0.038206242
-0.97368747 -0.20360221 -1.302227 -0.09219282 -0.44194114 -0.4126524 0.8127755 -0.38162422
0.13211256 0.09013647 -0.37767246 0.022603778 -0.06964586 -0.64237714 0.46977943 -0.554779
0.11761274 -0.16088055 -0.13638157 0.5521559 0.11358347 0.056697853 0.11511679 -0.31315252
-0.14561693 0.10184889 -0.03367554 0.15201782 -0.31800354 -0.067009844 -0.20986679 -0.28068748
0.5370866 -0.27466115 0.31195557 -0.86309355 -0.17225279 0.02450631 -0.16677843 -0.7187386
0.09161745 0.6051636 -0.78367776 -0.22017829 -1.5192165 -0.41636568 0.41254064 -0.51320827
0.7021277 0.6085618 0.27184555 -0.0692316 -1.2484466 -0.02143776 0.37055114 -0.077291645
0.63026917 0.0757372 -0.75277966 -1.2223752 -0.29701167 0.5644931 0.38452375 0.03145452
0.36471325 0.54235077 -1.2058214 0.5367182 0.5686833 0.26341847 -0.16775043 0.7065605
0.02815931 0.25214878 0.61389273 0.00021194447 0.023745209 -0.33205244 -0.37528625 0.5554379
-0.03056389 -0.014133299 0.47030994 -0.53549665 -0.58378154 -0.18665345 0.01595711 0.23044556
0.09840512 -0.7581648 -0.12621538 -0.1680097 0.01888221 -0.12772246 0.35448742 -0.6582228
-0.24976115 -0.054155715 -0.57161075 0.4188668 0.084040396 0.021030216 0.26351506 0.0873261
0.024115343 0.012129599 0.12168822 0.3650727 0.7648345 -0.23430471 0.42777345 0.032203734
0.081938654 0.5207726 0.09875225 0.08040451 -0.17616266 -0.44427535 -0.1540836 0.0916996
-0.07332831 0.835737 0.058474995 0.2423846 -0.03342948 -0.8072654 0.030559003 0.08668983
0.022226779 -0.05055261 -0.029896786 0.112837344 0.0016897467 -0.17348777 -0.1501645 -0.31260586
0.25684357 -0.7704823 0.07515948 -0.048854075 0.13700353 -0.60210943 1.1928264 -0.034932453
00000000: 0257 a5be 40e2 533d 8a79 7abd 4e88 1cbd
00000010: 89d8 4d3a 479f b0bc fa6f f63e 56f0 10bd
00000020: f365 e73d 22ab ef3d 3d73 4bbf 13bc 573e
00000030: 2fc9 05bf 8cc6 ab3f a2a2 49bf 6135 6a3e
00000040: 7736 0fbe 8e1b d03d 81a0 9dbe 57c1 973e
00000050: 0e8b 3cbe 3c25 663d 29b2 8cbe 5d60 d23d
00000060: 5e04 a73e f9e3 a43e b9ab a2be 6e73 503f
00000070: a535 533f daad 8bbf 6916 bdbd 058c 153c
00000080: 13a4 74bf 2ece 32bf 90d3 e63e d947 b5bf
00000090: 8912 8f3e b0fa b03c 74a4 e4bb d111 243f
000000a0: 196b 03bf 8a85 f23e 5287 7a3c 1394 8d3e
000000b0: b831 d73e e024 993f 95ee 893d 535a 773d
000000c0: 2657 62be ecf3 fcbc 8608 2cbf 1ff0 283f
000000d0: 52b1 323f f456 a53d 9dfc e63e 0a55 b9be
000000e0: d27c eb3d d997 edbe e3ef 353e 8265 a2be
000000f0: a52b 853e 287f c73e 06cf a73c 15da b83c
00000100: 2f84 8bbf 14b5 20bd 2e5f 1a3e 6752 8d3e
00000110: ae3f 9e3e 4bf3 93bf 554a 52bf 5b46 6fbd
00000120: c241 1d3e 388a 57bf 8f80 2f3c 1078 a1be
00000130: 832c 37bf d9e4 ecbe fdbc 143c e9ff 893e
00000140: 976b 89be f887 633f 24ff d7be d19c 553e
00000150: 33e9 673c 361a 8cbe 9410 7cbc 35d8 873d
00000160: e901 8b3e 63a7 f9bd 6477 94bd ba07 d0be
00000170: e0e1 8ebe 1986 a2be eb80 58be aab1 953e
00000180: 5b0d 513f 3557 b1bd 702b c53c 0348 7f3d
00000190: 317a a8be 60af 4bbd 6934 d83e 142e 7ebf
000001a0: 4165 0bbe 30a2 ecbe 2c8e 2f3e f4a5 06be
000001b0: 2ea7 90bd a26c d6bd 96ca 863f 267e 1c3d
000001c0: 9543 79bf 197d 50be 60af a6bf 97cf bcbd
000001d0: 1c46 e2be 2d47 d3be 0e12 503f 4064 c3be
000001e0: 8448 073e 7899 b83d 495e c1be 8f2b b93c
000001f0: 7da2 8ebd d472 24bf ee86 f03e ff05 0ebf
00000200: f3de f03d dfbd 24be 9ca7 0bbe 175a 0d3f
00000210: 739e e83d 023c 683d 5ac2 eb3d 8755 a0be
00000220: 9b1c 15be 2796 d03d 5def 09bd 8faa 1b3e
00000230: 5cd1 a2be 753c 89bd 52e7 56be 45b6 8fbe
00000240: 827e 093f 63a0 8cbe a4b8 9f3e b3f3 5cbf
00000250: 0963 30be 75c1 c83c f7c7 2abe 41ff 37bf
00000260: eea1 bb3d 00ec 1a3f 1b9f 48bf 6b76 61be
00000270: b075 c2bf e22d d5be 8738 d33e 9e61 03bf
00000280: a4be 333f b5ca 1b3f 572f 8b3e 4cc9 8dbd
00000290: 19cd 9fbf 3e9e afbc e1b8 bd3e 154b 9ebd
000002a0: 5259 213f 1b1c 9b3d 2bb6 40bf ca76 9cbf
000002b0: ea11 98be 9f82 103f 4ce0 c43e 74d6 003d
000002c0: b2bb ba3e 80d7 0a3f 5b58 9abf 5d66 093f
000002d0: 3b95 113f c9de 863e c5c6 2bbe 26e1 343f
000002e0: 5aae e63c a519 813e 1328 1d3f 693d 5e39
000002f0: 5085 c23c c702 aabe 8525 c0be 2e31 0e3f
00000300: 1f61 fabc 5a8f 67bc 77cc f03e 4f16 09bf
00000310: b572 15bf 1522 3fbe 7cb8 823c ecf9 6b3e
00000320: a088 c93d 1717 42bf 9b3e 01be bc0a 2cbe
00000330: ddae 9a3c adc9 02be 607f b53e 4a81 28bf
00000340: 63c1 7fbe 62d2 5dbd 1555 12bf b675 d63e
00000350: 5f1d ac3d 8f47 ac3c 72eb 863e 07d8 b23d
00000360: 8a8d c53c 3abb 463c ac37 f93d cfea ba3e
00000370: 32cc 433f 93ed 6fbe 1f05 db3e 10e8 033d
00000380: 74cf a73d 5a51 053f 9f3e ca3d 1fab a43d
00000390: fc63 34be 0f78 e3be 17c8 1dbe 00cd bb3d
000003a0: 272d 96bd dcf2 553f 7a83 6f3d ab33 783e
000003b0: 5aed 08bd f2a8 4ebf e056 fa3c 708a b13d
000003c0: ef14 b63c 4110 4fbd 1bea f4bc 4417 e73d
000003d0: 7e7a dd3a c7a6 31be b9c4 19be e00d a0be
000003e0: 0081 833e 543e 45bf 37ed 993d 361b 48bd
000003f0: a74a 0c3e d823 1abf 89ae 983f 5515 0fbd

l2.bias f4 [300]
0.36601275 0.29565132 -0.2446959 -0.39587885 0.31806013 -0.23128705 0.3794143 -0.35465664
-0.3535121 -0.3433124 -0.5172632 -0.444749 -0.20438036 -0.47409263 -0.31058544 0.19648404
-0.36918986 -0.4481239 -0.49623153 -0.09124888 -0.1980316 -0.21136679 0.12372659 -0.21141988
-0.44115114 0.42852786 -0.06462809 -0.32850337 -0.21275309 0.22638735 0.10571853 0.5044563
0.02411213 -0.48620537 -0.27308762 0.051324446 -0.3003615 0.21164432 -0.2993225 -0.009659969
0.07522351 0.26245308 -0.17823374 -0.36379167 0.48446292 -0.17291227 -0.17782559 -0.5000197
-0.268937 -0.21527956 -0.2620733 -0.1132606 -0.20614335 -0.022110304 0.48040327 -0.24569209
0.11374679 0.5397562 -0.50327873 0.30065492 -0.20711789 -0.11226275 0.1041419 -0.45709315
-0.21919908 -0.5090586 -0.17994854 -0.12050267 -0.028764715 -0.5308413 0.30604154 -0.13981001
-0.2926561 -0.28107968 0.004049487 -0.4042698 -0.2981797 -0.41436163 0.18204445 -0.060475685
-0.3144431 -0.16894221 0.18778932 -0.24271305 -0.25047946 0.12746741 -0.43559104 0.4936024
-0.30654475 0.025596704 -0.2489113 -0.27259576 0.00035237015 -0.31606013 0.03330504 -0.11290228
0.3541215 -0.0621086 -0.06344428 -0.16629179 -0.43392426 -0.334778 0.17772782 0.19279881
-0.615228 -0.24175538 -0.5033011 -0.47159585 -0.25410643 -0.31328332 0.3634345 -0.054715965
-0.15092613 0.5486787 -0.13139252 -0.22858442 -0.0072047054 -0.40665448 0.43308604 0.57405823
0.5818406 0.44552064 -0.19095154 -0.45859236 0.32036188 -0.09834204 -0.5565943 -0.22835815
-0.04981394 0.062180284 -0.22749707 -0.09635658 -0.24387187 0.34315825 -0.3501854 0.29533347
-0.14054465 -0.4495705 -0.43746015 -0.5488396 0.21536532 -0.34351555 -0.30635354 -0.20353313
-0.04015416 -0.025383415 0.51836354 -0.28504246 -0.4221956 -0.36657175 -0.2942928 -0.3595138
-0.40454537 -0.2849296 -0.45205662 0.26195753 0.10977937 0.37015584 -0.31206635 -0.37300894
-0.21887225 -0.30386665 -0.21034257 0.09202281 0.33922714 -0.12839536 0.07138614 -0.45628712
0.0044446224 -0.2153052 -0.16148415 0.23576397 -0.20995964 -0.18479057 -0.30180892 -0.38618177
-0.35311309 -0.03292792 -0.115302 -0.08515324 -0.015484791 0.10203014 0.13222352 0.05155527
0.3750561 -0.3661923 -0.67569333 -0.40380257 -0.24185717 0.18664883 0.03195883 0.26172677
0.4030044 -0.20239921 -0.27855068 -0.026369482 -0.29553455 -0.20772064 0.17866525 -0.3132472
0.09243081 -0.039401397 -0.086117774 -0.29565826 -0.29640317 -0.29364285 0.2798026 0.3937054
-0.49260655 -0.13126703 0.20011717 0.47578138 0.54417765 0.3573425 0.19135289 0.17991927
-0.24486451 -0.19232723 -0.13204505 -0.4189864 0.5731061 0.21891592 0.37711307 -0.3036536
-0.43120846 -0.31234267 -0.16720963 -0.24053285 -0.38907188 0.3512093 -0.30371952 -0.3051623
0.3145012 -0.41624796 -0.26889494 -0.27123904 0.17533286 -0.49217588 0.054727256 -0.07623478
-0.1587913 -0.15910473 -0.016968312 0.46586424 -0.51983017 -0.32386342 0.22326757 0.26954588
0.06046406 -0.38141486 0.28460047 0.3642526 -0.047982812 0.026159056 -0.5720176 -0.14091183
00000000: 0666 bb3e 9c5f 973e 9091 7abe a2b0 cabe
00000010: c7d8 a23e 83d6 6cbe 9742 c23e 8e95 b5be
00000020: 8aff b4be a5c6 afbe 5c6b 04bf 24b6 e3be
00000030: 1649 51be 45bc f2be 0e05 9fbe 1d33 493e
00000040: 7406 bdbe 7f70 e5be 0f12 febe b1e0 babd
00000050: ccc8 4abe 8970 58be 5e64 fd3d 747e 58be
00000060: 90de e1be 0168 db3e bb5b 84bd 9831 a8be
00000070: f2db 59be 16d2 673e f582 d83d 0c24 013f
00000080: cd86 c53c e9ef f8be 24d2 8bbe 9539 523d
00000090: fcc8 99be 4ab9 583e cc40 99be d944 1ebc
000000a0: c90e 9a3d 4060 863e e882 36be e742 babe
000000b0: 860b f83e ea0f 31be e917 36be 4b01 00bf
000000c0: 1cb2 89be 3f72 5cbe 792e 86be 2cf5 e7bd
000000d0: 3e17 53be ab20 b5bc 6bf7 f53e b596 7bbe
000000e0: 14f4 e83d 762d 0a3f e0d6 00bf 71ef 993e
000000f0: b616 54be 03ea e5bd 5948 d53d 1d08 eabe
00000100: b975 60be aa51 02bf 6e44 38be 1bca f6bd
00000110: fba3 ebbc 37e5 07bf 7ab1 9c3e 5b2a 0fbe
00000120: 05d7 95be ade9 8fbe 8fb1 843b 74fc cebe
00000130: 02ab 98be 3527 d4be dc69 3a3e 5ab5 77bd
00000140: b0fe a0be 30ff 2cbe d84b 403e c589 78be
00000150: d83e 80be d186 023e ca05 dfbe 74b9 fc3e
00000160: 6ff3 9cbe 2eb0 d13c 9be2 7ebe ac91 8bbe
00000170: 52be b839 a2d2 a1be de6a 083d 5039 e7bd
00000180: 6a4f b53e 9665 7ebd 13ef 81bd 6548 2abe
00000190: 522b debe 0668 abbe 48fe 353e 0d6d 453e
000001a0: 957f 1dbf b98e 77be 57d8 00bf 0375 f1be
000001b0: 3d1a 82be ac66 a0be 1614 ba3e d91d 60bd
000001c0: 618c 1abe 3576 0c3f c38b 06be 0912 6abe
000001d0: 7315 ecbb 0435 d0be 74bd dd3e 7bf5 123f
000001e0: 81f3 143f 481b e43e cd88 43be 9ecc eabe
000001f0: 7906 a43e 8d67 c9bd f77c 0ebf b8d6 69be
00000200: b409 4cbd c1b0 7e3d fef4 68be 9956 c5bd
00000210: 8cb9 79be 70b2 af3e 804b b3be f335 973e
00000220: f0ea 0fbe 1b2e e6be c7fa dfbe c180 0cbf
00000230: ba88 5c3e 45e1 afbe 5fda 9cbe fd6a 50be
00000240: b078 24bd e1f0 cfbc 79b3 043f 16f1 91be
00000250: 062a d8be 4baf bbbe 8cad 96be 3112 b8be
00000260: 9220 cfbe 4be2 91be f773 e7be 4c1f 863e
00000270: 02d4 e03d 1185 bd3e 29c7 9fbe 07fb bebe
00000280: 0c20 60be 6994 9bbe 0b64 57be 7476 bc3d
00000290: 2eaf ad3e 137a 03be e632 923d 779e e9be
000002a0: 32a4 913b f778 5cbe 1a5c 25be 1c6c 713e
000002b0: a9ff 56be bd39 3dbe b386 9abe 9eb9 c5be
000002c0: 3dcb b4be 6ddf 06bd 7423 ecbd d264 aebd
000002d0: ecb3 7dbc 2ef5 d03d 9a65 073e 9e2b 533d
000002e0: 5a07 c03e 8f7d bbbe 3dfa 2cbf 36bf cebe
000002f0: 68a9 77be df20 3f3e 43e7 023d 0d01 863e
00000300: 9856 ce3e bd41 4fbe 329e 8ebe d004 d8bc
00000310: 4e50 97be b8b4 54be 06f4 363e f061 a0be
00000320: 5d4c bd3d 5c63 21bd 845e b0bd 8560 97be
00000330: 28c2 97be 5b58 96be 4942 8f3e c193 c93e
00000340: ed36 fcbe dd6a 06be 84eb 4c3e 9e99 f33e
00000350: 3a4f 0b3f 99f5 b63e 03f2 433e c23c 383e
00000360: c3bd 7abe 6ef1 44be d136 07be 6385 d6be
00000370: 15b7 123f 7f2b 603e f714 c13e 7c78 9bbe
00000380: 5bc7 dcbe 61eb 9fbe 0039 2bbe 3e4e 76be
00000390: 6e34 c7be b5d1 b33e 2081 9bbe 3c3e 9cbe
000003a0: 4d06 a13e 741e d5be 99ac 89be d8df 8abe
000003b0: 758a 333e 7afe fbbe b029 603d fb20 9cbd
000003c0: 309a 22be 5aec 22be 2101 8bbc c285 ee3e
000003d0: 9713 05bf 6dd1 a5be 41a0 643e eb01 8a3e
000003e0: 2aa9 773d cf48 c3be 27b7 913e 517f ba3e
000003f0: a089 44bd 844b d63c bf6f 12bf 314b 10be

bn2.weight f4 [300]
1.3728284 1.207232 1.0111486 1.060271 1.3539511 0.94008267 1.2265644 0.56513345
0.98753 0.35389993 0.9459605 0.29231635 1.0184706 0.4949771 0.47383997 1.0032114
1.1712036 0.17055735 0.36495063 0.9938561 0.30452934 1.107647 1.0976028 1.2203976
0.35010907 1.4775088 1.0079788 0.9079484 0.8347711 1.341923 1.5218221 1.4746684
0.93348366 0.27835095 0.2742379 1.1147364 0.25372827 1.3342065 1.0225347 1.0170244
1.2411655 1.372412 0.97980946 1.1484927 1.008766 0.29614893 0.93977106 0.2604457
1.0080312 0.90323025 1.0099865 0.4530881 1.2569274 1.3003621 1.4983923 0.31977028
1.3235695 1.838424 0.53990376 1.1889129 0.28893676 0.88083184 1.2023326 0.87846345
0.93050605 0.39711332 0.28272 1.3890326 0.9917383 0.82543325 1.4068791 0.88473016
0.2818438 0.2783748 1.0905863 0.36072466 0.63329494 1.1775379 1.0129427 0.9039236
0.8042878 0.90254045 1.1231922 0.88279605 0.16774401 0.9889732 0.28552738 1.529684
0.94879234 1.0388932 0.9516744 0.9966321 0.9968554 0.2959284 0.9968146 0.9853848
1.3814579 0.96721315 0.9949777 1.164662 2.2446525 0.9785158 0.89943314 1.4022828
0.93335545 0.86984706 0.99612975 0.2916011 0.94557804 0.8489905 1.3250453 1.0280547
1.0265417 1.1068186 0.23485892 0.26507103 0.93369013 0.34224123 1.3384513 1.7111918
1.638828 1.3852267 1.0475914 0.32485917 1.1082698 0.3328356 0.33443302 1.0455676
0.9468108 0.83795315 0.7187734 0.9856518 0.8566349 1.1134964 1.2074665 1.1235352
1.2009509 0.9492921 0.954832 1.1444802 1.1405814 1.0010164 0.3077778 0.24111442
1.150834 1.1837448 1.2883439 0.30448166 1.074257 0.34456584 2.1009433 1.0472875
0.79495454 1.1042267 0.3232035 1.092316 1.0716093 1.4734304 0.30766454 1.0735134
1.3650322 0.27847612 0.9205376 0.8760624 1.3119622 0.9865511 1.2029923 0.44693837
1.2004039 0.9031221 1.2243096 1.2824242 1.1206632 0.28190342 0.3491092 0.32523006
0.18143521 1.031942 1.0965413 1.0197197 0.97815114 0.91050017 0.8945067 0.9630584
0.96284443 0.26253784 1.2373196 0.28415647 0.3521237 0.95433754 0.93463546 1.3972609
1.4287372 0.33222184 0.39893723 1.1174549 0.28837052 0.2706741 1.335018 0.33899277
1.0293713 0.98148143 1.0178375 1.0041826 0.37768817 0.99046916 1.223727 1.0472199
0.30651417 0.19982922 1.2524546 1.4017276 1.3467371 1.3668457 1.343332 1.0933361
1.0804855 1.4077075 0.286642 0.9341702 1.2717022 1.0796741 1.2529964 0.7608329
1.1854011 0.6293305 0.9363338 1.016241 0.9116319 1.0492321 1.0813423 0.95186037
1.0617963 0.26958907 0.30998912 0.24227671 1.0057092 0.17479526 0.98526824 1.0003452
0.94327736 0.9060996 0.9874964 1.4200139 0.35121176 0.392035 1.2224233 1.2339741
1.0417844 0.33453435 1.3669372 1.5051929 1.0841774 1.3443307 0.36389396 1.0318367
00000000: d7b8 af3f 9486 9a3f 516d 813f f6b6 873f
00000010: 454e ad3f 42a9 703f 1000 9d3f 96ac 103f
00000020: c4ce 7c3f 5f32 b53e 782a 723f 7daa 953e
00000030: 3f5d 823f a36d fd3e 279b f23e 3b69 803f
00000040: 00ea 953f 96a6 2e3e cfda ba3e 5a6d 7e3f
00000050: 45eb 9b3e 60c7 8d3f 407e 8c3f fd35 9c3f
00000060: 7f41 b33e 021f bd3f 7305 813f 4e6f 683f
00000070: 8fb3 553f 22c4 ab3f 11cb c23f efc1 bc3f
00000080: c9f8 6e3f 0484 8e3e e968 8c3e afaf 8e3f
00000090: ace8 813e 47c7 aa3f 6be2 823f db2d 823f
000000a0: 83de 9e3f 32ab af3f cbd4 7a3f cf01 933f
000000b0: 3f1f 813f d5a0 973e d694 703f 2459 853e
000000c0: 2b07 813f 193a 673f 3d47 813f 2afb e73e
000000d0: ffe2 a03f 4472 a63f 52cb bf3f eeb8 a33e
000000e0: ba6a a93f 7a51 eb3f 2237 0a3f 4c2e 983f
000000f0: 85ef 933e 327e 613f 09e6 993f fbe2 603f
00000100: a535 6e3f 7052 cb3e adc0 903e d2cb b13f
00000110: 90e2 7d3f 984f 533f 9d14 b43f ad7d 623f
00000120: d54d 903e 2487 8e3e 5598 8b3f e7b0 b83e
00000130: 9e1f 223f 90b9 963f 1ba8 813f 8967 673f
00000140: cee5 4d3f e40c 673f c3c4 8f3f ecfe 613f
00000150: 16c5 2b3e 592d 7d3f a530 923e afcc c33f
00000160: 0ee4 723f 74fa 843f efa0 733f 4823 7f3f
00000170: ea31 7f3f ed83 973e 3e2f 7f3f 2e42 7c3f
00000180: 9dd3 b03f 489b 773f dcb6 7e3f a513 953f
00000190: 63a8 0f40 0380 7a3f 4041 663f 017e b33f
000001a0: 62f0 6e3f 4cae 5e3f 5c02 7f3f bd4c 953e
000001b0: 6711 723f 7157 593f 169b a93f 4c97 833f
000001c0: b865 833f 3bac 8d3f db7e 703e 64b7 873e
000001d0: 5106 6f3f 3e3a af3e 5f52 ab3f 5508 db3f
000001e0: 1ec5 d13f 1c4f b13f 7a17 863f f153 a63e
000001f0: c9db 8d3f 6e69 aa3e ce3a ab3e 29d5 853f
00000200: 3162 723f 1984 563f 8901 383f ad53 7c3f
00000210: 6d4c 5b3f 0d87 8e3f 438e 9a3f 00d0 8f3f
00000220: c2b8 993f cf04 733f df6f 743f 547e 923f
00000230: 92fe 913f 4e21 803f 0d95 9d3e b3e6 763e
00000240: 874e 933f f384 973f 74e8 a43f 05e5 9b3e
00000250: 4181 893f ef6a b03e db75 0640 840d 863f
00000260: 2482 4b3f 4d57 8d3f ee7a a53e 03d1 8b3f
00000270: 7e2a 893f 5e99 bc3f 3586 9d3e e368 893f
00000280: 60b9 ae3f 6c94 8e3e 5aa8 6b3f a045 603f
00000290: 61ee a73f 9d8e 7c3f a7fb 993f 1bd5 e43e
000002a0: d6a6 993f 0333 673f 2db6 9c3f 7a26 a43f
000002b0: e471 8f3f a555 903e 71be b23e 8e84 a63e
000002c0: 27ca 393e ad16 843f 775b 8c3f 2d86 823f
000002d0: 1d68 7a3f 8a16 693f 64fe 643f ff8a 763f
000002e0: f97c 763f 5c6b 863e 7d60 9e3f f57c 913e
000002f0: 8f49 b43e 774f 743f 4544 6f3f 72d9 b23f
00000300: dce0 b63f fb18 aa3e 8041 cc3e c308 8f3f
00000310: 4da5 933e cc95 8a3e dfe1 aa3f 7690 ad3e
00000320: 70c2 833f 5e42 7b3f 8048 823f 0e89 803f
00000330: 5860 c13e 638f 7d3f 16a3 9c3f 4d0b 863f
00000340: 6def 9c3e 08a0 4c3e 6f50 a03f cf6b b33f
00000350: e261 ac3f cdf4 ae3f 4ef2 ab3f 70f2 8b3f
00000360: 594d 8a3f c22f b43f bdc2 923e c725 6f3f
00000370: 23c7 a23f c332 8a3f 3062 a03f f2c5 423f
00000380: 39bb 973f ce1b 213f 92b3 6f3f 2f14 823f
00000390: b560 693f 3d4d 863f 6d69 8a3f 1fad 733f
000003a0: f1e8 873f 9407 8a3e e5b6 9e3e 6317 783e
000003b0: 14bb 803f 87fd 323e 8a3a 7c3f 500b 803f
000003c0: a07a 713f 25f6 673f 90cc 7c3f 04c3 b53f
000003d0: 07d2 b33e d0b8 c83e 5e78 9c3f ddf2 9d3f
000003e0: 3159 853f 1648 ab3e ccf7 ae3f 29aa c03f
000003f0: 53c6 8a3f 0713 ac3f 4f50 ba3e 3a13 843f

bn2.bias f4 [300]
-0.3280193 -0.63907397 -0.8791527 -0.5726412 -0.5257988 -0.5587601 -0.55206084 -0.42482617
-0.7153002 -0.64030355 -0.90315086 -0.8460232 -1.0110933 -0.66851294 -0.51799047 -0.48600647
-1.0519624 -0.7199354 -0.69995594 -0.69015443 -0.58746994 -0.72352976 -0.6134667 -0.9650415
-0.79355913 0.09593947 -0.41552117 -0.6247005 -0.6481207 0.26550347 0.011902532 -0.5975672
-0.37749907 -0.63636965 -0.6930391 -0.79531485 -0.8271047 0.27262285 -0.71943706 -0.7674776
-0.5870574 0.23480237 -0.8336825 -0.80354244 -0.5356245 -0.6410069 -0.80605733 -0.7403083
-0.8328299 -0.7271762 -0.89094985 -1.1104237 -1.0222806 0.10940409 -0.44845608 -0.74815226
-0.463594 -0.63482744 -0.47528067 -0.4794805 -0.6734676 -1.0009224 -0.2979154 -1.2359362
-0.6871306 -0.7466979 -0.7267542 -0.8400152 -0.83905023 -0.7634678 0.32254398 -0.67816675
-0.7967897 -0.59767425 -0.7184237 -0.8379766 -0.4188839 -1.0752906 -0.6622932 -0.825335
-0.88540673 -0.6634016 0.42094725 -0.9666474 -0.70280504 0.1281017 -0.80946165 -0.46392488
-0.76968044 -0.5300515 -1.0351058 -0.4390164 -0.9434288 -0.7353015 -0.52433914 -0.77438045
-0.25444198 -0.49267337 -0.4552742 -0.50711054 -1.5376561 -0.9069003 -0.8874697 -0.45902097
-0.72997785 -0.76231104 -0.6047105 -0.7932492 -1.0156574 -0.6531338 -0.6940129 -0.9924611
-1.1749558 -0.5528858 -0.7851787 -0.61425626 -0.8776998 -0.65561 -0.5589464 -0.7107792
-0.4502003 -0.5371187 -0.6890162 -0.5985542 -0.44661832 -0.8032151 -0.6603307 -0.7588921
-0.3975025 -1.0577148 -0.5601119 -0.5435759 -0.89964855 -0.4099326 -0.8643028 -0.45670906
-0.75281626 -0.87334466 -0.77865523 -0.55434686 -0.7620106 -1.067462 -0.6195253 -0.7027335
-0.7791215 -0.8106199 -0.63766044 -0.7584401 -0.840297 -0.60883224 -1.2798774 -0.80736184
-0.87541026 -0.71251357 -0.71802807 -0.64870185 -0.6351598 -0.48763722 -0.595755 -0.4872012
-0.79329914 -0.6552524 -0.87696534 -0.84949845 -0.35496888 -0.67674667 -0.56271756 -0.68226594
-0.56222785 -0.9797758 -0.7299318 -0.6047204 -0.9501699 -0.64063734 -0.697342 -0.84855044
-0.60409963 -0.76763105 -0.3705409 -0.967196 -0.978342 -0.871266 -0.7806424 -0.5067552
-0.5802248 -0.8143612 -0.48341393 -0.5863136 -0.6872124 -0.654408 -0.4528398 -0.53077227
-0.40516144 -0.7545658 -0.87631434 -1.04467 -0.65806574 -0.62196285 -0.53959143 -0.83926404
-0.2703306 -0.60085 -0.5485971 -0.865762 -0.7858463 -0.5657335 -0.45236278 -0.37119937
-0.7097907 -0.5262082 -0.5485891 -0.5180192 -0.40248019 -0.6283971 -0.2858498 -0.24912345
-0.834878 -1.054485 -0.7173605 -0.6548067 -0.78970015 -0.62694156 -0.56120396 -1.1080045
-0.91300505 -0.54880327 -0.8204887 -0.45266312 -0.5794263 -0.65211195 -0.6704692 -0.73134995
-0.6818207 -0.76429325 -0.82486355 -0.6013459 -0.7422814 -0.5963391 -0.5477444 -0.6118692
-0.8366666 -1.227478 -0.9241429 -0.5250614 -0.73509884 -0.6344623 -0.007689274 -0.4921102
-0.54452085 -0.5979246 -0.4409176 -0.32301557 -0.36580506 0.25485906 -0.71084434 -0.5692324
00000000: 25f2 a7be 5a9a 23bf 2710 61bf 9d98 12bf
00000010: c09a 06bf e70a 0fbf dc53 0dbf d182 d9be
00000020: ea1d 37bf efea 23bf e534 67bf fa94 58bf
00000030: 816b 81bf aa23 2bbf 069b 04bf d7d5 f8be
00000040: b4a6 86bf b04d 38bf 5030 33bf f6ad 30bf
00000050: 6e64 16bf 3f39 39bf 270c 1dbf f60c 77bf
00000060: b126 4bbf ea7b c43d 31bf d4be 5fec 1fbf
00000070: 3deb 25bf 12f0 873e d602 433c 2afa 18bf
00000080: 8f47 c1be 1fe9 22bf 036b 31bf c199 4bbf
00000090: 22bd 53bf 3995 8b3e 072d 38bf 6979 44bf
000000a0: 6549 16bf 0870 703e 376c 55bf f5b4 4dbf
000000b0: b01e 09bf 0719 24bf c659 4ebf d884 3dbf
000000c0: 5734 55bf 3828 3abf 4a15 64bf 5d22 8ebf
000000d0: 17da 82bf 400f e03d 099c e5be e886 3fbf
000000e0: 315c edbe 0d84 22bf fd57 f3be 787e f5be
000000f0: 5f68 2cbf 3a1e 80bf 5e88 98be 2833 9ebf
00000100: cae7 2fbf 9827 3fbf 900c 3abf 3c0b 57bf
00000110: ffcb 56bf a072 43bf 7c24 a53e 569c 2dbf
00000120: 69fa 4bbf 2e01 19bf 9eea 37bf a285 56bf
00000130: f377 d6be 1fa3 89bf 0c8c 29bf 2849 53bf
00000140: 04aa 62bf b0d4 29bf 6686 d73e 3476 77bf
00000150: 08eb 33bf 182d 033e e138 4fbf 9087 edbe
00000160: c709 45bf 75b1 07bf 597e 84bf c2c6 e0be
00000170: 8d84 71bf b83c 3cbf 173b 06bf cc3d 46bf
00000180: 3846 82be af3f fcbe b319 e9be ffd1 01bf
00000190: ead1 c4bf 9e2a 68bf 3731 63bf cc04 ebbe
000001a0: d4df 3abf d126 43bf 4fce 1abf 6112 4bbf
000001b0: 1001 82bf c733 27bf d4aa 31bf ee11 7ebf
000001c0: f464 96bf ec89 0dbf 7901 49bf e63f 1dbf
000001d0: efb0 60bf 0fd6 27bf 1c17 0fbf a0f5 35bf
000001e0: a780 e6be 9c80 09bf 5e63 30bf d93a 19bf
000001f0: 28ab e4be 819f 4dbf 6f0b 29bf c146 42bf
00000200: 7385 cbbe 3363 87bf 7e63 0fbf ca27 0bbf
00000210: 5e4f 66bf b0e2 d1be f342 5dbf c5d5 e9be
00000220: 91b8 40bf 8493 5fbf f355 47bf ade9 0dbf
00000230: 2013 43bf 98a2 88bf 3699 1ebf 58e6 33bf
00000240: 8274 47bf c984 4fbf b73d 23bf 2129 42bf
00000250: b41d 57bf 6edc 1bbf 06d3 a3bf 44af 4ebf
00000260: e31a 60bf 4a67 36bf b0d0 37bf 5311 26bf
00000270: d599 22bf 96ab f9be 6683 18bf 7072 f9be
00000280: a715 4bbf 9fbe 27bf cd80 60bf bb78 59bf
00000290: 7bbe b5be 453f 2dbf 420e 10bf fba8 2ebf
000002a0: 2aee 0fbf 96d2 7abf cfdc 3abf f5ce 1abf
000002b0: 563e 73bf cf00 24bf 0185 32bf 9a3a 59bf
000002c0: 46a6 1abf 7883 44bf 89b7 bdbe 289a 77bf
000002d0: 9f74 7abf 4a0b 5fbf 2ed8 47bf b5ba 01bf
000002e0: 9d89 14bf fa79 50bf 0882 f7be a618 16bf
000002f0: 27ed 2fbf 4887 27bf 9eda e7be b1e0 07bf
00000300: 5271 cfbe 392b 41bf 2356 60bf bfb7 85bf
00000310: ff76 28bf f538 1fbf aa22 0abf 02da 56bf
00000320: c668 8abe 4ed1 19bf dc70 0cbf 94a2 5dbf
00000330: 392d 49bf e9d3 10bf 189c e7be d80d bebe
00000340: d8b4 35bf 95b5 06bf 5670 0cbf e89c 04bf
00000350: e211 cebe a2de 20bf e85a 92be 381a 7fbe
00000360: 91ba 55bf 5df9 86bf f0a4 37bf 69a1 27bf
00000370: ca29 4abf 3e7f 20bf 10ab 0fbf 17d3 8dbf
00000380: b3ba 69bf 5f7e 0cbf 8c0b 52bf 76c3 e7be
00000390: 4855 14bf cff0 26bf dfa3 2bbf c039 3bbf
000003a0: cd8b 2ebf b9a8 43bf 422a 53bf cef1 19bf
000003b0: 2706 3ebf aea9 18bf fa38 0cbf 76a3 1cbf
000003c0: c82f 56bf 001e 9dbf a194 6cbf 6d6a 06bf
000003d0: 702f 3cbf 1f6c 22bf 4ef6 fbbb def5 fbbe
000003e0: b865 0bbf 9611 19bf f4bf e1be 4c62 a5be
000003f0: cd4a bbbe e37c 823e e5f9 35bf 37b9 11bf
