weights/model_120.pt (torch, 429959 bytes, 10 tensors)

l1.weight f4 [300, 42]
000000 e3 6b 37 3f cd ac 0b bf 6e 10 3a 3f 74 92 fb bd
       0.71649 -0.5456055 0.7268132 -0.12283793
000010 bb 90 2d 3f 45 8a cf bd ef 25 ff bf b8 9d 66 bf
       0.67798966 -0.10133795 -1.9933451 -0.9008441
000020 9e 7f 7c bf 45 5c 89 3f fb 33 e1 3e 0e 0a 42 3d
       -0.9863223 1.0731283 0.4398497 0.04737287
000030 4f 33 45 3f c9 27 47 bf 5b 21 65 c0 a7 29 16 3f
       0.77031416 -0.7779508 -3.5801609 0.58657306
000040 dd db 92 3e 0e 48 5a bf 3d b4 62 40 08 e5 c9 3f
       0.28683367 -0.85266197 3.5422509 1.577302
000050 56 cc 63 bf a2 64 96 3f 7e e1 70 3e 80 f7 32 3f
       -0.88983667 1.1749461 0.23523518 0.69908905
000060 82 90 31 3f 38 fa 28 3f f5 27 33 3f 11 ee 40 bf
       0.69361126 0.66006804 0.69982845 -0.7536326
000070 4b d6 a3 3f c8 c6 83 be 73 9e 5f bf 47 44 8f bf
       1.2799772 -0.25737596 -0.8735115 -1.1192712
000080 8e e4 af 40 40 24 43 c0 6a 82 f1 3e af 99 c7 c0
       5.4966497 -3.0490875 0.4716981 -6.23751
000090 9b 34 ac c0 de 62 aa 3f d4 ea 14 bf a8 99 e5 bf
       -5.3814216 1.3311422 -0.5817082 -1.7937517
0000a0 b3 e9 f1 3f e2 e0 06 40 08 43 17 3f c3 cd 9b 3f
       1.8899444 2.1074758 0.59086657 1.2172168
0000b0 bb 77 1e 3f 25 6d 96 3f 61 51 b2 3e a3 e6 c2 3f
       0.61901444 1.1752058 0.34827712 1.5226635
0000c0 84 d3 47 3e b0 98 da be 92 4b 01 3e a4 3e 47 3f
       0.1951428 -0.42694616 0.12626484 0.77829957
0000d0 6b 2c a6 3e 6c 90 1a c0 3b fe 75 3d de de 45 bf
       0.32455763 -2.4150648 0.060056906 -0.77293193
0000e0 17 99 a8 3f 81 c5 70 be 7a 3a 2c be 0d 6e f7 bf
       1.3171719 -0.23512842 -0.16819182 -1.933046
0000f0 ed 2d 45 c0 b3 2b 98 3d c3 31 8f 3f ce a2 11 3f
       -3.080928 0.0743021 1.1187061 0.56889045
000100 00 37 88 c0 20 86 e3 3e 07 9f 70 3f 22 0e 55 3f
       -4.256714 0.44438267 0.93992656 0.8322469
000110 75 2b 01 40 e8 48 19 40 b3 c5 bb c0 24 71 22 40
       2.0182774 2.3950748 -5.867883 2.5381556
000120 9d bb 87 3e 56 e5 43 3f 5f 58 73 3e 2b 2a e6 bf
       0.26510325 0.76521814 0.2376418 -1.7981619
000130 e5 f1 3f 3f a2 21 09 bf dc 69 ef bf dd b5 b8 be
       0.74978477 -0.53566945 -1.8704181 -0.3607625
000140 74 5d 10 c0 29 10 83 3e 2c 50 42 c0 ea b7 29 c0
       -2.255704 0.25598267 -3.0361433 -2.6518502
000150 a6 23 c2 3e b1 b9 ca bc fc d2 bb bd 43 e9 a3 bf
       0.37917823 -0.024746748 -0.091711015 -1.2805561
000160 6f 4d d4 3e c3 15 15 bf 99 36 bd 3f 5e 1f 47 bf
       0.41465327 -0.5823633 1.4782287 -0.7778224
000170 13 4d 58 bf 34 84 c7 3f 2d cc 6d 3f 64 23 99 bf
       -0.84492606 1.558722 0.9288967 -1.1963925
000180 c6 c1 63 3f e2 68 f5 be 53 e5 ad 3c 05 f7 ee 3f
       0.8896755 -0.47931582 0.021227514 1.8669134
000190 45 4e eb 3f 3f f9 2e be 11 9e 97 c0 6d 9d 35 be
       1.8383261 -0.17087267 -4.738045 -0.17735834
0001a0 e2 33 5e bf 4a 8a 75 3f 62 d2 09 40 dc 60 8d 3f
       -0.86797917 0.9591414 2.1534657 1.1045184
0001b0 d1 26 59 3f 44 20 f1 3e ad 91 14 bf 85 63 b5 bd
       0.84824854 0.4709493 -0.58034784 -0.088568725
0001c0 04 05 7b 3e 4b f4 84 3f 49 b7 0d 3e d9 34 68 3f
       0.24513632 1.0387052 0.13839449 0.9070564
0001d0 1a d5 20 41 6f 12 ed bf 44 ea 39 3f e4 09 b6 3f
       10.052027 -1.852125 0.72623086 1.4221768
0001e0 61 58 79 bf 11 62 9b be 1f 9f f2 bf 52 8a 43 c0
       -0.9740048 -0.30348256 -1.895481 -3.0553174
0001f0 d9 d0 33 40 e2 f5 64 40 f9 aa 7d 3f ce 03 2d 3f
       2.809622 3.5775075 0.9908901 0.6758393
000200 91 87 6c 3f 48 4c ae 3f e7 e3 3b 3f 4e b0 e9 be
       0.9239436 1.3617029 0.73394626 -0.45642322
000210 92 8d bd bf 65 79 ef bf f1 d3 1c bf e8 b7 52 3f
       -1.4808829 -1.8708922 -0.61260897 0.8231187
000220 ef 6b 16 3f d5 82 f9 3e 20 20 7d 3f b9 93 ba bf
       0.58758444 0.4873263 0.98877144 -1.4576331
000230 25 92 13 40 6c 65 be bf 4c 00 b9 bd 4b 86 23 40
       2.305795 -1.4874701 -0.0903326 2.5550716
000240 69 dc 82 3f e7 05 94 bf 01 79 8a 3f 57 b6 c6 3f
       1.0223514 -1.1564301 1.0818177 1.5524396
000250 28 0d 90 c0 11 16 17 3f 17 e2 75 3f a4 51 10 bf
       -4.501606 0.59018046 0.9604811 -0.56374574
000260 91 e0 05 c0 f0 a5 16 3e 0d 48 ce 40 ae ea c9 bf
       -2.0918314 0.14711738 6.4462953 -1.5774744
000270 bb ac 9a 3d b1 96 15 c0 14 73 87 bf e4 93 b1 40
       0.07552477 -2.3373225 -1.0581994 5.549303
000280 8f 56 28 3f ef 8b ee 3f be 05 8f 3f db 51 87 3f
       0.6575708 1.8636454 1.1173627 1.0571855
000290 09 dd 91 be d6 94 2f 40 31 25 11 c1 f9 30 fc bf
       -0.2848895 2.7434592 -9.07158 -1.9702445
0002a0 a9 7a 1e 3f 21 ec 5f 3d b0 e1 26 3f f9 ee be bf
       0.61905915 0.05466855 0.6518812 -1.4916679
0002b0 f0 5f 0c 3f 62 d2 c0 3f a6 ff cc bf 2c 21 c4 be
       0.5483389 1.5064204 -1.6015518 -0.38306558
0002c0 d6 12 8e bf 55 1f c0 be a7 e0 15 3f ca 33 81 bf
       -1.1099498 -0.37523904 0.5854592 -1.009393
0002d0 70 d3 ff 3d 3c e5 68 bf b5 30 eb bf cb 2a 3b 40
       0.124915004 -0.90974784 -1.8374239 2.9244869
0002e0 7a 4b 0c c0 2d ea 3b 40 bf 4b 8b 40 7d c6 03 bc
       -2.1921067 2.936168 4.3529963 -0.008042929
0002f0 0a 18 cf 40 37 c4 58 3e 9b 48 9e bf 82 e7 61 3f
       6.4716845 0.211686 -1.2365907 0.8824388
000300 ad ea 73 3f 5d 74 e7 3f d4 c7 41 40 cd 32 d3 be
       0.9527996 1.8082386 3.0278215 -0.41249695
000310 f4 07 db bb 65 22 1b bf 1e 1a 23 c0 d8 22 ef be
       -0.0066842977 -0.60599357 -2.548469 -0.4670627
000320 78 e3 f4 c0 bf e6 7f 40 40 6e 22 3f 46 b7 48 40
       -7.652767 3.9984586 0.6344948 3.1361861
000330 26 4c 71 40 9a 3c 13 3f 0f 77 79 3e 54 21 4e 40
       3.7702727 0.57514346 0.24361823 3.2207842
000340 bf 07 1d c0 40 0d 03 40 20 0e 67 3f d3 a7 81 3f
       -2.4535978 2.0476837 0.9025593 1.0129341
000350 2f 2d 9d 3f fe b4 0f 3f fe e4 39 3f dd 3e 5d 3f
       1.2279414 0.5613555 0.7261504 0.86424047
000360 56 47 04 bf 6b 89 b6 3d b9 a7 b2 be ab da 17 3f
       -0.5167135 0.08912929 -0.34893587 0.59318036
000370 4f 6a 1e 3f da 42 50 bf 5d ea 52 bd cd ce 57 be
       0.61880964 -0.8135201 -0.051493037 -0.21074982
000380 fc 6b 44 c0 3e 77 db 3f 16 60 62 c0 be b1 d5 3f
       -3.0690908 1.7145765 -3.5371146 1.6694868
000390 ad 65 e9 3f 21 ab 4f bd 4a 03 2e 40 e2 be 57 3f
       1.8234154 -0.05070031 2.7189507 0.8427564
0003a0 6f 1d e6 3f 95 37 48 3f b2 18 38 3f 68 38 cd 3f
       1.7977732 0.7820981 0.7191268 1.6032839
0003b0 9d 90 0f bf 88 68 5c 3f cb d2 c8 3f 99 cb c6 be
       -0.5608004 0.86097 1.5689329 -0.38827208
0003c0 da 69 cf bf 0a af cc 3e ff 94 96 3f 74 aa 89 3e
       -1.6204178 0.39977294 1.176422 0.26887858
0003d0 e1 55 7e 3f 01 37 34 bf 24 68 41 c0 ac c5 78 3f
       0.9934979 -0.7039643 -3.0219812 0.97176623
0003e0 0a fd 2a c0 86 91 d7 3f cb 35 02 40 54 4c 8b 3e
       -2.6716943 1.6841285 2.0345333 0.2720667
0003f0 20 5d 37 3f 05 62 85 3f d3 21 53 3f a4 65 0f 40
       0.7162647 1.0420538 0.82473487 2.2405787

l1.bias f4 [300]
000000 69 6a 25 3f 65 3c 3b 3f 87 a6 40 3f ac 48 52 3f
       0.64615494 0.7313903 0.752541 0.8214214
000010 b4 7b 3c 3f 58 8f 58 3f f6 96 4c 3f 50 42 3e 3f
       0.73626256 0.84593725 0.7991785 0.74319935
000020 a2 65 67 3f 27 cb 1a 3f e1 0d 58 3f 33 43 78 3f
       0.90389454 0.60466236 0.8439618 0.9697754
000030 9b ff 0a 3f 5c ba 36 3f 1c e1 ad 3e 7a e9 41 3f
       0.54296273 0.7137811 0.33960807 0.7574688
000040 16 28 29 3f eb 85 0c 3f 51 63 47 3f 6a 82 22 3f
       0.6607679 0.5489184 0.7788592 0.63480246
000050 78 1a 15 3f ee 10 92 3f ab fa 4e 3f 55 2d 2b 3f
       0.58243513 1.1411417 0.8085124 0.66866046
000060 bb 88 56 3f 6f 4e 80 3f b2 c3 60 3f dc 33 22 3f
       0.83802384 1.0023936 0.8779861 0.6336038
000070 5d 78 1b 3f fc 92 0e 3f 84 a4 48 3f b0 d7 2e 3f
       0.60730535 0.5569303 0.7837603 0.68297863
000080 b2 46 82 3f be 62 34 3f 2d b4 22 3f 50 7f f0 3e
       1.0177824 0.7046317 0.63556176 0.46972132
000090 77 f8 58 3f e5 f8 19 3f 84 63 21 3f 79 63 13 3f
       0.8475413 0.6014541 0.63042474 0.5757366
0000a0 f8 14 55 3f fc 8e 30 3f 0f e6 3b 3f 84 3f 05 3f
       0.8323512 0.68968177 0.73397917 0.5205004
0000b0 b3 47 1e 3f 2a 29 20 3f 23 41 2e 3f a7 e5 42 3f
       0.61828154 0.6256281 0.6806814 0.7613167
0000c0 e5 2b 1f 3f f1 97 65 3f 5a c2 0f 3f 3a 1b 03 3f
       0.6217635 0.8968497 0.5615593 0.5121342
0000d0 e5 f2 08 3f 84 a4 40 3f 32 1c 7f 3f 55 90 46 3f
       0.5349563 0.7525103 0.996524 0.77563983
0000e0 f4 c4 db 3e 35 35 4d 3f 26 9e 40 3f e8 a1 fc 3e
       0.429237 0.8015931 0.75241315 0.49342275
0000f0 b3 a4 86 3f 7e 92 27 3f 0c e3 41 3f dc cf 29 3f
       1.0519012 0.65457904 0.7573707 0.66332793
000100 99 8b f8 3e dc ad 16 3f c1 81 84 3f 27 b9 27 3f
       0.48544005 0.5885904 1.0352098 0.65516895
000110 e5 8a c8 3e 84 c0 1a 3f 70 78 39 3f ad 63 46 3f
       0.39168468 0.60450006 0.724494 0.77495843
000120 a9 19 24 3f 11 55 37 3f 4b e0 5e 3f 3f 4c 16 3f
       0.64101654 0.71614176 0.87060994 0.5871009
000130 e1 c2 3f 3f 93 c1 40 3f f5 72 21 3f 69 5b 4f 3f
       0.74906737 0.7529537 0.63066036 0.80998856
000140 a5 36 27 3f 5d b2 38 3f 6a 91 07 3f 37 10 d7 3e
       0.65317756 0.7214716 0.5295626 0.42004558
000150 42 5f 49 3f 24 04 12 3f 9f d9 39 3f 4c 5f fa 3e
       0.78660977 0.5703757 0.7259769 0.4890083
000160 c7 5e 84 3f e7 47 48 3f ec ba 4e 3f 75 cf b7 3e
       1.0341424 0.78234714 0.8075397 0.35900465
000170 50 83 66 3f ad 75 02 40 f3 2e 0e 3f f3 d4 21 3f
       0.90044117 2.0384324 0.5554039 0.6321556
000180 ce f2 50 3f 7a 90 fb 3e 2d 5f 0a 3f bb fc 53 3f
       0.8162049 0.49133664 0.54051477 0.8280751
000190 db 3d 65 3f b0 68 30 3f ba 60 1c 3f 40 0e 24 3f
       0.8954751 0.6890974 0.61085093 0.64084244
0001a0 36 25 9d 3e 7d d6 00 3f ce d3 1e 3f 2a 0e 7b 3f
       0.30692452 0.50327283 0.6204194 0.9806849
0001b0 e1 2c 71 3f 63 83 28 3f 0f a4 4f 3f 97 15 81 3f
       0.94209105 0.6582548 0.8110971 1.0084714
0001c0 f4 a7 32 3f d6 7d 03 3f c2 c0 52 3f b8 53 36 3f
       0.69787526 0.51363885 0.82325375 0.71221495
0001d0 58 a7 4d 3f 98 04 43 3f 41 cd 31 3f 32 fd 51 3f
       0.8033347 0.76178885 0.6945382 0.8202697
0001e0 6f 96 03 3f 30 be 68 3f 61 ad 4f 3f c7 3b 29 3f
       0.5140142 0.90915203 0.8112393 0.6610684
0001f0 34 d1 29 3f eb 4a 23 3f c8 be 56 3f ac 79 33 3f
       0.66334844 0.6378619 0.8388486 0.7010753
000200 93 0c 60 3f 0f 6f 4c 3f 8a c1 5f 3f 7b a9 df 3e
       0.87519187 0.7985696 0.8740469 0.4368399
000210 6b 10 7a 3f cd f4 49 3f 75 4e 05 3f 91 0c 19 3f
       0.976813 0.7888916 0.5207284 0.597848
000220 54 33 59 3f 52 c9 11 3f 8f 43 31 3f 5e 33 74 3f
       0.84843946 0.56947815 0.6924371 0.9539088
000230 db 1e 32 3f 2a fc 07 3f 98 2b 6a 3f 77 64 27 3f
       0.6957833 0.53119147 0.9147277 0.6538767
000240 5d 64 76 3f c1 aa 29 3f 95 c2 43 3f 78 aa 2b 3f
       0.9624689 0.66276175 0.76468784 0.6705699
000250 93 91 fc 3e 79 b1 0e 3f 71 1f e2 3e 14 ee 02 3f
       0.49329814 0.5573955 0.44164613 0.5114453
000260 5b 95 78 3f c1 19 12 3f 70 b6 2b 3f 8b fd cc 3e
       0.971029 0.5707055 0.6707525 0.40037188
000270 01 a4 ff 3e d8 d4 17 3f 55 71 29 3f 33 ee cb 3e
       0.49929813 0.5930915 0.66188556 0.3983017
000280 12 bc 22 3f 39 ce 61 3f 8a a3 a7 3e 14 42 2f 3f
       0.6356822 0.88205296 0.32741958 0.684602
000290 12 71 27 3f 35 6e 43 3f 53 71 20 3f 4a 10 00 3f
       0.65406907 0.7634004 0.6267292 0.50024855
0002a0 20 da 12 3f a7 3f 4e 3f 47 09 4a 3f 4d 16 3f 3f
       0.5736408 0.80565876 0.78920406 0.74643403
0002b0 4c 1c d9 3e c5 5b 14 3f 1d 93 46 3f e8 e8 0c 40
       0.424044 0.5795253 0.7756823 2.2017155
0002c0 a2 0f 25 3f 76 ce 7e 3f d5 d2 0b 3f 00 12 25 3f
       0.6447698 0.99533784 0.5461858 0.6448059
0002d0 95 5e 2c 3f b9 6d 9a 3e 68 cb 1b 3f 3c 75 3c 3f
       0.6733182 0.30161837 0.6085725 0.73616385
0002e0 ea 46 17 3f 57 22 29 3f 5a 4f 4f 3f b0 b3 ea 3e
       0.5909258 0.66068023 0.80980456 0.45840216
0002f0 6f 45 1e 3f db 0f 5b 3f 63 29 00 3f 9f 3e dd 3e
       0.618247 0.8557107 0.5006315 0.4321184
000300 c0 e5 0c 3f 36 37 2e 3f 15 8a 52 3f c1 4a 46 3f
       0.5503807 0.68052995 0.82241946 0.77457815
000310 69 32 18 3f 74 04 33 3f 48 a9 30 3f 29 76 ea 3e
       0.5945192 0.6992867 0.690083 0.45793274
000320 ca f2 58 3f 38 59 20 3f 0d 1a 0b 40 cf 96 3f 3f
       0.84745467 0.62636137 2.173465 0.7483949
000330 da 5c 6e 3f 4c bf 1d 3f 23 34 24 3f 21 53 43 3f
       0.9311043 0.6162002 0.64142054 0.7629872
000340 a2 c3 3b 3f 02 ce 2b 3f bf 41 2b 3f ae a6 26 3f
       0.73345387 0.6711122 0.66897196 0.65098083
000350 53 d8 40 3f f1 af 41 3f 69 13 f2 3e e4 a5 12 3f
       0.75330085 0.7565909 0.47280434 0.5728438
000360 1c c6 51 3f a8 62 f1 3e be 5b 1c 3f 33 22 39 3f
       0.81942916 0.4714558 0.6107749 0.7231781
000370 88 4b 5b 3f 2e c3 01 40 e3 d8 d8 3e ce 39 31 3f
       0.85662127 2.0275378 0.4235297 0.6922883
000380 27 12 3d 3f d5 bf 08 3f 43 f1 ed 3e fb 4c f0 3e
       0.73855823 0.5341771 0.4647313 0.4693373
000390 40 ab 6a 3f e7 48 85 3f 19 77 13 3f 24 c3 fb 3e
       0.91667557 1.0412873 0.57603604 0.49172318
0003a0 6f 50 34 3f f2 ed 0d 3f 98 6e 22 3f 8e 38 1a 3f
       0.7043523 0.554412 0.6345 0.60242546
0003b0 e1 c7 3a 3f c1 da 90 3f ee 4f 34 3f d3 97 e2 3e
       0.7296124 1.1316758 0.70434463 0.44256458
0003c0 a2 f4 4b 3f 05 a4 fa 3e 4a 51 80 3f bd d3 58 3f
       0.79670155 0.48953262 1.0024807 0.84698087
0003d0 84 ed 66 3f 73 f2 34 3f 34 36 0e 3f bb ad 51 3f
       0.9020617 0.7068245 0.5555146 0.81905717
0003e0 9e 0e 25 3f cb 5d ff 3e 3f 4d 2c 3f 3e 18 46 3f
       0.6447543 0.49876246 0.6730537 0.7738074
0003f0 e3 43 18 3f 30 e5 4d 3f 51 6f 23 3f a8 ad 0d 3f
       0.59478587 0.8042784 0.6384173 0.55343103

bn1.weight f4 [300]
000000 90 c2 26 40 a5 ff 46 40 a7 d3 f8 3f 3c 18 90 3f
       2.6056252 3.1093533 1.9439591 1.1257396
000010 b7 60 1c 40 d4 8c 1e 40 ed 2b bc 3f 2c 2b c7 3f
       2.443403 2.4773455 1.4700905 1.556005
000020 98 4b 37 40 a5 a6 6c 40 d8 82 58 40 43 87 12 40
       2.8639889 3.6976712 3.382986 2.2895057
000030 df ff 0a 40 09 11 fa 3f 32 7f d7 3f 30 84 e3 3f
       2.1718671 1.9536449 1.6835692 1.7774715
000040 1b 4e 3f 40 86 26 0c 40 24 dd 58 40 34 02 0e 40
       2.9891422 2.1898513 3.3884974 2.2188845
000050 c1 5f 6b 3f 54 c0 95 40 88 0b e9 3f 36 41 b8 3f
       0.91942984 4.6797276 1.8206644 1.4394901
000060 4b a4 74 40 d3 43 91 3f 92 7a de 3f 7e 64 e8 3f
       3.8225276 1.1348823 1.7381155 1.8155668
000070 3d 37 d1 3f a4 33 1f 40 cd 2d b9 3f 1f c3 cd 3f
       1.6344982 2.487527 1.4467102 1.6075171
000080 d6 80 cd 3f 8f 28 57 40 01 f4 1a 40 1a aa 06 40
       1.6054943 3.3618505 2.4211428 2.1041322
000090 8e ca 25 40 95 09 44 40 b3 b6 16 40 ea fa 2a 40
       2.590488 3.0630848 2.354901 2.6715646
0000a0 d3 a9 0e 40 87 3c 20 40 9e 40 13 40 ac 05 b7 3f
       2.2291152 2.5036943 2.300819 1.4298606
0000b0 02 90 30 40 02 9c ef 3f 83 72 f8 3f 8e 51 e7 3f
       2.7587895 1.8719485 1.9409946 1.8071764
0000c0 c0 00 32 40 69 0a ce 3f a3 09 b1 3f 30 75 33 40
       2.7812958 1.6096927 1.3831066 2.8040276
0000d0 1c 5c 06 40 a4 dc 62 40 90 40 fb 3f 07 51 45 3f
       2.099372 3.5447168 1.9629078 0.7707676
0000e0 4f f9 34 40 80 9e 19 40 d1 3b ec 3f 64 ea bf 3f
       2.8277166 2.400299 1.8455755 1.4993405
0000f0 77 59 92 3f e1 2c 16 40 a1 b9 4a 40 a2 cc 0a 40
       1.1433553 2.3464892 3.16758 2.1687398
000100 6c 62 46 40 81 0f 6c 40 7e 96 2b 40 86 12 55 3f
       3.0997572 3.6884463 2.6810603 0.8323139
000110 7a f6 35 40 03 9a 28 40 9d 67 0e 40 ee 24 1f 40
       2.8431687 2.6344001 2.225074 2.486629
000120 6d 2a 59 40 4b dd ee 3f 7f f1 d6 3f 99 13 d0 3f
       3.3932145 1.8661283 1.6792449 1.6255981
000130 d3 90 05 40 62 2a 13 40 63 31 57 40 96 fe 07 40
       2.0869644 2.2994618 3.3623893 2.1249137
000140 25 23 06 40 dd 53 02 40 74 0d 0d 40 32 c7 76 40
       2.095895 2.0363686 2.203946 3.855908
000150 d3 8e ea 3f b9 70 28 40 0d 2f 13 40 2d 20 0a 40
       1.8324836 2.63188 2.2997468 2.1582139
000160 b2 ac a8 3f 1f 2e 44 40 6a ce 55 40 d2 5a 59 40
       1.3177702 3.065315 3.3407235 3.3961682
000170 d3 bf 66 3f 38 af 11 3e 20 fb 11 40 23 80 0d 40
       0.9013645 0.14226997 2.2809525 2.2109458
000180 55 6b f8 3f 3b 97 3f 40 d3 77 4e 40 6a 92 39 40
       1.9407755 2.9936054 3.2260635 2.8995614
000190 6c a3 13 40 0a 81 41 40 fb 9a 3a 40 7e b5 75 40
       2.3068495 3.023501 2.9157093 3.8392024
0001a0 b4 40 d2 3f 87 13 20 40 f2 20 13 40 48 31 28 40
       1.6425996 2.5011919 2.2988858 2.628008
0001b0 ac ac 42 40 d2 91 0a 40 50 27 48 40 7b 9b 07 40
       3.041789 2.1651502 3.1273994 2.1188648
0001c0 fe 77 01 40 54 15 0d 40 86 72 e1 3f 91 02 15 40
       2.0229487 2.2044268 1.7613075 2.3282816
0001d0 6b 4a 05 40 e3 4d e9 3f 15 eb 57 40 13 10 33 40
       2.082667 1.8226894 3.3737233 2.797856
0001e0 76 06 27 40 5e c5 18 40 a0 99 09 40 15 36 74 40
       2.6097693 2.3870463 2.1500015 3.815801
0001f0 d0 0c 4b 40 95 ae 0e 40 eb 2c 16 40 31 07 a7 3f
       3.172657 2.2294056 2.3464916 1.304907
000200 b7 a4 08 40 24 a4 91 3f a6 b6 30 40 44 cb 19 40
       2.1350534 1.1378217 2.761148 2.4030313
000210 90 85 cb 3f a4 5e 1c 40 01 80 ae 3f 41 21 0f 40
       1.5900135 2.4432764 1.3632814 2.2364047
000220 38 a4 4e 40 c7 db 31 40 72 84 f3 3f 35 16 d5 3f
       3.228773 2.7790391 1.9024794 1.6647402
000230 53 4e 0d 40 3f 7e 12 40 86 67 20 40 7f 5c ab 3f
       2.2079055 2.2889555 2.5063186 1.3387603
000240 00 36 54 40 be 3e fb 3f cb 0f 47 40 5c c1 da 3f
       3.315796 1.9628522 3.110339 1.7090259
000250 7a ee bf 3f 88 1e 31 40 d0 ba 21 40 01 d8 48 40
       1.4994652 2.7674885 2.5270271 3.1381838
000260 78 b2 10 40 74 2f fb 3f 38 dd 3d 40 5c da 05 40
       2.2608929 1.9623857 2.9666271 2.0914526
000270 13 50 f7 3f c0 9c 10 40 8f f6 f3 3f 95 44 29 40
       1.9321312 2.2595673 1.9059619 2.644811
000280 59 bd 0d 40 1c f8 0a 40 9b b2 0c 40 3f ce 13 40
       2.2146819 2.1713934 2.1984012 2.3094633
000290 fa 65 12 40 95 d3 0e 40 b7 ae 04 40 72 da 13 40
       2.2874742 2.231664 2.0731637 2.3102078
0002a0 82 c7 c0 3f bd a6 c3 3f 7c 24 c1 3f 07 48 bb 3f
       1.5060885 1.528526 1.5089259 1.4631356
0002b0 96 08 29 40 80 34 18 40 95 9a bc 3f f5 06 15 3e
       2.641149 2.3782043 1.4734675 0.14553435
0002c0 9b 6a f6 3f a3 8d 3e 40 96 99 01 40 15 fb 1c 40
       1.9251283 2.9773948 2.0249991 2.4528248
0002d0 8b 7f 9e 3f 22 86 8b 40 a4 30 33 40 95 fb dd 3f
       1.2382673 4.3601236 2.7998438 1.7342402
0002e0 5a 0c 4e 40 c8 c7 1a 40 22 ee c9 3f 2a 1a d0 3f
       3.2195039 2.4184437 1.5775797 1.6257985
0002f0 76 1b 08 40 87 27 44 40 99 89 47 40 97 ad f2 3f
       2.126676 3.0649126 3.1177733 1.8959225
000300 29 25 27 40 0f 92 09 40 36 74 1a 40 98 8c f9 3f
       2.611643 2.1495397 2.413343 1.9496031
000310 9f 04 f4 3f a0 39 1a 40 08 cb ca 3f 6f 49 19 40
       1.906391 2.4097672 1.584321 2.395107
000320 87 83 fb 3f ad 23 a2 40 77 b5 d0 3d c6 47 c8 3f
       1.9649514 5.066855 0.10190862 1.5646904
000330 a6 d3 4d 40 69 ab aa 3f e3 f7 e3 3f e1 b3 1d 40
       3.216043 1.333356 1.7810024 2.464104
000340 63 c2 3a 40 12 49 29 40 e1 10 d2 3f 5a 80 cd 3f
       2.9181144 2.6450849 1.6411401 1.6054795
000350 c0 ec 12 40 00 83 ff 3f fc 23 e8 3f c2 d5 c5 3f
       2.2957 1.9961853 1.8135982 1.5455859
000360 52 db ae 3f 0f 40 1a 40 74 7f f3 3f 1d f1 3d 40
       1.3660681 2.4101598 1.9023271 2.9678414
000370 e1 19 07 40 12 7d f6 3d da f9 09 40 a7 25 b7 3f
       2.1109545 0.12035574 2.1558747 1.4308366
000380 9c 5e 0c 40 6d 9c c4 3f dc b4 09 40 9e f4 11 40
       2.1932745 1.5360237 2.1516638 2.2805552
000390 4b 06 2a 40 33 14 10 40 b1 9a 3d 40 d1 9e 2f 40
       2.656634 2.2512329 2.9625666 2.7440684
0003a0 25 0f 10 40 ca 94 1d 40 89 0b 05 40 76 24 14 40
       2.2509243 2.4622064 2.078829 2.3147254
0003b0 6b c9 4b 40 ec 1f 29 40 08 59 62 40 a0 c9 f1 3f
       3.1841686 2.6425734 3.536684 1.8889656
0003c0 6c c5 96 3f e1 9a 20 40 b2 d0 17 40 9f 36 61 40
       1.1778998 2.509453 2.3721128 3.5189588
0003d0 b9 32 8f 40 09 2e 09 40 c5 02 ad 3f 23 40 38 40
       4.4749417 2.1434348 1.351647 2.8789146
0003e0 1a 60 eb 3f cb bd 05 40 b6 07 de 3f 53 19 f6 3f
       1.8388703 2.089709 1.7346103 1.9226478
0003f0 dd 83 1d 40 ee c3 8b 3f 9c eb a8 3f c5 f9 ad 3f
       2.4611733 1.0919168 1.3196902 1.3591849

bn1.bias f4 [300]
000000 b9 d2 3c bf 75 0a 63 bf d7 24 98 bf 64 82 67 bf
       -0.7375904 -0.8868783 -1.1886243 -0.90433335
000010 21 ad 73 bf bd 9c aa be 67 eb 79 bf 8a 52 ae bf
       -0.9518605 -0.33322707 -0.9762482 -1.3618939
000020 2c 7d 0b 3f 2b af c5 bd 42 f2 d2 3e 93 8e 73 bf
       0.5448787 -0.09652551 0.41200453 -0.95139426
000030 0f 8a b1 bf 75 90 80 bf b9 ff 4a bf 68 53 45 bf
       -1.3870257 -1.0044085 -0.7929645 -0.7708039
000040 69 b9 53 bd 7c d2 5d bf 52 04 e7 be 14 9e f4 bd
       -0.051690493 -0.866493 -0.45120484 -0.119442135
000050 38 c2 2f bf 82 a2 18 3f ad 95 9f bf c9 9f 86 bf
       -0.6865573 0.5962297 -1.2467552 -1.0517513
000060 c7 8e 78 3e 54 1d c9 bf e8 b4 f7 be 88 2f 8e bf
       0.24273215 -1.5712075 -0.48380208 -1.1108255
000070 f0 2d 4a bf 12 e1 47 be 99 4a 44 bf de 44 1c bf
       -0.78976345 -0.19519451 -0.76676327 -0.61042583
000080 98 f0 79 bf 2d 78 bd 3d f6 0b ae be be ba 96 bf
       -0.9763274 0.09251437 -0.339935 -1.1775739
000090 31 20 af be a4 84 73 bf f8 e0 ed be ed de 58 be
       -0.34204248 -0.9512427 -0.464607 -0.2117879
0000a0 94 66 84 bf 39 8d b0 be ed a3 9a be a9 87 d6 bf
       -1.0343804 -0.34482744 -0.3020319 -1.676015
0000b0 12 eb 97 be 6e af 89 bf 59 11 49 bf be 8e 11 be
       -0.29671532 -1.0756662 -0.78542095 -0.14214608
0000c0 af 9b 9c 3e 2f dd 4e bf ce 14 2a bf 7c 24 86 bf
       0.30587527 -0.8080625 -0.66437995 -1.0479884
0000d0 8d f4 7f bf 20 1e e1 bb 70 f2 47 bf 38 83 81 bf
       -0.9998253 -0.0068700463 -0.78104305 -1.011817
0000e0 78 30 0b be c6 c0 3a be 47 ae 51 bf 13 75 9b bf
       -0.13592708 -0.182376 -0.8190655 -1.2145103
0000f0 fd 06 af bf b6 b2 1b be e4 9d e5 be 9d 6a ce 3b
       -1.3674008 -0.15204892 -0.44847023 0.0062993304
000100 74 ca 3c 3f 3e 7a fa bd 99 43 5a bd 83 4d 92 bf
       0.7374642 -0.12230347 -0.053287122 -1.1429905
000110 a3 20 6d bf d8 59 b1 be ce df 9d bf de 71 e1 bd
       -0.92627925 -0.34638858 -1.2333925 -0.110080466
000120 1c 79 cb 3e a6 9c 84 bf f2 4e 3f bf 82 d2 58 bf
       0.39740837 -1.0360305 -0.74729836 -0.8469621
000130 22 67 94 bf 0c 9f 78 bf 95 62 55 bf 02 38 a9 be
       -1.1593974 -0.97117686 -0.8335355 -0.33050543
000140 ea 80 c7 be ab 9b 6c bf 7d 31 01 bf ed df 1e be
       -0.3896554 -0.9242503 -0.5046614 -0.15515108
000150 66 c0 82 bf 4e f8 25 bf d9 b9 b6 3e 9b 8e 5f be
       -1.0214965 -0.6483201 0.35688666 -0.21831743
000160 9a f0 8b bf f7 03 ad 3e 1a ec 84 3e 62 c4 e5 be
       -1.0932801 0.33792087 0.2596138 -0.4487639
000170 8f 9c a0 bf de 44 7d bf e3 8c 36 be 7f ef 0a bf
       -1.2547778 -0.9893321 -0.17827182 -0.5427169
000180 65 0c 9b be dc 60 6c bf ae e1 4c bf 91 a2 f9 bd
       -0.30282894 -0.92335296 -0.8003186 -0.1218921
000190 91 fa 4f 3e 92 11 83 be f8 64 c9 be 01 17 9b be
       0.20310427 -0.25599343 -0.39334846 -0.30290988
0001a0 9e f1 91 bf 1e 10 1f bf f5 bb 28 bf d8 2f b2 3d
       -1.1401861 -0.6213397 -0.659118 0.08700532
0001b0 38 ae ee 3e 24 89 11 bf a2 56 d6 be 6a 17 bd bf
       0.46617293 -0.56849885 -0.4186297 -1.477277
0001c0 e2 45 b3 bf 38 fd e9 be b9 30 f6 be 7c 4c 78 bf
       -1.4005702 -0.45701003 -0.48084047 -0.96991706
0001d0 cc 8d 02 bf 86 3d c3 bf 86 3e c1 b9 53 bf 44 be
       -0.50997615 -1.525315 -0.00036858412 -0.1921361
0001e0 02 32 03 bf 91 59 23 3f 01 a7 57 bf c9 c4 0d 3e
       -0.5124818 0.6380854 -0.842392 0.13844599
0001f0 30 f1 d8 bd f9 5c 5d bf 86 2b 06 3e 76 90 0b bf
       -0.10592878 -0.8646999 0.1310254 -0.54517305
000200 1f 1c 7f bd 6f 2f 96 bf ab 80 42 bf 3c d9 49 bf
       -0.062282678 -1.1733226 -0.7597758 -0.788471
000210 21 79 90 bf ba 67 5f bd d4 16 47 bf c7 89 e0 bd
       -1.1286966 -0.05454228 -0.7776921 -0.10963779
000220 4e 6e 09 3f a6 86 aa be 50 cc 00 bf 62 3f d6 bf
       0.53683937 -0.33305854 -0.50311756 -1.6738093
000230 a1 b5 67 be 3b 2b a2 bf d8 2c b8 be 56 cb a2 bf
       -0.2262788 -1.2669443 -0.35971713 -1.2718303
000240 86 78 08 be 44 d5 68 bf e9 5f 76 bc 45 86 e1 be
       -0.13327226 -0.9095042 -0.015037515 -0.44047752
000250 48 53 e1 be 12 cb c7 be 53 38 3a bf 2b 3f 20 bf
       -0.4400885 -0.39022118 -0.72742194 -0.62596387
000260 16 ec df be 11 a8 7e bf 93 32 80 bf 61 da 1b be
       -0.43734807 -0.994752 -1.0015434 -0.15220024
000270 b7 0d 91 bf 90 e8 87 bf 27 38 a8 be b0 ca 13 bf
       -1.133231 -1.0617847 -0.3285534 -0.5773115
000280 45 3c 9c bf a7 37 44 be 6b a7 8e bf 6e aa e0 bf
       -1.2205893 -0.19161855 -1.1144842 -1.7552011
000290 3d 51 73 bc 90 0a 56 3d 2f 4b 9b bf 4a ea 5e 3e
       -0.014850912 0.052256167 -1.2132319 0.21769062
0002a0 7a de e3 bf d3 5a 92 be a0 67 5c bf e2 a7 6b be
       -1.780227 -0.28584918 -0.8609562 -0.23013261
0002b0 57 11 92 bf 11 b9 44 bf 26 68 ef bf 30 8b 7d bf
       -1.1411542 -0.7684489 -1.8703659 -0.9904051
0002c0 5f ca 64 bf 24 7f 09 3e 7c 48 2f bf 83 b4 f3 be
       -0.89371294 0.13427407 -0.6846998 -0.47598657
0002d0 ff 60 23 bf 2f 78 34 bf 95 40 a3 be fd 36 bb bf
       -0.6381988 -0.70495886 -0.3188521 -1.4626156
0002e0 bc 1a 6d bf 44 6b f9 bd 53 f7 c2 be bd 76 62 bf
       -0.9261892 -0.121786624 -0.38079318 -0.8846243
0002f0 ea 17 ea be 87 e8 cd 3d 5e 99 2a bf b1 36 43 bf
       -0.4572137 0.10054117 -0.6664027 -0.7625533
000300 cb 23 75 be 18 26 ae be d7 aa a3 be 84 0b f6 be
       -0.23939435 -0.34013438 -0.31966278 -0.4805566
000310 bb ce 22 bf 2f 2a d5 be 61 5a 7e bf 8a 72 44 bf
       -0.63596696 -0.41633746 -0.9935666 -0.7673727
000320 e4 4a 7d bf d7 73 ce bd 28 ae 92 bf e1 99 e9 be
       -0.989424 -0.100806884 -1.1459398 -0.45625213
000330 c8 1c a4 be 0c ea 79 bf a6 ba 5e bf 20 93 62 3d
       -0.32053208 -0.9762275 -0.8700355 0.05531609
000340 2b d5 10 3f a5 77 9d be 91 a0 d8 3e 4b 3e 7b bf
       0.5657527 -0.30755344 0.42310002 -0.98141927
000350 4d fc 1f 3e dc 6b 6b bf d7 7c 89 bf 16 ff 0d bf
       0.15623589 -0.91961455 -1.0741223 -0.55467355
000360 8d de 92 bf 25 f2 1b bf 92 63 31 bf 11 ae f7 3d
       -1.1474167 -0.6091636 -0.6929256 0.120937474
000370 f0 89 28 bf 5c d1 7a bf be 2a df be 8b fd 7f bf
       -0.65835476 -0.9797571 -0.43587297 -0.9999625
000380 9a 49 6c bf e7 27 42 bf 87 ee 28 bf 4b 76 17 bf
       -0.9229981 -0.75842136 -0.65988964 -0.59164876
000390 ad 10 44 bf dd 67 90 be 32 b8 70 be e5 f8 6a bd
       -0.76587945 -0.2820424 -0.23507765 -0.05736627
0003a0 fa f5 7d bf cc 82 65 bf 72 70 d2 bf 6a 6c 9c 3e
       -0.99203455 -0.89652705 -1.6440566 0.30551463
0003b0 08 4b b8 bd 1d a2 5b bf 58 4e 94 3d f8 9b 8e bf
       -0.08998686 -0.8579424 0.072415054 -1.1141348
0003c0 5c 77 79 bf bc 21 80 be 7f d5 73 bf 37 ad b0 3e
       -0.9744775 -0.25025737 -0.95247644 0.34507152
0003d0 10 42 b3 3d c9 1b 6a 3d d9 de e8 bf e6 8a 23 bf
       0.08752835 0.057155404 -1.8193008 -0.6388382
0003e0 cc 3f 2d bf ce 84 8c be 58 a5 10 be 90 d5 b6 be
       -0.6767547 -0.27445072 -0.14125574 -0.3570981
0003f0 37 fd e3 bd ec 92 80 bf 95 54 33 bf 44 4b 9e bf
       -0.11132281 -1.0044837 -0.70050937 -1.2366719

l2.weight f4 [300, 300]
000000 4f 5f 98 bf 3c 2d 13 40 1e 00 a6 bf bf c9 b4 3e
       -1.1904086 2.299636 -1.2968786 0.3531017
000010 19 b7 73 bf 4a 71 0c 40 56 1e 79 be f8 91 95 bf
       -0.9520126 2.1944146 -0.24327978 -1.1685171
000020 89 1f bf bf 61 58 62 40 07 d6 4e 3c b3 53 b4 bf
       -1.4931499 3.5366442 0.01262427 -1.4088043
000030 34 96 74 3f 7d 20 a6 3f 8f 05 1c 3f 3a aa 08 40
       0.9554169 1.2978665 0.6094598 2.1353898
000040 21 81 06 3f a6 f5 1d 3e ec ea d8 3e 8c c2 56 3e
       0.52540785 0.15425739 0.4236673 0.20972651
000050 c7 be 86 3f 62 94 ba 3e bb f3 1f bf f0 9e 02 be
       1.0526971 0.36441332 -0.6248128 -0.12755942
000060 3e 58 94 3f 73 32 d2 3e c6 2c 1f 40 19 5a c6 bf
       1.1589429 0.41054115 2.4871078 -1.5496246
000070 24 19 b1 3f c8 df d5 3c 94 f8 a0 3f f9 46 e1 3f
       1.3835797 0.026107684 1.257586 1.7599784
000080 5a c6 53 be 1b a6 ad bf 2d b2 1a 3f b3 de 26 40
       -0.20681134 -1.3566316 0.60428125 2.6073425
000090 47 72 e1 be 09 2b 95 be 3b f7 0c 3f 1b 32 bb 3c
       -0.440325 -0.29134396 0.55064744 0.02285104
0000a0 39 51 42 3f e1 04 b1 be 91 7e 27 3f 1a 8c b9 3f
       0.75905186 -0.34574035 0.654275 1.4495881
0000b0 0d e6 2c bf 1d d0 ed 3e 5c 64 c4 3e 7e 05 15 3d
       -0.6753853 0.4644784 0.38357818 0.03638219
0000c0 01 ed 54 40 a9 30 9c 3e 7a 12 3a 3f 36 3b 6a 3f
       3.3269656 0.30505875 0.72684443 0.914966
0000d0 95 72 40 40 6c 17 0c 40 5e 31 98 3f 8f 53 e6 3f
       3.0069935 2.1889296 1.1890066 1.799425
0000e0 87 60 e2 3d db 2b 89 3f 8e 14 3b bf 84 18 32 40
       0.110535674 1.0716509 -0.7307824 2.7827463
0000f0 1e 60 3d 40 9f b5 03 3f aa 94 08 c0 3d 4b c4 3f
       2.9589915 0.51449007 -2.1340737 1.5335461
000100 90 58 c8 bf dd 3a cc be d3 80 8f 3f 30 b7 bd 3f
       -1.5652027 -0.3988866 1.1211189 1.4821529
000110 ce c0 21 40 2c 9e b0 3e 7c 6d e4 3e ce 76 c2 3f
       2.5273929 0.34495676 0.4461478 1.5192506
000120 29 b1 86 3f a9 e5 d6 3f 82 fe c3 3f 27 db ac 3f
       1.0522815 1.6788837 1.5312045 1.350438
000130 33 91 bc 3f af 83 a0 bf 8b d5 37 3f 0d 51 a3 bd
       1.4731811 -1.2540187 0.71810216 -0.079744436
000140 30 72 00 3e 4a 05 84 3f 95 e0 fa 3f 1f e3 82 3f
       0.12543559 1.0314114 1.9599787 1.0225562
000150 6b 52 4f bf 53 99 13 bf 9f 86 b1 3f b3 15 d2 3f
       -0.80985135 -0.5765583 1.3869208 1.6412872
000160 af e0 f0 3f 90 73 c8 3e 4c 22 f3 be 8c de 45 3f
       1.8818568 0.39150667 -0.47487104 0.77292705
000170 6c 48 74 3e 8c 03 52 3e 07 98 c4 3e 0c 41 9c 3f
       0.23855752 0.20509166 0.38397238 1.2207351
000180 d5 2f 50 3f d1 44 fb 3f 26 9d 9a 3f d8 5d 2d bf
       0.81322986 1.9630376 1.2079208 -0.6772132
000190 28 82 b0 be 30 61 3b 40 45 07 e3 3c b5 1f 80 40
       -0.344743 2.9278069 0.027713427 4.0038705
0001a0 39 e2 ad 3e e2 c2 e0 bd 0e 69 73 be e5 07 ae bf
       0.33961657 -0.10974671 -0.23770544 -1.3596159
0001b0 fd 1a 2e 3e 28 ff 5f 3f 80 b5 15 bf 7f ea ae bf
       0.17002483 0.8749871 -0.5848007 -1.3665313
0001c0 b1 ee 11 40 c0 3c b4 3e f5 09 a6 be 17 3c 0a bd
       2.2801936 0.352026 -0.32429472 -0.033748712
0001d0 37 6e ee bf d7 7d 4c 3f 48 db 8d 3f b6 44 88 be
       -1.8627385 0.79879516 1.1082544 -0.26614922
0001e0 72 06 ad 3f 5e 18 63 3f 81 5f c6 3f c0 41 05 40
       1.3517592 0.88709056 1.5497895 2.082138
0001f0 bd e7 8d 3f e8 c1 34 3f 7b f1 88 3e 45 09 15 40
       1.1086346 0.7060838 0.26746735 2.3286908
000200 70 40 47 bf 7c 70 86 3f f5 15 f9 3e 58 44 13 bf
       -0.778327 1.0503078 0.48649564 -0.5752616
000210 35 ec e0 bf be 3f a1 3f 24 f8 0d 3e b3 62 a1 bf
       -1.7572085 1.2597578 0.1386419 -1.2608246
000220 4f 94 10 3f e7 9c a9 3d 23 90 0e be 0a c8 e0 3f
       0.564763 0.0828188 -0.13922171 1.7561047
000230 8f 8a 04 3f c4 7c c7 3f ba 18 71 c0 ff c4 08 be
       0.51773924 1.558495 -3.7671342 -0.13356398
000240 0f c9 6e be b7 bf 2d 40 ad 7e f8 3e be 6a c8 3f
       -0.23318885 2.7148263 0.48534146 1.5657575
000250 cf 78 89 3e 5a df bf bd e7 31 d8 3f af b1 a1 bf
       0.26849982 -0.09368773 1.6890229 -1.263235
000260 f8 e5 ef 3e dc dc 8d 3f be d5 cd 3f bb 6c 9b 3f
       0.4685514 1.1083026 1.6080854 1.2142557
000270 a0 06 85 be 54 59 14 be 49 af 00 3f 13 ff 07 40
       -0.25981617 -0.14487201 0.50267464 2.1249435
000280 87 61 2a 40 62 8d d5 3e c9 8a 84 be 93 1a ff 3f
       2.6622026 0.4170943 -0.25887135 1.9929985
000290 65 6f 2b 3f bf a0 bc be f1 3b a4 bf 1a dc 36 bf
       0.6696685 -0.3684139 -1.2830793 -0.714296
0002a0 1d 66 c1 be 2a 35 52 3c 21 7f a1 be 7b fd 18 bf
       -0.3777322 0.012830058 -0.31542304 -0.5976178
0002b0 90 6e 8c 3f 2e 8d f4 be 16 99 26 40 ed 71 f6 3c
       1.0971241 -0.47763962 2.6030936 0.03008362
0002c0 2c a9 fe 3f 39 ee 21 3f e0 8c 97 3f 4c b8 05 40
       1.9895377 0.63254124 1.1839867 2.0893736
0002d0 2f 7f 0a bf 86 44 9f bf 5d 5a c8 3e f7 b8 c9 3f
       -0.54100317 -1.2442787 0.39131442 1.5759572
0002e0 3c af 82 3e 69 59 5e 3d 4d 60 93 be cd dc 43 40
       0.25524318 0.054284487 -0.2878441 3.0603516
0002f0 f0 ad a6 3f e9 a1 a4 3e d0 f3 ce 3f 54 92 42 3f
       1.3021832 0.32154778 1.6168156 0.7600453
000300 bc 63 cb 3e aa dc c6 bf 54 51 8d bc d1 24 6c 3f
       0.3972453 -1.5536091 -0.017250694 0.9224368
000310 0f d0 94 be 02 e3 12 bf 07 c2 2e 3f bb 57 64 bf
       -0.29064986 -0.57377636 0.6826481 -0.89196366
000320 b1 36 9a bf 1b ef b8 3e 25 09 11 3e bb c7 ac be
       -1.204794 0.36119923 0.14163645 -0.33746132
000330 91 62 25 bf 83 a5 89 3f 8f e3 e8 3f ea ba f0 3f
       -0.64603525 1.0753635 1.8194445 1.8807042
000340 0e 64 3b 3f b8 56 2b bf ac 6c 35 3f ea 8c 15 3c
       0.73199546 -0.669292 0.70868945 0.009127835
000350 28 5b c4 be 76 a2 51 3f 6f b4 8c 3f 59 3c 10 40
       -0.38350797 0.8188852 1.0992564 2.2536833
000360 0a 8c cb 3f 6e bc 0a 3f b5 2a a0 3f eb f6 a6 3f
       1.5902112 0.5419377 1.2513033 1.3044103
000370 26 0e 9a be bf 81 7d 3e b4 02 9d 3f 0d e4 83 3f
       -0.3008892 0.24756525 1.226645 1.030397
000380 c2 66 14 c0 8b 7d 72 bf b0 fd af 3e e1 01 5a 3f
       -2.3187718 -0.94722813 0.34373236 0.85159117
000390 60 7a 05 c0 ed e1 fa be 72 93 12 3f 97 30 16 40
       -2.0855942 -0.49000493 0.57256234 2.3467157
0003a0 8c 39 fd 3f 5b d5 b2 3f e4 e4 c8 3f 5b 97 96 3f
       1.9783187 1.3971361 1.5694852 1.176494
0003b0 8a de f6 3f 7a 19 d7 be c7 c2 a5 3f af 13 9c 3f
       1.9286664 -0.42011625 1.2950066 1.2193507
0003c0 a9 59 f3 3e 56 1b e9 3f c9 7b 9a 3f 00 9a ee bf
       0.47529343 1.8211467 1.2069026 -1.8640747
0003d0 00 52 ed bd b9 7e a2 3f 8e 66 86 3f eb e3 f4 3d
       -0.11587906 1.2694923 1.0500047 0.119575344
0003e0 7e 27 76 3f 7f a4 44 3f 51 24 45 3f 2a eb d2 be
       0.9615401 0.768135 0.7700854 -0.4119504
0003f0 25 dd b3 3d 45 bd 4b 3f bf 6e b5 3f 2d ec 88 3f
       0.08782414 0.7958568 1.4174422 1.0697075

l2.bias f4 [300]
000000 8a bc a6 3f 0f 0f 58 3f 3c 5f cc 3f 24 7a ea 3e
       1.3026288 0.8439798 1.5966563 0.4579631
000010 c9 00 41 3f e4 51 8f 3f 4e 21 97 3f dc 9a b4 3f
       0.75391823 1.1196866 1.1807039 1.4109759
000020 b7 6c 6e 3f 8c 4b b7 3e 73 dc a1 3f eb e8 58 3f
       0.93134636 0.35799825 1.2645401 0.84730405
000030 56 bb 5f 3f 6f 8e 14 3f 5a 6a a4 3f 4d c7 aa 3f
       0.87395227 0.58029836 1.2844956 1.3342072
000040 2f 9d 6a 3f 2f f3 51 3f 75 37 6c 3e 1b 32 01 3f
       0.91646093 0.82011694 0.2306803 0.5046708
000050 93 9a 05 3f 4b 66 59 3f fa c0 68 3f 38 5c 6a 3e
       0.52188987 0.8492171 0.9091946 0.22886741
000060 2c f2 07 3f 8c 3c de 3e a9 6e ff 3f b0 55 34 3d
       0.531039 0.4340557 1.9955646 0.04402703
000070 df 11 0f 3e 27 f8 cc 3f 11 74 b4 3f cd df 1a 3f
       0.13971661 1.601323 1.4097921 0.6049774
000080 ff f0 12 3f 3f 8f 3f 3f 26 c9 96 3f f7 a1 87 3f
       0.5739898 0.7482795 1.1780136 1.0596303
000090 4d 8b 12 3f 79 63 32 3f db e1 ed 3f b1 b3 1e 3f
       0.57243806 0.69683033 1.8584551 0.6199294
0000a0 44 b9 7b 3f 5b 03 0c 3f a9 df 95 3f 8b 50 b2 3f
       0.9832957 0.5469262 1.1708881 1.393083
0000b0 ae 11 fc 3e a6 af 90 3f 12 1a 3d 3f 16 ec 94 3e
       0.4923224 1.1303604 0.73867905 0.2908637
0000c0 15 4f 46 3f 21 83 9c 3f 9e 62 8f 3f 4c 4c 79 3f
       0.7746442 1.2227517 1.120197 0.97382045
0000d0 ca 91 a0 3f cb 0a 8e 3f 9c 2d b3 3f 16 31 2f 3f
       1.2544491 1.1097044 1.3998294 0.68434274
0000e0 07 00 92 3f d9 93 2c 3f 63 c5 a8 3f 3b cc 69 3f
       1.1406258 0.674131 1.3185238 0.91327256
0000f0 d9 97 b4 3e 50 c2 98 3f 6f 99 b9 3f 67 e4 a2 3e
       0.352721 1.19343 1.4499949 0.31814882
000100 c8 93 6b 3f 71 39 84 3f 26 fe 80 3e 34 db 71 3f
       0.9202237 1.033003 0.251939 0.944751
000110 46 11 e5 3e e3 45 3e 3f c5 f7 07 3f 2f 91 95 3f
       0.4473974 0.7432539 0.5311244 1.1684932
000120 7a 3a 96 3f 37 99 2e 3f 85 97 72 3f 5a d9 4f 3f
       1.1736596 0.6820254 0.9476245 0.8119103
000130 78 8a 36 3f 98 36 1b 3f d2 52 8f 3f 2d b4 0e 3f
       0.71305037 0.6063018 1.119715 0.55743676
000140 48 af 67 3f 2d 44 c1 3f 6d c0 26 3f e9 96 c4 3e
       0.9050183 1.5098931 0.6513737 0.38396385
000150 a3 90 56 3f d8 8b 87 3f c3 f8 45 3f d7 e2 71 3f
       0.8381445 1.0589552 0.77332705 0.94486755
000160 5f 48 fa 3e c6 63 88 3f b3 a5 cd 3f be 13 b1 3f
       0.4888334 1.0655448 1.6066192 1.383415
000170 3c 7c 06 40 45 58 ef 3c e2 17 94 3f 9f 6f 98 3d
       2.1013327 0.029216895 1.1569788 0.07443165
000180 d4 bd 67 3f e9 8c 84 3f 47 f0 45 3f 94 e5 68 3f
       0.9052403 1.0355502 0.7731976 0.9097531
000190 bc 39 3b 3f 23 d3 3c 3f 6f e7 36 3e 93 5d f6 3e
       0.7313497 0.7375967 0.17861722 0.48118266
0001a0 40 ce b2 3f 16 6e 87 3f 2f 5b 5e 3f ea cb 97 3f
       1.3969193 1.058047 0.86857885 1.1859105
0001b0 e0 34 5c 3f 7f 90 09 3f fc da a6 3f 98 dc 97 3f
       0.8601818 0.5373611 1.3035579 1.1864195
0001c0 72 37 7d 3f 5b 70 9b 3f 7a e6 35 3f d5 d3 7b 3f
       0.9891273 1.2143663 0.71054804 0.98370105
0001d0 03 b0 1a 3f f9 3d 41 3f 61 58 79 3f ae a7 53 3f
       0.6042482 0.7548519 0.9740048 0.82677734
0001e0 6b f9 27 3f c4 3b d8 3c 63 e3 8c 3f 34 5c 7b 3f
       0.65614957 0.026395686 1.1006893 0.98187566
0001f0 a5 b3 11 3f 3d 1e 6e 3f 94 bb ce 3e 8c 0c b5 3f
       0.5691474 0.9301489 0.40377486 1.4144454
000200 ef 86 80 41 03 70 99 3f 49 48 11 3f cc 85 a9 3f
       16.065886 1.1987308 0.56750923 1.3243957
000210 a0 f6 93 3f e0 30 d2 3d b5 ff 4e 3f 78 92 60 3f
       1.1559639 0.102632284 0.8085893 0.87723494
000220 7d 80 ad 3f 89 6c 98 3f d0 55 80 41 0f ae 66 3f
       1.3554837 1.1908122 16.0419 0.9010934
000230 3c b6 67 3f de 90 8c 3f 61 08 48 3f 28 81 51 3f
       0.9051244 1.098171 0.78137785 0.818377
000240 2c cd 4c 3e 11 03 09 3f a4 a1 73 3f c0 15 e8 3f
       0.20000142 0.53520304 0.9516852 1.8131638
000250 4a eb 50 3e c6 e5 85 3f 08 d8 9c 3f 0a e0 b6 3f
       0.20402256 1.0460746 1.2253428 1.4287121
000260 0a 71 5a 3f d5 3f bf 3e 51 ad 1d 3f 86 17 6a 3f
       0.85328734 0.37353387 0.61592585 0.91442144
000270 9a 4b 1e 3f 9c 35 90 3f 7d ad 84 3f f7 3e 8d 3f
       0.6183411 1.126636 1.0365444 1.103484
000280 28 d8 5b 3f e2 d4 82 3f 31 58 b9 3f 7b 94 5d 3f
       0.85876703 1.0221217 1.4480039 0.8655469
000290 ec c6 66 3f 20 a8 aa 3f 75 ef 94 3f 4f 30 9d 3f
       0.9014728 1.3332558 1.1635576 1.2280368
0002a0 7d e8 47 3f e5 2e b3 3f 98 19 b7 3f 6f e4 84 3f
       0.78089124 1.3998686 1.4304686 1.0382212
0002b0 3e 60 ff 3e bb ac ba 3f 2f 0b 12 3f 78 41 5b 3f
       0.49878114 1.4583963 0.57048315 0.8564677
0002c0 69 82 a2 3f 2b de aa 3f 0e a3 08 3f 1c f2 5e 3f
       1.2696048 1.334905 0.533738 0.8708818
0002d0 a9 b0 5f 3f 4c ab a7 3f 29 d4 1a 3f 37 a5 37 3f
       0.87378937 1.3099151 0.6047998 0.7173647
0002e0 bb 50 83 3e 96 1b d0 3f 45 3f 05 bd 75 12 b8 3e
       0.2564753 1.6258419 -0.03253104 0.35951582
0002f0 03 06 12 3f 7c 90 c1 3e bd 7a 6a 3f 86 40 3f 3f
       0.57040423 0.37805545 0.91593534 0.7470783
000300 0a 0c 67 3f 8a da a6 3f e2 dc a6 3e 7f d0 42 3e
       0.90252745 1.3035443 0.32590395 0.19024847
000310 48 6b c4 3f a4 69 d2 3f 03 2b 0b 3f bf d1 31 40
       1.534524 1.6438489 0.54362506 2.778427
000320 87 7c c6 3e 5c 83 3f 3f 4e 5b 0b 3f 98 54 4d 3e
       0.38766882 0.74809813 0.54436195 0.20051801
000330 a6 87 3e 3e 38 2c 26 3f 08 34 56 3f 97 73 37 3f
       0.18606433 0.6491122 0.83673143 0.7166075
000340 62 46 ee 3e 1b 70 58 3f 48 fd 2b 3e e9 ef 80 41
       0.46538073 0.8454606 0.16795838 16.117144
000350 01 6c 23 3f d4 15 0a 3f e2 3e 36 3f 1b 68 aa 3f
       0.63836676 0.5393956 0.711897 1.331302
000360 0b e3 39 3f 36 f4 e5 3d 9a d6 4f 3f 15 51 9a 3f
       0.72612065 0.1122822 0.8118683 1.2055994
000370 20 e7 38 3f e5 25 03 3f cd 81 a1 3f 39 c5 71 3f
       0.7222767 0.512297 1.2617737 0.9444156
000380 38 20 e0 3f 49 83 ea 3e ef d1 b5 3f cf ab 7d 41
       1.7509832 0.45803288 1.4204692 15.854445
000390 a4 6e 13 3f a1 25 39 3f fe 4d 82 3f 26 c6 b4 3f
       0.575907 0.7232304 1.0180051 1.412297
0003a0 35 24 d6 3e 8f 24 63 3f eb ba 80 41 29 74 27 3f
       0.418245 0.8872766 16.091269 0.6541162
0003b0 55 1b 50 3e 6f c4 59 3f 33 6e 3a 3f f1 73 64 3f
       0.20322926 0.8506536 0.728244 0.8923941
0003c0 3c 54 92 3f a9 a6 f0 3f cb 7c 18 3f de 75 07 3f
       1.1431956 1.8800861 0.5956542 0.52914226
0003d0 17 c7 9c 3f 92 da 4f 3f a9 0c 0e 3f ff 67 fc 3f
       1.2248257 0.81192887 0.5548807 1.9719237
0003e0 f6 23 0a 3f 11 8f fa 3e 64 a2 24 3f 07 6d 90 3f
       0.5396112 0.48937276 0.6431029 1.1283273
0003f0 b4 07 ac 3f a2 bd b2 3f df 86 6c 3f 29 27 b9 3f
       1.3439851 1.3964121 0.92393297 1.4465076

bn2.weight f4 [300]
000000 87 24 d4 3f fc 31 1c 40 40 ae da 3f 38 2f ce 3f
       1.6573647 2.4405508 1.7084427 1.610816
000010 ca e4 58 40 3e 77 29 40 d5 aa f0 3f e6 d8 d5 3f
       3.3889642 2.647903 1.8802134 1.6706817
000020 94 ca 4b 40 bf 52 1f 40 45 d3 1b 40 99 ec 02 40
       3.1842394 2.4894254 2.4347699 2.0456908
000030 38 00 28 40 3a 73 20 40 9e ee e8 3f 02 a4 fc 3f
       2.6250134 2.5070329 1.819782 1.9737551
000040 db eb 31 40 26 04 2c 40 b9 f2 27 40 74 20 13 40
       2.7800205 2.6877532 2.6241896 2.2988558
000050 9a 98 11 40 ef 09 1a 40 14 c3 0c 40 49 14 17 40
       2.274939 2.4068563 2.1994066 2.360613
000060 41 ac 2b 40 a3 a3 b5 3f 01 91 0e 40 e0 ff 4e 40
       2.6823885 1.4190563 2.2276003 3.2343674
000070 38 6e 47 40 df 6e 1b 40 80 d7 4d 40 a8 b4 07 40
       3.1161022 2.428642 3.216278 2.1204014
000080 86 ec 09 40 89 07 48 40 e7 cd 20 40 fe 21 de 3f
       2.1550612 3.12546 2.5125673 1.7354124
000090 37 eb 24 40 b4 55 f8 3f 7a 81 08 40 5c 56 13 40
       2.5768564 1.9401155 2.1329026 2.302146
0000a0 d7 88 0f 40 3c 93 28 40 92 29 03 40 5e b8 06 40
       2.242727 2.6339865 2.0494123 2.1050029
0000b0 14 23 37 40 e4 ee 0b 40 10 36 08 40 76 75 50 40
       2.861516 2.1864557 2.1282997 3.2571692
0000c0 e6 07 05 40 59 e8 31 40 66 1f cd 3f 2e ff fe 3f
       2.078607 2.7798064 1.6025207 1.9921625
0000d0 8f 98 1b 40 9b 14 15 40 8a 89 2f 40 8f 24 04 40
       2.4311864 2.3293827 2.7427697 2.0647314
0000e0 a2 c1 29 40 d5 73 21 40 0f 57 1c 40 c9 ac 0e 40
       2.6524434 2.5226948 2.4428136 2.229296
0000f0 4f 93 3d 40 95 d3 01 40 a9 0a a5 3f e2 de 4d 40
       2.962116 2.028539 1.2893878 3.2167287
000100 5c ab 04 40 03 24 22 40 61 62 40 40 84 35 fe 3f
       2.072959 2.533448 3.0060046 1.9860082
000110 e6 dd 30 40 ee 72 13 40 47 b7 05 40 c5 22 3b 40
       2.7635436 2.3038898 2.0893114 2.9239972
000120 17 75 f4 3f 35 01 01 40 12 aa 2c 40 47 1b 09 40
       1.9098233 2.0156987 2.6978803 2.1422899
000130 34 e5 f0 3f ee e7 27 40 17 90 ec 3f 80 51 19 40
       1.8819947 2.6235309 1.8481473 2.3955994
000140 08 3d fa 3f 9e 82 17 40 c7 a5 0a 40 2a 8c 25 40
       1.9549875 2.3673472 2.1663682 2.58668
000150 0f 8a d0 3f ac 02 29 40 45 ef 29 40 45 bb 05 40
       1.6292132 2.640788 2.6552289 2.089555
000160 bb c6 45 40 6d aa cd 3f c1 a7 32 40 d9 cd 3a 40
       3.0902545 1.6067635 2.791489 2.918814
000170 bc 96 e2 3f 2a 82 2c 40 72 f5 19 40 1e 48 39 40
       1.770225 2.6954446 2.4056058 2.8950267
000180 c2 47 04 40 62 1b 06 40 76 d2 0a 40 fa ed 02 40
       2.0668797 2.0954213 2.1690955 2.045775
000190 82 cb 0d 40 a4 63 44 40 04 0a 46 40 dc 31 0a 40
       2.2155461 3.0685816 3.0943613 2.1592932
0001a0 03 b0 e7 3f 3a de 1d 40 df a5 12 40 05 ba 1e 40
       1.810059 2.4666886 2.291374 2.4801037
0001b0 69 61 15 40 13 d4 02 40 b5 4f 11 40 47 4a 35 40
       2.3340704 2.044194 2.27049 2.8326585
0001c0 62 b6 21 40 43 8b e1 3f 97 7c 14 40 6d 70 26 40
       2.5267568 1.7620624 2.3201044 2.600612
0001d0 3a cb 08 40 52 1e 03 40 d5 69 d9 3f 1a 86 61 40
       2.137404 2.0487256 1.6985422 3.52381
0001e0 c5 58 1c 40 94 24 18 40 41 9f 13 40 29 e0 3b 40
       2.442918 2.3772326 2.306595 2.9355567
0001f0 0a 5f 28 40 f3 50 16 40 56 35 21 40 a8 94 dd 3f
       2.6308007 2.3486907 2.5188804 1.7310991
000200 c2 9c cb 3d 65 fe cb 3f 9a 19 20 40 64 a1 0e 40
       0.099420086 1.593701 2.5015626 2.2286005
000210 96 67 05 40 f9 7e 4f 40 20 99 f1 3f c7 ab 53 40
       2.0844474 3.2421248 1.8874855 3.3073595
000220 03 aa f8 3f 9d 22 2f 40 a5 a8 e0 3d 7b 60 16 40
       1.9426883 2.7364876 0.109696664 2.3496387
000230 1c ee e4 3f 4e aa c3 3f 96 8f 28 40 05 f1 35 40
       1.7885165 1.5286348 2.6337638 2.8428357
000240 51 6e 16 40 69 7e 11 40 49 89 12 40 43 39 1e 40
       2.3504832 2.2733405 2.2896292 2.472245
000250 93 54 ef 3f 77 63 f5 3f fa 42 19 40 cf b1 fa 3f
       1.8697685 1.9170979 2.394713 1.9585513
000260 5d 32 10 40 57 7e 5f 40 1e b6 02 40 b9 2a 09 40
       2.253074 3.4920862 2.0423656 2.1432326
000270 83 29 23 40 f4 c7 2c 40 65 e1 03 40 cd 1f f3 3f
       2.5494087 2.6997042 2.060632 1.899408
000280 e4 50 f3 3f 33 71 10 40 b0 d1 f8 3f 77 f3 12 40
       1.9009061 2.2569091 1.9438992 2.29611
000290 4d 1f 2d 40 5f f5 06 40 af 66 10 40 ec 3d 04 40
       2.7050354 2.1087263 2.2562673 2.0662794
0002a0 b4 2a f1 3f f4 9d 1a 40 3f 14 18 40 5a 14 12 40
       1.8841157 2.4158907 2.3762357 2.2824922
0002b0 51 95 10 40 7a 3b a9 3f 5b ac 34 40 f1 b4 12 40
       2.2591136 1.3221276 2.8230197 2.2922938
0002c0 d0 bb f8 3f 20 69 06 40 4f 35 fe 3f bb 27 1f 40
       1.9432316 2.1001663 1.9860018 2.4868
0002d0 2d ad 1b 40 c2 49 b8 3f 42 fd 0c 40 23 b6 a9 3f
       2.4324448 1.4397509 2.2029576 1.3258709
0002e0 b6 e0 64 40 82 34 05 40 7e d4 50 40 b7 31 1d 40
       3.5762153 2.0813298 3.2629695 2.4561594
0002f0 5c f0 ff 3f d8 1d 3c 40 79 d7 2c 40 a0 40 c1 3f
       1.9995227 2.9393215 2.7006514 1.5097847
000300 41 64 05 40 22 9e de 3f 0f f6 15 40 67 e1 3c 40
       2.084244 1.7392008 2.3431432 2.9512575
000310 90 e9 bd 3f ea 91 11 40 90 42 15 40 30 25 c2 3f
       1.4836903 2.274531 2.3321877 1.5167599
000320 1d c1 1f 40 2e c9 1f 40 ca f9 00 40 8a 2d 37 40
       2.4961617 2.496654 2.015246 2.8621545
000330 de c0 1d 40 e3 e2 25 40 4f cb 09 40 f5 77 38 40
       2.4648967 2.591973 2.153034 2.8823216
000340 a4 1a 31 40 11 b4 cc 3f c5 7c 45 40 4d 8f e8 3d
       2.767251 1.5992452 3.0857403 0.113554575
000350 c3 5f 58 40 24 3c ff 3f a5 1c f9 3f ec 2f f0 3f
       3.3808448 1.9940228 1.9461867 1.8764625
000360 05 13 27 40 73 86 14 40 dd 16 65 40 ad fe 3e 40
       2.6105359 2.3207061 3.5795205 2.9842942
000370 08 36 3d 40 90 26 1e 40 5b b9 11 40 6c ff fa 3f
       2.9564228 2.4711037 2.2769382 1.9609199
000380 3f 47 1a 40 dd ec 38 40 70 0f ef 3f f3 c8 e3 3d
       2.4105985 2.889457 1.8676586 0.111223124
000390 b3 2d f0 3f ce be 27 40 b2 ab f2 3f 80 6b 1d 40
       1.8763946 2.6210208 1.8958647 2.4596863
0003a0 38 f8 22 40 0c 20 19 40 80 04 b7 3d f2 51 48 40
       2.5464 2.392581 0.08936405 3.1300015
0003b0 8d b6 1e 40 1c dd 54 40 eb 03 3b 40 91 af 23 40
       2.479892 3.3259954 2.9221141 2.5575907
0003c0 22 51 f0 3f 58 3b ef 3f 82 cb 4f 40 9b 2a 1c 40
       1.877476 1.8689985 3.2467961 2.4401004
0003d0 a7 31 0b 40 e5 cc 16 40 79 56 3e 40 44 45 93 3f
       2.1749055 2.3562558 2.9740279 1.1505513
0003e0 af be 31 40 89 53 47 40 a2 c5 34 40 63 69 29 40
       2.7772634 3.1144736 2.8245625 2.6470573
0003f0 40 67 08 40 c8 98 10 40 73 f4 1d 40 79 e0 cf 3f
       2.1313019 2.259325 2.468045 1.6240379
