weights/model_critic_117.pt (torch, 431175 bytes, 9 tensors)

l1.weight f4 [300, 42]
-0.16409558 0.72588485 -0.017312177 -1.7222406 0.11572643 2.0726802 1.0103923 0.1795051
-0.58445555 0.15648653 0.6431123 -0.33695227 -0.3404759 -0.4068424 2.6562657 -1.9140309
-0.41252363 3.7540803 -0.43776804 -1.0785804 0.21489143 4.4842286 -3.4963083 0.14659567
0.3720557 -2.2351167 1.6573726 -0.7923019 -2.7567887 -2.3331096 -1.5957416 1.6312227
-3.591072 -3.4657586 0.38207373 2.641864 -1.4006275 -1.0475913 -1.2754278 7.5909877
-2.6426094 -3.4607615 0.3344163 0.15927365 0.26481846 0.74939585 0.152288 -0.21591175
-0.07488812 -0.8135016 -0.25308207 -0.9963146 0.26285687 0.7468406 0.4111538 -0.32376155
2.372715 0.40080747 -1.2930384 0.7412688 -1.031737 -0.30184287 -0.37249473 2.5070546
-1.7421933 0.2128187 0.22703077 -0.6907741 0.024478966 1.0010239 -0.65733355 2.779439
-1.201537 0.6014071 9.10326 -1.6265879 0.22667313 -4.9592886 4.728176 1.9564203
0.79919416 0.2426865 -1.5981193 0.4514276 0.5484315 0.084539376 0.37142396 0.45804876
0.30412233 0.40402722 0.3311128 -0.48413137 0.24210593 -1.012763 0.46736422 -0.56843954
0.19450438 -0.66171473 -0.5304804 0.39374134 -0.34248868 -1.279074 1.4998846 -0.23005079
0.6199847 0.48452818 -0.7085314 0.38471758 0.375622 -0.9675982 0.22043492 -2.2547345
0.47176245 -1.850733 -0.3501292 -0.0975739 -5.719574 3.2177138 0.53974205 2.4541306
0.18855193 -0.55348283 0.23120543 1.8418399 -0.7828781 -0.9337627 0.6007111 0.040146243
0.3339547 0.20927785 0.37141445 0.3772796 0.33649218 -0.47999024 0.14242122 -1.1190002
0.47629488 -0.30010393 0.2106716 -0.6956024 -0.41183776 0.17722361 -0.5934215 -1.4165342
1.5285559 -0.15965036 0.61848503 0.056207992 -0.37566215 0.41407433 0.38361886 -0.94792473
0.2823469 -2.228143 0.38375252 -1.8088813 -0.22675411 -0.07564518 -5.8767886 3.206829
0.5086806 2.4389358 0.24867329 -0.5840608 0.17637645 1.2091179 -0.25090384 -0.5152937
0.2890979 0.5060084 0.42114234 0.93521816 0.20746596 -0.3097441 0.6851571 0.3190775
0.31266972 -0.621965 0.29305884 0.05082614 -0.025271583 -0.3754939 0.2748166 -0.2638311
1.2985414 -1.4655467 1.3958826 0.14109552 -1.938052 0.040658493 0.5496765 0.0042692753
0.16262232 0.5878331 0.4736834 -1.1623265 -1.6953436 -2.5054145 -1.7956936 -0.8566061
-1.0495466 -6.975489 0.123513855 -0.62622464 -3.735348 0.80625665 -2.063101 -0.44900936
4.985802 -1.7246077 0.63708556 -0.17777726 0.42127836 -0.49633092 0.46294263 0.37127653
0.08748214 -0.077916026 -0.1863383 -1.4597293 0.5170617 0.30826375 0.2934707 -0.7525188
-0.30593595 -0.5021694 -1.6134876 -1.6392564 1.6843629 0.03361441 0.26230928 -1.5321385
0.6286442 0.55909914 0.459111 -0.8169644 0.28374487 -2.3013692 0.20344219 -1.4487637
0.15060033 -0.3150234 -6.120491 2.652211 0.5229919 2.388776 0.39511153 -0.73660123
-0.03674079 -0.63247365 1.3201845 0.8353222 0.29068747 0.71273947 0.10276123 0.75112164
00000000: ac08 28be 97d3 393f 44d2 8dbc 6172 dcbf
00000010: fb01 ed3d cba6 0440 8954 813f 2fd0 373e
00000020: e19e 15bf 013e 203e 02a3 243f 0285 acbe
00000030: db52 aebe a64d d0be 4200 2a40 f7fe f4bf
00000040: 4c36 d3be da42 7040 2223 e0be ec0e 8abf
00000050: 800c 5c3e cd7e 8f40 84c3 5fc0 2d1d 163e
00000060: 167e be3e 270c 0fc0 c924 d43f 4cd4 4abf
00000070: 3a6f 30c0 ab51 15c0 4341 ccbf e8cb d03f
00000080: 20d4 65c0 fdce 5dc0 2b9f c33e 4d14 2940
00000090: c347 b3bf 7917 86bf 3841 a3bf 5fe9 f240
000000a0: 8320 29c0 1e7d 5dc0 9d38 ab3e a218 233e
000000b0: 4996 873e 68d8 3f3f 63f1 1b3e f817 5dbe
000000c0: f15e 99bd a441 50bf f993 81be 790e 7fbf
000000d0: 2d95 863e f230 3f3f c082 d23e 13c4 a5be
000000e0: 90da 1740 a336 cd3e 4882 a5bf cbc3 3d3f
000000f0: f50f 84bf 268b 9abe a1b7 bebe 9573 2040
00000100: 3100 dfbf 25ed 593e c17a 683e 92d6 30bf
00000110: 1d88 c83c 8d21 803f 0347 28bf 54e2 3140
00000120: f7cb 99bf d1f5 193f f4a6 1141 0834 d0bf
00000130: 001d 683e 7eb2 9ec0 384d 9740 fb6b fa3f
00000140: fd97 4c3f cf82 783e 2c8f ccbf 8521 e73e
00000150: 0266 0c3f fb22 ad3d 482b be3e 5e85 ea3e
00000160: ecb5 9b3e a8dc ce3e 9e87 a93e 11e0 f7be
00000170: 9eea 773e 38a2 81bf 5d4a ef3e 4185 11bf
00000180: 282c 473e 2366 29bf 90cd 07bf 7798 c93e
00000190: ad5a afbe b2b8 a3bf 38fc bf3f 6f92 6bbe
000001a0: 51b7 1e3f 1414 f83e 5062 35bf b4f9 c43e
000001b0: 8751 c03e 84b4 77bf b1b9 613e 924d 10c0
000001c0: d98a f13e d2e4 ecbf 2244 b3be d3d4 c7bd
000001d0: c006 b7c0 06ef 4d40 892c 0a3f 7a10 1d40
000001e0: c213 413e 0db1 0dbf 1ec1 6c3e 69c1 eb3f
000001f0: b36a 48bf 130b 6fbf 34c8 193f 6370 243d
00000200: 1cfc aa3e ef4c 563e 092a be3e cb2a c13e
00000210: b448 ac3e 48c1 f5be ded6 113e 663b 8fbf
00000220: ecdc f33e 39a7 99be 4cba 573e 0013 32bf
00000230: 66dc d2be 1b7a 353e 79ea 17bf fe50 b5bf
00000240: b8a7 c33f 627b 23be 0955 1e3f 5a3a 663d
00000250: ca56 c0be 8d01 d43e b169 c43e 32ab 72bf
00000260: c68f 903e e599 0ec0 367b c43e 6c89 e7bf
00000270: 3b32 68be dceb 9abd a70e bcc0 b03c 4d40
00000280: e438 023f 8617 1c40 36a4 7e3e 0285 15bf
00000290: 079c 343e 60c4 9a3f 7876 80be 4aea 03bf
000002a0: a404 943e c489 013f f89f d73e 756a 6f3f
000002b0: f571 543e c796 9ebe 7566 2f3f 205e a33e
000002c0: 3f16 a03e 1939 1fbf cf0b 963e 122f 503d
000002d0: 5a06 cfbc bd40 c0be c3b4 8c3e df14 87be
000002e0: 9b36 a63f 0997 bbbf 48ac b23f 587b 103e
000002f0: 1712 f8bf 8589 263d 99b7 0c3f 47e5 8b3b
00000300: 7786 263e 3b7c 163f a186 f23e 1dc7 94bf
00000310: 0501 d9bf b658 20c0 4ad9 e5bf 8a4a 5bbf
00000320: 8b57 86bf 3537 dfc0 d5f4 fc3d 4250 20bf
00000330: f10f 6fc0 d666 4e3f d909 04c0 8ee4 e5be
00000340: b18b 9f40 f2bf dcbf 0a18 233f 3e0b 36be
00000350: ccb1 d73e 161f febe d106 ed3e f517 be3e
00000360: d629 b33d 7092 9fbd 78cf 3ebe 69d8 babf
00000370: 285e 043f bfd4 9d3e cb41 963e 12a5 40bf
00000380: a3a3 9cbe 2c8e 00bf c386 cebf 27d3 d1bf
00000390: 3499 d73f 43af 093d 674d 863e 1d1d c4bf
000003a0: d4ee 203f 1f21 0f3f 9910 eb3e 9424 51bf
000003b0: 0247 913e a249 13c0 2653 503e 1771 b9bf
000003c0: f936 1a3e bf4a a1be 10db c3c0 d3bd 2940
000003d0: cce2 053f b5e1 1840 0f4c ca3e e691 3cbf
000003e0: 837d 16bd cbe9 21bf cefb a83f add7 553f
000003f0: fdd4 943e 1876 363f 7b74 d23d 8249 403f

l1.bias f4 [300]
0.34499663 -0.01143398 0.32340747 0.3428469 0.072932005 0.4544954 -0.04841634 0.3826967
0.4868516 0.40256873 0.14287752 0.11346521 0.01410971 0.5800211 -0.05858961 -0.0742761
0.5874836 0.051665287 -0.07365443 0.096088484 0.11251886 0.3459309 0.04889631 0.29118046
0.068547696 0.37880087 0.2622759 -0.13769628 0.06275785 0.0853211 0.118358 0.32045838
0.14824696 0.20317107 -0.08840307 0.10145284 0.098634295 0.38434383 0.5072017 0.18470834
0.25163954 0.16130507 0.15775266 -0.03819897 0.3241894 0.48920783 0.4624374 0.37068725
0.4462074 0.30500048 0.04241009 0.4698386 0.29085475 0.03553216 0.51180977 0.44821915
0.33028215 0.08892533 0.12133949 0.17927852 0.15530467 0.09539435 0.36007294 0.004625364
0.06898125 0.05890346 0.46379992 0.1214501 0.47239396 0.25633627 0.41080782 0.4866378
0.13736449 0.14734882 0.40478104 0.2166906 0.39904568 0.3469308 0.36764213 0.20317252
0.45855457 0.5574893 0.1805658 0.3874193 0.3037955 0.035572827 0.37992343 0.28383127
0.21840458 0.3225053 0.64966255 0.19868705 0.17831342 0.22986513 0.50482583 0.100392915
0.22902998 0.16983996 0.4336086 0.45159113 0.32472825 0.42455438 -0.09789467 0.1598807
0.07899406 0.40700567 0.25133884 0.38150027 0.28125262 0.30882564 0.32323948 0.35372835
0.138454 0.46170232 0.27045253 0.39768443 0.19595245 0.24365988 0.31757846 0.6236036
0.2716528 0.4005091 0.4056599 0.45545548 0.3326126 0.008794402 -0.021260042 0.17787495
0.35268635 0.38802212 0.288452 -0.0052436455 0.42773372 0.33745012 0.4716494 0.75437856
0.397808 0.47142217 0.37868896 0.1967023 0.23174757 0.4071609 0.33900836 0.10712621
0.33542982 0.34673262 -0.08513153 0.84174764 0.5336603 0.24354123 0.34830293 0.024456387
0.2906459 0.20334162 0.3804056 0.40881664 0.37194517 0.36771014 0.103283174 0.25565407
0.24304302 0.4372878 0.3493053 0.31908384 0.19848353 0.4468197 0.05894619 0.29541123
0.024419583 -0.1326217 -0.17156091 0.13079484 0.3912269 0.5083707 0.22702841 0.3319991
0.3714511 0.38192335 0.34861138 0.39343685 0.2946423 0.3482163 0.13716929 0.39016652
0.43623972 0.5013212 0.2583491 0.45828164 0.5068266 0.3330703 0.3112553 0.10477929
0.15236631 0.45339334 -0.022995107 0.013965587 0.43794948 0.04399486 0.27822825 -0.022449097
0.34510913 0.009587335 0.09974877 0.22913995 0.299096 0.41441864 0.15017238 0.18192883
0.40967682 0.3809575 0.11883429 0.07290883 0.4018913 0.17809626 0.27950284 0.5767451
0.39851993 0.36512432 0.3634828 0.3030719 0.31424025 0.11115344 0.12924357 -0.2691161
0.35872343 0.08647947 0.0014018475 0.34448022 0.14394152 0.081989005 0.29050738 0.32636043
-0.083721295 0.23743297 0.16175348 0.31268498 0.08663288 0.29160836 0.49942103 0.4384238
0.3929606 0.33843607 0.36678407 0.4299716 0.1591946 -0.080914475 0.5078129 0.26885098
-0.008489739 0.03008352 0.29950494 0.02396646 0.13652948 0.16505063 0.010717397 0.33280358
00000000: 66a3 b03e 9755 3bbc aa95 a53e a189 af3e
00000010: 605d 953d 9fb3 e83e 3650 46bd d2f0 c33e
00000020: 9d44 f93e 7d1d ce3e 7c4e 123e 7360 e83d
00000030: 6a2c 673c 437c 143f a9fb 6fbd 111e 98bd
00000040: 5365 163f fb9e 533d 22d8 96bd 0aca c43d
00000050: 4a70 e63d db1d b13e 7f47 483d 9b15 953e
00000060: bc62 8c3d 30f2 c13e 0749 863e 4100 0dbe
00000070: 3087 803d d4bc ae3d ae65 f23d 1f13 a43e
00000080: 0dce 173e 140c 503e ab0c b5bd 82c6 cf3d
00000090: c700 ca3d b7c8 c43e f8d7 013f 2f24 3d3e
000000a0: e6d6 803e 282d 253e ea89 213e 8676 1cbd
000000b0: 27fc a53e 7379 fa3e 98c4 ec3e b8ca bd3e
000000c0: 4c75 e43e 0629 9c3e 34b6 2d3d af8e f03e
000000d0: eaea 943e 2c8a 113d f705 033f fb7c e53e
000000e0: be1a a93e 7c1e b63d d780 f83d ca94 373e
000000f0: 3008 1f3e 1d5e c33d 7b5b b83e 5e90 973b
00000100: 0b46 8d3d c144 713d 2f77 ed3e d4ba f83d
00000110: 9fdd f13e 823e 833e 6755 d23e 9728 f93e
00000120: 47a9 0c3e 9ce2 163e 763f cf3e 24e4 5d3e
00000130: b74f cc3e eaa0 b13e 973b bc3e 750c 503e
00000140: aac7 ea3e 9eb7 0e3f 3ee6 383e d35b c63e
00000150: 158b 9b3e d0b4 113d 5385 c23e 5552 913e
00000160: 73a5 5f3e 6a1f a53e 4950 263f 9e74 4b3e
00000170: cb97 363e c461 6b3e 443c 013f cd9a cd3d
00000180: d686 6a3e 87ea 2d3e f201 de3e f436 e73e
00000190: c842 a63e 315f d93e 007d c8bd c4b7 233e
000001a0: a3c7 a13d 0c63 d03e 7caf 803e 0154 c33e
000001b0: 5800 903e 651e 9e3e a57f a53e e21b b53e
000001c0: e3c6 0d3e 3f64 ec3e c178 8a3e 4b9d cb3e
000001d0: c2a7 483e fa81 793e a599 a23e 7ca4 1f3f
000001e0: 1316 8b3e 870f cd3e a8b2 cf3e 7631 e93e
000001f0: 334c aa3e 6516 103c 8a29 aebc da24 363e
00000200: 4e93 b43e d6aa c63e fbaf 933e e3d2 abbb
00000210: eaff da3e 43c6 ac3e 087c f13e f41e 413f
00000220: 7dad cb3e 3f5e f13e 85e3 c13e 546c 493e
00000230: 3c4f 6d3e 6577 d03e 8192 ad3e fd64 db3d
00000240: 75bd ab3e f086 b13e 7159 aebd c67c 573f
00000250: f69d 083f df62 793e c354 b23e c358 c83c
00000260: 8acf 943e c938 503e 86c4 c23e 6a50 d13e
00000270: 996f be3e 8144 bc3e 2186 d33d 17e5 823e
00000280: 45e0 783e 30e4 df3e 25d8 b23e f55e a33e
00000290: 443f 4b3e 8dc5 e43e 8f71 713d 2440 973e
000002a0: 940b c83c fccd 07be aaad 2fbe 15ef 053e
000002b0: e44e c83e 9524 023f 237a 683e c9fb a93e
000002c0: d72e be3e 758b c33e 317d b23e 8e70 c93e
000002d0: 5bdb 963e 6849 b23e 1b76 0c3e e8c3 c73e
000002e0: d05a df3e 9656 003f 5546 843e e4a3 ea3e
000002f0: 63bf 013f 3188 aa3e db5c 9f3e 8696 d63d
00000300: ea05 1c3e 2c23 e83e 3c60 bcbc ebcf 643c
00000310: ea3a e03e f433 343d ef73 8e3e 2be7 b7bc
00000320: 25b2 b03e 3314 1d3c 1549 cc3d aaa3 6a3e
00000330: 1c23 993e ae2e d43e cac6 193e 8d4b 3a3e
00000340: 29c1 d13e dd0c c33e 645f f33d 3a51 953d
00000350: b2c4 cd3e de5e 363e ff1a 8f3e 91a5 133f
00000360: ce0a cc3e 93f1 ba3e 6b1a ba3e 3d2c 9b3e
00000370: 19e4 a03e 6aa4 e33d 6d58 043e 96c9 89be
00000380: 99aa b73e 261c b13d 32be b73a b65f b03e
00000390: 6865 133e dae9 a73d 62bd 943e b718 a73e
000003a0: 1276 abbd a121 733e b4a2 253e 3f18 a03e
000003b0: 946c b13d b14d 953e 1db4 ff3e 1679 e03e
000003c0: 2232 c93e 7e47 ad3e 1fcb bb3e 3d25 dc3e
000003d0: e903 233e 7db6 a5bd 0700 023f d6a6 893e
000003e0: 8c18 0bbc b771 f63c b658 993e 4f55 c43c
000003f0: 62ce 0b3e 0803 293e 0598 2f3c 3b65 aa3e

bn1.weight f4 [300]
1.4809482 1.9934112 0.37645984 0.3837349 1.9019068 0.26021442 2.5258636 0.34562758
0.19677237 0.3372098 2.9281926 2.9551249 1.9441752 2.2007003 1.9978101 1.748839
3.439141 1.1953206 2.0243752 2.3750062 2.5761008 2.2817 1.6798793 1.720796
2.7775114 2.6459713 1.7196808 1.635949 1.9172326 2.1998057 2.970339 0.36967328
1.6455252 1.488802 1.5474396 1.9245483 2.1365483 0.3093347 2.1840477 2.1776829
2.8434365 1.7604601 1.3523619 2.2246933 1.413116 2.2079897 0.34563294 0.34668788
3.1375835 0.25832772 1.2382052 4.2706285 3.1222982 2.5513036 1.374115 2.098543
0.29437777 1.5523968 1.7505811 2.8038366 1.7613955 1.5271833 0.33953932 1.3467401
1.387495 1.1900192 0.23631524 0.83933073 2.0019174 0.7265226 2.9456615 0.29623094
1.6594987 2.509697 0.37231776 2.9878275 2.2235827 2.3300881 0.33118165 2.1749043
1.7454731 1.8731848 3.2964044 0.30976763 0.15437205 2.0130873 0.35965404 0.31606355
2.5338356 0.34892172 4.800305 1.5505605 0.7422417 2.0625858 2.7720075 5.2346144
2.1834874 2.8113997 0.2623583 0.34574443 3.157145 2.9391367 2.4109778 1.7393329
1.2517467 2.6982043 1.4049275 0.29815522 2.0509849 0.36617646 1.0132767 0.31250584
3.1846004 0.20262843 2.292415 0.3334546 1.6346174 2.4697118 1.5654362 3.6105788
2.1655903 0.2793949 2.1519997 0.27300242 0.34383938 1.3483943 1.1785327 2.2387114
0.31181404 0.33133444 2.5569477 1.7027689 0.31013405 0.3538574 0.23186798 2.1418169
1.4430681 1.9095612 0.30277067 2.166498 3.7661195 0.3172516 1.6212829 1.3027561
1.5266151 2.5219505 1.1101493 3.5347855 2.61226 1.1949694 0.2978989 1.5639806
1.2378665 3.3083987 2.523675 0.34027228 1.5709369 0.35328788 2.924085 0.9270686
1.5948745 1.6703835 1.3969419 0.35041878 3.6122086 0.2901699 2.3618736 0.30594745
1.6128052 1.7922583 2.0372088 3.416579 3.3568707 2.1989923 2.026405 0.26300287
1.0414312 2.212631 2.523436 2.3066056 1.6202115 1.485357 2.6643705 0.99272865
0.26570642 0.25713447 0.74076504 0.21088459 0.33976614 1.5776069 1.0834216 1.5530993
1.7492368 0.35394502 2.008123 2.4842062 4.317836 2.0984092 0.3228696 1.5698249
0.32771337 2.8697305 2.0172036 2.9748647 0.28512755 0.21991901 1.5363716 2.2134387
1.9993796 0.27144015 1.869632 1.9645376 0.34128812 1.8243088 1.8086449 0.36309177
0.9471688 2.1175437 0.30320406 2.0085824 2.385488 1.7159282 3.0436506 1.9417704
2.203683 1.7586994 3.2919207 0.33900014 2.9393685 2.023205 2.6989696 0.34207007
2.1557424 3.201595 3.1777937 2.402048 1.7454251 1.260382 1.4433373 0.3622399
0.1939918 0.32101998 0.38087535 2.368123 1.3161571 2.8842158 0.9551587 1.936717
2.4110043 1.8629255 1.8592137 1.8567721 1.1431962 3.1954827 2.3963907 1.6964792
00000000: b68f bd3f 1928 ff3f 58bf c03e e778 c43e
00000010: af71 f33f d33a 853e c0a7 2140 19f6 b03e
00000020: b27e 493e c3a6 ac3e 8267 3b40 c420 3d40
00000030: bcda f83f 46d8 0c40 3eb8 ff3f f5d9 df3f
00000040: e31a 5c40 4400 993f 5d8f 0140 1a00 1840
00000050: d6de 2440 5f07 1240 4906 d73f 0b43 dc3f
00000060: bfc2 3140 9857 2940 801e dc3f c766 d13f
00000070: e167 f53f 9ec9 0c40 091a 3e40 d145 bd3e
00000080: 92a0 d23f 1091 be3f 8012 c63f 9957 f63f
00000090: 35bd 0840 1e61 9e3e 70c7 0b40 285f 0b40
000000a0: ddfa 3540 c256 e13f 321a ad3f 6061 0e40
000000b0: fce0 b43f b44f 0d40 cdf6 b03e 1381 b13e
000000c0: 2bce 4840 8843 843e 827d 9e3f fda8 8840
000000d0: bcd3 4740 8f48 2340 00e3 af3f 874e 0640
000000e0: afb8 963e f0b4 c63f 0b13 e03f 0f72 3340
000000f0: 6875 e13f be7a c33f 19d8 ad3e fb61 ac3f
00000100: 7099 b13f 8d52 983f 9ffc 713e 61de 563f
00000110: 6a1f 0040 63fd 393f b885 3c40 95ab 973e
00000120: 746a d43f e09e 2040 6fa0 be3e 9138 3f40
00000130: 2e4f 0e40 2a20 1540 a490 a93e a231 0b40
00000140: aa6b df3f 85c4 ef3f 4af8 5240 dd99 9e3e
00000150: b513 1e3e 6cd6 0040 9324 b83e 15d3 a13e
00000160: 5d2a 2240 dea5 b23e 199c 9940 c478 c63f
00000170: 8d03 3e3f 6801 0440 9268 3140 f681 a740
00000180: 42be 0b40 f9ed 3340 d453 863e 6a05 b13e
00000190: aa0e 4a40 d11a 3c40 764d 1a40 76a2 de3f
000001a0: 3c39 a03f 61af 2c40 aad4 b33f cda7 983e
000001b0: 5643 0340 7b7b bb3e 0db3 813f c400 a03e
000001c0: 7ed0 4b40 d47d 4f3e edb6 1240 90ba aa3e
000001d0: 253b d13f c20f 1e40 3760 c83f b913 6740
000001e0: 0899 0a40 d90c 8f3e 5dba 0940 f9c6 8b3e
000001f0: b70b b03e 2f98 ac3f 29da 963f 0c47 0f40
00000200: 17a6 9f3e aba4 a93e 08a5 2340 55f4 d93f
00000210: e4c9 9e3e cc2c b53e cd6e 6d3e 8713 0940
00000220: 75b6 b83f 806c f43f c204 9b3e e7a7 0a40
00000230: 1a08 7140 cd6e a23e 3386 cf3f b6c0 a63f
00000240: 2068 c33f a367 2140 5f19 8e3f ed39 6240
00000250: 452f 2740 c2f4 983f 3486 983e 8430 c83f
00000260: 6972 9e3f cebc 5340 e483 2140 2b38 ae3e
00000270: 7614 c93f 26e2 b43e 3524 3b40 5e54 6d3f
00000280: d924 cc3f 20cf d53f fece b23f 176a b33e
00000290: 6d2e 6740 2691 943e f028 1740 25a5 9c3e
000002a0: 6770 ce3f b868 e53f a161 0240 3ba9 5a40
000002b0: f8d6 5640 4abc 0c40 9fb0 0140 50a8 863e
000002c0: 9e4d 853f bf9b 0d40 fa7f 2140 6d9f 1340
000002d0: 1763 cf3f 2e20 be3f 0c85 2a40 7723 7e3f
000002e0: ac0a 883e 21a7 833e c7a2 3d3f 21f2 573e
000002f0: d4f5 ad3e 06ef c93f 8fad 8a3f f5cb c63f
00000300: fee6 df3f 4838 b53e 1685 0040 3cfd 1e40
00000310: b62b 8a40 564c 0640 2a4f a53e 06f0 c83f
00000320: 0cca a73e aaa9 3740 dd19 0140 2f64 3e40
00000330: 3dfc 913e 7332 613e d3a7 c43f fba8 0d40
00000340: aceb ff3f 34fa 8a3e 1a50 ef3f f875 fb3f
00000350: 51bd ae3e f382 e93f ad81 e73f 2ae7 b93e
00000360: a879 723f d685 0740 903d 9b3e 9d8c 0040
00000370: d6ab 1840 89a3 db3f 2ccb 4240 ef8b f83f
00000380: 2409 0d40 101d e13f d4ae 5240 6d91 ad3e
00000390: 9d1e 3c40 317c 0140 ebbb 2c40 cf23 af3e
000003a0: aff7 0940 efe6 4c40 f960 4b40 28bb 1940
000003b0: 176a df3f 3354 a13f 47bf b83f 8277 b93e
000003c0: c9a5 463e bb5c a43e 1802 c33e 548f 1740
000003d0: d677 a83f fe96 3840 4885 743f 58e6 f73f
000003e0: e54d 1a40 5874 ee3f b7fa ed3f b5aa ed3f
000003f0: 4154 923f ca82 4c40 775e 1940 3b26 d93f

bn1.bias f4 [300]
-0.8879189 -0.3187682 -0.65235996 -0.62146616 -0.2290596 -0.6444593 -0.74963206 -0.60766846
-0.7039807 -0.68970734 -0.30435067 -0.6837232 -1.1024606 0.040868692 -0.29283002 -1.3134096
0.68595046 -1.4357657 -0.92881167 -1.0601066 -1.0547234 -0.61913115 -1.5160806 -0.7632782
-0.15154977 0.6478425 -0.26808956 -0.5049658 -0.7989406 -0.7058651 -0.20545572 -0.6093904
-1.1338487 -0.7173183 -1.4092335 -0.732723 -0.5659903 -0.6456871 -0.60282654 -0.29865485
-0.1415078 -0.8400472 -0.14570136 -1.126242 0.1510281 -1.0262384 -0.57994807 -0.5902849
0.09519381 -0.6516227 -0.37132332 0.7264711 -1.1604681 -0.22595435 0.077973396 -1.0219674
-0.6667042 0.005887806 0.52032554 0.61355746 -1.2699047 -0.86390287 -0.6104215 -0.917496
-0.6982094 -0.5665439 -0.658189 -0.79417825 0.15490516 -0.1225482 -0.98570776 -0.56496245
-0.41592696 0.013308432 -0.61239785 0.09941282 -0.51259124 -0.44009396 -0.64296347 0.03639187
-1.6818558 0.058632124 -0.78965026 -0.6300816 -0.8642776 -0.78175104 -0.6425473 -0.60944456
-0.33334476 -0.59364974 0.92652833 -0.8211283 -0.6435541 -0.36338887 0.14460614 0.5574915
-0.25423837 -1.7182642 -0.6119752 -0.5617619 -0.9518097 0.27697527 -0.5777142 -1.2676507
-0.54434764 -0.49874118 -1.2621062 -0.6509788 -1.4179138 -0.60914207 -0.6374779 -0.59211844
-0.6631295 -0.5173382 -0.81988585 -0.6420675 -0.9202852 -0.24688476 -0.98099166 0.46395615
-1.2941844 -0.6743992 0.037069865 -0.73609495 -0.6035137 -0.9173025 -1.5484759 -0.54013133
-0.61245835 -0.6596846 1.3335273 -1.2051438 -0.63828176 -0.5805684 -0.73942524 0.4277528
0.29990807 0.04589526 -0.6852496 -0.69094783 -0.59734404 -0.5770409 -0.47655284 -1.4281985
-0.1356717 -0.61280674 -1.2213054 1.5700057 -0.6200598 -0.23264946 -0.70720804 -0.55870944
-0.48195732 -0.7831334 -0.998559 -0.5847085 -0.33087516 -0.6183261 0.079517126 -0.20256498
-0.06384662 -1.4681802 -0.31320626 -0.5812402 -0.23535657 -0.5707651 -1.4200431 -0.6209756
-1.4216865 -0.7871431 -0.83895755 -0.5761712 0.6000346 -0.5658781 -0.26898766 -0.5708353
-0.62496775 -0.013662789 -0.12103067 -0.21015833 -0.526165 -0.6383094 -0.20120414 0.4939028
-0.6783901 -0.71968585 0.02868631 -0.67868936 -0.60739887 -0.19122773 0.41473278 -0.44031236
-0.73570085 -0.58296996 -0.3479718 -0.103928566 -0.015474815 -1.2800974 -0.6198927 -0.9997928
-0.5832045 0.19675897 -0.9307649 -0.27153397 -0.6093403 -0.67813337 -1.3924178 0.048426587
-0.2601439 -0.6304021 -0.313504 -0.109139964 -0.64526165 -1.5650724 -0.75575936 -0.59619915
-0.41692907 0.57665634 -0.5283874 -0.44247818 -1.0320224 0.26031476 -0.5480054 -1.6363801
-0.8168005 -0.7972947 0.42034438 -0.6224784 -0.24538246 -0.51889545 -0.5423242 -0.5925095
-1.3190104 0.74283725 0.34315333 -1.2252724 -0.9117023 -0.81060076 0.106270686 -0.5987637
-0.6873543 -0.6064649 -0.6531409 -0.040006213 -1.0949869 -0.3587053 -0.2054322 -1.7475125
-0.35878167 -0.66948175 -0.93773746 -0.21254282 -0.5840132 -0.7410331 -0.65630215 -0.3874052
00000000: a74e 63bf 9635 a3be 1001 27bf 6818 1fbf
00000010: 9a8e 6abe 49fb 24bf e3e7 3fbf 2990 1bbf
00000020: 1438 34bf a990 30bf dad3 9bbe 7c08 2fbf
00000030: 6e1d 8dbf ee65 273d d1ed 95be ce1d a8bf
00000040: 739a 2f3f 2cc7 b7bf 9ac6 6dbf 93b1 87bf
00000050: 2d01 87bf 617f 1ebf ee0e c2bf 3366 43bf
00000060: dd2f 1bbe 02d9 253f 0943 89be 7045 01bf
00000070: 5f87 4cbf 93b3 34bf fc62 52be 0201 1cbf
00000080: f421 91bf 2ca2 37bf c361 b4bf bc93 3bbf
00000090: bee4 10bf c04b 25bf d752 1abf 4ae9 98be
000000a0: 6ce7 10be 550d 57bf bd32 15be b328 90bf
000000b0: 1ca7 1a3e c85b 83bf 7a77 14bf e91c 17bf
000000c0: f9f4 c23d bfd0 26bf 171e bebe 03fa 393f
000000d0: 388a 94bf 9460 67be 84b0 9f3d d4cf 82bf
000000e0: 20ad 2abf 7fee c03b 0e34 053f 1a12 1d3f
000000f0: 3d8c a2bf bd28 5dbf 9544 1cbf 05e1 6abf
00000100: dabd 32bf 0509 11bf 137f 28bf 444f 4bbf
00000110: 759f 1e3e 8dfa fabd 5857 7cbf 61a1 10bf
00000120: 61f4 d4be 9c0b 5a3c 1bc6 1cbf f398 cb3d
00000130: 2e39 03bf ff53 e1be 4199 24bf a40f 153d
00000140: 0d47 d7bf 3d28 703d 8526 4abf 074d 21bf
00000150: 4c41 5dbf d620 48bf fb7d 24bf 8f04 1cbf
00000160: 2aac aabe 6ef9 17bf f630 6d3f 7735 52bf
00000170: f6bf 24bf 1b0e babe a213 143e c3b7 0e3f
00000180: 882b 82be 15f0 dbbf 68aa 1cbf a1cf 0fbf
00000190: cda9 73bf b4cf 8d3e 14e5 13bf 6142 a2bf
000001a0: 5e5a 0bbf 015b ffbe b28c a1bf 8ca6 26bf
000001b0: 337e b5bf bcf0 1bbf c031 23bf 1395 17bf
000001c0: dbc2 29bf 4770 04bf 0ae4 51bf 895e 24bf
000001d0: d097 6bbf 5ccf 7cbe 4522 7bbf a98b ed3e
000001e0: d6a7 a5bf 6da5 2cbf 92d6 173d b870 3cbf
000001f0: e07f 1abf 56d4 6abf 7534 c6bf 0c46 0abf
00000200: 12ca 1cbf 17e1 28bf 06b1 aa3f 2742 9abf
00000210: 6f66 23bf 21a0 14bf f94a 3dbf 6a02 db3e
00000220: 8d8d 993e abfc 3b3d 856c 2fbf f5e1 30bf
00000230: 8aeb 18bf f4b8 13bf bcfe f3be 35cf b6bf
00000240: 86ed 0abe e7e0 1cbf bc53 9cbf f2f5 c83f
00000250: 3dbc 1ebf a93b 6ebe 960b 35bf 9507 0fbf
00000260: 1cc3 f6be 6e7b 48bf 90a1 7fbf 75af 15bf
00000270: 7868 a9be 9f4a 1ebf e0d9 a23d 326d 4fbe
00000280: 04c2 82bd 54ed bbbf 925c a0be 28cc 14bf
00000290: 5001 71be a91d 12bf f9c3 b5bf 42f8 1ebf
000002a0: d3f9 b5bf 3682 49bf ecc5 56bf f57f 13bf
000002b0: de9b 193f 63dd 10bf c0b8 89be 4322 12bf
000002c0: e3fd 1fbf e4d9 5fbc eede f7bd bf33 57be
000002d0: c0b2 06bf 3f68 23bf 7508 4ebe d4e0 fc3e
000002e0: f9aa 2dbf 553d 38bf 8dff ea3c 96be 2dbf
000002f0: 7e7e 1bbf 34d1 43be db57 d43e 9f70 e1be
00000300: e456 3cbf 853d 15bf 5c29 b2be 80d8 d4bd
00000310: 148a 7dbc 3bda a3bf 4ab1 1ebf 6cf2 7fbf
00000320: e44c 15bf 2f7b 493e 9c46 6ebf 8006 8bbe
00000330: bafd 1bbf 269a 2dbf bf3a b2bf f55a 463d
00000340: 9531 85be 0862 21bf 9983 a0be c684 dfbd
00000350: de2f 25bf 4b54 c8bf 7279 41bf 82a0 18bf
00000360: ba77 d5be c09f 133f 6644 07bf 808c e2be
00000370: 4f19 84bf fa47 853e 154a 0cbf e774 d1bf
00000380: d619 51bf 811b 4cbf 6137 d73e bf5a 1fbf
00000390: 8a45 7bbe 55d6 04bf c2d5 0abf b4ae 17bf
000003a0: 55d5 a8bf 952a 3e3f cbb1 af3e bad5 9cbf
000003b0: 5265 69bf 8883 4fbf 72a4 d93d 9448 19bf
000003c0: 74f6 2fbf 4941 1bbf 3e34 27bf 8edd 23bd
000003d0: 8828 8cbf 39a8 b7be d25c 52be 7dae dfbf
000003e0: 3bb2 b7be 2863 2bbf 900f 70bf d3a4 59be
000003f0: e481 15bf 58b4 3dbf 6b03 28bf f959 c6be

l2.weight f4 [300, 308]
-0.006033353 1.6851947 -0.061150268 -0.038216542 0.61575264 -0.04437892 0.38043857 -0.035386063
0.11298744 0.11702446 -1.4767034 -0.46643147 -0.766027 0.42856115 0.5861979 -0.8929856
-1.6060634 0.7883725 2.0564718 2.4391568 -1.2052743 0.3408884 -0.28324285 2.1555197
0.37177727 -0.06744865 -0.9427589 0.3611322 0.16774233 -1.0030695 -1.0899166 0.009127459
-0.653293 1.4161773 1.171912 0.23927683 -0.070669346 0.021604205 -0.8304266 0.6342495
-1.2425901 0.62564427 0.2016513 1.7651299 -0.9923202 1.0141293 0.067349955 0.0603887
0.56469744 -0.066491276 0.2843626 0.79211885 0.48390946 1.9495276 2.4956176 -1.3278223
0.021678133 -0.18663149 -0.5233026 -1.0568603 1.8081579 0.7056127 0.020484293 2.5817013
-0.11975212 0.124273255 0.15075628 0.88033724 1.3436217 -0.25331357 -0.59964234 -0.022268144
-0.070683554 -2.0639648 0.01071182 -0.2630685 0.63167995 0.015556703 0.009078151 -0.2909686
-0.5510407 -0.53338003 -0.027071679 0.24505946 0.008403937 -0.070245855 -0.015384915 0.02183828
-0.34796694 -0.12189972 -0.9789802 -0.38592514 0.22995828 1.1525561 0.4499376 -0.6127421
1.4783815 -0.7155617 0.024068497 0.062323995 1.0041287 -2.3072896 0.38032252 -0.750561
-0.18177143 3.0235324 2.2578733 -0.10769634 0.00617567 -0.1046994 -0.18357463 0.008925393
0.3588416 -0.20875883 -1.8060765 -0.10826868 -1.0343376 0.5288209 0.26217774 -1.651372
-1.2023249 0.10229853 -0.51940435 0.02260373 -0.06964631 -1.1155257 1.2284955 0.3169696
0.1176116 -0.13078956 0.16863565 0.49011445 0.113584496 0.056697305 -0.016749006 -1.1107637
-0.29728752 0.40094298 -0.0816823 -0.62076885 -0.11082103 -0.06701054 -0.45025742 -1.9072337
-1.5733219 0.06044359 0.58592 -0.22959028 0.6928662 0.5309409 -0.22685929 -1.51428
-0.8951618 0.52087367 1.3856809 -0.22017996 -0.93660486 -0.44778153 -0.2509447 0.021274675
-0.31915185 -0.2480278 -0.3535134 -0.025546297 -1.1227667 -0.0019379018 2.120236 -0.12553123
1.0506371 -0.72659045 0.18032321 -1.4488382 -0.474206 0.14171869 1.2184902 0.06252296
0.78744614 -0.8536763 -1.7267336 -1.4398474 1.4025809 -0.25268596 -0.73604316 1.6729567
0.028159274 0.23949422 -0.8124117 0.0002119435 0.023744904 0.554553 -0.39292854 -1.5669333
0.43949807 -0.014133131 0.007483202 0.6701646 -1.5112659 -1.3313366 0.038867835 1.0141622
0.09840438 -1.4538134 0.0871463 0.32730848 -0.039179437 -0.1030422 0.8726096 -0.014847445
0.27409333 -0.06636845 -0.11084461 0.49631172 0.11886109 0.20101695 -1.2196935 0.08732458
-0.15201409 0.70267 0.12168884 -0.06131066 2.2720866 0.5517995 0.42950588 0.49325532
-0.22832838 2.021112 0.22693215 0.08040562 0.75426733 -0.8042229 0.10224694 0.09170084
0.41946378 0.7003158 0.32828206 0.28074002 0.73786473 2.1450894 0.8635964 0.08669057
-0.110571526 -0.05055294 -0.02989652 -0.31305426 0.79378575 0.03433556 -1.1367477 0.88001364
-0.30086097 -0.035062354 0.048947904 -0.56188047 0.066087164 -0.17267893 -0.7231661 -0.83308005
00000000: 6fb3 c5bb 76b4 d73f b478 7abd f388 1cbd
00000010: f7a1 1d3f acc6 35bd d8c8 c23e faf0 10bd
00000020: f565 e73d 85aa ef3d 9e04 bdbf 1bd0 eebe
00000030: 581a 44bf 5e6c db3e 1111 163f b49a 64bf
00000040: 7c93 cdbf c8d2 493f 3c9d 0340 251b 1c40
00000050: 6e46 9abf ed88 ae3e 3505 91be 09f4 0940
00000060: 9759 be3e 8522 8abd a658 71bf 52e6 b83e
00000070: a5c4 2b3e 9564 80bf 6382 8bbf 568b 153c
00000080: 363e 27bf 4c45 b53f 3601 963f fc04 753e
00000090: 17bb 90bd 4dfb b03c d696 54bf 2d5e 223f
000000a0: 310d 9fbf 392a 203f ae7d 4e3e c7ef e13f
000000b0: b208 7ebf fdce 813f c6ee 893d 245a 773d
000000c0: 0390 103f 942c 88bd fa97 913e 4dc8 4a3f
000000d0: fbc2 f73e 1f8a f93f 33b8 1f40 15f6 a9bf
000000e0: 5796 b13c 531c 3fbe 29f7 05bf 3347 87bf
000000f0: b871 e73f 09a3 343f adce a73c 983a 2540
00000100: 9940 f5bd fa82 fe3d db5f 1a3e c85d 613f
00000110: ccfb ab3f 51b2 81be 2982 19bf af6b b6bc
00000120: 8ac2 90bd 0018 04c0 a180 2f3c eab0 86be
00000130: c7b5 213f 8be1 7e3c 86bc 143c d6f9 94be
00000140: 0111 0dbf 988b 08bf 6dc5 ddbc def0 7a3e
00000150: abb0 093c 0fdd 8fbd 0311 7cbc 31e6 b23c
00000160: b928 b2be 8fa6 f9bd 729e 7abf fb97 c5be
00000170: 2f7a 6b3e f586 933f 395e e63e abdc 1cbf
00000180: 9b3b bd3f 0d2f 37bf 4c2b c53c 7247 7f3d
00000190: 4a87 803f a2aa 13c0 a2b9 c23e c424 40bf
000001a0: 4a22 3abe 8e81 4140 ff80 1040 e68f dcbd
000001b0: 465d ca3b a46c d6bd fdfa 3bbe d03b 123c
000001c0: 16ba b73e e0c4 55be 842d e7bf f8bb ddbd
000001d0: 2d65 84bf ce60 073f 293c 863e 2860 d3bf
000001e0: c8e5 99bf e481 d13d aff7 04bf 752b b93c
000001f0: b9a2 8ebd 8cc9 8ebf 573f 9d3f d749 a23e
00000200: 5ade f03d b3ed 05be d3ae 2c3e 48f0 fa3e
00000210: fd9e e83d 6f3b 683d 3635 89bc 812d 8ebf
00000220: 1236 98be 6648 cd3e 0d49 a7bd b5ea 1ebf
00000230: 23f6 e2bd d23c 89bd 2488 e6be 3c20 f4bf
00000240: 9d62 c9bf b393 773d dafe 153f b719 6bbe
00000250: ae5f 313f beeb 073f cd4d 68be edd3 c1bf
00000260: 5329 65bf fa57 053f fe5d b13f db76 61be
00000270: 56c5 6fbf 9f43 e5be d37b 80be 3a48 ae3c
00000280: df67 a3be 00fb 7dbe b5ff b4be 7846 d1bc
00000290: d2b6 8fbf 3201 feba f2b1 0740 428b 00be
000002a0: 477b 863f d501 3abf a6a6 383e 8873 b9bf
000002b0: 21cb f2be b41e 113e 7df7 9b3f 0a0c 803d
000002c0: 1296 493f 888a 5abf 9b05 ddbf eb4c b8bf
000002d0: c587 b33f 0e60 81be 536d 3cbf 7223 d63f
000002e0: 47ae e63c f93d 753e 37fa 4fbf 263d 5e39
000002f0: ac84 c23c 2ff7 0d3f ee2d c9be 4591 c8bf
00000300: e405 e13e a68e 67bc a635 f53b e88f 2b3f
00000310: 2971 c1bf 3d69 aabf e133 1f3d 11d0 813f
00000320: 3c88 c93d 8f16 babf c279 b23d fa94 a73e
00000330: 9e7a 20bd ca07 d3bd 5863 5f3f b342 73bc
00000340: f655 8c3e 2fec 87bd 8002 e3bd 921c fe3e
00000350: 716d f33d 63d7 4d3e eb1e 9cbf 3bd7 b23d
00000360: 95a9 1bbe 2ee2 333f 0038 f93d e320 7bbd
00000370: de69 1140 bb42 0d3f 32e8 db3e f68b fc3e
00000380: eace 69be e659 0140 e760 683e b4ab a43d
00000390: aa17 413f 8de1 4dbf d866 d13d a6cd bb3d
000003a0: f5c3 d63e e547 333f 9614 a83e 28bd 8f3e
000003b0: b4e4 3c3f 2549 0940 a714 5d3f d38a b13d
000003c0: 5373 e2bd 9a10 4fbd 8ce9 f4bc a648 a0be
000003d0: 8b35 4b3f 72a3 0c3d f380 91bf 9348 613f
000003e0: 730a 9abe 8b9d 0fbd 997d 483d 66d7 0fbf
000003f0: b558 873d bfd2 30be 6a21 39bf bc44 55bf

l2.bias f4 [300]
0.5575751 0.49025396 0.32449415 0.14265911 1.0713109 0.32093325 0.7299774 0.9359179
-0.12634966 -0.77470446 -0.8397012 -0.5739962 0.21125297 -0.99670017 -1.763675 0.6638908
-0.42068127 -0.87597066 -0.6783281 0.43334964 -1.4895834 -0.29245487 1.3294864 -0.4826961
-0.082271144 1.3888769 0.3141489 0.32819355 0.096181646 0.55815524 0.91899323 1.4072391
0.7993045 -0.72090894 -0.7301616 0.3722574 -1.0410534 0.9323815 0.11276721 0.9826785
0.54690343 1.319351 0.48900774 -1.4550501 0.6487032 -0.538871 -0.119162634 -1.1453568
-1.1847175 -0.4448305 0.20502718 -0.6024743 -0.24557903 -0.3803818 0.43616885 -0.9373276
0.4906116 0.9402528 0.18644749 0.6022462 -0.54769844 -1.2546922 -0.08372298 -1.2142581
-0.8215082 -0.8901377 -0.47722605 0.39159158 0.743135 -0.5905482 0.9320399 0.3911994
-1.0710535 -1.0649581 0.46038643 -0.71242726 0.38210738 -1.0429939 0.2709228 0.39836243
0.6304343 0.26546115 0.71438915 0.17770103 -1.3148667 -0.0074533047 -1.0708784 0.87687147
0.72556597 0.7402014 -0.82633936 -0.13820831 0.37362972 -1.5153538 0.24181262 -0.61926746
0.31736687 0.4673062 0.5339552 -0.75251126 -1.161603 0.41687542 0.33234447 0.7090907
-2.0187302 -0.11179089 -1.4664527 -1.110064 -1.2663082 -0.038152717 0.69082355 0.38449183
-0.9381739 0.69223547 -0.14474793 -0.6310589 0.05830296 -0.99442965 0.9569132 1.404552
1.684897 0.8607766 -0.21712133 -1.7116047 0.10292224 -0.77584046 -1.190875 -1.097517
0.17688528 -0.21486825 0.45599186 0.3453417 -0.56976396 1.0573008 -0.652732 0.7735767
0.63879144 -1.1858166 -0.61456394 -1.9611484 0.5558929 -0.9838961 -0.34785262 -0.71670663
-0.020952092 0.7994827 0.7209507 -0.5317124 -0.97664934 -0.7348775 -0.67335653 0.047186635
-0.68805486 0.5613274 -0.7817474 0.5403747 0.42924294 1.2664233 -1.2968446 -2.0632808
-0.58456796 -0.96135485 -1.1156898 0.48731318 1.1322309 0.049886476 0.51971096 -0.35214505
0.13430111 -0.24969843 0.77813166 0.9601482 0.011106506 -0.8353479 -1.0706062 -1.1616418
-1.2623932 0.31091586 -0.25652733 0.6153146 0.6290703 0.14317746 0.07477248 0.6814706
0.36084405 -1.0946804 -2.2621217 -0.68315524 -0.36214352 0.7506449 -0.24074608 0.9831708
1.0522423 -1.1999092 -0.14805663 0.20060703 -0.6055739 -1.3269362 -0.34977624 -1.187301
0.18248984 -0.31707123 0.011332112 0.18853298 -0.94107264 -0.0043073613 1.2747647 0.5568015
-1.3873504 -0.17065933 0.6662688 0.8328311 1.0846931 1.2891363 0.17075107 -0.39337206
-1.3502737 -0.41807604 0.0877 -0.92174274 1.0184058 0.21659106 1.0687217 -0.61764085
-1.0348226 0.18157628 0.6410517 0.15022917 -0.079827726 1.1205395 -1.4837418 0.76652724
1.1845133 -0.92838186 -0.99656993 -0.21986833 0.089908026 -1.6807789 0.5712978 -0.53958446
0.00021512728 0.38653046 0.14503935 0.6436058 -0.97276574 -1.6058632 1.4163885 0.78551275
-0.06759304 -1.8426839 0.71369696 0.8052341 0.37779948 0.30298543 -1.101374 0.603907
00000000: 3ebd 0e3f 9102 fb3e 1924 a63e 3b15 123e
00000010: b720 893f 5d51 a43e cddf 3a3f 5198 6f3f
00000020: ce61 01be 0853 46bf a8f6 56bf 6af1 12bf
00000030: b352 583e be27 7fbf 1ac0 e1bf bff4 293f
00000040: 8963 d7be 9d3f 60bf e9a6 2dbf 01e0 dd3e
00000050: abaa bebf a5bc 95be 9c2c aa3f f123 f7be
00000060: c67d a8bd b8c6 b13f 20d8 a03e fc08 a83e
00000070: e2fa c43d 43e3 0e3f 2443 6b3f 6920 b43f
00000080: 389f 4c3f 7d8d 38bf dfeb 3abf 8698 be3e
00000090: 3d41 85bf 8eb0 6e3f 7ff2 e63d d190 7b3f
000000a0: dd01 0c3f 7ee0 a83f 395f fa3e 153f babf
000000b0: 6a11 263f 73f3 09bf 8a0b f4bd 0d9b 92bf
000000c0: d3a4 97bf d3c0 e3be a5f2 513e c13b 1abf
000000d0: 1279 7bbe 67c1 c2be 8651 df3e b4f4 6fbf
000000e0: 7231 fb3e 68b4 703f 17ec 3e3e cf2c 1a3f
000000f0: f735 0cbf c199 a0bf f476 abbd cf6c 9bbf
00000100: 5d4e 52bf 10e0 63bf f956 f4be b17e c83e
00000110: 183e 3e3f 2b2e 17bf 2b9a 6e3f 4a4b c83e
00000120: 4818 89bf 8c50 88bf c5b7 eb3e a261 36bf
00000130: 94a3 c33e d380 85bf 65b6 8a3e 29f6 cb3e
00000140: 2464 213f 86ea 873e 35e2 363f 42f7 353e
00000150: 8d4d a8bf da3a f4bb 8b12 89bf a67a 603f
00000160: b1be 393f d77d 3d3f fa8a 53bf 7b86 0dbe
00000170: 654c bf3e 1df7 c1bf ba9d 773e 5088 1ebf
00000180: e97d a23e c242 ef3e 4ab1 083f 94a4 40bf
00000190: 68af 94bf b270 d53e 0e29 aa3e f886 353f
000001a0: e032 01c0 9ff2 e4bd b9b4 bbbf 9416 8ebf
000001b0: 6316 a2bf 0646 1cbd d0d9 303f 1ddc c43e
000001c0: 2a2c 70bf 5836 313f cd38 14be 138d 21bf
000001d0: 16cf 6e3d f192 7ebf 43f8 743f 5cc8 b33f
000001e0: b4aa d73f db5b 5c3f 0e55 5ebe dd15 dbbf
000001f0: e5c8 d23d 7b9d 46bf 986e 98bf 707b 8cbf
00000200: 6a21 353e 6c06 5cbe c477 e93e a1d0 b03e
00000210: 0ddc 11bf a255 873f 7219 27bf 1f09 463f
00000220: d687 233f d7c8 97bf 1054 1dbf e906 fbbf
00000230: ff4e 0e3f 9de0 7bbf bd19 b2be 167a 37bf
00000240: b9a3 abbc e6aa 4c3f 3a90 383f 4e1e 08bf
00000250: b105 7abf ef20 3cbf 1861 2cbf c646 413d
00000260: 5d24 30bf 27b3 0f3f 9920 48bf ff55 0a3f
00000270: bbc5 db3e 291a a23f 01ff a5bf cb0c 04c0
00000280: 3fa6 15bf 5a1b 76bf ecce 8ebf 1d81 f93e
00000290: f1ec 903f c355 4c3d c70b 053f 5b4c b4be
000002a0: 3b86 093e f2b0 7fbe a333 473f 46cc 753f
000002b0: 10f8 353c 5cd9 55bf a009 89bf aeb0 94bf
000002c0: 1a96 a1bf 5d30 9f3e 8d57 83be 4285 1d3f
000002d0: c00a 213f 1d9d 123e 5022 993d db74 2e3f
000002e0: 8dc0 b83e 7d1e 8cbf 9ac6 10c0 43e3 2ebf
000002f0: e06a b9be 442a 403f 2486 76be 15b1 7b3f
00000300: e0af 863f a096 99bf 289c 17be ee6b 4d3e
00000310: e406 1bbf 0cd9 a9bf df15 b3be 7bf9 97bf
00000320: 9ede 3a3e 2957 a2be 53aa 393c ca0e 413e
00000330: 23ea 70bf c424 8dbb 7d2b a33f 8b8a 0e3f
00000340: b394 b1bf 52c1 2ebe 9890 2a3f 6b34 553f
00000350: 39d7 8a3f 6b02 a53f 5ed9 2e3e 1068 c9be
00000360: c5d5 acbf 100e d6be 0f9c b33d 55f7 6bbf
00000370: 1f5b 823f 0cca 5d3e dfcb 883f b61d 1ebf
00000380: 1175 84bf 22ef 393e f71b 243f add5 193e
00000390: b87c a3bd d76d 8f3f 40eb bdbf 213b 443f
000003a0: 229e 973f 6faa 6dbf 351f 7fbf 2a25 61be
000003b0: b321 b83d c323 d7bf 9340 123f 3522 0abf
000003c0: ca93 6139 52e7 c53e 3285 143e 5ac3 243f
000003d0: 2d07 79bf ed8c cdbf 384c b53f 5d17 493f
000003e0: 386e 8abd 11dd ebbf d8b4 363f d223 4e3f
000003f0: ef6e c13e e820 9b3e d3f9 8cbf a699 1a3f

bn2.weight f4 [300]
1.5626293 1.5891646 1.3458796 1.4937899 1.7317836 1.2822276 1.3294017 1.4775351
1.3886037 0.22412843 1.0948141 0.22878575 1.205706 0.3079775 1.5118439 1.4496486
1.7693912 0.1705551 0.99590385 1.4727619 0.20935166 1.761301 1.2947578 1.6103383
1.32851 1.8498281 1.2474065 1.2830403 1.2867411 1.7236837 1.6012244 1.4218016
1.3275937 0.24658442 0.2294899 1.509712 0.25372404 1.4689482 1.192967 1.3362305
1.5447851 1.7502793 1.3022523 1.782616 1.3124783 0.23289414 1.1663959 0.22867769
1.3297526 1.3691239 1.2801964 0.35748896 1.8908104 1.6779435 1.6405833 0.28394035
1.6183932 1.5523967 1.2113378 1.5165775 0.25550294 1.5114981 1.5158527 1.3419145
0.4677837 0.2462686 0.35241222 1.5811422 1.3662553 1.7935008 1.6504939 1.2790414
0.25008973 0.21183632 1.3398068 0.29296863 1.2876474 2.364909 1.1719645 1.3087896
1.204933 1.2638083 1.4955844 1.4972098 0.16774115 1.4636542 1.4734102 1.5320356
1.2988186 1.2344853 1.2787453 1.390853 1.2444255 0.232401 1.3699757 1.5922843
1.5113988 1.4281851 1.3553625 0.9281676 1.3044595 1.3686234 1.3668066 1.6568407
1.8912902 1.1570628 0.98945695 0.29159564 1.5125513 1.1701393 1.5908859 1.2159035
1.9100548 1.5307959 0.20309573 0.22059736 1.3173952 0.24696898 1.4415714 1.4731762
1.4631966 1.5843558 1.4727749 0.22749306 1.6760988 0.25533667 0.2250241 2.0504103
1.3320929 1.0370147 1.2594628 1.3753432 1.4158001 1.2876154 1.5616937 1.4196221
1.4198207 1.4182365 1.2069644 2.10178 1.4336959 1.177524 0.19168267 0.20934972
1.3879641 1.4902458 1.3116988 0.28850156 2.152939 1.0656722 2.7122939 1.3109913
1.2495167 1.2984637 1.7639174 1.4429935 1.7475222 1.504381 0.17300779 1.985693
0.8383619 0.24677092 1.6672972 1.23799 1.5363718 1.4560009 1.3505733 0.2777985
1.4699104 1.3825442 1.351588 1.5731738 1.6726369 0.21845526 0.25794113 0.36276343
0.18143407 1.4383214 1.2618344 1.1787972 1.4120136 1.3209552 1.3802028 1.4482611
1.4242086 0.2625343 1.4355356 0.19557719 0.28284132 1.2336817 1.4484369 1.5439516
1.5768436 0.25017437 0.30363798 1.3335757 0.20102906 0.25890923 1.3965372 0.28821668
1.1752076 1.2763573 1.5044012 1.1601433 0.3240822 1.4191225 1.4542181 1.3589206
0.2894684 0.18747173 1.4745181 1.5938121 1.4511989 1.4992692 1.49214 1.4314145
1.6817502 2.1655006 0.2750305 1.4534353 1.3332229 1.4377993 1.5843927 1.5233383
1.5130491 1.2785051 1.2972268 1.2308156 1.2749684 1.297647 1.943277 1.2894336
1.3989812 0.23135637 0.28153244 0.21057148 1.5951825 0.1431834 1.511289 1.4971176
1.2678306 1.6006618 1.2808834 1.5861344 1.0509071 0.25026953 1.5847554 1.423386
1.2906731 0.26323244 1.5999126 1.6231434 1.5292722 1.7000254 0.23064375 1.3707856
00000000: 3d04 c83f bf69 cb3f c845 ac3f 8234 bf3f
00000010: 16ab dd3f 0920 a43f d629 aa3f df1f bd3f
00000020: c4bd b13f ec81 653e de22 8c3f d046 6a3e
00000030: 9354 9a3f 3aaf 9d3e 1a84 c13f 168e b93f
00000040: 697b e23f ffa5 2e3e 8ef3 7e3f 7683 bc3f
00000050: 4860 563e 5072 e13f a0ba a53f 911f ce3f
00000060: 9e0c aa3f 2bc7 ec3f 04ab 9f3f aa3a a43f
00000070: efb3 a43f aba1 dc3f ecf4 cc3f 98fd b53f
00000080: 97ee a93f a080 7c3e 66ff 6a3e 3e3e c13f
00000090: 1ee8 813e 7f06 bc3f 25b3 983f 9a09 ab3f
000000a0: 85bb c53f 2709 e03f 34b0 a63f c32c e43f
000000b0: 4aff a73f cd7b 6e3e 764c 953f 7c2a 6a3e
000000c0: 5535 aa3f 743f af3f 7add a33f cb08 b73e
000000d0: 1306 f23f dac6 d63f a2fe d13f a160 913e
000000e0: 8227 cf3f efb4 c63f 1e0d 9b3f 361f c23f
000000f0: 48d1 823e c578 c13f 7607 c23f dbc3 ab3f
00000100: 5881 ef3e d62d 7c3e 606f b43e de62 ca3f
00000110: 74e1 ae3f 6f91 e53f 6243 d33f a1b7 a33f
00000120: c30b 803e 9feb 583e ca7e ab3f fcff 953e
00000130: a1d1 a43f ab5a 1740 ef02 963f 6b86 a73f
00000140: 3f3b 9a3f 78c4 a13f 4f6f bf3f 92a4 bf3f
00000150: 56c4 2b3e 0559 bb3f b598 bc3f be19 c43f
00000160: b03f a63f 9d03 9e3f edad a33f 7907 b23f
00000170: 5649 9f3f 87fa 6d3e 5d5b af3f f9cf cb3f
00000180: 8475 c13f c5ce b63f 857c ad3f 649c 6d3f
00000190: 87f8 a63f 0d2f af3f 85f3 ae3f 5b13 d43f
000001a0: cc15 f23f a21a 943f 0d4d 7d3f 064c 953e
000001b0: 489b c13f 20c7 953f 26a2 cb3f baa2 9b3f
000001c0: ad7c f43f 1ff1 c33f 54f8 4f3e 46e4 613e
000001d0: 68a0 a83f 70e5 7c3e 6985 b83f 0a91 bc3f
000001e0: 074a bb3f 2ccc ca3f e383 bc3f f1f3 683e
000001f0: 688a d63f 7dbb 823e b86c 663e ec39 0340
00000200: 0582 aa3f e6bc 843f 1436 a13f 3f0b b03f
00000210: f038 b53f 95d0 a43f 94e5 c73f 2db6 b53f
00000220: afbc b53f c688 b53f cf7d 9a3f 9083 0640
00000230: 5983 b73f 1bb9 963f 7648 443e c65f 563e
00000240: cfa8 b13f 60c0 be3f bfe5 a73f 7ab6 933e
00000250: c1c9 0940 f267 883f 3996 2d40 90ce a73f
00000260: 2af0 9f3f 0f34 a63f 0cc8 e13f 03b4 b83f
00000270: cfae df3f 8e8f c03f f428 313e 302b fe3f
00000280: e39e 563f 84b1 7c3e ff69 d53f 7576 9e3f
00000290: d5a7 c43f 3d5e ba3f 96df ac3f 9b3b 8e3e
000002a0: 0626 bc3f 35f7 b03f d600 ad3f c25d c93f
000002b0: f718 d63f bcb2 5f3e dc10 843e 21bc b93e
000002c0: dac9 393e ea1a b83f ca83 a13f d4e2 963f
000002d0: ddbc b43f 0f15 a93f 7caa b03f 9f60 b93f
000002e0: 784c b63f e56a 863e a1bf b73f 6345 483e
000002f0: 94d0 903e 48e9 9d3f 6166 b93f 35a0 c53f
00000300: 03d6 c93f db16 803e 7076 9b3e 9cb2 aa3f
00000310: 90da 4d3e c08f 843e bbc1 b23f 2391 933e
00000320: 346d 963f ad5f a33f 3890 c03f 937f 943f
00000330: 1aee a53e cea5 b53f d223 ba3f 1cf1 ad3f
00000340: 3435 943e 97f8 3f3e 02bd bc3f 0902 cc3f
00000350: e3c0 b93f 0ee8 bf3f 72fe be3f 9738 b73f
00000360: 9743 d73f 9097 0a40 ccd0 8c3e 2b0a ba3f
00000370: 0ca7 aa3f cf09 b83f 61cd ca3f c0fc c23f
00000380: 98ab c13f 0ea6 a33f 870b a63f 5e8b 9d3f
00000390: 2a32 a33f 4c19 a63f 4dbd f83f 290c a53f
000003a0: d111 b33f afe8 6c3e 0525 903e 0da0 573e
000003b0: f12e cc3f ab9e 123e eb71 c13f 8da1 bf3f
000003c0: 4648 a23f 7ce2 cc3f fdf3 a33f 7406 cb3f
000003d0: 2084 863f 5423 803e 44d9 ca3f 8331 b63f
000003e0: c734 a53f 67c6 863e f0c9 cc3f 2ac3 cf3f
000003f0: 31bf c33f 6f9a d93f e02d 6c3e e775 af3f

bn2.bias f4 [300]
-1.162999 -0.97261536 -1.035861 -0.90407664 -1.0839846 -0.7371266 -0.88229215 -0.9424681
-1.422979 -0.7689453 -2.4107025 -0.9095541 -1.42734 -0.8743379 0.3281421 -0.7035327
-2.4653888 -0.7199424 -0.95205015 -1.1442045 -0.682534 -1.2083576 -1.2058079 -2.0328739
-0.97231853 -0.93991446 -1.115376 -1.3081166 -1.0826681 -1.0935508 -1.0664927 -0.66043866
-1.0714059 -0.66813725 -0.73894733 -1.0885863 -0.82711 -0.9360403 -1.0058337 -1.020266
-1.0228676 -1.1088604 -1.4244901 -1.6650697 -0.9242202 -0.70393366 -1.3669763 -0.7720732
-1.6330934 -1.3126683 -1.2441567 -1.2335258 -1.5936027 -1.0609537 -0.94604886 -0.783651
-1.2851807 -1.1281775 -1.025252 -1.0556273 -0.75516945 -1.9668317 -1.2044151 -1.7507492
-1.5485779 -0.89858913 -0.64616627 -1.3413129 -1.2902277 -1.9370596 -1.1618185 -1.3286465
-0.82852256 -0.66494495 -0.9774121 -0.9058952 -0.88016164 -2.7263987 -1.513759 -1.1322117
-1.2435147 -1.3097576 -0.24090815 -1.4166919 -0.70281315 -0.84731764 -0.8792286 -0.97701716
-1.1434289 -1.002309 -1.2235333 -0.99745166 -0.98872215 -0.79882735 -1.1559757 -2.0633254
-0.9502599 -1.0786844 -1.1262001 1.139547 -3.3882432 -1.2740492 -0.9611781 -1.2690842
0.055969015 -0.8906896 0.7613295 -0.7932514 -0.9842244 -1.3115981 -1.5778013 -0.9496957
-2.2339845 -1.0096745 -0.81693655 -0.6628941 -0.9357158 -0.75085056 -0.9204981 -1.18162
-0.69332254 -0.98446333 -0.9982962 -0.6897408 -1.2169741 -0.8812168 -0.7859646 -0.97854817
-1.1717192 -1.060111 -0.9527617 -1.0660259 -1.0591338 -0.88086116 -2.2100756 -1.0690514
-1.4787987 -2.2492516 -1.2168968 -0.32770872 -1.1975138 -1.9483553 -0.78455454 -0.73449713
-1.4030652 -1.6678138 -1.0426053 -0.8433357 -1.5508661 -0.27948427 -2.6465983 -1.2924314
-1.136905 -1.1625041 -1.554537 -0.9964476 -1.0041901 -1.1705209 -0.7274506 -0.21716692
-2.4371705 -0.6868818 -1.916854 -1.1384046 -1.043316 -1.0293753 -1.0926515 -0.8637241
-1.1948248 -1.3096253 -1.1131047 -1.1158497 -2.2417085 -0.7039677 -0.82842946 -0.9785112
-0.6041068 -0.9148359 -1.3224372 -1.2314535 -1.2359253 -1.3460327 -1.4998153 -1.2205336
-1.2598599 -0.8143684 0.41547537 -0.6610279 -0.75756204 -0.979181 -1.176285 -1.0430303
-1.2048355 -0.8389417 -0.9716163 -1.5240192 -0.74826926 -0.6340514 -1.3515229 -0.88397
-1.2789887 -1.0756298 -0.96932024 -1.214938 -0.9727234 -1.0101024 -0.9602091 -1.0540476
-0.7776221 -0.5358244 -0.9539656 -1.1823728 -0.9182621 -1.1371759 -1.4340318 -0.82649255
-1.755869 -2.3546329 -0.83400726 -1.9271036 -1.0363292 -1.1908689 -1.2667648 -1.8727219
-1.5463673 -1.0133678 -1.3618617 -0.96411765 -1.2904836 -1.1188884 -0.48024714 -1.3060781
-1.0154383 -0.803877 -0.8612351 -0.63295203 -1.5161684 -0.62757397 -0.9245566 -0.90155196
-1.203788 -1.6090637 -1.3809049 -1.545143 -0.38973898 -0.77427435 -0.92949736 -0.79541075
-1.1502107 -0.66888016 -1.1991098 -1.0324906 -1.0093827 -0.674757 -0.856864 -1.032189
00000000: 27dd 94bf 52fd 78bf 1897 84bf 9171 67bf
00000010: 02c0 8abf 54b4 3cbf e6dd 61bf 9745 71bf
00000020: 2d24 b6bf 99d9 44bf f348 1ac0 8ad8 68bf
00000030: 14b3 b6bf 9cd4 5fbf 3e02 a83e b81a 34bf
00000040: eec8 1dc0 254e 38bf 8fb9 73bf 4b75 92bf
00000050: 8cba 2ebf 76ab 9abf ea57 9abf 9b1a 02c0
00000060: dee9 78bf 3c9e 70bf a4c4 8ebf 5d70 a7bf
00000070: de94 8abf 79f9 8bbf d582 88bf 8212 29bf
00000080: d423 89bf 0b0b 2bbf a72b 3dbf cc56 8bbf
00000090: 7bbd 53bf 56a0 6fbf 29bf 80bf 1498 82bf
000000a0: 53ed 82bf 23ef 8dbf b155 b6bf 0121 d5bf
000000b0: b299 6cbf ff34 34bf 14f9 aebf 97a6 45bf
000000c0: 3409 d1bf 8405 a8bf 8740 9fbf 2ce4 9dbf
000000d0: 2cfb cbbf 55cd 87bf 4230 72bf 5a9d 48bf
000000e0: cd80 a4bf 1f68 90bf 753b 83bf cc1e 87bf
000000f0: c952 41bf 24c1 fbbf 462a 9abf 8d18 e0bf
00000100: cd37 c6bf f009 66bf 276b 25bf 24b0 abbf
00000110: 2e26 a5bf 92f1 f7bf 78b6 94bf 1711 aabf
00000120: 0e1a 54bf d539 2abf ae37 7abf bfe8 67bf
00000130: 4652 61bf 517d 2ec0 dbc2 c1bf 50ec 90bf
00000140: 7d2b 9fbf 23a6 a7bf a0b0 76be 2956 b5bf
00000150: 90eb 33bf cfe9 58bf 2015 61bf cc1d 7abf
00000160: e15b 92bf a94b 80bf bd9c 9cbf fe58 7fbf
00000170: e51c 7dbf f37f 4cbf 03f7 93bf 860d 04c0
00000180: 3c44 73bf 5512 8abf 5327 90bf addc 913f
00000190: fad8 58c0 0b14 a3bf c50f 76bf 5a71 a2bf
000001a0: c43f 653d 3c04 64bf 7de6 423f 8612 4bbf
000001b0: 21f6 7bbf 72e2 a7bf 65f5 c9bf 421f 73bf
000001c0: 9af9 0ec0 043d 81bf c122 51bf 6eb3 29bf
000001d0: 128b 6fbf be37 40bf c3a5 6bbf 533f 97bf
000001e0: 967d 31bf ca05 7cbf 5790 7fbf da92 30bf
000001f0: cfc5 9bbf 6d97 61bf fa34 49bf 2282 7abf
00000200: e5fa 95bf b8b1 87bf 31e8 73bf 8973 88bf
00000210: b291 87bf 1e80 61bf e171 0dc0 add6 88bf
00000220: 4749 bdbf bdf3 0fc0 46c3 9bbf 70c9 a7be
00000230: 2248 99bf b563 f9bf 91d8 48bf 0108 3cbf
00000240: a497 b3bf ec7a d5bf 1774 85bf d9e4 57bf
00000250: c882 c6bf 9018 8fbe de61 29c0 646e a5bf
00000260: 1a86 91bf efcc 94bf 12fb c6bf 3117 7fbf
00000270: 4d89 80bf a1d3 95bf 343a 3abf 0161 5ebe
00000280: 9afa 1bc0 7cd7 2fbf 795b f5bf 3eb7 91bf
00000290: 618b 85bf 92c2 83bf 01dc 8bbf 061d 5dbf
000002a0: 05f0 98bf cda1 a7bf 377a 8ebf 2ad4 8ebf
000002b0: 2778 0fc0 3a37 34bf f413 54bf b67f 7abf
000002c0: bea6 1abf af32 6abf 9f45 a9bf 45a0 9dbf
000002d0: cd32 9ebf cd4a acbf f3f9 bfbf 723a 9cbf
000002e0: 1743 a1bf 737a 50bf 30b9 d43e 2039 29bf
000002f0: 96ef 41bf 9bab 7abf 8290 96bf 0482 85bf
00000300: 0d38 9abf e2c4 56bf d9bb 78bf 1013 c3bf
00000310: 938e 3fbf 3151 22bf b4fe acbf dc4b 62bf
00000320: e7b5 a3bf 3dae 89bf 5f25 78bf 1783 9bbf
00000330: 6704 79bf 094b 81bf 43d0 75bf 08eb 86bf
00000340: 3e12 47bf ca2b 09bf 1737 74bf fe57 97bf
00000350: 3a13 6bbf fb8e 91bf 5b8e b7bf 0495 53bf
00000360: 51c0 e0bf 4eb2 16c0 8081 55bf 55ab f6bf
00000370: 6fa6 84bf 646e 98bf 5925 a2bf 5ab5 efbf
00000380: 5def c5bf 09b6 81bf 7c51 aebf 6ad0 76bf
00000390: 912e a5bf bc37 8fbf f4e2 f5be 912d a7bf
000003a0: e2f9 81bf e2ca 4dbf e779 5cbf 2509 22bf
000003b0: ce11 c2bf b0a8 20bf beaf 6cbf 1ccc 66bf
000003c0: ba15 9abf cdf5 cdbf 7ec1 b0bf 3fc7 c5bf
000003d0: de8b c7be d836 46bf 8af3 6dbf 0aa0 4bbf
000003e0: 1b3a 93bf bb3b 2bbf 6e7c 99bf a728 84bf
000003f0: 7433 81bf e0bc 2cbf 705b 5bbf c51e 84bf
