weights/model_critic_target_79.pt (torch, 431175 bytes, 9 tensors)

l1.weight f4 [300, 42]
00000000: 8e97 973e 6866 0f3f f7eb 513e cdc9 55be
00000010: f5f3 2e3e f3ce 003f 93c4 143f 0c5d 6d3f
00000020: ee0f 40be 1310 84bf 6842 013f 11c8 adbe
00000030: c799 093d 5470 cfbe 7418 b740 1b26 18c0
00000040: 9ba8 8bbf 8e4f f23d 20e3 98bf 281d 1840
00000050: 8897 51be 13a8 253f 0ad6 99bf a949 2e3e
00000060: daee a13e aea7 bfbf 9324 03be eb74 e8bc
00000070: b9ac b23e 993b 97bf f390 87be 8282 c33e
00000080: f3ea a0c0 805f e3bf 7ffe 933e 6575 0f40
00000090: 2436 98bf e2a0 49bf becb a2bf da8b 1040
000000a0: 35f2 7ebf b2d5 48bf 60fa b43e 669e 563e
000000b0: a82b c23e 5014 543f 8432 143e f811 9cbe
000000c0: d418 19bf 0e0b 44bf 318e 6bbe f2ff d4be
000000d0: f47c fc3d 095b 873c 966a de3e c6ff 89be
000000e0: bb51 553f 6f7f 5bbe 3203 083f afa2 c03f
000000f0: b09f 89bf 781c 76bf 5e97 a8bd 75c7 ef3e
00000100: 3cfe 9fbf ec06 8bbc c495 2b3e 6e6f d93e
00000110: 80f4 26bf 0d47 c13f 2848 1abf a6c5 b33f
00000120: d728 aabf f9de cdbf e79d d540 96af bebf
00000130: 48cb 423d 6b60 7ac0 8df1 a340 0734 bc3f
00000140: 32fb 383f 7de1 e4be c662 96bf 10c1 9ebe
00000150: 4939 053f 4183 8f3d 4741 793e 162e 1f3f
00000160: 7384 bc3e e551 363e f5b4 003f dc55 96be
00000170: b855 0a3e 9283 9cbf f3f2 d13e 37cb 8abe
00000180: edce b33e 135f 23bf f342 8dbf 6b4c 4dbe
00000190: e869 44bf 1122 1fbf 5161 313f b41b f23e
000001a0: cd6c adbe 5b27 f93e ccb1 dcbe 1ab5 993e
000001b0: 3c84 d03e 6a21 b1bf f9a2 6dbe 6132 d0bf
000001c0: f4d5 593f baf3 d0bf aa6e 6a3d 2c4b 7a3d
000001d0: 7911 b4c0 0c52 6e40 693c d93e 71d0 0340
000001e0: ad00 2fbe 2cf8 6bbe 64fa b9bd 5822 da3f
000001f0: cde9 76bf f1cd 15bf 10f4 0f3f 001b 743d
00000200: d56a 4d3e d14b f93e 9aec d63e ba66 3e3e
00000210: b744 043f 1f9d adbe 79ad aa3d b36a a2bf
00000220: 21e3 d93e f626 fabd 69cc b83e 1d9f 2abf
00000230: b6c2 82bf 2edc 9dbe 1a18 53bf 8faf 25bf
00000240: 740a 323f 3d0f 013f a4fb 8fbe 48bd c93e
00000250: 53ec 8ebe c430 9c3e 2bc7 d63e aa37 acbf
00000260: c608 18be 8a8c c8bf 7982 4d3f 3a3e d4bf
00000270: c645 f0bc 2eab 683e 399d b7c0 ddb3 7540
00000280: 8732 c63e f453 0240 8419 e9bd 359b 5bbe
00000290: bee7 aabd dd8f c23f 5704 58bf 6dce 00bf
000002a0: f7ad bb3e 0c56 ee3e f9dc e93e 0ab2 873f
000002b0: 47a3 663e 320c 41be c95c 593f 840b b83e
000002c0: da36 243e 7f96 93bd 4ded 5a3e 4f7e 3b3e
000002d0: 92b9 9a3d c297 66bd d7e4 933f 06e8 83bf
000002e0: 1aaf d63f b8f4 e1bf da3d 47bf 5c22 82bf
000002f0: c06a 09c0 a6a6 f33f 3f37 f03f 270e d93d
00000300: 69b0 353e 8b8e 84bd f5fa 883f 2bf9 80bf
00000310: 29c2 9ebf dd1f 193f 99ab 593f c31d 4e3f
00000320: 0c76 09bf ac71 9bc0 9734 2b3e f960 7abf
00000330: 244e 30c0 9c04 2c3f cdbf b9bf 2787 e73f
00000340: eb04 9540 a2a7 89be f524 103f 75b6 22bd
00000350: cefb 8a3e 8539 1b3e 4b8c e83e b88e 973e
00000360: 4bf3 b33e b4ff f7bd a4c3 c3bd 3ba9 b1bf
00000370: 5b17 fb3e 0c30 0a3d c6d4 d53e e5ed 32bf
00000380: 0944 87bf 7741 1bbf 99a3 98bf e2a5 0ebf
00000390: 581c 453f 2889 0a3f 6e84 cebe 6ffe 8fbd
000003a0: 0987 f33d e27d bd3e 82f9 013f 2b97 9abf
000003b0: 8b33 7bbd 7dec c0bf 5173 433f a57b c9bf
000003c0: bb5f 85be fb13 d33e 76e8 b7c0 2b10 6a40
000003d0: cda4 c33e d83a fb3f fc4a 86bd 37e0 47be
000003e0: a714 ebbd 4085 783f bbfa bfbe 158d 91bd
000003f0: 9dca 473e b903 5f3f e9e0 683e 1862 bd3e
0.29607815 0.56015635 0.2050017 -0.20877762 0.1708525 0.5031578 0.5811245 0.92720103
-0.18756077 -1.0317405 0.5049195 -0.339417 0.03359392 -0.40515387 5.721735 -2.3773258
-1.0910829 0.1183158 -1.1944313 2.3767796 -0.20467961 0.64709586 -1.2018445 0.17020287
0.31627542 -1.4973047 -0.1280692 -0.028376063 0.34897402 -1.1815063 -0.26477775 0.38185507
-5.0286803 -1.7763519 0.28905103 2.2415402 -1.1891522 -0.7876111 -1.2718427 2.2585359
-0.9958833 -0.78451073 0.3534727 0.20958862 0.37923932 0.82843494 0.14472395 -0.3048246
-0.5980351 -0.7657937 -0.2300346 -0.4160152 0.123285204 0.016522901 0.43440694 -0.26952952
0.83327836 -0.21435331 0.53129876 1.5049647 -1.0751858 -0.9613719 -0.08231996 0.4683186
-1.2499461 -0.016971074 0.1675635 0.42467827 -0.6521683 1.5099808 -0.6026635 1.4044693
-1.3293713 -1.6083671 6.675525 -1.4897335 0.047557145 -3.912135 5.123236 1.4703377
0.72258294 -0.44703284 -1.1748893 -0.3100667 0.52040535 0.070074566 0.24341308 0.62179697
0.368198 0.17804678 0.5027612 -0.2936238 0.13509262 -1.2227652 0.41005668 -0.27108166
0.3511881 -0.63816947 -1.1036056 -0.20048682 -0.767241 -0.62161356 0.6928912 0.4728676
-0.3387207 0.48662838 -0.43104398 0.30020982 0.40725887 -1.3838322 -0.232067 -1.6265374
0.8509209 -1.632438 0.057234444 0.061106846 -5.627133 3.7237577 0.42428902 2.0595973
-0.17090102 -0.23043889 -0.09080961 1.7041731 -0.964505 -0.58517367 0.56231785 0.05959606
0.20060284 0.48690656 0.41977388 0.18593875 0.5166735 -0.33908936 0.083338685 -1.2688812
0.42556098 -0.122144625 0.36093453 -0.6664904 -1.0215671 -0.30832046 -0.8245865 -0.64721006
0.695472 0.50413877 -0.28121674 0.39402223 -0.27914676 0.30505955 0.41948828 -1.3454487
-0.14847097 -1.5667889 0.8027721 -1.658149 -0.029330146 0.2272155 -5.737942 3.839103
0.38710424 2.036374 -0.1138182 -0.21445926 -0.083449826 1.5200154 -0.8438162 -0.5031498
0.36656162 0.46550024 0.456764 1.0601208 0.22523223 -0.18852308 0.84907204 0.35946286
0.16036549 -0.07206439 0.21379586 0.18309902 0.07554926 -0.05629707 1.1554211 -1.0305183
1.6772187 -1.7652807 -0.77828753 -1.0166736 -2.1471405 1.9035232 1.876686 0.105984025
0.17743076 -0.064725004 1.0701586 -1.007604 -1.2403003 0.59814245 0.8502746 0.8051416
-0.5369575 -4.857626 0.1671928 -0.9780422 -2.7547693 0.67194533 -1.4511658 1.808812
4.6568503 -0.26885706 0.5630639 -0.039724786 0.27145237 0.1515866 0.45419535 0.29601073
0.35146555 -0.121093184 -0.095588 -1.387977 0.49041256 0.033737227 0.41763896 -0.6989425
-1.0567638 -0.60646766 -1.1924926 -0.5572187 0.76996374 0.54115534 -0.4033541 -0.07030951
0.1189099 0.37010103 0.50771344 -1.2077383 -0.061328452 -1.507217 0.76347834 -1.5740858
-0.260496 0.4122618 -5.7471266 3.6572368 0.3821167 1.9627333 -0.06557271 -0.19519125
-0.114785485 0.97078323 -0.3749598 -0.071069874 0.19510885 0.87115055 0.22742046 0.36988902

l1.bias f4 [300]
00000000: a11f a43e a7a5 debd a956 533e d5a5 623e
00000010: 8093 053e d6b7 a33e 65dc 10bd 54d8 8b3e
00000020: 4ce6 b33e a16c 8b3e 3be5 a43d 1e32 163d
00000030: dbf0 db3d e920 063f c3ba bb3b a3ea 20bd
00000040: 3de9 f63e b38f 613d 530b 423d 6fa5 353d
00000050: 2202 7f3d 2072 a53e 27ff f33b f06e 373e
00000060: f830 a13d e2b4 c93e 93e6 8f3e eb87 cbbd
00000070: 0670 333d 6013 ed3c b90a 4f3e e0fc 4f3e
00000080: 2c02 223e 3189 853e 089c 9fbd 6da5 a93d
00000090: c79c d83d 0fd6 813e d6ba d63e cf46 c23d
000000a0: f2b2 5a3e 2539 213e f962 4b3e 758d 90bd
000000b0: e707 873e 65e5 e23e 80dc b13e 47b5 7b3e
000000c0: 30ee a43e 7596 4c3e 8f41 923d 8c15 c83e
000000d0: 4a80 113e 09c6 8a3d 0a87 e23e 1e72 de3e
000000e0: f6cd 653e f8fc a93d ba20 8f3c 4dca 7c3e
000000f0: c954 1c3e d798 853d 2671 753e cc68 5fbc
00000100: 5a25 123e 3069 623e 4ddf ac3e 830e 343e
00000110: bbe2 bd3e aa02 753e 0508 813e c395 c03e
00000120: c1fe 7e3c d3bc 523e 4b53 933e 1813 fe3d
00000130: 4432 ab3e 7943 943e 8070 793e ae2b 343d
00000140: 695b bc3e 56d5 e23e efcc 0b3e 0bf3 823e
00000150: 7b3d 633e 4b2c 68bc 66df 853e cac6 343e
00000160: a63c 3b3e ce26 4c3e dab4 103f 82fa 333e
00000170: 4f39 303e f54d 9e3e 8579 c03e d295 4a3e
00000180: 776e 2a3e 28ed 573e 1dcf 9f3e 47f0 a73e
00000190: 3fa6 983e dac9 be3e eafb 66bd 3cc9 823e
000001a0: b1b9 973d 1fa3 993e a271 3e3e ee85 803e
000001b0: 7648 263e 8a2e 463e 579c 6d3e 61a1 7a3e
000001c0: 47ee b83c 1e5a b73e fa0c 9a3e 4512 933e
000001d0: a141 c03d b42a 483e 0102 9b3e d410 143f
000001e0: e357 8e3e 8708 893e e30c a33e faa8 a43e
000001f0: 48d3 633e f293 a83c 0fa7 1dbc 1cdf b43d
00000200: 811e 6a3e e81d 903e b725 b73e 1df5 fcbc
00000210: dc01 9a3e 8bea 633e c4ca b63e 5c33 113f
00000220: 07a8 8a3e 362e db3e 9da0 7e3e 0d45 0d3e
00000230: 66e3 543e a9e9 8f3e c95e 8d3e 20c2 893d
00000240: d545 633e 5dd3 a43e deb8 cbbd d420 3c3f
00000250: 0961 bc3e 359f 8e3e baf5 793e 0919 903b
00000260: 5747 843e 87fc 273e 27af a33e dcb0 963e
00000270: 2b38 ce3e 5f96 803e 4398 cd3d 69b0 983e
00000280: b3d6 6c3e dbb2 bc3e d165 293e 89d8 553e
00000290: e27f 7c3d 6620 a43e f33f b63c c958 403e
000002a0: e400 1dbd e012 39bd 5c6c f8bd 6c6b 6c3d
000002b0: e249 be3e b473 cb3e d887 103e 0e93 633e
000002c0: b7c2 a33e 2823 b03e bb68 a43e baf0 cb3e
000002d0: 1681 e83d ba86 883e d533 493e e079 bd3e
000002e0: 53d7 9a3e 56ef b93e 7cf2 443e 31bf a33e
000002f0: 0710 ca3e 2c4a 843e df16 833e ed5b b23d
00000300: 0240 133e 9a84 ab3e 8421 9e3d db6e cc3d
00000310: 6670 9e3e 834a 37ba 1719 303e 5034 59bc
00000320: 9437 6d3e 34b3 17bd ca79 c33d fb2e 3c3e
00000330: 10cb 443e 5c1a 8c3e 0034 813e 24b2 a93c
00000340: b5a2 b03e 783f 7d3e e84c 173e b61c e63c
00000350: 8109 8c3e 1861 7e3e ef04 443e 6f44 ed3e
00000360: 041c d63e 3e14 bc3e 2f13 773e df4e 573e
00000370: 1682 733e 6382 033e 3f11 8a3d fe95 6cbe
00000380: 1531 483e 3726 c1bc a23c 993b ebbf 623e
00000390: d9bb 6d3e 45ba 883d f1e0 8d3e 36fb 553e
000003a0: 5b5f 48bd 53e1 623e 463f 863d fb86 6a3e
000003b0: ba07 443d f433 773e fba7 f13e 283e a43e
000003c0: 09ca 993e b563 613e dfcb 7b3e 16b1 983e
000003d0: 974c 593c 3594 a03c 32c9 e93e 6b3c 2c3e
000003e0: 7619 943d 0b64 be3d 6120 203e a446 a73a
000003f0: d34a 003e 970f f93d 56fb b73c 7e17 a03e
0.3205538 -0.108714394 0.20638527 0.22133572 0.13044548 0.31976193 -0.035366435 0.27313483
0.3513664 0.27231315 0.08051535 0.03666889 0.10739299 0.52393967 0.005729051 -0.039286267
0.48224822 0.055068683 0.04737408 0.044347223 0.062257893 0.32313633 0.007446188 0.17913413
0.07870668 0.39395815 0.28105602 -0.09938034 0.043808006 0.028939903 0.20218934 0.20311308
0.15821141 0.2608123 -0.077934325 0.082835056 0.10576778 0.25358626 0.4193942 0.09486162
0.21357325 0.15744455 0.19861974 -0.07058231 0.26373217 0.4431564 0.3473854 0.2458087
0.32212973 0.1997927 0.071414106 0.3907894 0.14209095 0.067760535 0.44243652 0.4344644
0.22441849 0.08300203 0.01747166 0.24686547 0.15266718 0.065232925 0.23968944 -0.013635825
0.14272061 0.22110438 0.33764115 0.17583661 0.37087044 0.23926798 0.2520143 0.3761426
0.015563668 0.20579843 0.28774485 0.124059856 0.33436787 0.28957728 0.24359322 0.04398697
0.3678849 0.44303387 0.13652395 0.25576052 0.22191422 -0.0141707165 0.26147002 0.17653957
0.18284854 0.19936678 0.5652596 0.1757603 0.17209361 0.30918851 0.37592712 0.19783714
0.16643701 0.21086562 0.31212702 0.32800505 0.29814336 0.37263376 -0.056392588 0.25544155
0.07408465 0.30007264 0.18598035 0.2510218 0.16238579 0.1935369 0.2320417 0.24475624
0.022574557 0.3581094 0.30088025 0.28724876 0.09387518 0.1954754 0.30274966 0.5783818
0.27801427 0.26764318 0.3184577 0.3216017 0.22248566 0.020578358 -0.009622349 0.08831617
0.22863199 0.28147817 0.35770962 -0.030878598 0.30079544 0.2225744 0.35701573 0.56718993
0.2708132 0.42808694 0.24865957 0.13795872 0.2078987 0.28107956 0.27611378 0.067264795
0.22194608 0.32192507 -0.0994737 0.7348759 0.36792782 0.2785584 0.24410143 0.0043975157
0.25835678 0.16404925 0.31969568 0.29431808 0.40277228 0.25114724 0.10038807 0.2982209
0.23128776 0.36855206 0.16542746 0.20883383 0.061645396 0.32055968 0.02224729 0.18783869
-0.038330927 -0.045184016 -0.12130043 0.057719633 0.37165743 0.39736712 0.1411432 0.22224066
0.31984493 0.34401822 0.32111153 0.39832097 0.11352746 0.26665288 0.19648679 0.37007046
0.30242404 0.3631541 0.19233125 0.31981805 0.39465353 0.2583784 0.25603387 0.0870894
0.14379886 0.33499604 0.07721236 0.099820815 0.30945128 -0.0006991999 0.17197071 -0.013257101
0.23165733 -0.037036136 0.09544714 0.18377297 0.19218087 0.2736386 0.25234985 0.020714827
0.34499136 0.24731243 0.14775431 0.028089862 0.27351 0.24841726 0.19142507 0.46341273
0.4181825 0.36734194 0.24128412 0.2102618 0.23780093 0.12842707 0.06741571 -0.23104092
0.19549973 -0.023577793 0.0046764174 0.22143523 0.2321619 0.06676153 0.2771068 0.2089661
-0.048919063 0.22156267 0.06555037 0.22903053 0.04785893 0.24140912 0.4719847 0.3207867
0.30036953 0.22010691 0.2458949 0.29822606 0.013262889 0.01960192 0.45661312 0.16819923
0.07231419 0.092964254 0.15637352 0.0012762141 0.12528543 0.12161177 0.022458714 0.31267923

bn1.weight f4 [300]
00000000: 6e29 8d3f d4f0 c33f 68bf c03e 5079 c43e
00000010: 93a6 f43f 743b 853e c2f4 ee3f c7f6 b03e
00000020: 407f 493e dea6 ac3e 89a0 3140 8e8f fc3f
00000030: 2c7a ab3f fe18 0840 4766 e23f 3435 d93f
00000040: a667 3340 6a8a 703f 55a8 f83f a7b7 1240
00000050: e93d 0940 e0a9 6e3f 1b5c 993f 9c97 c43f
00000060: c9d2 c73f 94b4 4140 4492 b23f cea9 0f40
00000070: 7c46 0040 ac71 d43f bbf8 ef3f 5746 bd3e
00000080: d6eb ba3f 360f 8f3f 8b33 8c3f 24a5 0540
00000090: 145f 0840 bd61 9e3e 6252 dd3f 12c4 0440
000000a0: 8713 3740 9cc8 ce3f 5b3d 9c3f 9ae3 f23f
000000b0: a93b ab3f b3af 0d40 8ff7 b03e d781 b13e
000000c0: 3850 0b40 8632 a63e c9fe 0640 f698 2640
000000d0: 0c2e 1340 5d63 1f40 de22 2e40 b8ba f93f
000000e0: 578e b13e 2e32 d93f 74f8 933f 8adc 3940
000000f0: 7440 9d3f 83b5 b63f 56d8 ad3e 8599 993f
00000100: 453a 8a3f b525 ac3f e3fc 713e 61ed 203f
00000110: 5f17 fd3f 3d91 663f 74ae f73f ee29 a63e
00000120: 3a82 eb3f 6ad6 0940 37a1 be3e 714d 2b40
00000130: 1b46 b63f 8737 2e40 0691 a93e ee11 0740
00000140: a3d2 c83f d81b 0540 185c 3640 fd99 9e3e
00000150: b21c 6e3e d177 1040 0f25 b83e ceef aa3e
00000160: 4fcf 0c40 07a6 b23e 20cc 5a40 4187 883f
00000170: bbc3 553f f00c c43f 4c4b 0d40 d3d8 6140
00000180: 6e93 be3f 1e22 1740 ec53 863e 9f05 b13e
00000190: 3669 2240 cbe4 2840 80f1 1b40 1ec6 a93f
000001a0: d72e c03f 8297 1840 77ec db3f 766e a23e
000001b0: 80a1 c13f bf7b bb3e 482f 9b3f a744 b03e
000001c0: b804 2240 82ff 6f3e 6933 eb3f f7fd ba3e
000001d0: dee5 d23f 1803 0340 892d a73f 6f5b 5140
000001e0: c053 d93f 840d 8f3e 217a 1440 3cc7 8b3e
000001f0: 670c b03e e1fa a13f f743 933f 3ecd e13f
00000200: bda6 9f3e 9fe8 b93e 13d8 3340 3f0f ad3f
00000210: 6dca 9e3e e72c b53e 1147 af3e 3d4c 1c40
00000220: 0b76 1a40 3d9e f33f 1648 ab3e b767 2c40
00000230: df33 3140 3e6f a23e d7e2 c43f 21ff 903f
00000240: 2e2c 0840 1279 bc3f 7c54 8a3f 068d 7740
00000250: d4a4 4940 78c7 b83f a7f4 b43e bbd3 a93f
00000260: 9e0d bb3f 7fb3 2c40 690d 0640 6e38 ae3e
00000270: 8fbb d53f afe2 b43e cce1 fc3f 25ab 713f
00000280: 1de8 bd3f 7dad a63f d17f 0b40 1719 b73e
00000290: 7ea8 5f40 3d91 943e 6c9d d13f dfe0 b33e
000002a0: c583 a73f 77e4 cd3f 55c6 d83f 6c1f 0640
000002b0: 5646 f93f 3d0e 2640 aff8 1d40 95eb 963e
000002c0: 9fe4 753f 952a 1940 7ceb db3f 06ce ed3f
000002d0: c9b3 9e3f aace df3f 7249 0e40 923d a83f
000002e0: fc0a 883e 8ca7 833e 4c55 3c3f 79f2 573e
000002f0: 06f6 ad3e 44e4 a33f d409 943f 0036 be3f
00000300: 0c2e e83f 9f38 b53e a0a1 aa3f 13fc 1140
00000310: dad0 6040 2e4e 0240 8fe7 bb3e fbed a33f
00000320: 56ca a73e f764 3e40 69ce da3f 81c6 1f40
00000330: 3e57 a63e 3a33 613e 935a ba3f 31cf 3140
00000340: 1dac 0c40 6568 903e 388c ec3f 448b d53f
00000350: c722 b23e 2a10 b23f e489 df3f d7e7 b93e
00000360: cfd7 4f3f b49d c03f d53d 9b3e 8303 1440
00000370: bfd7 0640 a5ba 983f f52b 3d40 c3f6 de3f
00000380: 47a9 0140 773f 1c40 1d0f 1a40 0692 ad3e
00000390: bbfb 2740 822d ff3f 1218 2d40 5e24 af3e
000003a0: 34a9 7c3f 8ccf d13f b62b ef3f 4cc4 b43f
000003b0: ea75 963f 23bd 863f 1bc9 f03f 1f78 b93e
000003c0: 83c2 753e fe5c a43e 5002 c33e 82b3 f93f
000003d0: 197b 743f 666a 0540 d208 753f 246e d23f
000003e0: 4768 0e40 22a9 d03f 507e 0440 99dd cb3f
000003f0: 71f0 7f3f 4723 2540 543a 0240 c14a 113f
1.1028268 1.530787 0.3764603 0.38373804 1.9113334 0.26021922 1.8668444 0.34563276
0.19677448 0.3372106 2.7754233 1.973131 1.3396659 2.1265254 1.7687463 1.6969361
2.8032012 0.93961203 1.9426371 2.2924592 2.1444037 0.9322796 1.1981233 1.5358768
1.5611202 3.0266466 1.3950887 2.244739 2.004302 1.659719 1.8747782 0.36967728
1.4603221 1.1176517 1.095323 2.0882044 2.130803 0.30933943 1.7290766 2.0744672
2.8605669 1.6154971 1.2206224 1.8975708 1.3377582 2.2138488 0.34563872 0.34669372
2.1767712 0.3246042 2.1093009 2.603086 2.2996855 2.4904397 2.7208781 1.9510107
0.3467891 1.6968439 1.1560197 2.9040856 1.2285295 1.4274143 0.33954114 1.1999975
1.0799032 1.3449007 0.23631625 0.6286221 1.9772757 0.90065366 1.9350114 0.32453865
1.8399117 2.1537118 0.37232372 2.6766016 1.4240144 2.7221391 0.33118457 2.1104693
1.5689281 2.0798244 2.849371 0.3097686 0.23253134 2.257313 0.35965773 0.3338608
2.200153 0.34892294 3.4187088 1.0666276 0.83501786 1.5316448 2.2077208 3.528859
1.4888742 2.3614573 0.26235902 0.345746 2.5376716 2.6389644 2.436615 1.3263586
1.5014294 2.3842473 1.7181538 0.317249 1.5127411 0.36617848 1.2123804 0.34427378
2.531538 0.23437312 1.8375064 0.36521885 1.64764 2.0470638 1.3060771 3.2712057
1.6978683 0.2794 2.3199542 0.2730044 0.34384462 1.2654687 1.1505116 1.764076
0.311819 0.36310288 2.8100631 1.3520278 0.31013814 0.3538582 0.34233907 2.4421532
2.4134548 1.9032665 0.33453435 2.6938303 2.768791 0.31725496 1.5381726 1.1327859
2.1276965 1.4724448 1.0807033 3.8679824 3.1506853 1.4435873 0.35342905 1.326774
1.4613531 2.6984556 2.0945685 0.34027427 1.6697863 0.35329196 1.9756408 0.9440177
1.483646 1.3021694 2.1796763 0.3576133 3.494659 0.29017058 1.6376166 0.351325
1.3087088 1.6085347 1.6935526 2.0956678 1.947459 2.594619 2.4683034 0.2947661
0.96051973 2.393224 1.7181239 1.8578498 1.2398616 1.7484944 2.2232327 1.314379
0.2657088 0.25713766 0.7356765 0.2108859 0.33976763 1.2804036 1.1565499 1.486023
1.8139052 0.3539476 1.3330574 2.2810104 3.5127473 2.0360217 0.36700103 1.2807001
0.32771558 2.9749124 1.7094241 2.4964907 0.32488436 0.21992198 1.4558891 2.778271
2.198005 0.28204647 1.8480291 1.6683125 0.34792158 1.3911183 1.7463956 0.36309692
0.8118867 1.5048127 0.30320612 2.3127143 2.106918 1.1931959 2.955808 1.7419056
2.0259569 2.4413736 2.4071724 0.3390047 2.6247394 1.9935763 2.7045941 0.34207433
0.98695683 1.6391463 1.8685215 1.4122405 1.1754735 1.052647 1.8811373 0.36224458
0.23999982 0.32102197 0.38087702 1.9507906 0.9550033 2.084619 0.95716584 1.6439862
2.2251146 1.6301615 2.0702095 1.5927001 0.9997626 2.5802782 2.03481 0.5675469

bn1.bias f4 [300]
00000000: 3a60 41bf eed5 a7be c700 27bf c617 1fbf
00000010: 3c5b 85be cffa 24bf a454 e5be de8f 1bbf
00000020: 9837 34bf 7090 30bf 0e20 83be d845 44bf
00000030: 996b 6fbf cdf9 a73c 76dd 5ebe 13f4 6ebf
00000040: 47b2 183f 6ed1 4dbf 4abf 0ebf f4af 17bf
00000050: c3d7 6ebf 4344 1abf 2586 9bbf d8f2 2cbf
00000060: d362 ebbe 8ae8 733e 4c59 6fbe d513 4cbe
00000070: 688a 09bf d26e 23bf e6d6 18be 5e00 1cbf
00000080: 0fa4 5fbf 485d d1be 4b4d 9ebf 2bf5 5fbe
00000090: b749 15bf 474b 25bf 66f5 f9be 508b 77be
000000a0: a281 98be a154 6abf 854e 103d f65f 92bf
000000b0: 3c7a 933c 5137 03bf 7677 14bf ce1c 17bf
000000c0: de2f 693e 0ec5 15bf d066 95be d3c4 5a3f
000000d0: 7c1a 40bf 7e6b a63d a065 033e d998 47bf
000000e0: 4e6f 1cbf 3f05 44bd 06a3 a13e 6d98 e53e
000000f0: 0422 60bf d84a 2fbf 5644 1cbf 06f0 28bf
00000100: 8797 abbe 4122 7cbe cf7e 28bf 43ab 3bbf
00000110: 6eea 8dbe 0704 d7be 9a39 2dbf 8d6a 09bf
00000120: 9473 90be e348 aa3d 06c6 1cbf 90ee d33d
00000130: 9530 94be 1ca2 c3be 2799 24bf 0525 72be
00000140: b4e9 9cbf a31b 6e3e d33e 4fbf 9f4c 21bf
00000150: b15e 4abf ad83 24bf cf7d 24bf d66e 17bf
00000160: 8645 bdbe 1ef9 17bf ca8f 863f 3f65 e2be
00000170: 8d76 0bbf a998 f3bd 047b b13d 0fda f93e
00000180: 900c 1cbf 6923 6bbf e6a9 1cbf 45cf 0fbf
00000190: 393a 43bf f075 f5bd 7bab 01bf 8eac 9dbf
000001a0: 45a2 d6be c0c9 02bf 0ed2 8dbf 9777 21bf
000001b0: f605 98bf bef0 1bbf 1231 23bf 1573 0fbf
000001c0: b5b1 f6be 74a2 f8be 4903 c3be 4e3d 1cbf
000001d0: 2167 61bf df3f a0be 0038 50bf 2837 6e3e
000001e0: cd9d 6fbf 4fa5 2cbf 3d58 c3bd 4870 3cbf
000001f0: 367f 1abf e4c4 48bf 4c34 89bf a065 ebbe
00000200: eec9 1cbf 37bf 20bf 3296 853f 3eb3 93bf
00000210: 1f66 23bf 16a0 14bf 44eb 20bf 49c5 e83e
00000220: 6b41 e23e 432f 2dbe c74b 27bf f00a 31bf
00000230: 8fad 07bf d6b8 13bf 463e e0be 6ffa 95bf
00000240: 61ad 69be 1c0f aebe b113 6fbf 8055 b83f
00000250: 4684 35bf 590d e7be d7f5 26bf b358 1abf
00000260: c47e dabe 3568 21bf 2c0c 71bf 2eaf 15bf
00000270: 5f3f 08be 4e4a 1ebf 97cd a6bd abda 84be
00000280: 69c4 12be 1c36 98bf 8c53 1ebf ced0 12bf
00000290: c05e eabe 1e1d 12bf da33 8abf 769c 12bf
000002a0: 4dd7 a0bf 80f3 d9be 4767 17bf 1f74 00bf
000002b0: 2385 f63e 794e d1be fff6 3d3d 8d00 0abf
000002c0: c9d7 10bf 25a2 50be 373e 0bbe 09ff 24be
000002d0: 6ff9 d5be f7d6 efbe 0003 90be 8afc 243f
000002e0: 3faa 2dbf 483d 38bf d521 0e3e 8fbe 2dbf
000002f0: e67d 1bbf 6344 393c 0973 e63d a28d 07be
00000300: 33fe 16bf 1e3d 15bf 2e38 a6bc bb1a 2e3e
00000310: 1a17 c8bd 31fa 80bf 5e36 13bf f181 80bf
00000320: be4c 15bf 3c3d 633d a746 40bf 7597 dbbd
00000330: 9ec5 11bf d799 2dbf 275f 85bf 1221 a0be
00000340: abc7 04bd 1696 1ebf 99d1 82be 7014 68be
00000350: e798 23bf fd17 58bf ec56 4fbf 4ea0 18bf
00000360: 42e2 96be 8455 233f c543 07bf 88d5 64be
00000370: 8eac febe 330a 9e3e 1106 14bf 149b 8dbf
00000380: c3e6 1abf 6ca8 d6be 29d3 5e3e 2e5a 1fbf
00000390: ab45 133d 1984 15bf 79d0 f9be 1eae 17bf
000003a0: 1044 7dbf efa4 0d3f f4cf 963d b72e a6bf
000003b0: 19fc 10bf 4b3c 0fbf 2028 b03e 4648 19bf
000003c0: a7dd 23bf f640 1bbf 8f33 27bf c389 5dbe
000003d0: 2e62 2ebf 3404 c8be 7110 90be b061 bfbf
000003e0: ff1d 95be fc04 18bf 9c50 c2be 4523 9cbe
000003f0: 3113 e6be cfa3 23bf 6c62 11bf fe55 1fbf
-0.75537455 -0.32780403 -0.6523556 -0.6214565 -0.2604617 -0.64445204 -0.44791138 -0.607664
-0.7039733 -0.68970394 -0.25610393 -0.76669073 -0.93523556 0.020504856 -0.21764168 -0.9334118
0.5964703 -0.8039769 -0.55760634 -0.5925286 -0.93297976 -0.6026041 -1.2150313 -0.6755805
-0.45973834 0.23819175 -0.23373908 -0.1992944 -0.53726816 -0.63840973 -0.14925727 -0.6093806
-0.8735971 -0.4089148 -1.2367338 -0.21870868 -0.58315605 -0.6456799 -0.48820037 -0.24174237
-0.29786402 -0.91535383 0.035231132 -1.1435535 0.018002622 -0.5125628 -0.5799478 -0.5902833
0.22772166 -0.58503807 -0.29180002 0.8545658 -0.7504041 0.08125971 0.12831736 -0.779676
-0.6110734 -0.047856566 0.3156969 0.44842854 -0.87551904 -0.6847358 -0.6104177 -0.65991247
-0.33514044 -0.24622442 -0.65818495 -0.733082 -0.27717918 -0.4199526 -0.6766602 -0.5367821
-0.2821318 0.08314683 -0.6123966 0.103482366 -0.28943315 -0.38209617 -0.6429619 -0.23646934
-1.225882 0.2325273 -0.8095524 -0.6300754 -0.7905074 -0.6426342 -0.6425447 -0.591535
-0.36967105 -0.593645 1.0512631 -0.4421787 -0.5447777 -0.11894352 0.086660415 0.48799178
-0.6095667 -0.91850907 -0.61196744 -0.56175643 -0.76260716 -0.119853854 -0.50652283 -1.2318285
-0.41920677 -0.51089096 -1.1079729 -0.63073105 -1.1876819 -0.6091422 -0.6374675 -0.56034976
-0.48182455 -0.48561442 -0.38088444 -0.61031044 -0.8804799 -0.3129873 -0.8133545 0.23263228
-0.9360016 -0.6743974 -0.095383145 -0.7360883 -0.6035036 -0.7842543 -1.0719085 -0.4597597
-0.6124562 -0.6279177 1.0436461 -1.1539075 -0.638277 -0.5805677 -0.62858987 0.45463017
0.44190535 -0.1691256 -0.6535 -0.69157314 -0.52999204 -0.5770391 -0.4379751 -1.1717051
-0.22820045 -0.33995903 -0.9338942 1.4401093 -0.7090496 -0.4512737 -0.6521887 -0.60291594
-0.4267484 -0.6304963 -0.941592 -0.5847043 -0.13305424 -0.6183213 -0.08144682 -0.2594808
-0.14332737 -1.1891513 -0.6184623 -0.5734986 -0.45775414 -0.5707568 -1.0797074 -0.5726999
-1.2565705 -0.42568588 -0.59141964 -0.50177187 0.4814845 -0.40880182 0.046378132 -0.5390709
-0.5657926 -0.20374353 -0.13597952 -0.16112913 -0.41791865 -0.46843693 -0.2812729 0.64447844
-0.678379 -0.7196851 0.13880093 -0.67868894 -0.6073898 0.011307809 0.1125241 -0.13237622
-0.5898163 -0.5829638 -0.02029046 0.17002384 -0.09770031 -1.0076352 -0.5750483 -1.0039655
-0.58320224 0.05547832 -0.75107807 -0.107222475 -0.56942165 -0.67812866 -1.0419663 -0.3127523
-0.03241698 -0.6194776 -0.25550535 -0.22664046 -0.63905185 -0.84411603 -0.8099201 -0.59619606
-0.29469496 0.6380236 -0.52837783 -0.2234708 -0.49741024 0.30867156 -0.57821757 -1.1062951
-0.60508364 -0.4192537 0.21760239 -0.6224698 0.035955112 -0.5840469 -0.48791865 -0.59250057
-0.9893198 0.55329794 0.07363883 -1.2983006 -0.5663467 -0.55951375 0.34405613 -0.59875906
-0.6401009 -0.60646 -0.6531305 -0.21634583 -0.6811856 -0.39065707 -0.28137544 -1.4951687
-0.29124448 -0.59382606 -0.37952125 -0.3049566 -0.44936517 -0.6392183 -0.56790805 -0.6224059

l2.weight f4 [300, 308]
00000000: 0efb 063e d3d0 293f 8a79 7abd 4e88 1cbd
00000010: eb32 943f 08c6 35bd 3c7f 13bf 56f0 10bd
00000020: f365 e73d 22ab ef3d f98f afbe ea9e dfbe
00000030: e6a1 c9bd 3829 5e3f 2f5f 423f 127f 61be
00000040: d12a 28bf c4e0 5f3f 79a1 1340 c4c6 f83f
00000050: 26bb 26bf 7491 c8bd dc83 19bf 0a2c 843e
00000060: 05af 1e3e 3177 563e 3c46 99bf 69f0 fa3e
00000070: c470 4a3f 0d7f 88bf eb38 81bf 058c 153c
00000080: 81a7 cebf 2e86 0a3f 7984 fe3e d88f 92be
00000090: f2d2 0f3e b0fa b03c ba5e 06bf 89dd c33f
000000a0: 3b63 aabf 12e7 523f 1c25 763f 2e56 343f
000000b0: ae73 4ebf 86f1 d53f 95ee 893d 535a 773d
000000c0: c9c6 ee3e ecf3 fcbc 0004 0cbf 8dc0 cd3f
000000d0: 41b9 7c3f 6fc1 903f 185a 6d3f 47c0 67bf
000000e0: a605 ae3d c1bf 26bf 2a5c 7bbe f178 e3be
000000f0: 815e c33f 9fd5 b9be 06cf a73c ef26 673f
00000100: 6a3c eabe 1b4e 22be 2e5f 1a3e f9ea 9e3f
00000110: 3a02 2e3f 29ad 34bf 3969 ecbe 5b46 6fbd
00000120: 47ca e33d 2d59 c8bf 8f80 2f3c 7809 85bf
00000130: b944 84be 6326 d7be fdbc 143c 319c d53d
00000140: 45b6 ebbe c2b4 c8be 9f09 01be 13f1 7a3e
00000150: 2436 8f3b 81b8 d2be 9410 7cbc 35d8 873d
00000160: 5462 9bbf 63a7 f9bd c4fb 9bbe ac24 d63d
00000170: 1957 db3d 14c0 e93e f930 f03e b6d7 c1bd
00000180: 9c7c a63f 520e a63e 702b c53c 0348 7f3d
00000190: 20b6 a63e 1d4b 83bf 39ac 0fbf 7afb 27bf
000001a0: 55c0 413e 2380 eb3f c124 3e3f f1f8 dbbd
000001b0: 5e70 56bd a26c d6bd bb2d 243f 267e 1c3d
000001c0: e295 65bc 197d 50be c62a 9abf 97cf bcbd
000001d0: 450a 2abf c4f8 c13e 0221 543f f58f 88bf
000001e0: ccf8 84bf 4281 d13d cd6e ccbf 8f2b b93c
000001f0: 7da2 8ebd eeb4 f0be 8f93 3d3f 15f0 f4bf
00000200: f3de f03d dfbd 24be 64e3 c13e 33d9 3f3e
00000210: 739e e83d 023c 683d 6b62 333b 5318 ebbe
00000220: 9531 1a3f 12ac 7a3e cac9 5dbd e62d 00c0
00000230: 1537 023d 753c 89bd cc8e e4bd cade a6bf
00000240: 275d df3d 26da eabd 656f 6d3f 3874 a23d
00000250: b804 5bbe 4caa 023f 1947 40be 0c95 dbbf
00000260: 3cad 69bf 10a8 363f d001 a1bf 6b76 61be
00000270: dce7 afbf 1343 e5be 2275 f83e 2cbe c8bd
00000280: c372 8ebf f670 1cbd e10b 96bf 4cc9 8dbd
00000290: 005f 0bc0 7301 feba 1447 f93f 154b 9ebd
000002a0: cc11 cc3f d7dc 38bf 0415 b7be 71ab 8ebf
000002b0: 5ce5 85bd 6740 0b3f 7e5a 9a3f 74d6 003d
000002c0: f13f 393f 8bcb 28bf 7cb5 9cbf 4340 7c3d
000002d0: 922b 3f3f 1f78 0abf c305 09bf a5bc 7f3f
000002e0: 5aae e63c b43d 753e bb7f e4be 693d 5e39
000002f0: 5085 c23c fd39 b93c 3a50 85be d49c 663e
00000300: 0a24 ec3e 5a8f 67bc 7886 363e 7360 82be
00000310: 9f86 2cbf ad5e 95be 7cb8 823c 4ad3 753f
00000320: a088 c93d 465d d23d df49 55bd fa09 90be
00000330: ddae 9a3c e107 d3bd fa80 c73f b4a9 583f
00000340: b353 4dbe 62d2 5dbd 0679 5abe dc6f 8c3f
00000350: 2ce7 fb3d 6ad6 5d3f d23c e2bf 07d8 b23d
00000360: c631 66be 0ca9 353f ac37 f93d ff50 0d3f
00000370: 9d9c bc3f 3d07 eebe 38ee bfbd ee72 1d3f
00000380: a111 be3e 312a 803f de34 063f 1fab a43d
00000390: 0d13 e43f e677 f1bd 71f8 64bc 00cd bb3d
000003a0: 3a56 293f 316e a83e eab0 8b3e 60ff c2be
000003b0: 2c93 163f ca4f 7a3f 649f f9bd 708a b13d
000003c0: 49d8 4c3b 4110 4fbd 1bea f4bc e196 ea3e
000003d0: 9a3c 633f 2868 b4bd 3c48 00bf 9917 c93f
000003e0: 45a8 bb3e 07c6 82be f443 f3bc 1cce 07bf
000003f0: da54 7ebc cb14 5bbf 85b5 ba3f 20ca 03bf
0.13181707 0.66334265 -0.061151065 -0.038215928 1.1578039 -0.04437831 -0.5761602 -0.035385452
0.11298742 0.11702563 -0.3428953 -0.4367593 -0.09845333 0.86781645 0.7592649 -0.2202113
-0.6569033 0.8745234 2.3067305 1.9435658 -0.65129316 -0.09793368 -0.59966826 0.2581485
0.15496452 0.20943905 -1.1974559 0.49011543 0.79078317 -1.0663773 -1.0095495 0.009127622
-1.6144868 0.5411099 0.49710444 -0.2862537 0.14045313 0.021603912 -0.5248829 1.5301982
-1.3311533 0.82383835 0.96150374 0.70444 -0.80645263 1.6714332 0.06734959 0.060388874
0.46636036 -0.03087803 -0.54693604 1.6074387 0.98720175 1.1309031 0.927156 -0.90527767
0.08497171 -0.65136343 -0.24546877 -0.44428208 1.5263215 -0.36295792 0.020484459 0.9029378
-0.45749217 -0.15850107 0.1507537 1.2415458 0.6797215 -0.7057672 -0.4617403 -0.058416706
0.11122566 -1.5652214 0.010711803 -1.0393515 -0.2583368 -0.42021474 0.009078261 0.10430182
-0.46037498 -0.39200407 -0.12601326 0.24506025 0.0043704677 -0.4115639 -0.015384812 0.06633035
-1.2139382 -0.121901296 -0.3046552 0.10456213 0.10709972 0.45654356 0.46912363 -0.09464972
1.3006778 0.324328 0.024068564 0.062324535 0.32560825 -1.0257298 -0.56122166 -0.656181
0.18921025 1.8398479 0.7427483 -0.10740841 -0.052353255 -0.10469939 0.6413228 0.038206242
-0.014012786 -0.20360221 -1.2044303 -0.09219282 -0.6642192 0.37885106 0.82862866 -1.0668932
-1.0388427 0.10229732 -1.5971314 0.022603778 -0.06964586 -0.47013038 0.7405328 -1.9135767
0.11761274 -0.16088055 0.37868798 0.18735199 0.11358347 0.056697853 0.0027371894 -0.45916995
0.60231906 0.24479702 -0.05414752 -2.0028014 0.03179081 -0.067009844 -0.11160049 -1.303674
0.10906439 -0.1146739 0.927481 0.07932323 -0.21388519 0.510411 -0.18777122 -1.715486
-0.9127996 0.71350193 -1.2578678 -0.22017829 -1.3742633 -0.44777736 0.48526865 -0.098018974
-1.1128772 -0.038193665 -1.1722375 -0.0692316 -2.1776733 -0.0019379094 1.9474816 -0.077291645
1.5942931 -0.72211975 -0.3575822 -1.114607 -0.065378875 0.54395145 1.2058866 0.03145452
0.7236319 -0.6593558 -1.2242885 0.061584722 0.7467586 -0.5408954 -0.53524417 0.99897224
0.02815931 0.23949319 -0.446287 0.00021194447 0.023745209 0.022610659 -0.2603777 0.22520763
0.46121246 -0.014133299 0.17824733 -0.2546421 -0.67392915 -0.29173794 0.01595711 0.96025527
0.09840512 0.10271697 -0.052072402 -0.28132612 0.01888221 -0.10304237 1.5586236 0.84633946
-0.2005146 -0.054155715 -0.2133523 1.0971637 0.12299952 0.86655295 -1.7674811 0.0873261
-0.22479925 0.7096107 0.12168822 0.55201715 1.4735295 -0.46489897 -0.093716085 0.61503494
0.37122825 1.0012876 0.5242442 0.08040451 1.7818314 -0.11790447 -0.013975249 0.0916996
0.66147196 0.3289657 0.27283412 -0.3808546 0.58818316 0.97778 -0.121886045 0.08668983
0.0031256846 -0.05055261 -0.029896786 0.45818236 0.88764346 -0.08808929 -0.5011022 1.5710326
0.36651817 -0.25541708 -0.029695489 -0.5304887 -0.01552316 -0.855786 1.4586645 -0.51480293

l2.bias f4 [300]
00000000: 4a1e 113f 97c5 1b3e 2145 543e 987c 0d3e
00000010: 64ec 2c3f 92e6 7d3d de6c 3f3f d6ab b03e
00000020: 2280 0fbf 1828 08bf d5e7 3fbf 3564 1fbf
00000030: c2fd 003f 976d 54bf 64d5 99bf e88f 403e
00000040: bda5 05bf 3160 29bf a1e6 1bbf 7d87 d53d
00000050: 2297 93bf 46e8 83bd 56eb 6d3f fb58 cbbe
00000060: 3bc0 f6be c4af 983f c5ce 063f b622 cd3c
00000070: 8595 663e fa3f 2b3f 7895 723f b218 5d3f
00000080: 491a a43e f794 07bf 7f18 42bf 6309 493e
00000090: ec07 2abf c3fd 1f3f 8dd9 833d 99b0 423f
000000a0: 6043 1f3f d005 473f 9f62 193f 16a5 98bf
000000b0: 59a0 0a3f 195a b6be bcd8 e4bd ef07 63bf
000000c0: cf34 99bf 1bfa 80bd 8d1b 3d3d 42e1 36bf
000000d0: b3ac 64be 08b6 00bf f2be fd3e 6a58 21bf
000000e0: 90a3 4e3e 5f31 233f 34ef 153c 2d87 ec3e
000000f0: 17c2 15bf 0a1e 73bf ab11 03bd cdb4 81bf
00000100: 1b8a 44bf a172 53bf 591f 9ebe 99e7 f93e
00000110: d3c1 133f 5d87 34bf 7259 3f3f 8cef 1c3e
00000120: 86d2 3bbf a293 25bf 5e44 9f3e 2c31 06bf
00000130: a202 873e 7a9a 54bf a0e7 d03c 9579 1a3f
00000140: bfe4 823e a1b6 c03e f8ff 993e f9e4 193d
00000150: 5402 8fbf f361 af3d 153e 73bf 2ddf fc3e
00000160: fe1b b03e cc47 ab3e 58a5 2bbf 2870 eb3c
00000170: c55b 033e 4150 89bf d455 6f3e 0247 a1be
00000180: 5964 003f 7187 8f3e 2c06 e63d f704 0cbf
00000190: 1b05 5bbf b62c aa3e 02bf c63e b1eb 253f
000001a0: 1c21 ccbf 36f3 25be 9f58 9bbf 4d54 3fbf
000001b0: 39c5 8cbf 79f5 81be 441e 563f 284a ad3e
000001c0: fdc4 47bf 4703 0a3f db54 a13d a46a bfbe
000001d0: 9533 6fbe 36ea 3bbf a1a5 203f 0da9 8c3f
000001e0: 6c84 9a3f 9352 073f bbd7 8ebd 31d7 a6bf
000001f0: 0e2b 853d 76cd 3abf 4740 6ebf 7b4b 57bf
00000200: 5d19 213e f6b4 e0bd 2b82 853e 15b9 9b3d
00000210: d202 c9be 5742 563f 139c 28bf e188 0c3f
00000220: fce2 763e 1552 96bf a3e0 9bbe a2ef bcbf
00000230: dcc2 b23e 0006 2fbf 831f cebe f9cf 61bf
00000240: 63d5 193e 6f6e 223f e574 1a3f b1d7 49bf
00000250: 23b9 87bf 3cf0 21bf c48a 46bf f576 d9be
00000260: 506c 23bf 1309 3c3e 7b70 54bf 89ea 463f
00000270: 3c9e 913e 4f33 423f 3ae3 64bf c286 dabf
00000280: 07fd 90be 63b4 2ebf a93a 81bf c11b e73e
00000290: 634b 933f efeb de3e 887b dd3c bc0e 43be
000002a0: 2880 ae3d 1495 58be aef2 133e 9a59 df3e
000002b0: 5b32 04bd ffdf 4abf ec1b 32bf a763 28bf
000002c0: f5cd 68bf 2d78 43bd e4ec fb3c 0c67 953e
000002d0: 5a02 e23e 545a 593b 6dcf 643e b596 b23e
000002e0: 5bfd 6d3e 1caf 83bf 6ff8 e7bf aa0b 2bbf
000002f0: 3a08 b0be 721d 9e3e 7e66 18be 907e 2b3f
00000300: 46db 183f 4254 8fbf bfd8 98bd 378d 693e
00000310: 8a96 88be 3683 8ebf 728d 9ebd 9510 95bf
00000320: 3bd1 983e fcff 81be e552 e8bd 6d65 323e
00000330: c4a5 13bf f858 b33d 1a70 813f 2ec8 143f
00000340: 6f90 9cbf 840b b53b 196a 9e3e 0151 513f
00000350: dd97 6a3f 10c7 593f 4bd6 743e 487a 0dbf
00000360: c85f 9dbf f77f a9be 9811 99bc 59d1 3cbf
00000370: c475 283f e30b 993e 080d 613f caa9 0fbf
00000380: 7e5d 4fbf 9d9c bebd 0b21 133f e160 813e
00000390: ca88 11be 246f 4a3f 7563 a7bf 406d e43e
000003a0: f446 843f c193 67bf a3d1 37bf c04f 47be
000003b0: 20d7 793e bb1e afbf 5cb9 b23e d624 22bf
000003c0: df88 013d cc0f 24bd a522 e13d c3e1 283f
000003d0: 2e5b 78bf 33d5 8dbf 652d 8a3f 2c5b a13e
000003e0: 824a 213e 51ea bcbf 14ac 483f 97d2 6e3f
000003f0: b565 a13d c4b5 9ebd 8d32 81bf ad1f 483e
0.5668684 0.15212093 0.20729496 0.1381706 0.67548203 0.061987467 0.74775493 0.345061
-0.5605489 -0.5318618 -0.7496312 -0.6226228 0.50387204 -0.8297972 -1.2018247 0.18804896
-0.5220602 -0.661624 -0.60898787 0.10426233 -1.1530497 -0.06440787 0.9293722 -0.39716324
-0.48193535 1.192864 0.52659255 0.025040966 0.22517975 0.66894495 0.9475932 0.8636581
0.32051304 -0.5296168 -0.7581863 0.19632487 -0.6641834 0.62496585 0.06437979 0.76050717
0.6221218 0.77743244 0.5991611 -1.192538 0.5415092 -0.35615614 -0.11174151 -0.8868398
-1.1969241 -0.06297704 0.046168853 -0.71437466 -0.22331505 -0.5027776 0.49559742 -0.63025534
0.20179582 0.6374721 0.009151269 0.4619688 -0.5849928 -0.9496771 -0.03199927 -1.0133301
-0.7677323 -0.82596785 -0.3088329 0.48809507 0.5771763 -0.7051905 0.7474586 0.15325755
-0.7336811 -0.64678395 0.31106848 -0.5241878 0.26369196 -0.8304821 0.025501072 0.6034177
0.25565144 0.37639335 0.300781 0.03757188 -1.1172585 0.08563604 -0.95016605 0.4938902
0.34396356 0.33453214 -0.6704917 0.028740004 0.12827976 -1.0727617 0.23372585 -0.31499487
0.5015312 0.2803302 0.11231646 -0.54695076 -0.85554665 0.33237237 0.38817602 0.6481276
-1.5947604 -0.16206059 -1.213642 -0.7473801 -1.0997688 -0.25382593 0.8363993 0.3384564
-0.78034955 0.5391125 0.07877513 -0.37386048 -0.2335952 -0.7340425 0.6275273 1.098909
1.2071662 0.52860373 -0.06974741 -1.3034421 0.06502353 -0.7296976 -0.9306683 -0.8409955
0.15732332 -0.109720156 0.26075873 0.07603661 -0.39259964 0.83694977 -0.6586315 0.5489636
0.24110025 -1.17438 -0.30444822 -1.476063 0.3491429 -0.6836853 -0.40258417 -0.88207966
0.15022807 0.6344976 0.60334617 -0.78844744 -1.0603374 -0.63257194 -0.7755549 -0.4247357
-0.63837147 0.18362837 -0.8298413 0.7770162 0.28441036 0.7585954 -0.8940922 -1.7072375
-0.28318045 -0.68244 -1.0096027 0.45138362 1.1507381 0.43539378 0.027036443 -0.1904859
0.085205376 -0.21150619 0.14448044 0.43623048 -0.032274585 -0.7924804 -0.69573855 -0.6577706
-0.90939265 -0.04772203 0.030752607 0.2918018 0.4414242 0.0033165412 0.22344752 0.34880605
0.23241179 -1.0287814 -1.8122691 -0.6681467 -0.34381276 0.3088184 -0.14882848 0.66989994
0.59709585 -1.1197588 -0.07463216 0.22807775 -0.26677352 -1.1133792 -0.07741822 -1.1645685
0.2984713 -0.25390613 -0.11343936 0.17421503 -0.57674813 0.08757204 1.0112336 0.5811795
-1.2231578 0.0055250544 0.3094032 0.8176423 0.91637975 0.8506937 0.23909871 -0.5526471
-1.2294855 -0.33105442 -0.018685147 -0.7375694 0.65804696 0.2989188 0.8791051 -0.5611845
-0.8100203 -0.09307215 0.57472295 0.25269225 -0.14212337 0.7907584 -1.3077227 0.446146
1.0334153 -0.9045983 -0.71804255 -0.19464016 0.2439847 -1.3681253 0.34907043 -0.6333746
0.03162467 -0.040054128 0.10992936 0.65969485 -0.9701413 -1.1080688 1.0795103 0.3151487
0.15751079 -1.4759008 0.7838757 0.93290085 0.07880727 -0.07749513 -1.0093552 0.19543333

bn2.weight f4 [300]
00000000: e73a b83f c1b2 b03f e0d1 aa3f 4cef b13f
00000010: 8b32 d03f 794b 963f f4cb a43f 3324 a43f
00000020: 2527 a93f 5a82 653e d30e b13f 3467 853e
00000030: 7131 873f 9daf 9d3e eef8 883f ee57 ab3f
00000040: 37c4 f93f 96a6 2e3e 3dd7 993e d6a8 b53f
00000050: e960 563e d460 c83f b567 ab3f ff27 c23f
00000060: 0f88 ae3f b5ed d83f af0a 913f 2f22 8d3f
00000070: 7647 883f c37e cd3f 3642 c93f 6ec3 a63f
00000080: 488b 9e3f 1381 7c3e d2ff 6a3e 09f6 a73f
00000090: ace8 813e 770d c93f 8cc0 823f d715 963f
000000a0: 9254 bd3f e8db d23f dd9e 993f 783a b13f
000000b0: 0845 953f 027c 6e3e bcef 823f 522b 6a3e
000000c0: d541 ac3f c882 8d3f 1dc1 943f 7709 b73e
000000d0: 52b2 bb3f e956 dc3f 7382 bf3f d560 913e
000000e0: ea7a d53f f4fc d33f 17d1 8a3f 2921 a23f
000000f0: 7cd1 823e 181a 9f3f 2301 b43f 5172 973f
00000100: ba81 ef3e 432e 7c3e adc0 903e b7bf ac3f
00000110: cbdd a83f 0a34 da3f c147 d13f 6ab4 903f
00000120: 4e0c 803e b1eb 583e c930 9e3f 6d00 963e
00000130: 2742 933f 0d9d 0340 adb1 913f 4e78 963f
00000140: 5c6d 8c3f cc58 873f 1b63 b13f ed53 a13f
00000150: 16c5 2b3e 7efc 933f 64e9 813f d93f cc3f
00000160: d02a 7f3f 8485 9d3f ee0d ad3f f254 a33f
00000170: 95f2 b23f 1afb 6d3e 8e5a 9a3f b3b7 c13f
00000180: 4ed3 af3f c57e a13f e048 963f caa9 793f
00000190: a9b1 d43f 440c 903f 9208 9f3f e589 b93f
000001a0: c9f7 9e3f 939b 8e3f a9e1 483f bd4c 953e
000001b0: 184d b63f 1327 8b3f 3702 b53f 4383 8f3f
000001c0: c078 eb3f 43de ae3f 10f9 4f3e 92e4 613e
000001d0: 80bc 8b3f 04b6 8e3e e7d3 9d3f 0cc9 c73f
000001e0: 068b bc3f 350c d53f 6ccb a63f 9c8f 813e
000001f0: 32c9 b13f 9cbb 823e 826d 663e cac8 df3f
00000200: a729 973f 402b 873f 207a 883f 081a a83f
00000210: 94bb 8e3f 7463 903f 125b cb3f 2c3a af3f
00000220: cddd b23f 9ad7 bb3f 19b1 953f 12ac ce3f
00000230: d6c5 b03f 2109 8a3f 3ad0 643e b3e6 763e
00000240: a47f a53f 7e72 b93f 0651 ac3f b54b 943e
00000250: d0b4 ff3f 0e38 a03e 4051 1d40 9515 aa3f
00000260: 3f43 8e3f bf1b 923f c1de aa3f c008 9b3f
00000270: ea13 bc3f 8b41 bc3f 8f29 313e c837 db3f
00000280: 19c6 b33f 4bb2 7c3e 237e b03f 5117 953f
00000290: 17df b63f 078b a23f 6aaf b83f 243c 8e3e
000002a0: 8581 b83f 488e 9a3f 7a3b ac3f 1d27 b53f
000002b0: 3c2d b93f d9b2 5f3e 0411 843e 8e84 a63e
000002c0: 27ca 393e 7b2b ac3f 4eed 9e3f 5981 9a3f
000002d0: ee52 953f 9be7 823f 9432 a93f 6871 9f3f
000002e0: c321 be3f 5c6b 863e 97b9 a63f 043c 813e
000002f0: b52c 953e fc4b 9f3f 775e a33f 9855 b13f
00000300: 3e78 c23f 3e17 803e dd76 9b3e 5c6c 9d3f
00000310: e0da 4d3e 2c10 8a3e 591e b13f c591 933e
00000320: b26a 863f fc44 863f 2e73 be3f 726d 8e3f
00000330: 6e19 af3e 9124 b13f 1299 a33f b531 993f
00000340: d535 943e 08a0 4c3e 65b7 b23f b88e d53f
00000350: f826 a03f f9dd b83f 44c5 be3f 904b 9f3f
00000360: ab0f b53f 250a ec3f dcd0 8c3e ce36 6c3f
00000370: 9f2f a73f 8f4c 9f3f 8a27 c13f 3b4c be3f
00000380: 68f1 ba3f 14c8 8c3f afaa 853f 620a 9c3f
00000390: ba59 8e3f 4a9e a03f 22f4 cc3f c134 903f
000003a0: f54e a93f e2e8 6c3e 3525 903e 71a0 573e
000003b0: dd39 a53f 87fd 323e 2be7 af3f 15ff a83f
000003c0: 15d9 9a3f 7255 a83f 94fe 9e3f 4fcb be3f
000003d0: be8e a33e be23 803e 3707 b73f e5be b63f
000003e0: a22b 8f3f c4c6 863e e6f6 c13f ded0 c33f
000003f0: 19f7 b63f 71b6 b93f 2a2e 6c3e 1c7b a03f
1.4392976 1.3804551 1.3345299 1.3901153 1.6265424 1.1741782 1.2874742 1.2823547
1.3215071 0.22413006 1.3832649 0.260553 1.0561963 0.30798045 1.0700967 1.3386209
1.9513005 0.17055735 0.30047026 1.419215 0.20935406 1.565455 1.3391024 1.5168456
1.3635272 1.6947542 1.1331385 1.1026057 1.0646808 1.605431 1.5723331 1.302839
1.2386255 0.24658613 0.2294915 1.3121959 0.25372827 1.5707234 1.0215011 1.1725415
1.4791434 1.647336 1.2001606 1.3845968 1.1661692 0.23289493 1.0229411 0.22868088
1.345759 1.1055536 1.1621433 0.3574941 1.4663794 1.7214023 1.4961685 0.2839419
1.6678135 1.656157 1.0845059 1.266637 0.2555045 1.2429838 1.4062847 1.1831762
0.4677866 0.24627022 0.28272 1.3496007 1.3192686 1.7047131 1.6350023 1.1305058
0.25009388 0.21183659 1.2358638 0.292972 1.1504563 2.0564606 1.1382347 1.1755464
1.0970874 1.0573974 1.385837 1.2603737 0.16774401 1.156143 1.014935 1.5956985
0.996747 1.2306371 1.3519876 1.2760298 1.398028 0.23240319 1.2058885 1.5134186
1.373636 1.2616812 1.174099 0.975247 1.6616718 1.1253743 1.242449 1.4495207
1.2419368 1.1141227 0.7846933 0.2916011 1.4242277 1.08713 1.4141301 1.1211933
1.8396225 1.3661579 0.20309854 0.22059849 1.0916901 0.27873242 1.2330292 1.560823
1.4729927 1.664435 1.303083 0.25304878 1.3889525 0.2553376 0.22502711 1.7483151
1.1809586 1.0560074 1.066227 1.3132944 1.1150994 1.1280351 1.5887167 1.3689628
1.3973938 1.4675171 1.1694671 1.6146262 1.3810375 1.0784036 0.22345057 0.24111442
1.2929578 1.4488065 1.3462226 0.2896401 1.9977055 0.31292766 2.458084 1.3287836
1.1114272 1.1414717 1.3349229 1.2112045 1.4693577 1.4707502 0.1730101 1.7126398
1.404483 0.24677388 1.3788494 1.1647741 1.4286832 1.2698678 1.4428532 0.2778026
1.4414526 1.2074671 1.3455651 1.4152561 1.446693 0.21845569 0.25794232 0.32523006
0.18143521 1.3450769 1.241617 1.2070724 1.1665933 1.022693 1.321856 1.2456484
1.4854053 0.26253784 1.3025388 0.252411 0.2913567 1.2445064 1.2763203 1.3854246
1.5192945 0.25017732 0.30364123 1.2298694 0.20103025 0.26965463 1.3837386 0.2882215
1.0501311 1.0489802 1.48789 1.112715 0.3419909 1.3839284 1.2781088 1.1968294
0.2894732 0.19982922 1.3962218 1.6684179 1.2511892 1.4442741 1.4903951 1.2444935
1.4145406 1.8440596 0.27503097 0.92271125 1.3061408 1.2445239 1.5090191 1.4867014
1.4604921 1.0998559 1.0442713 1.2190669 1.1121132 1.2548306 1.6012003 1.1266099
1.3227221 0.23135713 0.28153387 0.21057297 1.2908283 0.17479526 1.3742422 1.3202845
1.2097498 1.3151076 1.2421441 1.4905795 0.3194484 0.2502727 1.4299077 1.4277006
1.1185191 0.2632352 1.5153472 1.5298116 1.4294158 1.4508802 0.23064485 1.253757

bn2.bias f4 [300]
00000000: b9f8 2ebf c6e6 55bf c064 75bf b597 6cbf
00000010: ea64 8abf 3e72 1abf 56af 30bf cf70 3ebf
00000020: b81e 92bf 69d9 44bf 78b2 07c0 03b7 60bf
00000030: 2519 a8bf 72d4 5fbf 9d68 013e af8c 25bf
00000040: 88d2 d4bf b04d 38bf da65 57bf c499 48bf
00000050: 1fba 2ebf a435 9abf 2551 abbf f74b edbf
00000060: a24d 81bf 84ac 1dbf fce8 5ebf a19d 95bf
00000070: 4765 7bbf 7e66 07bf 6d9f 65bf ec31 40bf
00000080: 448e 38bf 5f0a 2bbf 002b 3dbf 9516 63bf
00000090: 22bd 53bf c9c2 dfbe 2f7c 75bf 44fc 57bf
000000a0: c5ba 84bf ee5b 0dbf 5ab2 a9bf 4b97 8cbf
000000b0: 5617 58bf 7834 34bf 1c59 9abf 19a6 45bf
000000c0: e7b9 abbf b0d5 94bf 20ff 85bf f6e3 9dbf
000000d0: 4a7b b9bf f0d1 1dbf 0ff9 67bf b19c 48bf
000000e0: 26e2 8dbf 7bdd 71bf 8b33 7cbf d44e 42bf
000000f0: 4952 41bf 2aed abbf f3fe 70bf 8aef bcbf
00000100: 6937 c6bf 8309 66bf 900c 3abf fe53 8abf
00000110: c3fa 92bf 9de2 b3bf 9e3d 17bf b625 a7bf
00000120: 1a1a 54bf c739 2abf 2e44 78bf 6be8 67bf
00000130: c36c 2fbf 4999 07c0 4aa3 a3bf caee 80bf
00000140: 5b28 95bf ec99 86bf 8a2e 88bd 8cc1 89bf
00000150: 08eb 33bf ba36 edbe c1a4 bdbe d475 5dbf
00000160: 1003 97bf d80e 6abf d081 99bf 6882 6dbf
00000170: 49e0 83bf 397f 4cbf 11b1 6ebf 71ce bcbf
00000180: 14df 24bf e163 6cbf cb58 69bf e511 213f
00000190: d902 42c0 765b 93bf 349b 71bf 12ef 75bf
000001a0: 5594 c1bd fcb8 50bf 6f5c 793e 6112 4bbf
000001b0: be05 97bf 962d 99bf c2cf b4bf 65ab 64bf
000001c0: a579 f3bf 37bc 31bf ba22 51bf 67b3 29bf
000001d0: 55c5 6dbf 0017 38bf d612 6ebf 9ae4 86bf
000001e0: 841e 05bf 6b32 3ebf 4d41 82bf 7fa3 2bbf
000001f0: 3ce9 62bf 3b97 61bf 4134 49bf 9615 46bf
00000200: 2245 5fbf bbba 81bf 7d97 6abf 5c38 77bf
00000210: a3dc 7bbf fd28 4dbf 05fe e0bf 2d89 4bbf
00000220: 17f5 babf c31c dabf 4409 85bf bc7a ccbe
00000230: 712c 87bf 1698 dfbf d1b6 40bf 58e6 33bf
00000240: 098f a5bf de2f c3bf 564e 75bf 6a4e 57bf
00000250: 7370 9ebf d7ee 23bf 65d3 01c0 ae6a 9ebf
00000260: 4dde 79bf e68b 82bf 9274 adbf e495 68bf
00000270: c147 81bf b01c 71bf e039 3abf 8d4f 42be
00000280: cd38 f0bf 47d7 2fbf 5557 b7bf c9f6 98bf
00000290: d52b 63bf 12a0 83bf ef3c 76bf 5a1c 5dbf
000002a0: b85a 7ebf c2f8 97bf 880e 8dbf f467 85bf
000002b0: 62ff 04c0 d036 34bf da13 54bf 9a3a 59bf
000002c0: 46a6 1abf 67a9 84bf 443a 60bf ac52 a2bf
000002d0: a109 81bf 63c8 9ebf d538 9ebf 2d11 7cbf
000002e0: bb12 b5bf fa79 50bf 36f8 a03d 8e37 1ebf
000002f0: 28a6 3fbf c8a6 5bbf 17c8 54bf 6f52 3cbf
00000300: f61d 58bf eac4 56bf 74bb 78bf c60c b1bf
00000310: f08d 3fbf 6e79 1fbf db96 9ebf b34b 62bf
00000320: bb17 93bf a2ec 6bbf 6c47 2dbf 2303 77bf
00000330: cca3 74bf 9a07 58bf b223 2fbf be30 72bf
00000340: 2912 47bf 95b5 06bf 71a9 59bf d77a 90bf
00000350: a851 41bf d8a8 6dbf 34f8 9ebf a475 2bbf
00000360: a4f4 a8bf 8b93 ecbf 7a81 55bf c128 ebbf
00000370: d0ef 81bf 694b 90bf 30bd 81bf 46e0 a7bf
00000380: 9363 6fbf c2de 88bf a2c6 b1bf ee06 16bf
00000390: 32a5 85bf 8417 8bbf e841 22bf 782b 8dbf
000003a0: 31f1 65bf 79ca 4dbf da79 5cbf e708 22bf
000003b0: ec83 8abf aea9 18bf 033f 4abf f5ff 44bf
000003c0: 0548 81bf 0d86 c7bf fb4c 94bf 37b1 88bf
000003d0: b150 44bf a136 46bf 8ae7 06bf ef02 15bf
000003e0: c637 9bbf 973b 2bbf 47dc 58bf 1305 35bf
000003f0: cf9e 32bf cd5c 38be 225b 5bbf 44ed 8abf
-0.6834827 -0.8355526 -0.9585686 -0.92418987 -1.0812047 -0.6033057 -0.6901754 -0.7439088
-1.1415625 -0.7689424 -2.1202679 -0.87779254 -1.3132674 -0.8743354 0.12637563 -0.6466779
-1.6626749 -0.7199354 -0.8413979 -0.7835963 -0.6825275 -1.204762 -1.3384138 -1.8538808
-1.0101817 -0.6159136 -0.87074256 -1.168873 -0.9820141 -0.52890766 -0.8969639 -0.75076175
-0.7209208 -0.668127 -0.7389374 -0.8870633 -0.8271047 -0.43703297 -0.95892614 -0.843693
-1.0369498 -0.552184 -1.3257554 -1.0983671 -0.8441061 -0.7039256 -1.2058444 -0.7720657
-1.3416108 -1.1627712 -1.0468483 -1.2335193 -1.449075 -0.61648464 -0.9061441 -0.7836409
-1.108464 -0.9447858 -0.9851615 -0.7590153 -0.7551618 -1.3431752 -0.9413902 -1.4760602
-1.548566 -0.89858264 -0.7267542 -1.0806882 -1.1482776 -1.4053532 -0.59078395 -1.3058383
-0.8285233 -0.6649441 -0.96979034 -0.90589017 -0.6852533 -2.1187308 -1.2784207 -1.0072873
-1.165294 -1.0515723 -0.066495016 -1.0762191 -0.70280504 -0.46330816 -0.3703976 -0.86507916
-1.179781 -0.914289 -1.1992741 -0.9277711 -1.0302821 -0.79881626 -0.9323893 -1.4750501
-0.6440289 -0.92339903 -0.9115111 0.6291793 -3.0314238 -1.1512287 -0.94377446 -0.9606792
-0.0945212 -0.81532264 0.24351667 -0.7932492 -1.1798627 -1.1967037 -1.4125903 -0.8932403
-1.9021498 -0.6942782 -0.81693614 -0.6628937 -0.9287923 -0.71910095 -0.9299749 -1.0538514
-0.5199969 -0.7429568 -1.0176178 -0.6704635 -0.8863714 -0.88121384 -0.7859536 -0.7737669
-0.87214863 -1.0135111 -0.916374 -0.9657037 -0.9838354 -0.8014067 -1.7577521 -0.7950619
-1.4606045 -1.7040027 -1.0393453 -0.3993739 -1.0560437 -1.7468288 -0.75278956 -0.7027335
-1.2934276 -1.5248983 -0.95822656 -0.84104025 -1.2378067 -0.64036316 -2.0285275 -1.2376306
-0.9760483 -1.0198944 -1.35512 -0.90853715 -1.0100023 -0.941844 -0.7274456 -0.18975659
-1.8767334 -0.6868786 -1.4323527 -1.1950313 -0.8873876 -1.0283225 -0.9618673 -0.86371386
-0.99357176 -1.187279 -1.102006 -1.0422349 -2.0780873 -0.7039614 -0.8284279 -0.84855044
-0.60409963 -1.0364197 -0.87588906 -1.268148 -1.0081064 -1.2404903 -1.2361094 -0.9846371
-1.4146341 -0.8143612 0.078598425 -0.6180352 -0.7486291 -0.85801363 -0.8311781 -0.73563284
-0.84420717 -0.83894217 -0.9716103 -1.3832023 -0.74825954 -0.6229466 -1.2389787 -0.8839676
-1.1491617 -0.9215795 -0.67687106 -0.9648916 -0.95562434 -0.843866 -0.6841384 -0.94605625
-0.77762085 -0.5262082 -0.8502417 -1.1287488 -0.7551522 -0.9283576 -1.2419496 -0.6697638
-1.3199658 -1.8482527 -0.8340069 -1.8371812 -1.015131 -1.1273013 -1.013586 -1.3115318
-0.93511313 -1.069298 -1.3888743 -0.58604324 -1.0441039 -1.0866551 -0.63381815 -1.1028891
-0.89821154 -0.80387074 -0.8612343 -0.63294834 -1.0821509 -0.5963391 -0.790024 -0.7695306
-1.0100104 -1.5587784 -1.1585993 -1.0679082 -0.76685625 -0.7742711 -0.5269705 -0.582076
-1.2126396 -0.668878 -0.84711117 -0.7071087 -0.6977357 -0.1800415 -0.8568593 -1.0853658
