weights/model_critic_163.pt (torch, 431175 bytes, 9 tensors)

l1.weight f4 [300, 42]
0	0x3e16a3e8	0.14710963
1	0x3f26ac3d	0.65106565
2	0x3da69560	0.0813396
3	0x3ef2821c	0.4736489
4	0x3e627646	0.2211543
5	0x3fc81abb	1.5633157
6	0x3f0b39b0	0.543849
7	0x3f7322aa	0.9497477
8	0xbf89fdda	-1.0780594
9	0x3dc70faa	0.097197846
10	0x3f37812f	0.71681494
11	0xbf9c7fa4	-1.2226453
12	0x3e88a51e	0.26688474
13	0xbeea43b2	-0.45754772
14	0x3fdee585	1.7413794
15	0xbf22fc66	-0.6366638
16	0x3eddf78e	0.43352932
17	0x4037c214	2.8712206
18	0xbfbe809e	-1.4883001
19	0xc0b26be4	-5.5756702
20	0x3f0b00ed	0.5429829
21	0x40ed9f82	7.425721
22	0xc01a24b9	-2.4084914
23	0x3ecdb57a	0.40177518
24	0x3f1d6015	0.61474735
25	0xbe9e2484	-0.30887234
26	0x3ff01d7e	1.8759
27	0x3f836114	1.0264001
28	0xc035817c	-2.836028
29	0xc0293ff8	-2.6445293
30	0xbedebd0e	-0.43503612
31	0x3f2c7152	0.67360413
32	0xc02a65c2	-2.6624608
33	0xc091d849	-4.557652
34	0x3efcaca0	0.49350452
35	0x40394d25	2.8953335
36	0xbf35add5	-0.7096837
37	0x3e6891bd	0.22711845
38	0x3d954a73	0.07289591
39	0x4146d997	12.4281225
40	0x3ffa589d	1.9558293
41	0xbe4e4036	-0.20141682
42	0x3e8eabc2	0.27865416
43	0x3e8b375f	0.27190682
44	0x3e63cc99	0.22246017
45	0x3e0eac70	0.13932967
46	0xbdb0eae0	-0.08638549
47	0x3eb49b67	0.35274813
48	0xbea364d7	-0.31912872
49	0xbfc7cc49	-1.5609218
50	0xbe8a2738	-0.26983047
51	0xbdafb3dd	-0.08579228
52	0x3ebff1be	0.37489122
53	0xbf170bfc	-0.5900266
54	0x3ec88431	0.39163354
55	0xbee3f71b	-0.44524464
56	0x40111529	2.2669165
57	0xbf18b0a7	-0.5964455
58	0xc01d4383	-2.4572456
59	0x3f83339a	1.0250123
60	0xbdb07738	-0.08616489
61	0xbf977c04	-1.1834722
62	0x3f87e4fb	1.0616754
63	0x406fcf30	3.7470207
64	0xc01a2ff3	-2.4091766
65	0x3e2093b3	0.15681343
66	0x3ec6ba4b	0.38814005
67	0xbf2fcccd	-0.68671876
68	0x3f08f267	0.53494877
69	0x3ea89c94	0.3293196
70	0x40b0aea0	5.5213165
71	0xbfe5d196	-1.7954586
72	0x3fb9da29	1.4519702
73	0xbe8b280f	-0.27179
74	0x411e3346	9.887518
75	0xbfb4a432	-1.4112608
76	0x3e846e01	0.25865176
77	0xc0b0bb15	-5.522837
78	0x4095f53a	4.686185
79	0x40131032	2.2978635
80	0xbd124de0	-0.0357188
81	0x3fe869df	1.8157309
82	0xc05a42a8	-3.4103184
83	0xbffd8160	-1.9805107
84	0x3f03ff45	0.51561385
85	0xbcc51f79	-0.024062859
86	0x3ec4dc6a	0.38449413
87	0x3ef24cdb	0.4732426
88	0x3d2eaabf	0.042643305
89	0xbcacaba2	-0.021077935
90	0xbde104d1	-0.10987247
91	0xbf2108bb	-0.62903947
92	0x3d9edbf2	0.07756795
93	0xbf120577	-0.5703959
94	0x3f0550b2	0.52076256
95	0xbf58610b	-0.84523076
96	0x3e77caa3	0.24198394
97	0xbf23e9f8	-0.64028883
98	0xbf725b8e	-0.9467095
99	0x3f041eff	0.51609796
100	0x3ee79665	0.4523193
101	0xbf89ac31	-1.0755674
102	0x3fff123d	1.9927441
103	0xbc9533f9	-0.018213259
104	0xbd332c84	-0.043743625
105	0xbf24072c	-0.64073443
106	0xbf859af3	-1.0437912
107	0x3f2090ca	0.6272093
108	0x3eca63c6	0.39529246
109	0xbed58f2c	-0.41710794
110	0x3f25f895	0.6483243
111	0xc033ae8b	-2.8075283
112	0xbeb8b6c3	-0.36076936
113	0xbf766b20	-0.9625721
114	0xbf185762	-0.59508336
115	0x3ec17025	0.37780872
116	0xc0e07561	-7.0143285
117	0x406bf669	3.6869147
118	0x3f40d577	0.7532572
119	0x402d6845	2.709489
120	0xbe430c2e	-0.19047615
121	0xbf824f35	-1.0180422
122	0x3f083c98	0.5321746
123	0x3fd60a8e	1.6721971
124	0xbffe4b60	-1.9866753
125	0xbe5345f4	-0.20632154
126	0x3f15c20c	0.5849922
127	0xbdedda6f	-0.116139285
128	0x3eb7bf96	0.35888356
129	0x3de33a20	0.11095071
130	0x3df22868	0.11824113
131	0xbdf748ed	-0.12074456
132	0xbd8464b2	-0.064645186
133	0xbf0bb224	-0.54568696
134	0xbdad82d2	-0.084722176
135	0xbf3a593d	-0.72792417
136	0x3f049d27	0.51802295
137	0xbedb0cf1	-0.4278331
138	0x3e8b60b9	0.2722223
139	0xbf2e47c3	-0.6807825
140	0xbf49a88d	-0.78772813
141	0x3d370408	0.04468158
142	0xbccc032c	-0.024903856
143	0xbfa32aae	-1.27474
144	0x40021b34	2.0329103
145	0x3d3e8c53	0.046520542
146	0xbe59e39a	-0.2127823
147	0xbfd3867f	-1.652542
148	0xbea651c3	-0.32484254
149	0x3f30f60a	0.69125426
150	0x3ece39a9	0.40278366
151	0xbeda25d4	-0.42606986
152	0x3f282dca	0.6569487
153	0xc03737e4	-2.8627863
154	0xbf08ec0f	-0.53485197
155	0xbf5b3344	-0.856251
156	0xbeeb8db4	-0.46006548
157	0x3f0606df	0.52354234
158	0xc0e6bfed	-7.2109284
159	0x405fdf88	3.4980183
160	0x3f3cba25	0.73721534
161	0x402ad870	2.6694603
162	0xbe053bd3	-0.13011102
163	0xbf9179dc	-1.1365314
164	0x3ef7e8a1	0.4841967
165	0x3e24a97a	0.16080275
166	0xbf107b75	-0.5643838
167	0x3f0fdd25	0.56196815
168	0x3de643df	0.11243414
169	0x3f212adc	0.62956023
170	0x3ebd3f52	0.36962372
171	0x3d42f3b4	0.047595695
172	0x3e75a2ad	0.23987837
173	0x3f23f545	0.64046127
174	0x3e1992d6	0.1499742
175	0x3d66eb24	0.05637659
176	0x3f1da702	0.6158296
177	0xbf849238	-1.0357122
178	0x3ec24001	0.37939456
179	0xbeec85a7	-0.4619572
180	0xbf1c4b32	-0.6105224
181	0xbefe31d7	-0.496474
182	0xbdb8bc61	-0.090203054
183	0xbeeecb3c	-0.4663943
184	0x3f168eaf	0.5881147
185	0xbf9648ca	-1.1740963
186	0x400da43f	2.2131498
187	0xbd7be54e	-0.06149798
188	0xc04bd60e	-3.1849399
189	0xc00e066d	-2.2191422
190	0xbf8dea39	-1.1087104
191	0xbe7091f4	-0.23493177
192	0x3e76826b	0.24073188
193	0x3f2ba103	0.6704256
194	0x3f8ac8d5	1.0842539
195	0xbfb17640	-1.3864212
196	0xc000723a	-2.0069718
197	0xc0db695e	-6.856612
198	0xc0340614	-2.812871
199	0xbfa95f7c	-1.3232265
200	0xc0243c3d	-2.5661767
201	0xc1217adb	-10.092494
202	0x3b00fbe4	0.0019681389
203	0x3f994367	1.1973695
204	0xc0464647	-3.0980394
205	0x3f92ee23	1.1478924
206	0xc00f22bd	-2.2364953
207	0xc00c5084	-2.1924143
208	0x40c74825	6.2275567
209	0xc096a76c	-4.7079372
210	0x3f30b100	0.6902008
211	0xbee9ccfa	-0.45664197
212	0x3f02aa07	0.5104069
213	0xbf740873	-0.9532539
214	0x3e8194b5	0.25308767
215	0xbe915f88	-0.28393197
216	0xbe936848	-0.28790498
217	0x3dac5f95	0.08416668
218	0xbf179a9a	-0.5922028
219	0xbfa269e5	-1.2688566
220	0x3f0bf183	0.5466539
221	0x3f413405	0.7547
222	0x3ed65f41	0.41869548
223	0xbf4961c2	-0.7866479
224	0xbef54c6d	-0.4790987
225	0xbfc84dc0	-1.5648727
226	0xbff57ea1	-1.9179269
227	0xbfcc46cf	-1.5959109
228	0x401857f9	2.3803694
229	0x3e7f0271	0.24903275
230	0xbf9e25de	-1.2355306
231	0xc09a4fa9	-4.822224
232	0x3fcffe9a	1.6249573
233	0x3f723ddc	0.9462564
234	0x3f00696d	0.50160867
235	0xbece76cb	-0.40325007
236	0x3f00bbcd	0.5028656
237	0xc0512779	-3.2680342
238	0xbf99376d	-1.197004
239	0xbe0ecb09	-0.1394464
240	0xbd4d4384	-0.050113216
241	0x3f338581	0.70125586
242	0xc0f0157d	-7.502623
243	0x400c5c54	2.1931353
244	0x3f4ed027	0.80786365
245	0x4022c151	2.543049
246	0x3d9764d3	0.073922776
247	0xbfc5ef05	-1.5463568
248	0x3e88fa4e	0.26753467
249	0xc07500f5	-3.8281834
250	0x40460865	3.0942624
251	0x40271d9b	2.611182
252	0x3f188883	0.595833
253	0x3f562d99	0.83663327
254	0x3e83f276	0.2577092
255	0x4012d1cb	2.2940547

l1.bias f4 [300]
0	0x3ee5169a	0.44743806
1	0x3d9cc9cb	0.076556765
2	0x3edbbeae	0.42918915
3	0x3ee80e0f	0.45323226
4	0x3c908302	0.017640594
5	0x3f18a405	0.59625274
6	0xbd4e929c	-0.050432786
7	0x3ef06771	0.4695392
8	0x3f228d33	0.634967
9	0x3f095096	0.5363859
10	0x3e046055	0.12927373
11	0x3d6acf90	0.057326853
12	0x3ce63116	0.028099578
13	0x3f175387	0.5911183
14	0xbe821a4f	-0.25410697
15	0x3b0c5d1c	0.0021417802
16	0x3f3c1afa	0.7347866
17	0x3dff2e31	0.12459982
18	0xbd7ff4b8	-0.06248924
19	0x3e432da6	0.19060382
20	0x3e0520a2	0.1300073
21	0x3ebf8bb8	0.37411284
22	0x3d82e850	0.06391966
23	0x3e9a559f	0.3014345
24	0x3e0d0d4e	0.13774607
25	0x3eb4c0ec	0.35303438
26	0x3eba892f	0.36432788
27	0xbe5c58d4	-0.2151826
28	0x3de5b3ee	0.112159595
29	0x3e23ebe2	0.16007951
30	0x3db5cffb	0.0887756
31	0x3ed87001	0.42272952
32	0x3d367b97	0.04455146
33	0x3e0cd638	0.13753593
34	0x3dd9b5ba	0.10630365
35	0x3eba4553	0.36381015
36	0x3e4d341e	0.20039412
37	0x3f04efcb	0.51928395
38	0x3efb0ff2	0.49035603
39	0x3e5da061	0.21643211
40	0x3e7c101d	0.24615522
41	0x3e200d1e	0.15630004
42	0x3e23cfad	0.15997191
43	0xbd86bbd2	-0.06578793
44	0x3eb46104	0.35230267
45	0x3f3018a4	0.687876
46	0x3f0f6253	0.56009406
47	0x3ef91147	0.48645994
48	0x3f04cb94	0.51873136
49	0x3ec6e3ad	0.38845578
50	0x3d885f76	0.06658833
51	0x3f384d0a	0.7199255
52	0x3ec6efbf	0.38854787
53	0xb9b35fb6	-0.0003421285
54	0x3f0c6b4b	0.54851216
55	0x3e93fa66	0.28901976
56	0x3ed51f74	0.4162556
57	0x3de91d4a	0.113825396
58	0x3de85dca	0.11346014
59	0xbe0af5aa	-0.13570276
60	0x3e2f3f29	0.17113937
61	0x3e00daa4	0.12583405
62	0x3ef10b7b	0.4707907
63	0xbd174b70	-0.036937177
64	0xbdf786aa	-0.12086232
65	0x3bceb693	0.0063083856
66	0x3f15cb51	0.5851336
67	0x3e111bb3	0.14170723
68	0x3f0d153c	0.55110526
69	0x3e5d29a0	0.2159791
70	0x3ef68907	0.4815142
71	0x3f12f968	0.57411814
72	0x3e8c8757	0.27447006
73	0x3ccf0d29	0.02527483
74	0x3f0191ae	0.50612915
75	0x3dca971b	0.09892102
76	0x3ee5c885	0.44879547
77	0x3eca5869	0.39520577
78	0x3ef76e9d	0.4832658
79	0x3ea9d331	0.3316894
80	0x3ea99757	0.33123276
81	0x3f12b617	0.573091
82	0x3ec5e8c7	0.38654158
83	0x3f045557	0.5169272
84	0x3eb5bcfc	0.35495746
85	0xbba3ffac	-0.0050048437
86	0x3ef9b208	0.4876864
87	0x3ebdf448	0.37100434
88	0x3e393901	0.18088152
89	0x3edd9366	0.4327652
90	0x3f37ddc8	0.71822786
91	0x3eaa123c	0.33217037
92	0xbe429dfc	-0.19005579
93	0x3e7398f3	0.23788814
94	0x3f07aaec	0.5299518
95	0xbd3b9849	-0.045799527
96	0x3e854c39	0.26034716
97	0x3dc38324	0.095464975
98	0x3f0c24c4	0.547436
99	0x3f117e23	0.56833094
100	0x3eaf6885	0.3425943
101	0x3f02a9f6	0.5104059
102	0xbdee446a	-0.11634143
103	0x3e782cb2	0.242358
104	0x3d837fe2	0.06420876
105	0x3f068062	0.52539647
106	0x3e9b20be	0.30298418
107	0x3f03f6ca	0.51548445
108	0x3eb337ba	0.35003453
109	0x3ecfb7b1	0.40569833
110	0x3ea11f03	0.31468973
111	0x3ee2d48a	0.4430278
112	0x3e6a9250	0.22907376
113	0x3f0b4b59	0.54411846
114	0x3e96a732	0.29424435
115	0x3ef9ca2a	0.4878705
116	0x3e8180d6	0.25293607
117	0x3e88f792	0.2675138
118	0x3e7ec12e	0.2487838
119	0x3f37cd16	0.7179731
120	0x3e2ea8a3	0.17056517
121	0x3f0a1f95	0.5395444
122	0x3eecde36	0.46263283
123	0x3f19bda0	0.6005497
124	0x3ed85591	0.42252782
125	0x3c1be0dd	0.009514061
126	0x3c6e62a7	0.014549888
127	0x3e3a2a9f	0.18180321
128	0x3ef10da7	0.47080728
129	0x3ef45e25	0.47728077
130	0x3ed6ad3e	0.41929048
131	0x3d9b1318	0.07572001
132	0x3f0d2a0f	0.551423
133	0x3edeb4bd	0.43497267
134	0x3f0c52d8	0.5481391
135	0x3f4b0891	0.79309946
136	0x3ee6fa92	0.45113045
137	0x3f055295	0.52079135
138	0x3f028f78	0.51000166
139	0x3e5100a8	0.20410407
140	0x3e852a0e	0.26008648
141	0x3f074bb8	0.5284991
142	0x3ee3af9e	0.44469923
143	0x3d9945ab	0.07483991
144	0x3ec3b761	0.38225845
145	0x3ec82cfe	0.39096826
146	0x3ccf9f50	0.02534452
147	0x3f711da5	0.9418586
148	0x3f10f8f4	0.5662987
149	0x3e39dcf9	0.181507
150	0x3e53f366	0.20698318
151	0x3cc2eb88	0.02379395
152	0x3ea1f7bb	0.31634316
153	0x3e656568	0.22401965
154	0x3f14d7d2	0.58141816
155	0x3f013f6f	0.50487417
156	0x3ecef2e1	0.40419677
157	0x3eecdded	0.46263066
158	0x3e832735	0.2561585
159	0x3e6df459	0.23237742
160	0x3e852a92	0.2600904
161	0x3ef5a6c0	0.47978783
162	0x3e78eaef	0.2430837
163	0x3ed34699	0.412648
164	0x3ecdb577	0.4017751
165	0x3f1216b3	0.57065886
166	0x3e2b0a8d	0.16703244
167	0x3ec369ae	0.38166565
168	0x3c0d3076	0.008617511
169	0xbe1e8bab	-0.15482967
170	0xbe5805da	-0.21095982
171	0x3e871f80	0.2639122
172	0x3ee2f900	0.44330597
173	0x3f3de769	0.7418123
174	0x3e6ab3ff	0.22920226
175	0x3ed6b058	0.41931415
176	0x3e5d8e0f	0.21636222
177	0x3eb3c8bc	0.35114086
178	0x3eb227b8	0.34795928
179	0x3ec67ba9	0.3876622
180	0x3eaec185	0.3413202
181	0x3efb80d1	0.49121717
182	0x3dba377b	0.09092613
183	0x3ea75c47	0.3268759
184	0x3f14bdd5	0.5810216
185	0x3f279ad6	0.65470636
186	0x3e3ce5cc	0.18447036
187	0x3f1d20b9	0.61378056
188	0x3f1a654e	0.6031083
189	0x3ef281eb	0.47364745
190	0x3ec1898a	0.37800246
191	0x3dac86f0	0.08424175
192	0x3df5adbd	0.119960286
193	0x3f0f8561	0.56062895
194	0xbd590643	-0.052984487
195	0x3daf198e	0.08549796
196	0x3ef12198	0.47095942
197	0x3daeebf0	0.08541095
198	0x3ebb3b8a	0.36568862
199	0xbd1e2dbc	-0.038617834
200	0x3ee28759	0.44243887
201	0x3c586f4c	0.013210129
202	0x3e953058	0.29138446
203	0x3eb58486	0.3545267
204	0x3ec4adec	0.38413942
205	0x3f12afe2	0.57299626
206	0x3e4e7726	0.20162639
207	0x3e98943b	0.2980059
208	0x3efb22db	0.4905003
209	0x3f053300	0.52030945
210	0x3e1500b2	0.14551046
211	0x3e9ea238	0.30983138
212	0x3f0745c5	0.52840835
213	0x3e361e9b	0.17785113
214	0x3e9c797e	0.3056144
215	0x3f2d1d13	0.6762249
216	0x3e9eccc0	0.31015587
217	0x3ea37d22	0.31931406
218	0x3ef3e03c	0.47632015
219	0x3e837a8a	0.25679427
220	0x3e975463	0.2955657
221	0x3e0344b8	0.12819183
222	0x3e215ff5	0.15759261
223	0xbe9f2e51	-0.31090024
224	0x3effda90	0.49971437
225	0x3df6469b	0.12025186
226	0xbd596b4e	-0.05308085
227	0x3eeaeb82	0.45882803
228	0x3ddb2178	0.10699743
229	0x3cf8d75e	0.030376133
230	0x3e524a0c	0.20536059
231	0x3edb4c08	0.42831445
232	0x3de77960	0.11302447
233	0x3e7fcb35	0.24979861
234	0x3e88d4ab	0.26724753
235	0x3ed332b6	0.41249627
236	0x3e6974e8	0.22798502
237	0x3e879304	0.26479352
238	0x3eee50d5	0.46546045
239	0x3f0aaef8	0.5417323
240	0x3eebecbc	0.46079051
241	0x3ee364d5	0.44412866
242	0x3ef2b362	0.47402483
243	0x3eba117b	0.36341462
244	0x3e8e2891	0.27765325
245	0xbcd5e3b8	-0.026109561
246	0x3f05c164	0.52248216
247	0x3eec2aa9	0.46126297
248	0x3c657817	0.014005682
249	0x3ca176ad	0.01970991
250	0x3efa477e	0.4888267
251	0xbd86ab24	-0.06575611
252	0x3e17c489	0.14821066
253	0x3e36e4f5	0.17860778
254	0x3cba3720	0.022731364
255	0x3e7252f0	0.2366445

bn1.weight f4 [300]
0	0x3fb11cf2	1.3836958
1	0x4002340b	2.0344265
2	0x3ec0bf58	0.37645984
3	0x3ec478e7	0.3837349
4	0x400024b4	2.0022402
5	0x3e853ad3	0.26021442
6	0x404ecf0a	3.2313867
7	0x3ea24c7d	0.3169898
8	0x3e497eb2	0.19677237
9	0x3ea61860	0.32440472
10	0x4022393e	2.5347438
11	0x406d818a	3.7110314
12	0x3fe6d9d7	1.803523
13	0x401af75b	2.4213474
14	0x401f8c75	2.4929478
15	0x3fddd3d4	1.733027
16	0x4058abea	3.3854928
17	0x3fc4fa72	1.538893
18	0x3fff3153	1.9936928
19	0x4018f07d	2.3896782
20	0x402b7a7c	2.6793509
21	0x402e1de1	2.7205737
22	0x40093558	2.1438808
23	0x40210e02	2.51648
24	0x407507e9	3.8286078
25	0x4003c918	2.0591488
26	0x400016d5	2.0013936
27	0x40161720	2.3451614
28	0x3fdc8c9f	1.7230414
29	0x3ffee9f1	1.9915143
30	0x408ae2d6	4.34019
31	0x3ebd45d1	0.36967328
32	0x400cc031	2.1992304
33	0x4002967e	2.0404353
34	0x400602e2	2.093926
35	0x40506353	3.2560623
36	0x4007a4cf	2.119434
37	0x3e8e1d9c	0.27756965
38	0x402b43ae	2.6760058
39	0x401288b9	2.289595
40	0x40216743	2.5219276
41	0x3fd5f76a	1.671613
42	0x3fe33227	1.774968
43	0x4077ee8d	3.873935
44	0x3fbf50dd	1.4946553
45	0x4005cb5f	2.0905378
46	0x3eb0f6cd	0.34563294
47	0x3eb18113	0.34668788
48	0x4048bc70	3.1365013
49	0x3e820e9c	0.2540177
50	0x3f8bb71c	1.0915256
51	0x409149fd	4.540282
52	0x4038d02d	2.887706
53	0x40641621	3.5638506
54	0x3ffc5744	1.9714131
55	0x40271feb	2.611323
56	0x3e8e6864	0.2781402
57	0x3fd3f02a	1.6557667
58	0x3f9a5bfa	1.2059319
59	0x4050d18a	3.2627892
60	0x402e7024	2.7255945
61	0x3fab8f2f	1.3403071
62	0x3eadd819	0.33953932
63	0x3fcffd5b	1.6249193
64	0x4012a9df	2.291618
65	0x3fcefec8	1.6171503
66	0x3e71fc9f	0.23631524
67	0x3f717121	0.94313246
68	0x3fd4fd90	1.6639881
69	0x3ee5d358	0.44887805
70	0x40515140	3.270584
71	0x3e876811	0.26446584
72	0x3f8af938	1.0857306
73	0x4072e89c	3.7954473
74	0x3ebea06f	0.37231776
75	0x3fabd575	1.3424517
76	0x400a69cb	2.162707
77	0x3fc76e9c	1.558063
78	0x3ea990a4	0.33118165
79	0x3f5bb46f	0.85822195
80	0x3fe9ff99	1.8281127
81	0x40238733	2.555127
82	0x405e51a9	3.4737341
83	0x3e8e568a	0.278004
84	0x3e1e13b5	0.15437205
85	0x40047e5a	2.070212
86	0x3eb82493	0.35965404
87	0x3e877ca8	0.26462293
88	0x401acb20	2.4186478
89	0x3eb2a5de	0.34892172
90	0x40997599	4.795605
91	0x402d088b	2.7036464
92	0x3fee6f8b	1.862779
93	0x401bdaaf	2.4352224
94	0x40249101	2.5713503
95	0x40908d7e	4.517272
96	0x3fd17809	1.6364757
97	0x4002c23f	2.0431058
98	0x3e8653d4	0.2623583
99	0x3eb1056a	0.34574443
100	0x407c3941	3.9409945
101	0x4018065b	2.375388
102	0x402b769b	2.679114
103	0x3fc7a888	1.5598307
104	0x3f9cda5d	1.2254139
105	0x401abdf2	2.4178433
106	0x3fc1c3da	1.5137894
107	0x3e98a7cd	0.29815522
108	0x401c4d93	2.4422348
109	0x3ebb7b7b	0.36617646
110	0x3f82e537	1.0226201
111	0x3e9bad0e	0.30405468
112	0x40485f80	3.1308289
113	0x3e2ef6b4	0.17086297
114	0x40102fe3	2.2529228
115	0x3ea8d30d	0.3297352
116	0x3fd4baa7	1.6619462
117	0x401f33ee	2.4875445
118	0x3ff6970a	1.9264843
119	0x4034e935	2.8267338
120	0x40232ec0	2.5497284
121	0x3e8f0cd9	0.2793949
122	0x3fe4d493	1.7877373
123	0x3e8bc6f9	0.27300242
124	0x3e9be180	0.3044548
125	0x3fd5ec47	1.6712731
126	0x3fa97841	1.3239824
127	0x4023daed	2.5602372
128	0x3e9fa617	0.31181404
129	0x3e99612b	0.29956946
130	0x406310ac	3.5478926
131	0x3fb13215	1.3843409
132	0x3e9ec9e4	0.31013405
133	0x3eb52ccc	0.3538574
134	0x3e582394	0.21107322
135	0x3ff3f3e7	1.9058808
136	0x402bc498	2.6838741
137	0x406746dd	3.6137002
138	0x3e9b04c2	0.30277067
139	0x3ff322af	1.899496
140	0x40ad0d59	5.4078794
141	0x3ea26ecd	0.3172516
142	0x3f8fa1a5	1.1221205
143	0x3fee21c4	1.8604054
144	0x3f92aec1	1.1459581
145	0x404063fa	3.006102
146	0x3fbc7815	1.4724146
147	0x4087626d	4.230765
148	0x40107f1e	2.2577586
149	0x3ff4c0e0	1.9121361
150	0x3fcb7e90	1.5897999
151	0x4001fdfd	2.0311272
152	0x3f430a45	0.76187545
153	0x4019afe4	2.4013605
154	0x40380d77	2.8758218
155	0x3eae382b	0.34027228
156	0x401b9f49	2.431597
157	0x3eb4e226	0.35328788
158	0x3feb37c6	1.8376396
159	0x3fbef6a7	1.4919022
160	0x401c5490	2.4426613
161	0x400dc227	2.214975
162	0x4006c0d8	2.1055202
163	0x3e9fe800	0.3123169
164	0x402ec5d3	2.7308242
165	0x3e949126	0.2901699
166	0x4014fd4d	2.3279603
167	0x3e8c61b0	0.2741828
168	0x3fec2e58	1.8451643
169	0x3ff0bf30	1.8808346
170	0x40279d75	2.6189854
171	0x407aef71	3.9208643
172	0x4020f1b1	2.5147517
173	0x3f98e9a8	1.1946306
174	0x40440908	3.0630512
175	0x3e86a850	0.26300287
176	0x3fa7c2d7	1.3106335
177	0x4012b365	2.2921994
178	0x409aae1f	4.833755
179	0x401f4943	2.4888465
180	0x3fd7ca2c	1.6858573
181	0x3fe72ccc	1.8060546
182	0x4076e565	3.8577511
183	0x40090656	2.1410117
184	0x3e880aac	0.26570642
185	0x3e83a721	0.25713447
186	0x3fac5677	1.3463887
187	0x3e57f221	0.21088459
188	0x3eadf5d4	0.33976614
189	0x3f982829	1.1887256
190	0x3f89aa89	1.0755168
191	0x3fdd2b86	1.7278907
192	0x3ff1d4a9	1.8893024
193	0x3eb53848	0.35394502
194	0x4024bf87	2.57419
195	0x4058e765	3.3891232
196	0x40660bad	3.5944626
197	0x3ff90a5c	1.9456286
198	0x3e950ba2	0.29110438
199	0x3f988350	1.1915073
200	0x3ea7ca0c	0.32771337
201	0x406ba2ee	3.6818194
202	0x3ffdd704	1.9831243
203	0x407cb531	3.948559
204	0x3e8b9fc0	0.27270317
205	0x3e613273	0.21991901
206	0x3ffbdc86	1.9676673
207	0x3fc5381f	1.5407752
208	0x3fda70f7	1.7065724
209	0x3e756d4e	0.23967478
210	0x3fe9ddd4	1.8270822
211	0x3fc97df6	1.5741565
212	0x3eaebd51	0.34128812
213	0x401c462c	2.441783
214	0x3fea2307	1.829194
215	0x3eb9e72a	0.36309177
216	0x3fe9215a	1.8213303
217	0x404454de	3.06768
218	0x3e9b3d90	0.30320406
219	0x3ffd5572	1.9791701
220	0x4016e3d1	2.3576548
221	0x3fd7b878	1.685317
222	0x4023e9ac	2.5611372
223	0x40479bad	3.1188767
224	0x402f75c9	2.741564
225	0x405d76e9	3.4603827
226	0x405e2b1d	3.4713814
227	0x3ead916d	0.33900014
228	0x40305b8a	2.755587
229	0x403a68a3	2.9126365
230	0x4026e561	2.6077502
231	0x3eaf23cf	0.34207007
232	0x3fe77b1b	1.8084444
233	0x40953a37	4.6633563
234	0x408b6385	4.3558984
235	0x400766d5	2.1156514
236	0x3fafbed8	1.3730116
237	0x402c37b8	2.6909008
238	0x40728521	3.7893755
239	0x3eb97782	0.3622399
240	0x3e2518f2	0.16122797
241	0x3ea45cbb	0.32101998
242	0x3ec30218	0.38087535
243	0x3fca3da3	1.580006
244	0x400ac443	2.1682289
245	0x3ffdad91	1.9818593
246	0x3fa4c4cf	1.2872561
247	0x3fd8e89e	1.6945989
248	0x40233903	2.5503547
249	0x3fd7cf37	1.6860112
250	0x40497e57	3.1483362
251	0x401c1228	2.4386082
252	0x3f7ef8be	0.995983
253	0x40295cc6	2.6462874
254	0x401893b4	2.384015
255	0x3fddd4d1	1.7330571

bn1.bias f4 [300]
0	0xbf78d6b3	-0.97202605
1	0xbf38aa34	-0.7213471
2	0xbf270110	-0.65235996
3	0xbf1f1868	-0.62146616
4	0xbf208e57	-0.62717193
5	0xbf24fb49	-0.6444593
6	0xbf939f36	-1.1532962
7	0xbf237f22	-0.63865864
8	0xbf343814	-0.7039807
9	0xbf33db51	-0.70256525
10	0xbec08717	-0.37603065
11	0xbf845641	-1.0338823
12	0xbfa7f6f0	-1.3122234
13	0xbe2c2954	-0.1681264
14	0xbec46ff9	-0.38366678
15	0xbfc8a997	-1.5676755
16	0x3f9f685a	1.245372
17	0xbff782df	-1.9336814
18	0xbfc04376	-1.5020587
19	0xbf9fea16	-1.2493312
20	0xbfaf3ed1	-1.3691045
21	0xbf206342	-0.62651455
22	0xbff59819	-1.9187042
23	0xbf38c0af	-0.7216901
24	0x3d4e0ec6	0.050307058
25	0x3f859bb1	1.0438138
26	0xbf0d8804	-0.5528567
27	0xbf862b27	-1.0481919
28	0xbf788cdb	-0.9708993
29	0xbf214a1d	-0.6300371
30	0xbf25578c	-0.6458671
31	0xbf1c0102	-0.6093904
32	0xbfac2cff	-1.3451232
33	0xbf7c3749	-0.9852186
34	0xbfdb7f2d	-1.7148186
35	0xbf53f557	-0.82796234
36	0xbf4b3e3b	-0.7939183
37	0xbf2d6d72	-0.67745125
38	0xbf542ef3	-0.8288414
39	0xbf0176f4	-0.50572133
40	0xbf1e3b7d	-0.6180952
41	0xbf16acc6	-0.5885738
42	0xbf77260c	-0.9654243
43	0xbf710db8	-0.9416156
44	0x3efce281	0.4939156
45	0xbfacb9cc	-1.3494201
46	0xbf14777a	-0.57994807
47	0xbf171ce9	-0.5902849
48	0xbe64bf73	-0.22338657
49	0xbf27ad41	-0.6549874
50	0xbe835ce4	-0.25656807
51	0x3fa5e13e	1.2959363
52	0xbf8b3362	-1.0875056
53	0xbf5eeb5a	-0.8707787
54	0xbd22a2fc	-0.039706215
55	0xbfc08fb6	-1.5043857
56	0xbf2f0a59	-0.68375164
57	0xbf65d8d4	-0.8978398
58	0x3f81513d	1.0102917
59	0x3f23ce2c	0.6398647
60	0xbfbf10e0	-1.4927025
61	0xbfd3a3ff	-1.6534423
62	0xbf1c4495	-0.6104215
63	0xbfc7eb3e	-1.5618665
64	0xbf7bbdc3	-0.9833643
65	0xbfb3a1c2	-1.403374
66	0xbf287f13	-0.658189
67	0xbf905811	-1.1276876
68	0x3f66512f	0.89967626
69	0x3e6832f8	0.22675693
70	0xbfd02f56	-1.6264446
71	0xbf18c315	-0.5967267
72	0xbf14e5be	-0.5816306
73	0xbe7f8fdb	-0.2495722
74	0xbf1cc61b	-0.61239785
75	0x3f00ae51	0.50265986
76	0xbf13e9e2	-0.5777875
77	0xbe81d00a	-0.25354034
78	0xbf249941	-0.64296347
79	0x3ecbe248	0.39821076
80	0xbfe78f0f	-1.8090533
81	0x3d258002	0.04040528
82	0xbf1da8b4	-0.61585546
83	0xbf296e87	-0.66184276
84	0xbf5d414c	-0.8642776
85	0xbf9a9a7a	-1.2078393
86	0xbf247dfb	-0.6425473
87	0xbf299d9d	-0.66256124
88	0xbf470f17	-0.777574
89	0xbf17f96e	-0.59364974
90	0x3f3b68e7	0.73206943
91	0xbf9817ab	-1.1882223
92	0xbf8cd08b	-1.1001142
93	0xbe8a6e52	-0.27037293
94	0xbe2e5e5e	-0.17028186
95	0x3e8e3d07	0.27780935
96	0xbecb10ac	-0.39661157
97	0xc0267578	-2.6009197
98	0xbf1caa68	-0.6119752
99	0xbf0fcfa1	-0.5617619
100	0xbf0d126f	-0.5510625
101	0xbe0b699d	-0.13614507
102	0xbf0653ee	-0.52471817
103	0xbf7919dd	-0.9730509
104	0xbf4d755d	-0.8025721
105	0xbf2de6eb	-0.6793048
106	0xbfb806f0	-1.4377117
107	0xbf26a68c	-0.6509788
108	0xbfbe8baf	-1.4886378
109	0xbf1bf0bc	-0.60914207
110	0xbf10b3ba	-0.5652424
111	0xbf19dd37	-0.6010317
112	0xbedc6e91	-0.43053105
113	0xbf0c91fe	-0.54910266
114	0xbf4b6b7e	-0.79460895
115	0xbf25618b	-0.64601964
116	0xbf4bb881	-0.79578406
117	0xbd6d2fe0	-0.057906985
118	0xbf6f32ca	-0.9343687
119	0x3f5c7785	0.8611987
120	0xbfdd88b7	-1.7307347
121	0xbf2ca56d	-0.6743992
122	0x3dab25eb	0.08356842
123	0xbf3c70b8	-0.73609495
124	0xbf25742a	-0.6463038
125	0xbfb9ed46	-1.4525535
126	0xc0046fea	-2.0693307
127	0xbf11af95	-0.5690854
128	0xbf1cca12	-0.61245835
129	0xbf3102c5	-0.6914485
130	0x3fc2edaf	1.5228785
131	0xbfba1b92	-1.4539664
132	0xbf23666f	-0.63828176
133	0xbf14a021	-0.5805684
134	0xbf42a74f	-0.7603654
135	0x3e82b522	0.25528818
136	0x3f19bf09	0.6005712
137	0x3dd7af54	0.10531488
138	0xbf2f6c85	-0.6852496
139	0xbf1fad26	-0.6237358
140	0xbf2dd3dd	-0.679014
141	0xbf13b8f4	-0.5770409
142	0xbefdd648	-0.49577546
143	0xbf582724	-0.84434724
144	0xbf0d8b9c	-0.5529115
145	0xbf818f77	-1.0121907
146	0xbfc1ddee	-1.5145853
147	0x3ff2569a	1.8932679
148	0xbf595fb9	-0.84911686
149	0xbf37984d	-0.7171677
150	0xbf272e4b	-0.6530501
151	0xbf808df9	-1.0043327
152	0xbe2193c2	-0.15779021
153	0xbf306783	-0.68907946
154	0xbf8e312a	-1.1108754
155	0xbf15af75	-0.5847085
156	0xbe919416	-0.28433293
157	0xbf1e4a9f	-0.6183261
158	0xbe50b989	-0.20383276
159	0xbed7c679	-0.4214361
160	0x3e5b02d3	0.21387796
161	0xbfb7b728	-1.435277
162	0xbf80e980	-1.0071259
163	0xbf1fc712	-0.6241313
164	0x3a7083fe	0.0009174942
165	0xbf121da9	-0.5707651
166	0xbfef107e	-1.8676908
167	0xbf2719e5	-0.65273887
168	0xbfc3ca1e	-1.5296056
169	0xbfbd13d7	-1.477168
170	0xbf8e8d58	-1.1136885
171	0xbeca28ba	-0.39484197
172	0x3f2e1994	0.6800778
173	0xbdd97e92	-0.106198445
174	0xbea15c88	-0.31515908
175	0xbf122243	-0.5708353
176	0xbf81578f	-1.0104846
177	0xbe95646d	-0.2917818
178	0xbd296f1e	-0.041365735
179	0xbeb1b890	-0.34711123
180	0xbf4ca1e6	-0.7993454
181	0xbf1f4e44	-0.622288
182	0x3e1095f4	0.14119703
183	0x3e84ffdc	0.25976455
184	0xbf2daaf9	-0.6783901
185	0xbf383d55	-0.71968585
186	0xbda2cea7	-0.07949572
187	0xbf2dbe96	-0.67868936
188	0xbf1b7e7e	-0.60739887
189	0xbdf43ebd	-0.11926029
190	0x3f0df8b2	0.55457604
191	0xbeea2743	-0.4573308
192	0xbf652f13	-0.89524955
193	0xbf153d85	-0.58296996
194	0xbf9068a2	-1.1281931
195	0xbe8e4c90	-0.27792788
196	0x3cf173c0	0.02947414
197	0xbfb645aa	-1.424001
198	0xbf26d2fe	-0.651657
199	0xbf887a4f	-1.0662326
200	0xbf154ce4	-0.5832045
201	0x3c99eca3	0.018789595
202	0xbf1fd6b4	-0.62436986
203	0x3dc532ee	0.09628855
204	0xbf1f758d	-0.62288743
205	0xbf2d9a26	-0.67813337
206	0xbfc3dc53	-1.5301613
207	0xbcfbdda8	-0.030745342
208	0xbf65a5a3	-0.89705867
209	0xbf2983bc	-0.66216636
210	0xbeeb0f92	-0.45910317
211	0xbe3a7306	-0.1820794
212	0xbf252fde	-0.64526165
213	0xbffd2b62	-1.9778864
214	0xbf1ba429	-0.60797364
215	0xbf18a082	-0.59619915
216	0xbf7df6fe	-0.99205005
217	0x3e84e2ab	0.25954184
218	0xbf074466	-0.5283874
219	0xbcb87d74	-0.022520758
220	0xbfd64bff	-1.6741942
221	0xbe13c543	-0.14430718
222	0xbeada416	-0.3391425
223	0xc00260af	-2.037151
224	0xbf173190	-0.5906
225	0xbf20ec09	-0.6286016
226	0x3f23cf5a	0.6398827
227	0xbf1f5abf	-0.6224784
228	0xbf36cc86	-0.7140583
229	0xbf12d182	-0.57350934
230	0xbef1e078	-0.4724157
231	0xbf17aeb4	-0.5925095
232	0xbfe1d413	-1.7642845
233	0x3f9c8f68	1.2231264
234	0x3f6a2502	0.9146272
235	0xbfea73ca	-1.8316586
236	0xbfa37a51	-1.2771703
237	0xbf75769d	-0.95884115
238	0x3c044431	0.008072899
239	0xbf194894	-0.5987637
240	0xbf393eef	-0.72361654
241	0xbf1b4149	-0.6064649
242	0xbf27343e	-0.6531409
243	0x3e9399fc	0.28828418
244	0xbfdade05	-1.7099005
245	0xbe9a833b	-0.30178246
246	0xbc8a4f47	-0.016883506
247	0xbfb69002	-1.4262698
248	0xbf9bbb12	-1.2166464
249	0xbf83a3b5	-1.0284334
250	0xbf9190d3	-1.1372322
251	0xbef3049e	-0.4746446
252	0xbf2a4032	-0.66504204
253	0xbf2b2a18	-0.66861105
254	0xbfa20d5a	-1.2660325
255	0x3e314c05	0.17314155

l2.weight f4 [300, 308]
0	0xbf492b8c	-0.7858207
1	0x4018a6b5	2.385175
2	0xbd7a78b4	-0.061150268
3	0xbd1c88f3	-0.038216542
4	0xbdd663e4	-0.104682714
5	0xbd35c6ac	-0.04437892
6	0x3f26f96c	0.6522434
7	0xbd012888	-0.031532794
8	0x3de765f5	0.11298744
9	0x3e11d356	0.14240775
10	0xc010f7e7	-2.2651308
11	0xbf1a9bfd	-0.6039427
12	0xbfb558dc	-1.4167743
13	0x3ef513dd	0.47866717
14	0x3f274235	0.653354
15	0xbf9cbe16	-1.224551
16	0xbe82e8da	-0.25568277
17	0xbfcef926	-1.6169784
18	0x3ff62394	1.9229608
19	0x3fd41e99	1.6571838
20	0x3db02efc	0.086027116
21	0x3eff7b57	0.49898788
22	0xc00ef351	-2.2336009
23	0x4006dcb1	2.10722
24	0x3ef808b5	0.48444143
25	0x3f90af73	1.1303543
26	0xbd911784	-0.070845634
27	0x3f7963e3	0.9741804
28	0xbe8d4c62	-0.27597338
29	0xbfc45004	-1.5336919
30	0xbd856975	-0.06514255
31	0x3c158b56	0.009127459
32	0x3f8e5045	1.1118246
33	0x3e8e9eec	0.27855623
34	0x3f1a31ee	0.60232437
35	0xbf4e0f71	-0.8049231
36	0xbec3f983	-0.382763
37	0xbbd25023	-0.0064182444
38	0xbfe6b649	-1.8024379
39	0x3fa0a2e5	1.2549711
40	0xbf20445b	-0.626043
41	0xbe204805	-0.15652473
42	0x3f16cbce	0.5890473
43	0xc003c698	-2.0589962
44	0xbe90934f	-0.28237388
45	0x3f8f78eb	1.1208776
46	0x3d89eec6	0.067349955
47	0x3d775a24	0.0603887
48	0xbd892dcf	-0.066981904
49	0xbc88316a	-0.016625125
50	0xbe934482	-0.28763205
51	0x40041da8	2.06431
52	0x3fc079b2	1.5037138
53	0x4003b57e	2.0579524
54	0x3fc2b5ba	1.5211709
55	0xbfea92d6	-1.8326061
56	0x3d5900c8	0.05297926
57	0xbfae983d	-1.364021
58	0xbfbe26bf	-1.4855574
59	0xbf6a7fa4	-0.91601014
60	0xbe34ed47	-0.17668639
61	0x3f0d9ebf	0.5532035
62	0x3ca7cead	0.020484293
63	0x3fddb9cf	1.7322329
64	0x3fa2f3d1	1.2730657
65	0xbf258cf5	-0.6466821
66	0x3e1a5fdb	0.15075628
67	0x3eb8309a	0.3597458
68	0x3f858e94	1.0434136
69	0x3eea3f53	0.45751438
70	0xbfd7f256	-1.687083
71	0x3c12388c	0.008924615
72	0x3f72b1ae	0.9480237
73	0xc03fb868	-2.9956303
74	0x3c2f80a1	0.01071182
75	0x3e9ce4d9	0.30643347
76	0xbf8c83ae	-1.0977685
77	0x3fbff40f	1.4996356
78	0x3c14bc86	0.009078151
79	0x3f0ffb3c	0.5624273
80	0xbf9905f4	-1.1954942
81	0xbed88e32	-0.42295986
82	0xbdf20e09	-0.11819083
83	0x3e8c9f93	0.27465495
84	0x3c09b0ab	0.008403937
85	0xbf4abe0f	-0.79196256
86	0xbc7c1103	-0.015384915
87	0x3cd97a76	0.026547652
88	0xbf9b2e78	-1.2123556
89	0xbdf9a68f	-0.12189972
90	0xbe4696a1	-0.19393398
91	0xbec306cd	-0.38091126
92	0xbf6a0dfb	-0.9142758
93	0xbe72f999	-0.23728026
94	0x3f45e0aa	0.77295935
95	0xbfe190bf	-1.7622298
96	0x3fad7cad	1.3553673
97	0xbf9fee13	-1.249453
98	0x3cc52b4c	0.024068497
99	0x3d7f4772	0.062323995
100	0xbeae92b8	-0.34096313
101	0xc02eb8f6	-2.7300391
102	0x3f7480f8	0.9550929
103	0x3fc6691d	1.5500828
104	0x3d5f68c3	0.054543268
105	0x403dbb80	2.964569
106	0x40546941	3.3189242
107	0xbddc8fe6	-0.10769634
108	0xbf32a7ef	-0.69787496
109	0xbdd66ca4	-0.1046994
110	0xbe357308	-0.17719662
111	0xbd283f92	-0.04107625
112	0xbeb3631f	-0.3503656
113	0xbe3d186a	-0.18466344
114	0xbfc4c488	-1.5372477
115	0xbdcd709c	-0.10031244
116	0xbffc31c2	-1.9702685
117	0xbd465ce1	-0.04842842
118	0x3f1af9e0	0.6053753
119	0xbfce8dc0	-1.6137009
120	0xc019f928	-2.4058323
121	0x3dd181e4	0.10229853
122	0x3f7a16fe	0.97691333
123	0x3cb92b75	0.02260373
124	0xbd12fc82	-0.03588534
125	0x3fb60615	1.4220606
126	0x3e21df0a	0.15807739
127	0x3f0a62f1	0.5405722
128	0x3df0de5a	0.1176116
129	0xbe0dcd7b	-0.13847916
130	0xbf2d6f9c	-0.6774843
131	0x4006d37a	2.1066575
132	0x3de89efd	0.113584496
133	0x3d683b6f	0.056697305
134	0x3a733777	0.0009277979
135	0xbb2c23c2	-0.002626643
136	0xbfa8530a	-1.3150342
137	0x3ffe6737	1.9875249
138	0xbda7490d	-0.0816823
139	0x3e8be8af	0.2732596
140	0x3f9e1c01	1.2352296
141	0xbd893cd2	-0.06701054
142	0xbf13ec9f	-0.5778293
143	0xbd2f49a7	-0.04279485
144	0xbfb99bb2	-1.450064
145	0xbf126480	-0.571846
146	0x3f912e4a	1.1342251
147	0x3ec42073	0.38306007
148	0x3f463ee0	0.7743969
149	0x3f8c8892	1.0979178
150	0x3fc056ba	1.5026467
151	0xbff52122	-1.9150736
152	0x3ef62a8f	0.48079345
153	0x3f5c6e9b	0.8610627
154	0xbf17c976	-0.5929178
155	0xbe6176db	-0.22017996
156	0xbe9a2dd3	-0.30113086
157	0xbee5439f	-0.44778153
158	0xbf1527bb	-0.5826375
159	0xbf38f86d	-0.7225407
160	0x3f2d62f5	0.6772912
161	0xbddbd009	-0.10733039
162	0x3eac3e47	0.33641264
163	0x3d4931e1	0.049119834
164	0xc047c3ff	-3.1213377
165	0xbafe0132	-0.0019379018
166	0x40088ef7	2.133726
167	0xbe1f7e8e	-0.1557562
168	0x40019e1d	2.0252755
169	0xbf1851c5	-0.5949977
170	0x3f516027	0.8178734
171	0xc01cfe99	-2.4530394
172	0x3f8ecf03	1.1156925
173	0x3ee1243c	0.43972957
174	0xbfad59f3	-1.3543075
175	0x3d800c0a	0.06252296
176	0xbe676661	-0.22597648
177	0x3e52ec98	0.20598066
178	0xc0448fb3	-3.0712707
179	0xbf8cfa77	-1.1013936
180	0x3ec6f0f4	0.38855708
181	0x3e184377	0.14869486
182	0x3e9f6862	0.31134325
183	0x3ff6e5b7	1.9288853
184	0x3ce6ae47	0.028159274
185	0x3e753df9	0.23949422
186	0xbe470f04	-0.19439322
187	0x395e3d26	0.0002119435
188	0x3cc284ac	0.023744904
189	0x3f230a71	0.6368781
190	0xbfb9d12a	-1.4516957
191	0xbfb5f82c	-1.4216361
192	0x3f5ff050	0.8747606
193	0xbc678ea6	-0.014133131
194	0xbfddee06	-1.7338264
195	0x3f20fa64	0.62882066
196	0xc0075210	-2.1143837
197	0xbfcfc7a3	-1.6232799
198	0x3d718ef6	0.05897423
199	0x3fb7a166	1.434613
200	0x3dc9883c	0.09840438
201	0xbea93b86	-0.33053225
202	0x3f283b0e	0.6571511
203	0xbe89588d	-0.2682537
204	0xbd5ecf8c	-0.05439715
205	0xbdd307ca	-0.1030422
206	0x3f5f1259	0.8713737
207	0xbf01bbc5	-0.5067714
208	0xbe00ece6	-0.1259037
209	0xbd9c6017	-0.07635515
210	0x3dbb977a	0.09159751
211	0x3ee9f38e	0.4569363
212	0x3df36d71	0.11886109
213	0x40035ccb	2.0525386
214	0xbf39cb71	-0.7257605
215	0x3db2d73b	0.08732458
216	0x3d287109	0.041123424
217	0x3dec7a7f	0.11546802
218	0x3df93800	0.12168884
219	0x3f93b226	1.1538742
220	0x3fbecfcf	1.4907168
221	0x3f77b549	0.96760994
222	0x3f8c9162	1.0981867
223	0xc00045ff	-2.0042722
224	0x3ed83276	0.42226
225	0x40414239	3.019667
226	0xbe8cb67d	-0.27482978
227	0x3da4abb4	0.08040562
228	0x3fa01468	1.2506227
229	0xbf8ac259	-1.084056
230	0xbe8c4e74	-0.27403605
231	0x3dbbcda6	0.09170084
232	0x40135996	2.302343
233	0x3e66e693	0.22548895
234	0xbf17ca37	-0.5929293
235	0x3f813b92	1.0096304
236	0x3da993d2	0.082801476
237	0x3f944b54	1.1585488
238	0x3f8dff30	1.1093502
239	0x3db18ad3	0.08669057
240	0xbdca4341	-0.09876109
241	0xbd4f109a	-0.05055294
242	0xbcf4e98c	-0.02989652
243	0xbf274bce	-0.65350044
244	0x3f48a4f2	0.78376687
245	0x3f8c15ca	1.094415
246	0xbf39b5d7	-0.7254309
247	0x3f656841	0.89612204
248	0xc011957b	-2.2747486
249	0xbf1d1ec0	-0.61375046
250	0x3e55ca51	0.20877959
251	0xbf1594b6	-0.5843004
252	0x3e8bb787	0.27288458
253	0x3f329eb6	0.69773424
254	0xbfd35d89	-1.651292
255	0x3f06153c	0.5237615

l2.bias f4 [300]
0	0x3f3491f4	0.70535207
1	0x3efd33c2	0.4945355
2	0x3ead3c5b	0.3383511
3	0x3f6bf5c1	0.92171866
4	0x3f845ed2	1.0341437
5	0x3eabd182	0.3355828
6	0x3f853985	1.0408179
7	0x3fb46f2e	1.4096429
8	0x3eb5bff2	0.35498005
9	0xbf2b05e8	-0.6680589
10	0xbf8b5a59	-1.0886947
11	0xbec782a7	-0.38966867
12	0x3e1d8b95	0.15385278
13	0xbf48ab8c	-0.7838676
14	0xc001145e	-2.016868
15	0x3f13a789	0.57677513
16	0xbefb42a1	-0.4907427
17	0xbf882581	-1.0636445
18	0xbefdb7f9	-0.49554422
19	0x3ec270f0	0.3797679
20	0xc0002f44	-2.0028849
21	0xbf2553ac	-0.645808
22	0x3fd9f657	1.7028302
23	0xbf745426	-0.954409
24	0xbeb601f0	-0.35548353
25	0x3fe6067d	1.797073
26	0x3e94041c	0.28909385
27	0x3f0e3953	0.5555622
28	0x3ec74d1d	0.3892602
29	0x3f6933c1	0.91094595
30	0x3f4362c4	0.7632258
31	0x3fd474c3	1.6598133
32	0x3f946bf4	1.1595445
33	0xbf800a8c	-1.0003219
34	0xbf2770c7	-0.6540646
35	0x3f53866c	0.82626987
36	0xbf8fea84	-1.1243443
37	0x3f4f987c	0.8109205
38	0xbe8999e7	-0.2687523
39	0x3f960ad0	1.172205
40	0x3f879935	1.059363
41	0x3f9715be	1.180351
42	0x3f0b52e0	0.5442333
43	0xbfab3a54	-1.3377175
44	0x3f9e7f3f	1.2382582
45	0xbf568180	-0.8379135
46	0x3e265e0e	0.16246817
47	0xbfb5d384	-1.4205174
48	0xbfd36b9e	-1.6517217
49	0xbedbb4ed	-0.42911473
50	0x3e1b79ea	0.15183225
51	0xbf328228	-0.6972985
52	0x3ee1ee46	0.441271
53	0xbe0fe310	-0.14051461
54	0x3f40bc2a	0.75287116
55	0xbfade1da	-1.358455
56	0x3f77cd40	0.9679756
57	0x3f92ef43	1.1479267
58	0x3e43cfaa	0.19122186
59	0x3f73087c	0.9493482
60	0xbf309dba	-0.6899067
61	0xbfc63ba1	-1.5486947
62	0x3ed9d71d	0.4254693
63	0xbfced534	-1.6158814
64	0xbf426c7d	-0.7594679
65	0xbf8ba7a2	-1.0910532
66	0xbf72bb9c	-0.9481752
67	0x3ef51414	0.4786688
68	0x3f5d6ba6	0.86492383
69	0xbfadb629	-1.3571216
70	0x3f88fef1	1.0702802
71	0x3f2a048b	0.6641318
72	0xbfa89e92	-1.3173392
73	0xbf7d21da	-0.9887978
74	0x3e99c778	0.30034995
75	0xbf83d2b6	-1.0298679
76	0x3e68e071	0.22741868
77	0xbfa68a69	-1.301099
78	0x3ebb7324	0.36611283
79	0x3eff4293	0.4985548
80	0x3f800501	1.0001527
81	0x3e2e5a65	0.1702667
82	0x3f890edc	1.070766
83	0x3ebb59af	0.3659186
84	0xbfb4afdc	-1.4116168
85	0x3e91fc1c	0.28512657
86	0xbf8db40f	-1.1070575
87	0x3f72baef	0.9481649
88	0x3f866d09	1.0502025
89	0x3e5011b8	0.20319259
90	0xbf554510	-0.83308506
91	0x3f121d33	0.57075804
92	0x3f1f41c2	0.62209713
93	0xbfda4fe1	-1.7055627
94	0x3ed90483	0.42386255
95	0xbf8e1af6	-1.1101978
96	0x3ef3345d	0.47500888
97	0x3f50b315	0.8152326
98	0x3f090f0c	0.53538585
99	0xbf895fbf	-1.0732344
100	0xbfd2be01	-1.6464235
101	0x3f6e58b5	0.93104106
102	0xbe3b6d50	-0.18303418
103	0x3fb5a2fb	1.4190363
104	0xc0257bfe	-2.585693
105	0xbdf3220b	-0.118717276
106	0xbfe5308d	-1.7905442
107	0xbfa8f774	-1.3200517
108	0xbfb8cf0e	-1.4438188
109	0x3e7f96fd	0.24959941
110	0x3f2f81a3	0.68557185
111	0x3eba03ef	0.36331126
112	0xbf7a8817	-0.97863907
113	0x3f8655c1	1.049492
114	0xbe12c22b	-0.14331882
115	0xbf6052a4	-0.876261
116	0xbdd1ad7d	-0.102381684
117	0xbfa7898d	-1.3088852
118	0x3fc473f9	1.5347892
119	0x3faf51c0	1.3696823
120	0x3fcd8373	1.605574
121	0x3f92065d	1.1408192
122	0xbee2351a	-0.44181138
123	0xbfd25934	-1.6433473
124	0x3f18db14	0.59709287
125	0xbf5aa1ec	-0.85403323
126	0xbf6f5297	-0.934854
127	0xbfb7cd0c	-1.435945
128	0x3e9e0102	0.30860144
129	0xbf06ba21	-0.5262776
130	0x3ef53bd9	0.47897223
131	0x3ee2b174	0.4427601
132	0xbee958a8	-0.45575452
133	0x3f8233e4	1.0172086
134	0xbf695875	-0.911506
135	0x3fa11b66	1.2586486
136	0x3f8ef574	1.1168656
137	0xbfcf6cab	-1.6205038
138	0x3cc5c36d	0.024141038
139	0xc0054341	-2.0822299
140	0x3f447fc0	0.7675743
141	0xbf9167f3	-1.1359848
142	0xbf1d8395	-0.61528903
143	0xbf85111f	-1.039585
144	0x3e5a1c52	0.21299866
145	0x3fb09203	1.3794559
146	0x3ee24450	0.44192743
147	0xbee0cd4a	-0.43906623
148	0xbf6e89b7	-0.93178886
149	0xbeae98e2	-0.34101015
150	0xbf0cda66	-0.5502075
151	0xbf2df844	-0.6795695
152	0xbde7d57d	-0.113200165
153	0x3cbe9b95	0.023267547
154	0xbf24a2dd	-0.6431101
155	0x3f208274	0.62699056
156	0x3f1a9f91	0.6039973
157	0x3fe6d91a	1.8035004
158	0xbfd45547	-1.6588525
159	0xbfe323e9	-1.7745334
160	0xbf60afb8	-0.87768126
161	0xbfb2bb82	-1.3963473
162	0xbf8597ef	-1.0436991
163	0x3e94beac	0.2905172
164	0x3f4856ac	0.7825725
165	0x3e9279ea	0.28608638
166	0x3fd79e45	1.6845175
167	0xbece3ed5	-0.40282312
168	0xbe9d837b	-0.30764374
169	0x3db1089a	0.08644219
170	0x3f0b0349	0.5430189
171	0x3f92d892	1.1472342
172	0xbf151f31	-0.5825072
173	0xbfbb590f	-1.4636554
174	0xbfa59164	-1.2934995
175	0xbfb859ed	-1.4402443
176	0xbf81f3b7	-1.0152501
177	0x3edfc348	0.43703675
178	0x3cd7047f	0.026247261
179	0x3f4300d0	0.76173115
180	0x3f87b2d9	1.0601455
181	0x3f15af32	0.5847045
182	0x3f30f522	0.69124043
183	0x3f7c4c75	0.98554164
184	0x3ee163d8	0.44021487
185	0xbfaabb71	-1.3338453
186	0xc03c29f2	-2.9400601
187	0xbf552eff	-0.83274835
188	0xbf2481c0	-0.6426048
189	0x3f9b4662	1.2130854
190	0x3e28a7d9	0.16470279
191	0x3f91ebc1	1.1400071
192	0x3f50e3e1	0.81597716
193	0xbfbb264b	-1.4621061
194	0xbee81a94	-0.45332778
195	0x3e58725c	0.21137375
196	0xbf3e7078	-0.74390364
197	0xbfeef395	-1.8668085
198	0xbeaafe61	-0.333972
199	0xbfba88d4	-1.4573007
200	0x3e040838	0.1289376
201	0xbef8e355	-0.4861094
202	0xbf0f0e08	-0.55880785
203	0x3e67f8b2	0.22653463
204	0xbf5945a5	-0.84871894
205	0x3ed68e9d	0.4190568
206	0x3fbe8846	1.4885337
207	0x3db52a46	0.08845954
208	0xbfd2d969	-1.6472598
209	0xbec7f68b	-0.39055285
210	0xbc13fb72	-0.009032117
211	0x3f3782d4	0.71684
212	0x3fbaa8e2	1.4582789
213	0x3f8c7d69	1.0975772
214	0x3eb18c39	0.34677294
215	0x3d3a0b94	0.045421198
216	0xbf7fae7d	-0.99875623
217	0xbed6e643	-0.4197255
218	0xbe63c34e	-0.22242472
219	0xbf8e7de8	-1.1132174
220	0x3f0b2502	0.54353344
221	0x3d1f3100	0.03886509
222	0x3fa0eeb5	1.2572848
223	0xbf8058d4	-1.0027108
224	0xbf705dbc	-0.9389303
225	0x3ee784df	0.4521856
226	0x3f5ba387	0.857964
227	0xbe6748dc	-0.22586387
228	0x3ed35bc0	0.41280937
229	0x3f84b7cc	1.036859
230	0xbfdbf55b	-1.7184252
231	0x3f2f2ca1	0.68427473
232	0x3f81d5e5	1.01434
233	0xbf760f0a	-0.961167
234	0xbf7ea401	-0.99469
235	0xbf03c347	-0.51469845
236	0x3d35bc1c	0.04436885
237	0xbfe6448b	-1.7989668
238	0x3f0f0f37	0.5588259
239	0xbf0ce545	-0.5503734
240	0xbe0eb6ff	-0.13936995
241	0x3f961844	1.1726155
242	0xbe093333	-0.13398437
243	0x3f36d0e2	0.7141248
244	0xbf950060	-1.164074
245	0xbfc74e98	-1.557086
246	0x3fcba346	1.5909202
247	0x3f5e77bc	0.8690145
248	0x3eb00e28	0.343858
249	0xc00f9333	-2.2433593
250	0x3ebcace1	0.36850646
251	0x3f4da686	0.8033222
252	0x3d507504	0.050892845
253	0x3f03ce52	0.51486695
254	0xbf8df37d	-1.1089932
255	0x3f61a5f6	0.8814386

bn2.weight f4 [300]
0	0x3fce9484	1.6139073
1	0x3fc4e581	1.5382539
2	0x3fa320e7	1.2744416
3	0x3fc5d7da	1.5456498
4	0x3feb84d0	1.8399906
5	0x3fd0aa57	1.6301984
6	0x3fbd3b72	1.4783766
7	0x3fd5875f	1.6681937
8	0x3fccc25b	1.5996813
9	0x3e44ff0b	0.19237916
10	0x3fb9a667	1.4503907
11	0x3e6a46d0	0.22878575
12	0x3fb0353e	1.3766248
13	0x3e9daf3a	0.3079775
14	0x3ffc2812	1.9699728
15	0x3fbb4033	1.4628967
16	0x3ff3bcd4	1.9042001
17	0x3e2ea5ff	0.1705551
18	0x3fa73b10	1.30649
19	0x3fdecd21	1.740635
20	0x3e566048	0.20935166
21	0x3ff4556c	1.9088569
22	0x3fb49c2f	1.4110163
23	0x40141711	2.3139079
24	0x3fb867a6	1.4406631
25	0x3fe382ce	1.7774293
26	0x3fde165c	1.7350574
27	0x3fb6f37e	1.4293058
28	0x3fb7361f	1.4313391
29	0x3ff989a4	1.949513
30	0x3fe5c777	1.7951497
31	0x3fc830cf	1.5639895
32	0x3fb08d4e	1.3793123
33	0x3e7c80a0	0.24658442
34	0x3e6aff66	0.2294899
35	0x3fc6b1d1	1.5523015
36	0x3e81e81e	0.25372404
37	0x3fe90f7e	1.8207853
38	0x3fb19212	1.3872702
39	0x3fb23da0	1.3925056
40	0x3fce3c4c	1.6112151
41	0x3fd8a2c5	1.6924673
42	0x3fb75c01	1.4324952
43	0x400c10c7	2.188524
44	0x3faa0702	1.3283389
45	0x3e6e7bcd	0.23289414
46	0x3fa92630	1.3214779
47	0x3e6a2a7c	0.22867769
48	0x3fb4e000	1.4130859
49	0x3fad1678	1.3522482
50	0x3fb5a5e9	1.4191257
51	0x3ee59e5b	0.44847378
52	0x3fcc3567	1.5953797
53	0x3febaf80	1.8412933
54	0x3fd20b07	1.6409615
55	0x3e8d0825	0.27545276
56	0x3fce48a8	1.6115923
57	0x3fc7b0ad	1.5600792
58	0x3fbd31e1	1.4780847
59	0x3fc59537	1.5436162
60	0x3e82d148	0.25550294
61	0x3ffe15ee	1.9850442
62	0x3fde61c2	1.7373583
63	0x3fc52356	1.5401409
64	0x3eef8158	0.4677837
65	0x3e7c2dd6	0.2462686
66	0x3e4cdba8	0.20005667
67	0x3fa4b219	1.2866851
68	0x3fbf46ac	1.4943442
69	0x3fbfc883	1.4983066
70	0x3fdb1b79	1.7117759
71	0x3fb4d014	1.4126
72	0x3e800bc3	0.25008973
73	0x3e58eb9f	0.21183632
74	0x3fb35c29	1.40125
75	0x3e95fffc	0.29296863
76	0x3fa75952	1.3074133
77	0x400d463c	2.2074118
78	0x3fbbe1d9	1.4678298
79	0x3fc54cb0	1.5414028
80	0x3fba2fba	1.4545815
81	0x3fc66213	1.549868
82	0x3fdef95f	1.7419852
83	0x3fbb4deb	1.4633154
84	0x3e2bc456	0.16774115
85	0x3fc6b424	1.5523725
86	0x40105bea	2.25561
87	0x3fcf6a6c	1.6204352
88	0x3fcdb727	1.6071519
89	0x3fc77118	1.5581388
90	0x3fb758ad	1.4323937
91	0x3fbf904f	1.4965914
92	0x3fa65ed7	1.2997693
93	0x3e6dfa87	0.232401
94	0x3fc46ac2	1.534508
95	0x3fdf8b49	1.7464381
96	0x3fcb4968	1.5881777
97	0x3fbd1982	1.4773409
98	0x3fbe6753	1.4875282
99	0x3fab51f0	1.338438
100	0x3fa366c0	1.2765732
101	0x3fbdb191	1.4819814
102	0x3fce4d2c	1.6117301
103	0x3fcfee2b	1.6244558
104	0x3fd89c33	1.6922668
105	0x3fbb781a	1.4646027
106	0x3f7288be	0.947399
107	0x3e954c06	0.29159564
108	0x3fac360d	1.3453995
109	0x3fa6f1c2	1.3042529
110	0x3fcf0732	1.6174071
111	0x3f9cd0a3	1.2251171
112	0x3ff6781d	1.9255406
113	0x3fc4251b	1.5323824
114	0x3e4ff854	0.20309573
115	0x3e61e446	0.22059736
116	0x3fa716f3	1.3053879
117	0x3e7ce570	0.24696898
118	0x3fb7c577	1.4357136
119	0x3fb85808	1.4401865
120	0x3fc59847	1.5437096
121	0x3fd0f383	1.6324314
122	0x3fcfd6dd	1.6237446
123	0x3e68f3f1	0.22749306
124	0x3fda0856	1.7033794
125	0x3e82bb7d	0.25533667
126	0x3e666cb8	0.2250241
127	0x401442d7	2.3165796
128	0x3fa9c04a	1.3261807
129	0x3fa36160	1.2764091
130	0x3fb1f47e	1.3902738
131	0x3fbf2d99	1.493579
132	0x3fca0bea	1.5784886
133	0x3fb6d1f2	1.428282
134	0x4001fee7	2.031183
135	0x3fc1c35b	1.5137743
136	0x3fd99750	1.6999302
137	0x3fd4159a	1.6569092
138	0x3fa56987	1.2922829
139	0x3ff1733c	1.8863292
140	0x3fc80986	1.5627906
141	0x3fb9d222	1.4517252
142	0x3e444876	0.19168267
143	0x3e565fc6	0.20934972
144	0x3fbe28b7	1.4856175
145	0x3fbfed23	1.4994243
146	0x3fae90de	1.363796
147	0x3e93b67a	0.28850156
148	0x4005cde4	2.0906916
149	0x3fc0ab59	1.5052291
150	0x40273ae2	2.612969
151	0x3fa592f7	1.2935475
152	0x3faaf1d8	1.3355055
153	0x3fb61b0a	1.4227002
154	0x3fd9f48b	1.7027754
155	0x3fba215f	1.4541434
156	0x3fc788b4	1.5588593
157	0x3fd3ddd7	1.6552075
158	0x3e3128f4	0.17300779
159	0x403fb970	2.9956932
160	0x3f569ee3	0.8383619
161	0x3e5c2ad8	0.21500719
162	0x3fcc5fd7	1.5966748
163	0x3fad89f1	1.3557721
164	0x3fc7ee72	1.5619643
165	0x3fc53a4c	1.5408416
166	0x3fb59e56	1.4188945
167	0x3e8e3b9b	0.2777985
168	0x3fd63d0d	1.6737381
169	0x3fba06c9	1.4533321
170	0x3fb0e73f	1.3820571
171	0x3fd84511	1.6896077
172	0x3f8053e5	1.0025603
173	0x3e5fb2bc	0.21845526
174	0x3e8410dc	0.25794113
175	0x3ea938e8	0.3305123
176	0x3e199c2a	0.15000978
177	0x3fd1bf29	1.6386462
178	0x3fcacc6e	1.5843637
179	0x3fa24912	1.2678549
180	0x3fafe728	1.3742418
181	0x3fb1cf71	1.3891431
182	0x3fa5d748	1.2956324
183	0x3fbf11e0	1.492733
184	0x3fcd8b7e	1.6058195
185	0x3e866ae5	0.2625343
186	0x400076a2	2.0072408
187	0x3e484563	0.19557719
188	0x3e90d094	0.28284132
189	0x3fac197a	1.3445275
190	0x3fcf2e8c	1.618608
191	0x3fd42f36	1.6576908
192	0x3fc652ec	1.5494056
193	0x3e8016db	0.25017437
194	0x3e90e7c7	0.28301832
195	0x3fc0cc42	1.5062335
196	0x3e4dda90	0.20102906
197	0x3e6da759	0.2320837
198	0x3fb03f43	1.3769306
199	0x3e939123	0.28821668
200	0x3fb54176	1.4160602
201	0x3fafe7eb	1.3742651
202	0x3fcb0ba4	1.5862927
203	0x3fadfccf	1.3592776
204	0x3ea5ee1a	0.3240822
205	0x3fb7d41a	1.4361603
206	0x3fca8926	1.5823104
207	0x3fc400db	1.5312761
208	0x3e89c267	0.2690613
209	0x3e1f7314	0.15571243
210	0x3fcc6dff	1.5971068
211	0x3fda5234	1.7056336
212	0x3fad3f60	1.3534966
213	0x3fc55e6c	1.541944
214	0x3fdca941	1.7239152
215	0x3fd067a4	1.6281629
216	0x3ffcd325	1.9751936
217	0x4016421e	2.3477855
218	0x3e791a77	0.24326502
219	0x40054ac1	2.0826876
220	0x3fbebf4a	1.4902127
221	0x3fcf1a7e	1.617996
222	0x3fd3fa38	1.6560736
223	0x3ff0ee90	1.8822803
224	0x3fe8f5ba	1.819999
225	0x3fcf3c63	1.6190304
226	0x3fa0cc9c	1.2562442
227	0x3fca89ab	1.5823263
228	0x3fc3646a	1.5265019
229	0x3fb7eb6e	1.4368722
230	0x3fd4fbd8	1.6639357
231	0x3fbda489	1.4815837
232	0x3fc19864	1.5124631
233	0x3e6ce8af	0.23135637
234	0x3e902505	0.28153244
235	0x3e4bf372	0.19917086
236	0x3fb945c3	1.4474415
237	0x3e129eab	0.1431834
238	0x3fbbee25	1.4682051
239	0x3fddc4e8	1.7325716
240	0x3fa2e1e2	1.2725184
241	0x3fa6c37b	1.3028406
242	0x3fb3800f	1.4023455
243	0x3fbea8f3	1.4895309
244	0x400c995e	2.1968608
245	0x3e802354	0.25026953
246	0x3fcd46b4	1.6037202
247	0x3fbf3cfb	1.4940485
248	0x3faf8b7a	1.371444
249	0x3e86c667	0.26323244
250	0x3fdd7a20	1.7302895
251	0x3ff0f7c2	1.882561
252	0x3fd87c3f	1.6912917
253	0x3fdc1b0f	1.7195758
254	0x3e6c2de0	0.23064375
255	0x3fb068fc	1.3782039
