weights/model_critic_target_57.pt (torch, 431175 bytes, 9 tensors)

l1.weight f4 [300, 42]
00000000: f53b b43e a4e0 833e 64f3 1a3e f0c6 bf3e
00000010: 76a4 4e3e 85e4 2b3c 79f1 613f 771b 0540
00000020: 06b9 1cbe e5c5 03c0 5bea c93e fdf2 a9bd
00000030: eb8a 443e b66b a3be e9da 6140 603c 81bf
00000040: d017 cbbf 640a df3e 044a 87bf 23f0 af3f
00000050: 9a70 733d 55a1 e9bd 21d0 f9be 1dcd 5d3e
00000060: 731c 4b3e c66e afbf 35cd 1abe 4452 5e3f
00000070: 3c19 36bf 1d6d 293f f801 b2be 28cf d63c
00000080: b40f 86c0 3d41 f1bf 1736 4d3e 165a 1240
00000090: 1f68 b3bf f2a1 a7be 4bd9 32bf f6fd 263f
000000a0: 8992 b63d 0c83 283f 972e 5b3e fff7 2b3d
000000b0: 4ff6 7a3e 7289 d1be 8121 643d e8d8 b73d
000000c0: e609 60be 8b7c 80bf 77d0 e1be d823 753e
000000d0: 4821 8d3d 25b2 babd d46b c53d a367 1fbe
000000e0: db15 0c3f 7c5d f7be 2538 2d3f a6fe f93f
000000f0: c97b 48bf e924 97bf 9a59 afbd 6bdc fb3e
00000100: 3d08 b9be 4faa 843c 6fdc 253e 31f2 4d3e
00000110: e939 6f3e b152 9a3f 8cb7 333b c93a ed3e
00000120: 5dac 58bf 3597 87bf 651c e840 1d28 a7bf
00000130: 5f6c 483d d7c5 67c0 b1a5 5940 e992 993f
00000140: a55c 473f d4bc 27bf 14ef 8bbe ff77 113e
00000150: b1ed c13e 320d 27bd afa3 4b3e cadd 5a3e
00000160: d888 ae3e 0d17 9c3d abbe f53e 5ea0 febe
00000170: a87e 63be a29e 6cbf 9652 bc3e b54b 33bd
00000180: 71d0 f63e d877 05bf 9eaf 42bf e419 0bbf
00000190: c68c 4cbf 14f9 373e 481f 74be e066 933f
000001a0: f310 cebd a9e5 ce3c d931 20bf c428 8c3e
000001b0: d0c9 9a3e d077 d8bf dcc7 f7be 6c2c cebf
000001c0: f4ef cabe 6d8c a6bf f909 c93e c15c e03e
000001d0: e0d1 a9c0 016b 8340 c878 9a3e 5169 d53f
000001e0: a63a f4be 1f92 1abe 7884 72be 60cc 623f
000001f0: 6df9 b5bf 3400 8a3e cb5a cf3e de70 12bd
00000200: f5d3 103e 38ee 273e 71d4 c13e 116d 753d
00000210: 2df7 033f cc3f 12bf 39dd 66be b702 72bf
00000220: 4ddd c33e d022 953d 0d77 fc3e d857 0abf
00000230: e4cb 31bf 6fdf 16bf 9a27 45bf c6c7 173e
00000240: 678f 89be ed93 983f c625 5abc e385 323d
00000250: b6ce 17bf 4e6d 863e 83cb 9c3e 3cd1 d6bf
00000260: e610 d8be c50c c8bf 9f7d e4be 5f50 a9bf
00000270: d6fc b93e b2d0 073f 2977 adc0 1d8f 8740
00000280: 84a8 833e e90a d33f c2b4 dcbe 206d 0ebe
00000290: f386 6bbe 121a 583f 838a babf 9ebd 753e
000002a0: 4588 b03e 99be bf3e d3f8 dc3e e43e 883f
000002b0: ba51 3e3e 68fa 18be c0b3 4d3f dd14 953e
000002c0: c217 a63c b007 e73d 3d53 673e 6ed1 2dbf
000002d0: 6609 f73d 71ae 983b 688a 503e 2c20 b9bf
000002e0: 0ade 2040 4aa6 82be b089 93bf 3734 a9bf
000002f0: 9332 2bc0 8a79 cf3f 54e2 993f f33b c63d
00000300: bb13 3a3e 67c8 2b3f c8fa 953f d4f0 afbe
00000310: 8eca dcbe 6c32 3d3f 151c b2be fb55 c5bd
00000320: 04b7 c7bf d011 3bc0 2e9d 023e 265b 45bf
00000330: 8c8e 04c0 b29b cf3e 2e44 3fbf 350f 0c40
00000340: 07e0 2240 2b73 4b3c 52a3 ae3e cd43 96bd
00000350: 08dd 1d3e 59c1 203e ffc8 b83e 8861 8b3d
00000360: 52af f13e def3 f1be e01c 59be 0630 72bf
00000370: 0fdb e33e b3da b33d 202b 0f3f 216f 07bf
00000380: b9d2 46bf f5ef 26bf 11db 5abf efc3 5d3e
00000390: 5124 8ebe 992a 9f3f 7640 36bd a7b3 eabb
000003a0: 778e 16bf 8efd 883e bc9d b83e 7059 d7bf
000003b0: eb67 dbbe cf90 c7bf 1c76 eebe de2e a1bf
000003c0: 1fce bb3e 60aa ea3e cf2f adc0 8208 8240
000003d0: f940 673e c824 ce3f cb99 d9be 109d 13be
000003e0: 1469 7bbe 8288 4b3f 8120 babf 6db1 853e
000003f0: 76b9 0e3e d66a 633f 25f5 ab3e 2818 203e
0.35201994 0.25757325 0.15131909 0.37456465 0.20179924 0.010491495 0.88259083 2.0798013
-0.15304956 -2.0589535 0.39436612 -0.082982995 0.19193618 -0.31918114 3.5289862 -1.009655
-1.5866642 0.43562615 -1.0569463 1.3745159 0.059433557 -0.11407725 -0.48791602 0.21660276
0.19835071 -1.370568 -0.15117343 0.8684428 -0.71132255 0.6618212 -0.34767127 0.026221827
-4.189417 -1.8848034 0.20040165 2.2867484 -1.401615 -0.32740742 -0.6986281 0.65231264
0.08914668 0.6582496 0.21404491 0.041984554 0.24508022 -0.40925175 0.055696014 0.089769185
-0.21878776 -1.0038007 -0.4410436 0.23939455 0.068911135 -0.091160096 0.09639707 -0.15566878
0.5472085 -0.4831351 0.67663795 1.9530838 -0.7831388 -1.1808139 -0.08562012 0.49191603
-0.36139098 0.01619449 0.1619737 0.2011192 0.23361935 1.2056485 0.0027422635 0.46333912
-0.84638005 -1.059302 7.253466 -1.3059117 0.048931476 -3.6214502 3.400738 1.1997958
0.7787574 -0.65522504 -0.2733084 0.14205931 0.37876657 -0.04078407 0.19886659 0.21373668
0.34088778 0.07621584 0.4799703 -0.49731725 -0.22216284 -0.92429554 0.36781758 -0.04377337
0.48205903 -0.5213599 -0.7604922 -0.5433638 -0.79902303 0.1796611 -0.23840058 1.151577
-0.100618266 0.025255995 -0.6257606 0.27374852 0.30232096 -1.6911564 -0.48394668 -1.6107306
-0.39636195 -1.3011605 0.3926542 0.43820766 -5.3068695 4.106812 0.30170274 1.6672765
-0.47700995 -0.15094803 -0.23683345 0.885931 -1.4216744 0.2695328 0.40498957 -0.03575217
0.14143355 0.16399467 0.37857392 0.059918467 0.51549035 -0.57128596 -0.22545327 -0.9453539
0.38254777 0.072820306 0.4930958 -0.5404029 -0.6945174 -0.5893468 -0.7701355 0.14822301
-0.2686722 1.1920143 -0.01331467 0.043584716 -0.5929979 0.26255268 0.30624017 -1.6782603
-0.42200392 -1.5628897 -0.4462709 -1.3227652 0.3632571 0.5305282 -5.420796 4.23622
0.25714505 1.6487705 -0.43106657 -0.13908815 -0.23000698 0.8441478 -1.457352 0.23998114
0.34478965 0.37450102 0.43158588 1.0644193 0.18585864 -0.14939272 0.803524 0.2911748
0.020275 0.11280763 0.22590347 -0.6789769 0.120623395 0.004659467 0.20365298 -1.4462943
2.5135522 -0.25517493 -1.1526394 -1.321906 -2.6749618 1.6208966 1.2022195 0.09679403
0.18171589 0.67102665 1.1717157 -0.34363425 -0.43123287 0.7390506 -0.3478705 -0.0963554
-1.5602727 -2.9229622 0.12755272 -0.77092206 -2.0712004 0.40548474 -0.7471341 2.1884282
2.5449235 0.012417595 0.3410898 -0.07337151 0.15416348 0.15698756 0.36090848 0.06805712
0.4720407 -0.47256368 -0.21202421 -0.9460453 0.44503066 0.08781948 0.5592518 -0.52903944
-0.7766529 -0.65209895 -0.8549052 0.21656774 -0.27762082 1.2434875 -0.04449507 -0.0071625295
-0.58811134 0.26755947 0.36057842 -1.6824169 -0.4285272 -1.5591067 -0.46574485 -1.2592428
0.36680695 0.4583311 -5.412086 4.0635386 0.22583379 1.6104975 -0.42500147 -0.14415383
-0.24551803 0.7950517 -1.454117 0.26111928 0.13937935 0.88834894 0.33585468 0.15634215

l1.bias f4 [300]
00000000: 2d70 7d3e 2446 c8bd 85e0 c93d 14e5 d83d
00000010: 2328 de3d ea90 343e 452f 2fbd 4c5a 3d3e
00000020: 670e 513e 17e7 0c3e 390c b83d bb79 443d
00000030: 2a67 cc3d dcea 013f 070a 7c3d 607b c93c
00000040: 07d7 e33e d667 ed3c 54d7 893d e35f 2b3c
00000050: 149d 323c c435 9d3e 3b1e 823d dfef 523e
00000060: 0ba0 fd3d 136d 8e3e 1393 933e 4856 8cbd
00000070: 5856 843d 5288 643d e247 813e 9100 c53d
00000080: f392 b03d 83d6 8f3e fa33 17be f815 a23d
00000090: f76c a43d 7174 f23d a2ca b23e 7859 f73d
000000a0: ebf1 2b3e 5100 223e 510b 3b3e 10d1 26bd
000000b0: 5b85 773e 9038 cb3e ba7b 7b3e 2467 003e
000000c0: a8cc 4d3e 616e 013e f80e 0e3d d2dc a63e
000000d0: d22e b43d f1a6 f43d fb9f 923e 8001 cf3e
000000e0: c817 173e f741 91bd 9989 d3bb a649 853e
000000f0: db1e 3b3e 07c1 fe3c 22b3 013e a508 553b
00000100: 7291 c13d 1481 7c3e 528f 593e d06c 0e3e
00000110: 5660 a33e e159 753e 74ff 373e f0ed 923e
00000120: 1b1c d93c b6f8 273e 05f1 3a3e 3f58 163e
00000130: 15f3 773e 7a7a 723e c639 fd3d e72a abba
00000140: 600d af3e b300 9b3e 0b7b 123e 95d4 ff3d
00000150: 1a12 713e ab74 903a 709b 1b3e ff18 c43d
00000160: 5dac d83d d3c5 ab3d 19e5 fd3e cff1 123e
00000170: d4dd e53d 5151 823e 7fc3 6f3e 99cf 023e
00000180: ca35 053e b612 493e 0fc7 473e e9a5 553e
00000190: 1b95 853e 23c1 c33e 1d39 3ebb e552 623e
000001a0: c7da 1c3d 58c2 8a3e 8f7d 473e c2bb ee3d
000001b0: 22ed 493e 2adc bb3d 83ec 593e 8030 213e
000001c0: a0b4 593d 7114 933e c9e9 923e 96e3 4a3e
000001d0: 5371 c23d 27f5 3a3e ae5a a73e 2d10 063f
000001e0: 9bbb 893e 6e34 033e 155e 963e 9506 363e
000001f0: 6200 093e 9033 2d3d 11e3 ed3c c349 f33d
00000200: 7ef9 da3d b8de 4d3e 766a b43e 022d 053c
00000210: 46d6 313e 0ad0 fc3d 8471 a33e 9da4 f43e
00000220: 4d4e 313e e42f c43e 4922 eb3d acc4 e33d
00000230: 4aeb 4f3e ce5a 203e 9c24 8f3e 95e5 9c3c
00000240: 2865 8c3e dab2 a13e 55ce cfbd 9b73 2b3f
00000250: e947 4d3e fec6 5b3e e962 323e 827c f53c
00000260: a303 613e 3eef b33d 7196 733e 9ca5 473e
00000270: 3121 d03e 196a 1a3e 9136 4f3d 3222 963e
00000280: 67c0 783e 1e50 ae3e 5a4b 3f3e d3a1 ef3d
00000290: 2fe8 213e 6903 463e d9aa 513d 389a d73d
000002a0: ca6d 403c 2071 94bd 3d2c fabd 291c f53d
000002b0: 211e b43e 396c b93e df8a 0a3e df01 0d3e
000002c0: 10c5 a23e 6714 8e3e 48d6 563e 26a7 b73e
000002d0: de63 1c3e fa09 453e 5d10 5a3e f8c9 8a3e
000002e0: 1340 223e 1cb8 573e 97a7 823e b1bb 2a3e
000002f0: 5dfd 983e fa30 4f3e 82c1 2e3e 93b4 bf3d
00000300: 5aab 393e 27cc 673e 8062 bc3d b99c 193e
00000310: ad76 763e 5d87 2bbc 2e3a b93d 5546 9a3a
00000320: b595 073e 386a cebd 6901 1b3d 2fa7 343e
00000330: 87b9 e33d 1a15 f13d dd51 743e b1bd ea3c
00000340: cc05 843e 29b9 d73d e551 233e 7ef7 c43c
00000350: 22d8 133e 1d59 663e 15e5 153e 0a15 b83e
00000360: 78ad c53e 2aa1 ac3e e854 fe3d 363e 3f3e
00000370: 0c63 743e e989 3f3d ac84 933c a148 68be
00000380: 4a79 f23d 3254 41bd 1c32 413d 5282 d43d
00000390: 4839 573e c27e b93d f740 8b3e bcee d03d
000003a0: e558 49bd 9e12 863e 6622 6e3b a840 4d3e
000003b0: 69c5 2e3d d636 3e3e 7f31 d73e f425 5d3e
000003c0: a66c 873e afb7 e53d ff5c 093e ad94 903e
000003d0: ae26 1b3c 64c3 be3d 131c d83e e3ed 3e3e
000003e0: bb02 803d 232d ef3d cd16 293e 2300 683c
000003f0: a88f 1c3e 92b5 063d 193a 3f3d 7ee8 a23e
0.24749823 -0.09779003 0.09857277 0.10590568 0.10847499 0.17633405 -0.04276969 0.18491477
0.2041565 0.13760029 0.08986706 0.047967654 0.099806145 0.5074899 0.061533 0.024594963
0.4449999 0.028980177 0.06730524 0.010459873 0.010901708 0.30705082 0.06353422 0.20599316
0.123840414 0.27817592 0.28823146 -0.06852394 0.06461781 0.055794068 0.25250155 0.09619249
0.08621778 0.28093347 -0.14765921 0.079143465 0.08028596 0.11838616 0.34920222 0.12077612
0.16791503 0.15820433 0.18266036 -0.04072672 0.24171965 0.3969159 0.24558917 0.12539345
0.20097601 0.12639762 0.034682244 0.32590348 0.08797993 0.11945904 0.2863768 0.40430832
0.14755166 -0.0709266 -0.006455612 0.26032752 0.18273489 0.031097902 0.1266599 0.0032506373
0.094515696 0.24658614 0.21246079 0.13908696 0.31909436 0.23960067 0.17968541 0.28697157
0.02650266 0.1640347 0.18256004 0.146821 0.24213822 0.23679534 0.12364535 -0.001305905
0.34189892 0.3027397 0.1430475 0.12491719 0.23542061 0.0011021098 0.15196013 0.0957508
0.10579751 0.08387341 0.4958885 0.14350055 0.11223951 0.25452664 0.2341442 0.12774505
0.130088 0.19636044 0.19509529 0.20864071 0.2609032 0.3823329 -0.0029025741 0.22101934
0.03829458 0.27101398 0.1948149 0.11656906 0.19719365 0.09172852 0.21281628 0.15741158
0.053150773 0.28726533 0.2869399 0.1981338 0.09494271 0.1825758 0.3268637 0.5236843
0.26900944 0.12812969 0.29368654 0.17775948 0.13379052 0.042285502 0.029038938 0.11879303
0.10692118 0.20104492 0.35237473 0.0081284065 0.17366895 0.12344368 0.31922543 0.4778184
0.17315026 0.38317788 0.11481149 0.111214966 0.203046 0.15659639 0.27957618 0.019152442
0.27420926 0.31581765 -0.101467766 0.66973275 0.20046963 0.21462628 0.17420544 0.029966597
0.21974044 0.08785866 0.23787858 0.19496769 0.40650323 0.15079536 0.050589148 0.29322964
0.24292146 0.340455 0.18681088 0.117007874 0.15811227 0.19337238 0.051188324 0.10527462
0.011744926 -0.072481394 -0.12215469 0.11968262 0.35179237 0.3621538 0.13529538 0.13770245
0.31790972 0.2774994 0.2098018 0.35869712 0.15272471 0.19242087 0.21295305 0.27107215
0.15844755 0.21066326 0.25518486 0.16673161 0.298808 0.20233527 0.17066005 0.09360614
0.18131772 0.22636472 0.09198475 0.15001191 0.24068709 -0.010469285 0.090443 0.0011770228
0.13240702 -0.10078853 0.03784314 0.176419 0.11119371 0.11771603 0.23859353 0.028654905
0.25785673 0.10533363 0.15949209 0.024043795 0.14437917 0.22494932 0.14638169 0.35953552
0.3860891 0.33716708 0.12418538 0.18676075 0.23865908 0.04676238 0.018007599 -0.22683956
0.1183954 -0.047199436 0.04716693 0.10376419 0.21017945 0.0905738 0.27198002 0.10201785
-0.049157042 0.2618608 0.003633642 0.20044196 0.042668734 0.18575606 0.4202995 0.21596509
0.2645008 0.112166755 0.13414381 0.2823843 0.009469671 0.093146116 0.4220892 0.18645434
0.06250521 0.11678531 0.16512604 0.014160189 0.15289176 0.032888003 0.046686266 0.31818002

bn1.weight f4 [300]
00000000: 2c53 9a3f 7e8d 9d3f 68bf c03e 5079 c43e
00000010: 64e8 d43f 657c 953e 8d51 e13f c7f6 b03e
00000020: 407f 493e dea6 ac3e 97e8 f13f 941a d73f
00000030: cf56 423f d063 fa3f 699c c83f d002 c83f
00000040: 3db4 4240 c544 3d3f 83fd be3f 2c06 993f
00000050: 57a0 b83f a26f 183f 0f67 903f 1df0 5c3f
00000060: d277 4d3f a37b 3940 08d4 983f ee17 1c40
00000070: 29f8 dc3f c416 9f3f 2da3 bd3f 5746 bd3e
00000080: b099 cf3f 8eca 913f 0e75 803f a32f fd3f
00000090: b431 0140 bd61 9e3e fbc5 e33f 3b30 1040
000000a0: 8d2b 2a40 5093 a83f 2202 a73f 7bb5 f33f
000000b0: 12d7 813f bdd8 df3f 8ff7 b03e d781 b13e
000000c0: baaa 1040 8632 a63e d5c1 1240 e940 0940
000000d0: 4f5d 2140 ad96 ce3f 7ae9 e73f 6cae e53f
000000e0: a0d1 c13e 5644 9d3f 0949 803f 4e0b 2640
000000f0: 9e82 c23f 2d34 833f 56d8 ad3e d800 7c3f
00000100: ac79 5c3f e543 983f e3fc 713e 5be1 293f
00000110: 4819 a53f 5831 4b3f e23a ab3f ee29 a63e
00000120: 2c88 663f 39c7 0e40 37a1 be3e 333b 1e40
00000130: 1a89 8a3f a60d 953f 0691 a93e 4670 a13f
00000140: ddf7 983f 1813 fd3f 62c7 2340 af53 b73e
00000150: c05f c83e df5b 0940 0f25 b83e ceef aa3e
00000160: 1e41 ee3f 07a6 b23e a082 7240 8974 843f
00000170: acc9 533f 3704 b93f 0887 fc3f 5be4 5340
00000180: c755 a73f cc28 b93f ec53 863e 9f05 b13e
00000190: 0c3b ff3f d6f6 1640 3b21 1740 1d84 ae3f
000001a0: 777d d13f 9a10 0440 b313 0040 bfb1 b23e
000001b0: 3f9a 983f bf7b bb3e fafc 953f a744 b03e
000001c0: 9a88 1a40 82ff 6f3e d6dd 9e3f f7fd ba3e
000001d0: 64ce e03f e09c d03f 7093 833f 4e58 6f40
000001e0: e3df bf3f 0550 9f3e 33dd 1c40 3cc7 8b3e
000001f0: 670c b03e 90f4 893f edac 653f 0e2d 9e3f
00000200: bda6 9f3e 9fe8 b93e 6e74 2a40 920f 9f3f
00000210: 6dca 9e3e e72c b53e 0852 c03e f842 1b40
00000220: f765 3140 9d76 df3f 5f01 b93e 1518 1a40
00000230: 3935 1340 3e6f a23e 93e3 9f3f b4b5 8e3f
00000240: 5067 1e40 5364 a43f 61c9 803f 6487 6b40
00000250: 3050 3140 975f ad3f f037 c53e b846 613f
00000260: d804 b33f 6f3c 1f40 c160 0840 6e38 ae3e
00000270: f32f 0040 afe2 b43e 798e b03f 240d 553f
00000280: e897 de3f 8047 803f 11c7 dd3f 1719 b73e
00000290: 8f0e 3040 f6d2 a43e e5a6 b93f dfe0 b33e
000002a0: a584 783f 0c63 b43f 5bdd a53f a79e e73f
000002b0: 5c8e c03f ce93 2440 77d3 1140 95eb 963e
000002c0: 7fbd 5d3f e0e8 ee3f 4c48 e43f c932 db3f
000002d0: e522 2f3f e54f e53f 06f4 0340 cbcb c43f
000002e0: fc0a 883e 7748 b93e 2e65 963f 79f2 573e
000002f0: 06f6 ad3e 8609 b43f 39c8 6b3f 4d05 933f
00000300: 3338 d73f 9f38 b53e 47d2 ab3f 1c9a 3040
00000310: 4a6e 0940 2181 f93f 8fe7 bb3e 05a5 b23f
00000320: 56ca a73e 0776 f43f 4e42 b13f bf30 c73f
00000330: 3e57 a63e d4ee 8a3e b7c7 c33f 4b1b 2040
00000340: d8dc f13f 6568 903e 8329 ff3f f392 993f
00000350: c722 b23e f988 8d3f 8612 b73f d7e7 b93e
00000360: 04c4 453f 3300 c03f d53d 9b3e 1b8a b33f
00000370: 2862 d33f 9962 e23f 5325 2340 81e0 ce3f
00000380: c5b5 d73f b131 ee3f 5a4a ec3f 0692 ad3e
00000390: 3ed8 2c40 5f72 0040 1eea 2240 5e24 af3e
000003a0: 54e9 633f 37b8 cd3f 462b e33f ea87 a03f
000003b0: 01b1 ba3f 7be5 db3f 2d2c 0940 1f78 b93e
000003c0: def7 ab3e fe5c a43e 5002 c33e 83eb f03f
000003d0: 592e 893f c9a7 1840 cf60 753f 981a 9a3f
000003e0: b793 fa3f 5dd5 f33f 92cb f23f f400 b93f
000003f0: 86ea 8c3f d08e 1940 5051 0240 a842 c13e
1.2056632 1.2308805 0.3764603 0.38373804 1.663342 0.29196468 1.7603012 0.34563276
0.19677448 0.3372106 1.8899106 1.6804986 0.7591371 1.956171 1.5672733 1.5625858
3.0422509 0.7393306 1.4921116 1.1955009 1.4423932 0.5954534 1.1281451 0.86303884
0.80260956 2.8981712 1.1939707 2.4389606 1.7263232 1.2428823 1.4815422 0.36967728
1.6218777 1.138994 1.0035722 1.9780163 2.0186586 0.30933943 1.7794794 2.2529438
2.6589081 1.3169956 1.3047526 1.9039758 1.0143759 1.7488018 0.34563872 0.34669372
2.2604203 0.3246042 2.2930806 2.1445868 2.52132 1.6139733 1.8118126 1.7943854
0.37855244 1.228648 1.0022289 2.59444 1.5196111 1.0250298 0.33954114 0.9843879
0.86123157 1.189572 0.23631625 0.6635949 1.289834 0.7937217 1.3377345 0.32453865
0.9005153 2.2309096 0.37232372 2.4723632 1.082309 1.164479 0.33118457 1.2612388
1.1950642 1.9771452 2.5590444 0.35806033 0.3913555 2.1462324 0.35965773 0.3338608
1.8613622 0.34892294 3.7892227 1.0348064 0.827296 1.4454411 1.9728708 3.3108127
1.3073052 1.4465575 0.26235902 0.345746 1.9939895 2.3588157 2.3614032 1.3634068
1.6366414 2.0635133 2.0012023 0.34901235 1.1922072 0.36617848 1.1717827 0.34427378
2.4145875 0.23437312 1.2411449 0.36521885 1.7562985 1.6297874 1.0279369 3.7397647
1.49902 0.31115738 2.451001 0.2730044 0.34384462 1.077776 0.8971699 1.23575
0.311819 0.36310288 2.6633563 1.2426627 0.31013814 0.3538582 0.37562585 2.4259624
2.7718484 1.7458073 0.3613386 2.4077199 2.3001235 0.31725496 1.2491325 1.1149201
2.4750557 1.2843117 1.0061456 3.6801386 2.7705193 1.3544797 0.3851924 0.87998533
1.3985853 2.4880636 2.1309054 0.34027427 2.0029266 0.35329196 1.3793479 0.83223176
1.7390108 1.002182 1.7326375 0.3576133 2.7508886 0.321922 1.4504057 0.351325
0.970774 1.4092727 1.2958177 1.8095292 1.5043445 2.5715213 2.2785318 0.2947661
0.86617273 1.8664818 1.7834563 1.7124873 0.6841262 1.7915007 2.061769 1.5374693
0.2657088 0.361881 1.1749628 0.2108859 0.33976763 1.4065406 0.9210239 1.1485993
1.6814026 0.3539476 1.3423547 2.759406 2.1473565 1.9492532 0.36700103 1.395661
0.32771558 1.9098519 1.384836 1.5561751 0.32488436 0.27135336 1.5295323 2.5016658
1.8895521 0.28204647 1.9934543 1.199797 0.34792158 1.1057426 1.4302528 0.36309692
0.7725222 1.5000061 0.30320612 1.4026521 1.651433 1.768634 2.549153 1.6162263
1.6852347 1.8608915 1.846019 0.3390047 2.7006984 2.0069807 2.5455394 0.34207433
0.89027905 1.6071843 1.7747581 1.2541478 1.4585267 1.7179407 2.1433213 0.36224458
0.33587545 0.32102197 0.38087702 1.8821872 1.0717269 2.3852408 0.95850843 1.2039366
1.9576329 1.9049488 1.8968375 1.4453416 1.1009071 2.3993416 2.036213 0.37746167

bn1.bias f4 [300]
00000000: 191d 04bf f9a8 0dbe c700 27bf c617 1fbf
00000010: 1bc8 90be 1edb 1cbf 6582 3abe de8f 1bbf
00000020: 9837 34bf 7090 30bf 7cd2 2cbe 6c6c bebe
00000030: a1e2 38bf 27bc 233d 78b0 5bbe 3292 42bf
00000040: 959f 1f3f fa31 c4be dde3 c1be 1039 8bbe
00000050: 0589 60bf a9b4 aebe b1f8 61bf 18b4 97be
00000060: 5b82 b7be 9482 763d 9d32 96be 6021 59be
00000070: a2b8 9dbe d8c6 08bf 5e59 1ebe 5e00 1cbf
00000080: b31f e8be a6ed 9ebe 1c4b 86bf da8f 20be
00000090: aa8f 47bf 474b 25bf f9c1 ecbe 3ff5 bb3d
000000a0: a543 c2be acb6 5bbf 101d d8bc 1ad1 4abf
000000b0: c8ba 50be cede 41bf 7677 14bf ce1c 17bf
000000c0: 4bf4 6e3e 0ec5 15bf 6c2a 95be b260 453f
000000d0: 179f 10bf 3d44 133e c17e 35bc c9e7 0cbf
000000e0: 0e4e 14bf 0ec3 23be daf9 a93d b57d e23e
000000f0: 79bf 16bf c964 04bf 5644 1cbf 25b8 f6be
00000100: ce11 8cbe b69b 82be cf7e 28bf 07c9 2cbf
00000110: 9085 1bbf 5317 e9be 158c 9cbe 8d6a 09bf
00000120: 97b2 c6bd 3027 a63d 06c6 1cbf bfab 1dbe
00000130: 1457 99be 2bfa 21bd 2799 24bf 6d09 6cbe
00000140: a33f 49bf 397e bf3d 171c 31bf 8e03 16bf
00000150: dfb6 21bf 4e8c 19bf cf7d 24bf d66e 17bf
00000160: ce6f dbbe 1ef9 17bf 260e 4c3f c8b7 96be
00000170: ca8d 07bf ec53 85bd 82a6 b8bd ecfd a03e
00000180: 7a0a 30bf 7afe d8be e6a9 1cbf 45cf 0fbf
00000190: c8f7 32bf 14f4 2ebe 08bb b1be f8e6 96bf
000001a0: 64f9 c3be 53e5 08bf a5d3 71bf 5656 19bf
000001b0: fcc4 3bbf bef0 1bbf 6431 14bf 1573 0fbf
000001c0: 5372 a1be 74a2 f8be 45c0 063d 4e3d 1cbf
000001d0: 984a 3cbf 3277 b2be 81a2 f6be 1737 423e
000001e0: 7ada 54bf 0f84 24bf 061b b0bd 4870 3cbf
000001f0: 367f 1abf 9932 1fbf 5ea1 83bf a6b5 4abe
00000200: eec9 1cbf 37bf 20bf ef81 5f3f 7993 82bf
00000210: 1f66 23bf 16a0 14bf 7e78 15bf 74b5 973e
00000220: 8f08 c73e 6141 20bd 1f91 20bf 7934 07bf
00000230: 9329 02bf d6b8 13bf 8408 96be 856c 99bf
00000240: 4257 62be 8710 48be 536e 41bf f263 913f
00000250: e21e 53bf 089c 29bf 96d4 1ebf c4b8 2abf
00000260: eee5 a0be 8770 85be fb4e 32bf 2eaf 15bf
00000270: 607d 25bd 4e4a 1ebf 65d3 d5bb 9754 afbe
00000280: d485 c0be 09b7 4fbf a666 2bbf ced0 12bf
00000290: c8e6 23be 6dfd 09bf be4a 82bf 769c 12bf
000002a0: b149 78bf 8892 a5be 8635 2bbf 51ab b3be
000002b0: f47b ed3e b269 50be 8842 d43d 8d00 0abf
000002c0: 2812 d8be 7c57 b1be 744a 95be ad11 90be
000002d0: 1de1 73be 4c57 cbbe 4937 c1be 5bcf 913e
000002e0: 3faa 2dbf 8e56 1dbf 52c1 2c3e 8fbe 2dbf
000002f0: e67d 1bbf 4549 27be a42f 4dbe 34ae 77be
00000300: b0cb febe 1e3d 15bf 068e 83bd 6c49 5d3e
00000310: e627 00be eced 42bf 5e36 13bf 50ca 58bf
00000320: be4c 15bf f57c 093e 4265 dfbe 44c4 513d
00000330: 9ec5 11bf 7f4f 20bf 1d15 60bf 9494 01be
00000340: 6f81 433d 1696 1ebf 95ac f8bd 9b91 7fbe
00000350: e798 23bf 14b7 1ebf 7a3c 15bf 4ea0 18bf
00000360: 8802 2ebe 5db0 eb3e c543 07bf 8834 09be
00000370: abab 7fbe d07a 8a3e fcee 0bbf 6adc 5dbf
00000380: 0ab7 dbbe 66f8 12be 2d66 3f3e 2e5a 1fbf
00000390: f1b3 763c 385b 18bf a99a b5be 1eae 17bf
000003a0: 2ce0 40bf 1b2d c63e 0369 c43d 6b22 83bf
000003b0: 3542 e0be 0b12 efbe 77c8 5c3e 4648 19bf
000003c0: b581 0bbf f640 1bbf 8f33 27bf a8a1 f3bc
000003d0: 3053 e3be 7d35 65be de56 99be 5bd2 abbf
000003e0: 265d a9be b079 febe 4802 b63b 0672 bdbe
000003f0: 2182 07bf ea71 21bf 646e afbe e7d0 22bf
-0.516069 -0.13833989 -0.6523556 -0.6214565 -0.28277668 -0.61271846 -0.18213804 -0.607664
-0.7039733 -0.68970394 -0.16877168 -0.37192094 -0.7222081 0.039974358 -0.21454036 -0.76004326
0.6235288 -0.3831938 -0.37869158 -0.27191973 -0.87709075 -0.34122208 -0.882701 -0.29629588
-0.3584164 0.060183123 -0.2933549 -0.21204138 -0.30804926 -0.5342841 -0.15463778 -0.6093806
-0.45336685 -0.31040686 -1.0491672 -0.15679875 -0.7795359 -0.6456799 -0.4624174 0.09177636
-0.37942234 -0.8582561 -0.026381046 -0.79225314 -0.20383751 -0.757306 -0.5799478 -0.5902833
0.23335378 -0.58503807 -0.29133928 0.7710067 -0.5649275 0.143815 -0.011077584 -0.55041176
-0.579316 -0.15992376 0.082996085 0.44236532 -0.58885914 -0.51716286 -0.6104177 -0.48187366
-0.27357334 -0.25509423 -0.65818495 -0.67494243 -0.60750675 -0.45525607 -0.30575624 -0.5367821
-0.09702032 0.08112943 -0.6123966 -0.15397547 -0.29949248 -0.03954522 -0.6429619 -0.2305047
-0.78612727 0.09350247 -0.69183487 -0.58599174 -0.63169664 -0.5997971 -0.6425447 -0.591535
-0.42858738 -0.593645 0.7970909 -0.2943709 -0.5295073 -0.065101475 -0.09016134 0.31443727
-0.68765986 -0.4238165 -0.61196744 -0.56175643 -0.69909334 -0.17085296 -0.34713006 -1.1789236
-0.38276207 -0.5347492 -0.9446357 -0.59897363 -0.7334745 -0.6091422 -0.57887864 -0.56034976
-0.31532535 -0.48561442 0.032898206 -0.61031044 -0.7355132 -0.34856564 -0.48170856 0.18966328
-0.8314587 -0.64264005 -0.08598904 -0.7360883 -0.6035036 -0.6218658 -1.028362 -0.19795856
-0.6124562 -0.6279177 0.8730764 -1.0201255 -0.638277 -0.5805677 -0.5838698 0.29630625
0.38873717 -0.03912485 -0.6272144 -0.5281444 -0.5084469 -0.5770391 -0.29303372 -1.1986243
-0.22103599 -0.19537555 -0.75558966 1.1358626 -0.82469 -0.6625371 -0.6204313 -0.6668818
-0.31425422 -0.26062414 -0.69651765 -0.5847043 -0.04040277 -0.6183213 -0.0065254443 -0.34244224
-0.37602103 -0.81138664 -0.66953504 -0.5734986 -0.16006005 -0.5390232 -1.017906 -0.5726999
-0.96987444 -0.32338357 -0.66878545 -0.35091642 0.4638363 -0.2035282 0.10364252 -0.5390709
-0.42201352 -0.34637058 -0.29158366 -0.28138486 -0.23816343 -0.3971504 -0.37737492 0.28478512
-0.678379 -0.61460197 0.16870621 -0.67868894 -0.6073898 -0.16336544 -0.20037705 -0.24187547
-0.49764776 -0.5829638 -0.06423573 0.2161004 -0.1251522 -0.7614429 -0.5750483 -0.84683704
-0.58320224 0.13426574 -0.4363194 0.051212564 -0.56942165 -0.626213 -0.87532216 -0.12654334
0.04773086 -0.6194776 -0.121422924 -0.24957888 -0.63905185 -0.61998105 -0.58295405 -0.59619606
-0.16993153 0.46032992 -0.52837783 -0.13398945 -0.2496783 0.27046824 -0.54661536 -0.8666445
-0.42913085 -0.14352569 0.1869132 -0.6224698 0.01505755 -0.5951419 -0.3546956 -0.59250057
-0.7534206 0.38706288 0.09590342 -1.0244879 -0.43800512 -0.46693453 0.21560846 -0.59875906
-0.5449479 -0.60646 -0.6531305 -0.02974017 -0.44399405 -0.22383685 -0.29949087 -1.342357
-0.3307888 -0.49702215 0.005554471 -0.37001055 -0.52932936 -0.63064444 -0.3426391 -0.6360001

l2.weight f4 [300, 308]
00000000: ca5a 33bf 838f 0cbe 8a79 7abd 4e88 1cbd
00000010: 91ef 413f 479f b0bc ba00 ee3e 56f0 10bd
00000020: f365 e73d 22ab ef3d 5392 8fbe c863 03be
00000030: 0f4f 1cbd a1f9 433f 1499 c53e dfb0 64be
00000040: 5d7e d5bd 89c3 c73e 6199 5b3f 0b8d 583f
00000050: 1fdf fabe 445c b5be ba91 1cbf f13d 5a3e
00000060: 36cc ba3e 81cf 193f dcc6 92bf 93c2 643f
00000070: d153 8a3f d8a8 a3bf 0103 b0bf 058c 153c
00000080: e1a9 eebf 47cb acbe 9290 c43e 91b6 50bf
00000090: 8287 533f b0fa b03c ba4f 37bf 1e3f 423f
000000a0: d520 a2bf f70e 893f 9b83 7f3f da70 1e3e
000000b0: 1e19 1dbf 4cc0 8e3f 95ee 893d 535a 773d
000000c0: 7427 3e3e ecf3 fcbc 1bb1 a0be 0cd2 763f
000000d0: c7bd 7a3f 508d 653f b9a9 633f ba1d 30bf
000000e0: d27c eb3d 7c49 7bbf 8329 083e 5b0f ffbd
000000f0: e3eb 7b3f a2f6 29bf 06cf a73c 0d99 463f
00000100: 5553 d7be 4d8f a6be 2e5f 1a3e 45ad 383f
00000110: e5e8 643f 864f 40bf 833b 81bf 5b46 6fbd
00000120: 9ebf b6be d312 1ac0 8f80 2f3c 0d7a e3bd
00000130: c395 e3bd ff29 49bf fdbc 143c 8aee 7e3e
00000140: 1421 74bf b97e cdbe 4556 8bbe d19c 553e
00000150: 33e9 673c 7a2a 11be 9410 7cbc 35d8 873d
00000160: 50f1 a6be 63a7 f9bd c5cb 263d 69cf 793d
00000170: 8526 ea3d 0385 41be d8a5 c73c c3c9 543f
00000180: 204b 663f f779 31bf 702b c53c 0348 7f3d
00000190: 36c2 943e 5bc1 95be 87e2 babe 1c07 a0be
000001a0: 02af cd3e 009f 923f e898 7f3d f4a5 06be
000001b0: 6661 ecbe a26c d6bd 48bb 723f 267e 1c3d
000001c0: 1377 10be 197d 50be adcc 8abf 97cf bcbd
000001d0: 91bb 00bf e9c1 043f fc75 3c3f 8df4 44be
000001e0: cf8a 29bf 7899 b83d 9ad5 15be 8f2b b93c
000001f0: 7da2 8ebd 9b98 aebd 000e 723f fd96 d1bf
00000200: f3de f03d dfbd 24be cd5b 02bf 719c 453e
00000210: 739e e83d 023c 683d 5ac2 eb3d 7e7f 5dbf
00000220: aa26 3a3f 5c17 273f 5def 09bd ea3d 21bf
00000230: a3f6 f23d 753c 89bd d3b4 21be 7fff 9bbe
00000240: 6f39 373f 3a49 dcbd 6ce3 843f c60c 1a3f
00000250: d9d9 74be 5442 1b3e f7c7 2abe 6a51 bdbf
00000260: 09ee 26bf 8832 853f a127 9fbf 6b76 61be
00000270: d2c4 a2bf 1343 e5be 3473 113f 046c abbe
00000280: 428c 46bf 1149 273f 3159 93be 4cc9 8dbd
00000290: fc80 0dc0 3e9e afbc 8006 aa3f 154b 9ebd
000002a0: 3f58 673f ca14 acbd c708 62be e125 31bf
000002b0: e83d c9be 9b23 e43e 5af2 d83e 74d6 003d
000002c0: 3571 2b3f 2cb7 653e 9e98 a9bf e6f2 373f
000002d0: 4d06 a73e df51 01bf 569a d0be d713 bd3f
000002e0: 5aae e63c 9919 523e 035e 333e 693d 5e39
000002f0: 5085 c23c b35a acbe e89d 1fbd 4e42 38bc
00000300: 93cb d9bd 5a8f 67bc be77 59be b1f2 3bbf
00000310: e6ed 7ebf d95b 7dbe 7cb8 823c 9c6d 963e
00000320: a088 c93d 6fb0 8dbe 2e33 37bf 0e98 ebbd
00000330: ddae 9a3c adc9 02be 3174 3d3f 4eee a73e
00000340: 7bc3 1abf 62d2 5dbd 9aeb 35bf a396 2a3f
00000350: 2ce7 fb3d ab8f ad3f 3f09 08bf 07d8 b23d
00000360: c76d 9abe bf2c 69be ac37 f93d 4010 cbbd
00000370: 0e94 793f e599 5bbe 90f7 53bf a61a b33e
00000380: 9da6 eebd b696 c13e 6e91 7abd 1fab a43d
00000390: 6a55 ae3f ba7b babe 367a 22bf 00cd bb3d
000003a0: 5ec6 293e 540c 30be ce5e 00be 1440 e8be
000003b0: 3f36 043f 30c7 063f c172 863d 708a b13d
000003c0: ef14 b63c 4110 4fbd 1bea f4bc 3ab8 473f
000003d0: a5d1 283f 5a20 7f3e 28a5 213e 2015 523e
000003e0: 5d3d da3e 3abe 0abf 3c48 643f 7a1e 28bf
000003f0: 6767 9b3d c825 ebbe 014b da3f 5515 0fbd
-0.7006041 -0.1372662 -0.061151065 -0.038215928 0.75756174 -0.021560324 0.4648493 -0.035385452
0.11298742 0.11702563 -0.28041324 -0.12831032 -0.038161334 0.7655278 0.38593352 -0.22333096
-0.104244925 0.3901637 0.8578091 0.84590214 -0.48998353 -0.35421956 -0.6115986 0.21312691
0.36483926 0.6008225 -1.1466937 0.89359397 1.0806829 -1.2785902 -1.3750917 0.009127622
-1.8645593 -0.33748838 0.38391548 -0.81528574 0.82628644 0.021603912 -0.7160603 0.7587756
-1.266627 1.0707692 0.9981019 0.15472737 -0.6136645 1.1152434 0.06734959 0.060388874
0.18569738 -0.03087803 -0.3138512 0.96414256 0.9794583 0.8966875 0.8893085 -0.6879536
0.11498417 -0.98159003 0.13297085 -0.12454101 0.9840681 -0.66391957 0.020484459 0.77577287
-0.42055765 -0.32531205 0.1507537 0.7213939 0.8941787 -0.75121343 -1.0096287 -0.058416706
-0.35693067 -2.407399 0.010711803 -0.11107264 -0.11112549 -0.78579706 0.009078261 0.24895683
-0.95362973 -0.40135744 -0.27214256 0.20860602 0.01415472 -0.1417636 -0.015384812 0.06633035
-0.32605982 -0.121901296 0.040721674 0.060988817 0.11433128 -0.18898396 0.024371073 0.83120364
0.8995838 -0.6932673 0.024068564 0.062324535 0.2905442 -0.2924908 -0.36500952 -0.31255424
0.40172583 1.1454773 0.062401682 -0.13149244 -0.4616806 -0.10469939 0.9481702 0.038206242
-0.14107923 -0.20360221 -1.0843712 -0.09219282 -0.50286204 0.51858383 0.7361753 -0.19233914
-0.6622743 0.09013647 -0.14632264 0.022603778 -0.06964586 -0.08525201 0.9455261 -1.6374203
0.11761274 -0.16088055 -0.50921327 0.19297959 0.11358347 0.056697853 0.11511679 -0.8652266
0.72715247 0.6527002 -0.03367554 -0.629851 0.118634485 -0.067009844 -0.15791635 -0.30468366
0.7157201 -0.10756154 1.0381904 0.6017574 -0.23911227 0.15162021 -0.16677843 -1.4790471
-0.6520696 1.0406046 -1.2433969 -0.22017829 -1.2716315 -0.44777736 0.5681641 -0.33480847
-0.77557766 0.65345865 -0.28778985 -0.0692316 -2.2109976 -0.02143776 1.3283234 -0.077291645
0.9036903 -0.08402403 -0.22073661 -0.69198424 -0.39305043 0.44558415 0.423724 0.03145452
0.66969615 0.22433156 -1.32497 0.7185501 0.32621995 -0.5051555 -0.4074275 1.477168
0.02815931 0.20517577 0.17516331 0.00021194447 0.023745209 -0.33662948 -0.03896895 -0.011246277
-0.10634532 -0.014133299 -0.21237084 -0.7341719 -0.99581754 -0.24742068 0.01595711 0.293805
0.09840512 -0.2767367 -0.7156247 -0.115036115 0.01888221 -0.12772246 0.7400542 0.32799
-0.6045453 -0.054155715 -0.71062624 0.66636103 0.12299952 1.3559469 -0.5313911 0.0873261
-0.30161878 -0.22770976 0.12168822 -0.09915209 0.9749154 -0.21445425 -0.82799625 0.3498127
-0.11652873 0.37810296 -0.06117385 0.08040451 1.3619816 -0.3642252 -0.6346773 0.0916996
0.16579577 -0.17192203 -0.12536165 -0.45361388 0.5164527 0.52647686 0.06564856 0.08668983
0.022226779 -0.05055261 -0.029896786 0.7801548 0.6594489 0.24914685 0.15785658 0.20515871
0.4262494 -0.5419651 0.8917272 -0.65671504 0.07588082 -0.45927262 1.7054139 -0.034932453

l2.bias f4 [300]
00000000: 4675 f03e 8da4 1b3d d592 e43d d171 28bd
00000010: 000f bb3e 1670 2abe 31f1 e43e aa55 b4bd
00000020: 6e31 bbbe 9bdd efbe 156a 52bf 2f9a 47bf
00000030: 1669 f03e 87d6 49bf 0b12 7ebf e3f1 d73d
00000040: c449 1cbf 8a54 0abf 2053 31bf 809d 3dbd
00000050: ae2d 43bf 0cae 95bd 37a1 393f 4f61 1ebe
00000060: 8be4 dcbe 4084 883f 9a85 2e3e 11f0 c43c
00000070: 1112 5b3e 728d 953e 4d66 1f3f d823 173f
00000080: d922 7e3e 6e1f 2abf e5c8 32bf 319b 123e
00000090: 197c 22bf fe1c 113f 7731 553c 4591 103f
000000a0: 306d 333f b564 113f edf0 a2ba 8b93 84bf
000000b0: 1367 193f e203 98be 7dbc 6ebe 66c2 66bf
000000c0: 4ba2 8abf 8d95 d6bd 23f6 86bd d4ab fdbe
000000d0: fc4d 34be 8e98 d7be 300b ba3e b2cc d8be
000000e0: cc50 e03e b35c 3a3f c1e5 72bd 42c0 eb3e
000000f0: 3250 0dbf 9af6 1dbf 2548 4ebe af18 70bf
00000100: 3445 2fbf 1bf3 69bf 4af6 7fbe ca81 fe3e
00000110: 41bb af3e cf74 76bf 6624 1a3f 28ff 95bd
00000120: 7575 26bf cb42 bbbe 67e9 093c 976f aebe
00000130: 7e70 2f3e 94ac 40bf cfd8 7dbd 237d 4b3e
00000140: fe1c d4bc 830d 053f fd55 fb3d 34ef 2cbd
00000150: cbbc 48bf eda1 a4bd 710d 6fbf 92ca 053f
00000160: 9329 1c3e a037 713e 7185 babe 3c48 7cbe
00000170: c11a 7c3e fa28 5bbf acc9 243e 9b07 89be
00000180: bc44 d03e 7959 d43d f423 8d3d 8319 c2be
00000190: ba78 d3be a2f2 b53d a48e 913e 0819 413f
000001a0: 503b a1bf 07b4 61be 958f 92bf 86ad 21bf
000001b0: e8d5 53bf 6bb9 e2bd 9193 383f 4910 483e
000001c0: eb3a 07bf be1c ff3e dc5e 933a 3b0d 3abe
000001d0: 6797 5abe 528b 5cbf 51e0 153f a0d9 7a3f
000001e0: f3f4 6e3f eb54 c03e 11b0 83be acf1 82bf
000001f0: 03de e73e fdd9 e3be 58ee 5bbf a7d8 f9be
00000200: c64f 9a3e 3349 84be 589c 803e dc01 3fbe
00000210: 7ae6 dbbe 4661 053f 3bb1 3abf df36 d83e
00000220: dee1 713e 06cb 84bf 89c5 99be 4544 9bbf
00000230: 176f 793e e577 48bf 1914 19bf de96 4dbf
00000240: 6cb1 d23d be3b 643e ec34 243f b158 18bf
00000250: 8fdf 78bf a952 19bf a61f 06bf 2d9e 81be
00000260: efd4 30bf cd87 a43d 64ba 47bf 7ac6 2d3f
00000270: 52c1 833e 54bb f53e a30d 68bf b0be bbbf
00000280: 50bb 9fbd 7a20 0bbf ebd8 4fbf c260 e83e
00000290: 68bc 5a3f 605c d13e 76e4 003e d468 d9be
000002a0: d7f5 17be e6aa 8b3b 74b5 dfbd 0b87 8f3e
000002b0: a5e0 95be db38 49bf 792c ecbe e245 f3be
000002c0: aea9 52bf fe3b e0bd 9413 90bd 4099 a93d
000002d0: d02e 033f a3e7 abbd 5581 dc3a c8ee 083f
000002e0: db5d 133e f115 8dbf 46ba cbbf 3914 24bf
000002f0: 86af c8be 7ccc f03e a2d7 2a3e c2cf 133f
00000300: 7188 de3e fb32 4abf 4592 e5bd 085c fc3d
00000310: 0be9 4dbe efc9 3fbf 38b2 513b bb3e 5ebf
00000320: 7dac 6c3e fcc9 afbe 27d0 32be 69b9 493e
00000330: 3a46 0fbf d409 3d3e 2625 ce3e f68d 953e
00000340: 0432 83bf 6a9d 283e 649d 1d3e dc5d 563f
00000350: a079 403f 50d2 1f3f f5f1 953e 9c8e efbe
00000360: c6cb 62bf 6f02 8bbe da3c 513d ce56 5bbf
00000370: 24d5 113f fa9c 2f3e b273 533f 45a0 2abf
00000380: eb64 1ebf 249d 42be f626 d93e 370e 75be
00000390: f9d5 9fbc 966e 243f bcca 81bf a6f2 553e
000003a0: d361 303f ccdd 3fbf 1642 10bf ff5a aabc
000003b0: d044 853e 74fa 93bf 2274 ed3e a495 0cbf
000003c0: 60d5 46be 0c21 d0bc a2c1 073c d6bd 0e3f
000003d0: e996 64bf 9108 6bbf 098f 683f ffd4 493e
000003e0: b81e 6f3e f1b3 9cbf ff7e 0a3f f9a6 623f
000003f0: 0f8b 3ebd db4d bbbc 0adf 82bf 3c00 703e
0.46964473 0.037998725 0.111608185 -0.04112417 0.36534882 -0.1664432 0.44715264 -0.088054016
-0.3656115 -0.4684876 -0.8219312 -0.7796964 0.46955174 -0.7884297 -0.9924628 0.10544183
-0.6105006 -0.54035246 -0.69267464 -0.04629278 -0.76241577 -0.073085874 0.7251162 -0.15466808
-0.43143114 1.066536 0.17043152 0.024040254 0.2139361 0.29209477 0.62265474 0.5903907
0.24817981 -0.6645421 -0.6983779 0.14317013 -0.6347061 0.56684864 0.013012282 0.56471664
0.7008848 0.5679429 -0.0012431421 -1.0357527 0.59922904 -0.29690462 -0.2331409 -0.9014038
-1.0830778 -0.10477743 -0.065899156 -0.49545157 -0.17607874 -0.42108577 0.3633666 -0.4234367
0.43811643 0.727977 -0.05930114 0.4604512 -0.55200493 -0.6170441 -0.20144708 -0.93787664
-0.6846497 -0.91386575 -0.24996296 0.49708396 0.3432255 -0.96271986 0.6021179 -0.07324058
-0.65022975 -0.36574396 0.008417464 -0.3406951 0.17132756 -0.75263333 -0.061974343 0.19871955
-0.02589273 0.5197374 0.1227226 -0.04222031 -0.78413075 -0.080386974 -0.93379885 0.5226222
0.15250234 0.23556376 -0.36429933 -0.2463693 0.24619581 -0.856094 0.16092557 -0.26763615
0.4067744 0.10368628 0.06891623 -0.3791009 -0.41303045 0.08884169 0.2842914 0.7542882
-1.2596226 -0.22041331 -1.1450068 -0.631554 -0.8274827 -0.11070522 0.7210017 0.19537462
-0.52824277 0.49826616 0.001124348 -0.1816911 -0.21346818 -0.86150086 0.58545405 0.9798832
0.9334251 0.37564787 -0.25720266 -1.0230002 0.4528657 -0.4450225 -0.8591056 -0.48798105
0.30138987 -0.25837097 0.2511928 -0.18653053 -0.42949277 0.5210155 -0.7292668 0.42229363
0.23621318 -1.0374458 -0.3003352 -1.2130209 0.24358784 -0.78307945 -0.5979629 -0.8030833
0.10287747 0.22288415 0.6414325 -0.5951033 -0.97216123 -0.59891754 -0.5239204 -0.2531599
-0.6907491 0.080337144 -0.78018785 0.67880976 0.2573343 0.47994483 -0.9064581 -1.4667568
-0.07799399 -0.5434643 -0.81190366 0.4538632 0.85443735 0.4089079 0.12587151 -0.4246279
-0.14839874 0.004262316 -0.10923281 0.28032717 -0.29272953 -0.7860238 -0.4612768 -0.47514254
-0.8229016 -0.109489426 -0.07034984 0.08281183 0.51243305 -0.083937906 0.0016823212 0.5348935
0.14391272 -1.1022321 -1.5916221 -0.6409336 -0.39196414 0.4703101 0.1668382 0.5773889
0.43463472 -0.7898404 -0.11209539 0.12322241 -0.2010843 -0.749175 0.0031997096 -0.8681447
0.23112674 -0.3433379 -0.17462216 0.19699635 -0.5596653 0.1846078 0.40262717 0.2920987
-1.0249639 0.16466299 0.15392071 0.8373697 0.75185585 0.62430286 0.2928616 -0.4678849
-0.88592184 -0.27150294 0.051083423 -0.8567933 0.5696585 0.17149726 0.8259841 -0.666508
-0.6187274 -0.19005257 0.42412537 -0.23931204 -0.01951121 0.6423124 -1.0139995 0.20893344
0.6889927 -0.7494781 -0.5635084 -0.020795343 0.26029062 -1.1560807 0.46377665 -0.54915833
-0.19417334 -0.025406383 0.008285912 0.55758417 -0.8929277 -0.91809946 0.90843254 0.19710158
0.23351562 -1.2242414 0.5410003 0.8853603 -0.046519335 -0.022864273 -1.0224316 0.2343759

bn2.weight f4 [300]
00000000: 3039 c03f b8ed ac3f 6d8a a03f bea2 ae3f
00000010: 949c eb3f 8c07 a03f 7274 b03f 07b7 953f
00000020: 8cba 913f 1c71 843e bca2 c03f 7daa 953e
00000030: 9c01 883f 1ef2 ad3e 9176 ae3f a393 a93f
00000040: 8b24 c83f 96a6 2e3e 3dd7 993e 197d a33f
00000050: b3e6 763e 448d f43f c268 973f 8670 c93f
00000060: f0b9 923f 1851 df3f d6d6 8d3f 44d5 8c3f
00000070: 94cd 613f 13a2 ad3f d58b c53f dafc c13f
00000080: ffd1 913f 1381 7c3e 1335 783e 60c0 9c3f
00000090: ace8 813e 7e44 cc3f e7b8 843f 1ea2 783f
000000a0: cfcb a13f 63a9 d53f 03e3 973f 855c ae3f
000000b0: 959c 9a3f 027c 6e3e 2a03 853f 2459 853e
000000c0: 8945 9b3f 7069 7f3f 27be 993f c04c c73e
000000d0: a9e7 b13f c528 b93f a2e9 be3f d560 913e
000000e0: 6f45 cd3f 82fa eb3f e17d 8b3f 861c a53f
000000f0: 7cd1 823e 4073 963f dcee ae3f af6b 9c3f
00000100: baa3 363f 9c5a 8e3e adc0 903e 2e57 c33f
00000110: 7ef6 983f ebb0 b93f fa5b c83f 5832 8c3f
00000120: 4e0c 803e 8af0 623e 0968 ab3f 6d00 963e
00000130: bcff 923f da23 ea3f 0f01 873f e5f5 833f
00000140: 0775 843f 4369 853f 4484 ac3f 3b7f a13f
00000150: 16c5 2b3e 5e76 743f d06a 073f 386a d73f
00000160: 7453 8d3f 9467 9f3f 9613 933f ab34 9f3f
00000170: f634 ac3f 1afb 6d3e a0c0 993f 9898 c03f
00000180: 771d b03f 205d 9a3f 985a 993f c518 8c3f
00000190: 3480 0540 8030 8c3f dfdb 8e3f 8032 ad3f
000001a0: db08 d43f 78ef 943f e523 8b3f bd4c 953e
000001b0: c708 7b3f 36e3 913f 0414 ac3f 7e7c b33f
000001c0: f97e c53f 0a91 bf3f 10f9 4f3e e2f5 6e3e
000001d0: 9b2c 8b3f 04b6 8e3e 2919 a13f 0b17 c63f
000001e0: e243 d63f 6e87 df3f f808 933f 9c8f 813e
000001f0: 1a91 9c3f dce2 893e 3a39 803e c658 b33f
00000200: c4c8 9b3f 1f1a 993f 8d87 8e3f 3958 a93f
00000210: 545e 7b3f bc7d 993f f5de b33f 4add 9e3f
00000220: 0686 9d3f 68ac d23f 8163 913f 41c0 c13f
00000230: 70cc be3f 264e 823f 3ad0 643e b3e6 763e
00000240: 615c b63f 6149 a53f 5049 a93f b54b 943e
00000250: 7d0d d03f 0e38 a03e 3957 1140 a8e7 b33f
00000260: 9640 903f bed1 8a3f c9cf 823f 0118 993f
00000270: d2f1 a43f ba8f d53f 61c4 573e efb3 a23f
00000280: ea90 b73f 4bb2 7c3e e1d0 943f c4ba 943f
00000290: 18df bb3f 2113 893f 9fe9 c33f 243c 8e3e
000002a0: 58e9 b83f 3a3e 783f 5971 c53f 8afc b13f
000002b0: ddac be3f d9b2 5f3e 0411 843e 8e84 a63e
000002c0: 27ca 393e 14cf 9f3f 586d 9e3f c990 893f
000002d0: d44b 903f a800 663f 065b 8a3f 2848 843f
000002e0: 56de ab3f 5c6b 863e cf50 9e3f 043c 813e
000002f0: b52c 953e 6da1 8d3f a974 993f 0a52 ac3f
00000300: b409 d03f 3e17 803e dd76 9b3e 3b8b a33f
00000310: 1258 6e3e 2c10 8a3e 948a 9e3f c591 933e
00000320: 941b 8b3f 5f5c a13f 35a1 a63f 2396 8d3f
00000330: e81e c83e 9a12 b43f 3422 a23f ef60 9e3f
00000340: 7ca9 de3e 08a0 4c3e d208 b83f f47a b93f
00000350: 4e4b a53f 5d1b ac3f 5459 c33f 8cea 913f
00000360: fbc9 a33f afce c03f 3e9a d63e c5f6 753f
00000370: dc05 b83f b5ff 973f a6cc aa3f 3c94 993f
00000380: 9ed7 de3f d94b 8c3f 78e2 853f edef 973f
00000390: c9cd 973f 2dc5 9f3f a695 d33f 7568 813f
000003a0: acc7 af3f e2e8 6c3e 3525 903e 6317 783e
000003b0: db45 893f 87fd 323e d13f 9a3f d403 a23f
000003c0: 9b22 a63f 7ba4 8a3f 8ed5 863f fec1 b23f
000003d0: be8e a33e be23 803e 64d6 ae3f 2e6a bc3f
000003e0: d68f 863f c4c6 863e 31c9 c43f f483 cd3f
000003f0: 54cb b53f 8ec3 aa3f 2a2e 6c3e ffb5 933f
1.5017452 1.3510046 1.2542244 1.3643415 1.8407159 1.2502303 1.3785536 1.169648
1.1385055 0.25867546 1.5049663 0.29231635 1.0625491 0.33973783 1.3629934 1.324818
1.5636152 0.17055735 0.30047026 1.2772552 0.24111442 1.9105611 1.1828845 1.5737464
1.1462994 1.7446623 1.1081188 1.1002584 0.8820431 1.3565086 1.5433298 1.5155289
1.1392211 0.24658613 0.24238996 1.2246208 0.25372827 1.5958402 1.0368928 0.9712237
1.2640322 1.6692318 1.1866153 1.3621985 1.2079035 0.23289493 1.039159 0.2604457
1.2130595 0.9977026 1.2011155 0.38925743 1.3898822 1.4465567 1.4915049 0.2839419
1.6036814 1.8435824 1.089779 1.289933 0.2555045 1.1753922 1.3666644 1.2220362
0.71343577 0.27803504 0.28272 1.526098 1.1950223 1.4507116 1.5653069 1.0952864
0.25009388 0.22162071 1.3391124 0.292972 1.1484294 1.8292191 1.0547198 1.0309416
1.0348214 1.0422748 1.3477864 1.2616953 0.16774401 0.95493114 0.5289736 1.682929
1.1041093 1.2453485 1.1490352 1.2437948 1.3453662 0.23240319 1.201191 1.5046568
1.3758992 1.205967 1.1980772 1.0945059 2.08595 1.0952301 1.1160849 1.3531036
1.6565202 1.163558 1.0870329 0.2916011 0.9806027 1.1397464 1.3443608 1.4022367
1.5429374 1.4966137 0.20309854 0.23335984 1.0872988 0.27873242 1.2585803 1.5475782
1.6739466 1.7463205 1.1487112 0.25304878 1.2231781 0.26930892 0.2504366 1.4011467
1.2170644 1.1961097 1.1135117 1.3230048 0.9819081 1.1991496 1.4052416 1.2411282
1.2306526 1.6458864 1.1358491 1.5136796 1.4906139 1.0180099 0.22345057 0.24111442
1.4246942 1.2913018 1.3225498 0.2896401 1.6254116 0.31292766 2.2709486 1.4055071
1.126971 1.0845258 1.0219661 1.196045 1.2886298 1.6684487 0.21071006 1.2711161
1.4341099 0.24677388 1.1626245 1.1619496 1.4677458 1.0708963 1.530567 0.2778026
1.4446211 0.9696995 1.5425216 1.3905194 1.4896504 0.21845569 0.25794232 0.32523006
0.18143521 1.248507 1.2377119 1.074731 1.1273141 0.8984475 1.0809028 1.033452
1.3427227 0.26253784 1.2368411 0.252411 0.2913567 1.1064888 1.1988727 1.3462536
1.6252961 0.25017732 0.30364123 1.2776865 0.23275784 0.26965463 1.2386041 0.2882215
1.0867791 1.2606314 1.3017946 1.1061443 0.3908608 1.4068177 1.2666688 1.2373332
0.4348868 0.19982922 1.4377692 1.4490647 1.2913606 1.3445851 1.5261636 1.1399703
1.2796015 1.5063075 0.41914552 0.96079665 1.4376788 1.187491 1.3343704 1.1998363
1.7409551 1.0960647 1.0459738 1.1870095 1.1859676 1.2482048 1.6530044 1.0110003
1.373281 0.23135713 0.28153387 0.24227671 1.0724443 0.17479526 1.2050725 1.2657418
1.2979311 1.0831445 1.0533922 1.3965452 0.3194484 0.2502727 1.3659177 1.4719903
1.0512645 0.2632352 1.5373899 1.6055894 1.4202676 1.3340929 0.23064485 1.1539916

bn2.bias f4 [300]
00000000: ee9f 01bf d903 5dbf ec49 87bf 0773 62bf
00000010: 8bd8 71bf 2af2 afbe 05c7 37bf dd89 13bf
00000020: 8704 8abf 1846 3cbf 0b90 d3bf fa94 58bf
00000030: dc1d 99bf fab3 57bf 0e2f 9bbe ea31 03bf
00000040: bbdc babf b04d 38bf da65 57bf 99ca 0fbf
00000050: df98 26bf 6552 76bf 2778 80bf e5ec a6bf
00000060: 27ea 5abf ec9c 95be c0c9 30bf 33c3 81bf
00000070: 11c6 7cbf 8de2 44be 5e54 22bf fa93 2ebf
00000080: 75a5 ddbe 5f0a 2bbf 5890 39bf 0999 88bf
00000090: 22bd 53bf b5c1 06be 7d59 4dbf 1613 54bf
000000a0: d899 41bf 0a49 94be cab3 a7bf 198d 2ebf
000000b0: 984b 2dbf 7834 34bf cae4 71bf d884 3dbf
000000c0: 1e6a 9cbf a4d3 99bf b48d 73bf 56d3 99bf
000000d0: df3c a6bf 520e 01bf 527f 24bf b19c 48bf
000000e0: 58ee 31bf 9bc1 3ebf 0d54 60bf 7903 23bf
000000f0: 4952 41bf f4a4 9abf 6c05 21bf daa1 b4bf
00000100: db97 a7bf 0ae9 5dbf 900c 3abf a35e 80bf
00000110: b0ff 89bf d2af 8fbf f1f4 48be 8d57 a1bf
00000120: 1a1a 54bf af49 28bf 2379 4abf 6be8 67bf
00000130: 8a01 05bf 41fe f4bf 342b a2bf 5e2a 61bf
00000140: eebd 90bf dfa8 52bf a657 7c3e 0350 85bf
00000150: 08eb 33bf a79e 08bd 725e 0fbf 4b04 19bf
00000160: 262c 72bf 3e92 3abf 429c a1bf 589a 45bf
00000170: 19de 82bf 397f 4cbf 8a6a 53bf 4611 92bf
00000180: 0484 e6be 196b 5fbf d485 23bf 72e4 353e
00000190: ef3c 27c0 0c36 90bf eb43 82bf 712d 55bf
000001a0: 4f42 a3be 8b5c 54bf 6a47 a6be 6112 4bbf
000001b0: 7aa2 b6bf 4564 84bf c9be 92bf 14db 62bf
000001c0: 16ab d5bf acd4 1abf ba22 51bf 5759 25bf
000001d0: 1ee4 5cbf 0017 38bf 8830 28bf 16c8 58bf
000001e0: 29e4 b0be 9989 36bf 0864 94bf 7fa3 2bbf
000001f0: 5875 26bf cae2 5dbf 8100 42bf a7f5 72bf
00000200: d639 2fbf a74f 79bf 75a7 4fbf bf08 41bf
00000210: 5530 86bf 61d7 21bf 5919 b9bf 0a3e 16bf
00000220: 9447 a4bf fd6e bebf e596 86bf a425 0fbf
00000230: baf2 75bf ae02 bdbf d1b6 40bf 58e6 33bf
00000240: 172b 97bf f425 92bf 1d93 43bf 6a4e 57bf
00000250: 930c 62bf d7ee 23bf d49d cabf 1604 8dbf
00000260: efc1 8cbf 3c6a 52bf b9d2 8abf cbd0 57bf
00000270: 1e46 81bf c76d 2fbf 2025 32bf e5d2 dbbe
00000280: 8a71 cfbf 47d7 2fbf 2d69 b9bf ea12 93bf
00000290: fc0f 36bf ed31 82bf 31d4 83bf 5a1c 5dbf
000002a0: 2654 69bf 4fc6 81bf bb0b 72bf 962f 3fbf
000002b0: 267d dbbf d036 34bf da13 54bf 9a3a 59bf
000002c0: 46a6 1abf aab3 78bf dc07 19bf 7cc0 a0bf
000002d0: d913 6ebf 937f a7bf a18b 99bf bebb 4ebf
000002e0: bdfd a0bf fa79 50bf f336 3cbe 8e37 1ebf
000002f0: 28a6 3fbf ce20 49bf 26f2 1cbf 9d43 22bf
00000300: 35c0 35bf eac4 56bf 74bb 78bf 5fb3 a4bf
00000310: 8074 37bf 6e79 1fbf d199 4abf b34b 62bf
00000320: 64d7 3cbf e388 5ebf 839d e3be 0155 6bbf
00000330: c399 68bf 4117 31bf 7c75 0fbf cea6 3dbf
00000340: 6d21 1bbf 95b5 06bf e5d8 3abf 81cc 70bf
00000350: 53bf 21bf 4144 5bbf 9cb9 5fbf f25c 24bf
00000360: 281f 81bf b264 e0bf eb30 22bf d483 b9bf
00000370: c2e2 52bf e305 90bf 19f9 2bbf abdf 9abf
00000380: 1284 86bf 519e 71bf 2ade 96bf 06d1 ecbe
00000390: 3400 86bf dc11 69bf ca30 36bf 6b47 81bf
000003a0: 2c02 5cbf 79ca 4dbf da79 5cbf cef1 19bf
000003b0: dfd2 68bf aea9 18bf 295a 34bf b76a 3ebf
000003c0: 54ff 74bf f7c9 b1bf e994 8fbf 3b93 4dbf
000003d0: b150 44bf a136 46bf 6b16 b7be b5cf 0ebf
000003e0: 7b44 8cbf 973b 2bbf 762c 33bf 87d4 e5be
000003f0: 25c0 19bf 9947 723d 225b 5bbf 47b1 73bf
-0.5063466 -0.86333996 -1.0569434 -0.8845677 -0.94471043 -0.34364444 -0.71788055 -0.5763224
-1.0782632 -0.73544455 -1.6528333 -0.8460232 -1.1962237 -0.84259 -0.30309337 -0.5124804
-1.4598612 -0.7199354 -0.8413979 -0.56168514 -0.6507701 -0.96219474 -1.0036668 -1.3041044
-0.8551354 -0.29221284 -0.69057846 -1.0137695 -0.98739725 -0.19227047 -0.63409984 -0.68194544
-0.43290296 -0.668127 -0.72485876 -1.0671703 -0.8271047 -0.13159831 -0.80214673 -0.8284162
-0.7562537 -0.28961974 -1.3101742 -0.6818405 -0.6769347 -0.7039256 -0.9448973 -0.7403083
-1.2219884 -1.2017713 -0.95138097 -1.201762 -1.2987326 -0.50412476 -0.64256775 -0.7836409
-0.6950431 -0.7451417 -0.8762825 -0.63677174 -0.7551618 -1.208159 -0.628989 -1.4111893
-1.3093218 -0.86683714 -0.7267542 -1.0028881 -1.0781155 -1.1225531 -0.19624688 -1.2604843
-0.8285233 -0.6573743 -0.7909109 -0.90589017 -0.51955473 -1.9140092 -1.2669435 -0.8795527
-1.1307962 -0.82288927 0.2464281 -1.0415043 -0.70280504 -0.033354428 -0.5600349 -0.59772176
-0.94598615 -0.728794 -1.2625811 -0.77188635 -1.0224029 -0.79881626 -0.8258444 -1.1411521
-0.45022595 -0.87272793 -0.6387608 0.17762926 -2.613094 -1.1266494 -1.0176977 -0.83272463
-0.31886527 -0.8295371 -0.3247636 -0.7932492 -1.4268334 -1.03431 -1.1464473 -0.88615537
-1.6692836 -0.6048076 -0.81693614 -0.64589447 -0.8628558 -0.71910095 -0.6569905 -0.84680307
-0.34549072 -0.7130371 -1.1593027 -0.6704635 -0.650228 -0.8667418 -0.7578202 -0.94906086
-0.68447626 -0.97387165 -0.81114894 -0.7540397 -1.04835 -0.6321927 -1.446086 -0.58688414
-1.2834344 -1.4877621 -1.0514799 -0.5591681 -0.96073496 -1.4766443 -0.75278956 -0.7027335
-1.1810025 -1.1417832 -0.7639635 -0.84104025 -0.88300437 -0.64036316 -1.5829415 -1.1016872
-1.0996684 -0.8219335 -1.0845557 -0.8430297 -1.0099523 -0.6852688 -0.695879 -0.42934337
-1.6206524 -0.6868786 -1.4485222 -1.1490147 -0.7111814 -1.0171486 -1.0299131 -0.86371386
-0.91144025 -1.0138644 -0.9454915 -0.74681985 -1.7147567 -0.7039614 -0.8284279 -0.84855044
-0.60409963 -0.97149146 -0.5977762 -1.2558742 -0.92999035 -1.3085808 -1.1995736 -0.8075522
-1.2577435 -0.8143612 -0.18380336 -0.6180352 -0.7486291 -0.7856568 -0.6130699 -0.6338442
-0.7099641 -0.83894217 -0.9716103 -1.286724 -0.7166214 -0.6229466 -0.79140955 -0.8839676
-0.7376616 -0.8692762 -0.4445611 -0.9192658 -0.9085962 -0.6917611 -0.5603864 -0.7408265
-0.6059788 -0.5262082 -0.72987205 -0.9406205 -0.6318256 -0.8565102 -0.8739259 -0.64204323
-1.0087633 -1.753073 -0.6335589 -1.4493356 -0.82377255 -1.1251796 -0.6717697 -1.2099508
-1.0509055 -0.94382197 -1.1786549 -0.46253222 -1.0468812 -0.91042876 -0.71168196 -1.009992
-0.85940814 -0.80387074 -0.8612343 -0.6013459 -0.90946764 -0.5963391 -0.70450073 -0.74381584
-0.957021 -1.388976 -1.1217319 -0.8030278 -0.76685625 -0.7742711 -0.3575929 -0.55785686
-1.0958399 -0.668878 -0.69989717 -0.44888708 -0.60058814 0.059150312 -0.8568593 -0.9519238
