weights/model_actor_target_93.pt (torch, 429959 bytes, 10 tensors)

l1.weight f4 [300, 42]
000000 d8 03 4e 3f da af de be 85 02 56 3f 57 0b 8a be
       0.80474615 -0.4349354 0.83597594 -0.26961777
000010 2e 84 21 3f 12 f1 63 be 20 3c c2 bf d4 93 7d bf
       0.63092315 -0.2225993 -1.5174599 -0.9905369
000020 29 43 79 bf f8 82 6f 3f fe 8f f9 3e 4f 70 91 3e
       -0.97368103 0.9355922 0.4874267 0.28405997
000030 04 c8 22 3f 38 b0 34 bf eb a3 22 c0 e7 1f 6d 3f
       0.6358645 -0.7058139 -2.5412548 0.92626804
000040 26 fd 3e 3e 89 22 3d bf 5c 48 6a 40 2f 06 ab 3f
       0.18651256 -0.7388082 3.6606665 1.3361262
000050 ea b0 46 bf c7 c4 1b 3f e3 0e ed be fa d5 3e 3f
       -0.776137 0.60847133 -0.4630042 0.7454525
000060 25 2b 1e 3f 48 cb f8 3e de e3 0e 3e ed b7 09 bf
       0.61784583 0.4859259 0.13954112 -0.53796273
000070 3f cb bf 3f fc 18 04 bf 4f dc 23 bf 4c 91 64 bf
       1.4983901 -0.51600623 -0.6400804 -0.89284205
000080 d4 e0 4a 40 fd e5 ef bf a7 f6 0d 3f a2 ad ca c0
       3.1699724 -1.8742062 0.55454487 -6.3336954
000090 0e 83 a9 c0 93 8a 89 3f 2b de e0 be 20 be 17 bf
       -5.297248 1.0745414 -0.439195 -0.5927448
0000a0 e5 a4 e1 3e 5c 11 df 3f 43 37 04 3f b5 8f 91 3f
       0.44071117 1.7427173 0.5164682 1.1371981
0000b0 ef 7b a8 3e 1d 60 64 3f 8e b4 33 3e da 21 c7 3f
       0.32907054 0.8920916 0.17549345 1.5557206
0000c0 43 a2 9f be 28 1f 5a be 20 8f ae bd d9 b2 3d 3f
       -0.31178483 -0.21300948 -0.08523393 0.74101025
0000d0 c7 96 03 3f ac 16 1e c0 7c 6f 6d 3e 34 47 09 bf
       0.5140194 -2.4701338 0.23187059 -0.5362427
0000e0 ed 92 c9 3f 5e 4a 32 be 43 14 46 bf 84 b3 08 c0
       1.5747963 -0.17411181 -0.77374667 -2.1359568
0000f0 5c db 0c c0 f3 65 59 3f 7f 18 83 3e cf 8d 46 3f
       -2.2008886 0.8492119 0.25604627 0.7756013
000100 95 49 02 c0 e4 a0 9e 3e 28 7d 5d 3f 71 c6 20 40
       -2.035741 0.30982125 0.865191 2.512112
000110 fe 97 fd 3f 78 05 19 40 ad 3b a3 bf cd 46 a3 bf
       1.9812009 2.3909588 -1.2752587 -1.2755982
000120 2a 44 94 be cb 7d 56 3f ef 2b dd 3e 48 62 8c 3e
       -0.28958255 0.83785695 0.4319758 0.27418733
000130 73 79 1f 3f e7 77 3d bf ba 3c b1 bf c9 dd 4a bf
       0.6229469 -0.7401108 -1.3846657 -0.7924467
000140 24 18 ce bf ae 4f 3b 3e 6d b0 f2 bf ff 16 19 c0
       -1.6101117 0.18292114 -1.8960091 -2.3920286
000150 28 52 ae 3e 8d a1 b0 bd 29 9d 95 3d bd b5 be bf
       0.34047055 -0.08624563 0.073053665 -1.4899212
000160 48 3e d6 3e 68 80 b8 be c8 d9 a4 3f 7a 1a 43 bf
       0.41844392 -0.36035466 1.2878962 -0.76212275
000170 fb c7 7c bf 78 83 8e 3f 5f f9 60 3f bb 7b a1 bf
       -0.98742646 1.1133871 0.8788051 -1.2615885
000180 52 97 3f 3f bd c3 07 bf 5a 39 38 be b4 e0 fd 3f
       0.7484027 -0.5303305 -0.17990628 1.9834199
000190 29 19 11 40 6d e5 12 bc 96 fa 63 c0 aa d5 4a bf
       2.2671607 -0.008965832 -3.5621696 -0.79232275
0001a0 d3 db 39 bf 00 a1 3e be a6 e8 6c 3f 01 7f 5f 3f
       -0.7260105 -0.18616104 0.92542493 0.8730317
0001b0 7b bd 56 3f 6f e6 15 3f 13 47 cb be f9 23 58 3f
       0.83882874 0.5855474 -0.39702663 0.8442989
0001c0 19 20 ab 3b 62 b1 9a 3f 27 c2 df 3e dc 01 63 3e
       0.005222332 1.2085383 0.43702814 0.22168678
0001d0 1f a0 f4 40 5a 27 dc bf 6b e5 21 3f 26 64 f1 3e
       7.644546 -1.7199509 0.6324069 0.4714672
0001e0 db 6c b7 bf fc f7 bf be 13 c3 1c c0 ea c3 26 c0
       -1.4330095 -0.37493885 -2.4494064 -2.6057076
0001f0 5f 68 c1 3f 0f 0a 09 40 a5 1a 30 3f 75 99 12 3f
       1.5109977 2.141239 0.68790656 0.57265407
000200 0f 7f 40 3f 22 72 75 3e c6 e0 3a 3f ea 6f 5f 3d
       0.75193876 0.2396932 0.7299923 0.05455009
000210 ad d0 5b bf 76 6f 02 c0 53 60 6c bf 35 b3 a1 3f
       -0.8586529 -2.038053 -0.9233448 1.2632815
000220 01 9f 0f 3f 34 7d 19 bf 86 59 6f 3f 76 37 b3 bf
       0.56101996 -0.5995667 0.93495977 -1.40013
000230 70 95 00 40 b2 ee 96 bf 87 5a 1f bd 96 14 1f 40
       2.009121 -1.1791594 -0.038904693 2.4856315
000240 6e 8d 98 3e 86 1b f9 be 32 80 0d 40 26 5d 05 be
       0.29795402 -0.4865381 2.2109494 -0.13023815
000250 da f9 8d c0 1c de 23 3f e9 3e 81 3f e2 89 0a bf
       -4.4367495 0.64010787 1.0097324 -0.5411664
000260 c9 1a ce bf 5e a6 07 3f 76 40 44 40 3c cb d2 bf
       -1.6101924 0.5298823 3.0664344 -1.6468272
000270 33 64 cb bf c7 cb 6d bf d4 b6 04 c0 22 27 85 40
       -1.5889953 -0.92889065 -2.073659 4.161027
000280 83 5e 26 3f 31 e7 b6 3f 0b 20 62 3f cd 86 9e 3f
       0.64987963 1.4289304 0.88330144 1.2384888
000290 d3 9c 2a bf 28 e1 8b 3f 8d dd c3 c0 21 a7 36 be
       -0.66645545 1.0928087 -6.120795 -0.17837192
0002a0 0f 40 33 3f 66 b6 a3 3e 5b 84 33 3f 63 02 39 bf
       0.7001962 0.31975096 0.70123833 -0.72269267
0002b0 ed d7 ec 3e ef ab ad 3f 03 c9 93 bf 81 f3 89 be
       0.46258488 1.3568095 -1.1545719 -0.2694359
0002c0 f0 7e 40 bf 53 4c 89 bf df c0 1a 3f 77 ad b9 bd
       -0.7519369 -1.0726417 0.6045055 -0.09066289
0002d0 8a b4 59 3e df 98 3a bf cc 12 0b c0 47 ee 37 40
       0.21260276 -0.7288951 -2.1730223 2.8739183
0002e0 35 66 08 c0 54 9b 12 40 44 93 5c 40 ae a6 8e 3f
       -2.1312382 2.2907305 3.4464884 1.1144617
0002f0 b9 36 d1 40 2e 6d f7 3e f2 ad e3 bf b7 5e 28 3f
       6.53793 0.48325485 -1.7787459 0.65769523
000300 19 b3 5d 3f aa b3 9b 3e 02 c8 ec 3f a0 eb f8 3d
       0.86601406 0.3041051 1.8498538 0.12154317
000310 92 a0 c3 3f 7b c1 aa bf b2 7d 12 c0 0e fa cf be
       1.5283377 -1.3340296 -2.2889218 -0.40620464
000320 7d 59 c4 c0 fa 85 6c 40 df ca 14 3f 6a 4a 50 40
       -6.135924 3.6956773 0.58122057 3.2545419
000330 64 03 ef 3f 63 a1 4b 3f be 56 20 bf c8 e6 30 40
       1.867291 0.7954313 -0.6263236 2.7640858
000340 c3 98 3a c0 3b 53 c5 3e 7f dc 46 3f d7 c5 39 3f
       -2.9155738 0.38540062 0.776802 0.72567505
000350 2e 64 a3 3f 5e 1d 87 3c fb ac 0f 3f 35 73 62 3f
       1.2764947 0.016493496 0.5612332 0.8845704
000360 0f 9b 1c bf c1 ad 2e 3e b6 3a fd be e8 60 14 3e
       -0.611741 0.1705847 -0.49458855 0.14490092
000370 d8 76 e6 3e db 6f ac be 51 c7 c3 bd e7 ce b8 bc
       0.45012546 -0.3367909 -0.09559501 -0.022559596
000380 71 ea 15 c0 48 67 c7 3f 61 58 6d c0 e9 a7 b9 3f
       -2.3424342 1.5578394 -3.7085192 1.4504367
000390 f7 f6 fa 3f 4b ef 8c be 20 88 89 40 96 79 93 be
       1.9606618 -0.27526316 4.297867 -0.288037
0003a0 2c c6 ba 3f 53 80 18 3f 55 ce 1c 3f c1 5c 83 3f
       1.4591727 0.5957081 0.6125234 1.0262681
0003b0 b5 80 27 be b8 d7 a4 3f 7e 5f d5 be c3 78 66 3f
       -0.16357692 1.2878332 -0.41674417 0.9002802
0003c0 d0 5c f4 be 94 6a 4e bf 95 9b 3a 3f 25 ac 50 3f
       -0.4772706 -0.80631375 0.7289365 0.8151267
0003d0 be 94 56 3f 85 26 76 bf 02 df 35 c0 3c 76 1b 3f
       0.8382071 -0.96152526 -2.8417363 0.60727286
0003e0 04 fb fa bf b7 f6 02 3f 58 de a5 3f d2 3f a2 be
       -1.9607854 0.51157707 1.2958479 -0.31689316
0003f0 79 ba 11 3f f0 5e 6f 3f e2 e0 31 3f 49 9d 12 40
       0.5692516 0.9350424 0.6948377 2.29085

l1.bias f4 [300]
000000 82 83 32 3f c5 29 15 3f 77 fc 22 3f 1c 7f 4f 3f
       0.69731915 0.5826686 0.6366648 0.8105333
000010 7d 5f 2a 3f a3 cc 2a 3f 54 07 37 3f 16 8a 2f 3f
       0.66551954 0.667185 0.71495557 0.6857008
000020 c4 a1 4c 3f 4f 01 05 3f 6a d0 4f 3f 82 76 72 3f
       0.79934335 0.5195512 0.8117739 0.9471208
000030 fe 2c 1f 3f d2 d7 27 3f 23 0c bf 3e 19 7f 29 3f
       0.6217803 0.6556369 0.37313947 0.6620956
000040 bf b5 1f 3f 2b b8 e1 3e ec c3 1f 3f d5 04 11 3f
       0.623867 0.44085822 0.6240833 0.56648
000050 2a 8e f4 3e 26 0f 92 3f e4 c3 55 3f d4 de 10 3f
       0.47764713 1.1410873 0.8350203 0.5659001
000060 63 93 3b 3f 13 36 40 3f 02 26 38 3f e0 9c 2c 3f
       0.7327177 0.7508251 0.71932995 0.6742687
000070 8c 4d 01 3f 52 6f 01 3f b3 5a 06 3f a5 f5 1d 3f
       0.5050895 0.50560486 0.52482146 0.6170295
000080 ae 70 61 3f ba 28 25 3f 1b 5c 06 3f df 52 e4 3e
       0.8806256 0.6451527 0.5248429 0.44594476
000090 66 ff 45 3f 33 18 06 3f c4 c6 0c 3f be 30 fe 3e
       0.7734283 0.52380675 0.5499079 0.49646562
0000a0 a2 ad 4c 3f 87 f3 35 3f 16 14 19 3f 22 17 ce 3e
       0.7995244 0.7107472 0.59796274 0.40252024
0000b0 3f 2c 14 3f b4 dc 03 3f 76 11 18 3f 8b 5c 26 3f
       0.57880014 0.5150864 0.59401643 0.6498496
0000c0 43 0d 0e 3f b6 de 47 3f 23 bf e4 3e d7 29 d7 3e
       0.55488986 0.78074205 0.44677076 0.4202411
0000d0 ae b6 e1 3e c6 d4 34 3f 79 ed 71 3f d7 04 59 3f
       0.44084686 0.70637167 0.9450298 0.8477301
0000e0 fb b3 d8 3e a8 75 28 3f 11 d8 2a 3f 89 60 02 3f
       0.42324814 0.6580453 0.6673594 0.5092855
0000f0 0d 36 7b 3f cd 91 26 3f db 0b 1c 3f 62 cd 17 3f
       0.9812935 0.65066224 0.6095559 0.59297764
000100 c4 ca 08 3f f0 ef e2 3e 8d 1e 6d 3f 53 10 1a 3f
       0.53434396 0.44323683 0.9262474 0.6018116
000110 2c fe cc 3e ba 97 18 3f 7e 3d 36 3f e4 22 20 3f
       0.40037668 0.59606516 0.7118758 0.6255324
000120 ed 62 0b 3f c4 e1 3c 3f c9 3a 3d 3f 80 27 a6 3e
       0.54447824 0.7378199 0.73917824 0.3245201
000130 2c 18 2a 3f 4e 1e 19 3f ad fc 0a 3f ed b2 38 3f
       0.66443133 0.59811866 0.542918 0.7214802
000140 07 50 09 3f d5 2a 11 3f 8c 4e 02 3f 1f 83 b8 3e
       0.5363774 0.5670598 0.50901103 0.36037537
000150 76 65 33 3f 82 17 19 3f 1e a0 3c 3f 34 fc f7 3e
       0.7007669 0.59801495 0.7368182 0.48434603
000160 06 63 6f 3f 03 d5 45 3f a2 fd 2e 3f 03 c4 a7 3e
       0.9351047 0.77278155 0.6835576 0.32766733
000170 d4 18 56 3f b9 ef e7 3f f0 dc 0a 3f 67 be 13 3f
       0.83631635 1.8120033 0.54243374 0.57712406
000180 74 af 3e 3f 87 8c c4 3e 15 a9 07 3f 19 01 20 3f
       0.7448647 0.38388464 0.52992374 0.62501675
000190 b2 3d 53 3f 9c 0b 17 3f b4 13 17 3f 8e e9 15 3f
       0.82516015 0.5900209 0.5901444 0.585595
0001a0 f0 8b 8f 3e f6 34 e2 3e de aa 12 3f 7d 2e 5e 3f
       0.2803645 0.4418103 0.5729197 0.86789685
0001b0 79 c1 49 3f 19 21 22 3f 3b 20 26 3f 33 90 45 3f
       0.7881084 0.63331753 0.6489293 0.77173156
0001c0 b9 d5 26 3f 2f f6 ef 3e bc 5d 3c 3f dd 30 1b 3f
       0.65169865 0.4686751 0.7358053 0.60621434
0001d0 57 61 32 3f 8b 13 24 3f 68 d4 e7 3e f5 3a 4d 3f
       0.6967978 0.6409232 0.4527924 0.80168086
0001e0 a2 5e dd 3e e9 a0 4b 3f 90 1a 1b 3f 8b 60 09 3f
       0.43236262 0.79542404 0.60587406 0.5366294
0001f0 8d a2 06 3f 8f 9a f8 3e 71 53 51 3f 13 3f 1e 3f
       0.5259178 0.4855542 0.81767946 0.61814994
000200 e4 f1 35 3f c2 ed fc 3e 90 32 52 3f f7 d5 b7 3e
       0.7107222 0.49400145 0.821084 0.3590543
000210 64 c6 71 3f 26 6c 49 3f 19 70 c3 3e 48 70 03 3f
       0.94443345 0.78680646 0.3817146 0.513432
000220 25 39 3d 3f a9 ab 09 3f 32 61 31 3f 54 36 68 3f
       0.7391532 0.5377756 0.69288933 0.907079
000230 b0 4e 10 3f d6 15 04 3f 52 17 45 3f 9f 7f 1c 3f
       0.5637007 0.5159582 0.7698871 0.61132234
000240 c1 4e 6b 3f ba fd 08 3f e1 df 2a 3f 24 85 0d 3f
       0.91917044 0.53512156 0.6674786 0.5528128
000250 c5 ec dd 3e e8 40 09 3f fb 3a bc 3e 5b 39 da 3e
       0.43344703 0.53614664 0.3676375 0.42621884
000260 86 82 6e 3f d6 2f e8 3e 05 d7 08 3f 88 2d a8 3e
       0.9316791 0.45348996 0.53453094 0.32847238
000270 5d b3 02 3f 56 60 c6 3e ac 2d 24 3f 60 b9 b0 3e
       0.51054937 0.38745373 0.6413219 0.3451643
000280 95 d4 06 3f d7 69 59 3f 0b 9c a6 3e 3d 3c 13 3f
       0.52668124 0.84927124 0.32540926 0.5751379
000290 6e 2f e5 3e b2 58 27 3f bb 10 10 3f ed d6 ab 3e
       0.44762748 0.65369713 0.5627553 0.33562413
0002a0 8f 1e 0c 3f f6 43 44 3f fd 13 26 3f dc fc 30 3f
       0.5473413 0.766662 0.6487425 0.6913583
0002b0 84 39 09 3f c9 23 12 3f 94 e6 02 3f 67 d1 fe 3f
       0.53603387 0.57085854 0.51133084 1.9907655
0002c0 f6 cb 1b 3f b9 5c 57 3f 53 f7 07 3f 4b d2 09 3f
       0.60858095 0.8412586 0.5311176 0.53836507
0002d0 3f 6d 0b 3f be cb a0 3e a2 67 09 3f 49 40 20 3f
       0.5446357 0.31405443 0.53673756 0.6259809
0002e0 b8 49 f6 3e d5 7c 34 3f 84 29 3e 3f 4b 97 ba 3e
       0.48103118 0.7050298 0.742821 0.36443552
0002f0 f7 89 13 3f 74 85 48 3f 2a dd b8 3e 8f 44 01 3f
       0.5763239 0.78328633 0.36106235 0.5049524
000300 e6 d4 0c 3f 6b cd 0d 3f cb 19 2e 3f 04 c4 31 3f
       0.5501236 0.5539157 0.68008107 0.6943972
000310 74 e2 f9 3e 5b 65 24 3f 92 f4 21 3f 3e 9f c3 3e
       0.48805583 0.64217156 0.6326381 0.3820743
000320 64 dc 12 3f fa 72 15 3f 70 2e f7 3f 9c cc 40 3f
       0.5736754 0.58378565 1.9311047 0.7531221
000330 a5 a4 55 3f bd 7b 04 3f 1f 23 04 3f 56 b7 15 3f
       0.8345435 0.5175131 0.5161609 0.58482873
000340 72 fb 2a 3f 39 ed 2f 3f 08 15 fe 3e 4a dc 19 3f
       0.66789925 0.6872135 0.4962542 0.6010176
000350 ff 49 12 3f f1 a0 3a 3f ca fa da 3e 56 cb e6 3e
       0.5714416 0.7290183 0.42769462 0.45077008
000360 a0 81 40 3f 80 72 b9 3e 5b b5 18 3f 6f cb 25 3f
       0.7519779 0.3622017 0.59651726 0.6476354
000370 fc 05 53 3f 27 52 e6 3f ec db fa 3e 6a 02 2a 3f
       0.82431006 1.7993821 0.48995912 0.66409934
000380 9f 02 10 3f 5d 1c 17 3f c1 f1 b4 3e 5a 63 ea 3e
       0.56254 0.59027654 0.35340694 0.45778924
000390 f4 b0 2f 3f df b7 7c 3f 83 d2 ec 3e 1d 61 cc 3e
       0.68629384 0.98718065 0.46254358 0.39917842
0003a0 47 c6 34 3f 33 2c e7 3e c5 fa 0d 3f 7b 07 e5 3e
       0.7061505 0.4515091 0.5546077 0.4473227
0003b0 8e e9 fc 3e 4f fb 8c 3f 7c 50 04 3f 3a 18 dd 3e
       0.49396938 1.1014193 0.5168531 0.43182546
0003c0 72 63 28 3f 09 2a c2 3e e8 74 71 3f 3c 8d 42 3f
       0.6577674 0.37922695 0.9431901 0.75996757
0003d0 5a 38 55 3f 9c 19 0c 3f 25 a6 06 3f 25 ca 23 3f
       0.8328911 0.54726577 0.52597266 0.63980323
0003e0 4c aa 0f 3f 7c 03 fb 3e 4d cb 17 3f b6 60 48 3f
       0.5611923 0.49026096 0.5929459 0.7827257
0003f0 c5 71 0d 3f d6 d7 39 3f 41 77 17 3f 38 68 c2 3e
       0.55251724 0.72594965 0.5916634 0.37970138

bn1.weight f4 [300]
000000 40 4d 1a 40 2b 41 44 40 65 5e e7 3f b9 1a 5a 3f
       2.410965 3.0664775 1.8075682 0.85197026
000010 8a 66 e8 3f ae 24 35 40 5c 49 db 3f aa 99 c0 3f
       1.8156292 2.8303638 1.7131763 1.5046895
000020 0e 5d 89 40 14 78 52 40 ce 81 82 40 63 81 bb 3f
       4.292609 3.288579 4.0783453 1.4648861
000030 5a e2 ee 3f bc c3 e7 3f 54 8b d7 3f 5c 5b fc 3f
       1.8662827 1.8106608 1.6839395 1.9715381
000040 2c da e8 3f 19 28 f1 3f 86 20 24 40 52 8f 19 40
       1.8191581 1.8840362 2.564485 2.3993726
000050 38 5f 5b 3f 4f 81 6c 40 f2 90 da 3f 60 62 ae 3f
       0.8569217 3.6953924 1.7075484 1.3623772
000060 d7 41 48 40 d4 ba 74 3f ff 57 07 40 31 7c a1 3f
       3.1290185 0.9559758 2.1147459 1.2616025
000070 b0 2a b9 3f 72 4e fa 3f 34 00 ce 3f 8b 7c b5 3f
       1.4466152 1.955519 1.6093812 1.4178632
000080 d9 23 e8 3f 57 7a 3e 40 34 8e 29 40 ec e1 0f 40
       1.813594 2.976217 2.6493044 2.2481642
000090 de bd 10 40 7a fa 29 40 c8 0d f7 3f 4d ff 1a 40
       2.2615886 2.6559129 1.9301081 2.4218323
0000a0 1f 9d 06 40 42 c3 2c 40 3b 9f e3 3f 34 6b a2 3f
       2.10334 2.6994176 1.7782968 1.2688966
0000b0 84 78 0f 40 3d 96 f4 3f 6b 39 db 3f cc ea e0 3f
       2.2417307 1.9108349 1.7126898 1.7571654
0000c0 8c 44 28 40 4e f7 dd 3f b8 c7 fa 3f 63 cf 09 40
       2.6291838 1.7341096 1.9592199 2.1532829
0000d0 5c ef cf 3f 4f 53 5e 40 82 e1 da 3f 58 0f 21 3f
       1.6244922 3.4738348 1.710007 0.6291404
0000e0 c5 4c 28 40 f7 bb 18 40 df 8e f0 3f 4a c9 a1 3f
       2.6296856 2.3864725 1.8793601 1.2639554
0000f0 a8 ea 85 3f 40 7b 04 40 1a bc 53 40 0a 43 f0 3f
       1.0462236 2.0700226 3.3083558 1.8770459
000100 6f 45 53 40 9f 50 52 40 18 62 50 40 3a 2a 62 3f
       3.301113 3.2861707 3.2559872 0.8834568
000110 0e 1c 1a 40 ba 22 04 40 26 ed fd 3f ca f8 09 40
       2.4079623 2.0646195 1.9837997 2.1558099
000120 c2 a1 5e 40 01 64 be 3f 1b a1 e3 3f f6 4e ab 3f
       3.478623 1.4874269 1.778354 1.3383472
000130 0c 0c ef 3f f7 56 10 40 60 95 3f 40 e4 e8 da 3f
       1.8675551 2.255308 2.9934921 1.7102323
000140 c8 cb de 3f f2 ca e8 3f c6 9b 0c 40 f5 10 55 40
       1.7405939 1.8186934 2.1970077 3.32916
000150 a2 c4 fc 3f 18 76 20 40 24 cf 15 40 9a 5c e5 3f
       1.9747508 2.5072079 2.3407679 1.7918885
000160 35 54 ae 3f a4 2e 33 40 87 13 7b 40 db 05 56 40
       1.3619448 2.7997217 3.9230669 3.3441074
000170 96 0b 7e 3f bd af 11 3e 6d d5 09 40 e2 59 1f 40
       0.9923643 0.14227195 2.1536515 2.489861
000180 54 8d ce 3f 9c ac 0e 40 41 aa 2e 40 85 36 79 40
       1.613688 2.2292852 2.7291415 3.8939526
000190 a9 87 02 40 50 8b 10 40 bd 5c fc 3f 93 50 4c 40
       2.03953 2.258503 1.9715801 3.1924179
0001a0 45 77 ce 3f 13 ae e6 3f 38 f1 f3 3f 90 9b 1b 40
       1.6130148 1.8021873 1.9057989 2.4313698
0001b0 85 32 1d 40 3e ac e0 3f 24 f1 2b 40 b7 2e ba 3f
       2.4562085 1.7552564 2.686593 1.4545506
0001c0 d9 b6 be 3f 57 04 01 40 de 71 0d 40 89 ea e3 3f
       1.4899551 2.01589 2.210075 1.780595
0001d0 17 2b f8 3f af 0f db 3f 25 4f 70 40 97 ef 40 40
       1.938815 1.7114161 3.7548306 3.0146234
0001e0 f0 2d 0e 40 63 2e 81 40 b5 45 05 40 88 fa 62 40
       2.2215538 4.0369124 2.0823796 3.5465412
0001f0 45 f7 3f 40 e7 51 e4 3f a7 77 e0 3f 11 d6 cd 3f
       2.9994671 1.7837495 1.7536515 1.6080953
000200 88 93 3f 40 21 3f 82 3f 6b 8b 1f 40 1c 16 0a 40
       2.9933796 1.0175515 2.4928844 2.1575994
000210 b3 80 9b 3f 37 dd e3 3f 83 27 c3 3f 25 4e 12 40
       1.2148651 1.7801884 1.5246433 2.2860196
000220 4d a0 4d 40 68 98 18 40 8c c0 0e 40 e3 23 af 3f
       3.212909 2.3843021 2.2305021 1.3682827
000230 b3 cd 25 40 9d 1e d8 3f 62 30 08 40 e4 24 8f 3f
       2.59068 1.6884342 2.127953 1.1183133
000240 9c 28 5e 40 69 3b e3 3f 23 6a 48 40 1b 59 ed 3f
       3.4712286 1.7752506 3.131478 1.8542818
000250 f2 fe a6 3f fe 86 14 40 b0 f2 07 40 b2 75 2c 40
       1.3046553 2.3207393 2.1241875 2.6946836
000260 14 3e 0e 40 d0 d2 00 40 11 f2 16 40 c4 f4 dc 3f
       2.222539 2.012867 2.3585246 1.7262197
000270 ef 0a cc 3f 4e 5b f6 3f 7f f0 11 40 80 49 03 40
       1.5940837 1.9246614 2.2803037 2.051361
000280 19 2d e9 3f 4c d3 ee 3f 36 cc b7 3f df 69 f7 3f
       1.8216888 1.8658233 1.4359195 1.9329184
000290 84 6e 13 40 75 dd c4 3f 9a e2 d2 3f b2 c6 32 40
       2.3036203 1.5380083 1.6475403 2.7933774
0002a0 11 6e a6 3f 1b ac 94 3f 60 42 a9 3f c6 51 cd 3f
       1.300234 1.1615022 1.3223381 1.604058
0002b0 4e 0a ff 3f 7f d1 0e 40 51 c6 a3 3f 35 07 15 3e
       1.992502 2.2315366 1.2794896 0.1455353
0002c0 39 f4 05 40 cd 11 36 40 4e b7 08 40 3e 8e 01 40
       2.0930312 2.8448365 2.136188 2.0243068
0002d0 a5 33 84 3f cb 0d 59 40 15 4f 33 40 d7 cf c9 3f
       1.0328261 3.3914669 2.8017018 1.5766553
0002e0 ae 4d 20 40 2e b4 05 40 3d b1 c7 3f 7d fa c2 3f
       2.5047412 2.0891223 1.5600964 1.5232693
0002f0 66 cb cd 3f 74 d0 29 40 cb fe 46 40 89 7e 8e 3f
       1.6077697 2.653348 3.1093013 1.1132365
000300 12 db 1f 40 57 db 12 40 60 0c 1e 40 41 d9 f4 3f
       2.497746 2.2946374 2.4695053 1.9128801
000310 a4 a4 10 40 8d 6d f9 3f c1 84 b8 3f 7e 09 13 40
       2.2600489 1.9486557 1.4415513 2.2974544
000320 96 7a f5 3f 11 3d 70 40 21 b6 d0 3d f8 62 b8 3f
       1.9178035 3.7537272 0.10190988 1.4405203
000330 78 c7 32 40 25 14 b1 3f 45 56 f3 3f e2 bf 41 40
       2.7934246 1.3834273 1.9010702 3.0273366
000340 78 57 46 40 fa e3 11 40 1c 03 5c 40 d1 f9 94 3f
       3.0990887 2.2795396 3.4376898 1.1638738
000350 31 38 04 40 4b 6f d7 3f be 2e a8 3f 59 96 c0 3f
       2.0659297 1.6830839 1.3139265 1.5045882
000360 e3 a2 8c 3f 50 ce 13 40 62 52 c5 3f 78 78 24 40
       1.0987209 2.3094673 1.5415766 2.5698528
000370 7e 73 fd 3f 3b 7d f6 3d 1c c2 ef 3f 14 95 a4 3f
       1.980087 0.120356046 1.8731112 1.2857995
000380 46 2c 03 40 66 bd ca 3f 85 f7 19 40 19 2f e0 3f
       2.0495772 1.583905 2.4057324 1.7514373
000390 2b b6 15 40 66 4b 13 40 c8 d7 1b 40 8c b4 13 40
       2.3392437 2.301477 2.4350452 2.3078947
0003a0 49 68 eb 3f 09 27 f0 3f a3 55 f1 3f c6 5e 0b 40
       1.83912 1.8761913 1.8854259 2.1776595
0003b0 03 19 6a 40 90 c5 32 40 68 a9 60 40 45 4f f0 3f
       3.6577766 2.7933083 3.5103397 1.8774191
0003c0 f0 73 b8 3f 30 7c 47 40 50 b6 1f 40 96 26 4d 40
       1.4410381 3.1169548 2.4955025 3.20548
0003d0 4b 48 70 40 72 93 2a 40 32 59 a4 3f ee 40 42 40
       3.7544124 2.6652493 1.283972 3.035213
0003e0 fe d7 d2 3f 45 7b df 3f 6e 29 da 3f 81 4b fb 3f
       1.6472166 1.7459494 1.7043893 1.9632417
0003f0 34 7b 06 40 52 df 87 3f 0a ac 98 3f 36 0d a7 3f
       2.1012697 1.0615027 1.1927502 1.3050907

bn1.bias f4 [300]
000000 54 58 0c bf 80 75 71 bf 01 a1 9b bf 0e 22 44 bf
       -0.5482228 -0.94319916 -1.215851 -0.76614463
000010 cd d6 6a bf fc e5 88 be d2 a2 40 bf 3d a0 9e bf
       -0.9173401 -0.26737964 -0.75248444 -1.2392651
000020 6d 28 15 3f 0f 8f db bd db 56 9e 3e 3b 35 5d bf
       0.5826481 -0.10720646 0.3092564 -0.8640935
000030 a7 e2 ad bf b5 97 6a bf 90 c0 5a bf f3 40 49 bf
       -1.3584794 -0.91637737 -0.8545008 -0.7861473
000040 be 30 90 bd 1c 4c 1e bf 22 15 16 bf ff 00 92 be
       -0.07040547 -0.61834884 -0.58625996 -0.28516385
000050 91 58 17 bf 5d 64 12 3f fd 1d 88 bf 19 fe 73 bf
       -0.59119517 0.5718439 -1.0634152 -0.953096
000060 6a 1e ee 3d 79 7a d1 bf 0a a9 15 bf 83 53 6d bf
       0.11626895 -1.6365501 -0.5846106 -0.92705554
000070 20 1a 73 bf a3 d1 a2 be 78 86 5e bf c1 83 de be
       -0.9496174 -0.31800565 -0.86923933 -0.43459895
000080 ad 34 94 bf 86 bf c2 3c bc 25 e9 be ad 0e 73 bf
       -1.1578575 0.023772966 -0.45536602 -0.9494427
000090 2e 7a 79 be 4d 9d 85 bf b0 b2 8d be 07 8e 97 be
       -0.24363014 -1.0438629 -0.2767539 -0.29600546
0000a0 ee 4c 59 bf a2 d9 05 bf 25 71 ae be 8b 23 bd bf
       -0.8488301 -0.52285206 -0.34070697 -1.4776472
0000b0 b1 09 e0 be 83 d2 7a bf 83 0d 3d bf 24 3d 27 be
       -0.43757394 -0.97977465 -0.7384874 -0.16331917
0000c0 ea 9b 92 3e b1 6d 55 bf 85 99 4e bf 0e 89 62 bf
       0.28634578 -0.833705 -0.80703 -0.8849038
0000d0 60 e9 5f bf ab 56 b8 3d 49 56 49 bf d7 aa 52 bf
       -0.87465477 0.090009056 -0.78647286 -0.8229193
0000e0 2e f7 04 be 52 54 89 be 7a ff 5e bf 8b ae 94 bf
       -0.12984917 -0.26822144 -0.87108576 -1.1615766
0000f0 11 aa a4 bf 7f 70 87 be 6a df c4 be c1 b2 c3 bd
       -1.28644 -0.26453015 -0.384517 -0.09555579
000100 28 9b 2d 3f 51 12 58 be ad 75 3a be 37 d9 5b bf
       0.67814875 -0.21100737 -0.18208952 -0.8587832
000110 46 f8 0a bf c4 6f 10 3d 58 90 76 bf b5 10 b7 be
       -0.54285085 0.035262838 -0.96314 -0.35754934
000120 76 11 14 3d 68 15 40 bf 95 8e 16 bf 50 44 78 bf
       0.036149465 -0.75032663 -0.5881131 -0.96979237
000130 b0 fb 97 bf 8b 1c 30 bf 42 c0 07 bf 30 18 82 be
       -1.1873684 -0.68793553 -0.5302774 -0.2540908
000140 cc 4b 39 be 31 e7 88 bf 49 ed b2 be 26 12 9c bd
       -0.1809532 -1.0695554 -0.3494666 -0.07620649
000150 a7 e1 55 bf 11 4e 31 bf ae fe 13 3f f7 03 e3 bd
       -0.83547443 -0.69259745 0.57810485 -0.110847406
000160 9c e6 95 bf cf 1f df 3e eb 1b 02 3d 62 86 00 bf
       -1.1711001 0.43578956 0.031764906 -0.5020505
000170 6d 9d a0 bf 64 44 7d bf 5d 5e f9 bd 51 91 a1 be
       -1.2548043 -0.9893248 -0.121762015 -0.3155618
000180 9d ae 9d be 7f 73 5c bf 98 22 59 bf 13 0b 96 be
       -0.30797282 -0.86113733 -0.8481841 -0.29305324
000190 6e 40 40 3e 40 57 89 be 5a fa ca be f0 11 f9 be
       0.18774578 -0.2682438 -0.39644128 -0.48646498
0001a0 8f 78 98 bf 50 1c 27 bf 5a d9 0e bf b8 d7 ce 3d
       -1.1911792 -0.65277576 -0.558004 0.10099739
0001b0 8f 75 92 3e 78 7e dc be 28 e5 11 bf 65 76 af bf
       0.28605315 -0.43065238 -0.5699029 -1.3708006
0001c0 d2 c1 a2 bf 9b 19 05 bf d7 e0 9c be 52 06 5e bf
       -1.2715399 -0.51992196 -0.3064029 -0.86728394
0001d0 92 f3 d9 be 62 cc ab bf a6 7e 83 be a5 4d dd bc
       -0.42568642 -1.3421748 -0.25682563 -0.027014563
0001e0 75 89 14 bf dd f8 1e 3f fa 73 70 bf 9a 56 7d bd
       -0.5802224 0.62098485 -0.93926966 -0.061850168
0001f0 bb 9d 8e be 0f f6 61 bf db e7 58 3d 8e 36 26 bf
       -0.27854714 -0.8826608 0.05295549 -0.64926994
000200 b0 9b fd bd 2a 55 9c bf a9 4a 2e bf 50 c1 6a bf
       -0.12383211 -1.221349 -0.6808267 -0.9170122
000210 4b 6f 87 bf 6d 1e 73 3d d1 33 2d bf 69 a1 0a bd
       -1.0580839 0.05935519 -0.6765719 -0.03384534
000220 9f a9 b6 3e ff c4 c6 be fd 2c 1d bf b0 68 be bf
       0.35676286 -0.3882217 -0.6139677 -1.4875698
000230 b1 5c bf be 7a 29 8b bf 5a 91 0d bf a8 25 8b bf
       -0.37375405 -1.0872033 -0.55299914 -1.0870867
000240 4c 40 e8 bd 34 3e 56 bf f2 55 52 be 8c 4a ef be
       -0.11340389 -0.83688664 -0.20540598 -0.46736562
000250 4f 3a 7a be ae 43 0b be 8f ca 17 bf cb 67 04 bf
       -0.24436305 -0.13600037 -0.59293455 -0.51720876
000260 6f 74 e7 be 92 c0 81 bf bd 04 8b bf bb e4 42 be
       -0.4520602 -1.0136893 -1.0860821 -0.19032566
000270 80 1b 72 bf d5 81 93 bf 19 b1 c2 be e1 dc f3 be
       -0.9457321 -1.1523997 -0.3802574 -0.47629455
000280 a3 5e 97 bf b3 f8 7e be c0 85 6f bf 9b a3 99 bf
       -1.1825756 -0.24899559 -0.9356346 -1.2003053
000290 84 be 7d be ab 50 9d bd 8d 4e 97 bf 01 d0 d0 3c
       -0.24779707 -0.07681402 -1.1820847 0.025489809
0002a0 c7 a8 c5 bf c3 53 08 be 60 c3 42 bf ff b8 c9 bb
       -1.5442132 -0.13313203 -0.7607937 -0.0061560865
0002b0 f5 9a 5c bf a1 53 3a bf 29 51 d8 bf b4 8a 7d bf
       -0.86173946 -0.7278386 -1.6899768 -0.9903977
0002c0 d0 57 36 bf 7a 21 53 3e ba 65 2b bf 31 d7 bb be
       -0.7122774 0.20618239 -0.669521 -0.36687616
0002d0 90 39 18 bf 19 80 56 bf ef a7 ae be c7 b3 b0 bf
       -0.59462833 -0.8378921 -0.34112498 -1.3804864
0002e0 3f c0 3c bf b7 6d 77 bd e1 26 ed be 92 a1 4e bf
       -0.73730844 -0.060407367 -0.46318725 -0.80715287
0002f0 6d 5f ca be 7c ec 11 3e 34 c6 29 bf b0 17 08 bf
       -0.3952593 0.14250368 -0.6631806 -0.53161144
000300 8c 65 0f be 9c 18 c8 be 20 cc 97 be 69 c9 ae be
       -0.14003581 -0.39081275 -0.29647923 -0.3413804
000310 6f 8c 36 bf fd 23 f1 be c9 03 80 bf c0 26 23 bf
       -0.71308035 -0.4709777 -1.0001155 -0.63731
000320 f0 a1 97 bf 23 15 26 be a6 ad 92 bf a9 52 d3 be
       -1.1846294 -0.16219 -1.1459243 -0.41274002
000330 68 f8 a1 be 46 a8 54 bf 45 0c 2f bf 41 50 a3 3c
       -0.3163483 -0.83069265 -0.68378097 0.019935729
000340 46 2a d8 3e 20 7d 2d 3d d6 f9 da 3e c1 4a 6d bf
       0.42219752 0.042355657 0.42768735 -0.9269219
000350 76 d4 fe 3c e3 e2 6f bf 31 94 90 bf 18 48 fa be
       0.031107169 -0.93705577 -1.1295224 -0.48883128
000360 8b f1 a8 bf 00 00 31 bf c8 7d e3 be 0e b0 01 3e
       -1.3198713 -0.69140625 -0.444319 0.12664816
000370 72 8e 01 bf 0c d1 7a bf 29 31 e2 be 7a 39 6d bf
       -0.5060798 -0.9797523 -0.4417813 -0.9266583
000380 51 56 66 bf d6 f6 1f bf 19 6b 16 bf af ae f5 be
       -0.8997546 -0.62486017 -0.5875717 -0.47984836
000390 9a 93 44 bf 30 d9 d3 bd 70 09 b2 be 3d ec 76 be
       -0.7678772 -0.103441596 -0.34772825 -0.24113555
0003a0 bc 4d 6a bf fc 6d 72 bf 46 01 c9 bf ca 71 c1 3d
       -0.91524863 -0.9469907 -1.5703514 0.09445532
0003b0 fc a9 ce bd 8f 6b 40 bf db d4 20 be 29 ae 6c bf
       -0.10091016 -0.7516412 -0.15706198 -0.9245325
0003c0 28 b5 77 bf 18 42 29 be 9c 45 63 bf 47 79 80 3e
       -0.967608 -0.16529119 -0.8877809 0.25092527
0003d0 f4 f6 83 3e 1b 88 ba bd 8b 03 b7 bf ee 92 2b bf
       0.25774348 -0.09107991 -1.4297956 -0.6702107
0003e0 04 67 10 bf 6a 7f 85 be 40 12 a0 bd 40 b7 9c be
       -0.5640719 -0.26073772 -0.07815981 -0.3060856
0003f0 5d 0a 72 be 90 43 51 bf bf 85 23 bf 08 e3 86 bf
       -0.23636766 -0.8174372 -0.63875955 -1.0538034

l2.weight f4 [300, 300]
000000 13 9a ac bf d1 3d 71 3f d5 2f 9c bf 06 66 a0 bd
       -1.348452 0.9423495 -1.2202097 -0.078319594
000010 f0 c0 89 3e c9 a8 0b 40 18 3e 8d 3f 68 34 2a 3e
       0.26905012 2.1821768 1.1034575 0.16621554
000020 b4 70 ae bf 37 f8 20 40 e6 e5 83 3e a4 98 f6 3e
       -1.3628144 2.5151498 0.25761336 0.4816333
000030 79 f4 9d 3f f6 97 0f be 57 f7 59 3f 8c 56 0d 40
       1.2340232 -0.14022812 0.85143036 2.2084074
000040 ad 8c 1f 3e 06 f9 f0 be 5d 4a ff 3f 44 fd fa be
       0.15581007 -0.4706499 1.9944569 -0.4902135
000050 17 77 7c 3e fb 49 90 3d b3 5d 37 bf 45 94 27 be
       0.24654804 0.07045361 -0.7162735 -0.16365154
000060 bc 56 87 3f 00 4f 1b 3f f4 e4 ec 3f 93 35 ca bf
       1.0573344 0.6066742 1.8507371 -1.57976
000070 8b 8e a8 3f 0f 02 64 bf 39 80 be 3f b0 63 e1 3f
       1.3168501 -0.8906564 1.488288 1.7608547
000080 a1 97 17 bf 5d d4 17 bf 72 bd 30 3d 8f b6 04 40
       -0.5921574 -0.59308416 0.04314942 2.0736425
000090 4f e9 51 bd 36 b2 69 bf 38 45 9c 3f 2a 9c 7a 3e
       -0.05124789 -0.91287553 1.2208624 0.24473634
0000a0 33 cd e7 3e 3c 23 2f 3e 41 fc 18 3f d2 e5 8f 3f
       0.45273742 0.17103285 0.5975991 1.124201
0000b0 42 8f 14 3f 02 9d 07 3f b1 c3 ca be 00 99 b6 bb
       0.58031094 0.5297395 -0.39602426 -0.0055724382
0000c0 d5 82 46 40 09 20 18 be 71 e5 b5 3e d8 41 46 3f
       3.1017354 -0.1485597 0.35526612 0.7744422
0000d0 4f c0 2e 40 00 42 cc 3e 34 1f 8a 3d 33 ea de 3f
       2.7304876 0.39894104 0.06744233 1.7415222
0000e0 66 1e c1 3f 5a 3e a7 bf 53 60 79 bf 7e d5 05 40
       1.5087402 -1.3065903 -0.97412604 2.0911555
0000f0 75 99 29 40 e0 14 d3 3f aa 44 13 bf 6d b5 cd 3f
       2.6499913 1.6490746 -0.5752665 1.6070992
000100 70 ca db bf ad 25 9f bd 32 6d 85 3d 82 c0 1a 3f
       -1.7171154 -0.07770858 0.06514968 0.60449994
000110 c4 4b f4 3f 8d 2b bc 3f d4 06 98 be dd 26 89 3f
       1.9085622 1.4700791 -0.2969271 1.0714985
000120 11 70 85 3e 6b b3 e6 3f 58 e9 06 3f eb a1 ce 3f
       0.26062062 1.8023504 0.52699804 1.6143163
000130 f0 98 b0 3d 85 ae 3e c0 33 af d3 be bd 04 ac 3e
       0.086229205 -2.9794018 -0.41344604 0.33597365
000140 0d 13 79 3d a4 fa 92 3f cf 20 18 be 55 39 a1 3f
       0.060809184 1.148274 -0.14856265 1.2595621
000150 79 67 83 be 14 fc e8 bf f8 0a 9a 3f 7b 7d cd 3f
       -0.2566488 -1.8201928 1.2034597 1.6053919
000160 f0 f6 6e 3d 4e 2b e7 3e 56 98 7a bf b9 14 39 3f
       0.058340967 0.45150226 -0.97888696 0.72297245
000170 a6 e7 23 3f b9 03 52 3e 67 cb 62 3f 68 99 98 3f
       0.6402534 0.20509233 0.8859162 1.1921816
000180 3e 1f 18 3f 02 71 0c 40 51 51 90 3f c7 04 40 be
       0.5942267 2.1943974 1.1274816 -0.18751822
000190 72 f0 4b bd 87 45 74 3f e4 a5 4e 3f d6 cf 0b 40
       -0.049789853 0.9541859 0.8072188 2.1845603
0001a0 24 cb 25 3f 44 54 70 3d 75 dc 3b 3e e3 b7 02 3e
       0.64763093 0.058674112 0.18345816 0.1276546
0001b0 9f d9 e4 be cb 0b 8f 3e e3 13 27 3e d7 0e c9 bf
       -0.44697282 0.27938685 0.1631618 -1.5707654
0001c0 b6 8f 70 3e 7e 0b e3 3e 99 5f 95 3e 87 85 99 bf
       0.23492321 0.44344705 0.29174498 -1.1993874
0001d0 d9 25 51 c0 8c ba 35 3f 8c aa 94 3f 2f 36 cc 3d
       -3.267935 0.7098777 1.1614547 0.09971272
0001e0 bb ea f2 3f d7 b5 18 bf 39 9b 58 3f 8c 4f 2a 3f
       1.8977884 -0.59652466 0.8461185 0.6652763
0001f0 12 53 6a be a7 4b 37 3f 1e c2 de be da b0 35 40
       -0.22883251 0.7159981 -0.43507475 2.8389192
000200 2f 75 8b bf 78 d2 15 3f f3 4f 6e bf 6a 63 8c be
       -1.0895137 0.58524275 -0.9309074 -0.27419597
000210 b0 e9 36 3f 7e 3f c5 3f 41 df 98 3f e8 d1 5d bf
       0.7145033 1.5410001 1.1943132 -0.86648417
000220 f1 df ea 3f 37 64 c3 3f 39 ec f6 be cc 4b dc bf
       1.8349591 1.5264958 -0.482271 -1.7210631
000230 89 2f 97 3f b3 f7 60 3f d3 f9 cb bf 13 fc 91 be
       1.1811382 0.8787796 -1.5935615 -0.2851263
000240 de 41 22 bf f8 88 24 40 26 f3 03 3f 3e 74 0c 40
       -0.63381755 2.57086 0.5154289 2.1945949
000250 e8 78 23 3f 39 11 b1 3e 15 1f b0 3d 17 c7 1b bf
       0.63856363 0.34583452 0.085996784 -0.6085066
000260 41 02 ad 3e 64 af 30 3f 5a 84 c0 3e 7f b9 d2 3f
       0.33790782 0.69017625 0.37600976 1.6462859
000270 d3 54 5e bf 5e 3e 80 3d 80 4d 97 3e f7 5f 08 40
       -0.8684818 0.062618956 0.29551315 2.1308572
000280 1b d4 30 40 24 a3 45 be dc 90 de 3e 20 46 84 3f
       2.762946 -0.19300514 0.43469894 1.03339
000290 e4 b2 8c 3e f4 ed e4 3d fe 24 cf bf 31 d6 ec bc
       0.27480233 0.111781985 -1.6183164 -0.028910728
0002a0 01 f9 95 be 31 d3 9e 3e dd 15 9f be 6c f1 76 bf
       -0.29291537 0.310205 -0.31071368 -0.9646213
0002b0 57 d8 d5 3f 46 f9 18 c0 39 39 10 40 84 71 f6 3c
       1.6706647 -2.3902144 2.2534926 0.030083425
0002c0 e0 38 09 40 da 21 26 3f 5a 4b a3 3f 79 71 89 3f
       2.1440964 0.64895403 1.275737 1.0737754
0002d0 be 5d d2 be f9 aa b7 bf 63 44 4a bf c8 60 f9 3f
       -0.41087145 -1.4349052 -0.790106 1.948266
0002e0 84 70 c7 3d 4b 40 5d 3f 5b 43 97 3e 0f 17 af 3f
       0.097382575 0.8642623 0.29543576 1.3678912
0002f0 61 8e 21 3f 24 03 3b 3f ba 21 8d 3f c3 55 63 3f
       0.6310788 0.7305167 1.1025918 0.88802737
000300 4b 88 f2 3f 1c 74 3d bf 45 b3 45 bf cd 98 d2 be
       1.8947843 -0.74005294 -0.7722667 -0.41132203
000310 12 cb 88 bf c7 eb ae bd 6c b1 a1 3e 1f 83 98 3e
       -1.0686972 -0.08541065 0.31580675 0.29787537
000320 3f 00 68 bf c6 bf 7c bf 55 09 11 3e 67 8a ec be
       -0.90625376 -0.98730123 0.14163716 -0.46199343
000330 f8 f5 5a 3e 34 87 14 3f 19 74 bc 3f e3 f4 e3 3f
       0.21382892 0.58018804 1.472293 1.7809108
000340 1a 99 23 3e f8 bc 3b bf f0 57 7a 3f 5d 5b 0b 3f
       0.15976372 -0.7333522 0.9779043 0.54436284
000350 b8 9d cc 3e 67 1d 41 3f 3a b2 c4 3f 43 08 c8 3f
       0.3996408 0.7543549 1.536689 1.5627521
000360 45 70 85 3f a3 e7 7e 3f 00 d0 b5 3f fa c5 c2 3f
       1.0424887 0.995722 1.4204102 1.5216668
000370 56 f1 25 be 1b 82 7d 3e be d9 ff 3f 40 7d 3f 3d
       -0.16205344 0.24756663 1.9988325 0.046750307
000380 03 04 8b bf b0 d5 4e bf 77 0b 42 be d8 18 03 3f
       -1.0860599 -0.8079481 -0.18949686 0.51209784
000390 18 df 25 bf 8b 40 9d 3d d6 89 2a 3e a9 9d a7 3f
       -0.6479354 0.07678326 0.16654143 1.3094989
0003a0 65 ff 33 bf 3f 17 82 3f e4 ae a4 3f c2 db 39 be
       -0.70311576 1.0163344 1.2865872 -0.18150237
0003b0 6a 26 1a 40 e6 e2 12 3f 77 cd ad be a8 a0 94 3f
       2.4085946 0.5737747 -0.3394582 1.1611528
0003c0 0d e7 90 3c 70 69 1d 3f 75 3a cd be 4f 1f 83 bf
       0.017688299 0.6148901 -0.40083662 -1.024393
0003d0 65 36 ff be 7e e4 8b 3f 7c 1f bc 3f c2 6c 04 3f
       -0.49846187 1.0929105 1.4697108 0.5172845
0003e0 bc 4a 65 be e6 79 19 3f 71 fd 08 40 2d 3c ef 3e
       -0.2239179 0.5995163 2.1404688 0.46725598
0003f0 02 e9 80 be 29 46 07 3f f1 90 e5 3e 23 aa 5b 3f
       -0.2517777 0.5284143 0.44837144 0.85806483

l2.bias f4 [300]
000000 dc 31 8a 3f cc ad 1c 3f 15 34 c4 3f 4d cc 04 3f
       1.0796466 0.61202693 1.5328394 0.5187424
000010 61 50 62 3f 53 a1 8e 3f 44 1a 85 3f 23 94 ba 3f
       0.884039 1.1142982 1.0398641 1.4576458
000020 5d d5 80 3f 00 da a4 3e b9 7e 91 3f 1f 6a 3b 3f
       1.0065113 0.3219757 1.1366798 0.732088
000030 52 04 43 3f 3d cc 1c 3f 00 83 b2 3f 5c 95 85 3f
       0.7617847 0.6124914 1.3946228 1.0436206
000040 f3 b7 73 3f fb 4a 21 3f a5 96 9f 3e 52 6d b8 3e
       0.9520256 0.63005036 0.3116962 0.36020905
000050 f7 cf f7 3e da ec 37 3f 82 85 61 3f 57 97 d1 3d
       0.48400852 0.7184578 0.8809434 0.10233944
000060 10 3e cc 3e 8c 81 bd 3e d2 fd e2 3f 22 a8 00 3d
       0.398911 0.370129 1.773371 0.031410344
000070 55 04 15 3d e8 43 b2 3f e3 bc a4 3f 25 0d 16 3f
       0.036381084 1.3926973 1.2870144 0.58613807
000080 21 de e6 3e 2f 98 14 3f c7 f0 87 3f f8 5a 6b 3f
       0.45091346 0.58044714 1.0620354 0.9193568
000090 70 2c 10 3f ec f0 1b 3f b3 2c c3 3f 29 24 09 3f
       0.56317806 0.6091449 1.5248016 0.535708
0000a0 23 e0 64 3f 7f 48 53 3e 7d f2 5d 3f 19 82 9a 3f
       0.89404505 0.20633124 0.8669813 1.2070953
0000b0 4d 9e 2c 3e 6e f7 63 3f 76 fc f2 3e c9 da 67 3d
       0.16857262 0.8904942 0.47458237 0.056605134
0000c0 0c 9a 0d 3f 9b 6a 5f 3f 45 4a 70 3f 21 f0 19 3f
       0.5531318 0.8727204 0.93863326 0.6013203
0000d0 8e 01 a0 3f b0 e5 79 3f 5d 08 ba 3f 4b 12 41 3f
       1.2500474 0.976161 1.4533802 0.7541854
0000e0 fe f9 7e 3f e8 9b 04 3f 69 bb 80 3f 6d fb 1f 3f
       0.9960021 0.51800394 1.0057193 0.6249302
0000f0 be 1b cb 3e 18 26 94 3f 1f f5 9b 3f ca 9a c1 3d
       0.39669603 1.1574125 1.218418 0.09453352
000100 92 3d 2d 3f 51 02 45 3f ac f0 98 3d 07 22 5c 3f
       0.67672074 0.7695666 0.074677795 0.8598942
000110 73 91 a5 3e 58 19 04 3f bb 34 8a 3e 98 a7 67 3f
       0.3233753 0.5160117 0.26993355 0.904901
000120 e7 fb 79 3f 2e f9 15 3f 10 c8 1e 3f 63 8d 2b 3f
       0.9765 0.58583343 0.6202402 0.67012614
000130 2e ae 17 3f 7b 39 06 3f a9 16 8f 3f d4 29 25 3f
       0.5925015 0.5243146 1.117879 0.6451695
000140 5d d7 52 3f b0 64 a3 3f bd b6 d8 3e a5 2e a4 3e
       0.8235987 1.2765102 0.42326918 0.32066837
000150 07 62 27 3f e4 e5 61 3f 00 ca 38 3f 94 28 42 3f
       0.6538395 0.8824141 0.7218323 0.7584317
000160 ed 63 95 3e 37 63 8d 3f 8b 9a bb 3f 40 fd 9d 3f
       0.291778 1.1045903 1.4656538 1.2342911
000170 b4 dd f2 3f 07 0d 1c be ba a7 6b 3f 5c 68 9d be
       1.8973908 -0.15239345 0.92052805 -0.30743682
000180 ee 62 42 3f b5 42 5d 3f 92 6c 13 3f 03 ce 2e 3f
       0.75932205 0.8642991 0.5758754 0.682831
000190 81 e3 27 3f 54 21 ed 3e 8d 9f c2 3c ea da 3c 3e
       0.6558152 0.4631449 0.02375772 0.18442884
0001a0 95 10 79 3f 50 c7 72 3f 3f 2c 3c 3f 1c 2d 91 3f
       0.9729093 0.94835377 0.73505014 1.1341891
0001b0 33 61 34 3f cb 92 de 3e 5b 27 94 3f ea 02 88 3f
       0.70460814 0.4347137 1.157451 1.0625889
0001c0 fe 14 40 3f b1 39 a8 3f 3b 21 29 3f fa 67 63 3f
       0.7503203 1.3142606 0.6606633 0.8883053
0001d0 3e 9c dd 3e 5d 68 fe 3e 18 78 34 3f 44 de 4d 3f
       0.43283266 0.49688998 0.7049575 0.80417275
0001e0 b8 9b 20 3f 06 46 13 3c 7c 4e 75 3f 59 0a 38 3f
       0.6273761 0.008988863 0.9582288 0.7189079
0001f0 fe 8c 03 3f 75 12 47 3f ac 46 81 3e 24 88 90 3f
       0.5138701 0.7776254 0.2524923 1.1291547
000200 90 36 50 41 cb 17 99 3f 11 8f dd 3e 5e 59 6f 3f
       13.013321 1.1960386 0.43273214 0.9349574
000210 fe 40 5c 3f 4e c3 12 be fe b6 0b 3f f3 8e 4d 3f
       0.8603667 -0.14332315 0.545761 0.8029625
000220 2f c9 82 3f 80 83 8b 3f 96 b5 4f 41 9d 5c 5f 3f
       1.0217646 1.0899506 12.9818325 0.8725069
000230 e7 64 5f 3f ad 30 6d 3f 3e f6 60 3f 5d c5 46 3f
       0.8726334 0.926524 0.87875736 0.776449
000240 07 99 55 3e 40 0c 0f 3f 31 51 61 3f a4 d0 c9 3f
       0.20859157 0.55878067 0.88014513 1.5766797
000250 15 90 58 bc f7 ef 87 3f d4 ff 77 3f 6c ff 99 3f
       -0.013217946 1.0620106 0.9687474 1.2031074
000260 40 a2 dd 3e 3b e7 84 3d c3 70 14 3f 54 ae 57 3f
       0.4328785 0.06489416 0.5798456 0.8425038
000270 a3 21 07 3f f3 de 69 3f 46 1c 5e 3f 01 e5 8b 3f
       0.527857 0.9135582 0.8676189 1.0929261
000280 5b ce 89 3f 11 96 73 3f 3e e6 c1 3f be 3b 27 3f
       1.07661 0.9515086 1.5148389 0.65325534
000290 25 dc 58 3f 83 68 95 3f 93 88 85 3f 31 07 72 3f
       0.84710914 1.167252 1.0432304 0.94542223
0002a0 cb 85 2e 3f ef 1d 99 3f 0e 67 98 3f 6d 2d 64 3f
       0.681729 1.196226 1.190645 0.89131814
0002b0 40 31 b5 3e 31 a2 90 3f f8 0b 13 3e 86 22 52 3f
       0.35389137 1.1299497 0.14360034 0.8208393
0002c0 1e 19 7a 3f 83 4b 9d 3f a9 81 c9 3e 1d 33 2a 3f
       0.97694576 1.2288669 0.39356735 0.6648424
0002d0 eb dd 35 3f 7d 8f 96 3f 5f e3 f0 3e e6 c2 28 3f
       0.71041745 1.1762539 0.4704847 0.6592239
0002e0 21 65 e5 3d ae 56 c1 3f 85 31 30 be 15 e7 cd 3e
       0.112009294 1.5104578 -0.1720639 0.40215364
0002f0 e2 78 dd 3e 3e b8 5d 3e 2a 4d 70 3f 95 83 13 3f
       0.4325629 0.21652314 0.93867743 0.57622653
000300 64 8d 3e 3f ca 97 98 3f a5 3a 17 3d 31 7b 05 be
       0.74434495 1.1921322 0.036921162 -0.13035275
000310 e3 bc b7 3f f3 b0 a9 3f 48 48 27 3f 93 91 1b 40
       1.4354519 1.3257126 0.6534467 2.4307601
000320 e0 bc c6 3e 31 94 46 3f f7 f6 79 3e 56 31 1a be
       0.38815975 0.7756987 0.24410616 -0.15057883
000330 32 89 a8 3d 76 24 23 3f 58 7d 2a 3f ee 83 d2 3e
       0.08229293 0.6372751 0.6659751 0.4111628
000340 f3 91 df 3e 6e f9 4b 3f 6d d6 f0 bd 2b f4 50 41
       0.43666038 0.79677474 -0.117596485 13.059611
000350 4e b9 23 3f 03 2d d9 3e 4b 0d 3f 3f df 68 95 3f
       0.6395463 0.42417154 0.7462966 1.1672629
000360 08 0f 0b 3f 6f 2c e5 bd da 0f 3f 3f 52 bf 56 3f
       0.5431981 -0.11190116 0.7463356 0.8388568
000370 98 05 22 3f 05 e7 bc 3e 62 17 71 3f 18 aa 1b 3f
       0.63289785 0.36895004 0.94176304 0.6080642
000380 45 c1 c9 3f 5e 29 88 3e 9b 29 b6 3f 23 db 4c 41
       1.5762106 0.2659406 1.4231447 12.8035
000390 d5 45 9f 3e b3 51 00 3f 30 c8 58 3f 9e 07 a3 3f
       0.31107965 0.50124663 0.8468046 1.27367
0003a0 0c e7 24 3e cb cb 88 3f 63 a1 50 41 79 49 0e 3f
       0.16103762 1.0687193 13.039401 0.5558086
0003b0 84 c2 a5 3d 93 24 47 3f 84 bf 48 3f f1 2c 14 3f
       0.080937415 0.7779018 0.7841723 0.57881075
0003c0 ab 6e 4e 3f 03 5e d2 3f bc bd f0 3e 85 6d e0 3e
       0.80637616 1.643494 0.47019756 0.43833557
0003d0 ed 03 7b 3f 49 f5 05 3f 3e 6e c8 3e 37 3d e4 3f
       0.98052865 0.523274 0.39146608 1.7831181
0003e0 d1 81 0a 3f 74 6f 7f 3e 36 b0 13 3f ec 07 68 3f
       0.54104334 0.2494486 0.5769075 0.9063709
0003f0 2b c2 8b 3f 1f 49 96 3f e4 0e 4b 3f cc 7f ae 3f
       1.091863 1.1741065 0.79319596 1.363275

bn2.weight f4 [300]
000000 58 7e 10 40 af c1 08 40 1c 81 bc 3f 93 32 07 40
       2.2577114 2.1368215 1.4726901 2.1124618
000010 e6 ea 45 40 08 60 10 40 f8 9a c7 3f 39 f0 c8 3f
       3.092462 2.2558613 1.5594168 1.569831
000020 f7 3c 2e 40 71 d1 20 40 ee 36 f5 3f d7 23 11 40
       2.722471 2.5127833 1.9157388 2.2678125
000030 b5 6f 16 40 76 01 fd 3f d3 ad b0 3f 9c c9 ee 3f
       2.350568 1.9766071 1.3803047 1.8655276
000040 52 88 2c 40 24 e7 25 40 e7 71 13 40 12 05 1f 40
       2.6958203 2.5922327 2.303827 2.4846845
000050 e1 17 0f 40 d6 2e 16 40 28 03 f9 3f 64 16 03 40
       2.2358325 2.3466086 1.9454088 2.0482416
000060 a7 e3 10 40 b7 93 18 40 f3 98 07 40 e7 47 4c 40
       2.2638948 2.3840158 2.1187103 3.1918886
000070 01 20 3d 40 25 18 28 40 cd ab 23 40 71 cf e7 3f
       2.9550784 2.6264737 2.557361 1.8110181
000080 34 28 08 40 95 23 3c 40 55 1e 04 40 80 15 ef 3f
       2.1274538 2.9396718 2.0643513 1.8678436
000090 3a 36 27 40 79 a4 1a 40 39 44 02 40 d7 66 08 40
       2.6126847 2.4162886 2.035414 2.1312768
0000a0 c9 18 03 40 01 ba 58 40 be 49 07 40 f6 8f f1 3f
       2.0483878 3.3863528 2.1138759 1.8872058
0000b0 ba fb 4a 40 04 32 0e 40 3a 5f 35 40 f4 ae 4d 40
       3.1716142 2.2218027 2.8339372 3.2138033
0000c0 93 ef 13 40 a4 fc 3e 40 83 17 f4 3f 01 58 0f 40
       2.3114974 2.98417 1.9069675 2.2397463
0000d0 d9 6a 01 40 39 ef 06 40 d7 07 1d 40 ef 08 f2 3f
       2.0221465 2.108351 2.4536035 1.8908976
0000e0 d8 65 fb 3f bd 6c 25 40 6e 49 47 40 09 57 1b 40
       1.9640455 2.5847619 3.1138568 2.4271872
0000f0 49 9e 5f 40 7a 10 bc 3f 8d 55 c1 3f df a5 45 40
       3.494036 1.4692528 1.5104233 3.088249
000100 16 db 14 40 f8 97 0d 40 b4 04 4c 40 de 8a e7 3f
       2.325872 2.2124004 3.187787 1.8089254
000110 0e 3a 11 40 5c c0 27 40 5d bb 05 40 fe 60 48 40
       2.2691684 2.6211157 2.0895607 3.13092
000120 34 44 e9 3f aa 91 e1 3f d4 56 29 40 62 e1 e6 3f
       1.8223939 1.7622578 2.6459246 1.8037531
000130 ff 06 1c 40 c7 e2 1a 40 a8 02 eb 3f b2 37 16 40
       2.437927 2.4200914 1.8360186 2.3471494
000140 d8 dc 19 40 14 04 18 40 3e 35 14 40 89 48 09 40
       2.4041042 2.375249 2.3157496 2.1450522
000150 4a 1e 29 40 a1 0a 32 40 45 52 13 40 5f ee 01 40
       2.6424737 2.7818987 2.3018963 2.030174
000160 a5 35 1a 40 64 0c db 3f ee fb 1f 40 0e 37 07 40
       2.4095242 1.7113156 2.4997516 2.1127353
000170 ea b0 d7 3f e1 20 22 40 03 c3 16 40 a7 a1 60 40
       1.6850865 2.5332568 2.3556526 3.5098665
000180 4c ca f2 3f 98 20 da 3f d7 ec 21 40 2c a4 07 40
       1.8967986 1.7041197 2.5300806 2.1193953
000190 d7 54 0a 40 90 06 1d 40 71 25 49 40 ef 40 0f 40
       2.1614282 2.4535255 3.1429102 2.2383382
0001a0 11 11 d6 3f a0 f1 22 40 72 77 e1 3f e1 19 24 40
       1.6723958 2.5459976 1.7614577 2.5640795
0001b0 54 87 0c 40 ed e3 f5 3f fd 3d 18 40 41 dc 26 40
       2.1957598 1.9210182 2.3787835 2.6071932
0001c0 d7 30 11 40 1d 99 e1 3f b9 65 08 40 3e 7c 0d 40
       2.268606 1.7624851 2.1312087 2.2107081
0001d0 bb 05 0b 40 7f c7 24 40 ce a5 11 40 de 3c 46 40
       2.1722248 2.5746763 2.275745 3.097465
0001e0 5a 18 10 40 53 68 10 40 ae a0 03 40 ec 75 49 40
       2.2514863 2.2563674 2.056682 3.1478224
0001f0 c4 3c 1d 40 03 06 1e 40 bb dd 10 40 90 ce b6 3f
       2.4568338 2.469117 2.2635334 1.4281788
000200 70 9d cb 3d a6 8b bf 3f a8 42 20 40 f3 e0 22 40
       0.09942138 1.4964492 2.5040684 2.5449798
000210 0a 66 fd 3f f2 5c 56 40 3f bb 03 40 f0 a3 15 40
       1.9796765 3.349423 2.0583036 2.338131
000220 fd d2 11 40 cc 1a 1f 40 f2 a8 e0 3d 06 e8 e1 3f
       2.2785027 2.4860106 0.10969724 1.7648933
000230 e1 95 b3 3f 4c fe 1d 40 da 27 20 40 66 cb c4 3f
       1.4030114 2.468646 2.5024323 1.5374572
000240 bc 16 23 40 f4 07 f6 3f ea dc 0f 40 a6 cc 1e 40
       2.5482626 1.9221177 2.2478585 2.4812407
000250 ef f6 22 40 10 56 08 40 f5 8a 14 40 63 55 e8 3f
       2.5463216 2.1302528 2.3209813 1.8151058
000260 fb cf 09 40 85 ca 52 40 1e c9 f4 3f d4 41 dd 3f
       2.1533191 3.2936108 1.9123876 1.7285714
000270 82 f7 13 40 b6 eb 05 40 f4 fe ff 3f e7 01 09 40
       2.3119817 2.0925117 1.999968 2.140741
000280 fa 3c d7 3f 1e d6 00 40 1d 7b d7 3f 5a 02 00 40
       1.6815484 2.0130687 1.6834446 2.0001435
000290 11 73 20 40 38 1b 02 40 54 62 14 40 80 b5 16 40
       2.507023 2.0329113 2.3185015 2.354828
0002a0 8c 60 e7 3f 90 3b 11 40 a7 7d 02 40 9c 09 21 40
       1.8076339 2.2692604 2.0389192 2.5162115
0002b0 08 88 08 40 a5 82 0a 40 a6 0f 2f 40 7e a1 da 3f
       2.1333027 2.164224 2.73533 1.7080534
0002c0 05 45 15 40 e4 19 0f 40 f3 32 e6 3f f2 17 16 40
       2.3323376 2.2359552 1.7984298 2.3452115
0002d0 6d 06 2c 40 50 f0 e6 3f 43 c8 12 40 38 f3 be 3f
       2.6878922 1.8042088 2.293473 1.4917974
0002e0 37 80 5d 40 41 0f e5 3f 79 30 4d 40 1f b5 12 40
       3.4609506 1.789528 3.2060835 2.2923048
0002f0 7f a3 de 3f b7 83 2a 40 9d 65 1c 40 e8 17 aa 3f
       1.7393645 2.6642892 2.443702 1.3288546
000300 e6 7e 03 40 0a 4a c0 3f ea bb 1b 40 8b c1 40 40
       2.0546203 1.5022595 2.4333444 3.011813
000310 db 4d b5 3f a4 24 16 40 d8 4a 1a 40 c8 c9 af 3f
       1.4164385 2.3459864 2.410818 1.3733454
000320 a6 ca 19 40 6e ae 2e 40 49 df f2 3f 7f a2 44 40
       2.4029937 2.7293963 1.8974391 3.072418
000330 b9 bb 30 40 bc f6 00 40 9f 81 0d 40 bf 0f 46 40
       2.7614577 2.0150595 2.2110364 3.094711
000340 21 90 15 40 ee 8d e5 3f b9 c9 4a 40 9a 8f e8 3d
       2.336922 1.7933939 3.1685622 0.11355515
000350 d1 59 f5 3f f5 36 de 3f f4 69 00 40 b9 b0 e2 3f
       1.9168035 1.7360522 2.0064669 1.7710181
000360 56 44 2d 40 1a 14 23 40 1d fc 2c 40 a0 82 1d 40
       2.707296 2.548102 2.7028878 2.4610977
000370 84 14 26 40 62 0a 09 40 ef 58 23 40 5e 81 ee 3f
       2.5950022 2.1412587 2.552303 1.863323
000380 75 91 0b 40 7e 5a 25 40 65 93 f8 3f ba c9 e3 3d
       2.180753 2.5836482 1.9419981 0.11122461
000390 33 87 16 40 12 e9 26 40 60 bb d4 3f 24 ea 16 40
       2.352002 2.6079755 1.6619682 2.3580408
0003a0 c8 45 33 40 23 06 03 40 eb 11 f8 3d f7 68 2b 40
       2.801134 2.0472496 0.121127926 2.6782815
0003b0 4e 05 0c 40 38 d0 27 40 e3 42 39 40 97 d6 32 40
       2.1878238 2.6220837 2.8947074 2.7943475
0003c0 4b 84 16 40 c6 30 c2 3f 14 1d 4b 40 99 85 09 40
       2.3518245 1.5171134 3.1736498 2.1487792
0003d0 f1 86 e5 3f 6e 83 06 40 4b 3f 40 40 f4 fa 85 3f
       1.7931806 2.1017718 3.003863 1.046721
0003e0 c6 81 1e 40 7d d4 50 40 28 54 19 40 38 d6 f7 3f
       2.4766707 3.2629693 2.3957615 1.9362249
0003f0 8d 20 1e 40 c8 c8 06 40 d4 e7 f4 3f a7 a6 e1 3f
       2.4707367 2.1060047 1.9133248 1.7628983
