weights/model_critic_127.pt (torch, 431175 bytes, 9 tensors)

l1.weight f4 [300, 42]
0	0xbe56a261	-0.2096038
1	0x3f478542	0.7793771
2	0xbdb550f6	-0.08853333
3	0xbf98ac01	-1.1927491
4	0x3e3eb0f1	0.18622185
5	0x40031d2f	2.0486562
6	0x3f58022d	0.8437832
7	0x3e0a3fa9	0.13500847
8	0xbf128281	-0.57230383
9	0x3eee3563	0.46525106
10	0x3f32b19e	0.6980227
11	0xbf0f7973	-0.5604469
12	0xbe9c8ff0	-0.30578566
13	0xbee643ed	-0.44973698
14	0x3fd529d1	1.6653386
15	0xbf9ce28c	-1.2256637
16	0x3e10bdab	0.14134853
17	0x4080c728	4.024311
18	0xbeea5c96	-0.45773762
19	0xc02d9c70	-2.7126732
20	0x3f0ed228	0.55789423
21	0x40bdf5f0	5.9362717
22	0xc062bdc4	-3.5428324
23	0x3e3a7afd	0.18210979
24	0x3ecf9c77	0.4054906
25	0xbfe3dcc6	-1.780175
26	0x3ff58813	1.9182152
27	0xbf4d538a	-0.80205595
28	0xc01fff86	-2.499971
29	0xc035747f	-2.8352354
30	0xbfdf4cfd	-1.744537
31	0x4006adcb	2.1043575
32	0xc0316418	-2.7717342
33	0xc06d8c9a	-3.7117066
34	0x3edd51b8	0.4322641
35	0x40275da6	2.6150908
36	0xbf9a95d8	-1.2076979
37	0xbf4d9423	-0.80304164
38	0xbf93ad16	-1.1537197
39	0x41159932	9.349901
40	0xc002d9c4	-2.0445414
41	0xc0875ab5	-4.2298226
42	0x3e8f422b	0.2798017
43	0x3db1114e	0.08645879
44	0x3e2e692e	0.1703231
45	0x3df208f1	0.11818112
46	0x3daf1e17	0.08550661
47	0x3bf667cb	0.0075196973
48	0x3df8a50d	0.12140856
49	0xbf8694ba	-1.0514138
50	0xbedb7673	-0.42863807
51	0xbf376e33	-0.71652526
52	0x3e962262	0.29323107
53	0x3f3656cc	0.7122619
54	0x3eb3e229	0.35133484
55	0xbea1f010	-0.31628466
56	0x40288000	2.6328125
57	0x3ec9e9e3	0.39436254
58	0xc00e1a53	-2.2203567
59	0x3ec10412	0.37698418
60	0xbf1584c6	-0.5840572
61	0xbe0e88dd	-0.13919397
62	0x3c2b2082	0.010444762
63	0x403214af	2.7825124
64	0xc006daa7	-2.1070955
65	0x3e843efb	0.258293
66	0x3e63d2f8	0.22248447
67	0xbf89da67	-1.0769776
68	0x3e6c9b6e	0.23106167
69	0x3f30a8e7	0.69007725
70	0x3fb0b8d3	1.3806404
71	0x3fb3b1cd	1.4038635
72	0xbf833675	-1.0250994
73	0x3f6dc7c2	0.9288293
74	0x411a440e	9.641615
75	0xc0198af6	-2.3991065
76	0x3e7e4395	0.24830468
77	0xc0a5598a	-5.16718
78	0x40929c15	4.581553
79	0x3ffcacea	1.9740269
80	0x3f07ea4f	0.530919
81	0xbc33683f	-0.010950147
82	0xbfbe3cc1	-1.4862291
83	0x3f3ef5d4	0.74593854
84	0x3f06afe7	0.52612156
85	0x3d6f9374	0.05849023
86	0x3eb3dd1f	0.3512964
87	0x3ec11843	0.37713823
88	0x3e925073	0.28577003
89	0x3e82ea0b	0.25569186
90	0x3d85b726	0.065290734
91	0xbf150b3d	-0.58220273
92	0x3e918b64	0.2842666
93	0xbf808412	-1.0040305
94	0x3f006ef3	0.50169295
95	0xbf1048bd	-0.5636099
96	0x3e5ba851	0.21450926
97	0xbf3806f2	-0.718856
98	0xbf28ad78	-0.6588969
99	0x3ee84d0e	0.45371288
100	0xbe7c4a68	-0.24637759
101	0xbfa34713	-1.2756065
102	0x3fc4fda3	1.5389904
103	0xbdec688b	-0.115433775
104	0x3f6881b4	0.9082291
105	0xbdac07cd	-0.083999254
106	0xbf92bacc	-1.1463256
107	0x3edffe47	0.43748686
108	0x3ebebfd6	0.37255734
109	0xbf4decbb	-0.8043935
110	0x3e260be4	0.16215473
111	0xc0206247	-2.5059984
112	0xbec7eb0a	-0.39046508
113	0xbf825c19	-1.0184356
114	0xbf0621b4	-0.52395177
115	0xbe0cd6c6	-0.13753805
116	0xc0bda8d8	-5.926861
117	0x403f0db2	2.985211
118	0x3f13f86d	0.5780094
119	0x402343f2	2.551022
120	0x3ea67ecd	0.32518616
121	0xbf0bc7dd	-0.5460184
122	0x3e843323	0.25820264
123	0x3f9b7af8	1.2146902
124	0xbf9c77ef	-1.2224101
125	0xbf197f1b	-0.5995957
126	0x3f17390c	0.5907142
127	0x3c1c0d86	0.009524709
128	0x3ea61e52	0.32445008
129	0x3ddd999a	0.10820313
130	0x3eb89d58	0.36057544
131	0x3e69ac60	0.22819662
132	0x3d3fe9b7	0.046853747
133	0xbf0f3897	-0.55945724
134	0x3e1f671a	0.15566674
135	0xbf920253	-1.1406959
136	0x3f03c5c3	0.51473635
137	0xbe8d6312	-0.27614647
138	0x3e733e65	0.2375427
139	0xbf42c762	-0.76085484
140	0xbf0c143a	-0.54718363
141	0x3e6846e9	0.226833
142	0xbf0ba355	-0.545461
143	0xbfbc6e17	-1.4721097
144	0x3fc7b20f	1.5601214
145	0xbd4baee5	-0.04972734
146	0x3f6341a2	0.8877202
147	0xbf1b0cd4	-0.6056645
148	0xbf46ce02	-0.7765809
149	0x3ef34222	0.47511393
150	0x3ec593b9	0.38589266
151	0xbf41f9d7	-0.7577185
152	0x3e5d2f15	0.21599992
153	0xc01e18b0	-2.4702568
154	0xbef11ba4	-0.470914
155	0xbf780053	-0.96875495
156	0xbeac4d06	-0.33652514
157	0xbe0c695e	-0.1371207
158	0xc0c2c7f8	-6.0869102
159	0x403bc221	2.9337237
160	0x3f0d1155	0.5510457
161	0x4022c3e1	2.5432055
162	0x3ec16dc2	0.3777905
163	0xbf17f49c	-0.5935762
164	0x3e35c36a	0.17750326
165	0x3ee9ed4f	0.45688865
166	0xbf115ae9	-0.5677934
167	0xbddec7b4	-0.10877934
168	0x3e3e99b2	0.18613318
169	0x3f08d2fb	0.5344693
170	0x3ecc5a8d	0.39912835
171	0x3f1e9098	0.6193938
172	0x3e522059	0.20520152
173	0xbdd30c9b	-0.10305139
174	0x3f11873a	0.56846964
175	0x3dfd823b	0.12378355
176	0x3ea654a9	0.32486466
177	0xbede7ca8	-0.4345448
178	0x3e9fc211	0.31202748
179	0xbe9e2997	-0.30891106
180	0xbe049bcf	-0.12950061
181	0xbed19037	-0.4093034
182	0xbcee677f	-0.029102085
183	0xbe4c815c	-0.19971222
184	0x3f6d0751	0.9258929
185	0xbfdb60cc	-1.7138915
186	0x3fbc2548	1.4698877
187	0x3ecd856a	0.4014085
188	0xbff5123b	-1.9146188
189	0xbf457a89	-0.771401
190	0x3e8157bd	0.25262251
191	0xbd8495ed	-0.064739086
192	0x3e3a9adf	0.18223141
193	0x3f5b4239	0.8564792
194	0x3f17470b	0.5909278
195	0xbfa97232	-1.3237975
196	0xbfddb418	-1.7320585
197	0xc04aff1a	-3.1718202
198	0xbff5edf6	-1.9213245
199	0xbf8d120c	-1.1021132
200	0xbfbf80b7	-1.4961156
201	0xc0f21670	-7.565239
202	0x3db29465	0.0871971
203	0xbe5263ac	-0.20545834
204	0xc076e0bf	-3.8574674
205	0x3f2b4630	0.6690397
206	0xc009b01a	-2.1513734
207	0xbf9f0fa9	-1.2426654
208	0x40a8f23a	5.2795687
209	0xc024b7b9	-2.5737135
210	0x3f2b1abb	0.6683766
211	0xbe65b2be	-0.22431466
212	0x3ee60c24	0.44931138
213	0xbf2bfc69	-0.6718202
214	0x3ef4944a	0.47769386
215	0x3e6dfb32	0.23240355
216	0xbe953d4f	-0.29148337
217	0xbdb6fe1d	-0.08935187
218	0xbe88e678	-0.26738334
219	0xbfcce173	-1.6006302
220	0x3f11d97c	0.5697248
221	0x3ed6d366	0.4195816
222	0x3ead7bc2	0.33883482
223	0xbf580be0	-0.8439312
224	0xbee77190	-0.4520383
225	0xbf001c57	-0.50043243
226	0xbfdef77f	-1.741928
227	0xbff09890	-1.8796558
228	0x3fdb5a69	1.7136966
229	0x3e0c2461	0.13685752
230	0x3edfb73c	0.43694484
231	0xc01e6c97	-2.4753778
232	0x3eaf59ef	0.342483
233	0x3f253ce7	0.64546055
234	0x3ef4fc7a	0.47848874
235	0xbf0a28fc	-0.5396879
236	0x3e492a92	0.19645146
237	0xc02113e3	-2.5168388
238	0xbf1f842c	-0.62311053
239	0xbf169b09	-0.58830315
240	0x3e68b072	0.22723559
241	0xbecc8ea2	-0.3995257
242	0xc0cb445a	-6.3520937
243	0x400eb4d1	2.2297862
244	0x3f140034	0.5781281
245	0x40215d6d	2.5213273
246	0x3f02268c	0.5084007
247	0xbf50700b	-0.81420964
248	0xbe140898	-0.14456403
249	0xbfd98f24	-1.6996808
250	0x3fac159c	1.3444095
251	0x3fb36f68	1.4018373
252	0x3e8942de	0.26808828
253	0x3f3a4448	0.7276044
254	0x3d3d6574	0.04623933
255	0x3f77f9ea	0.96865714

l1.bias f4 [300]
0	0x3eb93f93	0.36181316
1	0xbbd0a3bb	-0.0063671744
2	0x3eb4a918	0.35285258
3	0x3ec0bd5d	0.37644473
4	0x3d39a69a	0.0453249
5	0x3f0030f0	0.5007467
6	0xbcdd8ea6	-0.02704556
7	0x3ecdf3a9	0.4022496
8	0x3f094875	0.53626186
9	0x3ee40867	0.4453766
10	0x3e245281	0.16047098
11	0x3e0af2c1	0.13569166
12	0xbc80a511	-0.01570371
13	0x3f140cde	0.57832134
14	0xbd90e04d	-0.07074032
15	0xbd9c9aad	-0.076466896
16	0x3f25b7e6	0.6473373
17	0x3db57500	0.088602066
18	0xbd62bb7d	-0.055354584
19	0x3dc6307e	0.09677218
20	0x3e153033	0.14569168
21	0x3ecab6b3	0.39592513
22	0x3d5d7d01	0.05407429
23	0x3ea914d1	0.33023694
24	0x3da40342	0.08008434
25	0x3ec5c766	0.3862869
26	0x3ea0d5a4	0.31412995
27	0xbe1dcbc2	-0.15409759
28	0x3db520e9	0.08844168
29	0x3dec6c51	0.11544097
30	0x3db8ea54	0.090290695
31	0x3eb30305	0.3496324
32	0x3e3f4b90	0.18681169
33	0x3e510aca	0.20414272
34	0xbde869a7	-0.113482766
35	0x3dc36d40	0.09542322
36	0x3e119e4b	0.1422054
37	0x3edb592e	0.42841476
38	0x3efdb185	0.495495
39	0x3e493e00	0.19652557
40	0x3e5c80eb	0.21533553
41	0x3e322a34	0.17398912
42	0x3e28d7e5	0.16488607
43	0xbdb20ddb	-0.08694049
44	0x3eae5e5c	0.34056365
45	0x3f015706	0.5052341
46	0x3ef9a6e9	0.48760155
47	0x3ed080d5	0.4072329
48	0x3f009a87	0.5023579
49	0x3ea27b54	0.31734717
50	0x3d086f4a	0.03330926
51	0x3f016cf1	0.50556856
52	0x3ead00bd	0.33789626
53	0x3caa1a9a	0.020764638
54	0x3f0316a1	0.51206404
55	0x3ecba8ae	0.3977713
56	0x3eaf936e	0.34292167
57	0x3d7b9ab0	0.06142682
58	0x3e1c4621	0.15261127
59	0x3dc2114f	0.094759576
60	0x3e2d72b4	0.16938287
61	0x3dc78276	0.0974168
62	0x3ec93164	0.39295495
63	0x3b1c251d	0.0023825832
64	0x3b87649e	0.0041318676
65	0x3bceb2b0	0.0063079223
66	0x3f00ae89	0.5026632
67	0x3deccae1	0.115621336
68	0x3ef95b93	0.48702678
69	0x3e8921ce	0.26783603
70	0x3ed47297	0.41493675
71	0x3f014e1b	0.50509804
72	0x3e1ed2a9	0.15510048
73	0x3df05e04	0.11736682
74	0x3eddac6c	0.4329561
75	0x3e6d5573	0.23177128
76	0x3ec3c511	0.38236287
77	0x3ea9ab35	0.33138433
78	0x3ece88b4	0.4033867
79	0x3e80f732	0.25188595
80	0x3ee61832	0.44940335
81	0x3f0f46f8	0.55967665
82	0x3e4d1f8a	0.20031562
83	0x3edbb16d	0.42908803
84	0x3e936c8c	0.28793752
85	0x3cf82c3c	0.03029453
86	0x3ed28bd4	0.41122305
87	0x3e99a3ae	0.3000769
88	0x3e55e446	0.2088786
89	0x3eb63130	0.35584402
90	0x3f25250b	0.6450965
91	0x3e3f2ac8	0.18668664
92	0x3db4b5ea	0.0882376
93	0x3e8180a8	0.2529347
94	0x3f0488e6	0.5177139
95	0x3daa7a4a	0.08324106
96	0x3e7555d2	0.23958519
97	0x3e1f9fe0	0.15588331
98	0x3ef0485f	0.46930215
99	0x3ef9746f	0.48721644
100	0x3eab31e6	0.33436507
101	0x3ed7e2d6	0.4216525
102	0xbde0305b	-0.10946723
103	0x3e3eea12	0.18643978
104	0x3e00d6a9	0.12581886
105	0x3ed838e7	0.42230913
106	0x3e6d7768	0.23190081
107	0x3ed9389a	0.42425996
108	0x3e982fcd	0.2972397
109	0x3eacb2ad	0.3373007
110	0x3ea89bea	0.32931453
111	0x3ebee2b6	0.37282342
112	0x3e3c01ac	0.18360013
113	0x3ef2463b	0.47319207
114	0x3e85af31	0.26110223
115	0x3ed5739d	0.41689768
116	0x3e70ea26	0.2352682
117	0x3e8b649c	0.27225196
118	0x3ea151c4	0.31507695
119	0x3f246bc0	0.64226913
120	0x3e895c72	0.26828343
121	0x3ee46fd3	0.44616565
122	0x3ec95048	0.39319062
123	0x3f010525	0.50398475
124	0x3eb276a8	0.34856153
125	0x3bb06ed3	0.005384305
126	0xbcdc675f	-0.02690476
127	0x3e5038d3	0.20334177
128	0x3ec7a4e8	0.38993
129	0x3ece13cb	0.40249476
130	0x3ea91355	0.33022562
131	0xbba9f264	-0.005186366
132	0x3eef86c6	0.4678251
133	0x3eb9ded4	0.36302817
134	0x3ef3ffa2	0.4765597
135	0x3f4134f9	0.75471455
136	0x3ebf77df	0.37396142
137	0x3ef63853	0.48089847
138	0x3ed84ac0	0.4224453
139	0x3e164255	0.14673741
140	0x3e6f32fd	0.23359294
141	0x3ee3f892	0.44525582
142	0x3ec028a6	0.37531012
143	0x3ddf1f82	0.108946815
144	0x3eb4a5b0	0.3528266
145	0x3eb873b6	0.3602578
146	0xbd6581b5	-0.0560319
147	0x3f5b9b95	0.85784274
148	0x3f02a846	0.51038015
149	0x3e5f9b6b	0.21836631
150	0x3eb79d12	0.35862023
151	0x3ce11aeb	0.027478656
152	0x3eac42b3	0.33644637
153	0x3e82b71c	0.25530326
154	0x3ecb1eee	0.39672035
155	0x3ede4dc2	0.434187
156	0x3eb9cbfc	0.3628844
157	0x3ec875d6	0.39152402
158	0x3e2e9396	0.17048487
159	0x3e84ad43	0.25913438
160	0x3e6d5c36	0.23179707
161	0x3ee1e6b9	0.4412134
162	0x3e98b795	0.29827562
163	0x3eae697a	0.34064847
164	0x3e879fb4	0.2648903
165	0x3ef944ca	0.48685294
166	0x3d91afe5	0.07113627
167	0x3e9f3a28	0.31099057
168	0x3c38914f	0.011265113
169	0xbe0c211c	-0.13684505
170	0xbe2c0dd6	-0.16802153
171	0x3e4fbaee	0.20286152
172	0x3ece9f39	0.40355852
173	0x3f0f4ada	0.5597359
174	0x3e64884e	0.22317621
175	0x3eb3b546	0.35099238
176	0x3ecd4c9e	0.40097517
177	0x3ebd41be	0.3696422
178	0x3ea2064a	0.31645423
179	0x3ed30c2f	0.41220233
180	0x3eabc830	0.33551168
181	0x3ed2a8bb	0.41144356
182	0x3e0be770	0.13662505
183	0x3eb3c4b3	0.35111007
184	0x3ef7a01e	0.48364347
185	0x3f0c58ed	0.5482319
186	0x3e7da1cd	0.24768753
187	0x3f02b93c	0.51063895
188	0x3f07cd5a	0.53047717
189	0x3ebb9f65	0.36645046
190	0x3ea1cb6a	0.31600505
191	0x3e20d8e6	0.1570774
192	0x3e1d2887	0.15347491
193	0x3ef7754c	0.48331678
194	0xbd7e5683	-0.062094223
195	0x3c9f5f56	0.01945464
196	0x3ee757c3	0.45184144
197	0x3d33fbbb	0.04394124
198	0x3e96a1be	0.29420274
199	0xbc0c2ab1	-0.0085551
200	0x3ebe042d	0.3711256
201	0x3ce8c7ae	0.028415527
202	0x3e2229df	0.15836285
203	0x3e88655f	0.2663984
204	0x3ea1ce3f	0.31602666
205	0x3eeecbcb	0.46639857
206	0x3da0a9ca	0.07844885
207	0x3e57df6f	0.21081327
208	0x3ece6a70	0.4031558
209	0x3edaf3f4	0.42764246
210	0x3e0b0bc3	0.13578705
211	0x3df91337	0.12161868
212	0x3ee1fd27	0.44138452
213	0x3e3f2b1a	0.18668786
214	0x3e9c022c	0.30470407
215	0x3f1a0073	0.60156935
216	0x3eb4fd00	0.35349274
217	0x3ead13de	0.3380422
218	0x3ecc0488	0.39847207
219	0x3e8e4da8	0.27793622
220	0x3e9ff78e	0.31243557
221	0x3dcf42d9	0.10120172
222	0x3e1779ea	0.147926
223	0xbe912874	-0.28351176
224	0x3ecb0b52	0.39657074
225	0x3dd065b7	0.101756506
226	0x3c7ecdd4	0.015552003
227	0x3ec227c2	0.37920958
228	0x3e254206	0.16138467
229	0x3d87334a	0.066015795
230	0x3e88091a	0.26569444
231	0x3eb60d75	0.35557142
232	0xbbd98062	-0.006637619
233	0x3e7d5501	0.24739458
234	0x3e461773	0.19344883
235	0x3ea73f45	0.32665458
236	0x3e06817c	0.13135332
237	0x3e95e61e	0.29277128
238	0x3ee7aec8	0.45250535
239	0x3eef1541	0.46695903
240	0x3ec7cd22	0.3902369
241	0x3ebcf4e2	0.3690558
242	0x3ecbbd6b	0.39792952
243	0x3ef0431f	0.4692621
244	0x3e007c19	0.1254734
245	0xbda01875	-0.07817165
246	0x3f0098b1	0.5023299
247	0x3ea1f3eb	0.31631407
248	0xba5f9b9e	-0.00085299637
249	0xbbed7e7d	-0.0072477446
250	0x3eaf705b	0.34265408
251	0x39e794cb	0.00044170613
252	0x3e182685	0.14858444
253	0x3e51fded	0.20507021
254	0xbba996cc	-0.005175447
255	0x3e9af02a	0.30261356

bn1.weight f4 [300]
0	0x3fb46b7f	1.4095305
1	0x40059a3b	2.0875385
2	0x3ec0bf58	0.37645984
3	0x3ec478e7	0.3837349
4	0x3fec0dc2	1.8441699
5	0x3e853ad3	0.26021442
6	0x40312258	2.7677212
7	0x3eac610f	0.336678
8	0x3e497eb2	0.19677237
9	0x3ea61860	0.32440472
10	0x40301c5c	2.751731
11	0x404de0bc	3.2168417
12	0x40050f3c	2.0790548
13	0x400c43dc	2.1916418
14	0x400acef8	2.1688824
15	0x3ffeabf2	1.9896224
16	0x405c828a	3.4454675
17	0x3faf3336	1.3687503
18	0x3feda37c	1.8565516
19	0x4018aa6b	2.3854015
20	0x4026be0c	2.6053495
21	0x40088d95	2.1336415
22	0x3fe775a5	1.8082777
23	0x400fcfc5	2.2470562
24	0x40425e79	3.0370162
25	0x402bbf51	2.683552
26	0x3fd28323	1.644627
27	0x3fc40b7b	1.5316004
28	0x3ff1ad0b	1.8880934
29	0x4011c1ee	2.2774615
30	0x4050dbae	3.2634082
31	0x3ebd45d1	0.36967328
32	0x3fd9fa79	1.7029563
33	0x3fc93d75	1.572188
34	0x3fdb88fa	1.7151177
35	0x40114832	2.2700315
36	0x4004afec	2.0732374
37	0x3e8e1d9c	0.27756965
38	0x4012f96f	2.2964742
39	0x400a05fd	2.1566155
40	0x402cc1c9	2.6993277
41	0x3fd06971	1.6282178
42	0x3fc1c665	1.513867
43	0x401ebe97	2.4803827
44	0x3fb90e50	1.4457493
45	0x4009fe47	2.1561449
46	0x3eb0f6cd	0.34563294
47	0x3eb18113	0.34668788
48	0x40583da0	3.3787613
49	0x3e844388	0.25832772
50	0x3f9b7fa9	1.2148334
51	0x40955470	4.6665573
52	0x4035264b	2.8304622
53	0x4022bd4d	2.542804
54	0x3fb8edc1	1.4447557
55	0x40039888	2.0561848
56	0x3e96b8af	0.29437777
57	0x3fcb23ab	1.587026
58	0x3fd82857	1.6887311
59	0x40300f19	2.7509215
60	0x3ff40589	1.9064189
61	0x3fb528ff	1.4153136
62	0x3eadd819	0.33953932
63	0x3fc37a2d	1.527166
64	0x3fbd61f8	1.4795523
65	0x3f929ad2	1.1453497
66	0x3e71fc9f	0.23631524
67	0x3f72a725	0.9478629
68	0x3ff51b9c	1.9149051
69	0x3f328df0	0.6974783
70	0x404f6176	3.2403235
71	0x3e97ab95	0.29623094
72	0x3fcafbe5	1.5858122
73	0x402bb0bc	2.682662
74	0x3ebea06f	0.37231776
75	0x4029383e	2.6440578
76	0x40069705	2.1029675
77	0x40019c74	2.0251741
78	0x3ea990a4	0.33118165
79	0x3fea4496	1.8302181
80	0x3fe33077	1.7749165
81	0x3fe3fddf	1.781185
82	0x4060f017	3.514654
83	0x3e9e99dd	0.30976763
84	0x3e1e13b5	0.15437205
85	0x40016ffd	2.0224602
86	0x3eb82493	0.35965404
87	0x3ea1d315	0.31606355
88	0x400db1bc	2.213973
89	0x3eb2a5de	0.34892172
90	0x409f341c	4.975111
91	0x3fe6b5a8	1.8024187
92	0x3f410c3e	0.75409305
93	0x4016e1f6	2.3575416
94	0x4040f815	3.0151417
95	0x4098273d	4.75479
96	0x40035de8	2.0526066
97	0x401f75cb	2.4915645
98	0x3e8653d4	0.2623583
99	0x3eb1056a	0.34574443
100	0x405ff4e7	3.4993227
101	0x4036d55e	2.856773
102	0x40226fc4	2.5380716
103	0x3fd485c9	1.6603328
104	0x3f9206dc	1.1408343
105	0x402cebaa	2.7018838
106	0x3fad569f	1.354206
107	0x3e98a7cd	0.29815522
108	0x400a7517	2.1633966
109	0x3ebb7b7b	0.36617646
110	0x3f8562ac	1.0420737
111	0x3ea000c4	0.31250584
112	0x40542f9b	3.3154056
113	0x3e4f7dd4	0.20262843
114	0x40103112	2.252995
115	0x3eaaba90	0.3334546
116	0x3fdc9508	1.7232981
117	0x40147c9b	2.3201053
118	0x3fcf5627	1.6198167
119	0x4058c356	3.3869224
120	0x4012fd1c	2.2966986
121	0x3e8f0cd9	0.2793949
122	0x3ff7e041	1.9365312
123	0x3e8bc6f9	0.27300242
124	0x3eaff229	0.3436444
125	0x3fb21cb0	1.3915005
126	0x3fa9acd6	1.325587
127	0x40094435	2.144788
128	0x3e9fa617	0.31181404
129	0x3ea9a4ab	0.33133444
130	0x403e036a	2.9689584
131	0x3fd8a46d	1.6925179
132	0x3e9ec9e4	0.31013405
133	0x3eb52ccc	0.3538574
134	0x3e6d6ecd	0.23186798
135	0x3fbd90f6	1.4809864
136	0x3fd4a042	1.6611407
137	0x400a220b	2.1583278
138	0x3e9b04c2	0.30277067
139	0x401232c5	2.2843487
140	0x408ba27c	4.3635845
141	0x3ea26ecd	0.3172516
142	0x3fc04053	1.501963
143	0x3fb1f7bb	1.3903726
144	0x3fb52785	1.4152685
145	0x401f5301	2.4894412
146	0x3fa104bc	1.257957
147	0x4067d521	3.6223834
148	0x4017a21e	2.3692698
149	0x3fac7787	1.3473977
150	0x3e988634	0.2978989
151	0x3fe1421c	1.75983
152	0x3fa0fe70	1.2577648
153	0x405b8edb	3.4305942
154	0x4030ef67	2.764612
155	0x3eae382b	0.34027228
156	0x3fc6778f	1.5505236
157	0x3eb4e226	0.35328788
158	0x40332547	2.7991502
159	0x3f8bc8bc	1.0920634
160	0x3fd742e1	1.6817285
161	0x3fded053	1.7407326
162	0x3fabc2d7	1.3418835
163	0x3eb18aa7	0.34676096
164	0x4060ffdc	3.5156164
165	0x3e949126	0.2901699
166	0x4015fe03	2.3436286
167	0x3e9ca525	0.30594745
168	0x3fcde93e	1.6086805
169	0x3ffe6316	1.9873989
170	0x400eaaf5	2.2291844
171	0x406f7b58	3.7419033
172	0x404ae275	3.1700718
173	0x3fd4313c	1.6577525
174	0x4009ac72	2.1511502
175	0x3e86a850	0.26300287
176	0x3f89d5a4	1.0768323
177	0x40017ab2	2.0231137
178	0x404a6bde	3.1628337
179	0x401bd1aa	2.4346719
180	0x3fd338d5	1.6501719
181	0x3fa7a314	1.3096642
182	0x40334a66	2.801416
183	0x3f86b237	1.0523137
184	0x3e880aac	0.26570642
185	0x3e83a721	0.25713447
186	0x3f61af5a	0.8815819
187	0x3e57f221	0.21088459
188	0x3eadf5d4	0.33976614
189	0x3fd5696d	1.6672798
190	0x3f5fd45f	0.8743343
191	0x3fb7f682	1.4372103
192	0x3ff4fd49	1.9139796
193	0x3eb53848	0.35394502
194	0x401ad592	2.4192853
195	0x402af8da	2.6714387
196	0x40878cce	4.235938
197	0x400275ac	2.0384321
198	0x3ea54f2a	0.3228696
199	0x3fb1007a	1.382827
200	0x3ea7ca0c	0.32771337
201	0x402c4801	2.6918948
202	0x4000259c	2.0022955
203	0x4052088f	3.2817724
204	0x3e91fc3d	0.28512755
205	0x3e613273	0.21991901
206	0x3fd8ba87	1.6931924
207	0x400ea47d	2.2287896
208	0x400097d7	2.0092676
209	0x3e756d4e	0.23967478
210	0x3fe7f740	1.812233
211	0x3ffa0020	1.9531288
212	0x3eaebd51	0.34128812
213	0x3ff26adb	1.893886
214	0x3fe024b0	1.7511196
215	0x3eb9e72a	0.36309177
216	0x3fa0f718	1.2575407
217	0x4001f215	2.0304005
218	0x3e9b3d90	0.30320406
219	0x4002c0f9	2.043028
220	0x40242609	2.5648215
221	0x3ff7c259	1.9356185
222	0x404e9228	3.2276707
223	0x400c3c71	2.191189
224	0x4006e9bc	2.108016
225	0x3fe8d78b	1.8190778
226	0x404868a1	3.131386
227	0x3ead916d	0.33900014
228	0x403a554b	2.9114559
229	0x3ffca78b	1.973863
230	0x4031db26	2.7790008
231	0x3eaf23cf	0.34207007
232	0x4006f400	2.1086426
233	0x407d1804	3.9545908
234	0x405b454f	3.4261053
235	0x4015e897	2.3423212
236	0x3fd93c7b	1.6971582
237	0x3fc5bc32	1.5448058
238	0x40115d39	2.2713149
239	0x3eb97782	0.3622399
240	0x3e2518f2	0.16122797
241	0x3ea45cbb	0.32101998
242	0x3ec30218	0.38087535
243	0x40070ca0	2.1101456
244	0x3fd8245e	1.6886098
245	0x403b3300	2.9249878
246	0x3f9d0a66	1.2268798
247	0x4006c9ae	2.1060596
248	0x4025bf35	2.5897954
249	0x3fe62112	1.7978842
250	0x400be7d1	2.186024
251	0x3ffcc19c	1.9746585
252	0x3f921100	1.1411438
253	0x4047ab80	3.1198425
254	0x4029835e	2.648643
255	0x3fd1cfff	1.63916

bn1.bias f4 [300]
0	0xbf7afc9f	-0.9804172
1	0xbeba047e	-0.36331552
2	0xbf270110	-0.65235996
3	0xbf1f1868	-0.62146616
4	0xbe9b29a9	-0.30305222
5	0xbf24fb49	-0.6444593
6	0xbf40677e	-0.75157917
7	0xbf1e18fb	-0.6175687
8	0xbf343814	-0.7039807
9	0xbf33db51	-0.70256525
10	0xbe45fd14	-0.19334823
11	0xbf412c8e	-0.7545861
12	0xbf97c60a	-1.1857312
13	0xbc119b4f	-0.008887126
14	0xbe86c221	-0.26319984
15	0xbfb61311	-1.4224569
16	0x3f730d29	0.94941956
17	0xbfccd80b	-1.6003431
18	0xbf86f84e	-1.0544527
19	0xbf91712f	-1.1362666
20	0xbf8a5ea0	-1.0810127
21	0xbf109ba6	-0.564875
22	0xbfd01eae	-1.6259363
23	0xbf298dab	-0.66231793
24	0xbdfa1674	-0.12211314
25	0x3f4f24ee	0.80915725
26	0xbe9143a0	-0.28371906
27	0xbf265869	-0.64978653
28	0xbf53bfb1	-0.8271437
29	0xbf3a18fb	-0.7269437
30	0xbe7b21b6	-0.24524578
31	0xbf1c0102	-0.6093904
32	0xbfa15539	-1.2604133
33	0xbf4828f0	-0.78187466
34	0xbfb98703	-1.4494327
35	0xbf4df59e	-0.8045291
36	0xbf1e150a	-0.61750853
37	0xbf2d6d72	-0.67745125
38	0xbf2315ea	-0.63705313
39	0xbeb08372	-0.34475285
40	0xbe1c1d71	-0.15245606
41	0xbf49d7d9	-0.7884498
42	0xbe83562d	-0.25651684
43	0xbf8e7a1c	-1.1131015
44	0x3e77bfbf	0.24194239
45	0xbf8b6f56	-1.0893352
46	0xbf14777a	-0.57994807
47	0xbf171ce9	-0.5902849
48	0x3d89d5d1	0.06730235
49	0xbf26d0bf	-0.6516227
50	0xbea93d57	-0.3305461
51	0x3f2ac120	0.66700935
52	0xbf9acd69	-1.2093936
53	0xbe892052	-0.2678247
54	0xbcd06b86	-0.025441896
55	0xbf920e89	-1.1410686
56	0xbf2aad20	-0.6667042
57	0x39df6130	0.00042606285
58	0x3f1e9b4d	0.6195572
59	0x3f259f72	0.6469642
60	0xbfac629c	-1.3467593
61	0xbf6a730f	-0.91581815
62	0xbf1c4495	-0.6104215
63	0xbf87a9dc	-1.0598712
64	0xbf4c27fd	-0.7974852
65	0xbf3b7925	-0.73231727
66	0xbf287f13	-0.658189
67	0xbf5065cd	-0.81405336
68	0x3e878f17	0.26476356
69	0xbdb7cd85	-0.089747466
70	0xbf8ad9e7	-1.0847749
71	0xbf10a161	-0.56496245
72	0xbeceea3e	-0.40413088
73	0x3ce35cc9	0.027754204
74	0xbf1cc61b	-0.61239785
75	0x3e5cd6a5	0.21566255
76	0xbf19e4f8	-0.60115004
77	0xbec8b88a	-0.39203292
78	0xbf249941	-0.64296347
79	0x3e19d2d4	0.15021831
80	0xbfd543bc	-1.6661296
81	0xbe213489	-0.15742697
82	0xbf3db9c0	-0.74111557
83	0xbf214d07	-0.6300816
84	0xbf5d414c	-0.8642776
85	0xbf5a3a61	-0.8524533
86	0xbf247dfb	-0.6425473
87	0xbf1c048f	-0.60944456
88	0xbebf5c95	-0.37375322
89	0xbf17f96e	-0.59364974
90	0x3f5ba074	0.8579171
91	0xbf6510a9	-0.89478546
92	0xbf653486	-0.8953327
93	0xbec45152	-0.38343292
94	0x3d2a722b	0.041612785
95	0x3f0d2085	0.55127746
96	0xbe7f47a9	-0.2492968
97	0xbffdd887	-1.9831704
98	0xbf1caa68	-0.6119752
99	0xbf0fcfa1	-0.5617619
100	0xbf5a8c62	-0.8537046
101	0x3e120e35	0.14263232
102	0xbf0ee763	-0.5582182
103	0xbf951512	-1.1647055
104	0xbf0b50cd	-0.5442017
105	0xbef309cb	-0.4746841
106	0xbfa78fd9	-1.3090774
107	0xbf26a68c	-0.6509788
108	0xbfb1e1dc	-1.3897052
109	0xbf1bf0bc	-0.60914207
110	0xbf1e4dd4	-0.61837506
111	0xbf179513	-0.59211844
112	0xbf169358	-0.5881858
113	0xbf047047	-0.5173382
114	0xbf5e231d	-0.8677233
115	0xbf245e89	-0.6420675
116	0xbf587f8d	-0.8456963
117	0xbe3211df	-0.1738963
118	0xbf77d713	-0.9681255
119	0x3efa6d15	0.48911348
120	0xbfb19373	-1.3873123
121	0xbf2ca56d	-0.6743992
122	0x3bbefc9a	0.0058284523
123	0xbf3c70b8	-0.73609495
124	0xbf1b3315	-0.6062482
125	0xbf7f7ec0	-0.9980278
126	0xbfcbf3d1	-1.5933782
127	0xbf100f43	-0.5627329
128	0xbf1cca12	-0.61245835
129	0xbf28e117	-0.6596846
130	0x3faff30f	1.3746051
131	0xbf9e6b91	-1.2376577
132	0xbf23666f	-0.63828176
133	0xbf14a021	-0.5805684
134	0xbf3d4af9	-0.73942524
135	0x3e8ff743	0.28118333
136	0x3e69285d	0.22769304
137	0x3bac1b93	0.0052523105
138	0xbf2f6c85	-0.6852496
139	0xbf2afe75	-0.6679452
140	0xbf26276d	-0.6490391
141	0xbf13b8f4	-0.5770409
142	0xbf066dd0	-0.5251131
143	0xbfb13be6	-1.3846405
144	0xbe411f8f	-0.18859695
145	0xbf280753	-0.65636176
146	0xbf92a596	-1.1456783
147	0x3fc86102	1.5654604
148	0xbf2010c1	-0.62525564
149	0xbea1606a	-0.3151887
150	0xbf350b96	-0.70720804
151	0xbf266342	-0.64995205
152	0xbece05fd	-0.40238944
153	0xbf33f947	-0.7030224
154	0xbf7d3338	-0.9890628
155	0xbf15af75	-0.5847085
156	0xbeb70b77	-0.35750934
157	0xbf1e4a9f	-0.6183261
158	0x3e35e3c3	0.17762665
159	0xbe75b4f9	-0.23994817
160	0x3d0f2f17	0.034957018
161	0xbfc98f24	-1.5746808
162	0xbec78da3	-0.38975248
163	0xbf160972	-0.5860816
164	0xbe22999e	-0.15878913
165	0xbf121da9	-0.5707651
166	0xbfb60ecf	-1.4223269
167	0xbf1ef842	-0.6209756
168	0xbfb59cd6	-1.4188488
169	0xbf76bd4f	-0.9638261
170	0xbf4e741e	-0.8064593
171	0xbead45ed	-0.33842412
172	0x3f233a27	0.6376061
173	0xbec7c9c2	-0.39021116
174	0xbea1b0f0	-0.31580305
175	0xbf122243	-0.5708353
176	0xbf269f31	-0.65086657
177	0xbd29ff00	-0.041502953
178	0xbe0b3196	-0.13593134
179	0xbe6918e0	-0.22763395
180	0xbf07addf	-0.5299968
181	0xbf1fb40a	-0.6238409
182	0xbe1c70a8	-0.1527735
183	0x3ecd8209	0.4013827
184	0xbf2daaf9	-0.6783901
185	0xbf383d55	-0.71968585
186	0x3a2f18c2	0.00066794094
187	0xbf2dbe96	-0.67868936
188	0xbf1b7e7e	-0.60739887
189	0xbe5ac261	-0.21363212
190	0x3f0468f7	0.51722664
191	0xbeef2364	-0.46706688
192	0xbf3dfee2	-0.74217045
193	0xbf153d85	-0.58296996
194	0xbee884a8	-0.4541371
195	0xbe99952a	-0.29996616
196	0x3d263b2d	0.04058378
197	0xbfad4264	-1.3535886
198	0xbf1eb14a	-0.6198927
199	0xbf82a486	-1.0206459
200	0xbf154ce4	-0.5832045
201	0x3dbe36ab	0.09287771
202	0xbf65fcb4	-0.8983872
203	0xbe69ded1	-0.22838904
204	0xbf1bfdba	-0.6093403
205	0xbf2d9a26	-0.67813337
206	0xbfbe3858	-1.4860945
207	0x3d546268	0.05185166
208	0xbeb89811	-0.36053517
209	0xbf2983bc	-0.66216636
210	0xbeb2ca6b	-0.34920058
211	0xbdbc2e4b	-0.09188517
212	0xbf252fde	-0.64526165
213	0xbfd75e20	-1.68256
214	0xbf36325f	-0.7117061
215	0xbf18a082	-0.59619915
216	0xbec7c990	-0.39020967
217	0x3f06f0b6	0.52711046
218	0xbf074466	-0.5283874
219	0xbedf595a	-0.43622857
220	0xbf947e93	-1.1601127
221	0x3e5a12cb	0.21296231
222	0xbf1947d7	-0.59875244
223	0xbfdfe6cd	-1.749231
224	0xbf366b33	-0.71257323
225	0xbf61e058	-0.88232946
226	0x3ef4cbe3	0.47811803
227	0xbf1f5abf	-0.6224784
228	0xbe9b833d	-0.30373564
229	0xbf0046e3	-0.50108165
230	0xbf07005d	-0.5273493
231	0xbf17aeb4	-0.5925095
232	0xbfa389da	-1.2776444
233	0x3f53ac09	0.8268438
234	0x3ec06eda	0.37584573
235	0xbfa38a75	-1.2776629
236	0xbf6ba95b	-0.9205529
237	0xbf6d13fc	-0.9260862
238	0xbe02fc64	-0.12791592
239	0xbf194894	-0.5987637
240	0xbf393eef	-0.72361654
241	0xbf1b4149	-0.6064649
242	0xbf27343e	-0.6531409
243	0x3dc6f79b	0.09715196
244	0xbf9c5d23	-1.2215923
245	0xbe88704f	-0.26648185
246	0xbe0a7230	-0.13520122
247	0xbfd610b2	-1.6723845
248	0xbeefffdf	-0.46874902
249	0xbf441f8a	-0.76610625
250	0xbf826c9f	-1.0189399
251	0xbe838fd3	-0.25695667
252	0xbf1724c7	-0.5904049
253	0xbf39dbaf	-0.72600836
254	0xbf42ce96	-0.76096475
255	0xbea130d2	-0.3148256

l2.weight f4 [300, 308]
0	0xbd30e3bc	-0.043185934
1	0x3fede38f	1.858507
2	0xbd7a78b4	-0.061150268
3	0xbd1c88f3	-0.038216542
4	0x3f265354	0.649709
5	0xbd35c6ac	-0.04437892
6	0x3f8390cd	1.0278565
7	0xbd601852	-0.054710694
8	0x3de765f5	0.11298744
9	0x3e11d356	0.14240775
10	0xbff390b2	-1.9028533
11	0x3e203cde	0.15648219
12	0xbf977810	-1.1833515
13	0x3f08fb3b	0.5350835
14	0x3f84192c	1.0320182
15	0xbf080c52	-0.531438
16	0xbff33a50	-1.900217
17	0x3e80e5e1	0.25175384
18	0x4017ead7	2.3737085
19	0x402d1863	2.7046134
20	0xbfa62861	-1.2981073
21	0xbe38c026	-0.18042049
22	0xbd3ad1e8	-0.04561034
23	0x401c0987	2.4380815
24	0x3f3d03e0	0.7383404
25	0xbe0344ba	-0.12819186
26	0xbf27d83e	-0.65564334
27	0x3e12c9b2	0.14334753
28	0x3f468e4f	0.77560896
29	0xbfb8e21e	-1.4444005
30	0xbf93a07c	-1.1533351
31	0x3c158b56	0.009127459
32	0x3d96bc48	0.073601305
33	0x3f607f48	0.87694216
34	0x3f02fda1	0.51168257
35	0xbecdd70a	-0.40203124
36	0x3e5528e3	0.20816378
37	0xbbd25023	-0.0064182444
38	0xbf555e95	-0.83347446
39	0x3da05045	0.0782781
40	0xbf69ed17	-0.91377395
41	0x3ee0dee7	0.4392006
42	0x3f1ac8d7	0.6046271
43	0x3f9253ab	1.1431783
44	0xbefdab45	-0.4954473
45	0x3e8979ac	0.2685064
46	0x3d89eec6	0.067349955
47	0x3d775a24	0.0603887
48	0x3f1b029d	0.6055086
49	0xbd882c94	-0.066491276
50	0x3e8ccb01	0.2749863
51	0x3f59c05c	0.8505914
52	0x3f89e693	1.0773491
53	0x3fb012a8	1.3755693
54	0x402d4e0b	2.7078884
55	0xbf8d0e61	-1.1020013
56	0x3cb19657	0.021678133
57	0xbe92e427	-0.2868969
58	0xbf397767	-0.7244782
59	0xbfc43f77	-1.5331868
60	0x3fae2e8f	1.3607959
61	0x3f91d35a	1.1392624
62	0x3ca7cead	0.020484293
63	0x400a1da4	2.1580591
64	0x3d6ea2a4	0.058260575
65	0xbd073558	-0.033009857
66	0x3e1a5fdb	0.15075628
67	0x3f3d33b6	0.7390703
68	0x3f9e0f5a	1.2348435
69	0xbe3f13cf	-0.186599
70	0xbe5d3347	-0.21601592
71	0xbcb66baf	-0.022268144
72	0xbed23ba1	-0.41061118
73	0xc017baa3	-2.3707664
74	0x3c2f80a1	0.01071182
75	0xbeab9100	-0.33509064
76	0x3f1b9c63	0.607855
77	0x3eb21611	0.3478246
78	0x3c14bc86	0.009078151
79	0x3ecdb385	0.40176025
80	0xbf315055	-0.692632
81	0xbecd14d4	-0.40054953
82	0x3da1f720	0.079084635
83	0x3e7af0de	0.24505946
84	0x3c09b0ab	0.008403937
85	0xbf0e216c	-0.5551975
86	0xbc7c1103	-0.015384915
87	0x3cb2e631	0.02183828
88	0xbf59e763	-0.85118693
89	0xbdf9a68f	-0.12189972
90	0xbf864e45	-1.0492636
91	0xbf4243b2	-0.75884545
92	0x3ed34e6c	0.4127077
93	0x3f766aa5	0.96256477
94	0xbd914a90	-0.070943
95	0xbfb28074	-1.3945451
96	0x3ff3a572	1.9034865
97	0xbf7c5204	-0.98562646
98	0x3cc52b4c	0.024068497
99	0x3d7f4772	0.062323995
100	0x3f90ace4	1.1302762
101	0xc0165fac	-2.3495893
102	0x3fa917fe	1.3210447
103	0xbef743a5	-0.48293796
104	0xbc38f8d0	-0.01128979
105	0x40691a71	3.6422389
106	0x403f8452	2.9924512
107	0xbddc8fe6	-0.10769634
108	0x3ec22232	0.37916714
109	0xbdd66ca4	-0.1046994
110	0x3d702ad3	0.05863459
111	0x3c123bd0	0.008925393
112	0x3f3f6803	0.74768084
113	0xbe55c4e0	-0.20875883
114	0xbff117e6	-1.8835418
115	0xbdddbbf8	-0.10826868
116	0xbfbdb0c2	-1.4819567
117	0x3dd8d087	0.105866484
118	0x3f0770a2	0.5290624
119	0xbfdc1c8b	-1.7196211
120	0xbff98355	-1.9493204
121	0x3dd181e4	0.10229853
122	0xbee2c9c2	-0.44294554
123	0x3cb92b75	0.02260373
124	0xbd9a57cc	-0.07536277
125	0xbfebdd69	-1.8426944
126	0x3fa4c550	1.2872715
127	0x3eaa5814	0.33270323
128	0x3df0de5a	0.1176116
129	0xbe05edb3	-0.13078956
130	0xbe264149	-0.16235842
131	0x3f565800	0.8372803
132	0x3de89efd	0.113584496
133	0x3d683b6f	0.056697305
134	0xbc893536	-0.016749006
135	0xbfad39bf	-1.3533248
136	0xbf772f73	-0.96556777
137	0x3f808f42	1.0043719
138	0xbda7490d	-0.0816823
139	0xbef83e9b	-0.48485264
140	0x3ee74eee	0.45177406
141	0xbd893cd2	-0.06701054
142	0xbf43224d	-0.76224214
143	0xbfd0b458	-1.6305037
144	0xbfaf8baf	-1.3714503
145	0x3d4d53b6	0.05012866
146	0x3f4bd00b	0.79614323
147	0xbf3211b7	-0.6955828
148	0x3f723ca6	0.9462379
149	0x3f617b4a	0.8807875
150	0xbe684dcd	-0.22685929
151	0xbf7e9495	-0.9944547
152	0xbf3f24f7	-0.7466578
153	0x3f21e7a9	0.6324411
154	0x3f46d498	0.7766814
155	0xbe6176db	-0.22017996
156	0xbf222375	-0.63335353
157	0xbee5439f	-0.44778153
158	0xbf1986b4	-0.59971166
159	0x3d99186c	0.07475361
160	0x3e9dccd3	0.3082033
161	0x3ed07275	0.40712324
162	0xbf43d1de	-0.76492107
163	0xbd5057ef	-0.05086511
164	0xbfddf31b	-1.7339815
165	0xbafe0132	-0.0019379018
166	0x3ff3476e	1.9006174
167	0xbe008b42	-0.12553123
168	0x3fa2dbff	1.2723387
169	0xbf50489a	-0.8136078
170	0xbeb71715	-0.35759798
171	0xc00a24da	-2.1584992
172	0xbe9d7be1	-0.30758575
173	0xbe56365b	-0.20919172
174	0x3f111e41	0.5668679
175	0x3d800c0a	0.06252296
176	0x3f2a797c	0.6659162
177	0xbf6d96a9	-0.92808014
178	0xbfd211e4	-1.641171
179	0xbfa93d12	-1.3221762
180	0x3f4610ca	0.7736937
181	0xbd4cb01c	-0.04997264
182	0xbf4cb6b6	-0.79966295
183	0x3fb00dea	1.3754246
184	0x3ce6ae47	0.028159274
185	0x3e753df9	0.23949422
186	0xbe983503	-0.29727945
187	0x395e3d26	0.0002119435
188	0x3cc284ac	0.023744904
189	0x3f2ac3e9	0.66705185
190	0xbf16922b	-0.58816785
191	0xbfd0751c	-1.6285739
192	0x3de5aa87	0.11214166
193	0xbc678ea6	-0.014133131
194	0xbf4d2fae	-0.8015088
195	0x3ee6a778	0.45049644
196	0xbfd20189	-1.6406718
197	0xbfd10094	-1.6328301
198	0x3d1f33e1	0.038867835
199	0x3fc9b589	1.5758525
200	0x3dc9883c	0.09840438
201	0xbf938ea6	-1.1527908
202	0xbe3f71bb	-0.18695728
203	0xbd5399d4	-0.051660374
204	0xbd207a9e	-0.039179437
205	0xbdd307ca	-0.1030422
206	0x3fffc4d0	1.9981937
207	0xbdc3e3e0	-0.09564948
208	0x3d2ff352	0.042956658
209	0xbd9c6017	-0.07635515
210	0xbe88a11d	-0.2668542
211	0x3f8ce793	1.1008171
212	0x3df36d71	0.11886109
213	0x3f6e63aa	0.93120825
214	0xbf5d14df	-0.8635997
215	0x3db2d73b	0.08732458
216	0xbeee0d98	-0.46494746
217	0x3f3c920e	0.7366036
218	0x3df93800	0.12168884
219	0x3d102822	0.035194524
220	0x4024e1e4	2.5762873
221	0x3f8c2fd5	1.0952097
222	0x3efa7a2a	0.4892133
223	0xbe64392d	-0.22287436
224	0xbf4e980e	-0.8070077
225	0x3fc74995	1.556933
226	0x3ea03fd0	0.31298685
227	0x3da4abb4	0.08040562
228	0x3f5f5eea	0.872542
229	0xbf49fd38	-0.78902006
230	0x3ef015cb	0.46891627
231	0x3dbbcda6	0.09170084
232	0x3f8db972	1.1072218
233	0xbdb811ce	-0.08987771
234	0xbefb9939	-0.49140337
235	0x3e3560fb	0.17712776
236	0x3e77575e	0.24154422
237	0x3fd7c4f1	1.6856977
238	0x3fb04934	1.377234
239	0x3db18ad3	0.08669057
240	0xbdca4341	-0.09876109
241	0xbd4f109a	-0.05055294
242	0xbcf4e98c	-0.02989652
243	0xbec9f266	-0.39442748
244	0x3f379232	0.7170745
245	0x3f84b082	1.0366366
246	0xbf436441	-0.7632485
247	0x3f8906fa	1.0705254
248	0xbf8a79c2	-1.0818408
249	0xbf6eebc0	-0.93328476
250	0xbea3f66c	-0.32023942
251	0xbe07bc70	-0.13255477
252	0x3ef0293b	0.46906456
253	0xbf24d1d4	-0.6438267
254	0xbf5bd915	-0.85878116
255	0xbf41a373	-0.7564003

l2.bias f4 [300]
0	0x3f26f75c	0.6522119
1	0x3f0d97b7	0.55309623
2	0x3eaecb97	0.34139702
3	0x3eb8898e	0.36042446
4	0x3f9c14e5	1.2193877
5	0x3e89fa10	0.26948595
6	0x3f3aecd0	0.730176
7	0x3f78576b	0.9700839
8	0xbcc5d343	-0.024148589
9	0xbf5097eb	-0.8148181
10	0xbf5f85ee	-0.87313735
11	0xbf190ce4	-0.59785295
12	0x3db4a94a	0.08821352
13	0xbf70a2a8	-0.93998194
14	0xbfdfce6d	-1.7484871
15	0x3f565a9d	0.83732015
16	0xbe6077c9	-0.21920694
17	0xbf809878	-1.004653
18	0xbef42dcc	-0.4769119
19	0x3f1364fb	0.5757596
20	0xbfd784bb	-1.6837381
21	0xbee2bfd1	-0.4428697
22	0x3fae9145	1.3638083
23	0xbf25c182	-0.64748394
24	0xbe006cd5	-0.12541516
25	0x3fbc7fe1	1.4726526
26	0x3e8ed4bf	0.27896687
27	0x3efd328a	0.4945262
28	0xbdd56a22	-0.10420634
29	0x3f29ab37	0.6627688
30	0x3f3ef10a	0.74586546
31	0x3fb910d5	1.4458262
32	0x3f734083	0.9502031
33	0xbf4f1173	-0.80886
34	0xbf515df8	-0.8178401
35	0x3ed23905	0.41059127
36	0xbf7227e2	-0.94592106
37	0x3f445d54	0.7670491
38	0x3d2021e5	0.039094824
39	0x3f8e042a	1.1095021
40	0x3f0a18a5	0.53943855
41	0x3fa2ba9c	1.2713199
42	0x3ee1214f	0.43970725
43	0xbfb50551	-1.4142247
44	0x3f634ac2	0.88785946
45	0xbf1c9b7c	-0.6117475
46	0xbdd7f743	-0.10545208
47	0xbf8cfe93	-1.101519
48	0xbfbed365	-1.4908262
49	0xbed98d82	-0.42490774
50	0x3e41686d	0.18887492
51	0xbeee5268	-0.46547246
52	0x3c95c029	0.018280106
53	0xbe911ad6	-0.28340787
54	0x3f0a5c12	0.5404674
55	0xbf872eac	-1.0561118
56	0x3efff8bd	0.4999446
57	0x3f8b3158	1.0874434
58	0x3e4e06c9	0.20119776
59	0x3f62fdb2	0.8866836
60	0xbf123297	-0.57108444
61	0xbfa9d6d5	-1.3268687
62	0x3d98ec25	0.07466916
63	0xbf991bcd	-1.1961609
64	0xbf64cd46	-0.8937572
65	0xbf4ac7e0	-0.79211235
66	0xbf0720b7	-0.52784294
67	0x3ea000d1	0.31250623
68	0x3f62efba	0.88647044
69	0xbf290b6d	-0.6603306
70	0x3f7ed751	0.99547297
71	0x3ecca0a6	0.39966315
72	0xbf8b2b94	-1.0872674
73	0xbf8be2e2	-1.0928614
74	0x3eb9f605	0.3632051
75	0xbf478118	-0.77931356
76	0x3ee9736c	0.45595872
77	0xbf8fdc29	-1.1239063
78	0x3eae7eef	0.34081218
79	0x3ed9ea8b	0.42561755
80	0x3f3b8674	0.73252034
81	0x3e281d71	0.16417481
82	0x3f645cc1	0.8920403
83	0x3dc5ce13	0.09658446
84	0xbfa8ef11	-1.3197957
85	0x3d5977ce	0.05309277
86	0xbf897878	-1.0739889
87	0x3f7e2065	0.9926818
88	0x3f4f249b	0.8091523
89	0x3f2818a4	0.656626
90	0xbf4e4325	-0.80571204
91	0xbd22a647	-0.039709356
92	0x3ef612d2	0.48061234
93	0xbfbcce03	-1.475037
94	0x3e3f4cdf	0.18681668
95	0xbf3199fc	-0.69375587
96	0x3eac4c1f	0.33651826
97	0x3f1a380d	0.60241777
98	0x3ed81b38	0.42208266
99	0xbf52c00d	-0.82324296
100	0xbf9f4266	-1.2442138
101	0x3f08e3a0	0.5347233
102	0x3e82c46c	0.25540483
103	0x3f65e721	0.898058
104	0xc00651ad	-2.098735
105	0xbe1605c4	-0.14650637
106	0xbfbd607d	-1.4795071
107	0xbf99ed87	-1.2025613
108	0xbfaa189b	-1.3288759
109	0x3dd72169	0.10504419
110	0x3f1add7b	0.604942
111	0x3e3ef554	0.18648273
112	0xbf6ba669	-0.92050797
113	0x3f11b5f1	0.56918246
114	0xbe55fd51	-0.20897414
115	0xbf2a4865	-0.66516715
116	0xbd264391	-0.04059178
117	0xbf9276e6	-1.1442535
118	0x3f92c7d0	1.1467228
119	0x3fc1b60c	1.5133681
120	0x3fd5df02	1.6708682
121	0x3f59983b	0.8499791
122	0xbeb4e134	-0.35328066
123	0xbfdb2eb5	-1.7123629
124	0x3e6e0bf2	0.23246744
125	0xbf32b82a	-0.6981226
126	0xbf8daf91	-1.1069204
127	0xbf9e8b67	-1.2386292
128	0x3d9ae200	0.07562637
129	0xbf1c47f4	-0.6104729
130	0x3ecf845f	0.4053068
131	0x3e8ffe3f	0.28123662
132	0xbefce3c0	-0.4939251
133	0x3f8aa556	1.0831707
134	0xbf365a46	-0.71231496
135	0x3f6334a1	0.8875218
136	0x3f4443e0	0.7666607
137	0xbfa295f0	-1.2702007
138	0xbf1e2fc7	-0.6179165
139	0xbffefdf3	-1.9921249
140	0x3f1280f0	0.57227993
141	0xbf79ae7d	-0.97531873
142	0xbed2220a	-0.41041595
143	0xbf3700af	-0.7148542
144	0x3ddfc9ae	0.10927139
145	0x3f70cdda	0.94064105
146	0x3f3fefa7	0.74975055
147	0xbf02d4cf	-0.5110597
148	0xbf6f6f09	-0.935288
149	0xbf3d2d4f	-0.7389726
150	0xbf15f589	-0.5857778
151	0xbe87e7a1	-0.26543906
152	0xbf2a7183	-0.66579455
153	0x3ebefd15	0.3730246
154	0xbf4b02f3	-0.79301375
155	0x3f079c0b	0.5297248
156	0x3ef81df8	0.48460364
157	0x3fb3fee8	1.4062166
158	0xbfb1d905	-1.3894354
159	0xc002a21b	-2.0411441
160	0xbf1abc13	-0.6044323
161	0xbf91e182	-1.1396945
162	0xbf8ba63b	-1.0910105
163	0x3eff1ee3	0.49828252
164	0x3f848e97	1.0356015
165	0x3e3fc04d	0.187257
166	0x3f387e25	0.7206748
167	0xbef3600b	-0.47534212
168	0x3d5184fb	0.05115221
169	0xbe8510fe	-0.25989527
170	0x3f6e8f18	0.93187094
171	0x3f9178fe	1.1365049
172	0xbdc27df7	-0.09496682
173	0xbf81c589	-1.0138408
174	0xbf89196f	-1.0710887
175	0xbfabcd7c	-1.3422084
176	0xbf9b7ad5	-1.214686
177	0x3eaa53b8	0.33266997
178	0xbead5241	-0.33851817
179	0x3f3c5882	0.7357255
180	0x3f3e9971	0.74452883
181	0x3ea06c38	0.31332564
182	0x3dc40c8b	0.09572705
183	0x3f3fce14	0.74923825
184	0x3ec0a374	0.37624705
185	0xbf8b0657	-1.086131
186	0xc017b0ec	-2.3701735
187	0xbf4d827c	-0.8027723
188	0xbed64525	-0.41849628
189	0x3f4cbb5e	0.799734
190	0xbe763dec	-0.24047059
191	0x3f80d651	1.0065404
192	0x3f4d706c	0.8024967
193	0xbfa0e73d	-1.2570568
194	0xbe9028dc	-0.28156173
195	0x3e0e6b6c	0.13908166
196	0xbf2e5716	-0.6810163
197	0xbfb9a6a3	-1.4503978
198	0xbeef7362	-0.46767718
199	0xbf9e6759	-1.2375289
200	0x3da808a6	0.082047746
201	0xbe49825e	-0.19678637
202	0xbd0c3f6d	-0.034240175
203	0x3e3407af	0.17581056
204	0xbf662ad0	-0.89909077
205	0xbc75d9c3	-0.015005532
206	0x3fba9a87	1.4578408
207	0x3efdd360	0.4957533
208	0xbfb141e7	-1.3848237
209	0xbea9bb50	-0.3315072
210	0x3eb8f4e4	0.36124337
211	0x3f50909e	0.8147067
212	0x3faf248d	1.368303
213	0x3f9765e4	1.182797
214	0x3e7736bf	0.24141978
215	0xbea9a389	-0.3313258
216	0xbf9c9df3	-1.2235702
217	0xbedfd0d4	-0.4371401
218	0x3d750592	0.059819765
219	0xbf8af101	-1.0854799
220	0x3f8fab7f	1.1224211
221	0x3e47b828	0.19503844
222	0x3f9a190a	1.2038891
223	0xbf3e93ab	-0.74444073
224	0xbf73aca3	-0.951853
225	0x3e95329e	0.2914018
226	0x3f4f9f14	0.8110211
227	0xbd80c134	-0.062868506
228	0xbdf3e69e	-0.11909221
229	0x3f89a5c3	1.0753711
230	0xbfc1a8bf	-1.5129622
231	0x3f4dc9c6	0.80386007
232	0x3f822a53	1.0169166
233	0xbf6a4fb2	-0.91527855
234	0xbf7de22e	-0.9917325
235	0xbe811868	-0.25213933
236	0x3d50df14	0.050993994
237	0xbfd22f57	-1.6420697
238	0x3f0b22c2	0.5434991
239	0xbed27a7e	-0.4110908
240	0x3d2141d0	0.039369404
241	0x3f239391	0.63897043
242	0x3df07f0f	0.117429845
243	0x3f497b72	0.7870399
244	0xbf860a7e	-1.0471952
245	0xbfd7a769	-1.6847965
246	0x3fb97925	1.4490095
247	0x3f6d62fe	0.92729175
248	0xbbbde089	-0.005794589
249	0xc00019bc	-2.0015707
250	0x3f1c94c6	0.6116451
251	0x3f3d681a	0.7398697
252	0x3e831001	0.25598148
253	0x3ec83514	0.39102995
254	0xbf87fbb4	-1.0623689
255	0x3f38d801	0.72204596

bn2.weight f4 [300]
0	0x3fc8d742	1.5690691
1	0x3fc766d7	1.5578259
2	0x3fbfd7a9	1.4987689
3	0x3fb49d20	1.4110451
4	0x3fdd12dc	1.727138
5	0x3fb080d0	1.378931
6	0x3fb75e56	1.4325664
7	0x3fc31688	1.5241251
8	0x3fba2631	1.4542905
9	0x3e6581ec	0.22412843
10	0x3f9e251e	1.2355077
11	0x3e6a46d0	0.22878575
12	0x3f9b6717	1.2140836
13	0x3e9daf3a	0.3079775
14	0x3fd9210e	1.6963212
15	0x3fb0f76f	1.3825511
16	0x3fe3dc4d	1.7801605
17	0x3e2ea5ff	0.1705551
18	0x3f8b197c	1.0867152
19	0x3fc0c8e6	1.5061309
20	0x3e566048	0.20935166
21	0x3fdb66e0	1.714077
22	0x3facc756	1.3498333
23	0x3fe88664	1.8166013
24	0x3f9e52f0	1.236906
25	0x3fe8d92d	1.8191277
26	0x3fb0ca2e	1.38117
27	0x3f9e5ac9	1.2371455
28	0x3fb99b9a	1.4500611
29	0x3fddc61b	1.7326082
30	0x3fd79757	1.684306
31	0x3fc60be7	1.5472382
32	0x3fae4f30	1.3617916
33	0x3e7c80a0	0.24658442
34	0x3e6aff66	0.2294899
35	0x3fc4f3fd	1.5386959
36	0x3e81e81e	0.25372404
37	0x3fb653a2	1.4244273
38	0x3f956ccf	1.1673831
39	0x3fa90333	1.3204101
40	0x3fcb2176	1.5869586
41	0x3fe0052d	1.750158
42	0x3fa9c076	1.326186
43	0x3fe90dbd	1.8207318
44	0x3fb09150	1.3794346
45	0x3e6e7bcd	0.23289414
46	0x3f9840bc	1.1894755
47	0x3e6a2a7c	0.22867769
48	0x3fb5764b	1.4176725
49	0x3fae164e	1.3600557
50	0x3fb9b3ed	1.4508034
51	0x3eb708cb	0.35748896
52	0x3fec748e	1.847307
53	0x3fe2a0f8	1.7705374
54	0x3fd8e1cd	1.6943909
55	0x3e9160a1	0.28394035
56	0x3fd140d6	1.6347911
57	0x3fca7fbf	1.5820235
58	0x3f9c3533	1.2203735
59	0x3fc7af06	1.5600288
60	0x3e82d148	0.25550294
61	0x3fbe60cf	1.4873294
62	0x3fccedfb	1.6010126
63	0x3fbb60a9	1.4638873
64	0x3eef8158	0.4677837
65	0x3e7c2dd6	0.2462686
66	0x3e876887	0.26446936
67	0x3fc94b19	1.5726043
68	0x3faab2ed	1.3335854
69	0x3fdfebaa	1.7493794
70	0x3fd61165	1.6724058
71	0x3fa3675c	1.2765918
72	0x3e800bc3	0.25008973
73	0x3e58eb9f	0.21183632
74	0x3fadb4e5	1.357083
75	0x3e95fffc	0.29296863
76	0x3fa0e7b9	1.2570716
77	0x4024ae12	2.5731244
78	0x3f92f3d9	1.1480666
79	0x3faf9111	1.3716146
80	0x3fa623ba	1.2979653
81	0x3fad292e	1.3528192
82	0x3fc98b87	1.5745705
83	0x3fbe58be	1.4870832
84	0x3e2bc456	0.16774115
85	0x3fc7cc2e	1.5609186
86	0x3fc0a66c	1.5050788
87	0x3fc9b217	1.5757474
88	0x3fad418f	1.3535632
89	0x3f9c1935	1.2195193
90	0x3faf0064	1.3671994
91	0x3fbd9f49	1.4814235
92	0x3f97901a	1.1840851
93	0x3e6dfa87	0.232401
94	0x3fbe0a47	1.4846886
95	0x3fccf6cf	1.601282
96	0x3fc5d8a7	1.5456742
97	0x3fc02c0b	1.5013441
98	0x3fafcec1	1.3734971
99	0x3f59948e	0.849923
100	0x3fa6f887	1.3044595
101	0x3fb2fb75	1.3982989
102	0x3fb75ef6	1.4325855
103	0x3fcebb7c	1.6150966
104	0x3ff544a3	1.9161571
105	0x3f914e49	1.1352016
106	0x3f8330cf	1.024927
107	0x3e954c06	0.29159564
108	0x3fbf7a95	1.4959284
109	0x3f9fa4f2	1.2472212
110	0x3fd88361	1.6915094
111	0x3f9f06df	1.2423972
112	0x3fe803b1	1.8126127
113	0x3fc2b9ba	1.5212929
114	0x3e4ff854	0.20309573
115	0x3e61e446	0.22059736
116	0x3faf2851	1.3684179
117	0x3e7ce570	0.24696898
118	0x3fb78ee0	1.4340477
119	0x3fbce225	1.4756514
120	0x3fbef92f	1.4919795
121	0x3fc5853c	1.5431285
122	0x3fc5fbc6	1.546746
123	0x3e68f3f1	0.22749306
124	0x3fe27ae8	1.7693758
125	0x3e82bb7d	0.25533667
126	0x3e666cb8	0.2250241
127	0x4003f2ac	2.0616865
128	0x3fb2d229	1.3970386
129	0x3f9f1772	1.242903
130	0x3f9ae394	1.2100701
131	0x3fb72efe	1.4311216
132	0x3fbe9647	1.4889611
133	0x3fa3068a	1.273637
134	0x3fd4f745	1.6637961
135	0x3fac2e03	1.3451542
136	0x3fc271f1	1.5191022
137	0x3fcaa764	1.5832334
138	0x3fa08443	1.2540363
139	0x40152b7e	2.3307796
140	0x3fb979f0	1.4490337
141	0x3fa7b9de	1.3103597
142	0x3e444876	0.19168267
143	0x3e565fc6	0.20934972
144	0x3fb27e35	1.3944765
145	0x3fc1b84c	1.5134368
146	0x3fae6d29	1.3627063
147	0x3e93b67a	0.28850156
148	0x400dc737	2.215284
149	0x3fa720b7	1.3056859
150	0x4020de6b	2.5135753
151	0x3fa1218b	1.2588362
152	0x3fa1fd2e	1.2655389
153	0x3fa98c63	1.3245968
154	0x3fd78d37	1.683997
155	0x3fc51890	1.5398121
156	0x3fd821b8	1.688529
157	0x3fbafeeb	1.4609045
158	0x3e3128f4	0.17300779
159	0x401731f6	2.3624244
160	0x3f569ee3	0.8383619
161	0x3e7cb184	0.24677092
162	0x3fe8d4f8	1.8189993
163	0x3fa3fc4b	1.2811369
164	0x3fcb20d6	1.5869396
165	0x3fc721f4	1.5557237
166	0x3fbd3ec1	1.4784776
167	0x3e8e3b9b	0.2777985
168	0x3fcfff77	1.6249837
169	0x3fbd8704	1.4806828
170	0x3fa58c95	1.2933527
171	0x3fc07eb1	1.5038663
172	0x3fd2476c	1.6428046
173	0x3e5fb2bc	0.21845526
174	0x3e8410dc	0.25794113
175	0x3eb9bc21	0.36276343
176	0x3e199c2a	0.15000978
177	0x3fc7dd46	1.5614402
178	0x3fa4fe13	1.2890037
179	0x3f9d4ba4	1.2288709
180	0x3fb1a5c4	1.3878713
181	0x3fb058a1	1.3777047
182	0x3fbd6239	1.47956
183	0x3fcc9c8c	1.5985274
184	0x3fc15e1e	1.5106847
185	0x3e866ae5	0.2625343
186	0x3fc58c06	1.5433357
187	0x3e484563	0.19557719
188	0x3e90d094	0.28284132
189	0x3facbe75	1.3495623
190	0x3fb8c269	1.4434329
191	0x3fcfc7b0	1.6232815
192	0x3fd2029b	1.6407045
193	0x3e8016db	0.25017437
194	0x3ebb8c12	0.36630303
195	0x3fb56327	1.4170884
196	0x3e4dda90	0.20102906
197	0x3e68985b	0.22714369
198	0x3fb6ad33	1.4271606
199	0x3e939123	0.28821668
200	0x3fa47d3e	1.2850721
201	0x3fab7c29	1.3397266
202	0x3fc710c7	1.5551995
203	0x3fa0671f	1.253147
204	0x3ea5ee1a	0.3240822
205	0x3fb614cc	1.4225097
206	0x3fb85328	1.4400377
207	0x3fadf7ad	1.359121
208	0x3e943534	0.2894684
209	0x3e1f7314	0.15571243
210	0x3fb6e6ce	1.4289186
211	0x3fceee5a	1.6166489
212	0x3fb48282	1.4102328
213	0x3fbb5e0b	1.4638075
214	0x3fbfc5f7	1.4982289
215	0x3fc9e339	1.5772468
216	0x3ff6d0aa	1.9282429
217	0x401417a2	2.3139424
218	0x3e791a77	0.24326502
219	0x3fda90d4	1.7075448
220	0x3fa69278	1.3013449
221	0x3fbbc05e	1.4668081
222	0x3fd35343	1.6509784
223	0x3fc270a5	1.5190626
224	0x3fd35dd7	1.6513013
225	0x3fa5f60c	1.2965713
226	0x3fa76953	1.3079017
227	0x3fb1d7f7	1.3894032
228	0x3f9eef27	1.2416734
229	0x3fb2c673	1.3966812
230	0x4000b19b	2.0108402
231	0x3fa6f11d	1.3042332
232	0x3fb8d56c	1.4440131
233	0x3e6ce8af	0.23135637
234	0x3e902505	0.28153244
235	0x3e4bf372	0.19917086
236	0x3fd24134	1.6426148
237	0x3e129eab	0.1431834
238	0x3fc6fe4f	1.5546359
239	0x3fc70124	1.5547223
240	0x3fac0710	1.3439655
241	0x3fbda52a	1.4816029
242	0x3f97c57e	1.1857145
243	0x3fd34a50	1.6507053
244	0x3faf79bf	1.3709029
245	0x3e802354	0.25026953
246	0x3fcc4bfc	1.5960689
247	0x3fae242d	1.360479
248	0x3fa6b598	1.3024168
249	0x3e86c667	0.26323244
250	0x3fd8a148	1.6924219
251	0x3fdbcebc	1.7172465
252	0x3fcd4b57	1.6038617
253	0x3fd68080	1.6757965
254	0x3e6c2de0	0.23064375
255	0x3fb2891b	1.3948091
