weights/model_104.pt (torch, 429959 bytes, 10 tensors)

l1.weight f4 [300, 42]
0.7462723 -0.50624156 0.7689752 -0.13575414 0.6605498 -0.15423508 -1.9647983 -0.99244654
-0.9864414 1.146486 0.44109905 0.16676857 0.6109961 -0.65751165 -3.1393967 0.8671002
0.8565247 -0.6846249 3.1429126 1.3910185 -0.600094 1.4387158 -0.018935032 0.7236427
0.638451 0.87827986 0.6721018 -0.91604125 1.2942065 0.27501467 -0.40832436 -1.1193848
4.4951797 -2.4827833 0.5002979 -6.8715587 -5.061972 1.2717518 -0.15240227 -0.55810595
1.3193259 2.0879703 0.32052854 1.0167179 0.19556297 0.43304163 0.046065815 1.6039827
-0.11454441 -0.28103444 0.02745767 1.1397983 0.2885109 -2.7955217 0.068224706 -0.57749146
1.6575557 -0.6620966 -0.5002528 -2.0965533 -2.5683165 0.3761393 0.3063096 0.9529517
-2.1432142 0.29554322 0.82792443 2.2496886 2.510414 2.1435895 -3.786556 0.622042
-0.3189143 1.1893259 1.0957214 -0.092985846 0.5807423 -0.6858444 -1.7605163 -0.38010266
-1.5224798 -0.37492892 -1.7091415 -1.7802528 0.4027459 0.022368679 0.07644013 -1.4011427
0.45197514 -0.42574182 1.1867055 -0.84797585 -0.8489755 1.0589815 0.89157337 -1.0609396
0.71174115 -0.5126227 -0.5169378 2.178812 2.5681953 -0.5098171 -4.2104564 -0.9531484
-0.4709511 -0.06242674 0.83660895 0.9490344 0.84168214 0.33492586 -0.5671252 0.62905
0.9807023 0.26239696 0.9194576 -0.038761903 7.8995385 -1.9509584 0.68688214 0.15629101
-1.4936346 -0.3304099 -2.316665 -2.6572692 1.5270665 2.4382305 0.93573076 0.6515934
0.8987064 0.8016313 0.8278541 0.23073705 -1.3132144 -1.7965015 -0.7672128 0.7735023
0.63087326 0.48169994 0.9605602 -1.3583387 1.5929312 -1.1064174 -0.3551336 1.9286805
1.0136114 0.029274074 1.5729573 1.228677 -3.8417282 0.6326574 0.9671089 -0.5638434
-1.7378569 0.26703683 5.1308427 -3.1848824 -0.3597457 -1.1807841 -1.0828693 5.273983
0.68300945 1.6235307 1.1812364 0.99106467 -1.0347201 2.1131442 -6.843165 -1.4527369
0.7095986 0.12284858 0.714281 -0.99613065 0.51100343 1.4593896 -1.6347556 -0.14243568
-1.0147573 -1.0878477 0.5803571 0.01857892 0.21686219 -0.8237904 -1.9147606 2.9292839
-2.2818322 2.1317117 3.91884 0.7014773 6.3092837 1.0211445 -1.6206124 0.778072
0.90971404 0.7665488 2.6485615 -0.061086528 0.36540115 -0.42652574 -2.6140933 -0.26945937
-5.535246 2.549293 0.593154 3.5287807 2.6780162 0.69292 -0.45094267 3.0012171
-2.2212644 1.4478796 0.70392704 0.8469257 1.1429989 0.22489254 0.56801116 0.99954516
-0.70581275 0.13206223 -0.33213627 0.47356233 0.5256487 -0.42198843 -0.045458794 -0.034624167
-2.4140108 1.4199352 -3.520118 1.6378654 1.3763098 -0.5202358 3.8777874 0.81054646
1.7611933 0.5922907 0.6120129 1.407493 -0.092024624 0.870953 -0.62923205 1.1384397
-0.9100137 -0.59236205 1.5324962 0.7103683 0.84667003 -0.5877307 -3.0623221 0.7230991
-2.4366856 1.3389015 1.6904994 -0.41224217 0.7391095 1.0074468 0.8211527 2.3072195
00000000: b40b 3f3f 0c99 01bf 8fdb 443f 2203 0bbe
00000010: cb19 293f cdef 1dbe 837e fbbf fa10 7ebf
00000020: 6c87 7cbf 0ec0 923f bcd7 e13e 61c5 2a3e
00000030: 3e6a 1c3f af52 28bf e0eb 48c0 47fa 5d3f
00000040: 3445 5b3f 9443 2fbf 7b25 4940 e50c b23f
00000050: c39f 19bf d727 b83f a41d 9bbc a640 393f
00000060: 8671 233f f3d6 603f dd0e 2c3f ae81 6abf
00000070: 8fa8 a53f b9ce 8c3e e40f d1be 0048 8fbf
00000080: 83d8 8f40 ece5 1ec0 8613 003f cfe3 dbc0
00000090: adfb a1c0 c3c8 a23f 570f 1cbe 08e0 0ebf
000000a0: acdf a83f 4ea1 0540 511c a43e d023 823f
000000b0: a941 483e a2b7 dd3e 82af 3c3d 4e4f cd3f
000000c0: 4296 eabd bfe3 8fbe e8ee e03c e9e4 913f
000000d0: b3b7 933e d4e9 32c0 65b9 8b3d 7bd6 13bf
000000e0: c92a d43f 2a7f 29bf 9110 00bf ee2d 06c0
000000f0: 4c5f 24c0 5595 c03e 9dd4 9c3e a5f4 733f
00000100: 6c2a 09c0 7151 973e dbf2 533f e6fa 0f40
00000110: 9faa 2040 9230 0940 ef56 72c0 253e 1f3f
00000120: bc48 a3be d53b 983f 9940 8c3f 5d6f bebd
00000130: 87ab 143f 8093 2fbf 9958 e1bf d19c c2be
00000140: 9ee0 c2bf aff6 bfbe 26c5 dabf 53df e3bf
00000150: b634 ce3e 853e b73c a58c 9c3d a558 b3bf
00000160: 4969 e73e d5fa d9be f7e5 973f f214 59bf
00000170: 7556 59bf b58c 873f 273e 643f decc 87bf
00000180: ab34 363f 3e3b 03bf 0956 04bf a871 0b40
00000190: 505d 2440 6083 02bf 0fbc 86c0 8901 74bf
000001a0: 8120 f1be 2eb3 7fbd 012c 563f ebf3 723f
000001b0: 7b78 573f 677b ab3e 1e2f 11bf 6c09 213f
000001c0: 4e0f 7b3f e558 863e 9361 6b3f cdc4 1ebd
000001d0: 05c9 fc40 01b9 f9bf 82d7 2f3f c00a 203e
000001e0: 6b2f bfbf 7d2b a9be 3d44 14c0 b310 2ac0
000001f0: ea76 c33f f80b 1c40 0d8c 6f3f d3ce 263f
00000200: 9f11 663f b537 4d3f 3fee 533f 5546 6c3e
00000210: 6917 a8bf c3f3 e5bf 0f68 44bf 3f04 463f
00000220: e980 213f 60a1 f63e 46e7 753f 0bde adbf
00000230: 2be5 cb3f 169f 8dbf 12d4 b5be 01df f63f
00000240: 05be 813f 2fd0 ef3c aa56 c93f 4a45 9d3f
00000250: e0de 75c0 d6f5 213f 7394 773f 0b58 10bf
00000260: 1872 debf 0db9 883e dd2f a440 1dd5 4bc0
00000270: 9730 b8be ef23 97bf 769b 8abf 78c4 a840
00000280: b5d9 2e3f dbcf cf3f c132 973f 6ab6 7d3f
00000290: b571 84bf c13d 0740 35fb dac0 48f3 b9bf
000002a0: 41a8 353f 0998 fb3d 1fdb 363f 6b02 7fbf
000002b0: 1fd1 023f 47cd ba3f ac3f d1bf a9da 11be
000002c0: 91e3 81bf 983e 8bbf 4892 143f d232 983c
000002d0: 1f11 5e3e ede3 52bf e016 f5bf 6379 3b40
000002e0: 8a09 12c0 f76d 0840 46ce 7a40 0494 333f
000002f0: a7e5 c940 ddb4 823f 3a70 cfbf ba2f 473f
00000300: 05e3 683f 8b3c 443f 0882 2940 de35 7abd
00000310: dc15 bb3e 9561 dabe 4e4d 27c0 94f6 89be
00000320: bc20 b1c0 9e27 2340 f1d8 173f 8bd7 6140
00000330: 9e64 2b40 3563 313f f5e1 e6be f113 4040
00000340: 3229 0ec0 1e54 b93f 9034 343f 1fd0 583f
00000350: ca4d 923f 3b4a 663e 2e69 113f 31e2 7f3f
00000360: 25b0 34bf 523b 073e c40d aabe c376 f23e
00000370: ea90 063f de0e d8be 0033 3abd 12d2 0dbd
00000380: 277f 1ac0 70c0 b53f 9d49 61c0 93a5 d13f
00000390: eb2a b03f 2c2e 05bf ab2d 7840 f97f 4f3f
000003a0: c86e e13f 5da0 173f e1ac 1c3f bb28 b43f
000003b0: 6877 bcbd c7f6 5e3f 5a15 21bf 64b8 913f
000003c0: a8f6 68bf 0aa5 17bf d628 c43f b2da 353f
000003d0: 5ebf 583f 8575 16bf 16fd 43c0 061d 393f
000003e0: a8f2 1bc0 2061 ab3f 4962 d83f 6811 d3be
000003f0: 4836 3d3f 04f4 803f 1037 523f 7ca9 1340

l1.bias f4 [300]
0.6583936 0.53743726 0.69955796 0.83344233 0.6859582 0.6768968 0.78824246 0.68361586
1.0015529 0.5479105 0.7972616 0.9345537 0.6044935 0.7177261 0.40101567 0.6733912
0.6361476 0.46500847 0.636218 0.61078304 0.521422 1.1371449 0.7700384 0.62921745
0.76642174 0.8520976 0.7722796 0.6302963 0.5028125 0.5340096 0.5695513 0.612022
0.9048202 0.704478 0.52241486 0.44581774 0.7967918 0.5401497 0.609578 0.5174275
0.8500956 0.69395214 0.62557465 0.45879695 0.6949328 0.5188703 0.56921947 0.7084666
0.5838287 0.80893266 0.54811853 0.40723658 0.4807454 0.7202824 1.0113391 0.7557296
0.441312 0.67975575 0.67348146 0.50658655 0.99652946 0.5888651 0.6443239 0.6216038
0.50349617 0.48043317 1.0290593 0.6139599 0.41912398 0.5874416 0.7207633 0.6689594
0.5721839 0.765866 0.7454202 0.46732143 0.69208837 0.6523143 0.56796825 0.78099006
0.5733764 0.60512054 0.5191625 0.38674533 0.72595596 0.5937118 0.7853538 0.545814
0.95134765 0.7772517 0.73986155 0.3696861 0.9163498 1.9534184 0.5136008 0.64951944
0.7366315 0.38829353 0.5362034 0.65702486 0.84059626 0.6308143 0.55223596 0.64110494
0.36132303 0.5062474 0.59745497 0.9224988 0.85424465 0.6343109 0.6625783 0.8556074
0.6406958 0.47929296 0.7610744 0.6278539 0.7602305 0.66403365 0.601006 0.79377025
0.495363 0.84630185 0.6528833 0.571384 0.60483277 0.56846106 0.8074984 0.6970244
0.822224 0.6156414 0.8280071 0.41650242 0.8775719 0.8380129 0.39206597 0.5035112
0.79943925 0.63593256 0.7143488 0.9180484 0.64079976 0.45335543 0.7744574 0.5923152
0.9894607 0.58796173 0.7612772 0.5652841 0.39476267 0.50434905 0.3794151 0.49865034
0.92783976 0.49735478 0.5584839 0.38908288 0.49390614 0.54867923 0.64230704 0.35313356
0.59590554 0.8700775 0.2822285 0.6166389 0.5324039 0.6466359 0.52052486 0.3703419
0.6279306 0.7654795 0.6608234 0.74853003 0.53891253 0.5639918 0.6491235 2.1207411
0.56866896 0.8900295 0.5312668 0.5504687 0.5628503 0.3043044 0.5609947 0.7089599
0.5995075 0.64425206 0.7604045 0.43469036 0.6033996 0.815647 0.43251342 0.54799694
0.5753741 0.5722262 0.6954003 0.7801729 0.57862407 0.7041931 0.7026249 0.43588552
0.70033586 0.6056095 2.0460749 0.7935082 0.86231416 0.5798332 0.54071534 0.5864848
0.6594539 0.6624571 0.6314629 0.6561177 0.63962996 0.7771277 0.44806182 0.50018907
0.7797874 0.45452148 0.60861415 0.7092519 0.8437085 1.9214209 0.4821857 0.6816648
0.65184563 0.634066 0.41190723 0.4426709 0.8308784 1.0137417 0.5307412 0.39848116
0.7472093 0.51723444 0.5831108 0.4785068 0.6277384 1.1482594 0.57920754 0.46095508
0.7140842 0.49331516 0.96122724 0.83490145 0.83239365 0.5667386 0.5553206 0.74003595
0.6412534 0.5596296 0.5670329 0.7612509 0.594447 0.782185 0.5873373 0.4197029
00000000: 7c8c 283f 7d95 093f 3b16 333f 7a5c 553f
00000010: f59a 2f3f 1c49 2d3f 42ca 493f 7301 2f3f
00000020: e332 803f dd43 0c3f 5619 4c3f e93e 6f3f
00000030: 16c0 1a3f e6bc 373f ed51 cd3e 5e63 2c3f
00000040: 92da 223f 9715 ee3e 2fdf 223f 475c 1c3f
00000050: ea7b 053f f78d 913f 3d21 453f 6514 213f
00000060: 3734 443f 1123 5a3f 1eb4 453f 195b 213f
00000070: 52b8 003f dab4 083f 1dce 113f 79ad 1c3f
00000080: 4ca2 673f ac58 343f fbbc 053f 3942 e43e
00000090: 8cfa 4b3f 4047 0a3f 4e0d 1c3f 2176 043f
000000a0: de9f 593f d9a6 313f a925 203f 6fe7 ea3e
000000b0: 1ee7 313f afd4 043f 5eb8 113f 115e 353f
000000c0: cc75 153f 3616 4f3f 7f51 0c3f 5081 d03e
000000d0: 4324 f63e 6d64 383f 8f73 813f 7f77 413f
000000e0: a5f3 e13e 7904 2e3f 4869 2c3f a8af 013f
000000f0: 8e1c 7f3f ddbf 163f 69f2 243f 6d21 1f3f
00000100: 20e5 003f 56fb f53e 37b8 833f 7a2c 1d3f
00000110: 6b97 d63e 9362 163f f283 383f ec40 2b3f
00000120: a57a 123f cb0f 443f dcd3 3e3f c144 ef3e
00000130: b42c 313f 12fe 263f 5e66 113f f7ee 473f
00000140: ccc8 123f 2ee9 1a3f d5e7 043f 7c03 c63e
00000150: 40d8 393f 7ffd 173f f20c 493f 77ba 0b3f
00000160: 858b 733f f8f9 463f 9167 3d3f 7f47 bd3e
00000170: e795 6a3f 9d09 fa3f 587b 033f e846 263f
00000180: e293 3c3f 69ce c63e a044 093f c832 283f
00000190: 5131 573f 0c7d 213f 565f 0d3f 741f 243f
000001a0: 55ff b83e 6e99 013f cff2 183f e228 6c3f
000001b0: c7af 5a3f 3362 223f bb9e 293f 1609 5b3f
000001c0: a404 243f e365 f53e c6d5 423f 08bb 203f
000001d0: 779e 423f 1cfe 293f 87db 193f 8734 4b3f
000001e0: 38a0 fd3e 3da7 583f 5c23 273f 3946 123f
000001f0: 52d6 1a3f aa86 113f 37b8 4e3f 3170 323f
00000200: 467d 523f ad9a 1d3f 46f8 533f ce3f d53e
00000210: 8da8 603f 0388 563f dfbc c83e 1ce6 003f
00000220: 0da8 4c3f 7acc 223f 90df 363f 3805 6b3f
00000230: 740b 243f 341e e83e d742 463f f8a1 173f
00000240: 4c4d 7d3f a984 163f 10e3 423f 75b6 103f
00000250: 551e ca3e 051d 013f b242 c23e 194f ff3e
00000260: e886 6d3f 49a5 fe3e cdf8 0e3f df35 c73e
00000270: 44e1 fc3e 3e76 0c3f 3c6e 243f eccd b43e
00000280: 448d 183f 66bd 5e3f 4180 903e 0cdc 1d3f
00000290: 9f4b 083f ee89 253f 1e41 053f 749d bd3e
000002a0: 0fc0 203f 77f6 433f b92b 293f aa9f 3f3f
000002b0: 2cf6 093f c461 103f f52c 263f 39ba 0740
000002c0: 4a94 113f f9d8 633f 1a01 083f 84eb 0c3f
000002d0: f516 103f c9cd 9b3e 599d 0f3f 657e 353f
000002e0: 5379 193f b4ed 243f dfa9 423f bc8f de3e
000002f0: 6578 1a3f 3ece 503f 6672 dd3e 8749 0c3f
00000300: b84b 133f 6b7d 123f c105 323f 69b9 473f
00000310: b520 143f 0046 343f 3adf 333f 632c df3e
00000320: 3649 333f 3909 1b3f e4f2 0240 5a23 4b3f
00000330: 9fc0 5c3f f36f 143f 526c 0a3f de23 163f
00000340: f9d1 283f ca96 293f 8da7 213f 54f7 273f
00000350: cabe 233f d7f1 463f 5c68 e53e 640c 003f
00000360: 26a0 473f 0ab7 e83e 23ce 1b3f 8891 353f
00000370: 48fd 573f 1ff1 f53f 0be1 f63e 9681 2e3f
00000380: 5bdf 263f 2652 223f 81e5 d23e c3a5 e23e
00000390: 72b4 543f 4ac2 813f a8de 073f b905 cc3e
000003a0: 1c49 3f3f 7a69 043f c046 153f d8fe f43e
000003b0: 77b3 203f 2afa 923f f246 143f 4e02 ec3e
000003c0: 39ce 363f ce93 fc3e fd12 763f 1abc 553f
000003d0: c017 553f c815 113f 7e29 0e3f ff72 3d3f
000003e0: 2f29 243f e343 0f3f 1129 113f 57e1 423f
000003f0: ae2d 183f 473d 483f bd5b 163f 4ce3 d63e

bn1.weight f4 [300]
2.6828425 3.228487 1.7702856 0.8085444 1.982346 2.6895592 1.6543436 1.4126383
2.9429524 3.5855002 3.4351695 1.8063321 1.9095542 1.8287555 1.5691909 2.006905
2.2611723 1.9638444 3.0470397 2.8389168 0.85321677 3.9749005 1.5724733 1.3846313
2.915629 1.000507 1.9491082 1.4139249 1.5261551 2.0013447 1.7125379 1.4107233
1.6551174 3.7371216 2.7538218 2.3249426 2.657116 2.7777147 1.9556004 2.420959
2.1155224 2.8046875 2.0595598 1.3184776 2.1258724 1.9446498 1.9160309 1.6621382
2.74393 1.6394503 1.6271815 2.54696 1.6993307 3.3804646 1.5171663 0.6302709
2.916666 2.5763419 2.05734 1.3156427 0.9478988 2.3345933 3.41179 1.9467787
3.040134 3.1546338 2.743116 0.9092157 2.4829733 1.9206524 1.972283 2.4981213
3.0022497 1.7755388 1.4722189 1.4235061 1.8632426 2.0326366 3.1296005 1.7129122
1.6599282 1.9521403 2.2143915 3.718791 1.5936491 2.506043 2.9948661 2.092335
1.3077093 2.265397 3.5005972 3.0684202 0.96156013 0.14226997 2.1471305 2.2894402
1.9226618 2.6542385 2.8906746 3.680456 2.307529 2.281459 2.0965104 3.2024841
1.4699429 2.0637503 2.081128 2.4919236 2.5983489 2.0228424 3.2188551 1.6555165
1.9112071 1.9444911 2.0859962 2.1143825 1.9514332 1.6863177 3.573955 2.5237596
2.3951235 3.1040266 2.2792783 3.6431985 3.518362 1.9589095 2.0038307 1.2493923
2.7030776 1.1050968 2.7712805 1.9690722 1.408175 2.0564184 1.5299668 2.4370813
3.3827803 2.4972963 1.9967669 1.6240627 2.2106621 2.0452447 2.1789303 1.2771813
3.008362 1.9446666 2.8302293 1.5426642 1.3044903 2.851307 2.144216 3.102826
2.0739958 1.9722258 2.7600021 1.7727867 1.96185 2.1452317 1.861527 2.6483183
1.9005682 2.146061 1.9467089 2.1817558 2.5827188 2.1770172 1.8007979 2.4110353
1.2606931 1.3059866 1.4198503 1.6445655 2.3892176 2.2738578 1.4842525 0.14553435
2.0736089 2.798072 2.0667202 1.7973663 1.0210019 3.7645288 2.736372 1.6512705
2.8641746 2.236461 1.9209269 1.6954871 1.832269 2.582507 2.9840045 1.4112592
2.1955857 2.4156375 2.5890427 1.8041441 2.22221 1.9668225 1.6676936 2.3765135
2.081261 4.2096033 0.10190862 1.2707771 2.8202262 1.2513133 2.0502784 3.154257
3.6107388 2.898468 2.6603303 1.2136592 2.4916155 1.8773248 1.4804336 1.7206836
1.1308932 2.3373814 1.575844 2.2059617 2.347817 0.12035574 1.786544 1.1158437
1.8919523 1.2971151 2.3408968 1.9819437 2.4165277 2.4325643 2.4661155 2.8136008
1.8715336 2.423019 2.0110009 2.7840521 3.1379979 2.8703713 3.5329201 2.0220382
1.1527892 2.8824854 2.3147793 2.7512248 4.321547 2.7726388 1.3025541 2.7573276
1.5840659 1.7500964 1.8295093 1.8237286 2.202241 1.0318706 1.1761427 1.3365983
00000000: b1b3 2b40 889f 4e40 b898 e23f c4fc 4e3f
00000010: 84bd fd3f bd21 2c40 88c1 d33f 55d1 b43f
00000020: 5559 3c40 d678 6540 d1d9 5b40 e435 e73f
00000030: 466c f43f a914 ea3f 3fdb c83f 2271 0040
00000040: 0cb7 1040 415f fb3f b302 4340 d0b0 3540
00000050: 6a6c 5a3f c564 7e40 ce46 c93f 993b b13f
00000060: aa99 3a40 9d10 803f 617c f93f 7efb b43f
00000070: 0d59 c33f 0816 0040 7134 db3f 9592 b43f
00000080: e3da d33f 002d 6f40 9e3e 3040 dccb 1440
00000090: 300e 2a40 14c6 3140 1d51 fa3f fef0 1a40
000000a0: b864 0740 0080 3340 d4cf 0340 e0c3 a83f
000000b0: 4b0e 0840 49ea f83f 8040 f53f f2c0 d43f
000000c0: 8d9c 2f40 82d9 d13f 7c47 d03f 6501 2340
000000d0: ab83 d93f 8859 5840 8132 c23f 6f59 213f
000000e0: a8aa 3a40 c9e2 2440 75ab 0340 fb66 a83f
000000f0: 7fa9 723f fa69 1540 c45a 5a40 0b30 f93f
00000100: 8e91 4240 85e5 4940 368f 2f40 5cc2 683f
00000110: 09e9 1e40 f0d7 f53f c573 fc3f 38e1 1f40
00000120: dc24 4040 db44 e33f ab71 bc3f 7335 b63f
00000130: bc7e ee3f b816 0240 604b 4840 b540 db3f
00000140: 8778 d43f bcdf f93f 97b8 0d40 ac00 6e40
00000150: b2fc cb3f 0263 2040 e3ab 3f40 d1e8 0540
00000160: 0563 a73f 44fc 1040 c909 6040 ff60 4440
00000170: ce28 763f 38af 113e 966a 0940 3086 1240
00000180: c819 f63f 0bdf 2940 d000 3940 978c 6b40
00000190: 8eae 1340 6d03 1240 3a2d 0640 80f5 4c40
000001a0: 1727 bc3f 7c14 0440 3331 0540 ad7b 1f40
000001b0: 594b 2640 4076 0140 b901 4e40 f7e7 d33f
000001c0: 6fa2 f43f 16e5 f83f f680 0540 0b52 0740
000001d0: 90c8 f93f 42d9 d73f aebb 6440 4785 2140
000001e0: b449 1940 5fa8 4640 b2df 1140 2a2a 6940
000001f0: d82c 6140 8cbd fa3f c33e 0040 16ec 9f3f
00000200: 39ff 2c40 d073 8d3f a95c 3140 8f0a fc3f
00000210: 143f b43f 5c9c 0340 f4d5 c33f 24f9 1b40
00000220: 797f 5840 b4d3 1f40 0f96 ff3f 49e1 cf3f
00000230: 7d7b 0d40 4ae5 0240 9873 0b40 ad7a a33f
00000240: 0189 4040 d6ea f83f 7a22 3540 0576 c53f
00000250: 8af9 a63f d07b 3640 d63a 0940 b494 4640
00000260: 59bc 0440 e571 fc3f e0a3 3040 adea e23f
00000270: e71d fb3f 7a4b 0940 8446 ee3f 0c7e 2940
00000280: d245 f33f 1059 0940 c22d f93f e3a1 0b40
00000290: 444b 2540 4054 0b40 8c80 e63f 674e 1a40
000002a0: 645e a13f 922a a73f a8bd b53f 1f81 d23f
000002b0: f1e8 1840 e386 1140 fcfb bd3f f506 153e
000002c0: 02b6 0440 9d13 3340 2545 0440 1910 e63f
000002d0: 31b0 823f 0aee 7040 b820 2f40 d55c d33f
000002e0: a34e 3740 2d22 0f40 efe0 f53f b905 d93f
000002f0: ca87 ea3f cb47 2540 eef9 3e40 24a4 b43f
00000300: 7a84 0c40 ce99 1a40 e0b2 2540 32ee e63f
00000310: b038 0e40 d7c0 fb3f fc76 d53f cc18 1840
00000320: 6133 0540 12b5 8640 77b5 d03d d3a8 a23f
00000330: 967e 3440 092b a03f c337 0340 59df 4940
00000340: 5816 6740 8080 3940 da42 2a40 2f59 9b3f
00000350: a176 1f40 2e4c f03f d97e bd3f 5c3f dc3f
00000360: 1cc1 903f a897 1540 42b5 c93f 7a2e 0d40
00000370: a242 1640 127d f63d 79ad e43f f7d3 8e3f
00000380: 7e2b f23f de07 a63f 41d1 1540 55b0 fd3f
00000390: 64a8 1a40 22af 1b40 d6d4 1d40 0912 3440
000003a0: 6a8e ef3f be12 1b40 3db4 0040 e92d 3240
000003b0: f5d4 4840 2ab4 3740 5d1b 6240 1369 0140
000003c0: 998e 933f a47a 3840 5825 1440 1114 3040
000003d0: 1d4a 8a40 ea72 3140 18ba a63f 0e78 3040
000003e0: acc2 ca3f 2903 e03f 5c2d ea3f f06f e93f
000003f0: 84f1 0c40 5614 843f d88b 963f a715 ab3f

bn1.bias f4 [300]
-0.6437901 -1.0348238 -1.2771024 -0.7980931 -0.9569192 -0.36731812 -0.83816445 -1.3794937
0.8455005 -0.079428345 0.29199317 -0.9484672 -1.2900747 -0.9623603 -0.85408545 -0.7768141
-0.13993573 -0.7409745 -0.6385936 -0.1969673 -0.6879295 0.68465966 -1.2324128 -1.0687929
0.1624952 -1.5725913 -0.57942617 -1.0807893 -1.0388983 -0.2805106 -0.9152064 -0.55476445
-1.102731 0.03946717 -0.45115584 -1.2010869 -0.37330735 -1.0322484 -0.26801747 -0.2721964
-0.79624194 -0.45868164 -0.40572652 -1.5835675 -0.40111572 -1.0299996 -0.9023252 -0.14604272
0.33216277 -0.87336814 -0.80898905 -0.92098534 -0.9214922 -0.13557285 -0.79428285 -0.9421369
-0.19259237 -0.20665464 -0.88458866 -1.1969718 -1.3135943 -0.23529062 -0.47422406 -0.06340148
0.75449175 -0.11819868 0.0059520314 -1.027151 -0.62574774 -0.100958765 -1.1733276 -0.24226758
0.14979967 -0.8461866 -0.67041653 -0.88873863 -1.2315063 -0.894882 -0.71393996 -0.22469336
-0.28161013 -1.0750748 -0.37194332 -0.07500881 -0.8546197 -0.55234843 0.44647187 -0.07424177
-1.1996648 0.3687047 0.14144583 -0.5506764 -1.2287103 -0.9893321 -0.21916321 -0.34687963
-0.4340164 -0.9529584 -0.888844 -0.30756733 0.21757199 -0.20604718 -0.4441752 -0.47541276
-1.2189728 -0.7056897 -0.6438435 0.109591 0.31766495 -0.45187867 -0.5977728 -1.4509737
-1.3916348 -0.5316429 -0.37188795 -0.9034844 -0.502646 -1.4787977 -0.16093712 -0.11099563
-0.485953 0.6074067 -0.9021621 -0.062114824 -0.1955845 -0.9167541 0.0731728 -0.50574034
-0.018730462 -1.208696 -0.7017303 -0.7795363 -1.1306192 0.10597933 -0.71924996 -0.13002047
0.50772434 -0.24980031 -0.581589 -1.5284139 -0.27913418 -1.2896823 -0.58030176 -1.1844368
0.024196489 -0.8784153 -0.08262744 -0.52040637 -0.3612163 -0.18048188 -0.62791693 -0.45770046
-0.493102 -1.0115492 -1.0526085 -0.13403033 -0.940803 -0.9303704 -0.34327543 -0.51570475
-1.2553158 -0.27284905 -0.9359491 -1.4081075 -0.18966655 -0.014599019 -1.2397659 0.062121354
-1.7036805 -0.22806689 -0.8046633 -0.11914032 -0.9642422 -0.83153147 -1.8246285 -0.9904051
-0.8943391 0.100950025 -0.6535148 -0.4444309 -0.6322608 -0.8458282 -0.44774622 -1.3571906
-0.67631346 -0.08489598 -0.41300327 -0.83432144 -0.45337936 0.10751619 -0.6089301 -0.5000711
-0.18981153 -0.4043718 -0.41242838 -0.41708177 -0.5750557 -0.49638623 -0.85106355 -0.63651645
-1.1452081 -0.20999056 -1.1459398 -0.48027986 -0.311538 -0.8477872 -0.8378458 0.008634129
0.4524585 -0.1987351 0.454475 -1.0265361 0.08301886 -0.8987452 -1.115765 -0.45022702
-1.3581622 -0.6739742 -0.54533106 0.27237228 -0.5511893 -0.9797571 -0.38518843 -0.9691309
-0.88835895 -0.65602076 -0.5913117 -0.5165113 -0.8213707 -0.14774014 -0.30346093 -0.21495597
-1.0205606 -0.860996 -1.6817068 0.21262456 -0.14831889 -0.80959094 0.022038387 -0.9833605
-0.9900957 -0.13167568 -0.9509944 0.37895897 0.18191366 -0.121962085 -1.5339273 -0.6870173
-0.63509035 -0.17928568 -0.11431143 -0.27668133 -0.19487688 -0.9692844 -0.6735314 -1.0975882
00000000: 6ecf 24bf 1b75 84bf 1778 a3bf d44f 4cbf
00000010: a8f8 74bf 1f11 bcbe f291 56bf 4093 b0bf
00000020: b972 583f 54ab a2bd 2180 953e bfce 72bf
00000030: 2b21 a5bf 3f5d 76bf 58a5 5abf 4add 46bf
00000040: 504b 0fbe 81b0 3dbf df7a 23bf ccb1 49be
00000050: 261c 30bf db45 2f3f b4bf 9dbf 35ce 88bf
00000060: 2465 263e ac4a c9bf 4655 14bf 4e57 8abf
00000070: 9ffa 84bf 169f 8fbe f74a 6abf 0b05 0ebf
00000080: 4a26 8dbf 54a8 213d e6fd e6be 37bd 99bf
00000090: 2422 bfbe b720 84bf 9639 89be 545d 8bbe
000000a0: 83d6 4bbf 52d8 eabe 63bb cfbe 57b2 cabf
000000b0: 0a5f cdbe 07d7 83bf c9fe 66bf 398c 15be
000000c0: 3d11 aa3e 0e95 5fbf e819 4fbf b2c5 6bbf
000000d0: eae6 6bbf 9cd3 0abe 1f56 4bbf e22f 71bf
000000e0: ef36 45be 469d 53be 6774 62bf 5f36 99bf
000000f0: dc23 a8bf 06f0 70be 7fcd f2be a3d8 81bd
00000100: 5f26 413f 2612 f2bd 4209 c33b af79 83bf
00000110: 0131 20bf 78c3 cebd 992f 96bf fe14 78be
00000120: 1665 193e af9f 58bf 6ba0 2bbf 6084 63bf
00000130: 00a2 9dbf fd16 65bf c5c4 36bf 0416 66be
00000140: 342f 90be 0d9c 89bf 5b6f bebe 389e 99bd
00000150: 5bc8 5abf b566 0dbf f697 e43e 120c 98bd
00000160: 9e8e 99bf ddc6 bc3e 2dd7 103e 21f9 0cbf
00000170: 6146 9dbf de44 7dbf 526c 60be 359a b1be
00000180: 6637 debe 15f5 73bf 488b 63bf 7779 9dbe
00000190: 31cb 5e3e 08fe 52be ef6a e3be 4d69 f3be
000001a0: 4d07 9cbf 15a8 34bf edd2 24bf 3f71 e03d
000001b0: fba4 a23e a45c e7be a307 19bf 82b9 b9bf
000001c0: 1721 b2bf c019 08bf 1968 bebe c14a 67bf
000001d0: 69ad 00bf 3e49 bdbf b3cc 24be ad51 e3bd
000001e0: d5ce f8be 017f 1b3f 18f4 66bf 1d6c 7ebd
000001f0: 4e47 48be 66b0 6abf 9fdb 953d 3378 01bf
00000200: a070 99bc 8db6 9abf 99a4 33bf b18f 47bf
00000210: 21b8 90bf b10b d93d c420 38bf 1624 05be
00000220: 39fa 013f a7cb 7fbe 04e3 14bf 11a3 c3bf
00000230: adea 8ebe 4f14 a5bf a88e 14bf a09b 97bf
00000240: b737 c63c d3df 60bf 9338 a9bd 5a39 05bf
00000250: 58f1 b8be 3ed0 38be 2abf 20bf b757 eabe
00000260: de77 fcbe 727a 81bf e0bb 86bf 3f3f 09be
00000270: 77d8 70bf c12c 6ebf ccc1 afbe 3a05 04bf
00000280: 30ae a0bf dfb2 8bbe 5c9a 6fbf de3c b4bf
00000290: f337 42be b930 6fbc a6b0 9ebf f672 7e3d
000002a0: 3412 dabf 5e8a 69be 6afe 4dbf d7ff f3bd
000002b0: 94d8 76bf 3fdf 54bf 6d8d e9bf 308b 7dbf
000002c0: 68f3 64bf e3be ce3d bf4c 27bf 728c e3be
000002d0: d8db 21bf 3288 58bf fe3e e5be 6cb8 adbf
000002e0: e122 2dbf f2dd adbd 2a75 d3be 1796 55bf
000002f0: 5721 e8be 7331 dc3d d8e2 1bbf a904 00bf
00000300: f45d 42be d209 cfbe d029 d3be be8b d5be
00000310: da36 13bf 5626 febe 4ddf 59bf bef2 22bf
00000320: 2e96 92bf c407 57be 28ae 92bf 3ee7 f5be
00000330: e981 9fbe 9508 59bf 107d 56bf 2976 0d3c
00000340: a4a8 e73e 3781 4bbe f2b0 e83e 8965 83bf
00000350: cb05 aa3d 2a14 66bf 63d1 8ebf 2884 e6be
00000360: 42d8 adbf 9389 2cbf d19a 0bbf 6174 8b3e
00000370: be1a 0dbf 5cd1 7abf 6b37 c5be f618 78bf
00000380: 7e6b 63bf faf0 27bf 3460 17bf 163a 04bf
00000390: 5a45 52bf 3149 17be 3b5f 9bbe 6b1d 5cbe
000003a0: bba1 82bf 3c6a 5cbf 2b42 d7bf 41ba 593e
000003b0: e8e0 17be 5a41 4fbf d989 b43c 84bd 7bbf
000003c0: e976 7dbf fdd5 06be 5e74 73bf e906 c23e
000003d0: 9347 3a3e 42c7 f9bd bb57 c4bf 5ee0 2fbf
000003e0: 4895 22bf aa96 37be 1c1c eabd 2da9 8dbe
000003f0: ce8d 47be 0623 78bf 8e6c 2cbf c57d 8cbf

l2.weight f4 [300, 300]
-1.8519917 2.1278117 -1.2157009 -0.103296235 0.7282185 2.5245726 0.31030563 -0.41196492
-1.3398193 3.030223 0.9530233 0.044993754 0.93664426 0.6768044 0.60946417 1.7148358
0.32110345 0.3252135 1.5132602 0.27832246 0.14475162 0.02821251 -0.916236 -0.7719953
0.6379008 0.71782404 1.8558792 -1.4018555 1.4890517 0.061678536 0.91717297 1.6552453
-0.22701907 -0.6759039 -0.4233498 2.4759257 -0.10234368 -0.49959123 0.77843744 0.07580574
0.5866171 -0.3012832 0.9434827 1.1121312 0.10148046 0.5058975 0.17182407 -0.12487176
3.4247017 -0.10640029 1.1337582 0.6073244 2.596305 1.3453851 0.5952712 1.5300063
0.15002078 -0.015852494 -1.0904391 2.6256893 2.8584654 0.44119063 0.14109357 1.9539603
-1.8859609 0.17287527 0.588507 0.87455696 2.3498912 0.742115 0.3622477 0.9533973
0.12935084 1.9436713 0.07197476 1.4513894 1.199347 -2.6941624 0.23606952 0.114959545
-0.7042092 1.3677688 1.0711957 0.91994077 -0.5847207 -0.5816885 1.3685321 1.3064858
0.14756782 0.67542446 -0.7389099 0.8576107 0.53111386 0.20509166 0.83053356 1.1321254
0.40090275 1.8918995 0.8705695 -0.062132448 -0.12658434 1.5846832 0.2539287 3.6104589
0.47453675 -0.26507455 -0.41701016 0.26756045 -0.12773785 -0.23619941 -0.4465089 -0.6751098
1.2246685 0.8858157 0.40003338 -1.0935447 -3.641316 0.64769995 1.3604845 0.16458856
1.412211 0.55521125 0.6093838 1.6424125 -0.95264345 1.333879 0.058559205 2.3378325
-0.6818403 0.5715107 -0.42640862 0.0063072294 -0.1818579 1.5576588 0.8458555 -1.2278513
1.0508862 0.9129067 -0.6467097 0.35300505 0.63417494 1.7849101 -1.480896 0.32046548
0.55212235 2.8468847 0.65641695 2.0341823 0.73498756 0.63440734 0.27435535 -0.6291407
0.020523092 0.7614657 -0.6320601 1.3613473 -0.7442578 0.04633744 0.28437728 2.1127965
2.7508073 -1.0379089 -0.42242336 0.71398103 0.45770964 -0.18815754 -1.6751218 -0.95692796
-0.41404188 0.55780977 -0.32991168 -1.1222153 1.0414834 -1.2139795 3.1230738 0.03008362
1.3038372 0.20082872 1.289425 1.0892204 -0.18041769 -1.465902 0.40580013 1.9660354
-0.123738185 -0.024925454 0.8738154 1.9714159 1.0301222 0.5927469 1.2726644 0.725066
1.5206057 -1.7159505 -0.82837373 0.06488963 -1.1113708 -0.14594306 0.33588618 0.3058608
-1.986086 -0.37111485 0.14163645 -0.7858292 -0.18330488 0.43906733 1.8411884 1.9507402
0.3085837 -0.30304968 0.70700395 0.094375975 -0.720121 0.11121004 1.3320996 1.8275187
1.5232311 0.6876656 1.8265991 1.3138753 -0.65255404 0.24756525 1.9036446 -0.7009527
-1.7687023 -1.4093845 0.007771404 0.026351424 -0.6676252 -0.5899903 0.14336328 1.4720982
0.665454 0.6917272 1.1665173 0.7647495 1.3930316 0.6081972 1.011449 0.8429224
0.58439237 1.5562207 0.09717073 -1.2621534 -0.4706828 0.8452991 1.697985 -0.26415735
0.6675422 0.2827619 1.1998633 -0.20487723 -0.3425387 0.7935466 0.8451454 1.2986773
00000000: 100e edbf 112e 0840 169c 9bbf fa8c d3bd
00000010: 876c 3a3f 9992 2140 61e0 9e3e 11ed d2be
00000020: 337f abbf 2cef 4140 56f9 733f 5f4b 383d
00000030: ebc7 6f3f 0e43 2d3f d805 1c3f bd7f db3f
00000040: ac67 a43e 6282 a63e 83b2 c13f 4880 8e3e
00000050: c539 143e ec1d e73c 718e 6abf 7ca1 45bf
00000060: 784d 233f 51c3 373f 738d ed3f 0070 b3bf
00000070: 3f99 be3f a2a2 7c3d d9cb 6a3f 14df d33f
00000080: b077 68be 0a08 2dbf 4ec1 d8be 9175 1e40
00000090: 9099 d1bd 6cca ffbe ad47 473f 0a40 9b3d
000000a0: 8a2c 163f cb41 9abe 1588 713f 515a 8e3f
000000b0: fdd4 cf3d 8082 013f a6f2 2f3e c4bc ffbd
000000c0: 502e 5b40 65e8 d9bd fd1e 913f 9d79 1b3f
000000d0: dc29 2640 9435 ac3f b263 183f 3fd7 c33f
000000e0: 0c9f 193e 17dd 81bc 8293 8bbf 4b0b 2840
000000f0: 19f1 3640 bde3 e13e d57a 103e 5f1b fa3f
00000100: 2b67 f1bf 3706 313e 65a8 163f f7e2 5f3f
00000110: 9e64 1640 40fb 3d3f 8878 b93e d811 743f
00000120: 8c74 043e 39ca f83f 8167 933d 21c7 b93f
00000130: 3484 993f 286d 2cc0 35bc 713e e96f eb3d
00000140: 0e47 34bf 0c13 af3f f11c 893f 3d81 6b3f
00000150: 41b0 15bf 8ae9 14bf 0f2c af3f ed3a a73f
00000160: 051c 173e 9ee8 2c3f 3329 3dbf 608c 5b3f
00000170: 14f7 073f 8c03 523e d99d 543f 7ce9 903f
00000180: 2043 cd3e c329 f23f a5dd 5e3f 987e 7ebd
00000190: 539f 01be e6d6 ca3f f102 823e c211 6740
000001a0: 7bf6 f23e dab7 87be 5b82 d5be affd 883e
000001b0: b6cd 02be 42de 71be d19c e4be ffd3 2cbf
000001c0: f0c1 9c3f d1c4 623f 2dd1 cc3e 46f9 8bbf
000001d0: 520b 69c0 aacf 253f 5b24 ae3f e789 283e
000001e0: 54c3 b43f 5322 0e3f 9400 1c3f 933a d23f
000001f0: 71e0 73bf 8cbc aa3f c7db 6f3d 0c9f 1540
00000200: 168d 2ebf 864e 123f 3b52 dabe e0ac ce3b
00000210: f538 3abe 5d61 c73f fc89 583f 3b2a 9dbf
00000220: 7083 863f 41b4 693f c48e 25bf 14bd b43e
00000230: 4a59 223f ef77 e43f 008e bdbf 0d14 a43e
00000240: e457 0d3f 5c33 3640 f10a 283f 0b30 0240
00000250: 2528 3c3f 8568 223f 4e78 8c3e 5d0f 21bf
00000260: 0b20 a83c 6bef 423f b1ce 21bf a140 ae3f
00000270: ae87 3ebf 54cc 3d3d e699 913e 0f38 0740
00000280: 3a0d 3040 33da 84bf e047 d8be 76c7 363f
00000290: eb58 ea3e 5fac 40be 646a d6bf 3bf9 74bf
000002a0: 4cfd d3be 9fcc 0e3f 2fea a8be c0a4 8fbf
000002b0: 544f 853f ae63 9bbf 71e0 4740 ed71 f63c
000002c0: 23e4 a63f 0ba6 4d3e e10b a53f 936b 8b3f
000002d0: 6abf 38be ada2 bbbf 09c5 cf3e 0ca7 fb3f
000002e0: 726a fdbd 7730 ccbc 5eb2 5f3f 5b57 fc3f
000002f0: 0bdb 833f 43be 173f abe6 a23f ed9d 393f
00000300: 35a3 c23f 44a4 dbbf 4d10 54bf dbe4 843d
00000310: 6641 8ebf 1972 15be 46f9 ab3e c999 9c3e
00000320: 1138 febf c402 bebe 2509 113e 1a2c 49bf
00000330: 46b4 3bbe 6fcd e03e 10ac eb3f dbb1 f93f
00000340: affe 9d3e 5429 9bbe 36fe 343f 3148 c13d
00000350: da59 38bf 17c2 e33d 3d82 aa3f 22ec e93f
00000360: 3df9 c23f da0a 303f 00ce e93f 112d a83f
00000370: c80d 27bf bf81 7d3e a0aa f33f a371 33bf
00000380: d664 e2bf b666 b4bf 43a7 fe3b f1de d73c
00000390: 7ce9 2abf 9b09 17bf d3cd 123e b76d bc3f
000003a0: 315b 2a3f 0915 313f 7050 953f a0c6 433f
000003b0: dc4e b23f d0b2 1b3f 2977 813f c3c9 573f
000003c0: bd9a 153f 3d32 c73f 7301 c73d 3e8e a1bf
000003d0: 56fd f0be 8665 583f 9357 d93f a23f 87be
000003e0: 0ce4 2a3f 2bc6 903e 1f95 993f 56cb 51be
000003f0: 3c61 afbe df25 4b3f 735b 583f 0f3b a63f

l2.bias f4 [300]
1.0910673 0.7069296 1.6059538 0.5185999 0.78545296 1.0472562 1.0038446 1.4920892
1.02033 0.4081317 1.1979703 0.6247337 0.77092147 0.6645827 1.363441 1.1947982
0.90902126 0.7059333 0.45077708 0.4625317 0.44310158 0.7886117 0.7532038 0.18830423
0.4040435 0.31350476 1.8746414 0.042483103 -0.038573943 1.3618934 1.3280357 0.6112964
0.5768968 0.6632157 1.1104468 0.99060994 0.53031814 0.5950885 1.6178328 0.6119684
1.0304761 0.38059106 1.0203913 1.2095252 0.2340534 0.9351705 0.6114293 0.1278222
0.6288758 1.0490596 0.99614966 0.80561185 1.2772146 1.0674912 1.3252307 0.749525
1.1058087 0.48633128 1.1442672 0.7926764 0.42904368 1.1801485 1.2198826 0.12023104
0.6925004 0.93471664 0.13605635 0.9843975 0.40265268 0.579757 0.42044136 0.99197173
1.1349229 0.6888299 0.86939174 0.7565056 0.6223516 0.55463845 1.0669321 0.5852062
0.7402928 1.3205541 0.5712458 0.39193407 0.7023321 0.91331816 0.7421558 0.89311
0.36704132 1.1608691 1.539199 1.2518141 1.9427416 -0.14517237 1.0398419 -0.13872436
0.8436929 0.9719998 0.6321948 0.8372054 0.68730044 0.5178518 0.0200897 0.27511486
1.2182658 1.1426759 0.7224111 1.1627471 0.8144797 0.5613199 1.3057104 1.1576563
0.8097004 1.2505591 0.6696605 0.98669326 0.52194047 0.6142674 0.8472489 0.86437285
0.6769515 -0.0070559066 1.0183768 0.87367463 0.43573943 0.7574947 0.325012 1.2793934
14.400811 1.169928 0.5195962 1.1656815 1.0069447 -0.05746294 0.71813065 0.8983814
1.112218 1.1920238 14.375202 0.8796632 1.0287099 1.0398039 0.86940825 0.7777894
0.2429601 0.5472912 0.8720555 1.762102 0.054157823 1.1103419 1.1076274 1.2690625
0.57870275 0.15560836 0.5656329 0.8867853 0.50994855 0.9918013 0.96730214 1.1279143
0.98568434 0.98951805 1.4586205 0.8035887 0.8224812 1.1745944 1.0377482 1.1473786
0.6833281 1.3113813 1.35543 0.8390853 0.4487207 1.2916111 0.27174243 0.8227999
1.1459867 1.2264636 0.632229 0.5944718 0.73129934 1.2616838 0.58946544 0.68717664
0.28724074 1.5210599 -0.22252642 0.33830518 0.39684117 0.29458585 0.891192 0.6101332
0.7736709 1.3381463 0.12699889 -0.043379813 1.3868687 1.4289266 0.60383314 2.74988
0.45022354 0.8726116 0.33755216 0.15893732 0.08570385 0.7533001 0.78026175 0.5412098
0.4911387 0.89880526 0.10810979 14.455345 0.6808197 0.44035107 0.8335807 1.0962467
0.5528349 -0.036545645 0.76100284 0.934287 0.6369556 0.39711854 1.0217575 0.6277983
1.612523 0.45423433 1.5182649 14.191127 0.41962224 0.6217773 0.9323051 1.3821872
0.34873092 0.9687993 14.430388 0.7192574 -0.054965116 0.8547632 0.71956915 0.6864453
0.97372186 1.775662 0.5819891 0.44032398 1.1167724 0.63164806 0.39322296 1.7912718
0.46010113 0.4950466 0.6666237 0.9547345 1.0977786 1.3211713 0.83304274 1.3076065
00000000: 18a8 8b3f 57f9 343f e58f cd3f f7c2 043f
00000010: 7213 493f 7e0c 863f fb7d 803f c7fc be3f
00000020: 2c9a 823f a3f6 d03e 1757 993f 8cee 1f3f
00000030: 1c5b 453f 1822 2a3f 3c85 ae3f 26ef 983f
00000040: 9eb5 683f 0bb8 343f 41cc e63e f4d0 ec3e
00000050: 36de e23e 75e2 493f f7d1 403f d3d2 403e
00000060: cade ce3e b283 a03e 40f4 ef3f c302 2e3d
00000070: b6ff 1dbd 8652 ae3f 13fd a93f ec7d 1c3f
00000080: 82af 133f 81c8 293f 1f23 8e3f 9d98 7d3f
00000090: eec2 073f b857 183f 2515 cf3f f6a9 1c3f
000000a0: a4e6 833f d5dc c23e 2f9c 823f b9d1 9a3f
000000b0: b2ab 6f3e 5567 6f3f a186 1c3f d3e3 023e
000000c0: 01fe 203f 9647 863f aa03 7f3f 943c 4e3f
000000d0: c57b a33f 8da3 883f 29a1 a93f dfe0 3f3f
000000e0: 248b 8d3f 6a00 f93e 5977 923f d7ec 4a3f
000000f0: 9dab db3e 1b0f 973f 1d25 9c3f b13b f63d
00000100: b547 313f 9749 6f3f 5b52 0b3e 7901 7c3f
00000110: 7e28 ce3e f46a 143f 1744 d73e dcf1 7d3f
00000120: 2745 913f 2857 303f 7590 5e3f 5aaa 413f
00000130: 6f52 1f3f c9fc 0d3f 3b91 883f 13d0 153f
00000140: d483 3d3f eb07 a93f 2a3d 123f 95ab c83e
00000150: 09cc 333f 38cf 693f ecfd 3d3f dba2 643f
00000160: d7ec bb3e 5c97 943f 7904 c53f 723b a03f
00000170: c2ab f83f 11a8 14be 8a19 853f c20d 0ebe
00000180: 42fc 573f fbd4 783f 85d7 213f 1853 563f
00000190: ecf2 2f3f f091 043f 2893 a43c dbdb 8c3e
000001a0: 22f0 9b3f 3443 923f efef 383f e6d4 943f
000001b0: be81 503f a9b2 0f3f 8521 a73f 152e 943f
000001c0: 8748 4f3f 5212 a03f df6e 2b3f ee97 7c3f
000001d0: e49d 053f a140 1d3f 4ee5 583f 8a47 5d3f
000001e0: b24c 2d3f 3c35 e7bb 2c5a 823f 24a9 5f3f
000001f0: 3d19 df3e 2ceb 413f f967 a63e 2ac3 a33f
00000200: b969 6641 33c0 953f 4204 053f 0d35 953f
00000210: 90e3 803f 435e 6bbd 69d7 373f 53fc 653f
00000220: 295d 8e3f 3c94 983f d400 6641 9c31 613f
00000230: c4ac 833f 4b18 853f 8a91 5e3f 351d 473f
00000240: 88ca 783e 471b 0c3f 073f 5f3f 8f8c e13f
00000250: 98d4 5d3d af1f 8e3f bcc6 8d3f a470 a23f
00000260: dd25 143f cc57 1f3e 51cd 103f 5d04 633f
00000270: fd8b 023f b1e6 7d3f 1da1 773f 7f5f 903f
00000280: cf55 7c3f 0e51 7d3f 14b4 ba3f fdb7 4d3f
00000290: 218e 523f 1c59 963f efd4 843f 4ddd 923f
000002a0: 97ee 2e3f 58db a73f bb7e ad3f 4bce 563f
000002b0: b8be e53e 8353 a53f d321 8b3e 04a3 523f
000002c0: b1af 923f c2fc 9c3f c2d9 213f 4e2f 183f
000002d0: 6f36 3b3f db7e a13f 35e7 163f cfea 2f3f
000002e0: 3811 933e 17b2 c23f f7dd 63be 5636 ad3e
000002f0: c42e cb3e f5d3 963e 2925 643f b031 1c3f
00000300: 4c0f 463f 6148 ab3f ff0b 023e 08af 31bd
00000310: ea84 b13f 11e7 b63f cf94 1a3f 09fe 2f40
00000320: b383 e63e 7963 5f3f a3d3 ac3e 77c0 223e
00000330: 8085 af3d 46d8 403f 3cbf 473f ba8c 0a3f
00000340: 8876 fb3e 1a18 663f aa68 dd3d 1849 6741
00000350: 334a 2e3f b275 e13e 8b65 553f d051 8c3f
00000360: 9786 0d3f e3b0 15bd 15d1 423f 6f2d 6f3f
00000370: 860f 233f 1f53 cb3e f3c8 823f 64b7 203f
00000380: 2767 ce3f 6791 e83e 8156 c23f db0e 6341
00000390: bad8 d63e cc2c 1f3f 8cab 6e3f 83eb b03f
000003a0: dc8c b23e 3b03 783f dfe2 6641 4121 383f
000003b0: 1a23 61bd c3d1 5a3f af35 383f e1ba 2f3f
000003c0: d645 793f e448 e33f 3dfd 143f 2572 e13e
000003d0: 66f2 8e3f b0b3 213f 8554 c93e 6548 e53f
000003e0: 6092 eb3e bf76 fd3e daa7 2a3f 7b69 743f
000003f0: 0284 8c3f 241c a93f 4a42 553f a65f a73f

bn2.weight f4 [300]
1.9001999 2.2044985 1.4863828 1.7648531 3.2388878 2.660823 2.0559778 1.7267059
2.6954937 2.509926 2.2765875 2.2683663 2.6980166 2.0092797 1.7933913 1.8681176
2.6598685 2.709108 2.1515942 2.1366422 2.3459294 2.3657207 1.9984087 2.0631707
2.538685 1.9878634 2.031234 3.0602233 2.7990243 2.519866 2.4433265 2.0132284
2.1705503 3.251201 1.8662935 1.6196492 2.6422136 2.3004808 2.2450063 2.1077452
1.9357129 3.0352526 1.8259096 1.6608574 3.0884724 2.1644516 2.5358322 3.0646896
1.9007165 2.7876942 1.5227304 2.0749772 2.2492101 2.2504795 2.5410674 1.8985415
2.104969 2.6663866 2.7369926 2.6866806 2.8526037 1.9150048 1.6272295 3.3112252
2.2605422 2.51654 3.4568944 1.992189 2.5251977 2.6117177 2.1634674 2.7950485
1.7582283 2.0923724 2.6432674 2.133426 2.496369 2.4638903 1.5053184 2.558468
2.3689716 2.2249913 2.2568624 2.1995864 2.5900037 2.866398 2.164111 2.1386142
2.566865 1.7919067 2.9523468 2.5222673 1.8087878 2.5707817 2.051881 3.144043
1.9688339 2.0722625 2.4535584 2.1692014 2.2388172 2.4321856 2.9461155 2.2025647
1.878747 2.475308 2.1516821 2.2258945 2.126088 1.9315407 2.2394707 2.5455377
2.4612954 1.3737663 2.3229663 2.2731576 2.181265 2.4914916 1.5923761 2.6443577
2.4184623 2.2708647 1.9319574 3.1630273 2.538375 2.7986205 2.1136856 1.526884
0.099420086 1.5336586 2.6319072 2.398076 1.8476833 3.4097815 2.1892595 3.2140331
2.271972 2.7585654 0.109696664 2.2597764 1.5873805 1.9491559 2.5319183 2.0648935
2.2779312 2.0015707 2.2764437 2.549731 2.67152 2.2291582 1.7911346 2.3569064
2.2530146 3.1727693 2.536009 2.2134757 2.320439 2.064725 1.9391955 1.7718351
1.9741708 2.3662505 1.7715976 2.0669422 2.5651104 2.225773 2.1832256 2.0347593
1.7163249 2.1868553 1.9662937 2.053086 2.1951494 2.3655753 2.6497731 2.0729132
2.1186042 2.1818564 1.7521046 3.0014248 2.7642784 1.4937919 2.1882656 1.4641174
3.2105029 1.6461843 3.3860822 2.5691507 2.1734614 2.6551962 2.5781767 1.5602832
2.0443575 1.6229637 2.4132586 2.9295382 1.5323482 2.22384 2.545864 1.531441
2.5503054 2.7478263 1.8784276 2.880848 2.9297934 2.196631 2.2499464 2.9119792
2.3957198 1.8279183 3.1038654 0.113554575 2.8363452 1.586089 2.2577066 1.7989553
2.742378 2.5519667 2.7720602 2.194982 2.7565088 2.3331614 2.225643 2.0044582
2.2542698 2.7013261 2.0071418 0.111223124 2.4930203 2.4334414 1.7648866 1.97074
2.4924362 2.5281916 0.08936405 2.8016973 2.5563073 2.8642907 2.8074317 2.7328055
1.9390187 1.7027628 3.0729225 2.2207348 1.984812 2.3513784 3.3526914 1.509063
2.1937103 3.222462 2.2517047 2.3693357 2.1682107 2.572967 2.1472533 1.4894422
00000000: c039 f33f 8116 0d40 cb41 be3f b5e6 e13f
00000010: f049 4f40 ed4a 2a40 2495 0340 b304 dd3f
00000020: f882 2c40 a1a2 2040 9cb3 1140 ea2c 1140
00000030: 4eac 2c40 0a98 0040 d98d e53f 7a1e ef3f
00000040: 493b 2a40 0762 2d40 b8b3 0940 bfbe 0840
00000050: b523 1640 f867 1740 dbcb ff3f fd0a 0440
00000060: d179 2240 4f72 fe3f bdff 0140 b3da 4340
00000070: 3723 3340 7c45 2140 765f 1c40 bcd8 0040
00000080: 4cea 0a40 ad13 5040 b5e2 ee3f aa50 cf3f
00000090: 071a 2940 143b 1340 2fae 0f40 4ce5 0640
000000a0: 71c5 f73f 9441 4240 68b7 e93f fa96 d43f
000000b0: 88a9 4540 6086 0a40 134b 2240 e023 4440
000000c0: ae4a f33f 9569 3240 d4e8 c23f 6dcc 0440
000000d0: 0ff3 0f40 db07 1040 d9a0 2240 6803 f33f
000000e0: d0b7 0640 14a6 2a40 e32a 2f40 93f2 2b40
000000f0: 0f91 3640 e11e f53f 0e49 d03f 1deb 5340
00000100: b9ac 1040 fe0e 2140 c23d 5d40 0d00 ff3f
00000110: d79c 2140 6226 2740 4076 0a40 13e2 3240
00000120: a00d e13f 6ee9 0540 4b2b 2940 0d8a 0840
00000130: 82c4 1f40 61b0 1d40 46ae c03f f1bd 2340
00000140: 3b9d 1740 4266 0e40 6f70 1040 06c6 0c40
00000150: 9fc2 2540 1173 3740 cb80 0a40 0edf 0840
00000160: 8447 2440 335d e53f 40f3 3c40 d46c 2140
00000170: 5c86 e73f b087 2440 0552 0340 0038 4940
00000180: c002 fc3f f39f 0440 1a07 1d40 32d4 0a40
00000190: c848 0f40 eea8 1b40 288d 3c40 d2f6 0c40
000001a0: c87a f03f 726b 1e40 29b5 0940 0e75 0e40
000001b0: d311 0840 ba3c f73f 7d53 0f40 17ea 2240
000001c0: dd85 1d40 93d7 af3f 7bab 1440 6a7b 1140
000001d0: d999 0b40 9974 1f40 fbd2 cb3f 283d 2940
000001e0: 16c8 1a40 d955 1140 614a f73f 0a6f 4a40
000001f0: bc74 2240 991c 3340 a046 0740 ef70 c33f
00000200: c29c cb3d ed4e c43f 2b71 2840 147a 1940
00000210: e380 ec3f dc39 5a40 d41c 0c40 b8b2 4d40
00000220: fd67 1140 568c 3040 a5a8 e03d 2da0 1040
00000230: 492f cb3f f17d f93f f30a 2240 3727 0440
00000240: a0c9 1140 bc19 0040 41b1 1140 cb2e 2340
00000250: 2ffa 2a40 87aa 0e40 e643 e53f 8ed7 1640
00000260: 6431 1040 a70e 4b40 f94d 2240 96a9 0d40
00000270: 1382 1440 7424 0440 8f37 f83f 7ecb e23f
00000280: a1b1 fc3f a670 1740 b6c3 e23f c848 0440
00000290: c52a 2440 1173 0e40 f8b9 0b40 7f39 0240
000002a0: 89b0 db3f 70f5 0b40 83af fb3f c365 0340
000002b0: 547d 0c40 9665 1740 e295 2940 9caa 0440
000002c0: 3697 0740 89a3 0b40 f744 e03f 5817 4040
000002d0: f0e9 3040 9334 bf3f 8b0c 0c40 3368 bb3f
000002e0: e178 4d40 2bb6 d23f 92b5 5840 f76c 2440
000002f0: fe19 0b40 bcee 2940 d900 2540 5cb7 c73f
00000300: c1d6 0240 46bd cf3f d472 1a40 8e7d 3b40
00000310: fc23 c43f 6553 0e40 70ef 2240 4206 c43f
00000320: 3438 2340 63dc 2f40 5170 f03f d05f 3840
00000330: bc81 3b40 9a95 0c40 1fff 0f40 de5d 3a40
00000340: 7953 1940 3af9 e93f bba5 4640 4d8f e83d
00000350: ae86 3540 f704 cb3f 447e 1040 2b44 e63f
00000360: 1f83 2f40 6c53 2340 6f69 3140 967a 0c40
00000370: a46a 3040 8452 1540 ef70 0e40 0b49 0040
00000380: f545 1040 87e2 2c40 0375 0040 f3c8 e33d
00000390: a58d 1f40 81bd 1b40 cee7 e13f 3541 fc3f
000003a0: 1384 1f40 e4cd 2140 8004 b73d 024f 3340
000003b0: 8a9a 2340 8a50 3740 f6ac 3340 49e6 2e40
000003c0: c431 f83f 22f4 d93f c3aa 4440 8520 0e40
000003d0: 520e fe3f fc7c 1640 7f92 5640 fa28 c13f
000003e0: c065 0c40 d13c 4e40 ee1b 1040 32a3 1740
000003f0: f7c3 0a40 7eab 2440 996c 0940 0ba6 be3f

bn2.bias f4 [300]
0.31888026 0.23705699 -0.5197612 0.1453534 -0.011292549 0.022034049 0.20389177 -0.55089635
0.40326494 -0.5389816 0.11690322 -0.079896905 -0.35977396 -0.14023009 -0.3159865 0.12344636
-0.41469777 -0.21934651 -0.25813222 0.15497325 -0.41187352 0.39124796 0.22686073 0.041085377
0.22518007 0.11292187 -0.6319437 -0.515655 -0.60759646 0.20901464 0.14223108 -0.063716635
-0.32645443 0.19891536 0.15693231 0.2807988 -0.29066226 -0.14441167 0.08846519 0.2672512
-0.090239994 -0.41166458 0.20033538 -0.23067263 -0.7168534 -0.04611089 -0.04953407 -0.6089974
0.07152018 -0.18847576 0.30035558 -0.22243507 0.22932915 0.067183815 -0.11517999 -0.6616759
0.14861992 -0.28439718 -0.31057197 0.017360978 0.0537503 0.21932358 -0.23928705 -0.7182772
-0.23381077 -0.47720924 -0.46890137 0.3986767 -0.13079236 0.10748616 -0.5833972 -0.03093894
-0.27989367 -0.128834 -0.23684645 -0.11039918 -0.2530111 -0.03775014 0.31425315 -0.28802487
0.27837554 -0.2054874 0.13218991 -0.123275444 0.04083702 -0.26330823 0.03346741 -0.3655573
0.05589463 -0.21751846 0.13514467 0.2734324 -0.39755923 -0.5306805 0.2332153 -0.34915096
-0.4731375 0.11929912 0.08674565 0.052480936 -0.3612273 0.2284887 -0.60165924 -0.14323497
0.12690961 0.097183995 0.09404173 0.29622918 0.111515425 -0.0381522 0.17900014 -0.18258601
0.09559977 0.07157419 -0.23822466 0.2211655 -0.28492725 -0.2144491 0.15612492 0.19118132
-0.23253109 -0.15620916 0.0083651 0.21299686 -0.09048433 -0.16542576 0.19850352 -0.57922816
-0.78001815 0.28021896 -0.49446827 -0.2765312 -0.18413468 -0.9136854 -0.030535745 0.086137325
0.093924776 -0.0670662 -0.91219306 0.09148324 -0.27239066 0.20228319 -0.017695062 0.15801847
-0.04901674 -0.1491274 -0.73895544 0.40171373 0.09405376 0.28506482 0.23988485 0.27411062
-0.951617 -0.69559425 0.18469399 0.2888952 0.0028784326 0.15283799 -0.2771539 0.4188178
-0.008680816 -0.14805655 -0.61768216 -0.3216819 0.21450749 -0.17757815 0.17020619 0.22424604
-0.11221227 -0.2254999 0.024758037 0.068484016 -0.2007764 0.04860942 -0.83543545 -0.19388194
0.1494496 0.015784062 -0.46617436 -0.078525774 -0.1923458 0.12628643 -0.11816819 0.20452859
-0.4955118 -0.055084262 -0.9414886 -0.26136264 0.13296033 -0.23273107 0.073098406 0.26190546
-0.65577006 -0.33306003 -0.24984826 -0.88724023 0.36077717 -0.015107265 0.13539937 -0.6436863
-0.56359106 -0.05410989 0.1672826 -1.0515898 0.031920567 -0.06584737 -0.006839347 -0.04182933
-0.17681192 0.11270136 -0.42102072 -0.9260137 -0.054526277 -0.44355053 -0.15953247 -0.32126263
-0.1876118 -0.5818394 0.122708105 0.094242595 -0.25413373 -0.19933394 0.11034741 -0.430984
-0.35462844 -0.14665373 -0.04657543 -0.8686292 0.06523839 -0.024939299 -0.15980063 -0.035281923
-0.12577286 -0.10729483 -0.7999191 -0.30090648 0.051365096 -0.38323182 0.20882091 0.21481435
0.20446949 -0.23683147 -0.37520126 -0.5998396 0.041464616 -0.20782688 -0.20366001 0.18701611
-0.06726426 -0.38163885 0.11584778 -0.09928205 -0.069490984 0.27234662 -0.20908315 0.10650054
00000000: 4644 a33e 11bf 723e 120f 05bf 86d7 143e
00000010: 6204 39bc c080 b43c 01c9 503e 8b07 0dbf
00000020: be78 ce3e b3fa 09bf f56a ef3d fda0 a3bd
00000030: 4b34 b8be 7a98 0fbe fcc8 a1be 72d1 fc3d
00000040: 4453 d4be 5f9c 60be e829 84be 4fb1 1e3e
00000050: 16e1 d2be a751 c83e 2e4e 683e 2449 283d
00000060: 9b95 663e 9543 e73d 10c7 21bf f701 04bf
00000070: 718b 1bbf ef07 563e 06a5 113e de7d 82bd
00000080: 0925 a7be 78b0 4b3e ddb2 203e dcc4 8f3e
00000090: afd1 94be a7e0 13be 3d2d b53d 26d5 883e
000000a0: bfcf b8bd b3c5 d2be b824 4d3e 7235 6cbe
000000b0: b483 37bf c6de 3cbd 3de4 4abd 41e7 1bbf
000000c0: 2c79 923d caff 40be 35c8 993e 05c6 63be
000000d0: 43d5 6a3e ab97 893d 7de3 ebbd 9763 29bf
000000e0: d22f 183e 829c 91be 4a03 9fbe 9c38 8e3c
000000f0: 4629 5c3d 5c96 603e aa07 75be 04e1 37bf
00000100: 176c 6fbe c554 f4be d713 f0be 5a1f cc3e
00000110: 6fee 05be b421 dc3d 8559 15bf a973 fdbc
00000120: 394e 8fbe 0fed 03be e087 72be f718 e2bd
00000130: ac8a 81be e49f 1abd cae5 a03e ff77 93be
00000140: 3d87 8e3e 4a6b 52be cb5c 073e d677 fcbd
00000150: b844 273d 56d0 86be 1f15 093d 542a bbbe
00000160: c4f1 643d 29bd 5ebe 5d63 0a3e 55ff 8b3e
00000170: e28c cbbe adda 07bf fecf 6e3e eac3 b2be
00000180: 143f f2be 1953 f43d b4a7 b13d 40f6 563d
00000190: c9f2 b8be f1f8 693e 5706 1abf 30ac 12be
000001a0: 98f4 013e 6708 c73d f398 c03d 5aab 973e
000001b0: 3362 e43d 7b45 1cbd d04b 373e d4f7 3abe
000001c0: d0c9 c33d 7d95 923d 2af1 73be 3579 623e
000001d0: fce1 91be 8b98 5bbe 36df 1f3e 09c5 433e
000001e0: a11c 6ebe 4bf5 1fbe c60d 093c d91b 5a3e
000001f0: d94f b9bd 5f65 29be 8244 4b3e 4c48 14bf
00000200: 45af 47bf dc78 8f3e f22a fdbe 7f95 8dbe
00000210: cd8d 3cbe 49e7 69bf 1926 fabc c468 b03d
00000220: a25b c03d 015a 89bd 7c85 69bf 915b bb3d
00000230: ca76 8bbe 5323 4f3e 3cf5 90bc 98cf 213e
00000240: c7c5 48bd dab4 18be 2f2c 3dbf 6cad cd3e
00000250: 429f c03d 04f4 913e 60a4 753e 3a58 8c3e
00000260: 2c9d 73bf 7712 32bf 6c20 3d3e 12ea 933e
00000270: 16a4 3c3b 9081 1c3e 1ee7 8dbe 496f d63e
00000280: fb39 0ebc 239c 17be 6b20 1ebf 7db3 a4be
00000290: daa7 5b3e 0cd7 35be 884a 2e3e c1a0 653e
000002a0: 8ccf e5bd 72e9 66be 5ed1 ca3c 5941 8c3d
000002b0: 5498 4dbe ac1a 473d 19df 55bf fd88 46be
000002c0: 5109 193e 944d 813c 68ae eebe 1fd2 a0bd
000002d0: 4cf6 44be 3b51 013e 2a02 f2bd f16f 513e
000002e0: b9b3 fdbe 09a0 61bd 6605 71bf 53d1 85be
000002f0: c126 083e 0e51 6ebe 9eb4 953d 7918 863e
00000300: 8ce0 27bf d886 aabe 39d8 7fbe 2d22 63bf
00000310: c9b7 b83e 7684 77bc 22a6 0a3e a0c8 24bf
00000320: 8147 10bf 55a2 5dbd 214c 2b3e 7f9a 86bf
00000330: 24bf 023d fcda 86bd 9a1c e0bb 3b55 2bbd
00000340: 2f0e 35be f8cf e63d 0790 d7be 3c0f 6dbf
00000350: f256 5fbd 0e19 e3be 7b5c 23be 897c a4be
00000360: 4f1d 40be 6df3 14bf 634e fb3d 4302 c13d
00000370: d11d 82be 321e 4cbe d3fd e13d efa9 dcbe
00000380: dc91 b5be 652c 16be e1c5 3ebd 7c5e 5ebf
00000390: b49b 853d 804d ccbc c7a2 23be c783 10bd
000003a0: 9aca 00be 64bd dbbd 80c7 4cbf 6a10 9abe
000003b0: 3564 523d f636 c4be 26d5 553e 4bf8 5b3e
000003c0: 7360 513e f383 72be 611a c0be 178f 19bf
000003d0: cdd6 293d 92d0 54be 408c 50be 2781 3f3e
000003e0: d8c1 89bd 2b66 c3be 9a41 ed3d 6354 cbbd
000003f0: 4a51 8ebd 0471 8b3e e519 56be f51c da3d
