weights/model_critic_target_71.pt (torch, 431175 bytes, 9 tensors)

l1.weight f4 [300, 42]
0.31997854 0.4593522 0.18484029 0.010342706 0.23263727 0.30830002 0.8497373 1.1952553
-0.25905696 -1.3084989 0.48916003 -0.5612192 0.137963 -0.41992432 4.925438 -2.6229873
-1.2706426 0.5050644 -1.1032771 1.821319 0.34821528 0.18533716 -0.9735696 0.21311086
0.30732045 -1.4593612 -0.25087228 0.4300979 -0.053674042 -0.18950163 -0.22230393 0.20452419
-5.004041 -1.7900412 0.26957294 2.34982 -1.3664671 -0.38675433 -1.1181074 1.5390915
-0.58655447 0.084687665 0.34167868 0.099116445 0.38173273 0.44619358 0.13887766 -0.30292434
-0.45446596 -0.83113474 -0.37503758 -0.19209588 0.07805114 0.1726121 0.38659662 -0.24985385
0.68345517 -0.49765587 0.8244694 1.6162642 -0.9011062 -1.1916157 0.14786288 0.22131862
-0.891934 0.013720542 0.14356218 0.23144644 -0.59217966 1.286046 -0.8309623 1.568073
-1.0443212 -1.6912227 6.316769 -1.9987974 0.034719847 -3.7384908 4.772491 1.4408907
0.5853691 -0.50388944 -0.55751276 0.29364818 0.4618295 0.07246604 0.24713762 0.43877298
0.38151696 0.09463442 0.44872105 -0.41653907 0.033607494 -1.1019843 0.38225138 -0.11285323
0.35516992 -0.64951384 -1.0487396 -0.22287974 -0.91530883 -0.28628784 0.46961063 0.6136985
-0.20444472 0.16191725 -0.44096562 0.28499845 0.37664348 -1.5303898 -0.38915828 -1.7284204
0.20094971 -1.4994236 0.05216779 0.414896 -5.3859034 3.7016854 0.38291267 1.8510625
-0.23541611 -0.21402317 -0.14471468 1.1248752 -0.94478524 -0.265961 0.49704805 0.07232103
0.19829653 0.3454808 0.42748466 0.093825035 0.47500065 -0.47793382 0.00719247 -1.1321827
0.39963394 0.016508458 0.36600557 -0.6745541 -0.97514147 -0.29004434 -0.92886245 -0.32341102
0.45606437 0.6501788 -0.13209097 0.13090627 -0.34304017 0.28292814 0.38648218 -1.503164
-0.3165959 -1.6746459 0.14859557 -1.5240834 -0.0013831861 0.54341096 -5.500287 3.8261173
0.34370416 1.8321577 -0.1817283 -0.19847594 -0.13860309 1.0260173 -0.90472466 -0.2522806
0.3771839 0.43290576 0.4175927 1.2215656 0.2631252 -0.19915505 0.9005582 0.4023076
0.14183877 -0.19972773 0.22295006 0.0033789098 0.061404638 0.0042966106 0.5863016 -0.80534613
1.7173258 -1.8245063 -1.099896 -1.1630147 -2.5321746 2.231251 1.6301211 0.13310082
0.17710793 -0.016203776 1.0521749 -0.86056286 -0.78623915 0.4754155 0.56038517 0.5052256
-0.56539243 -4.5213494 0.1614044 -1.06905 -2.5073686 0.599269 -1.0792851 2.2558556
4.08236 0.13506077 0.4706251 0.009036768 0.24467945 0.16435058 0.43972012 0.17085776
0.3616096 -0.3193593 -0.0775125 -1.190346 0.46942392 0.10315284 0.42416808 -0.6912484
-1.0421293 -0.44028676 -1.1430198 -0.2803415 0.4870812 0.6970182 -0.21221982 -0.09800194
-0.120932214 0.3207992 0.46327138 -1.421174 -0.2657657 -1.6443267 0.098605454 -1.4442153
-0.10343458 0.59818363 -5.4947333 3.6548457 0.32982925 1.7829034 -0.14724748 -0.18544811
-0.17906693 0.7729631 -0.6667226 -0.062902406 0.1536948 0.82221633 0.25021848 0.104720436
00000000: 3ad4 a33e 3630 eb3e c646 3d3e 7474 293c
00000010: 7738 6e3e 80d9 9d3e 6288 593f 20fe 983f
00000020: 1da3 84be e47c a7bf 2f73 fa3e 10ac 0fbf
00000030: 2c46 0d3e 5200 d7be 309d 9d40 06df 27c0
00000040: 6ba4 a2bf e74b 013f 2f38 8dbf fb20 e93f
00000050: 4649 b23e 06c9 3d3e db3b 79bf bc39 5a3e
00000060: 1b59 9d3e 59cc babf 5572 80be cb35 dc3e
00000070: 50d9 5bbd b70c 42be a4a3 63be ca6e 513e
00000080: 1b21 a0c0 1220 e5bf 7705 8a3e 7363 1640
00000090: 65e8 aebf aa04 c6be 251e 8fbf f300 c53f
000000a0: 6f28 16bf ba70 ad3d 82f0 ae3e 90fd ca3d
000000b0: 7972 c33e 7c73 e43e f235 0e3e e618 9bbe
000000c0: c3af e8be 3fc5 54bf ed04 c0be c8b4 44be
000000d0: 47d9 9f3d 3ac1 303e feef c53e b0d9 7fbe
000000e0: ebf6 2e3f c0cc febe 6d10 533f bfe1 ce3f
000000f0: e5ae 66bf dd86 98bf 5e69 173e 59a1 623e
00000100: c955 64bf 20cc 603c f701 133e 4c00 6d3e
00000110: 1699 17bf 289d a43f f2b9 54bf 9eb6 c83f
00000120: 51ac 85bf fc79 d8bf f922 ca40 98d8 ffbf
00000130: 6636 0e3d 6f43 6fc0 3fb8 9840 1b6f b83f
00000140: c0da 153f e6fe 00bf 28b9 0ebf 0e59 963e
00000150: eb74 ec3e 1369 943d a511 7d3e daa6 e03e
00000160: 3156 c33e b1cf c13d c4be e53e 9c44 d5be
00000170: 03a8 093d d20d 8dbf 74b6 c33e 981f e7bd
00000180: d5d8 b53e 8a46 26bf 193d 86bf 963a 64be
00000190: ae51 6abf 5294 92be ce70 f03e 581b 1d3f
000001a0: f559 51be a3cd 253e 3fc6 e1be 51eb 913e
000001b0: 6ad7 c03e d0e3 c3bf c13f c7be e13c ddbf
000001c0: c3c5 4d3e 1ded bfbf e4ad 553d 406d d43e
000001d0: 5259 acc0 6ae8 6c40 210d c43e 9eef ec3f
000001e0: ec10 71be e428 5bbe 1630 14be e9fb 8f3f
000001f0: 72dd 71bf 0a2c 88be 157d fe3e 0c1d 943d
00000200: 3f0e 4b3e dce2 b03e 45df da3e 5727 c03d
00000210: 4933 f33e beb3 f4be d0ae eb3b 5deb 90bf
00000220: d29c cc3e bf3c 873c 1565 bb3e 94af 2cbf
00000230: dfa2 79bf b180 94be eec9 6dbf 2196 a5be
00000240: 4581 e93e 1e72 263f db42 07be 4b0c 063e
00000250: f6a2 afbe f5db 903e fee0 c53e ae67 c0bf
00000260: dc18 a2be cc5a d6bf 7029 183e 2a15 c3bf
00000270: 064c b5ba fb1c 0b3f 5a02 b0c0 1bdf 7440
00000280: fef9 af3e 2584 ea3f fc16 3abe 473d 4bbe
00000290: f8ed 0dbe 8954 833f 099c 67bf ec2a 81be
000002a0: 401e c13e d3a5 dd3e b6ce d53e 435c 9c3f
000002b0: 59b8 863e 4def 4bbe fb8a 663f 43fb cd3e
000002c0: 2f3e 113e 6d85 4cbe 054d 643e b370 5d3b
000002d0: 6e83 7b3d 95ca 8c3b dd17 163f 2a2b 4ebf
000002e0: 55d1 db3f 6c89 e9bf 64c9 8cbf aadd 94bf
000002f0: 260f 22c0 d1cc 0e40 cfa7 d03f 954b 083e
00000300: c85b 353e c8bd 84bc abad 863f d94d 5cbf
00000310: f846 49bf a969 f33e 6775 0f3f 7756 013f
00000320: 8fbd 10bf e5ae 90c0 3247 253e a1d6 88bf
00000330: ba78 20c0 b169 193f 0426 8abf f05f 1040
00000340: b1a2 8240 5f4d 0a3e c6f5 f03e f40e 143c
00000350: 408d 7a3e 854b 283e ff22 e13e 56f5 2e3e
00000360: e524 b93e 1083 a3be e0be 9ebd 425d 98bf
00000370: 5558 f03e cc41 d33d 8f2c d93e a8f5 30bf
00000380: 7e64 85bf 446d e1be 794e 92bf ec88 8fbe
00000390: b562 f93e c96f 323f 2750 59be 3eb5 c8bd
000003a0: 4fab f7bd cb3f a43e e831 ed3e 08e9 b5bf
000003b0: 7112 88be 4c79 d2bf a8f1 c93d 0cdc b8bf
000003c0: 82d5 d3bd 9022 193f dbd4 afc0 fee8 6940
000003d0: 61df a83e 2e36 e43f 0bc8 16be 1ce6 3dbe
000003e0: 525d 37be e9e0 453f 55ae 2abf fad2 80bd
000003f0: 2b62 1d3e c57c 523f a31c 803e ab77 d63d

l1.bias f4 [300]
0.30759984 -0.11375735 0.17184712 0.18460858 0.13217373 0.27304503 -0.0670289 0.24662226
0.30244064 0.2282514 0.08112173 0.020848475 0.0877699 0.52127296 -0.005472845 -0.019975329
0.4814122 0.025829192 0.05381992 0.046245676 0.043143988 0.32941568 -0.0013266377 0.1999267
0.10065921 0.34351745 0.2832609 -0.08267806 0.068998426 0.037720926 0.21753263 0.16953695
0.1306305 0.2560205 -0.10291683 0.09892535 0.08751093 0.20910586 0.42005822 0.10125163
0.21296029 0.14565526 0.17704722 -0.068832256 0.26167545 0.41954115 0.31595933 0.20749871
0.26799175 0.18021695 0.06553374 0.37642473 0.13150993 0.09112643 0.39998066 0.44072
0.20234051 0.031321906 -0.036399037 0.27410963 0.13744739 0.050662186 0.20230538 -0.020166108
0.14027841 0.23285659 0.2974117 0.16569445 0.34986797 0.21440624 0.21069124 0.3527112
0.0048110685 0.21042539 0.25414017 0.14179145 0.3118703 0.28745365 0.20515004 -0.0030853385
0.31584758 0.3955055 0.15008688 0.2145154 0.23241304 -0.0130704865 0.22580762 0.15233687
0.1424445 0.16334505 0.5555569 0.21294339 0.15743685 0.29836547 0.32077512 0.15258132
0.15923598 0.22235091 0.27352804 0.28930774 0.2853012 0.35967436 -0.033680372 0.25124407
0.060392804 0.30579817 0.18455747 0.20654877 0.18823622 0.16126494 0.22439088 0.21818829
0.04681347 0.33910787 0.28618467 0.26084888 0.087469935 0.1984455 0.31182584 0.537588
0.27796748 0.22194405 0.3135087 0.2741565 0.19553708 0.045343786 0.016166966 0.093552
0.1887284 0.25655925 0.35118064 -0.034722406 0.25880536 0.19151892 0.36128598 0.5201615
0.23265894 0.4234529 0.20483656 0.13317479 0.20383586 0.24043314 0.2615281 0.055305205
0.23870912 0.33844268 -0.11166394 0.7222896 0.3332722 0.25496736 0.22449483 0.02844036
0.23383075 0.15233764 0.2768266 0.26348293 0.432529 0.22212501 0.080949105 0.30396202
0.23125505 0.328181 0.1564988 0.17984948 0.11989232 0.27961665 0.036428504 0.16429286
-0.020819865 -0.058397684 -0.12290983 0.070005566 0.3918052 0.38055536 0.12538455 0.19718234
0.31961942 0.33888754 0.27136877 0.38278732 0.12245068 0.23498523 0.18670182 0.32758737
0.2551142 0.31305337 0.21792957 0.2680192 0.36457238 0.2390666 0.20304069 0.07968351
0.15106474 0.30095577 0.092549786 0.11555926 0.28363395 -0.0127384355 0.14799349 -0.010230173
0.20048788 -0.06963996 0.06313802 0.15077962 0.16694519 0.22197308 0.24513364 0.02512178
0.35703164 0.20092925 0.16080855 0.036228094 0.23124772 0.24252889 0.16956772 0.4330334
0.41923347 0.35995743 0.20448318 0.21826069 0.23202017 0.07289895 0.060782414 -0.21173094
0.15443492 -0.04130854 0.018601425 0.18386278 0.23224473 0.072788164 0.26564786 0.17496765
-0.016869279 0.23441847 0.05650789 0.2109032 0.04993419 0.23267685 0.4599052 0.2886476
0.28843307 0.18559642 0.21067172 0.2584788 0.009604261 0.06357696 0.44345495 0.16359368
0.08149509 0.1007647 0.15756503 -0.018226525 0.1357472 0.08508039 0.02292378 0.34456304
00000000: ba7d 9d3e 9df9 e8bd b1f8 2f3e 080a 3d3e
00000010: 8d58 073e 8fcc 8b3e 7346 89bd 8c8a 7c3e
00000020: 80d9 9a3e bcba 693e 2623 a63d 6cca aa3c
00000030: b5c0 b33d 2572 053f 8d55 b3bb 4da3 a3bc
00000040: a97b f63e be97 d33c 4772 5c3d 1b6c 3d3d
00000050: c0b7 303d 2ca9 a83e 93e2 adba 96b9 4c3e
00000060: 6a26 ce3d 85e1 af3e 9307 913e 1d53 a9bd
00000070: 0c4f 8d3d 4281 1a3d e0c0 5e3e 189b 2d3e
00000080: 00c4 053e 1e15 833e 0fc6 d2bd 6099 ca3d
00000090: ee38 b33d d91f 563e df11 d73e 045d cf3d
000000a0: 4312 5a3e a726 153e de4b 353e edf7 8cbd
000000b0: 53fa 853e 19ce d63e 6cc5 a13e 8b7a 543e
000000c0: 3736 893e cb8a 383e 8e36 863d beba c03e
000000d0: 8aaa 063e 7ea0 ba3d 44ca cc3e 0da6 e13e
000000e0: 5a32 4f3e 664b 003d 2817 15bd 1958 8c3e
000000f0: 02bf 0c3e 2783 4f3d 2429 4f3e 6533 a5bc
00000100: 25a5 0f3e f571 6e3e 5946 983e ceab 293e
00000110: e521 b33e 4f8d 5b3e 72bf 573e 9096 b43e
00000120: 2ba6 9d3b c179 573e a91e 823e c731 113e
00000130: 77ad 9f3e 202d 933e da12 523e 6433 4abb
00000140: c6b6 a13e b27f ca3e 60b0 193e eda9 5b3e
00000150: affd 6d3e 9825 56bc 1d3a 673e 32fe 1b3e
00000160: f9dc 113e ed43 273e fa38 0e3f d50d 5a3e
00000170: 2037 213e 5cc3 983e a33c a43e 473e 1c3e
00000180: c20e 233e f5af 633e de0b 8c3e 2520 943e
00000190: 0013 923e 3d27 b83e 6ef4 09bd 10a3 803e
000001a0: 725e 773d 9491 9c3e a2fc 3c3e 8581 533e
000001b0: ffc0 403e a322 253e b9c6 653e c06c 5f3e
000001c0: 7bbf 3f3d 8c9f ad3e cc86 923e fc8d 853e
000001d0: 7023 b33d 4c35 4b3e a3a7 9f3e 5e9f 093f
000001e0: c151 8e3e 4d45 633e 3684 a03e 3e5e 8c3e
000001f0: df3a 483e 68ba 393d 9670 843c 3198 bf3d
00000200: 0542 413e bc5b 833e f3cd b33e 1539 0ebd
00000210: 2382 843e 891d 443e 7afa b83e 4e29 053f
00000220: 253e 6e3e d2ce d83e adc0 513e f95e 083e
00000230: 59ba 503e 1b34 763e 03e7 853e b687 623d
00000240: 2a70 743e 5c48 ad3e 10b0 e4bd f9e7 383f
00000250: a7a2 aa3e 158b 823e f9e1 653e c2fb e83c
00000260: 5471 6f3e 66fe 1b3e 37bc 8d3e 3ce7 863e
00000270: 7174 dd3e bd74 633e a5c8 a53d e9a0 9b3e
00000280: 20ce 6c3e 5707 a83e 3941 203e 762a 383e
00000290: 1b8a f53d ea29 8f3e 0e36 153d 633c 283e
000002a0: 6c8e aabc 6932 6fbd 26b8 fbbd 145f 8f3d
000002b0: b19a c83e 27d8 c23e cf64 003e 2bea 493e
000002c0: 28a5 a33e ab82 ad3e d9f0 8a3e b3fc c33e
000002d0: 6cc7 fa3d f89f 703e c32e 3f3e 88b9 a73e
000002e0: 549e 823e 8848 a03e ee28 5f3e d039 893e
000002f0: 3ba9 ba3e e0cd 743e e6e9 4f3e 1c31 a33d
00000300: b7b0 1a3e e016 9a3e be8a bd3d 55aa ec3d
00000310: 7838 913e dfb4 50bc 9b8b 173e 759c 27bc
00000320: b24c 4d3e 659f 8ebd 824e 813d f965 1a3e
00000330: aef3 2a3e e94c 633e 5004 7b3e 31cc cd3c
00000340: dacc b63e 66c0 4d3e ffaa 243e e963 143d
00000350: 34cc 6c3e 7e59 783e 29a3 2d3e 8eb6 dd3e
00000360: c5a5 d63e 574c b83e 0a64 513e bb7f 5f3e
00000370: b296 6d3e 0b4c 953d fbf6 783d ffcf 58be
00000380: 3024 1e3e 2533 29bd 0462 983c 8646 3c3e
00000390: 90d1 6d3e f611 953d ff02 883e b82a 333e
000003a0: 7131 8abc 650b 703e d174 673d 02f7 573e
000003b0: cb87 4c3d d742 6e3e b278 eb3e 9ec9 933e
000003c0: 80ad 933e fd0c 3e3e 54ba 573e 5557 843e
000003d0: 315b 1d3c a334 823d 870c e33e 1a85 273e
000003e0: e6e6 a63d b95d ce3d ba58 213e cb4f 95bc
000003f0: 5001 0b3e a13e ae3d a7ca bb3c 916a b03e

bn1.weight f4 [300]
1.148724 1.4439102 0.3764603 0.38373804 1.8387954 0.29196468 1.8529843 0.34563276
0.19677448 0.3372106 2.7099547 1.8489542 1.264403 2.0843704 1.8250743 1.6108621
3.3275273 0.8794316 1.8518062 1.8960919 1.849649 0.82855064 1.167855 1.2808734
1.2631793 3.029071 1.3866814 2.325043 1.912215 1.5089281 1.7668669 0.36967728
1.4190356 1.1449766 1.0614368 2.0615547 2.1680756 0.30933943 1.7008426 1.9709481
3.131029 1.5479542 1.4030948 1.8788799 1.1261235 2.1968775 0.34563872 0.34669372
2.2804484 0.3246042 2.0742457 2.5969439 2.4880178 2.2069411 2.616638 1.8246467
0.37855244 1.4448252 1.0671754 2.7902918 1.299806 1.3506666 0.33954114 1.0315026
0.9559217 1.2190508 0.23631625 0.6218514 1.6896683 0.9472599 1.790816 0.32453865
1.505933 2.0372071 0.37232372 2.3552184 1.4430618 2.3362052 0.33118457 1.6591972
1.4218451 1.8929417 2.6858566 0.326297 0.29605952 2.284613 0.35965773 0.3338608
2.0778894 0.34892294 3.7309024 0.868282 0.79558486 1.3587017 1.9388331 3.6634593
1.2496912 1.9375985 0.26235902 0.345746 2.38344 2.4052453 2.2561967 1.3344051
1.5284988 2.283602 1.8650565 0.317249 1.3200147 0.36617848 1.1945919 0.34427378
2.481559 0.23437312 1.4088373 0.36521885 1.6743371 1.8811811 1.2061203 3.650196
1.6546042 0.31115738 2.3913672 0.2730044 0.34384462 1.1136698 1.0116704 1.576441
0.311819 0.36310288 2.9013944 1.2822636 0.31013814 0.3538582 0.34386846 2.6414108
2.5871804 1.8375328 0.33453435 2.8421204 2.5857327 0.31725496 1.5430778 1.1781037
2.2035782 1.3380829 1.077188 4.1396947 3.0905802 1.4593223 0.3851924 1.1430053
1.3029296 2.334971 2.2331371 0.34027427 1.4984089 0.35329196 1.8360589 0.87066
1.5910113 1.2375191 1.9891945 0.3576133 3.3367531 0.321922 1.492023 0.351325
1.1645871 1.278904 1.5579778 2.013742 1.8830751 2.5332289 2.376478 0.2947661
0.9383844 2.4087138 1.7791784 1.9076364 0.99289244 1.7778044 2.284121 1.6345619
0.2657088 0.288901 0.9874808 0.2108859 0.33976763 1.1562085 1.2441435 1.3458204
1.7699934 0.3539476 1.3194927 2.3894825 2.8309448 2.1000266 0.36700103 1.3375682
0.32771558 2.596377 1.6617637 2.1414137 0.32488436 0.24132602 1.516283 2.8960917
2.1599145 0.28204647 1.79567 1.4925733 0.34792158 1.253159 1.7819382 0.36309692
0.7712773 1.4927126 0.30320612 2.06901 1.7584735 1.1888005 2.8432317 1.6279228
2.1736372 2.2749007 2.0938225 0.3390047 2.7149262 2.1206398 2.6332557 0.34207433
0.8357296 1.6128755 1.8484807 1.3743905 1.1713002 1.1732104 1.9755064 0.36224458
0.30352798 0.32102197 0.38087702 1.6726934 0.8555416 2.1690485 0.96541893 1.470529
2.182526 1.685972 1.9601194 1.6895689 1.1279037 2.530335 1.8368365 0.35042498
00000000: 6309 933f 0dd2 b83f 68bf c03e 5079 c43e
00000010: a65d eb3f 657c 953e 972e ed3f c7f6 b03e
00000020: 407f 493e dea6 ac3e e66f 2d40 88aa ec3f
00000030: f5d7 a13f 5366 0540 099c e93f bb30 ce3f
00000040: 35f6 5440 6e22 613f fc07 ed3f 24b3 f23f
00000050: 4cc1 ec3f e51b 543f 467c 953f a9f3 a33f
00000060: dcaf a13f 4ddc 4140 c77e b13f 81cd 1440
00000070: 76c3 f43f 8e24 c13f b228 e23f 5746 bd3e
00000080: f5a2 b53f 988e 923f 29dd 873f 83f0 0340
00000090: c0c1 0a40 bd61 9e3e 36b5 d93f 0748 fc3f
000000a0: c762 4840 5d23 c63f 9c98 b33f 237f f03f
000000b0: d124 903f a499 0c40 8ff7 b03e d781 b13e
000000c0: def2 1140 8632 a63e 71c0 0440 5434 2640
000000d0: af3b 1f40 863e 0d40 ff76 2740 068e e93f
000000e0: a0d1 c13e 08f0 b83f 3499 883f 2494 3240
000000f0: 0b60 a63f a5e2 ac3f 56d8 ad3e 4708 843f
00000100: 49b7 743f db09 9c3f e3fc 713e a731 1f3f
00000110: 0d47 d83f a07f 723f 7539 e53f ee29 a63e
00000120: 6ac2 c03f 9a61 0240 37a1 be3e e6bb 1640
00000130: 40b6 b83f 6384 1540 0691 a93e 9360 d43f
00000140: 05ff b53f ea4b f23f 13e5 2b40 6610 a73e
00000150: 1d95 973e 1937 1240 0f25 b83e ceef aa3e
00000160: 24fc 0440 07a6 b23e 1bc7 6e40 bb47 5e3f
00000170: 73ab 4b3f f0e9 ad3f af2b f83f 1e76 6a40
00000180: e2f5 9f3f 3a03 f83f ec53 863e 9f05 b13e
00000190: 488a 1840 8aef 1940 8765 1040 c9cd aa3f
000001a0: d9a5 c33f 8926 1240 2cba ee3f 766e a23e
000001b0: 3ef6 a83f bf7b bb3e 63e8 983f a744 b03e
000001c0: ddd1 1e40 82ff 6f3e c854 b43f f7fd ba3e
000001d0: ae50 d63f 8bca f03f 2662 9a3f d09c 6940
000001e0: 12ca d33f 0550 9f3e 290c 1940 3cc7 8b3e
000001f0: 670c b03e bb8c 8e3f 6a7e 813f d2c8 c93f
00000200: bda6 9f3e 9fe8 b93e 72b0 3940 3721 a43f
00000210: 6dca 9e3e e72c b53e 870f b03e e00c 2940
00000220: 5d94 2540 4634 eb3f 1648 ab3e 4de5 3540
00000230: a57c 2540 3e6f a23e 9383 c53f 1acc 963f
00000240: 6d07 0d40 4d46 ab3f 4ce1 893f 6178 8440
00000250: 11cc 4540 13cb ba3f f037 c53e ff4d 923f
00000260: 66c6 a63f 2a70 1540 b8eb 0e40 6e38 ae3e
00000270: ddcb bf3f afe2 b43e fa03 eb3f 93e3 5e3f
00000280: 42a6 cb3f 0767 9e3f ed9d fe3f 1719 b73e
00000290: 5d8d 5540 f6d2 a43e 9cfa be3f dfe0 b33e
000002a0: 3111 953f 20b3 a33f d16b c73f 26e1 0040
000002b0: 9b08 f13f 6c20 2240 3718 1840 95eb 963e
000002c0: f639 703f 5e28 1a40 1ebc e33f 6e2d f43f
000002d0: 332e 7e3f 188f e33f 0a2f 1240 5339 d13f
000002e0: fc0a 883e d5ea 933e 8bcb 7c3f 79f2 573e
000002f0: 06f6 ad3e a4fe 933f 1840 9f3f d843 ac3f
00000300: 258f e23f 9f38 b53e 23e5 a83f 48ed 1840
00000310: 332e 3540 d666 0640 8fe7 bb3e 6f35 ab3f
00000320: 56ca a73e 0a2b 2640 acb4 d43f ec0c 0940
00000330: 3e57 a63e 2b1e 773e 9015 c23f 9159 3940
00000340: 0a3c 0a40 6568 903e 84d8 e53f a40c bf3f
00000350: c722 b23e 8467 a03f 8d16 e43f d7e7 b93e
00000360: 6e72 453f 3511 bf3f d53d 9b3e a96a 0440
00000370: a915 e13f 9d2a 983f 82f7 3540 c65f d03f
00000380: df1c 0b40 f997 1140 3001 0640 0692 ad3e
00000390: 5ac1 2d40 90b8 0740 4387 2840 5e24 af3e
000003a0: 60f2 553f b472 ce3f 049b ec3f 07ec af3f
000003b0: 2aed 953f c22b 963f 65dd fc3f 1f78 b93e
000003c0: 0568 9b3e fe5c a43e 5002 c33e d11a d63f
000003d0: c604 5b3f b1d1 0a40 b225 773f 4b3a bc3f
000003e0: 82ae 0b40 eecd d73f 31e5 fa3f cb43 d83f
000003f0: 265f 903f 02f1 2140 751d eb3f e76a b33e

bn1.bias f4 [300]
-0.7231091 -0.30026844 -0.6523556 -0.6214565 -0.22594872 -0.61271846 -0.45250338 -0.607664
-0.7039733 -0.68970394 -0.22292502 -0.67557013 -0.88709074 0.038625713 -0.25257105 -0.8979541
0.66362226 -0.6607633 -0.516511 -0.40399975 -0.87663746 -0.5397849 -1.1223911 -0.50412035
-0.47343606 0.18489915 -0.21135706 -0.14855938 -0.44826996 -0.5948175 -0.15203556 -0.6093806
-0.70538205 -0.37166834 -1.2290512 -0.12304378 -0.60125226 -0.6456799 -0.46138403 -0.15794744
-0.317167 -0.9437955 0.049823165 -0.9884005 -0.026314586 -0.57967705 -0.5799478 -0.5902833
0.12828177 -0.58503807 -0.25183856 0.8206967 -0.70087564 0.069867365 0.12547667 -0.6972032
-0.579316 -0.072629735 0.18204187 0.496277 -0.7058025 -0.5843619 -0.6104177 -0.5729981
-0.30403933 -0.212278 -0.65818495 -0.7545047 -0.44270992 -0.5131701 -0.5555882 -0.5367821
-0.20582989 0.088665865 -0.6123966 0.010445671 -0.24529222 -0.2306924 -0.6429619 -0.41257662
-1.1632298 0.13643165 -0.7566522 -0.6177491 -0.7269926 -0.61827064 -0.6425447 -0.591535
-0.38231707 -0.593645 1.0386664 -0.37188473 -0.55354637 -0.12245047 -0.09728071 0.43164814
-0.62716115 -0.66814923 -0.61196744 -0.56175643 -0.74343944 -0.15609603 -0.45290872 -1.2292593
-0.4414008 -0.51611096 -0.98087543 -0.63073105 -1.0121018 -0.6091422 -0.5902342 -0.56034976
-0.45419738 -0.48561442 -0.24034585 -0.61031044 -0.83585703 -0.31774873 -0.7577719 0.17223871
-0.91037655 -0.64264005 -0.09416702 -0.7360883 -0.6035036 -0.7333644 -1.0348154 -0.41891545
-0.6124562 -0.6279177 0.9658704 -1.1049292 -0.638277 -0.5805677 -0.61562717 0.32753435
0.4218231 -0.13063928 -0.6535 -0.57419026 -0.523131 -0.5770391 -0.43069723 -1.1679617
-0.24455284 -0.30655667 -0.8721351 1.353505 -0.7318385 -0.50744766 -0.6204313 -0.6700587
-0.34086353 -0.52924347 -0.8402082 -0.5847043 -0.06947063 -0.6183213 -0.051309805 -0.2881831
-0.21339197 -1.0849804 -0.64319205 -0.5734986 -0.32188112 -0.5390232 -1.0730978 -0.5726999
-1.148529 -0.4254128 -0.60991913 -0.5348239 0.454876 -0.38490665 0.06591627 -0.5390709
-0.55458003 -0.17504671 -0.19673643 -0.23315802 -0.38349482 -0.4313917 -0.31672746 0.47424757
-0.678379 -0.6879158 0.1420461 -0.67868894 -0.6073898 -0.016116068 -0.034543883 -0.11958123
-0.5614456 -0.5829638 -0.03313893 0.21403277 -0.033468053 -0.95225745 -0.5750483 -0.9556195
-0.58320224 0.09417368 -0.66893864 -0.110985674 -0.56942165 -0.6566948 -0.9705376 -0.23665947
0.00085461995 -0.6194776 -0.18013479 -0.17293878 -0.63905185 -0.819103 -0.76930904 -0.59619606
-0.26805612 0.54994726 -0.52837783 -0.15947373 -0.3585758 0.35870463 -0.5781851 -1.0062869
-0.541895 -0.29702726 0.18196136 -0.6224698 0.03127116 -0.5587277 -0.43757868 -0.59250057
-0.8536581 0.49329337 0.0869993 -1.236757 -0.5031853 -0.44393355 0.2814023 -0.59875906
-0.5765742 -0.60646 -0.6531305 -0.13583426 -0.6004916 -0.28956085 -0.29820973 -1.5417191
-0.31521747 -0.6089805 -0.25129005 -0.29469448 -0.4294684 -0.6622187 -0.55595374 -0.6637878
00000000: ae1d 39bf c9bc 99be c700 27bf c617 1fbf
00000010: 1a5f 67be 1edb 1cbf 86ae e7be de8f 1bbf
00000020: 9837 34bf 7090 30bf 7546 64be 2af2 2cbf
00000030: 6118 63bf ff35 1e3d fe50 81be 52e0 65bf
00000040: 26e3 293f c927 29bf 113a 04bf 0ed9 cebe
00000050: 506b 60bf 582f 0abf 83aa 8fbf 080e 01bf
00000060: 3666 f2be 3456 3d3e fc6d 58be f31f 18be
00000070: a483 e5be f645 18bf 36af 1bbe 5e00 1cbf
00000080: eb93 34bf 504b bebe 8d51 9dbf 61fe fbbd
00000090: abeb 19bf 474b 25bf 873a ecbe f9bc 21be
000000a0: b763 a2be 959c 71bf 6013 4c3d d107 7dbf
000000b0: b091 d7bc b765 14bf 7677 14bf ce1c 17bf
000000c0: 4c5c 033e 0ec5 15bf fcf0 80be 2e19 523f
000000d0: 966c 33bf 9f16 8f3d f57c 003e e97b 32bf
000000e0: 0e4e 14bf e6be 94bd 2f69 3a3e 0518 fe3e
000000f0: 79af 34bf be98 15bf 5644 1cbf 01b0 12bf
00000100: 0bab 9bbe 675f 59be cf7e 28bf 3827 41bf
00000110: e0aa e2be 1e5f 03bf 073b 0ebf 8d6a 09bf
00000120: 12c5 52be 7396 b53d 06c6 1cbf 5224 2b3c
00000130: e22d 7bbe a13a 6cbe 2799 24bf 3e3d d3be
00000140: b7e4 94bf bdb4 0b3e f5b3 41bf ce24 1ebf
00000150: 301c 3abf fc46 1ebf cf7d 24bf d66e 17bf
00000160: 10bf c3be 1ef9 17bf 05f3 843f ad67 bebe
00000170: 37b5 0dbf 50c7 fabd 1c3b c7bd fc00 dd3e
00000180: a28d 20bf d40b 2bbf e6a9 1cbf 45cf 0fbf
00000190: 0c52 3ebf a3d7 1fbe a7e3 e7be 5e58 9dbf
000001a0: 49ff e1be d91f 04bf a71a 7bbf 9777 21bf
000001b0: 8d8c 81bf bef0 1bbf 9719 17bf 1573 0fbf
000001c0: 8f8c e8be 74a2 f8be 391d 76be 4e3d 1cbf
000001d0: bafa 55bf f6af a2be 57fd 41bf 585f 303e
000001e0: 700e 69bf 0f84 24bf a3da c0bd 4870 3cbf
000001f0: 367f 1abf c5bd 3bbf d574 84bf 167c d6be
00000200: eec9 1cbf 37bf 20bf 4843 773f 526e 8dbf
00000210: 1f66 23bf 16a0 14bf be99 1dbf 95b2 a73e
00000220: 33f9 d73e 4ec6 05be c74b 27bf 22fe 12bf
00000230: eaeb 05bf d6b8 13bf 5984 dcbe c57f 95bf
00000240: 0f6c 7abe fff4 9cbe 3f44 5fbf a73f ad3f
00000250: c559 3bbf 17e8 01bf 96d4 1ebf f888 2bbf
00000260: aa85 aebe 807c 07bf e217 57bf 2eaf 15bf
00000270: 9e46 8ebd 4e4a 1ebf 3b2a 52bd bc8c 93be
00000280: 6d83 5abe a3e0 8abf 3ca8 24bf ced0 12bf
00000290: 9acd a4be 6dfd 09bf 455b 89bf 769c 12bf
000002a0: 0003 93bf b5cf d9be a923 1cbf 38ea 08bf
000002b0: 82e5 e83e 7c12 c5be 1cff 863d 8d00 0abf
000002c0: f5f8 0dbf 723f 33be 4675 49be fac0 6ebe
000002d0: 6f59 c4be 5fdf dcbe 1a2a a2be 94d0 f23e
000002e0: 3faa 2dbf 401b 30bf 8874 113e 8fbe 2dbf
000002f0: e67d 1bbf d805 84bc e37d 0dbd 01e7 f4bd
00000300: e6ba 0fbf 1e3d 15bf b0bc 07bd 682b 5b3e
00000310: cc15 09bd 25c7 73bf 5e36 13bf 7ba3 74bf
00000320: be4c 15bf 21de c03d 903f 2bbf 754c e3bd
00000330: 9ec5 11bf 271d 28bf 2775 78bf dc56 72be
00000340: 9308 603a 1696 1ebf 4175 38be dd16 31be
00000350: e798 23bf bcb0 51bf 70f1 44bf 4ea0 18bf
00000360: a73e 89be 58c9 0c3f c543 07bf 154d 23be
00000370: 3f97 b7be 22a8 b73e f003 14bf 02ce 80bf
00000380: a1b9 0abf f513 98be 1454 3a3e 2e5a 1fbf
00000390: 3016 003d c708 0fbf 500a e0be 1eae 17bf
000003a0: 5689 5abf f390 fc3e b02c b23d 0e4e 9ebf
000003b0: c0d0 00bf 424b e3be f613 903e 4648 19bf
000003c0: 5e9a 13bf f640 1bbf 8f33 27bf 2318 0bbe
000003d0: d1b9 19bf 5241 94be f2ae 98be 0d57 c5bf
000003e0: 2f64 a1be 25e6 1bbf 17a9 80be 32e2 96be
000003f0: 48e3 dbbe 2a87 29bf fc52 0ebf ffed 29bf

l2.weight f4 [300, 308]
-0.1418872 0.44917938 -0.061151065 -0.038215928 0.97789115 -0.021560324 -0.19508065 -0.035385452
0.11298742 0.11702563 -0.124636985 -0.13327323 0.04262054 0.50570905 0.5836303 -0.3603391
-0.38863972 0.52747196 1.7776563 1.133687 -0.55829203 -0.4212014 -0.5814511 0.45156953
0.33404046 0.22966072 -1.0708469 0.71768016 0.8260535 -1.0498072 -1.5535043 0.009127622
-1.2075311 0.09021236 0.17178701 0.046445906 0.18391062 0.021603912 -0.9287418 1.2619689
-1.2727593 1.067133 1.1411241 -0.12085939 -0.51896006 1.6827503 0.06734959 0.060388874
0.080117136 -0.03087803 -0.4472931 1.7547973 0.6501229 1.072314 1.0499936 -1.0031228
0.11498417 -0.2184726 -0.28925046 -0.58011585 1.2594001 -0.26714513 0.020484459 1.1053808
-0.7349578 0.15339474 0.1507537 1.1668122 0.267343 -0.67530906 -0.8757424 -0.058416706
-0.29577896 -1.6580379 0.010711803 -0.88677514 -0.20966981 -0.6560598 0.009078261 0.30783302
-1.2963853 -0.33314443 -0.2615178 0.19264984 0.037306957 -0.52125454 -0.015384812 0.06633035
-1.1567498 -0.121901296 -0.21832404 0.18242629 0.12716645 0.1923451 -0.4462171 0.35794994
0.53232664 0.20180717 0.024068564 0.062324535 0.21658953 -0.26830095 -0.45859355 -0.7627503
0.01036309 1.0656492 0.34667668 -0.10740841 -0.08954915 -0.10469939 0.8624699 0.038206242
-0.3851873 -0.20360221 -0.7660941 -0.09219282 -0.65661854 0.66777223 0.69231814 -0.7054719
-0.70378125 0.09013647 -0.7910637 0.022603778 -0.06964586 -0.58537614 1.0493755 -2.1994727
0.11761274 -0.16088055 0.09031419 0.5091981 0.11358347 0.056697853 0.094468236 -0.43006638
0.39174637 0.9307419 -0.05414752 -2.0429618 -0.06254278 -0.067009844 -0.105328985 -1.1665022
0.11420728 -0.08966048 0.7103898 0.52668935 -0.3710369 0.15210217 -0.16677843 -1.5340424
-0.6013169 0.9876972 -1.7003335 -0.22017829 -1.6722989 -0.44777736 0.6179833 -0.049089663
-0.80701965 -0.1048707 -0.93033916 -0.0692316 -2.4694211 -0.02143776 1.2839563 -0.077291645
1.0849421 -0.4104185 -0.64227784 -1.2407844 -0.15459542 0.30577385 1.0379968 0.03145452
0.86591893 -0.18550894 -1.159866 0.45741588 0.8411264 -0.21285507 -0.32827362 1.6906985
0.02815931 0.20806064 0.09042973 0.00021194447 0.023745209 -0.40584898 -0.27713838 0.429838
-0.23450392 -0.014133299 0.19660093 -0.315782 -0.3551011 -0.61027056 0.01595711 0.5248817
0.09840512 -0.49534854 0.17979887 -0.053970315 0.01888221 -0.1478897 0.8948152 0.6552582
-0.10271697 -0.054155715 -0.46368265 0.7684169 0.12299952 1.0647439 -1.8618588 0.0873261
-0.38819167 0.46335128 0.12168822 0.4381251 0.84752417 -0.5134867 -0.34420162 0.18032992
0.54668796 0.49062425 0.9795278 0.08040451 1.6138927 -0.06540283 -0.0848321 0.0916996
0.65841496 0.3123295 -0.27794212 -0.88623226 0.5233513 0.7887369 0.048810136 0.08668983
-0.048889637 -0.05055261 -0.029896786 0.49390978 0.4698295 -0.09442321 -0.17535368 1.2080257
0.19005634 -0.28944337 0.21492986 -0.48445955 0.09484348 -0.70850784 1.541629 -0.054721218
00000000: e14a 11be d7fa e53e 8a79 7abd 4e88 1cbd
00000010: 1357 7a3f 479f b0bc 39c3 47be 56f0 10bd
00000020: f365 e73d 22ab ef3d ad41 ffbd c778 08be
00000030: e092 2e3d 2676 013f cc68 153f 5e7e b8be
00000040: c9fb c6be 6708 073f 3e8a e33f a81c 913f
00000050: 3aec 0ebf b6a7 d7be fbd9 14bf 1f34 e73e
00000060: 5a07 ab3e 2e2c 6b3e 8311 89bf e3b9 373f
00000070: 3e78 533f 1560 86bf 3bd9 c6bf 058c 153c
00000080: 6190 9abf 42c1 b83d efe8 2f3e 103e 3e3d
00000090: 1153 3c3e b0fa b03c 06c2 6dbf 3288 a13f
000000a0: c7e9 a2bf d097 883f 5b10 923f 2185 f7bd
000000b0: 91da 04bf 5d64 d73f 95ee 893d 535a 773d
000000c0: 7414 a43d ecf3 fcbc 9a03 e5be 339d e03f
000000d0: 746e 263f 9641 893f 3166 863f 5466 80bf
000000e0: d27c eb3d 48b7 5fbe a318 94be 7982 14bf
000000f0: 0634 a13f 3fc7 88be 06cf a73c 1e7d 8d3f
00000100: 3226 3cbf 8313 1d3e 2e5f 1a3e 1a5a 953f
00000110: 2fe1 883e 0ee1 2cbf a730 60bf 5b46 6fbd
00000120: 5770 97be 963a d4bf 8f80 2f3c b203 63bf
00000130: afb3 56be 89f3 27bf fdbc 143c 4a9c 9d3e
00000140: f4ef a5bf e891 aabe a9e5 85be 0046 453e
00000150: 2ecf 183d f070 05bf 9410 7cbc 35d8 873d
00000160: 6110 94bf 63a7 f9bd 5690 5fbe f5cd 3a3e
00000170: ec37 023e 1df6 443e 9176 e4be 3745 b73e
00000180: 8f46 083f 8aa6 4e3e 702b c53c 0348 7f3d
00000190: a5c9 5d3e be5e 89be c6cc eabe 9b43 43bf
000001a0: f3c9 293c 3167 883f 9b7f b13e f1f8 dbbd
000001b0: 8b65 b7bd a26c d6bd d4ca 5c3f 267e 1c3d
000001c0: 4537 c5be 197d 50be be1e 44bf 97cf bcbd
000001d0: 2718 28bf 1ff3 2a3f c33b 313f ce99 34bf
000001e0: 022b 34bf 7899 b83d 2783 4abf 8f2b b93c
000001f0: 7da2 8ebd 36db 15bf f051 863f 29c4 0cc0
00000200: f3de f03d dfbd 24be a5f6 b83d cf5a 023f
00000210: 739e e83d 023c 683d 9078 c13d a931 dcbe
00000220: fb92 c83e 1a45 6e3f cac9 5dbd e3bf 02c0
00000230: 6e16 80bd 753c 89bd b9b6 d7bd f24f 95bf
00000240: 82e5 e93d ea9f b7bd 1bdc 353f 1dd5 063f
00000250: 8cf8 bdbe acc0 1b3e f7c7 2abe 805b c4bf
00000260: e8ef 19bf b9d9 7c3f 87a4 d9bf 6b76 61be
00000270: e40d d6bf 1343 e5be 2734 1e3f 3e12 49bd
00000280: d798 4ebf 73c6 d6bd b52a 6ebf 4cc9 8dbd
00000290: ff0a 1ec0 3e9e afbc ae58 a43f 154b 9ebd
000002a0: 62df 8a3f 6022 d2be 526c 24bf 06d2 9ebf
000002b0: 434e 1ebe 648e 9c3e 14dd 843f 74d6 003d
000002c0: ddac 5d3f 0ef6 3dbe 7d76 94bf 6a32 ea3e
000002d0: 0f54 573f aef6 59be 7b13 a8be cf68 d83f
000002e0: 5aae e63c d90d 553e 3933 b93d 693d 5e39
000002f0: 5085 c23c 70cb cfbe 15e5 8dbe ba13 dc3e
00000300: cc21 70be 5a8f 67bc c151 493e 2eae a1be
00000310: d0cf b5be b13a 1cbf 7cb8 823c a65e 063f
00000320: a088 c93d 539e fdbe 321d 383e fa0f 5dbd
00000330: ddae 9a3c 6670 17be 9c12 653f 00bf 273f
00000340: 465d d2bd 62d2 5dbd d067 edbe f8b6 443f
00000350: 2ce7 fb3d 8749 883f 6451 eebf 07d8 b23d
00000360: 0fc1 c6be 613c ed3e ac37 f93d ef51 e03e
00000370: 58f7 583f dd73 03bf 323b b0be 68a8 383e
00000380: bef3 0b3f 1a33 fb3e 55c2 7a3f 1fab a43d
00000390: 0994 ce3f ebf1 85bd 74bc adbd 00cd bb3d
000003a0: e28d 283f a7e9 9f3e 6e4e 8ebe 1ee0 62bf
000003b0: 5afa 053f a9ea 493f 23ed 473d 708a b13d
000003c0: 8040 48bd 4110 4fbd 1bea f4bc bee1 fc3e
000003d0: 7e8d f03e f560 c1bd ea8f 33be 96a0 9a3f
000003e0: 219e 423e ec31 94be 9316 5c3e 150b f8be
000003f0: 4c3d c23d c560 35bf 1954 c53f 5b23 60bd

l2.bias f4 [300]
0.69012815 0.14210387 0.074325435 0.091342464 0.47943768 -0.1205524 0.7109283 0.19989432
-0.37471366 -0.43704715 -0.770969 -0.66424054 0.48275298 -0.8590614 -1.1292927 0.16494274
-0.46695152 -0.5775303 -0.65842056 -0.0674588 -1.124249 0.0044464557 0.8298625 -0.33167145
-0.531617 1.1452463 0.4335041 -0.02065399 0.32935467 0.6143748 0.8897619 0.75365937
0.25554332 -0.5179378 -0.7709672 0.2703314 -0.58312166 0.58818823 0.046980012 0.650452
0.61483216 0.7069954 0.40944213 -1.1763388 0.5433501 -0.39116463 -0.13851494 -0.8475093
-1.1497632 -0.01721441 -0.016761923 -0.6771206 -0.07261209 -0.51870537 0.5048919 -0.52054274
0.31846017 0.509898 0.016054377 0.5612004 -0.5935794 -0.7201833 -0.12754884 -0.9591162
-0.69959205 -0.75594586 -0.3207187 0.4543614 0.55609506 -0.83466446 0.6494492 0.075221024
-0.6367314 -0.5560302 0.15174888 -0.44176155 0.30511016 -0.71044743 -0.043877624 0.501133
0.15455523 0.45589724 0.30129126 0.09346982 -1.0096743 -0.13394131 -1.035994 0.5195148
0.27710372 0.37720105 -0.6345489 -0.007482371 0.19440502 -0.99448895 0.21756221 -0.28892353
0.4511766 0.22263187 0.071519285 -0.39838353 -0.77380085 0.2728653 0.30467993 0.6653595
-1.5608143 -0.16504145 -1.1401354 -0.6862476 -1.0126323 -0.20882979 0.838009 0.3524776
-0.6939249 0.4477323 0.099852145 -0.28386283 -0.18895583 -0.778465 0.6509672 1.0633129
1.0426404 0.4686312 -0.13313377 -1.156903 0.15849574 -0.5784326 -0.8981089 -0.66000503
0.24085395 -0.08619501 0.21811834 0.0018182484 -0.43304363 0.7367529 -0.6438507 0.5140966
0.1629996 -1.0836684 -0.44726396 -1.4301609 0.29343787 -0.76242715 -0.41971666 -0.928147
0.16188292 0.4780581 0.48658732 -0.84382993 -1.0690135 -0.61566037 -0.79633516 -0.38799807
-0.5926128 0.14526595 -0.69364566 0.6724692 0.3767465 0.67934126 -0.9100818 -1.6915711
-0.14709961 -0.5810166 -0.93057215 0.46312365 0.8823302 0.42312962 0.025167197 -0.1971562
0.13186911 -0.13278612 -0.048223518 0.39997187 -0.05885897 -0.79938126 -0.5908947 -0.5101321
-0.888726 -0.03193774 0.12696026 0.21843846 0.39908618 -0.045196623 0.13116895 0.42290723
0.12957463 -1.0836381 -1.7151097 -0.6408316 -0.3963634 0.3587907 -0.0914077 0.72696096
0.4623191 -1.0629804 -0.040278457 0.16379915 -0.19202325 -1.1016381 0.046122953 -1.1232632
0.23144224 -0.21816367 -0.27869713 0.1602181 -0.5851486 0.08448626 0.79852456 0.55189747
-1.1768444 0.0967084 0.18035518 0.71923405 0.8890112 0.70149964 0.45668384 -0.4646844
-1.1250293 -0.16293736 0.029367922 -0.7413836 0.5711495 0.2099994 0.91068584 -0.64646274
-0.7772377 -0.13578436 0.52485454 0.011003369 -0.08892914 0.7631181 -1.1947206 0.582679
0.9454002 -0.8128905 -0.66812634 -0.10588756 0.23756564 -1.3333374 0.4660892 -0.5799876
0.03245044 0.047613826 0.11229435 0.58516824 -0.951091 -0.9403765 0.878823 0.29007387
0.30041465 -1.5032706 0.678697 1.044272 0.07444168 -0.023413492 -0.96772 0.26604474
00000000: 3dac 303f ad83 113e ef37 983d c211 bb3d
00000010: db78 f53e 2de4 f6bd 66ff 353f 19b1 4c3e
00000020: 78da bfbe a5c4 dfbe 395e 45bf ab0b 2abf
00000030: 662b f73e 73eb 5bbf aa8c 90bf c0e6 283e
00000040: 4514 efbe 07d9 13bf 408e 28bf d727 8abd
00000050: 64e7 8fbf 93b3 913b de71 543f d7d0 a9be
00000060: 0d18 08bf 6e97 923f 40f4 dd3e 8e32 a9bc
00000070: 2da1 a83e ab47 1d3f 70c7 633f d2ef 403f
00000080: 93d6 823e 9297 04bf 1b5e 45bf e168 8a3e
00000090: 7647 15bf 8193 163f 1d6e 403d 0684 263f
000000a0: a465 1d3f a7fd 343f 66a2 d13e 4592 96bf
000000b0: fe18 0b3f bb46 c8be dcd6 0dbe 5ff6 58bf
000000c0: 712b 93bf 3c05 8dbc 4d50 89bc c757 2dbf
000000d0: a6b5 94bd e0c9 04bf 9840 013f 4a42 05bf
000000e0: 360d a33e ad88 023f 7884 833c d4aa 0f3f
000000f0: d2f4 17bf ef5d 38bf 2a9c 02be a488 75bf
00000100: 7718 33bf ab85 41bf 3e35 a4be 0fa2 e83e
00000110: 3f5c 0e3f 92ac 55bf 4e42 263f 7b0d 9a3d
00000120: d400 23bf ff57 0ebf 0f64 1b3e 922e e2be
00000130: 6637 9c3e e2df 35bf 06b9 33bd 414a 003f
00000140: ba43 1e3e 5d6b e93e d942 9a3e 1b6d bf3d
00000150: 023d 81bf e927 09be 749b 84bf ecfe 043f
00000160: 8ae0 8d3e 7f20 c13e cc71 22bf ad2e f5bb
00000170: 1c12 473e d496 7ebf a1c8 5e3e c9ed 93be
00000180: 9f00 e73e 9cf9 633e b478 923d edf8 cbbe
00000190: d017 46bf 00b5 8b3e 02ff 9b3e 0055 2a3f
000001a0: c3c8 c7bf a000 29be f5ef 91bf ecad 2fbf
000001b0: ef9d 81bf 7ad7 55be c287 563f f277 b43e
000001c0: 10a5 31bf 2b3d e53e 487f cc3d 7856 91be
000001d0: a37d 41be 7b49 47bf c9a5 263f a31a 883f
000001e0: 3e75 853f 6ef0 ef3e 3854 08be 6615 94bf
000001f0: b54c 223e 2914 14bf 77ea 65bf 17f6 28bf
00000200: 6ba2 763e 0287 b0bd 6a5a 5f3e 4b52 ee3a
00000210: e5b7 ddbe d79b 3c3f 66d3 24bf d69b 033f
00000220: 5ee9 263e a5b5 8abf c8ff e4be 830f b7bf
00000230: 7d3d 963e 6d2e 43bf 1ae5 d6be 0b9b 6dbf
00000240: a3c4 253e 08c4 f43e f921 f93e 3d05 58bf
00000250: 6fd5 88bf eb9b 1dbf 9fdc 4bbf afa7 c6be
00000260: 79b5 17bf 99c0 143e c392 31bf f126 2c3f
00000270: ebe4 c03e 4fe9 2d3f 1ffb 68bf 6785 d8bf
00000280: 48a1 16be 81bd 14bf fa39 6ebf 8b1e ed3e
00000290: 64e0 613f 72a4 d83e 702b ce3c 51e3 49be
000002a0: b208 073e 16f9 07be 0686 45bd 1dc9 cc3e
000002b0: 1a16 71bd 40a4 4cbf e044 17bf 0498 02bf
000002c0: 8c83 63bf 26d1 02bd df01 023e 55ae 5f3e
000002d0: 0655 cc3e 1820 39bd 2751 063e 4c87 d83e
000002e0: 36af 043e a7b4 8abf b788 dbbf 8a0d 24bf
000002f0: 25f0 cabe 6ab3 b73e f633 bbbd 1d1a 3a3f
00000300: 17b5 ec3e be0f 88bf 06fb 24bd f7ba 273e
00000310: bea1 44be 7a02 8dbf 6ceb 3c3d 17c7 8fbf
00000320: 32ff 6c3e 4c66 5fbe 64b1 8ebe 3710 243e
00000330: 4ccc 15bf 2207 ad3d 1b6c 4c3f 2749 0d3f
00000340: d6a2 96bf 0e0f c63d 07af 383e b91f 383f
00000350: 3d96 633f 7b95 333f 77d2 e93e 1deb edbe
00000360: f600 90bf 0dd9 26be ff94 f03c 51cb 3dbf
00000370: db36 123f 150a 573e b522 693f 957e 25bf
00000380: 0df9 46bf 0e0b 0bbe de5c 063f 7a47 343c
00000390: 7b20 b6bd b55b 433f 9bec 98bf 732a 153f
000003a0: bf05 723f 9819 50bf 540a 2bbf 94db d8bd
000003b0: 6844 733e cdaa aabf 3ea3 ee3e 117a 14bf
000003c0: c1ea 043d b706 433d 95fa e53d 96cd 153f
000003d0: b37a 73bf 84bc 70bf 8bfa 603f 9084 943e
000003e0: f3cf 993e 2c6b c0bf 16bf 2d3f b4aa 853f
000003f0: e174 983d a7cd bfbc 7fbc 77bf 0437 883e

bn2.weight f4 [300]
1.362676 1.3795679 1.3349558 1.3552014 1.7349472 1.2566483 1.2927667 1.3449718
1.2022092 0.22413006 1.5015556 0.260553 1.0799115 0.30798045 1.2062418 1.2914876
1.7798663 0.17055735 0.30047026 1.4334373 0.20935406 1.7368076 1.2547961 1.5254289
1.3754355 1.7453556 1.0259591 1.1156094 0.966091 1.5580386 1.5499064 1.4014884
1.2155243 0.24658613 0.2294915 1.3068413 0.25372827 1.5769413 1.008344 1.0861423
1.4092852 1.6710554 1.2920665 1.231215 1.1296463 0.23289493 1.0426633 0.22868088
1.3053012 1.0307013 1.1414181 0.3574941 1.3723613 1.7908446 1.576481 0.2839419
1.6336921 1.7133524 1.0400003 1.2863882 0.2555045 1.1659439 1.4210075 1.1338395
0.4677866 0.27803504 0.28272 1.4035856 1.275067 1.5894891 1.5775726 1.0923307
0.25009388 0.21183659 1.2892264 0.292972 1.1550999 1.906841 1.0670285 1.1662413
1.1322025 1.0266064 1.3706937 1.2315995 0.16774401 1.0383838 0.67837644 1.7331676
1.05411 1.2403449 1.2163796 1.281476 1.4546622 0.23240319 1.2349356 1.5685056
1.4415154 1.3564308 1.2246066 0.9377815 1.6616718 1.1562284 1.2256248 1.4183667
1.4621489 1.106642 0.894908 0.2916011 1.2059137 1.1664333 1.4018521 1.1697145
1.7467209 1.4189105 0.20309854 0.22059849 1.1090387 0.27873242 1.2300057 1.7491751
1.4891254 1.6350871 1.2941691 0.25304878 1.2775344 0.2553376 0.22502711 1.5819542
1.2279314 1.1211512 1.0487455 1.3108219 0.9554376 1.1893005 1.5330231 1.2848032
1.3062735 1.5390228 1.1840689 1.5830861 1.4569668 1.0854712 0.22345057 0.24111442
1.4137677 1.524626 1.4537758 0.2896401 1.8690146 0.31292766 2.5169864 1.4027534
1.2032267 1.1868095 1.241981 1.202054 1.4308002 1.5375715 0.18400109 1.7489904
1.3954033 0.24677388 1.2834976 1.1963837 1.4048098 1.1915971 1.4039651 0.2778026
1.4010471 1.1551076 1.3657176 1.389416 1.484376 0.21845569 0.25794232 0.32523006
0.18143521 1.4792777 1.256339 1.1376337 1.2000927 0.98773265 1.2610778 1.1389841
1.4981989 0.26253784 1.1825422 0.252411 0.2913567 1.2474762 1.2672018 1.363042
1.4397553 0.25017732 0.30364123 1.2901709 0.20103025 0.26965463 1.244223 0.2882215
1.0720278 1.0855097 1.3765466 1.1257787 0.3590915 1.392068 1.2219678 1.2710502
0.2894732 0.19982922 1.4459187 1.6774969 1.322192 1.4725033 1.4392923 1.2113352
1.4782686 1.6857225 0.27503097 1.0408084 1.4706687 1.2462494 1.5425497 1.3699999
1.5234462 1.0751916 1.0743005 1.1997552 1.1160579 1.1775948 1.7176642 1.1222115
1.3347485 0.23135713 0.28153387 0.21057297 1.2298967 0.17479526 1.3072292 1.2545638
1.325944 1.162815 1.2795043 1.6158452 0.3194484 0.2502727 1.4645548 1.4488394
1.0822815 0.2632352 1.6239607 1.5743372 1.503332 1.3821228 0.23064485 1.1945227
00000000: 2b6c ae3f ae95 b03f d5df aa3f 3d77 ad3f
00000010: c012 de3f dad9 a03f 6179 a53f 0928 ac3f
00000020: fee1 993f 5a82 653e f932 c03f 3467 853e
00000030: 8a3a 8a3f 9daf 9d3e 2266 9a3f 774f a53f
00000040: a9d2 e33f 96a6 2e3e 3dd7 993e e07a b73f
00000050: e960 563e b64f de3f 299d a03f 4141 c33f
00000060: 450e b03f d067 df3f a152 833f 4acc 8e3f
00000070: bd51 773f cf6d c73f 5563 c63f f963 b33f
00000080: 4d96 9b3f 1381 7c3e d2ff 6a3e 9346 a73f
00000090: ace8 813e 36d9 c93f 6b11 813f b606 8b3f
000000a0: 7563 b43f 25e5 d53f 6f62 a53f 7498 9d3f
000000b0: 4098 903f 027c 6e3e fe75 853f 522b 6a3e
000000c0: 1c14 a73f 05ee 833f fd19 923f 7709 b73e
000000d0: 89a9 af3f 653a e53f 21ca c93f d560 913e
000000e0: d31c d13f 224f db3f bb1e 853f 5ea8 a43f
000000f0: 7cd1 823e a63d 953f 93e3 b53f a721 913f
00000100: ba81 ef3e 9c5a 8e3e adc0 903e b1a8 b33f
00000110: 6535 a33f 6174 cb3f e6ed c93f 7ed1 8b3f
00000120: 4e0c 803e b1eb 583e 5f05 a53f 6d00 963e
00000130: 50da 933f 5e13 f43f 6494 883f 6547 953f
00000140: 03ec 903f d767 833f e472 af3f 0da5 9d3f
00000150: 16c5 2b3e c3e9 843f 14aa 2d3f 70d8 dd3f
00000160: 14ed 863f 9fc3 9e3f 54b2 9b3f 6807 a43f
00000170: 5f32 ba3f 1afb 6d3e 5f12 9e3f cbc4 c83f
00000180: 9483 b83f 869f ad3f e9bf 9c3f 7312 703f
00000190: a9b1 d43f 4bff 933f 46e1 9c3f 0a8d b53f
000001a0: b227 bb3f 72a6 8d3f b118 653f bd4c 953e
000001b0: 615b 9a3f b04d 953f e46f b33f 34b9 953f
000001c0: 8d94 df3f dc9e b53f 10f9 4f3e 92e4 613e
000001d0: fbf4 8d3f 04b6 8e3e d470 9d3f f8e4 df3f
000001e0: a99b be3f 894a d13f 55a7 a53f 9c8f 813e
000001f0: 3f86 a33f 9cbb 823e 826d 663e 7a7d ca3f
00000200: db2c 9d3f e281 8f3f 4b3d 863f 03c9 a73f
00000210: 8f97 743f 003b 983f 1a3a c43f 6e74 a43f
00000220: f833 a73f b3fe c43f 928f 973f 91a2 ca3f
00000230: e37d ba3f b8f0 8a3f 3ad0 643e b3e6 763e
00000240: 57f6 b43f f226 c33f 5315 ba3f b54b 943e
00000250: df3b ef3f 0e38 a03e 4e16 2140 6c8d b33f
00000260: 5503 9a3f 60e9 973f 3cf9 9e3f e8dc 993f
00000270: 7624 b73f 25cf c43f c86a 3c3e ebde df3f
00000280: 939c b23f 4bb2 7c3e a649 a43f 1a23 993f
00000290: cfd0 b33f 4186 983f 21b5 b33f 243c 8e3e
000002a0: 8355 b33f 91da 933f d6cf ae3f 62d8 b13f
000002b0: 0800 be3f d9b2 5f3e 0411 843e 8e84 a63e
000002c0: 27ca 393e f958 bd3f b7cf a03f fb9d 913f
000002d0: a39c 993f 0cdc 7c3f ff6a a13f 3bca 913f
000002e0: fbc4 bf3f 5c6b 863e 8b5d 973f 043c 813e
000002f0: b52c 953e 4dad 9f3f ab33 a23f 2978 ae3f
00000300: e749 b83f 3e17 803e dd76 9b3e 5224 a53f
00000310: e0da 4d3e 2c10 8a3e b342 9f3f c591 933e
00000320: 3538 893f fbf1 8a3f ae32 b03f 8419 903f
00000330: d7da b73e 492f b23f 7169 9c3f c6b1 a23f
00000340: d535 943e 08a0 4c3e dd13 b93f 38b8 d63f
00000350: 963d a93f fd7a bc3f bb3a b83f 080d 9b3f
00000360: e837 bd3f c1c5 d73f dcd0 8c3e 3639 853f
00000370: df3e bc3f 1a85 9f3f 4572 c53f 285c af3f
00000380: 4900 c33f e19f 893f ae82 893f 9491 993f
00000390: fcda 8e3f 6dbb 963f 6cdc db3f a0a4 8f3f
000003a0: 0ad9 aa3f e2e8 6c3e 3525 903e 71a0 573e
000003b0: 416d 9d3f 87fd 323e 4953 a73f 8c95 a03f
000003c0: 88b8 a93f 1fd7 943f ccc6 a33f 04d4 ce3f
000003d0: be8e a33e be23 803e 8876 bb3f 9273 b93f
000003e0: 3388 8a3f c4c6 863e f2dd cf3f e283 c93f
000003f0: 2f6d c03f 66e9 b03f 2a2e 6c3e 1fe6 983f

bn2.bias f4 [300]
-0.6281425 -0.80391616 -0.9817183 -0.93987256 -1.1248145 -0.5248417 -0.6925176 -0.58230025
-1.1489254 -0.7689424 -1.9895177 -0.87779254 -1.2885731 -0.8743354 -0.076433465 -0.59446347
-1.600877 -0.7199354 -0.8413979 -0.7501113 -0.6825275 -1.0866442 -1.2700065 -1.6743453
-0.9750028 -0.4915955 -0.8419254 -1.0985147 -1.0024387 -0.413966 -0.8906233 -0.7693262
-0.72664696 -0.668127 -0.7389374 -0.9673217 -0.8271047 -0.3582842 -0.91916907 -0.8685197
-0.9979684 -0.5428261 -1.2913605 -1.0839915 -0.77464116 -0.7039256 -1.1529752 -0.7720657
-1.3352733 -1.1491781 -1.0315442 -1.2335193 -1.3902036 -0.6062627 -0.78016657 -0.7836409
-1.0253464 -0.935255 -0.97804725 -0.7373454 -0.7551618 -1.3226022 -0.83858234 -1.5354729
-1.548566 -0.86683714 -0.7267542 -1.1436359 -1.1449966 -1.2656521 -0.4498384 -1.3843282
-0.8285233 -0.6649441 -0.9392574 -0.90589017 -0.6373327 -2.0260403 -1.3874356 -0.9143679
-1.132228 -0.9861014 0.026751071 -0.9627387 -0.70280504 -0.424004 -0.47251004 -0.7857899
-1.073636 -0.90296763 -1.2907383 -0.9353775 -0.99020004 -0.79881626 -0.8972808 -1.307966
-0.5925182 -0.89712524 -0.88603234 0.55627364 -3.0314238 -1.1107932 -1.012774 -0.9138741
-0.122288406 -0.84882694 0.09861556 -0.7932492 -1.1924353 -1.2117372 -1.3035628 -0.8646677
-1.8462741 -0.6655128 -0.81693614 -0.6628937 -0.89771616 -0.71910095 -0.8574996 -1.0834812
-0.4493843 -0.72146547 -1.084059 -0.6704635 -0.8089544 -0.88121384 -0.7859536 -0.78554165
-0.7973118 -1.0124478 -0.88964915 -0.855942 -1.073221 -0.734939 -1.7092348 -0.69615954
-1.5236915 -1.6350788 -1.005293 -0.47304234 -1.043341 -1.643745 -0.75278956 -0.7027335
-1.2814745 -1.4240454 -0.9750194 -0.84104025 -1.0653428 -0.64036316 -1.8347937 -1.1773314
-1.0051948 -0.9745315 -1.2309754 -0.8955691 -0.9642255 -0.8603126 -0.7165839 -0.28456992
-1.8783563 -0.6868786 -1.4026115 -1.1934209 -0.830368 -1.0686277 -0.9303245 -0.86371386
-0.8987074 -1.1105561 -1.1003208 -1.0324086 -1.9420623 -0.7039614 -0.8284279 -0.84855044
-0.60409963 -1.0097088 -0.79985803 -1.2748027 -1.0547874 -1.2694273 -1.276032 -0.9805445
-1.4649928 -0.8143612 0.015986616 -0.6180352 -0.7486291 -0.8394051 -0.8052878 -0.691206
-0.82945544 -0.83894217 -0.9716103 -1.3531348 -0.74825954 -0.6229466 -1.1530032 -0.8839676
-1.0161209 -0.8977916 -0.6422718 -0.892751 -0.94036555 -0.88071114 -0.5956984 -0.91032475
-0.77762085 -0.5262082 -0.8473501 -1.1275121 -0.7456306 -0.9162076 -1.1225653 -0.6772525
-1.1593508 -1.8030993 -0.8340069 -1.6293204 -1.0207449 -1.1575398 -0.94754 -1.3227853
-1.0250975 -1.1186184 -1.3139814 -0.53574276 -1.0388328 -1.0538245 -0.61381835 -0.96886086
-0.8913281 -0.80387074 -0.8612343 -0.63294834 -1.0053152 -0.5963391 -0.78256834 -0.73706466
-0.95619524 -1.5836945 -1.150428 -0.9953323 -0.76685625 -0.7742711 -0.5145251 -0.53995365
-1.1885219 -0.668878 -0.7562917 -0.61502457 -0.6512172 -0.036222067 -0.8568593 -1.0401863
00000000: f2cd 20bf 73cd 4dbf e451 7bbf 7d9b 70bf
00000010: ecf9 8fbf 075c 06bf d548 31bf a111 15bf
00000020: fd0f 93bf 69d9 44bf 84a8 febf 03b7 60bf
00000030: f7ef a4bf 72d4 5fbf 2689 9cbd c22e 18bf
00000040: 8ae9 ccbf b04d 38bf da65 57bf 4b07 40bf
00000050: 1fba 2ebf 2817 8bbf 938f a2bf f250 d6bf
00000060: c999 79bf 68b2 fbbe 6c88 57bf 219c 8cbf
00000070: e94f 80bf 5af3 d3be e3ff 63bf 90f2 44bf
00000080: 8905 3abf 5f0a 2bbf 002b 3dbf 65a2 77bf
00000090: 22bd 53bf 0771 b7be aa4e 6bbf 4f57 5ebf
000000a0: db7a 7fbf a7f6 0abf 4d4b a5bf 3cc0 8abf
000000b0: e24e 46bf 7834 34bf b194 93bf 19a6 45bf
000000c0: 3cea aabf 4518 93bf a409 84bf f6e3 9dbf
000000d0: 31f2 b1bf 0834 1bbf ffb8 47bf b19c 48bf
000000e0: 8d3e 83bf df6c 6fbf 4e61 7abf abc2 3cbf
000000f0: 4952 41bf 074b a9bf 55ad 56bf 608a c4bf
00000100: 6937 c6bf 0ae9 5dbf 900c 3abf a962 92bf
00000110: 408f 92bf e300 a2bf 3851 e6be ab31 b1bf
00000120: 1a1a 54bf c739 2abf 2c73 70bf 6be8 67bf
00000130: 3c28 23bf a5aa 01c0 7d97 b1bf 0414 6abf
00000140: d9ec 90bf 2471 7cbf 1025 db3c 0b76 76bf
00000150: 08eb 33bf 0d17 d9be d6ec f1be 8729 49bf
00000160: e86c 89bf e328 67bf ea36 a5bf e674 6fbf
00000170: c07d 7dbf 397f 4cbf 32b4 65bf 6e6b a7bf
00000180: 46af 17bf 00aa 65bf 04d3 62bf f367 0e3f
00000190: d902 42c0 792e 8ebf 94a2 81bf a7f3 69bf
000001a0: 5872 fabd b94c 59bf f4f6 c93d 6112 4bbf
000001b0: b8a1 98bf 341a 9bbf 25db a6bf dd5a 5dbf
000001c0: b652 ecbf 0c5f 2abf ba22 51bf 67b3 29bf
000001d0: bad0 65bf 0017 38bf 1885 5bbf 83af 8abf
000001e0: b315 e6be f6b1 38bf 72c2 8abf 7fa3 2bbf
000001f0: a317 4fbf 3b97 61bf 4134 49bf 4219 49bf
00000200: a01c 4cbf e497 81bf 0cc0 63bf 041f 5bbf
00000210: 4e5f 89bf f624 3cbf 35c8 dabf 8337 32bf
00000220: 5308 c3bf 434a d1bf 71ad 80bf 9b32 f2be
00000230: 338c 85bf 3c66 d2bf d1b6 40bf 58e6 33bf
00000240: 5b07 a4bf 1f47 b6bf df9a 79bf 6a4e 57bf
00000250: 275d 88bf d7ee 23bf 85da eabf ccb2 96bf
00000260: 39aa 80bf e57a 79bf 9a90 9dbf 0444 65bf
00000270: 7bd7 76bf 723d 5cbf 0b72 37bf 26b3 91be
00000280: fb6d f0bf 47d7 2fbf c688 b3bf 04c2 98bf
00000290: ff92 54bf cbc8 88bf bf29 6ebf 5a1c 5dbf
000002a0: b011 66bf b426 8ebf 50d7 8cbf f725 84bf
000002b0: 7f95 f8bf d036 34bf da13 54bf 9a3a 59bf
000002c0: 46a6 1abf 233e 81bf 7fc3 4cbf bc2c a3bf
000002d0: 4603 87bf 987c a2bf 0455 a3bf f704 7bbf
000002e0: e284 bbbf fa79 50bf 5df6 823c 8e37 1ebf
000002f0: 28a6 3fbf 41e3 56bf 5727 4ebf e0f2 30bf
00000300: 3157 54bf eac4 56bf 74bb 78bf 8533 adbf
00000310: f08d 3fbf 6e79 1fbf 9c95 93bf b34b 62bf
00000320: 4010 82bf acd5 65bf ed6b 24bf 548b 64bf
00000330: ccbb 70bf 4976 61bf b17f 18bf 0b0b 69bf
00000340: 2912 47bf 95b5 06bf f0eb 58bf 5152 90bf
00000350: a6e1 3ebf 958c 6abf 38b0 8fbf 6b60 2dbf
00000360: 9b65 94bf f5cb e6bf 7a81 55bf 928d d0bf
00000370: c5a7 82bf 442a 94bf fb91 72bf 0751 a9bf
00000380: 6536 83bf e32e 8fbf 8b30 a8bf 7026 09bf
00000390: 79f8 84bf b9e3 86bf 3323 1dbf 4407 78bf
000003a0: 142e 64bf 79ca 4dbf da79 5cbf e708 22bf
000003b0: 2bae 80bf aea9 18bf 6656 48bf 45b0 3cbf
000003c0: 36c9 74bf 80b6 cabf 3a41 93bf 19ce 7ebf
000003d0: b150 44bf a136 46bf ebb7 03bf 673a 0abf
000003e0: 7c21 98bf 973b 2bbf 559c 41bf 4072 1dbf
000003f0: 2cb6 26bf 975d 14bd 225b 5bbf d324 85bf
