weights/model_16.pt (torch, 429959 bytes, 10 tensors)

l1.weight f4 [300, 42]
0.22516914 -0.19990511 0.2393339 -0.34821397 0.11794255 0.001857123 -0.54934186 -0.16472474
-0.3107317 0.15130433 0.09504782 0.08216004 0.27760065 -0.4500311 -0.77883214 1.2809647
0.81408453 -0.32744387 2.1054027 0.6401471 0.5953453 -0.29871035 -0.75269884 0.20121717
0.29615092 0.20005907 0.4554122 -0.4042419 0.3498043 -0.59254783 -0.38941324 0.27703968
-0.61556834 1.6569391 0.16106802 -1.7100292 -1.2574303 0.06714701 -0.05870162 -0.049985066
-0.98141384 0.63742256 0.3228413 0.52404386 0.05195056 0.9717285 0.1799732 -0.05729466
-0.21146154 0.101977766 0.16652864 0.28069413 0.14568353 -1.036244 0.07306711 -0.15725383
0.8402961 -0.00027583595 -0.07549335 -0.9216114 0.25502747 0.62597966 0.38196304 -0.11433776
-1.1061976 0.26314077 0.35450047 0.57365584 0.59712917 1.1891375 -0.20988324 -0.028951518
-0.22574227 0.48358908 0.09850574 0.2029402 0.31601998 -1.1829692 -1.846222 -0.2822307
-0.6524599 -0.024146575 -1.067366 -0.41170534 -0.09249802 0.19494694 -0.4002723 -0.94346136
0.056853484 -0.29787898 0.20875257 -0.13579364 0.12843755 0.27501234 0.26967582 -0.5050776
0.13756114 -0.20189795 0.81933564 -0.5122462 -0.20279114 0.96445507 0.13662979 -0.9276939
-0.68318784 -1.0832686 0.3282025 0.31945276 0.3813813 1.0360667 -0.60603637 -0.21593268
0.43980175 0.09817451 0.29866853 0.108936265 0.42299435 0.6157124 0.3750667 -0.36047372
-0.5948945 -0.14008597 -0.69582427 -1.32416 0.17877614 0.28600544 0.40832347 -0.1478001
0.07224789 -0.12610428 0.21619004 0.29237834 -0.14592429 -0.20679529 -0.28056678 -0.038611606
0.112944834 -0.38789615 0.23332831 -0.4043911 1.937754 -0.9437815 -1.2504948 2.3102326
0.41721007 -1.8482215 0.47656986 -0.21287571 -0.65466684 0.2279691 0.464556 -0.18316747
-0.011855331 0.8868767 -0.7819772 0.89263046 -0.7734231 0.7625479 0.02535373 1.2188362
0.24514773 0.44525635 0.27943975 0.39332297 0.06108784 -0.2554492 -1.143134 -0.09581157
0.12849489 0.22008064 0.1797295 0.015538976 0.15254447 -0.06670755 0.19391187 -0.7577299
-0.11116367 0.38610345 0.34546015 1.2386148 0.46480697 -0.1323172 -0.8472762 0.11352619
-1.2235932 0.8059253 2.8641012 0.6724949 0.8571454 0.17912199 0.247226 0.31599745
0.23171414 -0.9386061 -0.88996005 -1.2483282 -0.9778412 0.7959466 -0.10812093 0.04814926
0.7130122 1.9243906 0.23305 1.9923745 0.69968677 0.57485944 0.36911523 0.11408882
-0.28252596 0.2472994 -0.10994595 -0.049918924 0.41397342 -1.0471056 0.20137857 0.45148924
0.23987387 -0.486792 -0.076670356 0.48382816 0.048895925 -0.21397434 -0.20594318 0.28946847
-0.17249389 -0.5329993 -0.40161827 1.5058877 1.2412883 -0.20849288 0.592437 -1.134252
-0.22957687 0.20181514 0.24210228 -0.5395787 0.13747089 0.25718346 0.33700737 -0.29071978
0.12690361 0.101700306 0.6924197 -0.3701112 0.34805194 -0.2014607 -0.44831213 -0.0891279
0.38601467 -1.1936799 -0.23240764 0.13849317 0.21939549 0.19661441 0.1785346 1.0081191
00000000: bd92 663e edb3 4cbe f213 753e 1a49 b2be
00000010: dd8b f13d b56a f33a aba1 0cbf 9aad 28be
00000020: 3a18 9fbe 86ef 1a3e 6ea8 c23d 8643 a83d
00000030: ac21 8e3e 7a6a e6be 8b61 47bf a7f6 a33f
00000040: d867 503f b9a6 a7be ebbe 0640 aee0 233f
00000050: 8d68 183f 90f0 98be dfb0 40bf e00b 4e3e
00000060: 18a1 973e 49dc 4c3e ca2b e93e cbf8 cebe
00000070: 8d19 b33e 37b1 17bf 2c61 c7be 25d8 8d3e
00000080: e395 1dbf 9516 d43f 04ef 243e 3de2 dabf
00000090: 7af3 a0bf 5f84 893d 1c71 70bd 24bd 4cbd
000000a0: f03d 7bbf 202e 233f 744b a53e bd27 063f
000000b0: 1cca 543d 33c3 783f e54a 383e cead 6abd
000000c0: 6089 58be b8d9 d03d 7c86 2a3e 24b7 8f3e
000000d0: 102e 153e a5a3 84bf 35a4 953d 2607 21be
000000e0: a51d 573f 139e 90b9 429c 9abd baee 6bbf
000000f0: f692 823e 3440 203f a990 c33e ea29 eabd
00000100: e297 8dbf 63ba 863e 1681 b53e 1cdb 123f
00000110: 75dd 183f a835 983f a2eb 56be bc2b edbc
00000120: fb28 67be fd98 f73e 61bd c93d 8ecf 4f3e
00000130: 5fcd a13e 896b 97bf 0151 ecbf 8b80 90be
00000140: 9d07 27bf 0acf c5bc 739f 88bf 0bcb d2be
00000150: 9a6f bdbd 2ca0 473e 7ef0 ccbe af86 71bf
00000160: 33df 683d 9883 98be 3cc3 553e 7d0d 0bbe
00000170: 2285 033e 6bce 8c3e f312 8a3e c44c 01bf
00000180: d4dc 0c3e 56be 4ebe fbbf 513f 9122 03bf
00000190: 7ba8 4fbe 87e6 763f aee8 0b3e 597d 6dbf
000001a0: 66e5 2ebf 8ca8 8abf 280a a83e 508f a33e
000001b0: 6944 c33e d59d 843f 3325 1bbf 751d 5dbe
000001c0: b22d e13e b80f c93d 15eb 983e fa19 df3d
000001d0: b792 d83e 549f 1d3f be08 c03e 0390 b8be
000001e0: 024b 18bf b272 0fbe 8a21 32bf 137e a9bf
000001f0: 1811 373e 4e6f 923e c60f d13e e958 17be
00000200: b4f6 933d 7b21 01be ec60 5d3e 9db2 953e
00000210: 2d6d 15be 25c2 53be 73a6 8fbe 3427 1ebd
00000220: 9f4f e73d 539a c6be 9eed 6e3e 5a0c cfbe
00000230: 5308 f83f aa9b 71bf 3710 a0bf dada 1340
00000240: 8f9c d53e 8692 ecbf f700 f43e 17fc 59be
00000250: 3f98 27bf bb70 693e 49da ed3e 4190 3bbe
00000260: dd3c 42bc 5a0a 633f a82f 48bf 6e83 643f
00000270: 0eff 45bf 5736 433f a0b2 cf3c d302 9c3f
00000280: 0208 7b3e a4f8 e33e ba12 8f3e a161 c93e
00000290: 3e37 7a3d 3dca 82be 3752 92bf db38 c4bd
000002a0: 2a94 033e d25c 613e 030b 383e 3097 7e3c
000002b0: 9e34 1c3e f89d 88bd d590 463e 96fa 41bf
000002c0: c7a9 e3bd 5aaf c53e 27e0 b03e ee8a 9e3f
000002d0: 2efb ed3e 297e 07be 18e7 58bf 6b80 e83d
000002e0: b49e 9cbf 1f51 4e3f 6f4d 3740 a028 2c3f
000002f0: e26d 5b3f c16b 373e d028 7d3e 6bca a13e
00000300: 7946 6d3e 7d48 70bf 6cd4 63bf 38c9 9fbf
00000310: cd53 7abf 28c3 4b3f 826e ddbd 2938 453d
00000320: f887 363f 6e52 f63f a9a4 6e3e 2106 ff3f
00000330: ac1e 333f fd29 133f acfc bc3e 66a7 e93d
00000340: 3ea7 90be 0e3c 7d3e 582b e1bd c977 4cbd
00000350: 53f4 d33e 8e07 86bf 2f36 4e3e 9929 e73e
00000360: 7fa1 753e cd3c f9be 5905 9dbd 53b8 f73e
00000370: 1847 483d 171c 5bbe c5e2 52be 3635 943e
00000380: 3da2 30be a472 08bf e9a0 cdbe eec0 c03f
00000390: 89e2 9e3f 287f 55be f4a9 173f 2b2f 91bf
000003a0: 3316 6bbe a1a8 4e3e a9e9 773e d421 0abf
000003b0: 2bc5 0c3e 8dad 833e 3b8c ac3e 39d9 94be
000003c0: 05f3 013e 4048 d03d 6b42 313f 377f bdbe
000003d0: dd33 b23e b74b 4ebe 2b89 e5be b088 b6bd
000003e0: b7a3 c53e 81ca 98bf 45fc 6dbe 27d1 0d3e
000003f0: 36a9 603e 4a55 493e c6d1 363e 0c0a 813f

l1.bias f4 [300]
0.34652522 0.27936128 0.35590678 0.38884044 0.3136577 0.15936565 0.35829914 0.36981267
0.3068844 0.08211371 0.23576427 0.4241398 0.30676377 0.1684082 0.04547195 0.2724776
0.22598858 0.10615071 0.31609502 0.24815778 0.058951803 0.11475218 0.4263605 0.2244673
0.32657102 0.47605747 0.28715 0.23388368 0.26473957 0.15430653 0.15485169 0.22561483
0.35743505 0.21642639 0.31584924 0.12318221 0.4274638 0.15512511 0.09810896 0.18511796
0.2779968 0.33874348 0.12126301 0.15118277 0.29376072 0.20958161 0.29870543 0.14758117
0.14665802 0.25928023 0.14382407 0.06956697 0.18798123 0.27402398 0.36234498 0.3571259
-0.09323557 0.17251635 0.30737227 0.2750505 0.41755134 0.18474191 0.12259096 0.24838503
0.05586509 0.09450557 0.3441347 0.1882632 0.2176661 0.2223593 0.19062869 0.21631716
0.14796014 0.1678138 0.29670483 0.085736826 0.2271959 0.23594353 0.45783183 0.31648856
0.26232755 0.36173818 0.14174937 0.13272947 0.27453092 0.15083666 0.1717437 0.035367887
0.3825755 0.29749742 0.2932138 0.0782934 0.3325602 0.8600875 0.23361105 0.16177918
0.33179328 0.059948776 0.10575277 0.2547509 0.35356528 0.18155997 0.14440912 0.2714446
0.013198948 0.16122037 0.36393255 0.39180583 0.28789303 0.2797738 0.28114074 0.3024549
0.29727 0.1375462 0.30018976 0.3222842 0.37564716 0.27678666 0.06852587 0.4138036
0.1575712 0.372047 0.19229582 0.17577982 0.05006538 0.1981598 0.071459025 0.30756664
0.37685025 0.25025263 0.39918715 0.08948475 0.43395865 0.35871062 0.026651394 0.11240515
0.33549353 0.13856766 0.3328409 0.34199226 0.20569696 0.14131072 0.38869306 0.19724934
0.4571026 0.27720246 0.2526751 0.18699087 0.07073213 0.20722674 0.14531156 0.13058472
0.32605007 0.13869917 0.22560951 0.0523318 0.22350368 0.19114457 0.21699168 0.03115139
0.17868441 0.47048894 0.003951062 0.19098006 -0.008855897 0.19826406 0.38296038 -0.025750728
0.26605526 0.2267599 0.23758955 0.20289397 0.2583618 0.18657212 0.13038947 0.88862765
0.24356894 0.29288805 0.24381652 0.19493869 0.11991264 0.07118373 0.16982584 0.3606149
0.1290707 0.22456118 0.32604265 0.0446396 0.20922346 0.28626156 0.22218704 0.14769886
0.07488647 -0.00080379925 0.15674646 0.1761628 0.1862624 0.18668815 0.27280885 0.21578225
0.10256229 0.16147958 1.2336309 0.12744467 0.2849351 0.20319399 0.13717707 0.1252583
0.2167844 0.12601374 0.09862637 0.1909319 0.10732721 0.29722187 0.16591148 0.1204765
0.32043457 0.21294306 0.18511535 0.19689028 0.395878 0.998395 0.20391445 0.18191132
0.2144108 0.056140203 0.09903563 0.19618289 0.22332387 0.35005862 9.122127e-05 0.18828242
0.30236587 0.18159917 0.25508928 0.07432639 0.20901297 0.5091271 0.11224366 0.04130562
0.2518346 0.10342689 0.5010009 0.14559424 0.32837734 0.23010196 0.29650664 0.29612198
0.12377833 0.04215602 0.28361648 0.2250541 0.22005981 0.3106845 0.1631116 0.02146167
00000000: c16b b13e 7108 8f3e 6a39 b63e 1816 c73e
00000010: be97 a03e c030 233e fc72 b73e 1658 bd3e
00000020: f41f 9d3e 3c2b a83d 306c 713e da28 d93e
00000030: 2410 9d3e 3373 2c3e cc40 3a3d 2f82 8b3e
00000040: 8d69 673e 8b65 d93d 35d7 a13e 131d 7e3e
00000050: 7277 713d 3103 eb3d ec4b da3e c2da 653e
00000060: 5134 a73e cebd f33e 5305 933e 347f 6f3e
00000070: f28b 873e 8802 1e3e 7191 1e3e 9307 673e
00000080: ba01 b73e e19e 5d3e feb6 a13e f446 fc3d
00000090: 89dc da3e 1ed9 1e3e 5aed c83d 908f 3d3e
000000a0: 9955 8e3e c96f ad3e be58 f83d a8cf 1a3e
000000b0: ce67 963e 909c 563e ebef 983e 851f 173e
000000c0: 852d 163e 61c0 843e 9e46 133e 2179 8e3d
000000d0: 277e 403e df4c 8c3e 4885 b93e 35d9 b63e
000000e0: 4af2 bebd 20a8 303e e65f 9d3e 6bd3 8c3e
000000f0: 4ac9 d53e fc2c 3d3e f810 fb3d a558 7e3e
00000100: cbd2 643d 238c c13d 6c32 b03e 11c8 403e
00000110: dde3 5e3e 28b2 633e 2b34 433e 3f82 5d3e
00000120: dd82 173e 61d7 2b3e b2e9 973e ca96 af3d
00000130: 0ba6 683e 2e9b 713e ef68 ea3e ca0a a23e
00000140: cc4f 863e bf35 b93e bf26 113e 3cea 073e
00000150: 518f 8c3e ed74 1a3e 95dd 2f3e ebdd 103d
00000160: f0e0 c33e 9551 983e 1f20 963e 4a58 a03d
00000170: 5545 aa3e b22e 5c3f bc37 6f3e 71a9 253e
00000180: cfe0 a93e d98c 753d e994 d83d b66e 823e
00000190: 8206 b53e dbea 393e fcdf 133e c9fa 8a3e
000001a0: 6740 583c f416 253e 5e55 ba3e c69a c83e
000001b0: b766 933e 833e 8f3e aef1 8f3e 5edb 9a3e
000001c0: c633 983e e9d8 0c3e 79b2 993e 6f02 a53e
000001d0: d354 c03e fbb6 8d3e 4b57 8c3d 11de d33e
000001e0: 585a 213e f27c be3e 32e9 443e a0ff 333e
000001f0: 5b11 4d3d 67ea 4a3e 1c59 923d 6079 9d3e
00000200: 84f2 c03e 1d21 803e 4262 cc3e c843 b73d
00000210: d42f de3e eba8 b73e 0654 da3c ac34 e63d
00000220: cfc5 ab3e aee4 0d3e 1f6a aa3e 9c19 af3e
00000230: 39a2 523e c2b3 103e c702 c73e bbfb 493e
00000240: 5a09 ea3e 7bed 8d3e a15e 813e 897a 3f3e
00000250: 02dc 903d 3f33 543e 8ecc 143e 00b8 053e
00000260: 09f0 a63e 2807 0e3e 2e06 673e df59 563d
00000270: 26de 643e 67bb 433e 1133 5e3e 3331 ff3c
00000280: 0cf9 363e ede3 f03e e977 813b 4790 433e
00000290: 5318 11bc bc05 4b3e 6213 c43e 31f3 d2bc
000002a0: 6538 883e bf33 683e ad4a 733e 70c3 4f3e
000002b0: ff47 843e c30c 3f3e d184 053e 1a7d 633f
000002c0: 236a 793e 6cf5 953e 0aab 793e 029e 473e
000002d0: c294 f53d c7c8 913d d3e6 2d3e 84a2 b83e
000002e0: 1c2b 043e 5ef3 653e 10ef a63e 03d8 363d
000002f0: ad3e 563e e090 923e 0085 633e 5f3e 173e
00000300: 145e 993d 0eb6 52ba 2582 203e 0564 343e
00000310: 92bb 3e3e 2e2b 3f3e 9aad 8b3e 06f6 5c3e
00000320: 2e0c d23d e75a 253e 9ee7 9d3f db80 023e
00000330: 03e3 913e 1612 503e 2578 0c3e b643 003e
00000340: bbfc 5d3e bf09 013e 9ffc c93d a783 433e
00000350: 5ece db3d 772d 983e b3e4 293e 62bc f63d
00000360: 0010 a43e bf0d 5a3e e18e 3d3e 9b9d 493e
00000370: 85b0 ca3e d196 7f3f f3ce 503e f646 3a3e
00000380: 818e 5b3e 45f3 653d 31d3 ca3d 2be4 483e
00000390: 03af 643e e23a b33e 0c4e bf38 1bcd 403e
000003a0: b3cf 9a3e 22f5 393e 109b 823e 6f38 983d
000003b0: 7f07 563e 2756 023f 01e0 e53d 1530 293d
000003c0: 77f0 803e 7ad1 d33d 9841 003f a816 153e
000003d0: 1321 a83e d99f 6b3e b8cf 973e 4d9d 973e
000003e0: 7e7f fd3d caab 2c3d 2e36 913e 9574 663e
000003f0: 5c57 613e 0a12 9f3e ba06 273e 62d0 af3c

bn1.weight f4 [300]
1.017231 1.5278678 1.6239465 0.91664976 0.7845445 1.3128431 1.0295149 1.0760012
1.8497119 1.4101878 2.701015 1.00735 0.7774303 1.0089676 1.0589217 1.7557985
1.4116763 1.5678838 1.0774924 1.1423947 0.6809929 2.7761583 1.4717036 1.1884476
1.6580282 0.39152667 1.9514918 0.8602364 0.51173717 1.1845944 0.9054985 1.7535212
0.6135531 1.3788155 2.1409264 0.97311264 1.9137905 1.4370844 1.2634697 1.9822271
1.8862648 2.736452 1.5961907 0.76399827 1.3326557 0.90059865 1.2465372 1.463943
1.3999486 1.0012348 1.0438818 1.2427945 0.9795413 2.2356198 1.5556699 0.8975106
1.8684934 1.5787472 1.1277575 0.50423825 0.40884826 1.2348821 1.6257588 1.7069753
2.9422865 1.727045 2.7884953 0.7579172 1.5114856 1.0771514 0.9950695 1.1546376
2.2456408 1.0537021 1.4749751 0.91200495 1.2030374 1.8689029 1.6197741 1.6630388
1.491672 0.89665204 1.7307061 2.252768 1.276335 0.92100215 1.7223388 1.6247383
0.81002045 2.2307107 2.5133567 1.5943897 0.6243391 0.14226997 1.6019195 2.2127793
1.1726469 0.7098717 1.911971 1.7883408 1.63868 1.4412571 1.8172408 1.6645229
0.9721241 1.1166896 1.3572619 1.5137322 2.6150434 1.2849054 1.4186766 0.9182904
0.8894355 1.0826231 1.6088203 0.9925602 0.6798096 0.8598875 1.6528221 1.7523094
1.4227071 2.0558572 1.6290634 1.6292772 1.7062665 0.9122597 1.5186808 1.0764562
1.4918075 0.55882066 1.4386665 1.1162205 0.84310406 1.7054547 0.96462214 2.3193512
1.9254204 1.4084982 1.6549393 0.58242095 1.484962 1.0933466 1.0786616 0.7770479
1.8602344 0.9236219 1.9901776 1.1884235 0.7833304 1.7293205 0.7384033 1.1426117
1.7081139 0.9055418 1.0291939 0.7893738 0.83870065 0.48903042 1.4407792 1.4732738
1.2721075 1.1985648 0.8408718 0.84100467 1.9256438 1.3760886 0.8886054 1.9198252
1.4115574 1.7536834 1.6292042 1.6034435 1.556435 0.86288196 0.7486878 0.1772951
1.6482348 2.030735 2.0580435 1.6416414 0.997463 1.4556248 1.1491764 0.9953973
1.212782 1.3261352 1.2284942 1.346241 1.1922485 1.5072511 1.4435471 1.6015868
1.2906642 1.1168344 1.8030028 1.525369 1.3032917 1.3046521 0.8481974 1.4551885
1.0281601 1.3980993 0.10190862 1.8163822 1.5312383 1.4961076 1.1014072 2.0982633
1.361001 1.7080433 2.7103593 0.73246866 2.1722872 1.236973 0.92947775 1.7144887
0.6396769 1.3713825 1.7578465 1.9380704 2.0207267 0.12035574 0.92561144 0.96944046
1.3108996 1.4364604 1.3409386 1.4878515 1.3990978 1.3277521 1.4971093 1.844375
1.3829885 0.9325066 0.77541673 2.210497 2.5108168 1.951212 1.5833837 1.7606188
1.1016381 1.8074311 1.4877902 1.9913881 2.27096 2.1576014 0.65688366 0.96876234
0.7524155 1.5520022 1.2608589 1.4571401 1.7865958 0.6415981 1.4293648 1.6153505
00000000: a034 823f 2c91 c33f 7bdd cf3f 8fa9 6a3f
00000010: e9d7 483f 3e0b a83f 25c7 833f 68ba 893f
00000020: 5cc3 ec3f 0981 b43f 6edd 2c40 d8f0 803f
00000030: ac05 473f da25 813f bf8a 873f 01be e03f
00000040: cfb1 b43f 6bb0 c83f 45eb 893f fd39 923f
00000050: 8d55 2e3f 94ac 3140 c960 bc3f 0d1f 983f
00000060: 453a d43f 2f76 c83e 7cca f93f 7438 5c3f
00000070: 3501 033f caa0 973f c0ce 673f 6273 e03f
00000080: d111 1d3f 077d b03f f004 0940 e91d 793f
00000090: 16f7 f43f 62f2 b73f 60b9 a13f 9eb9 fd3f
000000a0: 2071 f13f 0822 2f40 fa4f cc3f 6495 433f
000000b0: 7694 aa3f a28d 663f 888e 9f3f 7c62 bb3f
000000c0: 8431 b33f 7628 803f eb9d 853f e413 9f3f
000000d0: 38c3 7a3f 6514 0f40 3120 c73f 41c3 653f
000000e0: cb2a ef3f 6314 ca3f 5c5a 903f c215 013f
000000f0: 8f54 d13e 9e10 9e3f dd18 d03f 2b7e da3f
00000100: 6c4e 3c40 d00f dd3f b576 3240 dd06 423f
00000110: 5c78 c13f 19e0 893f e0bc 7e3f 2acb 933f
00000120: 94b8 0f40 b6df 863f fccb bc3f 2879 693f
00000130: 21fd 993f 3638 ef3f c254 cf3f 75de d43f
00000140: 1cef be3f fd8a 653f c787 dd3f 5a2d 1040
00000150: f25e a33f ccc6 6b3f 9975 dc3f 6df7 cf3f
00000160: 805d 4f3f f7c3 0e40 d6da 2040 f614 cc3f
00000170: b0d4 1f3f 38af 113e b30b cd3f 2d9e 0d40
00000180: 4b19 963f 27ba 353f 77bb f43f 5ae8 e43f
00000190: 44c0 d13f 1d7b b83f 599b e83f 160f d53f
000001a0: 20dd 783f afef 8e3f c2ba ad3f fac1 c13f
000001b0: df5c 2740 c877 a43f 3297 b53f 1415 6b3f
000001c0: 0cb2 633f 6593 8a3f d3ed cd3f 6d18 7e3f
000001d0: 0008 2e3f 9621 5c3f ad8f d33f ad4b e03f
000001e0: 441b b63f 2a93 0340 2685 d03f 288c d03f
000001f0: f166 da3f da89 693f 2264 c23f 51c9 893f
00000200: 8cf3 be3f df0e 0f3f 3926 b83f 50e0 8e3f
00000210: abd5 573f 574c da3f 7af1 763f 4070 1440
00000220: 2d74 f63f ab49 b43f 0dd5 d33f 8a19 153f
00000230: 3c13 be3f c8f2 8b3f 9511 8a3f 9cec 463f
00000240: 291c ee3f 7c72 6c3f 24be fe3f 431e 983f
00000250: 5788 483f 605a dd3f 0008 3d3f 1a41 923f
00000260: 7aa3 da3f 96d1 673f a0bc 833f 6714 4a3f
00000270: 16b5 563f 3262 fa3e 746b b83f 3c94 bc3f
00000280: 6bd4 a23f 926a 993f 6043 573f 154c 573f
00000290: 7f7b f63f ac23 b03f a57b 633f d5bc f53f
000002a0: eaad b43f b378 e03f c389 d03f a33d cd3f
000002b0: 4339 c73f d5e5 5c3f 01aa 3f3f d98c 353e
000002c0: 5cf9 d23f 90f7 0140 fcb6 0340 4e21 d23f
000002d0: bc59 7f3f ea51 ba3f 3618 933f 5cd2 7e3f
000002e0: 713c 9b3f ccbe a93f 4c3f 9d3f a051 ac3f
000002f0: 999b 983f 9bed c03f 27c6 b83f cc00 cd3f
00000300: 7c34 a53f 6ef4 8e3f ccc8 e63f 4b3f c33f
00000310: 43d2 a63f d7fe a63f 7723 593f 9e43 ba3f
00000320: c09a 833f ebf4 b23f 77b5 d03d 367f e83f
00000330: 9eff c33f 7480 bf3f e9fa 8c3f f249 0640
00000340: 4835 ae3f 2aa1 da3f 8776 2d40 1183 3b3f
00000350: c106 0b40 2255 9e3f 41f2 6d3f 5e74 db3f
00000360: dec1 233f 7689 af3f 1d01 e13f b112 f83f
00000370: 9653 0140 127d f63d dff4 6c3f 402d 783f
00000380: 8fcb a73f efdd b73f e0a3 ab3f eb71 be3f
00000390: a315 b33f c8f3 a93f 47a1 bf3f 7b14 ec3f
000003a0: c405 b13f c1b8 6e3f b681 463f c878 0d40
000003b0: 39b1 2040 51c1 f93f 51ac ca3f f55b e13f
000003c0: 7a02 8d3f e759 e73f e96f be3f cee5 fe3f
000003d0: 6957 1140 2416 0a40 8729 283f cf00 783f
000003e0: 4d9e 403f 02a8 c63f d363 a13f 9183 ba3f
000003f0: 2caf e43f c63f 243f 6df5 b63f cec3 ce3f

bn1.bias f4 [300]
-0.42253545 -0.47974253 -0.5082906 -0.5799576 -0.69349176 -0.34749553 -0.25714472 -0.6542797
-0.3402202 -0.097896345 -0.21993531 -0.34367356 -0.62924474 -0.35146853 -0.4918905 -0.39787748
0.0014260748 -0.5677164 -0.4388429 -0.42637318 -0.4050272 -0.06265958 -0.37394732 -0.31365857
-0.31331137 -1.0760044 -0.5502723 -0.4929149 -0.82201487 -0.50271094 -0.48671135 -0.3252391
-0.77289665 -0.17729275 -0.33158115 -0.4489606 -0.043590385 -0.53546804 -0.31795168 -0.36658245
-0.50542694 -0.4573099 -0.31581464 -0.75920224 -0.22863469 -0.41676733 -0.24150656 -0.2361455
-0.012145986 -0.651793 -0.6184002 -0.3718475 -0.109300956 0.08158342 -0.3539137 -0.43899825
-0.3933086 -0.34491625 -0.5594132 -0.8019908 -0.8049544 -0.40037575 -0.4660701 -0.110754855
-0.13885823 -0.34019104 -0.54002494 -0.5636878 -0.3160211 -0.36607853 -0.55117166 -0.6532978
-0.4148024 -0.5336374 -0.43337396 -0.4326852 -0.61886245 -0.29361227 -0.1390236 -0.18487264
-0.20652379 -0.44256616 -0.35067356 -0.3612003 -0.58023643 -0.60881734 0.012503825 -0.31809533
-0.7059048 -0.091328554 -0.19588974 -0.19274163 -0.79224306 -0.9893321 -0.10857691 -0.55473703
-0.09026471 -0.8000831 -0.41672847 -0.41834202 -0.10050465 -0.21669307 -0.2560068 -0.36855903
-0.40570596 -0.49228787 -0.34882256 -0.19995873 -0.073835336 -0.59386384 -0.37090284 -0.7118785
-0.7622106 -0.5652887 -0.31637394 -0.6171236 -0.6167547 -0.60047233 -0.32216212 -0.06695948
-0.442415 0.043373093 -0.46764335 -0.10260329 -0.44486293 -0.5765217 -0.29634523 -0.21065
-0.28688842 -0.5791697 -0.497429 -0.43093637 -0.70727277 -0.023987038 -0.23558536 -0.19527036
-0.0150274355 -0.49811134 -0.35661936 -0.81010514 -0.19491425 -0.6216954 -0.6009827 -0.685111
-0.21282697 -0.3386841 -0.059246473 -0.45912656 -0.3827473 -0.065425254 -0.39591777 -0.45551318
-0.3171436 -0.6801389 -0.45318082 -0.13588041 -0.6661544 -0.6938477 -0.2368933 -0.2837261
-0.5720487 -0.3355509 -0.5311307 -0.6015107 -0.42025167 -0.18833062 -0.8732438 -0.095165946
-0.15699492 -0.40940654 -0.6421115 -0.25372088 -0.3874912 -0.3443289 -0.59542763 -0.9586674
-0.3112642 -0.30346087 -0.10044963 -0.4527459 -0.3600409 -0.48197052 -0.39473608 -0.3855753
-0.3399623 -0.4886256 -0.43251553 -0.5503987 -0.45355317 -0.18912733 -0.3065189 -0.32409638
-0.3722733 -0.44282624 -0.13580294 -0.5243961 -0.38784942 -0.5260607 -0.75088406 -0.38417017
-0.5400452 -0.41796902 -1.1459398 -0.428892 -0.28094223 -0.4962516 -0.32915303 -0.17909123
-0.13022599 -0.22048831 -0.36462593 -0.5358486 -0.3585493 -0.6182774 -0.561935 -0.20386112
-0.568007 -0.5141578 -0.25872353 -0.09138952 -0.2647162 -0.9797571 -0.31888255 -0.512418
-0.42855516 -0.43005347 -0.38012743 -0.36015946 -0.36342108 -0.56883687 -0.29675207 -0.3192698
-0.22316201 -0.4347798 -0.82163084 -0.03658313 0.021367168 -0.45261416 -0.52457523 -0.48304495
-0.4567043 -0.09886242 -0.40275693 -0.5293409 -0.08058708 -0.23302156 -0.39525175 -0.5680462
-0.52436614 -0.3274689 -0.019914415 -0.49571842 -0.15104547 -0.41999775 -0.5684082 -0.34736925
00000000: 9156 d8be d0a0 f5be 551f 02bf 1a78 14bf
00000010: ad88 31bf efea b1be 79a8 83be e07e 27bf
00000020: 5831 aebe e17d c8bd b936 61be fbf5 afbe
00000030: 2f16 21bf aff3 b3be 12d9 fbbe 99b6 cbbe
00000040: 21eb ba3a dd55 11bf 04b0 e0be 964d dabe
00000050: ba5f cfbe aa53 80bd 0676 bfbe db97 a0be
00000060: 596a a0be 83ba 89bf a5de 0cbf 575f fcbe
00000070: 916f 52bf aab1 00bf 3b32 f9be bd85 a6be
00000080: 8edc 45bf 3b8c 35be 01c5 a9be 2ade e5be
00000090: d58b 32bd 6f14 09bf 90ca a2be b2b0 bbbe
000000a0: a963 01bf 8624 eabe 75b2 a1be 145b 42bf
000000b0: 361f 6abe 8762 d5be 7f4d 77be 20d0 71be
000000c0: f5ff 46bc e8db 26bf 7a4f 1ebf cc62 bebe
000000d0: 2ed9 dfbd 3515 a73d 2d34 b5be 61c4 e0be
000000e0: bf5f c9be dd98 b0be b435 0fbf 454f 4dbf
000000f0: 7e11 4ebf 0dfe ccbe bda0 eebe 71d3 e2bd
00000100: da30 0ebe 852d aebe 133f 0abf d84d 10bf
00000110: 85cd a1be a56e bbbe 9619 0dbf 863e 27bf
00000120: fb60 d4be 769c 08bf 31e3 ddbe ea88 ddbe
00000130: c56d 1ebf 5954 96be 345c 0ebe 414f 3dbe
00000140: f97a 53be 0898 e2be 7c8b b3be 3fef b8be
00000150: 608a 14bf 74db 1bbf d8dc 4c3c 64dd a2be
00000160: 2db6 34bf 770a bbbd 5297 48be 105e 45be
00000170: 71d0 4abf de44 7dbf 925d debd 3f03 0ebf
00000180: b4dc b8bd 3fd2 4cbf 6f5d d5be ed30 d6be
00000190: 62d5 cdbd cae4 5dbe 5313 83be c5b3 bcbe
000001a0: b1b8 cfbe 280d fcbe df98 b2be fbc1 4cbe
000001b0: fb36 97bd 7607 18bf fae6 bdbe ab3d 36bf
000001c0: 3c20 43bf c3b6 10bf c4fb a1be d0fb 1dbf
000001d0: a3e3 1dbf 8eb8 19bf 6ff2 a4be 0d22 89bd
000001e0: 3884 e2be fca7 313d f36e efbe ac21 d2bd
000001f0: 13c5 e3be ed96 13bf 90ba 97be a2b4 57be
00000200: 0ae3 92be 7744 14bf 04af febe b1a3 dcbe
00000210: d40f 35bf 7780 c4bc 4a3d 71be f4f4 47be
00000220: a235 76bc 7308 ffbe d096 b6be 0d63 4fbf
00000230: 9a97 47be 6e27 1fbf 01da 19bf 6f63 2fbf
00000240: 50ef 59be 0168 adbe 6eac 72bd a312 ebbe
00000250: 74f7 c3be adfd 85bd bcb5 cabe 0639 e9be
00000260: a560 a2be 951d 2ebf 5107 e8be 3c24 0bbe
00000270: 1889 2abf 01a0 31bf 2894 72be 8c44 91be
00000280: c971 12bf 54cd abbe 2ef8 07bf 9bfc 19bf
00000290: 3a2b d7be bed9 40be e88c 5fbf 5de6 c2bd
000002a0: 47c3 20be bc9d d1be 6b61 24bf b4e7 81be
000002b0: 3f65 c6be e14b b0be f26d 18bf 3a6b 75bf
000002c0: 055e 9fbe 395f 9bbe 89b8 cdbd 50ce e7be
000002d0: 4857 b8be d7c4 f6be d91a cabe 206a c5be
000002e0: 8a0f aebe 222d fabe ad72 ddbe eee6 0cbf
000002f0: 1f38 e8be 98aa 41be 0cf0 9cbe f6ef a5be
00000300: 9b9a bebe 1fba e2be ed0f 0bbe d33e 06bf
00000310: 3394 c6be eaab 06bf f039 40bf f4b1 c4be
00000320: 6740 0abf 0900 d6be 28ae 92bf bb97 dbbe
00000330: a9d7 8fbe b114 febe bf86 a8be b163 37be
00000340: f659 05be b0c7 61be 40b0 babe 602d 09bf
00000350: c693 b7be 6d47 1ebf f9da 0fbf f8c0 50be
00000360: e868 11bf d89f 03bf 6977 84be 6e2a bbbd
00000370: e288 87be 5cd1 7abf 9344 a3be d32d 03bf
00000380: 956b dbbe f82f dcbe 10a0 c2be d266 b8be
00000390: 5412 babe 4b9f 11bf e3ef 97be 5577 a3be
000003a0: 9584 64be 759b debe 6656 52bf 31d8 15bd
000003b0: 330a af3c 0bbd e7be 904a 06bf ab51 f7be
000003c0: 25d5 e9be 6178 cabd 2836 cebe e382 07bf
000003d0: d70a a5bd 349d 6ebe 705e cabe 7a6b 11bf
000003e0: dc3c 06bf 01aa a7be 8e23 a3bc cece fdbe
000003f0: aaab 1abe f209 d7be 3383 11bf 62da b1be

l2.weight f4 [300, 300]
-0.030110858 0.72541475 -0.2817073 6.774845e-05 0.15624245 0.26105258 0.5080391 0.1687395
0.54575944 1.1727499 -0.9399401 0.49721277 -0.08559179 0.08332935 0.11534356 0.8320146
-0.015982902 -0.33952048 0.5775171 0.12730466 -0.38889295 -0.7353572 -0.07471216 -0.2885769
0.36673713 0.050344482 1.0695039 0.12589464 0.042636298 -0.3122679 0.11854846 0.25130156
0.38627687 -0.28627822 0.22232354 -0.22314195 0.82875174 0.8291214 0.5309015 0.39393467
0.43222633 0.46030563 -0.3584536 0.05118447 -0.2826951 0.33611098 0.17228131 0.35035327
0.7646504 0.2964504 0.28421906 -0.8147396 0.63350075 -0.090652496 0.4230038 0.6837074
-0.011473839 -0.3556018 -0.2678064 0.69194067 0.7645531 0.731261 -0.022715943 0.22252636
-0.10052871 0.05620114 -0.22820191 0.15439975 0.12359531 -0.031816535 -0.55479 0.5312434
0.28363022 0.4325988 0.5322467 0.30906963 -0.33684403 0.13930582 -0.1624062 0.6129308
0.031092696 0.5895718 0.6833695 0.68177634 0.49781132 -0.2103932 0.7399396 0.573023
-0.7509548 -0.014835703 0.3808543 0.31630757 -0.27114245 0.20509166 0.22087796 -0.5168758
0.09838415 0.089938045 0.21493398 0.3073181 0.8554294 -0.03214838 -0.19334896 0.56436235
0.66022134 -0.1762189 0.56163824 0.30395293 -0.34499127 0.45007107 0.004061021 -0.20131837
0.4309525 -0.092225246 -0.35898283 -0.27779722 0.22679326 0.56018394 0.4066203 -0.025500624
-0.6793325 -1.1487758 -0.09231269 -0.57815176 -0.20454963 0.13247393 -0.5868087 0.14220275
-0.13773301 -0.10308079 0.5401232 -0.37497064 0.33331493 0.9333118 -0.11519769 -0.55835134
0.9102117 0.7737184 -0.61290246 0.3790081 -0.23200859 0.1371341 -0.062309686 -0.23330851
0.34053442 1.1014764 0.48281515 0.33027843 -0.51098615 0.37615082 -0.71145934 -0.0516538
0.054466043 0.11141302 -0.23575716 0.49295065 -0.60414857 0.0436156 -0.014856135 -0.4548638
-0.11192636 -0.6841124 -0.086278684 0.25725135 -0.094228804 0.54823214 -0.8347853 0.2340047
0.7078525 0.82606155 0.46608704 1.2740802 0.39893112 0.15291221 0.21658564 0.021376068
0.1486284 -0.19227657 0.6318371 0.52654755 -0.01877254 -0.82048994 0.16059615 0.70568967
0.824364 -0.78246534 0.30017713 0.19776899 0.40761933 -0.36541665 0.6210957 -0.5137679
0.5409371 0.36767662 0.05254632 0.6087901 0.60163 0.02477565 -0.21410593 0.2382418
0.102676876 -0.18248469 0.14163645 0.30453068 0.2983289 0.30644393 0.084323674 0.8242343
0.29900333 0.5122859 -0.535366 0.34652913 0.66473943 0.44370136 0.47558188 0.605887
0.40650362 0.5777843 0.371247 0.14473426 -0.06566059 0.24756525 0.55952847 0.120465964
-0.23889908 0.2333011 0.33692002 0.8551447 -0.1823817 0.51777893 0.107999615 0.29939362
0.20699692 -0.233337 0.2657152 0.38811937 0.294531 -0.3878127 0.08486621 -0.6390497
0.82584983 -1.2132356 0.0035431234 0.069927804 -1.181353 0.15251438 0.3872386 -0.021947468
-0.221066 -0.0653781 0.74275106 0.577221 -0.25576386 0.32098857 -0.46706593 -0.10872286
00000000: 0cab f6bc c8b4 393f f03b 90be 2c14 8e38
00000010: 05fe 1f3e afa8 853e da0e 023f 0cca 2c3e
00000020: e4b6 0b3f ab1c 963f ea9f 70bf ac92 fe3e
00000030: c04a afbd 94a8 aa3d 3f39 ec3d e9fe 543f
00000040: 93ee 82bc a1d5 adbe 29d8 133f 275c 023e
00000050: fa1c c7be 5f40 3cbf b002 99bd 5ac0 93be
00000060: f8c4 bb3e 0436 4e3d 81e5 883f 86ea 003e
00000070: 66a3 2e3d 94e1 9fbe 89c9 f23d 99aa 803e
00000080: 15c6 c53e 0f93 92be c8a8 633e 537f 64be
00000090: 1329 543f 4d41 543f 29e9 073f ceb1 c93e
000000a0: c54c dd3e 2ead eb3e 3b87 b7be cfa6 513d
000000b0: 6abd 90be bd16 ac3e 836a 303e 8161 b33e
000000c0: 21c0 433f 59c8 973e 2985 913e c692 50bf
000000d0: 1b2d 223f 04a8 b9bd f493 d83e 7307 2f3f
000000e0: c5fc 3bbc 7011 b6be ec1d 89be 0623 313f
000000f0: c1b9 433f ec33 3b3f c916 babc f3dd 633e
00000100: ffe1 cdbd 2b33 663d c3ad 69be f81a 1e3e
00000110: 8a1f fd3d 0e52 02bd b806 0ebf 91ff 073f
00000120: fb37 913e 977d dd3e 5241 083f 603e 9e3e
00000130: d276 acbe 2fa6 0e3e d04d 26be 08e9 1c3f
00000140: 1cb6 fe3c 2dee 163f 4ef1 2e3f e588 2e3f
00000150: 20e1 fe3e 5171 57be ae6c 3d3f a3b1 123f
00000160: 933e 40bf 7311 73bc 56ff c23e 11f3 a13e
00000170: 2fd3 8abe 8c03 523e d52d 623e f951 04bf
00000180: a17d c93d 7031 b83d a717 5c3e cc58 9d3e
00000190: 6cfd 5a3f 05ae 03bd 45fd 45be 0d7a 103f
000001a0: 4404 293f ba72 34be 86c7 0f3f b89f 9b3e
000001b0: b2a2 b0be b76f e63e 5012 853b 6726 4ebe
000001c0: cea5 dc3e 97e0 bcbd 99cc b7be 703b 8ebe
000001d0: 7e3c 683e 3768 0f3f 8930 d03e afe6 d0bc
000001e0: bce8 2dbf 160b 93bf 700e bdbd c101 14bf
000001f0: 7575 51be 3fa7 073e 1839 16bf 999d 113e
00000200: e209 0dbe 051c d3bd 8445 0a3f 27fc bfbe
00000210: 41a8 aa3e 86ed 6e3f c4ec ebbd 1df0 0ebf
00000220: a203 693f 6912 463f 2de7 1cbf 5a0d c23e
00000230: a993 6dbe e26c 0c3e 7138 7fbd 6de8 6ebe
00000240: 875a ae3e 2efd 8c3f 8c33 f73e 411a a93e
00000250: fdcf 02bf d796 c03e 3322 36bf ef92 53bd
00000260: c917 5f3d 822c e43d 536a 71be 0764 fc3e
00000270: 7ba9 1abf 45a6 323d 2567 73bc e8e3 e8be
00000280: a639 e5bd fe21 2fbf e1b2 b0bd 73b6 833e
00000290: 08fb c0bd f158 0c3f 7db4 55bf ee9e 6f3e
000002a0: d235 353f c578 533f f6a2 ee3e 0f15 a33f
000002b0: b340 cc3e 0595 1c3e a0c8 5d3e dd1c af3c
000002c0: 0b32 183e 26e4 44be 14c0 213f d2cb 063f
000002d0: dfc8 99bc a10b 52bf 5173 243e 14a8 343f
000002e0: 8509 533f a64f 48bf d1b0 993e f483 4a3e
000002f0: 7bb3 d03e e417 bbbe 2100 1f3f 4b86 03bf
00000300: db7a 0a3f 1c40 bc3e cf3a 573d abd9 1b3f
00000310: 6c04 1a3f 4ef6 ca3c 963e 5bbe a9f5 733e
00000320: 4148 d23d 44dd 3abe 2509 113e 72eb 9b3e
00000330: 91be 983e 38e6 9c3e e4b1 ac3d 0501 533f
00000340: f716 993e 2b25 033f bf0d 09bf 446c b13e
00000350: 5d2c 2a3f d32c e33e 787f f33e 691b 1b3f
00000360: 3e21 d03e ace9 133f 1614 be3e 3835 143e
00000370: 0f79 86bd bf81 7d3e 423d 0f3f dcb6 f63d
00000380: f6a1 74be 7ce6 6e3e c880 ac3e c3ea 5a3f
00000390: 45c2 3abe 298d 043f e72e dd3d 1f4a 993e
000003a0: 00f7 533e e5ef 6ebe d30b 883e 95b7 c63e
000003b0: c4cc 963e 638f c6be 56ce ad3d c398 23bf
000003c0: e56a 533f 4e4b 9bbf bf33 683b 4f36 8f3d
000003d0: 9336 97bf bb2c 1c3e 2344 c63e 2dcb b3bc
000003e0: 205f 62be f4e4 85bd ef24 3e3f c1c4 133f
000003f0: 7bf3 82be 9d58 a43e 4423 efbe 17aa debd

l2.bias f4 [300]
0.18966702 0.28108525 0.8324194 0.05682173 0.3440835 0.34857938 0.5500163 0.79245687
0.0344548 0.15751126 0.2627714 -0.045620766 0.3176939 0.18067734 0.62224275 0.14668699
0.16614053 -0.14829175 -0.057574596 0.073861584 0.026184393 0.24013154 0.31051207 -0.09566037
0.011759139 0.045110162 0.9711165 -0.2591503 -0.08187147 0.3282567 0.3633451 -0.12400011
0.17534444 0.07047264 0.36468372 0.3162945 -0.11974985 2.6082154e-05 0.38191277 -0.21798553
-0.027516104 -0.014066792 0.13336918 0.5819536 -0.06443712 0.081356056 0.070349894 -0.14344577
-0.15312175 0.30275363 0.3344471 0.007330409 0.441818 0.1809728 0.43212694 0.41419852
0.35478494 0.5033279 0.3029538 0.024581164 -0.088401854 0.31210166 0.5236307 -0.3518255
0.32886377 0.25129187 -0.14054035 0.20433941 0.075944304 -0.019866949 -0.08517724 0.1384574
0.49477175 0.5188617 0.19089 -0.08978723 0.1596269 0.1272445 0.22220005 0.35568422
0.053372208 0.22796062 -0.17229366 -0.09698946 0.051945977 0.0591254 -0.055819422 0.22639939
0.035534475 0.6249003 0.52788836 0.45828238 0.86282474 -0.21349643 0.07933586 -0.29797822
0.42796028 0.27409235 0.12798226 0.04231182 -0.007817013 0.22178106 -0.30318904 0.026850045
0.4734894 0.20530015 0.1976015 0.36372387 0.2426083 0.15261482 0.09271309 0.32693586
0.6021577 0.43635282 0.18328364 0.094093904 0.005186882 -0.0049328078 0.17911182 0.25830454
0.23595919 -0.07913872 0.27018717 0.21454266 0.02859611 0.0044989665 -0.022939079 0.33677512
2.6387777 0.23115085 -0.18080407 0.15794264 0.22201587 -0.34153232 0.123950094 -0.062077913
0.07232167 0.4987589 2.5869672 0.14211497 0.44334134 -0.03134446 0.1352079 0.022012092
-0.0504678 0.1168517 0.21051413 0.6731787 -0.20415582 0.43507683 0.120846406 0.23108698
-0.0557709 -0.013407662 -0.09437154 -0.25397858 0.07957305 0.3417409 0.6114904 0.22122885
0.57432514 0.21687654 0.55285066 0.2897288 0.35128602 0.30771008 0.065344974 0.28851128
0.15064456 0.22248793 0.41208616 0.2217866 0.107002735 0.29146588 0.07432505 0.14529316
0.11423157 0.17007527 0.17276646 0.053515352 0.12425539 0.41120648 -0.17002387 -0.049212042
-0.14126806 0.4260841 -0.22534123 -0.097083256 0.1818332 0.044452757 0.17767888 0.41814706
0.17593834 0.5636567 -0.09157831 -0.23997922 0.4647963 0.5485909 0.09285313 1.4498955
0.11872984 0.1778695 -0.001228303 -0.25255224 -0.24369694 -0.16113901 -0.017218446 0.034050263
-0.020800643 0.25772583 -0.23036379 2.6994553 0.15037423 0.43547893 0.23812588 0.45736846
-0.13931872 -0.0709216 0.18263936 0.11254039 -0.01169905 0.032426808 0.13363272 0.039117016
0.69670224 -0.34193817 0.44113106 2.4634984 0.02873536 0.09822954 0.6962529 0.30080286
-0.078814946 0.2845942 2.6894631 -0.30482697 -0.10653195 0.01911097 0.005255942 -0.10342335
0.14805481 0.6377243 -0.043280464 -0.30189565 0.25041428 0.18059911 -0.24098144 0.79640573
0.012440204 -0.048277214 0.15295547 0.3699889 0.08535076 0.5466012 0.07077085 0.2836103
00000000: 1238 423e 68ea 8f3e 7019 553f e7bd 683d
00000010: b62b b03e ff78 b23e decd 0c3f 74de 4a3f
00000020: 7a20 0d3d a24a 213e f989 863e d7dc 3abd
00000030: c6a8 a23e 7b03 393e 4d4b 1f3f 1d35 163e
00000040: be20 2a3e cbd9 17be 57d3 6bbd be44 973d
00000050: a780 d63c 0be5 753e 70fb 9e3e 96e9 c3bd
00000060: 67a9 403c 6fc5 383d 179b 783f 59af 84be
00000070: 3bac a7bd 4311 a83e 5e08 ba3e c5f3 fdbd
00000080: 7e8d 333e f653 903d d3b7 ba3e 5af1 a13e
00000090: 693f f5bd 00cb da37 128a c33e 9937 5fbe
000000a0: 7469 e1bc 6778 66bc ee91 083e e9fa 143f
000000b0: 9cf7 83bd 019e a63d 9b13 903d 73e3 12be
000000c0: f3cb 1cbe 8602 9b3e a63c ab3e ed33 f03b
000000d0: f835 e23e ef50 393e be3f dd3e d411 d43e
000000e0: 5fa6 b53e 19da 003f c31c 9b3e 705e c93c
000000f0: 080c b5bd cacb 9f3e a90c 063f 7922 b4be
00000100: d560 a83e 54a9 803e cfe9 0fbe 5a3e 513e
00000110: b088 9b3d 03c0 a2bc 6871 aebd c7c7 0d3e
00000120: b952 fd3e 1fd4 043f ab78 433e 5ee2 b7bd
00000130: 3c75 233e 624c 023e 6988 633e 3e1c b63e
00000140: d19c 5a3d 826e 693e c06d 30be 69a2 c6bd
00000150: 4ec5 543d 7a2d 723d e8a2 64bd 3ed5 673e
00000160: 998c 113d 77f9 1f3f b123 073f fda3 ea3e
00000170: 15e2 5c3f cf9e 5abe d77a a23d 9a90 98be
00000180: 9c1d db3e d555 8c3e c80d 033e 294f 2d3d
00000190: ee12 00bc 931a 633e 983b 9bbe a0f4 db3c
000001a0: 346d f23e 343a 523e 0c58 4a3e 043a ba3e
000001b0: 4f6e 783e 0f47 1c3e 5ce0 bd3d 2364 a73e
000001c0: 0227 1a3f a369 df3e b5ae 3b3e 4eb4 c03d
000001d0: b8f6 a93b 64a3 a1bb 1769 373e 7e40 843e
000001e0: 499f 713e 7b13 a2bd f955 8a3e 12b1 5b3e
000001f0: 6442 ea3c 116c 933b bcea bbbc ca6d ac3e
00000200: bce1 2840 cfb2 6c3e b424 39be b7bb 213e
00000210: 2158 633e 53dd aebe 8cd9 fd3d 6945 7ebd
00000220: 621d 943d 545d ff3e df90 2540 9686 113e
00000230: a3fd e23e 0c63 00bd f173 0a3e b452 b43c
00000240: 53b7 4ebd f24f ef3d 0491 573e 7055 2c3f
00000250: 390e 51be 64c2 de3e 527e f73d 11a2 6c3e
00000260: 0770 64bd cfab 5bbc de45 c1bd 7b09 82be
00000270: 32f7 a23d aaf8 ae3e a38a 1c3f d189 623e
00000280: f906 133f e214 5e3e 9f87 0d3f 5557 943e
00000290: c3db b33e 2d8c 9d3e 96d3 853d c0b7 933e
000002a0: 9142 1a3e e0d3 633e f5fc d23e 071c 633e
000002b0: 4024 db3d 043b 953e bb37 983d bbc7 143e
000002c0: 3ef2 e93d 3628 2e3e b1e9 303e ea32 5b3d
000002d0: 9c79 fe3d a889 d23e bd1a 2ebe 9192 49bd
000002e0: 93a8 10be b227 da3e dabf 66be 96d3 c6bd
000002f0: 7b32 3a3e 1814 363d 74f1 353e 5f17 d63e
00000300: 2e29 343e ce4b 103f 698d bbbd 1dbd 75be
00000310: c8f9 ed3e 7470 0c3f c829 be3d 2d96 b93f
00000320: a128 f33d 6c23 363e 02ff a0ba 874e 81be
00000330: b18b 79be a001 25be b30d 8dbc 4a78 0b3d
00000340: 1c66 aabc a4f4 833e 7ce4 6bbe e0c3 2c40
00000350: b4fb 193e 18f7 de3e 45d7 733e 332c ea3e
00000360: 91a9 0ebe 583f 91bd d005 3b3e 937b e63d
00000370: 5fad 3fbc f9d1 043d 04d7 083e 2a39 203d
00000380: 145b 323f 8512 afbe eedb e13e f5a9 1d40
00000390: 6b66 eb3c 922c c93d a13d 323f d502 9a3e
000003a0: bb69 a1bd 55b6 913e 2a20 2c40 4812 9cbe
000003b0: 6c2d dabd 9c8e 9c3c 093a ac3b 9fcf d3bd
000003c0: ae9b 173e e641 233f db46 31bd 1192 9abe
000003d0: 4d36 803e f9ee 383e d7c3 76be 3fe1 4b3f
000003e0: ffd1 4b3c 54be 45bd 5ca0 1c3e 2f6f bd3e
000003f0: 61cc ae3d 0eee 0b3f 4ff0 903d 5f35 913e

bn2.weight f4 [300]
1.3715119 1.840658 0.4653638 1.4953551 1.9500189 1.8249238 1.7101932 0.54016376
1.4652218 1.8314939 1.4983523 1.5007559 1.4177433 1.0284072 0.7287884 1.362301
2.0143466 2.3423016 1.6678498 1.4662 1.5565897 2.069855 1.6421709 1.4238192
1.9851828 1.3621987 0.65263665 2.8449264 2.657122 1.6395385 1.3862356 1.916987
1.178747 1.7565943 1.776047 1.7986954 2.4275947 1.6782694 1.1987188 1.9660385
1.455491 1.7062294 1.9424596 1.0052853 2.0437346 1.8478855 1.9189522 2.5722446
2.210322 2.1450922 2.5242288 1.7154698 1.8208776 1.2470921 1.5549653 1.2593954
1.7911936 1.6948849 1.4727902 2.039866 2.1581187 1.3787552 0.9001111 2.6383634
1.5523596 1.615173 2.8010597 1.4638853 2.4614887 1.9609787 1.7100476 1.5628349
0.99147344 1.1177045 1.8955402 1.5097716 1.5597878 1.9394289 2.2257607 1.4414134
1.4238102 1.7324157 1.9312924 1.8503561 2.2225907 1.7518623 1.8122709 1.2446963
1.6875116 0.96825665 2.0627732 1.1288918 0.6340435 1.5830891 2.1525002 2.0004895
1.2978997 2.0909278 1.4872003 1.5034145 1.7653695 2.020577 3.0130098 1.3316075
1.3274336 1.9555207 2.0746791 1.9207208 1.214536 1.8071548 1.4613118 1.6674935
1.3288467 1.3820459 1.8337041 1.8645924 1.6018909 1.8141066 1.3421823 1.3524152
1.902447 2.132888 2.0553944 1.7386236 2.265486 2.0599573 1.8812224 0.671971
0.099420086 1.7980517 1.3349305 1.4355235 1.1921966 2.3805676 1.6003121 2.1957605
1.9420145 1.7992631 0.1444035 1.5652919 1.1723063 2.026617 2.2648637 1.4484317
1.6998289 1.2468271 1.2859697 1.5079135 2.2221696 1.620874 1.7060543 1.6755658
1.3573875 2.7897246 2.1107085 2.339326 1.6878335 1.4433348 1.011361 0.9965432
0.6671077 1.3904598 0.6754163 1.0470095 1.7119623 1.6134626 1.4794607 1.4011351
1.311762 1.2036674 1.5320909 2.0050218 1.6846063 1.1422994 1.7222512 1.1686662
1.8901234 1.2364944 1.411001 1.6596287 1.9179943 1.4101549 2.0046623 1.8112121
2.7676828 1.1210726 3.1105523 2.2999284 1.620127 1.9591072 2.3558807 1.4991025
1.2393644 0.8763694 2.5311618 2.3506422 1.7802837 0.69632494 1.6448778 0.3896952
2.1254435 1.8074573 2.1837509 2.2729657 2.552937 1.589964 1.962662 2.2589302
1.6347167 1.5182698 2.690135 0.1453167 1.345441 0.8302777 1.4622133 1.2979574
2.5701616 1.9007488 1.2966138 1.6143693 1.9760538 1.3687356 1.6528872 1.5143638
1.0067954 2.1634538 1.5018587 0.13440359 1.7919681 2.0534256 0.9107466 1.3177557
1.8142507 2.25854 0.124488294 2.4242666 2.2515023 2.552726 2.3496225 2.2474382
1.7298756 0.707786 2.918926 2.0006676 1.4058487 1.5699648 1.8317999 0.8641677
1.697834 2.223625 2.008357 1.203063 1.4445812 1.4382787 1.553815 1.6133827
00000000: b48d af3f ae9a eb3f 2a44 ee3e cc67 bf3f
00000010: 389a f93f 1a97 e93f 9ce7 da3f 2c48 0a3f
00000020: 638c bb3f 646e ea3f 02ca bf3f c518 c03f
00000030: 9d78 b53f d9a2 833f e091 3a3f e15f ae3f
00000040: 0eeb 0040 45e8 1540 1a7c d53f 71ac bb3f
00000050: 553e c73f 8178 0440 a832 d23f b53f b63f
00000060: 781a fe3f 875c ae3f 3213 273f 4613 3640
00000070: 490e 2a40 66dc d13f 2b70 b13f d45f f53f
00000080: 2fe1 963f 15d8 e03f 8255 e33f a73b e63f
00000090: b65d 1b40 88d1 d63f 9e6f 993f 26a7 fb3f
000000a0: 874d ba3f ba65 da3f 84a2 f83f 30ad 803f
000000b0: 8ccc 0240 8387 ec3f 3aa0 f53f a89f 2440
000000c0: ea75 0d40 3149 0940 f78c 2140 8494 db3f
000000d0: 8412 e93f b7a0 9f3f 1a09 c73f de33 a13f
000000e0: d545 e53f fdf1 d83f 6484 bc3f 2a8d 0240
000000f0: 9e1e 0a40 0d7b b03f ae6d 663f f2da 2840
00000100: b8b3 c63f fdbd ce3f 9044 3340 9860 bb3f
00000110: 0889 1d40 5a01 fb3f d7e2 da3f f90a c83f
00000120: 34d1 7d3f f110 8f3f 10a1 f23f 3240 c13f
00000130: 20a7 c73f 353f f83f dd72 0e40 3c80 b83f
00000140: 6a3f b63f ccbf dd3f 9734 f73f 78d8 ec3f
00000150: ed3e 0e40 063d e03f 7ef8 e73f 3552 9f3f
00000160: 6100 d83f abdf 773f 7a04 0440 877f 903f
00000170: ad50 223f aaa2 ca3f 90c2 0940 0508 0040
00000180: 9421 a63f c3d1 0540 945c be3f e36f c03f
00000190: a1f7 e13f 2251 0140 27d5 4040 1d72 aa3f
000001a0: 58e9 a93f 814e fa3f 8bc7 0440 2eda f53f
000001b0: ea75 9b3f d950 e73f 440c bb3f 6d70 d53f
000001c0: a617 aa3f e1e6 b03f d1b6 ea3f f7aa ee3f
000001d0: c30a cd3f a534 e83f a1cc ab3f f11b ad3f
000001e0: 6283 f33f 3d81 0840 958b 0340 388b de3f
000001f0: b9fd 1040 57d6 0340 e5cb f03f 4b06 2c3f
00000200: c29c cb3d 8f26 e63f 01df aa3f 3cbf b73f
00000210: e699 983f 385b 1840 07d7 cc3f 5787 0c40
00000220: ee93 f83f 414e e63f 83de 133e 7c5b c83f
00000230: 220e 963f 18b4 0140 87f3 1040 3666 b93f
00000240: fe93 d93f 0898 9f3f a89a a43f 4f03 c13f
00000250: 0738 0e40 cd78 cf3f fd5f da3f f178 d63f
00000260: e0be ad3f d98a 3240 d915 0740 84b7 1540
00000270: ee0a d83f 32bf b83f 4774 813f 751d 7f3f
00000280: 92c7 2a3f 96fa b13f 15e8 2c3f 6804 863f
00000290: 9521 db3f f185 ce3f f85e bd3f 6558 b33f
000002a0: d1e7 a73f c611 9a3f 8e1b c43f 4752 0040
000002b0: 2ea1 d73f de36 923f ba72 dc3f db96 953f
000002c0: 90ef f13f 7345 9e3f ae9b b43f b76e d43f
000002d0: d680 f53f f57f b43f 634c 0040 ccd5 e73f
000002e0: b721 3140 4f7f 8f3f 4a13 4740 0732 1340
000002f0: 5260 cf3f 06c4 fa3f c0c6 1640 97e2 bf3f
00000300: 7ea3 9e3f bf59 603f 8efe 2140 ec70 1640
00000310: 56e0 e33f 5a42 323f 5b8b d23f 2186 c73e
00000320: 4407 0840 c35a e73f 93c2 0b40 4578 1140
00000330: 5263 2340 f183 cb3f 8238 fb3f 5092 1040
00000340: 663e d13f aa56 c23f 2c2b 2c40 e7cd 143e
00000350: 6937 ac3f 148d 543f ce29 bb3f 7823 a63f
00000360: 877d 2440 bd4b f33f 71f7 a53f a7a3 ce3f
00000370: 55ef fc3f ba32 af3f cf91 d33f acd6 c13f
00000380: acde 803f 0776 0a40 e83c c03f 18a1 093e
00000390: 365f e53f 536b 0340 b026 693f 38ac a83f
000003a0: 5e39 e83f eb8b 1040 b8f3 fe3d 2f27 1b40
000003b0: 9d18 1040 dd5f 2340 3760 1640 07d6 0f40
000003c0: 906c dd3f 7731 353f afcf 3a40 f00a 0040
000003d0: daf2 b33f 9bf4 c83f 6b78 ea3f 183a 5d3f
000003e0: a052 d93f df4f 0e40 ec88 0040 f8fd 993f
000003f0: 09e8 b83f 8419 b83f 69e3 c63f 5383 ce3f

bn2.bias f4 [300]
0.017947257 -0.30970752 -0.9247372 -0.31964916 -0.11936808 -0.28518867 -0.1911941 -0.83497345
-0.37394947 -0.65398884 -0.22865403 -0.35453218 -0.5182805 -0.68972373 -0.72582895 -0.5031721
-0.59401876 -0.8011073 -0.5051376 -0.2602373 -0.4383273 -0.041146632 -0.07458891 -0.4117096
-0.24699147 -0.22077355 -0.86037695 -0.9734556 -0.71042174 -0.42061445 0.005935623 -0.55837125
-0.57577646 -0.36854893 -0.21767557 -0.31704798 -0.51495385 -0.6047106 -0.6078721 -0.42508706
-0.42838594 -0.45183417 -0.344999 -0.7471002 -0.75857073 -0.5638329 -0.16028862 -0.8071595
-0.6538658 -0.4266203 -0.1677605 -0.82396245 -0.07213167 -0.6899914 -0.29582244 -0.3874739
-0.27030775 -0.21835406 -0.5359157 -0.5210959 -0.40603492 -0.17179888 -0.9604745 -0.77131313
-0.45492002 -0.21812342 -0.5204248 -0.2912839 -0.46301544 -0.3964617 -0.64839095 -0.36419123
-0.61426646 -0.38970062 -0.10062515 -0.5661144 -0.5512786 -0.6560265 -0.06236696 -0.34064794
-0.21820173 -0.6407303 -0.43484852 -0.64940524 -0.32541525 -0.40397227 -0.50902253 -0.70544976
-0.31978488 -0.56284297 -0.34464636 0.030389514 -0.7892568 -0.69326544 -0.5061233 -0.44364575
-0.5334769 -0.4000895 -0.23786026 -0.42030442 -0.7656099 -0.04193833 -0.6584762 -0.5291287
-0.29753065 -0.31371802 -0.3031983 -0.30841395 -0.15663488 -0.48268214 -0.5054402 -0.336881
-0.34668797 -0.343962 -0.25776267 -0.38007763 -0.73416895 -0.49602997 -0.23852825 -0.24493115
-0.59420055 -0.3774589 -0.558783 -0.2298937 -0.5693543 -0.39653394 -0.3146971 -0.96250147
-0.78001815 -0.06995598 -0.9433427 -0.2964228 -0.5346978 -0.73635614 -0.30552375 -0.5104657
-0.52053887 -0.36338753 -0.87758267 -0.49492705 -0.6067904 -0.46173555 -0.54118884 -0.35266325
-0.27082914 -0.7724463 -0.99113375 -0.12252978 -0.39632344 -0.11303654 -0.10447914 -0.2507963
-1.1573117 -0.41559955 -0.31977993 -0.40232152 -0.33257407 -0.2721495 -0.66102684 -0.31411093
-0.72756666 -0.6221706 -1.0108007 -0.50806385 -0.19023037 -0.5186667 -0.5663869 -0.21734923
-0.6702518 -0.58935523 -0.37785453 -0.18350111 -0.29873753 -0.37526956 -0.43430886 -0.43626535
-0.42553538 -0.3977578 -0.57106984 -0.5258961 -0.5472167 -0.6958957 -0.4713372 -0.36474827
-0.8028044 -0.6891548 -0.86016685 -0.48542333 -0.24593101 -0.63242596 -0.24644275 -0.15150326
-0.7036702 -0.8633057 -0.471417 -0.8055947 -0.12973039 -0.7666394 -0.43909764 -1.0057112
-0.67940843 -0.40361094 -0.22572255 -0.9492456 -0.37880072 -0.5166726 -0.69614744 -0.2245009
-0.5596385 -0.41481504 -0.6073938 -0.89427066 -0.16762708 -0.71661294 -0.6953627 -0.5767965
-0.6021168 -0.31754518 -0.3215026 -0.38399076 -0.57652384 -0.7004885 -0.2322096 -0.6451605
-0.6272872 -0.44274512 -0.79941946 -0.8453343 -0.4186976 -0.20762978 -0.64431083 -0.6943792
-0.3531772 -0.54220283 -0.7610021 -0.86471224 -0.1134264 -0.82696265 -0.37081674 -0.47956938
-0.22380374 -0.7505508 -0.6134101 -0.86547065 -0.45549163 -0.49402818 -0.39462724 -0.29675987
-0.251616 -0.60717773 -0.46617392 -0.55194175 -0.58888197 -0.48962766 -0.626948 -0.52186936
00000000: 2006 933c fc91 9ebe 94bb 6cbf 0ea9 a3be
00000010: 4077 f4bd 4004 92be 63c8 43be d2c0 55bf
00000020: 4e76 bfbe d06b 27bf 4824 6abe 3e85 b5be
00000030: 08ae 04bf bc91 30bf edcf 39bf e3cf 00bf
00000040: 9d11 18bf 5e15 4dbf b350 01bf d33d 85be
00000050: 706c e0be 5f89 28bd 12c2 98bd 9acb d2be
00000060: 55eb 7cbe 7612 62be aa41 5cbf 6334 79bf
00000070: 33de 35bf c75a d7be 9d7f c23b 6bf1 0ebf
00000080: 1666 13bf 72b2 bcbe 58e6 5ebe 1d54 a2be
00000090: 04d4 03bf 50ce 1abf 829d 1bbf 03a5 d9be
000000a0: 6755 dbbe cf56 e7be b5a3 b0be f541 3fbf
000000b0: b131 42bf 5a57 10bf b322 24be 01a2 4ebf
000000c0: c063 27bf fa6d dabe 69c9 2bbe 34ef 52bf
000000d0: c5b9 93bd 47a3 30bf 0a76 97be fb62 c6be
000000e0: c765 8abe 3598 5fbe c531 09bf 8a66 05bf
000000f0: cfe3 cfbe 0cec 2fbe a8e1 75bf c774 45bf
00000100: 47eb e8be bf5b 5fbe 8f3a 05bf 2a23 95be
00000110: 5c10 edbe 07fd cabe f3fc 25bf 4677 babe
00000120: 9140 1dbf d786 c7be 8f14 cebd e0ec 10bf
00000130: 9820 0dbf 5af1 27bf 7f74 7fbd 6869 aebe
00000140: 4670 5fbe e706 24bf 77a4 debe 6c3f 26bf
00000150: d49c a6be 74d5 cebe 4d4f 02bf 5b98 34bf
00000160: d8ba a3be 7a16 10bf 7d75 b0be 6ef3 f83c
00000170: bc0c 4abf d879 31bf 4c91 01bf 8925 e3be
00000180: f191 08bf 88d8 ccbe a491 73be 2432 d7be
00000190: 03ff 43bf 87c7 2bbd e591 28bf fa74 07bf
000001a0: f055 98be a69f a0be cf3c 9bbe 6fe8 9dbe
000001b0: e564 20be 1d22 f7be 8764 01bf ab7b acbe
000001c0: 1681 b1be ca1b b0be 78f9 83be 8999 c2be
000001d0: 7ff2 3bbf a4f7 fdbe c040 74be 3bcf 7abe
000001e0: 871d 18bf 4b42 c1be 670c 0fbf 4169 6bbe
000001f0: 34c1 11bf 7f06 cbbe fa1f a1be 7f66 76bf
00000200: 45af 47bf 1545 8fbd e87e 71bf bbc4 97be
00000210: f4e1 08bf d681 3cbf 9c6d 9cbe e1ad 02bf
00000220: 0942 05bf ee0d babe 42a9 60bf 1467 fdbe
00000230: 9e56 1bbf 9a68 ecbe 5a8b 0abf 4790 b4be
00000240: 1eaa 8abe 0abf 45bf f1ba 7dbf e5f0 fabd
00000250: e8ea cabe b47f e7bd 29f9 d5bd 5f68 80be
00000260: ca22 94bf 77c9 d4be 32ba a3be 16fd cdbe
00000270: 2647 aabe 2e57 8bbe 0e39 29bf 26d3 a0be
00000280: cf41 3abf 9346 1fbf eb61 81bf 7910 02bf
00000290: c0cb 42be 57c7 04bf bbfe 10bf cc90 5ebe
000002a0: 9f95 2bbf fcdf 16bf 2676 c1be b7e7 3bbe
000002b0: 20f4 98be 5523 c0be bb5d debe 2c5e dfbe
000002c0: c6df d9be e9a6 cbbe a231 12bf 20a1 06bf
000002d0: 6516 0cbf 3826 32bf 1c53 f1be 49c0 babe
000002e0: 9784 4dbf 736c 30bf e533 5cbf 6889 f8be
000002f0: 57d5 7bbe abe6 21bf 7d5b 7cbe ac23 1bbe
00000300: bb23 34bf 9a01 5dbf 925d f1be 743b 4ebf
00000310: 0bd8 04be 7b42 44bf 68d1 e0be 25bb 80bf
00000320: b6ed 2dbf 18a6 cebe d023 67be c201 73bf
00000330: 2bf2 c1be a844 04bf b836 32bf 90e3 65be
00000340: 7844 0fbf a362 d4be 297e 1bbf ecee 64bf
00000350: 6fa6 2bbe f273 37bf 4a03 32bf efa8 13bf
00000360: 5424 1abf 4895 a2be fd9b a4be 709a c4be
00000370: 1197 13bf 3753 33bf 5ac8 6dbe 3d29 25bf
00000380: e595 20bf 7daf e2be c1a6 4cbf d467 58bf
00000390: 885f d6be e79c 54be 8ef1 24bf d6c2 31bf
000003a0: a4d3 b4be cecd 0abf 09d1 42bf c85d 5dbf
000003b0: 1a4c e8bd d3b3 53bf b1db bdbe 1e8a f5be
000003c0: cf2c 65be 1924 40bf 7208 1dbf 7c8f 5dbf
000003d0: 3336 e9be 43f1 fcbe 950c cabe e9f0 97be
000003e0: d0d3 80be 0070 1bbf 59ae eebe 0e4c 0dbf
000003f0: f8c0 16bf 7ab0 fabe aa7f 20bf 3b99 05bf
