weights/model_actor_target_98.pt (torch, 429959 bytes, 10 tensors)

l1.weight f4 [300, 42]
0	0x3f4a8288	0.79105425
1	0xbf00cb8d	-0.50310594
2	0x3f4c38b1	0.79774004
3	0xbdfc224c	-0.12311229
4	0x3f248536	0.64265764
5	0xbec36ab9	-0.3816736
6	0xbfcc317e	-1.5952604
7	0xbf6887bf	-0.9083213
8	0xbf81a1ed	-1.0127541
9	0x3f845956	1.0339763
10	0x3ed1342e	0.40860122
11	0x3e06879f	0.13137673
12	0x3f318b88	0.6935353
13	0xbf2a1355	-0.6643575
14	0xc0317907	-2.773012
15	0x3f4e5db9	0.8061176
16	0x3e58133d	0.21101089
17	0xbf079c9e	-0.52973354
18	0x40806588	4.012394
19	0x3fb07411	1.3785421
20	0xbf2dca67	-0.67886966
21	0x3f176771	0.59142214
22	0xbe11d588	-0.14241612
23	0x3f40240b	0.75055
24	0x3f1d56b2	0.6146041
25	0x3f2d324c	0.6765487
26	0x3e0d4c16	0.13798556
27	0xbf1b84ed	-0.60749704
28	0x3f0df87f	0.554573
29	0x3f0838fe	0.53211963
30	0xbf582c5d	-0.84442693
31	0xbf0e97e9	-0.55700547
32	0x40494093	3.1445663
33	0xc023b0db	-2.5576694
34	0x3f07044f	0.5274095
35	0xc0d5a3bc	-6.676237
36	0xc09f519d	-4.9787126
37	0x3f9935d9	1.1969558
38	0xbeb1c41e	-0.34719938
39	0xbf14e046	-0.58154714
40	0x3f9ca4c0	1.2237778
41	0x4004c40d	2.074466
42	0x3f0b4b2b	0.5441157
43	0x3f8e2314	1.1104455
44	0x3ead8551	0.33890775
45	0x3f3ef3ff	0.7459106
46	0x3e0cea4c	0.13761252
47	0x3fd161c8	1.6357965
48	0x3cbef08f	0.023308067
49	0xbdb0fe93	-0.08642306
50	0xbe4ec578	-0.20192516
51	0x3f596259	0.8491569
52	0x3ef81517	0.4845359
53	0xc035d81e	-2.8413157
54	0x3e63ee20	0.22258806
55	0xbf159ceb	-0.5844256
56	0x3fb86a96	1.4407527
57	0xbeb9061d	-0.36137477
58	0xbf20c80a	-0.62805235
59	0xbfefa962	-1.8723567
60	0xc02fa88a	-2.7446618
61	0x3d711989	0.058862243
62	0x3ec9a46d	0.3938326
63	0x3f3b0c86	0.73065984
64	0xbff92585	-1.9464575
65	0x3ebbdc4f	0.3669152
66	0x3f6818b2	0.9066268
67	0x4021767d	2.522857
68	0x400ddbb9	2.2165358
69	0x403b6cea	2.9285226
70	0xc00c6e5d	-2.194236
71	0xbf03a115	-0.51417667
72	0xbea053a3	-0.3131381
73	0x3f76cd69	0.9640718
74	0x3e87d985	0.26533142
75	0x3ddf4fff	0.1090393
76	0x3f28931d	0.6584948
77	0xbea10572	-0.31449467
78	0xbfd6c77e	-1.677963
79	0xbf0c2f40	-0.547596
80	0xbfbef149	-1.4917384
81	0x3e895b3e	0.26827425
82	0xbfd3aadf	-1.6536521
83	0xbff6758a	-1.925462
84	0x3eb2c12f	0.34913012
85	0xbd3dc4dd	-0.04633032
86	0x3d5ebc9b	0.054379087
87	0xbfb3fa11	-1.4060689
88	0x3ecb9d92	0.39768654
89	0xbeabeade	-0.33577627
90	0x3f8c73a5	1.0972792
91	0xbf48cf64	-0.7844145
92	0xbf5fdf78	-0.8745036
93	0x3f8a0f89	1.0785991
94	0x3f5a4977	0.8526835
95	0xbf9430bb	-1.1577371
96	0x3f178275	0.59183437
97	0xbf0567ae	-0.5211133
98	0xbea1036d	-0.31447926
99	0x400562a2	2.084145
100	0x401dd140	2.4658966
101	0xbe2a5f15	-0.16637833
102	0xc0775f9f	-3.8652112
103	0xbf9892d2	-1.1919806
104	0xbee1fd7e	-0.44138712
105	0x3e0351ac	0.12824124
106	0x3f52787b	0.8221509
107	0x3f58b253	0.846471
108	0x3f50e088	0.8159261
109	0x3f2c3519	0.6726852
110	0xbe958caf	-0.29208896
111	0x3f318ce2	0.69355595
112	0x3f84cd5f	1.0375174
113	0x3e84fe04	0.2597505
114	0x3f67a58d	0.90486985
115	0xbe021243	-0.12702279
116	0x40fcd934	7.901514
117	0xbfd9499e	-1.6975591
118	0x3f1e4cc5	0.6183589
119	0x3eccd515	0.4000632
120	0xbfd1ffe2	-1.6406214
121	0xbf25f9af	-0.6483411
122	0xc02178b6	-2.5229926
123	0xc018d937	-2.3882577
124	0x3fb2610a	1.3935864
125	0x4002466b	2.035548
126	0x3f59e0c7	0.8510861
127	0x3f1c3e2c	0.61032367
128	0x3f55cf77	0.8351969
129	0x3df9a164	0.12188986
130	0x3f514bde	0.8175639
131	0x3ecc3873	0.39886817
132	0xbf7316c4	-0.9495661
133	0xbff815c0	-1.9381638
134	0xbf85a145	-1.043984
135	0x3f82c6e1	1.0216943
136	0x3f268bb7	0.6505694
137	0xbdf354c9	-0.11881406
138	0x3f64c93e	0.8936957
139	0xbfb5bb86	-1.4197853
140	0x3ff447d0	1.9084415
141	0xbfccfb92	-1.6014273
142	0xbd809d70	-0.06280029
143	0x40235553	2.5520828
144	0x3f0d8a55	0.552892
145	0xbed282dc	-0.41115463
146	0x3f981e30	1.1884212
147	0x3ecee7f2	0.40411335
148	0xc0813058	-4.0371513
149	0x3f3168ef	0.6930074
150	0x3f8468b7	1.0344456
151	0xbf343aae	-0.7040204
152	0xbfcc6c90	-1.5970631
153	0x3ee21da8	0.4416325
154	0x4085809f	4.171951
155	0xc0295c4a	-2.6462579
156	0xbf9d4708	-1.2287302
157	0xbf7b8c53	-0.9826099
158	0xc001553a	-2.0208268
159	0x409be45c	4.871626
160	0x3f376f03	0.71653765
161	0x3fcaceb3	1.584433
162	0x3f60f3df	0.8787212
163	0x3fa116d3	1.258509
164	0xbf33aa6f	-0.70181936
165	0x3ffd3448	1.978158
166	0xc0d07e0f	-6.515388
167	0xbf112782	-0.5670091
168	0x3f3c9f7b	0.7368085
169	0x3e82bd6c	0.25535142
170	0x3f3e8391	0.74419504
171	0xbf83db2d	-1.0301262
172	0x3f05a0be	0.521984
173	0x3faff7a7	1.3747452
174	0xbfdb4789	-1.7131206
175	0xbe871cae	-0.26389068
176	0xbf6ce76f	-0.9254064
177	0xbf8c2815	-1.0949732
178	0x3f1e46c6	0.6182674
179	0x3db677a9	0.08909542
180	0x3e9067b5	0.28204122
181	0xbf56e63c	-0.8394506
182	0xc0084de2	-2.1297536
183	0x40459a2e	3.0875354
184	0xc0168650	-2.3519478
185	0x401043cc	2.254138
186	0x40698c57	3.6491907
187	0x3dd4d1ca	0.103915766
188	0x40b5cacb	5.681005
189	0x3e8650c5	0.26233497
190	0xbfe4fcaa	-1.7889607
191	0x3f475942	0.7787057
192	0x3f6c35b1	0.92269427
193	0x3f23cad7	0.63981384
194	0x3ffee8ec	1.9914832
195	0xbd589812	-0.0528794
196	0x3ef75bcd	0.48312226
197	0xbea9a184	-0.3313104
198	0xc00f18bf	-2.2358854
199	0xbefd4666	-0.49467772
200	0xc0c7a55a	-6.2389345
201	0x4032b790	2.7924538
202	0x3f22d12a	0.6360041
203	0x4050db90	3.263401
204	0x401561aa	2.334086
205	0x3f73ebf4	0.9528191
206	0xbefeb093	-0.4974409
207	0x40241a25	2.5640957
208	0xc0203333	-2.503125
209	0x3f8c04ee	1.0939004
210	0x3f488971	0.7833472
211	0x3f51647a	0.8179394
212	0x3fa268cf	1.2688235
213	0xbdfb7dc6	-0.12279849
214	0x3f190ce8	0.5978532
215	0x3f821c10	1.0164814
216	0xbf5edf11	-0.8705912
217	0x3e12c7f7	0.14334093
218	0xbee9e9d0	-0.45686197
219	0x3d546a69	0.051859293
220	0x3f050989	0.51967674
221	0xbdca95d4	-0.09891859
222	0xbde6405c	-0.11242744
223	0xbd640e9c	-0.055677995
224	0xc0116d78	-2.2723064
225	0x3fabc473	1.3419327
226	0xc06fcc17	-3.7468317
227	0x3fa331ca	1.274957
228	0x3fea8d3e	1.8324354
229	0xbdf790d7	-0.12088173
230	0x4088c8d6	4.274516
231	0xbe1c12c6	-0.15241536
232	0x3fb67d08	1.4256907
233	0x3f1f1e49	0.62155586
234	0x3f210be6	0.6290878
235	0x3f95b681	1.1696321
236	0xbe140dc5	-0.14458378
237	0x3f8dd4f6	1.1080616
238	0xbf9504ac	-1.1642051
239	0x3fc47bf3	1.5350326
240	0xbf155e85	-0.5834735
241	0xbf36490b	-0.71205205
242	0x3f347a7f	0.70499414
243	0x3f13b475	0.5769723
244	0x3f5f6f05	0.8727878
245	0xbf1bfd82	-0.609337
246	0xc02a62c8	-2.6622791
247	0x3f2ff802	0.68737805
248	0xc018cdfd	-2.3875725
249	0x3f3249aa	0.6964365
250	0x3fb00076	1.3750141
251	0xbebb286a	-0.3655427
252	0x3f2188b9	0.6309925
253	0x3f6eee9d	0.93332845
254	0x3f3a3a96	0.72745645
255	0x401f0ebb	2.485274

l1.bias f4 [300]
0	0x3f2cfb3d	0.6757086
1	0x3f1d159d	0.61361104
2	0x3f20bff6	0.6279291
3	0x3f5c7879	0.86121327
4	0x3f39ef32	0.7263061
5	0x3f3339d1	0.70010096
6	0x3f369978	0.71327925
7	0x3f31ee16	0.69503915
8	0x3f6e4a2b	0.9308192
9	0x3f0515ed	0.5198658
10	0x3f4dc874	0.8038399
11	0x3f7b8a70	0.98258114
12	0x3f22cb98	0.6359191
13	0x3f2e3c07	0.68060344
14	0x3ecbfd6f	0.39841792
15	0x3f267c6e	0.65033615
16	0x3f1bb084	0.60816216
17	0x3ef5b90e	0.47992748
18	0x3f255c0d	0.64593583
19	0x3f0f9bb6	0.5609697
20	0x3efa335e	0.48867315
21	0x3f9076b9	1.1286231
22	0x3f58aacb	0.8463561
23	0x3f0f30fa	0.5593411
24	0x3f460156	0.7734579
25	0x3f5619b9	0.83633
26	0x3f36c02b	0.71386975
27	0x3f21e9df	0.63247484
28	0x3f089655	0.5335439
29	0x3f08c1ea	0.5342089
30	0x3f0ab538	0.5418277
31	0x3f203374	0.6257851
32	0x3f653b64	0.8954375
33	0x3f2e19a7	0.6800789
34	0x3f06c16c	0.5263889
35	0x3ee1c556	0.44095868
36	0x3f4aed68	0.79268503
37	0x3f10a13f	0.5649604
38	0x3f18fb44	0.597584
39	0x3ef33786	0.475033
40	0x3f4c1faf	0.79735845
41	0x3f39ae66	0.72531736
42	0x3f18a312	0.59623826
43	0x3eccf508	0.40030694
44	0x3f25e0ff	0.6479644
45	0x3f0c2136	0.54738176
46	0x3f1a81f1	0.60354525
47	0x3f2db63b	0.67856187
48	0x3f0e521e	0.5559405
49	0x3f470990	0.77748966
50	0x3eefdff4	0.4685055
51	0x3ed13e38	0.40867782
52	0x3eeccc88	0.46249795
53	0x3f2ce5f9	0.6753841
54	0x3f710317	0.9414534
55	0x3f5349df	0.82534593
56	0x3ee4483e	0.44586366
57	0x3f2d61b4	0.6772721
58	0x3f28870a	0.65831053
59	0x3f0c512b	0.5481135
60	0x3f78cbe3	0.97186106
61	0x3f272ab5	0.6529954
62	0x3f1f130e	0.6213845
63	0x3f200828	0.62512445
64	0x3f042540	0.5161934
65	0x3ef4054b	0.47660288
66	0x3f7bb09e	0.9831637
67	0x3f13d3fa	0.57745326
68	0x3eef544c	0.46744
69	0x3f1aa465	0.60407096
70	0x3f389d56	0.72115076
71	0x3f2274f5	0.6345971
72	0x3f11995e	0.56874645
73	0x3f335132	0.7004577
74	0x3f3b19e6	0.7308639
75	0x3ed2c199	0.41163328
76	0x3f317c2c	0.69330096
77	0x3f236490	0.6382532
78	0x3f107446	0.5642742
79	0x3f493886	0.7860187
80	0x3f10ab9e	0.5651187
81	0x3f2081f7	0.6269831
82	0x3f06ed06	0.5270542
83	0x3eb9886c	0.36236894
84	0x3f31687d	0.6930006
85	0x3f15370f	0.5828714
86	0x3f3755cd	0.71615297
87	0x3f053682	0.520363
88	0x3f738eb5	0.9513963
89	0x3f40adaa	0.7526499
90	0x3f34558d	0.7044304
91	0x3eb1eada	0.3474949
92	0x3f55f679	0.8357921
93	0x3ff929ab	1.9465841
94	0x3ef9e238	0.48805404
95	0x3f20d0cc	0.628186
96	0x3f43b014	0.7644055
97	0x3eabd364	0.33559716
98	0x3f06a5da	0.5259682
99	0x3f266825	0.6500266
100	0x3f54d1c4	0.83132577
101	0x3f2181f1	0.630889
102	0x3f1412e8	0.5784135
103	0x3f1cba88	0.61222124
104	0x3eb84b03	0.3599473
105	0x3eed7d47	0.46384642
106	0x3f1cccda	0.6125008
107	0x3f5bb8a2	0.858286
108	0x3f525da2	0.8217412
109	0x3f251845	0.6449016
110	0x3f25d96e	0.64784896
111	0x3f4ca8ce	0.79945076
112	0x3f279196	0.6545652
113	0x3ee58b0d	0.4483265
114	0x3f43a311	0.76420695
115	0x3f1ca3db	0.61187524
116	0x3f2eb955	0.68251544
117	0x3f2bc22f	0.67093176
118	0x3f03af92	0.51439774
119	0x3f4c3e00	0.79782104
120	0x3f038a23	0.51382655
121	0x3f4b5cbc	0.79438376
122	0x3f1da8b9	0.61585575
123	0x3f1281e1	0.5722943
124	0x3f0dd8c5	0.5540889
125	0x3f0598ed	0.5218647
126	0x3f4afbe9	0.79290634
127	0x3f1fcac7	0.6241879
128	0x3f451fd3	0.77001685
129	0x3f0cb2f5	0.54960567
130	0x3f58890a	0.84584105
131	0x3ebbd458	0.36685443
132	0x3f71b8d0	0.94422626
133	0x3f50d0ec	0.8156879
134	0x3ec52612	0.38505608
135	0x3f00b605	0.5027774
136	0x3f475fd7	0.77880615
137	0x3f11f902	0.5702058
138	0x3f319fa2	0.69384205
139	0x3f6c4cb2	0.9230453
140	0x3f128bb1	0.572444
141	0x3ef65923	0.4811488
142	0x3f432539	0.7622867
143	0x3f1c38bf	0.6102409
144	0x3f701c77	0.93793434
145	0x3f12af33	0.5729858
146	0x3f367b37	0.7128176
147	0x3f0a9520	0.54133797
148	0x3ed5df11	0.4177175
149	0x3f0470c7	0.51734585
150	0x3ebb547b	0.3658789
151	0x3ee2ecda	0.44321328
152	0x3f77b58a	0.9676138
153	0x3f0085f1	0.5020438
154	0x3f0a194e	0.5394486
155	0x3ec31378	0.3810079
156	0x3efdbabd	0.49556533
157	0x3ee5164e	0.4474358
158	0x3f1eeed6	0.62083185
159	0x3ea89a15	0.32930055
160	0x3f1348c8	0.5753293
161	0x3f678f98	0.9045348
162	0x3e790576	0.2431849
163	0x3f1a9c42	0.6039468
164	0x3eee7dc4	0.46580327
165	0x3f2b21d2	0.6684848
166	0x3f02235d	0.5083521
167	0x3ec37282	0.381733
168	0x3f17aab9	0.5924488
169	0x3f488eca	0.7834288
170	0x3f285d4a	0.6576735
171	0x3f3636be	0.7117728
172	0x3f07091c	0.52748275
173	0x3f0e2a91	0.555337
174	0x3f134bc0	0.5753746
175	0x4007f58a	2.1243615
176	0x3f1f00b3	0.6211044
177	0x3f5567bc	0.8336141
178	0x3f0b0e05	0.5431827
179	0x3f16c09b	0.5888764
180	0x3f14b1fc	0.5808408
181	0x3eac8026	0.3369152
182	0x3f1ae3f6	0.6050409
183	0x3f35797b	0.7088849
184	0x3f09c670	0.53818417
185	0x3f3100a0	0.6914158
186	0x3f46c323	0.77641505
187	0x3ed05800	0.4069214
188	0x3f1c45a0	0.6104374
189	0x3f4d6c0b	0.80242985
190	0x3ecc0ab6	0.39851922
191	0x3f1383a5	0.5762275
192	0x3f11aad6	0.569013
193	0x3f1e335d	0.61797124
194	0x3f31886f	0.69348806
195	0x3f49b12b	0.7878596
196	0x3f0da0a1	0.55323225
197	0x3f2bacef	0.6706075
198	0x3f2190d6	0.6311163
199	0x3ecd0c75	0.40048566
200	0x3f24e75c	0.64415526
201	0x3f1a9478	0.60382795
202	0x400364c1	2.0530245
203	0x3f45f5c7	0.7732815
204	0x3f56e25c	0.83939147
205	0x3eff9c7e	0.49924082
206	0x3f0206e6	0.50791776
207	0x3f13d501	0.57746893
208	0x3f337d31	0.701129
209	0x3f25f8d3	0.648328
210	0x3f082e6d	0.5319584
211	0x3f230d52	0.636922
212	0x3f18576e	0.5950841
213	0x3f43b52a	0.7644831
214	0x3eeb35bf	0.45939443
215	0x3eea1b35	0.45723882
216	0x3f44de94	0.7690213
217	0x3eccd334	0.40004885
218	0x3f18a844	0.5963175
219	0x3f29dc04	0.6635134
220	0x3f5633d9	0.83672863
221	0x3ff666c5	1.9250113
222	0x3f06214b	0.5239455
223	0x3f2d09db	0.67593163
224	0x3f237a27	0.63858265
225	0x3f3292ba	0.69755137
226	0x3ec0eee7	0.37682268
227	0x3ee3395c	0.443797
228	0x3f464c94	0.774606
229	0x3f75bfe1	0.9599591
230	0x3f0129f1	0.5045462
231	0x3ec5c198	0.38624263
232	0x3f306e2c	0.6891811
233	0x3f0092d1	0.50224024
234	0x3f0cb04a	0.54956496
235	0x3eebad0f	0.4603047
236	0x3f0d5c85	0.552193
237	0x3f90eecf	1.1322879
238	0x3f0cb86c	0.54968905
239	0x3edf7779	0.43645838
240	0x3f35824d	0.7090195
241	0x3ed32a1d	0.41243067
242	0x3f780fc8	0.9689908
243	0x3f43743c	0.76349235
244	0x3f52dcb9	0.82368046
245	0x3f0a6c17	0.5407118
246	0x3f139732	0.5765258
247	0x3f3439fb	0.7040097
248	0x3f1a6450	0.60309315
249	0x3ef009c3	0.46882448
250	0x3f0b9fcc	0.54540706
251	0x3f49c4c9	0.78815895
252	0x3f0a4769	0.54015213
253	0x3f3ef1a1	0.74587446
254	0x3f1f3aae	0.62198913
255	0x3ec8520a	0.3912509

bn1.weight f4 [300]
0	0x40202c03	2.5026863
1	0x404cacd4	3.1980486
2	0x3ff8628d	1.9405075
3	0x3f508452	0.81451905
4	0x3fd9d4b0	1.7018032
5	0x402ef39a	2.7336183
6	0x3fe0eec5	1.7572867
7	0x3fb48b94	1.4105096
8	0x408661a9	4.1994214
9	0x405c8353	3.4455154
10	0x40824c46	4.0718107
11	0x3fd02e77	1.626418
12	0x3fdf9811	1.7468282
13	0x3ff13e63	1.8847164
14	0x3fd5bedb	1.669887
15	0x3fffebe7	1.9993867
16	0x3fff563c	1.9948192
17	0x3fec735d	1.8472706
18	0x402e6f7d	2.7255547
19	0x402dec1c	2.717536
20	0x3f591080	0.847908
21	0x40664fe2	3.5986257
22	0x3fd2cc19	1.6468536
23	0x3fb971de	1.4487875
24	0x402b3d2d	2.6756089
25	0x3f7e7deb	0.99410886
26	0x4007247e	2.1116023
27	0x3fb140c6	1.3847892
28	0x3fbf7734	1.4958253
29	0x3fe971c5	1.8237845
30	0x3fc45b9a	1.5340455
31	0x3fb44c84	1.4085851
32	0x3fdbce24	1.7172284
33	0x4052971d	3.2904732
34	0x4028fc73	2.6404083
35	0x400bbdf2	2.1834683
36	0x4026be9d	2.605384
37	0x4031fc79	2.7810347
38	0x3ffc0fc5	1.9692312
39	0x402d8640	2.711319
40	0x400b8917	2.1802423
41	0x402d7fcc	2.710925
42	0x4007d6e0	2.12249
43	0x3fa5e0fe	1.2959287
44	0x3ffe3e43	1.9862751
45	0x3fef8403	1.8712162
46	0x3fdba0f4	1.7158494
47	0x3fe1bdc2	1.7636034
48	0x402732a8	2.6124668
49	0x3fd676f0	1.6755047
50	0x3fe9bcbf	1.8260726
51	0x400e3945	2.2222455
52	0x3fcd4f18	1.6039762
53	0x4057a9de	3.3697429
54	0x3fc9aca9	1.5755817
55	0x3f2b9e87	0.6703877
56	0x40363bf9	2.8474104
57	0x4012c4f3	2.2932708
58	0x40003f38	2.0038586
59	0x3fa20877	1.2658833
60	0x3f890c2f	1.0706843
61	0x3ff70963	1.929974
62	0x405bb894	3.4331408
63	0x3ff8a69a	1.9425843
64	0x4050a516	3.260076
65	0x404c7e43	3.1952064
66	0x404a16a4	3.1576319
67	0x3f4e2745	0.8052867
68	0x40204e6a	2.504786
69	0x40083ac6	2.1285872
70	0x4000fde3	2.015496
71	0x4022982b	2.5405376
72	0x404f1a27	3.2359712
73	0x3fc9d4a4	1.5768018
74	0x3fc7f37e	1.5621183
75	0x3fb838f9	1.4392387
76	0x3ff5090c	1.9143386
77	0x40018c63	2.0241935
78	0x404ad6ba	3.1693559
79	0x3fd57243	1.6675495
80	0x3fdcf6df	1.7262839
81	0x3ff4cb99	1.9124633
82	0x4018f0c1	2.3896945
83	0x406754b0	3.614544
84	0x40015c2f	2.0212514
85	0x401fbe99	2.4960082
86	0x4039f7dd	2.9057534
87	0x3fea0b6d	1.8284737
88	0x3faf8149	1.371133
89	0x40268ebf	2.6024625
90	0x407c2894	3.9399767
91	0x403d209b	2.955115
92	0x3f7bace8	0.9831071
93	0x3e11afbd	0.14227195
94	0x3ffdb310	1.982027
95	0x400c1ada	2.189139
96	0x3fe78151	1.8086339
97	0x401b5c82	2.4275212
98	0x40337fde	2.8046794
99	0x406d8253	3.7110794
100	0x4006ea9f	2.1080701
101	0x4018c693	2.38712
102	0x3fdd04cc	1.7267089
103	0x40512a6f	3.268215
104	0x3fba7b19	1.4568816
105	0x40027d75	2.0389073
106	0x3ffe16c7	1.9850701
107	0x4023eb92	2.561253
108	0x401bde8d	2.4354584
109	0x40055ff7	2.0839822
110	0x404037b6	3.0034003
111	0x3fc9e664	1.5773435
112	0x3fd4673a	1.6594002
113	0x3ffe0600	1.9845581
114	0x400f9963	2.243737
115	0x3ffd8d93	1.980883
116	0x3ff9b8fd	1.9509579
117	0x3fdc15d0	1.7194157
118	0x406ef9ba	3.733992
119	0x4027b2bb	2.6202838
120	0x400a3922	2.159737
121	0x406db6f2	3.714291
122	0x40139f0e	2.306583
123	0x406532f8	3.581236
124	0x40588597	3.3831537
125	0x3ffd58f8	1.9792776
126	0x3ffe8984	1.9885716
127	0x3fc782c8	1.5586786
128	0x4039cfaf	2.903301
129	0x3f906fb9	1.1284095
130	0x402ae9e3	2.6705253
131	0x3ff67c2c	1.9256644
132	0x3fa2dc0c	1.2723403
133	0x3fe0d57e	1.7565153
134	0x3fb3afb9	1.4038001
135	0x4008b63d	2.136123
136	0x4050a01c	3.2597723
137	0x4012ad00	2.291809
138	0x4004cd66	2.0750365
139	0x3fb9c128	1.4512072
140	0x40145f85	2.31833
141	0x3fd80a7e	1.6878202
142	0x400496d0	2.0717049
143	0x3f99a704	1.2004094
144	0x40456be7	3.0847108
145	0x3fea60ed	1.8310829
146	0x40408af3	3.0084808
147	0x3fd60063	1.6718868
148	0x3fa28085	1.2695471
149	0x401f940a	2.4934106
150	0x400a2eb6	2.159101
151	0x40388c89	2.8835776
152	0x400d6918	2.2095394
153	0x40023400	2.0344238
154	0x40231b4d	2.5485413
155	0x3feef5e9	1.8668796
156	0x3fdf5f56	1.7450969
157	0x4003d868	2.0600834
158	0x4000e486	2.013948
159	0x40064f69	2.0985968
160	0x3ff1c014	1.8886743
161	0x3ffe149b	1.9850038
162	0x3fdf436d	1.7442452
163	0x4001d30e	2.0285068
164	0x40236b30	2.5534172
165	0x3fe637ed	1.7985817
166	0x3fe73f4f	1.8066195
167	0x402bc6e9	2.6840155
168	0x3faa3f3b	1.3300546
169	0x3fa128a2	1.2590525
170	0x3fb25f1a	1.3935273
171	0x3fc44498	1.5333433
172	0x40082ece	2.1278567
173	0x401fa0b4	2.4941835
174	0x3fb743d3	1.4317573
175	0x3e150735	0.1455353
176	0x40042d7d	2.0652764
177	0x40346e64	2.8192377
178	0x3ffa97d7	1.9577588
179	0x4002c0e4	2.043023
180	0x3f775255	0.96610004
181	0x40644d39	3.5672133
182	0x4031bb9d	2.777076
183	0x3fd1fba5	1.6404921
184	0x401ec51a	2.4807801
185	0x400774ef	2.116512
186	0x3fdb0f20	1.7113991
187	0x3fc3bec1	1.5292588
188	0x3fb9e0c8	1.4521723
189	0x4025a33f	2.5880888
190	0x4039b2ea	2.901545
191	0x3f906c7b	1.1283106
192	0x401b2a81	2.4244692
193	0x40103bb8	2.253645
194	0x40108385	2.2580273
195	0x4001b5bd	2.0267174
196	0x40135011	2.3017619
197	0x4004b9df	2.0738447
198	0x3fc59dc3	1.543877
199	0x401932d8	2.3937283
200	0x40027c71	2.0388453
201	0x407b266b	3.9242198
202	0x3dd0b621	0.10190988
203	0x3fa43297	1.2827939
204	0x40387875	2.882352
205	0x3fb2285b	1.3918566
206	0x3ff39698	1.9030333
207	0x404972ad	3.1476243
208	0x40415843	3.021012
209	0x40228a3b	2.539687
210	0x4052e61c	3.2952948
211	0x3f95cdaa	1.1703389
212	0x4001373c	2.0189962
213	0x3fe1a69d	1.7628971
214	0x3fbb09fc	1.4612422
215	0x3fca2179	1.5791465
216	0x3f8818c6	1.063256
217	0x4010c8e2	2.262261
218	0x3fc24705	1.5177923
219	0x4020462a	2.5042825
220	0x400262ef	2.0372884
221	0x3df67d3b	0.120356046
222	0x3fd777e7	1.6833466
223	0x3f9b7c0e	1.2147233
224	0x3fe5c7dc	1.7951617
225	0x3faeb22f	1.3648127
226	0x4018c949	2.3872855
227	0x3ff7a2a4	1.9346509
228	0x40299734	2.6498537
229	0x400e6372	2.2248197
230	0x40168cd1	2.3523448
231	0x40286627	2.631235
232	0x3ffcd948	1.9753809
233	0x400a3214	2.1593065
234	0x3ffcedfb	1.9760126
235	0x40144500	2.3167114
236	0x4064fde4	3.5779963
237	0x403911e7	2.8917177
238	0x405b2ad1	3.4244883
239	0x4004f8ab	2.0776775
240	0x3fa95a7c	1.3230739
241	0x403f2ab0	2.9869804
242	0x401afef7	2.4218118
243	0x4041e635	3.0296757
244	0x4083b554	4.115885
245	0x4030529e	2.7550426
246	0x3fa0e8a9	1.2571002
247	0x40384747	2.8793504
248	0x3fca4f8e	1.5805528
249	0x3feec20d	1.865297
250	0x3fe2f514	1.7731042
251	0x3ff1c98f	1.8889636
252	0x401a3d16	2.4099784
253	0x3f80a676	1.00508
254	0x3f94fa0a	1.1638806
255	0x3fb8c99e	1.4436529

bn1.bias f4 [300]
0	0xbf1ced86	-0.6129993
1	0xbf6bcf34	-0.9211304
2	0xbfa308dd	-1.273708
3	0xbf3e95f4	-0.7444756
4	0xbf676c14	-0.9039929
5	0xbe9445ed	-0.289596
6	0xbf4d616e	-0.8022679
7	0xbfab8b62	-1.3401911
8	0x3f4a81ac	0.79104114
9	0xbdade3f4	-0.08490744
10	0x3ea8f616	0.3300025
11	0xbf5ab502	-0.85432446
12	0xbfa3afbc	-1.2788005
13	0xbf705544	-0.93880105
14	0xbf5d756b	-0.8650729
15	0xbf44b0db	-0.7683236
16	0xbe1c7b38	-0.15281379
17	0xbf19d884	-0.60096
18	0xbf132df2	-0.5749198
19	0xbe93d2c8	-0.2887175
20	0xbf16d96c	-0.5892551
21	0x3f1269e2	0.57192814
22	0xbf8ed792	-1.1159537
23	0xbf821161	-1.0161554
24	0x3e4273ec	0.18989533
25	0xbfcb0255	-1.5860087
26	0xbf0d1af2	-0.5511924
27	0xbf8b0904	-1.0862126
28	0xbf7df749	-0.9920545
29	0xbea620f5	-0.3244702
30	0xbf594130	-0.84865093
31	0xbeeda1a5	-0.46412387
32	0xbf96870e	-1.1759965
33	0x3cccbfed	0.024993861
34	0xbeeb48ff	-0.4595413
35	0xbf8189b5	-1.012015
36	0xbe996708	-0.2996142
37	0xbf7c0f46	-0.98460805
38	0xbe8ea986	-0.2786371
39	0xbe700081	-0.23437692
40	0xbf5a5630	-0.8528776
41	0xbf04bd34	-0.518512
42	0xbebab005	-0.36462417
43	0xbfc6d22b	-1.5532888
44	0xbecbf9e0	-0.39839077
45	0xbf72fbef	-0.9491567
46	0xbf4cb4bd	-0.79963285
47	0xbe21083b	-0.15725796
48	0x3e9566df	0.29180047
49	0xbf583235	-0.8445161
50	0xbf4654ff	-0.77473444
51	0xbf6950c3	-0.9113886
52	0xbf6d5bea	-0.92718375
53	0xbc9f9846	-0.01948179
54	0xbf53f0d8	-0.82789373
55	0xbf597583	-0.84944934
56	0xbdf38236	-0.1189007
57	0xbe684816	-0.22683749
58	0xbf66370e	-0.89927757
59	0xbf91c11a	-1.1387055
60	0xbfa89fba	-1.3173745
61	0xbe878d3f	-0.2647495
62	0xbed21c4b	-0.4103721
63	0xbd23fce1	-0.040036086
64	0x3f2f2edd	0.6843088
65	0xbe743262	-0.23847345
66	0xbdcd2f49	-0.100187846
67	0xbf7638db	-0.96180505
68	0xbf12e801	-0.5738526
69	0xbc57bd7d	-0.013167736
70	0xbf8098c7	-1.0046624
71	0xbe9457db	-0.28973278
72	0x3d334626	0.04376807
73	0xbf58c0d5	-0.8466924
74	0xbf12a4d7	-0.57282776
75	0xbf670976	-0.9024881
76	0xbf97983c	-1.1843333
77	0xbf443f81	-0.766594
78	0xbf19c046	-0.6005901
79	0xbe335de0	-0.17516279
80	0xbe5aa8ad	-0.21353407
81	0xbf7ed6fd	-0.99546796
82	0xbeb69ccf	-0.3566651
83	0xbdfdebe8	-0.12398511
84	0xbf5d6b7a	-0.8649212
85	0xbf30d319	-0.6907211
86	0x3f1b53f4	0.6067498
87	0xbe16c0b5	-0.1472195
88	0xbf924e9a	-1.1430237
89	0x3ecb9390	0.3976102
90	0x3d9c0a91	0.07619203
91	0xbf10fe9c	-0.56638503
92	0xbfa1a274	-1.2627702
93	0xbf7d4464	-0.9893248
94	0xbe4db392	-0.20088032
95	0xbeb14c5d	-0.34628573
96	0xbeb76c16	-0.3582465
97	0xbf700f4f	-0.9377336
98	0xbf6b5a00	-0.91934204
99	0xbe95d411	-0.29263356
100	0x3e2b6349	0.16737093
101	0xbe5007e9	-0.20315517
102	0xbef2b686	-0.4740488
103	0xbefae651	-0.49003842
104	0xbf9187f6	-1.1369617
105	0xbf2d1449	-0.6760908
106	0xbf18b145	-0.5964549
107	0x3d3d3ae9	0.04619876
108	0x3e99871e	0.299859
109	0xbed5a78e	-0.41729397
110	0xbf179d51	-0.5922442
111	0xbfb7cd4b	-1.4359525
112	0xbfb343e8	-1.4005098
113	0xbefbb681	-0.49162677
114	0xbe9d358e	-0.3070492
115	0xbf688c63	-0.90839213
116	0xbf061f0b	-0.5239112
117	0xbfad0d8c	-1.3519759
118	0xbe2516b2	-0.16121939
119	0xbd1b8fbc	-0.037978873
120	0xbf00629f	-0.50150484
121	0x3f2de5a1	0.6792851
122	0xbf6b7f52	-0.9199115
123	0xbcb89e20	-0.022536337
124	0xbe6b67c8	-0.22988808
125	0xbf7a0d0e	-0.9767617
126	0x3cedb2a5	0.029015848
127	0xbf12368e	-0.57114494
128	0xbe188662	-0.14895013
129	0xbf99610b	-1.198274
130	0xbf223f6a	-0.6337801
131	0xbf5ca0b7	-0.8618273
132	0xbf8a108c	-1.07863
133	0x3d5543f6	0.052066766
134	0xbf245a00	-0.6419983
135	0xbd81db17	-0.06340616
136	0x3ed974e4	0.42471993
137	0xbeb4ed3b	-0.35337242
138	0xbf22d1c2	-0.63601315
139	0xbfc245bf	-1.5177535
140	0xbe9f62ba	-0.3113001
141	0xbf9aae12	-1.2084372
142	0xbf1115be	-0.566738
143	0xbf8cdbb3	-1.1004547
144	0xbe02d887	-0.12777911
145	0xbf4eddc4	-0.8080714
146	0xbddfb09b	-0.10922357
147	0xbef3d76e	-0.47625297
148	0xbe8f890b	-0.28034243
149	0xbe59e608	-0.21279156
150	0xbf255182	-0.64577496
151	0xbf00ffd0	-0.5039034
152	0xbedad5cd	-0.42741242
153	0xbf75649b	-0.95856637
154	0xbf8ef3ac	-1.1168113
155	0xbe02cd95	-0.12773736
156	0xbf7e6bf4	-0.99383473
157	0xbf89f815	-1.0778834
158	0xbed12895	-0.40851274
159	0xbf071007	-0.5275883
160	0xbf98d475	-1.1939837
161	0xbe3b9ba8	-0.18321097
162	0xbf7cd197	-0.9875731
163	0xbfac5a56	-1.3465068
164	0xbe74b91b	-0.23898737
165	0xbd85e30d	-0.06537447
166	0xbf9f5040	-1.2446365
167	0x3c0a15e4	0.008428071
168	0xbfd2e5ce	-1.6476381
169	0xbe09e657	-0.13466774
170	0xbf438651	-0.76376826
171	0xbddad216	-0.10684602
172	0xbf730742	-0.9493295
173	0xbf42c974	-0.76088643
174	0xbfe280dd	-1.7695576
175	0xbf7d8ab4	-0.9903977
176	0xbf4bfc2a	-0.79681647
177	0x3e29ae1e	0.16570327
178	0xbf374e97	-0.71604294
179	0xbeb0be08	-0.34519982
180	0xbf1164d5	-0.5679448
181	0xbf536fb3	-0.82592314
182	0xbec06196	-0.37574452
183	0xbfaa2834	-1.3293519
184	0xbf39720c	-0.72439647
185	0xbdc66ed2	-0.09689106
186	0xbed0996d	-0.40742055
187	0xbf572cc2	-0.8405267
188	0xbed651c5	-0.4185926
189	0x3e1b1bd6	0.15147337
190	0xbf15e87a	-0.58557856
191	0xbef7eafa	-0.4842146
192	0xbe462493	-0.1934989
193	0xbe9aad9b	-0.30210575
194	0xbea7daf6	-0.3278424
195	0xbedb4b8b	-0.42831072
196	0xbf23fbbe	-0.64056003
197	0xbed82803	-0.42218027
198	0xbf7c8c2c	-0.98651385
199	0xbf200722	-0.62510884
200	0xbf955fa9	-1.1669818
201	0xbe2a2f7b	-0.16619675
202	0xbf92ada6	-1.1459243
203	0xbee8f31d	-0.4549798
204	0xbe9e4784	-0.30913937
205	0xbf5d0aa7	-0.8634438
206	0xbf327752	-0.6971332
207	0xba053daf	-0.0005082739
208	0x3f074bcb	0.52850026
209	0xbe003a94	-0.12522346
210	0x3ecda8dc	0.40167892
211	0xbf798277	-0.974647
212	0x3d512686	0.05106213
213	0xbf670fc3	-0.90258425
214	0xbf877fad	-1.0585839
215	0xbf01886c	-0.5059879
216	0xbfaf0166	-1.3672302
217	0xbf2d03ae	-0.6758374
218	0xbf075487	-0.52863353
219	0x3e3dadf6	0.18523392
220	0xbf0acb6b	-0.5421664
221	0xbf7ad10c	-0.9797523
222	0xbebe1bf9	-0.37130716
223	0xbf78061d	-0.9688433
224	0xbf62d7f9	-0.886108
225	0xbf089bce	-0.5336274
226	0xbf264fd9	-0.6496559
227	0xbee664c5	-0.44998756
228	0xbf418e6a	-0.7560793
229	0xbe21aab3	-0.15787773
230	0xbe96c54d	-0.29447404
231	0xbe83c477	-0.25735828
232	0xbf85158d	-1.0397202
233	0xbf5f315b	-0.87184685
234	0xbfd0d5af	-1.6315211
235	0x3ddac783	0.10682585
236	0xbe0d04d1	-0.13771369
237	0xbf45627e	-0.7710341
238	0xbd5fe40b	-0.054660838
239	0xbf731dfd	-0.94967633
240	0xbf82da90	-1.022295
241	0xbe25ded0	-0.16198277
242	0xbf612229	-0.8794275
243	0x3e86cbad	0.26327267
244	0x3e59f33c	0.21284193
245	0xbdd55a44	-0.104176074
246	0xbfb729e6	-1.4309661
247	0xbf2d56c9	-0.6771055
248	0xbf2cebc2	-0.6754724
249	0xbe9df580	-0.30851364
250	0xbe199eb0	-0.1500194
251	0xbe87dc1f	-0.26535127
252	0xbe674f33	-0.22588806
253	0xbf747d4d	-0.95503694
254	0xbf275914	-0.653703
255	0xbf89cc15	-1.0765406

l2.weight f4 [300, 300]
0	0xbfd8f061	-1.6948358
1	0x3fb26475	1.3936907
2	0xbfa3ead9	-1.2806045
3	0xbd43844f	-0.0477336
4	0x3ea2cfab	0.31799063
5	0x40061a21	2.0953448
6	0x3e74d15d	0.23907991
7	0x3d98f177	0.07467931
8	0xbfa7c648	-1.3107386
9	0x4042a5be	3.041366
10	0x3e8b7657	0.27238724
11	0x3e3c7b26	0.18406352
12	0x3f764450	0.96197987
13	0x3efb4e17	0.49083015
14	0x3f5294d0	0.8225832
15	0x40012833	2.0180786
16	0x3f0a0789	0.5391775
17	0xbd711de8	-0.05886641
18	0x3ff70ace	1.9300172
19	0xbde7b43e	-0.11313675
20	0x3e99bfdf	0.300292
21	0xbdd77ed8	-0.105222404
22	0xbf42dde7	-0.76119846
23	0xbf224b62	-0.63396275
24	0x3f82f25a	1.023021
25	0x3f2959a0	0.6615238
26	0x3fe31688	1.7741251
27	0xbfe87247	-1.8159875
28	0x3fb87661	1.4411126
29	0xbe414baf	-0.18876527
30	0x3fbd6911	1.4797689
31	0x3ff64022	1.9238322
32	0xbf000ff3	-0.50024337
33	0xbf272917	-0.65297073
34	0xbf3250cc	-0.69654536
35	0x400aabb6	2.1667304
36	0x3c61ca99	0.013781213
37	0xbf42d10c	-0.7610023
38	0x3f356b59	0.70866925
39	0x3e987542	0.2977696
40	0x3f037eef	0.5136556
41	0xbe3ebc67	-0.18626557
42	0x3f3a49a1	0.727686
43	0x3f9ac979	1.2092735
44	0x3ed25010	0.41076708
45	0x3ef44e49	0.47715977
46	0xbe1993a5	-0.14997728
47	0xbe2c4d27	-0.16826306
48	0x4056f6cc	3.3588133
49	0xbec28d4b	-0.37998423
50	0x3f6cd932	0.92518914
51	0x3eecbf48	0.46239686
52	0x403551da	2.8331208
53	0x3f495bf3	0.7865593
54	0xbdac2f0d	-0.08407412
55	0x3fd29f4c	1.6454864
56	0x3f1a9f54	0.60399365
57	0xbf20cce3	-0.6281263
58	0xbf3a8951	-0.7286578
59	0x401fafd8	2.4951077
60	0x403086ba	2.758223
61	0x3fb10ed1	1.3832647
62	0xbe373fe9	-0.17895474
63	0x4009143a	2.1418595
64	0xbffa3ddf	-1.9550132
65	0x3eff0020	0.49804783
66	0xbe0df3b8	-0.13862503
67	0x3f1f00e0	0.6211071
68	0x4014468f	2.3168066
69	0x3fa43116	1.282748
70	0xbe8d0aa1	-0.27547172
71	0x3fb010a3	1.3755077
72	0x3e799b66	0.24375686
73	0x3fef1744	1.8678975
74	0xbde04ed3	-0.109525345
75	0x3fcde5a8	1.608571
76	0x3f8155e8	1.0104342
77	0xc0348752	-2.8207593
78	0xbcb4c484	-0.022066362
79	0x3e9ac650	0.30229425
80	0xbe16ee3c	-0.14739317
81	0x3fc15796	1.5104854
82	0x3f169f49	0.588368
83	0x3f99efb8	1.2026281
84	0xbed2ea29	-0.41194275
85	0xbf859616	-1.0436428
86	0x3f724a01	0.9464417
87	0x3fbf93db	1.4966997
88	0x3eca451d	0.39505854
89	0x3e9c011e	0.30469602
90	0xbf6c3c56	-0.92279565
91	0x3f8b4091	1.0879079
92	0x3efa7fff	0.48925778
93	0x3e5203b9	0.20509233
94	0x3f58441a	0.84478915
95	0x3f84e9c8	1.0383844
96	0xbd4d8f6e	-0.050185613
97	0x400fe835	2.2485478
98	0x3f81c56f	1.0138377
99	0xbe07cb19	-0.1326107
100	0xbc8dcfb0	-0.017310947
101	0x3fbbf540	1.4684219
102	0x3e86a5f1	0.26298478
103	0x40544ec7	3.3173082
104	0x3eb8f5ba	0.36124974
105	0x3da76628	0.08173782
106	0xbf132489	-0.57477623
107	0x3e904a7f	0.28181836
108	0xbe69766b	-0.22799079
109	0xbe6cd142	-0.231267
110	0xbdd87f18	-0.10571116
111	0xbfaeab70	-1.3646069
112	0x3f17590c	0.5912025
113	0x3f37fc66	0.71869504
114	0x3f06c23f	0.52640146
115	0xbfa514d6	-1.2896984
116	0xc04a194f	-3.1577947
117	0x3f5bc130	0.85841656
118	0x3f692c52	0.9108325
119	0xba99928b	-0.0011716647
120	0x3fb164b2	1.3858855
121	0x3cc2aa95	0.02376298
122	0x3f92731e	1.1441381
123	0x3f91fb54	1.1404824
124	0xbeb056c4	-0.34441197
125	0x3f617a4b	0.8807723
126	0xbddaa294	-0.106755406
127	0x4019e79a	2.4047608
128	0xbf840e58	-1.0316877
129	0x3ee30d4e	0.44346088
130	0xbf9acc95	-1.2093683
131	0xbd9bf17d	-0.076144196
132	0x3f0d6d85	0.5524524
133	0x3fbbfe3e	1.4686964
134	0x3f8397de	1.0280721
135	0xbf830873	-1.0236953
136	0x3f883e8d	1.0644089
137	0x3f8d9a63	1.106274
138	0xbf3334fb	-0.70002717
139	0xbf907885	-1.128678
140	0x3f9b5a42	1.213692
141	0x3f89df11	1.07712
142	0xbf8ee011	-1.116213
143	0xbe63b4f9	-0.22237004
144	0xbe4f962c	-0.2027213
145	0x4027095f	2.609947
146	0x3e9eb737	0.30999157
147	0x3fefcf2a	1.8735096
148	0x3f4e08f6	0.80482423
149	0xbe0d4ec0	-0.13799572
150	0xbd184920	-0.037179112
151	0xbf2d9fb3	-0.67821807
152	0x3e871701	0.26384738
153	0x3f397cbb	0.7245595
154	0x3d1ba074	0.037994817
155	0x3fd827f8	1.6887197
156	0xbf443716	-0.76646554
157	0x3f166604	0.58749413
158	0x3e95d5f1	0.29264787
159	0x400da667	2.2132814
160	0x40159af6	2.337583
161	0xbf2c973d	-0.6741827
162	0x3e8d28ff	0.2757034
163	0x3f1bc433	0.6084625
164	0x3f1df1d7	0.61697143
165	0x3e772e88	0.24138844
166	0xbfc0ded4	-1.5068002
167	0xbecbd035	-0.39807287
168	0xbf4f5a0d	-0.8099678
169	0x3ec7a0ff	0.38990018
170	0xbf04099e	-0.51577175
171	0xbf3b74c6	-0.7322506
172	0x3f898eb7	1.0746678
173	0xc028d326	-2.6378875
174	0x401c2251	2.4395945
175	0x3cf67184	0.030083425
176	0x3fbfcb52	1.4983923
177	0x3ee9bacf	0.45650336
178	0x3f7dd28f	0.9914941
179	0x3fa11074	1.2583146
180	0xbe5ef80b	-0.21774308
181	0xbf9aa66c	-1.2082038
182	0xbf2106a5	-0.62900764
183	0x4003377c	2.0502615
184	0x3eb84ca1	0.35995963
185	0x3e6f678e	0.23379347
186	0x3f5183a5	0.818415
187	0x3fcbfae1	1.5935937
188	0x3f5480dc	0.83009124
189	0x3e681cfd	0.22667308
190	0x3f80e515	1.006991
191	0x3f46b76c	0.7762363
192	0x3fdef1de	1.7417562
193	0xbf86e2a8	-1.053792
194	0xbf812de8	-1.0092134
195	0xbd540379	-0.051761124
196	0xbf40c9a8	-0.75307703
197	0xbcde2e6c	-0.027121745
198	0x3ecb3781	0.39690784
199	0x3eb53e83	0.35399255
200	0xc00c778d	-2.1947968
201	0xbef301c0	-0.47462273
202	0x3e110955	0.14163716
203	0xbf681987	-0.9066395
204	0x3cf96b21	0.03044659
205	0x3efe1f13	0.49633083
206	0x3ff104e2	1.8829615
207	0x3fea16d1	1.8288213
208	0x3e36d739	0.17855538
209	0xbee3698a	-0.44416457
210	0x3f6d04b5	0.9258531
211	0x3e016561	0.12636329
212	0xbdf15746	-0.11784224
213	0xbdd8db09	-0.10588653
214	0x3fc3011e	1.5234716
215	0x3fc5e8f2	1.5461714
216	0x3f941057	1.1567487
217	0x3f680646	0.9063457
218	0x3fccbcfa	1.5995171
219	0x3fe30178	1.7734823
220	0xbea168f3	-0.31525382
221	0x3e7d821b	0.24756663
222	0x4001bf3b	2.0272968
223	0xbdbbd829	-0.09172089
224	0xbfbeef85	-1.4916846
225	0xbfbae66a	-1.4601567
226	0xbdc34ddf	-0.09536337
227	0xbdb9ec43	-0.090782665
228	0xbe863369	-0.26211098
229	0xbef916ac	-0.4865011
230	0x3e932fdd	0.28747454
231	0x3f51a56d	0.81893045
232	0x3dd17950	0.10228217
233	0x3f9c2338	1.2198248
234	0x3fa22d73	1.267012
235	0xbcb684f8	-0.022280201
236	0x400ac2ef	2.1681478
237	0x3f2187f8	0.63098097
238	0x3f431d04	0.7621615
239	0x3f7e0b14	0.99235654
240	0x3e01d87e	0.12680241
241	0x3f25468e	0.6456078
242	0x3dd5ee90	0.10445893
243	0xbfbedd07	-1.4911202
244	0xbf3a0e54	-0.72678113
245	0x3f7a3364	0.97734666
246	0x3f9f10f1	1.2427045
247	0x3ee3de22	0.4450541
248	0x3da08910	0.078386426
249	0x3f0767fd	0.5289305
250	0x3fdb7a0a	1.7146618
251	0x3eb82652	0.35966736
252	0xbe06131f	-0.13093232
253	0x3f2bee2d	0.671603
254	0x3f680032	0.906253
255	0x3f8a8bb4	1.0823884

l2.bias f4 [300]
0	0x3f8ad359	1.0845748
1	0x3f1f39c2	0.62197506
2	0x3fc38eb6	1.5277927
3	0x3f0c3935	0.5477479
4	0x3f59399e	0.8485354
5	0x3f8ae56f	1.0851268
6	0x3f7ca690	0.98691654
7	0x3fb36c35	1.4017397
8	0x3f8ffae0	1.1248436
9	0x3ed6d96a	0.4196275
10	0x3f99e3b5	1.2022616
11	0x3f38ae83	0.72141284
12	0x3f3849f1	0.71987826
13	0x3f28d1cc	0.65945125
14	0x3fae7eb2	1.3632414
15	0x3f8ea4de	1.1144063
16	0x3f6c3f41	0.9228402
17	0x3f2f65b4	0.6851456
18	0x3ec5bda4	0.38621247
19	0x3eff67d8	0.49883914
20	0x3ee59391	0.44839147
21	0x3f57ab50	0.8424578
22	0x3f5ad5e5	0.8548263
23	0x3e2844f6	0.16432557
24	0x3ecf10e7	0.40442583
25	0x3ec7505c	0.38928497
26	0x3fecaa36	1.8489444
27	0xbc8f516a	-0.017494876
28	0xbb2b0afc	-0.0026099076
29	0x3fb630fa	1.4233696
30	0x3facc5b2	1.3497832
31	0x3f1aa6a1	0.60410506
32	0x3f0de0a6	0.5542091
33	0x3f1d561e	0.6145953
34	0x3f8aef42	1.0854266
35	0x3f62e77d	0.88634473
36	0x3f24ed16	0.64424264
37	0x3f158737	0.58409446
38	0x3fce6e52	1.6127417
39	0x3f0cae7e	0.54953754
40	0x3f719e09	0.9438177
41	0x3eb8fe77	0.3613164
42	0x3f6b632d	0.91948205
43	0x3f99affc	1.2006831
44	0x3e5881e1	0.21143295
45	0x3f6d56ed	0.92710763
46	0x3f0fa34c	0.56108546
47	0x3db6843c	0.089119405
48	0x3f0b42bd	0.5439871
49	0x3f7970b4	0.97437596
50	0x3f83b6b1	1.0290128
51	0x3f3228ff	0.69593805
52	0x3fa9c977	1.3264607
53	0x3f76c8e2	0.9640027
54	0x3fb49c42	1.4110186
55	0x3f32d747	0.6985974
56	0x3f935076	1.150893
57	0x3f03afb3	0.5143997
58	0x3f8cd16a	1.1001408
59	0x3f2c5da3	0.6733038
60	0x3ef92765	0.48662868
61	0x3f9f0a0a	1.2424939
62	0x3f92f238	1.1480169
63	0x3e0703e1	0.13185073
64	0x3f294941	0.661274
65	0x3f7173ba	0.9431721
66	0x3cd368f7	0.025806887
67	0x3f65e7f6	0.8980707
68	0x3ee27bde	0.44235128
69	0x3f0e0906	0.5548252
70	0x3eb0c028	0.34521604
71	0x3f7da212	0.99075425
72	0x3f8cbe9f	1.0995673
73	0x3f216427	0.63043445
74	0x3f545149	0.8293653
75	0x3f2dcde7	0.6789231
76	0x3f0802ac	0.53129077
77	0x3ee6e882	0.45099264
78	0x3f8c9967	1.0984315
79	0x3f151a45	0.5824321
80	0x3f4c7894	0.7987149
81	0x3fae57f0	1.3620586
82	0x3ee55c7c	0.44797122
83	0x3ea84f21	0.3287287
84	0x3f34b682	0.70590985
85	0x3f5fbdd7	0.8739905
86	0x3f39c8e5	0.72572166
87	0x3f5d0ca9	0.8634744
88	0x3e9c273a	0.30498677
89	0x3f90e606	1.1320198
90	0x3fbce830	1.4758358
91	0x3f9e84a0	1.2384224
92	0x3ff1e426	1.889775
93	0xbe2fb9fe	-0.17160794
94	0x3f815ed0	1.010706
95	0xbe42d497	-0.19026409
96	0x3f444430	0.76666546
97	0x3f680564	0.90633225
98	0x3f119e42	0.5688211
99	0x3f50d2a1	0.81571394
100	0x3f2f1e03	0.6840517
101	0x3efa6df1	0.48912004
102	0x3db5ec82	0.08883001
103	0x3e7e3509	0.24824919
104	0x3f8ab04b	1.083505
105	0x3f8d18b3	1.1023163
106	0x3f2cfef0	0.67576504
107	0x3f9f6389	1.2452251
108	0x3f42fe74	0.76169515
109	0x3ef9ab3b	0.4876345
110	0x3f99c19f	1.2012213
111	0x3f8d2807	1.102784
112	0x3f5b9bde	0.8578471
113	0x3fa5da9a	1.2957337
114	0x3f2f3878	0.6844554
115	0x3f77a271	0.9673224
116	0x3ee172e6	0.44032973
117	0x3f06caff	0.526535
118	0x3f352367	0.70757145
119	0x3f52f081	0.8239823
120	0x3f13db6f	0.57756704
121	0x3daa043a	0.083015874
122	0x3f780112	0.96876633
123	0x3f3d7fdf	0.7402324
124	0x3ee62af7	0.44954655
125	0x3f386068	0.72022104
126	0x3ea428d4	0.320624
127	0x3fa4293b	1.2825083
128	0x41582faa	13.511637
129	0x3f953673	1.1657242
130	0x3f0f6a1f	0.560213
131	0x3f8c247c	1.0948634
132	0x3f6fc62f	0.9366178
133	0xbd2696b1	-0.040671054
134	0x3f119efe	0.5688323
135	0x3f4f3d96	0.8095335
136	0x3f85af29	1.044408
137	0x3f8e6f0f	1.1127642
138	0x4157ba54	13.48299
139	0x3f6067f2	0.8765861
140	0x3f6e0b42	0.9298593
141	0x3f78a4be	0.97126377
142	0x3f49e470	0.7886419
143	0x3f428775	0.7598794
144	0x3e51f647	0.20504104
145	0x3f09e216	0.53860605
146	0x3f74470b	0.954209
147	0x3fd1075d	1.6330372
148	0x3c342ba2	0.010996731
149	0x3f87d012	1.0610373
150	0x3f83a161	1.0283624
151	0x3fa1858c	1.261888
152	0x3ef1592f	0.47138354
153	0x3da5311c	0.080660075
154	0x3f1c6b2f	0.6110105
155	0x3f58e064	0.8471739
156	0x3f08f426	0.5349754
157	0x3f6b1d21	0.9184132
158	0x3f7913ef	0.9729604
159	0x3f8ac3b8	1.0840979
160	0x3f81d490	1.0142994
161	0x3f80f7a6	1.0075576
162	0x3fbd9c41	1.481331
163	0x3f3a2a9c	0.72721267
164	0x3f545848	0.82947206
165	0x3f93f4af	1.1559047
166	0x3f848010	1.0351582
167	0x3f837f9d	1.027332
168	0x3f2c970a	0.6741797
169	0x3fa214e0	1.266262
170	0x3fa8ad68	1.3177919
171	0x3f52eedc	0.8239572
172	0x3ee5a8d7	0.44855377
173	0x3f9d4442	1.2286456
174	0x3e41f2f2	0.18940333
175	0x3f4f5424	0.80987763
176	0x3f86ac83	1.0521396
177	0x3f9cd8d7	1.2253674
178	0x3ef9d590	0.48795748
179	0x3f148b83	0.5802538
180	0x3f45f082	0.7732011
181	0x3f972e8f	1.1811084
182	0x3f09ca8c	0.53824687
183	0x3f2de7f1	0.6793204
184	0x3e23951a	0.15974846
185	0x3fc1c8cc	1.5139403
186	0xbe165436	-0.14680561
187	0x3ea90562	0.3301192
188	0x3eda84f3	0.42679557
189	0x3e8db967	0.27680513
190	0x3f601db7	0.8754534
191	0x3f0745c8	0.5284085
192	0x3f3a7398	0.7283263
193	0x3f9d5c98	1.2293882
194	0x3d96d057	0.073639564
195	0xbc250200	-0.010071278
196	0x3fae6ca4	1.3626904
197	0x3fb33cf6	1.4002979
198	0x3f1ca695	0.61191684
199	0x4025dbe4	2.591546
200	0x3ec77225	0.38954273
201	0x3f3f833b	0.74809617
202	0x3e8c10bc	0.27356517
203	0xbbbe3d9e	-0.005805685
204	0x3e033392	0.12812641
205	0x3f1e56e8	0.6185136
206	0x3f2b9895	0.67029697
207	0x3ee85b20	0.45382023
208	0x3ed05e39	0.40696886
209	0x3f545580	0.8294296
210	0x3b9063c6	0.004406425
211	0x4158fcd2	13.561724
212	0x3f35fffb	0.7109372
213	0x3ecbc93d	0.3980197
214	0x3f2c30f8	0.6726222
215	0x3f907894	1.1286798
216	0x3f130690	0.5743189
217	0xbdae0934	-0.08497849
218	0x3f2de254	0.67923474
219	0x3f70b70a	0.94029295
220	0x3f287da5	0.6581672
221	0x3ebafc93	0.36520824
222	0x3f86236f	1.0479563
223	0x3f1be364	0.60893846
224	0x3fc05324	1.5025373
225	0x3ebad8cf	0.36493537
226	0x3fb78dbb	1.4340128
227	0x4154d93d	13.303037
228	0x3eca7885	0.39545074
229	0x3f12a20a	0.572785
230	0x3f6be20c	0.92141795
231	0x3fadd0fe	1.3579404
232	0x3e8a7469	0.2704194
233	0x3f8a16c5	1.0788199
234	0x4158999a	13.5375
235	0x3f2c3c4d	0.6727951
236	0x3d1cb60d	0.038259555
237	0x3f501a05	0.812897
238	0x3f434faa	0.7629343
239	0x3f230e02	0.6369325
240	0x3f601fca	0.87548506
241	0x3fd75268	1.6822023
242	0x3f08b930	0.53407574
243	0x3ecd9483	0.40152368
244	0x3f8cc775	1.099837
245	0x3f0c9bcd	0.54925233
246	0x3eb973e5	0.36221233
247	0x3fee1ba2	1.8602183
248	0x3f0a3ff5	0.5400384
249	0x3e8e87c9	0.2783797
250	0x3f1d3607	0.61410564
251	0x3f65a83f	0.8970985
252	0x3f88b827	1.0681199
253	0x3f9adbf4	1.2098374
254	0x3f4a3673	0.7898933
255	0x3faf4f5d	1.3696095

bn2.weight f4 [300]
0	0x400ba913	2.1821945
1	0x4020ae18	2.5106258
2	0x3fba3d73	1.4550003
3	0x40073be3	2.1130302
4	0x404b512e	3.1768298
5	0x401cffa4	2.453103
6	0x3fea6356	1.8311565
7	0x3fc83856	1.5642192
8	0x402c9b39	2.696974
9	0x40239112	2.5557294
10	0x401b2b4f	2.4245183
11	0x3ff6e7a6	1.9289443
12	0x4034a04d	2.822284
13	0x3ffd2951	1.9778234
14	0x3fce5676	1.6120136
15	0x3fffeb86	1.9993751
16	0x402468f8	2.5689068
17	0x402ee638	2.7328014
18	0x4020e62c	2.5140486
19	0x3ff6872a	1.9259999
20	0x4010a368	2.2599735
21	0x4014e556	2.3264976
22	0x3ff4b7c6	1.9118583
23	0x3ff45902	1.9089663
24	0x4028bfb3	2.6367004
25	0x4000a3c0	2.0099945
26	0x4001947f	2.0246885
27	0x4047fd0c	3.1248198
28	0x4041a82c	3.0258894
29	0x4027d8ba	2.622603
30	0x40291a50	2.642231
31	0x3ffbf962	1.968548
32	0x3ff6e0d3	1.9287361
33	0x4041bcf3	3.0271575
34	0x40049709	2.0717185
35	0x3fdeef7d	1.7416836
36	0x4029e869	2.6548102
37	0x401cbca7	2.4490144
38	0x401369ed	2.3033402
39	0x400fce7e	2.2469783
40	0x40000807	2.00049
41	0x4041f606	3.030641
42	0x400e4c6a	2.223414
43	0x3fe1c3ca	1.7637875
44	0x404677dc	3.1010656
45	0x401264db	2.2874057
46	0x402e8c15	2.7273
47	0x404a4f10	3.1610756
48	0x400f4903	2.2388313
49	0x40416e63	3.0223625
50	0x3fd03c17	1.6268338
51	0x40096b2c	2.1471663
52	0x400afc27	2.1716402
53	0x40150d6c	2.3289442
54	0x402b388d	2.6753266
55	0x3febffa6	1.8437393
56	0x400022c2	2.0021214
57	0x402c601a	2.6933656
58	0x403c99a4	2.9468775
59	0x4029ece7	2.6550844
60	0x4063d05a	3.5595918
61	0x400470df	2.069389
62	0x3fc8a8fb	1.5676569
63	0x404aad5f	3.1668317
64	0x40141160	2.3135605
65	0x40199644	2.3997965
66	0x4047f2be	3.1241908
67	0x400028e7	2.0024965
68	0x4015dc42	2.3415685
69	0x40130e12	2.2977338
70	0x4003f075	2.0615513
71	0x402428d0	2.564991
72	0x3fe5de0c	1.7958388
73	0x40022c67	2.03396
74	0x403b0811	2.9223673
75	0x40081fdf	2.1269453
76	0x40162569	2.3460333
77	0x40148858	2.3208218
78	0x3fbc0795	1.4689814
79	0x40108b92	2.2585187
80	0x402e97ed	2.7280228
81	0x400cf511	2.2024577
82	0x4006a8d9	2.1040556
83	0x4017a589	2.3694785
84	0x401e5d2a	2.4744363
85	0x40242d70	2.5652733
86	0x400b78bb	2.1792438
87	0x4004f86e	2.077663
88	0x402c0007	2.6875017
89	0x3fdd3851	1.7282811
90	0x402b594c	2.6773252
91	0x401222df	2.2833784
92	0x3fd3f5fc	1.6559443
93	0x401fb73b	2.4955585
94	0x3ffd9aee	1.9812906
95	0x405ee121	3.4824908
96	0x3ff3902a	1.902837
97	0x3fd83c03	1.6893314
98	0x402d0291	2.7032816
99	0x400d8a9e	2.2115855
100	0x400d96b3	2.212323
101	0x4019022e	2.390758
102	0x403cd09c	2.9502325
103	0x400ad888	2.169466
104	0x3fe0abf9	1.7552482
105	0x40218a40	2.524063
106	0x400cab93	2.197972
107	0x400a1bfb	2.1579578
108	0x400a51c8	2.1612415
109	0x3fe7875d	1.8088185
110	0x4008dea4	2.138589
111	0x4021f96d	2.5308487
112	0x4010bd3f	2.2615507
113	0x3fb4708a	1.4096844
114	0x400ed20d	2.2315705
115	0x4013552f	2.3020742
116	0x40062e01	2.0965579
117	0x4027e3f2	2.6232877
118	0x40135665	2.302148
119	0x403670c9	2.8506339
120	0x4016053f	2.3440702
121	0x4005af61	2.0888293
122	0x4007567f	2.1146543
123	0x4055b8e8	3.3394108
124	0x4019c2e9	2.4025214
125	0x40161556	2.3450522
126	0x401b132c	2.4230452
127	0x3fb37f84	1.402329
128	0x3dcb9d70	0.09942138
129	0x3fd2fd81	1.6483613
130	0x40262885	2.596223
131	0x4021c47a	2.527617
132	0x4003026d	2.047023
133	0x405ecd0c	3.481265
134	0x4002529a	2.0362916
135	0x402f405d	2.7383034
136	0x401cfbfa	2.4528794
137	0x40206359	2.5060637
138	0x3de0a8f2	0.10969724
139	0x3fd11aba	1.6336281
140	0x3fbc516e	1.471235
141	0x4013d96a	2.310145
142	0x4033c556	2.8089194
143	0x3ff30756	1.8986614
144	0x4019cedd	2.403251
145	0x3ff9eb5b	1.952495
146	0x4014e88c	2.3266935
147	0x400bdeac	2.1854658
148	0x40320a69	2.7818854
149	0x40083992	2.1285138
150	0x400c1f12	2.1893964
151	0x400fdd73	2.2478912
152	0x40081644	2.126359
153	0x4052e14d	3.2950013
154	0x400a2c47	2.1589525
155	0x3fecfee7	1.851529
156	0x4022c551	2.5432932
157	0x4018db4c	2.3883848
158	0x40061404	2.0949717
159	0x40046ebd	2.069259
160	0x3fd3ed08	1.6556711
161	0x400c7a35	2.194959
162	0x3fdc3ea7	1.720662
163	0x40025b15	2.0368092
164	0x40346dd7	2.819204
165	0x40004412	2.0041547
166	0x4009ffc3	2.1562355
167	0x4006a75d	2.103965
168	0x3fc7f00a	1.5620129
169	0x40091e14	2.1424608
170	0x4008cd20	2.1375198
171	0x401a4ff0	2.411129
172	0x4013fa8e	2.3121676
173	0x400c9e72	2.1971707
174	0x40399e77	2.900297
175	0x4004d00c	2.0751982
176	0x400f7f65	2.2421505
177	0x40190154	2.390706
178	0x3fe1e6b8	1.7648535
179	0x4038ac82	2.885529
180	0x402da7f2	2.7133756
181	0x3fe76f5f	1.8080863
182	0x400bf2d3	2.1866958
183	0x3fd0ff25	1.6327864
184	0x405f3109	3.4873679
185	0x3fd51cda	1.664943
186	0x4055396c	3.3316298
187	0x40245d3a	2.56819
188	0x4001bf28	2.0272923
189	0x402d4882	2.7075505
190	0x402f6532	2.7405515
191	0x3fb7ef4e	1.4369905
192	0x3ff94ca9	1.947652
193	0x3fc0d156	1.5063884
194	0x401c3847	2.440935
195	0x4042baaa	3.042643
196	0x3fc15b5a	1.5106003
197	0x400920a7	2.142618
198	0x402c818d	2.6954072
199	0x3fb31b53	1.3992714
200	0x40242013	2.5644577
201	0x402fac5c	2.744895
202	0x40073328	2.1124973
203	0x403be4fb	2.9358509
204	0x402eb2ee	2.729671
205	0x40082131	2.1270258
206	0x400db828	2.214365
207	0x4035825e	2.836082
208	0x401688c8	2.3520985
209	0x3fe4ecdb	1.7884783
210	0x4041dab4	3.0289736
211	0x3de88f9a	0.11355515
212	0x40122d5d	2.2840188
213	0x3fcd5381	1.6041108
214	0x40039f91	2.0566142
215	0x3ff6b0ed	1.9272743
216	0x403415cf	2.813831
217	0x4018313d	2.3780053
218	0x4023c0e9	2.5586493
219	0x401a93d7	2.4152734
220	0x4017e4ae	2.3733325
221	0x400c903c	2.1963034
222	0x40028bc4	2.0397806
223	0x4003284b	2.0493343
224	0x401386eb	2.3051097
225	0x402af82e	2.6713977
226	0x400b6ce1	2.1785204
227	0x3de3c9ba	0.11122461
228	0x401a4580	2.410492
229	0x40168c27	2.3523042
230	0x3fe2c0ce	1.7715089
231	0x3fe42020	1.7822304
232	0x401c241a	2.4397035
233	0x400dd8a3	2.2163475
234	0x3df811eb	0.121127926
235	0x402bf987	2.687105
236	0x401be92b	2.4361064
237	0x40337542	2.8040318
238	0x403af43d	2.9211571
239	0x403a6dca	2.912951
240	0x4002de3e	2.0448146
241	0x3fd07c2c	1.6287894
242	0x40483b16	3.1286063
243	0x4004d8fe	2.0757442
244	0x3ff7c1b5	1.935599
245	0x400cb812	2.1987348
246	0x404df443	3.2180336
247	0x3f94928b	1.1607221
248	0x40137f8f	2.3046606
249	0x404ef02a	3.2334085
250	0x40199b9e	2.4001231
251	0x3ffc70c0	1.9721909
252	0x40118147	2.2735155
253	0x4009796c	2.148036
254	0x4005b823	2.0893638
255	0x3fcb28f3	1.5871872
