weights/model_4.pt (torch, 429959 bytes, 10 tensors)

l1.weight f4 [300, 42]
0.08572923 0.065157615 0.05819291 -0.117639884 0.06806306 -0.11083541 0.02301223 -0.1981335
-0.05424069 0.5659271 0.034556903 0.23329306 0.2374043 -0.23947822 0.20896316 0.07266834
0.37046733 0.13144702 1.5693811 0.23286992 -0.10664878 0.020568669 -0.14207189 0.097513445
0.16121928 -0.19589308 -0.12720942 -0.7714731 -0.14462629 0.029356278 -0.05000406 0.11777603
-0.14686798 1.2619694 0.12333696 -0.36559492 -0.64311826 -0.05707636 0.062013905 0.09010473
-0.28174198 0.15258372 0.21775681 0.20683062 -0.10196997 0.23796749 0.1825809 -0.16090316
-0.0100608 -0.04155543 0.0817802 0.2364827 0.026310364 -0.33051103 0.013700757 -0.0336654
0.77384543 -0.01969422 -0.11906641 -0.39230987 0.14569649 0.36894327 -0.023600152 0.054091256
-0.62610555 0.28699756 0.25881475 -0.13444318 0.73953605 0.73592806 0.40417695 -0.38627708
0.18161637 -0.18993007 0.09194615 0.42426208 0.23123863 -0.32485998 -0.82567555 -0.040514752
-0.5943714 0.030989358 -0.62237555 0.33966687 -0.036915347 -0.01083363 -0.043783445 -0.25334796
0.05307927 0.04108338 -0.11460496 0.022561997 -0.11917465 0.02818514 0.14395231 -0.22625412
-0.023209432 -0.043495845 0.56803006 -0.63189816 0.00719491 0.37814912 0.3676293 0.010919011
-0.62522525 -0.0061903056 0.2303014 0.10714071 0.20267652 0.69019693 -0.14911124 -0.109950386
0.13295388 -0.05177228 -0.017851993 0.029963022 -0.22473949 0.15422812 0.19231436 -0.29313356
-0.37223217 -0.14484619 0.08367574 0.020936364 0.14820196 -0.14818363 0.34300444 -0.08056535
0.034428563 0.031273294 0.12027532 0.10803235 -0.08235927 0.068769805 -0.14755562 -0.42809677
0.050249245 0.04081681 0.050096326 -0.12660922 0.06394104 -0.15329096 -0.56506956 0.7573108
-0.29386207 -0.6785971 -0.10423271 -0.004528669 -0.07803891 0.19957352 0.28208673 -0.41703016
-0.080325894 0.19203043 -0.1369596 0.091783546 -0.08571433 0.056824118 -0.1220162 -0.87471133
0.14691195 0.061144345 0.17715253 0.10715666 -7.349893e-05 -0.017042078 0.017638365 0.1789859
0.08876904 0.06917613 0.20062254 -0.116698496 0.06568995 -0.028186187 -0.18948369 -0.32759073
-0.10179548 0.044958167 0.20020676 0.82345897 0.18985912 -0.2119695 -0.34083435 0.39942914
-0.39491183 -0.121612385 0.9748602 -0.21014006 -0.39472216 -0.18901965 0.10060189 0.22956641
0.18272254 -0.38086063 -0.5703875 -0.58644736 -1.301177 1.1088731 -0.07415425 0.13120465
-0.47642308 1.397156 0.14763944 0.15822692 0.14128797 0.26549032 0.15511347 -0.022902386
-0.11915625 0.15073241 -0.2486555 0.26612258 0.09863927 -0.48070794 -0.07130712 0.05851637
0.005154931 -0.30825138 0.25958425 0.15436573 -0.025747426 0.04043167 -0.11631797 0.21067451
-0.20646034 0.07006435 -0.22462678 0.028953752 0.7713675 -0.114136755 -0.04673551 -0.43681037
-0.34921125 -0.012602172 0.11860015 -0.30147335 -0.1297377 0.06315839 -0.01884107 -0.10702176
-0.08067761 0.05147026 0.5805227 -0.76968426 0.19904453 -0.044376437 -0.65677685 0.080687195
0.35994208 -0.462752 -0.21454477 -0.38366112 0.049429704 0.14104813 0.057292216 0.54609406
00000000: ce92 af3d 5b71 853d b05b 6e3d 2eed f0bd
00000010: a564 8b3d adfd e2bd 2584 bc3c 82e3 4abe
00000020: 7c2b 5ebd 99e0 103f 8a8b 0d3d 60e4 6e3e
00000030: 1d1a 733e c739 75be 70fa 553e 23d3 943d
00000040: e5ad bd3e 0c9a 063e 7be1 c83f 7475 6e3e
00000050: ad6a dabd a07f a83c 4b7b 11be 21b5 c73d
00000060: ab16 253e 3298 48be 3043 02be 437f 45bf
00000070: ea18 14be 947c f03c 0fd1 4cbd 8f34 f13d
00000080: 8f64 16be 3788 a13f 1798 fc3d 422f bbbe
00000090: 66a3 24bf e7c8 69bd 4b02 7e3d d488 b83d
000000a0: 7c40 90be e83e 1c3e a4fb 5e3e 68cb 533e
000000b0: a2d5 d0bd c0ad 733e 7df6 3a3e ccc3 24be
000000c0: 0ed6 24bc 0736 2abd 617c a73d 8528 723e
000000d0: d588 d73c be38 a9be 2479 603c bbe4 09bd
000000e0: bc1a 463f c655 a1bc 17d9 f3bd d7dc c8be
000000f0: 7631 153e 22e6 bc3e 1b55 c1bc cb8e 5d3d
00000100: 7448 20bf 58f1 923e 5e83 843e 79ab 09be
00000110: 3c52 3d3f c865 3c3f 48f0 ce3e 1cc6 c5be
00000120: a4f9 393e 077d 42be 434e bc3d e138 d93e
00000130: d2c9 6c3e 0c54 a6be 795f 53bf ccf2 25bd
00000140: b928 18bf 65dd fd3c 0154 1fbf d1e8 ad3e
00000150: 8c34 17bd 8a7f 31bc 4556 33bd d3b6 81be
00000160: a669 593d 0c47 283d 01b6 eabd f0d3 b83c
00000170: d711 f4bd 86e4 e63c 3c68 133e 29af 67be
00000180: b521 bebc b328 32bd 6b6a 113f 14c4 21bf
00000190: 48c3 eb3b c39c c13e e839 bc3e a7e5 323c
000001a0: c30e 20bf 0cd8 cabb 21d4 6b3e 976c db3d
000001b0: 6f8a 4f3e bfb0 303f 9eb0 18be ab2d e1bd
000001c0: 1025 083e 2c0f 54bd 583e 92bc 0375 f53c
000001d0: 1c22 66be faed 1d3e 0eee 443e 9a15 96be
000001e0: 3795 bebe 8f52 14be 305e ab3d bd82 ab3c
000001f0: 41c2 173e 73bd 17be 479e af3e 72ff a4bd
00000200: f704 0d3d 6d18 003d e852 f63d 1140 dd3d
00000210: faab a8bd 2fd7 8c3d d218 17be 802f dbbe
00000220: 27d2 4d3d 872f 273d ce31 4d3d d9a5 01be
00000230: 85f3 823d 4ef8 1cbe 66a8 10bf 1fdf 413f
00000240: 1775 96be 8ab8 2dbf f677 d5bd 3b65 94bb
00000250: ddd2 9fbd 005d 4c3e ac6d 903e fa84 d5be
00000260: e781 a4bd a0a3 443e 233f 0cbe 03f9 bb3d
00000270: ff8a afbd 68c0 683d a1e3 f9bd 15ed 5fbf
00000280: 1670 163e 7e72 7a3d 7967 353e f374 db3d
00000290: 7023 9ab8 d49b 8bbc 557e 903c 1448 373e
000002a0: 8bcc b53d 37ac 8d3d ff6f 4d3e 9fff eebd
000002b0: 7488 863d b8e6 e6bc 0308 42be f9b9 a7be
000002c0: 267a d0bd 0e26 383d 0003 4d3e 35ce 523f
000002d0: 6e6a 423e 880e 59be d781 aebe fa81 cc3e
000002e0: e231 cabe ea0f f9bd 7090 793f f52e 57be
000002f0: 0619 cabe 5e8e 41be 5d08 ce3d 7513 6b3e
00000300: 9e1b 3b3e 2a00 c3be ea04 12bf 6a21 16bf
00000310: f88c a6bf 8eef 8d3f 2fde 97bd 835a 063e
00000320: baed f3be 02d6 b23f cb2e 173e 3d06 223e
00000330: cbad 103e 59ee 873e 11d6 1e3e c99d bbbc
00000340: 3108 f4bd 9959 1a3e 8c9f 7ebe 3841 883e
00000350: 6303 ca3d 5a1f f6be 7809 92bd dcae 6f3d
00000360: b2ea a83b 20d3 9dbe 3ae8 843e 0d12 1e3e
00000370: 44ec d2bc ae9b 253d 1e38 eebd 0fbb 573e
00000380: 576a 53be e67d 8f3d 9004 66be 6b30 ed3c
00000390: 5778 453f 88c0 e9bd bc6d 3fbd 9ca5 dfbe
000003a0: d1cb b2be 5779 4ebc a3e4 f23d b75a 9abe
000003b0: f6d9 04be 3059 813d 9658 9abc 392e dbbd
000003c0: 4e3a a5bd 7bd2 523d 239d 143f 070a 45bf
000003d0: 54d2 4b3e 11c4 35bd 8722 28bf 543f a53d
000003e0: 544a b83e d5ed ecbe a0b1 5bbe 3b6f c4be
000003f0: cd76 4a3d ec6e 103e 3eab 6a3d d2cc 0b3f

l1.bias f4 [300]
0.3063876 0.1928746 0.17240514 0.2927528 0.22592418 0.00990501 0.29705873 0.21029282
0.17963928 0.05311017 0.17161621 0.38156974 0.1700932 0.056471325 0.054823563 0.17469254
0.069675185 0.16577832 0.23623984 0.1578082 -0.0361942 -0.02759069 0.27467895 0.18305846
0.1470044 0.35337505 0.17539218 0.19999506 0.17488012 0.08015358 0.07135356 0.16569197
0.316664 0.13836023 0.22349076 0.0779353 0.28259626 0.08803439 0.023677044 0.108679615
0.25017652 0.11409959 0.12484372 0.096423894 0.23057091 0.17915483 0.23247859 0.07125673
0.09308708 0.22321735 0.07399027 0.035449874 0.06634195 0.16119114 0.20321046 0.29791892
-0.04607459 0.16634119 0.1538624 0.15626758 0.3127688 0.10247623 0.04920072 0.18649755
0.00049007894 0.0007542908 0.12161845 0.09862882 0.15571077 0.12096554 0.1402019 0.16091982
0.07340689 0.08174463 0.13311031 0.0011092324 0.17144792 0.10306451 0.21599461 0.21138401
0.15434717 0.16915132 0.034226798 0.033670917 0.21727078 0.09108636 0.18686327 0.005404512
0.22168234 0.15873149 0.18262589 0.104672365 0.20786926 0.22063522 0.24189688 0.0019655717
0.29285353 0.03181641 0.07303404 0.15735354 0.25113073 0.14938365 0.08111671 0.15737559
-0.045683898 0.079841465 0.32005855 0.18890962 0.14857452 0.1644465 0.15946692 0.23872913
0.20961288 0.10563308 0.2760858 0.2411016 0.28682464 0.19377148 -0.0067413114 0.3468975
-0.018534988 0.25198302 0.120390065 0.045405008 -0.019411456 0.13432522 0.050652884 0.24259079
0.24052311 0.16349703 0.2939298 0.053710297 0.33650452 0.2024461 -0.025825538 0.030220492
0.20620693 0.008196563 0.21546717 0.25284 0.15286759 0.030349478 0.3322202 0.07436418
0.23835002 0.21964303 0.27610242 0.15207317 0.052232414 0.040643074 0.06625555 0.06686069
0.18672083 0.08571742 0.11502536 -0.031014465 0.1939183 0.09958146 0.15733393 -0.01560444
0.053817958 0.3866221 -0.02274348 0.09175088 -0.020228092 0.094524324 0.23998462 -0.013111735
0.17118654 0.15635508 0.20982772 0.05460466 0.19080229 0.09450088 0.102240846 0.39408928
0.14965895 0.27449054 0.13241914 0.14476676 0.03638678 0.056076646 0.091922514 0.2612713
0.06810214 0.1221971 0.21892296 -0.00034519524 0.13225707 0.20946956 0.1093321 0.046944246
0.077129945 0.012182665 0.1155805 0.12235975 0.15965772 0.0745536 0.23407796 0.14218457
0.07683321 0.11788595 0.7572526 0.11734634 0.20834897 0.09725403 0.064759836 0.031202994
0.15984738 0.038387466 0.008068456 0.12654221 0.08199892 0.20163843 0.081923366 0.098769546
0.26129192 0.13066521 0.19433658 0.0052753584 0.18643509 0.40811896 0.19891071 0.022302859
0.0397885 0.015716203 0.06876375 0.15062463 0.08295178 0.27440134 -0.020365892 0.000102917475
0.10132736 0.13601652 0.10795595 -0.061051756 0.06624436 0.28601736 0.13857104 -0.03138459
0.22544608 0.09886174 0.2760501 -0.0019353253 0.25773087 0.11907301 0.21644013 0.18681453
0.026315073 0.006091409 0.18960065 0.12991883 0.13074027 0.24006973 0.06982979 -0.09442683
00000000: d6de 9c3e eb80 453e f98a 303e b2e3 953e
00000010: ab58 673e a048 223c 1518 983e 0057 573e
00000020: 5cf3 373e 0d8a 593d 29bc 2f3e 1c5d c33e
00000030: e92c 2e3e 7a4e 673d ac8e 603d 9ae2 323e
00000040: ddb1 8e3d cbc1 293e dbe8 713e 7998 213e
00000050: 5f40 14bd df05 e2bc b8a2 8c3e ad73 3b3e
00000060: 5288 163e 93ed b43e 029a 333e 81cb 4c3e
00000070: c613 333e 8f27 a43d d121 923d 28ab 293e
00000080: c921 a23e 4eae 0d3e c3da 643e 8b9c 9f3d
00000090: 75b0 903e 604b b43d 5cf6 c13c 6b93 de3d
000000a0: 2317 803e 0cad e93d 10ae ff3d e479 c53d
000000b0: c81a 6c3e 5d74 373e de0e 6e3e 0cef 913d
000000c0: 70a4 be3d 1793 643e 3688 973d e333 113d
000000d0: 4ade 873d 4a0f 253e 6716 503e d488 983e
000000e0: b6b8 3cbd 5855 2a3e 1b8e 1d3e 9c04 203e
000000f0: 3b23 a03e 0fdf d13d b286 493d 37f9 3e3e
00000100: a478 003a 99bb 453a 1813 f93d e8fd c93d
00000110: a572 1f3e c8bc f73d 1691 0f3e 2ac8 243e
00000120: 5a56 963d bb69 a73d 124e 083e aa63 913a
00000130: 0b90 2f3e 7c13 d33d b12d 5d3e 0d75 583e
00000140: 2f0d 1e3e 0136 2d3e 6631 0c3d 84ea 093d
00000150: 3b7c 5e3e 7c8b ba3d 1659 3f3e 5518 b13b
00000160: b200 633e 828a 223e 4802 3b3e 775e d63d
00000170: aedb 543e 33ee 613e d1b3 773e d2d0 003b
00000180: e6f0 953e ed51 023d df92 953d 4921 213e
00000190: 3594 803e 07f8 183e 8520 a63d 1127 213e
000001a0: 0a1f 3bbd ec83 a33d b7de a33e 8671 413e
000001b0: eb23 183e aa64 283e 4c4b 233e 6975 743e
000001c0: c2a4 563e 2856 d83d 1e5b 8d3e 56e3 763e
000001d0: aeda 923e 086c 463e 38e6 dcbb 8d9c b13e
000001e0: b0d6 97bc eb03 813e 118f f63d 9afa 393d
000001f0: c604 9fbc 8d8c 093e 6679 4f3d b869 783e
00000200: b14b 763e c46b 273e f77d 963e 54ff 5b3d
00000210: 524a ac3e 084e 4f3e 1490 d3bc f790 f73c
00000220: e927 533e e14a 063c 6da3 5c3e 3f74 813e
00000230: 5289 1c3e 789f f83c c418 aa3e 3f4c 983d
00000240: 0712 743e 1aea 603e 4c5d 8d3e 12b9 1b3e
00000250: a8f1 553d 5a79 263d fdb0 873d 42ee 883d
00000260: bf33 3f3e 9d8c af3d 6a92 eb3d 0c12 febc
00000270: 8592 463e 5df1 cb3d 251c 213e c4a9 7fbc
00000280: 3870 5c3d 55f3 c53e 8950 babc e3e7 bb3d
00000290: 62b5 a5bc f895 c13d 87be 753e 9ad2 56bc
000002a0: 864b 2f3e 8c1b 203e 14dd 563e 23a9 5f3d
000002b0: ad61 433e ad89 c13d a663 d13d 12c6 c93e
000002c0: 3240 193e 068a 8c3e e298 073e bd3d 143e
000002d0: 4e0a 153d a0b0 653d df41 bc3d 5ac5 853e
000002e0: 2379 8b3d 7942 fa3d 572d 603e 52fb b4b9
000002f0: 666e 073e 307f 563e 82e9 df3d 9c48 403d
00000300: 4ef6 9d3d cd99 473c 78b5 ec3d c097 fa3d
00000310: 507d 233e 8faf 983d 22b2 6f3e d598 113e
00000320: bb5a 9d3d 306e f13d 4edb 413f 4753 f03d
00000330: 6f59 553e 1f2d c73d cea0 843d 6c9d ff3c
00000340: 08af 233e 2d3c 1d3d 8f31 043c 4894 013e
00000350: 0def a73d 4e7a 4e3e 70c7 a73d b047 ca3d
00000360: 0ec8 853e 1acd 053e 2b00 473e eadc ac3b
00000370: d7e8 3e3e f8f4 d03e 40af 4b3e 7cb4 b63c
00000380: 44f9 223d 44bf 803c 02d4 8c3d 583d 1a3e
00000390: 9fe2 a93d 557e 8c3e 5fd6 a6bc 66d5 d738
000003a0: b884 cf3d ea47 0b3e 0218 dd3d 6811 7abd
000003b0: 1fab 873d de70 923e 91e5 0d3e 218d 00bd
000003c0: 56db 663e 0678 ca3d 7056 8d3e beaa fdba
000003d0: 4df5 833e 8ddc f33d 7ba2 5d3e 4f4c 3f3e
000003e0: b592 d73c 719a c73b ac26 423e 7109 053e
000003f0: c7e0 053e d7d4 753e ec02 8f3d db62 c1bd

bn1.weight f4 [300]
1.1079432 1.4302639 1.179396 0.7953728 0.5512172 1.3088201 1.2383801 0.9197318
1.4320831 1.3999515 1.3864028 1.0608019 0.86743575 1.2866586 0.9683918 1.4363967
1.6059811 0.9902214 1.1031573 0.9981584 0.87469816 2.0289156 1.2913324 1.161141
1.2484239 0.3759016 1.2823527 1.12574 0.6047014 1.0996718 0.7622491 1.3012099
0.6028931 1.2248008 1.3071829 0.9784573 1.9102957 1.1913702 1.2901706 1.2617338
1.2932804 1.9664606 1.2422537 0.61256003 1.0837922 1.0055317 1.2191229 1.1326171
1.4741765 0.86927456 0.9000838 1.1097741 1.4752716 2.0566847 1.1210283 1.1825098
1.921435 1.3501691 0.94202596 0.62747574 0.4825377 0.84799945 1.4144573 1.4506701
1.5261964 1.3452854 1.4716622 0.7699066 1.3905061 1.0633996 0.8137847 0.9418634
1.5211886 0.95237094 1.0277596 1.065834 1.0015938 1.3365695 1.2338009 1.300946
1.2895527 0.8463255 1.362308 1.5361278 0.87572545 0.8381553 1.6846651 1.1541642
0.69950324 1.4502327 1.9281186 1.5398312 0.59715086 0.49342522 1.4691824 1.4381071
1.325757 0.61106396 1.0958027 1.3095046 1.1245053 1.2028368 1.3078719 1.3987454
1.1051273 1.2227898 1.0948547 1.3840144 2.0949445 1.2688841 1.0142286 0.91214
0.8748723 0.9239091 1.2318683 0.80365473 0.76030177 0.77334774 1.4474269 1.6836671
1.2557077 1.5699778 1.280968 1.2378143 1.236552 0.7572853 1.0563009 0.9334261
1.1675065 0.7468878 1.1441456 1.2374996 0.7186869 1.2251486 1.2964008 2.2637644
2.0016236 0.7771165 0.94771326 0.66518295 1.2888634 0.80203366 0.91784775 0.78573364
1.2588962 1.101337 1.2909513 1.0209405 1.1992931 1.483357 0.91479987 1.0102861
1.4936305 0.7840015 0.9457493 1.1103401 0.9476224 0.60849434 1.4313883 1.2177037
0.8993347 1.1245795 0.8434436 0.93079793 1.3767254 1.3153236 0.64576596 1.6605903
1.5212563 1.4872535 1.0401933 1.5541612 1.4381955 0.9736913 0.73691475 0.49819613
1.4707624 1.3862956 1.5063896 0.9035775 1.1990958 1.0337584 0.98913074 1.0685554
1.3733512 1.0702642 1.0314585 1.1506708 0.88501936 1.4986144 1.3476044 1.3971078
1.1038275 0.8464664 1.55672 1.1018375 1.2571993 0.98998725 0.72266924 0.9316403
0.71210796 0.9356646 0.20471747 1.3007402 1.3241363 1.1848195 1.185615 1.5639147
1.3156402 1.5533445 1.8309634 0.8982157 1.5997183 1.0553361 0.9045277 1.7040386
0.8393224 0.9485874 1.7998573 1.6376691 1.7151948 0.23347315 1.2346735 0.7571128
0.99803096 1.3640561 1.1487428 1.315468 1.1299624 1.2455912 1.3764273 1.1337966
1.5311246 0.93634796 0.6790559 1.8150369 1.9026438 1.2131135 1.0545875 1.4370805
1.1423826 1.9442374 1.1981521 1.2574812 1.6377165 1.3046056 0.9597294 0.82596236
0.819114 1.3723437 1.6767831 1.0887468 1.6213918 0.80249596 1.3918577 1.1318737
00000000: 15d1 8d3f e312 b73f 73f6 963f 8d9d 4b3f
00000010: 921c 0d3f 6b87 a73f 3d83 9e3f 8b73 6b3f
00000020: 804e b73f 9c31 b33f a675 b13f 5bc8 873f
00000030: 4510 5e3f 3bb1 a43f 86e8 773f d9db b73f
00000040: ca90 cd3f 267f 7d3f 4234 8d3f 4f87 7f3f
00000050: 38ec 5f3f c1d9 0140 614a a53f 45a0 943f
00000060: 5bcc 9f3f 2d76 c03e 2224 a43f 4018 903f
00000070: b6cd 1a3f 0cc2 8c3f c222 433f 0c8e a63f
00000080: 3457 1a3f 46c6 9c3f c551 a73f 2d7c 7a3f
00000090: 9284 f43f d27e 983f 4f24 a53f 7e80 a13f
000000a0: 368a a53f fbb4 fb3f 2b02 9f3f bcd0 1c3f
000000b0: b4b9 8a3f 43b5 803f 380c 9c3f 99f9 903f
000000c0: d1b1 bc3f c788 5e3f e46b 663f 140d 8e3f
000000d0: b3d5 bc3f b9a0 0340 db7d 8f3f 7b5c 973f
000000e0: 95f1 f53f 57d2 ac3f 9d28 713f 40a2 203f
000000f0: 2e0f f73e 7e16 593f f00c b53f 8faf b93f
00000100: 675a c33f 5032 ac3f 6d5f bc3f 9918 453f
00000110: 1bfc b13f 7a1d 883f 3254 503f f61d 713f
00000120: 4fb6 c23f 95ce 733f a08d 833f 406d 883f
00000130: 3a34 803f b614 ab3f 30ed 9d3f 6685 a63f
00000140: 1010 a53f caa8 583f 1c60 ae3f d69f c43f
00000150: 8b2f 603f 5991 563f 1ba3 d73f a7bb 933f
00000160: a512 333f 3aa1 b93f 97cc f63f 3019 c53f
00000170: e1de 183f 3ba2 fc3e 2b0e bc3f e513 b83f
00000180: 68b2 a93f b06e 1c3f 4343 8c3f d99d a73f
00000190: caef 8f3f 8ef6 993f 5968 a73f 170a b33f
000001a0: d074 8d3f 6084 9c3f 3324 8c3f 6227 b13f
000001b0: 9213 0640 cb6a a23f 3ed2 813f 0282 693f
000001c0: a2f7 5f3f 4f85 6c3f dcad 9d3f 51bc 4d3f
000001d0: 23a3 423f 1efa 453f 4945 b93f 6782 d73f
000001e0: 08bb a03f 08f5 c83f c2f6 a33f b370 9e3f
000001f0: 5647 9e3f 73dd 413f de34 873f 03f5 6e3f
00000200: da70 953f 0a34 3f3f 5d73 923f 6366 9e3f
00000210: ddfb 373f abd1 9c3f 76f0 a53f 84e1 1040
00000220: 9a1a 0040 1bf1 463f 569d 723f 6e49 2a3f
00000230: 7af9 a43f 1452 4d3f 12f8 6a3f d725 493f
00000240: 8323 a13f 9cf8 8c3f e43d a53f 2eae 823f
00000250: 7082 993f a4de bd3f 5330 6a3f 0e51 813f
00000260: 492f bf3f 53b4 483f a01c 723f a01f 8e3f
00000270: 6297 723f 49c6 1b3f bb37 b73f b7dd 9b3f
00000280: cd3a 663f 39f2 8f3f ebeb 573f c648 6e3f
00000290: 8a38 b03f 865c a83f eb50 253f 398e d43f
000002a0: 87b8 c23f 535e be3f 0e25 853f c1ee c63f
000002b0: ca16 b83f d543 793f 72a6 3c3f 9013 ff3e
000002c0: f141 bc3f 2272 b13f 60d1 c03f db50 673f
000002d0: f97b 993f 3252 843f ac37 7d3f 6cc6 883f
000002e0: f9c9 af3f 6bfe 883f d506 843f 2e49 933f
000002f0: a190 623f 99d2 bf3f 4d7e ac3f 6ed4 b23f
00000300: 384a 8d3f 06b2 583f 9a42 c73f 0309 8d3f
00000310: e8eb a03f ce6f 7d3f da00 393f fb7f 6e3f
00000320: b54c 363f b787 6f3f 75a1 513e a87e a63f
00000330: 4c7d a93f 2aa8 973f 3bc2 973f 5b2e c83f
00000340: e666 a83f fed3 c63f 025d ea3f 77f1 653f
00000350: 92c3 cc3f 4115 873f 218f 673f f01d da3f
00000360: d5dd 563f a0d6 723f b961 e63f 249f d13f
00000370: 818b db3f 9613 6f3e c809 9e3f 25d2 413f
00000380: f57e 7f3f 6499 ae3f 010a 933f 4161 a83f
00000390: 9ca2 903f 886f 9f3f c52e b03f 3f20 913f
000003a0: e4fb c33f 80b4 6f3f 9cd6 2d3f 2153 e83f
000003b0: d589 f33f 4e47 9b3f b9fc 863f 41f2 b73f
000003c0: 9839 923f c5dc f83f 0c5d 993f 25f5 a03f
000003d0: b2a0 d13f 51fd a63f d3b0 753f 4572 533f
000003e0: 75b1 513f f5a8 af3f d4a0 d63f 0e5c 8b3f
000003f0: c489 cf3f 6070 4d3f 6528 b23f 3de1 903f

bn1.bias f4 [300]
-0.31324896 -0.45135477 -0.3960627 -0.4723426 -0.66690725 -0.30894035 -0.16784872 -0.544983
-0.36539817 0.04108084 -0.2258682 -0.16688876 -0.42960083 -0.25960693 -0.35201377 -0.29802465
-0.06386001 -0.3255019 -0.3994362 -0.3163154 -0.28201997 -0.11286066 -0.30641434 -0.22595407
-0.29073632 -0.83216494 -0.45703968 -0.38606405 -0.4525525 -0.24468683 -0.3773206 -0.18638694
-0.616955 -0.19909738 -0.2613556 -0.37309086 -0.097692214 -0.53163934 -0.16415395 -0.30166695
-0.21104331 -0.35567066 -0.1273315 -0.50956887 -0.13379446 -0.25762948 -0.062458884 -0.22669257
-0.03691644 -0.46711484 -0.39925447 -0.19946332 -0.124248974 0.18622793 -0.27094465 -0.26234198
-0.025907507 -0.19659728 -0.5004513 -0.58614624 -0.51697946 -0.36460268 -0.28208727 -0.088540934
-0.15948427 -0.2829981 -0.4448717 -0.44669148 -0.17658971 -0.29300353 -0.48031154 -0.38559037
-0.20548603 -0.3409616 -0.41772735 -0.39161566 -0.40650588 -0.30177397 -0.13860993 -0.24044684
-0.25397334 -0.44436938 -0.27241606 -0.24160546 -0.40375912 -0.42661762 0.10896193 -0.18905346
-0.45390368 -0.10778266 -0.09833192 -0.0034106355 -0.62156075 -0.67382693 0.10232965 -0.22538888
0.03811548 -0.6073145 -0.2852066 -0.36699188 -0.13555093 -0.06733286 -0.11291684 -0.30090994
-0.32282156 -0.38711882 -0.3598524 -0.2347494 0.03596163 -0.52058446 -0.31607872 -0.4921207
-0.5087762 -0.47813645 -0.20714426 -0.493624 -0.24479167 -0.46824592 -0.30248448 -0.06086752
-0.40490282 0.076604955 -0.2555404 -0.09544125 -0.2662125 -0.33441383 -0.14168033 -0.04390042
-0.3071928 -0.3912126 -0.29685858 -0.27784303 -0.5446692 -0.12339587 -0.18432863 0.025875421
-0.031409603 -0.4856247 -0.2924821 -0.4969728 -0.25600865 -0.39138448 -0.45597425 -0.5250939
-0.26078182 -0.2539068 0.10534688 -0.38073763 -0.24653901 -0.04953083 -0.30165175 -0.3452591
-0.2408565 -0.5395235 -0.27470216 -0.074995995 -0.41522983 -0.4893257 -0.15779333 -0.24832617
-0.45723206 -0.24879864 -0.3030542 -0.27851194 -0.2908222 -0.17675175 -0.7033788 0.08152803
-0.1575749 -0.32045144 -0.46241575 -0.23360653 -0.22847262 -0.24228469 -0.31147507 -0.58970076
-0.2482559 -0.19849132 -0.12497756 -0.45040923 -0.23333219 -0.32108253 -0.35595274 -0.24552643
-0.22325784 -0.43051824 -0.37502164 -0.3174974 -0.3265067 -0.19859561 -0.21325117 -0.27901053
-0.2658422 -0.2814682 -0.11474173 -0.32704052 -0.14256795 -0.41689157 -0.6458625 -0.39989707
-0.44791076 -0.29358384 -1.0099605 -0.118964456 -0.25177824 -0.30440485 -0.30231422 -0.095310576
-0.15531984 -0.123424165 -0.2818559 -0.36522868 -0.20300482 -0.47349685 -0.2833612 -0.2007771
-0.3042759 -0.4255597 -0.11898395 -0.1470587 -0.21140844 -0.84563774 -0.14303987 -0.24702832
-0.29744166 -0.19753516 -0.24210535 -0.33522862 -0.3231484 -0.43335038 -0.17013401 -0.208569
-0.22072749 -0.3571285 -0.6187286 -0.051377695 -0.05293349 -0.3809142 -0.3009942 -0.16645736
-0.14860608 -0.10890135 -0.4063353 -0.4560901 -0.051686663 -0.09889945 -0.24509636 -0.4296661
-0.37160346 -0.2155448 0.0306149 -0.39969498 -0.17489788 -0.10876614 -0.44211158 -0.33755907
00000000: 2b62 a0be f917 e7be bbc8 cabe e4d6 f1be
00000010: 6fba 2abf 6e2d 9ebe 89e0 2bbe 0284 0bbf
00000020: 7815 bbbe 6244 283d fe49 67be e3e4 2abe
00000030: a4f4 dbbe 33eb 84be 263b b4be b096 98be
00000040: 09c9 82bd 2fa8 a6be e782 ccbe 18f4 a1be
00000050: ec64 90be 7d23 e7bd 57e2 9cbe 8160 67be
00000060: 64db 94be c308 55bf 1b01 eabe 30aa c5be
00000070: f6b4 e7be 2f8f 7abe 2a30 c1be 38dc 3ebe
00000080: c3f0 1dbf 2fe0 4bbe 67d0 85be c405 bfbe
00000090: db12 c8bd 8419 08bf f917 28be 1774 9abe
000000a0: bd1b 58be 771a b6be 3063 02be 1b73 02bf
000000b0: 6a01 09be 03e8 83be e3d4 7fbd 1922 68be
000000c0: b135 17bd ad29 efbe 156b ccbe 1d40 4cbe
000000d0: 3f76 febd 89b2 3e3e 42b9 8abe b051 86be
000000e0: fb3b d4bc cc50 49be 941d 00bf ae0d 16bf
000000f0: c458 04bf 34ad babe be6d 90be f354 b5bd
00000100: d84f 23be 21e5 90be 39c6 e3be bfb4 e4be
00000110: efd3 34be 8f04 96be 65eb f5be 1a6c c5be
00000120: ee6a 52be 8592 aebe 5ce0 d5be d981 c8be
00000130: 8a21 d0be 1e82 9abe c3ef 0dbe b237 76be
00000140: cb08 82be 6284 e3be 1e7a 8bbe 6c67 77be
00000150: 84b9 cebe a06d dabe 6f27 df3d 3b97 41be
00000160: 1066 e8be 28bd dcbd 3f62 c9bd f884 5fbb
00000170: 9b1e 1fbf ec7f 2cbf 3592 d13d 58cc 66be
00000180: fa1e 1c3d f778 1bbf 9906 92be 5ce6 bbbe
00000190: ddcd 0abe cfe5 89bd f240 e7bd de10 9abe
000001a0: de48 a5be 7034 c6be 933e b8be 2662 70be
000001b0: 814c 133d 0645 05bf 12d5 a1be 3ff7 fbbe
000001c0: 283f 02bf 4dce f4be a01d 54be 49bc fcbe
000001d0: abaa 7abe eebd efbe 3fdf 9abe 3850 79bd
000001e0: 6c4f cfbe 0fe3 9c3d 31d6 82be b476 c3bd
000001f0: 014d 88be 4a38 abbe a614 11be edd0 33bd
00000200: 6048 9dbe 054d c8be d9fd 97be 7141 8ebe
00000210: 716f 0bbf f9b6 fcbd a5c0 3cbe b1f8 d33c
00000220: 5ba7 00bd cda3 f8be 37c0 95be 3873 febe
00000230: 9113 83be 8c63 c8be 7575 e9be 8e6c 06bf
00000240: 3285 85be 1200 82be 1bc0 d73d 0bf0 c2be
00000250: b974 7cbe d7e0 4abd 1972 9abe cdc5 b0be
00000260: 16a3 76be 361e 0abf c3a5 8cbe 8097 99bd
00000270: 0199 d4be e688 fabe 9394 21be 3749 7ebe
00000280: 521a eabe 12c5 7ebe ec29 9bbe 1e99 8ebe
00000290: a6e6 94be 69fe 34be a210 34bf 2bf8 a63d
000002a0: 515b 21be 3612 a4be c2c1 ecbe 8d36 6fbe
000002b0: baf4 69be 7a19 78be a979 9fbe a1f6 16bf
000002c0: cb36 7ebe 4f41 4bbe 3cf4 ffbd 0a9c e6be
000002d0: a2ee 6ebe ee64 a4be 703f b6be 486b 7bbe
000002e0: b49d 64be e36c dcbe d602 c0be 058f a2be
000002f0: e32b a7be a65c 4bbe 845e 5abe 78da 8ebe
00000300: 781c 88be 9a1c 90be b6fd eabd db71 a7be
00000310: 55fd 11be d072 d5be 3f57 25bf 4fbf ccbe
00000320: 8f54 e5be 9f50 96be 6346 81bf a3a3 f3bd
00000330: 14e9 80be f4da 9bbe eec8 9abe 3132 c3bd
00000340: 2a0c 1fbe cfc5 fcbd 6b4f 90be 41ff babe
00000350: 7fe0 4fbe 2e6e f2be b814 91be 8398 4dbe
00000360: 0dca 9bbe f6e2 d9be dbad f3bd 8e96 16be
00000370: 747b 58be b77b 58bf 0b79 12be fef4 7cbe
00000380: 464a 98be a846 4abe 77ea 77be 16a3 abbe
00000390: b573 a5be 1ae0 ddbe 9c37 2ebe 1d93 55be
000003a0: 6306 62be 8cd9 b6be ff64 1ebf 6b71 52bd
000003b0: cad0 58bd 3007 c3be e91b 9abe cc73 2abe
000003c0: 312c 18be ac07 dfbd 2e0b d0be a484 e9be
000003d0: 65b5 53bd cb8b cabd 8afa 7abe 32fd dbbe
000003e0: cf42 bebe c7b7 5cbe 19cc fa3c d2a4 ccbe
000003f0: 6e18 33be c8c0 debd 735c e2be 8bd4 acbe

l2.weight f4 [300, 300]
0.037288167 0.38703647 -0.25190216 0.012480099 0.031015387 -0.2595675 0.092567585 0.09021086
0.1426071 0.3980326 -0.04398717 0.20734783 -0.120613046 0.13099396 -0.12795238 0.39114827
0.2391047 0.029696554 0.21518584 0.37444302 -0.32298824 -0.73424184 0.3431275 0.22420564
0.19425671 0.0043173227 0.59928316 0.16788076 0.1841111 -0.53437173 -0.35369202 -0.0012339039
0.03471896 0.12379556 0.28442279 0.13308083 0.18875022 0.6180155 0.2586167 0.22081167
0.112801835 0.47418404 -0.45135975 0.11745565 -0.006095751 0.096444935 -0.14673734 -0.03625385
0.49532592 0.38658556 0.15575227 0.0950918 0.27404296 0.0105818445 -0.097922094 0.36794454
-0.19650058 0.04629624 0.051598303 0.20655338 0.17661178 0.17516714 0.046113744 -0.28359225
-0.25300923 -0.14145601 -0.22414362 0.055862144 0.028853238 -0.018055353 -0.027699448 -0.13863736
-0.046399336 0.13062462 0.10613045 0.12842202 0.053927165 0.4807956 0.01903552 -0.14270337
0.09812421 0.274694 0.08772057 0.33468962 0.06386292 0.019031756 0.40624073 -0.05042397
0.057179026 0.22103031 0.34538388 0.36474395 -0.068241835 0.04998217 -0.3010212 -0.37745932
0.15840106 0.070199184 0.13886365 0.050557524 -0.08628359 0.3655955 0.07870446 0.1603771
0.34890774 -0.0995543 0.1989496 0.33671954 0.22044425 0.34172502 -0.0051944056 -0.57139903
0.07148268 0.044004343 0.22500943 -0.07253408 0.20344424 0.18310319 0.26264787 -0.24713679
0.16581078 -0.41706744 0.11535635 -0.37072673 -0.2817132 -0.06316183 -0.15379786 0.26180848
-0.28722122 -0.06563562 -0.022103667 -0.25851148 0.12756333 0.25746393 -0.29265824 0.35649723
0.80336297 0.21769425 -0.3135349 0.2964059 0.13273604 -0.036204252 -0.13763545 0.043695316
-0.001223019 0.50282955 0.23697415 -0.12237634 -0.36730656 0.15635934 -0.21251814 -0.2249273
0.07151706 -0.11974123 0.053100016 0.49175414 -0.18455398 0.012312599 0.10403001 -0.8099389
-0.11701241 -0.5307724 -0.07640815 -0.23462473 -0.26355758 0.30212036 -0.25531784 0.25044042
0.5384931 0.44101658 0.18596576 0.42487293 -0.25601658 0.09648018 -0.15456069 0.15709013
0.07644133 0.22123563 0.050595682 0.06339969 -0.23120645 0.19111985 0.22923304 0.46423778
0.30277863 -0.22984633 0.07295617 -0.20358345 0.062966734 -0.17552981 -0.0988086 0.0547793
0.13132972 0.011282796 0.47154623 0.210971 -0.372425 -0.15057217 0.006582746 0.033126347
0.14564744 -0.03518748 0.0525766 -0.049271252 0.106555134 0.27455062 0.22591227 -0.50394225
0.17019363 0.5414648 -0.0061410563 0.18923154 -0.10527671 -0.4079826 0.30895588 0.131391
0.27953127 0.11899559 0.17857204 0.45770457 0.37866554 0.1479451 0.10034749 0.17502159
-0.1170322 0.0039999275 -0.02068188 0.13187627 0.24893545 -0.08342936 -0.13727115 0.36090437
0.035910614 0.21153155 0.104562744 -0.68610424 0.44585243 -0.112500854 -0.1476074 0.13648988
0.42404425 -0.7688049 -0.22380975 -0.19867918 0.071385905 -0.18652144 0.16750202 0.025270725
0.14105518 0.14034303 -0.10315434 0.16303925 -0.19475791 0.18113402 0.0689331 -0.05761097
00000000: 7abb 183d a529 c63e 52f9 80be 5479 4c3c
00000010: fb13 fe3c 08e6 84be 1394 bd3d 79c0 b83d
00000020: 9807 123e eeca cb3e e42b 34bd fd52 543e
00000030: f903 f7bd 4823 063e f305 03be 9644 c83e
00000040: ddd7 743e 3046 f33c ad59 5c3e ffb6 bf3e
00000050: b75e a5be 46f7 3bbf 68ae af3e 2a96 653e
00000060: 3beb 463e 5478 8d3b 9f6a 193f efe8 2b3e
00000070: 9f87 3c3e 96cc 08bf 1f17 b5be f2ba a1ba
00000080: 7835 0e3d 8788 fd3d dd9f 913e 5746 083e
00000090: bd47 413e 4436 1e3f 6869 843e 741c 623e
000000a0: a604 e73d 40c8 f23e a018 e7be 968c f03d
000000b0: debe c7bb ec84 c53d 5042 16be eb7e 14bd
000000c0: 5c9b fd3e 8bee c53e 867d 1f3e 7dbf c23d
000000d0: 5c4f 8c3e 795f 2d3c 618b c8bd 3a63 bc3e
000000e0: 7337 49be 20a1 3d3d be58 533d bb82 533e
000000f0: b8d9 343e 045f 333e c4e1 3c3d 0133 91be
00000100: 6d8a 81be d8d9 10be e885 65be b4cf 643d
00000110: a05d ec3c d2e8 93bc f4e9 e2bc f4f6 0dbe
00000120: 3b0d 3ebd 76c2 053e ec5a d93d 1081 033e
00000130: bbe2 5c3d d72a f63e 61f0 9b3c d520 12be
00000140: 59f5 c83d b1a4 8c3e d8a6 b33d 705c ab3e
00000150: 90ca 823d 7ce8 9b3c c9fe cf3e 5d89 4ebd
00000160: 8e34 6a3d c555 623e 28d6 b03e b8bf ba3e
00000170: 60c2 8bbd 1bba 4c3d 731f 9abe 5942 c1be
00000180: e333 223e 97c4 8f3d 4632 0e3e 6815 4f3d
00000190: 73b5 b0bd 552f bb3e ce2f a13d e539 243e
000001a0: 09a4 b23e 20e3 cbbd 72b9 4b3e 8166 ac3e
000001b0: 23bc 613e 95f6 ae3e d535 aabb 3547 12bf
000001c0: 8365 923d e63d 343d df68 663e bf8c 94bd
000001d0: b053 503e 677f 3b3e c879 863e 6d11 7dbe
000001e0: 4dca 293e dd89 d5be f33f ec3d e5cf bdbe
000001f0: b63c 90be fd5a 81bd 307d 1dbe c30b 863e
00000200: a90e 93be f86b 86bd c012 b5bc 9e5b 84be
00000210: f69f 023e 50d2 833e 4dd7 95be ce86 b63e
00000220: 32a9 4d3f 3eeb 5e3e a587 a0be 84c2 973e
00000230: f5eb 073e e94a 14bd 4ff0 0cbe dcf9 323d
00000240: b54d a0ba 70b9 003f 5aa9 723e 72a0 fabd
00000250: 9b0f bcbe aa1c 203e 5b9e 59be 5853 66be
00000260: 8977 923d e43a f5bd 677f 593d 33c7 fb3e
00000270: b8fb 3cbe c9ba 493c b00d d53d 2858 4fbf
00000280: 34a4 efbd b3e0 07bf e07b 9cbd 7741 70be
00000290: 05f1 86be 85af 9a3e 05b9 82be ba39 803e
000002a0: afda 093f edcc e13e cf6d 3e3e f288 d93e
000002b0: 9b14 83be 6797 c53d 2845 1ebe 3cdc 203e
000002c0: 468d 9c3d 988b 623e 6b3d 4f3d b2d7 813d
000002d0: 62c1 6cbe ecb4 433e 11bc 6a3e 93b0 ed3e
000002e0: cd05 9b3e d65c 6bbe 0b6a 953d 2e78 50be
000002f0: b4f4 803d 16be 33be 2a5c cabd 4260 603d
00000300: 4c7b 063e 7adb 383c 826e f13e c808 583e
00000310: 7dae bebe 972f 1abe 13b4 d73b 7eaf 073d
00000320: 9a24 153e bf20 10bd 905a 573d a7d0 49bd
00000330: 9439 da3d e691 8c3e 8c55 673e 5c02 01bf
00000340: 3d47 2e3e 709d 0a3f ea3a c9bb eac5 413e
00000350: 519b d7bd 18e3 d0be 772f 9e3e 5d8b 063e
00000360: b91e 8f3e f6b3 f33d 97db 363e 4158 ea3e
00000370: 73e0 c13e ec7e 173e fc82 cd3d dc38 333e
00000380: 94ae efbd d311 833b 0c6d a9bc 930a 073e
00000390: efe8 7e3e 03dd aabd cf90 0cbe 75c8 b83e
000003a0: 0217 133d ba9b 583e fe24 d63d 87a4 2fbf
000003b0: c546 e43e d966 e6bd 6526 17be 01c4 0b3e
000003c0: 541c d93e 66d0 44bf 622e 65be 8e72 4bbe
000003d0: c632 923d 7aff 3ebe a685 2b3e 8d04 cf3c
000003e0: c570 103e 15b6 0f3e 9542 d3bd c3f3 263e
000003f0: 9e6e 47be 327b 393e cc2c 8d3d 7bf9 6bbd

l2.bias f4 [300]
0.07749422 0.042519994 0.29427615 0.07569491 0.16787574 0.12825754 0.13437063 0.43462256
0.15474327 0.08441554 0.059096426 -0.0711885 -0.025543079 0.18284974 0.28092504 0.15604043
0.032401986 -0.033020355 0.0410023 0.060537614 0.07885975 0.11638187 0.07061404 0.017158324
-0.06884843 0.061533693 0.40608647 -0.03148739 -0.059521854 0.12463267 0.11132852 0.06395355
0.14155926 0.07825575 0.096592896 0.07812379 -0.12006654 -0.036865216 0.2668054 0.062314864
0.095352374 -0.05088547 0.054254968 0.2106356 0.010913836 0.13340342 -0.023521567 -0.07946377
0.070769526 -0.0038341891 0.03189892 0.06699175 0.15931235 0.14474714 0.14141573 0.19075269
0.13415608 0.11931461 0.06345715 0.12975676 -0.034108 0.15295482 0.18855575 0.037846934
0.084773816 0.018837173 -0.033693023 0.09108651 0.055030912 0.08751926 0.19365041 0.17134167
0.19461371 0.26636732 0.15554179 0.048773054 0.16999829 0.059781943 0.0035515537 0.13029361
0.1271417 0.058489844 -0.030013498 -0.0016796435 0.10370666 0.015663676 0.061433613 0.04303778
0.050946046 0.2850635 -0.025373816 0.09060444 0.14338635 0.06435465 0.10928883 -0.026760554
0.21332142 -0.08832516 0.14683239 0.029758982 -0.0130858105 0.032648478 0.019800244 0.23637304
0.057341844 0.0029834923 0.11108052 -0.034843896 0.11613708 0.059534095 0.09153497 0.1695866
0.16535008 0.14539124 0.051849153 0.103104 0.12588167 0.03040905 0.08625264 0.23072217
0.101293 0.08472244 -0.0023150502 0.07020337 -0.095337994 0.093447514 0.00898313 0.2049117
0.4069156 0.06595887 0.11907482 0.041133042 0.23227036 -0.025501788 0.06841989 0.1140241
0.05213767 0.08226876 0.2526351 0.19371347 0.1186972 -0.038080618 0.063870266 0.07969711
0.06787271 0.1328548 0.104117215 0.13013072 -0.056877214 0.2446086 0.1139969 0.04331153
-0.020370688 0.1229663 0.06742929 0.021000432 0.13186724 0.119633704 0.27873972 0.16269417
0.22987291 0.15996966 0.22399108 0.20662366 0.07628275 0.11599633 0.13117367 0.06464315
0.09152694 0.14992684 0.07217697 0.018632669 0.16683681 0.15141705 0.033376656 0.17349859
-0.032120567 0.021456396 0.09870478 0.1107805 0.048488546 0.14448866 -0.1522859 0.025867071
0.07272268 0.3058176 0.000579461 0.04228501 0.071184225 0.0023700392 0.019228434 0.15923762
0.082701266 0.20755218 0.045763686 0.017298745 0.110975206 0.24081737 0.11961958 0.2705795
0.10404967 0.09466131 0.0007003092 -1.0640464 0.082779065 0.0028276625 -0.056656588 0.02483899
0.059324708 0.097664125 0.08312036 0.39559516 0.070722595 0.1207596 0.20173371 0.21084112
-0.06811146 -0.025932714 0.080858536 0.13115038 -0.035677075 0.09453949 0.05268415 0.109995715
0.20915417 -0.04165152 0.28004083 0.35199773 0.09584575 0.043226667 0.22429994 0.27533054
0.07159116 -0.075807616 0.33930382 -0.067089245 -0.1215058 -0.04386782 0.09145028 -0.09998668
-0.041453604 0.28001922 0.052502055 0.045889825 0.12662053 0.112860896 -0.021960441 0.19566394
0.010661165 -0.019969253 0.031127606 0.20165849 0.083612554 0.09862413 0.17238192 0.097899474
00000000: 4ab5 9e3d 7229 2e3d 5dab 963e ef05 9b3d
00000010: 9ee7 2b3e f255 033e 7498 093e d986 de3e
00000020: 0575 1e3e 0ee2 ac3d 180f 723d 47cb 91bd
00000030: b83f d1bc f63c 3b3e 68d5 8f3e 10c9 1f3e
00000040: f2b7 043d 5a40 07bd 07f2 273d 4af6 773d
00000050: 3881 a13d 9e59 ee3d 189e 903d 9d8f 8c3c
00000060: 6800 8dbd c10a 7c3d 91ea cf3e ecf8 00bd
00000070: 30cd 73bd 6a3f ff3d 3500 e43d 14fa 823d
00000080: e9f4 103e 8d44 a03d 7fd2 c53d 5eff 9f3d
00000090: 72e5 f5bd fbff 16bd b89a 883e df3d 7f3d
000000a0: 1b48 c33d 486d 50bd 753a 5e3d dcb0 573e
000000b0: f2cf 323c e89a 083e 4db0 c0bc e7bd a2bd
000000c0: 9def 903d 0547 7bbb 71a8 023d f832 893d
000000d0: c722 233e 9838 143e 49cf 103e ac54 433e
000000e0: 3660 093e 385b f43d d2f5 813d f5de 043e
000000f0: d5b4 0bbd 30a0 1c3e c214 413e 6305 1b3d
00000100: e59d ad3d 6a50 9a3c b201 0abd 908b ba3d
00000110: 1868 613d 4c3d b33d 4b4c 463e 3174 2f3e
00000120: d148 473e 4c61 883e 5946 1f3e 41c6 473d
00000130: 0814 2e3e e9dd 743d 2fc1 683b b06b 053e
00000140: 6f31 023e 0c93 6f3d dede f5bc 7c27 dcba
00000150: 2864 d43d 1c51 803c d0a1 7b3d 6248 303d
00000160: cdac 503d d8f3 913e c0dc cfbc d28e b93d
00000170: dfd3 123e 5fcc 833d d2d2 df3d f338 dbbc
00000180: ee70 5a3e d2e3 b4bd 3b5b 163e 1cc9 f33c
00000190: de65 56bc 69ba 053d 1f34 a23c c60b 723e
000001a0: 48df 6a3d b286 433b 2f7e e33d 79b8 0ebd
000001b0: 47d9 ed3d 06da 733d b076 bb3d 1ca8 2d3e
000001c0: 8851 293e 71e1 143e c75f 543d 3128 d33d
000001d0: 20e7 003e 661c f93c 39a5 b03d 6f42 6c3e
000001e0: b472 cf3d f582 ad3d 19b8 17bb c9c6 8f3d
000001f0: 9140 c3bd 6961 bf3d fa2d 133c 5fd4 513e
00000200: 3e57 d03e 7215 873d 80dd f33d 1f7b 283d
00000210: 48d8 6d3e 20e9 d0bc ba1f 8c3d 7885 e93d
00000220: 4f8e 553d 867c a83d 6359 813e d35c 463e
00000230: 8517 f33d 6cfa 1bbd 6ace 823d 3d38 a33d
00000240: d900 8b3d 170b 083e 683b d53d fd40 053e
00000250: 15f8 68bd ad7a 7a3e 3577 e93d 6e67 313d
00000260: 6ee0 a6bc c1d5 fb3d 5e18 8a3d 1909 ac3c
00000270: 3508 073e 8402 f53d f9b6 8e3e 4d99 263e
00000280: ce63 6b3e 16cf 233e eb5d 653e 2795 533e
00000290: 213a 9c3d 7c8f ed3d 6452 063e a163 843d
000002a0: 7a72 bb3d 6c86 193e 85d1 933d 8aa3 983c
000002b0: 45d7 2a3e 120d 1b3e f6b5 083d 9da9 313e
000002c0: db90 03bd 53c5 af3c bb25 ca3d e3e0 e23d
000002d0: ed9b 463d d6f4 133e d6f0 1bbe 2ee7 d33c
000002e0: a1ef 943d 2094 9c3e f8e6 173a 0c33 2d3d
000002f0: 09c9 913d a952 1b3b f384 9d3c 300f 233e
00000300: 485f a93d 8f88 543e b472 3b3d 19b6 8d3c
00000310: f846 e33d d498 763e 1cfb f43d 6589 8a3e
00000320: fe17 d53d cadd c13d f494 373a ac32 88bf
00000330: 1288 a93d 4e50 393b bd10 68bd 237b cb3c
00000340: 77fe 723d 2104 c83d 023b aa3d 738b ca3e
00000350: 02d7 903d cf50 f73d 4893 4e3e bce6 573e
00000360: 057e 8bbd d870 d4bc 2999 a53d 494c 063e
00000370: 2022 12bd ec9d c13d 56cb 573d 6f45 e13d
00000380: 832c 563e c99a 2abd 8361 8f3e 0c39 b43e
00000390: c74a c43d 720e 313d e2ae 653e 20f8 8c3e
000003a0: 639e 923d 0641 9bbd 3bb9 ad3e 1666 89bd
000003b0: 08d8 f8bd beae 33bd 494a bb3d d1c5 ccbd
000003c0: 41cb 29bd ae5e 8f3e 650c 573d f8f6 3b3d
000003d0: d0a8 013e 9d23 e73d 62e6 b3bc 215c 483e
000003e0: 2bac 2e3c 8f96 a3bc 52ff fe3c 907f 4e3e
000003f0: 0f3d ab3d 73fb c93d e384 303e 857f c83d

bn2.weight f4 [300]
1.586589 1.3799876 0.73659027 1.3474541 1.7553862 1.74975 1.0411559 0.74602646
1.3718488 1.4421945 1.2870983 1.692954 1.4472357 0.8080056 0.71354824 1.3310578
1.5747787 1.7906348 1.4779446 1.1461158 1.4674158 1.8199561 1.5485543 1.1952636
1.7324353 1.0590473 0.66237223 2.3969843 2.442237 1.5083159 1.1385355 1.3271708
1.0007635 1.4942789 1.4423766 1.3765639 2.4069068 1.2835498 0.85910153 1.5018672
1.2743229 1.6985003 2.1071358 0.7357568 1.5144778 1.4453324 2.0180664 2.3691266
2.1377537 2.318884 1.8815953 1.3688046 1.5316317 0.99932015 1.371789 1.0655855
1.6686301 1.4953449 1.2524244 2.1924336 2.0121396 0.92582494 0.75299954 2.1851213
1.3182939 1.5269344 2.4423802 1.4991384 1.8710428 1.6769085 1.0496846 1.1641821
0.77908987 0.8585589 1.4774864 1.4137267 1.1365573 1.4376965 1.911786 1.2034928
1.2364339 1.3881353 1.8699749 1.7605667 2.1026278 1.7183111 1.4416636 0.97343034
1.6799728 0.7931742 2.2763534 1.0587126 0.73543084 1.2226207 1.71952 1.6953962
1.0425206 2.1412036 1.692407 1.2940277 1.4712029 2.4361708 2.1317627 1.1479492
0.9984426 2.0575297 1.9390088 1.6318125 1.406255 1.4566294 1.2456106 1.238297
1.1154003 1.4847298 1.5252739 1.5219454 1.2047131 1.292228 1.1735361 1.2901794
1.595631 1.7672174 1.5775112 1.2049954 1.9665133 1.7733991 1.6918359 0.7123154
0.5989091 1.6364974 1.0965184 0.9932915 1.0699859 1.7632278 1.5447695 1.8469076
1.7274253 1.1336673 0.57172734 1.2101136 0.802841 1.563078 1.9421929 1.1105825
1.3367796 1.0518568 1.246224 1.5425504 1.6919295 1.4716254 1.4778143 1.2630868
1.2376456 2.5043163 1.3229795 1.4562109 1.5321244 1.2102253 0.6968391 0.85097796
0.77290195 1.1479528 0.7066839 0.9003026 1.7560439 1.3186222 1.1872603 1.0658042
1.0648875 0.86822003 1.4572339 1.5791714 1.4245437 1.103982 1.6046362 1.0118153
2.036148 1.1671056 1.1271245 1.3932163 1.8287628 0.9824781 1.8251406 1.8919159
2.479062 0.87366664 2.1260984 1.917166 1.4480684 1.9376217 2.2341552 1.3606435
0.96804017 0.662803 1.5634515 1.6842077 1.3088142 0.65617627 1.0883689 0.5891664
1.9247001 1.9093693 2.074122 1.924835 2.2804422 1.1318425 1.5597749 2.2769406
1.4039335 1.0735706 1.9390612 0.47402176 1.2701248 0.7421045 1.0327629 0.94322526
2.1396 1.4148587 1.4041964 1.2506266 1.7718751 1.2534292 1.3124613 1.1682439
0.8434345 2.293673 1.0243082 0.6433314 1.3999385 1.8321409 0.73405933 1.1491717
1.6793941 2.4051101 0.60650843 2.0621736 2.1406627 2.2297971 1.6805035 2.083134
1.7709134 0.65923077 2.4521253 1.5536216 0.9928656 1.2686058 1.9552135 0.96232283
1.611964 1.8436916 1.7287825 0.94250983 1.2249036 0.9415103 1.2928414 1.4915298
00000000: 5915 cb3f 6fa3 b03f 2e91 3c3f 6079 ac3f
00000010: 7fb0 e03f cff7 df3f 9944 853f 97fb 3e3f
00000020: be98 af3f d499 b83f a3bf a43f b7b2 d83f
00000030: 053f b93f 74d9 4e3f 19ab 363f 1a60 aa3f
00000040: 5992 c93f 8533 e53f 4a2d bd3f ecb3 923f
00000050: 48d4 bb3f 52f4 e83f 0737 c63f 66fe 983f
00000060: 71c0 dd3f dd8e 873f 3a91 293f 3168 1940
00000070: 9c4d 1c40 7f10 c13f 88bb 913f bce0 a93f
00000080: 0519 803f 8844 bf3f cc9f b83f 3f33 b03f
00000090: c30a 1a40 5c4b a43f 14ee 5b3f 2f3d c03f
000000a0: 031d a33f 7568 d93f 50db 0640 8f5a 3c3f
000000b0: 69da c13f a700 b93f 0028 0140 c59f 1740
000000c0: f5d0 0840 9868 1440 1dd8 f03f fd34 af3f
000000d0: 820c c43f 72d3 7f3f c896 af3f 1b65 883f
000000e0: ac95 d53f 7667 bf3f 714f a03f d550 0c40
000000f0: e5c6 0040 dd02 6d3f 94c4 403f 07d9 0b40
00000100: dbbd a83f 9672 c33f f54f 1c40 c4e3 bf3f
00000110: 557e ef3f f0a4 d63f 115c 863f eb03 953f
00000120: 6f72 473f 84ca 5b3f 461e bd3f fff4 b43f
00000130: b67a 913f 7006 b83f 67b5 f43f 0d0c 9a3f
00000140: 7743 9e3f 6bae b13f 565b ef3f 405a e13f
00000150: 7491 0640 9ef1 db3f 6f88 b83f bb32 793f
00000160: 5909 d73f 770d 4b3f c6af 1140 e583 873f
00000170: 3245 3c3f d67e 9c3f 3b19 dc3f be02 d93f
00000180: 5171 853f 7b09 0940 cba0 d83f b3a2 a53f
00000190: 6050 bc3f 39ea 1b40 cd6e 0840 00f0 923f
000001a0: ef99 7f3f 91ae 0340 7131 f83f 3bdf d03f
000001b0: 2a00 b43f d572 ba3f 2b70 9f3f 8480 9e3f
000001c0: 70c5 8e3f a00b be3f 2d3c c33f 1bcf c23f
000001d0: 0a34 9a3f ba67 a53f 6e36 963f 9924 a53f
000001e0: a33d cc3f 2e34 e23f e3eb c93f 4a3d 9a3f
000001f0: b5b6 fb3f befe e23f 148e d83f 4d5a 363f
00000200: 1b52 193f bf78 d13f b75a 8c3f 5a48 7e3f
00000210: 4cf5 883f 73b1 e13f 02bb c53f 7867 ec3f
00000220: 461c dd3f 031c 913f b95c 123f 01e5 9a3f
00000230: fd86 4d3f f112 c83f c799 f83f 9127 8e3f
00000240: 981b ab3f 3ea3 863f 4584 9f3f 4b72 c53f
00000250: 2591 d83f 395e bc3f 0529 bd3f d4ac a13f
00000260: 2c6b 9e3f b846 2040 6457 a93f 1e65 ba3f
00000270: a71c c43f aae8 9a3f 0c64 323f b1d9 593f
00000280: e7dc 453f 1ef0 923f 3ce9 343f 3b7a 663f
00000290: 0cc6 e03f 9dc8 a83f 25f8 973f 466c 883f
000002a0: 3c4e 883f ab43 5e3f a486 ba3f 4a22 ca3f
000002b0: 7357 b63f 484f 8d3f b864 cd3f 2a83 813f
000002c0: 4050 0240 b763 953f 9e45 903f e954 b23f
000002d0: e614 ea3f af83 7b3f 359e e93f 4d2a f23f
000002e0: f4a8 1e40 9ea8 5f3f ff11 0840 b265 f53f
000002f0: 4e5a b93f fd03 f83f 66fc 0e40 9129 ae3f
00000300: 7bd1 773f 75ad 293f 2e1f c83f 1e94 d73f
00000310: 3987 a73f 2bfb 273f ac4f 8b3f 9cd3 163f
00000320: 935c f63f 3766 f43f 6abe 0440 fe60 f63f
00000330: c4f2 1140 37e0 903f b4a6 c73f 65b9 1140
00000340: 18b4 b33f c36a 893f 2833 f83f fbb2 f23e
00000350: 7393 a23f 8ffa 3d3f 9331 843f 3677 713f
00000360: 35ef 0840 171a b53f b5bc b33f 8814 a03f
00000370: cecc e23f 5e70 a03f bbfe a73f 0489 953f
00000380: 53eb 573f 8acb 1240 881c 833f 5eb1 243f
00000390: 2f31 b33f 9883 ea3f 50eb 3b3f 0f18 933f
000003a0: 63f6 d63f 53ed 1940 2344 1b3f a7fa 0340
000003b0: 9e00 0940 ffb4 0e40 bd1a d73f 1152 0540
000003c0: 4aad e23f 59c3 283f 9fef 1c40 13dd c63f
000003d0: 712c 7e3f ad61 a23f 7044 fa3f ca5a 763f
000003e0: d654 ce3f 16fe eb3f bf48 dd3f 5348 713f
000003f0: a4c9 9c3f d206 713f d47b a53f 73ea be3f

bn2.bias f4 [300]
-0.006293869 -0.024933163 -0.30061364 -0.011709111 0.018846633 -0.18534726 -0.24086875 -0.37854773
0.13040476 -0.26357204 -0.23665942 -0.2855012 -0.4240453 -0.32073736 -0.36320096 -0.3357462
-0.13858582 -0.27521732 -0.2004606 -0.055467784 -0.20816985 0.057908937 -0.0647849 -0.21251363
-0.14198147 0.03981477 -0.57097024 -0.18390809 -0.140729 -0.027354356 -0.0061119692 -0.12833983
-0.41326192 -0.21130836 -0.2028618 -0.10608433 -0.086288534 -0.2575783 -0.2824485 -0.05599419
-0.18706408 -0.18801682 -0.122986495 -0.45033237 -0.21433258 -0.24210282 -0.15198442 -0.26986784
-0.10662319 -0.20834121 0.079248264 -0.36457554 -0.058308177 -0.40041 -0.15003745 -0.058791075
-0.28928173 -0.087167114 -0.2229061 -0.22419286 -0.12103522 0.040771864 -0.48387694 -0.09345404
-0.18522422 -0.26841056 -0.022986466 -0.17450131 0.13567427 -0.081071146 -0.08224948 -0.109644264
-0.37317783 -0.453203 0.03930465 -0.32377955 -0.26679045 -0.23868382 -0.028501999 -0.26645342
-0.070193745 -0.42045534 -0.16018707 -0.24785154 0.07960949 -0.15926139 -0.41613698 -0.23997524
-0.16956499 -0.30396897 -0.3218506 -0.017134538 -0.26289797 -0.26614735 -0.012489516 -0.105479814
-0.27844337 -0.18341161 -0.08777519 -0.2727406 -0.38302237 0.089252934 -0.102094665 -0.32492262
-0.07885521 -0.13564382 -0.14432216 -0.19000795 -0.057080727 -0.15011497 -0.15035875 -0.12664036
-0.31011993 -0.24682139 -0.15314578 0.079672374 -0.32389376 -0.28907546 -0.23586816 -0.105687
-0.33171865 -0.18283278 -0.13083301 -0.11975947 -0.22912998 -0.028465612 -0.16248433 -0.42640185
-0.28739053 -0.018441522 -0.30455434 -0.18920018 -0.39940956 -0.17795421 -0.14642604 -0.018217793
-0.13214044 -0.21398504 -0.4762046 -0.18398863 -0.2606229 -0.16121796 -0.14981855 -0.28157628
-0.11375605 -0.36076817 -0.47470832 -0.25402555 -0.007523167 0.21196778 0.0071421005 -0.18664733
-0.4959507 -0.003189786 -0.04817289 -0.026617184 -0.18025541 -0.295931 -0.45953515 -0.010736129
-0.17168367 -0.16894281 -0.55463266 -0.1835069 -0.17778562 -0.3388518 -0.18097308 -0.17840363
-0.17345543 -0.32156458 -0.31559148 -0.3024002 -0.103285745 -0.04798833 -0.26983112 -0.09600661
-0.25748834 -0.15238036 -0.3508064 -0.3189088 -0.19223255 -0.38995144 -0.07885542 -0.13146983
-0.16240595 -0.58551353 -0.21137628 -0.02183958 -0.1080403 -0.2228845 -0.07494294 -0.04674952
-0.5482601 -0.54399395 -0.09946458 -0.19314782 -0.09746556 -0.41130877 0.010759293 -0.39613596
-0.49992862 -0.32564583 -0.019847028 -0.39445466 -0.02884928 -0.020938551 -0.33598477 -0.027171133
-0.21149051 -0.22442187 -0.04824232 -0.59267646 -0.052932534 -0.34316897 -0.23989488 -0.39361235
-0.16272058 -0.06339356 -0.17456594 -0.04373558 -0.2681536 -0.44583803 -0.091510974 -0.22997351
-0.35811394 -0.093238376 -0.43393347 -0.34702355 -0.005085218 -0.10828369 -0.5186056 -0.27674836
-0.048854325 -0.2021617 -0.35187137 -0.15648255 -0.064982384 -0.17622246 0.0106138885 -0.1767735
-0.2286059 -0.32308656 -0.1541692 -0.35567233 -0.43913898 -0.2045983 0.005002485 -0.027937224
-0.040363606 -0.119436584 -0.16640566 -0.36461943 -0.30888554 -0.28610784 -0.2121802 -0.3602077
00000000: cd3c cebb a240 ccbc 08ea 99be 92d7 3fbc
00000010: 4164 9a3c accb 3dbe 4ca6 76be 02d1 c1be
00000020: d388 053e eaf2 86be d956 72be 372d 92be
00000030: 771c d9be b037 a4be 7af5 b9be ede6 abbe
00000040: 71e9 0dbe 49e9 8cbe 8b45 4dbe 3032 63bd
00000050: 7a2a 55be ec31 6d3d f2ad 84bd 2c9d 59be
00000060: 9763 11be d014 233d 1b2b 12bf 6752 3cbe
00000070: 431b 10be 3e16 e0bc ea46 c8bb 846b 03be
00000080: 1197 d3be 3861 58be 01bb 4fbe be42 d9bd
00000090: 0bb8 b0bd 4ee1 83be 179d 90be 2a5a 65bd
000000a0: ba8d 3fbe 7b87 40be 58e0 fbbd f791 e6be
000000b0: 007a 5bbe cde9 77be cea1 1bbe 1e2c 8abe
000000c0: 425d dabd 6657 55be ea4c a23d a5a9 babe
000000d0: 8ed4 6ebd 8a02 cdbe 6ba3 19be e9ce 70bd
000000e0: bc1c 94be ac84 b2bd 7f41 64be d092 65be
000000f0: 50e1 f7bd 6600 273d b8be f7be d564 bfbd
00000100: 6bab 3dbe 1c6d 89be 1d4e bcbc 79b0 32be
00000110: 32ee 0a3e a108 a6bd 6a72 a8bd 2c8d e0bd
00000120: 2a11 bfbe 390a e8be eafd 203d 6fc6 a5be
00000130: c298 88be 8869 74be 067d e9bc 956c 88be
00000140: bdc1 8fbd ec45 d7be 1408 24be cbcc 7dbe
00000150: 4d0a a33d 6b15 23be e80f d5be 12bc 75be
00000160: 72a2 2dbe d2a1 9bbe 9ac9 a4be bb5d 8cbc
00000170: 909a 86be 7744 88be d4a0 4cbc cd05 d8bd
00000180: 2190 8ebe 41d0 3bbe 7bc3 b3bd a8a4 8bbe
00000190: 821b c4be 3eca b63d 0217 d1bd 425c a6be
000001a0: d77e a1bd 37e6 0abe 30c9 13be 7291 42be
000001b0: 7bcd 69bd bdb7 19be a5f7 19be 03ae 01be
000001c0: 0ac8 9ebe bfbe 7cbe 3fd2 1cbe 452b a33d
000001d0: 67d5 a5be b301 94be 6c87 71be 6d72 d8bd
000001e0: 07d7 a9be 8438 3bbe 17f9 05be 7444 f5bd
000001f0: 0da1 6abe b730 e9bc 4b62 26be 5851 dabe
00000200: da24 93be ad12 97bc 8cee 9bbe b1bd 41be
00000210: 697f ccbe a139 36be b5f0 15be 7b3d 95bc
00000220: d34f 07be e51e 5bbe 17d1 f3be 8467 3cbe
00000230: 5d70 85be 5216 25be 096a 19be c42a 90be
00000240: eff8 e8bd 9bb6 b8be f80c f3be a30f 82be
00000250: e684 f6bb 150e 593e 4808 ea3b 7a20 3fbe
00000260: 40ed fdbe bb0b 51bb f050 45bd 480c dabc
00000270: e094 38be 4584 97be 3148 ebbe 97e6 2fbc
00000280: d8cd 2fbe 58ff 2cbe 68fc 0dbf 3ce9 3bbe
00000290: 6f0d 36be fc7d adbe 0251 39be 71af 36be
000002a0: 4d9e 31be 1da4 a4be 3595 a1be 33d4 9abe
000002b0: 7a87 d3bd 698f 44bd 4e27 8abe 1d9f c4bd
000002c0: 83d5 83be 9909 1cbe e59c b3be 0448 a3be
000002d0: 9cd8 44be b7a7 c7be f37e a1bd 07a0 06be
000002e0: bf4d 26be 37e4 15bf 0673 58be ebe8 b2bc
000002f0: 3c44 ddbd d63b 64be af7b 99bd 6d7c 3fbd
00000300: c65a 0cbf 3043 0bbf 16b4 cbbd 8bc8 45be
00000310: 069c c7bd 1097 d2be bf47 303c 55d2 cabe
00000320: a5f6 ffbe 0dbb a6be 3c96 a2bc f6f5 c9be
00000330: 5355 ecbc 5387 abbc 3206 acbe ff95 debc
00000340: f890 58be d9ce 65be bd99 45bd a5b9 17bf
00000350: c9cf 58bd d8b3 afbe 01a7 75be 8f87 c9be
00000360: 39a0 26be 7cd4 81bd 6ac1 32be 1424 33bd
00000370: 6e4b 89be e244 e4be 1b6a bbbd 2d7e 6bbe
00000380: b65a b7be c3f3 bebd 872c debe 12ad b1be
00000390: e7a1 a6bb d7c3 ddbd 56c3 04bf f6b1 8dbe
000003a0: 791b 48bd 7a03 4fbe 7c28 b4be f63c 20be
000003b0: 7c15 85bd a973 34be e0e5 2d3c 1d04 35be
000003c0: aa17 6abe 9a6b a5be 88de 1dbe af1a b6be
000003d0: d3d6 e0be 3782 51be e3eb a33b 9bdc e4bc
000003e0: 4f54 25bd 2b9b f4bd 3f66 2abe 66af babe
000003f0: 3f26 9ebe ba7c 92be c445 59be 256d b8be
