weights/model_actor_target_68.pt (torch, 429959 bytes, 10 tensors)

l1.weight f4 [300, 42]
0	0x3f30b219	0.69021755
1	0xbef57095	-0.47937456
2	0x3f427f2c	0.759753
3	0xbf3cdbaa	-0.7377268
4	0x3ee8f7a5	0.45501438
5	0x3e115be7	0.14195214
6	0xbfed8d84	-1.8558812
7	0xbf2ca1f3	-0.67434615
8	0xbf78ceff	-0.9719085
9	0xbd54fb6b	-0.051997583
10	0x3ecf488d	0.4048504
11	0x3e46d9f2	0.19419077
12	0x3ef9b577	0.4877126
13	0xbf3635db	-0.71175927
14	0xc0164bef	-2.3483846
15	0x3e9a14ca	0.30093986
16	0x3eb9d9e0	0.36299038
17	0xbdb7b46f	-0.08969962
18	0x407f88ad	3.992717
19	0x3fc95dd3	1.5731758
20	0xbeb6d5a6	-0.35709876
21	0xbf1200bd	-0.57032377
22	0xbfb09884	-1.3796544
23	0x3f1bcc4e	0.6085862
24	0x3f0e70ac	0.55640674
25	0x3f3a5228	0.7278161
26	0x3ef9ae89	0.48765972
27	0x3ed3a0d5	0.41333643
28	0x3fda62b1	1.7061368
29	0xbfa93470	-1.3219128
30	0xbeaea234	-0.34108126
31	0xbe867548	-0.26261353
32	0x3f5f4a4f	0.8722276
33	0xbfb6b94d	-1.4275299
34	0x3ede8094	0.43457472
35	0xc0b573f9	-5.670407
36	0xc07febd7	-3.9987695
37	0x3f1837bc	0.59460044
38	0xbcbe0b68	-0.023198798
39	0xbf02ce14	-0.510957
40	0xbf507987	-0.81435436
41	0x3fd308ca	1.6487057
42	0x3f1b229f	0.605997
43	0x3f676398	0.90386343
44	0x3ec5fa6b	0.38667616
45	0x3e60d48e	0.21956083
46	0x3e50ae11	0.20378901
47	0x3f98e5f6	1.1945179
48	0xbcc66cf4	-0.024221875
49	0x3e32fad0	0.1747849
50	0xbe80f69b	-0.25188145
51	0xbd2b4b15	-0.04181965
52	0x3eeb57fe	0.4596557
53	0xc00a1383	-2.157441
54	0x3ea7b363	0.3275405
55	0xbef383a5	-0.47561374
56	0x3fec2717	1.8449429
57	0xbfee3616	-1.8610256
58	0xbfc6b092	-1.5522635
59	0xbfcf0888	-1.6174479
60	0xbf8efa17	-1.1170071
61	0x3f35cf1e	0.7101916
62	0xbe3e2146	-0.1856738
63	0xc024184d	-2.5639832
64	0xbffa7ec2	-1.9569933
65	0x3eb3607b	0.35034546
66	0x3f4de5ec	0.8042896
67	0x3ff71e78	1.9306173
68	0x3f6f0c6a	0.9337832
69	0x4056887f	3.352081
70	0xc008e4f7	-2.138975
71	0x3edb2d30	0.42807913
72	0xbf18da0f	-0.5970773
73	0x3f74784b	0.9549605
74	0xc063b4c9	-3.5579093
75	0xbec636f9	-0.38713816
76	0x3f18f70b	0.5975196
77	0xbfc342ec	-1.5254798
78	0xbfb17d4d	-1.3866364
79	0xbf32d3b4	-0.69854283
80	0xbf9b9494	-1.2154717
81	0xbfaabfc0	-1.3339767
82	0xbfccb6da	-1.5993302
83	0xbfc7cafe	-1.5608823
84	0x3e93e946	0.2888891
85	0x3c6db190	0.014507666
86	0x3dfa0841	0.122086056
87	0xbfb822f6	-1.4385669
88	0x3f034c5e	0.512884
89	0xbe954029	-0.29150513
90	0x3f9413cd	1.1568543
91	0xbf61a1ba	-0.881374
92	0xbf55946e	-0.8342961
93	0x3f7448a1	0.9542332
94	0x3f50ad11	0.8151408
95	0xbf8c0124	-1.0937848
96	0x3f3a731c	0.7283189
97	0xbf01dfc5	-0.5073207
98	0xbe27a0a4	-0.16369873
99	0x3fd78899	1.6838561
100	0x3fe23c09	1.7674571
101	0x3ed6e6f4	0.41973078
102	0xc01baff3	-2.432614
103	0x3e1542bd	0.1457624
104	0xbfa1680c	-1.2609878
105	0xbf1de0bb	-0.61671036
106	0xbc844a8b	-0.016148826
107	0x3f597bd9	0.849546
108	0x3f5574ce	0.83381355
109	0x3d1790dd	0.037003387
110	0xbed7cfe5	-0.42150798
111	0x3f6395d6	0.88900506
112	0xbfb07810	-1.378664
113	0x401b85bb	2.4300373
114	0xbe6c3834	-0.23068315
115	0x3f5484ba	0.83015025
116	0x409d1978	4.909359
117	0xbf7a7dcd	-0.97848207
118	0x3f2919aa	0.66054785
119	0x3f261489	0.64875084
120	0xbf0bad84	-0.5456164
121	0xbf23bfde	-0.6396464
122	0xbff7a57b	-1.9347376
123	0xbfe66f5c	-1.8002734
124	0x3e817402	0.2528382
125	0x3fe91b26	1.821141
126	0x3f15c23e	0.58499515
127	0x3ec9161b	0.39274678
128	0x3ef1acde	0.472022
129	0xbdcf34a0	-0.10117459
130	0x3f0b0fa5	0.54320747
131	0xbd87e440	-0.06635332
132	0xbf000d51	-0.5002032
133	0xbfe34e86	-1.7758338
134	0xbf69a776	-0.9127115
135	0x3fca05f1	1.5783063
136	0x3edb1034	0.427858
137	0xbf9b4161	-1.2129327
138	0x3f4cb005	0.79956084
139	0xbf8ebd90	-1.11516
140	0x401fc893	2.496617
141	0xbfdf5776	-1.7448566
142	0xbefa7338	-0.4891603
143	0x3fc4c452	1.5372412
144	0xbe56404e	-0.20922968
145	0xbe937347	-0.28798887
146	0x400584bc	2.0862265
147	0x3f0cf448	0.55060244
148	0xc00c1575	-2.1888096
149	0x3f09fdcf	0.53902906
150	0x3f5a5feb	0.8530261
151	0x3e271de7	0.1632
152	0xbfb86400	-1.4405518
153	0x3f7845c1	0.96981436
154	0x3fd60fb5	1.6723543
155	0xbfb3b505	-1.4039618
156	0xbf00eaa3	-0.5035803
157	0xbf71ff67	-0.9453034
158	0xbf18b836	-0.59656084
159	0x40c3c4a5	6.1177545
160	0x3f079398	0.52959585
161	0x3f91ae06	1.1381233
162	0x3f8387d9	1.0275832
163	0x3fe3d3a7	1.7798966
164	0xbf2d92de	-0.67802227
165	0x3f3662fc	0.7124479
166	0xc095e22e	-4.68386
167	0x3ef5d8f8	0.48017097
168	0x3f16bf7d	0.5888594
169	0x3eafedcb	0.3436111
170	0x3f117112	0.56813157
171	0xbd6781d1	-0.056520287
172	0x3e8c817b	0.27442536
173	0x3f744e1b	0.9543168
174	0x3d0efefa	0.034911133
175	0xbeb63789	-0.35589245
176	0xbf26944c	-0.65070033
177	0xbf3b89af	-0.73256963
178	0x3f11e306	0.56987035
179	0x3d8f235d	0.06989167
180	0x3e8efbbd	0.27926436
181	0xbef96d69	-0.48716286
182	0xc02ac7bf	-2.6684415
183	0x401a6f6c	2.4130507
184	0xbfbc3d2a	-1.4706166
185	0x4012d8c9	2.2944815
186	0x4083d2f5	4.1195016
187	0x3fadf59c	1.3590579
188	0x40af7482	5.482972
189	0x3fa7cca6	1.3109329
190	0xbfb906a8	-1.4455156
191	0x3ef86dc9	0.4852126
192	0x3f2870bf	0.65797037
193	0xbf0ecbab	-0.5577952
194	0x3f8b8635	1.0900332
195	0x3e2f1dfb	0.1710128
196	0x3fe2ca78	1.7718039
197	0xc01e7ded	-2.476436
198	0xbf7cd83e	-0.9876746
199	0xbf5411fa	-0.8283993
200	0xc093ee36	-4.6228285
201	0x408ae247	4.3401217
202	0x3ed9426a	0.42433482
203	0x40361144	2.8448038
204	0x4008db1a	2.138373
205	0x3f300a7e	0.6876601
206	0xbe1526f3	-0.14565639
207	0x4025628c	2.5841398
208	0xc0371c15	-2.861089
209	0x3e87f2fa	0.26552564
210	0x3ef3aa83	0.47591028
211	0x3ee3855e	0.4443769
212	0x3f848d28	1.0355577
213	0xbed0d49e	-0.40787214
214	0x3ed5ae6a	0.4173463
215	0x3f235355	0.6379903
216	0xbdc3074b	-0.095228754
217	0x3e889ede	0.26683706
218	0xbecef26f	-0.40419337
219	0x3e027f67	0.12743913
220	0x3eaac127	0.3335049
221	0xbd5f9602	-0.054586418
222	0xbe1f164b	-0.15535848
223	0x3e93e915	0.28888765
224	0xc01a37d1	-2.4096568
225	0x3f1ef76e	0.620963
226	0xc00ca66a	-2.197657
227	0x3f8855a8	1.065114
228	0x405aa17f	3.416107
229	0x3ed504f8	0.41605353
230	0x40920850	4.5635147
231	0xbf7c499d	-0.98549825
232	0x3fc18335	1.5118166
233	0x3efbde2c	0.4919294
234	0x3ec16d19	0.37778547
235	0xbe81c5ef	-0.25346324
236	0xbe2bda2b	-0.16782443
237	0x3f86e683	1.0539097
238	0x3f68a3be	0.9087485
239	0xbfc71a44	-1.5554891
240	0xbed2c1d5	-0.41163507
241	0xbf048c3b	-0.51776475
242	0x4006ae82	2.104401
243	0x3f6cafb6	0.92455614
244	0x3f2ee7b7	0.6832232
245	0x3f0dd45a	0.5540215
246	0xc03ff5af	-2.9993703
247	0xbe232419	-0.15931739
248	0xbf573c45	-0.8407634
249	0xbf94e26b	-1.1631597
250	0x3f9b34b3	1.2125458
251	0xbd000dcd	-0.03126316
252	0x3ecc21d1	0.3986955
253	0x3f2a00a7	0.66407245
254	0x3f1930d6	0.5984014
255	0x3fbbc377	1.4669026

l1.bias f4 [300]
0	0x3f1b6bda	0.60711443
1	0x3f0f5b11	0.5599833
2	0x3f2848d9	0.65736157
3	0x3f2b1ce5	0.66840965
4	0x3f03422c	0.51272845
5	0x3efc8fed	0.49328557
6	0x3f02c5dc	0.5108316
7	0x3f201349	0.62529427
8	0x3f36d6fc	0.7142179
9	0x3ea47cb6	0.32126397
10	0x3f3424a4	0.7036841
11	0x3f55af3d	0.8347052
12	0x3edfc8a9	0.4370778
13	0x3efdd48f	0.49576232
14	0x3ed461bc	0.41480815
15	0x3f087dd8	0.5331702
16	0x3f05e84c	0.5230758
17	0x3ed8dbc2	0.42355162
18	0x3f15309a	0.58277285
19	0x3ecc1ab9	0.39864138
20	0x3ecfdae5	0.4059669
21	0x3f80e9c9	1.0071346
22	0x3f302f84	0.68822503
23	0x3f101bae	0.56292236
24	0x3f14ba4b	0.5809676
25	0x3f2fc692	0.6866237
26	0x3efa21ac	0.48853815
27	0x3f0fedf1	0.56222445
28	0x3edfd9cd	0.43720856
29	0x3ec61b26	0.38692588
30	0x3ee93b3e	0.4555301
31	0x3f074b3b	0.5284917
32	0x3f36ea31	0.714511
33	0x3f12c403	0.5733034
34	0x3f1fd6f6	0.6243738
35	0x3ebcfc72	0.3691135
36	0x3f35d54c	0.7102859
37	0x3ecb5c2b	0.39718756
38	0x3f0230eb	0.5085589
39	0x3ed9b953	0.42524204
40	0x3f2a26ed	0.66465646
41	0x3f249a4b	0.6429793
42	0x3f142937	0.5787539
43	0x3eb82795	0.359677
44	0x3f0330e4	0.51246476
45	0x3eccca6c	0.39998186
46	0x3f14aae4	0.5807326
47	0x3f029c51	0.5101977
48	0x3ee2cf93	0.44298992
49	0x3f0c8080	0.54883575
50	0x3eca2557	0.39481613
51	0x3ebf545f	0.37369058
52	0x3e924752	0.28570038
53	0x3f19ece2	0.6012708
54	0x3f46915d	0.77565557
55	0x3f3a6009	0.7280279
56	0x3e96acda	0.2942875
57	0x3f13ca02	0.57730114
58	0x3edf6067	0.43628237
59	0x3ed7ef7c	0.421749
60	0x3f6974a0	0.9119358
61	0x3efe2c70	0.49643278
62	0x3f14833e	0.5801276
63	0x3eea4729	0.45757416
64	0x3ed39578	0.41324973
65	0x3e93cd33	0.28867492
66	0x3f4c9fc6	0.79931295
67	0x3eb851a3	0.35999784
68	0x3eba5d51	0.3639932
69	0x3eccb54e	0.39982074
70	0x3f1960d6	0.59913385
71	0x3f02b2e8	0.5105424
72	0x3ee72859	0.4514797
73	0x3f149da3	0.58053035
74	0x3f44d2d7	0.76884216
75	0x3e800cbd	0.2500972
76	0x3f0a26de	0.53965557
77	0x3ed99bd3	0.42501697
78	0x3f17dbce	0.5931977
79	0x3f1ab8be	0.60438144
80	0x3efd1e5b	0.49437222
81	0x3f1447af	0.5792188
82	0x3ecdb414	0.4017645
83	0x3ebfb879	0.3744543
84	0x3f175fa6	0.5913032
85	0x3f033342	0.5125009
86	0x3f0b4500	0.5440216
87	0x3ee20ddd	0.44151202
88	0x3f3a52db	0.7278268
89	0x3f336890	0.70081425
90	0x3f0bd4a3	0.5462133
91	0x3ead0fa5	0.33800998
92	0x3f3a479f	0.72765535
93	0x3fb426fb	1.4074396
94	0x3ec14f8c	0.37756002
95	0x3ef1d593	0.47233257
96	0x3f2d4671	0.6768561
97	0x3e9e520c	0.30921972
98	0x3eb53972	0.3539539
99	0x3f165cd1	0.58735377
100	0x3f3c6777	0.73595375
101	0x3ef5f986	0.48041934
102	0x3ee3e6fe	0.4451217
103	0x3f051525	0.5198539
104	0x3e53fb45	0.2070132
105	0x3ee5553f	0.447916
106	0x3f04f86b	0.51941556
107	0x3f3b2e03	0.73117083
108	0x3f1e3a52	0.6180774
109	0x3f15f041	0.58569723
110	0x3f19a04c	0.6001022
111	0x3f29351c	0.66096663
112	0x3f1df7df	0.61706346
113	0x3eb5698a	0.35432082
114	0x3f11006a	0.56641257
115	0x3f1e07ef	0.61730856
116	0x3f166787	0.5875172
117	0x3f13d2d0	0.5774355
118	0x3ea56c8a	0.3230937
119	0x3f2bbb3b	0.67082566
120	0x3eebc112	0.46045738
121	0x3f2e8312	0.6816875
122	0x3f09fbe5	0.53899986
123	0x3eab16f1	0.3341594
124	0x3ee3d96d	0.4450182
125	0x3eeb6cc9	0.45981434
126	0x3f151ad1	0.58244044
127	0x3ebe1fd3	0.37133655
128	0x3f414f33	0.75511473
129	0x3ee3c108	0.4448321
130	0x3f3bdf5a	0.7338768
131	0x3e9a7487	0.30167028
132	0x3f57bb13	0.8426983
133	0x3f371b13	0.71525687
134	0x3e84405e	0.25830358
135	0x3ee41828	0.4454968
136	0x3f18d774	0.59703755
137	0x3eef938d	0.4679226
138	0x3f11b0f9	0.56910664
139	0x3f22152a	0.63313544
140	0x3ef39861	0.47577193
141	0x3ef44388	0.47707772
142	0x3f2db6b6	0.6785692
143	0x3f1f3f8e	0.6220635
144	0x3f4ce4cc	0.80036616
145	0x3eebcb53	0.46053562
146	0x3f147b2e	0.5800046
147	0x3ee89b1f	0.45430848
148	0x3eb46a7b	0.35237488
149	0x3ef7a75e	0.4836988
150	0x3e9a7cb8	0.30173278
151	0x3ea02f20	0.31285954
152	0x3f3867ec	0.7203357
153	0x3ea4baac	0.3217367
154	0x3f0f76f0	0.5604086
155	0x3e878d50	0.26475
156	0x3ed98219	0.4248207
157	0x3ee3028b	0.44337878
158	0x3ef9b017	0.48767158
159	0x3e9e2946	0.30890864
160	0x3ee85d05	0.45383468
161	0x3f4d4f42	0.8019906
162	0x3e9447bd	0.28960982
163	0x3ee61d17	0.4494407
164	0x3ebadae7	0.36495134
165	0x3f080780	0.53136444
166	0x3f0a07ca	0.53918135
167	0x3e7d391c	0.24728817
168	0x3f023bc4	0.50872445
169	0x3f0d4422	0.5518209
170	0x3f006725	0.50157386
171	0x3f23d131	0.63991076
172	0x3efb8225	0.4912273
173	0x3eeffcf7	0.46872684
174	0x3f06e06b	0.52686185
175	0x3fcb0529	1.586095
176	0x3f067b05	0.5253146
177	0x3f4437f6	0.7664789
178	0x3ef2c3de	0.4741506
179	0x3f013fde	0.5048808
180	0x3ed8b97e	0.4232902
181	0x3e6c290f	0.23062538
182	0x3ef2e467	0.47439882
183	0x3f1a0ec5	0.60178787
184	0x3ecea3f9	0.40359476
185	0x3f030eb3	0.51194304
186	0x3f2497a0	0.6429386
187	0x3ecaa07f	0.39575574
188	0x3ee16a40	0.44026375
189	0x3f15e1a5	0.5854743
190	0x3ed1c7ce	0.4097275
191	0x3ed92984	0.42414486
192	0x3ec7c992	0.39020973
193	0x3eb3ea51	0.35139707
194	0x3f035ddf	0.5131511
195	0x3f22b28d	0.63553697
196	0x3ec63a83	0.38716516
197	0x3f11f60c	0.5701606
198	0x3f1ae1b1	0.6050063
199	0x3eaf7e18	0.3427589
200	0x3ed50a59	0.41609457
201	0x3ef12516	0.47098607
202	0x3fc3fb09	1.5310985
203	0x3ef4513b	0.47718224
204	0x3f357832	0.7088653
205	0x3ec9177c	0.3927573
206	0x3edbc030	0.42920065
207	0x3ed5e0ab	0.4177297
208	0x3f0b4eef	0.5441732
209	0x3f06e970	0.5269995
210	0x3edf2565	0.43583217
211	0x3f087635	0.5330537
212	0x3eeb2ed2	0.4593416
213	0x3f29c5d5	0.6631749
214	0x3ecded9c	0.40220344
215	0x3eb655a2	0.35612208
216	0x3f10215c	0.563009
217	0x3ec1b5c5	0.37833992
218	0x3efc28ad	0.49249783
219	0x3f16f964	0.5897429
220	0x3f33e04a	0.7026411
221	0x3fb403a4	1.4063611
222	0x3ed640e7	0.41846392
223	0x3ef06dc8	0.46958756
224	0x3f087cae	0.53315246
225	0x3ead8850	0.3389306
226	0x3e9fd086	0.31213778
227	0x3ed688e7	0.41901323
228	0x3f1d0093	0.61329
229	0x3f4c1cad	0.79731256
230	0x3ec0384f	0.3754296
231	0x3ed42efe	0.41442102
232	0x3f10f6cb	0.56626576
233	0x3ec3569f	0.38152024
234	0x3eedf498	0.46475673
235	0x3ea40a18	0.3203895
236	0x3eff71b6	0.49891442
237	0x3f735fbb	0.9506795
238	0x3ed1c4f8	0.40970588
239	0x3eb90a3c	0.3614062
240	0x3f1bd7b5	0.6087602
241	0x3e8e17a7	0.2775242
242	0x3f425879	0.7591625
243	0x3f11e6f5	0.5699304
244	0x3f40f185	0.7536853
245	0x3ef49238	0.47767806
246	0x3f0c71df	0.54861253
247	0x3f12709a	0.57203066
248	0x3ec84743	0.39116868
249	0x3ec79db1	0.38987496
250	0x3ef25194	0.47327864
251	0x3f26dc61	0.6518002
252	0x3ef2c5eb	0.47416624
253	0x3f16d53f	0.5891914
254	0x3eecafab	0.46227774
255	0x3e98d5f3	0.2985073

bn1.weight f4 [300]
0	0x3fdcfd5f	1.7264823
1	0x40319ce9	2.775202
2	0x3fba67b6	1.45629
3	0x3f8a700e	1.0815446
4	0x3fb1f21a	1.3902009
5	0x403c3cf3	2.94122
6	0x3fe4ed68	1.7884951
7	0x3f98e0fa	1.1943657
8	0x408232fb	4.068723
9	0x3ff9335c	1.9468799
10	0x4097e2b0	4.746422
11	0x3fa88170	1.3164501
12	0x3fc5e2b3	1.5459808
13	0x3fe6934e	1.8013704
14	0x3fa63994	1.2986321
15	0x40034ab4	2.0514345
16	0x3fc1c7ec	1.5139136
17	0x4009e26f	2.1544454
18	0x3ff08a4f	1.8792208
19	0x4018e442	2.3889318
20	0x3f5c876b	0.8614413
21	0x4086952e	4.2057104
22	0x3fe10a93	1.7581352
23	0x3f98fa24	1.1951337
24	0x4018e647	2.389055
25	0x3f3dd24c	0.7414901
26	0x4021c03d	2.5273583
27	0x3f967c0f	1.175661
28	0x3f95530c	1.1665969
29	0x3fa59379	1.293563
30	0x3fa321b2	1.2744658
31	0x3fc4f137	1.5386113
32	0x3fcf1e06	1.6181037
33	0x401896a6	2.3841949
34	0x402fadf6	2.7449927
35	0x4005e299	2.0919554
36	0x400dfcc3	2.2185524
37	0x40129029	2.2900488
38	0x3fbf5cae	1.4950159
39	0x3fe8ef89	1.81981
40	0x3fd67ce3	1.6756862
41	0x402fed14	2.748845
42	0x3fde88f2	1.7385542
43	0x3f9bb1e2	1.216366
44	0x3fca71c0	1.5815964
45	0x3faf4ea1	1.3695871
46	0x3fbb7987	1.4646462
47	0x400051a5	2.0049832
48	0x400ce5a2	2.2015157
49	0x3fba901a	1.4575226
50	0x3fb847fd	1.4396969
51	0x4003b1da	2.0577302
52	0x3fe92d86	1.8217018
53	0x4039a19f	2.9004896
54	0x4002114e	2.0323062
55	0x3f44ad58	0.76827
56	0x40314095	2.7695668
57	0x4025b9a9	2.5894568
58	0x3fe7c19d	1.8105961
59	0x3f7183b1	0.9434157
60	0x3f334323	0.7002432
61	0x3fdcfdfa	1.7265007
62	0x4014f206	2.327272
63	0x3fecc4e9	1.8497592
64	0x406ec616	3.7308402
65	0x40523fe6	3.28515
66	0x40520f76	3.2821937
67	0x3f8212dc	1.0162005
68	0x401bbc85	2.4333813
69	0x3ffd8b01	1.9808046
70	0x3ffd0e2b	1.9769949
71	0x4004e627	2.0765474
72	0x4048517a	3.129973
73	0x3fbf2e34	1.4935975
74	0x3fcd22a6	1.6026199
75	0x3fa6ca9c	1.3030581
76	0x3fd6d8c4	1.6784902
77	0x400bcc2d	2.184337
78	0x40176f56	2.3661704
79	0x3fec786e	1.8474252
80	0x3fa80290	1.3125782
81	0x3fa099f3	1.2546982
82	0x401d932d	2.462108
83	0x4057e34d	3.3732483
84	0x3ff1e333	1.8897461
85	0x3fe1f769	1.7653629
86	0x4049b53a	3.1516862
87	0x3fca618a	1.5811017
88	0x3f9bed70	1.2181835
89	0x40048dac	2.071147
90	0x406b1d03	3.6736457
91	0x40301d99	2.7518065
92	0x3f2a7387	0.6658253
93	0x3e11afbd	0.14227195
94	0x402fad3d	2.7449486
95	0x4010e8c2	2.2642064
96	0x3f842c11	1.0325948
97	0x3fcb2018	1.5869169
98	0x402ca092	2.6973004
99	0x402fdeea	2.7479806
100	0x3fd34c7d	1.6507717
101	0x400313c3	2.0480812
102	0x3fe0da40	1.7566605
103	0x401ede81	2.4823306
104	0x3fb786e3	1.4338039
105	0x3fc8dc1a	1.569217
106	0x400eb688	2.2298908
107	0x40389ba5	2.8844998
108	0x406e23f8	3.7209454
109	0x3fdce3a4	1.725697
110	0x400cb329	2.198435
111	0x3fc77e0a	1.5585339
112	0x3f9b9fb1	1.2158109
113	0x4004c25d	2.074363
114	0x400da307	2.2130754
115	0x3f939396	1.1529415
116	0x3ff78eb9	1.934043
117	0x3fc73033	1.5561584
118	0x40353f2d	2.831981
119	0x40587744	3.3822794
120	0x3fc55c9b	1.5418886
121	0x40559a77	3.3375528
122	0x4006d34a	2.106646
123	0x40218451	2.523701
124	0x4037aaac	2.869792
125	0x3fa85e2a	1.3153737
126	0x400b7748	2.1791553
127	0x3fd56cfb	1.6673883
128	0x402acd92	2.668797
129	0x3f79b4bb	0.975414
130	0x401f2a34	2.4869509
131	0x3fc4d2ff	1.5376891
132	0x3f4f61c1	0.81008536
133	0x400a27bd	2.1586754
134	0x3f9e1c73	1.2352432
135	0x4013bc2b	2.3083599
136	0x40426d99	3.0379393
137	0x40072e97	2.1122186
138	0x40010bbf	2.016342
139	0x3fa0e91f	1.2571143
140	0x40031b0f	2.0485265
141	0x3fb49bfb	1.4110101
142	0x3fd5b790	1.6696644
143	0x3f70839e	0.9395083
144	0x402ddb9d	2.7165291
145	0x3fa65055	1.2993265
146	0x404962b7	3.14665
147	0x3ff059ea	1.877744
148	0x3fbcca57	1.4749249
149	0x40015127	2.0205781
150	0x3fdcc80a	1.7248547
151	0x40202fcc	2.5029173
152	0x4009d7d1	2.1537974
153	0x3fc72e00	1.5560913
154	0x3ff06f5e	1.8783987
155	0x3fec9a7d	1.8484646
156	0x3fca9e35	1.5829531
157	0x3fb70e06	1.4301155
158	0x4007680f	2.1157262
159	0x3fbcb62f	1.4743098
160	0x3fac8289	1.3477336
161	0x3ffbbb3f	1.9666518
162	0x3f9be65c	1.2179675
163	0x3fc4f9c8	1.5388727
164	0x3fbad9ef	1.4597758
165	0x3fc6fb61	1.5545465
166	0x3fc7a1d6	1.5596263
167	0x4039f317	2.905462
168	0x3fa1ee73	1.2650894
169	0x3fbb6604	1.4640508
170	0x3fcfb4dd	1.622707
171	0x3fc5706a	1.5424931
172	0x3fd4c7ff	1.6623534
173	0x3fda3e26	1.7050216
174	0x3f879dd9	1.0595046
175	0x3e150735	0.1455353
176	0x3ff0ba0b	1.8806776
177	0x3ff8f37c	1.9449306
178	0x400b9bd1	2.1813853
179	0x3ff50f86	1.9145362
180	0x3f9cbdea	1.2245457
181	0x401c1bfa	2.4392076
182	0x4016e082	2.3574529
183	0x3f9c46ef	1.2209147
184	0x3fe86542	1.8155901
185	0x40074793	2.1137435
186	0x3f90519b	1.1274904
187	0x3fa0550e	1.2525957
188	0x3fc07478	1.5035543
189	0x40162703	2.346131
190	0x4019329a	2.3937135
191	0x3faa122e	1.3286798
192	0x400c9e7a	2.1971726
193	0x40029649	2.0404227
194	0x4020e376	2.513883
195	0x3feba73c	1.8410411
196	0x400e06ab	2.219157
197	0x3ff0e595	1.8820063
198	0x3f95a329	1.1690418
199	0x4007bee9	2.1210272
200	0x3fca5f8d	1.581041
201	0x405020b3	3.2519958
202	0x3dd0b621	0.10190988
203	0x3fd11bb6	1.6336582
204	0x402f0a4d	2.7350037
205	0x3fae6a0e	1.3626115
206	0x3fda4c68	1.7054567
207	0x4040df5e	3.0136333
208	0x403f15e1	2.9857104
209	0x4039af30	2.9013176
210	0x4071d76e	3.7787738
211	0x3f8ff94e	1.1247957
212	0x3ff8cdfa	1.9437859
213	0x3fc6a88b	1.5520185
214	0x3f6b10a6	0.9182228
215	0x3fe7bb8d	1.8104111
216	0x3f9da4b8	1.2315893
217	0x400f44f3	2.2385833
218	0x3fd6ada5	1.6771742
219	0x4012d6aa	2.294352
220	0x3feedcc4	1.8661122
221	0x3df67d3b	0.120356046
222	0x3fec1522	1.8443949
223	0x3f82716f	1.0190867
224	0x3ffadecf	1.9599246
225	0x40277d41	2.61702
226	0x40188449	2.383074
227	0x3fc1a230	1.5127621
228	0x400872ea	2.1320138
229	0x40097f8f	2.1484106
230	0x3fe592fc	1.7935481
231	0x3fee91ae	1.8638208
232	0x3ff58790	1.9181995
233	0x3fe4a057	1.7861432
234	0x3fcbf717	1.5934781
235	0x4037ddef	2.8729208
236	0x401586f2	2.3363614
237	0x402f80e9	2.742243
238	0x403aadb9	2.9168532
239	0x3fc2af75	1.5209795
240	0x3fa3b2f0	1.2788982
241	0x401f93fd	2.4934075
242	0x401f9bdb	2.4938877
243	0x403cc16c	2.9493055
244	0x4047242b	3.1115825
245	0x400bb992	2.1832013
246	0x3f6ad742	0.9173471
247	0x400a53da	2.161368
248	0x3fa7d14b	1.3110746
249	0x3fd544d6	1.6661632
250	0x3fe64d40	1.7992325
251	0x3ff3264d	1.8996063
252	0x400b35a6	2.1751494
253	0x3fa51f6b	1.2900213
254	0x3fa206ae	1.2658288
255	0x3fb54db8	1.4164343

bn1.bias f4 [300]
0	0xbf248d94	-0.6427853
1	0xbf326352	-0.696828
2	0xbf53a872	-0.826789
3	0xbf52ffed	-0.8242176
4	0xbf74abfa	-0.95574915
5	0xbd5f0149	-0.054444585
6	0xbf3bc4c4	-0.73347116
7	0xbf9c5729	-1.2214099
8	0x3e8ad4a2	0.2711535
9	0xbe4c78db	-0.19967978
10	0x3eb31947	0.34980223
11	0xbf223113	-0.6335613
12	0xbfa823a2	-1.3135874
13	0xbf413080	-0.7546463
14	0xbf3977f7	-0.72448677
15	0xbf20f43c	-0.6287267
16	0x3a5214ab	0.0008013944
17	0xbf25b967	-0.64736027
18	0xbf1564ee	-0.5835713
19	0xbeb64c86	-0.35605258
20	0xbef98314	-0.48732817
21	0x3f1a7699	0.60337216
22	0xbf507133	-0.8142273
23	0xbf2547ed	-0.64562875
24	0xbdcb7e95	-0.09936253
25	0xbfc8a961	-1.567669
26	0xbf2bc540	-0.67097855
27	0xbf655044	-0.895756
28	0xbf7e3332	-0.9929687
29	0xbeaada51	-0.33369687
30	0xbf529490	-0.8225794
31	0xbeecb4df	-0.46231744
32	0xbf9e78e2	-1.238064
33	0x3d86c201	0.06579972
34	0xbe8791d6	-0.26478451
35	0xbf1856a9	-0.5950723
36	0xbe11f6d8	-0.1425432
37	0xbf46b7f3	-0.77624434
38	0xbe3911f9	-0.18073262
39	0xbe92358a	-0.28556472
40	0xbf597f14	-0.8495953
41	0xbec2a3a2	-0.38015467
42	0xbeb4b378	-0.35293174
43	0xbf923254	-1.1421609
44	0xbeb8662a	-0.36015445
45	0xbf3ee96b	-0.7457492
46	0xbee634a1	-0.44962028
47	0xbe2747a7	-0.16335927
48	0x3e436d75	0.19084723
49	0xbf5c0579	-0.8594585
50	0xbf76341c	-0.9617326
51	0xbf15b3e8	-0.5847764
52	0xbf4d7d99	-0.8026977
53	0x3e367092	0.1781638
54	0xbee6794e	-0.45014423
55	0xbf2b5425	-0.6692527
56	0xbe9c1b6b	-0.30489668
57	0xbe539705	-0.20663078
58	0xbf7aec08	-0.98016405
59	0xbf7a373a	-0.9774052
60	0xbf8239a3	-1.0173839
61	0xbef4e5d2	-0.4783159
62	0xbebef064	-0.37292778
63	0xbeb2a09a	-0.34888154
64	0x3eb3e243	0.35133561
65	0xbef66dd5	-0.4813067
66	0xbd78b92c	-0.06072347
67	0xbf4d14c6	-0.8010982
68	0xbed8ea8a	-0.4236644
69	0xbe147e51	-0.14501311
70	0xbf6bc890	-0.9210291
71	0xbee3d5d2	-0.4449907
72	0xbd805af8	-0.06267351
73	0xbf37da11	-0.7181712
74	0xbf22f07b	-0.63648194
75	0xbf501b95	-0.81292087
76	0xbf84b536	-1.0367801
77	0xbf414fb8	-0.75512266
78	0xbeac15f0	-0.33610487
79	0xbe90fd4e	-0.28318256
80	0xbe6bf6da	-0.23043385
81	0xbf673258	-0.90311193
82	0xbee0d4a6	-0.43912238
83	0x3e06de50	0.13170743
84	0xbf53e1f8	-0.82766676
85	0xbf1989eb	-0.5997607
86	0x3ea87f46	0.32909602
87	0xbe6207ad	-0.2207324
88	0xbf8fc5a6	-1.1232193
89	0x3edc98e5	0.430854
90	0xbe04774a	-0.1293613
91	0xbeab2329	-0.33425263
92	0xbf927d2f	-1.1444453
93	0xbf7d4464	-0.9893248
94	0xbdfb7779	-0.12278647
95	0xbf0925f2	-0.53573525
96	0xbe510da5	-0.20415361
97	0xbf6fc7dd	-0.9366434
98	0xbf201845	-0.6253703
99	0xbebbd32c	-0.3668455
100	0x3ce231e0	0.027611673
101	0xbe8b00d7	-0.27149078
102	0xbeff353b	-0.498453
103	0xbf3c4974	-0.7354958
104	0xbf8f8178	-1.1211386
105	0xbee932b1	-0.45546487
106	0xbeb1f49e	-0.3475694
107	0xbd7f347c	-0.062305912
108	0x3e2dfa0b	0.16989915
109	0xbee1e6de	-0.4412145
110	0xbee5c125	-0.4487392
111	0xbf8442e2	-1.0332911
112	0xbf88892a	-1.0666859
113	0xbf140a40	-0.5782814
114	0xbee2d963	-0.44306478
115	0xbf36eb19	-0.7145248
116	0xbf233e9a	-0.637674
117	0xbf8c2ae3	-1.0950588
118	0xbeab92c4	-0.3351041
119	0x3cc50348	0.024049416
120	0xbe92eae7	-0.2869484
121	0x3edfe4e0	0.43729305
122	0xbf3b9255	-0.7327016
123	0xbe036636	-0.12831959
124	0xbe7bcd54	-0.24590045
125	0xbf3216bd	-0.69565946
126	0xbe386c99	-0.18010177
127	0xbf2098bc	-0.62733054
128	0x3d082511	0.033238474
129	0xbf85c166	-1.0449646
130	0xbf2bcc12	-0.6710826
131	0xbf544046	-0.82910573
132	0xbf7028de	-0.9381236
133	0x3e101f4f	0.14074443
134	0xbf370849	-0.7149702
135	0xbe82e2da	-0.255637
136	0x3e4d3e07	0.20043193
137	0xbee87258	-0.45399737
138	0xbf13ec38	-0.57782316
139	0xbfb68226	-1.4258468
140	0xbe7a6d50	-0.24455762
141	0xbf824df5	-1.0180041
142	0xbf20716e	-0.6267308
143	0xbf6fa15c	-0.9360559
144	0xbd6a8a1f	-0.05726063
145	0xbf11db37	-0.5697512
146	0xbbd40042	-0.0064697573
147	0xbef593f4	-0.47964442
148	0xbe958039	-0.2919939
149	0xbdb679e3	-0.08909967
150	0xbf01cb1d	-0.5070055
151	0xbef4c913	-0.47809657
152	0xbf0d9db9	-0.5531879
153	0xbf6c5326	-0.92314374
154	0xbf492c25	-0.78582984
155	0xbe886caa	-0.26645404
156	0xbf60dff3	-0.8784172
157	0xbf7e6e62	-0.9938718
158	0xbecf8965	-0.4053451
159	0xbee997e6	-0.45623702
160	0xbf255310	-0.6457987
161	0xbe93d63e	-0.2887439
162	0xbf3e2a83	-0.7428362
163	0xbf923c46	-1.1424644
164	0xbed0c658	-0.40776324
165	0xbe1e7283	-0.1547337
166	0xbf926d10	-1.1439533
167	0x3d53525d	0.05159222
168	0xbf883019	-1.0639678
169	0xbe6f2e3f	-0.23357485
170	0xbf33bce3	-0.70210093
171	0x3d738a44	0.059458032
172	0xbf2d068d	-0.6758812
173	0xbefc4a6a	-0.49275523
174	0xbfa7ae79	-1.310012
175	0xbf7d8ab4	-0.9903977
176	0xbecf8f96	-0.40539235
177	0x3dcf227b	0.101139985
178	0xbeaea459	-0.34109762
179	0xbec42a5f	-0.38313577
180	0xbf01c616	-0.5069288
181	0xbf512f9f	-0.8171329
182	0xbe9e6b5e	-0.3094129
183	0xbf86d865	-1.0534788
184	0xbf3328f7	-0.6998438
185	0xbe12a77f	-0.14321707
186	0xbf146610	-0.57968235
187	0xbf508606	-0.81454504
188	0xbed690bb	-0.41907296
189	0xbde940d0	-0.11389315
190	0xbf19b1f8	-0.60037184
191	0xbe8d2b30	-0.27572012
192	0xbe9f8ab8	-0.31160522
193	0xbe985a62	-0.29756457
194	0xbeab1a13	-0.3341833
195	0xbe84cdf6	-0.25938386
196	0xbf110a70	-0.5665655
197	0xbf1cee2b	-0.61300915
198	0xbf529b89	-0.8226858
199	0xbf213951	-0.6297808
200	0xbf84a69b	-1.0363344
201	0xbe48a7b7	-0.19595228
202	0xbf92ada6	-1.1459243
203	0xbed6dfd3	-0.4196764
204	0xbe62489f	-0.22098015
205	0xbf25eff7	-0.6481928
206	0xbee22f07	-0.44176504
207	0xbd8b7288	-0.068089545
208	0xbca9e793	-0.020740306
209	0xb996a4fc	-0.00028733152
210	0x3e8a09dd	0.2696065
211	0xbf43412f	-0.7627134
212	0xbde775ee	-0.1130179
213	0xbf688421	-0.9082661
214	0xbf70e94e	-0.94105995
215	0xbe903fc0	-0.28173637
216	0xbf9b7525	-1.2145125
217	0xbefd7ab9	-0.49507692
218	0xbe9fc027	-0.31201288
219	0xbc4cb407	-0.012494094
220	0xbf1d310c	-0.61402965
221	0xbf7ad10c	-0.9797523
222	0xbeb85a9a	-0.36006624
223	0xbf5d529a	-0.86454165
224	0xbf41a01a	-0.7563492
225	0xbf08be6d	-0.53415567
226	0xbefd068f	-0.49419066
227	0xbf00f65e	-0.50375926
228	0xbf0f811c	-0.5605638
229	0xbf16fcde	-0.58979595
230	0xbea63647	-0.32463285
231	0xbe4ef93f	-0.20212267
232	0xbf3852fa	-0.7200161
233	0xbf4231ce	-0.75857246
234	0xbfa9e21e	-1.327213
235	0x3b8bb3df	0.0042633857
236	0x3c492796	0.012277504
237	0xbf331933	-0.69960326
238	0xbe455757	-0.19271599
239	0xbf3eaed2	-0.74485505
240	0xbf55f992	-0.8358394
241	0xbe840329	-0.2578366
242	0xbf8537b6	-1.0407627
243	0xbe0b5e07	-0.13610087
244	0x3e98ddba	0.29856664
245	0xbe03adb9	-0.12859239
246	0xbf600294	-0.87503934
247	0xbf2b4876	-0.6690744
248	0xbf587433	-0.84552306
249	0xbe91e2c1	-0.28493312
250	0xbeac67e1	-0.33673003
251	0xbeedaa5d	-0.4641904
252	0xbe817123	-0.2528163
253	0xbf4cb423	-0.79962367
254	0xbf248251	-0.6426135
255	0xbf551542	-0.8323556

l2.weight f4 [300, 300]
0	0xbde439d6	-0.11143844
1	0xbd9a6822	-0.07539393
2	0x3f6e34f9	0.9304958
3	0x3f1d8f2d	0.61546594
4	0x3f0dcbd1	0.55389124
5	0x3fc18c3e	1.5120924
6	0x3ff491e5	1.9107023
7	0x3ec935b5	0.39298788
8	0x3f257cbe	0.64643466
9	0x401e5d72	2.4744534
10	0xbf71db91	-0.94475657
11	0x3f9aac43	1.208382
12	0x3f0ab5d7	0.54183716
13	0x3f803728	1.0016832
14	0x3ebc9e67	0.368396
15	0x3f98e970	1.194624
16	0xbeb6b15c	-0.3568219
17	0xbe82e546	-0.25565547
18	0x3e83a2e8	0.25710225
19	0xbfa04209	-1.2520152
20	0xbeb2b083	-0.34900293
21	0x3d79d259	0.06099162
22	0xbf2e1f02	-0.68016064
23	0xbeb1d79b	-0.34734806
24	0x3fa2f545	1.27311
25	0x3f13aa86	0.57682073
26	0x4003585d	2.0522683
27	0xbdbec9fe	-0.09315871
28	0x3f340850	0.70325184
29	0x3ee7f8f0	0.45307112
30	0x3d9e9839	0.07743878
31	0x3f79c0ba	0.975597
32	0x3e0797e6	0.13241538
33	0x3f2abea7	0.6669716
34	0xbf1fe08a	-0.62451994
35	0x3f8885bb	1.0665811
36	0xbe0d3a90	-0.13791871
37	0xbec7b970	-0.39008665
38	0x3f7ad6d9	0.9798408
39	0x3f132baf	0.5748853
40	0x3f80a43c	1.005012
41	0x3f586e94	0.8454373
42	0x3d04af1d	0.032393564
43	0x3e39ee62	0.18157342
44	0xbe788b5d	-0.24271913
45	0x3f446df0	0.7673025
46	0xbe1e9b62	-0.15488961
47	0xbf6db603	-0.9285585
48	0x405c2dc3	3.440293
49	0x3cfcfd05	0.030882368
50	0x3f2f4e0f	0.6847848
51	0xbe976598	-0.29569697
52	0x40475951	3.1148264
53	0x3f5da1d3	0.8657505
54	0x3f2acc4f	0.66718
55	0x3f6b86ee	0.9200276
56	0x3f2627ff	0.6490478
57	0xbf23361c	-0.6375444
58	0xbf453e96	-0.77048624
59	0x3fc6f578	1.5543661
60	0x400f31fe	2.2374263
61	0x3fbe0302	1.4844668
62	0xbd3cb828	-0.046074063
63	0x3fca7e86	1.5819862
64	0xbed479a8	-0.41499066
65	0xbd037176	-0.032090627
66	0x3cb07a91	0.02154282
67	0x3f19592d	0.59901696
68	0x3fb0bee8	1.380826
69	0x3f8979de	1.0740316
70	0xbf2d915a	-0.67799914
71	0x3d2a479b	0.041572195
72	0x3f908aed	1.1292397
73	0x3f86d948	1.0535059
74	0x3ea77177	0.32703754
75	0x3fd82ce7	1.6888703
76	0xbf12d50e	-0.57356346
77	0xbfee3443	-1.8609699
78	0x3e8fbb4a	0.28072578
79	0x3f165fc4	0.58739877
80	0x3e2fad33	0.17155914
81	0x3fc88970	1.5666943
82	0x3f68430b	0.907273
83	0x3f7b94b6	0.9827379
84	0x3eab3046	0.33435267
85	0xbf17f757	-0.59361786
86	0x3f1ff538	0.6248355
87	0x3f90daab	1.1316732
88	0x3e9c7d2f	0.30564258
89	0xbcf26d90	-0.02959326
90	0xbf8a9b2f	-1.0828608
91	0x3efccfc1	0.49377254
92	0xbe90954e	-0.2823891
93	0x3e5203b9	0.20509233
94	0x3f97f04a	1.1870205
95	0x3f8730f9	1.056182
96	0x3f62d89e	0.8861178
97	0x3e2da6a8	0.16958106
98	0x3f2cee03	0.6755068
99	0x3e3ecc77	0.18632685
100	0x3e81b503	0.25333413
101	0x3fbe0a98	1.4846983
102	0x3f549d2e	0.8305234
103	0x3fcb8009	1.5898448
104	0x3e9cd023	0.30627546
105	0x3e826453	0.25467166
106	0x3ee8d789	0.4547694
107	0x3efb3d61	0.49070266
108	0x3ccfc127	0.025360657
109	0x3fe490cb	1.7856687
110	0xbfb9f365	-1.4527403
111	0xbfc15b4b	-1.5105985
112	0x3fb16b08	1.3860788
113	0xbee4aa2d	-0.44661084
114	0x3f2b3dc2	0.6689111
115	0xbe9785c1	-0.29594234
116	0xbfe59cd6	-1.7938488
117	0x3f040be1	0.51580626
118	0x3f36bcea	0.7138201
119	0xbef6d9b0	-0.48212957
120	0x3ec36192	0.38160378
121	0xbeae2273	-0.34010658
122	0xbe0a2fdb	-0.13494818
123	0x3fa011ff	1.2505492
124	0x3f5cf831	0.8631621
125	0x3e55e85f	0.20889424
126	0xbed5f6ad	-0.4178976
127	0x3fc6ef30	1.5541744
128	0x3cc06c2a	0.023489077
129	0x3f71bdb2	0.9443008
130	0xbf9adbe1	-1.2098352
131	0xbea4f098	-0.32214808
132	0x3f35b4bd	0.7097891
133	0x3fbd82e6	1.4805572
134	0x3e8fe6a5	0.28105655
135	0xbe3af2cf	-0.18256687
136	0x3ff47e5c	1.9101062
137	0x3fd0d3da	1.6314652
138	0xbe15677a	-0.14590254
139	0xbf52e656	-0.82382715
140	0xbed3692e	-0.41291183
141	0x3eef5b31	0.4674926
142	0x3ec264cd	0.3796753
143	0x3ec3c98c	0.38239706
144	0xbed64982	-0.41852957
145	0x3f94db32	1.1629393
146	0x3ff6e5f0	1.9288921
147	0x3fdcacd1	1.7240239
148	0xbf16bbe0	-0.58880424
149	0x3f1fed8b	0.62471837
150	0xbeef24b1	-0.4670768
151	0xbd380acc	-0.04493217
152	0x3ed52c88	0.41635537
153	0x3f88f38a	1.0699322
154	0x3cb38100	0.021912098
155	0x3fe8e0ab	1.8193563
156	0xbf9ec3ca	-1.24035
157	0x3efac3c1	0.48977473
158	0x3e290801	0.1650696
159	0x3f39ef01	0.72630316
160	0x3f8e286f	1.1106089
161	0x3e4a4bbb	0.19755451
162	0xbe7a067c	-0.24416536
163	0x3fd6c3a5	1.6778456
164	0x3eb7d81e	0.35907072
165	0xbeaa4fab	-0.33263907
166	0xbf70a02d	-0.9399441
167	0x3ec0fc74	0.37692606
168	0x3df00663	0.11719968
169	0xbc831e0d	-0.01600554
170	0xbe26291b	-0.16226618
171	0xbf2097e2	-0.62731755
172	0x3f43d560	0.7649746
173	0x3ca78d73	0.02045319
174	0x3fddfea6	1.7343338
175	0x3cf67184	0.030083425
176	0x3fa54810	1.2912617
177	0x3f8b9548	1.0904932
178	0x3f5ae802	0.85510266
179	0x3ed75205	0.42054763
180	0xbf919f86	-1.1376808
181	0xbe2d8682	-0.16945842
182	0xbe634ef3	-0.22198085
183	0x3f96068f	1.1720752
184	0x3fb9275c	1.4465137
185	0xbf542ab1	-0.8287764
186	0x3dca4840	0.09877062
187	0x3fe4feed	1.7890297
188	0x3fb4e729	1.4133044
189	0xbd0df52c	-0.034657642
190	0x3fad5a2f	1.3543147
191	0x3ed586f1	0.41704515
192	0x3f67140f	0.9026498
193	0xbf12b7e3	-0.5731184
194	0x3e8d439c	0.27590644
195	0xbef63d14	-0.48093474
196	0x3f5ccd73	0.8625099
197	0xbf1a0329	-0.6016107
198	0x3f4e5380	0.8059616
199	0xbf02af8f	-0.5104913
200	0x3da80814	0.08204666
201	0xbfb780e3	-1.4336208
202	0x3e110955	0.14163716
203	0x3e26f1c1	0.1630316
204	0xbd7234e1	-0.05913246
205	0x3f8013b3	1.0006012
206	0x3f1d5804	0.61462426
207	0x3e56dd05	0.2098275
208	0x3fb5b26e	1.4195077
209	0xbfd664e4	-1.6749539
210	0x3f369d3c	0.7133367
211	0x3ea3b9a0	0.31977558
212	0xbd653ff1	-0.055969182
213	0xbd2ba27e	-0.04190301
214	0x3ff372bd	1.901939
215	0x3f801cb6	1.0008762
216	0x3f226092	0.63428605
217	0x3febba62	1.8416255
218	0x3f918bf5	1.1370836
219	0x3f90b4a9	1.1305133
220	0xbf051fbe	-0.5200156
221	0x3e7d821b	0.24756663
222	0x400dad6b	2.2137096
223	0xbf578f7d	-0.8420332
224	0x3ef84ca0	0.4849596
225	0x3d95ebd3	0.073203705
226	0xbeeea383	-0.46609125
227	0x3f508e59	0.81467205
228	0xbf37d0ae	-0.71802795
229	0x3fbcc9b4	1.4749055
230	0x3ead15e1	0.33805755
231	0x3f7653a8	0.962214
232	0x3eba1133	0.36341247
233	0xbe03af41	-0.12859823
234	0x3f2e3bfe	0.6806029
235	0x3f959885	1.168717
236	0x3f8f6fa0	1.120594
237	0x3ea0eab3	0.3142906
238	0xbf106c7b	-0.5641553
239	0x3f55fc98	0.8358855
240	0x3e95443c	0.2915362
241	0xbd1c0a99	-0.038096044
242	0xbeb7fb6b	-0.35934004
243	0xbeecac85	-0.46225372
244	0xbec0b86f	-0.37640712
245	0x3eb9955a	0.3624676
246	0x3f4ae1b8	0.7925067
247	0xbd84aa98	-0.06477851
248	0x3ecc47b5	0.39898458
249	0x3ea88092	0.3291059
250	0x3ffb29e6	1.9622161
251	0x3f8774a6	1.0582473
252	0xbf7a5475	-0.9778512
253	0x3f2f7dc1	0.6855126
254	0x3f17b683	0.59262866
255	0xbe21087b	-0.15725891

l2.bias f4 [300]
0	0x3f5cde8a	0.8627707
1	0x3eb9629c	0.36208045
2	0x3fb5063c	1.4142528
3	0x3e991aeb	0.2990335
4	0x3f4921cc	0.78567195
5	0x3f5513f7	0.8323359
6	0x3f46cc2b	0.77655286
7	0x3f8b56fc	1.088592
8	0x3f57d880	0.8431473
9	0x3e944206	0.28956622
10	0x3f4c4dc0	0.7980614
11	0x3ed3ad3b	0.41343102
12	0x3f2f71dc	0.6853311
13	0x3f39fd75	0.7265237
14	0x3f9d00b0	1.2265835
15	0x3f4bdf08	0.79637194
16	0x3f30d51a	0.6907517
17	0x3eef077b	0.46685395
18	0x3db29572	0.08719911
19	0x3e80ca81	0.25154498
20	0x3eefb555	0.46818033
21	0x3ef22a34	0.47297823
22	0x3f5153b8	0.8176837
23	0xbd6486bc	-0.055792555
24	0x3f03ad0a	0.5143591
25	0x3de70b76	0.11281483
26	0x3fc6d67a	1.5534203
27	0xbe0bafc4	-0.13641268
28	0xbe1d4dcb	-0.15361707
29	0x3f906f44	1.1283956
30	0x3fafca25	1.3733565
31	0x3ea34c86	0.3189432
32	0x3f0d826b	0.5527713
33	0x3f16c9d4	0.58901715
34	0x3f28ea3b	0.6598241
35	0x3f49b153	0.787862
36	0x3e82698d	0.25471154
37	0x3f00306e	0.500739
38	0x3f9ccf08	1.2250681
39	0x3e58bbb5	0.21165355
40	0x3f42a316	0.760301
41	0x3e32fc1a	0.17478982
42	0x3f51fd1f	0.8202686
43	0x3f9775d6	1.1832836
44	0x3e1f9079	0.15582456
45	0x3f33b2e4	0.7019484
46	0x3eb79895	0.35858598
47	0xbec34e2c	-0.38145578
48	0x3ea1b318	0.3158195
49	0x3f284d60	0.65743065
50	0x3f72b317	0.9480452
51	0x3f301f02	0.68797314
52	0x3f7753c1	0.96612173
53	0x3f3a431d	0.72758657
54	0x3f946474	1.1593156
55	0x3f06a815	0.5260022
56	0x3f32dc55	0.6986745
57	0x3ee27e56	0.44237012
58	0x3f7b4f62	0.98168004
59	0x3ec5e18b	0.38648638
60	0x3e95326e	0.29140037
61	0x3f83743e	1.0269849
62	0x3f7adad6	0.9799017
63	0xbdabed93	-0.08394923
64	0x3f3ffa47	0.7499127
65	0x3f3010c6	0.68775594
66	0xbd15eb48	-0.036601335
67	0x3f335ea6	0.700663
68	0x3e863140	0.2620945
69	0x3ea3d80f	0.32000777
70	0x3ea59461	0.32339767
71	0x3f484225	0.7822593
72	0x3f16de17	0.5893263
73	0x3eee0620	0.46489048
74	0x3f2b29ff	0.66860956
75	0x3f354906	0.7081455
76	0x3f11612b	0.5678889
77	0x3f348f1d	0.70530874
78	0x3f4f2fce	0.8093232
79	0x3f01bfd5	0.5068334
80	0x3f2099cc	0.62734675
81	0x3f771851	0.9652148
82	0x3e4a7e7b	0.19774811
83	0x3e7f28fe	0.24917981
84	0x3f032457	0.51227325
85	0x3f0636f6	0.52427614
86	0x3f1164a7	0.5679421
87	0x3f209287	0.62723583
88	0x3e6d487a	0.23172179
89	0x3f833795	1.0251337
90	0x3f9d5717	1.2292203
91	0x3f64b23b	0.8933446
92	0x3fd4fc54	1.6639504
93	0xbdf6cdf2	-0.12051
94	0x3f52e790	0.82384586
95	0xbef31392	-0.47475868
96	0x3ef5eefc	0.48033893
97	0x3f1f827d	0.62308484
98	0x3efac50f	0.4897847
99	0x3ef1620b	0.47145113
100	0x3eb5d968	0.3551743
101	0x3ef11d79	0.47092798
102	0xbea84455	-0.32864633
103	0x3cba1a81	0.022717716
104	0x3f5af0f3	0.8552391
105	0x3f466a22	0.77505696
106	0x3f03afc9	0.514401
107	0x3f5b8370	0.8574743
108	0x3f09e747	0.53868526
109	0x3ed28827	0.411195
110	0x3f6b18cf	0.9183473
111	0x3f60c700	0.8780365
112	0x3f32d7c5	0.6986049
113	0x3f83e41f	1.0303992
114	0x3f2bfa82	0.6717912
115	0x3f387c7e	0.7206496
116	0x3e8c72fb	0.27431473
117	0x3efc61ae	0.49293274
118	0x3f126634	0.571872
119	0x3f2e4a99	0.68082577
120	0x3ee1f0b1	0.44128945
121	0xbe9e62fa	-0.30934888
122	0x3f297922	0.6620046
123	0x3f2bd38b	0.67119664
124	0x3e962197	0.29322502
125	0x3f203bbc	0.6259115
126	0x3df37408	0.118873656
127	0x3f717947	0.9432568
128	0x412cb956	10.795248
129	0x3f6aeef1	0.91770846
130	0x3e225345	0.15852077
131	0x3f48b2d9	0.783979
132	0x3f5cd9f0	0.86270046
133	0xbf0a96d9	-0.54136425
134	0x3eef2670	0.46709013
135	0x3f1fdf4f	0.62450117
136	0x3f1f9a16	0.6234449
137	0x3f91e81e	1.1398962
138	0x412c6182	10.773806
139	0x3f105f60	0.5639553
140	0x3f37e7fe	0.71838367
141	0x3f4a052e	0.78914154
142	0x3f235972	0.6380836
143	0x3f46711f	0.7751636
144	0x3e33588c	0.17514247
145	0x3f0a40e4	0.54005265
146	0x3f2fe939	0.68715245
147	0x3fba16fc	1.4538264
148	0xbe643589	-0.22286047
149	0x3f4f5e0b	0.81002873
150	0x3f3176d0	0.6932192
151	0x3f8d956e	1.1061227
152	0x3ee1ed1f	0.44126222
153	0xbdce2de4	-0.10067347
154	0x3ef00b99	0.46883848
155	0x3f1b6adb	0.60709924
156	0x3ee3b0c5	0.44470802
157	0x3f420534	0.7578919
158	0x3f31a9a6	0.6939949
159	0x3f4b0475	0.79303676
160	0x3f7cf42a	0.98810065
161	0x3f38e97e	0.7223128
162	0x3f9557d9	1.1667434
163	0x3f3e8987	0.744286
164	0x3f3b41ba	0.73147166
165	0x3f626205	0.88430816
166	0x3f2877d6	0.65807855
167	0x3f3ff922	0.7498952
168	0x3f035e09	0.5131536
169	0x3f73b741	0.952015
170	0x3f614909	0.8800207
171	0x3f3d614e	0.739766
172	0x3ea16b66	0.3152725
173	0x3f6caa88	0.9244771
174	0x3ec0962e	0.37614578
175	0x3f136fad	0.5759228
176	0x3f3c4e2a	0.7355677
177	0x3f709e9d	0.93992025
178	0x3ebda4df	0.3703985
179	0x3f0905a6	0.53524244
180	0x3efd6d86	0.49497622
181	0x3f8e7592	1.112963
182	0x3e92acd1	0.28647473
183	0x3ef9ac7d	0.4876441
184	0xbd90d5c7	-0.07072025
185	0x3f901692	1.1256888
186	0xbe8cf71c	-0.2753228
187	0x3e129701	0.14315416
188	0x3e6424e5	0.22279699
189	0x3dc7c5de	0.09754537
190	0x3f173e3f	0.59079355
191	0x3ed15abb	0.40889534
192	0x3f0518b8	0.5199084
193	0x3f82cb90	1.0218372
194	0x3d6bf8af	0.05761021
195	0xbf08a290	-0.5337305
196	0x3f7d7049	0.9899946
197	0x3f8ec6a5	1.1154372
198	0x3f064362	0.5244657
199	0x40143ac4	2.3160868
200	0x3e530272	0.20606402
201	0x3f45e3bf	0.7730064
202	0x3e11e18f	0.142462
203	0xbeb60185	-0.35548034
204	0x3b5b9524	0.0033505643
205	0x3eee716b	0.46570906
206	0x3f0469a1	0.51723677
207	0x3e662097	0.2247337
208	0x3e4bef7c	0.19915575
209	0x3f2e4571	0.6807471
210	0xbede5364	-0.43422997
211	0x412dd229	10.863809
212	0x3f007143	0.50172824
213	0x3ee416aa	0.4454854
214	0x3f01b775	0.5067056
215	0x3f73824f	0.9512071
216	0x3e88b204	0.26698315
217	0xbe48ca8a	-0.19608513
218	0x3f214a07	0.6300358
219	0x3f2c9beb	0.6742541
220	0x3f18f1d2	0.5974399
221	0x3ed3208a	0.41235763
222	0x3f537cd0	0.82612324
223	0x3edda5c9	0.43290547
224	0x3fb73e2a	1.4315846
225	0x3e1b960a	0.15193954
226	0x3f997fe2	1.1992152
227	0x41299cf1	10.600816
228	0x3e43d29c	0.1912331
229	0x3ed8e368	0.42360997
230	0x3f43d235	0.76492625
231	0x3fabce1c	1.3422275
232	0xb9bb3866	-0.0003570944
233	0x3f74dc8c	0.9564903
234	0x412d7142	10.840151
235	0x3edaaa2c	0.42707956
236	0x3e0801dc	0.1328196
237	0x3f02cbb3	0.5109207
238	0x3f3725b0	0.7154188
239	0x3ebc3a00	0.36763
240	0x3f1abb7a	0.60442317
241	0x3f942c4b	1.1576017
242	0x3e1d6b7f	0.15373038
243	0x3ea5d374	0.32387888
244	0x3f506cb2	0.81415856
245	0x3ead43c7	0.33840773
246	0x3db5081d	0.08839438
247	0x3fc50bd6	1.5394237
248	0x3f1a9dd3	0.6039707
249	0xbcc466cb	-0.023974797
250	0x3ec45ff3	0.38354453
251	0x3f412f9e	0.75463283
252	0x3f75e481	0.96051794
253	0x3f76b2ab	0.96366376
254	0x3f005ddb	0.5014321
255	0x3f916288	1.1358194

bn2.weight f4 [300]
0	0x3fc8a3a7	1.5674943
1	0x3fff5854	1.9948831
2	0x3f93741d	1.151981
3	0x400b9e4d	2.181537
4	0x4017359c	2.362647
5	0x40129b68	2.2907352
6	0x3fe79917	1.8093594
7	0x3fad69e8	1.3547945
8	0x3ff9d026	1.9516647
9	0x400bda53	2.1852005
10	0x4007556d	2.114589
11	0x40048002	2.070313
12	0x3fdd93b0	1.7310696
13	0x3fc61672	1.54756
14	0x3fb6eec2	1.4291613
15	0x400c627f	2.1935117
16	0x40131751	2.2982981
17	0x4012921e	2.2901683
18	0x4007279b	2.1117923
19	0x3fe359bc	1.776176
20	0x3fe37b1d	1.7771946
21	0x4019c8b9	2.4028761
22	0x3fb05e33	1.3778747
23	0x3fd62fc4	1.6733327
24	0x3ffd352f	1.9781855
25	0x4017edaf	2.373882
26	0x3fcecb6e	1.6155832
27	0x403a2c65	2.9089596
28	0x403e62bb	2.974776
29	0x40041bce	2.064197
30	0x4003d660	2.0599594
31	0x3ff54a34	1.916327
32	0x3fe63007	1.7983407
33	0x3ff13d60	1.8846855
34	0x3ffa4551	1.9552404
35	0x4002fc69	2.046656
36	0x4023f15d	2.5616066
37	0x3ff5a36c	1.9190497
38	0x3fcf7c4b	1.6209806
39	0x3ffad560	1.9596367
40	0x3fdcb5f4	1.7243028
41	0x400c5a14	2.192998
42	0x3fcf8d92	1.6215079
43	0x3fb7d5b1	1.4362088
44	0x40105e6a	2.2557626
45	0x40002145	2.0020306
46	0x401e3e27	2.4725435
47	0x404ad1b9	3.1690505
48	0x40122e7e	2.2840877
49	0x402fdf2a	2.7479959
50	0x400f2b03	2.2370002
51	0x3ff87890	1.9411793
52	0x3fff2f92	1.9936392
53	0x3fed2095	1.8525568
54	0x3fec90d4	1.8481698
55	0x3fe273e3	1.7691616
56	0x3feedc27	1.8660935
57	0x400dc864	2.2153559
58	0x40176eea	2.3661447
59	0x400cf415	2.2023976
60	0x40246912	2.568913
61	0x3febdb8c	1.8426375
62	0x3fac44ed	1.3458534
63	0x40489864	3.1343012
64	0x3ff8bb39	1.9432136
65	0x3ff9e1c5	1.9522024
66	0x405286b6	3.289472
67	0x3ff060d5	1.8779551
68	0x40155d1a	2.3338075
69	0x4022ad7e	2.5418391
70	0x3ff06428	1.8780565
71	0x400b6747	2.1781785
72	0x3fd2fca1	1.6483346
73	0x3fc153b4	1.5103669
74	0x401172ef	2.27264
75	0x3fdc23cd	1.7198426
76	0x40039bcd	2.0563843
77	0x3fdc25c1	1.7199022
78	0x3fc2526f	1.5181407
79	0x3ff3d69f	1.9049872
80	0x40114f6a	2.270472
81	0x400cb0d7	2.1982934
82	0x400a5698	2.1615353
83	0x401615ac	2.3450727
84	0x4024714e	2.5694156
85	0x4005cbaa	2.0905557
86	0x4023fa91	2.5621684
87	0x3fce5e72	1.6122572
88	0x4001a457	2.0256555
89	0x3fc07454	1.50355
90	0x4017ff0f	2.3749425
91	0x3fe39284	1.7779088
92	0x3fb932f9	1.4468681
93	0x4007a183	2.119233
94	0x400cb1fe	2.1983638
95	0x405437cf	3.3159063
96	0x4008bc00	2.1364746
97	0x3ffeb4b4	1.9898896
98	0x400a118a	2.1573205
99	0x3fe9dec0	1.8271103
100	0x4009df4e	2.1542544
101	0x401e6073	2.4746368
102	0x4048625c	3.1310034
103	0x400e4e40	2.223526
104	0x3fd5f930	1.6716671
105	0x401ec4ff	2.4807737
106	0x400c1ee2	2.189385
107	0x4012d567	2.294275
108	0x400089a9	2.008402
109	0x3fd0843b	1.6290354
110	0x400c6988	2.193941
111	0x400d06b8	2.203535
112	0x4003ce5d	2.0594704
113	0x3fde69e4	1.7376065
114	0x3fefd36d	1.8736397
115	0x4003d355	2.0597737
116	0x3ffd9a51	1.9812719
117	0x400f658c	2.240573
118	0x400db89a	2.2143922
119	0x400fe30d	2.248233
120	0x400acae4	2.1686335
121	0x400f0622	2.2347493
122	0x40176677	2.365629
123	0x3fe5e7d2	1.7961371
124	0x401b98c9	2.4312003
125	0x401d8bd9	2.4616606
126	0x40135aaf	2.30241
127	0x3f9f80fe	1.246124
128	0x3dcb9d70	0.09942138
129	0x400a7588	2.1634235
130	0x401a8b9b	2.4147708
131	0x40172a2d	2.3619492
132	0x3fd656b1	1.6745206
133	0x406797a2	3.61863
134	0x40099518	2.149725
135	0x401a16ad	2.407634
136	0x40082184	2.1270456
137	0x3fe26157	1.7685956
138	0x3de0a8f2	0.10969724
139	0x3feb9eef	1.8407878
140	0x3fc6dd8b	1.553636
141	0x3ff468ed	1.9094521
142	0x40141595	2.3138173
143	0x3fb39a9d	1.4031559
144	0x400cbf37	2.1991708
145	0x3fd45f00	1.6591492
146	0x3fe8a0ee	1.8174112
147	0x400791b8	2.118269
148	0x401d6ea5	2.4598782
149	0x3fd2a465	1.6456419
150	0x3ff49bdf	1.9110068
151	0x3fcf343b	1.6187814
152	0x4001713b	2.022536
153	0x40586827	3.381357
154	0x3fba7d18	1.4569426
155	0x3fb8e42d	1.4444634
156	0x3ffd2ba7	1.9778947
157	0x3fde9cf8	1.7391653
158	0x3fbfa3b4	1.4971833
159	0x3fee4d83	1.8617405
160	0x3fb969ec	1.448545
161	0x3ffde653	1.9835914
162	0x3fb0ed78	1.382247
163	0x3fd093ab	1.6295065
164	0x3ff35eac	1.9013267
165	0x40024459	2.0354216
166	0x3fe9e14a	1.8271878
167	0x3fd56cea	1.6673863
168	0x40005eb4	2.0057802
169	0x3fdad41a	1.7095978
170	0x3ffe9b60	1.9891167
171	0x400852b0	2.1300468
172	0x40013142	2.0186315
173	0x3fe74115	1.8066736
174	0x40245d74	2.568204
175	0x3fed9386	1.8560646
176	0x3ff9de27	1.952092
177	0x3ff401be	1.9063032
178	0x3fef8e14	1.8715234
179	0x400de91d	2.217353
180	0x4016afe4	2.3544855
181	0x3fad7dd4	1.3554025
182	0x3ffce16e	1.9756296
183	0x3fd7b445	1.6851889
184	0x4061cec2	3.5282445
185	0x3fc88e29	1.5668384
186	0x4049ed60	3.1551132
187	0x4026cb0e	2.6061435
188	0x4004b8b0	2.0737724
189	0x40284aed	2.629573
190	0x4026d05b	2.606467
191	0x3f6f5b7e	0.9349898
192	0x3fe9e159	1.8271896
193	0x3fa583db	1.2930864
194	0x400fd56a	2.2474008
195	0x404349b5	3.0513737
196	0x400291b1	2.0401423
197	0x3fb5a27e	1.4190214
198	0x4015b34b	2.3390682
199	0x3f8bd9e5	1.0925871
200	0x40133a18	2.3004208
201	0x40268a5c	2.6021948
202	0x402262dd	2.5372841
203	0x403798c0	2.8686981
204	0x402ed0fc	2.7315054
205	0x3fdeb102	1.7397768
206	0x4000161f	2.0013502
207	0x402bb429	2.682871
208	0x400e2493	2.2209823
209	0x3fce3461	1.6109735
210	0x405de8b7	3.4673288
211	0x3de88f9a	0.11355515
212	0x4008c77f	2.1371763
213	0x3fc5649e	1.5421331
214	0x3ff8cfcb	1.9438413
215	0x3ff21d2c	1.8915153
216	0x402b43ee	2.676021
217	0x40151b98	2.3298092
218	0x3ffa7b92	1.9568961
219	0x3ff5396b	1.9158148
220	0x40071d4f	2.1111639
221	0x3feccb18	1.8499479
222	0x4026279d	2.5961678
223	0x3fe70946	1.8049705
224	0x3fcf9806	1.6218269
225	0x400d51d1	2.2081187
226	0x3fdf4dc1	1.7445604
227	0x3e09a13c	0.13440412
228	0x400de768	2.217249
229	0x401e908e	2.477573
230	0x3fc48a71	1.5354749
231	0x3ff46d80	1.9095917
232	0x401b6213	2.427861
233	0x40136a92	2.3033795
234	0x3df820c3	0.12115624
235	0x4016b6f7	2.3549173
236	0x3fda8e14	1.7074609
237	0x4022e549	2.5452445
238	0x400133ae	2.0187793
239	0x40034f2a	2.0517068
240	0x4001493a	2.0200944
241	0x3fb3767e	1.4020536
242	0x404673f3	3.100827
243	0x400a38a9	2.1597083
244	0x3fed8da2	1.8558848
245	0x4008a7ec	2.1352491
246	0x4018faad	2.3903
247	0x3fd3f45f	1.6558951
248	0x4004e2ac	2.076335
249	0x4052c928	3.2935276
250	0x4010acd5	2.2605488
251	0x3ffa3b79	1.95494
252	0x40006384	2.006074
253	0x3ff3890d	1.90262
254	0x4004b65a	2.0736299
255	0x3ffc0c32	1.9691222
