weights/model_critic_151.pt (torch, 431175 bytes, 9 tensors)

l1.weight f4 [300, 42]
00000000: 4923 0dbd 13d2 4c3f ae74 9fbb f4fe b03d
00000010: 8e5b 463e 4f9b ea3f 2244 083f f216 033f
00000020: 1a39 36bf 6614 b53e 9ec8 353f fcc3 8fbf
00000030: 8772 ebbc 2f10 ebbe fad1 733f 724f e8be
00000040: a235 823f 8d58 5e40 9030 e6bf a637 a0c0
00000050: d300 723f 2baa e540 7626 4ec0 150f 7c3e
00000060: ea4d 0b3f 79d6 45bf 1f49 0640 68d2 6a3d
00000070: bff7 42c0 8c77 0cc0 1521 e8bf f0c2 0540
00000080: 0b17 24c0 28ff 7ec0 2f6c ef3e 68cc 3040
00000090: e269 c0be fe40 dabd 72b7 90be f78d 3c41
000000a0: d11e e8be cf6c 49c0 4379 8b3e eb12 723e
000000b0: 2df9 0b3e 28ce c43d f7e9 da3c 6924 4e3e
000000c0: 480c 94be 7c0d aebf 745c bbbe 6321 8dbe
000000d0: f3a2 ce3e e3b3 91bd e751 cd3e 617b afbe
000000e0: c634 2140 bda4 09bf 2f5b 27c0 ecfd 9e3f
000000f0: 881e d73d 338d 98bf 4fe1 3b3f e4c1 5440
00000100: c3dd f5bf d71b 5c3e 491d a93e 9ced 4dbf
00000110: dd13 cd3e e05b e23e b1b4 8940 28e5 92bf
00000120: e23f ac3e b229 d83e 4529 1f41 f350 a8bf
00000130: a0f8 8c3e 0c09 a7c0 8c4d 9240 1c86 0e40
00000140: 602f d2bd 7a2e 273f 89b1 29c0 b5e2 72bf
00000150: e8d5 023f 74b7 b4bc bb3c be3e 1da0 e13e
00000160: a991 e43d 77bd 5fbd e810 21be 4dc7 10bf
00000170: a478 533e 003e 44bf 273d f63e 941a 2dbf
00000180: 8e6a 743e 2865 36bf aa3a 70bf d16a d03e
00000190: 50e8 b53e f9d8 91bf 873b e03f 2ac1 6bbd
000001a0: 10fb 3cbe ca77 11bf f659 5cbf 7e9a 0e3f
000001b0: 6d22 c23e 1ee5 08bf 7573 f73e 7f98 35c0
000001c0: 6161 7bbf 0573 103e d59e 40bf 3e9a 193f
000001d0: 324e dac0 7c39 5e40 7a23 2c3f c338 2340
000001e0: 59e0 313e 49bc 41bf d942 053f f33d c93f
000001f0: 68a2 acbf fbc7 73bd 893c 123f 998d dbbd
00000200: d92d ac3e 93dc b23d 12dc 3a3e d993 10be
00000210: cecd 21be 8151 ffbe 67f3 503d 7491 6abf
00000220: ac14 f73e 52eb 90be 0f72 8c3e 613b 41bf
00000230: 6e64 46bf 0aac 193d 4def fabd 0065 aebf
00000240: 0b06 e93f ce20 093c e18d b3be ac17 b9bf
00000250: 4241 84be 33d8 1c3f 5f8c c43e 6a1b 03bf
00000260: e395 003f 077e 38c0 db92 90bf bbb1 693e
00000270: c73a 14bf 1c47 413f 5167 e0c0 b054 5540
00000280: ef38 263f 7a63 2340 c0ad 713e a77c 61bf
00000290: df44 e43e 3376 923e a6ef 5abe 9dfd 293f
000002a0: ccd2 c93d f56b 193f 5ba7 cd3e 8a5d 763d
000002b0: 4180 753e a1f0 dd3e 1a05 2e3d 8b6f 963b
000002c0: 44c1 083f 2a19 7cbf a053 bc3e 6eb1 0fbe
000002d0: 44ef eebe fc8e f5be a987 77be 4bf9 c4be
000002e0: 7a28 7d3f 3dd7 aabf 6735 c33f 7aab 723e
000002f0: 2b68 25c0 6267 1cc0 fa30 5ebf e7fa 3fbe
00000300: 11b3 543e 551b 393f 2029 613f a290 c3bf
00000310: c972 0ec0 c1fc c7c0 9956 3dc0 dcaf 7dbf
00000320: 06eb 35c0 e29f 16c1 6e5c 543c 4af1 f53e
00000330: 36c7 66c0 57a0 5e3f cce8 06c0 9800 0bc0
00000340: b879 b840 225d 71c0 99c9 243f a048 e0be
00000350: c669 e53e 49d2 77bf c905 983e ac0a 8fbe
00000360: b9b8 efbe 2ab7 aa3d c5e9 eabe 11a7 b3bf
00000370: 7671 053f 5a2e 4c3f ad85 e13e 1f0d 5bbf
00000380: 027d f8be 4134 97bf 6818 00c0 10ac e8bf
00000390: e129 0e40 07dd 453e 80bd a7bf 8a22 89c0
000003a0: 941a b93f 450c 593f fa73 ee3e d404 cdbe
000003b0: de1c bd3e 7aa2 4fc0 d9d8 c9bf f257 463f
000003c0: 58ce 49bd 7796 763f 491c e9c0 6c15 1040
000003d0: 002c 333f ffea 2340 dd61 d53e e7d1 acbf
000003e0: a447 e13d 55bc 4ec0 f1a0 3540 3cb8 2a40
000003f0: 744a d23e 3025 453f c1bb 1f3d 8dab e63f
-0.03445748 0.8000805 -0.004866204 0.086423784 0.19370863 1.8328646 0.5322896 0.51206887
-0.7118088 0.35367125 0.7100924 -1.1231685 -0.028741134 -0.45910785 0.95242274 -0.45373112
1.0172617 3.4741547 -1.798357 -5.006793 0.9453251 7.1770225 -3.2210975 0.24615128
0.5441576 -0.77280384 2.098213 0.057329565 -3.0463712 -2.1947966 -1.8135096 2.090023
-2.5639064 -3.9843235 0.46762225 2.762476 -0.37580782 -0.106569275 -0.28264958 11.784659
-0.4533601 -3.1472661 0.27240953 0.23640029 0.13669272 0.09609634 0.026722891 0.20131077
-0.2891562 -1.3597865 -0.36593974 -0.27564535 0.40358695 -0.07114389 0.4010155 -0.34273818
2.518846 -0.53766996 -2.6149404 1.2421241 0.1050387 -1.191809 0.7339067 3.3243341
-1.9208301 0.21494995 0.33030155 -0.8044069 0.40054217 0.4421072 4.303307 -1.1476183
0.3364249 0.4221931 9.947576 -1.3149704 0.27533436 -5.2198544 4.571966 2.2269354
-0.10262942 0.6530529 -2.651461 -0.9487718 0.51107645 -0.022060134 0.3715571 0.4406747
0.11160595 -0.054624047 -0.15729105 -0.5655411 0.2065149 -0.76657104 0.4809353 -0.6761868
0.23868772 -0.712481 -0.93839514 0.40706494 0.35528803 -1.139434 1.7518166 -0.057557262
-0.18455148 -0.5682341 -0.8607477 0.55704486 0.3791689 -0.53474605 0.48330274 -2.8374326
-0.98195463 0.14106376 -0.7524236 0.6000098 -6.8220453 3.4722586 0.6724163 2.5503395
0.17370738 -0.75677925 0.52055126 1.572203 -1.3487062 -0.059516888 0.5712362 -0.10720367
0.3362873 0.087334774 0.18248013 -0.141189 -0.15801165 -0.4986687 0.051013377 -0.91628194
0.4825796 -0.28304535 0.2743077 -0.7548123 -0.77496994 0.037517585 -0.12252674 -1.3624573
1.8204969 0.008369638 -0.35069183 -1.4460349 -0.25831038 0.61267394 0.38388345 -0.51213706
0.5022871 -2.882692 -1.1294817 0.22821705 -0.5790219 0.7549913 -7.012612 3.333294
0.64930624 2.5529466 0.23601437 -0.8808083 0.44583794 0.28605804 -0.21380481 0.6640261
0.098546594 0.59930354 0.40166745 0.0601478 0.23974706 0.43347648 0.042485334 0.0045909337
0.534199 -0.984759 0.3678255 -0.14032528 -0.4666692 -0.4796065 -0.24172844 -0.38471445
0.9888989 -1.3346936 1.5250672 0.23698226 -2.584483 -2.44381 -0.8679348 -0.18748055
0.20771433 0.7230733 0.87953377 -1.5278513 -2.225756 -6.2496037 -2.9584105 -0.99096465
-2.8424697 -9.414034 0.01296149 0.4803565 -3.6059089 0.8696341 -2.1079588 -2.1719112
5.7648582 -3.7713094 0.64370114 -0.43805408 0.4480726 -0.96805245 0.29691914 -0.2793783
-0.4682062 0.08335717 -0.45881477 -1.403536 0.5212625 0.79758227 0.440473 -0.85566896
-0.48532873 -1.1812822 -2.0014896 -1.8177509 2.221306 0.19322596 -1.3104706 -4.285466
1.4461236 0.84784347 0.46572858 -0.40042746 0.36936086 -3.2442918 -1.5769302 0.77477944
-0.04926905 0.9632334 -7.284703 2.2513075 0.69989014 2.561218 0.41676226 -1.3501557
0.109999925 -3.2302449 2.837948 2.6674948 0.41072428 0.7700987 0.038997415 1.8021103

l1.bias f4 [300]
00000000: 4d43 ce3e e3f8 4a3d 8692 ce3e 21fd d83e
00000010: a696 c43c f01c 0d3f 7e4d bfbc 0336 e93e
00000020: 345f 163f d0c0 fd3e 9be1 2f3e 8e0f c23d
00000030: 92b6 a43c ba44 123f c0dc 5ebe e6e3 0dbd
00000040: 0d39 453f df00 d93d 12b2 b0bd 727b f23d
00000050: 2834 083e bd88 c83e fc30 9b3c 5e4f a83e
00000060: b7e4 aa3d 6c91 c73e 2425 bb3e 15b1 73be
00000070: 8396 e33d 854b 2d3e a278 413d 745b cc3e
00000080: e0c2 e93d 7558 283e de56 873c 72c6 873e
00000090: 1224 273e f6ef f43e da7d f83e f219 683e
000000a0: 06e1 583e b86d 2d3e f261 043e e7bb bcbd
000000b0: f05e ba3e d860 243f 2bb9 093f 0dcc e83e
000000c0: fe29 023f f50d c23e 2688 9b3d 9359 293f
000000d0: 7de2 b53e 5be3 bdbb bb54 023f 58c0 9b3e
000000e0: 8b09 cf3e be68 ad3d 327f 0d3e 7194 b5bd
000000f0: b591 343e 416f c83d ca1a e23e dec7 e1bc
00000100: b0fb bcbd 97f6 2bbc ad0c 0d3f 63cb 1a3e
00000110: d506 093f ac80 803e b8fc e83e c8c0 0f3f
00000120: e1e3 793e fd16 373d 7acd f63e 07dc 0b3e
00000130: 90cc e73e 0abf b73e 9c31 e73e e10e a53e
00000140: d5ee ba3e 51a8 0e3f 5182 9e3e a3cc f43e
00000150: 3eb9 be3e ac0c 453d 6fee eb3e ef6b b73e
00000160: 26e2 2a3e 8456 cf3e 095d 2d3f 16c7 783e
00000170: c439 2ebe a998 833e ad87 083f 0f57 a43c
00000180: 2405 7e3e 4c5b 0d3e db7e 043f a261 093f
00000190: f843 a53e 0ce2 ec3e 7991 fcbd ca54 723e
000001a0: 674d ce3d 9f9f f13e 5bc5 7b3e 0ad4 f23e
000001b0: 6fa2 a63e d787 c43e ff4b a33e 955a db3e
000001c0: 71fb 5c3e 34d5 093f 7623 9b3e 61bd f13e
000001d0: e27b 9a3e f4d8 903e def5 8f3e 9612 253f
000001e0: 1cfa 613e 63e3 fd3e 7a59 e93e 80ea 0d3f
000001f0: 2f0f d03e 18f4 303d ea4d 5cbb c238 473e
00000200: fc35 e03e d9d4 ed3e 9321 cd3e 27ff 7f3c
00000210: 75d6 033f 1843 d43e 4e05 0c3f c656 4c3f
00000220: a9aa ea3e d773 fe3e 6713 f13e dc19 063e
00000230: 7169 803e 58ff fc3e 4ca1 cc3e b234 b43d
00000240: dbe1 ae3e 35bf b63e 306e 833b f50c 683f
00000250: a85a 113f 44b5 693e f022 813e 9c8e 283d
00000260: e290 b83e 6758 8e3e 4682 eb3e 0808 f83e
00000270: 14fd d73e 0095 e23e 70ce 8b3e 6029 8e3e
00000280: d989 743e cdb3 f23e 9411 633e 7138 ca3e
00000290: 012e c13e 623c 093f ee36 0b3e 0a13 bd3e
000002a0: bc05 ac3c c553 30be 77a6 43be befc 803e
000002b0: 5c06 df3e 75d7 343f eb84 4d3e 177e cf3e
000002c0: 4ff7 af3e 0e62 b83e 75a0 a33e 5e0e d83e
000002d0: 936a b53e 6641 d53e 9a52 d23d 697e 9a3e
000002e0: 6b1c 093f 831c 1a3f cb82 5c3e 451a 103f
000002f0: 1a80 153f eed2 dc3e 121d a13e 9821 c43d
00000300: 4466 d43d 13d9 083f 4bb2 59bd d036 b13d
00000310: 8ad2 f23e a826 b13d 56ad b43e 3b09 16bc
00000320: b813 d83e 5927 b3bb 2161 853e 76ff ac3e
00000330: 5589 be3e a613 053f 6223 0d3e 498e a63e
00000340: e023 e33e fad4 f33e e583 013e b383 503e
00000350: edc4 fa3e a968 323e 7d92 a93e ee8e 273f
00000360: 9da7 7f3e 302d a33e 203c e43e 0a9a 8a3e
00000370: bc9a 993e 57c1 183e e9f7 263e 5bbe 94be
00000380: b5e9 fb3e 2c77 143e 4988 98bc 263f db3e
00000390: 6420 123e 7e42 993d 55a7 7e3e 9702 cf3e
000003a0: 897f 8f3d 21a8 863e 9814 833e 2e4f d43e
000003b0: d572 5b3e fc2b 883e 27be e83e 56b3 043f
000003c0: 9a15 ef3e 3a77 d63e 4319 e53e cec5 c73e
000003d0: 2e4b 6f3e 886b ecbc a55a 053f f211 e23e
000003e0: 8d6c 693c e54c 453d df48 ed3e b85e 9bbd
000003f0: c7e6 423e 4622 4e3e 23fb 9b3c b68f 953e
0.4028572 0.049553763 0.40346164 0.42380622 0.023997616 0.5512228 -0.02335238 0.4554902
0.5873902 0.49561167 0.17175905 0.09475623 0.020106588 0.5713612 -0.21763897 -0.03464117
0.7704018 0.10595869 -0.08627714 0.118399516 0.13301146 0.39166823 0.018944256 0.32873052
0.08344405 0.38978136 0.36551774 -0.2379802 0.11112692 0.1692334 0.047234185 0.39913523
0.114141226 0.16439994 0.016520914 0.2651859 0.16322353 0.47839326 0.48533517 0.22666147
0.2117959 0.16936386 0.12927988 -0.09215527 0.36400557 0.6421027 0.5379817 0.45468178
0.50845325 0.37901273 0.07594328 0.66152304 0.3552436 -0.005794925 0.5091054 0.30420184
0.40436968 0.084672436 0.13818052 -0.088662036 0.17633708 0.09786845 0.44161063 -0.027561124
-0.09227693 -0.010495803 0.55097467 0.15116648 0.5352605 0.2509817 0.4550531 0.56153536
0.24403335 0.044699658 0.4820364 0.13658153 0.45273256 0.3588794 0.45155036 0.32237914
0.3651034 0.5572558 0.309588 0.47812375 0.37250704 0.048107788 0.46080348 0.35824534
0.16687831 0.40495694 0.67720085 0.24294695 -0.17014223 0.25702408 0.53332025 0.020061044
0.24806648 0.13804358 0.51756066 0.536646 0.3227842 0.4626621 -0.12332434 0.23665157
0.10073357 0.47192094 0.24587004 0.47427398 0.32545802 0.38384888 0.31893918 0.42842546
0.21580292 0.5384095 0.30300492 0.47214797 0.3017264 0.28290522 0.2811727 0.64481485
0.22068065 0.49587545 0.45576078 0.55435944 0.40636584 0.043201536 -0.0033615776 0.19455245
0.43791187 0.46451452 0.40064678 0.015624798 0.5149911 0.41457438 0.54695594 0.79819906
0.45833328 0.49697754 0.47085115 0.13095802 0.25080445 0.49413562 0.3996681 0.08799113
0.3415669 0.35692754 0.004010938 0.9064477 0.56778955 0.22823054 0.25221968 0.041151628
0.36048037 0.2780182 0.45997828 0.48443627 0.4218527 0.44254303 0.27305937 0.27765942
0.2388071 0.47402802 0.22174674 0.39496186 0.3773041 0.5360776 0.13595173 0.36928588
0.020998828 -0.17219456 -0.1910647 0.25192827 0.4355954 0.7064126 0.20070235 0.40525886
0.3436837 0.3601231 0.31958356 0.4219846 0.35432872 0.41651458 0.10269661 0.30174568
0.5355899 0.60199755 0.21534269 0.56290084 0.5839859 0.43129677 0.3146749 0.0957672
0.10371068 0.5345623 -0.05314855 0.08653033 0.47426254 0.08649951 0.35288495 -0.009157474
0.42202544 -0.005467337 0.26050666 0.3378865 0.3721415 0.51983106 0.13783029 0.3253043
0.44363308 0.47623426 0.1264797 0.2036274 0.48978367 0.17422737 0.33119574 0.6545247
0.24966283 0.31870413 0.44577122 0.27070647 0.30000865 0.14917503 0.16305508 -0.2905148
0.49201742 0.14498585 -0.018619673 0.42821616 0.14270169 0.074833855 0.2486852 0.40431663
0.07006747 0.26300147 0.2560165 0.4146666 0.21430524 0.26596057 0.45457575 0.51836145
0.46696168 0.41887838 0.44745836 0.390181 0.23368523 -0.028859869 0.5209144 0.44154316
0.014247072 0.048169035 0.4634466 -0.075864255 0.19033347 0.20130262 0.01904065 0.29211205

bn1.weight f4 [300]
00000000: eaa6 ac3f a89c f83f 58bf c03e e778 c43e
00000010: 92cc ee3f d33a 853e b434 4d40 3582 a63e
00000020: b27e 493e 6018 a63e 2c10 2840 ec21 6e40
00000030: 5f11 0140 bdb6 1740 8371 1840 11d1 ff3f
00000040: 0e87 8140 548a c13f db6e 0240 31c7 2840
00000050: c40f 2140 e9cb 1840 42b4 0340 642b 1140
00000060: 1d29 5840 8bb1 2c40 b7a9 e63f 4d42 1040
00000070: 14bf db3f b72c 0640 4962 8d40 d145 bd3e
00000080: 98bb f93f 43ac ed3f 2b8f 1640 9bb1 4640
00000090: 041c 1140 9c1d 8e3e 8190 2140 2aee 0a40
000000a0: 08b7 2340 763a c13f daba d63f 87e4 6640
000000b0: 6d9e b43f f147 0640 cdf6 b03e 1381 b13e
000000c0: 3f3a 4c40 8843 843e 9b58 793f 596e 9340
000000d0: 6e12 2f40 6d9d 3b40 74e2 e63f ea39 1d40
000000e0: af40 923e ad63 d43f 6b0c 8f3f 1c47 5b40
000000f0: 9c22 1840 22dd b43f 19d8 ad3e 1e1d c03f
00000100: 41bc 0d40 dc25 b03f 9ffc 713e 4127 733f
00000110: 8c73 0040 da56 0c3f 3205 5240 1168 873e
00000120: fe0f 913f a406 5c40 6fa0 be3e 9047 b93f
00000130: 755e 0540 c89e ee3f a490 a93e 84da 9c3f
00000140: 102e f53f 1917 0940 becc 6240 8a56 8e3e
00000150: b513 1e3e a405 f93f 9324 b83e 26c0 973e
00000160: 5558 1940 dea5 b23e 029e 9440 c36b 0f40
00000170: 9f99 d13f 0672 1b40 4ca5 2640 3f54 8040
00000180: 57dc ed3f 212f 0540 d453 863e 6a05 b13e
00000190: 16c6 7940 b253 3540 7017 3040 5e18 be3f
000001a0: 241c 833f 30d5 1f40 eb2f ca3f cda7 983e
000001b0: bf1e 1240 7b7b bb3e 01dd 963f 0ead 9b3e
000001c0: 71c1 6240 b4f6 2e3e 0e49 1040 90ba aa3e
000001d0: d487 c83f 6f91 0b40 e03b e13f 9007 2e40
000001e0: f5df 1340 d90c 8f3e 5c4c 0240 f9c6 8b3e
000001f0: 80e1 9b3e d647 c23f 77a6 af3f 4f8d 0840
00000200: 17a6 9f3e 2b61 993e 02aa 6340 efd9 bc3f
00000210: e4c9 9e3e cc2c b53e 9423 583e 7398 ee3f
00000220: c866 1140 0688 4140 c204 9b3e ddb4 0340
00000230: 2c27 a440 cd6e a23e 559b a43f e413 d83f
00000240: ee62 9e3f eb38 3b40 f0e1 bf3f c496 8040
00000250: 094a 1f40 2630 d63f bb25 9d3f 3cde e43f
00000260: 8495 6c3f ee01 1440 0484 4040 2b38 ae3e
00000270: 9c48 1040 26e2 b43e e80a 0040 4997 b53f
00000280: 529a 1340 a074 0440 836c 0740 00e8 9f3e
00000290: ed02 3b40 2691 943e 4cad 1940 b061 8c3e
000002a0: 8239 e03f fb94 e83f 5511 2240 f28d 7840
000002b0: b92f 1a40 0ca6 b13f b56a 4040 50a8 863e
000002c0: 9518 863f 5318 f93f 7b9b 8b40 873c 1940
000002d0: e74a cd3f 0200 db3f 6754 6440 6653 0440
000002e0: ac0a 883e 21a7 833e 87fd 7f3f 21f2 573e
000002f0: d4f5 ad3e 67ac bb3f 981f 563f 62f6 d23f
00000300: 8c87 eb3f 4838 b53e 1e5c 1b40 67f1 5040
00000310: eb7d 8340 387f f83f a20b 953e 7f4d a83f
00000320: 0cca a73e 865d 6240 16a1 ef3f ccad 7240
00000330: 15d2 8f3e 7332 613e bfde ec3f d4c3 d43f
00000340: 9fdb d13f 4e6d 753e 55bf f63f b6b0 da3f
00000350: 51bd ae3e 3e7a 0540 16a5 fc3f 2ae7 b93e
00000360: c2df da3f 93e8 1840 903d 9b3e a86f e93f
00000370: 540b 1540 2cc5 ec3f f9a8 2e40 1eec 3240
00000380: fda5 1540 c5f7 3540 60de 4040 6d91 ad3e
00000390: 5d5b 3e40 9771 1140 ef49 2c40 cf23 af3e
000003a0: 09f8 eb3f a45f 8540 8cfe 8640 b725 f73f
000003b0: 078c bf3f 595f 1d40 5257 4e40 8277 b93e
000003c0: f218 253e bb5c a43e 1802 c33e de6a 0240
000003d0: a7cc 0640 c4aa 1840 42ab 963f 9c1b ee3f
000003e0: 83a9 2d40 137a bf3f 04de 3340 c6d1 0d40
000003f0: 7524 823f caa4 3340 7c57 1640 5192 943f
1.3488438 1.9422808 0.37645984 0.3837349 1.865618 0.26021442 3.2063417 0.32521215
0.19677237 0.32440472 2.625987 3.7208204 2.0166852 2.3705285 2.3819282 1.9985677
4.047736 1.5120339 2.038016 2.6371577 2.5165873 2.3874457 2.057877 2.2682734
3.3775094 2.6983364 1.8020543 2.2540467 1.7167687 2.0964792 4.4182477 0.36967328
1.9510374 1.8568195 2.3524883 3.1045902 2.267335 0.27756965 2.5244448 2.1707864
2.5580463 1.5095966 1.6775773 3.6076982 1.4110848 2.098141 0.34563294 0.34668788
3.191055 0.25832772 0.97400826 4.60722 2.7354999 2.9314835 1.8037858 2.4566598
0.28564975 1.6592919 1.1175665 3.4262152 2.3771124 1.4129984 0.33953932 1.5008886
2.214615 1.3761554 0.23631524 0.9498177 2.0070524 0.54820025 3.281567 0.26446584
1.1333005 3.4379053 0.37231776 1.4474964 2.0838902 1.8642206 0.33118165 1.2254186
1.9154682 2.1420348 3.5437465 0.278004 0.15437205 1.9454846 0.35965404 0.29638785
2.3960164 0.34892172 4.644288 2.2409523 1.6375006 2.4288344 2.603839 4.010284
1.8582867 2.0810015 0.2623583 0.34574443 3.9027152 2.8332334 2.7514305 1.4851186
1.0242963 2.497387 1.5795873 0.29815522 2.2831266 0.36617646 1.1786195 0.30405468
3.5430567 0.17086297 2.254459 0.3334546 1.5666451 2.1807516 1.7596397 2.7192116
2.3105443 0.2793949 2.0359106 0.27300242 0.3044548 1.5178173 1.3722676 2.1336248
0.31181404 0.29956946 3.5572515 1.4754008 0.31013405 0.3538574 0.21107322 1.8640274
2.2718983 3.0239272 0.30277067 2.057914 5.1297817 0.3172516 1.2859904 1.688107
1.2373941 2.925349 1.4990826 4.018404 2.4888937 1.6733444 1.227714 1.788032
0.9241564 2.3126178 3.0080576 0.34027228 2.2544317 0.35328788 2.0006657 1.4186794
2.306294 2.0696182 2.115998 0.3123169 2.9220536 0.2901699 2.4012022 0.2741828
1.751755 1.8170465 2.5323079 3.8836637 2.4091628 1.3878798 3.0065129 0.26300287
1.0476252 1.9460548 4.3627295 2.3943193 1.6038483 1.7109377 3.5676515 2.0675902
0.26570642 0.25713447 0.9999623 0.21088459 0.33976614 1.4661988 0.8364196 1.648144
1.8400741 0.35394502 2.4274974 3.264734 4.109121 1.9413824 0.29110438 1.314865
0.32771337 3.5369582 1.8721035 3.7918577 0.28089967 0.21991901 1.8505477 1.6622262
1.6395148 0.23967478 1.927714 1.7085178 0.34128812 2.085586 1.973788 0.36309177
1.7099535 2.3891952 0.30320406 1.82372 2.3288164 1.8497672 2.7290633 2.7956614
2.3382561 2.8432477 3.0135727 0.33900014 2.9743264 2.272558 2.6920125 0.34207007
1.8435069 4.167925 4.2185726 1.9308385 1.4964608 2.4589446 3.2240796 0.3622399
0.16122797 0.32101998 0.38087535 2.0377727 2.106241 2.3854227 1.1771014 1.8602176
2.7134712 1.4959129 2.8104258 2.2159286 1.0167376 2.806933 2.3490896 1.1607152

bn1.bias f4 [300]
00000000: c982 82bf fa2f 11bf 1001 27bf 6818 1fbf
00000010: 59b2 eebe 49fb 24bf 30fa 5bbf aa0a 21bf
00000020: 1438 34bf 51db 33bf 72af 61be 0dff 6abf
00000030: 546c a9bf 2b8f d0bd a270 c4be 1dec b5bf
00000040: 6b97 973f 2ded ebbf 6815 c3bf 4f6d b0bf
00000050: d2fa b0bf 151a 46bf 748c f0bf 80f1 36bf
00000060: 2df7 82bd 720e 7d3f d3b8 f4be 524c 80bf
00000070: e036 77bf 65c8 32bf 773b d4be 0201 1cbf
00000080: 912e aabf 3751 71bf d80d debf 89c8 2abf
00000090: 80bf 32bf 726d 2dbf 4ce9 47bf 4ebc abbe
000000a0: 2489 b8be efa2 19bf 44b0 5fbf b2dd 86bf
000000b0: 8cd6 ec3e 0010 a8bf 7a77 14bf e91c 17bf
000000c0: 0d1b 1cbe bfd0 26bf 8b20 9cbe 4160 693f
000000d0: 7f09 96bf 4605 21bf 66f5 c6bd e736 c4bf
000000e0: 8305 2dbf b795 e0be 2f79 5a3f ffb9 263f
000000f0: b591 babf 5d9d a5bf 9544 1cbf 2f08 c2bf
00000100: f1c9 60bf a2f8 a0bf 137f 28bf 275f 79bf
00000110: 7b9f 2c3f 6cb2 f63d 76bb b4bf 15c3 18bf
00000120: eedc f8be 8a9f 19be 1bc6 1cbf 22ea 243f
00000130: 1a83 10bf 55f7 90be 4199 24bf 8dc1 af3e
00000140: 9c7b d9bf 9a2f 84bd d7fb 24bf 876e 29bf
00000150: 4c41 5dbf ed62 84bf fb7d 24bf f57b 21bf
00000160: 543b 13bf 6ef9 17bf 6e68 243f 28f4 a2bf
00000170: 3a2c 93bf 39d8 96be d6ba 14be e9bf cc3e
00000180: e455 9dbe 8503 1ec0 68aa 1cbf a1cf 0fbf
00000190: 4ea5 1bbf 5031 bebd ec0b 29bf 0736 87bf
000001a0: 3df6 2dbf db54 2cbf de89 adbf 8ca6 26bf
000001b0: 706f bdbf bcf0 1bbf 30aa 09bf 37dd 19bf
000001c0: f4fb c9be fe91 0cbf 4cb1 5dbf 895e 24bf
000001d0: 32aa 43bf 47bc cabd 61b5 70bf aff4 413f
000001e0: 10a8 cdbf 6da5 2cbf 7508 623e b870 3cbf
000001f0: 2a74 25bf 4161 aabf 4c43 febf f556 1fbf
00000200: 12ca 1cbf c502 31bf d35c bd3f 3b29 b5bf
00000210: 6f66 23bf 21a0 14bf 4fa7 42bf ebad 093e
00000220: 520a e03e 7e1e 953d 856c 2fbf ab3e 1abf
00000230: b8ad 35bf f4b8 13bf 0f41 12bf 245c 71bf
00000240: faf2 01bf 91e1 72bf 22b2 afbf 5786 e43f
00000250: 7120 49bf c4fe 0bbf 9662 2cbf 7945 72bf
00000260: 52b4 f4bd ede9 0ebf 09aa 98bf 75af 15bf
00000270: 92c5 7bbe 9f4a 1ebf a938 d3bc f2f7 aebe
00000280: abbb cf3d 0373 bcbf b037 51bf 12c7 1fbf
00000290: 0b31 0cbd a91d 12bf 2191 d7bf e519 27bf
000002a0: d860 b7bf 51d3 a6bf ab11 6fbf 5354 bcbe
000002b0: b345 2d3f 6b0a 40be 35a6 10bf 4322 12bf
000002c0: 4910 6bbf ee26 04be 83b6 55be e4c4 44be
000002d0: e4ba 39bf bd28 15bf 0bfe 3a3d 7912 893e
000002e0: f9aa 2dbf 553d 38bf 66c1 33bd 96be 2dbf
000002f0: 7e7e 1bbf 2917 5fbe b694 233f e503 c9be
00000300: 9e6b 61bf 853d 15bf b2ad 62bf c089 56be
00000310: 7d10 e13c 5326 c0bf fed2 26bf d7db 85bf
00000320: e44c 15bf 1613 34bd 02fc 29bf 07d7 f93c
00000330: 961c 1dbf 269a 2dbf 50f2 c6bf 31f5 ff3d
00000340: dc03 69bf bc83 29bf 2442 f1be fcae 24be
00000350: de2f 25bf 12ab f6bf bc00 06bf 82a0 18bf
00000360: 0b41 58bf 5a99 b33e 6644 07bf f393 3bbe
00000370: c1ec c7bf 78cc aabc 5504 dfbe c5ee fabf
00000380: 7d7a 10bf a168 24bf edaa 143f bf5a 1fbf
00000390: feea 02bf 2db4 34bf 19a5 d7be b4ae 17bf
000003a0: bde2 d3bf 026a 8a3f db42 293f f902 d6bf
000003b0: e4cf 99bf e0da 78bf e90d 94bd 9448 19bf
000003c0: ef3e 39bf 4941 1bbf 3e34 27bf 17e4 bc3e
000003d0: aff7 c1bf 38df 94be 3356 f1bc 2cc5 cebf
000003e0: c870 70bf a245 7abf e3bf 93bf 2189 a4be
000003f0: c67c 33bf eaf5 4fbf 949b 8fbf ccef e23b
-1.0196162 -0.5671383 -0.65235996 -0.62146616 -0.46620443 -0.6444593 -0.8592863 -0.629069
-0.7039807 -0.70256525 -0.22039583 -0.91795427 -1.3236184 -0.10183557 -0.38367182 -1.4212681
1.1843084 -1.8431755 -1.5240908 -1.3783358 -1.3826544 -0.7738355 -1.8792863 -0.7146225
-0.06394801 0.98850167 -0.4779726 -1.0023291 -0.9656811 -0.6983703 -0.41451618 -0.6093904
-1.3295461 -0.9426455 -1.7347975 -0.6671224 -0.69823456 -0.67745125 -0.7809036 -0.33542103
-0.3604213 -0.6001424 -0.87378335 -1.0536406 0.46257436 -1.3129883 -0.57994807 -0.5902849
-0.15244694 -0.6516227 -0.30493578 0.91162497 -1.1721648 -0.6289867 -0.09714775 -1.5329255
-0.67586535 -0.43864223 0.8534116 0.6512756 -1.4575716 -1.2938648 -0.6104215 -1.5158747
-0.8780814 -1.2575877 -0.658189 -0.97410816 0.6743085 0.1204575 -1.4119709 -0.5967267
-0.48606056 -0.15002266 -0.61239785 0.6441976 -0.56450045 -0.283137 -0.64296347 0.34327355
-1.6990848 -0.06454392 -0.6444678 -0.66184276 -0.8642776 -1.034269 -0.6425473 -0.6307977
-0.575124 -0.59364974 0.6422185 -1.273076 -1.1497872 -0.2946184 -0.14524397 0.39990166
-0.30729592 -2.4689648 -0.6119752 -0.5617619 -0.6079911 -0.09286749 -0.66033816 -1.0563363
-0.67953855 -0.6731698 -1.3557699 -0.6509788 -1.4799633 -0.60914207 -0.5377531 -0.6010317
-0.39450037 -0.54910266 -0.8659866 -0.6420675 -0.7643157 -0.09899192 -0.9402676 0.7576398
-1.6066914 -0.6743992 0.22073539 -0.73609495 -0.6463038 -1.331093 -1.9864287 -0.6224206
-0.61245835 -0.6914485 1.4793953 -1.4153208 -0.63828176 -0.5805684 -0.7603654 0.1344525
0.43757874 0.072812065 -0.6852496 -0.60251874 -0.709682 -0.5770409 -0.5713052 -0.9428122
-0.5076138 -0.9487544 -1.3726237 1.7853497 -0.78565127 -0.54685616 -0.6733793 -0.94637257
-0.11948456 -0.5582569 -1.1926891 -0.5847085 -0.24587086 -0.6183261 -0.025783854 -0.34173542
0.10143217 -1.4722599 -0.817256 -0.6241313 -0.03422646 -0.5707651 -1.6841165 -0.65273887
-1.4326429 -1.3033239 -0.93386334 -0.36783084 0.6768448 -0.18753974 -0.5650361 -0.5708353
-0.91821724 -0.12905475 -0.20870404 -0.19215733 -0.725508 -0.58265287 0.04565243 0.26771906
-0.6783901 -0.71968585 -0.04388561 -0.67868936 -0.60739887 -0.21786179 0.6389879 -0.39260784
-0.88054836 -0.58296996 -0.8854629 -0.20950985 0.027473683 -1.5011696 -0.651657 -1.0457715
-0.5832045 -0.043963514 -0.6640016 0.03049804 -0.61371744 -0.67813337 -1.5542698 0.124979384
-0.91021514 -0.66216636 -0.47120774 -0.16082376 -0.64526165 -1.9270957 -0.5234487 -0.59619915
-0.8447425 0.35077935 -0.5283874 -0.18318157 -1.5619127 -0.020849451 -0.43557993 -1.9604117
-0.564369 -0.6422215 0.5807331 -0.6224784 -0.5113982 -0.70587426 -0.42118147 -0.5925095
-1.655357 1.0813601 0.6611764 -1.6719657 -1.2016568 -0.97208977 -0.07229216 -0.5987637
-0.72361654 -0.6064649 -0.6531409 0.3689277 -1.5153712 -0.29076552 -0.029460048 -1.6153922
-0.9392209 -0.977625 -1.1542934 -0.3213587 -0.70112264 -0.8123461 -1.1219354 0.0069255587

l2.weight f4 [300, 308]
00000000: 5e1f 16bf 1488 0840 b478 7abd f388 1cbd
00000010: b623 0d3f acc6 35bd 029e a33f 5515 1bbd
00000020: f565 e73d 56d3 113e 92e1 00c0 b8af 64be
00000030: 5720 fbbf b860 9a3f 8db8 b2be 3f84 61bf
00000040: 801a 85bf aace 0ec0 09b8 0b40 e98e c83f
00000050: 0d2b 7dbf c462 cf3e 882d ecbf d83a 2e40
00000060: c26f 1d3f c127 813f fb26 30bd 0fbb b03f
00000070: ab51 3a3e 74b7 d9bf e0ff bebf 568b 153c
00000080: 75f4 553f 8c19 2b3f 6db7 bb3f 3bf2 813e
00000090: 66f7 cabe 2350 d2bb 4359 89bf ab00 5a3f
000000a0: 2c2c 55bf adf0 4d3e d76a 533f 2308 25be
000000b0: cb5a 02bf 0dc8 783f c6ee 893d 245a 773d
000000c0: d1dc b23e 942c 88bd 56ce 9d3d 48f0 853f
000000d0: cece ae3f 094b d83f 9ef6 ee3f 89b0 c7bf
000000e0: 6a72 873b 1b46 c6bf db93 b3bf dc93 d2bf
000000f0: 4056 173f fb3c 0b3f adce a73c ed07 c73f
00000100: 3d82 3c3f 6293 41bf db5f 1a3e 28f0 3f3f
00000110: 9b65 343f 4568 b63e c94e febf 8c38 123c
00000120: c2cb ed3e d793 50c0 a180 2f3c 5652 b9be
00000130: 7999 0ebf ecd7 4a3f 86bc 143c 5de9 023e
00000140: 1f75 7fbf 3bae d0be 69db eb3d 939f 8c3e
00000150: abb0 093c 8ed1 86bf 0311 7cbc 8347 78bb
00000160: eb9b e3bf 8fa6 f9bd 1b18 07bf a0e6 b03e
00000170: 05b1 efbe b0f7 febe 5c4c 703e 59c2 ecbf
00000180: 3077 b23f b54b c5bf 4c2b c53c 7247 7f3d
00000190: 6af2 16be 28d9 47c0 c1a7 b33f 85f0 953f
000001a0: 6a48 363c 9d79 3c40 7244 4b40 e68f dcbd
000001b0: cccf 2abf a46c d6bd 541e e4bb 923f 28bd
000001c0: 0da2 b83e 6a18 3dbe fa4c dbbf f8bb ddbd
000001d0: ca94 d2bf df27 a63e 1226 343f a040 e7bf
000001e0: f129 1cc0 e481 d13d 6f25 c03e 752b b93c
000001f0: 82fc 12bd 332d 2f3f 2ae1 14bd 6faa 883e
00000200: 5ade f03d 7bcd 0dbe 2d41 02bf 6aee 1b40
00000210: fd9e e83d 6f3b 683d 7737 733a ce32 e13b
00000220: bf25 5cbf 0839 0240 0d49 a7bd 0570 f0bd
00000230: ebbb af3f d23c 89bd f91f 35bf ee20 41bf
00000240: 2b10 b5bf 8d25 4fbd 2658 8b3f ec70 05be
00000250: 55dc 863f 9411 eb3e e38f b63f 50fb d8bf
00000260: c0a2 9ebd dca9 0a3f e48c 9abe db76 61be
00000270: 11be aebe 9f43 e5be ecc6 17be fdfa 58bf
00000280: 39ea 033e 586f cbbe f918 88be e131 493d
00000290: 5386 38c0 3201 feba 008f 3840 8e7e 1fbe
000002a0: e04a dc3f 3f01 cfbf 440e 11bf 5ab8 2fc0
000002b0: 6975 323f 5e00 5d3e f4fd 6cbf 0a0c 803d
000002c0: f8f9 b33e b031 db3b f2d4 25c0 6c0a 77bf
000002d0: 9492 783f 7680 133c bcfa 8a3e aba3 b93f
000002e0: 47ae e63c f93d 753e 49a9 67bf 263d 5e39
000002f0: ac84 c23c cd8b 443f 187b abbf 814e 06c0
00000300: faa5 403f a68e 67bc 3689 f1bf 78da 1b3f
00000310: 7571 f4bf 6595 b9bf f68e 713d cc2c b93f
00000320: 3c88 c93d 6b17 aebe 8ded fd3e ad44 883d
00000330: 35e7 34bd ca07 d3bd 92d8 ca3f 4480 a03e
00000340: 49a5 afbe 1760 9cbd 11b1 053e a04f 213f
00000350: 716d f33d ca07 d43f 5202 d1bf 3bd7 b23d
00000360: 5a02 35bf fdfe d73e 0038 f93d 9ed5 283f
00000370: 230e ea3f 8aae 943f 7f8c 2d3e a0d2 8abf
00000380: 9345 65be 689d fe3f ed05 4dbe b4ab a43d
00000390: 62f4 a93f 0058 89bf 22e4 a23e a6cd bb3d
000003a0: 5545 ed3f 0d89 36bf 4670 17bf 1d01 3b3e
000003b0: bcaa 85be d34c 923f 047d 873f d38a b13d
000003c0: 4143 cabd 9a10 4fbd 8ce9 f4bc 3822 23bf
000003d0: 626d 753f 88a4 273f 75e3 19bf f8db 6f3f
000003e0: 6c04 d7bf b0bf 42bf feb1 9a3e cd6f ffbe
000003f0: 1ff8 9c3e 6b79 d5bd 2d03 96bf d2d2 143d
-0.5864161 2.1333055 -0.061150268 -0.038216542 0.55132616 -0.04437892 1.2782595 -0.03786214
0.11298744 0.14240775 -2.0137677 -0.22332656 -1.9619244 1.2060766 -0.34906426 -0.88092417
-1.0398712 -2.2313638 2.1831076 1.5668613 -0.98893815 0.4050504 -1.8451395 2.7223415
0.61498654 1.0090257 -0.043005925 1.3807086 0.18195216 -1.700911 -1.4921837 0.009127459
0.83576137 0.66835856 1.4665352 0.2538012 -0.39641875 -0.0064182444 -1.0730366 0.8515727
-0.83270526 0.20111342 0.825849 -0.16116385 -0.5091979 0.97180253 0.067349955 0.0603887
0.34934095 -0.066491276 0.07705371 1.0463953 1.3656862 1.6897899 1.8669012 -1.5600749
0.0041335123 -1.5490144 -1.4029497 -1.6451373 0.5911598 0.54389924 0.020484293 1.5549294
0.7363623 -0.75615513 0.15075628 0.74975824 0.7046754 0.35626426 -1.9867793 0.008924615
0.46444517 -3.2590234 0.01071182 -0.3619563 -0.5570293 0.7923572 0.009078151 0.12784334
-0.9978809 -0.40757927 0.115164585 0.27465495 0.008403937 -1.0532701 -0.015384915 -0.0037884421
-1.7781957 -0.12189972 -0.5277116 0.34550953 -0.46814743 -0.49798346 0.23466629 -1.849681
1.3942623 -1.5413729 0.024068497 0.062323995 -0.14740911 -3.1226292 1.403557 1.1714026
0.011125663 2.9449227 3.1760526 -0.10769634 -0.6672332 -0.1046994 -0.006961623 -0.04107625
0.36061135 -0.18466344 -1.7132866 -0.10826868 -1.6451657 0.32452294 0.7037059 -1.8066597
-2.44006 0.10229853 0.3752856 0.02260373 -0.03588534 0.68428344 -0.036347546 0.2669253
0.1176116 -0.13847916 -0.508807 2.4364266 0.113584496 0.056697305 0.0009277979 0.0068725115
-0.85995096 2.034731 -0.0816823 -0.11740116 1.3729223 -0.06701054 -0.7075191 -0.7544087
-1.4145559 -0.05057292 1.0886276 -0.13031358 1.053599 0.4591185 1.4262661 -1.6951694
-0.07745886 0.54165435 -0.30185616 -0.22017996 -0.34129384 -0.44778153 -0.14821976 -0.8475798
0.12882318 -0.39733386 -0.26581553 0.049119834 -2.8831985 -0.0019379018 2.883728 -0.1557562
1.721035 -1.6172255 -0.5666239 -2.745627 0.69710404 0.21582171 -0.92575 0.06252296
0.3515165 0.006689273 -2.5911222 -0.9650028 0.9709866 0.009002795 0.2714442 1.4503073
0.028159274 0.23949422 -0.90492684 0.0002119435 0.023744904 0.7677582 -1.339694 -2.0985415
0.7525326 -0.014133131 -1.8869998 0.6088023 -1.9097124 -1.4498717 0.05897423 1.4466796
0.09840438 -0.34002241 0.495953 0.06653724 -0.04416581 -0.1030422 1.5847342 0.3134786
-0.3430579 -0.07635515 0.13055827 0.63012123 0.11886109 1.6564877 -1.6328833 0.08732458
-0.70706713 0.42186728 0.12168884 0.65950954 1.8285564 1.1615765 0.16948126 -1.0845528
-0.22389822 1.9891787 -0.20021792 0.08040562 1.3277705 -1.072998 0.31814677 0.09170084
1.8536783 -0.7130287 -0.5915569 0.18262143 -0.26106822 1.1429695 1.0585027 0.08669057
-0.09876109 -0.05055294 -0.02989652 -0.6372409 0.9587003 0.6548543 -0.60112697 0.9369502
-1.6798224 -0.7607374 0.30213922 -0.49889985 0.3065805 -0.10423549 -1.1719719 0.036333866

l2.bias f4 [300]
00000000: eae8 383f 05fe 0f3f a934 023f caf8 363f
00000010: 0b95 893f 7a3d 543e a7a1 7e3f 7d94 8d3f
00000020: bb59 8b3e e9b5 46bf 06a5 5cbf 3fd1 b8be
00000030: 0478 b33d d798 42bf 6e3e fcbf dcaa 5c3f
00000040: e411 cabe f565 86bf 368a 1dbf c520 003f
00000050: 7401 fdbf 3d46 06bf d612 dc3f 4d1a 16bf
00000060: 5df4 c2be 119c ce3f 5087 f13e 856a 063f
00000070: ff7d 2b3d 9733 713f 76b7 373f d3ed d83f
00000080: 6247 8b3f 0cd3 4dbf 0db9 27bf 6511 253f
00000090: 2710 82bf 23a2 383f 510f 61be 5add 9f3f
000000a0: 6f1b 603f 3950 843f ec22 e73e 0367 b3bf
000000b0: e245 883f 0700 3abf 4f4a 52bd 8fc7 a0bf
000000c0: 9271 c8bf 1a07 85be 5f22 c13e 654a 1cbf
000000d0: 42cd a83e 08be 84be 5140 2a3f f37f 9abf
000000e0: 97ba 503f e650 a83f 9dfa 8bbd b012 703f
000000f0: 2a6d 25bf 114b c9bf 8416 b83e 438c babf
00000100: e0fd 49bf 4fbd 68bf a809 37bf b8a7 cf3e
00000110: 75f1 623f 4f8f 91bf f794 993f 6367 fd3e
00000120: c20b 96bf c0dc 8fbf 5c6d 7e3e 34b1 80bf
00000130: 7502 cf3e f271 afbf 48ca 0e3f 9f53 023f
00000140: c971 713f b18a b23d c2bc 7c3f 0f04 513e
00000150: 55e5 b6bf 8253 b03e 8338 8bbf c7d9 8b3f
00000160: 8d2b 773f 19e3 a53e 9919 77bf 7e3d 7c3e
00000170: 2d89 fb3e 66f0 d1bf 0fe6 0d3f 40d6 77bf
00000180: 9423 d33e 4ed7 373f 11ff f43e 0b6c 7fbf
00000190: 2ebd c1bf 2dfe 5d3f 8e8e a43c 18c2 af3f
000001a0: 08f7 0dc0 fa4c 8abe 19bc c7bf add2 99bf
000001b0: f457 a0bf 3752 7f3e 0268 233f a5f9 cc3e
000001c0: 6d98 56bf 70b3 6c3f 1ce3 383c f22e 63bf
000001d0: d763 20be 6db8 a1bf c0fa b03f 74f4 b83f
000001e0: de39 d63f 434e 863f 1cdd 10bf 1bd5 cdbf
000001f0: f457 093f c3dd 4dbf 415d 7ebf ada7 c0bf
00000200: 38f3 3e3d ee26 47bf 9fd1 8a3e 7e9e 913e
00000210: 3686 20bf 885c 703f 2fa2 29bf 8073 aa3f
00000220: 318e 8b3f 00fa b6bf 7a73 87bd 7cc5 fbbf
00000230: 0c2a 383f 66fa 8abf 8bcb b5be 5db7 62bf
00000240: 3ea3 4b3e 82ba a63f e60d 383f 0f94 15bf
00000250: ed18 67bf ca5a 17bf 98ae 0fbf bb0a 13bf
00000260: f5b5 89be acb2 3d3e e2b6 3abf 2a96 e93e
00000270: fddd 163f 9732 c83f 9476 c8bf f972 e1bf
00000280: 125e 57bf 8fcb 90bf 1d32 82bf 0eb9 a03e
00000290: d60e 603f 950e 8d3e 68f1 b53f 93a8 c7be
000002a0: d353 25bb fbdb ac3c 45d0 5b3f 72d7 a63f
000002b0: 8abb abbe 6ef1 95bf d3a2 a1bf 6e91 b4bf
000002c0: e13a 86bf fac3 fa3e 2e57 a93c c5ee 023f
000002d0: fff7 633f ba58 083f 46ed 153f e48f 303f
000002e0: a3ed d13e 0452 9fbf a7f8 30c0 71af 43bf
000002f0: 304c b9be 30a9 933f c5b2 9e3d 286c 7e3f
00000300: 1214 133f 8d56 bdbf bccb abbe 5fa5 7d3d
00000310: 6993 37bf c6cc e1bf 8057 b3be c9b6 c8bf
00000320: 610b ae3d a3f5 10bf d419 f7be afa4 073e
00000330: aefe 55bf efd5 5b3d 911c b13f 53b0 913e
00000340: 2ded b0bf 4124 c8be f8ad 303e cbbc 5a3f
00000350: eafe ba3f 3d1a 923f 5735 a43e ce13 89be
00000360: 7acd 97bf 411a e3be f189 93bd a061 8cbf
00000370: 6b18 153f e47b 063e 73cc 973f 1d7e 75bf
00000380: a165 7fbf 829e cb3e 258f 3e3f 3c4e e1bd
00000390: 57e3 263e d342 6c3f 1ca8 c7bf 08aa 2f3f
000003a0: 153f 783f 5882 6ebf 4973 85bf c605 debe
000003b0: c292 063e 476e eabf bfaa 053f c8f5 2cbf
000003c0: 4a4c 5c3b 1a57 823f d6c3 3c3c 7f20 293f
000003d0: 63dd 8cbf be61 c8bf 7591 bc3f 4bd0 443f
000003e0: 8422 493e e6b7 0cc0 4d33 003f c854 603f
000003f0: 1674 cf3d 365b a93e 73b5 8bbf 4668 713f
0.722304 0.5624698 0.50861603 0.7147337 1.0748609 0.20726576 0.9946541 1.106094
0.27216896 -0.7762132 -0.86189306 -0.36097142 0.087631255 -0.76014465 -1.9706552 0.8619821
-0.39466774 -1.0499865 -0.6153902 0.5005 -1.9766068 -0.52450925 1.7193248 -0.5863388
-0.3807706 1.6141378 0.47173548 0.52506286 0.041868206 0.94219345 0.71764314 1.6947578
1.0881159 -0.80400157 -0.6551674 0.64479667 -1.0161179 0.721224 -0.21978499 1.2489426
0.8754186 1.0336982 0.4514383 -1.4015812 1.0646327 -0.7265629 -0.051340397 -1.25609
-1.5659659 -0.2598198 0.37721536 -0.6105102 0.329691 -0.25926232 0.6650439 -1.2070297
0.81534714 1.3149688 -0.0683491 0.93778515 -0.64619696 -1.5726033 0.35954678 -1.4574054
-0.7890301 -0.9091386 -0.7149911 0.40557647 0.88649684 -1.1371859 1.1998585 0.4949294
-1.1722338 -1.1239243 0.24846405 -1.0054078 0.40431562 -1.3706648 0.55777407 0.50908846
0.9431425 0.087178595 0.9872552 0.20411704 -1.4288737 0.3443871 -1.0876621 1.0925835
0.9655083 0.32399824 -0.96523434 0.24632832 0.49128094 -1.6401489 0.55429167 -0.96811295
0.4123808 0.71812904 0.4785085 -0.99774235 -1.5135858 0.86715966 0.020087507 1.3731108
-2.2182026 -0.27011853 -1.5604278 -1.2017418 -1.2526841 0.24933706 0.6383058 0.40034214
-0.83826333 0.924613 0.011284616 -0.8874351 -0.15663086 -1.2634407 1.3826523 1.4449601
1.673641 1.0492634 -0.56587386 -1.608066 0.5364983 -0.80416507 -0.99361044 -1.505117
0.04661867 -0.77793777 0.27113053 0.28441232 -0.6270479 0.9389119 -0.662631 1.3316498
1.0902768 -1.4295044 -0.06613822 -1.9669642 0.7193916 -1.0857666 -0.35506853 -0.8856104
0.1988649 1.3025668 0.7189621 -0.58429044 -0.9027241 -0.5912291 -0.56125784 -0.5743825
-0.26896635 0.18525189 -0.7293531 0.4562238 0.5893248 1.5640439 -1.5661187 -1.7613212
-0.84127915 -1.1312121 -1.0171543 0.31391186 0.8752264 0.27550188 1.4214296 -0.389958
-0.0025226965 0.021100989 0.8586467 1.3034499 -0.33541518 -1.1714303 -1.2627815 -1.4106882
-1.0486718 0.48977643 0.020671453 0.51145583 0.89050287 0.53260386 0.58565176 0.6896956
0.41001615 -1.2446904 -2.7651765 -0.7643958 -0.3619094 1.1536007 0.07748941 0.99383783
0.574525 -1.4792038 -0.33553874 0.06192529 -0.71709305 -1.7640617 -0.35027695 -1.5680782
0.08498264 -0.5662481 -0.48261893 0.13246416 -0.83591735 0.05367082 1.3836843 0.28454837
-1.382238 -0.3909016 0.17253864 0.85444325 1.4609044 1.1414257 0.32071945 -0.26772922
-1.1859581 -0.44355968 -0.072040446 -1.0967293 0.58240384 0.13133198 1.1859268 -0.9589556
-0.9976445 0.3976937 0.7443717 -0.1100125 0.16297661 0.92289466 -1.5598178 0.6861882
0.96971256 -0.9316764 -1.0425807 -0.4336378 0.13141921 -1.8314904 0.5221366 -0.6756253
0.0033614808 1.0182831 0.0115213 0.6606521 -1.1005062 -1.5654829 1.473189 0.7688033
0.19642073 -2.1987243 0.5007828 0.87629366 0.101295635 0.330774 -1.0914749 0.94299734

bn2.weight f4 [300]
00000000: 3a36 dc3f a0f3 b83f e7ec a33f 3a70 bb3f
00000010: 51ca d03f 9fc4 b43f e466 b53f 9151 d73f
00000020: ffe5 c93f 0bff 443e 0b02 a63f d046 6a3e
00000030: 807c ac3f 3aaf 9d3e 2752 fa3f c8c2 b33f
00000040: 083b dd3f ffa5 2e3e c4b2 c53f cc5d c53f
00000050: 4860 563e 4172 0140 6275 b53f b204 0740
00000060: 0331 ae3f 702e ee3f c5a6 d53f 7580 b33f
00000070: 190c af3f 2093 f43f 6f82 d43f d767 c33f
00000080: 896d ab3f a080 7c3e 66ff 6a3e ac7a ba3f
00000090: 1ee8 813e 859e e43f e057 a63f 69f4 b43f
000000a0: c55b cc3f 1243 dc3f 4c71 b03f 494a 0740
000000b0: 1725 b03f cd7b 6e3e 074f a13f 7c2a 6a3e
000000c0: 2f01 a33f e5f9 a73f b33d ab3f e8f2 053f
000000d0: ea19 c13f e3b3 e03f 6c09 d53f 2508 8d3e
000000e0: 99aa c73f f141 ca3f 9b85 c83f 0503 c33f
000000f0: 48d1 823e 4e9e f13f 67b2 d63f e8f0 ca3f
00000100: 5881 ef3e d62d 7c3e a8db 4c3e 3a07 b73f
00000110: 669f bb3f 9157 e93f 7fa0 d23f b3d7 af3f
00000120: c30b 803e 9feb 583e e6d1 b63f fcff 953e
00000130: c3ab a63f 2cbd 1440 6169 a63f 66df bc3f
00000140: b98a ac3f c1cf c13f a643 cb3f 2e00 bc3f
00000150: 56c4 2b3e 012d c93f 130b 0340 f939 d53f
00000160: a1bc c73f 4777 b63f fb0c b13f 433a c03f
00000170: 637c a13f 87fa 6d3e 1a86 bb3f 1d94 d03f
00000180: b4cf bb3f cf8d bf3f bffb b43f 9b38 8b3f
00000190: c066 a33f a497 be3f b8d8 c53f b545 cd3f
000001a0: 2b82 e13f e97f 9d3f 7308 723f 064c 953e
000001b0: 23c7 be3f e133 9c3f 5a15 ca3f c566 ae3f
000001c0: e714 ea3f 530c c43f 54f8 4f3e 46e4 613e
000001d0: 0d78 a73f 70e5 7c3e 033f b63f 48f0 b63f
000001e0: fc84 bb3f 7a86 c93f f4b1 d23f f1f3 683e
000001f0: 9d5d d03f 7dbb 823e b86c 663e cbe8 0440
00000200: 0347 bb3f 4fbd ae3f 85b2 ac3f 4fcd b83f
00000210: 8b09 ce3f 696e ac3f 62dd f73f 4d66 b63f
00000220: b034 d43f 2cd7 ce3f a93a a53f 5beb fd3f
00000230: 8b66 cc3f 8f8f af3f 7648 443e c65f 563e
00000240: 1c5d ae3f e096 d03f 4dc7 a63f 7ab6 933e
00000250: b9fe 0a40 aa3c b93f 8942 2440 e7d8 ae3f
00000260: 459b a33f 6d90 b53f 0e31 de3f d341 be3f
00000270: 2e56 cb3f ca94 c13f f428 313e b392 2840
00000280: e39e 563f d82a 5c3e f0d3 db3f 149a a03f
00000290: f335 bb3f 3852 bc3f 9811 b63f 9b3b 8e3e
000002a0: 0fad d43f 89e0 b63f 92c6 ad3f f5f7 c23f
000002b0: a275 883f bcb2 5f3e dc10 843e 21bc b93e
000002c0: 2a9c 193e 6d67 d33f 0612 b43f 617a b03f
000002d0: 019f b13f fc27 b83f 5622 a13f c4ee d03f
000002e0: 96c4 d63f e56a 863e 8bcf d73f 6345 483e
000002f0: 94d0 903e 4664 a93f 0453 cc3f 5e41 d63f
00000300: f8ab d23f db16 803e c7e7 903e be03 b83f
00000310: 90da 4d3e 59a7 6d3e a369 b13f 2391 933e
00000320: f0c8 a63f 76a6 a43f 5b5f c23f c9be ab3f
00000330: 1aee a53e 79bb b53f bc01 c23f 59a7 ca3f
00000340: 67c2 893e 1473 1f3e d860 c13f 9087 e13f
00000350: 3ebf b43f 938b bc3f 9645 dc3f 218d db3f
00000360: df96 f43f 5052 2040 771a 793e ad76 fb3f
00000370: 22a9 ad3f 5a80 cc3f 4a6d c83f ccfa e53f
00000380: f2a5 d43f 34c9 c73f 3fd3 ae3f d39d c53f
00000390: ac75 ab3f 473b b73f e615 dc3f fff5 a93f
000003a0: b02d bb3f afe8 6c3e 0525 903e 72f3 4b3e
000003b0: 84b0 b13f ab9e 123e 5131 ca3f 1c5e df3f
000003c0: db5f b13f 0717 b23f 8400 a43f 2434 c63f
000003d0: aee2 0e40 5423 803e 44eb c43f e566 cc3f
000003e0: 60ac b63f 67c6 863e 2e74 d13f 726e f43f
000003f0: e061 d33f 18f1 e33f e02d 6c3e dd77 a53f
1.7204049 1.4449348 1.2806672 1.4643624 1.6311742 1.4122504 1.4172025 1.6821767
1.5773314 0.19237916 1.2969373 0.22878575 1.3475494 0.3079775 1.9556321 1.4043818
1.728364 0.1705551 1.544518 1.541925 0.20935166 2.0225985 1.4176447 2.1096616
1.3608707 1.8607922 1.6691519 1.4023577 1.3675567 1.9107399 1.6602305 1.5266064
1.3392802 0.24658442 0.2294899 1.4568686 0.25372404 1.7860876 1.2995567 1.4137088
1.5965506 1.7207968 1.3784575 2.113909 1.3761319 0.23289414 1.2602242 0.22867769
1.2734736 1.3123137 1.3378204 0.5232377 1.5086033 1.7554897 1.66435 0.27545276
1.5598937 1.5801374 1.5665773 1.5235296 0.25550294 1.8876436 1.6773194 1.5854769
0.4677837 0.2462686 0.20005667 1.429908 1.465802 1.8229848 1.645523 1.3737701
0.25008973 0.21183632 1.4282806 0.29296863 1.3021168 2.3240461 1.3000909 1.4755676
1.3479835 1.5141526 1.588002 1.4687555 0.16774115 1.5716859 2.047551 1.6658317
1.560444 1.425515 1.3832086 1.501778 1.2616085 0.232401 1.46503 1.62952
1.4672761 1.4965152 1.4139327 1.087665 1.2765732 1.4890027 1.5456762 1.6036898
1.7617849 1.230466 0.9454414 0.29159564 1.4904522 1.2203332 1.5787766 1.3625113
1.8287629 1.5316261 0.20309573 0.22059736 1.3083512 0.24696898 1.423798 1.4292078
1.4649959 1.5744164 1.6460557 0.22749306 1.6278569 0.25533667 0.2250241 2.0767086
1.4631046 1.3651522 1.349198 1.4437655 1.6096662 1.3471195 1.9364436 1.424997
1.6578579 1.6159415 1.2908527 1.983745 1.5968794 1.3715686 0.19168267 0.20934972
1.3622165 1.6296043 1.3029572 0.28850156 2.171797 1.4471638 2.566561 1.3659943
1.278176 1.41847 1.735872 1.4863838 1.5885675 1.5123532 0.17300779 2.6339538
0.8383619 0.21500719 1.7174053 1.2547021 1.4625839 1.4712591 1.4224119 0.2777985
1.6615313 1.4287273 1.3576224 1.523192 1.0660899 0.21845526 0.25794113 0.36276343
0.15000978 1.6515938 1.4068 1.3787347 1.3876649 1.4387202 1.2588603 1.6322865
1.6778743 0.2625343 1.6860212 0.19557719 0.28284132 1.3233726 1.5962834 1.6738698
1.6458731 0.25017437 0.28301832 1.4376142 0.20102906 0.2320837 1.3860363 0.28821668
1.3030071 1.28633 1.518535 1.3417598 0.3240822 1.4197837 1.5156779 1.583232
0.2690613 0.15571243 1.5107679 1.7619495 1.4120862 1.4730095 1.7208736 1.7152444
1.9108542 2.505024 0.24326502 1.9645592 1.356724 1.597667 1.5658352 1.7967162
1.6613142 1.5608277 1.3658217 1.5438789 1.3395286 1.4314965 1.7194183 1.3278197
1.4623318 0.23135637 0.28153244 0.19917086 1.3881993 0.1431834 1.57963 1.7450595
1.3857378 1.3913277 1.2812657 1.5484662 2.2325854 0.25026953 1.5384297 1.5968901
1.4271355 0.26323244 1.636358 1.9096205 1.6514244 1.7807951 0.23064375 1.2927204

bn2.bias f4 [300]
00000000: 12eb b1bf 2baa 93bf e55e 99bf b511 88bf
00000010: 4f0d 95bf 785c 5fbf f7a6 87bf 73e6 91bf
00000020: 4463 babf a6f7 4cbf ea24 19c0 8ad8 68bf
00000030: dd1c b7bf 9cd4 5fbf aaa1 d33e d306 87bf
00000040: 63c3 25c0 254e 38bf 6ea6 aabf 9125 abbf
00000050: 8cba 2ebf 2360 a3bf 131e a7bf 1284 11c0
00000060: edfa 78bf 6d4d a1bf c69b 9cbf b53e b5bf
00000070: 6d3a 93bf 69c3 a7bf 90a6 bbbf ae9a 62bf
00000080: 6880 adbf 0b0b 2bbf a72b 3dbf 2488 92bf
00000090: 7bbd 53bf 8624 adbf 85eb 94bf dc3f a2bf
000000a0: 44cc 81bf 12ed a1bf f961 bfbf 8fd7 fabf
000000b0: 12c9 8fbf ff34 34bf c5a1 cabf 97a6 45bf
000000c0: 6631 0dc0 d222 ccbf ce74 a7bf fdab 89bf
000000d0: c80f c5bf 19e0 aebf 34d8 66bf 30d6 4abf
000000e0: 60a2 b8bf a367 acbf 09bd 96bf 2424 84bf
000000f0: c952 41bf a5b4 0bc0 65f2 b3bf 4ab8 0bc0
00000100: cd37 c6bf f009 66bf 8a90 4abf ea9d b9bf
00000110: ae2e b3bf ad62 1ac0 ffd3 b5bf 50ba b2bf
00000120: 0e1a 54bf d539 2abf e097 8bbf bfe8 67bf
00000130: 425c 8cbf 9944 57c0 978f d0bf b0f3 94bf
00000140: fdb9 b6bf 52bb afbf 22d6 26bf 515a abbf
00000150: 90eb 33bf 4670 8cbf 3cfc 79bf f67a 8dbf
00000160: 293b c3bf 615c 8cbf 2438 97bf 6c29 76bf
00000170: de1b 70bf f37f 4cbf ba94 c0bf e4ef 1ac0
00000180: 1c98 91bf 6c27 97bf 168c 9ebf 389b b43f
00000190: 1da3 5ac0 d8e4 b8bf 67f9 8ebf d216 9bbf
000001a0: c61e 29bd f6f1 7dbf 78e1 853f 8612 4bbf
000001b0: 6668 2cbf c18b b9bf 7495 ddbf fa1c 9bbf
000001c0: 56bc 1cc0 8b68 97bf c122 51bf 6eb3 29bf
000001d0: c992 79bf be37 40bf 8b16 81bf dfde 98bf
000001e0: c028 85bf a10e 8cbf 3ac8 8abf da92 30bf
000001f0: 7503 b4bf 6d97 61bf fa34 49bf c613 bdbf
00000200: f2b9 a7bf 1967 a3bf 480b 54bf 4444 a4bf
00000210: 77ff b5bf ff14 81bf 8057 06c0 cd4a afbf
00000220: 5965 d3bf ec4a 04c0 9343 90bf d726 38be
00000230: 4631 b3bf fb2e f9bf 91d8 48bf 0108 3cbf
00000240: 5749 acbf 1525 c6bf 391c a9bf d9e4 57bf
00000250: cf6a 0ec0 6ade 40bf 7d9f 40c0 736c b0bf
00000260: e298 9ebf 6b16 bebf 6506 febf 6912 91bf
00000270: 00e1 aebf 6cf4 a8bf 343a 3abf cd0c 02bf
00000280: 9afa 1bc0 e2f8 37bf 6273 1cc0 dbd8 9bbf
00000290: d670 b2bf 012c 73bf a185 a0bf 061d 5dbf
000002a0: 6d53 98bf 20d0 b2bf 636d aebf 484b adbf
000002b0: 83c4 3ec0 3a37 34bf f413 54bf b67f 7abf
000002c0: b37f 22bf 9dd9 85bf 4110 ccbf 135e aabf
000002d0: fca9 9abf f17f a2bf d5db c6bf c29e bcbf
000002e0: 7295 a8bf 737a 50bf 3c71 223f 2039 29bf
000002f0: 96ef 41bf c8c7 99bf a321 94bf 3c23 a0bf
00000300: 5c67 a7bf e2c4 56bf 7c45 86bf f706 ccbf
00000310: 938e 3fbf 9f0f 26bf 64ee b0bf dc4b 62bf
00000320: 7de7 b5bf 4f08 b5bf 493e bdbf 6db9 b6bf
00000330: 6704 79bf 2ec3 99bf 0442 91bf a10c a1bf
00000340: 9cfb 4cbf 584c 11bf 778b 6cbf da83 85bf
00000350: 7e92 8cbf f9a5 a9bf 1f49 95bf 0038 86bf
00000360: 6323 ecbf 4503 1cc0 36a3 5dbf b57f dcbf
00000370: 5f91 94bf 0d63 aebf 8b8c a7bf 28c4 febf
00000380: 1d3f 04c0 ea85 87bf ee69 9abf cc4c 96bf
00000390: 31fc d2bf 2a27 98bf f48d 50be f15b b2bf
000003a0: 45fe acbf e2ca 4dbf e779 5cbf 9e3d 25bf
000003b0: 562f d9bf b0a8 20bf 15e4 9bbf 09f7 96bf
000003c0: 5291 a9bf 9c23 c0bf 4f3d c7bf 3b25 d3bf
000003d0: 7cec a2be d836 46bf 9662 a9bf 29e8 95bf
000003e0: 99b9 97bf bb3b 2bbf ee32 babf 29ac a5bf
000003f0: 708e a8bf 70af 5ebf 705b 5bbf d7c7 a6bf
-1.3899863 -1.1536306 -1.1982085 -1.0630404 -1.1644686 -0.8725047 -1.0597829 -1.1398453
-1.4561543 -0.8006538 -2.392878 -0.9095541 -1.4305683 -0.8743379 0.41334277 -1.0548958
-2.5900505 -0.7199424 -1.333204 -1.3370839 -0.682534 -1.2763714 -1.3056053 -2.273686
-0.9725788 -1.2601753 -1.2235038 -1.4159762 -1.1502205 -1.310651 -1.4660206 -0.8851727
-1.3554811 -0.66813725 -0.73894733 -1.1447797 -0.82711 -1.3526771 -1.1634375 -1.2675738
-1.0140462 -1.2650473 -1.4951774 -1.9597033 -1.1233237 -0.70393366 -1.5830618 -0.7720732
-2.20614 -1.5948126 -1.3082521 -1.0755612 -1.5395441 -1.3662139 -0.9017365 -0.79233074
-1.4424553 -1.3469127 -1.1776439 -1.0323529 -0.75516945 -2.1829007 -1.4058348 -2.183123
-1.5485779 -0.89858913 -0.791268 -1.4501317 -1.399862 -2.4122727 -1.4205321 -1.3963108
-0.82852256 -0.66494495 -1.0905724 -0.9058952 -1.0965655 -3.3635619 -1.629382 -1.1636868
-1.4275509 -1.3729041 -0.6517049 -1.3386937 -0.70281315 -1.0971763 -0.97650504 -1.105315
-1.5252429 -1.0965692 -1.1814008 -0.96156955 -0.9379252 -0.79882735 -1.5045388 -2.4208918
-1.1374545 -1.1808906 -1.2386501 1.4109869 -3.4162056 -1.4444838 -1.1169862 -1.2116339
-0.041289113 -0.9919733 1.0459433 -0.7932514 -0.673468 -1.4495775 -1.7311234 -1.2118218
-2.448995 -1.1828779 -0.81693655 -0.6628941 -0.974896 -0.75085056 -1.0085005 -1.1943015
-1.0403061 -1.0941964 -1.0842354 -0.6897408 -1.4063555 -0.8812168 -0.7859646 -1.4771659
-1.3103621 -1.2765838 -0.82829714 -1.2833333 -1.4218587 -1.0084532 -2.0990906 -1.3694702
-1.6515304 -2.0670729 -1.1270622 -0.17983566 -1.3999412 -1.9467462 -0.78455454 -0.73449713
-1.3459882 -1.5480067 -1.3211738 -0.8433357 -2.225269 -0.75339377 -3.0097344 -1.3783096
-1.2390406 -1.4850591 -1.9845701 -1.1333743 -1.3662415 -1.3199592 -0.7274506 -0.5080078
-2.4371705 -0.7186414 -2.4445424 -1.2175554 -1.3940685 -0.9498902 -1.254078 -0.8637241
-1.190046 -1.3969765 -1.3627132 -1.3538599 -2.9807441 -0.7039677 -0.82842946 -0.9785112
-0.63476104 -1.0457035 -1.594246 -1.3309959 -1.2083125 -1.2695295 -1.5535837 -1.4735949
-1.3170607 -0.8143684 0.6345403 -0.6610279 -0.75756204 -1.2014093 -1.1572765 -1.2510753
-1.3078418 -0.8389417 -1.0489955 -1.5939626 -0.74826926 -0.64867586 -1.3822751 -0.88397
-1.421127 -1.414316 -1.4784633 -1.4275337 -0.9727234 -1.2012689 -1.1348271 -1.2581979
-0.80071425 -0.56757116 -0.92400306 -1.0430863 -1.0982206 -1.3253776 -1.166294 -1.048584
-1.8448299 -2.4376996 -0.86577165 -1.7226473 -1.1606864 -1.3623978 -1.3089765 -1.9903612
-2.0663521 -1.0587742 -1.2063577 -1.1742187 -1.6483213 -1.1886952 -0.20366651 -1.3934308
-1.3515097 -0.803877 -0.8612351 -0.64547145 -1.6967571 -0.62757397 -1.217898 -1.1794139
-1.3247473 -1.5010867 -1.5565585 -1.6495737 -0.31821048 -0.77427435 -1.3233211 -1.1711475
-1.1853515 -0.66888016 -1.4546793 -1.2943164 -1.3168468 -0.86986446 -0.856864 -1.3029736
