weights/model_critic_target_61.pt (torch, 431175 bytes, 9 tensors)

l1.weight f4 [300, 42]
0.32944882 0.27933297 0.15122586 0.23689768 0.20835714 0.06084668 0.9278144 1.8295532
-0.22015056 -1.8528155 0.41584778 -0.19205269 0.12265335 -0.35400507 3.7304287 -1.8105917
-1.5628984 0.6766068 -1.4776176 1.4611839 0.22623593 -0.079976946 -0.73079515 0.22980617
0.21609876 -1.46602 -0.16087894 0.86959046 -1.0288285 0.8647871 -0.5357059 0.21295667
-4.306074 -2.1736648 0.2211112 2.3436124 -1.3772064 -0.37309024 -0.9199714 0.73814607
-0.026642017 0.64446 0.2300245 0.06097735 0.24756368 -0.21084733 0.053774245 -0.012995751
-0.16601951 -0.99900424 -0.4008536 0.18249375 0.07679266 -0.072965845 0.15440261 -0.15010387
0.5867582 -0.4887607 0.65995276 1.9986225 -0.9435253 -1.3301533 0.06565954 0.54246116
-0.58283114 0.012148183 0.15604858 0.018194618 0.09640981 1.2113354 -0.24520358 0.79330707
-0.90646756 -1.449948 6.948133 -1.2662417 0.043500084 -3.7464902 3.5483317 1.2111043
0.8162427 -0.4541288 -0.5144715 0.16181791 0.40258157 0.016677352 0.22332065 0.2246851
0.35482505 0.17100391 0.4278933 -0.4848876 -0.14953549 -0.9871864 0.3849977 -0.056597274
0.3965412 -0.5699185 -0.7372751 -0.58549076 -0.8034123 0.061548468 -0.11273131 0.9599626
-0.087114386 0.18796551 -0.61831754 0.26215148 0.32327104 -1.6560162 -0.41355652 -1.6950402
-0.5686408 -1.0727689 0.28635105 0.47658294 -4.998012 3.8904998 0.32737443 1.846616
-0.39410767 -0.20075361 -0.20934951 0.93354595 -1.3028123 0.01620188 0.42939228 0.02040396
0.16626574 0.17066202 0.3928736 0.15478839 0.46395603 -0.5564197 -0.15508023 -1.0091555
0.3995918 0.0597102 0.40763167 -0.5890749 -0.67073053 -0.6351804 -0.77965254 0.031278145
-0.13990228 1.0012826 -0.0011772114 0.19792801 -0.5760411 0.25172535 0.32752138 -1.6410638
-0.35051045 -1.6446428 -0.6155357 -1.0969058 0.25531587 0.57361263 -5.112273 4.0167575
0.28307486 1.8276069 -0.3481619 -0.18981767 -0.20160615 0.88351744 -1.3273485 -0.00840021
0.36813462 0.41043958 0.44807607 1.2565162 0.20652339 -0.15953305 0.83686495 0.3522365
0.052799605 -0.10885788 0.22934031 -0.48258245 0.11964524 0.011743262 0.29666856 -1.2005601
2.3083332 -0.65798867 -1.381073 -1.3533552 -2.79305 1.859807 1.0096917 0.08534515
0.17940931 0.34676293 1.0608815 -0.33444887 -0.6523055 0.8708542 0.10286702 0.38441405
-1.0627006 -3.650388 0.12845035 -0.8808629 -2.224256 0.51682675 -0.7748845 2.149911
2.7728562 -0.14430797 0.3712232 -0.020089716 0.18375786 0.14269003 0.37952492 0.17137957
0.41059658 -0.4498726 -0.1548824 -1.01761 0.46363604 0.082995206 0.47371167 -0.58211255
-0.7533599 -0.71192706 -0.8771349 0.1005752 -0.14337872 1.0550897 -0.037456922 0.122926995
-0.54658794 0.2617367 0.38575247 -1.6328158 -0.3490218 -1.6367272 -0.62918067 -1.0401676
0.24486274 0.51867074 -5.103373 3.835342 0.25482753 1.7881981 -0.33961105 -0.19129518
-0.22031198 0.80971354 -1.2948812 0.031817608 0.13652492 0.92090964 0.30785438 0.32663634
00000000: 84ad a83e bb04 8f3e f4da 1a3e 4e95 723e
00000010: 935b 553e 5e3a 793d 3f85 6d3f cd2e ea3f
00000020: 266f 61be 0f29 edbf 00ea d43e 76a9 44be
00000030: ae31 fb3d 2740 b5be 58bf 6e40 78c1 e7bf
00000040: 0e0d c8bf 1a36 2d3f 9322 bdbf 1308 bb3f
00000050: 64aa 673e f4ca a3bd 6415 3bbf 4f52 6b3e
00000060: fe48 5d3e 8ba6 bbbf 73bd 24be 7b9d 5e3f
00000070: a7b0 83bf b062 5d3f 0624 09bf 5011 5a3e
00000080: 5ccb 89c0 531d 0bc0 f96a 623e bffd 1540
00000090: 4d48 b0bf af05 bfbe 3f83 6bbf 24f7 3c3f
000000a0: 5c40 dabc 55fb 243f 8b8b 6b3e 63c3 793d
000000b0: 5581 7d3e 5de8 57be 6242 5c3d 21ec 54bc
000000c0: 0501 2abe bebe 7fbf af3c cdbe a4df 3a3e
000000d0: 7845 9d3d 1e6f 95bd b81b 1e3e d4b4 19be
000000e0: c935 163f d83e fabe aaf2 283f ddd2 ff3f
000000f0: e08a 71bf 7742 aabf 8278 863d bcde 0a3f
00000100: 6c34 15bf 2c09 473c 33cb 1f3e e10c 953c
00000110: 8272 c53d 0a0d 9b3f a616 7bbe 2c16 4b3f
00000120: 420e 68bf e597 b9bf 1b57 de40 3514 a2bf
00000130: 252d 323d 7fc6 6fc0 de17 6340 7705 9b3f
00000140: 48f5 503f 9283 e8be 67b4 03bf 98b3 253e
00000150: 2c1f ce3e f19e 883c 2bae 643e da13 663e
00000160: a1ab b53e a61b 2f3e d514 db3e 3043 f8be
00000170: d51f 19be 3fb8 7cbf 6b1e c53e 8bd2 67bd
00000180: 7307 cb3e 2ee6 11bf 10be 3cbf b9e2 15bf
00000190: 6eac 4dbf 3f1a 7c3d acdf e6bd 1cc0 753f
000001a0: 0769 b2bd 087a 403e 0f4a 1ebf b838 863e
000001b0: c883 a53e 57f8 d3bf aebd d3be 14f7 d8bf
000001c0: 7292 11bf 7e50 89bf 9b9c 923e ae02 f43e
000001d0: b7ef 9fc0 f3fd 7840 9f9d a73e ea5d ec3f
000001e0: 7bc8 c9be 5b92 4dbe b85f 56be defc 6e3f
000001f0: 8ec2 a6bf ceb9 843c 4ed9 db3e 3526 a73c
00000200: 9141 2a3e 06c2 2e3e ba26 c93e d980 1e3e
00000210: a58b ed3e 8571 0ebf 5acd 1ebe 022c 81bf
00000220: 4c97 cc3e af92 743d 19b5 d03e 9dcd 16bf
00000230: ffb4 2bbf 2f9b 22bf 4f97 47bf 831d 003d
00000240: 8b42 0fbe 072a 803f a94c 9aba a4ad 4a3e
00000250: 6e77 13bf 25e2 803e e2b0 a73e 610e d2bf
00000260: 1b76 b3be a883 d2bf bf93 1dbf 6967 8cbf
00000270: c3b8 823e 47d8 123f be97 a3c0 4789 8040
00000280: 30ef 903e 06ef e93f 4742 b2be 905f 42be
00000290: d871 4ebe 332e 623f 8ee6 a9bf 09a1 09bc
000002a0: 247c bc3e 2325 d23e 3a6a e53e 86d5 a03f
000002b0: de7a 533e a25c 23be c83c 563f 5858 b43e
000002c0: 6644 583d e1f0 debd 30d8 6a3e 0c15 f7be
000002d0: 9008 f53d d066 403c f1e4 973e f4ab 99bf
000002e0: bbbb 1340 f271 28bf 00c7 b0bf be3a adbf
000002f0: 55c1 32c0 280e ee3f 943d 813f 70c9 ae3d
00000300: 13b7 373e e98a b13e f7ca 873f e23c abbe
00000310: 7efd 26bf 4df0 5e3f f2ab d23d ebd1 c43e
00000320: 9306 88bf f59f 69c0 7d88 033e 3b80 61bf
00000330: 365a 0ec0 c24e 043f d55e 46bf 2498 0940
00000340: 7a76 3140 78c5 13be f810 be3e 3093 a4bc
00000350: 052b 3c3e 561d 123e 1751 c23e 207e 2f3e
00000360: b739 d23e b455 e6be 7e99 1ebe 0b41 82bf
00000370: b461 ed3e 64f9 a93d 568a f23e 5405 15bf
00000380: 32dc 40bf da40 36bf ea8b 60bf 5ffa cd3d
00000390: dfd1 12be 2e0d 873f 6e6c 19bd 26c1 fb3d
000003a0: 30ed 0bbf 5a02 863e 5981 c53e 1c00 d1bf
000003b0: fcb2 b2be 4780 d1bf fc11 21bf 3624 85bf
000003c0: 4cbd 7a3e 9bc7 043f d54e a3c0 3e76 7540
000003d0: c178 823e ade3 e43f 80e1 adbe e2e2 43be
000003e0: 7799 61be 6349 4f3f abbe a5bf 2e53 023d
000003f0: 30cd 0b3e bcc0 6b3f 179f 9d3e e13c a73e

l1.bias f4 [300]
0.2611487 -0.10282498 0.11939625 0.12699863 0.10533129 0.20054214 -0.04594291 0.2042944
0.22817378 0.16076158 0.10137825 0.035184342 0.08324994 0.50616187 0.040006008 0.017108038
0.47257644 0.029988157 0.07981674 0.02558684 0.013557575 0.31474444 0.047622196 0.21352614
0.108350165 0.30671906 0.29280004 -0.062691905 0.060188994 0.04063264 0.23262234 0.11687172
0.095964946 0.26415926 -0.14551139 0.09234441 0.07420116 0.14069064 0.3919511 0.11169393
0.18754324 0.16838816 0.18561757 -0.05901533 0.2463895 0.3954174 0.2669255 0.14718266
0.22882612 0.14550786 0.04260299 0.32668164 0.104558654 0.11080247 0.31322318 0.40291741
0.16659938 -0.051150676 -0.006741335 0.25419447 0.16811158 0.032654926 0.14724576 -0.0008712546
0.11882421 0.2327112 0.23464416 0.13595225 0.3423448 0.21727423 0.1706434 0.30968
0.016353728 0.15504657 0.20284496 0.14108855 0.25672996 0.26393396 0.1450995 0.008667551
0.3243489 0.34801412 0.15280767 0.14825763 0.2479017 -0.021234576 0.17218561 0.11447856
0.12400173 0.105730906 0.48717254 0.15126833 0.124814995 0.2665522 0.23067997 0.13658668
0.15515846 0.2110452 0.21581523 0.23050638 0.26739648 0.37545595 -0.012314553 0.22626612
0.041418776 0.26869166 0.18589225 0.13921878 0.19675052 0.11141904 0.22460598 0.17681469
0.05036972 0.30745044 0.3007597 0.21836138 0.07240224 0.16933157 0.34250125 0.53205705
0.26638743 0.15140674 0.2999121 0.20137508 0.1532152 0.048553523 0.022133192 0.12738377
0.12832637 0.22021636 0.35258 0.0030914114 0.19562547 0.14334294 0.33730578 0.48047253
0.18668349 0.39315113 0.13776784 0.14099804 0.20788497 0.17887266 0.260355 0.020071212
0.26752475 0.3224002 -0.09346944 0.69395703 0.2547719 0.2333554 0.19216299 0.025320843
0.219929 0.107666686 0.250061 0.21510121 0.4133148 0.17243555 0.07702882 0.28338885
0.23716387 0.3341927 0.16978136 0.13657379 0.13350756 0.21587971 0.036949895 0.124839574
0.0113247335 -0.079845555 -0.13523114 0.10787294 0.3560302 0.36495715 0.13023373 0.15651852
0.3291081 0.28649914 0.2273602 0.364985 0.1451979 0.21136095 0.20335436 0.2949412
0.18232575 0.23549598 0.2482506 0.19055353 0.31846496 0.24042146 0.18250614 0.082804605
0.17756172 0.24780284 0.10577712 0.13209757 0.26285067 -0.00547595 0.10982856 0.0017491326
0.15298958 -0.07021211 0.04036243 0.15656665 0.12955306 0.14253843 0.2083573 0.029163312
0.27158844 0.12922217 0.17403112 0.028753303 0.16619873 0.21592839 0.15688992 0.38229188
0.38667798 0.33847725 0.14568253 0.18789718 0.23005669 0.051541902 0.011862489 -0.22854063
0.13646002 -0.040750727 0.040677167 0.12562086 0.20703818 0.085628726 0.24919744 0.123006865
0.00021641576 0.2619238 0.02897464 0.20271921 0.045523383 0.1881395 0.443601 0.23716904
0.2795532 0.13282776 0.15558033 0.2981664 0.0022015974 0.10900964 0.4335712 0.16898131
0.06083718 0.12259017 0.1472709 0.013320879 0.14979178 0.056571815 0.04906365 0.3331565
00000000: 48b5 853e e795 d2bd 0586 f43d ee0b 023e
00000010: eeb7 d73d eb5a 4d3e a22e 3cbd 8d32 513e
00000020: 63a6 693e af9e 243e 669f cf3d 751d 103d
00000030: f27e aa3d d393 013f 57dd 233d 2826 8c3c
00000040: 8af5 f13e b9a9 f53c f576 a33d 7e9b d13c
00000050: 9720 5e3c 2f26 a13e 7e0f 433d 99a6 5a3e
00000060: b1e6 dd3d 480a 9d3e e3e9 953e 9d64 80bd
00000070: bc88 763d 696e 263d 8d34 6e3e 715a ef3d
00000080: 4589 c43d e23f 873e f000 15be 111f bd3d
00000090: c7f6 973d 3511 103e d1ad c83e cabf e43d
000000a0: 560b 403e f26d 2c3e 8812 3e3e 0fba 71bd
000000b0: 874d 7c3e 2674 ca3e 76aa 883e 0db7 163e
000000c0: 6551 6a3e 0300 153e 7980 2e3d d142 a73e
000000d0: d922 d63d 68ec e23d ca5e a03e 314b ce3e
000000e0: 0799 2a3e 5f83 51bd 6be6 dcbb c725 823e
000000f0: 7125 2c3e 2cc1 053d 98c7 163e e864 64ba
00000100: 1b5a f33d d84b 6e3e 8f46 703e 1137 0b3e
00000110: d147 af3e 237d 5e3e 25bd 2e3e 618e 9e3e
00000120: 41f8 853c 87c4 1e3e 97b6 4f3e 8479 103e
00000130: 1c72 833e 5a22 873e f794 143e 5802 0e3c
00000140: 0f11 a63e e82e b23e 9d79 1c3e d9d0 173e
00000150: f1d9 7d3e 22f4 adbc 6d51 303e bc73 ea3d
00000160: 9ef4 fd3d 7289 d83d ae6e f93e 16e6 1a3e
00000170: 019f ff3d 8879 883e 5f37 6c3e 61dd 0b3e
00000180: dce1 1e3e 3c1c 583e abfe 5c3e dd09 6c3e
00000190: 31e8 883e c33b c03e fbc2 49bc 4eb2 673e
000001a0: bca6 293d f491 893e 8a5a 3e3e 5e8f 0e3e
000001b0: f878 493e aa2f e43d 1cff 653e e90e 353e
000001c0: 7b50 4e3d 256a 9d3e 2dfd 993e 209a 5f3e
000001d0: a047 943d 4165 2d3e 535c af3e e434 083f
000001e0: ef63 883e 5e0a 1b3e 148e 993e 4535 4e3e
000001f0: 72e4 1c3e 0fe0 463d ab50 b53c e470 023e
00000200: fd67 033e 6680 613e 5e85 b43e 4799 4a3b
00000210: 0b52 483e 7ec8 123e 58b3 ac3e 7f00 f63e
00000220: f529 3f3e 1b4b c93e 0313 0d3e ca61 103e
00000230: ccdf 543e 652a 373e 404d 853e 626c a43c
00000240: 01f9 883e a411 a53e e86c bfbd 2ba7 313f
00000250: 7671 823e b8f4 6e3e 60c6 443e a86d cf3c
00000260: 1135 613e 5a80 dc3d ff07 803e 7e43 5c3e
00000270: ff9d d33e f292 303e 49c1 9d3d 5818 913e
00000280: 16db 723e 4e1b ab3e 2adb 2d3e 00da 0b3e
00000290: 35b6 083e 920f 5d3e c658 173d e4ab ff3d
000002a0: 608b 393c 1186 a3bd 087a 0abe 7dec dc3d
000002b0: 9749 b63e aadb ba3e fe5b 053e 6446 203e
000002c0: db80 a83e 04b0 923e 1dd1 683e 50df ba3e
000002d0: c2ae 143e 016f 583e 203c 503e 8802 973e
000002e0: 9ab3 3a3e dc25 713e 6835 7e3e 7720 433e
000002f0: d70d a33e 0b31 763e e4e2 3a3e 7695 a93d
00000300: bdd2 353e 07c0 7d3e ada1 d83d 9644 073e
00000310: 5d94 863e 996f b3bb cced e03d 2743 e53a
00000320: 4da9 1c3e 5ecb 8fbd 1353 253d 0253 203e
00000330: 8fa9 043e 98f5 113e 9e5b 553e e6e7 ee3c
00000340: a40d 8b3e d152 043e 3735 323e 0c8c eb3c
00000350: 0030 2a3e 551c 5d3e c0a7 203e c3bb c33e
00000360: a8fa c53e e44c ad3e cd2d 153e 1e68 403e
00000370: fb93 6b3e 9a1d 533d e35a 423c 8e06 6abe
00000380: 2dbc 0b3e 3cea 26bd 1a9d 263d c1a2 003e
00000390: d101 543e 1d5e af3d 9d2d 7f3e 06eb fb3d
000003a0: aaed 6239 e01a 863e 395c ed3c a095 4f3e
000003b0: ba76 3a3d a4a7 403e ac1f e33e 71dc 723e
000003c0: 9921 8f3e 0004 083e 7350 1f3e 44a9 983e
000003d0: ad48 103b 7240 df3d 0bfd dd3e 7009 2d3e
000003e0: 6830 793d 8e10 fb3d 2fce 163e d13f 5a3c
000003f0: 0463 193e d9b7 673d f7f6 483d 7d93 aa3e

bn1.weight f4 [300]
1.2894315 1.2067636 0.3764603 0.38373804 1.6962616 0.29196468 1.8397682 0.34563276
0.19677448 0.3372106 2.2677836 1.6374645 0.8840718 2.0468435 1.6786664 1.5148532
3.155301 0.7757996 1.5722435 1.3072 1.5702058 0.75243926 1.1404364 0.9204425
0.98074615 2.9106874 1.2207729 2.4254978 1.9316516 1.2980605 1.5268446 0.36967728
1.5422171 1.019278 1.0547603 1.9987727 2.0471077 0.30933943 1.7709391 2.080296
2.8245795 1.3815628 1.4352572 1.9059463 1.0681572 1.864524 0.34563872 0.34669372
2.015244 0.3246042 2.4124727 2.293757 2.4943469 2.0315192 2.0019188 1.6840774
0.37855244 1.2035422 1.0021197 2.609469 1.4446758 1.265986 0.33954114 0.90361965
0.9310272 1.2047656 0.23631625 0.64323264 1.4721059 0.8526307 1.4725499 0.32453865
0.8544614 2.1311135 0.37232372 2.5384145 1.199393 1.2304664 0.33118457 1.4299788
1.2454411 2.1511734 2.6755178 0.35806033 0.3913555 2.1564162 0.35965773 0.3338608
1.9694088 0.34892294 4.09566 0.93362105 0.82867396 1.4076126 1.9479762 3.454511
1.2989852 1.5777298 0.26235902 0.345746 2.2699075 2.2649984 2.3505602 1.3730141
1.6184037 2.2389958 1.963217 0.34901235 1.1848333 0.36617848 1.1940614 0.34427378
2.5379405 0.23437312 1.2256649 0.36521885 1.6650409 1.7340435 1.0332601 3.826318
1.5056819 0.31115738 2.6323798 0.2730044 0.34384462 1.120139 0.8891901 1.2931335
0.311819 0.36310288 2.7724812 1.26443 0.31013814 0.3538582 0.37562585 2.6743994
2.7517095 1.556723 0.3613386 2.5017867 2.3758202 0.31725496 1.448042 1.1364999
2.291549 1.332149 1.0098052 3.896046 2.9769125 1.3376875 0.3851924 1.0157778
1.349409 2.2938704 2.1585867 0.34027427 1.955575 0.35329196 1.5459408 0.86640465
1.667084 1.0906458 1.7216519 0.3576133 2.9220853 0.321922 1.4450552 0.351325
1.0516868 1.3750827 1.3424525 1.7831087 1.6129956 2.4768023 2.3418405 0.2947661
0.86942893 1.9492211 1.8445418 1.7970718 0.75937957 1.8405708 2.073668 1.7440673
0.2657088 0.33011764 1.1285067 0.2108859 0.33976763 1.2440637 1.0319955 1.1476605
1.6306292 0.3539476 1.3608937 2.5574567 2.32764 2.0098386 0.36700103 1.3636798
0.32771558 2.1964815 1.5107034 1.6470373 0.32488436 0.27135336 1.5054862 2.6118977
1.9438816 0.28204647 1.9183545 1.2848572 0.34792158 1.1208814 1.5371543 0.36309692
0.7781255 1.6873839 0.30320612 1.6534437 1.7636837 1.5116242 2.6741488 1.6288619
1.7315735 1.8890153 1.9068743 0.3390047 2.8687558 2.0207732 2.5905132 0.34207433
0.8196489 1.670772 1.7136577 1.3037668 1.4137402 1.5186646 2.13927 0.36224458
0.33587545 0.32102197 0.38087702 1.7582656 0.9525365 2.360003 0.93665236 1.3131762
2.0127509 1.8650464 2.0950716 1.3739197 1.1135074 2.444321 2.006407 0.37746167
00000000: 170c a53f 3b77 9a3f 68bf c03e 5079 c43e
00000010: 1a1f d93f 657c 953e 867d eb3f c7f6 b03e
00000020: 407f 493e dea6 ac3e 5e23 1140 7098 d13f
00000030: 8852 623f 7cff 0240 8ade d63f b6e6 c13f
00000040: 74f0 4940 cd9a 463f 463f c93f 5452 a73f
00000050: 81fc c83f dc9f 403f d2f9 913f 1fa2 6b3f
00000060: 2e12 7b3f b448 3a40 4942 9c3f 5b3b 1b40
00000070: 5c40 f73f d926 a63f a56f c33f 5746 bd3e
00000080: 5f67 c53f b477 823f 6302 873f c9d7 ff3f
00000090: d003 0340 bd61 9e3e 22ae e23f 9223 0540
000000a0: e9c5 3440 0dd7 b03f 82b6 b73f 0cf6 f33f
000000b0: 60b9 883f b9a8 ee3f 8ff7 b03e d781 b13e
000000c0: c2f9 0040 8632 a63e f465 1a40 eacc 1240
000000d0: 61a3 1f40 6904 0240 701f 0040 d98f d73f
000000e0: a0d1 c13e ac0d 9a3f 7545 803f 8a01 2740
000000f0: 23eb b83f d40b a23f 56d8 ad3e 9e53 673f
00000100: cc57 6e3f c235 9a3f e3fc 713e e5aa 243f
00000110: f76d bc3f 0146 5a3f 847c bc3f ee29 a63e
00000120: fbbd 5a3f 2a64 0840 37a1 be3e 6275 2240
00000130: b685 993f ec7f 9d3f 0691 a93e 8c09 b73f
00000140: 9d6a 9f3f d3ac 0940 af3b 2b40 af53 b73e
00000150: c05f c83e b902 0a40 0f25 b83e ceef aa3e
00000160: 9615 fc3f 07a6 b23e a60f 8340 ca01 6f3f
00000170: fa23 543f a62c b43f 4957 f93f b516 5d40
00000180: 2645 a63f 0df3 c93f ec53 863e 9f05 b13e
00000190: 2a46 1140 bcf5 1040 946f 1640 edbe af3f
000001a0: da27 cf3f b54b 0f40 b24a fb3f bfb1 b23e
000001b0: 9ea8 973f bf7b bb3e 01d7 983f a744 b03e
000001c0: 9e6d 2240 82ff 6f3e 96e2 9c3f f7fd ba3e
000001d0: 0f20 d53f 23f5 dd3f de41 843f 65e2 7440
000001e0: 2fba c03f 0550 9f3e e978 2840 3cc7 8b3e
000001f0: 670c b03e b760 8f3f f6a1 633f 6685 a53f
00000200: bda6 9f3e 9fe8 b93e 5570 3140 d8d8 a13f
00000210: 6dca 9e3e e72c b53e 0852 c03e 5c29 2b40
00000220: 021c 3040 b342 c73f 5f01 b93e 461d 2040
00000230: 700d 1840 3e6f a23e 7159 b93f d478 913f
00000240: bda8 1240 dc83 aa3f 4c41 813f d158 7940
00000250: bc85 3e40 5839 ab3f f037 c53e 0205 823f
00000260: 6fb9 ac3f c6ce 1240 4926 0a40 6e38 ae3e
00000270: 4850 fa3f afe2 b43e 63e1 c53f b2cc 5d3f
00000280: 0263 d53f 489a 8b3f 175f dc3f 1719 b73e
00000290: 7203 3b40 f6d2 a43e 92f7 b83f dfe0 b33e
000002a0: ac9d 863f b602 b03f 7cd5 ab3f e83c e43f
000002b0: a476 ce3f ee83 1e40 b7e0 1540 95eb 963e
000002c0: e592 5e3f 1480 f93f f219 ec3f 7306 e63f
000002d0: b366 423f d397 eb3f fab6 0440 993d df3f
000002e0: fc0a 883e 2e05 a93e e872 903f 79f2 573e
000002f0: 06f6 ad3e 7b3d 9f3f 6e18 843f 8ae6 923f
00000300: 75b8 d03f 9f38 b53e c431 ae3f 5fad 2340
00000310: 0ef8 1440 32a1 0040 8fe7 bb3e 0f8d ae3f
00000320: 56ca a73e 2793 0c40 bb5e c13f 1ed2 d23f
00000330: 3e57 a63e d4ee 8a3e c6b3 c03f 5529 2740
00000340: 1dd1 f83f 6568 903e a48c f53f 3376 a43f
00000350: c722 b23e 0b79 8f3f 79c1 c43f d7e7 b93e
00000360: 3c33 473f 32fc d73f d53d 9b3e 0ba4 d33f
00000370: 63c0 e13f e77c c13f 4125 2b40 8c7e d03f
00000380: 33a4 dd3f 41cb f13f 7514 f43f 0692 ad3e
00000390: b299 3740 5954 0140 f8ca 2540 5e24 af3e
000003a0: 83d4 513f dbdb d53f 2359 db3f d5e1 a63f
000003b0: 70f5 b43f 9a63 c23f cde9 0840 1f78 b93e
000003c0: def7 ab3e fe5c a43e 5002 c33e d90e e13f
000003d0: 6fd9 733f 4a0a 1740 73c8 6f3f 2816 a83f
000003e0: e9d0 0040 d7b9 ee3f a715 0640 9adc af3f
000003f0: 6987 8e3f c16f 1c40 f968 0040 a842 c13e

bn1.bias f4 [300]
-0.62418884 -0.17033535 -0.6523556 -0.6214565 -0.30199054 -0.61271846 -0.2583025 -0.607664
-0.7039733 -0.68970394 -0.13711917 -0.46381795 -0.74538636 0.03728461 -0.22683036 -0.80656177
0.6723968 -0.4353675 -0.4031394 -0.29193738 -0.8873822 -0.44426695 -0.91969824 -0.3577558
-0.3790221 0.046914186 -0.2799417 -0.18642467 -0.3668405 -0.554798 -0.12263333 -0.6093806
-0.45923957 -0.3760971 -1.1341455 -0.12027682 -0.7190184 -0.6456799 -0.44177833 0.014857738
-0.29421967 -0.8640525 0.028097514 -0.86946744 -0.12788485 -0.66470987 -0.5799478 -0.5902833
0.20055906 -0.58503807 -0.2810565 0.79472136 -0.626793 0.10762027 0.07195441 -0.61733854
-0.579316 -0.22742443 0.0987164 0.4905451 -0.600411 -0.49825403 -0.6104177 -0.4730511
-0.28462476 -0.25753483 -0.65818495 -0.7158113 -0.58858865 -0.47584826 -0.39053664 -0.5367821
-0.15101649 0.08870422 -0.6123966 -0.10757234 -0.29053587 -0.11176305 -0.6429619 -0.28920746
-0.9129932 0.11728295 -0.77807355 -0.58599174 -0.63169664 -0.60745203 -0.6425447 -0.591535
-0.39028114 -0.593645 0.8515334 -0.3048504 -0.50922126 -0.042233452 -0.098263115 0.3659841
-0.6786005 -0.48379448 -0.61196744 -0.56175643 -0.6763904 -0.16437976 -0.37462646 -1.2447033
-0.4148203 -0.5277766 -0.99600494 -0.59897363 -0.8617044 -0.6091422 -0.5732516 -0.56034976
-0.38120174 -0.48561442 -0.013670861 -0.61031044 -0.7604111 -0.34497747 -0.6400886 0.23730943
-0.8791064 -0.64264005 -0.10858751 -0.7360883 -0.6035036 -0.67760867 -1.039819 -0.22663423
-0.6124562 -0.6279177 0.8756078 -1.0412424 -0.638277 -0.5805677 -0.5838698 0.3261361
0.36875618 -0.10546953 -0.6272144 -0.6010865 -0.52096283 -0.5770391 -0.3587419 -1.2363414
-0.21310528 -0.21655412 -0.79163 1.2146878 -0.8001637 -0.61180747 -0.6204313 -0.66169435
-0.30495158 -0.42381275 -0.7308442 -0.5847043 -0.035032317 -0.6183213 0.020314395 -0.30578282
-0.33938533 -0.8732438 -0.7122458 -0.5734986 -0.19926295 -0.5390232 -1.0257603 -0.5726999
-1.028383 -0.33317348 -0.67911017 -0.35869092 0.4581542 -0.2239663 0.0935961 -0.5390709
-0.4610534 -0.2762985 -0.28331488 -0.27988243 -0.25238502 -0.3937264 -0.35649148 0.32354933
-0.678379 -0.6463594 0.11121241 -0.67868894 -0.6073898 -0.12969628 -0.13698214 -0.21305348
-0.50991684 -0.5829638 -0.07345316 0.18659633 -0.12728445 -0.80743927 -0.5750483 -0.8839996
-0.58320224 0.11799029 -0.5367712 0.021193493 -0.56942165 -0.626213 -0.9221544 -0.12900414
-0.00646907 -0.6194776 -0.108289964 -0.18882708 -0.63905185 -0.68597627 -0.65521705 -0.59619606
-0.20516713 0.43200397 -0.52837783 -0.21816385 -0.24600711 0.29492283 -0.5433681 -0.89082134
-0.4100418 -0.18394174 0.18698053 -0.6224698 0.040201765 -0.5936056 -0.42925668 -0.59250057
-0.73188394 0.43043903 0.09451392 -1.0699533 -0.42466915 -0.49003744 0.21787244 -0.59875906
-0.5449479 -0.60646 -0.6531305 -0.034984596 -0.49775338 -0.2402325 -0.28474972 -1.4397652
-0.37695336 -0.5084296 -0.070828386 -0.37486714 -0.49206406 -0.62558347 -0.38632867 -0.6360001
00000000: d7ca 1fbf 646c 2ebe c700 27bf c617 1fbf
00000010: 819e 9abe 1edb 1cbf 3a40 84be de8f 1bbf
00000020: 9837 34bf 7090 30bf f868 0cbe 8c79 edbe
00000030: a4d1 3ebf bfb7 183d 3846 68be d57a 4ebf
00000040: 3222 2c3f 7de8 debe 4a68 cebe d178 95be
00000050: 7b2b 63bf f576 e3be 5871 6bbf c52b b7be
00000060: 2f0f c2be 1729 403d 8554 8fbe 1ce6 3ebe
00000070: 85d2 bbbe 3e07 0ebf 2f27 fbbd 5e00 1cbf
00000080: 7321 ebbe cd8f c0be ae2b 91bf b253 f6bd
00000090: 9711 38bf 474b 25bf c530 e2be df6d 733c
000000a0: f6a3 96be 8b32 5dbf c22c e63c 6b95 5ebf
000000b0: 3ff4 02be 6d2a 2abf 7677 14bf ce1c 17bf
000000c0: 5b5f 4d3e 0ec5 15bf a3e6 8fbe dc72 4b3f
000000d0: 8275 20bf 0468 dc3d d55c 933d e609 1ebf
000000e0: 0e4e 14bf f3e1 68be d32b ca3d ba28 fb3e
000000f0: 89b4 19bf 271b ffbe 5644 1cbf c133 f2be
00000100: 56ba 91be 9bdb 83be cf7e 28bf 693f 37bf
00000110: bfad 16bf 62a2 f3be 6bf4 c7be 8d6a 09bf
00000120: 11a4 1abe 8faa b53d 06c6 1cbf e34e dcbd
00000130: 1ec1 94be 07e4 e4bd 2799 24bf 0013 94be
00000140: ecb9 69bf 0b32 f03d d42f 47bf 8e03 16bf
00000150: dfb6 21bf fa81 1bbf cf7d 24bf d66e 17bf
00000160: eed2 c7be 1ef9 17bf 18fe 593f 5a15 9cbe
00000170: 535c 02bf fcfc 2cbd 2c3e c9bd 4562 bb3e
00000180: c3b8 2dbf e9b3 f7be e6a9 1cbf 45cf 0fbf
00000190: ec27 2dbf 2b53 28be 0acf bfbe 7052 9fbf
000001a0: 5463 d4be 5e1c 07bf 2efa 7ebf 5656 19bf
000001b0: a998 5cbf bef0 1bbf 9ec0 12bf 1573 0fbf
000001c0: e02c c3be 74a2 f8be bffb 5fbc 4e3d 1cbf
000001d0: 4daa 42bf e3a0 b0be d9dc 23bf 3e01 733e
000001e0: 1e0d 61bf 0f84 24bf 2163 debd 4870 3cbf
000001f0: 367f 1abf c377 2dbf ca18 85bf ce12 68be
00000200: eec9 1cbf 37bf 20bf d527 603f 6e47 85bf
00000210: 1f66 23bf 16a0 14bf 7e78 15bf 50fb a63e
00000220: 9ccd bc3e 6900 d8bd 1f91 20bf cee0 19bf
00000230: d25d 05bf d6b8 13bf 05ad b7be 6f40 9ebf
00000240: 4538 5abe 5dc0 5dbe 44a8 4abf e47a 9b3f
00000250: 87d7 4cbf 6a9f 1cbf 96d4 1ebf cd64 29bf
00000260: 9d22 9cbe fcfd d8be 9b18 3bbf 2eaf 15bf
00000270: 0c7e 0fbd 4e4a 1ebf 606a a63c 918f 9cbe
00000280: eac3 adbe e88c 5fbf be55 36bf ced0 12bf
00000290: 960b 4cbe 6dfd 09bf 1d4c 83bf 769c 12bf
000002a0: 0ea2 83bf b795 aabe 2ada 2dbf 56a6 b7be
000002b0: 3093 ea3e 6c57 65be 50af bf3d 8d00 0abf
000002c0: 310f ecbe ff76 8dbe a60e 91be c04c 8fbe
000002d0: 9c38 81be 8296 c9be 0d86 b6be 42a8 a53e
000002e0: 3faa 2dbf cf77 25bf 55c3 e33d 8fbe 2dbf
000002f0: e67d 1bbf 1acf 04be 0c45 0cbe b12a 5abe
00000300: e989 02bf 1e3d 15bf 9c6e 96bd 1c13 3f3e
00000310: db56 02be 57b4 4ebf 5e36 13bf cc4d 62bf
00000320: be4c 15bf e5a4 f13d d669 09bf fa9d ad3c
00000330: 9ec5 11bf 7f4f 20bf 5012 6cbf a919 04be
00000340: 7efa d3bb 1696 1ebf 21c7 ddbd e35b 41be
00000350: e798 23bf 249c 2fbf 4ebc 27bf 4ea0 18bf
00000360: 5517 52be a02f dd3e c543 07bf 5866 5fbe
00000370: 4ae9 7bbe 2000 973e 2c1a 0bbf de0c 64bf
00000380: 00f1 d1be 395b 3cbe d377 3f3e 2e5a 1fbf
00000390: 9baa 243d 89f6 17bf 88c7 dbbe 1eae 17bf
000003a0: bf5c 3bbf 8162 dc3e 8490 c13d 3bf4 88bf
000003b0: 3c6e d9be 30e6 fabe f419 5f3e 4648 19bf
000003c0: b581 0bbf f640 1bbf 8f33 27bf 024c 0fbd
000003d0: 88d9 febe 82ff 75be b7ca 91be 3a4a b8bf
000003e0: 0800 c1be 7128 02bf 790e 91bd 96ee bfbe
000003f0: d2ef fbbe 3d26 20bf dfcc c5be e7d0 22bf

l2.weight f4 [300, 308]
-0.7036771 0.18439797 -0.061151065 -0.038215928 0.7891421 -0.021560324 0.4147168 -0.035385452
0.11298742 0.11702563 -0.377495 -0.2649286 0.23978041 0.63884735 0.29328462 -0.15815414
-0.061964907 0.35826546 1.0949686 0.92494303 -0.49094555 -0.4940836 -0.5704965 0.16518451
0.25073105 0.50634617 -1.1174026 0.9843665 1.1110395 -1.1641487 -1.4907699 0.009127622
-1.7792068 -0.15092275 0.39652416 -0.4601932 0.5378879 0.021603912 -0.6138568 0.93910414
-1.5798203 1.0711513 1.0261271 0.16848202 -0.49235195 1.2168465 0.06734959 0.060388874
0.07040203 -0.03087803 -0.27215752 1.232163 0.64074606 1.0608258 1.1002634 -0.9138233
0.11498417 -0.94758713 0.11262863 -0.39270926 1.0940934 -0.6321182 0.020484459 1.0780915
-0.5484858 -0.13306531 0.1507537 0.8423736 0.6224444 -0.8760766 -1.0367616 -0.058416706
-0.27034384 -2.232604 0.010711803 -0.53922135 -0.10769242 -0.923491 0.009078261 0.25120768
-1.0155169 -0.5082451 -0.3211864 0.20860602 0.01415472 -0.3875169 -0.015384812 0.06633035
-0.5441957 -0.121901296 -0.0702397 0.057367273 0.16086122 -0.10963827 -0.20904405 0.8646862
0.7397023 -0.54407156 0.024068564 0.062324535 0.20060754 -0.2811734 0.086789265 -0.22807063
0.43262807 1.1793336 0.088089235 -0.13149244 -0.35057494 -0.10469939 0.7561612 0.038206242
-0.25949737 -0.20360221 -0.95751345 -0.09219282 -0.6724209 0.6534893 0.7898151 -0.48377016
-0.6643465 0.09013647 -0.4249969 0.022603778 -0.06964586 -0.29320353 1.0005316 -1.6887134
0.11761274 -0.16088055 -0.52851194 0.4335628 0.11358347 0.056697853 0.11511679 -0.68284965
0.37800673 0.648481 -0.03367554 -1.0128487 0.06712689 -0.067009844 -0.25213888 -0.4607859
0.49021563 -0.16011716 1.2691544 0.72042006 -0.5346523 0.11939023 -0.16677843 -1.3645111
-0.5888866 0.9887406 -1.4724646 -0.22017829 -1.6153761 -0.44777736 0.49874482 -0.19589595
-0.9852052 0.5926453 -0.3253232 -0.0692316 -2.2475908 -0.02143776 1.5628417 -0.077291645
1.0486948 -0.2806213 -0.5454407 -0.5189927 -0.30848715 0.48719418 0.5940002 0.03145452
0.73383987 0.026593568 -1.3941739 0.7147307 0.5334329 -0.24723285 -0.66701 1.6360114
0.02815931 0.23673946 0.30323267 0.00021194447 0.023745209 -0.31796426 -0.067083955 0.32074922
-0.21637386 -0.014133299 -0.09272479 -0.7053426 -0.5658419 -0.05150008 0.01595711 0.45198745
0.09840512 -0.13719697 -0.26809967 0.0019482005 0.01888221 -0.12772246 0.8901843 0.08301732
-0.31823444 -0.054155715 -0.71140784 0.74162114 0.12299952 1.0330135 -0.8918521 0.0873261
-0.34855098 -0.077539116 0.12168822 -0.15661284 0.8318674 -0.31953952 -0.90897167 0.28596666
-0.012137897 0.47159398 0.1482255 0.08040451 1.2378806 -0.23065326 -0.49040455 0.0916996
0.28251734 -0.06340847 -0.33482054 -0.59501827 0.51476735 0.63493747 0.3409263 0.08668983
0.022226779 -0.05055261 -0.029896786 0.6516253 0.88383615 0.12373503 -0.05469739 0.3081643
0.14448875 -0.3831499 1.0612817 -0.28234088 0.1579134 -0.5136747 1.8461875 -0.034932453
00000000: 2f24 34bf d2d2 3c3e 8a79 7abd 4e88 1cbd
00000010: 3705 4a3f 479f b0bc c355 d43e 56f0 10bd
00000020: f365 e73d 22ab ef3d 0647 c1be b9a4 87be
00000030: ff88 753e 808b 233f 6729 963e 29f3 21be
00000040: eace 7dbd 926e b73e ee27 8c3f 11c9 6c3f
00000050: 375d fbbe 87f8 fcbe 0f0c 12bf 2126 293e
00000060: d25f 803e e79f 013f 0c07 8fbf 71ff 7b3f
00000070: 8b36 8e3f d302 95bf 8cd1 bebf 058c 153c
00000080: 0cbd e3bf 7e8b 1abe 3705 cb3e 719e ebbe
00000090: 05b3 093f b0fa b03c b825 1dbf 2169 703f
000000a0: 8d37 cabf 7c1b 893f 2258 833f 8d86 2c3e
000000b0: 8e15 fcbe a0c1 9b3f 95ee 893d 535a 773d
000000c0: f12e 903d ecf3 fcbc 3b58 8bbe 84b7 9d3f
000000d0: ef07 243f 24c9 873f 6ed5 8c3f 53f0 69bf
000000e0: d27c eb3d 1295 72bf d7a9 e63d 3011 c9be
000000f0: 410b 8c3f 80d2 21bf 06cf a73c e7fe 893f
00000100: 9169 0cbf 4642 08be 2e5f 1a3e cca5 573f
00000110: 8458 1f3f 8e46 60bf 9bb4 84bf 5b46 6fbd
00000120: 826a 8abe fce2 0ec0 8f80 2f3c 690a 0abf
00000130: d88d dcbd e869 6cbf fdbc 143c 4b9e 803e
00000140: 75fc 81bf 5a1c 02bf 8b72 a4be d19c 553e
00000150: 33e9 673c 9d68 c6be 9410 7cbc 35d8 873d
00000160: 6950 0bbf 63a7 f9bd d5d9 8fbd f2f9 6a3d
00000170: ceb8 243e 088a e0bd a50f 56be 135c 5d3f
00000180: 215d 3d3f 4648 0bbf 702b c53c 0348 7f3d
00000190: 106c 4d3e f6f5 8fbe 92be b13d 598b 69be
000001a0: 6d81 dd3e 67f4 963f 2168 b43d f4a5 06be
000001b0: 8f7e b3be a26c d6bd c893 413f 267e 1c3d
000001c0: d7dc 84be 197d 50be 9a1f 75bf 97cf bcbd
000001d0: c723 2cbf 134b 273f 5331 4a3f b9b0 f7be
000001e0: 9d12 2abf 7899 b83d 3299 d9be 8f2b b93c
000001f0: 7da2 8ebd c61e 96be 6b11 803f c327 d8bf
00000200: f3de f03d dfbd 24be 8f4c 07bf f1fb dd3e
00000210: 739e e83d 023c 683d 5ac2 eb3d 3ccf 2ebf
00000220: 198a c13e da02 263f 5def 09bd 07a5 81bf
00000230: d379 893d 753c 89bd 5918 81be 21ec ebbe
00000240: 8bfd fa3e c1f5 23be a773 a23f 736d 383f
00000250: f9de 08bf dd82 f43d f7c7 2abe 4da8 aebf
00000260: 46c1 16bf 1b1e 7d3f b879 bcbf 6b76 61be
00000270: a5c4 cebf 1343 e5be 7b5b ff3e f398 48be
00000280: 6836 7cbf 9ab7 173f c390 a6be 4cc9 8dbd
00000290: 87d8 0fc0 3e9e afbc 320b c83f 154b 9ebd
000002a0: a23b 863f 98ad 8fbe 00a2 0bbf b5dc 04bf
000002b0: 07f2 9dbe 8471 f93e 6610 183f 74d6 003d
000002c0: eedc 3b3f c1da d93c 4a74 b2bf 97f8 363f
000002d0: 0f8f 083f 9c2a 7dbe 2bc1 2abf d268 d13f
000002e0: 5aae e63c d46b 723e 5041 9b3e 693d 5e39
000002f0: 5085 c23c 36cc a2be 5063 89bd 3e39 a43e
00000300: 1c91 5dbe 5a8f 67bc 7fe6 bdbd 5591 34bf
00000310: 04db 10bf bff1 52bd 7cb8 823c e66a e73e
00000320: a088 c93d 5d7d 0cbe 5c44 89be c35a ff3a
00000330: ddae 9a3c adc9 02be 1ee3 633f fc04 aa3d
00000340: a0ef a2be 62d2 5dbd d31e 36bf e2da 3d3f
00000350: 2ce7 fb3d c939 843f 6b50 64bf 07d8 b23d
00000360: 4675 b2be d4cc 9ebd ac37 f93d 1e5f 20be
00000370: 43f5 543f af9a a3be 5eb2 68bf 396a 923e
00000380: 08de 46bc c474 f13e 6dc8 173e 1fab a43d
00000390: df72 9e3f 5e30 6cbe 4e16 fbbe 00cd bb3d
000003a0: 1da6 903e 4ddc 81bd 996d abbe 1e53 18bf
000003b0: cbc7 033f 438b 223f e48d ae3e 708a b13d
000003c0: ef14 b63c 4110 4fbd 1bea f4bc ead0 263f
000003d0: 1643 623f cb68 fd3d 5f0a 60bd b6c7 9d3e
000003e0: dcf4 133e 392c c4be 14d8 873f fc8e 90be
000003f0: 0db4 213e 2f80 03bf df4f ec3f 5515 0fbd

l2.bias f4 [300]
0.52647007 0.022902029 0.07215385 -0.0660186 0.32039538 -0.03691282 0.45754972 0.07039019
-0.32540867 -0.36789033 -0.7842779 -0.7824679 0.57596594 -0.85417765 -0.9669576 0.111861065
-0.6288913 -0.48493615 -0.747532 -0.11451303 -0.9745231 -0.0038466877 0.7689918 -0.17938143
-0.45308492 1.1578918 0.3496221 0.048057187 0.29442453 0.37347484 0.82995033 0.58465916
0.2487715 -0.6106825 -0.8315744 0.16472411 -0.6237717 0.6187549 0.0131081985 0.6564939
0.6137607 0.6549737 0.12262473 -1.1298345 0.5551896 -0.3261756 -0.1831066 -0.82758087
-1.1467576 -0.087975144 -0.03783707 -0.588019 -0.14943351 -0.471529 0.41095036 -0.37952107
0.45210022 0.6038702 0.038342588 0.46118522 -0.5824746 -0.577122 -0.16098575 -0.9147787
-0.6251571 -0.8348361 -0.29663217 0.49265665 0.3894848 -0.98967355 0.57982683 -0.08036897
-0.594712 -0.36200026 -0.002075719 -0.29785883 0.24204794 -0.66585386 0.037746523 0.29139498
0.0240644 0.59753966 0.19143572 -0.019827822 -0.8396386 -0.08026707 -0.9776533 0.5369261
0.22415935 0.32842067 -0.34220013 -0.081307076 0.21040775 -0.8708305 0.23935612 -0.33194622
0.43888846 0.07255343 0.08329888 -0.31380945 -0.5134127 0.11219523 0.32999986 0.728342
-1.4968734 -0.12759908 -1.0237695 -0.6002004 -0.9366181 -0.10510248 0.79449236 0.26322857
-0.57725793 0.48218805 0.068423994 -0.10347838 -0.24876316 -0.87994665 0.62396646 0.9899772
0.8601088 0.30536887 -0.16050139 -1.076739 0.27131012 -0.42033762 -0.92850786 -0.48095673
0.3344237 -0.19127315 0.3607844 -0.11181527 -0.3652721 0.58197457 -0.6732421 0.44339484
0.28282264 -1.1088945 -0.38216183 -1.2646663 0.23750074 -0.7547337 -0.5357352 -0.94859254
0.06089861 0.2906482 0.55528355 -0.7565939 -1.0091729 -0.6296166 -0.6258779 -0.27982128
-0.7939027 0.12648326 -0.8012695 0.6927311 0.32758945 0.48234457 -0.9640088 -1.6042799
-0.024092063 -0.5366301 -0.7894543 0.43109867 0.86575013 0.44678116 0.06847128 -0.30381852
-0.03813799 -0.04895344 -0.13711502 0.28272992 -0.15029079 -0.8077077 -0.4632824 -0.4287765
-0.8759884 -0.09439995 -0.058332488 0.2189913 0.5605662 -0.0035440987 0.089673534 0.38572153
0.04146807 -1.1768484 -1.6180805 -0.6332024 -0.4591488 0.45670396 0.14284259 0.674773
0.5925334 -0.95056385 0.0012081312 0.079576485 -0.077556685 -0.84336215 0.05004384 -0.9874749
0.27481824 -0.269192 -0.16720614 0.17001872 -0.6260052 0.10447935 0.5523444 0.28826475
-1.137014 0.24682473 0.13671306 0.7978073 0.73370296 0.4942141 0.31888482 -0.48449048
-1.0004437 -0.11812311 0.10209495 -0.8416811 0.5182158 0.18714978 0.9285693 -0.69458944
-0.67932224 -0.15217398 0.546897 -0.20294112 0.0022400129 0.6783972 -1.0461245 0.21919876
0.74179167 -0.77789295 -0.6312814 0.070187844 0.286808 -1.2678547 0.46336108 -0.5899559
-0.09986982 0.006217237 0.04595612 0.5868833 -0.9454551 -0.8862645 0.8651368 0.23449367
0.3099153 -1.3850662 0.53651917 0.8538199 0.023279605 -0.056670092 -1.0376841 0.21941489
00000000: bec6 063f 099d bb3c 66c5 933d c234 87bd
00000010: dd0a a43e e631 17bd f543 ea3e bb28 903d
00000020: f79b a6be 1f5c bcbe 70c6 48bf d14f 48bf
00000030: 8172 133f 63ab 5abf 898a 77bf 6a17 e53d
00000040: 05ff 20bf 8d49 f8be 425e 3fbf cf85 eabd
00000050: 597a 79bf b618 7cbb a6dc 443f c4af 37be
00000060: bffa e7be cc35 943f ab01 b33e 9dd7 443d
00000070: d0be 963e 1838 bf3e a077 543f 39ac 153f
00000080: f5bd 7e3e b055 1cbf 0fe2 54bf 70ad 283e
00000090: 81af 1fbf b966 1e3f c5c3 563c fc0f 283f
000000a0: 6c1f 1d3f 5bac 273f ad22 fb3d 6b9e 90bf
000000b0: e820 0e3f 7d00 a7be 4c80 3bbe 57dc 53bf
000000c0: f4c8 92bf 502c b4bd 0bfb 1abd 6a88 16bf
000000d0: 1905 19be 406c f1be 1668 d23e 9650 c2be
000000e0: ae79 e73e 3d97 1a3f 1e0d 1d3d 7820 ec3e
000000f0: 0e1d 15bf 44be 13bf 73d9 24be f02e 6abf
00000100: 4c0a 20bf d2b7 55bf 2ce0 97be 7e3d fc3e
00000110: 8d6a c73e 3f5b 7dbf 886f 143f 7d98 a4bd
00000120: 0c3f 18bf 1958 b9be c908 08bb f480 98be
00000130: 6adb 773e 6675 2abf 199c 1a3d b931 953e
00000140: b422 c53c 5cf8 183f ba07 443e f56d a2bc
00000150: 8ef2 56bf 1063 a4bd 7d47 7abf fd73 093f
00000160: 078a 653e c126 a83e db34 afbe 5384 a6bd
00000170: 2175 573e bfee 5ebf c519 753e dbf4 a9be
00000180: fdb5 e03e e596 943d 9a98 aa3d a2ab a0be
00000190: 046f 03bf 9dc6 e53d bef5 a83e 9f74 3a3f
000001a0: 8c99 bfbf 55a9 02be e10a 83bf bca6 19bf
000001b0: 34c6 6fbf f83f d7bd da63 4b3f e5c5 863e
000001c0: 2dc7 13bf 5ae1 f63e e121 8c3d 79ec d3bd
000001d0: c5bb 7ebe 2f44 61bf 44bc 1f3f 256f 7d3f
000001e0: 1730 5c3f 4f59 9c3e 7a5a 24be 95d2 89bf
000001f0: 29e9 8a3e 7e36 d7be b1b2 6dbf f63f f6be
00000200: 9539 ab3e 1cdd 43be bcb8 b83e 67ff e4bd
00000210: f204 bbbe 49fc 143f 9859 2cbf a604 e33e
00000220: 21ce 903e 41f0 8dbf b7aa c3be 96e0 a1bf
00000230: 6533 733e 3a36 41bf f125 09bf f6d6 72bf
00000240: d270 793d d7cf 943e 1027 0e3f 23b0 41bf
00000250: 942c 81bf 8e2e 21bf 8939 20bf bc44 8fbe
00000260: 353d 4bbf d484 013e ff1f 4dbf d356 313f
00000270: ceb9 a73e def5 f63e 48c9 76bf 0b59 cdbf
00000280: b85c c5bc 9760 09bf ad19 4abf f7b8 dc3e
00000290: cda1 5d3f 80c0 e43e ac3a 8c3d 1a8e 9bbe
000002a0: 9536 1cbd 6783 48bd e167 0cbe fac1 903e
000002b0: d4e5 19be efc5 4ebf 5a33 edbe 9888 dbbe
000002c0: c740 60bf c354 c1bd 0cee 6ebd 413f 603e
000002d0: 4481 0f3f 1c44 68bb c2a6 b73d 4b7d c53e
000002e0: 6cda 293d f8a2 96bf 431d cfbf 8d19 22bf
000002f0: 8d15 ebbe 1ad5 e93e 5445 123e ecbd 2c3f
00000300: 45b0 173f 2758 73bf 285a 9e3a fff8 a23d
00000310: 0ad6 9ebd 95e6 57bf c5fa 4c3d 28cb 7cbf
00000320: fab4 8c3e 89d3 89be 1638 2bbe 6319 2e3e
00000330: e041 20bf 45f9 d53d 7166 0d3f 7097 933e
00000340: ad89 91bf 9fbf 7c3e 82fe 0b3e 193d 4c3f
00000350: f5d3 3b3f a109 fd3e df44 a33e 230f f8be
00000360: 8a0e 80bf 87ea f1bd 2817 d13d 6a78 57bf
00000370: caa9 043f 31a4 3f3e b8b6 6d3f 9dd0 31bf
00000380: 10e8 2dbf 7fd3 1bbe 7101 0c3f cccf 4fbe
00000390: 2ecd 123b 70ab 2d3f 68e7 85bf a475 603e
000003a0: 0fe6 3d3f fe23 47bf a89b 21bf a5be 8f3d
000003b0: 80d8 923e 1049 a2bf aa3d ed3e 5a07 17bf
000003c0: 8c88 ccbd f7b9 cb3b 7c3c 3c3d fc3d 163f
000003d0: 5809 72bf 3be2 62bf 9b79 5d3f 1c1f 703e
000003e0: 38ad 9e3e d949 b1bf 5259 093f f193 5a3f
000003f0: dfb4 be3c e61e 68bd d5d2 84bf 4cae 603e

bn2.weight f4 [300]
1.5330477 1.3192444 1.364897 1.3966392 1.8942347 1.2108501 1.3564415 1.1921593
1.1937003 0.25867546 1.5759298 0.29231635 1.0665089 0.33973783 1.3481745 1.3383095
1.6804495 0.17055735 0.30047026 1.3724309 0.24111442 1.813223 1.2774441 1.6266447
1.2687966 1.7225342 1.0772462 1.0802811 0.8403513 1.4619409 1.5065538 1.462869
1.1576662 0.24658613 0.24238996 1.3197986 0.25372827 1.5753773 1.0505204 1.0160105
1.3328454 1.7506309 1.2067832 1.448647 1.1922315 0.23289493 0.9791649 0.2604457
1.2711906 1.0075121 1.1489928 0.3574941 1.376161 1.5736986 1.5017511 0.2839419
1.6942264 1.7936532 1.0514922 1.2736272 0.2555045 1.0536743 1.4148642 1.2173414
0.49954996 0.27803504 0.28272 1.5498565 1.2403767 1.5941578 1.4984723 1.0724562
0.25009388 0.21183659 1.2924883 0.292972 1.1900673 1.8841888 1.0262972 1.084167
1.0480689 1.01895 1.3365881 1.1891739 0.16774401 0.8721396 0.56705064 1.7283124
1.0850847 1.2059898 1.164305 1.2000532 1.4121201 0.23240319 1.197171 1.6447394
1.3992308 1.2690213 1.2155106 1.0791551 2.0588322 1.0972422 1.165522 1.3847541
1.6163471 1.2106311 1.0841806 0.2916011 1.1612586 1.2197219 1.3437456 1.323452
1.6174365 1.4927493 0.20309854 0.22059849 1.1598262 0.27873242 1.2474973 1.7649317
1.6068697 1.8223209 1.21211 0.25304878 1.2601445 0.26930892 0.22502711 1.4610448
1.244464 1.1618688 1.0698996 1.4002942 1.0018361 1.2481242 1.5208079 1.2666577
1.2217386 1.6795086 1.1361154 1.5789793 1.4549567 0.97184116 0.22345057 0.24111442
1.4258995 1.3727214 1.5597109 0.2896401 1.5969334 0.31292766 2.3250675 1.3883234
1.2142473 1.1232558 1.1006652 1.2221973 1.3904043 1.5967811 0.21071006 1.425227
1.4053991 0.24677388 1.2731254 1.1908052 1.4914002 1.0502366 1.4060867 0.2778026
1.465489 0.9970902 1.4295052 1.4372249 1.5479734 0.21845569 0.25794232 0.32523006
0.18143521 1.3419459 1.2932723 1.03688 1.1178539 0.9216707 1.1432623 1.0135303
1.4082111 0.26253784 1.2752861 0.252411 0.2913567 1.1409457 1.1992109 1.3226213
1.5376396 0.25017732 0.30364123 1.3158073 0.23275784 0.26965463 1.2623483 0.2882215
1.0885495 1.1588788 1.3350973 1.0397002 0.36244005 1.4876539 1.2696525 1.2840186
0.46074837 0.19982922 1.4152707 1.5768037 1.3346875 1.3775574 1.5518688 1.1797504
1.3046024 1.6320249 0.52031976 0.96463966 1.4451725 1.2651261 1.335737 1.2420988
1.7824283 1.1045582 1.0980196 1.2384968 1.192957 1.2332032 1.6727294 1.0611138
1.4262682 0.23135713 0.28153387 0.24227671 1.1197912 0.17479526 1.1817253 1.368731
1.3755783 1.0250276 1.0800033 1.4258435 0.3194484 0.2502727 1.3763136 1.5027982
1.0670466 0.2632352 1.6105627 1.5504962 1.5130807 1.337912 0.23064485 1.1171085
00000000: e83a c43f 00dd a83f f2b4 ae3f 13c5 b23f
00000010: 4876 f23f 23fd 9a3f e09f ad3f ad98 983f
00000020: 2ccb 983f 1c71 843e 11b8 c93f 7daa 953e
00000030: 5d83 883f 1ef2 ad3e fb90 ac3f ba4d ab3f
00000040: f818 d73f 96a6 2e3e 3dd7 993e d1ab af3f
00000050: b3e6 763e b117 e83f 4a83 a33f e535 d03f
00000060: ed67 a23f 007c dc3f 34e3 893f a746 8a3f
00000070: 4321 573f e120 bb3f c1d6 c03f 4b3f bb3f
00000080: 682e 943f 1381 7c3e 1335 783e 29ef a83f
00000090: ace8 813e f7a5 c93f 7477 863f a20c 823f
000000a0: ae9a aa3f ac14 e03f df77 9a3f 446d b93f
000000b0: 0b9b 983f 027c 6e3e 8daa 7a3f 2459 853e
000000c0: 60b6 a23f 28f6 803f 3212 933f 7709 b73e
000000d0: 0b26 b03f f56e c93f 6139 c03f d560 913e
000000e0: 69dc d83f 6e96 e53f 4c97 863f 3706 a33f
000000f0: 7cd1 823e cdde 863f 451a b53f d8d1 9b3f
00000100: 03c5 ff3e 9c5a 8e3e adc0 903e b361 c63f
00000110: aac4 9e3f 5d0d cc3f f1cd bf3f 3f46 893f
00000120: 4e0c 803e b1eb 583e 4270 a53f 6d00 963e
00000130: 2054 983f 192d f13f b55d 833f fcc5 8a3f
00000140: 1f27 863f f46c 823f 5215 ab3f da36 983f
00000150: 16c5 2b3e 8a44 5f3f 3b2a 113f 5739 dd3f
00000160: 0ee4 8a3f e05d 9a3f f207 953f 589b 993f
00000170: 5ac0 b43f 1afb 6d3e e63c 993f d286 d23f
00000180: ff19 b33f 4a6f a23f da95 9b3f c121 8a3f
00000190: e8c3 0340 6f72 8c3f d32f 953f 9f3f b13f
000001a0: 76e4 ce3f f6f5 9a3f 6ec6 8a3f bd4c 953e
000001b0: 1fa4 943f d91f 9c3f dbff ab3f e066 a93f
000001c0: 2908 cf3f 6912 bf3f 10f9 4f3e 92e4 613e
000001d0: 2f75 943f 04b6 8e3e fead 9f3f 48e9 e13f
000001e0: e8ad cd3f d041 e93f 6c26 9b3f 9c8f 813e
000001f0: 6a4c a13f dce2 893e 826d 663e 8403 bb3f
00000200: 994a 9f3f 1eb8 943f 78f2 883f d73c b33f
00000210: 2a3c 803f 89c2 9f3f d5a9 c23f d721 a23f
00000220: ee61 9c3f 23fa d63f 3b6c 913f fe1b ca3f
00000230: 053c ba3f 95ca 783f 3ad0 643e b3e6 763e
00000240: e083 b63f 56b5 af3f 9ba4 c73f b54b 943e
00000250: 5068 cc3f 0e38 a03e e8cd 1440 95b4 b13f
00000260: 756c 9b3f d9c6 8f3f 99e2 8c3f f670 9c3f
00000270: c5f8 b13f 5363 cc3f 61c4 573e d76d b63f
00000280: 1ee4 b33f 4bb2 7c3e c6f5 a23f 4e6c 983f
00000290: 34e6 be3f 276e 863f a6fa b33f 243c 8e3e
000002a0: 2595 bb3f 4e41 7f3f 07fa b63f fcf6 b73f
000002b0: fe23 c63f d9b2 5f3e 0411 843e 8e84 a63e
000002c0: 27ca 393e e2c4 ab3f f289 a53f 7cb8 843f
000002d0: d615 8f3f 9cf2 6b3f 6b56 923f 5cbb 813f
000002e0: 4340 b43f 5c6b 863e 933c a33f 043c 813e
000002f0: b52c 953e 820a 923f be7f 993f a84b a93f
00000300: 60d1 c43f 3e17 803e dd76 9b3e 606c a83f
00000310: 1258 6e3e 2c10 8a3e a194 a13f c591 933e
00000320: 9755 8b3f 2456 943f 78e4 aa3f e514 853f
00000330: be91 b93e 716b be3f f983 a23f b95a a43f
00000340: 36e7 eb3e 08a0 4c3e 9727 b53f b4d4 c93f
00000350: 0ad7 aa3f cd53 b03f a3a3 c63f 1002 973f
00000360: 36fd a63f 31e6 d03f ad33 053f a0f2 763f
00000370: 6afb b83f a7ef a13f 6ef9 aa3f 18fd 9e3f
00000380: 9c26 e43f 2a62 8d3f e88b 8c3f 1087 9e3f
00000390: d1b2 983f 9ad9 9d3f ff1b d63f 94d2 873f
000003a0: f58f b63f e2e8 6c3e 3525 903e 6317 783e
000003b0: 5155 8f3f 87fd 323e c642 973f 9432 af3f
000003c0: f312 b03f 1b34 833f 8c3d 8a3f 0a82 b63f
000003d0: be8e a33e be23 803e 0b2b b03f b15b c03f
000003e0: fc94 883f c4c6 863e eb26 ce3f a976 c63f
000003f0: a1ac c13f b340 ab3f 2a2e 6c3e 69fd 8e3f

bn2.bias f4 [300]
-0.5169502 -0.882842 -1.0516667 -0.8985529 -1.0486002 -0.36799216 -0.72488934 -0.5917895
-1.0928832 -0.73544455 -1.7891458 -0.8460232 -1.2187465 -0.84259 -0.2163248 -0.47336137
-1.5231733 -0.7199354 -0.8413979 -0.60306823 -0.6507701 -0.97483194 -1.0863246 -1.3351265
-0.88065606 -0.34858313 -0.6832095 -1.0588901 -1.0379202 -0.23647933 -0.7336241 -0.6943098
-0.48971328 -0.668127 -0.72485876 -1.0009066 -0.8271047 -0.1630603 -0.86608875 -0.83132625
-0.84119314 -0.34423238 -1.2974228 -0.73298275 -0.6919418 -0.7039256 -1.026726 -0.7403083
-1.2098024 -1.2098999 -1.000942 -1.2335193 -1.3397129 -0.5187172 -0.6605989 -0.7836409
-0.79407245 -0.8034413 -0.8874445 -0.69055265 -0.7551618 -1.3565677 -0.6390138 -1.4408314
-1.5168086 -0.86683714 -0.7267542 -1.0485754 -1.0943539 -1.1230415 -0.31456468 -1.3768317
-0.8285233 -0.6649441 -0.8206799 -0.90589017 -0.5643586 -1.977381 -1.3433676 -0.8513221
-1.1361407 -0.8466119 0.24000703 -1.0446991 -0.70280504 -0.13017048 -0.5397133 -0.6353665
-0.9806946 -0.7559974 -1.2686325 -0.8579767 -1.0506274 -0.79881626 -0.844747 -1.1700523
-0.4456496 -0.9063691 -0.7243364 0.3063537 -2.6375382 -1.1343462 -1.0036299 -0.87512785
-0.2997184 -0.7835789 -0.114040345 -0.7932492 -1.2784936 -1.0853386 -1.2107787 -0.8802281
-1.6966337 -0.6491046 -0.81693614 -0.6628937 -0.8530671 -0.71910095 -0.7133234 -0.94961333
-0.39495328 -0.6976413 -1.1782722 -0.6704635 -0.7075881 -0.8667418 -0.7859536 -0.8403651
-0.7522001 -0.97993225 -0.79732805 -0.76296425 -1.01626 -0.7042478 -1.4670036 -0.62576
-1.3962928 -1.4787346 -1.0780233 -0.5353487 -0.99156505 -1.5758022 -0.75278956 -0.7027335
-1.2034265 -1.221089 -0.83347434 -0.84104025 -0.91817814 -0.64036316 -1.6906534 -1.1258758
-1.0764563 -0.8423584 -1.1387203 -0.90445805 -0.9768106 -0.73178816 -0.695879 -0.4085388
-1.7169379 -0.6868786 -1.391996 -1.1722628 -0.7222476 -1.0783798 -1.013309 -0.86371386
-0.87301576 -1.0541426 -1.0183723 -0.80555713 -1.7223853 -0.7039614 -0.8284279 -0.84855044
-0.60409963 -0.9905339 -0.6373504 -1.285599 -0.94062656 -1.3121119 -1.2236866 -0.9022612
-1.3254495 -0.8143612 -0.15110584 -0.6180352 -0.7486291 -0.7846207 -0.667358 -0.6516435
-0.68147004 -0.83894217 -0.9716103 -1.2828872 -0.7166214 -0.6229466 -0.8478353 -0.8839676
-0.8397486 -0.8298661 -0.4682834 -0.9121953 -0.9370199 -0.7469818 -0.523118 -0.8347443
-0.6216188 -0.5262082 -0.76723903 -0.97579527 -0.7233256 -0.89279777 -0.98804724 -0.674131
-1.0260876 -1.7059611 -0.6081143 -1.4988992 -0.90847665 -1.0770524 -0.7903823 -1.264744
-1.0162114 -1.0283723 -1.198609 -0.45703122 -1.0720052 -0.9850342 -0.69940346 -1.0150154
-0.8416126 -0.80387074 -0.8612343 -0.6013459 -0.9509596 -0.5963391 -0.7938866 -0.73269135
-0.8933073 -1.517983 -1.1309283 -0.9032773 -0.76685625 -0.7742711 -0.4127647 -0.51270956
-1.1889409 -0.668878 -0.7062526 -0.50935906 -0.58220446 0.022394782 -0.8568593 -1.0255139
00000000: d956 04bf ef01 62bf 049d 86bf 9007 66bf
00000010: 8838 86bf 7869 bcbe 5992 39bf 847f 17bf
00000020: 99e3 8bbf 1846 3cbf bb02 e5bf fa94 58bf
00000030: e3ff 9bbf fab3 57bf 4084 5dbe 6c5c f2be
00000040: 58f7 c2bf b04d 38bf da65 57bf ae62 1abf
00000050: df98 26bf 968e 79bf af0c 8bbf 6de5 aabf
00000060: ad72 61bf 7d79 b2be d1e6 2ebf b689 87bf
00000070: 92da 84bf a327 72be cace 3bbf 49be 31bf
00000080: b3bb fabe 5f0a 2bbf 5890 39bf b51d 80bf
00000090: 22bd 53bf 47f9 26be feb7 5dbf ccd1 54bf
000000a0: 6f58 57bf 3a3f b0be f311 a6bf c2a4 3bbf
000000b0: 1923 31bf 7834 34bf c26b 83bf d884 3dbf
000000c0: ceda 9abf 00de 9abf de1e 80bf f6e3 9dbf
000000d0: b67b abbf a7ca 04bf 021d 29bf b19c 48bf
000000e0: 5548 4bbf 54ae 4dbf 902f 63bf 0fc8 30bf
000000f0: 4952 41bf 03a4 adbf 6996 23bf 2a6d b8bf
00000100: c926 c2bf 0ae9 5dbf 900c 3abf b837 86bf
00000110: ca13 8cbf d3bf 8fbf 9f0e a1be 053c b0bf
00000120: 1a1a 54bf c739 2abf 1418 52bf 6be8 67bf
00000130: ce79 10bf d21a fdbf 78f3 abbf 3ff0 59bf
00000140: 0f6d 91bf 8fbb 58bf 67c4 753e b3b8 85bf
00000150: 08eb 33bf 694b 05be a72a 0abf 61a7 22bf
00000160: cd0e 7bbf 0c89 41bf 8d62 a2bf 5ca4 5bbf
00000170: f57a 86bf 397f 4cbf 5741 58bf 46c4 95bf
00000180: 2f2c e4be ce07 68bf 1c6e 39bf 64da 9c3e
00000190: 6dcd 28c0 4232 91bf f276 80bf 6108 60bf
000001a0: b174 99be a098 48bf fc8d e9bd 6112 4bbf
000001b0: aea5 a3bf 60ec 8abf ccfa 9abf a156 61bf
000001c0: 4b2b d9bf b82b 26bf ba22 51bf 67b3 29bf
000001d0: 9b62 5abf 0017 38bf 5d9c 36bf dc19 73bf
000001e0: 5137 cabe 9f98 32bf a0d1 96bf 7fa3 2bbf
000001f0: 7e24 35bf cae2 5dbf 4134 49bf 2b22 57bf
00000200: 3090 40bf d7dc 7abf b11d 4cbf a051 43bf
00000210: cf14 82bf 9549 34bf c6c6 bbbf cf31 20bf
00000220: b9b9 b2bf 2d47 bdbf abfc 89bf 9d0c 09bf
00000230: 35d7 7dbf e3b3 c9bf d1b6 40bf 58e6 33bf
00000240: e109 9abf a54c 9cbf 935e 55bf 6a4e 57bf
00000250: b90d 6bbf d7ee 23bf 5567 d8bf b31c 90bf
00000260: 52c9 89bf cda4 57bf 96c1 91bf 908a 67bf
00000270: 4210 7abf 7856 3bbf 2025 32bf ff2b d1be
00000280: 9fc4 dbbf 47d7 2fbf ed2c b2bf b50c 96bf
00000290: 38e5 38bf 5908 8abf 1cb4 81bf 5a1c 5dbf
000002a0: f67d 5fbf 25ee 86bf 065a 82bf fe38 4ebf
000002b0: 1f77 dcbf d036 34bf da13 54bf 9a3a 59bf
000002c0: 46a6 1abf a193 7dbf 6529 23bf 828e a4bf
000002d0: e7cc 70bf 48f3 a7bf c3a1 9cbf 97fa 66bf
000002e0: 54a8 a9bf fa79 50bf 7dbb 1abe 8e37 1ebf
000002f0: 28a6 3fbf e7dc 48bf f9d7 2abf 1cd2 26bf
00000300: d274 2ebf eac4 56bf 74bb 78bf a635 a4bf
00000310: 8074 37bf 6e79 1fbf bc0b 59bf b34b 62bf
00000320: c4f9 56bf 1b72 54bf d8c2 efbe a285 69bf
00000330: 89e0 6fbf 333a 3fbf 10eb 05bf cdb1 55bf
00000340: 6922 1fbf 95b5 06bf c769 44bf b8cd 79bf
00000350: de2b 39bf 658e 64bf aaf0 7cbf d993 2cbf
00000360: d756 83bf ef5c dabf 61ad 1bbf eedb bfbf
00000370: ed91 68bf dadc 89bf 7f56 4abf 22e3 a1bf
00000380: 3713 82bf b4a1 83bf 056c 99bf ffff e9be
00000390: 7737 89bf 342b 7cbf 1b0c 33bf 06ec 81bf
000003a0: ec73 57bf 79ca 4dbf da79 5cbf cef1 19bf
000003b0: 1772 73bf aea9 18bf 273c 4bbf a991 3bbf
000003c0: caaf 64bf 444d c2bf 42c2 90bf 2e3d 67bf
000003d0: b150 44bf a136 46bf e555 d3be ef40 03bf
000003e0: 372f 98bf 973b 2bbf f8cc 34bf 5b65 02bf
000003f0: 5a0b 15bf 4375 b73c 225b 5bbf 0a44 83bf
